logs/4birds_CF_combined_log_linear_gru64/2025-05-19_15-50-04/best_4birds_CF_combined_log_linear_gru64.pth (torch, 456648 bytes, 199 tensors)

combined_log_linear_spec.filter_bank f4 [64, 513]
0	0x00000000	0.0
1	0x00000000	0.0
2	0x00000000	0.0
3	0x00000000	0.0
4	0x00000000	0.0
5	0x00000000	0.0
6	0x00000000	0.0
7	0x00000000	0.0
8	0x00000000	0.0
9	0x00000000	0.0
10	0x00000000	0.0
11	0x00000000	0.0
12	0x00000000	0.0
13	0x00000000	0.0
14	0x00000000	0.0
15	0x00000000	0.0
16	0x00000000	0.0
17	0x00000000	0.0
18	0x00000000	0.0
19	0x00000000	0.0
20	0x00000000	0.0
21	0x00000000	0.0
22	0x00000000	0.0
23	0x00000000	0.0
24	0x00000000	0.0
25	0x00000000	0.0
26	0x00000000	0.0
27	0x00000000	0.0
28	0x00000000	0.0
29	0x00000000	0.0
30	0x00000000	0.0
31	0x00000000	0.0
32	0x00000000	0.0
33	0x00000000	0.0
34	0x00000000	0.0
35	0x00000000	0.0
36	0x00000000	0.0
37	0x00000000	0.0
38	0x00000000	0.0
39	0x00000000	0.0
40	0x00000000	0.0
41	0x00000000	0.0
42	0x00000000	0.0
43	0x00000000	0.0
44	0x00000000	0.0
45	0x00000000	0.0
46	0x00000000	0.0
47	0x00000000	0.0
48	0x00000000	0.0
49	0x00000000	0.0
50	0x00000000	0.0
51	0x00000000	0.0
52	0x00000000	0.0
53	0x00000000	0.0
54	0x00000000	0.0
55	0x00000000	0.0
56	0x00000000	0.0
57	0x00000000	0.0
58	0x00000000	0.0
59	0x00000000	0.0
60	0x00000000	0.0
61	0x00000000	0.0
62	0x00000000	0.0
63	0x00000000	0.0
64	0x00000000	0.0
65	0x00000000	0.0
66	0x00000000	0.0
67	0x00000000	0.0
68	0x00000000	0.0
69	0x00000000	0.0
70	0x00000000	0.0
71	0x00000000	0.0
72	0x00000000	0.0
73	0x00000000	0.0
74	0x00000000	0.0
75	0x00000000	0.0
76	0x00000000	0.0
77	0x00000000	0.0
78	0x00000000	0.0
79	0x00000000	0.0
80	0x00000000	0.0
81	0x00000000	0.0
82	0x00000000	0.0
83	0x00000000	0.0
84	0x00000000	0.0
85	0x00000000	0.0
86	0x00000000	0.0
87	0x00000000	0.0
88	0x00000000	0.0
89	0x00000000	0.0
90	0x00000000	0.0
91	0x00000000	0.0
92	0x00000000	0.0
93	0x00000000	0.0
94	0x00000000	0.0
95	0x00000000	0.0
96	0x00000000	0.0
97	0x00000000	0.0
98	0x00000000	0.0
99	0x00000000	0.0
100	0x00000000	0.0
101	0x00000000	0.0
102	0x00000000	0.0
103	0x00000000	0.0
104	0x00000000	0.0
105	0x00000000	0.0
106	0x00000000	0.0
107	0x00000000	0.0
108	0x00000000	0.0
109	0x00000000	0.0
110	0x00000000	0.0
111	0x00000000	0.0
112	0x00000000	0.0
113	0x00000000	0.0
114	0x00000000	0.0
115	0x00000000	0.0
116	0x00000000	0.0
117	0x00000000	0.0
118	0x00000000	0.0
119	0x00000000	0.0
120	0x00000000	0.0
121	0x00000000	0.0
122	0x00000000	0.0
123	0x00000000	0.0
124	0x00000000	0.0
125	0x00000000	0.0
126	0x00000000	0.0
127	0x00000000	0.0
128	0x00000000	0.0
129	0x00000000	0.0
130	0x00000000	0.0
131	0x00000000	0.0
132	0x00000000	0.0
133	0x00000000	0.0
134	0x00000000	0.0
135	0x00000000	0.0
136	0x00000000	0.0
137	0x00000000	0.0
138	0x00000000	0.0
139	0x00000000	0.0
140	0x00000000	0.0
141	0x00000000	0.0
142	0x00000000	0.0
143	0x00000000	0.0
144	0x00000000	0.0
145	0x00000000	0.0
146	0x00000000	0.0
147	0x00000000	0.0
148	0x00000000	0.0
149	0x00000000	0.0
150	0x00000000	0.0
151	0x00000000	0.0
152	0x00000000	0.0
153	0x00000000	0.0
154	0x00000000	0.0
155	0x00000000	0.0
156	0x00000000	0.0
157	0x00000000	0.0
158	0x00000000	0.0
159	0x00000000	0.0
160	0x00000000	0.0
161	0x00000000	0.0
162	0x00000000	0.0
163	0x00000000	0.0
164	0x00000000	0.0
165	0x00000000	0.0
166	0x00000000	0.0
167	0x00000000	0.0
168	0x00000000	0.0
169	0x00000000	0.0
170	0x00000000	0.0
171	0x00000000	0.0
172	0x00000000	0.0
173	0x00000000	0.0
174	0x00000000	0.0
175	0x00000000	0.0
176	0x00000000	0.0
177	0x00000000	0.0
178	0x00000000	0.0
179	0x00000000	0.0
180	0x00000000	0.0
181	0x00000000	0.0
182	0x00000000	0.0
183	0x00000000	0.0
184	0x00000000	0.0
185	0x00000000	0.0
186	0x00000000	0.0
187	0x00000000	0.0
188	0x00000000	0.0
189	0x00000000	0.0
190	0x00000000	0.0
191	0x00000000	0.0
192	0x00000000	0.0
193	0x00000000	0.0
194	0x00000000	0.0
195	0x00000000	0.0
196	0x00000000	0.0
197	0x00000000	0.0
198	0x00000000	0.0
199	0x00000000	0.0
200	0x00000000	0.0
201	0x00000000	0.0
202	0x00000000	0.0
203	0x00000000	0.0
204	0x00000000	0.0
205	0x00000000	0.0
206	0x00000000	0.0
207	0x00000000	0.0
208	0x00000000	0.0
209	0x00000000	0.0
210	0x00000000	0.0
211	0x00000000	0.0
212	0x00000000	0.0
213	0x00000000	0.0
214	0x00000000	0.0
215	0x00000000	0.0
216	0x00000000	0.0
217	0x00000000	0.0
218	0x00000000	0.0
219	0x00000000	0.0
220	0x00000000	0.0
221	0x00000000	0.0
222	0x00000000	0.0
223	0x00000000	0.0
224	0x00000000	0.0
225	0x00000000	0.0
226	0x00000000	0.0
227	0x00000000	0.0
228	0x00000000	0.0
229	0x00000000	0.0
230	0x00000000	0.0
231	0x00000000	0.0
232	0x00000000	0.0
233	0x00000000	0.0
234	0x00000000	0.0
235	0x00000000	0.0
236	0x00000000	0.0
237	0x00000000	0.0
238	0x00000000	0.0
239	0x00000000	0.0
240	0x00000000	0.0
241	0x00000000	0.0
242	0x00000000	0.0
243	0x00000000	0.0
244	0x00000000	0.0
245	0x00000000	0.0
246	0x00000000	0.0
247	0x00000000	0.0
248	0x00000000	0.0
249	0x00000000	0.0
250	0x00000000	0.0
251	0x00000000	0.0
252	0x00000000	0.0
253	0x00000000	0.0
254	0x00000000	0.0
255	0x00000000	0.0

phi.initial_conv_module.0._layers.0.conv.weight f4 [64, 64, 1]
0	0x3cc65274	0.024209239
1	0x3d04ac39	0.032390807
2	0xbdce1320	-0.100622416
3	0x3d32068d	0.04346328
4	0xbdca315a	-0.09872694
5	0xbd3cec2b	-0.046123665
6	0xbe075d0d	-0.1321909
7	0x3b06aacf	0.0020548587
8	0x3d1f0d42	0.038831003
9	0xbe26f247	-0.16303359
10	0x3d18bb29	0.037287865
11	0xbd44699a	-0.047952272
12	0x3cabfabf	0.020993588
13	0xbd5ee4bc	-0.054417357
14	0xbc3587de	-0.011079757
15	0xbdb640f1	-0.08899105
16	0x3cccd1f5	0.025002459
17	0xbd588e8b	-0.052870315
18	0xbe04cd34	-0.12968904
19	0xbd21bcb2	-0.039486594
20	0xbe040537	-0.12892614
21	0xbdb0219f	-0.08600163
22	0xbdfa11bb	-0.12210413
23	0x3c3d7af4	0.011564959
24	0xbe2e149c	-0.1700005
25	0xbe040e2f	-0.12896036
26	0xbdda628a	-0.10663326
27	0xbe1601dc	-0.14649147
28	0xbd73e7cf	-0.05954724
29	0xbe47754f	-0.19478343
30	0x3d2a1755	0.041526157
31	0xbe35c5ea	-0.1775128
32	0x3ccdfd1b	0.025145104
33	0xbd4f07be	-0.050544493
34	0xbde537fe	-0.1119232
35	0x3bc0ef84	0.0058879275
36	0xbd5470aa	-0.051865257
37	0x3cf2c768	0.0296361
38	0xbd6c427c	-0.057680592
39	0xbde2d48a	-0.11075695
40	0xbd1aae0f	-0.03776365
41	0xbdd78524	-0.105234414
42	0xbc998f1e	-0.018745001
43	0x3d24d375	0.040240724
44	0x3a6c7aed	0.0009021003
45	0xbe010112	-0.12598065
46	0x3a526f19	0.0008027419
47	0xbd48a0a4	-0.048981324
48	0xbc0103cf	-0.007874443
49	0xbe170f96	-0.1475204
50	0xbe47be53	-0.19506197
51	0xbdf50052	-0.11962952
52	0xbe2b3866	-0.16720733
53	0x3cffa72e	0.031207647
54	0xbd10c672	-0.035345502
55	0xbca05c65	-0.019575307
56	0xbd0252c3	-0.03181721
57	0xbd969093	-0.07351794
58	0x3cd8d22e	0.026467409
59	0xbe23fcfd	-0.16014476
60	0xbd81fe9f	-0.06347393
61	0xbe206878	-0.15664852
62	0xbd065f53	-0.032805752
63	0xbd10e773	-0.035376977
64	0xbc22ff92	-0.009948628
65	0xbd9821f9	-0.07428355
66	0x3d62f930	0.055413425
67	0xbdfa83b6	-0.12232153
68	0xbdfb75d2	-0.12278332
69	0xbdfb782c	-0.1227878
70	0x3d836979	0.06416602
71	0xbbd81a72	-0.0065949494
72	0x3d937cf7	0.072015695
73	0xbe1b04f4	-0.15138608
74	0xbe30581d	-0.17221113
75	0xbe1586eb	-0.14602248
76	0xbe077dab	-0.13231532
77	0x3b1bd2a3	0.0023776672
78	0xbb64de8c	-0.0034922687
79	0x3d63c1ee	0.055604868
80	0xbde6fd5e	-0.11278795
81	0xbe08a53b	-0.1334428
82	0x3c93ffbb	0.018066278
83	0xbdca43dd	-0.09876225
84	0x3ce22bf2	0.027608845
85	0xbd9f8b65	-0.07790259
86	0x3cbe7535	0.023249248
87	0xbe14d61c	-0.14534801
88	0xbde3f9c6	-0.11131625
89	0xbc2626b4	-0.0101410635
90	0xbcb2c59e	-0.021822747
91	0xbda4106b	-0.08010944
92	0x3cd70e8b	0.026252052
93	0x3d16667e	0.036718838
94	0xbe0e34fe	-0.13887402
95	0xbdeb746c	-0.11496815
96	0x3d878ffb	0.06619259
97	0xbdb92c5b	-0.09041663
98	0xbdbd8bcf	-0.09255182
99	0xbe2d3c71	-0.16917588
100	0xbdf5631c	-0.11981794
101	0xbc8b75f0	-0.01702401
102	0xbd8496dc	-0.06474087
103	0xbe0e4c57	-0.13896309
104	0xbd399a0f	-0.045312937
105	0xbe08d21b	-0.13361399
106	0xbe1dfa87	-0.154276
107	0xbdefc0f8	-0.11706728
108	0xbe216937	-0.15762793
109	0xbe02e425	-0.12782343
110	0x3d9d0cfb	0.076684915
111	0xbcc9d78d	-0.024638915
112	0xbc1f6dba	-0.009730751
113	0xbe28c481	-0.1648121
114	0xbe057472	-0.13032702
115	0xbdb8006f	-0.08984458
116	0xbceb1ef1	-0.028701277
117	0xbe220387	-0.15821658
118	0xbdd1175c	-0.102095336
119	0xbdfc0a8a	-0.12306698
120	0xbd443108	-0.047898322
121	0xbdc20c54	-0.09475008
122	0xbd691534	-0.056904987
123	0xbe081f7e	-0.13293263
124	0xbe093eab	-0.13402812
125	0xbdf8225a	-0.12115927
126	0xbdba6b25	-0.091024674
127	0xbcf019c8	-0.029309168
128	0x3df1c496	0.11805074
129	0xbc3d1cf4	-0.0115425475
130	0x3df76190	0.120791554
131	0x3d55d22d	0.052202392
132	0xbdbd954e	-0.09256993
133	0x3dcc4a26	0.0997508
134	0xbcad1135	-0.021126369
135	0xbd0de997	-0.034646597
136	0xbdb94dac	-0.09048018
137	0xbde34cfc	-0.11098668
138	0x3d48c858	0.049019188
139	0xbc66069f	-0.0140396645
140	0x3d7d9e34	0.061918452
141	0xbdb6e572	-0.08930482
142	0x3dd92fde	0.10604833
143	0xbda0bb44	-0.07848218
144	0xbc084df4	-0.008319367
145	0x3d213e15	0.039365847
146	0x3d9f4d10	0.077783704
147	0x3de9cab1	0.114156134
148	0x3e02299a	0.12711182
149	0xbdafcbd7	-0.08583801
150	0x3d37268a	0.044714488
151	0xbd25dee3	-0.040495764
152	0xb9e3ce88	-0.00043450692
153	0xbda46d0d	-0.08028612
154	0x3e02264e	0.12709925
155	0xbda0b480	-0.07846928
156	0x3da3f5b5	0.08005849
157	0x3d6a39d0	0.05718404
158	0x3d5caadb	0.053873878
159	0xbd5e729e	-0.054308526
160	0x3e01e7ce	0.12686083
161	0x3d26d00b	0.04072575
162	0x3cf057d9	0.029338764
163	0xbdc666d5	-0.096875824
164	0x3d869b66	0.06572609
165	0xbbb3d6e8	-0.0054882653
166	0xbd343400	-0.043994904
167	0x3df70285	0.120610274
168	0x3d287331	0.04112548
169	0xbd64e9df	-0.0558871
170	0xbd4cc847	-0.049995687
171	0x3beef908	0.0072928704
172	0x3daa1491	0.08304704
173	0xbc98fd05	-0.018675337
174	0xbd6dc4da	-0.05804906
175	0xbcf1f869	-0.029537397
176	0xbda41057	-0.08010929
177	0x3d6ce256	0.05783304
178	0x3de146bf	0.10999822
179	0xbdd5ce22	-0.10439707
180	0x3d2d3629	0.04228798
181	0x3d9f6358	0.0778262
182	0x3d132535	0.035924155
183	0xbcfffa7a	-0.031247366
184	0x3da0c1f6	0.07849495
185	0x3da1abfa	0.0789413
186	0x3d75bc95	0.0599943
187	0xbc0e8baa	-0.008700291
188	0xbca27a1f	-0.019833623
189	0x3cda2ad9	0.02663176
190	0xbc10748b	-0.0088168485
191	0xbd56d3fb	-0.052448254
192	0x3d3b2fda	0.04569993
193	0x3d95f353	0.07321801
194	0xbd3eb77c	-0.046561703
195	0xbd7ea769	-0.062171374
196	0xbd049146	-0.032365106
197	0xbd2a9a79	-0.041651223
198	0xbb87bbef	-0.0041422765
199	0x3a5ad7c6	0.0008348193
200	0xbe173f35	-0.14770205
201	0xbda47a15	-0.08031098
202	0x3d9187bf	0.0710597
203	0x3c6d878b	0.014497648
204	0xbd257fc8	-0.040405065
205	0xbde056a7	-0.109540276
206	0xbde29dd3	-0.11065259
207	0xbe15a5f1	-0.14614083
208	0xbd99738d	-0.07492743
209	0x3c035c2d	0.008017582
210	0x3d3a6013	0.04550178
211	0x3cc09fb5	0.023513654
212	0xbe142285	-0.14466293
213	0xbddff18d	-0.10934744
214	0xbd5cd3f4	-0.05391307
215	0x3db19400	0.08670807
216	0xbc83f853	-0.016109621
217	0xbd884df3	-0.06655493
218	0x3c8f7fe7	0.017517043
219	0xbda7821f	-0.081791155
220	0xbdebb067	-0.115082555
221	0x3d699c6c	0.05703394
222	0xbdba67c1	-0.09101821
223	0xbd72a8ef	-0.05924314
224	0xbe225345	-0.15852077
225	0x3d4a9404	0.049457565
226	0x3d77d077	0.060501542
227	0x3c3a201c	0.0113601945
228	0xbdf87d57	-0.12133282
229	0xbe21518d	-0.15753765
230	0xbe0af318	-0.13569295
231	0x3d71b4dc	0.05901037
232	0x3cd378e1	0.025814475
233	0x3d915ecb	0.070981584
234	0x3d0023de	0.031284206
235	0xbb279978	-0.0025573652
236	0xbd110cfc	-0.035412773
237	0xbe0455f9	-0.12923421
238	0xbe10a829	-0.14126648
239	0xbe1ab6f9	-0.15108861
240	0x3c8b0ad5	0.016972939
241	0xbdc3b048	-0.09555107
242	0xbd730feb	-0.059341352
243	0xbdd9538f	-0.10611641
244	0xbd695253	-0.056963276
245	0xbdfa2b39	-0.12215275
246	0xbded4407	-0.11585241
247	0x3bee2c85	0.0072684907
248	0xbd9216bb	-0.07133242
249	0x3d2ffe53	0.04296715
250	0xbd9821d3	-0.074283265
251	0xbe00e39b	-0.12586825
252	0xbd665c41	-0.056240324
253	0xbdc218a0	-0.09477353
254	0xbd9453b2	-0.07242526
255	0xbe0d38a2	-0.13791135

phi.initial_conv_module.0._layers.1.weight f4 [64]
0	0x3f721f56	0.94579065
1	0x3f7bd216	0.9836744
2	0x3f79a28a	0.9751364
3	0x3f809ed3	1.0048469
4	0x3f91baab	1.1385092
5	0x3f7f569f	0.9974155
6	0x3f7c1272	0.98465645
7	0x3f7d6ecf	0.98997205
8	0x3f891d87	1.0712136
9	0x3f80b61d	1.0055577
10	0x3f8368de	1.0266378
11	0x3f8018cf	1.0007571
12	0x3f88f4f8	1.0699759
13	0x3f779c31	0.96722704
14	0x3f96bbd4	1.177607
15	0x3f783f60	0.969717
16	0x3f848009	1.0351573
17	0x3f87da84	1.0613561
18	0x3f77fda7	0.9687142
19	0x3f8ec9e2	1.115536
20	0x3f7308ab	0.949351
21	0x3f899088	1.0747232
22	0x3f849038	1.0356512
23	0x3f8e9d31	1.1141721
24	0x3f8a43fb	1.0801996
25	0x3f7e5125	0.99342567
26	0x3f7ef287	0.9958882
27	0x3f6c588f	0.9232263
28	0x3f84217c	1.0322719
29	0x3f7f272e	0.9966916
30	0x3f6fb31d	0.9363268
31	0x3f89adc6	1.0756156
32	0x3f8284d7	1.019679
33	0x3f7901fe	0.97268665
34	0x3f70a843	0.94006747
35	0x3f89d8ff	1.0769347
36	0x3f88f481	1.0699617
37	0x3f857ea9	1.0429279
38	0x3f7034df	0.93830675
39	0x3f828715	1.0197474
40	0x3f5b2854	0.8560841
41	0x3f786f97	0.9704527
42	0x3f69bb4a	0.91301405
43	0x3f8be05e	1.0927846
44	0x3f765d9a	0.96236575
45	0x3f820799	1.0158569
46	0x3f967db3	1.175711
47	0x3f7f44c7	0.9971432
48	0x3f80a82b	1.0051321
49	0x3f89dc88	1.0770426
50	0x3f8385ee	1.0275247
51	0x3f89a755	1.0754191
52	0x3f83efa1	1.0307504
53	0x3f81ce79	1.0141135
54	0x3f88291a	1.0637543
55	0x3f7d49ef	0.9894094
56	0x3f8bcc53	1.092173
57	0x3f92e18e	1.1475084
58	0x3f918a4e	1.1370332
59	0x3f818b58	1.0120649
60	0x3f79e699	0.9761749
61	0x3f88d83a	1.0690987
62	0x3f790008	0.9726567
63	0x3f7903fe	0.97271717

phi.initial_conv_module.0._layers.1.bias f4 [64]
0	0xbd8be536	-0.06830828
1	0x3d7278aa	0.059197105
2	0xbc96df14	-0.018416919
3	0x3d8bf9a0	0.068347216
4	0xbdab7133	-0.083712004
5	0xbd6c742d	-0.05772798
6	0xbdd5b321	-0.10434557
7	0x3dfa8afd	0.12233541
8	0x3d16551d	0.036702264
9	0x3c93bb44	0.018033631
10	0x3db6d8e1	0.08928085
11	0xba1a1ac4	-0.0005878622
12	0xbc0fd139	-0.00877791
13	0xbcf9e4a5	-0.030504534
14	0xbda51f56	-0.080626175
15	0x3cd1d651	0.02561489
16	0xbdd42ac4	-0.103597194
17	0x3dcba545	0.09943632
18	0xbc6fc8ad	-0.014635247
19	0xbe133538	-0.1437577
20	0xbc5e640b	-0.013573657
21	0x3d3bb160	0.045823455
22	0xbd705bb7	-0.058681216
23	0xbd0ed094	-0.034866884
24	0xbb64d716	-0.003491824
25	0xbd89f778	-0.06736654
26	0xbdce416e	-0.100710735
27	0xbccdc159	-0.02511661
28	0xbc16dd87	-0.00920809
29	0xbd574458	-0.052555412
30	0x3d5a7251	0.053331677
31	0xbd6d87cf	-0.057990845
32	0x3c9c31b6	0.019066673
33	0x3d8874c8	0.06662899
34	0x3e18d2f4	0.14924222
35	0xbd14aaf4	-0.036295846
36	0xbd9ace18	-0.075588405
37	0x3d4512f9	0.048113797
38	0xbbee6289	-0.00727493
39	0xbda40c64	-0.08010176
40	0xbcabda0c	-0.020977996
41	0xbd2056cb	-0.039145272
42	0xbc53646b	-0.0129023595
43	0x3cb46942	0.022022847
44	0xbccd96fd	-0.02509641
45	0xbdb1ce5b	-0.08681937
46	0xbdb7f0c7	-0.089814715
47	0x3c270047	0.010192937
48	0x3d45373c	0.04814838
49	0xbd7b3bfc	-0.061336502
50	0x3d9e6a82	0.077351585
51	0x3d85806a	0.06518634
52	0x3d2b1d6a	0.0417761
53	0xbcc8d8d9	-0.024517464
54	0x3ca0f417	0.019647641
55	0xbd54e06b	-0.051971834
56	0xbcae2751	-0.021258982
57	0xbc75974a	-0.014989683
58	0x3e036b70	0.12833953
59	0x3c88b413	0.016687429
60	0xbd3318b9	-0.04372475
61	0xbdc1fd2f	-0.09472119
62	0xbcd7423b	-0.026276698
63	0x3db55f0b	0.08856019

phi.initial_conv_module.0._layers.1.running_mean f4 [64]
0	0x3e472f92	0.1945174
1	0x3ea9c63c	0.33159053
2	0xbf07a575	-0.5298684
3	0xbf39486c	-0.7237613
4	0x3f36b47b	0.7136914
5	0x3f8e320b	1.1109022
6	0xbeb57c4d	-0.35446396
7	0xbea09b7f	-0.31368634
8	0xbf6170cf	-0.8806276
9	0xbeecefc4	-0.46276677
10	0xbdec4de4	-0.11538294
11	0xbf953287	-1.1656045
12	0xbf37ef45	-0.7184947
13	0xbe21d4c0	-0.15803814
14	0x3eb02e92	0.3441053
15	0xbe9d523b	-0.307268
16	0x3f4e24de	0.80525005
17	0x3f0c52ba	0.5481373
18	0x3f73be0a	0.9521185
19	0x3eeb988e	0.46014827
20	0x3edf997b	0.43671784
21	0x3e8ee8eb	0.27912077
22	0x3eb27d2d	0.34861127
23	0xbf9d97a5	-1.2311903
24	0x3f0fc1a9	0.56154877
25	0x3f4ac285	0.79203063
26	0xbdc3ecbd	-0.095666386
27	0xbf32a56c	-0.69783664
28	0x3fa12d02	1.259186
29	0x3f2563b3	0.64605254
30	0x3f5d11ea	0.8635546
31	0x3ef3ca3e	0.47615236
32	0x3e206d2f	0.1566665
33	0xbd4ecbf2	-0.050487466
34	0xbf6fe86b	-0.93714017
35	0x3e9454fa	0.28971082
36	0x3e0a18f1	0.13486077
37	0xbfb3141b	-1.3990511
38	0x3ee3f29a	0.44521028
39	0x3ec7004f	0.38867423
40	0xbeb2cdec	-0.3492273
41	0x3f0def25	0.5544303
42	0xbe7fd075	-0.24981864
43	0x3ea70ad5	0.32625452
44	0xbec55e6d	-0.38548604
45	0x3f241ab1	0.6410323
46	0x3fbd6e46	1.4799278
47	0x3f1ca2b4	0.61185765
48	0xbf2b3b17	-0.6688704
49	0x3f07ff84	0.5312426
50	0xbfd5bdd5	-1.6698557
51	0x3dacc847	0.08436637
52	0xbea5d1ef	-0.3238673
53	0x3dee9dc9	0.11651189
54	0xbea36089	-0.31909588
55	0x3f87384e	1.0564058
56	0x3e9866af	0.2976584
57	0xbea06dab	-0.3133367
58	0x3f547b32	0.8300048
59	0xbf25ed4a	-0.648152
60	0xbeb14f28	-0.34630704
61	0x3bb2e0bb	0.005458919
62	0xbeae2522	-0.34012705
63	0x3e8b6d3d	0.2723178

phi.initial_conv_module.0._layers.1.running_var f4 [64]
0	0x39f8b2cb	0.00047435457
1	0x39b0412f	0.00033617901
2	0x3a8971b4	0.0010486157
3	0x3beab252	0.0071623707
4	0x394033cd	0.00018329844
5	0x3a041fb4	0.00050401245
6	0x392da237	0.00016558995
7	0x3af6c5ab	0.001882722
8	0x3b95ce95	0.0045717456
9	0x3af07f7c	0.001834854
10	0x3afaf62d	0.0019146852
11	0x3b8057b8	0.003916707
12	0x3b360593	0.0027774319
13	0x39267898	0.00015875918
14	0x3a7c280d	0.0009619005
15	0x3a5d058e	0.00084313087
16	0x3a5fc861	0.00085366337
17	0x3b37cdf8	0.002804635
18	0x3b1d97da	0.002404681
19	0x3b434130	0.0029793493
20	0x3ae387e1	0.0017359221
21	0x388b5ee1	6.645709e-05
22	0x3adec0dd	0.0016994734
23	0x3c0766ea	0.008264283
24	0x3a9bb64b	0.0011879889
25	0x3a196e8e	0.0005852961
26	0x3aa1dead	0.0012349688
27	0x3b38a837	0.0028176436
28	0x3ac25a2a	0.0014827896
29	0x388cd6d3	6.715734e-05
30	0x3b110228	0.002212653
31	0x3b0539f9	0.0020328744
32	0x39346788	0.00017204706
33	0x3add4620	0.0016881861
34	0x3c136b73	0.008997786
35	0x3b24b273	0.0025130778
36	0x3b1113a9	0.0022136963
37	0x3c12ffcf	0.008972122
38	0x39d89187	0.00041307157
39	0x3a2b415a	0.00065328705
40	0x37307a61	1.0518911e-05
41	0x3a4c374c	0.00077902223
42	0x39450aa5	0.0001879135
43	0x3a5eb34a	0.0008495344
44	0x39965b36	0.00028678187
45	0x3aea2248	0.0017863
46	0x3bb8ad89	0.0056359214
47	0x3b4b0237	0.0030976662
48	0x37df9b93	2.6656116e-05
49	0x39dfe406	0.00042703765
50	0x3be936a1	0.007117108
51	0x3ae90049	0.0017776574
52	0x3a8a9c90	0.0010575224
53	0x3a0ad7f1	0.000529646
54	0x3acaa414	0.0015460276
55	0x3b9c17d6	0.0047635837
56	0x3a91b65b	0.0011116968
57	0x3a68e522	0.0008884241
58	0x3aa3c166	0.001249355
59	0x3a0678e3	0.0005129708
60	0x3b48a853	0.0030617907
61	0x3a61bf76	0.0008611599
62	0x3a1714e2	0.00057633047
63	0x38d4891d	0.00010134487

phi.initial_conv_module.0._layers.4.conv.weight f4 [64, 1, 5]
0	0xbea8211e	-0.32837766
1	0x3eb1901b	0.34680256
2	0x3e9de3af	0.3083777
3	0x3e82a525	0.2551662
4	0xbe7fdc41	-0.24986364
5	0x3eaa335c	0.3324231
6	0xbea1c5a0	-0.31596088
7	0x3e7e1942	0.24814323
8	0xbdb631b0	-0.08896196
9	0xbec321d8	-0.38111758
10	0xbecae213	-0.39625606
11	0xbeb27706	-0.34856433
12	0xbbb28317	-0.005447756
13	0xbe7d1aa2	-0.24717191
14	0xbe63131a	-0.22175255
15	0x3ee9c6eb	0.45659575
16	0xbe4ac5c2	-0.19802001
17	0x3e099437	0.13435446
18	0xbd97e492	-0.07416643
19	0x3e5727b8	0.21011245
20	0x3e252450	0.16127133
21	0x3ea86b9e	0.32894605
22	0x3e3be0bf	0.18347453
23	0xbca39905	-0.019970426
24	0x3edde9d9	0.43342474
25	0xbce7bda8	-0.028288677
26	0xbe87dac4	-0.26534092
27	0x3e18cc5c	0.14921707
28	0xbdab58b9	-0.08366532
29	0xbedaadfb	-0.42710862
30	0x3da04bd4	0.07826963
31	0xbd960bcd	-0.073264696
32	0xbe0850c2	-0.13312057
33	0xbe0f9a49	-0.14023699
34	0xbe25ebee	-0.16203281
35	0xbe92c7b6	-0.28667992
36	0xbd87caed	-0.06630502
37	0x3eb4f0d1	0.35339978
38	0xbeabd9b9	-0.33564547
39	0xbe8e0d29	-0.27744415
40	0xbe8d0b33	-0.27547607
41	0x3d607e1c	0.054807767
42	0x3b654555	0.0034983952
43	0xbec896e5	-0.39177623
44	0x3e35d500	0.17757034
45	0xbebbf40f	-0.3670964
46	0x3ee4f70e	0.44719738
47	0x3ddc1b77	0.10747426
48	0xbd0b35c2	-0.033986814
49	0xbe1cb1e4	-0.15302235
50	0x3e64f7cb	0.2236015
51	0x3eb84e6d	0.35997334
52	0xbea5a403	-0.32351694
53	0xbdeb16ec	-0.114789814
54	0x3e8c4d98	0.2740295
55	0xbdcbe1be	-0.09955166
56	0xbe970829	-0.29498413
57	0xbe0626ea	-0.13100782
58	0xbc344da8	-0.011004843
59	0xbe0e3146	-0.13885984
60	0xbe8f419f	-0.27979752
61	0xbe67e68a	-0.22646537
62	0x3e3240ce	0.17407534
63	0x3ec1a737	0.37822887
64	0x3ee86b7b	0.453945
65	0xbd5e74b5	-0.05431052
66	0x3e1dcf28	0.15411055
67	0xbecc49aa	-0.3989995
68	0x3e418e35	0.18901904
69	0x3ec4de00	0.38450623
70	0x3e7650b1	0.24054219
71	0xbe1c99f4	-0.15293103
72	0x3ebc034b	0.36721262
73	0xbee90211	-0.4550939
74	0xbd8e8fc7	-0.06961017
75	0xbe1743ea	-0.14772001
76	0xbf055c1f	-0.5209369
77	0xbe54d5a7	-0.20784627
78	0xbe905617	-0.2819068
79	0x3dfc45d0	0.12318003
80	0x3cedfc86	0.029051077
81	0x3e87b1c8	0.26502824
82	0xbda52775	-0.080641665
83	0x3e9ea6f8	0.30986762
84	0x3cb8beeb	0.022551974
85	0x3eace881	0.33771136
86	0x3ea5272c	0.32256448
87	0xbee14fc2	-0.44006163
88	0xbec3644f	-0.38162467
89	0x3e5b2738	0.2140168
90	0x3ef081a8	0.4697392
91	0xbeb689c4	-0.35651982
92	0x3d2bda43	0.041956197
93	0xbe4cdab3	-0.20005302
94	0x3ec3b7e2	0.3822623
95	0x3ec3ec94	0.38266432
96	0x3e8c35e6	0.2738487
97	0x3e6f2be5	0.23356588
98	0xbc97edc0	-0.018545985
99	0x3eedf029	0.4647229
100	0xbd98f8c6	-0.07469325
101	0x3e396270	0.18103957
102	0xbdede504	-0.11615947
103	0xbed5dc52	-0.41769654
104	0xbe29fca5	-0.16600282
105	0x3dab6e15	0.08370606
106	0xbd977059	-0.073944755
107	0xbea057fe	-0.31317133
108	0xbe0a221d	-0.13489576
109	0x3c6f0da3	0.014590654
110	0xbea5deb4	-0.32396472
111	0x3e7cf2fd	0.24702068
112	0xbee6f480	-0.45108414
113	0xbe2e3814	-0.1701358
114	0xbee21f04	-0.44164288
115	0xbed097fd	-0.40740958
116	0xbd2996e1	-0.041403655
117	0x3ece13a3	0.40249357
118	0x3ee7b816	0.45257634
119	0x3e272fc9	0.16326822
120	0x3eaa9261	0.33314803
121	0xbe87105e	-0.26379675
122	0x3e71fb18	0.23630941
123	0x3e6e66ea	0.23281446
124	0xbef849a6	-0.4849369
125	0xbeac8dc5	-0.33701912
126	0x3e5314ce	0.20613405
127	0x3cad2251	0.021134527
128	0xbec37ca3	-0.38181028
129	0xbed701e2	-0.41993624
130	0x3e8aa966	0.27082366
131	0xba67a7fe	-0.00088369835
132	0xbd2a31c8	-0.04155138
133	0xbef393ee	-0.475738
134	0x3eca73c8	0.3954146
135	0xbe8d2dfd	-0.2757415
136	0x3e607270	0.21918654
137	0xbd4cd0de	-0.05000388
138	0x3bed7087	0.0072460803
139	0x3e66995e	0.22519442
140	0xbdd0815a	-0.10180922
141	0xbdf75aa8	-0.12077838
142	0x3eca4ffe	0.39514154
143	0xbe931fd3	-0.28735217
144	0x3e76c23a	0.24097529
145	0xbdb257b2	-0.08708133
146	0xbdc10d45	-0.09426359
147	0x3eb66a48	0.3562796
148	0x3e1200c8	0.1425811
149	0xbeba7d3d	-0.36423674
150	0x3ed91299	0.42397
151	0xbe293c3e	-0.16526887
152	0x3ed0549a	0.40689546
153	0xbe35b197	-0.17743526
154	0x3ec6363f	0.3871326
155	0x3e1ad052	0.1511853
156	0xbace4948	-0.0015738392
157	0x3e1c555d	0.15266939
158	0xbd585ba9	-0.05282179
159	0xbe86a793	-0.26299724
160	0x3e7b0f70	0.24517608
161	0x3e8fc741	0.28081706
162	0xbddc9ab7	-0.10771697
163	0x3ead64b6	0.338659
164	0xbda04c8b	-0.078270994
165	0xbe785641	-0.24251653
166	0xbe8196b4	-0.2531029
167	0x3e9f0fbd	0.31066695
168	0xbe1fe2ea	-0.15613905
169	0x3e945221	0.2896891
170	0xbee09dfc	-0.43870533
171	0x3c2abcae	0.010420961
172	0xbe937b44	-0.28804982
173	0x3e34c01a	0.17651406
174	0x3ebe4e49	0.37169102
175	0x3e5dbfc9	0.21655191
176	0xbd3d8e02	-0.046278007
177	0xbebf2767	-0.3733475
178	0xbe97cd09	-0.29648617
179	0xbe7915c0	-0.24324703
180	0x3eb09e02	0.3449555
181	0xbeaefce3	-0.34177312
182	0x3e3d496e	0.18485042
183	0x3eacb608	0.3373263
184	0x3e475cd2	0.19469002
185	0xbeb4bdc4	-0.3530103
186	0xbd805808	-0.06266791
187	0xbde18f32	-0.110136405
188	0x3eb0a1bb	0.3449839
189	0xbc9ab343	-0.018884307
190	0xbe0d8630	-0.1382072
191	0x3ea1154b	0.31461558
192	0xb991a8c7	-0.00027782304
193	0x3dba5b38	0.0909943
194	0xbe804026	-0.2504894
195	0x3ea3b123	0.31971082
196	0x3dcf2165	0.101137914
197	0xbd9e4f30	-0.077299476
198	0x3daff473	0.08591547
199	0xbeb14b5a	-0.346278
200	0x3c7e5eab	0.0155255
201	0x3e549da8	0.20763266
202	0xbed35d29	-0.41282013
203	0xbe720acc	-0.23636931
204	0x3e896d82	0.2684136
205	0xbc023de0	-0.007949322
206	0xbd2de298	-0.042452425
207	0x3d448242	0.047975786
208	0xbe61dacc	-0.2205612
209	0x3ec0b937	0.37641308
210	0x3abb6dce	0.0014299692
211	0xbdba2818	-0.090896785
212	0x3e99519d	0.29945078
213	0xbeb07e89	-0.3447154
214	0xbd122fa3	-0.03568996
215	0x3e0b1845	0.13583477
216	0xbd046837	-0.03232595
217	0x3ea2af22	0.3177424
218	0xbec219eb	-0.379104
219	0xbe102d32	-0.1407974
220	0xbe52bd32	-0.20579985
221	0x3ec7203e	0.38891786
222	0x3e2147bf	0.15750025
223	0xbeb53aff	-0.35396573
224	0x3e1602bf	0.14649485
225	0xbe253b33	-0.16135864
226	0x3ea06475	0.31326643
227	0x3e2ecb57	0.17069755
228	0xbe93bf0b	-0.28856692
229	0x3edd410b	0.43213686
230	0xbe3478d1	-0.17624213
231	0xbe7f9a14	-0.2496112
232	0x3d67ab0e	0.056559615
233	0x3edcd0d9	0.43128088
234	0x3dc07128	0.09396583
235	0xbe9eb0de	-0.30994314
236	0xbdcdb2cf	-0.10043871
237	0x3f01d42c	0.50714374
238	0xbdea85f4	-0.11451331
239	0xbe3c4989	-0.18387426
240	0xbedd0bb0	-0.4317298
241	0xbe8369fa	-0.2566679
242	0xbea635fc	-0.32463062
243	0x3cdf4c60	0.027258098
244	0x3e02033f	0.12696551
245	0x3ecf94d2	0.40543228
246	0x3e7fe7cc	0.24990767
247	0xbbcfcf11	-0.006341823
248	0x3e6cf992	0.23142079
249	0x3e7384b2	0.23781088
250	0xbed95b2e	-0.42452377
251	0x3e19d210	0.15021539
252	0xbeb0932f	-0.34487292
253	0x3ea1d123	0.3160487
254	0xbe65f2be	-0.2245588
255	0x3da25453	0.0792624

phi.initial_conv_module.0._layers.5.weight f4 [64]
0	0x3f80612a	1.0029652
1	0x3f864de7	1.0492524
2	0x3f934bda	1.1507523
3	0x3f68548f	0.90754026
4	0x3f852406	1.0401618
5	0x3f8725f6	1.055846
6	0x3f7ac699	0.97959286
7	0x3f8dc1df	1.107479
8	0x3f8a14f2	1.0787642
9	0x3f7b8289	0.98246056
10	0x3f75be44	0.9599345
11	0x3f86702d	1.0502983
12	0x3f81ec92	1.015032
13	0x3f865228	1.0493822
14	0x3f88fb73	1.0701736
15	0x3f8a7a53	1.081858
16	0x3f74a4b4	0.9556382
17	0x3f8bf22a	1.0933278
18	0x3f7f8294	0.9980862
19	0x3f73d1c5	0.9524196
20	0x3f701cbb	0.9379384
21	0x3f840b48	1.0315943
22	0x3f85e31d	1.0459934
23	0x3f8a2976	1.0793903
24	0x3f8588d9	1.0432388
25	0x3f842a5f	1.0325431
26	0x3f883548	1.064126
27	0x3f7b362e	0.98129547
28	0x3f7928fc	0.9732816
29	0x3f758a5e	0.95914257
30	0x3f7799b8	0.9671893
31	0x3f86eb9a	1.054065
32	0x3f7e425b	0.9932
33	0x3f83f87f	1.031021
34	0x3f6e577e	0.9310225
35	0x3f80f00a	1.0073254
36	0x3f77eb9a	0.96843874
37	0x3f8995bb	1.0748819
38	0x3f76e724	0.9644644
39	0x3f870714	1.0549035
40	0x3f7e99d7	0.9945349
41	0x3f810118	1.0078459
42	0x3f81de7b	1.0146021
43	0x3f897731	1.0739499
44	0x3f7f24ae	0.99665344
45	0x3f774189	0.96584374
46	0x3f861c3a	1.0477364
47	0x3f8b754c	1.0895171
48	0x3f8a82d2	1.0821173
49	0x3f73347c	0.9500196
50	0x3f88b516	1.0680263
51	0x3f8b3af4	1.0877366
52	0x3f7b3dc5	0.9814113
53	0x3f7e1475	0.99249965
54	0x3f865172	1.0493605
55	0x3f748442	0.9551431
56	0x3f8606ab	1.0470785
57	0x3f91f0cd	1.1401612
58	0x3f8ecb06	1.1155708
59	0x3f826dab	1.0189718
60	0x3f7ba106	0.9829258
61	0x3f86a448	1.0518885
62	0x3f772879	0.9654613
63	0x3f839ec0	1.0282822

phi.initial_conv_module.0._layers.5.bias f4 [64]
0	0xbcbb9c6e	-0.02290174
1	0x3d0a0de0	0.03370464
2	0xbc81846f	-0.01581022
3	0xbd91f393	-0.07126536
4	0x3cc965bf	0.02458465
5	0x3d889629	0.06669266
6	0x3caec25a	0.021332908
7	0xbd956695	-0.072949566
8	0x3d2b701f	0.041854974
9	0x3d273ce4	0.040829554
10	0xbdb78487	-0.089608245
11	0xbc8defbb	-0.017326226
12	0xbc1c4ac6	-0.009539312
13	0x3d1185d3	0.035528015
14	0x3e2b90d3	0.16754465
15	0xbd9172b6	-0.071019575
16	0xbcc40eb0	-0.023932785
17	0x3d80a620	0.06281686
18	0xbdad138c	-0.08450994
19	0xbd4b8367	-0.049685862
20	0xbdf03bd4	-0.11730161
21	0xbd3bb3b1	-0.045825664
22	0xbd0caa64	-0.034342185
23	0x3d847089	0.06466777
24	0x3e001e62	0.1251159
25	0x3c8d5ba8	0.01725562
26	0x3ceffaed	0.029294455
27	0x3af35220	0.0018563904
28	0x3d483d9d	0.048886884
29	0xbcef81c4	-0.029236682
30	0xbd4b5c33	-0.049648475
31	0x3ca20de1	0.019782009
32	0xbc4f69b0	-0.012659475
33	0x3d0bf76a	0.0341715
34	0x3d3fe8b0	0.046852767
35	0xbd15fbd2	-0.036617108
36	0xbcd6c79d	-0.02621823
37	0xbc526a81	-0.012842775
38	0xbd9d434b	-0.07678851
39	0x3de59a32	0.11211051
40	0xbc123275	-0.008923163
41	0xbb821003	-0.003969194
42	0x3c0f7eb9	0.00875824
43	0x3d47138d	0.04860263
44	0xbd626e4b	-0.055280965
45	0xbd39019f	-0.04516756
46	0x3dbe2f4c	0.09286365
47	0x3d2fa000	0.042877197
48	0xbcbe3018	-0.023216292
49	0xbd7a5bc8	-0.061122686
50	0xbc86b0f3	-0.016441798
51	0x3e23c171	0.15991761
52	0xbd422f59	-0.047408435
53	0xbc690af4	-0.014223803
54	0x3d2e420c	0.042543456
55	0xbc22f7e1	-0.009946794
56	0x3d381fbe	0.044952147
57	0x3d669a50	0.056299508
58	0x3d980f6e	0.07424818
59	0x3a745da2	0.00093218137
60	0xbc7b1834	-0.015325595
61	0x3d0ff8e8	0.035149485
62	0xbd126cbd	-0.035748232
63	0x3c4a0f55	0.012332757

phi.initial_conv_module.0._layers.5.running_mean f4 [64]
0	0xbb852587	-0.0040633115
1	0xbc6730c0	-0.014110744
2	0xbcad0081	-0.021118404
3	0x3d2583df	0.040408965
4	0xbcbf518d	-0.023354316
5	0x3a867734	0.0010258914
6	0x3c786838	0.015161566
7	0xbd804691	-0.062634595
8	0xbccfec5b	-0.025381258
9	0xb9cf939b	-0.0003959209
10	0x3d0a366f	0.03374332
11	0xbcd2b0a1	-0.025718989
12	0x3cc1e399	0.023668097
13	0x3ac9b876	0.0015390057
14	0xb84e1044	-4.9129376e-05
15	0xbd1a0c8e	-0.03760963
16	0xbc1cfa66	-0.009581184
17	0x3bacf10c	0.0052777585
18	0x3c4c1118	0.012455247
19	0xbc3ca664	-0.01151428
20	0xbc940256	-0.01806752
21	0xbc6b1fcf	-0.0143508455
22	0xbc91a69c	-0.01777964
23	0x3cf5b2ea	0.02999254
24	0x3b1c350a	0.0023835325
25	0x3ba7a286	0.00511581
26	0xbb67baa5	-0.0035359052
27	0x3bd2c71b	0.0064324266
28	0x3b89d250	0.0042059794
29	0x37853ac5	1.5882202e-05
30	0x3d67b3f2	0.056568094
31	0xb8b26507	-8.506519e-05
32	0x3c43dfab	0.011955182
33	0x3b0079fb	0.0019603956
34	0xbc4bd896	-0.012441775
35	0xbce2b6d1	-0.027675064
36	0x3c1eb3a8	0.009686388
37	0xbbfb0951	-0.0076610227
38	0x39d1b322	0.0003999705
39	0xb97f3418	-0.00024338102
40	0x3a7d846a	0.00096709153
41	0x3ae07b5a	0.0017126605
42	0xbae1352f	-0.0017181988
43	0xbc0e8bbd	-0.008700308
44	0x398038c9	0.0002445637
45	0xb97e4511	-0.00024249057
46	0x3b3d0e2a	0.0028847554
47	0xbc3a6bce	-0.011378242
48	0xbcd513ee	-0.02601048
49	0xbb63682e	-0.0034699547
50	0xbd291cca	-0.04128722
51	0xbc733870	-0.014844999
52	0xbcede7af	-0.02904114
53	0xb9aaad8a	-0.00032554223
54	0xbc9d19fc	-0.01917743
55	0xbbb83143	-0.005621107
56	0xbac1d08c	-0.0014786883
57	0x398f19e3	0.00027294373
58	0xbc550ac3	-0.013003054
59	0xbb6fc229	-0.0036584234
60	0x3a90d478	0.0011049649
61	0x3abf836c	0.001461131
62	0xbabc17ee	-0.0014350393
63	0xbc367a58	-0.011137567

phi.initial_conv_module.0._layers.5.running_var f4 [64]
0	0x3d03fbcb	0.03222255
1	0x3c9670c9	0.018364327
2	0x3f08f220	0.53494453
3	0x3e346431	0.17616345
4	0x3c11824c	0.008881163
5	0x3bb6e566	0.0055815456
6	0x3aeab2b8	0.0017906046
7	0x3e45e8ce	0.19327089
8	0x3e032df0	0.12810493
9	0x3bd23980	0.006415546
10	0x3db37545	0.08762602
11	0x3e8d9a96	0.27657002
12	0x3e97ee9e	0.29674238
13	0x3c40de97	0.01177182
14	0x3a494a95	0.0007678655
15	0x3eb07309	0.34462765
16	0x3ba67f42	0.0050810883
17	0x3afda0b2	0.0019350259
18	0x3b501184	0.0031748721
19	0x3d81f3e8	0.063453496
20	0x3beaf364	0.0071701277
21	0x3c2437ec	0.010023098
22	0x3d16f804	0.03685762
23	0x3ee2a00f	0.4426274
24	0x3a760de8	0.00093862275
25	0x3c2e6c1f	0.010645895
26	0x3c51f694	0.012815136
27	0x3ca5a459	0.020219969
28	0x3a245ea2	0.0006270205
29	0x37c8b25d	2.3924915e-05
30	0x3ca3936f	0.019967763
31	0x3a0e79db	0.0005435028
32	0x3b254ea7	0.0025223882
33	0x3c6c4039	0.014419609
34	0x3b2a8651	0.002602
35	0x3eda69e8	0.42658925
36	0x3c98e404	0.018663414
37	0x3d17661e	0.03696262
38	0x3901ce88	0.00012379338
39	0x3a0fbcf9	0.0005483176
40	0x3870dca8	5.742596e-05
41	0x39fabe35	0.0004782543
42	0x3990adfb	0.00027595446
43	0x3c92b773	0.017909741
44	0x3b921bc7	0.0044588777
45	0x3bbacf03	0.0057009473
46	0x3b55561b	0.0032552544
47	0x3af2891f	0.0018504
48	0x3bdbc338	0.0067066215
49	0x3c773dbd	0.015090403
50	0x3e3a8ace	0.18217012
51	0x3ce3289c	0.027729325
52	0x3e04beaa	0.12963358
53	0x390049ea	0.00012234566
54	0x3daa9b80	0.083304405
55	0x3a8982f2	0.0010491295
56	0x3a3500e8	0.0006904737
57	0x3a0143c3	0.0004931057
58	0x3a3df33b	0.0007246022
59	0x3c1f5dea	0.009726981
60	0x3e34e426	0.17665157
61	0x3a4961aa	0.00076820946
62	0x3ccef754	0.02526442
63	0x3b350103	0.0027619011

phi.initial_conv_module.0._layers.7.se_conv.conv.weight f4 [10, 64, 1]
0	0x3e046197	0.12927853
1	0xbe6a171b	-0.22860377
2	0xbe251bac	-0.16123837
3	0x3d4ae034	0.049530223
4	0xbe1c5641	-0.15267278
5	0xbdd7a85e	-0.1053016
6	0xbdfadc02	-0.122489944
7	0x3dd136ef	0.10215556
8	0xbcec4ee3	-0.02884621
9	0xbd3e6b7b	-0.04648922
10	0x3d567401	0.052356724
11	0xbe5eb69b	-0.21749346
12	0xbd958c70	-0.07302177
13	0xbdc407a7	-0.09571772
14	0xbdd3cebd	-0.103421666
15	0x3d1294b4	0.035786346
16	0xbd4ef9c2	-0.050531156
17	0xbd96e64d	-0.07368145
18	0xbddc852b	-0.10767587
19	0xbc802b82	-0.015645746
20	0x3c31149e	0.010808138
21	0xbe13a031	-0.14416577
22	0x3d8382d9	0.064214416
23	0x3e1398a8	0.14413702
24	0xbdcc7d61	-0.09984852
25	0x3de0af2e	0.10970913
26	0x3d17ac6f	0.03702968
27	0x3c9102d2	0.01770154
28	0x3cff6f8f	0.031181125
29	0xbd02e916	-0.03196057
30	0x3dd3138d	0.103064634
31	0xbcb16fb5	-0.021659711
32	0xbca47cb6	-0.020078998
33	0xbe5cc914	-0.2156108
34	0xbe5ed77b	-0.21761887
35	0x3d8705ae	0.0659288
36	0xbdfbcaa1	-0.12294508
37	0xbe4efcfb	-0.20213692
38	0xbd7f14a8	-0.06227556
39	0xbe12b651	-0.1432736
40	0xbe15f33e	-0.14643571
41	0x3dfdd7f8	0.123947084
42	0x3d1be2b3	0.038057994
43	0x3dc35321	0.0953734
44	0xbc9d82e9	-0.019227462
45	0xbdeaabba	-0.114585355
46	0xbddddf67	-0.10833626
47	0x3c8865e4	0.016650148
48	0xbe327067	-0.1742569
49	0x3ce418de	0.027843889
50	0xbe1c3909	-0.15256132
51	0x3d01ae4d	0.031660367
52	0x3b7c0ef1	0.0038461054
53	0x3cfaaf3d	0.030601138
54	0x3d104116	0.03521832
55	0xbdade74c	-0.08491382
56	0x3b4c0398	0.0031130072
57	0xbd963912	-0.07335104
58	0x3d178b16	0.036997877
59	0xbdc73d07	-0.09728437
60	0x3a865347	0.0010248207
61	0xbe25854a	-0.16164127
62	0xbcd6785e	-0.026180442
63	0x3d6ce824	0.057838574
64	0xbd9a4171	-0.07532013
65	0xbd7d7bbe	-0.061885588
66	0x3e44396f	0.19162534
67	0x3d83f962	0.0644405
68	0xbda866e6	-0.08222751
69	0xbc86f860	-0.016475856
70	0x3e029f02	0.12755969
71	0xbda0279d	-0.07820056
72	0xbd86e27d	-0.06586168
73	0x3d90e008	0.070739806
74	0xbd1ac31b	-0.037783723
75	0x3da90e60	0.08254695
76	0xbd98937a	-0.07450004
77	0xbd423add	-0.047419418
78	0x3e1fe86b	0.15616004
79	0x3c941f04	0.018081196
80	0xbd4dc80d	-0.05023961
81	0xbe12e4cd	-0.14345093
82	0xbd7fe375	-0.06247278
83	0xbd3c449d	-0.045963872
84	0xbda0a406	-0.07843785
85	0x3cc493e7	0.023996307
86	0x3e2cbae0	0.16868162
87	0xbd34e9f6	-0.044168435
88	0xbd884e96	-0.06655614
89	0xbd5d9511	-0.05409724
90	0xbd914cf3	-0.07094755
91	0xbb8935de	-0.0041873297
92	0xbdc72b9b	-0.09725114
93	0xbbf64094	-0.0075150225
94	0xbda10283	-0.07861807
95	0xbd9faf3a	-0.07797094
96	0xbd71eaa5	-0.059061665
97	0x3dc04f58	0.093901336
98	0xbd75581d	-0.059898484
99	0xbdd4504c	-0.10366878
100	0xbe3fdee1	-0.18737365
101	0xbd443334	-0.047900394
102	0xbdad2b21	-0.08455492
103	0x3ce3181a	0.027721453
104	0xbab6481a	-0.0013906986
105	0xbda6d25f	-0.08145594
106	0xbd0bc0ac	-0.034119293
107	0xbd183164	-0.037156478
108	0xbdb17f25	-0.08666829
109	0xbe37a0f0	-0.17932487
110	0xbdae2871	-0.08503807
111	0x3dcdfb72	0.10057725
112	0x3dbaca78	0.09120649
113	0x3d82e48a	0.063912466
114	0x3d9c5d03	0.07634928
115	0x3e1abf01	0.15111925
116	0x3dab15f1	0.08353794
117	0x3df0edcf	0.117641084
118	0x3d98754e	0.07444249
119	0x3dd0908a	0.10183819
120	0x3dd75425	0.10514096
121	0x3c4af313	0.012387055
122	0xbdc6238f	-0.09674751
123	0x3e0e7522	0.1391187
124	0x3c318a73	0.0108362315
125	0x3e4c5b5d	0.19956727
126	0xbde0c293	-0.10974612
127	0xbd5960dd	-0.05307089
128	0x3c917501	0.017755987
129	0x3db10bb6	0.08644812
130	0x3e94a95e	0.29035467
131	0xbe03f57d	-0.12886615
132	0xbd36b879	-0.04460952
133	0x3c12938a	0.008946309
134	0x3e477bc6	0.1948081
135	0xbc1fa192	-0.009743111
136	0x3e140b56	0.1445745
137	0x3dcc61ad	0.09979568
138	0xbd6f2d5c	-0.058392867
139	0x3e89cb63	0.26912984
140	0xbdd34bab	-0.10317167
141	0xbddf6bf4	-0.10909262
142	0x3c4409d8	0.011965238
143	0x3c2ccdfa	0.0105471555
144	0xbdd0207c	-0.10162446
145	0x3d90e84b	0.07075556
146	0xbc1b526b	-0.009480099
147	0xbe1bc24d	-0.15210839
148	0x3e235b33	0.15952758
149	0x3d72191b	0.059105974
150	0x3e21ad92	0.15788868
151	0xbd931e04	-0.071834594
152	0x3dcb4a51	0.09926284
153	0xbdd1e3f0	-0.10248554
154	0xbcbe49d8	-0.02322857
155	0xbe28d1a4	-0.16486222
156	0x3d8e0b3b	0.06935736
157	0xbe0bf30f	-0.13666938
158	0x3d88c56d	0.06678281
159	0xbd9c5f99	-0.07635421
160	0xbde843dc	-0.11341068
161	0x3dd11daf	0.1021074
162	0x3d81a71f	0.06330704
163	0x3d0dee4b	0.034651082
164	0xbde35cc8	-0.11101681
165	0x3e4d0d91	0.20024706
166	0x3ce6b857	0.028164072
167	0xbd034dd9	-0.032056663
168	0x3e58d242	0.21173957
169	0xbdab8a61	-0.08376003
170	0x3d7f455c	0.062322006
171	0x3d5e978d	0.05434375
172	0xbda0d41c	-0.07852957
173	0xbc258390	-0.010102168
174	0x3d975b53	0.073904656
175	0x3df8814f	0.12134039
176	0x3d957bab	0.072989784
177	0xbd49f890	-0.049309313
178	0x3e348281	0.17627908
179	0xbe3c59fd	-0.18393703
180	0x3e2833ce	0.16426012
181	0x3d96d794	0.07365337
182	0x3dc9555c	0.09830734
183	0x3d648f26	0.05580058
184	0x3db7a5ee	0.089671955
185	0x3d4c3546	0.049855493
186	0xbc9662dc	-0.018357687
187	0x3e9491a8	0.29017377
188	0xbe03e062	-0.12878564
189	0x3df6b206	0.12045674
190	0xbe23ba06	-0.15988931
191	0xbe023623	-0.12715964
192	0x3d365e91	0.04452378
193	0xbd43d12c	-0.047806904
194	0x3da0cfb2	0.07852115
195	0xbd4c4a49	-0.04987553
196	0xbd3a51e7	-0.045488264
197	0x3e3dcefe	0.18535993
198	0x3e594531	0.212178
199	0xbc90510d	-0.017616773
200	0xbd3e5148	-0.046464235
201	0xbe19e3a3	-0.15028243
202	0x3c995981	0.018719437
203	0xbd2f545b	-0.042805057
204	0x3e15dcdd	0.14635034
205	0xbd86e2ac	-0.06586203
206	0x3e454f14	0.19268447
207	0x3da45ec3	0.08025887
208	0xbdc02fb9	-0.093841024
209	0x3d35ac9e	0.044354074
210	0xba54e469	-0.0008121194
211	0xbd99f4bb	-0.07517382
212	0x3cfcb348	0.030847207
213	0x3d232b1a	0.039836027
214	0x3e18395a	0.14865628
215	0x3e197e00	0.14989471
216	0xbdc6a795	-0.096999325
217	0x3d582bd7	0.052776184
218	0xbda7e266	-0.08197479
219	0x3e094d78	0.13408458
220	0x3cd37b5a	0.025815655
221	0x3dcbe2ea	0.0995539
222	0xbe225aae	-0.15854904
223	0x3d961215	0.073276676
224	0xbcc069ea	-0.023488004
225	0x3dc18322	0.0944884
226	0x3d9aa5bf	0.07551145
227	0xbd0eda93	-0.034876417
228	0xbd4511f4	-0.048112825
229	0x3d87e337	0.06635135
230	0xbd9e0013	-0.07714858
231	0x3de62edd	0.11239407
232	0x3ddb8b2c	0.10719904
233	0x3e0846c4	0.13308245
234	0x3d3f8270	0.046755254
235	0xbcdcbeb6	-0.026946407
236	0xbe103ccd	-0.14085694
237	0xbcb28908	-0.021793857
238	0xbdc807b5	-0.09767095
239	0x3e5324f1	0.20619561
240	0x3e191ffd	0.14953609
241	0xbd433b75	-0.047664125
242	0xbdb63930	-0.088976264
243	0x3e061376	0.13093361
244	0x3dff62eb	0.12470039
245	0x3d1bd965	0.03804912
246	0xbd8bb1bf	-0.06821012
247	0x3da051f7	0.078281336
248	0x3e00eb5e	0.12589785
249	0x3cd6ef25	0.02623708
250	0x3e2c7765	0.1684242
251	0x3cf12621	0.029437127
252	0xb9cb2c12	-0.00038752012
253	0x3d05a117	0.03262433
254	0xbd9514d7	-0.072793655
255	0x3e10df23	0.1414762

phi.initial_conv_module.0._layers.7.se_conv2.conv.weight f4 [64, 10, 1]
0	0xbe0c604b	-0.13708608
1	0x3d1e66d8	0.0386723
2	0xbdb7b8e9	-0.08970816
3	0xbddb9cf0	-0.10723293
4	0xbe5162bb	-0.20447819
5	0x3d1397eb	0.036033552
6	0xbe932281	-0.28737262
7	0x3e9e7567	0.30948946
8	0xbd69f63a	-0.057119586
9	0x3cb618fd	0.022228712
10	0x3e1cb8e7	0.1530491
11	0xbc69b62a	-0.014264623
12	0x3ec592aa	0.38588458
13	0x3dcc0d13	0.09963431
14	0x3de89d3a	0.113581136
15	0xbeb77861	-0.3583403
16	0x3dd65138	0.1046471
17	0x3d3564ac	0.04428546
18	0x3e1c5a0c	0.15268725
19	0x3d19cf1c	0.03755103
20	0x3e4096c7	0.18807517
21	0x3e89cb6e	0.26913017
22	0x3ec40596	0.38285512
23	0xbb9d1de7	-0.0047948244
24	0x3e09c830	0.13455272
25	0xbe89dded	-0.26927128
26	0xbe01c2cd	-0.12671967
27	0xbe329189	-0.1743833
28	0x3d8fc9de	0.07020925
29	0xbe5a0fba	-0.21295062
30	0xbe826f8c	-0.2547573
31	0x3e208f65	0.156797
32	0x3e9354aa	0.2877553
33	0xbeb5e333	-0.35524902
34	0x3eb40b93	0.3516508
35	0xbeabe979	-0.33576563
36	0x3ed1dca0	0.40988636
37	0x3c998d0c	0.018744014
38	0xbd129db3	-0.035794925
39	0x3e6b1fff	0.22961424
40	0xbdd5af94	-0.104338795
41	0xbdd37342	-0.10324718
42	0x3ea211a8	0.31654096
43	0xbd996bdc	-0.07491276
44	0xbd652cec	-0.055951044
45	0xbdacba09	-0.08433921
46	0x3b274a58	0.002552649
47	0x3d88bda3	0.06676795
48	0x3e918637	0.2842271
49	0x3e489faa	0.19592157
50	0x3d55ed33	0.052228164
51	0x3d4f6654	0.050634697
52	0x3c9ec67c	0.019381754
53	0x3d47c93a	0.04877589
54	0xbc3d1667	-0.011540986
55	0x3e541b9a	0.20713654
56	0x3e39e016	0.18151888
57	0xbcf676ad	-0.030085886
58	0x3dbeabb2	0.09310092
59	0x3b89b6ef	0.0042027156
60	0x3e160372	0.14649752
61	0x3e837f8a	0.25683242
62	0xbe26ec99	-0.16301192
63	0x3c36569f	0.0111290505
64	0x3b888580	0.004166305
65	0xbec64d70	-0.38730955
66	0xbe7a3f34	-0.24438173
67	0xbda7f58a	-0.0820113
68	0x3e8c76fa	0.27434522
69	0xbe4ae455	-0.19813664
70	0x3db5ba34	0.08873406
71	0x3e8f4ab0	0.2798667
72	0xbd63a9bf	-0.055581804
73	0x3e28a181	0.16467859
74	0x3e36e6ca	0.17861477
75	0xbeccce6a	-0.4000123
76	0x3dbf0cdd	0.09328625
77	0xbed7baca	-0.42134696
78	0x3ebfafe7	0.3743889
79	0x3e160d49	0.14653505
80	0x3dd431a9	0.103610344
81	0x3eade412	0.33963066
82	0x3ee88edb	0.4542149
83	0x3ea55063	0.32287893
84	0x3e8c4296	0.2739455
85	0xbeace312	-0.3376699
86	0x3ef6147b	0.480625
87	0xbd33b9de	-0.04387843
88	0xbcb2434d	-0.021760607
89	0xbd9d6873	-0.07685938
90	0x3e89a6f6	0.26885194
91	0x3d9eced4	0.07754293
92	0x3e6c4b8f	0.23075698
93	0x39a05044	0.0003057738
94	0x3e943b49	0.2895148
95	0xbe908a3e	-0.2823047
96	0x3dc3602f	0.0953983
97	0x3d1f825a	0.038942672
98	0x3d0bde3f	0.034147497
99	0x3e8d5c07	0.27609274
100	0x3e0bb834	0.13644487
101	0x3d734f01	0.059401516
102	0x3e2ebea6	0.17064914
103	0x3c6a9bcb	0.0143193705
104	0xbcfa9586	-0.030588876
105	0xbe943426	-0.28946036
106	0xbd996cab	-0.0749143
107	0xbdf8609e	-0.12127803
108	0x3e5c66cf	0.21523593
109	0x3e90d2ac	0.2828573
110	0xbe93fa27	-0.2890179
111	0xbe042e61	-0.12908317
112	0x3ec095b1	0.37614205
113	0xbdfb03bd	-0.122565724
114	0x3eaa53d3	0.33267078
115	0x3e6b67f6	0.22988877
116	0x3bf39368	0.0074333437
117	0xbeb3ec84	-0.35141385
118	0x3e3f0856	0.18655524
119	0x3e178ae5	0.14799078
120	0x3e8e0039	0.27734545
121	0x3d1f7a07	0.038934734
122	0x3e2614d2	0.1621888
123	0xbe9fc533	-0.3120514
124	0x3d789d34	0.060696796
125	0x3d8f6647	0.0700193
126	0x3e22b7a0	0.1589036
127	0xbe36dd5f	-0.17857884
128	0xbd18fe36	-0.03735181
129	0xbe4fa7fe	-0.20278928
130	0xbe4421dc	-0.19153541
131	0x3d9b3104	0.07577708
132	0xbcbbf25d	-0.022942716
133	0x3e02af7d	0.12762256
134	0xbd61de9c	-0.055143937
135	0x3d674d26	0.05647006
136	0xbd9e2c7e	-0.0772333
137	0x3e723b03	0.23655324
138	0xbe70bdad	-0.23509856
139	0x3d8000f5	0.062501825
140	0x3de60f22	0.11233355
141	0x3e774529	0.24147476
142	0x3dc8ca32	0.09804191
143	0x3e024e27	0.12725125
144	0x3cc26dc2	0.023733977
145	0x3d2b6a14	0.04184921
146	0x3efafd04	0.4902116
147	0xbe2a5b98	-0.16636503
148	0x3e60fd76	0.21971688
149	0xbead9a19	-0.3390663
150	0xbda39f6e	-0.07989393
151	0xbd7a515a	-0.06111274
152	0xbe788842	-0.24270728
153	0xbcde29cb	-0.027119538
154	0x3e884565	0.26615444
155	0xbdce783b	-0.10081526
156	0x3e9b91b9	0.30384615
157	0xbeb64714	-0.35601103
158	0x3e262946	0.16226682
159	0x3e8f220b	0.2795566
160	0x3eb1d528	0.34732938
161	0xbd5f7c1a	-0.05456171
162	0xbe5355b5	-0.20638163
163	0xbd8b4037	-0.067993574
164	0x3e8135c5	0.25236335
165	0xbd8d2926	-0.06892614
166	0x3e8e0f02	0.27745825
167	0xbea614da	-0.32437783
168	0xbe36ce82	-0.17852214
169	0x3e4f4567	0.20241319
170	0x3d80c6cf	0.0628792
171	0xbe53a36e	-0.20667812
172	0x3e9f75e0	0.3114462
173	0xbe13e97c	-0.14444536
174	0xbe8a9d29	-0.2707303
175	0x3e04dc4f	0.12974666
176	0xbe31ff1a	-0.1738247
177	0xbe00f8e1	-0.1259494
178	0xbe265673	-0.16243915
179	0x3d937564	0.07200125
180	0x3e685e49	0.22692217
181	0x3e7edb47	0.24888335
182	0xbe1fc021	-0.15600635
183	0xbdb520d9	-0.08844156
184	0x3ea56464	0.32303154
185	0xbe5210ad	-0.20514174
186	0xbe342449	-0.17591967
187	0xbde575a3	-0.11204078
188	0xbe820550	-0.25394678
189	0xbe4b0039	-0.19824304
190	0x3ea5a026	0.32348746
191	0x3e1ebbce	0.1550133
192	0x3e551c83	0.20811658
193	0x3dd4a8e4	0.10383776
194	0x3ea4cb11	0.32186177
195	0x3d9bf5c1	0.07615233
196	0x3ea02791	0.31280187
197	0xbcf5076e	-0.02991077
198	0x3ea394b9	0.31949404
199	0x3e908013	0.28222713
200	0xbc8d9129	-0.017281132
201	0x3d810943	0.06300595
202	0xbe209cf7	-0.15684877
203	0xbe863351	-0.26211026
204	0x3eaf46c4	0.34233677
205	0xbe886e94	-0.26646864
206	0xbe38316c	-0.17987603
207	0xbec31941	-0.38105205
208	0xbe688a0d	-0.22708912
209	0x3d998ebd	0.07497928
210	0x3e2f6a95	0.17130502
211	0xbe345412	-0.17610195
212	0x3e336ed2	0.17522743
213	0xbe5e918d	-0.2173521
214	0x3e46b7e3	0.19406085
215	0x3d844495	0.064583935
216	0xbc8feb8d	-0.017568374
217	0xbe7aa516	-0.24477038
218	0x3eb39c53	0.35080203
219	0xbdf34c17	-0.11879747
220	0xbd5c3e2a	-0.05377022
221	0xbe9bfcfd	-0.30466452
222	0x3e927a51	0.28608945
223	0x3daf407b	0.085572205
224	0xbcfba989	-0.03072049
225	0x3e483285	0.19550522
226	0x3eb85d52	0.36008698
227	0x3d9538ea	0.07286246
228	0xbe5726b2	-0.21010855
229	0xbdc97cc8	-0.09838253
230	0x3e986c21	0.29769996
231	0x3e86131d	0.26186457
232	0xbe481d95	-0.19542535
233	0x3eb82868	0.35968328
234	0xbe8f25d8	-0.2795856
235	0x3e0d18db	0.13779013
236	0x3e164a5d	0.14676805
237	0x3df1847b	0.11792847
238	0xbe8dcd0f	-0.2769551
239	0x3e719caa	0.23594919
240	0x3e386954	0.1800893
241	0x3ea44040	0.3208027
242	0xbd7ba90a	-0.061440505
243	0xbcdcbbbc	-0.026944987
244	0x3e027200	0.127388
245	0xbe03f985	-0.12888153
246	0x3d2fb21a	0.04289446
247	0xbe3d4b1e	-0.18485686
248	0x3e5aecf1	0.21379448
249	0x3e3ceaa0	0.18448877
250	0xbcf8a5de	-0.03035253
251	0x3e88e017	0.26733467
252	0x3dde479e	0.10853504
253	0x3df3d72d	0.11906276
254	0x3e3fc722	0.18728307
255	0xbe38a8d7	-0.18033157
