logs/4birds_CF_combined_log_linear_gru64_30epochs/2025-05-19_23-58-53/best_4birds_CF_combined_log_linear_gru64_30epochs.pth (torch, 461458 bytes, 199 tensors)

combined_log_linear_spec.filter_bank f4 [64, 513]
000000 00 00 00 00 00 00 00 00 00 00 00 00 00 00 00 00
       0.0 0.0 0.0 0.0
000010 00 00 00 00 00 00 00 00 00 00 00 00 00 00 00 00
       0.0 0.0 0.0 0.0
000020 00 00 00 00 00 00 00 00 00 00 00 00 00 00 00 00
       0.0 0.0 0.0 0.0
000030 00 00 00 00 00 00 00 00 00 00 00 00 00 00 00 00
       0.0 0.0 0.0 0.0
000040 00 00 00 00 00 00 00 00 00 00 00 00 00 00 00 00
       0.0 0.0 0.0 0.0
000050 00 00 00 00 00 00 00 00 00 00 00 00 00 00 00 00
       0.0 0.0 0.0 0.0
000060 00 00 00 00 00 00 00 00 00 00 00 00 00 00 00 00
       0.0 0.0 0.0 0.0
000070 00 00 00 00 00 00 00 00 00 00 00 00 00 00 00 00
       0.0 0.0 0.0 0.0
000080 00 00 00 00 00 00 00 00 00 00 00 00 00 00 00 00
       0.0 0.0 0.0 0.0
000090 00 00 00 00 00 00 00 00 00 00 00 00 00 00 00 00
       0.0 0.0 0.0 0.0
0000a0 00 00 00 00 00 00 00 00 00 00 00 00 00 00 00 00
       0.0 0.0 0.0 0.0
0000b0 00 00 00 00 00 00 00 00 00 00 00 00 00 00 00 00
       0.0 0.0 0.0 0.0
0000c0 00 00 00 00 00 00 00 00 00 00 00 00 00 00 00 00
       0.0 0.0 0.0 0.0
0000d0 00 00 00 00 00 00 00 00 00 00 00 00 00 00 00 00
       0.0 0.0 0.0 0.0
0000e0 00 00 00 00 00 00 00 00 00 00 00 00 00 00 00 00
       0.0 0.0 0.0 0.0
0000f0 00 00 00 00 00 00 00 00 00 00 00 00 00 00 00 00
       0.0 0.0 0.0 0.0
000100 00 00 00 00 00 00 00 00 00 00 00 00 00 00 00 00
       0.0 0.0 0.0 0.0
000110 00 00 00 00 00 00 00 00 00 00 00 00 00 00 00 00
       0.0 0.0 0.0 0.0
000120 00 00 00 00 00 00 00 00 00 00 00 00 00 00 00 00
       0.0 0.0 0.0 0.0
000130 00 00 00 00 00 00 00 00 00 00 00 00 00 00 00 00
       0.0 0.0 0.0 0.0
000140 00 00 00 00 00 00 00 00 00 00 00 00 00 00 00 00
       0.0 0.0 0.0 0.0
000150 00 00 00 00 00 00 00 00 00 00 00 00 00 00 00 00
       0.0 0.0 0.0 0.0
000160 00 00 00 00 00 00 00 00 00 00 00 00 00 00 00 00
       0.0 0.0 0.0 0.0
000170 00 00 00 00 00 00 00 00 00 00 00 00 00 00 00 00
       0.0 0.0 0.0 0.0
000180 00 00 00 00 00 00 00 00 00 00 00 00 00 00 00 00
       0.0 0.0 0.0 0.0
000190 00 00 00 00 00 00 00 00 00 00 00 00 00 00 00 00
       0.0 0.0 0.0 0.0
0001a0 00 00 00 00 00 00 00 00 00 00 00 00 00 00 00 00
       0.0 0.0 0.0 0.0
0001b0 00 00 00 00 00 00 00 00 00 00 00 00 00 00 00 00
       0.0 0.0 0.0 0.0
0001c0 00 00 00 00 00 00 00 00 00 00 00 00 00 00 00 00
       0.0 0.0 0.0 0.0
0001d0 00 00 00 00 00 00 00 00 00 00 00 00 00 00 00 00
       0.0 0.0 0.0 0.0
0001e0 00 00 00 00 00 00 00 00 00 00 00 00 00 00 00 00
       0.0 0.0 0.0 0.0
0001f0 00 00 00 00 00 00 00 00 00 00 00 00 00 00 00 00
       0.0 0.0 0.0 0.0
000200 00 00 00 00 00 00 00 00 00 00 00 00 00 00 00 00
       0.0 0.0 0.0 0.0
000210 00 00 00 00 00 00 00 00 00 00 00 00 00 00 00 00
       0.0 0.0 0.0 0.0
000220 00 00 00 00 00 00 00 00 00 00 00 00 00 00 00 00
       0.0 0.0 0.0 0.0
000230 00 00 00 00 00 00 00 00 00 00 00 00 00 00 00 00
       0.0 0.0 0.0 0.0
000240 00 00 00 00 00 00 00 00 00 00 00 00 00 00 00 00
       0.0 0.0 0.0 0.0
000250 00 00 00 00 00 00 00 00 00 00 00 00 00 00 00 00
       0.0 0.0 0.0 0.0
000260 00 00 00 00 00 00 00 00 00 00 00 00 00 00 00 00
       0.0 0.0 0.0 0.0
000270 00 00 00 00 00 00 00 00 00 00 00 00 00 00 00 00
       0.0 0.0 0.0 0.0
000280 00 00 00 00 00 00 00 00 00 00 00 00 00 00 00 00
       0.0 0.0 0.0 0.0
000290 00 00 00 00 00 00 00 00 00 00 00 00 00 00 00 00
       0.0 0.0 0.0 0.0
0002a0 00 00 00 00 00 00 00 00 00 00 00 00 00 00 00 00
       0.0 0.0 0.0 0.0
0002b0 00 00 00 00 00 00 00 00 00 00 00 00 00 00 00 00
       0.0 0.0 0.0 0.0
0002c0 00 00 00 00 00 00 00 00 00 00 00 00 00 00 00 00
       0.0 0.0 0.0 0.0
0002d0 00 00 00 00 00 00 00 00 00 00 00 00 00 00 00 00
       0.0 0.0 0.0 0.0
0002e0 00 00 00 00 00 00 00 00 00 00 00 00 00 00 00 00
       0.0 0.0 0.0 0.0
0002f0 00 00 00 00 00 00 00 00 00 00 00 00 00 00 00 00
       0.0 0.0 0.0 0.0
000300 00 00 00 00 00 00 00 00 00 00 00 00 00 00 00 00
       0.0 0.0 0.0 0.0
000310 00 00 00 00 00 00 00 00 00 00 00 00 00 00 00 00
       0.0 0.0 0.0 0.0
000320 00 00 00 00 00 00 00 00 00 00 00 00 00 00 00 00
       0.0 0.0 0.0 0.0
000330 00 00 00 00 00 00 00 00 00 00 00 00 00 00 00 00
       0.0 0.0 0.0 0.0
000340 00 00 00 00 00 00 00 00 00 00 00 00 00 00 00 00
       0.0 0.0 0.0 0.0
000350 00 00 00 00 00 00 00 00 00 00 00 00 00 00 00 00
       0.0 0.0 0.0 0.0
000360 00 00 00 00 00 00 00 00 00 00 00 00 00 00 00 00
       0.0 0.0 0.0 0.0
000370 00 00 00 00 00 00 00 00 00 00 00 00 00 00 00 00
       0.0 0.0 0.0 0.0
000380 00 00 00 00 00 00 00 00 00 00 00 00 00 00 00 00
       0.0 0.0 0.0 0.0
000390 00 00 00 00 00 00 00 00 00 00 00 00 00 00 00 00
       0.0 0.0 0.0 0.0
0003a0 00 00 00 00 00 00 00 00 00 00 00 00 00 00 00 00
       0.0 0.0 0.0 0.0
0003b0 00 00 00 00 00 00 00 00 00 00 00 00 00 00 00 00
       0.0 0.0 0.0 0.0
0003c0 00 00 00 00 00 00 00 00 00 00 00 00 00 00 00 00
       0.0 0.0 0.0 0.0
0003d0 00 00 00 00 00 00 00 00 00 00 00 00 00 00 00 00
       0.0 0.0 0.0 0.0
0003e0 00 00 00 00 00 00 00 00 00 00 00 00 00 00 00 00
       0.0 0.0 0.0 0.0
0003f0 00 00 00 00 00 00 00 00 00 00 00 00 00 00 00 00
       0.0 0.0 0.0 0.0

phi.initial_conv_module.0._layers.0.conv.weight f4 [64, 64, 1]
000000 a2 cb d8 3d e3 8a e9 3d 53 37 9b bc 10 1c 00 3e
       0.10585715 0.11403444 -0.01894728 0.12510705
000010 2b b0 8b bc b3 93 11 3d 43 e1 4e bd af 71 ab 3d
       -0.017051777 0.035541248 -0.050507795 0.08371293
000020 1c bb f6 3d ac 97 a6 bd 12 92 f3 3d 9a 16 0a 3d
       0.12047407 -0.08134398 0.11893095 0.03371296
000030 b6 36 d2 3d ad 39 df 3c 15 8b 90 3d be bb ef bb
       0.102643415 0.027249182 0.07057778 -0.007316082
000040 18 6b da 3d 95 e5 eb 3c 60 a2 44 bd 21 c2 2c 3d
       0.10664958 0.028795997 -0.048006415 0.042177323
000050 e7 82 41 bd 22 cd 8d bb ab 93 25 bd 91 ea be 3d
       -0.04724398 -0.0043274323 -0.04042403 0.09322084
000060 9a d9 b4 bd c4 a6 41 bd 14 75 cc bc 4f ba 84 bd
       -0.08830567 -0.04727818 -0.024958171 -0.06480848
000070 69 35 b5 3c c2 99 e7 bd 39 40 fc 3d 7d 39 c4 bd
       0.022120195 -0.11308624 0.12316937 -0.095812775
000080 d7 b5 da 3d 49 f2 fe 3c 8a c9 f7 bc 07 4b b3 3d
       0.106792144 0.03112139 -0.030247469 0.08754545
000090 ec 20 f4 3c ba e6 e3 3d 51 7f c4 3c 66 3c ee bc
       0.029800855 0.11127992 0.02398649 -0.029081535
0000a0 9f d0 33 3d a0 ff c0 bc cc d8 80 3d 1e 9e f9 3d
       0.04390013 -0.023559391 0.06291351 0.121883616
0000b0 57 15 a9 3d 22 73 35 bd 45 e1 a8 3d ef df 05 3d
       0.082560234 -0.044299252 0.08246092 0.032684263
0000c0 ca 1b 97 3d c0 d5 86 bd e3 2b e8 bd f7 71 1b bd
       0.07378347 -0.06583738 -0.11336496 -0.037950482
0000d0 90 22 af bd 89 1e e7 3d 4d b7 3d 3d 28 4b 7e 3d
       -0.08551514 0.11285121 0.046317387 0.062083393
0000e0 46 2a 4c 3d 7f 93 05 3c 85 6a dd 3d 77 ae a0 bd
       0.049845003 0.008152842 0.108113326 -0.078457765
0000f0 bc 0b 95 3c 7e 86 99 bd e0 1d 48 3d ce 31 16 be
       0.018194072 -0.074963555 0.048856616 -0.14667436
000100 90 2d 16 bc c6 83 96 bd 96 1f 66 3d b4 dd f8 bd
       -0.009166136 -0.073493525 0.056182466 -0.121516615
000110 ef cf f9 bd 4b d2 f9 bd 59 fb 84 3d 78 7b be bb
       -0.12197863 -0.12198313 0.06493253 -0.0058130585
000120 f3 0e 95 3d aa 33 1a be ce 84 2f be 82 b5 14 be
       0.07278242 -0.15058771 -0.17140505 -0.14522365
000130 c6 ab 06 be 9c ed 4e 3b ba ab 31 bb 4b e8 66 3d
       -0.13151464 0.0031574732 -0.0027110414 0.056373876
000140 f4 56 e5 bd 65 d3 07 be 86 5e 9a 3c 87 9c c8 bd
       -0.111982256 -0.13264234 0.0188439 -0.0979548
000150 ac 85 e8 3c 79 ec 9d bd 3f d1 c4 3c b3 04 14 be
       0.028384052 -0.07711119 0.024025558 -0.14454918
000160 40 53 e2 bd 81 54 19 bc 1f 58 ac bc 54 70 a2 bd
       -0.11051035 -0.009358526 -0.021038113 -0.07931581
000170 05 69 dd 3c 00 90 19 3d 82 63 0d be 08 ce e9 bd
       0.027027616 0.037490845 -0.1380749 -0.114162505
000180 0c 22 89 3d 95 85 b7 bd d8 e4 bb bd 5f 6a 2c be
       0.06695947 -0.089610256 -0.09174508 -0.16837452
000190 e1 bc f3 bd 1b 09 85 bc c5 f8 82 bd dc 7a 0d be
       -0.1190126 -0.016239693 -0.06395105 -0.13816398
0001a0 83 5b 36 bd 47 00 08 be 46 29 1d be aa 1a ee bd
       -0.044520866 -0.13281356 -0.15347776 -0.116261795
0001b0 f8 97 20 be cc 11 02 be 32 9f 9e 3d 22 6a c3 bc
       -0.15682971 -0.12702101 0.07745208 -0.023854319
0001c0 df 9b 12 bc 24 f3 27 be 49 a2 04 be c4 59 b6 bd
       -0.008948295 -0.16401345 -0.12952532 -0.0890384
0001d0 16 b1 e4 bc 48 32 21 be 41 70 cf bd c3 64 fa bd
       -0.027916472 -0.15741837 -0.101288326 -0.1222625
0001e0 55 f2 40 bd fe 64 c0 bd f3 d7 65 bd a9 4d 07 be
       -0.047106106 -0.09394263 -0.05611415 -0.13213219
0001f0 da 6c 08 be 2c 7c f6 bd 4e c4 b8 bd 9c 9b 78 bd
       -0.13322774 -0.12035403 -0.09021817 -0.060695276
000200 b0 f3 cf 3d 74 9d e5 bc 49 8e d5 3d 3a 3e 12 3d
       0.101539016 -0.028029181 0.10427529 0.035703875
000210 5c 4e df bd ec 7d aa 3d a1 0d 1a bd 99 69 51 bd
       -0.10903618 0.08324799 -0.037610654 -0.051126096
000220 23 06 db bd fc 83 02 be f2 34 05 3d 73 12 fa bc
       -0.1069453 -0.1274566 0.032521196 -0.030526375
000230 a0 09 3a 3d a4 9d d8 bd ca 63 b7 3d 3a 73 c2 bd
       0.045419335 -0.105769426 0.0895458 -0.09494634
000240 cb 35 cb bc 1a 59 bb 3c 69 fc 7a 3d 5b fc c7 3d
       -0.024805924 0.022869635 0.061275873 0.0976493
000250 a6 7d e2 3d a8 83 d1 bd e0 27 e7 3c 41 5f 69 bd
       0.11059122 -0.102301896 0.028217256 -0.056975607
000260 21 a1 8a bc d7 24 c6 bd 0e 77 e2 3d 76 6c c2 bd
       -0.016922535 -0.096749954 0.11057864 -0.094933435
000270 d6 26 82 3d 78 a5 26 3d c2 16 19 3d 59 fa 90 bd
       0.063550636 0.040685147 0.03737522 -0.07079
000280 18 fa e1 3d 55 7c c6 3c 21 72 52 3c a6 20 e8 bd
       0.1103403 0.024229208 0.012844593 -0.11334352
000290 01 a1 49 3d 16 05 b4 bc fa b4 77 bd 74 2f d5 3d
       0.04922581 -0.021975081 -0.060475327 0.104094416
0002a0 67 c2 c9 3c fb 35 94 bd 1e 25 88 bd d3 af 16 bc
       0.024628831 -0.072368585 -0.066477045 -0.009197193
0002b0 bd 45 88 3d 2e 05 10 bd 97 a3 98 bd b9 7c 3c bd
       0.066539265 -0.03516119 -0.07453077 -0.046017382
0002c0 21 c8 c5 bd f5 4d 29 3d 39 7a bf 3d c9 88 f7 bd
       -0.09657312 0.04133411 0.09349484 -0.120866366
0002d0 11 48 d3 3c f7 28 7b 3d 59 28 9f 3c 58 7d 43 bd
       0.0257912 0.061318364 0.019428419 -0.04772696
0002e0 2f e6 7d 3d 3e ba 7f 3d 3c 28 32 3d bb 54 ce bc
       0.0619871 0.062433474 0.0434954 -0.025186887
0002f0 08 c3 14 bd 68 1a 26 3c 26 49 cf bc 6b 7d d8 bd
       -0.03631881 0.010138132 -0.025303435 -0.105707966
000300 9d 10 90 3d 87 6b c8 3d 60 64 b3 bc 35 9c 19 bd
       0.07034419 0.09786134 -0.021898448 -0.037502486
000310 3a 6b fc bb 4e 2b 8b bc 27 0c a8 3c ad cf d0 3c
       -0.007703212 -0.016988423 0.020513607 0.025489653
000320 81 f2 fb bd 11 e8 63 bd 01 00 c4 3d dd 5b 20 3d
       -0.12302113 -0.055641238 0.09570313 0.039150108
000330 0f f6 80 bc 09 cb ad bd e8 11 b0 bd 04 c0 f8 bd
       -0.01574233 -0.084859915 -0.08597165 -0.12145999
000340 b9 da 4d bd 15 d2 05 3d c0 a8 8f 3d 9f 47 45 3d
       -0.05025742 0.032671053 0.070146084 0.048164006
000350 36 b9 f5 bd ea 65 ad bd 4a 97 ef bc fe 08 e4 3d
       -0.11998217 -0.08466704 -0.029246945 0.111345276
000360 cd 10 0c 3c d3 8f 2b bd 2d b9 2c 3d 32 f8 69 bd
       0.0085489275 -0.04188521 0.042168785 -0.057121463
000370 27 24 b9 bd 8b 46 a7 3d 57 e1 87 bd 7a 9e 0d bd
       -0.09040099 0.08167752 -0.06634777 -0.034574963
000380 98 0c 09 be 76 c2 97 3d 79 60 ae 3d 62 82 13 3d
       -0.1338371 0.07410137 0.085144944 0.036013015
000390 cb f0 c5 bd f3 0a 08 be 09 5a e3 bd 9e 52 ab 3d
       -0.09665068 -0.13285427 -0.11101157 0.08365367
0003a0 ef b3 4e 3d 0f d7 c3 3d 72 1a 65 3d 39 07 b5 3c
       0.050464567 0.095625035 0.055933423 0.02209817
0003b0 e8 22 30 bc c6 1f d6 bd 6c c4 ee bd c8 70 01 be
       -0.01075051 -0.10455279 -0.11658558 -0.12640679
0003c0 d3 7e 2a 3d 27 29 91 bd 75 05 0e bd 57 c8 a6 bd
       0.041624855 -0.07087927 -0.034673173 -0.081436805
0003d0 a4 48 04 bd a2 9e c7 bd bf b7 ba bd bd c0 02 3d
       -0.032295838 -0.09747054 -0.09117078 0.03192209
0003e0 06 21 3f bd 41 78 8a 3d 53 37 4b bd d0 3a cf bd
       -0.046662353 0.06761218 -0.04961331 -0.101186395
0003f0 e3 52 01 bd ae 91 8f bd f4 9a 43 bd 44 80 fd bd
       -0.031573188 -0.07010208 -0.047755197 -0.1237798

phi.initial_conv_module.0._layers.1.weight f4 [64]
000000 53 1e 86 3f 0a 5e 58 3f 01 2c 79 3f 4e bb 85 3f
       1.0478004 0.8451849 0.9733277 1.0447786
000010 24 94 82 3f 35 39 86 3f b9 76 8d 3f e9 2a 83 3f
       1.0201459 1.0486208 1.1051856 1.024747
000020 ce 08 6b 3f 2b 09 7e 3f 64 09 6d 3f 4a 65 62 3f
       0.9181031 0.9923274 0.92592454 0.88435805
000030 be 93 6a 3f 03 45 62 3f 0f a5 96 3f e5 c5 80 3f
       0.91631687 0.88386554 1.1769122 1.0060393
000040 0d 01 56 3f b6 aa 9a 3f ed fe 7b 3f 6a 7d 85 3f
       0.83595353 1.2083347 0.9843586 1.0428898
000050 af 3b 82 3f 54 8f 52 3f 25 6c 87 3f a1 21 89 3f
       1.0174464 0.8224995 1.0579878 1.0713388
000060 a6 70 8e 3f 19 9c 71 3f 7a 3b 72 3f 20 77 50 3f
       1.1128128 0.9437881 0.94622004 0.8143177
000070 3f 04 aa 3f 42 f0 58 3f f7 8e 6a 3f 1f fa 97 3f
       1.3282546 0.84741604 0.916244 1.1873206
000080 06 52 96 3f 89 8f 58 3f 90 6e 2f 3f 98 72 76 3f
       1.1743782 0.8459402 0.6852808 0.96268606
000090 19 47 82 3f 81 62 47 3f 48 7b 72 3f 1c 96 5b 3f
       1.0177947 0.7788468 0.9471936 0.85775924
0000a0 42 9b 8b 3f a7 5e 6c 3f d7 3d 7f 3f eb 44 5f 3f
       1.0906756 0.9233193 0.99703735 0.87214535
0000b0 a3 91 7d 3f a2 b5 6b 3f 3c b2 86 3f 99 8b 83 3f
       0.9905035 0.92074025 1.0523143 1.0276977
0000c0 4a 4b 50 3f 2e 63 6f 3f d0 8b 6e 3f cf fb 5a 3f
       0.8136488 0.9351071 0.93182087 0.8554048
0000d0 cd 5c 41 3f ca 56 82 3f d4 bf 45 3f b5 3b 91 3f
       0.7553223 1.0182736 0.7724583 1.1346346
0000e0 0c d7 85 3f 15 3f 88 3f ee 83 80 3f 01 52 92 3f
       1.0456252 1.0644251 1.0040262 1.1431276
0000f0 ab 87 65 3f 46 97 87 3f 43 35 69 3f 82 10 4f 3f
       0.8966014 1.059304 0.91096896 0.80884564

phi.initial_conv_module.0._layers.1.bias f4 [64]
000000 c0 df 91 3c 16 fb e6 3d 95 67 ec 3d 56 ff 3e bd
       0.017806888 0.112783596 0.11543194 -0.046630226
000010 f2 f5 43 be 65 1a 51 be ba b5 ae bd 9f c1 8a 3d
       -0.1913679 -0.20420225 -0.08530755 0.067752115
000020 77 56 16 3e b8 0c d2 3b 32 09 98 bb d2 85 1a 3e
       0.14681421 0.0064102076 -0.004639768 0.15090111
000030 8d f1 85 3d bf 68 9c bc 15 9e dd bd 03 9b b2 3d
       0.06540213 -0.019092916 -0.108211674 0.087209724
000040 40 39 ad bd a2 85 c7 3d b3 a4 26 be 68 ea b6 bd
       -0.08458185 0.09742285 -0.16273765 -0.08931428
000050 e0 99 97 bd 96 d6 ef 3d 76 ed 17 be c9 4e 91 bc
       -0.07402396 0.11710851 -0.14836678 -0.017737763
000060 c4 27 08 3e 4b 7a 40 be 8c 00 dd bd 82 49 dc 3d
       0.1329642 -0.18796651 -0.1079112 0.10756208
000070 32 83 69 3e 59 d5 1f 3e 13 74 1c 3c e1 c4 41 3d
       0.22803953 0.1560873 0.009549159 0.0473069
000080 0f 6b db 3c a7 06 01 3e a0 63 35 3e 7e cb f0 3d
       0.026784448 0.12600194 0.17713785 0.11757563
000090 5c 72 51 be 82 1b 35 3e 43 58 09 bc 8f a3 20 3e
       -0.20453781 0.17686275 -0.00838286 0.15687393
0000a0 f5 f2 16 3e 83 fd 25 3d 3d cb 92 bd c8 54 cd 3d
       0.14741118 0.04052497 -0.07167671 0.10025936
0000b0 f5 5e f5 3d 68 a8 34 be 20 85 37 be 10 99 1a be
       0.11981002 -0.17642367 -0.17921877 -0.15097451
0000c0 60 13 d7 3d a9 70 55 be 02 42 f9 3d f4 35 3c 3e
       0.10501742 -0.20843758 0.12170793 0.18379956
0000d0 34 1e 29 3e dd 09 17 be a2 b3 e3 3d ed ac de bc
       0.16515428 -0.14749856 0.111182466 -0.027182067
0000e0 16 fd 6c bd 23 9b 19 bd ba 5c db 3e 98 8b ed 3d
       -0.05785855 -0.037501466 0.42844182 0.11598891
0000f0 a4 24 c8 bd f7 ac 16 be 06 d6 0e 3d e3 eb 81 bd
       -0.09772614 -0.14714418 0.034872077 -0.0634382

phi.initial_conv_module.0._layers.1.running_mean f4 [64]
000000 27 47 aa bf 12 15 a5 3d 01 ff 51 bf b5 d8 4e bf
       -1.3302964 0.080606595 -0.8202973 -0.8079942
000010 fd 22 80 3f bc 25 b4 3f 26 11 8b 3e b1 19 00 be
       1.0010678 1.4074016 0.2716152 -0.125098
000020 0f a5 97 bf 54 f3 6b be bd 44 99 bf 40 72 96 bf
       -1.1847247 -0.23042041 -1.1974102 -1.1753616
000030 ba b0 4b bf 87 7f a3 be 42 3a 8c 3f 51 b9 91 bf
       -0.7956654 -0.31933233 1.0955279 -1.1384679
000040 07 06 c7 3e c4 e0 70 3f 46 2c 80 3f e0 70 8f 3f
       0.38871786 0.94092965 1.0013511 1.1206322
000050 8a 55 e6 3e 23 e4 46 bf 81 44 fc 3e 5b f5 a1 bf
       0.44987136 -0.7769186 0.49271014 -1.2653002
000060 1c d6 27 3f 56 31 87 3f 03 a2 93 3e ed 85 3d bf
       0.6556108 1.0561931 0.28834543 -0.7403248
000070 67 6c b9 3f 9f 9d a8 bf a3 56 fb 3e 71 3f a8 3f
       1.4486207 -1.3173102 0.49089536 1.3144361
000080 9a 39 3b bf 8a e7 3f 3e 95 4d 75 bf a5 87 a3 bf
       -0.7313477 0.18740669 -0.95821506 -1.277577
000090 c5 4e b5 3f 28 61 d6 bf ad b2 21 3e 01 ef 46 bf
       1.4164664 -1.67484 0.15790816 -0.7770844
0000a0 31 8b 04 3e 58 5c 0d 3e 96 00 25 3f a3 4c f3 be
       0.12943722 0.13804758 0.6445402 -0.47519407
0000b0 f4 97 08 3f 66 10 b2 3f f5 46 a1 3f 54 5b 7a 3f
       0.5335686 1.3911254 1.2599779 0.97795606
0000c0 4c ea b0 bf 6b b6 64 3f 98 b0 eb bf 04 52 d4 3e
       -1.3821502 0.8934085 -1.8413267 0.41468823
0000d0 16 90 80 be 07 1a 8b 3e b8 c5 5f be c6 e2 a8 3f
       -0.2510993 0.27168295 -0.21852767 1.3194206
0000e0 04 44 0c 3f ed 35 49 3f f5 67 e6 3e 9a fa 9f 3d
       0.54791284 0.7859791 0.45001188 0.0781147
0000f0 11 2c ae bf 6d e2 55 3f 6f b5 fa be ba 1b ac 3e
       -1.3607198 0.83548623 -0.48966548 0.33614904

phi.initial_conv_module.0._layers.1.running_var f4 [64]
000000 c7 7f 44 3c 2f a4 fc 3a ee 4c c8 3b 6d 42 07 3c
       0.011993355 0.0019275005 0.0061126864 0.008255583
000010 45 af 10 3b a5 8f 77 3b 40 b8 48 3b 4d 7c 5e 3b
       0.0022077125 0.0037774828 0.00306274 0.00339486
000020 b0 e8 4e 3c 86 d4 0e 3b 56 81 56 3c da bf 65 3c
       0.012628719 0.0021794154 0.0130923595 0.014022792
000030 60 08 91 3a 54 9e dc 38 ef 06 24 3b e3 ef 32 3c
       0.0011065118 0.000105199084 0.0025028547 0.010921451
000040 1d 32 ba 3a 0a d7 80 3b 36 20 10 3b ef 36 92 3b
       0.0014205609 0.0039318847 0.0021991855 0.004462115
000050 c9 ff 6e 3b 80 bf 81 3b be 33 0e 3b f4 7f 43 3c
       0.0036468378 0.003959596 0.0021698321 0.011932362
000060 e6 b8 89 3b 48 89 0e 3b de 33 9d 3a cb 12 1e 3c
       0.00420295 0.0021749306 0.0011993607 0.009648035
000070 27 f6 74 3c 74 5c c6 3b 1a 02 a2 3b 05 3e 0e 3c
       0.014951265 0.0060535017 0.004944098 0.008681779
000080 e4 d4 73 3b e5 b3 f0 3a c1 b8 54 3c 3d b8 90 3c
       0.003720575 0.001836416 0.012983502 0.017665977
000090 cd f4 a7 3b b1 64 10 3c 81 5d 36 3a ef 00 60 3b
       0.005125618 0.008813069 0.0006956682 0.0034180244
0000a0 2c c2 d7 3a 8b fd 7d 3a a1 62 00 3b 0a f6 14 3b
       0.0016461066 0.0009688965 0.0019590037 0.0022729659
0000b0 5f 09 98 3a 9d d5 7f 3b 86 af a3 3b 37 fc 95 3b
       0.0011599472 0.0039037236 0.0049952893 0.0045771855
0000c0 6e 4d 08 3c fc 6e 16 3a 58 e4 1c 3d 92 47 0e 3a
       0.008319242 0.0005738584 0.038303703 0.0005427535
0000d0 da ea d6 39 12 67 c2 3a 20 52 21 3a 12 fe bf 3b
       0.0004099224 0.0014831743 0.00061539 0.005859145
0000e0 7c 99 c3 3a d9 b7 f1 3a 5f fd b2 39 91 db 30 3b
       0.0014923061 0.0018441632 0.00034139582 0.002698634
0000f0 17 d2 92 3c 32 10 2e 3b fd 65 42 3a 6d e9 44 39
       0.017922444 0.0026559946 0.000741571 0.00018778974

phi.initial_conv_module.0._layers.4.conv.weight f4 [64, 1, 5]
000000 a4 2f c0 be 23 d8 b0 3e a5 17 c5 3e 40 eb 60 3e
       -0.37536347 0.345399 0.38494602 0.21964741
000010 db d3 63 be be 68 bf 3e e9 db 91 be 6f 7b 8e 3e
       -0.22248785 0.373846 -0.2848809 0.27828547
000020 45 50 29 bd 3f 88 af be d8 05 76 bc 63 bf 4b bc
       -0.041336317 -0.34283635 -0.015016042 -0.012435767
000030 06 0a 2f 3e 6b 0f 0f bf 78 74 b6 be 0f 26 ff 3e
       0.17093667 -0.558829 -0.35635734 0.49833724
000040 3c a5 ea bd d1 a3 03 3e ac ef 8a bd 43 ac 6c 3e
       -0.11457297 0.1285546 -0.06783995 0.23112588
000050 2b 0d 94 3d db 37 20 3e 9b 8c 53 3e e1 94 53 3d
       0.07229074 0.15646307 0.20659105 0.051655654
000060 41 1e bf 3e 7c eb bd ba 5a fb 7b be dd 55 2e 3e
       0.3732777 -0.0014489735 -0.24607602 0.17024942
000070 73 ff 48 3a 7d 23 62 be 67 3f e8 3d c2 17 3a bd
       0.00076674594 -0.2208385 0.11340218 -0.045432813
000080 b1 cb 86 bd 6a 4b 17 be 90 42 54 be f5 c7 c7 bd
       -0.0658182 -0.14774862 -0.20728517 -0.09754936
000090 37 7f 0e 3d b2 bc ed 3e d1 1b 99 be b4 9c 5a be
       0.03478929 0.46433026 -0.29904035 -0.2134884
0000a0 31 d4 86 be b3 13 2b 3d 1d be f7 3b 22 a5 b8 be
       -0.26333764 0.041766834 0.007560505 -0.36063486
0000b0 84 32 54 3e 87 cd ad be 1e 73 ec 3e 51 5d 50 3d
       0.20722395 -0.33945867 0.46181577 0.050870243
0000c0 8a 9e ef bd 8f e0 33 be 72 90 1f 3e a7 bb b4 3e
       -0.11700161 -0.17566131 0.15582445 0.35299417
0000d0 18 de bc be fe d2 64 be 13 59 6c 3e c4 35 b5 3d
       -0.36888194 -0.22346112 0.23080854 0.088481456
0000e0 1e 00 c1 bd f8 30 d9 bb 74 6a ad be d1 9e 4a be
       -0.094238505 -0.006628152 -0.3387028 -0.19787146
0000f0 79 13 c7 be ad 77 c0 be 25 4e e2 3c f5 80 64 3e
       -0.38882044 -0.37591305 0.027625153 0.22314818
000100 c0 99 aa 3e 75 39 bf bd 87 11 01 3e 63 ba b7 be
       0.33320427 -0.09337131 0.12604342 -0.3588439
000110 f5 81 4e 3e cd 6f 94 3e d1 00 88 3e 7e ce 06 be
       0.20166762 0.28991547 0.26563123 -0.13164708
000120 19 36 ba 3e d1 4c ed be 30 6f c0 bd d1 62 fe 3c
       0.36369398 -0.4634767 -0.09396207 0.031052979
000130 84 9f c0 be d5 2b f7 bd 0d 3a 0c bf 51 15 de bc
       -0.376217 -0.12068907 -0.5477608 -0.027109774
000140 e6 7f f1 bd fd 8b 9b 3d d0 2a 3d be 40 46 74 3e
       -0.11791973 0.0759506 -0.18473363 0.23854923
000150 60 2b dd bd 17 96 b2 3e 95 81 ab 3e 7f ee e6 be
       -0.10799289 0.34880134 0.334973 -0.45103833
000160 2b ae ca be 1a 25 37 3e 50 92 e9 3e 24 bf bf be
       -0.39586005 0.17885247 0.4561944 -0.37450516
000170 b3 df 9f 3c d8 83 44 be 5b cb ce 3e 86 29 3d 3e
       0.019515848 -0.1919092 0.40389523 0.18472871
000180 82 e9 d9 3d 93 6f ab 3e d5 0b a8 3d 1d e9 fa 3e
       0.10640241 0.33483562 0.08205382 0.49005976
000190 b0 99 fb bd 65 0e dc 3d 5a da 32 be 4e 40 9d be
       -0.12285173 0.10744933 -0.17466107 -0.30713123
0001a0 86 81 16 be ef 87 49 3e 2e d7 9e 3d ca 17 87 be
       -0.14697847 0.19680761 0.07755886 -0.26385337
0001b0 89 f6 d6 bd b9 c7 33 3d e4 dc 7c be 3b 11 a1 3e
       -0.104962416 0.043891642 -0.24693638 0.31458458
0001c0 90 59 8e be 17 27 ae 3d f8 90 95 be 33 2d f2 be
       -0.27802706 0.085035495 -0.29212165 -0.4730011
0001d0 e3 35 10 be 78 86 ad 3e 99 87 bf 3e 5d 92 9c 3d
       -0.14083056 0.33891654 0.3740814 0.07645104
0001e0 95 1e b7 3e 41 fd 83 be 97 07 72 3e b9 54 4e 3e
       0.3576552 -0.25779155 0.23635708 0.20149507
0001f0 41 33 ff be 5b f2 ce be 22 21 ec 3d fe 2a 5f bc
       -0.4984379 -0.40419278 0.11529757 -0.01362109
000200 30 3c 81 be 77 ff 8b be f5 b1 aa 3e a3 72 de 3d
       -0.25241232 -0.27343342 0.33338895 0.10861709
000210 21 94 aa bc e2 8a d7 be 82 60 d7 3e d2 a3 7e be
       -0.020822586 -0.42098147 0.42065817 -0.2486718
000220 0c dc 8d 3e 2d ea b1 bc ae 69 ba 3c 69 39 57 3e
       0.27706945 -0.021718109 0.02275547 0.21017994
000230 fb 23 ad bd 5a c0 22 be c5 a8 c9 3e 1b b5 c2 be
       -0.08454128 -0.15893689 0.39386573 -0.38028798
000240 c1 cf 69 3e cb ef e9 bd 76 b5 32 be 19 93 8a 3e
       0.22833158 -0.1142269 -0.17452034 0.27065352
000250 4d 40 2d 3d 22 f7 dd be 97 c6 be 3e 7f 74 97 bd
       0.04229765 -0.4335261 0.37260887 -0.07395267
000260 bc f0 e1 3e 19 58 8c bd ab 9d ca 3e a7 c4 34 3e
       0.44128978 -0.06852741 0.39573416 0.17653142
000270 3d a5 8a 3c 2e db 1f 3e 68 aa 91 bd 13 80 94 be
       0.016924495 0.15610954 -0.071125805 -0.29003963
000280 1d 50 f5 3e 47 b9 6e 3e b5 d9 00 be 5c b5 83 3e
       0.47912684 0.23312865 -0.12583049 0.25724304
000290 41 ed 32 be d1 7b 82 be e5 7f 8e be 58 ac 9e 3e
       -0.17473318 -0.2548509 -0.2783195 0.30990863
0002a0 4f 36 1e be 67 ad 95 3e a8 2d dd be 9f 7e 86 3c
       -0.15450405 0.29233858 -0.43198895 0.0164178
0002b0 50 3c 8d be fc e7 47 3e 97 de c9 3e 03 c2 92 3e
       -0.27585077 0.19522089 0.39427635 0.28663644
0002c0 91 6a b6 3d 68 15 9c be 19 c6 c7 be 67 67 b9 bd
       0.08907045 -0.30485082 -0.39018324 -0.090529256
0002d0 b6 a9 cb 3e a8 3e 84 be 3a da 4e 3e 99 b0 d9 3e
       0.39777917 -0.25829053 0.20200434 0.42517546
0002e0 2e 96 26 3e 6d 8a c1 be 0f 4e d0 bd af 76 ca bd
       0.16268227 -0.37800923 -0.101711385 -0.09885918
0002f0 40 b9 a3 3e f6 a4 b7 bc 19 27 25 bc 31 82 bf 3e
       0.31977272 -0.022417527 -0.010080122 0.37404016
000300 21 ae 04 3d 86 8e a7 3d 5f cc 8d be c2 d6 8d 3e
       0.032392625 0.08181481 -0.27694985 0.2770291
000310 c4 a3 1d 3d 61 6e 02 be c0 4e 2f 3c eb e8 d5 be
       0.038486257 -0.12737419 0.010699928 -0.41779265
000320 1e 57 14 3d b9 97 70 3e 8b cd d1 be b1 91 6d be
       0.036215894 0.23495378 -0.4097713 -0.23200108
000330 19 87 ac 3e cd 31 f3 bc d0 b7 52 bd 56 5a ae 3c
       0.3369682 -0.029686833 -0.05144483 0.02128331
000340 bb ad 4b be 05 7c cc 3e c9 ae 01 3d a3 81 b2 bd
       -0.19890492 0.3993837 0.03166083 -0.087161325
000350 c7 d6 94 3e 8f 12 a7 be a6 f5 7f bb 6d 1f 14 3e
       0.29070112 -0.32631347 -0.003905633 0.14465113
000360 7c 29 3e bc 24 b4 93 3e e4 ab d3 be 07 6c bb bd
       -0.01160657 0.28848374 -0.4134208 -0.09151464
000370 d8 7f 80 be 77 d0 c6 3e 24 68 05 3e 59 bd c5 be
       -0.25097537 0.3883092 0.13028008 -0.38621023
000380 be f6 d8 3d 97 c3 60 bd 96 4f 96 3e 9f 35 61 3e
       0.10593937 -0.05487403 0.29357594 0.21993111
000390 d7 b3 39 be 83 89 c6 3e 2f 3a 1a be ce a0 66 be
       -0.1813501 0.38776788 -0.15061258 -0.2252228
0003a0 cf f3 b8 3d 12 32 ef 3e a1 43 c5 3d 2b 2e ab be
       0.09030878 0.46717888 0.0963204 -0.3343366
0003b0 06 68 f2 bd 7b b8 f8 3e 43 5b 0a be 32 b7 38 be
       -0.11836247 0.48578247 -0.13511376 -0.18038633
0003c0 5d b4 90 be b2 98 42 be 48 fc 42 be eb bf 3f 3e
       -0.28262606 -0.19003561 -0.1904155 0.18725555
0003d0 9d 56 85 3e 47 5f bd 3e 8d e0 9d 3e 7a dc 31 3d
       0.26042643 0.36986753 0.3083538 0.043423153
0003e0 19 2e 8e 3e 91 ba 96 3e 71 67 ee be 20 d1 1e 3e
       0.27769545 0.29439214 -0.46563295 0.15509462
0003f0 1c d3 82 be 3e 1a b2 3e cd e5 66 be 71 be f1 3d
       -0.2555169 0.34785646 -0.225486 0.11803902

phi.initial_conv_module.0._layers.5.weight f4 [64]
000000 95 59 7b 3f 89 7f 8e 3f 79 e8 92 3f 86 40 74 3f
       0.98183566 1.1132671 1.1477195 0.95410955
000010 c9 3e 75 3f 77 9d 78 3f a7 c7 79 3f f7 29 9a 3f
       0.9579893 0.9711527 0.9757027 1.2044057
000020 ea 21 92 3f e9 0e 7e 3f a5 93 7c 3f e2 e4 96 3f
       1.14166 0.992415 0.9866279 1.17886
000030 d8 86 83 3f ab 39 64 3f 8c 24 8d 3f 67 b9 8a 3f
       1.0275526 0.89150494 1.1026778 1.083783
000040 c5 a4 5f 3f e0 e6 8e 3f fd bc 80 3f d8 ca 4b 3f
       0.87360793 1.1164207 1.0057675 0.7960639
000050 6a 5c 67 3f 04 36 84 3f ed 0d 67 3f 39 66 84 3f
       0.9037539 1.0328984 0.90255624 1.0343696
000060 2b bd 80 3f 05 fd 7b 3f 3e 6c 81 3f 16 56 75 3f
       1.005773 0.9843295 1.0111158 0.9583448
000070 c3 00 a4 3f 3b ae 9a 3f ec be 4c 3f 88 dd 87 3f
       1.2812732 1.2084421 0.79978824 1.0614481
000080 40 f5 73 3f 14 df 99 3f 71 93 91 3f 7d 91 96 3f
       0.95296097 1.2021203 1.137312 1.176315
000090 18 b3 85 3f 34 ea 88 3f be 3e 78 3f 80 3a a9 3f
       1.044528 1.0696473 0.96970737 1.3220978
0000a0 65 7e 8a 3f d6 84 82 3f f9 2c 6b 3f ba 03 9e 3f
       1.0819823 1.0196788 0.918655 1.2344887
0000b0 f6 4c 79 3f d0 58 6c 3f 79 03 81 3f 92 63 85 3f
       0.9738306 0.9232302 1.0079185 1.0421011
0000c0 5a 38 9b 3f fb 31 75 3f b4 3c 93 3f 2a f6 8f 3f
       1.2126572 0.9577939 1.15029 1.1246998
0000d0 fd 83 9d 3f 60 9f 83 3f 90 65 95 3f 3c 9d 81 3f
       1.2305905 1.0283012 1.167162 1.0126109
0000e0 74 f3 80 3f 8f f5 84 3f e9 fa 93 3f d7 26 97 3f
       1.0074296 1.0387439 1.1560947 1.1808728
0000f0 f0 48 80 3f d2 cd 80 3f 33 80 61 3f 43 d4 78 3f
       1.0022259 1.0062811 0.8808624 0.97198886

phi.initial_conv_module.0._layers.5.bias f4 [64]
000000 4c dc 0f be 25 03 99 3d 4e 45 f4 3d 37 d3 49 be
       -0.1404888 0.07471303 0.11927281 -0.19709478
000010 7c 2d c0 bd 02 bb 30 3d 7d ed 4c 3d 5a 38 0f 3e
       -0.093836755 0.043147095 0.050031174 0.1398634
000020 c7 21 5b 3e f3 cc 30 3d 8e 91 90 3c fa 21 da 3d
       0.21399604 0.043164205 0.01764753 0.10651012
000030 11 07 5c be ee e8 17 bd e1 2a b1 3e bb 70 d4 3c
       -0.2148707 -0.037087373 0.34603027 0.02593266
000040 ad 77 5c be a2 28 70 3e d2 31 66 bd 52 5c 07 be
       -0.21530028 0.23453 -0.056199856 -0.13218811
000050 a1 fc 1b bd e8 2e 8f 3d 42 5f 18 3d bf 7d f2 3c
       -0.038082723 0.069913685 0.03720022 0.029600976
000060 9c 85 a9 3e a2 a7 12 bd 30 04 dd bd cf bf 83 bd
       0.33109748 -0.0358044 -0.10791814 -0.06433069
000070 34 f8 59 3e 98 45 01 3e df 89 65 be b0 9d 2d 3e
       0.21286088 0.12624204 -0.22415875 0.16954684
000080 e3 13 b2 bd 8e a1 93 3e 86 b4 9a 3e f1 cd cb 3d
       -0.08695199 0.28834194 0.30215853 0.099513896
000090 73 7f 08 bd b8 8c 03 3e e9 4b 0c be de 20 89 3e
       -0.03332467 0.12846649 -0.13700832 0.26782888
0000a0 6e 33 44 3e 42 bc 14 be 34 80 61 3d 86 1a e5 3d
       0.19160244 -0.1452494 0.055053905 0.111866996
0000b0 4b c4 91 39 66 de 19 bd ab 82 c1 3d 9b 97 b5 3d
       0.00027802805 -0.03756561 0.09448751 0.08866807
0000c0 f6 aa 09 3e cf 55 3d 3d dc 76 28 3e db 51 f7 3d
       0.13444123 0.04622441 0.16451591 0.120761596
0000d0 87 11 98 3e 5d c2 23 3e 0d 80 72 3e a0 c1 34 3e
       0.29700872 0.15992112 0.2368166 0.17651987
0000e0 d2 fd 0a 3e fc 2f c6 3d 2a e7 48 3e fe bb 95 3e
       0.13573387 0.09677121 0.19619432 0.2924499
0000f0 9a 34 83 bc c2 3f 02 3e 97 e2 2e be b9 20 7b be
       -0.016016293 0.12719634 -0.17078625 -0.24524201

phi.initial_conv_module.0._layers.5.running_mean f4 [64]
000000 fa 13 c6 3c bf 0d 85 bb 57 03 b6 bd 1f b3 d4 3c
       0.024179447 -0.0040604766 -0.08887356 0.025964318
000010 77 1c 31 bd 49 7b 6c 3c d7 8a 11 bc 27 c3 47 bc
       -0.043240037 0.01443369 -0.0088832 -0.012192524
000020 c3 78 3c bd f7 00 ea bb 3c 1d d9 3b 41 44 8e bd
       -0.046013605 -0.0071412283 0.0066257995 -0.06946612
000030 3b ed 08 bc bf af 29 3a 1f 8a 4e 39 e4 eb d2 bd
       -0.008357341 0.00064730266 0.00019697145 -0.10298899
000040 1f ac 29 3a 71 f4 e7 3a c7 0c 3f bc 82 60 06 3c
       0.00064724864 0.0017696751 -0.011660761 0.00820172
000050 51 34 78 bc c8 ca be bb 0c 2d 02 3c 72 46 5a 3c
       -0.015149192 -0.0058225133 0.00794531 0.0133224595
000060 10 ca 9f 3b 65 b0 2c 3d 7c 21 68 bc af 11 d0 3c
       0.0048763826 0.04216041 -0.01416814 0.025399057
000070 e7 a0 5e b9 3d 14 46 bd 7e 50 81 3d b2 54 91 ba
       -0.0002123151 -0.048359144 0.06314181 -0.0011087863
000080 59 46 41 3d d4 e1 f0 bb 6b 93 12 bc fb 74 47 bd
       0.04718623 -0.0073511396 -0.00894628 -0.048695546
000090 6a e3 37 bd 47 4b 9f bc 82 70 d5 3b f6 fe e8 bc
       -0.044894613 -0.019445075 0.006513656 -0.028441887
0000a0 41 47 95 bb 88 6e 27 3c e3 b5 53 ba 12 99 9a bb
       -0.0045556133 0.010219224 -0.00080761145 -0.0047179544
0000b0 14 93 b2 ba 1f 6e ee bc dc 78 30 bc bf 73 1c 3c
       -0.0013624155 -0.029105244 -0.010771003 0.00954908
0000c0 87 e9 8a bc ca 19 aa bd 00 d0 42 bd e9 9f 3f ba
       -0.016957058 -0.083057 -0.047561646 -0.00073099
0000d0 41 94 ad bb 69 8d 09 3a 4b 68 3d bb ad ff 5b 39
       -0.0052972143 0.0005247207 -0.0028901275 0.00020980714
0000e0 54 1f 8e 39 08 50 1e bb f2 09 14 3b 7d 99 70 ba
       0.00027107692 -0.002415659 0.0022588936 -0.0009178145
0000f0 de 88 cf ba d7 ff d9 3a 28 72 ae 3b b8 f8 6b 3a
       -0.0015833636 0.0016632032 0.005323667 0.00090016006

phi.initial_conv_module.0._layers.5.running_var f4 [64]
000000 32 0a 05 3e b0 13 b0 3b 17 19 f4 3e e9 f2 c2 3e
       0.1299217 0.0053734407 0.47675392 0.3807595
000010 04 5a 02 3c 89 6a 8b 3a e2 79 47 3c 6c d1 64 3c
       0.007956032 0.0010636608 0.012175055 0.013965946
000020 4f ef c4 3d b8 c9 36 3c 95 81 93 3c 51 ec 5c 3e
       0.09615957 0.011156492 0.018006125 0.21574523
000030 c1 bf b8 3c 63 23 8f 3a 0f 66 6c 3a 21 ec 6f 3f
       0.022552373 0.001092058 0.00090178935 0.9371968
000040 90 68 3f 39 41 88 2e 3b 4e 8b 8e 3a 22 55 e3 3c
       0.00018254132 0.0026631507 0.0010875256 0.027750555
000050 34 0c cc 3c ac 4a 71 3b b8 ab bd 3b 90 f6 84 3d
       0.024908163 0.003681819 0.0057882927 0.064923406
000060 6d b9 dd 3a 91 7e bd 3b b1 08 72 3b a9 d6 10 3d
       0.0016916223 0.00578291 0.003693145 0.035360966
000070 a2 70 1c 3a 82 2b cc 3d 60 3d 82 3d bf 6c 8c 3a
       0.00059677113 0.09969236 0.063593626 0.0010713561
000080 53 d7 de 3e 71 d6 d2 3b 0f fe 5b 3c 88 03 13 3e
       0.43523654 0.006434255 0.0134272715 0.14356816
000090 5b 34 30 3c 3f 5c 32 3b 69 7f 36 3c 7c c0 1f 3d
       0.01075467 0.0027215627 0.011138775 0.039001927
0000a0 08 b5 60 3a c9 df 07 3c e9 da 82 39 91 77 40 3b
       0.00085718976 0.008293101 0.00024958633 0.0029368142
0000b0 d3 da 59 39 3a 21 88 3b 1f f1 21 3b 02 49 bc 3a
       0.00020776251 0.0041543515 0.002471037 0.001436502
0000c0 5f 02 00 3d be 21 0b 3c f2 fa 15 3e 7f e3 bb 3a
       0.03125226 0.0084919315 0.1464651 0.0014334767
0000d0 da 32 80 3b e1 6c a1 39 e8 4d fd 3a 7e 5c 29 3a
       0.003912312 0.00030789434 0.0019325586 0.0006460621
0000e0 f0 fd ed 39 14 4c bf 39 3d 5b f9 38 ad 6c f7 3a
       0.0004539336 0.00036487042 0.0001189024 0.0018876992
0000f0 ee 03 67 3d 63 30 23 39 32 e2 1b 3c 8a 72 cb 37
       0.056400232 0.00015562917 0.009514378 2.4252822e-05

phi.initial_conv_module.0._layers.7.se_conv.conv.weight f4 [10, 64, 1]
000000 ba fb c7 3d b2 a5 57 bd 89 f2 1f be cb 6c db bc
       0.0976481 -0.052648254 -0.15619864 -0.026785275
000010 90 8f 8d be ab ef 7e be 9d b2 82 be d8 75 75 3d
       -0.27648592 -0.24896114 -0.25526896 0.059926838
000020 73 17 eb bd 5d 00 01 be 0d 23 ec bb e1 b4 8c be
       -0.11479082 -0.12597795 -0.007206327 -0.2748175
000030 0c e0 a6 bd ad 62 11 be 5e 97 8a be 5a f3 ef bc
       -0.08148202 -0.14197798 -0.2706861 -0.029290844
000040 64 67 96 bd f5 24 06 be 91 a7 0e be a5 c8 08 be
       -0.07343939 -0.13100035 -0.13931109 -0.1335779
000050 e5 06 4d be 9a ce 8c be 30 ca d5 bd 90 e7 05 3e
       -0.20022161 -0.27501374 -0.10438955 0.13076615
000060 2c cc 7d be f8 f9 fb 3c b8 cf 09 3b 08 ce a5 3c
       -0.24784917 0.030758843 0.002102835 0.020239845
000070 d7 a8 15 3b 21 db 59 be 4f 4b f3 bb d1 e9 6b bd
       0.0022836232 -0.21274997 -0.007424749 -0.05759603
000080 6f 60 9b bd ad 23 2b be bb ce 3c be d1 e7 43 bd
       -0.075867526 -0.16712828 -0.18438236 -0.0478285
000090 46 a1 90 be 0c 01 74 be e0 3f 99 bd 4a a1 93 be
       -0.28248042 -0.23828524 -0.07482886 -0.2883399
0000a0 ef 95 3e be 07 ad f3 3d d1 ac 8a 3c 51 ce a4 3d
       -0.18611883 0.11898237 0.016928108 0.08047164
0000b0 a4 5b 90 bd 3f 4b 66 be 4f 19 3e be 1c bb d0 bd
       -0.07048729 -0.22489642 -0.18564342 -0.10191938
0000c0 e4 95 87 be bc 89 ca bd 60 e2 83 be 3a a5 51 3d
       -0.26481545 -0.09889552 -0.25758648 0.051182963
0000d0 77 04 04 3e 90 a6 7c bc 53 3d 7d 3d 01 75 da bd
       0.12892328 -0.015420571 0.06182606 -0.10666848
0000e0 72 4b 7c bd 7c 81 2d be a0 1c ac bd 48 2d 60 bd
       -0.061595388 -0.16943926 -0.08403897 -0.054730684
0000f0 6d 11 23 bd d6 12 4b be ae 1b e7 bd 0e 56 71 3d
       -0.03981154 -0.19831404 -0.11284576 0.05891996
000100 72 0b 07 be 75 c4 48 be 08 c5 75 3e a4 b5 2b bc
       -0.1318796 -0.19606192 0.24000943 -0.010480318
000110 e2 63 9e be d0 d8 fd 3c 3e c0 52 3e 42 b0 04 be
       -0.3093558 0.030987173 0.20581147 -0.12957862
000120 27 51 d5 3d 71 54 5f 3d 9c 28 bb bd cc a3 79 3e
       0.10415869 0.05452389 -0.09138605 0.2437889
000130 64 fc 61 be 16 8b 3f bc 0c 1b 48 3e ba 63 0a 3e
       -0.22068936 -0.0116908755 0.19541568 0.13514605
000140 d0 82 80 bd 6c ce 1d be 41 8f 43 be a3 25 9c bd
       -0.062749505 -0.15410775 -0.19097616 -0.07624366
000150 ea 90 5d 3d 17 0c be 3d 68 7a 55 3e a5 be 17 be
       0.05409328 0.0927965 0.20847476 -0.14818819
000160 3c f7 47 3d 2c 82 89 bd 4b fa fd bd 36 40 ee bd
       0.048819765 -0.067142814 -0.12401255 -0.11633341
000170 91 2b 65 bd 6f aa b4 3e 01 af e1 bd ef 91 c9 bc
       -0.05594975 0.3528628 -0.110197075 -0.02460572
000180 c0 32 e4 bd d4 08 87 bd 71 f1 a5 bd f1 cf 70 3d
       -0.11142492 -0.06593481 -0.08102692 0.05879206
000190 e8 04 ad be fe 9e 19 3e 23 1a 2e be 21 e8 b0 3e
       -0.33792806 0.15002057 -0.17002158 0.345521
0001a0 33 62 bf 3d f4 ee 42 be 7e 11 90 3d 7a 45 06 3c
       0.09344902 -0.19036466 0.07034586 0.008195275
0001b0 d2 ce 23 3b 83 b6 88 be 76 c6 4c be 99 9f 04 3e
       0.00249951 -0.26701745 -0.19997582 0.12951507
0001c0 c0 e0 66 3d fb d1 92 3d 47 a7 89 3e 5b 8b 97 3d
       0.056366682 0.07168957 0.26885435 0.07399627
0001d0 7b c3 b7 3d 5d d7 8c 3e b9 e4 3c 3e 38 4a ed 3d
       0.08972832 0.2750806 0.18446626 0.11586422
0001e0 ee 51 00 3e 1d fe e5 3d 3e 6b 35 bd b6 b4 e7 bc
       0.12531254 0.11230109 -0.044291727 -0.028284412
0001f0 f1 37 87 bd 4a 56 87 3e 9b 71 c6 bd f5 ae ca bd
       -0.06602467 0.2643302 -0.09689637 -0.09896652
000200 62 fc 45 bb 04 32 a3 bd 97 e0 a2 3e 7f c9 13 be
       -0.0030210246 -0.07968524 0.31811973 -0.14432333
000210 b1 19 95 be dd a2 dc 3d a0 c2 82 3e ff 7f 10 be
       -0.29121163 0.10773251 0.25539112 -0.14111327
000220 4f 93 8e 3e 2c c9 93 3d 5b 14 05 bd 46 a7 b9 3e
       0.27846763 0.07216105 -0.032490116 0.36260432
000230 62 c3 0d be 25 a5 0f bd a1 d9 13 3e cc b4 09 3e
       -0.13844064 -0.035069603 0.14438488 0.13447875
000240 0d 7f 04 be bb e7 96 3d 87 1f 1b be a9 ea 65 be
       -0.12939091 0.07368418 -0.15148745 -0.22452797
000250 ad 1e ac 3e 3a 72 32 3e cd 02 3b 3e fe 8d b6 bd
       0.33617154 0.17426386 0.18262787 -0.089138016
000260 bf 28 1a 3e 66 c5 fc 3c ee 08 14 3c 33 78 12 be
       0.15054606 0.030855846 0.009035332 -0.14303665
000270 2a 7e f4 3d 2a 20 b5 3e a0 b5 b9 3d d3 54 ff bc
       0.119381264 0.35376102 0.09067845 -0.031168377
000280 77 9d 92 bd c6 14 b6 bd 86 de 81 ba d0 b3 28 3e
       -0.0715894 -0.08890681 -0.0009908236 0.16474843
000290 58 44 91 be 92 b6 a9 3e 45 f2 ee bb da 3e af 3e
       -0.28372455 0.33147103 -0.0072920644 0.3422764
0002a0 ea ea 75 3e 28 aa 01 be 58 54 a6 3d 08 f7 3a 3d
       0.24015394 -0.12662566 0.08121556 0.045645744
0002b0 50 df 8e bd 7e 9f 55 be b4 3c 6a bd 34 b0 2d 3e
       -0.06976187 -0.20861623 -0.057186797 0.16961747
0002c0 47 9d ad 3d df 26 00 be fc 43 a1 3e f7 03 e4 bd
       0.08477264 -0.12514828 0.3149718 -0.11133569
0002d0 df 38 15 3e e1 a1 89 3e 59 3e 59 3e 2c a8 de 3d
       0.14572476 0.26881316 0.2121519 0.1087192
0002e0 27 e1 d2 3d e1 2f 21 3e 82 15 1c 3e a6 af d9 3d
       0.10296851 0.1574092 0.1524258 0.106292054
0002f0 23 ae e6 bd 03 e2 7e 3e d1 34 d4 bd b3 50 13 be
       -0.11263683 0.24890904 -0.103616364 -0.14386253
000300 42 d8 8a bd 98 46 55 be 45 7a c0 3d 99 76 5a be
       -0.06779529 -0.2082771 0.09398321 -0.21334304
000310 66 37 50 be 3c 9c db 3d f7 a2 76 3e 0d d6 ff bd
       -0.20333633 0.10723159 0.24085604 -0.12491999
000320 c0 c3 14 3d 15 c2 4f be d1 18 81 bd f2 54 0c 3d
       0.036319494 -0.2028888 -0.063035615 0.034260698
000330 4e 33 4a 3c a8 4f 69 bd 12 3f 90 3e 65 2e bc 3d
       0.012341334 -0.05696073 0.2817312 0.091885366
000340 04 cc 8b bd 2e 59 64 3e c6 89 5e 3b a8 b6 02 be
       -0.06826022 0.22299644 0.003395663 -0.1276499
000350 99 d4 52 3d 16 78 e4 3c 1c d5 07 3e 05 cd 14 3d
       0.05147228 0.027889293 0.13264889 0.036328334
000360 ed 13 d5 3d 09 19 08 bc c1 9d 5a be 55 d8 fe ba
       0.10404191 -0.00830675 -0.21349241 -0.0019443134
000370 f4 29 7c 3e a9 e2 a5 3e c6 1c 78 bd ed 59 84 3e
       0.24625379 0.3239949 -0.060574315 0.25849858
000380 b3 92 bc bd c1 3d a2 bd 94 7a 15 3d 96 3d 2d bd
       -0.09207668 -0.07921935 0.036493853 -0.04229506
000390 03 5b b7 bd b1 56 74 3e 4e d5 44 be be 50 96 3e
       -0.08952906 0.23861195 -0.19221994 0.29358476
0003a0 70 7a 74 3e bb 08 ac 3c 88 59 e0 3d 5b db 3a bd
       0.23874831 0.021000257 0.10954577 -0.04561935
0003b0 67 d0 17 bd 16 b1 dc bd 29 bc e9 bd 1f 34 2e 3e
       -0.037063982 -0.10775964 -0.11412842 0.1701207
0003c0 a9 31 27 3e 19 8b d9 bd ec 33 4f 3d 5d f0 f6 3c
       0.16327538 -0.10622234 0.050586626 0.030143911
0003d0 8c 7d 04 3e db 42 ab 3d 7e e0 54 bb f2 04 8a 3d
       0.12938517 0.08362361 -0.003248244 0.067392245
0003e0 83 de 16 3e 23 e3 99 3d b0 6f ca 3d 05 a0 98 bd
       0.14733319 0.07514026 0.09884584 -0.07452396
0003f0 18 df c5 bd 99 90 a1 3d 8d 63 8c bc 6b 35 92 3c
       -0.096616924 0.07888908 -0.017137313 0.017847737

phi.initial_conv_module.0._layers.7.se_conv2.conv.weight f4 [64, 10, 1]
000000 09 f6 00 be 00 87 9f bc 68 27 34 be d5 57 1c be
       -0.12593855 -0.019473553 -0.17593157 -0.1526788
000010 9e ec 9c be 04 8d 70 bd fb e8 a3 be bf c4 57 3e
       -0.30649275 -0.058728233 -0.32013687 0.21071146
000020 fe 8e 4c be cc 66 41 3c c2 8c 83 3d 53 b2 35 3b
       -0.19976422 0.011804294 0.06423332 0.0027724698
000030 ae 5a c8 3e 26 93 47 3e 3b d8 bf 3d 25 e6 a0 be
       0.39131683 0.19489726 0.093674146 -0.31425586
000040 a8 8d 06 3e 87 7b 07 3e ee 9f 13 3e 99 b8 74 3e
       0.13139975 0.13230716 0.14416477 0.23898543
000050 6b d6 b0 3e 44 e0 e0 3e e1 b9 e4 3e 6e b4 20 3e
       0.34538588 0.439211 0.44673064 0.15693828
000060 01 10 72 3e 4a f6 d5 be e0 39 4b bc cb 38 20 be
       0.23638918 -0.41789466 -0.012403935 -0.15646665
000070 e4 93 97 3e e9 d0 49 bd bc b3 60 be 71 c7 30 3e
       0.2960502 -0.049271498 -0.21943563 0.17263581
000080 74 0b 46 3e c1 98 e3 bd b4 ec 7e 3e dc 08 a5 be
       0.19340307 -0.1111312 0.24894983 -0.32233322
000090 0a 45 a3 3e 3e 7b 91 3d 0a ee ac bd f8 f2 63 3e
       0.3188861 0.07103585 -0.0844384 0.22260654
0000a0 d9 56 fe bc 5b 79 16 be de be 76 3e 8d 97 15 be
       -0.031047272 -0.14694731 0.24096248 -0.14608593
0000b0 8c 32 53 be c9 b6 7c bd cb 88 52 bc fa 6d 67 3d
       -0.20624751 -0.061697755 -0.012849997 0.056501366
0000c0 51 34 86 3e d1 e8 a8 3c a3 b2 28 3e 58 37 1d 3e
       0.2621179 0.020618828 0.16474395 0.15353143
0000d0 97 0b 94 3d e9 3e ab 3d c0 e2 97 3c 8c 25 07 3e
       0.07228773 0.083616085 0.01854074 0.13197917
0000e0 b4 a5 22 3e 0f 5c 20 be 72 51 52 3e c9 5b c4 bd
       0.15883523 -0.15660118 0.20538881 -0.09587819
0000f0 0d e5 a5 3e 44 e4 b1 3e 47 da 44 be 83 69 f2 3d
       0.32401314 0.34744465 -0.19223891 0.11836531
000100 5d 01 e4 3d 51 fd c7 be f5 f7 85 be 3f 80 43 be
       0.111330725 -0.39060453 -0.2616574 -0.19091891
000110 ac 97 ef 3e fd d6 8a be 64 60 ba 3d 26 a8 ea 3e
       0.46795404 -0.27117148 0.09100416 0.45831412
000120 c4 3f 0f 3d b1 85 ed 3e 33 3a 9e 3e 28 aa e3 be
       0.03497292 0.4639106 0.30903777 -0.44465756
000130 72 ce 92 3e a7 dd ac be 23 43 18 3f d1 4d bc 3e
       0.2867313 -0.33762857 0.5947744 0.3677812
000140 dd 98 aa 3e 46 d6 de 3e 3a 7e eb 3e 40 a4 e4 3e
       0.3331975 0.43522853 0.4599474 0.44656563
000150 cc 15 a7 3e d9 bb 08 bf 01 2f 13 3f 98 1f b7 bd
       0.32633817 -0.5341163 0.574936 -0.08941573
000160 88 9d 30 3e 25 b9 05 bc 7b be b5 3e 46 3f 32 3e
       0.17247593 -0.008161818 0.35496888 0.1740695
000170 a2 cb 8e 3e fd db e5 3d 54 6a de 3e 73 44 80 be
       0.27889735 0.112236 0.43440497 -0.25052223
000180 97 c4 23 3e 2c 8c 20 3d b7 79 26 3e 2b 0f 81 3e
       0.15992962 0.03919618 0.16257368 0.25206885
000190 3f ff 08 3e e3 7a b4 bc 71 a8 f3 3d 47 3d 82 bd
       0.13378619 -0.022031253 0.11897362 -0.06359344
0001a0 69 ac 09 be 99 e8 7e be 21 e3 3a bd 88 be 19 be
       -0.13444676 -0.24893416 -0.045626763 -0.15014088
0001b0 98 e9 02 3e ab 96 b3 3e 2a 23 45 be c2 b3 ae 3c
       0.12784421 0.35075888 -0.19251695 0.02132595
0001c0 52 8e 10 3f 41 01 88 3d 6d b0 fd 3e 58 d0 09 bd
       0.56467164 0.06640864 0.49548665 -0.033645958
0001d0 a1 b6 2c 3e 33 59 dd be 24 3a dd 3e 9e 4f b2 3e
       0.16866542 -0.43232116 0.4320842 0.34826368
0001e0 28 d7 68 3e 62 18 9a bb d6 25 00 3e e6 5c 97 be
       0.22738326 -0.0047026137 0.12514433 -0.29563063
0001f0 19 6c 88 3c 3e 37 e1 3d a3 17 25 3e 96 66 c2 bd
       0.016653107 0.10996865 0.16122298 -0.09492223
000200 a4 c4 1d bd 33 1f 2b be aa 70 58 bd 21 41 97 3e
       -0.03851761 -0.1671112 -0.05284182 0.29541877
000210 e5 0e 21 3e 2a 97 b6 3e fc 6e 46 3e dc 26 41 be
       0.15728338 0.35662204 0.19378275 -0.1886248
000220 50 34 0a 3e 2b 25 d8 bb 80 11 78 bd 03 3c 49 3e
       0.13496518 -0.0065962276 -0.060563564 0.19651799
000230 da af 63 3e 58 28 9b 3e 98 be 3c bd ee 68 82 3e
       0.22235051 0.30304217 -0.046080202 0.2547068
000240 cd 90 3d be 1c 5b 15 3e 3b 65 29 3e cd 8a 40 be
       -0.18512268 0.14585537 0.16542523 -0.18802948
000250 16 43 34 3e 51 be 07 bf 20 9e e1 3c dd d2 fc 3c
       0.17603716 -0.53024775 0.02754122 0.030862266
000260 c2 b7 eb bd 83 51 98 3d b9 89 b3 3e 57 7e 5a be
       -0.115096584 0.07437422 0.35066012 -0.21337257
000270 17 4a f5 3e 41 90 a8 be 74 3e b5 3e 14 a2 c5 3e
       0.4790809 -0.32922557 0.3539921 0.38600218
000280 85 43 d5 3e b6 c7 5b bd be e9 7f be 3b cb 53 bd
       0.41653076 -0.053657256 -0.2499151 -0.051707488
000290 e0 56 ae 3e ca a3 3b 3d 94 57 b5 3e b1 0c 9a be
       0.34050655 0.0458105 0.3541838 -0.30087808
0002a0 df 6e 09 be 29 b3 72 3e b5 9f 14 3d 75 5d 99 bd
       -0.134212 0.23701157 0.03628512 -0.07488529
0002b0 b9 b6 d5 3e c1 f5 39 bc e9 8d 58 be 1e 56 88 3b
       0.4174097 -0.011350096 -0.21147884 0.0041606566
0002c0 9b c1 36 be 32 53 9a be 1c f2 3b bd 57 74 18 bd
       -0.17847292 -0.30141598 -0.04588519 -0.037220325
0002d0 3a 9a 4c 3e 3b e8 96 3e 71 53 d4 bd b5 6c bb bc
       0.19980708 0.29474053 -0.10367478 -0.022878984
0002e0 fb 3c 91 3e e4 11 8e be bf 51 de bd 18 ed 06 be
       0.28366837 -0.27748024 -0.108554356 -0.13176382
0002f0 68 e9 16 be bd 99 8a be ad c4 f7 3e e1 95 1f 3e
       -0.14737475 -0.27070418 0.4839224 0.15584518
000300 51 32 0a 3e fc 68 20 3e 4e 3b a2 3e ac bf 65 3d
       0.13495757 0.15665048 0.3168587 0.056090996
000310 b7 9a a2 3e 1b 36 42 bd cd 76 b5 3e d4 01 57 3e
       0.31758663 -0.04741488 0.354422 0.20996791
000320 ba 10 02 3e 1a a5 b3 bd 40 9f a7 be 06 10 c3 be
       0.12701693 -0.08771725 -0.32738686 -0.38098162
000330 a5 1a 99 3e 28 48 85 be 11 28 50 be 9f 69 5c be
       0.2990314 -0.26031613 -0.20327784 -0.21524666
000340 9f 69 9e be 6a f1 f2 3c 32 b4 b2 3e 1e 7e 66 3c
       -0.30939957 0.02965613 0.34903103 0.014068155
000350 04 76 91 3e e6 52 4f 3c 47 a2 94 3e 85 1b 61 be
       0.2841035 0.012654042 0.29030058 -0.21983154
000360 a4 a6 76 3e 67 f9 ef be 23 15 07 3f 77 ab 21 bd
       0.24087006 -0.46869966 0.5276663 -0.039470162
000370 77 09 c4 3d 6b b9 48 be 77 65 68 3e 45 ba 12 3e
       0.09572118 -0.19601981 0.22694956 0.14328869
000380 c3 0b 89 bb d7 5c d4 3d 44 ee ad 3e ac de 61 3c
       -0.0041823103 0.1036927 0.33970845 0.013785999
000390 29 de 64 bd ee c6 03 be 16 60 9a 3e 3c 4a 5e 3e
       -0.05587593 -0.12868854 0.30151433 0.21708006
0003a0 92 b1 a3 bd 48 49 7b 3e 14 e4 cd be a3 0c 0d be
       -0.07992853 0.24539673 -0.40213072 -0.13774352
0003b0 bf 2d 8f 3e 57 f1 c8 bd 0b 11 9d be 9d 49 1f 3e
       0.2796459 -0.09811657 -0.30677065 0.15555425
0003c0 a9 cd 56 3e 3b e5 cf 3e dd 86 66 bc 6f 7b 70 3d
       0.2097689 0.40604576 -0.01407024 0.058711465
0003d0 62 4b 96 3d 4a 4d 31 be 0c a8 cc bc e6 79 b2 be
       0.07338597 -0.1731464 -0.024982475 -0.34858626
0003e0 11 f2 8e 3e c8 66 45 bd a0 77 5e bc 3f 31 9b 3e
       0.27919057 -0.048193723 -0.0135783255 0.3031101
0003f0 af ce 87 3c 8e 14 f9 3d 3a 0a 3e 3e 6d 77 f5 bc
       0.016578047 0.121621236 0.18558589 -0.029964173
