logs/bird_classification_distillation_extract_calls_100_epochs/2025-06-18_05-04-19/bird_classification_distillation_extract_calls_100_epochs_best_model.pth (torch, 338890 bytes, 198 tensors)

phi.initial_conv_module.0._layers.0.conv.weight f4 [64, 64, 1]
00000000: 4aea 663c fa1e 8c3d add4 0abd dcab 1dbd
00000010: 0a3f a13d a859 2938 8db7 79bd c970 81bb
00000020: 5dc4 a63d 2f00 f7bd c65c 4b3d cc9f 573c
00000030: 0af2 403c 0e78 a0bd 2e09 043d 4e35 923d
00000040: de69 333e 378e e2bd 8b90 51be 6dfc 16be
00000050: 9bf1 a6bd 1d74 ac3d d815 cb3d d83b 5ebd
00000060: b88f 5dbe 5826 a1be ae53 b6be 2536 523d
00000070: 0330 f13e 2dd2 b93e 1733 983d ab5b 6c3d
00000080: c614 fdbc ca39 ecbd 1c43 06be 87fe 2bbe
00000090: ae50 2cbe 412c e2bd ffec 3dbd a7a5 4fbd
000000a0: 970d 123e 5c13 3d3d d884 d93d cdc5 8a3e
000000b0: 6a6c 2c3d 2d99 d53d 16d9 3ebd ca91 93bd
000000c0: db45 ad3d 2bba 37bd 7f2f af3d 59e2 e83d
000000d0: 8230 7c3d c367 1cbd ed84 d53a 3d95 513d
000000e0: d49a 463c 79bf df3a 99ff 813d 51c4 913d
000000f0: d4f7 d53b 26cf debb 7b3b 58bd 5db3 553c
00000100: da4c c33c aa84 903d 73f6 8d3d 089d 01bd
00000110: f617 903c ce62 0dbd 236c bdbd 10b4 03bd
00000120: 6500 373d 2aea bebd ec99 143e 4fc0 a23d
00000130: 1aa9 fc3d 3463 523d 8f58 523d 9a09 97bc
00000140: addb 013d 2040 7dba ea52 89bd d17d 103d
00000150: 163a 913e 6424 4e3e b196 ae3c 76b9 38be
00000160: 9e48 22be 03c5 b7bd 6b5d 583d 4747 d3bd
00000170: 34e3 86bd 318f c03c e0cf 743b 4e13 a5bd
00000180: 0b7c a1bd f698 14be ac80 bfbd 9290 2cbe
00000190: 714e bebd 6326 1f3d 7e9e e33c fecb 7d3e
000001a0: fa6c d93e f03b b73e 9cc6 ba3e c15a 6d3e
000001b0: 38fc 04bc feaa 60be dd8e 97be 2aaf 9dbe
000001c0: 690f 9fbe 8b6e 88be 6d0b 5dbe 34b2 a6bd
000001d0: a948 b23d 8baa e83d 2026 723d bd71 2d3e
000001e0: d968 113e 48bd 67bd a861 6b3c 13f0 1e3d
000001f0: 6f7f 9fbd 5840 523a fce5 2c3d 802b febc
00000200: 605c 9ebe 3bae a7be 5a54 713b 5e38 94be
00000210: 55c1 75bd 22c3 3cbe a494 7fbd 8ba2 38bd
00000220: 8afc 6cbd 3684 21be 0d38 cbbd 221f 34be
00000230: 26a2 6abd 247e b2bd 2cb8 95bd e806 193e
00000240: 71cd 963c 42a7 583d f0bf 653e 2472 fa3d
00000250: b56d 603e 7407 ac3b 38ba 8e3d 1ccb 963d
00000260: 606c 8cbc 7c85 fbbc d428 203a bc44 7b3d
00000270: 3404 a93e 01d7 8f3e 67ae 183d 9047 6dbd
00000280: 4f19 42be 0247 ebbd 35d3 d2bd 68d3 943c
00000290: d864 233e c96d fa3d 3e19 583e 4ce9 363d
000002a0: 72eb 4e3c b0d0 073e 8139 803e fce5 3c3e
000002b0: 739d 523e c19f 243e 266d 043e 3ab7 213e
000002c0: 4067 0b3e d9cd d73c b3d2 9cbc 5a55 b03d
000002d0: 3b87 3dbd ffb2 303c baee 503e b62f 053e
000002e0: 99de 24bd d220 d6bc 67e3 5bbd 570b 463c
000002f0: 16e1 dc3c b650 183e 317a 72bc ad16 81ba
00000300: a2b2 8bbd 41bf 89bd cf70 b03b 0ead 10bd
00000310: 1ebc c9bc b8c9 2bbd 722e 9abc 406a f93c
00000320: 5e78 b1bc 18e7 4e3d a019 a13d d6b6 febc
00000330: d98d 69be 7160 3abb a953 503e 23d9 e8bd
00000340: 76af f43c c991 06be f919 61be 4752 e23b
00000350: 11d4 b03e 78de 913e 9174 803e 7c93 d7bc
00000360: 3849 e7bd 7d6c 4ebd c8f9 1e3d c922 8fbd
00000370: 13a5 31be b3d9 56be 818d 1bbc 4b0e 793e
00000380: 4d5d 913e e8ee da3d ae17 c1bb 49f4 1abe
00000390: bf48 3dbe 6fb6 8dbd d531 90bd 6fcd 0f3d
000003a0: 0ead 40bd ad20 19bd 67bc ab3e 6144 8e3e
000003b0: 0d71 6c3e 6390 a3bd df28 13be 2fe4 15be
000003c0: c93f 62bd fa1a f6bd ceef babd 1b63 8f3d
000003d0: 35cf 13be 5252 843d d2ba 103e 5fb6 ad3e
000003e0: 3da6 d2ba a6ba 963d 6015 9bbb c149 77bd
000003f0: a169 7fbd 55ea b63d 7908 c5bd 280b aa3d
0.014093945 0.06841846 -0.03389423 -0.038493976 0.07873352 4.037624e-05 -0.060966063 -0.0039502126
0.08142922 -0.12060582 0.049649023 0.013160657 0.011776457 -0.078353986 0.032235317 0.07139073
0.17520854 -0.110622816 -0.20465295 -0.1474473 -0.08151551 0.08420584 0.09916276 -0.05425629
-0.21636856 -0.31474566 -0.35610718 0.051321167 0.47106943 0.36293164 0.074316196 0.05770461
-0.030893695 -0.1153446 -0.13111538 -0.16796313 -0.16827652 -0.11043597 -0.046368595 -0.050695088
0.14262997 0.04616104 0.10621041 0.27104035 0.04209558 0.104296066 -0.046593748 -0.072055414
0.084605895 -0.044855278 0.08553981 0.113712974 0.0615697 -0.038184892 0.0016290225 0.051167715
0.012121875 0.0017070613 0.063475795 0.071175225 0.0065297876 -0.0067995964 -0.0527911 0.013043252
0.023840357 0.07056554 0.06931772 -0.031643897 0.01758955 -0.034518056 -0.09249141 -0.032154143
0.04467811 -0.09322007 0.14511842 0.07946836 0.12336941 0.05136414 0.051353987 -0.018437196
0.03170364 -0.00096607395 -0.06705268 0.035276238 0.2836463 0.2013107 0.02131209 -0.18039498
-0.15848014 -0.08973124 0.052823465 -0.103163294 -0.06586304 0.023505779 0.0037355348 -0.08060323
-0.078849874 -0.14511475 -0.09350714 -0.16852024 -0.09292305 0.038854968 0.027785536 0.24784848
0.42465955 0.35787916 0.36479652 0.23179151 -0.008116774 -0.21940228 -0.29601184 -0.30797702
-0.31066445 -0.26646838 -0.2158639 -0.08139458 0.08705265 0.113606535 0.05911839 0.16937919
0.14200152 -0.056576997 0.014366545 0.03880317 -0.07787978 0.0008020452 0.042211518 -0.031026602
-0.30929852 -0.32750115 0.003682396 -0.28949255 -0.05999883 -0.18433812 -0.062397614 -0.045076888
-0.057858028 -0.1577309 -0.099228 -0.17590001 -0.057283543 -0.08715466 -0.073105186 0.14944041
0.018408509 0.052893884 0.224365 0.12228802 0.2191685 0.005249912 0.06969112 0.07362959
-0.017141521 -0.030703299 0.00061095995 0.061344847 0.3301102 0.28093722 0.037275698 -0.057929575
-0.18954967 -0.11488153 -0.10294191 0.018167213 0.15956438 0.12227971 0.21103379 0.044656083
0.012629377 0.13263202 0.25043872 0.18447107 0.20567875 0.16076566 0.12932262 0.15792552
0.13613605 0.026343273 -0.019143438 0.086100295 -0.046271544 0.0107848635 0.20403567 0.13006482
-0.04025135 -0.026138697 -0.053683665 0.012087665 0.026962798 0.14874539 -0.0147996405 -0.0009848677
-0.06821181 -0.06725932 0.0053845416 -0.035321288 -0.024625834 -0.04194042 -0.018820975 0.030446172
-0.02166384 0.050513357 0.07866216 -0.031093042 -0.22808017 -0.0028438831 0.20344414 -0.113695405
0.029868823 -0.1314155 -0.21982564 0.006906781 0.34536794 0.28490043 0.25088933 -0.026315443
-0.11293262 -0.05039643 0.03881243 -0.069890566 -0.17348127 -0.20981483 -0.009494186 0.24321859
0.28391495 0.10690099 -0.0058927154 -0.1513225 -0.18484782 -0.06919562 -0.07040755 0.035108026
-0.047040038 -0.037384678 0.33542177 0.27786544 0.2309 -0.07986524 -0.1437106 -0.14637826
-0.05523661 -0.12016864 -0.0912777 0.07001325 -0.14434512 0.06461014 0.14133766 0.339282
-0.0016071271 0.07359819 -0.0047327727 -0.06037307 -0.062356595 0.08931414 -0.09620757 0.08302909

phi.initial_conv_module.0._layers.1.weight f4 [64]
00000000: 6c1a 7f3f 74e5 863f c2ee 9e3f 3f5b 6f3f
00000010: dee0 8d3f a06e 483f 66a9 be3f 709a 653f
00000020: 680a 733f 1e99 683f 3981 913f 2817 4b3f
00000030: 6028 653f 9d7e 823f e3cf 3f3f 7c51 3d3f
00000040: 1622 843f 06ad a13f f993 4e3f 2a9b 6a3f
00000050: 2750 693f b396 793f 54a6 0d3f 80a4 853f
00000060: 6f8f 7e3f 65e3 023f 6bf1 2c3f 99e6 7a3f
00000070: a04c 343f b3b8 5b3f a865 3e3f 3e64 7b3f
00000080: 047f 5a3f 30f1 7b3f 3876 7b3f 030e 983f
00000090: d73b 8c3f 915e 133f 8e9f 3d3f edc4 8d3f
000000a0: a475 5b3f 2d4b 593f aed3 6c3f eda9 763f
000000b0: 874c 8d3f 95a3 9d3f ebf2 fb3e 291d 2c3f
000000c0: c0e5 8c3f c3ec 9e3e a068 813f 8b8e 6e3f
000000d0: 9ba1 df3e b879 9f3f fd88 913f 148e 953f
000000e0: 9149 773f 4b67 1a3f b6a0 b13f 7660 463f
000000f0: 8d31 563f 023b 4c3f 49a8 643f 75a0 323f
0.9964969 1.0538774 1.2416613 0.93498605 1.1084249 0.782938 1.4895446 0.8968878
0.94937754 0.9085864 1.1367561 0.7933221 0.8951473 1.0194889 0.74926585 0.7395246
1.0322902 1.2630928 0.8069454 0.9164301 0.9113793 0.97495574 0.5533192 1.0440826
0.9943761 0.51128227 0.67555875 0.98008114 0.7042942 0.85828704 0.74373865 0.9819983
0.8535006 0.984149 0.9822726 1.1879276 1.0955762 0.5756617 0.74071586 1.1075722
0.8572638 0.84880334 0.925105 0.96353036 1.1038979 1.2315546 0.4920877 0.67231995
1.1007614 0.3104001 1.0110054 0.93186253 0.43677983 1.2459021 1.136993 1.1683984
0.9659663 0.6031386 1.387717 0.7749094 0.8366936 0.7977754 0.8931928 0.6977609

phi.initial_conv_module.0._layers.1.bias f4 [64]
00000000: 8fe0 01bf f8ec 3bbf 8a0a 07bf 48e7 de3c
00000010: 2534 82bd 78d7 9fbd effb 72bd 56c3 81be
00000020: 0f5d 34bd 00b2 4d3d 2162 623d 9e7f 833d
00000030: bb36 1cbf e0f7 9c3d c559 b1bc b57d 8e3e
00000040: 8bcd a33e 50a5 acbd a74e af3e 20d2 2d3e
00000050: 19ee a83e c900 44be fdf0 603d c616 22be
00000060: 350c 74bd 85b3 103e 3037 1d3d 98ef f3bd
00000070: 2ac2 f63d a764 f5bc 79fc cd3d cb1a c23d
00000080: 982a 98bd 97bf 9bbe 666d 5a3d b077 97be
00000090: 810e 0abe 23ed 75be c23f c03c bd20 bb3d
000000a0: e9ca 90bd 148e 09be a67a a0bd d207 8fbe
000000b0: 93e3 d0be 1793 863e dbb8 cb3e 8ba6 c0be
000000c0: db9e 2fbd b06d b03d f964 52be 5c5a 22be
000000d0: 939a ef3e deb4 e3bc 41b8 293e f1d0 f5be
000000e0: 68a3 b5be 4dec 393e e0e3 17be cdcb 20bd
000000f0: 4b9a 32bf 0ff0 493d 9640 75be a7aa 94be
-0.50733274 -0.7340846 -0.52750456 0.027209893 -0.06357602 -0.07804769 -0.059322294 -0.25344342
-0.04403406 0.050218582 0.055269364 0.064208254 -0.6102101 0.07664466 -0.02164925 0.27830282
0.31992754 -0.08429968 0.34239694 0.16974688 0.32994154 -0.19140925 0.054917324 -0.15829
-0.059581954 0.14130981 0.03838271 -0.11910933 0.120487526 -0.029955221 0.10057921 0.094777666
-0.07429999 -0.3041961 0.053326987 -0.29583502 -0.13482095 -0.24016242 0.023467902 0.09137104
-0.07069952 -0.13433105 -0.07835893 -0.27935654 -0.40798625 0.26284096 0.3978947 -0.37627062
-0.042876106 0.08614671 -0.2054633 -0.15854782 0.46797618 -0.027796205 0.16574194 -0.48010972
-0.35476232 0.18156548 -0.14833021 -0.03925686 -0.6976668 0.049301203 -0.23950419 -0.29036447

phi.initial_conv_module.0._layers.1.running_mean f4 [64]
00000000: 207f 8fbe 16a9 bc3e cd65 8e3f d406 03be
00000010: 40ff 703f 7470 0bbf 78a5 3e3e f903 2ebf
00000020: ebb1 55bf 9976 78bf 50af b5be e85c 0bbf
00000030: e1ae aabd 5cf9 ad3f 2d31 4cbf c490 a2be
00000040: f73b 1640 7a95 a1bc 8c33 1abe 194c 1240
00000050: b2f9 733f 4baa 29bf b188 debe b7d5 a2bf
00000060: 97da 823e 94d6 3abe bdd9 7c3d 9e26 783f
00000070: 9058 b3be 0d3d 563b 89ab ed3e 97bd dd3e
00000080: ca2f 803e 5115 8b3f 4052 5bbe ccdf 473e
00000090: 8d76 0540 4c38 6f3f aafb 03c0 0eb7 cebe
000000a0: c9de 2cbf 1c3a 0c40 7fed 733f 9aba df3e
000000b0: 3265 2540 3811 5f40 b7ed efbf 34b8 a33f
000000c0: 7826 c43f c435 60bf 3d3e 443e 1685 f43f
000000d0: 3eb8 04c0 372a c9be 724a 693e b3a7 8e3e
000000e0: 679b 21be 50f4 16bf 4f35 aabe 505b 3a3f
000000f0: 52a5 9bbf b2ec 2a3f 1f50 04bf e4f5 8a3e
-0.28026676 0.36847752 1.1124817 -0.12795573 0.9413948 -0.54468465 0.18617809 -0.6797481
-0.83474606 -0.97055966 -0.35485315 -0.5443864 -0.08334137 1.3591723 -0.79762536 -0.31751072
2.34741 -0.019724596 -0.15058726 2.2858946 0.9530288 -0.6627547 -0.43463662 -1.272147
0.25557396 -0.18245918 0.06173109 0.96933925 -0.35028505 0.0032690198 0.46419933 0.43308708
0.2503646 1.086588 -0.21418095 0.19518965 2.0853608 0.9344528 -2.0622354 -0.40374035
-0.67527443 2.1910467 0.95284265 0.43697053 2.5843015 3.485426 -1.874442 1.2790589
1.532424 -0.8758204 0.19164367 1.9103115 -2.0737453 -0.3929002 0.22782305 0.2786232
-0.15781938 -0.5896654 -0.33243796 0.7279558 -1.2159827 0.6676742 -0.51684755 0.27140725

phi.initial_conv_module.0._layers.1.running_var f4 [64]
00000000: ee4a 863f 4c38 2c3f 71ad a140 9373 183f
00000010: d2c0 243f b492 cf3e 71c1 ee3e c86e 423f
00000020: 360f a53f 631b 903f 3e47 e03e b972 2d3f
00000030: ddf2 c93e d532 de3f 4c71 3f40 d94a 843f
00000040: a84b 2440 815f 2f3f 38c7 153f 4780 0a40
00000050: d3cf 573f 2564 f43f a577 1c40 0105 603f
00000060: 13ea 123f 6cf4 623f 83fd 7340 4d78 c03f
00000070: 7e0b e03f 9500 cd3f 1c11 053f 5f40 823f
00000080: aead 0e40 20b6 a53f 7f11 8f3f 9daf 9d3f
00000090: f6a9 0740 9d63 ec3e ebb6 1e40 922c fb3e
000000a0: b500 d43e 6d54 8d40 9f04 8f3f 5d15 a73f
000000b0: b1d9 3740 0243 be40 b0a9 0940 bfd7 8a3f
000000c0: e820 5f40 956d 1e3f 1b98 8e3f fc69 0e40
000000d0: cb55 0140 359b 153f 4aba e43e fecf 453f
000000e0: 788e 1d3f 07b1 723f fdf6 343f 224c ac3f
000000f0: eab0 fe3f f0fe 1b40 e1ad 2b3f d993 e03f
1.0491617 0.672734 5.052422 0.5955135 0.6435672 0.40541613 0.4663196 0.7595029
1.2895267 1.1258358 0.43804353 0.6775318 0.39443102 1.7359263 2.99129 1.0335342
2.5671177 0.685051 0.5850711 2.1640794 0.8430149 1.9093062 2.4448025 0.87507635
0.5738842 0.8865421 3.8123481 1.5036713 1.7503507 1.6015803 0.5197923 1.0175894
2.2293506 1.2946205 1.1177214 1.2319218 2.1197486 0.4616975 2.4799144 0.49057442
0.4140679 4.416556 1.1173285 1.3053395 2.8726618 5.9456797 2.150982 1.084709
3.4863834 0.6188596 1.1140169 2.2252188 2.0208614 0.5843995 0.44673377 0.77270496
0.61545515 0.9480137 0.70689374 1.3460734 1.989774 2.4374352 0.67062193 1.754512

phi.initial_conv_module.0._layers.4.conv.weight f4 [64, 1, 5]
00000000: f805 45be 6049 6e3d 1e0d cf3e 2386 ba3e
00000010: 130f 9ebe c371 323e a18e aebc d1b5 a13e
00000020: 4e5d 883b f0e4 44be bc94 a5be 2625 8ebe
00000030: dce2 d63d f9de 2cbe 7824 0fbf ab3d c9bd
00000040: eeda 85be 607b 3a3e 7c0c f1bd ef2c cfbe
00000050: 4235 70be ea05 a7bd be36 bd3d fc3b b03e
00000060: 23e7 f0bd 8950 ad3e 0675 873e a255 cb3d
00000070: 726f c1be 7d41 c3bd 5dc7 64be 3912 483e
00000080: 2ba5 523e a8ce 533e 2ad8 fbbd 5613 b6bc
00000090: a1d1 77be 0072 9a3e a1c6 823e 311c 593e
000000a0: 99e2 3b3c ba42 45bd 6840 99be d57b 6ebe
000000b0: 0589 bdbe 76fe a9be f717 5bbe 988c 99bd
000000c0: 4b91 143d 36c3 be3e b412 66be 14f4 ab3d
000000d0: 877c 9b3e 847e 113e 4cd9 33be db73 3a3e
000000e0: 4ba4 7b3e d751 2b3c 232f 99be e269 12be
000000f0: 8f87 813e a68b 553d 426d 003f e59d 923d
00000100: c5dd 693e e1a2 52bd c133 68be 5bca a7be
00000110: bf4e 0d3e 1e46 c13e f1c2 33bd 723d 0bbf
00000120: c6f7 9abe 30b3 d83c 40f6 aa3d 22c4 18be
00000130: 0668 87be 44e3 62be cfe9 093d 4420 d83e
00000140: 5076 5abe b283 1c3e ed67 cfbe b0c0 18be
00000150: 3fbd da3e 14b0 33be 81f6 f73d 41f6 ba3e
00000160: 12c1 513e 0569 1e3e eb6b a5be f9d0 30be
00000170: de45 1c3d b088 873e 8c4b 143e e6d7 87be
00000180: d1fc 7d3e e786 debc 0247 a33e 4c3d adbe
00000190: 78a1 473e 30f9 28be b7d2 62be 4e37 a8be
000001a0: c9ca 9c3e d52f 4dbe 039e 9bbe d625 ac3e
000001b0: f506 8b3d 9856 843e 1106 f63b f7e7 913e
000001c0: 6828 8fbc b625 8cbe 731d febe 517c 593e
000001d0: 1c0a 43be af4f babd 6f80 13be 639a b1be
000001e0: 7d2f b7be 8509 9c3d 7105 7e3e e885 953d
000001f0: 4283 f0bc 3f8f 2f3e 19bf 44be e60e d5be
00000200: 07e4 bb3d 83e5 a9be 7c5b 6abe f98e 723e
00000210: 8d93 e4bd 4883 b73e a7ad 9b3e 37f5 98be
00000220: 194a 22be 3771 9b3e f804 ee3c 8f41 db3c
00000230: 6ee0 633e eb14 273d 4f4b 9f3d c57a 88be
00000240: e8b5 65be 03d5 54be 2afd c3be 0db4 2dbe
00000250: 1f2c 2a3e 23dd 0e3e 81d3 81be 0854 873e
00000260: f7dd 66be 25b9 a2be 5e13 a0be 8d8b 07bd
00000270: 2e0b 86bc d77f 9cbe 3f60 1abe 7705 b93e
00000280: ccb2 213e 0d09 a23e f2bb 84be 12e3 d33e
00000290: 2316 32bd 07a8 9fbe 6e23 c03e 123f a53e
000002a0: 7104 4dbe b6fc e43d f49d 6a3e 97e6 99bd
000002b0: 3914 b43e 8062 063f 3b69 f43d f344 babd
000002c0: ec15 03be 2000 eb3e ce69 a83e 8956 4a3e
000002d0: 4bea ac3e 1729 8ebe 755b 91be 127d 6e3d
000002e0: 7ba1 a7bd 9f53 63be 5533 f73d e228 9e3e
000002f0: 0a12 963e 1065 cdbd bac8 313d c653 96be
00000300: 07df a0be 0200 84be 01ff e73d bdc3 963e
00000310: a8fa 483e fd3f 9a3d 6e21 28be 21e9 8cbe
00000320: 409c afbe 7331 af3d 673f 4c3e d10b 4c3e
00000330: 85c5 1e3e 0558 f1bb 73bd 2a3e f864 c03d
00000340: 2147 323e 9ff2 133f 2d52 7f3c b359 b33d
00000350: 846d 78be 3aca b4be 48ad c03e 8504 0dbf
00000360: 04ad 5cbe 0434 d7bd 4d77 d43d 6b26 4fbe
00000370: 31d3 71be 6efc ae3e 7745 c13e 2d84 cfbc
00000380: a8c3 33be b5f8 853e e4f0 b6be 09bf f93d
00000390: 1c37 23be 89d1 973d 6503 863e 6cc6 833e
000003a0: 0759 86be 67ff b4be 24c1 c63c 777b 05bd
000003b0: 61d8 8fbe fdd5 1d3e 09c1 bc3e 8254 81bd
000003c0: 2188 79be ab4e d3be 43ff 7ebd b6f3 883e
000003d0: fb93 63bd bbb7 bbbd eeb5 a4be e7f8 c4be
000003e0: eacd 123e aae7 433e 2fd7 c8bd 5a25 bf3e
000003f0: 1818 7abd 8cdf c7be a153 83be 6137 81be
-0.19240558 0.058175445 0.40439695 0.36430463 -0.30870876 0.17426209 -0.021308245 0.31584027
0.0041615134 -0.19227958 -0.32340038 -0.27762717 0.10492489 -0.16881932 -0.5591502 -0.09826215
-0.26143593 0.18211126 -0.11769959 -0.4046397 -0.23457816 -0.08155425 0.09238957 0.34420764
-0.11762836 0.33850506 0.2645647 0.099284425 -0.3778034 -0.09533975 -0.22341676 0.19538201
0.20570819 0.20684302 -0.122970894 -0.022226017 -0.24201061 0.301651 0.25542167 0.2120216
0.011467599 -0.04815934 -0.2993195 -0.23289426 -0.370186 -0.3320195 -0.2139586 -0.07497519
0.036271375 0.3725831 -0.22468072 0.083961636 0.30368444 0.14208418 -0.17563361 0.18208258
0.24574392 0.010456524 -0.29918775 -0.14298204 0.25298735 0.052135132 0.50166714 0.07159022
0.22838505 -0.051424865 -0.22675993 -0.32771572 0.1379957 0.37748808 -0.043887082 -0.54390633
-0.3026716 0.02645263 0.0834775 -0.14918569 -0.2644655 -0.22157007 0.033670243 0.42212117
-0.21334195 0.15284613 -0.40508977 -0.14917254 0.42722508 -0.17547637 0.12107564 0.36516002
0.20483807 0.1546975 -0.32308897 -0.17267217 0.038152568 0.26471472 0.14481944 -0.26531905
0.24803473 -0.027163936 0.31890112 -0.33835828 0.19495189 -0.16501307 -0.22150694 -0.32854694
0.30623463 -0.20037778 -0.3039399 0.33622617 0.06788436 0.25847316 0.0075080474 0.28497288
-0.017475322 -0.2737252 -0.49631843 0.21238829 -0.19046825 -0.0909723 -0.14404462 -0.346881
-0.35778418 0.07619003 0.24806763 0.07300931 -0.029359464 0.17144488 -0.19213523 -0.4161293
0.09174352 -0.33182916 -0.22886461 0.23687352 -0.111609556 0.35842347 0.30405924 -0.29874584
-0.15848579 0.30359814 0.029055104 0.02676466 0.22253582 0.040791433 0.07778036 -0.26656166
-0.22432673 -0.20784383 -0.38279086 -0.16963215 0.16618393 0.13951544 -0.25356677 0.26431298
-0.2254561 -0.3178188 -0.31264776 -0.03309207 -0.016362753 -0.30566284 -0.15075777 0.36136982
0.15790862 0.3164753 -0.2592464 0.41384178 -0.043478142 -0.31182882 0.3752703 0.3227468
-0.20021226 0.11181013 0.22911817 -0.07514685 0.3517168 0.5249405 0.119341336 -0.09095182
-0.12801331 0.45898533 0.32893223 0.19759573 0.337725 -0.27765724 -0.2839009 0.058224745
-0.08185097 -0.22199868 0.12070338 0.30890566 0.29310638 -0.10029042 0.04340432 -0.2936079
-0.31420156 -0.25781256 0.11327935 0.2944621 0.19626868 0.07531736 -0.16419002 -0.27521613
-0.34298897 0.085543536 0.19946061 0.19926383 0.15505035 -0.007365229 0.16673832 0.09394258
0.17409946 0.57792085 0.015583557 0.08757343 -0.24260527 -0.35310537 0.37632203 -0.5508502
-0.21550375 -0.10507968 0.10374317 -0.20229499 -0.2361572 0.34176964 0.3774831 -0.025331581
-0.17555106 0.2616631 -0.3573066 0.1219464 -0.15938991 0.074130125 0.26174465 0.2573732
-0.26239797 -0.35351107 0.024262019 -0.03258845 -0.28094772 0.15413661 0.36866024 -0.06314947
-0.24368335 -0.41270956 -0.062255155 0.26748437 -0.055561047 -0.09165903 -0.3217005 -0.38471147
0.14336362 0.19131342 -0.09806668 0.37333184 -0.061058134 -0.3903774 -0.2564974 -0.25237563

phi.initial_conv_module.0._layers.5.weight f4 [64]
00000000: 989a 643f 9e9e 613f 69c9 243f 3572 6d3f
00000010: 0bd2 953f a8d4 453f bd1a 913f c1b1 463f
00000020: 1e95 813f 6779 803f f8b3 6a3f 42d1 823f
00000030: ff49 453f 1723 913f f65d 8d3f 1974 443f
00000040: 63a2 763f 5d7a 5a3f 7d2d 733f 192f 8f3f
00000050: 7215 7a3f 69c5 803f 5d05 713f 125e 813f
00000060: 2ba4 6c3f 148f 9b3f 8293 5f3f 01a3 823f
00000070: 616a 623f e408 7b3f 7860 693f b226 5b3f
00000080: 5095 353f 72cd 383f aea5 443f f51a 5a3f
00000090: e32f 963f 6e4d 523f d3d8 7e3f e900 803f
000000a0: 62c0 813f b03c 373f 5e63 783f 52fa 833f
000000b0: 3f47 783f 1687 a83f 4a61 8b3f 0d13 6a3f
000000c0: 7e40 813f f0bb 863f 3ff7 403f 3d73 503f
000000d0: f144 813f d232 823f 7893 603f ce80 7c3f
000000e0: 7d99 493f 509b 4f3f 5f36 693f 4f12 393f
000000f0: a41b 473f ef7a 8b3f 6275 4c3f d243 2a3f
0.8929839 0.88132656 0.6436983 0.9275239 1.1704725 0.7727761 1.1336285 0.7761498
1.0123632 1.0037049 0.9168086 1.022011 0.77066034 1.1338834 1.10443 0.7673965
0.9634153 0.8534296 0.94991285 1.1186248 0.9768897 1.0060245 0.9414881 1.0106833
0.92438 1.2153039 0.87334454 1.0205995 0.8844357 0.9806044 0.91162825 0.8560592
0.7093096 0.72188485 0.7681531 0.85197383 1.1733364 0.821494 0.995496 1.0000278
1.0136836 0.71576977 0.9702662 1.0310767 0.9698371 1.3166225 1.0889065 0.9143532
1.0097806 1.0526104 0.7537727 0.8142584 1.0099164 1.0171759 0.8772502 0.9863404
0.7874983 0.81096363 0.9109859 0.7229356 0.7777655 1.0896891 0.7986661 0.66509736

phi.initial_conv_module.0._layers.5.bias f4 [64]
00000000: 17cc 4a3d ea40 84be 1e2e 58bd 3d2a 083e
00000010: 1b43 80bc 444f 01be 43ff b53e 0d0e ba3d
00000020: bebc ff3e f686 bc3d cad0 013f 285f 0e3d
00000030: bf60 96bd 69fd 6d3e 7dbc 6a3d 3626 043f
00000040: de6f 333e 940d 553e 4ec9 cf3e 73b4 fc3d
00000050: 646a f63e e975 873e fa1f a1ba c57a 2d3e
00000060: 70f7 8bbd afe8 b83e 4ab2 7a3d 3c13 253d
00000070: 6639 683e 3e6a 8d3e 0210 1d3e 5efb ad3e
00000080: 660c 823d 020e 54bd 68e2 c93d 113d 6abe
00000090: 91fb 623d 2389 18bd 9581 3d3e 3ac7 eb3e
000000a0: 9abc 883e da53 f3ba b907 ea3e a7e4 d6bd
000000b0: 48f3 e5bb 4054 0d3e 96f1 d33e f2c9 303d
000000c0: 7d5e 3f3d 758e a33d 4192 1e3e 7baf 4e3e
000000d0: ff6b 74bd 83df 673e e62e a33c d1c1 ef3d
000000e0: f7e7 f5be 51be d03d e155 ec3d 7f14 d3bc
000000f0: 7cae 2abe 3493 aabd 93f3 f5bd 47c5 bbbe
0.04951104 -0.25830775 -0.052778356 0.13297363 -0.015656998 -0.12627894 0.35546312 0.09084711
0.49948686 0.09205429 0.5070921 0.034758717 -0.073426716 0.232412 0.057308663 0.51620805
0.17523143 0.20805961 0.4058327 0.123391055 0.48128045 0.26457146 -0.0012292855 0.16941364
-0.06834304 0.36115023 0.061205186 0.040301546 0.22678146 0.2762012 0.15338138 0.3398084
0.06350021 -0.05177117 0.09857637 -0.22874857 0.055415694 -0.03724016 0.18506463 0.46050435
0.26706392 -0.0018564418 0.45709017 -0.10492831 -0.007017527 0.1380167 0.41395253 0.04316134
0.04672097 0.07986156 0.15485479 0.20184128 -0.059673306 0.22643857 0.019919824 0.117068894
-0.48028538 0.1019255 0.115398176 -0.02576661 -0.16668123 -0.08328858 -0.12009349 -0.36673948

phi.initial_conv_module.0._layers.5.running_mean f4 [64]
00000000: d782 97bc 0dec 24bd ffaa 9bbd 2b44 e4bd
00000010: b4a6 db39 1293 a63c 1266 9c3d a97e fb3a
00000020: ab09 febd 052b 26bc fbd8 0e3d 8f5f a3b9
00000030: 704a 03be 59bf 9dbc 0ca9 83bd fb32 37bd
00000040: 46dd 8abd 09c0 133e f85e 5abc 8071 76bc
00000050: 68ce 8bbd 1ad3 583c 82dc 28bd 4fc4 41bd
00000060: 3980 dc3a 35fe aabd 4e70 633d 52a8 1abc
00000070: 050a 14bc 096e 4fbd 83e2 02be 7baf edbc
00000080: 86d9 233d da8d 253c 352f 613e 509f ee3c
00000090: ae93 20bd d19e cfbc 0c1d 60bd 83cc f93c
000000a0: 82aa 303c 7c75 843d c02c 52bc 111e edbc
000000b0: 70b5 0b3b 5331 94bc 7bab aebc 2bdf 55bc
000000c0: 3e52 b8bd 7e54 eabc a416 ecbc 7ef0 993c
000000d0: 6d4f 01bd b113 ae3d 8097 ba3d 621d 6339
000000e0: 9c2f 96bd 5ed3 af3c 0111 9b3d 7ccd 283d
000000f0: 148b 56be 4543 c0bb 3e25 8fbb 19f5 01bd
-0.018495006 -0.040264178 -0.07600974 -0.111458145 0.0004189514 0.0203338 0.07636656 0.0019187528
-0.12404188 -0.010142093 0.034874897 -0.0003116098 -0.12821364 -0.01925628 -0.064287275 -0.044726353
-0.06780486 0.14428724 -0.013328306 -0.015041709 -0.06826478 0.013233924 -0.041225918 -0.047306355
0.0016822881 -0.083492674 0.055527024 -0.009439545 -0.009035592 -0.050642047 -0.1278172 -0.02901434
0.04000237 0.010104621 0.21990664 0.0291287 -0.03920334 -0.025344284 -0.0547152 0.030493027
0.01078284 0.06467721 -0.012828052 -0.028945 0.0021317862 -0.018089926 -0.021322003 -0.013053696
-0.090000615 -0.028604742 -0.02881939 0.018791433 -0.031569887 0.084998496 0.091109276 0.00021659353
-0.073332995 0.021463092 0.075716026 0.04121159 -0.20951492 -0.005867394 -0.0043684533 -0.031727884

phi.initial_conv_module.0._layers.5.running_var f4 [64]
00000000: ce3d 653d 5eb7 b23c 5fe1 8e3e 9004 1f3e
00000010: 4b62 5c3d a696 8c3d d2ea 043e 182d e03c
00000020: 1cdf 363e cadb 6e3c 37c1 2a3d 857d bb3c
00000030: 9e6e 223e c7cb 1e3d 3aaa da3d bc4a 163d
00000040: dd58 5e3d f13c 4b3e b3f8 e53c 37cd 053c
00000050: 4d44 2c3d 951c e73c 4c31 a53c 5d13 813d
00000060: 1e7a 953c a783 013d 44e3 173d e1df 193d
00000070: 5512 333c cefe c33d db26 f53d f9f7 e63c
00000080: 7e98 923d 8dff 503d 8e74 fd3e 4bcb bd3d
00000090: 8d73 223d 4671 1b3c ee74 9a3d 8e85 d53d
000000a0: 7218 3b3d 96a6 143e 1f2a 893c 0307 493e
000000b0: cc0f fa3c ab0b 123c 81b6 9f3b d048 6d3c
000000c0: ff32 1e3e 6a49 113c ff18 4c3d 2bdd 243c
000000d0: a677 6c3b 0b65 753d e041 ae3d f48e f03c
000000e0: 301a c73d 7b13 6e3c 77b2 063e a471 113d
000000f0: 6285 af3d 0a98 e23c b182 5a3d d12a 933c
0.055967145 0.021815952 0.2790632 0.15529084 0.053804677 0.068646714 0.12980202 0.027365252
0.17858547 0.014578769 0.04168817 0.022887 0.1586251 0.038768556 0.106769994 0.036692366
0.054283965 0.19847466 0.02807269 0.008166603 0.042057324 0.028211871 0.020165108 0.063025214
0.018246707 0.031619694 0.03708197 0.037567023 0.010929664 0.095700845 0.11970302 0.028194414
0.07157992 0.051024962 0.49502987 0.09267291 0.03966098 0.009487456 0.07541834 0.10425864
0.04567761 0.14516672 0.016743718 0.19631581 0.03052511 0.008913915 0.004874051 0.014482692
0.15449141 0.008867601 0.049828526 0.010062496 0.0036082058 0.059910815 0.085086584 0.02936504
0.09721792 0.014531012 0.13154016 0.035508767 0.08570363 0.027660388 0.053347293 0.017964752

phi.initial_conv_module.0._layers.7.se_conv.conv.weight f4 [10, 64, 1]
00000000: 2064 7dbd be72 6a3e e459 4a3e b382 0cbe
00000010: 8761 8cbe f0a1 8fbe 579b 093f d7f2 633e
00000020: c3ed 19be fe14 be3e c34c c9bd 5a5d 57bd
00000030: c5df 973d ffba 9dbb 6538 393e d6c6 39bd
00000040: 439a 61bd 990d 81bd b60a f83d 9db0 dcbd
00000050: c322 883e 56cc 0a3e accb eabd 5744 8a3e
00000060: fdd3 813e 33c8 54be 465a a13d 5e82 84be
00000070: 98bc 31be 88e1 8c3e 2887 ac3e 2719 cabd
00000080: 61e2 65be eaea 46be 8cc6 74bd 537c b73d
00000090: 5593 17be 5944 f93e 32c7 983e ffbd d53e
000000a0: a444 a5be eb07 3b3e c18e d03c ac0c 423e
000000b0: 3d95 a73e c3af 99bd 7e42 d33d 664a a93d
000000c0: 79f9 7b3c a8a9 db3e 41af f9bc 9b5b 873e
000000d0: c8bf 4fbe 4ca5 0d3e 1791 01be fc16 0abd
000000e0: fbf6 713e 2b84 783d c8d8 e53e 08ae 173e
000000f0: e192 0ebe d617 103d 7a7d 9a3e c02f 11be
00000100: d8a0 64bd f1de b0bd cebd 763d 7927 5e3e
00000110: 21c6 96be 696a efbe 2982 abbe ed24 abbd
00000120: ba52 8dbd a43d a23e 23bd f4be 486a 9f3c
00000130: 80b7 09bf 54c5 b6be c61d 1d3e 989d 7b3e
00000140: 7b3a ab3d 45dc 0abe 2ad9 bd3e 840b d0be
00000150: 32ca d13b d5c2 7b3e 45c8 c73c 1bea 1cbd
00000160: 1c6d 10bf c62f 243d 9918 a13e 7623 4ebe
00000170: 04ba a13e fb22 07be bd80 a43e ddd0 603e
00000180: 7ec5 e33b 5d0c cabd 3012 473e d838 833c
00000190: 85e0 643d f13b 433e f4d7 853e b4f9 03bd
000001a0: 39f5 0bbf 70f4 b53e 5d70 bfba d9b9 75bb
000001b0: 81b3 1dbf 858c d0bd d540 853e f7e6 b2be
000001c0: fba2 863e 31db a3bd b980 1f3d 7a50 023f
000001d0: b4d3 e4bc f703 1c3e 2881 89bd a131 4ebe
000001e0: a4ed 153e 6d49 39be 7024 abbe e605 20bd
000001f0: f3f2 29bd f892 fdba 860d 2b3c 0da3 373e
00000200: 6246 5b3d 051c 273e 9940 8cbe 89bf 8cbc
00000210: 3080 d4be e6c6 74be f5ab 063f 4fc1 9cbd
00000220: e4eb a03e ee8f af3e d622 abbe 62c2 1e3c
00000230: a0c7 72be 8485 23be 8cd8 bdbd 453a 653e
00000240: 8465 0bbe 286d fdbd c7f0 0f3e 28ba 94be
00000250: b7a1 763e 89e2 b83e 1afa 913e cc6f 4f3e
00000260: 020c c638 f73d 113e 5994 693d f137 d23d
00000270: 3eeb 5a3c 8ee5 a03d 2c34 963d d164 8fbd
00000280: f9d8 a73e 3a16 e13d 2d52 5f3e c4b0 963d
00000290: d6d2 27bf dba8 d53d 59ea d23e 8782 3fbe
000002a0: 0924 b8bd 4f8b 953e 78cd 83be 1729 823e
000002b0: e1ac 9dbd 7eb0 2abf 91c5 023d 39c8 bfbe
000002c0: 6a23 99be e9ce 7c3e fc50 033e d075 193e
000002d0: 209d f23d 6162 c2be 4a16 8a3d ca62 32be
000002e0: 0360 2b3e a91c 02be eabd ba3e d8d1 50bd
000002f0: b61e f2bd 5c65 adbc 0b45 46bd ce78 66bd
00000300: cd45 a93e 3757 8cbd b560 b53d d1ba 8a3e
00000310: 8282 32bd 8bf4 9c3d 470e 293e f9e3 363e
00000320: 2650 4fbb e8c3 c4be 0b2f 033f 57b0 d9bd
00000330: 6c04 debd ad42 acbd 77ba 8bbe e3dd a33d
00000340: 10fc 9a3c c4c5 1f3e e7f7 103d 4111 12bd
00000350: d182 83be 0b40 41bd 3979 263e cad7 96bb
00000360: 362e 95be 9afb 7f3e 103a 49bd 7474 183e
00000370: 1ecf 3d3e dd3b 343d 145a 083e 3d44 e6be
00000380: cdd0 aabb 5a51 0a3e d5e8 fe3d 73c6 823d
00000390: 499d d0be 7f8a 193e 17a4 b73d f5aa 723e
000003a0: f28d eabe 6368 40be d0a4 893e 078c d0bd
000003b0: bd01 2ebe 96de 95be ea7c a23e 9ea0 67bc
000003c0: 73b2 69bd 2bf2 b03e a8a0 90be cf91 303e
000003d0: a54f f5bc 8837 cd3e 8948 cebe 828a b03d
000003e0: a1b1 ecbd a515 1dbe e6eb ddbe 9cd7 893c
000003f0: 84e6 73bc f6c2 253e ae65 45bd 27dd 1cbf
-0.061863065 0.22895333 0.19760853 -0.13721733 -0.27418157 -0.28053236 0.53752655 0.22260605
-0.15032105 0.3712539 -0.09829094 -0.05257926 0.074157275 -0.0048135514 0.18087919 -0.04535564
-0.055078756 -0.06301422 0.12111418 -0.10775874 0.2658902 0.1355451 -0.114646286 0.27005264
0.25357047 -0.20779495 0.078785464 -0.25880712 -0.17357099 0.27515817 0.33696866 -0.09868079
-0.22449638 -0.1942555 -0.05975966 0.0895926 -0.14802296 0.48684958 0.29839474 0.41746518
-0.3227893 0.18264739 0.025458695 0.18950146 0.32731047 -0.07504227 0.10315417 0.082661435
0.015379303 0.42902875 -0.030479075 0.26437077 -0.20288002 0.13832587 -0.12653004 -0.033713326
0.23629372 0.06067292 0.44891953 0.14812481 -0.13923217 0.03517898 0.30173856 -0.14178371
-0.055817455 -0.08636273 0.060239606 0.21694745 -0.29448035 -0.46760872 -0.33497742 -0.083566524
-0.069005445 0.31687653 -0.4780055 0.019459859 -0.53795624 -0.35697424 0.15343389 0.24571836
0.08360764 -0.13560589 0.37079746 -0.40633786 0.0064022774 0.24586041 0.024387488 -0.038309198
-0.5641649 0.040084623 0.3146408 -0.20130715 0.3158723 -0.13196938 0.3212947 0.21954675
0.006951033 -0.09865639 0.19440532 0.016018316 0.05587818 0.19065835 0.26141322 -0.032220557
-0.54671055 0.35538054 -0.001460563 -0.0037494807 -0.61602026 -0.10183052 0.26026025 -0.34941837
0.2629622 -0.08000792 0.03894112 0.5090405 -0.02793298 0.15235887 -0.06714088 -0.2013612
0.14641434 -0.18094416 -0.33426237 -0.039068125 -0.04149146 -0.0019346168 0.010440236 0.17933293
0.05353392 0.16319282 -0.27393034 -0.017181175 -0.4150405 -0.23903999 0.52606136 -0.07654058
0.3142997 0.34289497 -0.33425015 0.009689899 -0.23708963 -0.15968901 -0.09269819 0.2238551
-0.13612944 -0.123743355 0.14056693 -0.29048276 0.24085127 0.36110333 0.28511125 0.20257491
9.443612e-05 0.14183794 0.05702624 0.10264576 0.01336175 0.07856284 0.0733417 -0.07001651
0.32782724 0.109905675 0.21808691 0.07357934 -0.65556085 0.10432597 0.41194418 -0.18702136
-0.08991248 0.29207847 -0.25742698 0.25421974 -0.0769899 -0.66675556 0.031926695 -0.37457445
-0.2990983 0.24688305 0.12823862 0.14986348 0.118463755 -0.37965682 0.067425326 -0.17420498
0.16735844 -0.12706245 0.36473018 -0.050981373 -0.11822264 -0.021166496 -0.04840569 -0.056267552
0.33061066 -0.068525724 0.08856336 0.27095655 -0.043581493 0.0766383 0.16509353 0.17860402
-0.0031633466 -0.38430715 0.51243657 -0.10629337 -0.10840687 -0.08411155 -0.272907 0.08001306
0.01891902 0.15602785 0.035392668 -0.035660986 -0.25685742 -0.047180217 0.1625718 -0.004603361
-0.2913682 0.24998322 -0.04912764 0.14888173 0.1853604 0.044002403 0.13315612 -0.44973937
-0.0052128793 0.13507596 0.12446753 0.063855074 -0.40745 0.14994238 0.089668445 0.23698027
-0.4581142 -0.1878982 0.26883554 -0.10182958 -0.1699285 -0.29271382 0.31735927 -0.014137415
-0.057054948 0.3455976 -0.2824757 0.17243122 -0.029945204 0.4008143 -0.40289715 0.08620168
-0.115573175 -0.15340288 -0.4334404 0.016826443 -0.014886502 0.16187653 -0.048192672 -0.6127495

phi.initial_conv_module.0._layers.7.se_conv2.conv.weight f4 [64, 10, 1]
00000000: e071 233e 33a2 67bd a0a2 a13a 5a88 34be
00000010: d909 a63e 0aae 8a3e c890 363d 8003 33be
00000020: 9af7 74be 997d 93be 3708 333e 96e7 673d
00000030: c778 963c 1ddd bfbc 1c3b cb3e af92 543e
00000040: 05cf b43c a92d af3e 02d7 bbbe 68fe b0be
00000050: 615a 85be b299 0fbe 8c84 5fbd 2e94 643e
00000060: 27c0 51be 3c10 803e 7b9d 643e ee56 d7bd
00000070: 4e65 ff3d de4a b7bd ef4a 8abe de1c 07bf
00000080: 833f 9c3d d2bc a8be db69 ca3e 3429 c53d
00000090: f041 d33e d05d 903e 0746 e7bd addc 953e
000000a0: 35f4 b6bc 853c 6fbd 01d8 8a3e 9995 2b3c
000000b0: 0c63 b03d 9f90 a23e 21bb 2cbd 1d74 a3bd
000000c0: 72d6 4dbe 3c14 b9bd c0b0 33bd c965 d63e
000000d0: 7a61 3dbd 904d d23e c67b f83d d720 d13d
000000e0: ed1f 233e b862 a83d 932a 79bc 2e27 51be
000000f0: de7e 29be 631d da3e 94a1 dcbe 17d9 8dbe
00000100: 806c f3bc 742d 093f 3a1c 4bbd 5e70 133e
00000110: 8045 afbd d29b c1be 2af8 6cbe b8ff bc3e
00000120: 37a1 4abc 271f e5bc 3e10 fabd c0c3 6c3e
00000130: f69f 21be 829a e7bd 1fe3 dabd 0f26 d6be
00000140: 7c4c 153d b0ac 983e 662f e5bd b314 19be
00000150: eab8 19bf 85c0 acbe b51f 44bf 2103 ee3b
00000160: cb8a 853e 6ae6 84be bb8f 3cbe 624f 56be
00000170: 75f1 0abd 5f95 e13d b5ae 05bd 6782 b93d
00000180: e28b 493d e92b 473e 932d b7bd 82e3 a9bd
00000190: 4336 3ebc 1c44 df3d 68e4 bc3e b2d3 95be
000001a0: deb6 11bd db1c 0e3c 748c a3be 3732 aebd
000001b0: ab09 ba3d f74c 64bd e7b6 60be 0ac8 c93e
000001c0: 966d 173e c52b 5f3e ab6a e1be e29b dc3d
000001d0: eae1 e7be dad1 0ebe d380 96be 570f b0be
000001e0: 8886 c13c c307 e33e b232 183e fe09 783d
000001f0: 9b05 aabe 8c72 973e 713f ac3e 87ce 283d
00000200: c631 97b9 a9f9 9dbe f98d 99bd 5b25 70be
00000210: 026e 883e 6cb5 e53e efc1 cd3b a3be e83e
00000220: 9625 2dbe f450 5d3d 9dcb 3dbe 81d3 52be
00000230: d487 7ebe f967 cfbc 27c5 bf3e eec3 d2be
00000240: 980c fdbe 3c2e 7bbe 20d6 00bf 8df3 9ebe
00000250: 1304 6ebe 4236 99be d933 e63d b23b 613c
00000260: fa39 cd3e e8a9 40be 79e6 083e 1900 823e
00000270: 68b8 b3be 5456 f13e dfa6 59be 20ff a73d
00000280: 9455 433e 9fa0 503e 540e dd3e bf00 453e
00000290: 96ad 2bbe daf9 f73e 645c a5be 69d4 f43e
000002a0: 7c91 66be 3e37 513e 5234 04bd a5a6 a03e
000002b0: 0ae1 af3e 9f00 07be 4a44 45be d420 d73e
000002c0: 5d3c 08be fb25 c83d b28d 8bbe 532b a9bd
000002d0: 87a9 0fbe b9ad e8bd b187 a23d 123d 973e
000002e0: d877 b43e 8b3a 023f b0f8 bd3c 0bcc 4f3e
000002f0: a2e4 1bbe 846e 04be 6d5e b63e de78 6bbe
00000300: c728 083f 4f55 293e 406d 273e 7815 173f
00000310: c930 a6be 380a 12be 2bc1 16be c26b 88be
00000320: d99c 01bf 40ec 083f 18a7 70be 9b1d 853e
00000330: 7629 993e 1f3e c73e 7580 6bbe d1d6 19be
00000340: 980e acbe 064e 9a3d ee07 73be c291 19bf
00000350: 21aa cdbe 2665 80be f158 163f a1ef b3be
00000360: 100b 9d3e 4169 293f db98 3fbe 0f0f dcbe
00000370: 81b2 e43e a3cf 3fbe 68c5 e0be 7289 b03d
00000380: bbf8 853e c8f1 00bf a2e2 cb3d 8696 1e3e
00000390: 7861 153d ad4a 17be 6f19 b4be dc0f cc3e
000003a0: 9fb2 93be c27c 003e 6015 6fbe 1cbe ddbd
000003b0: 85a5 2fbf b523 2abf eff9 2a3e 427f bc3c
000003c0: ee57 9839 eeb2 1f3e ce24 54be 3be4 f83e
000003d0: 0cf4 cf3e 16cb 0f3e e847 11bf 5e93 d5bb
000003e0: 0b64 66bd 9039 3b3e 5cf6 f33e 3692 c03d
000003f0: d333 1d3e 99c5 73bf 098c 89be 00b5 66bd
0.15961409 -0.05655117 0.0012331791 -0.17630139 0.32429388 0.27085906 0.044571668 -0.17481804
-0.23922578 -0.2880676 0.17483602 0.056617342 0.018368138 -0.023420865 0.39693534 0.2075908
0.02207137 0.34214523 -0.36687475 -0.34569097 -0.26045516 -0.14023474 -0.054569766 0.22322151
-0.20483457 0.25012386 0.22325699 -0.105146274 0.12470494 -0.08949827 -0.27010295 -0.5277842
0.076293014 -0.32956558 0.39533886 0.096269995 0.41261244 0.28196573 -0.112926535 0.29269925
-0.022333244 -0.058407325 0.27117923 0.010472679 0.08612642 0.31750962 -0.042170648 -0.07981131
-0.20101336 -0.090370625 -0.043869734 0.4187453 -0.04623554 0.410748 0.12132983 0.10211342
0.15930147 0.08221954 -0.015207904 -0.20425102 -0.16552302 0.42600545 -0.43092024 -0.2770469
-0.029714823 0.5358498 -0.049587466 0.14398333 -0.08558178 -0.37814194 -0.23141542 0.36913848
-0.012367538 -0.027968956 -0.12210129 0.23121548 -0.15783677 -0.11308767 -0.10687851 -0.4182591
0.036449894 0.2981925 -0.11190681 -0.14949302 -0.6004778 -0.3374063 -0.7661088 0.0072635566
0.26082453 -0.25957042 -0.18414204 -0.2092872 -0.033921678 0.110148184 -0.032637317 0.090580754
0.04920567 0.19450344 -0.089442395 -0.08295347 -0.011609617 0.10901663 0.3689301 -0.29263073
-0.035574786 0.008673872 -0.31943095 -0.085056715 0.09083875 -0.055737462 -0.21944772 0.3941043
0.14787897 0.2179404 -0.44026694 0.1077192 -0.45289546 -0.1394724 -0.2939516 -0.34386703
0.02362372 0.4434186 0.14863089 0.060556404 -0.33207402 0.2957958 0.33642152 0.041212585
-0.00028838048 -0.30854538 -0.07497782 -0.2345175 0.2664643 0.44864976 0.006279222 0.45457944
-0.16908869 0.05403228 -0.18534704 -0.20588495 -0.24856502 -0.025318133 0.37455103 -0.41165107
-0.4942367 -0.24529356 -0.5032673 -0.3104519 -0.23243742 -0.29924208 0.11240358 0.013747143
0.40083295 -0.18814814 0.13369168 0.253907 -0.35101628 0.47136176 -0.21255063 0.08202958
0.19075614 0.20373772 0.43174994 0.19238566 -0.16765437 0.4843281 -0.3229705 0.47818306
-0.22516435 0.2043123 -0.03227646 0.3137714 0.3435138 -0.1318383 -0.19264331 0.42017233
-0.13304277 0.09772869 -0.27256542 -0.082602166 -0.14029513 -0.1136126 0.07936037 0.2953878
0.35247684 0.5087058 0.023189873 0.2029268 -0.15223935 -0.12932783 0.35618916 -0.22995326
0.5318722 0.16536449 0.1635027 0.59017134 -0.32459095 -0.1426171 -0.14722125 -0.26644713
-0.50629956 0.5348549 -0.23501241 0.2599915 0.29914445 0.38914582 -0.22998221 -0.15023352
-0.33604884 0.07534413 -0.23733494 -0.59988034 -0.4016886 -0.2507717 0.58729464 -0.3514376
0.30672503 0.6617623 -0.18710653 -0.4298024 0.44667438 -0.18731551 -0.4390061 0.086199656
0.2616633 -0.5036893 0.09955336 0.15487108 0.036469907 -0.1477458 -0.35175654 0.3985585
-0.28847215 0.12547591 -0.23347998 -0.10827276 -0.6861194 -0.66460735 0.16696905 0.0230099
0.00029057212 0.155956 -0.20717165 0.48611626 0.4061588 0.14042315 -0.56750345 -0.0065178117
-0.056247752 0.18283677 0.47648895 0.094028875 0.153518 -0.95223385 -0.2686465 -0.05632496

phi.initial_conv_module.0._layers.8.conv.weight f4 [32, 64, 1]
00000000: 4f39 e2bc 4d7f 643d cc38 383e cb7f 8dbd
00000010: 58d9 cd3d 2ddd 56bd ac11 3ebe 4acc f1be
00000020: 6192 953d 39b6 863d b2db f4bc 73c2 ce3d
00000030: ff1f 2cbd 8208 05be 758b 09bd 8eda 0c3d
00000040: ba63 c13e d0d6 b9bd 379e 163e 978d 3c3a
00000050: d2c4 113d fc00 ad3d aec3 123e 0b37 42be
00000060: b29c 36be e4d0 9fbd f3d4 9c3b 665b 523e
00000070: 47b7 04be 381e 943c 32ad 77be d9cc 36bb
00000080: 80fc 01be 3e8f 2ebe 0173 233e 9d06 97be
00000090: f831 0abe ca23 75bd dec8 f7bc d9af 033e
000000a0: 9c63 38be 952b ce3d dff4 563e 26f8 3c3e
000000b0: c179 a53d cd2a a5bd 0a4d 593e 20d5 d1bc
000000c0: 18d9 8a3d adb3 4cbe 61a8 283b a138 f23c
000000d0: 2f0c d8be 07e8 15be 2bb7 a63d 12d1 2bbe
000000e0: a040 673d 8baa 5cbd 8def cd3c 536b 05be
000000f0: d76b 6fbd 4675 f2bc 4929 f7bd 8b9d 0b3e
00000100: e3f5 c0bd ca75 99be 0cec f63c 738a 90be
00000110: 046d 7f3d c97e 943d 45ab c8be af56 22bd
00000120: 97df bfbd bb4d 68bd fcaa 86bd 9d15 3e3e
00000130: 3a70 16bd 7184 ae3d a68c 603d f90a b13e
00000140: c170 3bbe 3d85 1b3d 4ad5 823d 4808 49be
00000150: 72ec 6ebd 3aa7 1b3e 73cb 8bbd b230 dbbd
00000160: 1e4a 37be a22b a3bd 50ef 713b 0827 4cbd
00000170: a0af 3abe af6f aabe b45b 323e 2c56 383d
00000180: e0c1 fe3d 07c8 a6bd f0dd 3f3e 88a8 0abd
00000190: 13c0 8b3d cdbc 5bbd 93ca e13d 8bc3 55be
000001a0: 9830 d23d 0fb5 d8bd 343a 833e 95ae 4a3d
000001b0: 1fde 64be ea7c bcbd 7dd0 013e 562d 8c3e
000001c0: 2aca 8b3d 7e12 99be b239 093d 6f57 703d
000001d0: 351b 28bd 7bca b73d f89c c53d 9a4e d93d
000001e0: ccfc 8c3c b752 883e 8a15 2f3e 7072 70bd
000001f0: 2d59 10be e121 9fbd ef95 ec3d a6a5 203d
00000200: b92e b7bd e736 053d df0b 2fbd b853 48be
00000210: 1402 463d f130 513c 4635 863e 3f8d 5a3e
00000220: 080a 25be ce28 9f3d 132d 813d 78fa 89bd
00000230: 077b 8cbe cf9f dd3c 6b21 91bd e13b f1bd
00000240: f329 b5bd cb6f 05be 72fc 25bd 4ea7 cc3d
00000250: cbab 783e b7fe 24bd 7dd2 9cbb 8bc5 f43d
00000260: 19ab 213e b5f2 85be 789d 013e 0f29 cfbd
00000270: 7753 43bd a7da 963e 9c86 0e3e d760 933d
00000280: a903 9cbd 3348 15be 90ff 98bd eb0a 14be
00000290: 94fd f7bd 2bdc 97bd 78f3 83bd f593 e63d
000002a0: 10ee 25bd 03a2 febc af3e 67bc 0f83 473e
000002b0: b85a a8bd 286e 09bd 0a02 94bd 4da9 3f3d
000002c0: ae39 373d 95a6 973e 8b7d 0bbd 88aa 1c3e
000002d0: 6dac 4bbe e304 0ebf 7b72 5e3d c2e1 20be
000002e0: 82e6 c9bd e264 2c3e 0e77 513e 97c6 3b3e
000002f0: 654f 993c 1afa c3bd eb8b 343d 67ac 9bbb
00000300: d851 9d3d f3db 76be 5aaf 5b3d cd4e 863e
00000310: 5d33 e03c 8455 fcbc b739 5c3d ad29 3f3c
00000320: 9369 313e c275 1fbe 3328 54bb 7db9 30bd
00000330: c5d6 3dbe 1cf9 0d3c 0b87 82bd 8394 1c3e
00000340: eda2 9dbe 63a7 8d3c 3845 713d 1eb6 f23c
00000350: 63da 63be bb60 ea3d 9aac eb3d e61d 92be
00000360: 96b6 163d a47a 993e 32df 6c3d c1c8 9dbc
00000370: 367c c2bd ef24 2f3d 885e a6bd 6b8f 84bc
00000380: 5254 803c dc21 4b3d c0be 2c3c 6fce 163e
00000390: fb85 443d 126a 893d 00d1 dfbd 565a 47be
000003a0: ee87 27be d282 36be bc35 23be fb83 503d
000003b0: 60ab 68be 6273 18bd cd4a d8bb 1394 02be
000003c0: 0e37 8e3d cbf9 083d 0e3d 06be e465 22be
000003d0: 1b8f 30be 0a18 33be 4b15 63bd f49f 593e
000003e0: ba67 31be 8510 ebbd ecd0 aabd ad5e c2be
000003f0: bd04 cc3a 4101 c9be e81f a13e 606d 4abd
-0.027615217 0.055785466 0.17990416 -0.0690914 0.10051221 -0.052457023 -0.18561429 -0.47226173
0.0730331 0.06577725 -0.029889915 0.10095682 -0.0420227 -0.12991527 -0.033580262 0.034388117
0.37771398 -0.09074175 0.14708792 0.00071927294 0.035588093 0.084474534 0.14332458 -0.1896631
-0.17833212 -0.078035146 0.0047861277 0.20542678 -0.1296054 0.018080816 -0.24187163 -0.0027893095
-0.12693977 -0.1704683 0.1596184 -0.29497233 -0.13495624 -0.059848584 -0.030247148 0.1286005
-0.18006748 0.10066906 0.20991848 0.18454036 0.08079863 -0.08064804 0.21220794 -0.025614321
0.067796886 -0.19990416 0.0025735127 0.029568018 -0.42196795 -0.14639293 0.08140405 -0.16778973
0.056458116 -0.05387358 0.02513864 -0.13029222 -0.058452453 -0.029596936 -0.120684214 0.13634317
-0.09421899 -0.29972678 0.030141853 -0.28230628 0.062359825 0.07250745 -0.39193168 -0.03963345
-0.09368818 -0.056714755 -0.065755814 0.18562932 -0.03672812 0.08521355 0.054821633 0.34578684
-0.18304731 0.037968863 0.06388338 -0.19632065 -0.05833096 0.1520051 -0.06825914 -0.10702647
-0.17899367 -0.07967307 0.0036916323 -0.04984191 -0.18231058 -0.33288333 0.17417794 0.045004055
0.124393225 -0.08143621 0.18737006 -0.03385213 0.068237446 -0.05364685 0.11024966 -0.20875375
0.10263175 -0.10581409 0.25630343 0.0494829 -0.22350357 -0.09203513 0.12677188 0.2737834
0.06825669 -0.2989692 0.03350229 0.058677133 -0.04104157 0.08974167 0.0964908 0.10610695
0.017210387 0.26625606 0.1709806 -0.058702886 -0.14096518 -0.07770134 0.11552035 0.039220475
-0.089444585 0.032523062 -0.04273593 -0.19563186 0.048341826 0.012768016 0.2621252 0.21342944
-0.16117108 0.07771455 0.06307425 -0.06737226 -0.27437612 0.027053742 -0.07086452 -0.11778999
-0.08845892 -0.13030927 -0.040523954 0.09992848 0.24284284 -0.040281978 -0.0047858343 0.11951741
0.15787925 -0.26161733 0.12657726 -0.10115253 -0.04768702 0.29463693 0.13918537 0.07196205
-0.076178856 -0.14578323 -0.0747062 -0.1445729 -0.12108913 -0.074150406 -0.06442922 0.11258689
-0.040510237 -0.031083113 -0.014114066 0.19483589 -0.08220428 -0.03355232 -0.072269514 0.046792317
0.044732742 0.2961928 -0.034055274 0.15299428 -0.19889994 -0.55476207 0.054308396 -0.1571112
-0.09858419 0.16835359 0.20455572 0.18337475 0.018714616 -0.095691875 0.04407875 -0.0047507766
0.07681626 -0.24107341 0.053634025 0.26231995 0.027368242 -0.030802496 0.05376598 0.011667651
0.1732543 -0.15572265 -0.0032372593 -0.043145645 -0.1853896 0.008665349 -0.06373414 0.15291028
-0.30788365 0.01729173 0.058903903 0.029627856 -0.22251277 0.11444231 0.115075305 -0.28538436
0.03679522 0.2997638 0.057830043 -0.019260766 -0.094963476 0.042759832 -0.08123499 -0.016181668
0.015665207 0.049592838 0.010543525 0.14727186 0.047979336 0.067096844 -0.109285355 -0.19468054
-0.16360447 -0.17823341 -0.15938467 0.050907116 -0.22721624 -0.037219413 -0.006600714 -0.12751798
0.069440946 0.033441346 -0.13109228 -0.1585918 -0.1724209 -0.17489639 -0.05544023 0.21252424
-0.17324725 -0.1147776 -0.0834063 -0.37962857 0.0015565377 -0.3925877 0.31469655 -0.049420714

phi.initial_conv_module.0._layers.9.weight f4 [32]
00000000: f632 5f3f 381e 953f 66c4 763f 3773 6d3f
00000010: 3076 713f fa64 8b3f f46b 813f bc7c 613f
00000020: 9edc 773f b475 7b3f 4221 3e3f bce7 423f
00000030: 536e 6e3f 35e7 563f 7012 6e3f 8e75 6b3f
00000040: 3f97 603f fb9e 573f f86c 4b3f b3b8 8f3f
00000050: ccd4 653f d381 6e3f 9803 6b3f ff1e 5a3f
00000060: 1c0a 623f 0efe 673f 84d5 6a3f fea5 563f
00000070: 7463 583f 4408 723f ebe2 623f 0815 803f
0.87187135 1.1649847 0.9639343 0.9275393 0.94320965 1.0890191 1.011107 0.88080955
0.9682101 0.98226476 0.742695 0.7613485 0.9313709 0.83946544 0.92996883 0.9197625
0.87730783 0.8422696 0.7946315 1.1228241 0.8977783 0.93166846 0.9180236 0.85203546
0.88296676 0.9062203 0.9173205 0.83847034 0.84526753 0.9454386 0.886275 1.0006418

phi.initial_conv_module.0._layers.9.bias f4 [32]
00000000: f44a 1bbc c269 983c 887e 23bc 5a40 333c
00000010: 0a24 803c 032c 943c 7369 373c dfd8 9c3c
00000020: 1a13 063c 6769 0f3d 64b8 64bc 8611 f7bb
00000030: 2e16 0abd fee1 76bc e19d 09bc 0e83 653c
00000040: cdb8 443c 1278 b73a 4bac c1bc f450 5dbc
00000050: 16e3 ba3c 9c8d 7ebc f8f7 69bc cb04 803c
00000060: 6b9f fdbc 2ba0 b93c 814c 9e3c bb20 95bc
00000070: 29b3 e5bb e2e4 e8bb 84f4 1abd ed1e a43c
-0.009478319 0.018605117 -0.009978898 0.010940636 0.015642185 0.018087393 0.011194575 0.019146381
0.008183265 0.03501263 -0.013959978 -0.0075399308 -0.03371256 -0.015068529 -0.008399458 0.014008297
0.012006951 0.0013997576 -0.023641726 -0.01350807 0.022813361 -0.015536692 -0.014280312 0.015627285
-0.030959805 0.022659382 0.01932359 -0.018204084 -0.007009883 -0.007107363 -0.037830845 0.020034278

phi.initial_conv_module.0._layers.9.running_mean f4 [32]
00000000: 3bde 00bd 25e5 adbb c4d6 e0bb fafc a5bd
00000010: 763b ac3c de77 a6bd 1eef 5dbd 2674 db3d
00000020: 5d2a 373d a540 453d ea9c e2bd 131a 013d
00000030: b136 edbd 7cde ebbd 5a72 abbd d473 4f3d
00000040: 6e5b a63c 40c0 673c 1317 08bd df16 59bc
00000050: ba0b f9bd 992b 0a3e 4434 8e3a 7ba3 813c
00000060: a663 fa3c 1fba 4dbc b0c2 1239 2303 b3bc
00000070: dd6f 9d3d d7a3 0bbd 87de 59be 5a9f da3d
-0.031461935 -0.005306857 -0.0068615396 -0.08104892 0.021024447 -0.081283316 -0.054183118 0.10715513
0.044718135 0.048157353 -0.11065085 0.031519007 -0.11582697 -0.11517045 -0.0837142 0.05064757
0.020307269 0.014144957 -0.03322513 -0.013250082 -0.1216044 0.13493194 0.0010849317 0.015825024
0.030565094 -0.012556582 0.00013996172 -0.021852082 0.07687352 -0.034091797 -0.21276294 0.10674925

phi.initial_conv_module.0._layers.9.running_var f4 [32]
00000000: e385 cc3d 2d6f 113e 676c a53d 5259 d03d
00000010: 0d53 273e ce14 e03d 3277 e63d 8d21 ca3d
00000020: 8f72 0a3e e23d 193e efba 9d3d a193 003e
00000030: b472 e63d 3684 e73d b665 363e 3a5b 0e3e
00000040: 863d e83d 031a 033e d084 b73d 8575 103e
00000050: 03b7 a53d 2578 b03d a099 bb3d 6fd3 c33d
00000060: 83e1 d53d 9d99 da3d ea15 de3d 43e4 9b3d
00000070: 09fa bd3d 6bb7 253e ba89 0c3e cc9e 363e
0.09986474 0.14202566 0.08077317 0.101732865 0.16340275 0.10941468 0.112532035 0.098696806
0.13520263 0.14965013 0.077016704 0.12556316 0.11252347 0.11304514 0.17812237 0.13901988
0.1133986 0.12802891 0.08960879 0.1410733 0.08091547 0.08616666 0.09160161 0.09561812
0.104434036 0.10673831 0.108440235 0.07611897 0.09276206 0.1618325 0.13724414 0.17834014

phi.initial_conv_module.1.weight f4 [32]
00000000: 41b1 5d3f c525 9d3f 3751 7f3f cd06 6d3f
00000010: 9f03 703f b88e 903f 83a4 843f 6f22 623f
00000020: a818 7a3f e40b 813f 75ae 393f 7018 443f
00000030: aebf 6e3f 64ea 563f 18d4 6f3f 56d6 6e3f
00000040: 9757 5f3f e39e 523f e092 463f 6a78 963f
00000050: 33d4 643f 0ede 6f3f 1b2a 6c3f 770d 5a3f
00000060: 3180 613f 53f5 683f a949 6b3f 6eca 553f
00000070: 78c3 553f 77d3 793f e1dd 623f 9a73 823f
0.86598593 1.2277151 0.997333 0.925885 0.93755525 1.1293554 1.0362705 0.8833379
0.9769387 1.0081754 0.72531825 0.7659979 0.9326123 0.839514 0.93683004 0.932958
0.87243026 0.8227369 0.77567863 1.1755497 0.8938629 0.93698204 0.9225175 0.85176796
0.8808623 0.90999335 0.9190927 0.8351201 0.83501387 0.97588295 0.8861981 1.0191529

phi.initial_conv_module.1.bias f4 [32]
00000000: 1e89 63be 7105 7fbd 3d24 6abe 8169 29be
00000010: 1039 93be d096 d23d f98d f1bc b170 78bd
00000020: d1f2 e4bd 2b0c 463e 507b ffbc c65e 97be
00000030: 6823 9cbe 365e 47be a22d 633e ee63 be3d
00000040: b57b 87be b059 4fbe 36eb d93c 0355 2abe
00000050: 61ea 54be df85 83be 9d41 41be 92da 2ebe
00000060: e914 1abe 9979 ce3d d7f3 3dbe 1fa4 55be
00000070: e9fb c9be ecda a13e 7daa cebc c399 7f3e
-0.22220275 -0.06226105 -0.22865386 -0.16544153 -0.28754473 0.102826715 -0.029486643 -0.060654346
-0.11179126 0.19340579 -0.03118673 -0.29564494 -0.30495763 -0.19469532 0.22185376 0.09296404
-0.26461568 -0.20249057 0.026601415 -0.16633992 -0.20792533 -0.25688073 -0.18872686 -0.17075565
-0.15047039 0.10081787 -0.18550049 -0.20863388 -0.39450005 0.31612337 -0.02522778 0.24960999

phi.initial_conv_module.1.running_mean f4 [32]
00000000: f689 1ebc a8b6 993c 06ba 20bc 9b28 3b3c
00000010: 33e5 803c d447 943c 2608 3d3c a395 963c
00000020: 1f23 093c 05de 0e3d d53d 65bc 0a3f f5bb
00000030: 4a8d 0abd 1fc9 81bc 82e7 07bc 56f9 663c
00000040: b25a 463c fe15 c43a dfee c3bc 1d59 5fbc
00000050: ca6d b93c bd83 82bc b851 67bc 8f48 7c3c
00000060: 5d58 febc 81df bb3c 336d a13c 603a 96bc
00000070: 3a35 f0bb d273 debb 4000 1abd 7a52 a23c
-0.009676447 0.018763855 -0.009809976 0.011423255 0.01573429 0.018100657 0.011537587 0.0183819
0.00837019 0.034879703 -0.013991793 -0.0074843215 -0.03382615 -0.015842972 -0.008294942 0.014097532
0.012106584 0.0014960167 -0.023917614 -0.013632086 0.02263536 -0.015931958 -0.014118604 0.015398159
-0.031047994 0.022933723 0.01970539 -0.018338382 -0.007330564 -0.006788709 -0.037597895 0.019814719

phi.initial_conv_module.1.running_var f4 [32]
00000000: 603d 413f 42a9 ac3f 254a 6c3f 322f 5a3f
00000010: c1ab 623f 507f 963f 2739 823f 59bb 433f
00000020: 21c9 6e3f 58a6 753f 4643 0c3f 4223 133f
00000030: d9ba 5b3f 8889 333f d7d0 5b3f dcc0 573f
00000040: e081 433f 75b9 343f e780 1e3f d00e a13f
00000050: 2821 4c3f 7367 5b3f 40c8 543f bd46 373f
00000060: 33aa 463f 7eff 503f 498e 553f c442 323f
00000070: 155a 353f 3b90 623f 8541 483f da6a 7f3f
0.75484276 1.3489153 0.92300636 0.85228264 0.88543326 1.1757603 1.0173692 0.76457745
0.9327565 0.95956945 0.5479015 0.57475674 0.8583198 0.7013173 0.8586554 0.84278655
0.7637005 0.70595485 0.6191544 1.2582645 0.7973809 0.85704726 0.8311806 0.71592313
0.77603453 0.8163985 0.83420235 0.69633126 0.7084058 0.8850133 0.78224975 0.9977242
