best_distillation_model.pt (torch, 857966 bytes, 450 tensors)

phi.initial_conv_module.0._layers.0.conv.weight f4 [64, 64, 1]
0	0x3d3e9db9	0.046537135
1	0xbdaae8cc	-0.08345184
2	0xbc527d50	-0.01284726
3	0x3de3d233	0.11124077
4	0x3ddfbdf4	0.109249026
5	0x3de1696a	0.11006434
6	0xbd85baff	-0.06529807
7	0xbc089c5b	-0.008338059
8	0xbd61aaa4	-0.055094376
9	0xbd0e9b3b	-0.034816008
10	0x3d1027d6	0.03519424
11	0x3d67a50e	0.056553893
12	0x3d48d133	0.049027633
13	0x3bb66d0c	0.0055671986
14	0x3e1bdfbe	0.1522207
15	0xbcb8dac8	-0.02256526
16	0x3c44469d	0.011979726
17	0xbdbabf28	-0.091184914
18	0x3cd14fd8	0.025550768
19	0xbdd65aa8	-0.1046651
20	0xbd3f1acf	-0.046656426
21	0x3c96238b	0.018327495
22	0x3dd914c0	0.10599661
23	0x3d4e3e0f	0.050352152
24	0x3db027d8	0.086013496
25	0xbd585d99	-0.052823637
26	0xbde4e49c	-0.11176416
27	0xbd8581d5	-0.06518904
28	0x3d27e42c	0.040989086
29	0xbda1456e	-0.07874571
30	0xbd0bfca2	-0.034176476
31	0xbdc68a9a	-0.09694405
32	0x3baf5f1e	0.005351915
33	0xbdd3c770	-0.10340774
34	0xbe0774ce	-0.13228151
35	0x3da4fb53	0.08055749
36	0xbdbc19a2	-0.091845766
37	0x3d927814	0.07151809
38	0x3de7a1b1	0.11310137
39	0x3dcbf2f6	0.099584505
40	0xbd8175c6	-0.063212916
41	0xbd6c4150	-0.057679474
42	0x3c9ec942	0.019383077
43	0xbd59a98f	-0.05314022
44	0x3d0c78e8	0.034294993
45	0xbdde77ab	-0.108626686
46	0x3caa5923	0.020794457
47	0xbd8f1726	-0.06986837
48	0xbd71d28e	-0.05903869
49	0x3da28348	0.07935196
50	0xbd1c1a34	-0.038110927
51	0xbcb7a007	-0.022415174
52	0xbd1d947f	-0.038471695
53	0x3dee7663	0.11643674
54	0xbc348c6d	-0.011019808
55	0xbc9fb14e	-0.019493725
56	0xbd162e9a	-0.036665536
57	0x3c9a22a7	0.018815352
58	0xbd04f63c	-0.03246139
59	0xbd968a7e	-0.07350634
60	0x3bf83641	0.007574827
61	0x3ce86be4	0.028371759
62	0x3d652375	0.055942018
63	0x3dfa8df7	0.12234109
64	0x3d9ebb97	0.07750624
65	0x3d1de7d9	0.038551185
66	0x3d264376	0.04059168
67	0xbd92a305	-0.0716
68	0x3d65f6da	0.05614362
69	0xbd2e9fdf	-0.042632934
70	0x3dec77f4	0.11546317
71	0xbc63e099	-0.013908529
72	0xbd9d639f	-0.07685017
73	0xbd62b526	-0.055348538
74	0x3def6cd6	0.11690681
75	0xbd2b20b7	-0.041779246
76	0xbd027bf5	-0.031856496
77	0x3c501e80	0.012702584
78	0xbd0ad659	-0.033895824
79	0xbc52c262	-0.012863727
80	0x3d17c1d2	0.037050076
81	0x3d4c7fb2	0.049926467
82	0x3b303ed3	0.0026892915
83	0x3d534597	0.051580038
84	0x3d891f4c	0.066954225
85	0x3da37600	0.07981491
86	0x3dcbdd74	0.09954348
87	0xbd12034b	-0.03564767
88	0x3bf60b84	0.007508697
89	0x3d09560e	0.033529334
90	0xbd5b3655	-0.053518612
91	0xbe42117d	-0.18951984
92	0x3ba8326e	0.005132965
93	0xbe1ce3ef	-0.15321325
94	0xbdd9271c	-0.10603163
95	0xbdb12a7d	-0.08650682
96	0x3d85e000	0.06536865
97	0xbd5b569b	-0.05354939
98	0x3d708389	0.05871919
99	0xbcf9bf0c	-0.030486606
100	0xbdbc2d36	-0.09188311
101	0xbc9eb1bc	-0.01937186
102	0xbd3c1a2a	-0.04592339
103	0x3da9a34c	0.082830995
104	0xbd8cd815	-0.06877152
105	0x3dc6da42	0.09709598
106	0xbb548ba1	-0.0032431858
107	0x3dd2dab9	0.10295624
108	0xbdd0eab6	-0.102010176
109	0x3c659451	0.014012412
110	0x3d06badb	0.032893043
111	0x3d52b86c	0.05144541
112	0x3cbce0f5	0.023056487
113	0x3d7154e2	0.05891884
114	0xbc5564d8	-0.013024531
115	0xbcaa7a2b	-0.020810207
116	0x3d81ced0	0.063382745
117	0x3d07b1ec	0.033128664
118	0x3d80ea1a	0.06294651
119	0x3d5da289	0.054110084
120	0x3d7a6c83	0.06113864
121	0xbdad8488	-0.08472544
122	0xbd8cde3f	-0.068783276
123	0xbd1aa9c0	-0.037759542
124	0x3dd8b1cc	0.10580787
125	0x3d287afa	0.041132905
126	0xbce73679	-0.028224217
127	0x3be9fb11	0.007140525
128	0x3c8f29fd	0.017476076
129	0xbcffcc78	-0.031225428
130	0x3dc644c6	0.09681086
131	0xbd1ee41d	-0.038791765
132	0x3e032f3b	0.12810986
133	0xbdbf217c	-0.093325585
134	0xbdba9c15	-0.091118015
135	0xbdc70075	-0.09716884
136	0xbd1c3119	-0.03813276
137	0x3dea8d22	0.114527
138	0x3c8e2bf0	0.017354935
139	0x3da2bf2d	0.0794662
140	0x3db05d73	0.08611574
141	0xbe05dfa8	-0.130736
142	0xbdd994d5	-0.106240906
143	0x3e091e74	0.13390523
144	0x3d0c746b	0.034290712
145	0x3deeed73	0.116663836
146	0xba84f234	-0.0010142983
147	0xbb9e429b	-0.0048297173
148	0xbd198625	-0.037481446
149	0xbdd0eb5f	-0.102011435
150	0x3d5fc51b	0.054631334
151	0xbbb66dcf	-0.0055672894
152	0xbd9ea0cb	-0.077455126
153	0xbd33d7b1	-0.04390687
154	0xbd910d67	-0.070826344
155	0xbdbf8d82	-0.09353162
156	0x3d0b9016	0.034072958
157	0x3c33cd52	0.010974245
158	0x3e142d95	0.14470513
159	0x3ccfe3fb	0.025377264
160	0xbcf8d026	-0.03037269
161	0xbd8e5c8b	-0.06951245
162	0x3e05ebcb	0.13078229
163	0x3c09d952	0.00841363
164	0x3d129057	0.035782184
165	0x3dbb7a80	0.091542244
166	0xbb7166c4	-0.0036834935
167	0xbd9ed011	-0.07754529
168	0x3d9e202f	0.07720982
169	0x3c31d89b	0.010854865
170	0xbde226d3	-0.110425614
171	0xbdb3f3ad	-0.08786712
172	0xbc853716	-0.016261619
173	0xbc37effc	-0.01122665
174	0xbd8885d0	-0.06666148
175	0xba932a59	-0.001122783
176	0xbdad1852	-0.08451904
177	0xbca9290a	-0.020649452
178	0xbd50e0c3	-0.0509956
179	0x3d78200b	0.060577434
180	0x3bd07b9a	0.0063623907
181	0x3de0c91e	0.1097586
182	0xbd81ce80	-0.06338215
183	0xbdc1eb42	-0.094687
184	0x3d66dd33	0.056363296
185	0x3dc17f8a	0.09448154
186	0x3d47e828	0.048805386
187	0xbdb884b5	-0.09009687
188	0xbdb45f44	-0.08807233
189	0xbc0f5967	-0.0087493425
190	0xbd508e30	-0.05091685
191	0xbc9a2e3b	-0.018820873
192	0xbdbffc7a	-0.09374328
193	0x3d3b87b2	0.045783706
194	0x3d64fda5	0.055905957
195	0xbbaed65f	-0.0053356136
196	0x3d945634	0.072430044
197	0x3d02f180	0.031968594
198	0xbc954a1a	-0.018223811
199	0x3c9ddbfc	0.019269936
200	0x3ceba830	0.028766721
201	0xbd3fb092	-0.04679925
202	0x3db6423d	0.08899353
203	0xbde09ccd	-0.109674074
204	0xbd3a0bde	-0.045421474
205	0xbc83670f	-0.016040353
206	0x3dcfc666	0.101452634
207	0x3c3efe3c	0.011657294
208	0xbd84adc8	-0.06478459
209	0x3be06a69	0.0068486226
210	0x3d5453b0	0.051837623
211	0xbd08d187	-0.033402946
212	0x3da89c3e	0.08232926
213	0xbd1b6141	-0.037934545
214	0x3de6d035	0.11270181
215	0x3d08871b	0.03333197
216	0xbe196227	-0.14978848
217	0xbc140025	-0.009033238
218	0xbe3568b3	-0.17715721
219	0x3c55bdc0	0.013045728
220	0xbda8e27a	-0.08246322
221	0xbdbb8f40	-0.09158182
222	0x3d5fc90e	0.0546351
223	0x3c16034b	0.009156059
224	0x3e2242a3	0.15845732
225	0x3dfc9f25	0.12335042
226	0x3d7979d8	0.060907215
227	0x3df72a10	0.1206857
228	0xbdb0958d	-0.086222745
229	0x3d80a8ff	0.062822334
230	0x3e095543	0.13411431
231	0xbd87a867	-0.06623917
232	0x3de0480f	0.10951244
233	0xbd919eb0	-0.07110345
234	0xbdec146e	-0.11527334
235	0x3d587754	0.052848175
236	0x3d3dcddf	0.046338912
237	0xbb8a2a60	-0.0042164773
238	0xbdc67af9	-0.09691424
239	0x3cc936e6	0.02456231
240	0xbd963386	-0.07334046
241	0xbc449861	-0.011999221
242	0xbd816318	-0.06317729
243	0xbc9d7cdf	-0.019224582
244	0x3d591d4a	0.053006448
245	0xbd97f115	-0.074190296
246	0xbd995603	-0.074871086
247	0xbc15144b	-0.0090990765
248	0xbdbc6576	-0.0919904
249	0x3ddf9600	0.10917282
250	0xbd2db9c5	-0.04241349
251	0x3e102ea1	0.14080288
252	0xbc6f5b12	-0.014609115
253	0x3ccb660e	0.024828937
254	0xbd03ce5e	-0.03217923
255	0xbda7f5cd	-0.0820118

phi.initial_conv_module.0._layers.1.weight f4 [64]
0	0x3f7a8e15	0.9787305
1	0x3f7d2e0d	0.9889839
2	0x3f7dc529	0.9912897
3	0x3f7f1f2b	0.99656934
4	0x3f73b994	0.95205045
5	0x3f840666	1.0314453
6	0x3f76ffbb	0.96483964
7	0x3f78a816	0.9713148
8	0x3f6f031b	0.93364114
9	0x3f74f1f6	0.95681703
10	0x3f7bffb3	0.9843704
11	0x3f77914d	0.96706086
12	0x3f867cc1	1.0506822
13	0x3f79e529	0.97615296
14	0x3f7e9a4e	0.994542
15	0x3f76aef6	0.9636072
16	0x3f7ca0ef	0.98683065
17	0x3f7dc49c	0.9912813
18	0x3f6ea86a	0.9322573
19	0x3f780907	0.96888775
20	0x3f838729	1.0275623
21	0x3f864d03	1.0492252
22	0x3f7f4050	0.9970751
23	0x3f73c05d	0.952154
24	0x3f6e7a15	0.9315503
25	0x3f74118b	0.9533927
26	0x3f764616	0.9620069
27	0x3f6d0925	0.9259208
28	0x3f77dc00	0.9682007
29	0x3f77d781	0.9681321
30	0x3f85ab68	1.0442934
31	0x3f809c71	1.0047742
32	0x3f7969b5	0.9742692
33	0x3f6fd4c0	0.93684006
34	0x3f83b741	1.02903
35	0x3f82b807	1.0212411
36	0x3f764e59	0.962133
37	0x3f796979	0.97426564
38	0x3f73b8e1	0.9520398
39	0x3f77066b	0.9649417
40	0x3f68b777	0.90904945
41	0x3f81a8d7	1.0129651
42	0x3f73a75d	0.9517725
43	0x3f7b4251	0.98148066
44	0x3f766193	0.96242636
45	0x3f8272b4	1.0191255
46	0x3f7cef6e	0.9880284
47	0x3f781de4	0.9692061
48	0x3f71439b	0.9424378
49	0x3f7764ee	0.9663838
50	0x3f7b00a4	0.9804785
51	0x3f7e40eb	0.99317807
52	0x3f7590c5	0.95924026
53	0x3f794265	0.97366935
54	0x3f731d24	0.9496634
55	0x3f6c76ce	0.9236878
56	0x3f81be20	1.0136147
57	0x3f68fa85	0.9100726
58	0x3f82f069	1.0229617
59	0x3f77f3ac	0.9685619
60	0x3f6f4b53	0.9347431
61	0x3f76ce7d	0.96408826
62	0x3f7fdf0f	0.99949735
63	0x3f7512d3	0.9573185

phi.initial_conv_module.0._layers.1.bias f4 [64]
0	0xbccd1cf1	-0.025038214
1	0x3bccc3d7	0.006248932
2	0x3c103010	0.0088005215
3	0xbd13068d	-0.03589492
4	0x3ce5cbc3	0.028051263
5	0xbc6c259e	-0.0144132655
6	0x3d143c3c	0.036190256
7	0x3d49e13d	0.04928707
8	0xbcc99428	-0.02460678
9	0xb9dfd044	-0.00042689044
10	0xbce45302	-0.027871612
11	0x3c0db003	0.0086479215
12	0xbc2ae52e	-0.010430617
13	0xba41b532	-0.0007389366
14	0xbc219553	-0.009862262
15	0xbc424e68	-0.011859514
16	0xbd00b598	-0.03142318
17	0xbccc3c4f	-0.024931101
18	0x3dc2b47a	0.095070794
19	0x3c787983	0.015165689
20	0xbcad072b	-0.021121582
21	0xbd0ca40c	-0.034336135
22	0x3c546b30	0.012965009
23	0x3c713dc7	0.0147242015
24	0x3d19397c	0.037408337
25	0xbd5dd9fe	-0.05416297
26	0xbc81208f	-0.015762595
27	0x3d874d01	0.06606484
28	0x3c35c537	0.011094383
29	0x3c9ce32e	0.019151296
30	0xbcb5a54c	-0.022173546
31	0x3c854176	0.016266566
32	0x3b5f2c8c	0.0034053652
33	0xbc85daee	-0.016339745
34	0xbd495e78	-0.049162358
35	0x3d0b8857	0.03406557
36	0xbb5b6a5a	-0.0033480139
37	0x3c7c4fcb	0.0153998835
38	0x3d087d46	0.033322595
39	0xbc8268ad	-0.015919054
40	0x3d884c80	0.06655216
41	0xbc316f2d	-0.010829729
42	0x3cc841bf	0.024445413
43	0xbd20ae53	-0.03922875
44	0xbc2033a4	-0.009777937
45	0xbc1362eb	-0.008995752
46	0x3cb533b5	0.022119382
47	0x3c8b8ffc	0.01703643
48	0x3ce62080	0.02809167
49	0x3bd242f8	0.0064166747
50	0x3cb75301	0.022378447
51	0x3b321d41	0.0027178081
52	0x3cf69d2c	0.030104242
53	0x3c02c954	0.007982571
54	0x3d765289	0.060137305
55	0x3d89b047	0.06723075
56	0xbb96cf27	-0.004602331
57	0x3ca2cd73	0.019873356
58	0xba65a8d2	-0.0008760813
59	0x3c689073	0.014194596
60	0x3cfa7ffc	0.030578606
61	0x3b1ccb23	0.002392479
62	0xbc96c52e	-0.01840457
63	0x3cd3d897	0.025860114

phi.initial_conv_module.0._layers.1.running_mean f4 [64]
0	0x3cf545ff	0.029940603
1	0xbeb777b5	-0.35833517
2	0x3e3889dc	0.18021339
3	0xb9edaf57	-0.000453348
4	0x3da0317c	0.078219384
5	0xbec2de3c	-0.38060176
6	0xbf18128b	-0.59403294
7	0xbee05432	-0.43814236
8	0xbf2724a7	-0.652903
9	0xbfbc158d	-1.4694077
10	0xbe77d874	-0.24203664
11	0xbce8ebbf	-0.028432725
12	0xbd304b9f	-0.043040868
13	0x3f0630e9	0.5241838
14	0x3e75cb52	0.24003342
15	0x3d4f1fa8	0.0505673
16	0x3e4f2438	0.2022866
17	0xbf8d75bf	-1.1051558
18	0xbe344f6c	-0.17608422
19	0x3ec4f099	0.3846481
20	0xbeeced62	-0.4627486
21	0xbf159e86	-0.5844501
22	0xbdd497a2	-0.10380484
23	0xbe4fe56d	-0.20302363
24	0xbfaf4cf1	-1.3695356
25	0xbe4f7974	-0.20261174
26	0xbec29f42	-0.3801213
27	0xbe61c8ac	-0.22049206
28	0x3e30de34	0.17272264
29	0xbf6c85d5	-0.9239171
30	0x3f243e28	0.6415734
31	0x3e93ef8a	0.2889369
32	0xbe0712eb	-0.1319081
33	0x3e96c319	0.29445723
34	0xbf436b40	-0.76335526
35	0x3ef070d0	0.4696107
36	0x3f655869	0.8958803
37	0xbe9cfa0f	-0.3065953
38	0xbc96b2c8	-0.018395796
39	0x3dd7444a	0.10511072
40	0x3ebb5457	0.36587784
41	0x3f256a78	0.64615583
42	0x3e8d9eee	0.27660316
43	0x3ec52d45	0.385111
44	0xbe2e256f	-0.17006467
45	0x3ee9d247	0.4566824
46	0x3ec57c37	0.3857133
47	0x3f2d2460	0.6763363
48	0xbee8881d	-0.45416346
49	0xbeabf3d2	-0.33584458
50	0xbdcf004b	-0.10107478
51	0xbf75ece2	-0.9606458
52	0xbeb69b42	-0.35665327
53	0xbf744338	-0.9541507
54	0x3dbd71e0	0.092502356
55	0xbdc07135	-0.093965925
56	0xbf1bff3b	-0.60936326
57	0xbe92e73b	-0.2869204
58	0xbf0c2d54	-0.54756665
59	0xbf86b8f0	-1.0525188
60	0xbf8eb2d4	-1.1148324
61	0xbf2337b1	-0.63756853
62	0x3ede103b	0.43371758
63	0xbd3c123a	-0.04591582

phi.initial_conv_module.0._layers.1.running_var f4 [64]
0	0x3e33fc73	0.1757677
1	0x3e3454f7	0.17610537
2	0x3d2b6135	0.04184075
3	0x3d8d17cc	0.068893045
4	0x3d4f1574	0.05055757
5	0x3e56f844	0.20993143
6	0x3e4d6302	0.200573
7	0x3e37cafb	0.17948525
8	0x3de377a6	0.111068055
9	0x3e079d0e	0.13243505
10	0x3d2613f0	0.040546358
11	0x3d23e918	0.040017217
12	0x3da09fa5	0.0784295
13	0x3dcb2f3d	0.09921119
14	0x3e307a85	0.17234237
15	0x3e46f13b	0.1942796
16	0x3db526df	0.08845305
17	0x3de8c3a4	0.113654405
18	0x3e2eeac6	0.17081746
19	0x3dcc6d5e	0.09981798
20	0x3e019f99	0.12658538
21	0x3d170f98	0.036880106
22	0x3d1543ca	0.0364416
23	0x3e96547d	0.29361334
24	0x3d99e31a	0.07514019
25	0x3d3ecda7	0.046582844
26	0x3e533fba	0.20629779
27	0x3db87855	0.090073265
28	0x3dc79dd5	0.09746901
29	0x3d9b3fe3	0.07580545
30	0x3e1159fa	0.1419448
31	0x3d9f6383	0.07782652
32	0x3dbd097f	0.09230327
33	0x3e23b76c	0.15987939
34	0x3e4cb911	0.19992472
35	0x3e0c70a1	0.1371484
36	0x3deda945	0.11604551
37	0x3e56772c	0.20943898
38	0x3d71126b	0.058855455
39	0x3df93b10	0.121694684
40	0x3e144ebb	0.14483158
41	0x3dffe5ff	0.1249504
42	0x3e2a4e23	0.1663137
43	0x3e006057	0.1253675
44	0x3e328f57	0.17437492
45	0x3d5d1018	0.053970426
46	0x3cadfddb	0.021239212
47	0x3dc3c80c	0.0955964
48	0x3dc058fa	0.09391971
49	0x3e906d77	0.28208515
50	0x3ddddfb0	0.10833681
51	0x3e36fda8	0.178702
52	0x3e1790d4	0.14801341
53	0x3db18764	0.08668402
54	0x3dbae240	0.09125185
55	0x3d95938a	0.073035315
56	0x3e19a631	0.15004803
57	0x3e079194	0.13239127
58	0x3d3b188f	0.045677718
59	0x3ea031ed	0.3128809
60	0x3dc556f8	0.096357286
61	0x3e87df1d	0.2653741
62	0x3ddf5913	0.109056614
63	0x3e1632ed	0.14667864

phi.initial_conv_module.0._layers.4.conv.weight f4 [64, 1, 5]
0	0x3b2100e8	0.002456719
1	0xbe98938c	-0.2980007
2	0x3e9cf465	0.30655208
3	0x3eb780e2	0.35840517
4	0xbe0fe596	-0.14052424
5	0x3de1ff77	0.11035054
6	0xbe1d4eb6	-0.15362057
7	0xbef39fc6	-0.47582835
8	0xbe8a8b72	-0.27059513
9	0x3e988fb3	0.29797134
10	0xbea1e880	-0.31622696
11	0x3e0f176a	0.13973776
12	0x3e5c5469	0.21516575
13	0xbecc223f	-0.39869878
14	0xbeb5fe2c	-0.3554548
15	0xbab12588	-0.0013515214
16	0x3e188369	0.14893879
17	0x3e502b82	0.20329097
18	0xbd7f7299	-0.06236515
19	0xbdab5f26	-0.083677575
20	0xbd0fa80d	-0.035072375
21	0xbeab19a2	-0.33417994
22	0xbd8a9f4a	-0.06768663
23	0x3e1354b8	0.14387786
24	0xbe8e70ed	-0.2782053
25	0xbea449fd	-0.320877
26	0xbe48d6d1	-0.19613196
27	0xbe3960c8	-0.18103325
28	0xbeec95ce	-0.46208042
29	0x3e934187	0.2876093
30	0x3d857ff9	0.065185495
31	0xbe77799f	-0.24167489
32	0xbe8ddc5a	-0.27707177
33	0xbd93985e	-0.07206796
34	0xbdcd8dd4	-0.10036817
35	0x3daeb19f	0.08529972
36	0xbe3dc998	-0.18533933
37	0x3e8d4bbb	0.2759684
38	0x3e68a369	0.22718586
39	0x3e85402e	0.26025528
40	0xbdbdd88a	-0.09269817
41	0x3e49c8e8	0.19705546
42	0x3ebb91d4	0.36634696
43	0x3ddac0ff	0.10681342
44	0xbeb45198	-0.352185
45	0xbd63d168	-0.055619627
46	0xbed335e1	-0.41252044
47	0xbd5d9ca8	-0.054104477
48	0xbe86d5a6	-0.26334876
49	0x3e7d695f	0.24747227
50	0xbe29ca91	-0.16581179
51	0x3e913bab	0.28365836
52	0xbeb8f87f	-0.36127087
53	0x3e5a72d5	0.21332867
54	0x3dc238d3	0.094834946
55	0xbdd25710	-0.10270512
56	0x3defe531	0.11713637
57	0x3d2e9910	0.04262644
58	0x3d3e9902	0.04653264
59	0xbe8c3ec3	-0.27391633
60	0xbed3b21d	-0.41346827
61	0xbeb504df	-0.3535528
62	0x3e5be450	0.21473813
63	0xbeb047c2	-0.34429747
64	0xbd264866	-0.04059639
65	0x3e22e98d	0.15909405
66	0xbeb1cd1a	-0.34726793
67	0xbe4d1c18	-0.20030248
68	0xbd31a734	-0.043372348
69	0xbc60cd9b	-0.013720895
70	0xbeb92abe	-0.36165422
71	0xbd3fc8e9	-0.046822462
72	0xbead1b10	-0.3380971
73	0x3e19bf2f	0.15014337
74	0x3ec46ce0	0.38364315
75	0x3e6fd055	0.23419316
76	0x3e51f863	0.20504908
77	0x3e678acf	0.22611545
78	0x3e398fde	0.18121287
79	0xbea5eaf4	-0.32405818
80	0xbd9a611b	-0.07538053
81	0x3e85e364	0.26150048
82	0xbde029a6	-0.10945444
83	0xbee7544d	-0.45181504
84	0xbe882413	-0.26590022
85	0x3e18e71f	0.14931916
86	0x3ecb5231	0.39711145
87	0x3eb9fb88	0.36324716
88	0xbeddb54b	-0.43302378
89	0x3c77103d	0.015079555
90	0x3d82b478	0.06382078
91	0xbea608ca	-0.3242858
92	0xbe4c2a3e	-0.19937989
93	0x3e82d441	0.25552562
94	0x3e562ae8	0.20914805
95	0xbe441a7b	-0.19150726
96	0xbecaa361	-0.39577773
97	0x3e8efc41	0.2792683
98	0x3d327992	0.04357297
99	0x3deb656a	0.114939526
100	0x3dac1cac	0.08403906
101	0xbe86f630	-0.263597
102	0xbe3ad4d4	-0.1824525
103	0xbc014ba8	-0.007891573
104	0xbec7aae0	-0.38997555
105	0x3e606909	0.21915068
106	0xbe16c21d	-0.14722486
107	0xbddcf5f6	-0.10789101
108	0xbe8fe8e0	-0.28107357
109	0xbe69fb27	-0.22849713
110	0xbd4462eb	-0.047945898
111	0xbed2b6d3	-0.4115511
112	0x3e57f577	0.21089731
113	0xbe619524	-0.22029549
114	0x3ecdb73b	0.40178856
115	0x3e2ce682	0.16884807
116	0x3e55c864	0.20877224
117	0xbe1aae3d	-0.15105529
118	0xbc73e5c3	-0.014886322
119	0x3ebf8a8f	0.374104
120	0x3e61e53d	0.22060104
121	0xbe25c0ec	-0.16186875
122	0x3e15283e	0.14566132
123	0xbea203c7	-0.31643507
124	0xbedbcc82	-0.42929465
125	0x3dd4a462	0.10382916
126	0x3ec824e6	0.3909065
127	0xbcd69aa2	-0.026196782
128	0x3ecd69ab	0.4011968
129	0xbebe7979	-0.3720205
130	0xbe91b259	-0.2845638
131	0x3ea4a814	0.32159483
132	0xbd72ec21	-0.05930722
133	0x3ea0609d	0.3132371
134	0x3ea96a5a	0.33088952
135	0x3eb09e2f	0.34495685
136	0x3d0ded08	0.03464988
137	0xbead692e	-0.33869308
138	0xbed9d2db	-0.42543682
139	0xbeebfa09	-0.460892
140	0x3eab2964	0.33430016
141	0x3cf29ad9	0.029614853
142	0x3e8f73e3	0.28018102
143	0x3e949956	0.29023236
144	0xbd471948	-0.048608094
145	0xbe27a042	-0.16369727
146	0x3e2d082e	0.16897652
147	0x3e2ff51c	0.17183346
148	0x3ebc6b83	0.36800775
149	0x3e96261a	0.29325944
150	0x3ee56ff5	0.4481198
151	0x3e9af351	0.3026376
152	0xbe0e3726	-0.13888225
153	0xbe8d9df7	-0.2765958
154	0x3ec8493c	0.39118373
155	0xbe6a9521	-0.2290845
156	0xbe915ef4	-0.28392756
157	0xbed47a48	-0.41499543
158	0xbeac7d2f	-0.33689258
159	0x3e7d8e7f	0.24761389
160	0xbd1faf0c	-0.038985297
161	0xbeb45288	-0.35219216
162	0x3eadd604	0.33952343
163	0xbdc1eb2f	-0.09468686
164	0xbec02234	-0.37526095
165	0x3cedd3be	0.02903163
166	0x3e9e3b53	0.30904636
167	0x3ebfa1d3	0.3742815
168	0xbecc3771	-0.39886048
169	0x3e89bed2	0.26903397
170	0x3ec75148	0.389292
171	0x3ea17bcd	0.31539765
172	0x3c9775d2	0.018488798
173	0x3e41c1ab	0.18921535
174	0x3e00091d	0.12503476
175	0x3e7d81d9	0.24756564
176	0x3ebfc67b	0.37456116
177	0xbe1bbe76	-0.15209374
178	0xbeaf22bc	-0.34206188
179	0xbe6a3669	-0.22872318
180	0x3e274398	0.16334379
181	0x3d81fcfe	0.063470826
182	0x3ebe4846	0.37164515
183	0x3ecb8948	0.39753175
184	0xbeb6a436	-0.35672158
185	0x3cc7d75c	0.024394684
186	0xbe12a45e	-0.14320514
187	0xbea67bc6	-0.32516307
188	0xbebfb97f	-0.3744621
189	0x3d175811	0.03694922
190	0x3e214898	0.15750349
191	0xbb8f4b33	-0.004372978
192	0xbe43eef8	-0.19134128
193	0x3e009c29	0.1255957
194	0xbe3e686b	-0.1859452
195	0x3d3ba080	0.04580736
196	0x3e3b5390	0.18293595
197	0x3dfeda69	0.12444002
198	0xbe9af93e	-0.30268282
199	0x3e143a02	0.14475253
200	0x3e41b16f	0.18915342
201	0xbe7f962a	-0.24959627
202	0x3e909e33	0.28245696
203	0xbe173807	-0.14767466
204	0xbed277ed	-0.4110712
205	0x3d7877de	0.06066119
206	0x3d22f502	0.03978444
207	0xbee06668	-0.4382813
208	0x3d3aefda	0.045638897
209	0xbe679964	-0.22617108
210	0xbed7b14e	-0.4212746
211	0x3eaa247d	0.33230963
212	0x3ea34486	0.31888217
213	0xbe5b4dea	-0.2141644
214	0x3ed13721	0.40862373
215	0xbe36f310	-0.17866158
216	0x3d8f1416	0.06986253
217	0x3ecea53f	0.40360448
218	0xbe4dc704	-0.2009545
219	0xbc090ec6	-0.008365339
220	0x3eb0de50	0.3454461
221	0xbd945b6b	-0.07243999
222	0x3d6322ee	0.055453233
223	0x3ee35b82	0.44405752
224	0xbdcabf18	-0.098997295
225	0xbec5ee4b	-0.38658366
226	0xbe3d5c73	-0.18492298
227	0x3df5b5fd	0.11997602
228	0x3ebe43f2	0.37161213
229	0xbcc4c088	-0.024017587
230	0xbed5bd9c	-0.41746223
231	0xbd5fb20a	-0.05461315
232	0xbe838447	-0.25686857
233	0x3ea648de	0.32477468
234	0x3b848b8d	0.004044956
235	0xbde89307	-0.11356168
236	0xbb9fec6c	-0.0048804786
237	0xbed9140a	-0.423981
238	0xbe84fe5f	-0.2597532
239	0xbe84669b	-0.25859532
240	0xbdfde6bc	-0.12397525
241	0xbd8a864d	-0.06763897
242	0x3e5a4f4b	0.2131931
243	0x3ebeab49	0.37240055
244	0x3ea2dc06	0.3180849
245	0xbde1f89c	-0.110337466
246	0xbebb55cb	-0.36588892
247	0x3e5de55c	0.21669525
248	0x3b2354d2	0.0024922383
249	0xbe2f6e42	-0.17131904
250	0x3eb44c85	0.3521463
251	0x3e36056e	0.17775509
252	0x3dd08ffa	0.10183711
253	0xbe96800f	-0.29394576
254	0xbe3bfc6b	-0.18358009
255	0x3e082c5e	0.13298175

phi.initial_conv_module.0._layers.5.weight f4 [64]
0	0x3f72fad4	0.94913983
1	0x3f8563f5	1.042113
2	0x3f7f58de	0.99744976
3	0x3f7abc00	0.97943115
4	0x3f81a8a8	1.0129595
5	0x3f85b2d1	1.0445195
6	0x3f82fa76	1.0232685
7	0x3f7463be	0.95464694
8	0x3f8086b3	1.0041107
9	0x3f84ef6e	1.0385568
10	0x3f74988c	0.9554527
11	0x3f764974	0.9620583
12	0x3f80fd5b	1.0077318
13	0x3f8011d2	1.0005438
14	0x3f87cca8	1.0609331
15	0x3f7539bb	0.95791215
16	0x3f80eb37	1.0071782
17	0x3f76fcd4	0.96479535
18	0x3f7faa2b	0.9986903
19	0x3f725fbb	0.94677323
20	0x3f803886	1.001725
21	0x3f80b9ff	1.0056762
22	0x3f848b8b	1.0355085
23	0x3f72d588	0.9485707
24	0x3f853292	1.0406058
25	0x3f79afa7	0.9753365
26	0x3f80c101	1.00589
27	0x3f85ed59	1.0463058
28	0x3f7e0986	0.9923328
29	0x3f7a3438	0.9773593
30	0x3f7f8798	0.99816275
31	0x3f835156	1.0259197
32	0x3f839adf	1.0281638
33	0x3f7c5005	0.985596
34	0x3f802aae	1.0013025
35	0x3f86c617	1.0529202
36	0x3f7f66b7	0.99766105
37	0x3f80eb59	1.0071822
38	0x3f81ccc1	1.0140611
39	0x3f74322a	0.95389044
40	0x3f868d07	1.0511788
41	0x3f805c01	1.0028077
42	0x3f7ca473	0.9868843
43	0x3f7a754c	0.9783523
44	0x3f7b1b49	0.9808851
45	0x3f78f1bd	0.97243863
46	0x3f7f3123	0.9968435
47	0x3f834992	1.0256827
48	0x3f6fd948	0.9369092
49	0x3f8378bc	1.027122
50	0x3f75a98a	0.9596182
51	0x3f7912d7	0.9729437
52	0x3f740493	0.9531948
53	0x3f79a7b6	0.9752153
54	0x3f7c0c93	0.98456687
55	0x3f84a120	1.0361671
56	0x3f7380a5	0.9511817
57	0x3f77c86e	0.96790206
58	0x3f86ad9e	1.0521734
59	0x3f85a4b1	1.0440885
60	0x3f78b99b	0.9715821
61	0x3f7ee490	0.9956751
62	0x3f7ab206	0.9792789
63	0x3f802dca	1.0013974

phi.initial_conv_module.0._layers.5.bias f4 [64]
0	0xbd566a84	-0.052347675
1	0x3d3b491a	0.045724012
2	0xbbdb5142	-0.0066930363
3	0xbcab5c7c	-0.020918123
4	0x3cf758c0	0.030193686
5	0x3d06d438	0.03291723
6	0xb985b713	-0.00025504138
7	0x3bf54900	0.007485509
8	0x3cff71a8	0.031182125
9	0x3cbaf859	0.0228235
10	0xbd666996	-0.05625304
11	0xbc4bd467	-0.012440777
12	0x3d83315c	0.06405899
13	0xbc244b30	-0.010027692
14	0x3d28577f	0.041099068
15	0x3b00d672	0.001965907
16	0x3da3c101	0.07995797
17	0x3bcfbfe0	0.006340012
18	0x3ca460b3	0.020065641
19	0xbc9fa3af	-0.01948723
20	0x3b647087	0.003485711
21	0x3d84cd6e	0.06484495
22	0x3b0e18d5	0.0021682282
23	0xbd222ff2	-0.039596505
24	0x3c2d0b3a	0.010561759
25	0xbd18ad8d	-0.037274886
26	0x3cf62f1a	0.030051757
27	0x3d6575b7	0.056020465
28	0x3c9a7121	0.018852772
29	0x3b56ec39	0.0032794608
30	0x3b8c882f	0.0042886953
31	0x3d076bc9	0.033061776
32	0x3c4bb6e1	0.012433738
33	0x3cb189b2	0.021672104
34	0xb9f58ea9	-0.00046836332
35	0x3cadd78a	0.021220941
36	0x3bcb5b89	0.00620598
37	0x3bae9340	0.005327612
38	0x3c8aa115	0.016922513
39	0xbd434e2a	-0.047681965
40	0x3d202251	0.039095227
41	0x3d1005a3	0.035161626
42	0x3bfcfa1e	0.007720246
43	0xbd07f704	-0.033194557
44	0x3c32b984	0.010908488
45	0x3c4710b0	0.012149975
46	0xbc9acff1	-0.018897982
47	0x3cf69a7e	0.030102964
48	0xbd295015	-0.041336138
49	0x3d4e7191	0.050401274
50	0xbca0a82f	-0.019611446
51	0xbca37d10	-0.019957095
52	0xbd3d024e	-0.046144776
53	0xbc9ccf84	-0.01914192
54	0x3d12c686	0.035833858
55	0x3d6444a7	0.055729534
56	0xbd1a8ed8	-0.037733883
57	0x3a5f06eb	0.0008507806
58	0x3c08d8a2	0.008352431
59	0x3c89287b	0.016742935
60	0x3c2e5daf	0.010642453
61	0x3c40768c	0.011747014
62	0xbc9dc7dc	-0.01926034
63	0x3cd0762b	0.025446972

phi.initial_conv_module.0._layers.5.running_mean f4 [64]
0	0x3d10db25	0.035365243
1	0xbdbd8171	-0.092532046
2	0xbdf2db8c	-0.118582815
3	0x3cf7557e	0.030192133
4	0xbdc626d0	-0.09675372
5	0xbe1c4d82	-0.15263942
6	0xbde513e2	-0.11185433
7	0x3d916447	0.070992045
8	0x3cfac979	0.030613648
9	0xbda94a01	-0.08266068
10	0x3c2491e4	0.010044549
11	0xbce5398a	-0.027981538
12	0xbe2bc85b	-0.16775648
13	0xbda9eef1	-0.082975276
14	0xbd0afdf2	-0.033933587
15	0x3da643ea	0.08118422
16	0xbdc80d87	-0.09768205
17	0x3d96c466	0.07361679
18	0x3ae53840	0.0017488077
19	0xbcbdbc45	-0.023161063
20	0xbe05d626	-0.13069972
21	0xbdb8f8cc	-0.09031829
22	0xbc3995d9	-0.01132723
23	0x3dc733c3	0.0972667
24	0xbdbdf02e	-0.09274326
25	0x3d81af22	0.06332232
26	0x3dbbd842	0.09172107
27	0xbe2039a5	-0.1564699
28	0x3e1bcf49	0.15215792
29	0x3e123d95	0.14281304
30	0x3e014f09	0.12627806
31	0xbe2f176e	-0.17098781
32	0xbd98ca93	-0.07460513
33	0x3daa25e8	0.08308011
34	0x3e237def	0.15966009
35	0xbc7ff3a1	-0.0156220505
36	0x3dce53b4	0.10074559
37	0xbe0b98e6	-0.13632545
38	0xbc88c2d6	-0.016694468
39	0x3cf05264	0.029336162
40	0xbd77fb80	-0.060542583
41	0xbdb286a3	-0.08717086
42	0x3d93d069	0.072174855
43	0x3c49f930	0.012327477
44	0x3dd1d098	0.10244864
45	0xbc826484	-0.01591707
46	0xbd8ab11d	-0.06772063
47	0xbe599c53	-0.21251039
48	0x3df7bb0e	0.12096225
49	0xbd9130f5	-0.07089416
50	0x3cdd3fad	0.027007902
51	0x3d8ac024	0.06774929
52	0x3d31c5b7	0.043401446
53	0x3d521afa	0.051295258
54	0x3dd4f47b	0.103981934
55	0xbdf5db22	-0.12004687
56	0xbe23e6d3	-0.16006021
57	0x3d90dc27	0.07073241
58	0xbb9d1916	-0.0047942502
59	0xbd417fb0	-0.047240913
60	0x3e33d4ef	0.17561696
61	0xbcc4f25e	-0.02404135
62	0x3d961493	0.07328143
63	0x3deb212e	0.11480938

phi.initial_conv_module.0._layers.5.running_var f4 [64]
0	0x3c8baa5a	0.017049003
1	0x3d51baf6	0.05120369
2	0x3e130d71	0.14360596
3	0x3c3368a1	0.010950238
4	0x3daebfc0	0.08532667
5	0x3e894fe5	0.26818767
6	0x3ddacce9	0.10683615
7	0x3d99972d	0.074995376
8	0x3ce0f04a	0.027458329
9	0x3da2502a	0.07925446
10	0x3c551f27	0.013007916
11	0x3c3aa59a	0.011392022
12	0x3e305eed	0.17223711
13	0x3d85a718	0.06526011
14	0x3d69f19e	0.05711519
15	0x3de34d55	0.11098734
16	0x3e438309	0.19092955
17	0x3d25af68	0.040450484
18	0x3c330a1c	0.010927703
19	0x3ccfc09a	0.025360394
20	0x3e304e25	0.1721731
21	0x3dddf3a8	0.10837489
22	0x3cf2d098	0.02964048
23	0x3df26fb8	0.11837715
24	0x3dbcbfb7	0.09216254
25	0x3de7c9f2	0.11317815
26	0x3e6c412b	0.23071735
27	0x3e551a33	0.20810775
28	0x3dfe4667	0.12415772
29	0x3e2338fe	0.1593971
30	0x3ea28c91	0.3174787
31	0x3e5a7a6c	0.21335763
32	0x3e1078d2	0.1410859
33	0x3e1a9196	0.15094599
34	0x3e7df6e6	0.24801216
35	0x3d170a0f	0.036874827
36	0x3e396415	0.18104585
37	0x3e6c20df	0.23059414
38	0x3c68f603	0.01421881
39	0x3c8dc152	0.017304096
40	0x3d3b2dec	0.04569809
41	0x3df3104f	0.11868345
42	0x3d5d2601	0.05399132
43	0x3c0f7fee	0.008758528
44	0x3dea1f15	0.1143171
45	0x3d02802d	0.03186052
46	0x3d749e89	0.059721503
47	0x3e991776	0.29900712
48	0x3e01d32e	0.12678215
49	0x3da65e51	0.08123458
50	0x3d1b3301	0.037890438
51	0x3d6b7b95	0.057490904
52	0x3ca2892d	0.019840801
53	0x3d29423a	0.041322924
54	0x3e60b3e9	0.2194363
55	0x3ddef1fe	0.10886
56	0x3e993e86	0.29930514
57	0x3de84b8f	0.11342537
58	0x3d1575e1	0.03648937
59	0x3c8cbf10	0.01718095
60	0x3e91cf4c	0.28478467
61	0x3d249933	0.040185165
62	0x3d4e0a5a	0.05030284
63	0x3e8889df	0.26667687

phi.initial_conv_module.0._layers.7.se_conv.conv.weight f4 [10, 64, 1]
0	0x3dd265d8	0.102733314
1	0x3d0c8ebc	0.03431581
2	0x3dce7f9e	0.10082935
3	0x3e0001d7	0.12500702
4	0x3d01d280	0.03169489
5	0x3d952249	0.0728193
6	0xbd3a1031	-0.045425598
7	0x3d953741	0.072859295
8	0xbdd3600e	-0.10321055
9	0xbc6320d4	-0.013862807
10	0xbcd23401	-0.025659563
11	0xbd0f7f18	-0.035033315
12	0xbc0aa515	-0.00846221
13	0x3d84459b	0.06458589
14	0x3dc8a429	0.09796936
15	0xbd66fa16	-0.056390844
16	0x3d00124b	0.031267446
17	0x3a4efa84	0.0007895606
18	0xbd6c060c	-0.057622954
19	0xbd7c3816	-0.061576925
20	0x3d9f4710	0.07777226
21	0x3de8d43d	0.11368606
22	0xbd148b41	-0.036265615
23	0xbdd5bb77	-0.10436147
24	0x3de0a9f1	0.10969914
25	0x3e0273ba	0.12739459
26	0x3ce96922	0.028492514
27	0x3e0b27d2	0.13589409
28	0xbe2f68a0	-0.17129755
29	0xbcf6f838	-0.030147657
30	0xbd22c67f	-0.039740082
31	0x3d2d403a	0.04229758
32	0xbdad98ed	-0.08476434
33	0xbd08146c	-0.0332226
34	0xbcf45b7f	-0.029828785
35	0x3cabb6e0	0.020961225
36	0x3c09a4b1	0.008401082
37	0x3aea4544	0.0017873426
38	0xbd6dad7f	-0.058026787
39	0x3db1cd58	0.08681744
40	0x3d8e0569	0.06934626
41	0x3d85d17a	0.06534095
42	0xbb79addd	-0.0038098015
43	0x3df86bfa	0.1212997
44	0x3d7cfc1a	0.06176386
45	0xbd6e810d	-0.05822854
46	0x3d4ec0f2	0.050476976
47	0x3d2783db	0.04089723
48	0x3c0bf9e4	0.008543465
49	0xbb9b750f	-0.004744179
50	0x3d49d5d9	0.049276207
51	0xba197fe9	-0.0005855547
52	0xbd5901fc	-0.052980408
53	0x3df1437b	0.11780449
54	0xbbf7656f	-0.0075499336
55	0xbdb7d02c	-0.089752525
56	0x3db837e9	0.08995039
57	0x3d94cfc4	0.07266191
58	0x3d590431	0.052982513
59	0x3dc06e77	0.093960695
60	0xbd532d64	-0.05155696
61	0xbd996038	-0.074890554
62	0x3def05ea	0.1167105
63	0x3de6df92	0.112731114
64	0xbd86316f	-0.065523975
65	0x3dcf1685	0.10111717
66	0x3d079bd3	0.03310759
67	0x3df2f5ec	0.11863312
68	0x3dc35eff	0.095396034
69	0xbd592fc0	-0.053024054
70	0x3cd17419	0.025568055
71	0xbc6c8f88	-0.014438517
72	0xbdc3b294	-0.095555454
73	0x3c39ca94	0.011339802
74	0xbd5733b6	-0.05253955
75	0x3d716bdf	0.058940765
76	0xbcd6a1ad	-0.02620014
77	0xbce02890	-0.027363092
78	0xbd5332d2	-0.051562138
79	0x3ddb1657	0.1069762
80	0xbd250ad7	-0.04029354
81	0xbcb933d1	-0.022607716
82	0xbe016dcb	-0.12639539
83	0xbda21068	-0.079132855
84	0x3dd77f06	0.10522275
85	0xbd252b30	-0.04032439
86	0xbe034b94	-0.128218
87	0xbd126c97	-0.03574809
88	0x3d88ae2d	0.066738464
89	0xbdd1a0e8	-0.102357686
90	0xbdcc934d	-0.09989033
91	0xbda09f98	-0.0784294
92	0xbdfeea37	-0.12447017
93	0x3e192909	0.1495706
94	0x3d552850	0.052040398
95	0x3e1dca50	0.15409207
96	0xbda46c15	-0.080284275
97	0xbc22ca11	-0.009935872
98	0xbdaf3fab	-0.085570656
99	0xbe2e0012	-0.16992214
100	0x3d75bf4f	0.0599969
101	0xbd2aff70	-0.04174751
102	0x3c526af0	0.012842879
103	0x3b4e4b81	0.003147811
104	0x3d1bee0c	0.038068816
105	0x3e237de6	0.15965995
106	0x3d65134a	0.0559266
107	0x3989e07a	0.00026297924
108	0xbb2a115e	-0.0025950293
109	0x3e0977b0	0.13424563
110	0xbdcde295	-0.10052983
111	0x3e02e024	0.12780815
112	0xbdb2add7	-0.087245636
113	0x3da2a974	0.07942477
114	0xbd790709	-0.060797725
115	0xbdf6c1e2	-0.12048699
116	0x3c1f89f4	0.00973748
117	0xbcc0d1b2	-0.02353749
118	0x3b7cbef9	0.0038565977
119	0xbd7e316b	-0.062058847
120	0xbd0313f0	-0.032001436
121	0xbdc33a61	-0.09532619
122	0xbc1d67c7	-0.009607262
123	0xbbe9f0ff	-0.0071393247
124	0xbd904909	-0.0704518
125	0x3db8fddc	0.09032795
126	0xbdeab721	-0.1146071
127	0xbdce2023	-0.10064723
128	0x3d858a76	0.0652055
129	0xbd855aba	-0.06511445
130	0xbdb64dcb	-0.089015566
131	0xbdd000f1	-0.101564296
132	0x3d328f00	0.043593407
133	0x3dba170a	0.090864256
134	0x3d51cb8e	0.051219516
135	0x3b37d6b6	0.0028051562
136	0xbdad7a25	-0.08470563
137	0xbe223c6f	-0.15843366
138	0x3daa8a4d	0.0832716
139	0xbd971bef	-0.07378375
140	0x3d84ea8f	0.06490051
141	0x3b838150	0.004013218
142	0x3da9302d	0.08261142
143	0xbd938592	-0.07203211
144	0xbd70b0ab	-0.058762234
145	0xbc8cddcc	-0.017195605
146	0xbd480e7a	-0.04884193
147	0xbd2fc2c4	-0.042910352
148	0x3d87eb26	0.06636648
149	0xbdecf25e	-0.11569665
150	0xbdbc2f51	-0.091887124
151	0x3baab287	0.0052092704
152	0x3ddb37ad	0.10703979
153	0xbc85c023	-0.01632697
154	0xba942987	-0.001130388
155	0x3d181892	0.037132807
156	0xbd7f6f5c	-0.06236206
157	0x3d0dc23d	0.03460907
158	0x3c87e72c	0.016589724
159	0xbd858a52	-0.06520523
160	0x3d770880	0.06031084
161	0x3d05ec28	0.03269592
162	0x3d3fcddf	0.046827193
163	0x3cf48ddb	0.029852798
164	0xbdecc8be	-0.11561726
165	0xbd0a6c6b	-0.0337948
166	0x3d7405e8	0.059575945
167	0xbd3121c8	-0.043245107
168	0xbce8b8b6	-0.02840839
169	0xbd7b2309	-0.06131271
170	0xbd8c8e4d	-0.06863079
171	0x3d7c3e05	0.061582584
172	0xbd811d3a	-0.06304403
173	0xbc779735	-0.015111734
174	0xbdea4222	-0.11438395
175	0xbd85592c	-0.06511149
176	0x3dcad9f3	0.09904852
177	0x3db9860c	0.090587705
178	0x3db2b2d8	0.08725518
179	0xbdde77c2	-0.10862686
180	0x3de6660c	0.11249933
181	0xbdb245c8	-0.08704716
182	0x3b84dd91	0.004054733
183	0xbda73ce3	-0.0816591
184	0x3da3ae7d	0.079922654
185	0x3dfd672f	0.12373196
186	0x3dcccd73	0.10000124
187	0xbcf491de	-0.029854711
188	0x3d970397	0.073737316
189	0xbdf8955c	-0.12137863
190	0xbda3116b	-0.079623066
191	0x3d7c6813	0.06162269
192	0xbd823e43	-0.06359532
193	0x3bc45630	0.0059917197
194	0x3da4ee17	0.080532245
195	0xbde7338a	-0.11289127
196	0x3d193ce7	0.037411597
197	0x3ddab3b6	0.106788084
198	0xbd36e363	-0.044650447
199	0x3e0be802	0.13662723
200	0x3d955a9f	0.07292675
201	0x3dfd21c2	0.123599544
202	0xbd522e23	-0.05131353
203	0x3c86dac2	0.016461734
204	0xbcab279a	-0.020892907
205	0xbdd45492	-0.10367693
206	0x3d70d4e6	0.058796786
207	0xbd21ae55	-0.039472897
208	0x3dcbd6a5	0.099530496
209	0xbdd9ad8a	-0.10628803
210	0x3dafffb6	0.08593695
211	0x3db9d4c8	0.09073788
212	0x3d04fb0d	0.032465983
213	0x3d53bc78	0.05169341
214	0xbc818840	-0.01581204
215	0xbdc5a1a3	-0.096499704
216	0xbde998dc	-0.11406109
217	0xbe230f51	-0.15923811
218	0x3dd5d8db	0.104417525
219	0xbde7cf75	-0.11318866
220	0x3bde2546	0.0067793457
221	0xbdf6f224	-0.120579034
222	0x3ca0fe46	0.019652497
223	0xbdeeeab8	-0.11665863
224	0xbd9ba8bd	-0.07600544
225	0xbdc81880	-0.09770298
226	0x3cbe1fa4	0.023208447
227	0x3ce324a1	0.027727427
228	0xbdccf599	-0.100077815
229	0x3de76807	0.112991385
230	0xbcdceea0	-0.026969254
231	0x3e15ae2e	0.14617226
232	0xbc6ba042	-0.01438147
233	0xbdcef91d	-0.10106108
234	0x3d06b454	0.032886818
235	0x3e08c047	0.13354598
236	0x3c2bdcd1	0.010489658
237	0x3ca58b1d	0.020207936
238	0xbd07a0a1	-0.033112172
239	0x3be349df	0.0069362964
240	0x3c377fe9	0.01119993
241	0x3ddfe7ce	0.10932885
242	0x3d96dc8e	0.07366286
243	0x3d5034d4	0.05083163
244	0xbdadcc59	-0.08486242
245	0xbd867f5c	-0.065672606
246	0x3e295c87	0.16539203
247	0xbd818643	-0.063244365
248	0xbd519540	-0.051167727
249	0xbdc32391	-0.09528268
250	0x3d288644	0.04114367
251	0xbde8e6fc	-0.11372182
252	0x3cd52f02	0.026023392
253	0x3b3f1f36	0.002916289
254	0xbd4cc330	-0.049990833
255	0xbdaaaa47	-0.08333259

phi.initial_conv_module.0._layers.7.se_conv2.conv.weight f4 [64, 10, 1]
0	0xbeb5d04f	-0.3551049
1	0xbcb6cecd	-0.022315407
2	0x3e5af634	0.21382982
3	0x3b982dc7	0.004644129
4	0xbcd7bc2a	-0.02633484
5	0xbd27e44f	-0.040989216
6	0x3ea17846	0.31537074
7	0x3dc79992	0.09746088
8	0x3d989e01	0.07452012
9	0x3e9df0c8	0.30847764
10	0x3e113ddb	0.14183752
11	0x3e7e2688	0.24819386
12	0x3b4c4c56	0.003117343
13	0x3b0169c2	0.0019746874
14	0x3d2976b6	0.041372977
15	0x3e5204a8	0.20509589
16	0x3e6828e2	0.22671846
17	0xbd9a9429	-0.075477906
18	0x3d33ad28	0.043866307
19	0xbd83a503	-0.06427958
20	0xbe9860ed	-0.29761449
21	0xbe474b63	-0.19462352
22	0x3e5fe7ca	0.21865764
23	0xbd388c51	-0.04505569
24	0x3e756f41	0.23968221
25	0xbe18ec85	-0.14933975
26	0xbe82d861	-0.2555571
27	0xbe5138bf	-0.20431803
28	0xbe2de791	-0.16982867
29	0x3e627d21	0.22118045
30	0xbe9f452e	-0.31107467
31	0xbd95d685	-0.07316307
32	0xbe0db86a	-0.1383988
33	0x3dc5d835	0.09660379
34	0x3d25b710	0.040457785
35	0xbe1c1699	-0.15242995
36	0x3cb0d07d	0.02158379
37	0xbe2e51c4	-0.17023379
38	0xbc1544eb	-0.00911067
39	0x3eabeaa5	0.33577457
40	0x3e2700bc	0.16308874
41	0xbea44149	-0.3208106
42	0x3d9768a1	0.07393003
43	0x3e51674f	0.20449565
44	0x3e9d19a1	0.30683616
45	0x3e6dfa7f	0.23240088
46	0xbe6ca0de	-0.23108241
47	0x3ea3519e	0.31898206
48	0xbdf3a308	-0.1189633
49	0x3d060d2f	0.032727417
50	0x3e125000	0.1428833
51	0x3e7bd3e4	0.24592549
52	0x3c86c0a8	0.016449288
53	0x3e1dbdf1	0.15404488
54	0xbe559a46	-0.20859632
55	0x3e0f48bf	0.13992594
56	0xbe45445d	-0.1926436
57	0xbe05efac	-0.13079709
58	0x3dfd3f00	0.12365532
59	0x3e074254	0.13208896
60	0xbe14ad5e	-0.1451926
61	0x3c90fe9d	0.017699534
62	0x3c98bde2	0.01864523
63	0x3dc8fa3a	0.09813352
64	0xbdb0c78f	-0.08631813
65	0xbe6dfd28	-0.23241103
66	0x3d9312b4	0.07181302
67	0xbe4f2a1c	-0.20230907
68	0x3da5becf	0.080930345
69	0xbdabc08b	-0.08386334
70	0x3e70ad28	0.23503554
71	0xbe3fd27e	-0.1873264
72	0xbdc29bd3	-0.09502377
73	0xbe9022b4	-0.28151476
74	0x3e8afa52	0.27144104
75	0xbea736f3	-0.3265911
76	0x3e770c51	0.24125792
77	0x3e3ed2e7	0.1863514
78	0x3e0029f5	0.12516005
79	0xbe49ac31	-0.19694592
80	0xbc67d246	-0.014149254
81	0x3e3ac688	0.18239796
82	0xbe8016f6	-0.25017518
83	0xbe5e6444	-0.21717936
84	0xbe4d581e	-0.20053145
85	0x3debe847	0.11518913
86	0x3e3422f2	0.17591456
87	0xbd71b265	-0.05900802
88	0xbe02a4cd	-0.12758179
89	0x3d063c40	0.032772303
90	0xbdc17fa0	-0.09448171
91	0x3bc0137f	0.005861699
92	0xbe1fbf84	-0.15600401
93	0xbe6a8401	-0.22901918
94	0x3d994bba	0.07485147
95	0xbe86c957	-0.26325485
96	0x3ea92808	0.33038354
97	0xbd0827d2	-0.0332411
98	0x3e8baa11	0.27278188
99	0xbe9a037a	-0.30080777
100	0x3e13fede	0.14452693
101	0xbe8d6480	-0.27615738
102	0xbe6ca21f	-0.2310872
103	0x3dd1c05e	0.10241769
104	0x3dc694f0	0.09696376
105	0x3e926fb4	0.28600848
106	0x3e55e261	0.20887138
107	0x3e7469fd	0.23868556
108	0xbccf15bd	-0.02527892
109	0x3c89166f	0.01673433
110	0xbe3d4ca2	-0.18486264
111	0x3e82d10e	0.2555012
112	0x3dc7f675	0.09763805
113	0x3e592443	0.21205239
114	0x3d5ffbbb	0.05468343
115	0x3dceb200	0.100925446
116	0x3ddea6cb	0.10871657
117	0xbd93a6e4	-0.07209566
118	0xbe806f09	-0.25084713
119	0x3dbc173c	0.09184119
120	0x3eaecc16	0.3414008
121	0xbe9de4a3	-0.30838498
122	0xbe95454f	-0.2915444
123	0xbdd710ea	-0.10501273
124	0xbe3aaeba	-0.18230715
125	0x3e27cb96	0.16386256
126	0xbe5f5f0c	-0.21813601
127	0xbdf9d991	-0.121997006
128	0xbda18262	-0.07886197
129	0x3e4a3f35	0.19750674
130	0xbda156ab	-0.07877859
131	0xbe5e01a0	-0.21680307
132	0x3e703c59	0.23460521
133	0x3cb25727	0.021770073
134	0x3e3cfe8a	0.18456474
135	0x3d0a05ff	0.033697125
136	0x3d70e5ef	0.05881303
137	0x3d8c7a4a	0.06859262
138	0x3e836f09	0.2567065
139	0xbe0ad421	-0.13557483
140	0x3e754847	0.23953353
141	0x3c8dde9e	0.017318066
142	0xbcb7376c	-0.022365294
143	0xbe4bf65e	-0.199182
144	0x3d291f05	0.04128935
145	0xbe7ded7a	-0.24797621
146	0x3e8fa0ac	0.2805227
147	0xbe011c22	-0.12608388
148	0xbe8bb9a6	-0.27290076
149	0xbddda43f	-0.10822343
150	0xbe8e905e	-0.27844518
151	0xbd40649a	-0.04697094
152	0xbe7fa280	-0.24964333
153	0xbe023552	-0.12715653
154	0xbe0b09e3	-0.1357799
155	0xbe7986ef	-0.2436788
156	0x3e406d1e	0.18791625
157	0x3e420131	0.18945767
158	0xbe2a0e48	-0.1660701
159	0xbcde2a3d	-0.02711975
160	0x3d397d10	0.045285285
161	0x3e069bef	0.13145421
162	0xbd98bbf8	-0.07457727
163	0x3dd14508	0.10218245
164	0x3e0fda5c	0.14048141
165	0x3d584aa4	0.052805558
166	0x3e7e55d7	0.24837433
167	0x3dcb0ac8	0.09914166
168	0x3e6e6b98	0.23283231
169	0xbe72f80f	-0.2372744
170	0x3dd9c327	0.106329255
171	0xbe6cd335	-0.23127444
172	0xbd83c9bc	-0.06434962
173	0x3e28c047	0.16479598
174	0x3ddda493	0.10822406
175	0x3e8c1ace	0.273642
176	0xbe6d8201	-0.23194124
177	0xbe42d1b1	-0.19025303
178	0x3eab5c25	0.33468738
179	0x3e7c96eb	0.24666946
180	0xbdfa6223	-0.12225749
181	0x3dd0b53e	0.10190819
182	0xbe56dd85	-0.2098294
183	0x3d742b9d	0.059611905
184	0x3d2fbaff	0.042902943
185	0xbd5edba0	-0.05440867
186	0xbbf025a1	-0.0073287045
187	0xbdd6efd5	-0.10494963
188	0xbe5e54e3	-0.21712069
189	0x3ea11e01	0.31468204
190	0xbe3d2d64	-0.18474346
191	0x3e4314ef	0.19050954
192	0x3dc8ea58	0.098103225
193	0x3e8ea6e7	0.2786171
194	0x3e730b22	0.23734716
195	0x3de4a14a	0.11163576
196	0x3e9481cb	0.29005274
197	0x3de2faf1	0.110830195
198	0xbe09e821	-0.13467456
199	0x3d5e5ef0	0.05428976
200	0x3e874bf7	0.26425144
201	0xbe8b78f1	-0.27240708
202	0x3e31ffe8	0.17382777
203	0xbe7d9a67	-0.24765931
204	0xbdae7954	-0.08519235
205	0x3d8bfd16	0.06835382
206	0x3e288ee4	0.16460758
207	0x3dfce6ea	0.12348731
208	0xbdbaed11	-0.09127248
209	0xbeab8ad4	-0.33504355
210	0x3e7bff27	0.24609052
211	0xbe3e8609	-0.18605818
212	0x3e03eddc	0.12883705
213	0xbe6e99d5	-0.2330087
214	0x3db73ca3	0.089471124
215	0x3dd2e6e2	0.10297944
216	0x3e2f070a	0.17092529
217	0xbdf24b92	-0.1183082
218	0xbdbf3660	-0.09336543
219	0x3e5b0f0b	0.21392457
220	0xbc92bf34	-0.017913438
221	0xbe8bcd9d	-0.27305308
222	0xbdf9297f	-0.12166118
223	0x3d24068c	0.040045306
224	0x3e957cde	0.2919683
225	0x3e56025a	0.20899335
226	0xbe96fdeb	-0.294906
227	0xbb876fab	-0.004133185
228	0x3e627405	0.2211457
229	0x3b034281	0.0020028653
230	0xbd172da8	-0.036908776
231	0x3e1eb8ed	0.15500231
232	0x3e667de7	0.22508965
233	0xbb3e8666	-0.0029071807
234	0xbe480a6a	-0.19535223
235	0xbe60eb5a	-0.2196478
236	0x3dac8378	0.08423513
237	0xbe6fb75b	-0.23409788
238	0x3dee62c7	0.11639934
239	0xbd2e68d9	-0.04258046
240	0xbe5e8bae	-0.21732971
241	0xbe4af4d9	-0.19819964
242	0x3d557386	0.052112125
243	0x3e6ce293	0.23133306
244	0xbe197187	-0.14984713
245	0x3d74d44d	0.05977278
246	0xbdd434a5	-0.10361604
247	0x3e8cbb62	0.27486712
248	0x3d363bc1	0.04449058
249	0xbe7efef6	-0.24901947
250	0x3d2b0784	0.041755214
251	0xbc3ccc38	-0.011523299
252	0xbe07b7fb	-0.13253777
253	0x3e8b68f2	0.27228504
254	0xbe6bceba	-0.23028079
255	0x3dda8a89	0.10670955

phi.initial_conv_module.0._layers.8.conv.weight f4 [32, 64, 1]
0	0x3dccd6d2	0.10001911
1	0x3dbd5483	0.09244635
2	0xbba27fe3	-0.004959093
3	0xbdf64531	-0.12024916
4	0xbd485b26	-0.04891505
5	0xbad2341b	-0.0016037257
6	0xbdba96b9	-0.09110779
7	0xbd7b7945	-0.06139495
8	0x3e034e9d	0.12822957
9	0x3e01c592	0.12673023
10	0x3dcf7a9a	0.10130806
11	0x3dc7ff49	0.09765489
12	0x3d053a47	0.03252628
13	0x3c8365e8	0.016039804
14	0xbd827738	-0.063703954
15	0xbe1dfc3f	-0.15428255
16	0xbe1b2648	-0.15151322
17	0x3c29a6ed	0.01035474
18	0xbdb02c98	-0.086022556
19	0xbdcf1319	-0.101110645
20	0xbd2b4cc8	-0.04182127
21	0x3e0f0fe3	0.13970904
22	0xbcb7a166	-0.022415828
23	0xbd9c1eeb	-0.07623085
24	0xbd13e11c	-0.036103353
25	0xbde5ca9f	-0.112202875
26	0x3d230eb6	0.03980895
27	0xbca1b648	-0.019740239
28	0x3de895c3	0.1135669
29	0xbbf0b620	-0.0073459297
30	0xbd8a87a9	-0.06764156
31	0x3d444684	0.04791881
32	0xbe0f6766	-0.14004287
33	0xbcb928ab	-0.0226024
34	0x3d46eb58	0.048564285
35	0xbd989343	-0.07449963
36	0x3cabaaa3	0.02095539
37	0x3bd20060	0.006408736
38	0xbdb5662d	-0.08857379
39	0xbde2ee0a	-0.110805586
40	0xbe07c7bb	-0.13259785
41	0xbdc72735	-0.09724275
42	0xbd567bfe	-0.052364342
43	0xbc0a4156	-0.008438429
44	0x3dac3a73	0.08409586
45	0x3db4de52	0.08831467
46	0xbde448ba	-0.11146684
47	0x3cb1d337	0.02170716
48	0x3d8cdeda	0.06878443
49	0xbda12485	-0.07868294
50	0x3d7ffce4	0.062497035
51	0xbdbcbacb	-0.092153154
52	0x3d9b4fb4	0.075835615
53	0xbc33bf6a	-0.01097093
54	0x3dda07fb	0.106460534
55	0x3d94e998	0.07271117
56	0xbaf79eb1	-0.0018891898
57	0x3d72e384	0.059299007
58	0xbcceaf15	-0.02522997
59	0xbe24d16b	-0.16095512
60	0xbd5bb53b	-0.05363963
61	0xbd621e5f	-0.055204745
62	0x3d332e76	0.04374548
63	0x3dadbd88	0.08483416
64	0x3d245a16	0.040124975
65	0x3e07aedf	0.13250302
66	0xbd68fa23	-0.056879174
67	0xbdb87a83	-0.09007742
68	0xbd3f538e	-0.046710543
69	0xbd648a96	-0.05579623
70	0x3d8ad616	0.06779115
71	0x3e0215eb	0.12703674
72	0x3e0c46db	0.13698904
73	0xbcdd193c	-0.026989572
74	0x3dc11bdb	0.09429141
75	0xbd93ac12	-0.07210554
76	0x3c9a2c35	0.018819908
77	0x3da436d9	0.08018274
78	0xbe231ad8	-0.15928209
79	0x3dbe2e0e	0.09286128
80	0xbe3e05d9	-0.18556918
81	0x3d08dc94	0.033413485
82	0x3da244cb	0.079232775
83	0x3da9d3e2	0.082923666
84	0xbc8b956d	-0.017039025
85	0x3dffd019	0.12490863
86	0x3c86498c	0.016392492
87	0xbd73bba4	-0.05950512
88	0xbdb8886d	-0.09010396
89	0x3d89dd89	0.067317076
90	0xbd7644a8	-0.06012407
91	0x3ce883d8	0.02838318
92	0x3ce609cf	0.028080849
93	0xbc2bea98	-0.010492943
94	0x3c241ab7	0.010016135
95	0x3d8e1603	0.06937792
96	0xbdcf6b3f	-0.101278774
97	0x3db4fabc	0.08836886
98	0xbc9f855a	-0.019472767
99	0x3e0f89cc	0.14017409
100	0x3ce6b461	0.028162183
101	0x3d1b782d	0.037956405
102	0xbd7987da	-0.060920574
103	0xbd964f6f	-0.073393695
104	0xbdb377c9	-0.087630816
105	0x3ab42e5c	0.0013746726
106	0xbdb5e5e4	-0.08881739
107	0xbcc8b6a1	-0.024501147
108	0x3dbbcc94	0.091698796
109	0x3d4b323d	0.049608458
110	0xbc4f024b	-0.012634824
111	0x3da75b1b	0.08171674
112	0xbcb7726a	-0.022393424
113	0xbe290205	-0.16504677
114	0xbd3f4ec6	-0.046705984
115	0xbd370f52	-0.044692345
116	0xbb84ab5d	-0.0040487484
117	0x3cb76ad3	0.022389805
118	0xbcedaf5b	-0.02901428
119	0xbc819235	-0.015816787
120	0x3d86de02	0.065853134
121	0x3dd42dd6	0.10360305
122	0x3d7f33ba	0.06230519
123	0x3cc4348a	0.023950834
124	0xbd3e1fd5	-0.046417076
125	0xbd0cb476	-0.03435179
126	0xbd32c46b	-0.04364435
127	0xbe0a6e87	-0.13518725
128	0x3d9f3bff	0.07775115
129	0x3d8d7bb4	0.0690836
130	0xbda60ff4	-0.081085116
131	0x3de21933	0.110399626
132	0xbe0a3f15	-0.13500626
133	0xbca31cfe	-0.019911285
134	0x3d88a927	0.06672888
135	0xbc931a03	-0.01795674
136	0x3dc5920b	0.09646996
137	0x3d715491	0.05891854
138	0x3d0fd9b7	0.03511974
139	0x3d8f1400	0.069862366
140	0x3dbed2f3	0.09317579
141	0xbd2b14e5	-0.041767973
142	0xbcd21196	-0.025643151
143	0xbce910d0	-0.0284504
144	0xbe17bfde	-0.14819285
145	0xbd9b5fb7	-0.075866155
146	0x3c05d83a	0.008169228
147	0xbcc7a9e3	-0.024373
148	0xbdda81ec	-0.10669312
149	0xbdfb230c	-0.12262544
150	0x3ad1d70a	0.0016009521
151	0x3dc675ca	0.09690435
152	0xbda111ff	-0.078647606
153	0xbd689acb	-0.056788247
154	0x3d6fd2e0	0.058550715
155	0x3ddffba6	0.1093667
156	0x3dcfa601	0.101390846
157	0x3cb0d43d	0.021585578
158	0x3d543f4b	0.051818173
159	0x3dbe540f	0.09293377
160	0x3d046e9a	0.03233204
161	0x3b54b6d8	0.0032457616
162	0xbdab19ab	-0.08354505
163	0x3e11574d	0.14193459
164	0xbde59f30	-0.11212003
165	0xbd8a8995	-0.06764523
166	0x3dc60758	0.096693695
167	0x3b24b163	0.0025130145
168	0x3d68e198	0.056855768
169	0xbd454308	-0.04815963
170	0xbd07edc3	-0.03318573
171	0xbdd13069	-0.10214312
172	0xbb37fc03	-0.0028073795
173	0x3db5f9a0	0.08885503
174	0xbd45d1c4	-0.04829575
175	0xbd52704a	-0.05137662
176	0x3d05efda	0.032699443
177	0x3d8adc23	0.06780269
178	0xbda70c0b	-0.08156594
179	0x3d9c2ffe	0.07626341
180	0xbc851272	-0.016244147
181	0x3de737cd	0.1128994
182	0xbcf799a3	-0.030224627
183	0x3db5ab4e	0.088705644
184	0xbd0d7a95	-0.03454073
185	0x3d4b2572	0.049596258
186	0xbca9ff96	-0.020751756
187	0xbdad67cd	-0.08467064
188	0x3d6d8fc3	0.05799843
189	0x3dbf6e7a	0.093472436
190	0xbda972a2	-0.082738176
191	0xbd9704e6	-0.07373981
192	0x3d1d0cdd	0.038342346
193	0x3d5969a3	0.05307926
194	0x3c4f2dbf	0.012645184
195	0x3c77887a	0.015108222
196	0x3da1f542	0.07908107
197	0xbc416053	-0.011802751
198	0x3d740430	0.059574306
199	0x3c214e59	0.00984534
200	0xbdb845e9	-0.08997709
201	0x3dc882a4	0.09790543
202	0xbde4e67e	-0.111767754
203	0x3d7cc8bc	0.061714873
204	0xbdd7ee05	-0.105434455
205	0xbcbc3935	-0.022976497
206	0x3c217d5d	0.009856549
207	0x3cc6fc46	0.024290215
208	0xbcafa39a	-0.021440316
209	0xbde737ca	-0.11289938
210	0x3d82978f	0.06376564
211	0x3da3e3bb	0.080024205
212	0x3c962f51	0.01833311
213	0x3d845b3c	0.06462714
214	0xbd102ffc	-0.03520201
215	0x3dc962a6	0.09833269
216	0xbc6572ef	-0.014004453
217	0x3d55e366	0.052218817
218	0xbdce954b	-0.10087069
219	0xbc097fe1	-0.008392305
220	0xbd3d9ebc	-0.04629396
221	0xbcda1913	-0.026623284
222	0x3d9c27a5	0.07624749
223	0xbe3efac5	-0.18650348
224	0xbd393d6f	-0.045224603
225	0xbdd3cdbb	-0.10341974
226	0xbd8169f6	-0.063190386
227	0x3c804cac	0.01566156
228	0x3d0c6b84	0.034282222
229	0x3d627fe6	0.055297755
230	0x3c56610d	0.013084662
231	0xbdadbfde	-0.084838614
232	0xbdc4113f	-0.09573602
233	0x3d39b908	0.045342475
234	0x3e0308f3	0.12796383
235	0x3d942ceb	0.0723513
236	0x3d906672	0.0705079
237	0xbe1ac95d	-0.15115876
238	0x3cfd7c9d	0.03094321
239	0xbcc5e04a	-0.0241548
240	0xbdae9b5e	-0.08525728
241	0xbda6e1f3	-0.08148565
242	0x3db3a856	0.08772342
243	0xbc4f6287	-0.012657768
244	0xbdd11db4	-0.102107435
245	0x3da6f062	0.08151318
246	0x3d146ffb	0.036239605
247	0xbde3c151	-0.111208566
248	0xbdaf6233	-0.08563652
249	0x3d87ebac	0.06636748
250	0xbd61939c	-0.055072412
251	0xbddb4de6	-0.10708217
252	0xbb78aba7	-0.003794411
253	0x3dd1b926	0.102403924
254	0x3d92764f	0.07151472
255	0xbda2109c	-0.07913324

phi.initial_conv_module.0._layers.9.weight f4 [32]
0	0x3f81e9cd	1.0149475
1	0x3f7ceec3	0.9880182
2	0x3f82152e	1.0162714
3	0x3f825a6f	1.0183848
4	0x3f7db6b6	0.9910692
5	0x3f802e6c	1.0014167
6	0x3f824470	1.0177135
7	0x3f7aab76	0.9791788
8	0x3f7ca839	0.9869419
9	0x3f811510	1.0084553
10	0x3f82cbe6	1.0218475
11	0x3f81b43c	1.0133128
12	0x3f8474fc	1.0348201
13	0x3f80ee28	1.007268
14	0x3f81e221	1.0147134
15	0x3f81bc8e	1.0135667
16	0x3f879cf9	1.0594779
17	0x3f7ca092	0.9868251
18	0x3f826b18	1.0188932
19	0x3f7bc1fe	0.98342884
20	0x3f87552d	1.0572869
21	0x3f8347b6	1.025626
22	0x3f7789a5	0.96694404
23	0x3f7f7cd5	0.99799854
24	0x3f823b63	1.0174373
25	0x3f7cb311	0.98710734
26	0x3f7fb96e	0.9989232
27	0x3f792784	0.9732592
28	0x3f841590	1.031908
29	0x3f8408e1	1.031521
30	0x3f8046cf	1.0021609
31	0x3f865c32	1.0496886

phi.initial_conv_module.0._layers.9.bias f4 [32]
0	0xbb876cde	-0.004132851
1	0xba1b429e	-0.00059227075
2	0x3b0f2369	0.0021841174
3	0x3b1bfc19	0.0023801385
4	0x3abde38a	0.0014487368
5	0x3a522db2	0.00080176734
6	0xbb2fceef	-0.0026826223
7	0x3bac6469	0.0052609933
8	0xbaaba7a5	-0.0013096227
9	0xbaf075f4	-0.00183457
10	0x3bf8659e	0.007580473
11	0x3bb57bac	0.0055384245
12	0x3984bbe8	0.00025317003
13	0x3b4dd7b0	0.0031409077
14	0x3b256e10	0.0025242604
15	0x39eae8dd	0.00044805455
16	0xbb777535	-0.003775907
17	0xbaf423d2	-0.0018626398
18	0x3a0d0e73	0.0005380876
19	0xbb4c0878	-0.0031132977
20	0xbbd224d6	-0.0064130826
21	0xbaa4b2ff	-0.0012565552
22	0x3919251e	0.00014605044
23	0x3b729af4	0.0037018629
24	0xbb28a0ba	-0.0025730566
25	0x3be5f210	0.0070173815
26	0xba52adf2	-0.0008036784
27	0xbac91ef8	-0.0015344312
28	0xba8c07c8	-0.0010683471
29	0xbb374e17	-0.002797013
30	0x3a3c5323	0.0007184019
31	0x3b2d1f42	0.0026416336

phi.initial_conv_module.0._layers.9.running_mean f4 [32]
0	0xbd72027f	-0.05908441
1	0x39fb3a88	0.0004791806
2	0x3cbc8dbf	0.023016809
3	0xbd05715a	-0.032578804
4	0xbc5318c7	-0.012884325
5	0xbdbd2d40	-0.092371464
6	0xbca80788	-0.020511404
7	0x3d1293d3	0.035785507
8	0x3c0de726	0.008661067
9	0x3e0b179c	0.13583225
10	0x3c94b8c2	0.018154506
11	0xbcafa838	-0.021442518
12	0x3cd96b2b	0.02654036
13	0x3d565d01	0.05233479
14	0xbd820898	-0.063492954
15	0x3d739605	0.05946924
16	0x3bfe150f	0.007753975
17	0x38b941dd	8.8337554e-05
18	0xba99f5be	-0.001174621
19	0x3cfd1b3f	0.030896781
20	0x3c4b8c50	0.01242359
21	0xbe0b26ee	-0.13589069
22	0xbd72e754	-0.059302643
23	0x3d019419	0.031635378
24	0x3caa6463	0.020799821
25	0xbc11c97c	-0.008898135
26	0xbd31ef52	-0.043441124
27	0x3d80f435	0.06296579
28	0x3c057298	0.008144997
29	0xbcaea2aa	-0.021317799
30	0xbdf54d3a	-0.119776204
31	0x3cceba20	0.025235236

phi.initial_conv_module.0._layers.9.running_var f4 [32]
0	0x3de040c5	0.10949854
1	0x3d03a390	0.032138407
2	0x3ca04c8b	0.019567749
3	0x3cf6e64c	0.030139111
4	0x3ce236c7	0.02761401
5	0x3cef0dea	0.02918144
6	0x3cd6cbc7	0.026220215
7	0x3d0c51f0	0.03425783
8	0x3cf98dc8	0.030463114
9	0x3d6f188e	0.058373027
10	0x3d7eb60a	0.062185325
11	0x3cc595d1	0.02411929
12	0x3d5f4f7a	0.054519154
13	0x3d659bc4	0.056056753
14	0x3d89072b	0.0669082
15	0x3cee96cb	0.029124638
16	0x3cdd1f34	0.026992418
17	0x3d828f11	0.06374944
18	0x3cb9ff9c	0.022704892
19	0x3d045785	0.032310028
20	0x3d9ca8c5	0.07649378
21	0x3d93c43a	0.072151616
22	0x3d2f2809	0.04276279
23	0x3d85219f	0.06500553
24	0x3cfadf0b	0.030623933
25	0x3d726b2e	0.059184246
26	0x3dc9688b	0.09834393
27	0x3d4b7364	0.049670592
28	0x3cca8ca7	0.024725271
29	0x3d09f508	0.033680946
30	0x3cc227dd	0.023700649
31	0x3d1fe7a4	0.03903927
