best_distillation_model.pt (torch, 861531 bytes, 450 tensors)

phi.initial_conv_module.0._layers.0.conv.weight f4 [64, 64, 1]
-0.08217412 -0.10607348 0.08266099 -0.074035525 -0.005630155 -0.04909608 -0.041525908 0.09560405
0.07770896 0.10597961 -0.07643302 -0.022158725 0.12001472 0.08958145 -0.004996586 -0.12379588
-0.06609178 0.0673981 0.08383726 0.04758119 -0.06738541 0.071855545 -0.011310677 0.12381232
0.13670966 0.14207257 0.05670753 0.026577558 -0.14317055 -0.073011816 0.045182627 -0.019384675
-0.068067156 0.09273821 0.08035103 0.035855453 -0.047176693 0.080107294 0.018518694 0.047805026
-0.0603373 -0.09967579 -0.0141629055 0.11400566 -0.011242211 0.06809195 -0.016942175 0.072851084
-0.010711145 -0.15064181 -0.08331497 0.03132796 -0.013342526 0.016144998 0.13712265 0.065049015
0.12002312 0.08213241 0.1322662 0.011398689 0.013915767 -0.06300735 -0.07664006 -0.0729427
0.010875604 0.02057612 -0.06160547 0.023129914 0.1122353 -0.00595115 -0.08798415 -0.07583732
-0.006404515 -0.097024284 -0.0011500622 -0.07035088 0.040478565 0.026731052 -0.018285254 -0.057956193
-0.07863552 -0.07595489 -0.094916165 -0.14652725 0.13332018 0.025147274 0.09372813 -0.024526559
0.029966723 -0.08000121 -0.024873003 0.10842982 0.032203145 0.052190408 0.12678197 0.031292614
-0.13073204 -0.13549031 -0.14795843 -0.03684431 -0.100464724 -0.047839705 -0.07705998 0.0969421
-0.10298464 0.033234905 0.08453722 -0.011950296 0.021857556 -0.06497872 -0.06815353 -0.057764377
0.102089725 -0.04593666 -0.081500605 0.009803416 -0.110200085 0.029874733 -0.044651136 -0.07212993
-0.03201679 0.057514496 0.0748797 0.049440924 0.1359772 -0.088874385 0.017768564 -0.009875215
-0.06214998 0.054234557 -0.053381756 -0.088599235 0.11642772 0.06376061 0.109897256 -0.027917167
0.06067864 -0.06388042 -0.028653473 0.040730447 0.04706182 0.03555003 -0.11400029 -0.053837493
-0.12179185 0.007677528 0.027820813 -0.08727626 0.03550108 -0.11153461 -0.030634249 0.043857273
-0.025151268 -0.068264 -0.056829326 -0.112476654 -0.08789244 0.07302957 0.08516481 -0.06954247
0.13203591 0.09346652 -0.1078082 0.041603725 0.039272483 -0.024236731 -0.013520334 -0.13942252
-0.1541618 0.044140104 -0.123985894 -0.15962325 0.042036112 0.022052133 0.002487962 -0.0383008
-0.017234892 -0.105988115 -0.12886918 -0.13275181 -0.066957176 -0.09703331 0.069053546 0.011189859
-0.08715732 0.05642475 0.035628907 -0.049472302 -0.07941219 0.1163428 0.036793943 0.053256176
-0.015669554 -0.10158508 -0.08160404 -0.07249587 -0.14291984 -0.018628335 -0.05724995 0.08919188
-0.078141615 0.059938006 -0.015881058 0.09643693 0.10848528 0.08487772 -0.081618324 -0.06679959
-0.03248237 0.17166989 0.123687305 0.015852584 -0.10242037 0.05595055 -0.13751715 -0.1352885
0.012963112 -0.05785429 -0.02754337 0.029591382 0.031339455 0.108731225 -0.04236787 0.14793018
0.031656668 -0.006462644 -0.054161586 0.0887455 -0.067084976 0.037905384 0.02786321 0.008786035
0.042911474 -0.15387 0.01076665 0.03574088 -0.03432253 0.0760045 -0.04409976 0.0027994905
-0.0920848 -0.09666347 -0.09119993 0.10015606 -0.055668868 -0.08190756 0.1132412 0.031068306
-0.03230749 0.025226943 -0.0598217 0.054955367 -0.026728017 -0.0015024722 -0.00918881 0.08604461
00000000: e84a a8bd 0d3d d9bd 2a4a a93d f09f 97bd
00000010: 2a7d b8bb f918 49bd 1217 2abd 0ecc c33d
00000020: e025 9f3d d60b d93d ea88 9cbd 3786 b5bc
00000030: 47ca f53d 7b76 b73d 67ba a3bb b288 fdbd
00000040: 215b 87bd 0408 8a3d dfb2 ab3d 7ee4 423d
00000050: 5d01 8abd 0029 933d 6b50 39bc 5091 fd3d
00000060: 9efd 0b3e 797b 113e 2846 683d 2eb9 d93c
00000070: 4d9b 12be 3887 95bd 6b11 393d 9ccc 9ebc
00000080: cb66 8bbd 88ed bd3d 158f a43d 2bdd 123d
00000090: 593c 41bd 4b0f a43d 84b4 973c 34cf 433d
000000a0: 3f24 77bd d222 ccbd 880b 68bc cd7b e93d
000000b0: 4031 38bc cb73 8b3d 51ca 8abc f332 953d
000000c0: cc7d 2fbc d941 1abe 0aa1 aabd bf51 003d
000000d0: 9c9a 5abc 8442 843c e169 0c3e 6b38 853d
000000e0: aece f53d 0935 a83d ca70 073e 91c1 3a3c
000000f0: f5fe 633c ff09 81bd 77f5 9cbd fb62 95bd
00000100: 972f 323c 408f a83c 0456 7cbd f27a bd3c
00000110: 9fdb e53d dd01 c3bb 0931 b4bd 9950 9bbd
00000120: f7dc d1bb abb4 c6bd afbd 96ba 1f14 90bd
00000130: dacc 253d 14fb da3c f5ca 95bc 7963 6dbd
00000140: a90b a1bd 3d8e 9bbd 6863 c2bd 3d0b 16be
00000150: 1685 083e a801 ce3c 89f4 bf3d eceb c8bc
00000160: c67c f53c add7 a3bd 78c2 cbbc 7410 de3d
00000170: 72e7 033d 9cc5 553d 22d3 013e af2c 003d
00000180: 9fde 05be f9bd 0abe 6a82 17be 0fea 16bd
00000190: 73c0 cdbd 91f3 43bd 9fd1 9dbd 9489 c63d
000001a0: 9ce9 d2bd 5321 083d da21 ad3d 2dcb 43bc
000001b0: 9e0e b33c 9013 85bd 1494 8bbd 579a 6cbd
000001c0: 6b14 d13d 1428 3cbd cae9 a6bd 829e 203c
000001d0: 95b0 e1bd dbbb f43c 1ce4 36bd dbb8 93bd
000001e0: 0a24 03bd 5294 6b3d 875a 993d 9182 4a3d
000001f0: 9b3d 0b3e c603 b6bd 618f 913c a7cb 21bc
00000200: fa90 7ebd 0e25 5e3d d4a6 5abd 8473 b5bd
00000210: a871 ee3d ec94 823d d011 e13d 8bb2 e4bc
00000220: 2a8a 783d bdd3 82bd b0ba eabc f8d4 263d
00000230: e5c3 403d e99c 113d fc78 e9bd b484 5cbd
00000240: 016e f9bd c693 fb3b 79e8 e33c e5bd b2bd
00000250: 9569 113d 426c e4bd adf4 fabc afa3 333d
00000260: 080a cebc ffcd 8bbd dec5 68bd 295a e6bd
00000270: f400 b4bd 8790 953d e36a ae3d 486c 8ebd
00000280: 6c34 073e 606b bf3d 8cca dcbd ab68 2a3d
00000290: 2fdc 203d 1c8c c6bc 6484 5dbc c7c4 0ebe
000002a0: 97dc 1dbe 41cc 343d 51ec fdbd 4774 23be
000002b0: 0f2e 2c3d ada6 b43c 130d 233b 4de1 1cbd
000002c0: 3030 8dbc 4c10 d9bd 48f6 03be 17f0 07be
000002d0: d820 89bd 66b9 c6bd f26b 8d3d ac55 373c
000002e0: 897f b2bd a31d 673d 9eef 113d 78a3 4abd
000002f0: dca2 a2bd 2245 ee3d 3fb5 163d 2623 5a3d
00000300: 705d 80bc d70b d0bd 0520 a7bd b778 94bd
00000310: 9459 12be 739a 98bc ec7e 6abd 3baa b63d
00000320: b608 a0bd 8e81 753d fe18 82bc ba80 c53d
00000330: 882d de3d 5fd4 ad3d 8227 a7bd 39ce 88bd
00000340: 3c0c 05bd 3bca 2f3e c54f fd3d 47dd 813c
00000350: c5c1 d1bd 672c 653d 4cd1 0cbe 1289 0abe
00000360: 3c63 543c 9ff8 6cbd a2a2 e1bc a069 f23c
00000370: cd5d 003d 7aae de3d ef89 2dbd 027b 173e
00000380: 6caa 013d 96c4 d3bb 8ad8 5dbd 33c0 b53d
00000390: d963 89bd ad42 1b3d 6341 e43c 4df3 0f3c
000003a0: f1c3 2f3d 1990 1dbe 9a66 303c 0765 123d
000003b0: c895 0cbd 3fa8 9b3d f3a1 34bd a877 373b
000003c0: f596 bcbd 7ff7 c5bd 07c7 babd 9f1e cd3d
000003d0: 0a05 64bd 27bf a7bd 01eb e73d f682 fe3c
000003e0: dc54 04bd bca8 ce3c 9907 75bd e118 613d
000003f0: b7f4 dabc 9aee c4ba aa8c 16bc 2838 b03d

phi.initial_conv_module.0._layers.1.weight f4 [64]
1.0446087 0.9655946 0.94011694 0.8934497 0.9818854 1.0399814 0.91885614 0.89065063
0.912063 0.9840379 1.0348462 0.9568695 0.9824302 0.94625235 0.863542 0.9196973
1.0092807 0.9505862 1.064808 0.9202123 0.9593118 1.0344561 0.95959324 0.9672703
0.8937714 1.0820498 0.94397277 0.9374411 0.9530494 0.9235529 0.96764183 0.96205336
1.0678613 1.0659575 0.9701566 1.0174105 1.0060768 0.9225 0.9570051 0.9698968
0.9640965 0.97851235 1.0405765 0.9608524 0.99398375 1.0212983 0.9860939 0.9381556
0.9471878 0.9271645 0.97566223 0.84535575 0.9851367 0.90801877 0.99024504 1.0038904
0.9341921 1.1119734 1.0293428 0.9748792 0.9609461 1.0019282 0.983363 0.9237563
00000000: bdb5 853f 3531 773f 81ab 703f 1fb9 643f
00000010: d75c 7b3f 1c1e 853f 283a 6b3f ae01 643f
00000020: f67c 693f e8e9 7b3f d775 843f 66f5 743f
00000030: 8c80 7b3f 983d 723f 1711 5d3f 4871 6b3f
00000040: 1c30 813f 9e59 733f a14b 883f 0993 6b3f
00000050: 7595 753f 0f69 843f e7a7 753f 079f 773f
00000060: 34ce 643f 9c80 8a3f 33a8 713f 24fc 6f3f
00000070: 0cfb 733f f66d 6c3f 60b7 773f 2149 763f
00000080: aeaf 883f 4c71 883f 2f5c 783f 823a 823f
00000090: 20c7 803f f628 6c3f 49fe 743f 284b 783f
000000a0: 07cf 763f c97f 7a3f 9c31 853f 6cfa 753f
000000b0: b875 7e3f e7b9 823f a670 7c3f f72a 703f
000000c0: e67a 723f a75a 6d3f 00c5 793f 3c69 583f
000000d0: eb31 7c3f eb73 683f b380 7d3f 7b7f 803f
000000e0: 3727 6f3f 2555 8e3f 81c1 833f af91 793f
000000f0: 9000 763f 2f3f 803f adbd 7b3f 4b7b 6c3f

phi.initial_conv_module.0._layers.1.bias f4 [64]
-0.0010434046 -0.025535803 -0.003956968 0.09245653 0.029897584 -0.07105686 -0.013207535 0.06629121
0.039446127 0.009059062 -0.012918518 -0.027356874 0.027339388 0.04470212 0.06672687 0.06115982
0.009689583 0.06682059 -0.010472352 0.08773641 0.050266292 -0.060564794 0.06823826 0.012171791
0.07016497 -0.0343758 -0.014006776 0.032671623 0.025243219 -0.012425797 0.007201442 0.0066335658
-0.03411354 0.017384298 0.037704274 -0.014937239 -0.07432035 0.065487504 0.047630075 0.032882754
-0.02534459 0.03168358 -0.035969 0.008366992 -0.043407287 0.020677365 -0.035052873 0.05360094
0.024331352 0.04648292 0.06352855 0.12047157 -0.014413519 0.044153087 -0.025887426 -0.012099677
0.0304612 -0.0052197482 -0.047367737 -0.005127038 0.0026061782 -0.0007412535 -0.011418625 0.06015298
00000000: d9c2 88ba 7630 d1bc 74a9 81bb d959 bd3d
00000010: c7eb f43c 4286 91bd 6b64 58bc b0c3 873d
00000020: 4392 213d 766c 143c 31a8 53bc 861b e0bc
00000030: daf6 df3c 9219 373d 19a8 883d b882 7a3d
00000040: 0fc1 1e3c 3cd9 883d 3a94 2bbc 26af b33d
00000050: 07e4 4d3d ca12 78bd 80c0 8b3d 316c 473c
00000060: a7b2 8f3d a4cd 0cbd ad7c 65bc aed2 053d
00000070: deca ce3c 9295 4bbc 13fa eb3b 625e d93b
00000080: a4ba 0bbd 8469 8e3c cc6f 1a3d 52bb 74bc
00000090: 4535 98bd 501e 863d c117 433d 11b0 063d
000000a0: 759f cfbc a4c6 013d 3b54 13bd b515 093c
000000b0: d7cb 31bd 9463 a93c 9a93 0fbd a98c 5b3d
000000c0: 8b52 c73c e064 3e3d 421b 823d ccb9 f63d
000000d0: ae26 6cbc ded9 343d de11 d4bc b93d 46bc
000000e0: c489 f93c 6c0a abbb ac04 42bd b600 a8bb
000000f0: 6acc 2a3b ae50 42ba 2f15 3bbc f962 763d

phi.initial_conv_module.0._layers.1.running_mean f4 [64]
0.05696752 -0.2932576 -0.4433474 0.4806294 0.16571118 -0.76491517 -0.1488704 -0.4572402
-0.08973634 -0.7548995 -0.11641366 -0.55438036 -0.26333088 -0.5867681 -0.12601714 0.51193404
0.17049728 -0.039754335 0.21508503 0.23553734 0.64089334 0.7934882 -0.021202909 0.01954497
-0.054024395 -0.1667687 0.6961087 -0.4002048 0.83954227 0.080817424 -0.19059624 -0.15595312
-0.20679726 0.42128015 0.10370887 0.33319634 0.65718687 -0.3688505 -0.040967565 -0.10313728
-0.087362655 -0.025173381 0.12583576 -0.65173954 -0.31623176 -0.1854342 -0.06659171 0.036027025
-0.2812347 0.37594983 -0.02014143 -0.26793233 0.22392799 -0.31635067 -0.39691463 0.74215573
0.16836181 0.059898846 -0.1972867 -0.5137057 -0.25726813 0.57008237 0.07100263 -0.18426944
00000000: c656 693d dc25 96be 6efe e2be 0f15 f63e
00000010: 31b0 293e 7bd1 43bf 7b71 18be 631b eabe
00000020: b0c7 b7bd 1841 41bf 496a eebd dfeb 0dbf
00000030: 4ed3 86be 6f36 16bf a30a 01be 1c0e 033f
00000040: d796 2e3e 71d5 22bd 403f 5c3e b330 713e
00000050: 9611 243f 0b22 4b3f b9b1 adbc c61c a03c
00000060: af48 5dbd 6ac5 2abe 2e34 323f a5e7 ccbe
00000070: 3eec 563f 9b83 a53d a92b 43be 2db2 1fbe
00000080: a9c2 53be 08b2 d73e 5165 d43d b698 aa3e
00000090: 663d 283f f9d9 bcbe 9bcd 27bd a339 d3bd
000000a0: 31eb b2bd 6838 cebc 17db 003e 67d8 26bf
000000b0: 21e9 a1be 77e2 3dbe 3c61 88bd 1391 133d
000000c0: fffd 8fbe 7f7c c03e a4ff a4bc 6d2e 89be
000000d0: 614d 653e b7f8 a1be 6538 cbbe ebfd 3d3f
000000e0: 0a67 2c3e 7e58 753d 8605 4abe 3782 03bf
000000f0: a6b8 83be ebf0 113f d469 913d 21b1 3cbe

phi.initial_conv_module.0._layers.1.running_var f4 [64]
0.33845645 0.38476503 0.6356252 0.14615387 0.10881707 0.6665662 0.12935233 0.2539515
0.20273274 0.6970132 0.30356362 0.47761384 0.23252213 0.58764607 0.32566592 0.4936197
0.38047156 0.2685017 0.10774449 0.3192917 0.27705425 0.35088393 0.20975149 0.297696
0.90061855 0.09763208 0.21724942 0.27330175 0.46770647 0.12222451 0.3224117 0.53801787
0.21841243 0.33672708 0.11678539 0.5166438 0.41739517 0.30677673 0.24987285 0.18072593
0.1668113 0.21277629 0.36714453 0.7935981 0.31468228 0.24232517 0.25492316 0.1754343
0.3532178 0.15386766 0.084820166 0.22133641 0.26363704 0.22060893 0.22456107 0.28578985
0.1947472 0.1579936 0.2608755 0.20802118 0.34102213 0.15630874 0.13988315 0.16549872
00000000: 2a4a ad3e ecff c43e 55b8 223f 5ca9 153e
00000010: 7cdb de3d 15a4 2a3f f074 043e ee05 823e
00000020: 2c99 4f3e 756f 323f b16c 9b3e cd89 f43e
00000030: 481a 6e3e f96f 163f afbd a63e b9bb fc3e
00000040: 2bcd c23e 0e79 893e 25a9 dc3d 347a a33e
00000050: 0eda 8d3e 0fa7 b33e 18c9 563e 9c6b 983e
00000060: f08e 663f 54f3 c73d a276 5e3e 35ee 8b3e
00000070: 3977 ef3e d850 fa3d 2513 a53e 8abb 093f
00000080: 82a7 5f3e 7e67 ac3e 2e2d ef3d c542 043f
00000090: d2b4 d53e d711 9d3e abde 7f3e 3810 393e
000000a0: 95d0 2a3e 07e2 593e 5efa bb3e 3f29 4b3f
000000b0: 091e a13e 1724 783e 4a85 823e 0da5 333e
000000c0: f7d8 b43e 7c8f 1d3e 32b6 ad3d 03a6 623e
000000d0: 6ffb 863e 4fe7 613e 56f3 653e 0c53 923e
000000e0: cf6b 473e 13c9 213e 7991 853e 8103 553e
000000f0: 749a ae3e 660f 203e 873d 0f3e 7f78 293e

phi.initial_conv_module.0._layers.4.conv.weight f4 [64, 1, 5]
-0.43970358 -0.08777394 0.0452911 -0.26753554 -0.38130048 0.20417348 -0.24365368 0.15450954
-0.050743174 0.13848922 -0.2242611 0.20568047 -0.4650074 0.3213736 0.23709744 -0.44405106
-0.12242757 -0.16718473 -0.21078187 0.21366309 -0.20006877 -0.18782288 -0.33862936 0.06974642
-0.27187157 -0.17030734 -0.23872781 0.3342251 -0.24347413 -0.31837535 0.2635063 0.22024156
-0.3949887 -0.40325746 0.14678235 -0.35649568 -0.18069471 -0.30232093 0.31628135 -0.063388675
0.1909163 0.30347812 -0.111846276 -0.06313796 -0.22024408 -0.0035266567 0.09409115 -0.40730572
0.37509373 0.1698822 0.32202858 -0.16480862 0.42343244 0.3866122 0.29634818 -0.3885197
0.3810414 0.18641013 0.48015782 0.017479865 -0.36582932 -0.16056752 -0.41344845 0.38233387
0.057347447 0.0013814985 -0.3621218 0.2186277 -0.17822537 -0.045333914 -0.26129517 -0.32467204
-0.25887355 -0.2254717 -0.12578921 0.24157417 -0.18505533 0.20917013 -0.2593897 -0.37202707
-0.21251772 -0.48480088 -0.20715809 0.07072024 0.052547123 0.45314053 -0.23061162 0.055212878
0.32700172 -0.06929976 -0.3463353 0.40729752 -0.2376157 -0.21986549 0.3144931 -0.2969009
0.3941993 0.44388324 -0.20815948 0.47790906 0.27495143 0.37390864 0.11424043 0.11642414
-0.14440869 -0.17863467 0.09176832 0.1778979 0.14248931 -0.016802764 -0.33223414 -0.32096484
-0.1478633 -0.3249553 0.32128975 0.15941396 0.0074216304 0.19770363 0.32467696 -0.054479457
-0.30569988 -0.1894266 0.07742022 -0.3809021 0.17488573 0.13132083 0.07815586 -0.28870392
0.15902469 0.5548618 0.32525587 0.0542357 0.13326225 -0.12590325 0.15299883 -0.42384157
-0.26610002 0.055509478 0.27164355 -0.41502243 0.42132366 0.0662269 0.25171497 -0.06383753
0.022656646 0.11903013 0.14775826 0.106366836 0.33866474 0.24635006 -0.12083746 0.122656345
-0.17325392 -0.47524163 -0.30903307 0.37176514 0.35966602 0.046060916 0.0012651281 -0.35901576
-0.35569233 0.08441825 0.16783993 0.08097283 0.20447338 -0.39043006 0.15750322 -0.1746053
-0.07895786 0.38519737 0.080750525 -0.39219102 0.20468535 -0.32573417 -0.12736885 -0.3936206
0.099679746 -0.17007954 0.008192086 0.33993542 0.23334001 0.088843495 0.05227265 0.29880702
0.3882542 0.23135948 -0.18056884 0.10480753 0.36937672 -0.30803385 -0.3115439 0.26630232
-0.16161126 -0.26833177 -0.32395595 0.15649694 -0.07538283 -0.20489728 -0.13527107 -0.21199036
0.32815588 0.44565114 -0.021962186 0.3294328 -0.17992344 0.088896014 0.15633896 0.06425636
0.11836336 -0.25697118 -0.03989558 0.021843364 -0.10830458 0.06951018 -0.13684659 -0.19593243
0.26134592 0.24120516 0.33938035 -0.31118652 -0.20373428 0.3271412 0.4464625 0.33857858
0.20580767 0.06692033 -0.08029544 0.38554358 -0.11649327 -0.3304101 -0.012033142 0.13654993
-0.40079808 -0.13885556 0.35094157 -0.12551284 0.4241358 -0.08440668 0.19849977 -0.15434457
0.19649436 -0.36735767 0.095760934 0.18684056 0.31264535 -0.18294932 -0.07468415 0.10962603
0.44292322 -0.15257825 0.42994127 0.079117894 0.032694615 -0.29322827 -0.013101695 -0.315326
00000000: d420 e1be d3c2 b3bd 2983 393d 6bfa 88be
00000010: d139 c3be da12 513e 5a80 79be c037 1e3e
00000020: 13d8 4fbd 1ed0 0d3e b4a4 65be e79d 523e
00000030: 7315 eebe 158b a43e acc9 723e a95a e3be
00000040: 4ebb fabd 7932 2bbe 34d7 57be 7fca 5a3e
00000050: d4de 4cbe a454 40be d460 adbe 36d7 8e3d
00000060: c032 8bbe 0c65 2ebe 1075 74be 8d1f ab3e
00000070: 4851 79be 1802 a3be 4cea 863e 0187 613e
00000080: f53b cabe c377 cebe 1d4e 163e 9a86 b6be
00000090: 0908 39be cfc9 9abe a1ef a13e ecd1 81bd
000000a0: 907f 433e 7c61 9b3e a90f e5bd 7a4e 81bd
000000b0: aa87 61be 7b1f 67bb dcb2 c03d 608a d0be
000000c0: 490c c03e 99f5 2d3e eee0 a43e 97c3 28be
000000d0: 23cc d83e 09f2 c53e f3ba 973e 0eec c6be
000000e0: dc17 c33e 4ce2 3e3e 3fd7 f53e ef31 8f3c
000000f0: fb4d bbbe d06b 24be 84af d3be 44c1 c33e
00000100: 28e5 6a3d 6613 b53a 0768 b9be f1df 5f3e
00000110: b680 36be 0eb0 39bd 7bc8 85be 6a3b a6be
00000120: 138b 84be 0ee2 66be e3ce 00be 385f 773e
00000130: 257f 3dbe b230 563e bace 84be 557a bebe
00000140: 3f9e 59be d237 f8be 4021 54be c6d5 903d
00000150: a73b 573d 0902 e83e 7425 6cbe e626 623d
00000160: c56c a73e 08ed 8dbd dc52 b1be 4d89 d03e
00000170: 8851 73be 6b24 61be 3d05 a13e 6503 98be
00000180: 7ed4 c93e aa44 e33e c227 55be 7fb0 f43e
00000190: 6fc6 8c3e f470 bf3e e3f6 e93d c86f ee3d
000001a0: dfdf 13be 02ec 36be 07f1 bb3d de2a 363e
000001b0: b8e8 113e f3a5 89bc 981a aabe 8155 a4be
000001c0: 7a69 17be 8b60 a6be 1780 a43e 6a3d 233e
000001d0: 2631 f33b d272 4a3e 0f3c a63e da25 5fbd
000001e0: b284 9cbe 0cf9 41be 7e8e 9e3d 9a05 c3be
000001f0: 3f15 333e f878 063e 2e10 a03d 00d1 93be
00000200: 5ed7 223e 6c0b 0e3f f087 a63e 4126 5e3d
00000210: e675 083e c8ec 00be baab 1c3e c301 d9be
00000220: 433e 88be e85d 633d dd14 8b3e d27d d4be
00000230: bcb7 d73e f8a1 873d c9e0 803e 40bd 82bd
00000240: 6e9a b93c 12c6 f33d f14d 173e dbd6 d93d
00000250: 7765 ad3e 3143 7c3e a179 f7bd 4033 fb3d
00000260: 7a69 31be df52 f3be 9539 9ebe 0058 be3e
00000270: 2526 b83e 5faa 3c3d a8d2 a53a ead0 b7be
00000280: 4e1d b6be 7ae3 ac3d 3bde 2b3e 15d5 a53d
00000290: 7861 513e 73e6 c7be 8648 213e bbcb 32be
000002a0: a9b4 a1bd 9738 c53e 8860 a53d 43cd c8be
000002b0: 0999 513e a1c6 a6be fb6c 02be a488 c9be
000002c0: e524 cc3d 5529 2ebe 1938 063c 040c ae3e
000002d0: aff0 6e3e 94f3 b53d d91b 563d 3cfd 983e
000002e0: 41c9 c63e 80e9 6c3e 0ae7 38be 55a5 d63d
000002f0: f21e bd3e 9db6 9dbe af82 9fbe c758 883e
00000300: 6c7d 25be c862 89be 8edd a5be bc40 203e
00000310: 5062 9abd 98d0 51be 8084 0abe 0014 59be
00000320: 0c04 a83e 632c e43e 0bea b3bc 6aab a83e
00000330: da3d 38be 1d0f b63d 5217 203e d798 833d
00000340: 7d68 f23d ba91 83be 8c69 23bd dbf0 b23c
00000350: cbce ddbd 5a5b 8e3d 8321 0cbe 83a2 48be
00000360: 22cf 853e 7cfe 763e 43c3 ad3e d753 9fbe
00000370: b89f 50be 0d7f a73e bc96 e43e 2c5a ad3e
00000380: 3fbf 523e 870d 893d f071 a4bd f865 c53e
00000390: 0694 eebd 832b a9be a826 45bc bfd3 0b3e
000003a0: 6835 cdbe 2730 0ebe 9dae b33e 7086 00be
000003b0: 5428 d93e 69dd acbd 8643 4b3e 810c 1ebe
000003c0: d135 493e 4e16 bcbe 4f1e c43d 2253 3f3e
000003d0: 0d13 a03e 1157 3bbe 01f4 98bd 9d83 e03d
000003e0: d5c6 e23e 793d 1cbe 4321 dc3e 9008 a23d
000003f0: caea 053d 0422 96be 7ea8 56bc 6972 a1be

phi.initial_conv_module.0._layers.5.weight f4 [64]
0.94437647 0.95072293 0.9579728 0.99151736 1.0060823 1.0249634 0.9512698 1.0081266
0.97103435 0.9920662 1.006243 0.97233224 1.013892 1.0037724 1.0710893 1.0509735
1.0051262 0.949672 0.9851394 0.9485198 0.91354835 0.9838011 1.0009211 1.0250984
1.0785109 1.0814688 0.9867353 1.0106071 0.93141097 0.95257723 0.99901235 0.9851603
1.0258423 1.0623903 0.99590015 1.125975 0.97809345 0.9460602 0.988245 1.027968
1.0198586 1.0389807 0.97317713 0.9685627 0.9732695 0.9685929 0.9353813 0.9411062
0.95217305 0.99101925 0.9872366 1.0845268 0.9764511 1.0242622 0.9667108 0.9906539
1.0191315 1.0560678 0.9748417 0.9388806 0.99713695 0.95597917 1.0196751 0.9429572
00000000: a8c2 713f 9462 733f b53d 753f 15d4 7d3f
00000010: 4ec7 803f 0032 833f 6b86 733f 4b0a 813f
00000020: b595 783f 0df8 7d3f 92cc 803f c4ea 783f
00000030: 37c7 813f 9d7b 803f 7419 893f 4d86 863f
00000040: faa7 803f b41d 733f 1932 7c3f 32d2 723f
00000050: 4ede 693f 64da 7b3f 2f1e 803f 6d36 833f
00000060: a50c 8a3f 926d 8a3f af9a 7c3f 935b 813f
00000070: f370 6e3f 1adc 733f 46bf 7f3f 7733 7c3f
00000080: cd4e 833f 68fc 873f 50f3 7e3f f31f 903f
00000090: 5564 7a3f 0031 723f a0fd 7c3f 7594 833f
000000a0: ba8a 823f 52fd 843f 2322 793f baf3 773f
000000b0: 3128 793f b4f5 773f 2675 6f3f 56ec 703f
000000c0: 9dc1 733f 70b3 7d3f 8abb 7c3f c6d1 8a3f
000000d0: b3f8 793f 061b 833f 5c7a 773f 7e9b 7d3f
000000e0: e772 823f 3b2d 873f 3a8f 793f 7b5a 703f
000000f0: 5e44 7f3f 0dbb 743f b784 823f a565 713f

phi.initial_conv_module.0._layers.5.bias f4 [64]
-0.048863765 -0.021962777 -0.042642474 0.074776605 0.072302386 0.028154664 -0.015445504 -0.08031394
-0.0013925845 -0.021621048 0.017908394 0.0015610337 0.04643974 0.021819755 0.014255746 0.03917274
0.06481098 0.030403584 -0.09539256 0.00033688586 -0.06282913 -0.0016196427 0.008033443 0.07778853
0.052042197 0.096832015 0.033154864 0.016167274 -0.036550563 -0.034503218 0.06701717 -0.0040998794
-0.02867097 -0.033773623 0.06108628 0.08582851 -0.049920518 -0.009162542 0.011991019 0.0022646096
0.045916066 0.024086906 0.03517897 0.00043087092 -0.003388991 0.012495138 -0.045668684 0.0075276196
-0.0015422571 -0.02755036 -0.033478152 0.05101272 -0.014170428 0.036165737 -0.017822 0.011939037
0.017397182 0.05536327 -0.0451292 -0.028253002 -0.0056720427 -0.012249749 0.03239488 -0.012276297
00000000: 5f25 48bd 48eb b3bc e0a9 2ebd 7a24 993d
00000010: 4613 943d 9ca4 e63c 240f 7dbc a37b a4bd
00000020: 6287 b6ba a01e b1bc a0b4 923c 999b cc3a
00000030: 9937 3e3d 58bf b23c ef90 693c 9873 203d
00000040: 9ebb 843d f010 f93c 2d5d c3bd 0ea0 b039
00000050: 8fac 80bd 314a d4ba b49e 033c 984f 9f3d
00000060: 332a 553d dd4f c63d 65cd 073d 3b71 843c
00000070: 0bb6 15bd 3f53 0dbd 4c40 893d 4858 86bb
00000080: 62df eabc 3656 0abd 9b35 7a3d dcc6 af3d
00000090: 7579 4cbd 7d1e 16bc fb75 443c d869 143b
000000a0: 7c12 3c3d e751 c53c d317 103d 84e6 e139
000000b0: d619 5ebb 68b8 4c3c 160f 3bbd 40aa f63b
000000c0: 9025 caba 4bb1 e1bc 6320 09bd b7f2 503d
000000d0: 152b 68bc 8622 143d 71ff 91bc f39b 433c
000000e0: 8984 8e3c 99c4 623d 65d9 38bd d772 e7bc
000000f0: 8bdc b9bb 2cb3 48bc 7eb0 043d 8622 49bc

phi.initial_conv_module.0._layers.5.running_mean f4 [64]
-0.19626945 0.029371781 0.011120175 -0.13808922 -0.15917245 -0.037622996 -0.02350794 -0.101944305
0.013605538 0.039279282 0.20965457 0.09701475 -0.087929495 -0.064615704 -0.19621575 -0.064096436
-0.13952367 0.08160867 -0.014758406 0.1518026 0.13703737 0.0285681 -0.15316516 0.10597103
-0.09581473 0.123124145 0.08015999 -0.1233631 0.081750914 0.06115916 -0.14468065 0.042183198
0.026250852 -0.021504516 -0.09951898 -0.019134535 0.13521522 0.038819604 -0.16736127 -0.039649133
0.13359505 0.028809965 -0.02946197 0.054183144 0.16545875 -0.013931695 -0.009462816 0.046016283
0.08235421 0.024588173 0.044000417 -0.21831667 0.040776208 -0.16014588 0.04253205 0.111767866
-0.1000077 0.14486144 0.008249992 0.023355318 -0.029656323 -0.10261335 -0.18250999 0.2016376
00000000: dcfa 48be 179d f03c 6531 363c 4367 0dbe
00000010: 1afe 22be 921a 1abd b993 c0bc 2dc8 d0bd
00000020: c3e9 5e3c 50e3 203d b0af 563e abaf c63d
00000030: 6114 b4bd 3d55 84bd c8ec 48be fe44 83bd
00000040: 4bdf 0ebe 7222 a73d 3ecd 71bc 2472 1b3e
00000050: 8653 0c3e a607 ea3c 54d7 1cbe 5707 d93d
00000060: 833a c4bd 8328 fc3d ec2a a43d cba5 fcbd
00000070: 066d a73d 0782 7a3d 2a27 14be 4ac8 2c3d
00000080: 070c d73c 3d2a b0bc 9bd0 cbbd 07c0 9cbc
00000090: dc75 0a3e 4e01 1f3d c160 2bbe 2167 22bd
000000a0: 24cd 083e e002 ec3c 3b5a f1bc 25ef 5d3d
000000b0: 056e 293e c441 64bc ed09 1bbc 927b 3c3d
000000c0: 53a9 a83d 236d c93c c839 343d 688e 5fbe
000000d0: f404 273d 48fd 23be 1636 2e3d 8de6 e43d
000000e0: d6d0 ccbd 8f56 143e f92a 073c a753 bf3c
000000f0: d1f1 f2bc f326 d2bd e6e3 3abe 167a 4e3e

phi.initial_conv_module.0._layers.5.running_var f4 [64]
0.7933955 0.012304549 0.00340328 0.19464885 0.24604075 0.05261393 0.046162438 0.05501714
0.010630633 0.011916129 0.8311942 0.0939588 0.035550985 0.032710228 0.25878444 0.07738722
0.3222896 0.073735826 0.03911493 0.30853465 0.17817776 0.013962418 0.15080184 0.036658935
0.03164627 0.24498332 0.08926323 0.09530797 0.18986416 0.41705993 0.11615752 0.14651178
0.04104419 0.026078623 0.107098415 0.030223398 0.43382213 0.016279744 0.24597442 0.12340629
0.21803235 0.01953286 0.010205446 0.021024287 0.4875153 0.02158199 0.005990199 0.032606393
0.019933555 0.015452587 0.049740374 0.44771734 0.054842778 0.1352437 0.01652581 0.14544724
0.121398866 0.2740862 0.054858375 0.017715862 0.018008018 0.14236474 0.23775943 0.2935264
00000000: f81b 4b3f 0599 493c 9009 5f3b 0752 473e
00000010: 1bf2 7b3e b481 573d d314 3d3d a759 613d
00000020: 1b2c 2e3c de3b 433c 25c9 543f 796d c03d
00000030: e99d 113d 29fb 053d 657f 843e 317d 9e3d
00000040: 2403 a53e cf02 973d fa36 203d 41f8 9d3e
00000050: 3b74 363e a0c2 643c cc6b 1a3e ae27 163d
00000060: 859f 013d e8dc 7a3e a4cf b63d d330 c33d
00000070: c06b 423e e188 d53e fee3 ed3d 2f07 163e
00000080: f41d 283d d6a2 d53c 6a56 db3d 0f97 f73c
00000090: ef1d de3e 195d 853c b8e0 7b3e 70bc fc3d
000000a0: df43 5f3e 6003 a03c be34 273c 203b ac3c
000000b0: 9b9b f93e b7cc b03c 6e49 c43b 488e 053d
000000c0: b24b a33c d92c 7d3c 90bc 4b3d 353b e53e
000000d0: d2a2 603d 537d 0a3e 2361 873c 1ff0 143e
000000e0: f89f f83d 0755 8c3e 2db3 603d db20 913c
000000f0: 8d85 933c 10c8 113e 3577 733e 1849 963e

phi.initial_conv_module.0._layers.7.se_conv.conv.weight f4 [10, 64, 1]
-0.02556077 -0.012639927 0.1256712 -0.08357121 -0.05773996 -0.064640895 -0.022226462 -0.07865842
-0.03358086 -0.09071182 -0.14973451 -0.117608264 -0.14247237 0.05192425 0.076344475 -0.09845264
0.07786263 -0.15268031 0.063578345 -0.0764108 0.025072964 -0.042864386 -0.067513585 -0.037161876
-0.07224419 -0.07914248 -0.06448418 -0.009426963 0.038648978 -0.0076078097 -0.11428577 0.031161373
-0.11360751 0.09292951 0.01290074 0.05846719 -0.006952925 0.018455343 -0.0153487455 -0.12410649
-0.12847804 0.09279922 -0.077743016 0.031789456 -0.14001402 0.026326228 0.06456828 0.0048452225
-0.05721925 -0.0100117 0.021098591 0.014936413 -0.10758301 -0.022665577 0.05044358 -0.118877195
-0.0026804775 -0.10536266 0.02202443 -0.010762147 0.027777107 0.017132603 -0.018386796 0.09307755
0.10257089 -0.15100981 -0.03536608 -0.04308243 -0.0079498775 0.016485106 0.021759849 -0.0019534444
-0.01439184 -0.039637435 0.01009825 -0.058905836 0.04820688 -0.20207892 -0.0053200135 0.06093057
-0.034334663 0.016791372 -0.13687171 0.004164681 -0.11619062 -0.06726179 -0.0024240483 -0.09183688
-0.0062295403 0.07643018 -0.09394463 0.08379766 -0.058795415 -0.0048601017 -0.07706648 0.0005113896
0.13028811 -0.10704442 0.12932846 -0.103284635 0.11300035 0.052872945 0.06778318 -0.13622601
0.0025156648 -0.07694981 0.020825062 -0.13817054 -0.07566587 -0.043766573 -0.021822784 0.016771125
-0.058665086 0.019135507 -0.1175395 -0.0759059 0.0045237076 0.13557789 -0.083653726 -0.113214225
0.027138196 0.027233433 -0.1047147 -0.046901852 -0.011975424 -0.11370561 0.024093105 -0.08857197
-0.006764331 0.14218047 -0.036987666 0.18248774 0.039487626 -0.025793584 -0.07801964 -0.07833582
0.021031734 -0.038631774 0.035044212 -0.02784649 0.09837221 -0.124087915 0.046506297 0.0126020815
0.09195403 0.10556092 0.13403547 0.05848659 -0.03500469 -0.09256052 0.10533707 0.09973683
-0.061164003 -0.07645196 0.09422003 0.11356568 -0.020338777 0.1669954 0.0061703874 0.059125893
0.0007528205 -0.1231384 -0.01673141 0.0074071656 0.064256445 -0.10966975 -0.046432104 -0.048653066
0.06473651 -0.03664483 0.020100024 0.031959698 0.015707847 -0.09539822 -0.07929276 0.07091378
0.0845766 -0.065695316 -0.18458359 0.012820233 0.14082971 -0.123511784 0.0070786974 0.07776415
0.12715818 0.12997931 -0.06344547 -0.07539656 -0.021473458 0.081000395 -0.0675726 0.11189242
-0.14792283 0.0091054365 -0.03700081 -0.10845418 0.095169425 0.10273501 -0.00670962 0.024243843
-0.12097282 0.07944231 -0.051386505 -0.0289146 0.002692438 -0.03835776 0.07788005 -0.11221326
-0.03426435 -0.062003557 0.10815097 -0.010399107 -0.046147335 0.101110905 -0.10192768 -0.015749754
-0.12829868 -0.011071322 0.09497313 0.09841764 0.11056766 0.01552056 0.13881283 -0.10618456
-0.1133555 0.063370414 0.07299865 0.10171753 0.1238275 0.09283546 -0.047973663 -0.025255242
0.04063387 -0.0056183324 0.06386378 -0.0332168 -0.031940468 0.15049563 0.095919736 -0.15195003
-0.06979008 0.07750831 0.15836939 0.09164221 -0.11933688 -0.0064418046 0.017036052 -0.026557712
-0.05317105 -0.11109639 0.032251824 0.062190227 0.0014593806 -0.04212956 -0.12321424 -0.035370857
00000000: d264 d1bc b217 4fbc f3af 003e 6227 abbd
00000010: bc80 6cbd 7262 84bd 4514 b6bc aa17 a1bd
00000020: 158c 09bd 1ec7 b9bd 0154 19be 9adc f0bd
00000030: 47e4 11be 86ae 543d 7e5a 9c3d 8aa1 c9bd
00000040: 7176 9f3d 3a58 1cbe 5d35 823d 447d 9cbd
00000050: d165 cd3c 9192 2fbd 9044 8abd 0d37 18bd
00000060: c3f4 93bd 7415 a2bd 4810 84bd 8c73 1abc
00000070: 644e 1e3d ef4a f9bb a80e eabd 2346 ff3c
00000080: 0eab e8bd d451 be3d a05d 533c 4b7b 6f3d
00000090: 5dd5 e3bb a92f 973c 4e79 7bbc 8b2b febd
000000a0: bf8f 03be 840d be3d bb37 9fbd a935 023d
000000b0: d65f 0fbe 1aaa d73c 603c 843d acc4 9e3b
000000c0: bb5e 6abd 1d08 24bc f4d6 ac3c dbb7 743c
000000d0: 7b54 dcbd 29ad b9bc ed9d 4e3d e375 f3bd
000000e0: f3aa 2fbb 61c8 d7bd 946c b43c b753 30bc
000000f0: d18c e33c ac59 8c3c e89f 96bc 719f be3d
00000100: b010 d23d 51a2 1abe 06dc 10bd 3477 30bd
00000110: 3440 02bc c60b 873c b641 b23c 5c05 00bb
00000120: c1cb 6bbc dd5a 22bd 2173 253c 3f47 71bd
00000130: 9474 453d c7ed 4ebe 8253 aebb 5592 793d
00000140: 81a2 0cbd 0f8e 893c 1928 0cbe e077 883b
00000150: 59f5 edbd 8dc0 89bd c8dc 1ebb f914 bcbd
00000160: 2c21 ccbb 6d87 9c3d 0b66 c0bd 1c9e ab3d
00000170: 76d3 70bd 7d41 9fbb 08d5 9dbd c60e 063a
00000180: 3f6a 053e 1b3a dbbd ae6e 043e e586 d3bd
00000190: ba6c e73d 4d91 583d e8d1 8a3d d57e 0bbe
000001a0: dadd 243b dd97 9dbd 5299 aa3c 947c 0dbe
000001b0: b5f6 9abd 9444 33bd b2c5 b2bc 9963 893c
000001c0: cd4a 70bd 11c2 9c3c 8db8 f0bd 8d74 9bbd
000001d0: 9c3b 943b eed4 0a3e a552 abbd dcdc e7bd
000001e0: ec50 de3c a618 df3c a974 d6bd 281c 40bd
000001f0: 9234 44bc 7dde e8bd e75e c53c 3965 b5bd
00000200: 52a7 ddbb c297 113e 6180 17bd 11de 3a3e
00000210: c7bd 213d 114d d3bc c3c8 9fbd 886e a0bd
00000220: be4a ac3c 5a3c 1ebd 858a 0f3d 521e e4bc
00000230: 5f77 c93d ce21 febd 637d 3e3d f678 4e3c
00000240: 6552 bc3d 5330 d83d 9840 093e a28f 6f3d
00000250: 1461 0fbd 5f90 bdbd f6ba d73d d342 cc3d
00000260: 1b87 7abd d892 9cbd 6ef6 c03d 2095 e83d
00000270: 829d a6bc d800 2b3e f630 ca3b fe2d 723d
00000280: ee58 453a fc2f fcbd 4f10 89bc cfb7 f23b
00000290: e298 833d 899a e0bd 972f 3ebd 7048 47bd
000002a0: 9394 843d e418 16bd cea8 a43c 2ce8 023d
000002b0: bead 803c 2460 c3bd 3e64 a2bd 3e3b 913d
000002c0: 7f36 ad3d 448b 86bd 7b03 3dbe f40b 523c
000002d0: aa35 103e bff3 fcbd 6bf4 e73b d042 9f3d
000002e0: c135 023e 4c19 053e b3ef 81bd 8369 9abd
000002f0: 1be9 afbc 89e3 a53d 8163 8abd da27 e53d
00000300: 1579 17be f82e 153c 298e 17bd 3a1d debd
00000310: 30e8 c23d bc66 d23d 5fdc dbbb 069b c63c
00000320: 99c0 f7bd a6b2 a23d a87a 52bd 50de ecbc
00000330: 9d73 303b 071d 1dbd 937f 9f3d 11d0 e5bd
00000340: c658 0cbd 71f7 7dbd 417e dd3d 0461 2abc
00000350: fd04 3dbd 3c13 cf3d 76bf d0bd a105 81bc
00000360: bb60 03be 7d64 35bc 4681 c23d 308f c93d
00000370: 4c71 e23d f249 7e3c f324 0e3e 4a77 d9bd
00000380: ee26 e8bd 59c8 813d 5180 953d 4851 d03d
00000390: 4699 fd3d 8520 be3d 0880 44bd 15e4 cebc
000003a0: b36f 263d fd19 b8bb 03cb 823d 570e 08bd
000003b0: 02d4 02bd 871b 1a3e 9171 c43d ca98 1bbe
000003c0: 1aee 8ebd adbc 9e3d 962b 223e e9ae bb3d
000003d0: e566 f4bd c615 d3bb 318f 8b3c 8f8f d9bc
000003e0: e3c9 59bd 8186 e3bd 7d1a 043d 2ebb 7e3d
000003f0: b048 bf3a 0c90 2cbd bf57 fcbd 08e1 10bd

phi.initial_conv_module.0._layers.7.se_conv2.conv.weight f4 [64, 10, 1]
0.09636952 0.27994022 -0.14396836 0.1708902 0.07126694 -0.11580159 -0.078377396 0.020623477
0.14204846 -0.13870196 -0.30551928 -0.07584064 -0.09012405 0.029081488 -0.32873392 -0.060448915
0.1998991 0.27708134 -0.16226688 -0.10058103 0.07231485 0.2768548 0.17802092 0.030537501
0.07360686 -0.039847434 0.36934108 0.3282687 -0.21975453 0.2672174 -0.054574873 0.26221424
0.02672381 0.27461627 0.19718365 0.04869513 -0.062713094 -0.11414769 -0.33032268 0.260109
-0.09993901 0.02963434 -0.21516187 0.30873114 0.2948948 -0.27113733 0.2603614 -0.124874614
0.106866375 -0.22525895 -0.26460466 0.097950384 -0.24850892 -0.14087227 0.11411187 0.20621996
-0.13335222 0.03494114 0.0632899 0.07513026 -0.33527482 -0.22863898 -0.2016987 0.25912312
0.20164272 -0.24641368 0.08447148 -0.051811483 0.0077441838 0.22899759 -0.22011888 -0.23186417
0.009129111 -0.037134912 -0.024861952 -0.07817375 0.20535089 -0.20747262 0.17796862 -0.14586058
0.29040426 0.35664052 -0.11432598 0.29085457 -0.30545276 0.20841254 -0.052529234 -0.09423343
-0.099770024 -0.21656227 0.10301326 -0.14315398 -0.10450201 0.024204873 0.18470444 -0.23741108
0.30488324 -0.16055916 0.049497135 -0.253018 0.30660942 -0.041961417 -0.22699632 0.06709434
-0.2200999 -0.04500537 -0.16546038 -0.06107249 0.24844053 -0.104063086 0.20272064 0.17000699
0.041442 0.089844026 -0.106472895 0.115307644 0.0067505944 0.016697204 0.16926304 0.115168355
-0.14735432 0.14676535 -0.27342704 0.2993325 -0.22452633 0.14785029 -0.36537927 0.24888673
-0.14014967 -0.1172968 -0.052473266 0.112680525 -0.00016387578 -0.23146497 0.29667413 0.10586925
0.11918612 0.02115146 -0.3242438 -0.033197742 0.22583403 -0.18068506 0.25698155 -0.25217077
0.13935414 -0.14735891 -0.024602085 -0.0097528845 0.17522329 -0.1848991 -0.12542157 0.20812617
0.1285797 -0.25538617 -0.28061232 0.053110734 -0.28637952 -0.19028768 -0.13581204 -0.23384784
-0.31745166 -0.22698852 0.23388588 -0.13367584 -0.14662598 0.1680392 -0.25250986 0.19080779
-0.25445297 0.11277953 0.10901831 0.015937904 0.1489306 0.11504539 -0.04798671 0.1600958
0.105411805 0.05963891 -0.29551423 -0.045285977 -0.17053083 0.38812044 -0.0598371 -0.2519859
0.20245078 -0.17117089 -0.22354913 -0.15124407 0.064208694 0.16412286 0.026972128 -0.22208211
-0.2754681 -0.04066354 -0.015359782 0.070179194 0.3805345 0.006640623 0.03793231 0.24432418
-0.29780558 0.11365785 0.020402862 -0.27672237 -0.012898111 0.18662581 0.33041072 0.12056397
0.11813393 0.27679738 0.15300658 0.24298215 -0.18346182 0.3424167 -0.10738183 -0.025398195
0.31730947 -0.24025661 0.23204415 -0.1031034 0.1763191 -0.10186929 -0.002051086 0.28280327
-0.20102692 -0.111095764 -0.020882195 0.28385293 -0.27141488 0.10873743 0.017523754 -0.27675542
-0.100089684 0.035419017 -0.02082649 0.08942319 -0.10391948 0.34748188 -0.11353434 0.23841566
-0.13337746 0.003631573 -0.20013365 0.26139036 0.0028467134 0.061270487 0.25282326 -0.01292432
-0.17972828 0.017217807 -0.19447167 -0.32681212 -0.098204255 -0.22088858 0.03589628 -0.038948067
00000000: 625d c53d 5354 8f3e 716c 13be d7fd 2e3e
00000010: 67f4 913d 6229 edbd 5484 a0bd 91f2 a83c
00000020: 2775 113e e307 0ebe 066d 9cbe 5652 9bbd
00000030: f592 b8bd 4d3c ee3c d04f a8be 4899 77bd
00000040: 5ab2 4c3e 9bdd 8d3e 4a29 26be 6dfd cdbd
00000050: cf19 943d eabf 8d3e 1e4b 363e c829 fa3c
00000060: 32bf 963d 1037 23bd 461a bd3e d612 a83e
00000070: 5507 61be b8d0 883e e789 5fbd f240 863e
00000080: e4eb da3c 819a 8c3e 83ea 493e 8b74 473d
00000090: b96f 80bd 44c6 e9bd 0e20 a9be 022d 853e
000000a0: d3ac ccbd b7c3 f23c 6553 5cbe 0212 9e3e
000000b0: 74fc 963e 83d2 8abe 174e 853e 43be ffbd
000000c0: c2dc da3d 48aa 66be 437a 87be 369a c83d
000000d0: 1f79 7ebe d240 10be 7cb3 e93d 532b 533e
000000e0: 7c8d 08be 711e 0f3d 239e 813d e5dd 993d
000000f0: 24a9 abbe 5620 6abe 1b8a 4ebe c9ab 843e
00000100: 6e7b 4e3e de53 7cbe 62ff ac3d 4738 54bd
00000110: ecc2 fd3b 587e 6a3e d866 61be cd6d 6dbe
00000120: 4492 153c c71a 18bd 4bab cbbc 8f19 a0bd
00000130: 8147 523e b473 54be 683d 363e 7a5c 15be
00000140: deaf 943e 9699 b63e bd23 eabd e4ea 943e
00000150: 4e64 9cbe 196a 553e e528 57bd 75fd c0bd
00000160: 3a54 ccbd 80c2 5dbe 9ef8 d23d f596 12be
00000170: 2605 d6bd 4c49 c63c 2923 3d3e e41b 73be
00000180: a819 9c3e 9f69 24be 82bd 4a3d 938b 81be
00000190: e9fb 9c3e bcdf 2bbd b971 68be c268 893d
000001a0: de61 61be 8d57 38bd 726e 29be 2627 7abd
000001b0: 3267 7e3e 071f d5bd 0096 4f3e 5016 2e3e
000001c0: 16bf 293d 2500 b83d 760e dabd 6a26 ec3d
000001d0: 1734 dd3b 93c8 883c 4a53 2d3e 63dd eb3d
000001e0: 0de4 16be a849 163e a1fe 8bbe 1c42 993e
000001f0: 3bea 65be 1166 173e fe12 bbbe 2adc 7e3e
00000200: 6583 0fbe 4e39 f0bd 35ee 56bd 0cc5 e63d
00000210: 12d6 2bb9 2705 6dbe ace5 973e fad1 d83d
00000220: da17 f43d d445 ad3c 4903 a6be 5bfa 07bd
00000230: 0941 673e 8105 39be 1693 833e 871c 81be
00000240: dab2 0e3e 41e5 16be 508a c9bc 90ca 1fbc
00000250: bc6d 333e 3156 3dbe 836e 00be 071f 553e
00000260: 66aa 033e fac1 82be 6bac 8fbe a48a 593d
00000270: 56a0 92be c6da 42be 5012 0bbe cf75 6fbe
00000280: 0689 a2be ae6f 68be c87f 6f3e 52e2 08be
00000290: 1f25 16be 7812 2c3e f948 81be 1e63 433e
000002a0: a947 82be f4f8 e63d fe44 df3d 3590 823c
000002b0: 4381 183e eb9c eb3d b68d 44bd 27f0 233e
000002c0: 25e2 d73d ee47 743d a44d 97be ca7d 39bd
000002d0: a29f 2ebe b9b7 c63e bf17 75bd 4c04 81be
000002e0: 424f 4f3e 6c47 2fbe 10ea 64be badf 1abe
000002f0: d97f 833d d30f 283e a7f4 dc3c 7e69 63be
00000300: 280a 8dbe d08e 26bd 98a7 7bbc 1cba 8f3d
00000310: 6bd5 c23e 9599 d93b e95e 1b3d 1e30 7a3e
00000320: f979 98be 72c5 e83d e723 a73c 8eae 8dbe
00000330: 9952 53bc d61a 3f3e 982b a93e 3eea f63d
00000340: 34f0 f13d 63b8 8d3e c2ad 1c3e 50d0 783e
00000350: 6add 3bbe 3e51 af3e 01eb dbbd e00f d0bc
00000360: 6376 a23e d405 76be fb9c 6d3e e027 d3bd
00000370: ff8c 343e d9a0 d0bd 836b 06bb 97cb 903e
00000380: 00da 4dbe 2d86 e3bd 2311 abbc 2c55 913e
00000390: e4f6 8abe bbb1 de3d fa8d 8f3c e3b2 8dbe
000003a0: d2fb ccbd 8813 113d 519c aabc 8123 b73d
000003b0: bdd3 d4bd 25e9 b13e b184 e8bd 3c23 743e
000003c0: 1a94 08be afff 6d3b d6ef 4cbe f5d4 853e
000003d0: ed8f 3a3b c3f6 7a3d 0d72 813e 87c0 53bc
000003e0: b10a 38be 5c0c 8d3c 9523 47be eb53 a7be
000003f0: 501f c9bd 9e30 62be fa07 133d 0288 1fbd

phi.initial_conv_module.0._layers.8.conv.weight f4 [32, 64, 1]
-0.09851981 -0.057783544 -0.070251636 -0.030966353 -0.07338337 0.055649694 -0.012647903 -0.04201097
-0.050857693 0.020842738 0.025770968 -0.0065331524 -0.07763086 0.14492922 -0.17860366 -0.05961103
0.053554587 0.08392305 -0.09711014 0.033401746 0.0048030415 -0.09633194 -0.1465148 -0.040026184
0.06486028 -0.10596646 0.066623315 0.12899402 -0.021513142 0.0008211777 0.057318613 -0.09965885
-0.10706397 -0.10369 0.07299604 -0.11633666 -0.06283787 0.05245778 -0.036477085 -0.110175356
0.056392133 -0.14982109 -0.01627546 0.032784715 0.016409466 -0.022839477 -0.09611324 0.10964768
0.04794626 0.061788417 0.014035657 0.16914424 -0.12338824 -0.04015906 0.13943073 0.12853426
-0.1106949 0.028127922 -0.01131226 0.10507165 -0.062135875 -0.014247738 0.10439182 -0.069163166
0.038200747 -0.09532044 -0.0097207185 -0.06633796 -0.077653036 0.021492649 -0.0782922 -0.03540603
-0.06072665 0.093913086 -0.10945737 0.10670487 0.011488119 0.017141165 0.107923105 0.06688731
0.04125473 -0.13563639 -0.0073583173 -0.12500383 0.05452343 -0.044281293 0.015831158 -0.1106203
-0.035776645 0.07006681 -0.17674628 0.04487115 0.039898448 0.00921201 -0.114649184 -0.08835301
-0.06856379 -0.02103399 0.0890252 -0.1195284 0.12836754 0.056776304 -0.0995551 -0.14913571
-0.026194995 -0.08643485 -0.042765614 -0.0023073123 0.009572413 -0.064347036 -0.0848063 -0.042594377
-0.06971585 -0.022171076 0.045938376 0.02474504 0.04033179 -0.10767096 0.055526454 -0.07935036
0.08644822 -0.06159823 0.03711837 -0.11816242 -0.028126681 0.1247863 -0.14670691 0.09709418
-0.105882466 0.035534427 0.07447085 -0.021618236 -0.15441872 0.043928396 -0.006414018 0.09209417
0.073803715 0.06917952 -0.021597378 0.0115912985 0.0030632478 0.014029249 -0.0033242158 -0.033294972
-0.19602232 0.08477177 -0.053617593 -0.12222633 -0.08389057 0.029106138 -0.054380715 -0.040775202
-0.012486876 0.08384611 0.0771685 -0.040989537 0.003573369 0.088731684 -0.12178765 0.07932543
0.13615933 -0.054764815 0.009590766 0.044358872 0.022525223 0.14076741 -0.09373133 -0.046935547
-0.07145437 0.027501682 0.05270321 -0.05584957 -0.03795521 0.09083916 -0.072169416 -0.055848435
-0.09320865 0.07333917 0.07541019 -0.09967614 -0.09310816 0.10038444 0.041042924 0.15409352
-0.10134653 -0.14468883 0.08802431 -0.12991662 -0.0674807 -0.124137074 0.029535135 0.0106495535
0.004974161 0.036918946 -0.08066519 0.075987555 0.13031821 0.019252902 -0.05887309 -0.025940867
0.09946872 0.103931606 -0.01505674 0.010177404 0.010397405 -0.12841213 0.073477045 -0.00046271188
-0.13651678 -0.100804366 0.0742868 0.015680233 -0.024610082 0.043493908 -0.07477651 0.017329443
-0.077968046 0.10206889 0.024265364 -0.02628992 0.036678225 -0.007246254 -0.13008344 0.09309688
0.08786788 -0.016366735 -0.011070526 -0.09390917 -0.07660731 0.095748715 -0.07671665 0.12376357
0.11761468 -0.04950518 0.071655214 -0.11184348 0.06171739 0.009811404 -0.0026228928 0.027542254
0.018418178 -0.07788677 -0.051479377 -0.19174439 0.051166125 0.06917688 -0.10745165 -0.051349737
-0.116356626 -0.091384135 0.03638791 -0.034042545 -0.093403004 -0.0345037 -0.07510237 -0.072536185
00000000: c1c4 c9bd 70ae 6cbd 17e0 8fbd 26ad fdbc
00000010: 054a 96bd eff0 633d 2639 4fbc b213 2cbd
00000020: 2850 50bd 64be aa3c a31d d33c 0e14 d6bb
00000030: eefc 9ebd 5368 143e e1e3 36be b22a 74bd
00000040: 0e5c 5b3d d9df ab3d aee1 c6bd 45d0 083d
00000050: d562 9d3b ae49 c5bd fa07 16be 7ff2 23bd
00000060: 77d5 843d f204 d9bd ce71 883d 0217 043e
00000070: 543c b0bc 4d44 573a ecc6 6a3d f019 ccbd
00000080: 5b44 dbbd 6c5b d4bd f37e 953d ea41 eebd
00000090: 24b1 80bd f8dd 563d ff68 15bd 9ea3 e1bd
000000a0: 70fb 663d b36a 19be 1d54 85bc 4449 063d
000000b0: 256d 863c db19 bbbc 05d7 c4bd f68e e03d
000000c0: 4c63 443d da15 7d3d d0f5 653c 2634 2d3e
000000d0: f9b2 fcbd d47d 24bd eec6 0e3e 7c9e 033e
000000e0: 02b4 e2bd 876c e63c 0f57 39bc ce2f d73d
000000f0: 3082 7ebd 586f 69bc 61cb d53d 6ba5 8dbd
00000100: 6378 1c3d 5d37 c3bd a643 1fbc 32dc 87bd
00000110: 8e08 9fbd 5a11 b03c a957 a0bd ea05 11bd
00000120: 82bc 78bd 8155 c03d 302b e0bd 1588 da3d
00000130: aa38 3c3c a16b 8c3c ca06 dd3d 37fc 883d
00000140: b8fa 283d 44e4 0abe 0a1e f1bb 0101 00be
00000150: f653 5f3d 4d60 35bd 58b0 813c e58c e2bd
00000160: 888a 12bd 307f 8f3d fafc 34be d0ca 373d
00000170: 8e6c 233d f8ed 163c 31cd eabd 6cf2 b4bd
00000180: 2c6b 8cbd 794f acbc d852 b63d 4ecb f4bd
00000190: c872 033e 458e 683d 8be3 cbbd 08b7 18be
000001a0: e396 d6bc c104 b1bd ff2a 2fbd 4736 17bb
000001b0: 9cd5 1c3c 61c8 83bd edae adbd 7177 2ebd
000001c0: 2fc7 8ebd 1ea0 b5bc e129 3c3d 1cb6 ca3c
000001d0: f232 253d 9882 dcbd b56f 633d 7182 a2bd
000001e0: c40b b13d 6d4e 7cbd 6f09 183d 24ff f1bd
000001f0: ed69 e6bc f68f ff3d 563a 16be 50d9 c63d
00000200: e8d8 d8bd 8c8c 113d 2c84 983d ba18 b1bc
00000210: f11f 1ebe 43ee 333d af2c d2bb de9b bc3d
00000220: 6726 973d fead 8d3d fcec b0bc 6ee9 3d3c
00000230: c5c0 483b efda 653c 16db 59bb 4f60 08bd
00000240: 13ba 48be d29c ad3d 1f9e 5bbd cc51 fabd
00000250: d2ce abbd ff6f ee3c 50be 5ebd e603 27bd
00000260: c195 4cbc 82b7 ab3d 850a 9e3d a5e4 27bd
00000270: 2f2f 6a3b f5b8 b53d ce6b f9bd 5f75 a23d
00000280: 5a6d 0b3e 1251 60bd 9722 1d3c a6b1 353d
00000290: d186 b83c 5525 103e 36f6 bfbd 7d3f 40bd
000002a0: ab56 92bd 354b e13c 52df 573d 85c2 64bd
000002b0: ec76 1bbd e209 ba3d 8fcd 93bd 54c1 64bd
000002c0: 2de4 bebd d932 963d a870 9a3d 0123 ccbd
000002d0: 7eaf bebd 5b96 cd3d a01c 283d b1ca 1d3e
000002e0: c58e cfbd 4f29 14be 1746 b43d dd08 05be
000002f0: 5233 8abd 943b febd abf3 f13c 777b 2e3c
00000300: 49fe a23b 5238 173d cb33 a5bd 5d9f 9b3d
00000310: 2372 053e 43b8 9d3c e924 71bd f181 d4bc
00000320: 42b6 cb3d 18da d43d 8bb0 76bc 20bf 263c
00000330: e159 2a3c 787e 03be 227b 963d 2398 f2b9
00000340: 0ecb 0bbe 8572 cebd ae23 983d d573 803c
00000350: 159b c9bc ab26 323d 6d24 99bd 7af6 8d3c
00000360: b6ad 9fbd 7f09 d13d 28c8 c63c f55d d7bc
00000370: e83b 163d fc71 edbb 9834 05be 94a9 be3d
00000380: 13f4 b33d 8813 86bc 2761 35bc 7353 c0bd
00000390: 4be4 9cbd e717 c43d 9e1d 9dbd c177 fd3d
000003a0: f7df f03d f2c5 4abd f8bf 923d 320e e5bd
000003b0: 60cb 7c3d 03c0 203c d7e4 2bbb 4ba0 e13c
000003c0: b8e1 963c 1983 9fbd 0adc 52bd a458 44be
000003d0: 9293 513d 9cac 8d3d 9c0f dcbd 1a54 52bd
000003e0: 624c eebd 9b27 bbbd 7d0b 153d 3270 0bbd
000003f0: 134a bfbd c053 0dbd 45cf 99bd da8d 94bd

phi.initial_conv_module.0._layers.9.weight f4 [32]
1.0577973 1.052899 1.0221723 0.97079855 0.9738198 1.0349268 1.0558274 1.0005151
1.0254049 1.0148635 1.0497266 1.0517882 1.0586301 1.0013185 0.9864799 0.9915125
1.031129 0.9889743 1.0854824 1.0698066 1.0636104 1.08601 1.0431619 1.0578471
1.026552 1.0052973 1.0411854 1.0394362 1.102632 1.0017143 1.077081 0.96724814
00000000: e765 873f 65c5 863f 8bd6 823f 4186 783f
00000010: 414c 793f 7b78 843f 5a25 873f e110 803f
00000020: 7840 833f 0ce7 813f 715d 863f ffa0 863f
00000030: 3181 873f 342b 803f f289 7c3f c3d3 7d3f
00000040: 09fc 833f 6b2d 7d3f 16f1 8a3f 6cef 883f
00000050: 6324 883f 6002 8b3f 5486 853f 8967 873f
00000060: 0e66 833f 95ad 803f 9045 853f 3f0c 853f
00000070: 0c23 8d3f 2d38 803f cadd 893f 939d 773f

phi.initial_conv_module.0._layers.9.bias f4 [32]
0.0041099666 0.0022410192 0.0024930367 0.00027711724 -0.0010058241 -0.0006489435 -0.0038115263 -0.003321926
0.0033437137 -0.006586934 0.004261184 -0.001028924 -0.004833124 -0.0035120882 -0.00093104306 -0.0018784731
0.0068477113 -0.0009880277 0.00012433965 0.0018804639 -0.0015091663 0.0037480884 0.001742728 0.0058038766
0.002949542 -0.0044451915 -0.0075236526 0.0024839363 0.00094388635 0.0005561137 -0.0031581002 0.0004885376
00000000: e6ac 863b 10de 123b 3762 233b 0c4a 9139
00000010: dbd5 83ba dc1d 2aba cdca 79bb acb4 59bb
00000020: 3522 5b3b 35d7 d7bb 67a1 8b3b f6dc 86ba
00000030: 2f5f 9ebb 102b 66bb 3e11 74ba 1937 f6ba
00000040: c462 e03b b580 81ba 2c61 0239 e679 f63a
00000050: 38cf c5ba 7da2 753b 406c e43a 722e be3b
00000060: 1a4d 413b f8a8 91bb f988 f6bb 89c9 223b
00000070: 246f 773a 29c8 113a 21f8 4ebb 3411 003a

phi.initial_conv_module.0._layers.9.running_mean f4 [32]
-0.038806558 -0.09479913 -0.04849368 -0.0613881 0.07221551 -0.021742163 0.05106756 -0.0634598
0.029884329 -0.054858513 -0.007830882 -0.051666837 0.009492234 -0.009422606 0.011789786 -0.06650494
0.0049842615 -0.006187849 0.028036356 0.066826925 -0.0055428436 -0.009282804 0.0067967293 -0.0035261335
0.07628968 -0.016144637 0.031781737 -0.034893863 -0.016071482 -0.09206015 -0.14143103 0.009016367
00000000: a0f3 1ebd 0c26 c2bd 4fa1 46bd 1772 7bbd
00000010: bae5 933d 9f1c b2bc 382c 513d 36f7 81bd
00000020: fbcf f43c 52b3 60bd 1a4d 00bc 9ba0 53bd
00000030: 5185 1b3c 4661 1abc f229 413c be33 88bd
00000040: 0453 a33b 71c3 cabb 80ac e53c 8edc 883d
00000050: bea0 b5bb e716 18bc 19b7 de3b b416 67bb
00000060: c43d 9c3d c241 84bc 912d 023d deec 0ebd
00000070: 57a8 83bc 088a bcbd 4cd3 10be 62b9 133c

phi.initial_conv_module.0._layers.9.running_var f4 [32]
0.09649032 0.088265724 0.082172714 0.03955009 0.08019701 0.04788766 0.07950516 0.0709272
0.09435125 0.025115358 0.07060985 0.042228766 0.06636718 0.04436012 0.037225723 0.062179293
0.09152509 0.07652472 0.04567993 0.034910526 0.056879155 0.06441099 0.062683955 0.052291594
0.03153072 0.06896644 0.03180659 0.045838527 0.068439126 0.071103744 0.06929199 0.094376564
00000000: b89c c53d a9c4 b43d 2b4a a83d 46ff 213d
00000010: 543e a43d da25 443d 9ad3 a23d 4842 913d
00000020: 3a3b c13d b9be cd3c e69b 903d 12f8 2c3d
00000030: 84eb 873d f5b2 353d 007a 183d b7af 7e3d
00000040: 8271 bb3d feb8 9c3d e11a 3b3d 57fe 0e3d
00000050: 1efa 683d e9e9 833d 7260 803d b62f 563d
00000060: 5b26 013d 473e 8d3d a047 023d 2ec1 3b3d
00000070: d029 8c3d d79e 913d f5e8 8d3d 8048 c13d

phi.initial_conv_module.1.weight f4 [32]
1.0690651 1.0645392 1.0270405 0.9691487 0.97307694 1.0456285 1.0736446 1.0056937
1.035704 1.0194656 1.0615177 1.0646517 1.077948 0.9997012 0.98710084 0.9957809
1.0403185 0.991246 1.1099374 1.0803972 1.0814053 1.1097745 1.0499883 1.0748017
1.0279455 1.0064071 1.0521994 1.0489545 1.1250561 1.0037832 1.0950608 0.9667146
00000000: 20d7 883f d242 883f 1076 833f 211a 783f
00000010: 921b 793f 28d7 853f 306d 893f 92ba 803f
00000020: f391 843f d97d 823f d0df 873f 8246 883f
00000030: 33fa 893f 6bec 7f3f a4b2 7c3f 7feb 7e3f
00000040: 2829 853f 4cc2 7d3f 6e12 8e3f 754a 8a3f
00000050: 7d6b 8a3f 170d 8e3f 0466 863f 1a93 893f
00000060: b893 833f f3d1 803f 78ae 863f 2444 863f
00000070: d701 903f f87b 803f f42a 8c3f 9c7a 773f

phi.initial_conv_module.1.bias f4 [32]
-0.023683833 0.052600045 0.025885478 -0.022442272 -0.001502589 0.07644957 0.011913877 0.05715624
-0.006492235 0.053710956 0.01849449 0.010767274 0.031680137 0.030533824 -0.02250968 0.005575987
0.008298583 -0.030829305 0.0011056984 0.0016256605 0.058464985 0.094495736 0.027102187 0.0036928584
0.02485395 0.02139526 -0.038563438 0.07099365 0.08030938 0.0033721165 0.088622704 -0.0071396898
00000000: 9904 c2bc 2573 573d c80d d43c dbd8 b7bc
00000010: 85f2 c4ba 9891 9c3d 6c32 433c a91c 6a3d
00000020: d1bc d4bb 0500 5c3d c281 973c 3869 303c
00000030: 08c3 013d 1222 fa3c 3866 b8bc c5b6 b63b
00000040: c8f6 073c bd8d fcbc 15ed 903a 1d14 d53a
00000050: fb78 6f3d fb86 c13d 6805 de3c e203 723b
00000060: 839a cb3c 1d45 af3c b2f4 1dbd 1e65 913d
00000070: 3f79 a43d bafe 5c3b d27f b53d 0ff4 e9bb

phi.initial_conv_module.1.running_mean f4 [32]
0.003928736 0.0023824386 0.002622778 0.0003116816 -0.000985523 -0.000520725 -0.0039189747 -0.0032072063
0.0034440802 -0.006476781 0.004452427 -0.00055926153 -0.004916323 -0.0035839425 -0.0009462476 -0.001981184
0.0066186013 -0.0010366952 0.00019520447 0.0021499884 -0.0015170008 0.0037975912 0.0018664578 0.0058076275
0.0029468227 -0.004395141 -0.0075475713 0.002476689 0.0011900013 0.0004743566 -0.0031796338 0.00036844105
00000000: a0bc 803b b022 1c3b eae2 2b3b 3269 a339
00000010: aa2c 81ba 4381 08ba be6a 80bb fe2f 52bb
00000020: 14b6 613b 2d3b d4bb aae5 913b 689b 12ba
00000030: 1b19 a1bb 94e0 6abb 9a0d 78ba c0d6 01bb
00000040: dae0 d83b b8e1 87ba cdaf 4c39 d2e6 0c3b
00000050: 1ad6 c6ba 02e1 783b eea3 f43a e94d be3b
00000060: 7b1f 413b 1d05 90bb 9e51 f7bb f24f 223b
00000070: d1f9 9b3a 11b3 f839 6761 50bb 522b c139

phi.initial_conv_module.1.running_var f4 [32]
1.1045569 1.0937089 1.0305909 0.91409576 0.9317624 1.049927 1.0968868 0.9838686
1.0366607 0.9987017 1.0874469 1.0844646 1.1068405 0.9835991 0.9417136 0.96686965
1.0445731 0.96153766 1.1600018 1.1183758 1.1169469 1.1617397 1.065476 1.0982255
1.0237907 0.99378526 1.0588312 1.0577927 1.1959274 0.9835787 1.1363314 0.9163059
00000000: 1f62 8d3f a7fe 8b3f 67ea 833f 2e02 6a3f
00000010: fb87 6e3f 0264 863f c966 8c3f d0de 7b3f
00000020: 4cb1 843f eaaa 7f3f 7631 8b3f bccf 8a3f
00000030: f3ac 8d3f 27cd 7b3f 2414 713f c584 773f
00000040: 92b4 853f 5527 763f f07a 943f f026 8f3f
00000050: 1ef8 8e3f e3b3 943f 8461 883f a792 8c3f
00000060: 930b 833f b668 7e3f c887 873f c065 873f
00000070: 2614 993f d0cb 7b3f 4f73 913f 0693 6a3f
