best_distillation_model.pt (torch, 333498 bytes, 198 tensors)

phi.initial_conv_module.0._layers.0.conv.weight f4 [64, 64, 1]
0.07325622 0.07957422 0.08083694 -0.0671239 0.06816834 -0.08860533 0.0011249582 -0.053303722
-0.0676752 0.060850177 -0.010682854 0.020270277 0.0800283 -0.10181124 -0.10514171 0.074777246
-0.19180456 0.013101198 -0.13236955 -0.07219771 0.025593283 0.1752222 -0.12928273 -0.055802226
-0.0581349 -0.040210236 0.0027477592 0.062948 0.06655076 -0.05579163 0.0732538 0.11949863
-0.061476685 0.085301474 0.04149051 0.13460849 0.0060651763 0.08482781 -0.10225806 -0.068121076
0.044919427 0.122661754 0.010485391 0.054896254 0.051757786 -0.012914476 0.013115105 0.045988575
-0.04160299 0.021662384 0.13198626 0.08279092 0.04430529 0.0042490545 -0.09787154 -0.09409832
-0.058956485 -0.022667466 0.02813138 0.06512779 -0.022205798 6.566234e-05 0.019756148 -0.0957759
-0.03497459 0.022639971 -0.0074439277 -0.037585404 -0.009219119 0.034373585 0.05401963 -0.025187833
0.01707505 -0.019648636 -0.0032874742 0.0067323977 -0.044006653 -0.02221074 -0.023188177 -0.049892213
-0.20067133 -0.04388613 -0.013830727 -0.013906338 -0.017620878 -0.020493275 -0.10367969 -0.009971194
-0.11557281 0.027124813 -0.044208493 0.0003676122 0.019604117 -0.1140116 0.044033114 0.15642723
0.25457832 0.102598146 0.091642946 0.05099576 -0.112863444 0.034838967 -0.11457843 -0.007384688
-0.07731204 0.017491056 -0.08521819 -0.006839431 0.037463594 0.0530399 -0.0449225 0.046317656
-0.060193334 -0.0061487434 0.008507002 0.00806918 -0.059415124 -0.04808423 0.04105359 0.021070369
-0.0025656205 -0.058735777 0.1153556 -0.055823926 0.06756364 0.119130604 -0.054699305 -0.07789195
0.021346133 -0.07173086 0.031476 -0.049371976 0.06534319 0.0133098895 -0.08994782 0.066687174
0.098816074 -0.07829057 0.031311456 -0.06400457 0.04488294 -0.07190249 0.05470929 -0.004044193
-0.24988185 -0.19440885 0.08131085 0.16959137 0.09910324 -0.0004845751 -0.13872199 -0.052086394
-0.008685316 -0.058437183 0.011123374 -0.029250013 0.09949849 -0.06852825 -0.046672232 0.056462318
0.11125751 0.0931481 0.018531512 -0.012796834 0.04007788 -0.058674533 0.0518854 -0.07324049
0.046954855 -0.16640791 -0.07806703 0.01064254 -0.04940191 -0.07308983 -0.04545163 0.024520352
0.08188991 -0.071975075 -0.008405918 -0.09586636 -0.051496536 0.031702593 0.039428953 0.04478404
0.03449661 0.01303174 0.0861827 -0.036997978 -0.024484346 0.005995289 -0.1012422 0.1116724
-0.14209495 0.05685811 0.13418946 -0.02297074 -0.052092373 0.030484928 0.10082625 -0.078717865
-0.08118783 0.088186756 -0.061166946 0.06220721 -0.07130427 0.068797395 -0.033487502 -0.13699627
-0.19969104 -0.12672989 0.07721628 -0.00014762924 -0.10864024 -0.040509958 -0.0050636637 -0.028679546
0.17453986 -0.041360706 -0.084001854 -0.2711012 -0.19493511 -0.07296832 -0.024551267 0.09234688
-0.08193827 -0.020797025 -0.07798342 -0.039003693 -0.028417353 -0.05203094 0.053164892 -0.089195244
0.061194245 0.0042432323 0.07480835 -0.041379604 -0.05323217 -0.0055079954 0.09142191 -0.008372824
-0.04866808 0.034377262 0.1409089 -0.018416151 0.09895341 -0.0032439847 -0.05997812 -0.08505009
0.043262623 -0.11148875 0.0706318 0.012984632 0.022325538 -0.107989594 0.034701418 -0.0007482343
00000000: 5b07 963d cff7 a23d d68d a53d 4178 89bd
00000010: d89b 8b3d b676 b5bd 5573 933a 0155 5abd
00000020: 4c99 8abd 093e 793d 2307 2fbc da0d a63c
00000030: e1e5 a33d 6982 d0bd 8954 d7bd d024 993d
00000040: 6a68 44be 68a6 563c e28b 07be 65dc 93bd
00000050: 01a9 d13c 736d 333e b162 04be e090 64bd
00000060: dc1e 6ebd 7db3 24bd c013 343b e2ea 803d
00000070: c44b 883d c485 64bd 1706 963d b3bb f43d
00000080: face 7bbd 8ab2 ae3d f4f1 293d cfd6 093e
00000090: 63be c63b 34ba ad3d ac6c d1bd 1083 8bbd
000000a0: 6ffd 373d 1636 fb3d ebca 2b3c e5da 603d
000000b0: f9ff 533d 3d97 53bc bde0 563c 845e 3c3d
000000c0: e667 2abd 5075 b13c 6827 073e 498e a93d
000000d0: 7779 353d a73b 8b3b e070 c8bd 9fb6 c0bd
000000e0: 5b7c 71bd 1fb1 b9bc c873 e63c b861 853d
000000f0: efe8 b5bc 33b4 8938 a5d7 a13c 2826 c4bd
00000100: 8441 0fbd 7677 b93c 31ec f3bb 27f3 19bd
00000110: ca0b 17bc 51cb 0c3d b043 5d3d b756 cebc
00000120: fae0 8b3c 2df6 a0bc aa72 57bb 729b dc3b
00000130: 5240 34bd 4cf3 b5bc 22f5 bdbc c75b 4cbd
00000140: c97c 4dbe f1c1 33bd 469a 62bc 69d7 63bc
00000150: a959 90bc 83e1 a7bc 0456 d4bd 385e 23bc
00000160: 70b1 ecbd db34 de3c f713 35bd 13bc c039
00000170: d098 a03c ea7e e9bd 115c 343d 762e 203e
00000180: 1758 823e fa1e d23d 4caf bb3d eee0 503d
00000190: f324 e7bd 4eb3 0e3d 19a8 eabd 41fb f1bb
000001a0: c655 9ebd 6749 8f3c e086 aebd 4e1d e0bb
000001b0: 6d73 193d 5e40 593d a800 38bd 95b7 3d3d
000001c0: 498d 76bd 667b c9bb f460 0b3c 9834 043c
000001d0: 465d 73bd f8f3 44bd cf27 283d c49b ac3c
000001e0: f823 28bb ed94 70bd 8f3f ec3d a1a7 64bd
000001f0: ce5e 8a3d bffa f33d 610c 60bd d185 9fbd
00000200: 16de ae3c a1e7 92bd faec 003d 453a 4abd
00000210: a7d2 853d b911 5a3c 9036 b8bd 4993 883d
00000220: 1560 ca3d ce56 a0bd 7140 003d d414 83bd
00000230: 2cd7 373d 9d41 93bd d916 603d 2685 84bb
00000240: 07e1 7fbe 1d13 47be 4e86 a63d 5ca9 2d3e
00000250: a4f6 ca3d 920e feb9 230d 0ebe 8b58 55bd
00000260: db4c 0ebc d45b 6fbd d03e 363c b99d efbc
00000270: ddc5 cb3d 8a58 8cbd 622b 3fbd 0845 673d
00000280: fada e33d 6ec4 be3d 66cf 973c d0a9 51bc
00000290: b428 243d b554 70bd c985 543d 1cff 95bd
000002a0: bc53 403d d666 2abe 9be1 9fbd 0c5e 2e3c
000002b0: a859 4abd 1fb0 95bd 7d2b 3abd e8de c83c
000002c0: e6b5 a73d ab67 93bd fab8 09bc 9555 c4bd
000002d0: 08ee 52bd 94da 013d 4180 213d 786f 373d
000002e0: 514c 0d3d 1483 553c 8e80 b03d 318b 17bd
000002f0: 6593 c8bc 2174 c43b 1258 cfbd 80b4 e43d
00000300: 5781 11be 0de4 683d f668 093e 222d bcbc
00000310: d05e 55bd 87bb f93c fe7d ce3d d536 a1bd
00000320: ce45 a6bd 429b b43d 318a 7abd fdcc 7e3d
00000330: f907 92bd a6e5 8c3d 312a 09bd c048 0cbe
00000340: cf7b 4cbe 7bc5 01be 9223 9e3d eccc 1ab9
00000350: c67e debd c5ed 25bd 17ed a5bb 5ef1 eabc
00000360: 94ba 323e d869 29bd 2a09 acbd c7cd 8abe
00000370: 129d 47be 6a70 95bd bd1f c9bc 5c20 bd3d
00000380: 40cf a7bd 865e aabc c5b5 9fbd 56c2 1fbd
00000390: 82cb e8bc 651e 55bd 6ec3 593d ffab b6bd
000003a0: d1a6 7a3d d00a 8b3b 1f35 993d a97d 29bd
000003b0: fa09 5abd 6a7c b4bb 693b bb3d 2b2e 09bc
000003c0: 2e58 47bd 2ccf 0c3d 6c4a 103e 78dd 96bc
000003d0: 16a8 ca3d 0899 54bb 9eab 75bd be2e aebd
000003e0: 2634 313d 3754 e4bd 68a7 903d 7ebd 543c
000003f0: 0ce4 b63c a629 ddbd 1323 0e3d 2725 44ba

phi.initial_conv_module.0._layers.1.weight f4 [64]
1.0798291 0.9561397 0.97798824 0.9345821 1.0588444 0.84895587 0.9615997 0.89110744
1.0803834 0.9073142 1.0683864 0.94566053 0.864384 0.8596295 1.0253979 1.0264567
0.74739116 1.0892406 0.9712946 1.0136727 0.9825891 1.1322784 0.8838641 1.0196185
0.83792824 0.9327581 1.061121 1.0113689 1.0354726 0.7530425 1.1122364 0.83945394
1.1965157 0.7652221 0.9678845 1.0142878 0.9215346 0.9701643 1.1436732 0.9971319
1.1762621 0.9958719 0.9412623 0.76464593 0.8557241 0.9781666 1.0767695 0.8745772
0.9160805 0.96138597 0.92837864 0.9971587 0.9389779 0.88280195 0.8417871 1.0018301
0.85978585 0.8495172 1.0595857 1.0175029 1.173856 0.96341276 1.1311017 0.9596128
00000000: d737 8a3f 92c5 743f 705d 7a3f c640 6f3f
00000010: 3788 873f 2c55 593f 662b 763f 9e1f 643f
00000020: 014a 8a3f be45 683f e3c0 883f cf16 723f
00000030: 4548 5d3f ae10 5c3f 3d40 833f ef62 833f
00000040: 0755 3f3f 3c6c 8b3f c3a6 783f 07c0 813f
00000050: f68a 7b3f 80ee 903f eb44 623f dc82 823f
00000060: 7782 563f 3cc9 6e3f d0d2 873f 8974 813f
00000070: 5e8a 843f 65c7 403f c35d 8e3f 74e6 563f
00000080: 6d27 993f 98e5 433f 47c7 773f 2fd4 813f
00000090: b1e9 6b3f b05c 783f e263 923f 0944 7f3f
000000a0: c28f 963f 76f1 7e3f 91f6 703f d6bf 433f
000000b0: bc10 5b3f 2069 7a3f 95d3 893f 4be4 5f3f
000000c0: 4084 6a3f 641d 763f 39aa 6d3f cb45 7f3f
000000d0: db60 703f 4fff 613f 5c7f 573f f83b 803f
000000e0: ed1a 5c3f f679 593f 81a0 873f 893d 823f
000000f0: ea40 963f 38a2 763f f1c7 903f 2fa9 753f

phi.initial_conv_module.0._layers.1.bias f4 [64]
-0.06929042 -0.11452229 0.072620034 0.09487824 -0.13039327 0.01193519 -0.0055567673 -0.0023630008
0.05949457 0.032664515 -0.0055513475 0.111738734 0.012020352 0.0013523735 -0.10079267 0.0893981
-0.02279706 -0.0993464 0.03600762 -0.08023256 0.0009673251 -0.18340008 -0.0736212 -0.10993079
0.059450436 -0.2944255 0.10071867 -0.12730075 -0.037045226 0.3227013 0.07005697 0.09464716
-0.01134936 0.13001253 -0.08956603 -0.15230478 -0.016450021 0.02224225 -0.073465556 0.20438552
0.32518387 -0.069079906 0.0032687453 0.074398376 -0.099229336 -0.028834471 -0.11713195 -0.2062236
0.19065213 -0.22140072 0.014488637 -0.04135874 -0.11616263 0.093233 0.07310957 0.009425414
-0.12332976 0.074836686 -0.15976903 -0.0439249 -0.11786449 -0.034833886 0.51015705 0.0011329565
00000000: 23e8 8dbd aa8a eabd d0b9 943d 864f c23d
00000010: d085 05be d18b 433c 8b15 b6bb 93dc 1abb
00000020: 94b0 733d 3acb 053d 14e8 b5bb 47d7 e43d
00000030: 03f1 443c 2042 b13a 636c cebd 5a16 b73d
00000040: e6c0 babc 2076 cbbd ba7c 133d f850 a4bd
00000050: 1794 7d3a 3bcd 3bbe b6c6 96bd 6523 e1bd
00000060: 4d82 733d f0be 96be 9745 ce3d 215b 02be
00000070: bcbc 17bd 1b39 a53e 077a 8f3d 5fd6 c13d
00000080: abf2 39bc 0122 053e 656e b7bd c9f5 1bbe
00000090: 32c2 86bc 6135 b63c 1c75 96bd 704a 513e
000000a0: 807e a63e c479 8dbd 7238 563b 2d5e 983d
000000b0: c038 cbbd 4536 ecbc e0e2 efbd 482c 53be
000000c0: 503a 433e dfb6 62be c061 6d3c c867 29bd
000000d0: ace6 edbd f1f0 be3d 78ba 953d 0d6d 1a3c
000000e0: 5094 fcbd fa43 993d 7e9a 23be 99ea 33bd
000000f0: f062 f1bd faad 0ebd a799 023f b67f 943a

phi.initial_conv_module.0._layers.1.running_mean f4 [64]
-0.7730789 -0.6930558 -0.38745257 -1.1309158 0.19792734 -0.60476524 -0.67288566 -0.28979263
-0.15793991 0.91640043 -0.8835022 -0.6932598 -0.32760313 -0.86888593 -0.44771427 0.7367828
0.51332885 -0.5884298 0.12790768 0.22583547 0.041936472 -0.29954877 -0.9837454 -0.31898472
0.4192861 0.030101007 -0.22749405 -0.040275566 0.28068286 -0.9174838 0.23051433 0.04081144
0.10342671 0.42671445 0.13183255 0.008316731 0.5171976 -0.25745365 -0.13002212 0.86047024
0.8391248 -0.12514116 -0.4108862 -0.048567403 0.6058948 -0.46008223 -0.038559046 -0.12139264
0.5038704 -0.60428363 0.07302298 -0.34153062 1.8867899 0.22403869 0.20412222 -0.50398946
-0.5964581 0.04032498 0.21946397 0.4256484 -0.21533158 1.4109895 1.5423249 0.69820136
00000000: 80e8 45bf 1b6c 31bf 2f60 c6be d9c1 90bf
00000010: 77ad 4a3e e5d1 1abf 3c42 2cbf b35f 94be
00000020: 00bb 21be 3899 6a3f 332d 62bf 7979 31bf
00000030: 99bb a7be 4f6f 5ebf ce3a e5be cc9d 3c3f
00000040: 8569 033f 56a3 16bf 3bfa 023e 6a41 673e
00000050: 94c5 2b3d 755e 99be bdd6 7bbf f751 a3be
00000060: abac d63e 6396 f63c 33f4 68be fef7 24bd
00000070: aab5 8f3e 38e0 6abf f30b 6c3e e629 273d
00000080: 62d1 d33d 517a da3e 1dff 063e e642 083c
00000090: 1067 043f f7d0 83be 8524 05be c747 5c3f
000000a0: e2d0 563f 0125 00be ad5f d2be 9dee 46bd
000000b0: ec1b 1b3f e68f ebbe 17f0 1dbd b49c f8bd
000000c0: a7fd 003f 55b2 1abf 128d 953d 1add aebe
000000d0: 5582 f13f 666a 653e 6a05 513e 7405 01bf
000000e0: 7ab1 18bf ce2b 253d 2abb 603e 96ee d93e
000000f0: e27f 5cbe 4e9b b43f e76a c53f 53bd 323f

phi.initial_conv_module.0._layers.1.running_var f4 [64]
0.15113541 0.20614274 0.14585248 0.71370673 0.15153678 0.32386643 0.28327957 0.17153041
0.19329229 0.88850415 0.2474777 0.43349347 0.16550393 0.53002083 0.2459787 0.5729218
0.19235578 0.8012506 0.14668828 0.33345923 0.18520027 0.10527588 0.7072718 0.10316489
0.15008754 0.14226693 0.12014688 0.15385707 0.24631613 0.34147963 0.3047182 0.12184467
0.111383416 0.24516036 0.1575449 0.124003895 0.29805484 0.17318197 0.119843155 0.47449502
0.37056068 0.25759354 0.20370519 0.14713287 0.54326296 0.30081668 0.098623745 0.17004551
0.3070269 0.17568308 0.3815492 0.15920666 0.398681 0.063440725 0.10853706 0.17893676
0.17665742 0.18197952 0.1387258 0.26243225 0.16142496 0.6062849 1.2580214 0.40248048
00000000: 3ec3 1a3e 1517 533e 5a5a 153e 7cb5 363f
00000010: 752c 1b3e d2d1 a53e 050a 913e aba5 2f3e
00000020: 6aee 453e 0275 633f cb6a 7d3e dbf2 dd3e
00000030: dd79 293e 72af 073f d7e1 7b3e 01ab 123f
00000040: eaf8 443e c21e 4d3f 7435 163e 2bbb aa3e
00000050: 24a5 3d3e e19a d73d c40f 353f 1d48 d33d
00000060: 8cb0 193e 6cae 113e 910f f63d b58c 1d3e
00000070: 4c3a 7c3e 6bd6 ae3e 0604 9c3e b389 f93d
00000080: fd1c e43d 510b 7b3e 7353 213e c1f5 fd3d
00000090: a59a 983e 9d56 313e 5470 f53d 03f1 f23e
000000a0: 21ba bd3e 4de3 833e 1898 503e 00aa 163e
000000b0: 4813 0b3f a504 9a3e 3ffb c93d 6920 2e3e
000000c0: a132 9d3e 44e6 333e 6b5a c33e 1207 233e
000000d0: eb1f cc3e 36ed 813d ae48 de3d 333b 373e
000000e0: afe5 343e d758 3a3e 230e 0e3e 855d 863e
000000f0: 964c 253e 7d35 1b3f d806 a13f ec11 ce3e

phi.initial_conv_module.0._layers.4.conv.weight f4 [64, 1, 5]
-0.08587739 -0.0689391 -0.11868742 0.22316553 -0.54716545 -0.09302538 -0.35093054 0.31119618
0.26242015 -0.047531802 0.05447792 -0.19214858 -0.054402232 -0.23656851 -0.14958736 0.19130906
-0.0452043 -0.07565656 -0.13622199 -0.28654188 -0.3988783 0.16011924 0.26273593 0.22947894
0.024956398 -0.23517245 0.2630382 0.005162053 -0.23954263 -0.04845209 -0.34121546 -0.37947774
0.068086535 -0.14658912 0.049075782 -0.04468005 -0.22023703 0.06272396 -0.406603 -0.14532061
0.03207425 0.021821441 0.31187358 -0.011257443 -0.2344549 -0.2781354 0.0804572 0.03732256
0.0015344903 0.03043173 -0.18906012 0.4143031 -0.22084476 -0.6246306 -0.15847023 -0.31973323
0.4305298 -0.15395004 -0.24282692 -0.3871985 0.009221832 -0.18889286 -0.31167752 -0.19374143
0.13675697 0.5834978 0.32311818 -0.14299966 0.16099551 -0.07161069 -0.5170735 0.19443724
0.02556521 0.02838526 -0.33900985 -0.23169787 -0.063524164 0.22958183 0.18341908 -0.14900015
-0.00026157143 -0.44883728 0.019483848 -0.0025134955 -0.16916668 -0.07368538 0.1767958 -0.0943725
0.27571574 0.061000723 -0.030292641 0.001482007 -0.18277171 -0.12348052 -0.2877703 0.42399508
-0.03387016 0.32374406 0.21731283 -0.23150268 -0.32985184 -0.42084858 -0.028376019 0.32498625
0.18743141 0.2660125 0.009294462 0.70953506 0.124152265 0.05439631 0.094525695 0.27274668
-0.18632069 0.42610964 -0.34106112 -0.27160028 -0.1514224 0.15387784 -0.109689474 0.13142604
0.20358285 -0.07960165 -0.24924296 0.094613865 -0.35947272 0.5057948 0.142811 -0.12643278
0.031769093 -0.22540446 -0.14242719 -0.06620213 -0.1878141 0.29131898 0.20458472 -0.079760544
-0.05411694 -0.41511315 -0.50233346 0.15963307 -0.03627158 -0.08821634 0.38190493 0.3472766
-0.31092954 -0.3730247 0.19522642 -0.32089698 0.33537015 0.18853532 0.18625683 0.38200635
0.2993161 -0.19424567 0.103749685 -0.3749423 -0.14272818 -0.33070698 -0.32743308 0.15804462
-0.07330433 -0.16162504 0.036136393 0.14950116 0.11335595 0.3159698 -0.4657456 -0.3280007
0.29701957 -0.10753205 -0.13875572 -0.095885605 0.17300421 -0.08068149 0.33323216 -0.11410128
-0.037404817 0.2390038 0.19200595 0.24772161 0.0303315 -0.34897313 0.12092679 -0.482765
-0.05875391 -0.23610072 -0.32212758 -0.19270547 -0.17624004 0.34833127 0.13931172 0.05216727
-0.41488364 -0.045388885 -0.113946386 -0.18521997 0.19812238 0.048485238 0.26294023 -0.3594274
-0.39224115 -0.23399551 0.30703372 0.32551894 0.028663551 0.0046218284 -0.15145534 -0.18423693
-0.17042403 0.23049591 0.42117602 -0.3627075 -0.13631415 0.007335021 -0.46111494 -0.2914681
-0.19370139 0.032466423 -0.16682492 0.08601536 0.07262534 0.122004025 0.29232514 0.13198896
-0.33062536 0.19999242 0.04351917 0.3011566 -0.34787923 -0.00725289 -0.3444358 0.028318854
0.15823038 0.35147634 -0.2317407 0.14586352 -0.32963282 0.27034986 0.47934094 -0.09257939
0.38914707 -0.12631103 0.090908244 -0.13950017 -0.30288172 -0.3060366 -0.021177042 -0.33154532
-0.29747695 0.21372601 -0.060568865 0.1537734 0.16169156 0.3339114 0.3385303 0.19193456
00000000: 7ce0 afbd f12f 8dbd 6412 f3bd 8185 643e
00000010: 0913 0cbf 1784 bebd 2bad b3be 1b55 9f3e
00000020: ef5b 863e b5b0 42bd 3d24 5f3d 99c2 44be
00000030: e0d4 5ebd 043f 72be 6e2d 19be 86e6 433e
00000040: 2528 39bd d4f1 9abd c77d 0bbe 9eb5 92be
00000050: c739 ccbe 4cf6 233e 5385 863e 87fc 6a3e
00000060: 5c71 cc3c 0cd1 70be f1ac 863e 7026 a93b
00000070: aa4a 75be b375 46bd cbb3 aebe e84a c2be
00000080: f470 8b3d 751b 16be b003 493d 6e02 37bd
00000090: d185 61be 6b75 803d 452e d0be edce 14be
000000a0: 4a60 033d e1c2 b23c e5ad 9f3e 2371 38bc
000000b0: f214 70be c367 8ebe bfc6 a43d 8adf 183d
000000c0: f320 c93a f74b f93c fa98 41be 891f d43e
000000d0: 2125 62be cae7 1fbf 0546 22be 13b4 a3be
000000e0: 676e dc3e 14a5 1dbe 9fa7 78be e23e c6be
000000f0: 2b17 173c 216d 41be 3294 9fbe 2764 46be
00000100: 050a 0c3e 1d60 153f bf6f a53e 816e 12be
00000110: 02dc 243e a0a8 92bd ee5e 04bf 8e1a 473e
00000120: 226e d13c 3488 e83c b392 adbe 3542 6dbe
00000130: f518 82bd 8017 6b3e 36d2 3b3e 7f93 18be
00000140: 8623 89b9 00ce e5be 979c 9f3c 75b9 24bb
00000150: 083a 2dbe 5ce8 96bd f509 353e 5f46 c1bd
00000160: 9d2a 8d3e e5db 793d 4628 f8bc e73f c23a
00000170: 8228 3bbe 5be3 fcbd a156 93be e215 d93e
00000180: 70bb 0abd c8c1 a53e 4187 5e3e 0a0f 6dbe
00000190: 57e2 a8be 7779 d7be d374 e8bc 9964 a63e
000001a0: 05ee 3f3e ca32 883e cd47 183c 17a4 353f
000001b0: 8b43 fe3d aace 5e3d b096 c13d 74a5 8b3e
000001c0: daca 3ebe 0b2b da3e 909f aebe 310f 8bbe
000001d0: 790e 1bbe 2792 1d3e e0a4 e0bd 8c94 063e
000001e0: 0678 503e 3106 a3bd 8c39 7fbe eac4 c13d
000001f0: cf0c b8be c57b 013f 0c3d 123e 9877 01be
00000200: 4f20 023d 6dd0 66be 6fd8 11be fb94 87bd
00000210: 5752 40be c327 953e a87e 513e 7f59 a3bd
00000220: b9a9 5dbd b689 d4be ed98 00bf da76 233e
00000230: 8291 14bd c5aa b4bd 0b89 c33e 3dce b13e
00000240: 2832 9fbe 18fd bebe 6fe9 473e 9c4c a4be
00000250: a3b5 ab3e 670f 413e 1cba 3e3e 5696 c33e
00000260: f63f 993e 56e8 46be b77a d43d 70f8 bfbe
00000270: 5627 12be 6d52 a9be 4fa5 a7be 73d6 213e
00000280: 9520 96bd 0981 25be c103 143d d516 193e
00000290: 2a27 e83d cbc6 a13e 3576 eebe b5ef a7be
000002a0: f312 983e c339 dcbd fb15 0ebe ac5f c4bd
000002b0: 0428 313e 563c a5bd 689d aa3e efad e9bd
000002c0: cb35 19bd 6abd 743e 359d 443e bcaa 7d3e
000002d0: c479 f83c 9bac b2be 77a8 f73d f92c f7be
000002e0: f1a7 70bd 63c4 71be e8ed a4be 9554 45be
000002f0: 4578 34be 7a58 b23e bba7 0e3e 59ad 553d
00000300: a16b d4be b2e9 39bd b95c e9bd 4eaa 3dbe
00000310: 98e0 4a3e 7598 463d 1aa0 863e de06 b8be
00000320: d5d3 c8be 859c 6fbe 8633 9d3e 6baa a63e
00000330: d3cf ea3c b572 973b 1c17 1bbe 9ba8 3cbe
00000340: a383 2ebe 1f07 6c3e 62a4 d73e ccb4 b9be
00000350: f095 0bbe 9e5a f03b 4217 ecbe 4f3b 95be
00000360: a859 46be 83fb 043d 27d4 2abe d228 b03d
00000370: 98bc 943d 3fdd f93d a4ab 953e 1d28 073e
00000380: ba47 a9be d0ca 4c3e 2841 323d 3331 9a3e
00000390: 3a1d b2be a7a9 edbb e459 b0be f1fc e73c
000003a0: 2507 223e b5f4 b33e 6f4d 6dbe 3f5d 153e
000003b0: a2c5 a8be 4c6b 8a3e 2d6c f53e 439a bdbd
000003c0: 493e c73e ae57 01be 1a2e ba3d 22d9 0ebe
000003d0: 5013 9bbe d4b0 9cbe 7a7b adbc 4fc0 a9be
000003e0: e64e 98be feda 5a3e 0f17 78bd c676 1d3e
000003f0: 7992 253e 6ff6 aa3e d853 ad3e 7e8a 443e

phi.initial_conv_module.0._layers.5.weight f4 [64]
0.87948763 0.9299515 1.0156366 1.0187932 0.95542467 0.9858733 1.0348719 0.99056023
1.0056219 1.1263576 1.0421214 0.96540785 0.9009358 0.9158463 0.9730869 1.1191679
1.0525844 0.9979044 0.96721154 0.91958255 1.0169456 1.020256 0.8806133 0.9361141
1.0894966 0.8274495 0.96183264 1.0600567 0.8680668 1.1512383 0.96961266 1.0109967
0.9994818 1.0310884 0.946698 0.8794507 1.0887399 1.0576233 0.96639043 1.0527878
1.0119607 1.0694659 0.9331698 0.97386175 0.81680226 0.9223045 1.0997177 0.8256338
0.99058306 0.9463711 0.9010864 0.99736 1.051572 0.9260505 1.007334 1.0690715
0.9180204 0.9081525 0.93794054 1.0274388 0.9572698 1.1099842 1.2239677 1.0892965
00000000: 1a26 613f 4d11 6e3f 6100 823f d167 823f
00000010: b696 743f 3162 7c3f af76 843f 5b95 7d3f
00000020: 38b8 803f 7c2c 903f 3c64 853f f824 773f
00000030: bba3 663f e774 6a3f 391c 793f e540 8f3f
00000040: 16bb 863f aa76 7f3f 2d9b 773f c369 6b3f
00000050: 462b 823f c097 823f e06f 613f 2ca5 6f3f
00000060: a074 8b3f bbd3 533f aa3a 763f f0af 873f
00000070: a039 5e3f c75b 933f 8938 783f 5768 813f
00000080: 0ade 7f3f b4fa 833f cd5a 723f ae23 613f
00000090: d45b 8b3f 3360 873f 5d65 773f c0c1 863f
000000a0: ee87 813f 42e4 883f 37e4 6e3f 014f 793f
000000b0: f419 513f 261c 6c3f 8dc3 8c3f bd5c 533f
000000c0: da96 7d3f 6045 723f 99ad 663f fc52 7f3f
000000d0: e999 863f a511 6d3f 52f0 803f 56d7 883f
000000e0: 6303 6b3f af7c 683f df1c 703f 1d83 833f
000000f0: a20f 753f f613 8e3f f9aa 9c3f 116e 8b3f

phi.initial_conv_module.0._layers.5.bias f4 [64]
0.070701465 -0.09440345 0.12511994 0.16088207 0.21344145 0.06833748 0.15467043 0.015187474
0.18066193 -0.03455221 0.042415842 0.057673972 -0.07644052 -0.04093988 0.094656356 0.21119888
0.112431355 0.046025265 0.10669712 -0.08003173 0.21067479 0.09198294 -0.017596914 0.14416306
-0.052593853 0.079299405 0.108355254 -0.0910723 0.0047318405 0.19872062 0.16143136 0.050015114
0.0746361 -0.02138417 0.1763895 -0.10765624 -0.010160696 -0.05457998 0.08887712 0.034353882
0.44165623 0.009571347 0.14068587 0.086737394 0.014142658 -0.08453943 -0.059205376 -0.21132727
0.3192453 -0.013510999 -0.06760711 0.10917494 0.36228004 0.013269577 0.19826356 0.09868534
0.18381356 0.27064815 0.22334 0.15026689 0.036283284 -0.03793139 0.24556705 0.14007442
00000000: eecb 903d 9956 c1bd 711f 003e 45be 243e
00000010: 6590 5a3e 85f4 8b3d ed61 1e3e e2d4 783c
00000020: 71ff 383e 9e86 0dbd 3cbc 2d3d 8b3b 6c3d
00000030: d98c 9cbd 93b0 27bd 31db c13d 8544 583e
00000040: 6942 e63d fd84 3c3d 0584 da3d ade7 a3bd
00000050: 22bb 573e 8d61 bc3d 6727 90bc 7b9f 133e
00000060: a76c 57bd ba67 a23d 5ce9 dd3d 1d84 babd
00000070: 8e0d 9b3b 6b7d 4b3e 434e 253e a6dc 4c3d
00000080: d0da 983d db2d afbc 739f 343e e07a dcbd
00000090: 0c79 26bc 428f 5fbd 3505 b63d a8b6 0c3d
000000a0: c420 e23e 24d1 1c3c f50f 103e 60a3 b13d
000000b0: 9bb6 673c 0223 adbd 5681 72bd 2d66 58be
000000c0: 1f74 a33e 3d5d 5dbc 9975 8abd 1c97 df3d
000000d0: c57c b93e a468 593c 9a05 4b3e 8a1b ca3d
000000e0: 9f39 3c3e 6592 8a3e 3eb3 643e 90df 193e
000000f0: c89d 143d f25d 1bbd ee75 7b3e ab6f 0f3e

phi.initial_conv_module.0._layers.5.running_mean f4 [64]
-0.09902928 0.008653252 -0.116098635 -0.076753676 0.033921167 -0.03295324 -0.115989685 -0.082798004
0.02351408 -0.022576107 -0.15969267 -0.14208934 -0.087324694 0.1114372 -0.07496649 -0.0069977716
-0.043555286 0.036832783 -0.055599455 0.06457904 -0.03781837 0.1268953 0.013270938 -0.029474214
-0.06349986 0.009348778 0.023990925 -0.100860715 0.054745633 0.009458579 0.18471117 -0.16568528
0.013324257 -0.04598789 0.019733911 0.053403992 -0.05257368 -0.090411365 -0.06565101 -0.0039627748
0.017074851 -0.010787419 -0.08324981 -0.08381541 0.03169266 0.015063085 -0.0051035746 0.025391148
-0.021619512 -0.03797469 0.14373305 -0.050316 0.022323273 -0.10291421 -0.11989393 -0.0021750457
0.025366537 -0.04349667 0.009526683 -0.040072694 0.0387455 -0.03387191 -0.014728938 0.0010575207
00000000: ddcf cabd 5fc6 0d3c 1fc5 edbd 0831 9dbd
00000010: ecf0 0a3d faf9 06bd 008c edbd 0092 a9bd
00000020: 9aa0 c03c 87f1 b8bc 7a86 23be de7f 11be
00000030: 4ad7 b2bd 3039 e43d 0888 99bd 904d e5bb
00000040: 0767 32bd f9dd 163d 41bc 63bd 0442 843d
00000050: 6fe7 1abd d7f0 013e 596e 593c e873 f1bc
00000060: 370c 82bd 9e2b 193c 9e88 c43c 1090 cebd
00000070: f53c 603d 28f8 1a3c ed24 3d3e 67a9 29be
00000080: fc4d 5a3c cc5d 3cbd 03a9 a13c 25be 5a3d
00000090: 8057 57bd 9829 b9bd 0974 86bd 2ada 81bb
000000a0: 8fe0 8b3c b7bd 30bc e07e aabd 6aa7 abbd
000000b0: 2ad0 013d 28cb 763c e33b a7bb 1901 d03c
000000c0: 671b b1bc 598b 1bbd c22e 133e 2618 4ebd
000000d0: 4cdf b63c afc4 d2bd f38a f5bd 368b 0ebb
000000e0: 7ccd cf3c 9029 32bd ce15 1c3c 4423 24bd
000000f0: 9ab3 1e3d 46bd 0abd a551 71bc 829c 8a3a

phi.initial_conv_module.0._layers.5.running_var f4 [64]
0.115716465 0.011922921 0.11601447 0.027648026 0.06945499 0.020295134 0.14274485 0.08451087
0.023891386 0.008680105 0.3107645 0.08885214 0.06886241 0.089907825 0.099701904 0.009296572
0.06881093 0.039838 0.04849349 0.077179275 0.04906021 0.30339408 0.01198002 0.025828507
0.025157902 0.027910553 0.027600497 0.2642966 0.062937625 0.0052565294 0.42544377 0.36921826
0.017582886 0.025597455 0.02278635 0.077563554 0.07034711 0.14093018 0.07803207 0.003619025
0.03786969 0.015096187 0.07846585 0.02978512 0.015593851 0.009137296 0.01625649 0.08961027
0.028034074 0.0994428 0.061833184 0.03240295 0.025415637 0.11364878 0.15983212 0.022156915
0.027093427 0.041123796 0.21141845 0.037084248 0.08871983 0.027015299 0.022497611 0.015899196
00000000: c1fc ec3d 5b58 433c ff98 ed3d 1d7e e23c
00000010: 6b3e 8e3d fb41 a63c b52b 123e 0914 ad3d
00000020: deb7 c33c 0037 0e3c 861c 9f3e 1cf8 b53d
00000030: bc07 8d3d 9821 b83d 8330 cc3d a650 183c
00000040: bfec 8c3d 2c2d 233d 1ca1 463d 2b10 9e3d
00000050: 5cf3 483d 7856 9b3e d947 443c 4e96 d33c
00000060: f217 ce3c aca4 e43c 701a e23c e251 873e
00000070: 71e5 803d f73e ac3b c4d3 d93e 2d0a bd3e
00000080: fc09 903c c1b1 d13c 71aa ba3c a4d9 9e3d
00000090: 2512 903d 0050 103e 47cf 9f3d 2a2d 6d3b
000000a0: 401d 1b3d ff55 773c b4b2 a03d edff f33c
000000b0: 5a7d 7f3c 99b4 153c 552c 853c 9785 b73d
000000c0: b7a7 e53c aba8 cb3d cb44 7d3d f5b8 043d
000000d0: 7434 d03c b1c0 e83d 08ab 233e 6b82 b53c
000000e0: 09f3 dd3c 6d71 283d 147e 583e a7e5 173d
000000f0: beb2 b53d 304f dd3c e94c b83c 083f 823c

phi.initial_conv_module.0._layers.7.se_conv.conv.weight f4 [10, 64, 1]
0.013714141 0.03317935 -0.06695937 -0.22204924 -0.14275397 0.045300398 -0.026421554 0.083456166
0.011963091 0.11293485 -0.13512228 0.20312864 0.14302735 0.12920895 0.15676643 0.19263487
0.21307221 -0.060044535 0.04399356 0.029102651 0.025575776 0.2900907 -0.18135649 -0.15843463
0.18560931 -0.11388888 0.181544 -0.02531798 0.07267203 0.2851451 0.035937604 0.10844174
0.3203417 0.329795 -0.054007333 -0.0037297437 0.16837609 0.38963974 0.14489542 0.010545642
-0.035302423 0.08976729 0.13887963 0.045972623 0.10217079 0.11432015 0.06269068 -0.13900496
0.11750079 -0.17754935 0.055790443 0.080161154 -0.31343856 -0.09201792 0.15617496 0.2894808
0.2917569 0.24013227 0.026035925 -0.04313506 0.21453027 0.3735617 0.089885846 0.09218596
0.113183916 -0.10615154 0.035632484 0.018818054 0.2689407 0.07934421 0.23199485 -0.28675956
0.029399252 0.096201286 0.10510102 -0.19745345 0.21096075 0.1522185 -0.043239187 0.15103796
-0.08337176 0.23914559 -0.038086284 0.09110986 -0.103958905 0.092336506 0.19934513 0.20081486
0.21873109 0.06609114 -0.024076842 0.09545018 -0.06745608 0.32039696 -0.41048184 0.11972141
0.10012804 0.19976194 -0.06434859 0.07750632 0.19219917 -0.25461265 -0.122596174 0.010171151
0.50395596 0.11219317 0.08397575 0.005425022 0.072064005 -0.38559967 -0.30842024 -0.3533713
0.09608671 0.04309269 -0.019750778 0.08905512 0.2467069 0.06261631 0.23175292 0.21938866
0.05753158 0.06436883 0.09766476 0.0063473233 -0.12744628 0.059160814 0.30372882 0.26641646
0.14782068 -0.2186966 0.15767218 0.37743795 0.17630409 0.010520996 0.39979976 -0.020667985
-0.018847596 0.12537047 0.2260413 -0.0076179 -0.1551504 -0.1390738 0.16038866 0.23597041
-0.10160738 0.1504564 0.23441362 -0.02401173 -0.069899306 -0.0936955 0.049473923 0.07344418
0.17483285 0.025415817 -0.3731048 -0.1097833 0.21852675 -0.18915357 -0.11728439 0.12580207
-0.16215444 -0.016040348 -0.19263473 -0.09928709 0.18034601 -0.21775195 -0.001960181 0.11624876
0.20911984 0.1079764 -0.030431857 0.13352184 0.14883542 -0.2135904 -0.16435814 -0.15770495
0.055859324 -0.05450015 -0.24605004 0.20686948 0.50128 0.019865904 0.08268384 0.15473855
0.102616355 0.0680042 0.16841827 0.03304195 -0.109006196 -0.09018442 0.17842966 0.43077862
0.011583394 0.04104711 0.1278495 0.22703226 0.29759333 0.04686274 -0.02292877 0.07794863
0.09117006 -0.050648805 0.13804545 0.13008022 0.07596983 0.007902498 0.14036037 0.09378122
0.18699874 -0.10003628 0.1654914 -0.012066894 0.26450193 0.08781893 -0.09651387 0.1261145
0.012519336 0.2358681 0.27468625 0.16090345 0.010861354 0.0622174 0.3765926 0.019469718
0.042751737 -0.15461916 0.2559627 0.11142859 -0.10952776 0.11447222 0.092675604 -0.055973496
-0.113607526 -0.15285686 0.1267686 -0.049414553 -0.055688933 0.34638178 0.122199886 0.041362606
-0.02953184 0.09332851 -0.04284386 -0.017998058 -0.06763616 -0.01031211 -0.02241134 -0.17697524
-0.17344648 0.04012022 0.099900655 0.19598037 -0.017417127 -0.14195569 -0.057991907 -0.1594795
00000000: 47b1 603c 12e7 073d ff21 89bd e060 63be
00000010: 192e 12be e98c 393d 0472 d8bc 11eb aa3d
00000020: d700 443c 634a e73d 7f5d 0abe f400 503e
00000030: c375 123e 5a4f 043e 6187 203e 1342 453e
00000040: 9a2f 5a3e 42f1 75bd 9732 343d af68 ee3c
00000050: 4a84 d13c c586 943e 84b5 39be b03c 22be
00000060: 5e10 3e3e 933e e9bd ace6 393e a767 cfbc
00000070: 13d5 943d 8afe 913e 4f33 133d b416 de3d
00000080: d403 a43e e4da a83e cb36 5dbd b76e 74bb
00000090: c86a 2c3e dc7e c73e 775f 143e a1c7 2c3c
000000a0: 4699 10bd ead7 b73d 7636 0e3e ca4d 3c3d
000000b0: eb3e d13d af20 ea3d f963 803d 5157 0ebe
000000c0: 41a4 f03d 7fcf 35be 8584 643d 882b a43d
000000d0: 057b a0be e473 bcbd 54ec 1f3e d436 943e
000000e0: 2961 953e 3ce5 753e 4b49 d53c 64ae 30bd
000000f0: d3ad 5b3e 7b43 bf3e 1216 b83d fecb bc3d
00000100: f8cc e73d fb65 d9bd 5ef3 113d 5228 9a3c
00000110: 98b2 893e 387f a23d 0f90 6d3e 26d2 92be
00000120: b3d6 f03c 2e05 c53d 343f d73d 3d31 4abe
00000130: 1806 583e 2bdf 1b3e 931b 31bd b2a9 1a3e
00000140: d0be aabd 95e2 743e 5d00 1cbd ce97 ba3d
00000150: 68e8 d4bd ec1a bd3d 2121 4c3e 69a2 4d3e
00000160: 0bfb 5f3e cb5a 873d cc3c c5bc 627b c33d
00000170: 6a26 8abd 120b a43e ad2a d2be 8030 f53d
00000180: ee0f cd3d 658e 4c3e 32c9 83bd a2bb 9e3d
00000190: dccf 443e 975c 82be b413 fbbd e6a4 263c
000001a0: 4203 013f 88c5 e53d 7afb ab3d 62c4 b13b
000001b0: 4b96 933d 526d c5be 42e9 9dbe 15ed b4be
000001c0: 1cc9 c43d f681 303d 62cc a1bc 8862 b63d
000001d0: bca0 7c3e fb3c 803d a350 6d3e 6ca7 603e
000001e0: 3ca6 6b3d ced3 833d 7604 c83d 35fd cf3b
000001f0: 4781 02be 9c52 723d 5882 9b3e bd67 883e
00000200: 4e5e 173e 00f2 5fbe d174 213e 8c3f c13e
00000210: 0f89 343e 4160 2c3c 8eb2 cc3e e84f a9bc
00000220: 4666 9abc 1e61 003e 5f77 673e 949f f9bb
00000230: bfdf 1ebe 5d69 0ebe ed3c 243e 3aa2 713e
00000240: 8817 d0bd 3e11 1a3e 200a 703e 3fb4 c4bc
00000250: 5e27 8fbd 6de3 bfbd 2ba5 4a3d e769 963d
00000260: 6207 333e d534 d03c 9807 bfbe 11d6 e0bd
00000270: 7ac5 5f3e 79b1 41be cc32 f0bd 42d2 003e
00000280: d00b 26be 0c67 83bc 0a42 45be 0857 cbbd
00000290: a0ac 383e 5efa 5ebe 6176 00bb d413 ee3d
000002a0: 8323 563e bb22 dd3d 3b4c f9bc f3b9 083e
000002b0: 5068 183e 71b7 5abe 804d 28be 687d 21be
000002c0: bfcc 643d 8d3b 5fbd 8bf4 7bbe 98d5 533e
000002d0: e353 003f d2bd a23c 2556 a93d c873 1e3e
000002e0: 8628 d23d c945 8b3d d775 2c3e ff56 073d
000002f0: a43e dfbd 9cb2 b8bd 44b6 363e 048f dc3e
00000300: 47c8 3d3c 0421 283d fbea 023e 257b 683e
00000310: 275e 983e 25f3 3f3d 1ed5 bbbc 88a3 9f3d
00000320: 5eb7 ba3d 1f75 4fbd c95b 0d3e c033 053e
00000330: 1296 9b3d 7b79 013c a1ba 0f3e 5e10 c03d
00000340: 997c 3f3e d2df ccbd 9476 293e 39b4 45bc
00000350: cc6c 873e 69da b33d 10a9 c5bd 2924 013e
00000360: e71d 4d3c 6887 713e ada3 8c3e e0c3 243e
00000370: d2f3 313c acd7 7e3d bfd0 c03e f57e 9f3c
00000380: 721c 2f3d 7c54 1ebe 8b0d 833e ac34 e43d
00000390: 1750 e0bd 6970 ea3d b5cc bd3d 7744 65bd
000003a0: 10ab e8bd 8286 1cbe a1cf 013e ea66 4abd
000003b0: 141a 64bd f458 b13e ef43 fa3d d66b 293d
000003c0: c2ec f1bc 0523 bf3d 0b7d 2fbd aa70 93bc
000003d0: d484 8abd 20f4 28bc fd97 b7bc ff38 35be
000003e0: f49b 31be 1a55 243d b798 cc3d 14af 483e
000003f0: 5dae 8ebc d55c 11be ec88 6dbd 984e 23be

phi.initial_conv_module.0._layers.7.se_conv2.conv.weight f4 [64, 10, 1]
-0.047841232 -0.39261037 0.06996495 -0.09284245 -0.11190032 0.2719527 0.1998745 -0.33332962
0.12692818 0.17326382 -0.0770561 0.5424923 0.39064702 -0.16901149 0.36084095 -0.1962178
-0.29315764 -0.030452322 -0.09706462 -0.057975527 0.11023538 -0.46455172 -0.4341207 0.1998587
0.04931185 -0.040666763 -0.14509603 -0.17754368 -0.316531 0.119667485 0.31286186 0.4162086
-0.0720766 -0.24516168 -0.13133179 -0.13625534 -0.1334723 -0.034407727 0.061991647 -0.23956649
0.18712609 0.06846641 0.014667534 -0.38814145 0.25058296 -0.40698904 0.07574287 0.3315479
-0.20247625 -0.37608856 -0.4513437 0.54737735 0.1582029 -0.040841747 -0.19696896 0.046980694
0.087278806 -0.3159943 -0.16398795 -0.10016116 0.27547932 -0.33562517 -0.2603794 -0.017794186
-0.14393574 -0.10462789 -0.45416114 -0.19614938 -0.43274713 0.019401202 -0.37642422 -0.3049696
-0.11507397 0.04393719 0.1005606 0.19291855 -0.21899626 -0.18251991 0.04052914 -0.09157108
-0.02089914 -0.14636758 0.052874185 -0.034878764 0.31152374 -0.41916785 -0.050098933 -0.3224038
-0.15783648 0.16469963 0.11119122 -0.011571368 0.1668992 0.16051169 -0.046954766 0.057423428
-0.30452368 -0.31059444 -0.09464762 -0.10594476 0.31249195 0.06661289 -0.084061995 0.17180432
-0.36959323 -0.089546934 -0.02804846 -0.04336276 0.26098686 -0.16222255 -0.014827169 0.03274739
0.45526618 -0.036193114 0.24978901 -0.17751086 -0.027218796 -0.49990094 -0.31381044 0.12675488
0.08354216 -0.12121218 -0.090241835 -0.33023795 -0.17963015 -0.1515411 0.11754752 0.14296937
0.18194161 0.057290595 -0.008762827 -0.12976149 0.40963832 -0.12827994 0.24937835 0.11998307
0.11684282 -0.30368754 0.14538339 -0.051007733 -0.09058823 0.010637788 0.122323245 -0.3370733
0.00035313188 0.18408117 -0.29811674 -0.22778982 0.14117523 -0.07378968 -0.017106848 -0.21540916
-0.27395105 0.4350288 0.2182077 -0.19162066 -0.20891783 -0.41719177 0.09561697 -0.0006054402
-0.48910743 0.15807378 0.31423932 -0.042869296 -0.08326942 -0.14172675 -0.36228186 -0.08331402
-0.14210877 0.2160886 -0.16691308 0.050520647 0.3640407 -0.048383947 0.13569292 -0.1100556
-0.088973455 0.028150577 0.3250218 -0.13050522 0.20204593 0.086473815 -0.47143835 0.13137525
0.13868083 -0.062488392 -0.37060028 0.16871664 -0.199757 0.11035439 -0.34356937 -0.26993257
0.025592383 0.05086242 0.16326012 -0.12460628 -0.08818679 -0.31384835 -0.3311633 -0.2670649
0.0124307815 -0.22471686 0.2666449 -0.2548093 -0.07751484 -0.43057945 -0.09723377 0.26829475
0.21611944 -0.30548975 -0.31056365 0.004493866 0.099075794 -0.10336628 0.47407007 -0.17462246
0.024573281 -0.15856597 -0.21707833 -0.006190001 -0.024368199 -0.19640258 -0.19923796 0.00057865574
0.109283194 0.20796083 -0.27883488 -0.26302665 -0.16037087 0.026745385 -0.34495032 0.18965122
-0.13490698 0.13774064 0.0645507 0.20412739 0.18135728 0.053910717 0.29712218 0.1058456
-0.29005834 -0.26544642 -0.31195682 0.27747354 -0.18683258 -0.1837177 0.0533073 -0.17666307
-0.117050484 -0.34038925 -0.033419747 -0.34301564 0.20668747 -0.17448595 0.22166778 0.20916359
00000000: 2bf5 43bd 3a04 c9be c949 8f3d 2f24 bebd
00000010: ff2b e5bd 623d 8b3e e7ab 4c3e 2eaa aabe
00000020: 76f9 013e 126c 313e 97cf 9dbd c6e0 0a3f
00000030: e302 c83e 5911 2dbe 25c0 b83e 52ed 48be
00000040: c218 96be 2677 f9bc d1c9 c6bd bf77 6dbd
00000050: 16c3 e13d b9d9 edbe 1245 debe c2a7 4c3e
00000060: 39fb 493d 3192 26bd 0e94 14be 03ce 35be
00000070: 5a10 a2be 3a14 f53d 6e2f a03e 4b19 d53e
00000080: e59c 93bd aa0b 7bbe d77b 06be 8586 0bbe
00000090: f6ac 08be 1eef 0cbd f4ea 7d3d eb50 75be
000000a0: fb9d 3f3e 1e38 8c3d 1950 703c 7aba c6be
000000b0: 694c 803e de60 d0be 141f 9b3d a5c0 a93e
000000c0: ef55 4fbe ae8e c0be 8516 e7be ec20 0c3f
000000d0: f1ff 213e ad49 27bd 3bb2 49be d46e 403d
000000e0: 3bbf b23d 01ca a1be 75ec 27be 4b21 cdbd
000000f0: a00b 8d3e 10d7 abbe 7350 85be 1dc5 91bc
00000100: e463 13be 2647 d6bd cf87 e8be 62db 48be
00000110: 0891 ddbe 45ef 9e3c adba c0be fa24 9cbe
00000120: e7ab ebbd 7cf7 333d b7f2 cd3d 718c 453e
00000130: 8e40 60be 80e6 3abe e201 263d 9e89 bbbd
00000140: ac34 abbc 62e1 15be 9a92 583d 09dd 0ebd
00000150: 0a80 9f3e 2b9d d6be 8a34 4dbd 1c12 a5be
00000160: e39f 21be 05a7 283e 39b8 e33d d695 3dbc
00000170: a0e7 2a3e 2d5d 243e a453 40bd d434 6b3d
00000180: 87ea 9bbe 3c06 9fbe 9dd6 c1bd 91f9 d8bd
00000190: f2fe 9f3e 576c 883d b228 acbd 79ed 2f3e
000001a0: 533b bdbe 6264 b7bd e2c5 e5bc 269d 31bd
000001b0: 12a0 853e ab1d 26be a7ed 72bc 2122 063d
000001c0: a618 e93e 3b3f 14bd b1c8 7f3e 68c5 35be
000001d0: f4f9 debc 04f3 ffbe c3ab a0be 08cc 013e
000001e0: 2718 ab3d 173e f8bd b6d0 b8bd f314 a9be
000001f0: f7f0 37be 972d 1bbe c1bc f03d 9066 123e
00000200: e74e 3a3e 8ba9 6a3d f691 0fbc 32e0 04be
00000210: 1dbc d13e d15b 03be 0a5d 7f3e afb9 f53d
00000220: 4a4b ef3d ef7c 9bbe 62df 143e 7ced 50bd
00000230: 5286 b9bd 1e4a 2e3c 9c84 fa3d df94 acbe
00000240: 8f24 b939 c67f 3c3e c2a2 98be bc41 69be
00000250: 3d90 103e 0b1f 97bd a923 8cbc 3894 5cbe
00000260: 5043 8cbe 18bc de3e d771 5f3e 3538 44be
00000270: 8eee 55be 299a d5be d4d2 c33d 67b6 1eba
00000280: 4a6c fabe 18de 213e fae3 a03e b797 2fbd
00000290: 2889 aabd d120 11be 027d b9be 8aa0 aabd
000002a0: f684 11be 5446 5d3e 43eb 2abe bdee 4e3d
000002b0: 8b63 ba3e 3f2e 46bd 16f3 0a3e d564 e1bd
000002c0: b737 b6bd 0a9c e63c 4269 a63e 29a3 05be
000002d0: 21e5 4e3e 2f19 b13d 5e60 f1be 3c87 063e
000002e0: 5902 0e3e d4f3 7fbd 52bf bdbe 0ec4 2c3e
000002f0: 198d 4cbe 7c01 e23d 53e8 afbe 9a34 8abe
00000300: 1ea7 d13c 1d55 503d a92d 273e 9431 ffbd
00000310: 479b b4bd bbb0 a0be 3c8e a9be bbbc 88be
00000320: 7aaa 4b3c 2d1c 66be ae85 883e 5d76 82be
00000330: 1ac0 9ebd e974 dcbe 8022 c7bd ee5d 893e
00000340: 6a4e 5d3e 2769 9cbe 3302 9fbe 4841 933b
00000350: 40e8 ca3d b3b1 d3bd 50b9 f23e 3bd0 32be
00000360: e84d c93c 1e5f 22be c849 5ebe 7ed5 cabb
00000370: d19f c7bc c21d 49be 0905 4cbe eeb0 173a
00000380: decf df3d aff3 543e 72c3 8ebe 6eab 86be
00000390: 4338 24be 2319 db3c 549d b0be ee33 423e
000003a0: 0e25 0abe e20b 0d3e 2833 843d c506 513e
000003b0: b9b5 393e 7cd1 5c3d 6620 983e 94c5 d83d
000003c0: 8782 94be 98e8 87be ceb8 9fbe 0311 8e3e
000003d0: 0a51 3fbe 7e20 3cbe c158 5a3d 2ae7 34be
000003e0: 2ab8 efbd 8047 aebe 25e3 08bd bf9f afbe
000003f0: e1a5 533e 72ac 32be e1fc 623e fb2e 563e

phi.initial_conv_module.0._layers.8.conv.weight f4 [32, 64, 1]
-0.07027106 0.023887292 -0.08514211 0.0071367905 0.050249312 0.045757644 -0.17422444 -0.064965785
-0.07565287 0.1681926 0.012735902 0.06573925 0.072487466 -0.031624548 -0.03424272 0.007416886
0.060180288 0.13070355 -0.025637398 -0.0005927252 0.024658974 0.060341097 -0.013820799 -0.061766773
0.11552525 0.012108354 0.049143523 0.05375014 -0.011819006 -0.15304123 -0.0039278218 0.12282348
0.02519878 0.019992286 0.10046855 -0.017820828 -0.20718615 -0.019550253 -0.021026881 -0.27621168
-0.078275 -0.20951746 -0.109810136 -0.017018205 -0.09879181 0.019671023 -0.03672499 0.0032305624
-0.115928955 0.047111038 0.029390719 -0.033517834 -0.06697912 -0.06710057 0.005982022 -0.047132257
0.024827069 0.06338843 -0.08610654 0.09389281 -0.16648172 -0.0018411706 -0.19783299 -0.017766515
0.0010961253 -0.08808566 0.060009763 -0.10647078 -0.042219527 -0.15254325 0.015791228 -0.110430144
0.017890353 -0.046587456 0.18931526 0.098471686 0.012293018 0.047444806 0.023368437 0.11253282
0.08361891 -0.036316037 -0.02565434 0.036528755 0.005663513 -0.044667143 0.010524638 -0.052006397
0.0119136665 -0.06291421 -0.046229284 0.04534601 -0.1147229 -0.18060926 -0.005004877 -0.118485875
-0.017711869 -0.072515234 0.09519897 0.02375781 -0.050745234 -0.05785004 -0.1366911 -0.0019228555
0.053553436 0.043714553 -0.035346657 -0.008111437 0.041123662 -0.10701071 0.09721473 -0.03941841
0.00020533161 0.0028885424 0.011599879 -0.08380884 0.05628155 -0.086372875 0.16294679 -0.0488937
0.1566141 -0.04771783 -0.07300034 0.10594974 0.0045016557 -0.08836758 -0.2625605 0.05008421
-0.07251022 0.15601063 -0.053188913 -0.012161234 0.010510361 -0.16195002 0.060260158 -0.06713332
-0.0039516995 0.024330098 -0.016164167 -0.10079029 -0.004192198 0.041801948 -0.11102488 -0.07508225
-0.124803014 0.10933211 -0.01850782 0.14910518 0.19641343 0.019709298 0.06231278 0.07702166
0.009904197 -0.090691246 0.026415475 0.08405064 -0.060551748 0.19433284 -0.17006059 -0.029685242
-0.13703503 -0.034363072 0.006646568 -0.017130742 0.13296087 -0.07120322 0.03959731 -0.07210805
0.13583662 -0.05396091 -0.08867044 -0.025789725 -0.056804806 -0.0057154084 -0.05699724 -0.011014598
-0.017448885 -0.0736464 -0.028013352 0.049423806 -0.09229197 -0.00018351601 -0.067055926 0.097318426
-0.0749733 0.018698856 -0.07987072 0.06518444 -0.030002372 0.0439283 -0.063491374 0.0061648763
0.09153497 0.08378233 0.16604196 -0.14744873 -0.08507719 -0.13131721 0.040584538 -0.037679885
0.055489935 -0.117258586 -0.03873083 0.1605534 0.048787974 0.053237956 -0.051344622 -0.014929934
0.11618542 -0.018718172 -0.078829244 -0.027722457 -0.10389241 0.058576707 0.086825155 0.0010802236
-0.09484035 0.041579895 -0.0062659825 0.014962062 0.013628744 -0.026451379 -0.1935272 -0.02693503
-0.036695756 0.08226826 0.08681846 0.054714672 0.021939328 -0.060040046 0.068636596 -0.12605506
0.08430445 0.007018428 -0.062271256 -0.21178272 0.03941236 -0.103768155 -0.003798811 -0.06397599
0.056050662 -0.09733555 0.12468164 -0.15913792 -0.15128118 -0.012236033 -0.07237916 0.09393726
0.03023465 0.078597374 0.06987117 -0.02380019 0.101391196 -0.05418744 -0.20084466 0.03016283
00000000: 46ea 8fbd 48af c33c fd5e aebd bddb e93b
00000010: 39d2 4d3d 5e6c 3b3d e467 32be c80c 85bd
00000020: e4ef 9abd ae3a 2c3e 3faa 503c 4da2 863d
00000030: 4f74 943d be88 01bd 1842 0cbd 5909 f33b
00000040: 9b7f 763d 27d7 053e 8505 d2bc 1d61 1bba
00000050: 9e01 ca3c 3a28 773d a270 62bc 28ff 7cbd
00000060: 8198 ec3d 1e62 463c b84a 493d 1b29 5c3d
00000070: 81a4 41bc d7b6 1cbe f5b4 80bb e08a fb3d
00000080: ac6d ce3c ddc6 a33c 75c2 cd3d fcfc 91bc
00000090: 9b28 54be da27 a0bc 9140 acbc 9e6b 8dbe
000000a0: a54e a0bd bf8b 56be 23e4 e0bd c369 8bbc
000000b0: 5c53 cabd 2025 a13c f16c 16bd d8b7 533b
000000c0: 296c edbd 81f7 403d cec4 f03c ff49 09bd
000000d0: 592c 89bd 066c 89bd d604 c43b c10d 41bd
000000e0: 2362 cb3c cbd1 813d a058 b0bd e04a c03d
000000f0: 2f7a 2abe 6f53 f1ba bb94 4abe 158b 91bc
00000100: ddab 8f3a 4166 b4bd cccc 753d 5a0d dabd
00000110: 62ee 2cbd 4c34 1cbe 9b5c 813c 3329 e2bd
00000120: ca8e 923c 7dd2 3ebd dcdb 413e 86ab c93d
00000130: a868 493c 7c55 423d 2a6f bf3c 9b77 e63d
00000140: 6440 ab3d 20c0 14bd 0d29 d2bc 2d9f 153d
00000150: fe94 b93b e5f4 36bd 886f 2c3c a904 55bd
00000160: 8a31 433c 2ad9 80bd eb5a 3dbd bdbc 393d
00000170: d7f3 eabd a2f1 38be f4ff a3bb b9a8 f2bd
00000180: 7b18 91bc de82 94bd adf7 c23d bd9f c23c
00000190: 3cda 4fbd 2af4 6cbd c0f8 0bbe 5308 fcba
000001a0: d95a 5b3d 080e 333d a8c7 10bd d5e5 04bc
000001b0: 4971 283d 6e28 dbbd 8418 c73d 3375 21bd
000001c0: 494e 5739 b34d 3d3b 6b0d 3e3c f8a3 abbd
000001d0: 7c87 663d 43e4 b0bd 86db 263e c344 48bd
000001e0: 725f 203e c573 43bd 3481 95bd 2dfc d83d
000001f0: a082 933b 10fa b4bd 546e 86be 1a25 4d3d
00000200: 3d80 94bd 40c1 1f3e 9edc 59bd ea3f 47bc
00000210: a633 2c3c 3ad6 25be 5bd3 763d 327d 89bd
00000220: 427d 81bb ea4f c73c b76a 84bc 246b cebd
00000230: b55e 89bb 8538 2b3d 0361 e3bd b9c4 99bd
00000240: b998 ffbd 83e9 df3d b69d 97bc 07af 183e
00000250: 9a20 493e 6575 a13c b03b 7f3d 88bd 9d3d
00000260: 3745 223c 55bc b9bd 4465 d83c be22 ac3d
00000270: 1c05 78bd 30ff 463e 5d24 2ebe 772e f3bc
00000280: e952 0cbe 4bc0 0cbd 74cb d93b c555 8cbc
00000290: e526 083e fed2 91bd ca30 223d 63ad 93bd
000002a0: c118 0b3e 1d06 5dbd d998 b5bd f944 d3bc
000002b0: 28ac 68bd 5248 bbbb f075 69bd 9376 34bc
000002c0: f7f0 8ebc ecd3 96bd 427c e5bc 9e70 4a3d
000002d0: 9303 bdbd 346e 40b9 9e54 89bd e24e c73d
000002e0: 9a8b 99bd 582e 993c 4393 a3bd 6b7f 853d
000002f0: 89c7 f5bc 29ee 333d c407 82bd bb02 ca3b
00000300: b076 bb3d 1296 ab3d e706 2a3e cdfc 16be
00000310: f33c aebd 0578 06be f93b 263d 3956 1abd
00000320: 6a49 633d 4525 f0bd 38a4 1ebd 1c68 243e
00000330: e6d5 473d 0b10 5a3d bd4e 52bd af9c 74bc
00000340: 9ff2 ed3d da56 99bc 3a71 a1bd 351a e3bc
00000350: 8bc5 d4bd 21ee 6f3d 63d1 b13d 4a96 8d3a
00000360: a83b c2bd ae4f 2a3d df52 cdbb 7023 753c
00000370: 184b 5f3c 90b0 d8bc ff2b 46be daa6 dcbc
00000380: 4a4e 16bd 437c a83d e0cd b13d 7e1c 603d
00000390: 1bba b33c 8dec 75bd 5891 8c3d 9414 01be
000003a0: d0a7 ac3d d7fa e53b 2510 7fbd 92dd 58be
000003b0: db6e 213d 6684 d4bd 79f5 78bb d805 83bd
000003c0: 6195 653d dc57 c7bd 1659 ff3d 0df5 22be
000003d0: 74e9 1abe a479 48bc 863b 94bd 2e62 c03d
000003e0: a8ae f73c a9f7 a03d 9e18 8f3d 9ef8 c2bc
000003f0: 30a6 cf3d a6f3 5dbd 39aa 4dbe 0a18 f73c

phi.initial_conv_module.0._layers.9.weight f4 [32]
1.0631979 0.9308385 1.0956657 0.9969649 1.0500891 1.0530195 0.95468813 1.1192013
0.9940532 0.9282599 1.0373951 1.0344243 0.90241504 1.0363594 0.9834246 1.045892
1.02123 1.0496045 0.94687605 0.986964 0.99034846 1.0732458 0.87959 0.9871829
1.09037 1.0978044 0.9859937 0.91407984 1.0299895 1.0318145 1.0260733 1.1108011
00000000: de16 883f 6f4b 6e3f c63e 8c3f 1739 7f3f
00000010: 5269 863f 58c9 863f 7166 743f fd41 8f3f
00000020: 457a 7e3f 71a2 6d3f 5dc9 843f 0468 843f
00000030: ac04 673f 6da7 843f b7c1 7b3f cadf 853f
00000040: aab7 823f 7159 863f 7866 723f aca9 7c3f
00000050: 7a87 7d3f 1e60 893f cf2c 613f 05b8 7c3f
00000060: 3f91 8b3f db84 8c3f 156a 7c3f 2301 6a3f
00000070: b2d6 833f 7f12 843f 5f56 833f bb2e 8e3f

phi.initial_conv_module.0._layers.9.bias f4 [32]
0.0037080154 -0.0022163445 0.0052849688 0.0021773858 0.004493288 -0.009172367 -0.0037842663 0.0045461436
0.0038893768 -0.0010242235 -0.00045236992 -0.0067087 -0.0014281339 -0.007491211 0.00559222 -0.001993079
0.0016639646 -0.000766759 -0.0061001014 -0.005528861 -0.00022253291 0.0006644272 0.0010272008 -0.0060245846
0.009592392 0.0027548824 0.006267466 0.004239427 -0.0063443794 -0.0014714759 6.52786e-05 -0.004071248
00000000: 2d02 733b 1740 11bb 882d ad3b 79b2 0e3b
00000010: 6f3c 933b b247 16bc 7401 78bb d1f7 943b
00000020: eae4 7e3b 3d3f 86ba 102c edb9 a8d4 dbbb
00000030: 3930 bbba d578 f5bb f13e b73b 519e 02bb
00000040: 6319 da3a 5300 49ba 5ce3 c7bb 732b b5bb
00000050: b957 69b9 f42c 2e3a 24a3 863a e169 c5bb
00000060: 6829 1d3c 428b 343b 515f cd3b e4ea 8a3b
00000070: 83e4 cfbb 8ade c0ba 2ee6 8838 1b68 85bb

phi.initial_conv_module.0._layers.9.running_mean f4 [32]
-0.100132994 -0.053947635 -0.016442277 -0.04414125 0.042304672 -0.027052907 0.04804306 -0.033346403
-0.029333424 0.0036801181 -0.024117576 0.06586066 -0.03581475 0.09304255 0.028619554 -0.016891858
0.08519095 -0.052065372 0.013543549 -0.0042942874 -0.059021406 0.024289742 -0.005668681 -0.022073524
0.05175724 0.012062855 -0.017127734 0.036823723 -0.03434607 -0.082501665 -0.0020933845 -0.09039556
00000000: 8712 cdbd 32f8 5cbd f4b1 86bc 75cd 34bd
00000010: aa47 2d3d 0f9e ddbc cdc8 443d 3d96 08bd
00000020: a64c f0bc 232e 713b 3992 c5bc f4e1 863d
00000030: 7db2 12bd 188d be3d 8e73 ea3c cb60 8abc
00000040: 9878 ae3d 8042 55bd c3e5 5d3c 18b7 8cbb
00000050: 6ec0 71bd 48fb c63c 58c0 b9bb 89d3 b4bc
00000060: 66ff 533d 48a3 453c 764f 8cbc 79d4 163d
00000070: 77ae 0cbd a2f6 a8bd 2a31 09bb 4f21 b9bd

phi.initial_conv_module.0._layers.9.running_var f4 [32]
0.040487137 0.021954445 0.043911926 0.028845306 0.02416208 0.027754463 0.025360815 0.03391838
0.034586176 0.025295883 0.035801142 0.039068744 0.032787163 0.03741109 0.04254001 0.025424441
0.024908954 0.03531591 0.033013128 0.023520172 0.03335317 0.020007037 0.023097897 0.02817827
0.0374163 0.032863174 0.02378724 0.022321792 0.063654445 0.035682287 0.03641373 0.036614038
00000000: d7d5 253d cfd9 b33c fedc 333d fe4c ec3c
00000010: 8eef c53c 545d e33c 7cc1 cf3c 00ee 0a3d
00000020: 3caa 0d3d 5039 cf3c 38a4 123d 8c06 203d
00000030: d54b 063d 5f3c 193d 6f3e 2e3d eb46 d03c
00000040: dd0d cc3c 6aa7 103d c638 073d 60ad c03c
00000050: 559d 083d cce5 a33c cd37 bd3c 1ed6 e63c
00000060: d641 193d 899b 063d 75dd c23c 31dc b63c
00000070: 435d 823d 9727 123d 9026 153d 9af8 153d

phi.initial_conv_module.1.weight f4 [32]
1.0883136 0.9395013 1.1289937 1.0055445 1.0764098 1.0725472 0.9561826 1.1515338
1.0028895 0.9290107 1.0645124 1.0510429 0.90883315 1.0480386 0.990875 1.0775695
1.036561 1.0594987 0.955155 1.0010498 1.0033338 1.1076139 0.8755242 0.97845125
1.1356714 1.1544136 0.9959371 0.908032 1.0560029 1.0410441 1.037184 1.1434608
00000000: dc4d 8b3f 2883 703f de82 903f afb5 803f
00000010: ccc7 893f 3a49 893f 62c8 743f 7665 933f
00000020: af5e 803f a5d3 6d3f f141 883f 9388 863f
00000030: 4aa9 683f 2126 863f fca9 7d3f cced 893f
00000040: 08ae 843f a79d 873f 0a85 743f 6622 803f
00000050: 3e6d 803f 4bc6 8d3f 5b22 603f c87b 7a3f
00000060: ae5d 913f d3c3 933f bcf5 7e3f c974 683f
00000070: 1a2b 873f ef40 853f 72c2 843f ec5c 923f

phi.initial_conv_module.1.bias f4 [32]
0.046374418 -0.13243376 0.18827547 -0.08546163 0.02753071 -0.10237428 -0.06290902 0.01727944
-0.076741725 -0.12241748 0.0639145 -0.053122554 -0.16778745 0.012775643 -0.06449421 0.10811669
-0.07089912 0.14443268 -0.077955484 0.007827439 -0.036598675 -0.021534195 -0.03340425 -0.03351024
0.18783697 0.2064472 -0.12282443 -0.09858994 0.12607746 -0.021907274 -0.0032952663 -0.099032335
00000000: 1af3 3d3d b79c 07be 49cb 403e 8206 afbd
00000010: 1588 e13c 9ba9 d1bd 72d6 80bd 9d8d 8d3c
00000020: c42a 9dbd 04b6 fabd 9be5 823d 0997 59bd
00000030: 79d0 2bbe ee50 513c 8a15 84bd 486c dd3d
00000040: 8f33 91bd 29e6 133e 20a7 9fbd a93e 003c
00000050: 7ee8 15bd 7b68 b0bc e5d2 08bd 0942 09bd
00000060: 5658 403e e566 533e 608b fbbd 86e9 c9bd
00000070: 731a 013e e276 b3bc 65f5 57bb 77d1 cabd

phi.initial_conv_module.1.running_mean f4 [32]
0.0036625562 -0.0022108823 0.00534479 0.002172474 0.004535504 -0.009231686 -0.0037805813 0.004498566
0.0038821842 -0.0010194612 -0.00048128996 -0.0067183697 -0.0014618828 -0.007511387 0.00562159 -0.0019477108
0.0016506235 -0.0008400136 -0.0061075226 -0.0054998086 -0.00021456843 0.00063488533 0.0010520824 -0.0059646266
0.009534752 0.002779731 0.0063037053 0.004283835 -0.0064478875 -0.001467483 8.439376e-05 -0.004074367
00000000: 7f07 703b 73e4 10bb 5923 af3b 1160 0e3b
00000010: 919e 943b 7f40 17bc a1c3 77bb b568 933b
00000020: 3e6c 7e3b 719f 85ba a555 fcb9 c525 dcbb
00000030: a69c bfba 1522 f6bb 5135 b83b 544a ffba
00000040: bc59 d83a 5c34 5cba 9d21 c8bb bd37 b4bb
00000050: c6fd 60b9 6f6e 263a 07e6 893a ea72 c3bb
00000060: a637 1c3c 262c 363b 508f ce3b 6a5f 8c3b
00000070: cd48 d3bb 8f58 c0ba 8efc b038 4582 85bb

phi.initial_conv_module.1.running_var f4 [32]
1.1012365 0.83376503 1.1726904 0.96365845 1.0569564 1.0725045 0.8814235 1.217614
0.9621738 0.8331106 1.0495478 1.0453079 0.7882642 1.0448884 0.9432383 1.0530015
1.0060798 1.0716572 0.8681853 0.93444 0.9511855 1.100984 0.7387899 0.9445865
1.1630061 1.1737049 0.93719316 0.8089148 1.0439439 1.0376362 1.0241191 1.2019788
00000000: 51f5 8c3f a071 553f b81a 963f 52b2 763f
00000010: 594a 873f d447 893f f8a4 613f c7da 9b3f
00000020: 0651 763f bc46 553f 9557 863f a6cc 853f
00000030: afcb 493f e7be 853f 1178 713f c1c8 863f
00000040: 39c7 803f 102c 893f 6441 5e3f 7637 6f3f
00000050: e580 733f 0bed 8c3f 5621 3d3f 6cd0 713f
00000060: 62dd 943f f63b 963f e4eb 6f3f 0a15 4f3f
00000070: f49f 853f 43d1 843f 5616 833f 71da 993f
