best_distillation_model.pt (torch, 868209 bytes, 450 tensors)

phi.initial_conv_module.0._layers.0.conv.weight f4 [64, 64, 1]
000000 f1 d0 66 3d 3b 9f d3 bd 72 e4 7b bd 02 4a d2 3c
       0.056351606 -0.10333105 -0.06149716 0.025670055
000010 b0 10 27 bd e0 14 00 3d b6 fc f5 bc 2f eb 2b bd
       -0.0407874 0.031269908 -0.030027729 -0.041972335
000020 89 3d d5 bb 8c 0d d8 3c a9 f0 a6 3c 33 b6 c6 bd
       -0.0065075797 0.026373647 0.020378428 -0.097027205
000030 26 52 bb 3d 74 b6 c0 3c 1f f3 95 3c 99 48 4d bc
       0.09146528 0.0235245 0.018304406 -0.012529516
000040 da 2e 1b 3e 80 f3 b5 bb af 2b 9d bd 01 70 75 3c
       0.15154591 -0.005552709 -0.076743476 0.014980317
000050 d5 d5 c6 bd 72 8a 1b bb 14 8a b3 bc bb 6d c9 bd
       -0.09708754 -0.0023733643 -0.021916427 -0.098353826
000060 c4 0a b5 bc 49 ea 04 3e 9b e1 11 3e cc fa 2c 3e
       -0.02209986 0.12979998 0.14246218 0.16892546
000070 74 59 ac bc d6 ba 4e bd b1 07 36 be fd eb 29 bc
       -0.021038748 -0.05047115 -0.17776372 -0.010371205
000080 41 06 70 3c df 70 09 be ca f2 96 3d 16 68 b5 bd
       0.014649929 -0.13421963 0.07370527 -0.088577434
000090 e2 62 ce 3d 36 55 2c bd a2 f4 77 bc 88 14 97 3d
       0.10077454 -0.04207345 -0.015134009 0.07376963
0000a0 52 ce 44 bc be d9 5b bd e1 10 16 3e 97 70 7d 3d
       -0.012012081 -0.053674452 0.14654876 0.061874952
0000b0 57 e9 5f bb ab 77 bb 3b 05 1d 17 bc 8c 51 0d be
       -0.003416618 0.0057210526 -0.009223227 -0.13800639
0000c0 c5 46 36 3d 6e 09 ac bd 63 10 6c bd 99 23 b4 bc
       0.044501085 -0.08400236 -0.057632815 -0.02198963
0000d0 fd 6e 2e bc df 53 1e 3d 20 11 d6 3b 43 f5 6d 3d
       -0.010646579 0.038654204 0.006532803 0.058095228
0000e0 f8 75 81 3c 89 13 88 3d 30 22 ee bb e0 d0 41 3d
       0.015803322 0.06644351 -0.007267259 0.04731834
0000f0 f7 d0 85 bb bd 23 45 3c 8c 1f 10 bd 55 12 96 bd
       -0.0040837484 0.012032446 -0.035186335 -0.07327715
000100 7f f0 5d bc 3d 85 be bd 4d 3e a2 3d 32 8f 14 39
       -0.013546108 -0.09302757 0.07922039 0.00014167724
000110 5e 77 48 bd ff dd 54 3d b1 fa 98 3b b3 99 8a bd
       -0.048941962 0.051969524 0.0046685566 -0.06767597
000120 f8 9a 9b 3d 8d d4 04 be c1 68 de 3c af 4d c9 3c
       0.07597917 -0.12971707 0.02714956 0.024573175
000130 bc d4 27 3d a8 61 bf 3c 83 8e fe 3d 50 13 12 bd
       0.040974364 0.023361996 0.12429526 -0.03566295
000140 d3 db 11 3d df b4 b9 3b bd 0d 12 be 75 32 7e bd
       0.03561003 0.0056673135 -0.14263053 -0.06205984
000150 15 5f 08 be 74 10 31 3d cd ae 89 3d 7c 96 80 3d
       -0.13317521 0.04322858 0.06722794 0.062787026
000160 f6 23 b7 3d f5 19 05 3d ac 0e 25 3d 44 41 9b bc
       0.08942406 0.032495458 0.040297195 -0.01895202
000170 16 42 2b be fd 97 b1 bd 08 89 79 3d 20 87 b6 3d
       -0.16724429 -0.086715676 0.0609217 0.08912492
000180 d9 90 10 3e f9 86 bd bc 8d 63 1f 3d 3a f5 be 3c
       0.14117755 -0.023135649 0.0389133 0.023310293
000190 08 97 aa bc ba 2d aa bc 75 ce f3 bd aa a2 0d be
       -0.02082397 -0.020773757 -0.11904613 -0.13831583
0001a0 c7 67 9c bd e2 cb 04 3e 9a f5 25 3e e0 31 c9 3d
       -0.076369815 0.129684 0.16206971 0.09823966
0001b0 28 d3 b2 3d 3d 64 c1 bd cf b7 b8 bd cf 84 8b bd
       0.08731681 -0.09442947 -0.09019434 -0.068124406
0001c0 15 e4 ba bd 01 47 8a bd 9e 89 42 bd 56 2d 6f bd
       -0.091255344 -0.06751824 -0.047494523 -0.058392845
0001d0 99 f7 d9 3d e1 72 db 3d a8 8e fe 3d 6c 61 aa 3d
       0.10642929 0.10715271 0.12429553 0.08319363
0001e0 f4 97 5f bc f5 7b a7 bc 26 d6 bd bc 0d ab 23 bd
       -0.013647068 -0.02044485 -0.023173403 -0.03995805
0001f0 5a d3 7c 39 fe a3 1d 3d 6c ee 26 3d 2d df 02 be
       0.00024111327 0.038486473 0.04075472 -0.12780447
000200 93 78 fa bb ee b6 95 3d 84 2e 37 3c 63 6e 4d 3d
       -0.007643768 0.07310282 0.011180524 0.0501541
000210 d5 dc b1 bd 41 81 ef bd 32 65 56 3b ff 91 89 bd
       -0.086846985 -0.11694575 0.0032714126 -0.067173
000220 09 19 06 bd c2 7a 4a 3d fc b1 00 3d 91 21 98 3d
       -0.03273872 0.049433477 0.03141974 0.07428277
000230 f1 c3 e1 bd 16 6e 41 3d 01 81 5f 3d 31 77 97 3c
       -0.11023701 0.047224127 0.054566387 0.018489452
000240 a7 52 14 3e e8 8e 61 bd ba 47 92 3d 85 fd 47 3e
       0.14484654 -0.055067927 0.07142587 0.19530304
000250 de 10 22 3e 43 98 e4 3d a4 98 b5 bd 4e d5 08 be
       0.15826747 0.11161854 -0.088670045 -0.1336262
000260 c2 87 1d be 91 45 42 bd 4f 45 27 3d a1 d2 3f bd
       -0.15383819 -0.047429625 0.040837582 -0.04683173
000270 fe fb 2d 3e da 55 d2 3d 87 00 81 bd b1 b9 a2 3d
       0.16990659 0.10270281 -0.06298929 0.07945574
000280 7d ab 25 bc e4 3f 56 3d d4 56 b0 bd 7a 27 2a 3d
       -0.010111687 0.052307025 -0.08610311 0.041541554
000290 34 3f 77 3d 3e 4b 0d 3e a2 53 d2 3d ff 8b 2c bd
       0.06036301 0.13798234 0.10269858 -0.0421257
0002a0 e3 09 de bd 6f 71 e7 3d df 1c 51 3d ca 2e f7 bd
       -0.108417295 0.113009326 0.051052924 -0.12069471
0002b0 da 07 a5 3c 2c 4b 97 bd d8 3d 8c bd d8 22 02 3a
       0.020145345 -0.07387385 -0.06847733 0.00049642986
0002c0 e3 71 0a bd 69 a3 88 3d 0a f7 fa 3c 54 25 ab 3d
       -0.033800017 0.06671793 0.030635376 0.08356729
0002d0 42 f3 34 3c cc 5c a1 3d e5 3b ee bd 41 98 ba 3c
       0.011044325 0.07879028 -0.11632518 0.022777678
0002e0 fe a4 b4 3d ae 66 ad bd d4 3f bd 3d 2f f7 f5 3c
       0.08820532 -0.0846685 0.0924069 0.030025093
0002f0 c2 a9 00 3c e3 74 0b 3e fd 27 2e bb 7e eb c8 bd
       0.007852973 0.13618807 -0.0026574128 -0.098105416
000300 04 b1 62 39 67 fc 80 bd 9a 6e d0 bd c4 6e 16 bd
       0.00021618983 -0.06298142 -0.101773456 -0.036726728
000310 28 91 8c 3d 7d 42 57 3d cb 81 8b bd ce 25 28 3d
       0.06863624 0.052553643 -0.068118654 0.04105168
000320 2c 1f 64 3d 09 bc d7 bd df 52 93 bd 93 49 b8 bc
       0.05569379 -0.10533912 -0.07193541 -0.02249602
000330 46 8a 07 3e b8 d0 44 3d c5 d7 59 3d c0 8e 55 3e
       0.13236341 0.048050612 0.05318429 0.20855236
000340 7e fc 03 bd 67 83 a1 bd 36 19 b1 3d de ea 2c bd
       -0.032223217 -0.07886391 0.08647387 -0.042216174
000350 d7 a2 95 ba 45 59 25 3c 41 fa c7 bc 3d 18 80 3a
       -0.0011416328 0.010092084 -0.024411323 0.0009772849
000360 41 80 7d bd d9 35 f6 bd 1c 3b 6c 3b 98 b1 84 bc
       -0.06188989 -0.120219894 0.0036045974 -0.016197965
000370 b2 ca 8c bd 7d e7 d7 bd 86 70 60 3b eb eb e4 bd
       -0.068745986 -0.105422 0.0034246757 -0.1117781
000380 6e 95 ea bd 0d 2e 06 3d d4 29 80 3d d2 ff 41 3c
       -0.11454283 0.03275876 0.06257978 0.0118407775
000390 ea 65 ee 3d 43 79 ee 3d a2 41 c9 bb 48 c7 da 3d
       0.11640532 0.116442226 -0.0061418572 0.10682541
0003a0 fd 61 70 bd 87 a1 9d 3d e5 74 57 bd 7d 3c 00 3e
       -0.0586872 0.076968245 -0.052601714 0.12523074
0003b0 50 fd dc 3d 30 f0 cc bd 14 65 ed bd 6a 29 42 bd
       0.10790503 -0.1000675 -0.11591545 -0.047402777
0003c0 99 b5 54 3d ab b3 9d 3d 70 23 f7 bd 79 2b a5 3d
       0.051930998 0.077002846 -0.12067306 0.080649324
0003d0 aa 83 c9 bd aa 39 e7 bd 1d f5 d7 bc c8 90 a3 bc
       -0.09839566 -0.112902954 -0.026361996 -0.019966498
0003e0 a1 04 6f bd 50 fe d5 bc 7f e0 c3 bd 8f 35 8e 3d
       -0.058354024 -0.026122242 -0.095643036 0.06943809
0003f0 18 4a b5 3c 0a 57 53 3d 7b 4a a2 bd 2a 24 0a be
       0.022130057 0.05159668 -0.07924362 -0.13490358

phi.initial_conv_module.0._layers.1.weight f4 [64]
000000 5b 7a 86 3f 85 58 77 3f df f1 6e 3f e4 f8 4f 3f
       1.050609 0.96619445 0.93337816 0.8123915
000010 b7 74 71 3f 61 e7 9c 3f 26 a8 5d 3f 6f 98 70 3f
       0.9431872 1.2258111 0.865847 0.93982595
000020 06 b5 83 3f 72 c3 8a 3f cd ee 8d 3f be f0 5f 3f
       1.0289619 1.0840895 1.1088501 0.8747672
000030 b6 82 89 3f 78 4c 8c 3f 27 67 5f 3f 40 79 78 3f
       1.0743015 1.0960836 0.87266773 0.9706001
000040 8c 67 61 3f 4b 85 86 3f 01 83 73 3f 31 33 60 3f
       0.88048625 1.0509428 0.9512177 0.8757811
000050 36 63 77 3f ac 82 86 3f a4 22 59 3f ef 72 87 3f
       0.9663576 1.0508628 0.8481848 1.058195
000060 28 cd 83 3f b8 a0 85 3f 3d 22 6d 3f 79 8d 6e 3f
       1.0296984 1.0439672 0.9263037 0.9318462
000070 c2 0d 91 3f 3c 1d 78 3f c9 a8 67 3f 31 1d 67 3f
       1.1332324 0.9691961 0.9049192 0.9027892
000080 cb 3c 84 3f 3b 82 77 3f 53 e8 6c 3f c8 73 6f 3f
       1.0331053 0.9668309 0.92542 0.93536043
000090 de e8 7a 3f 99 1b 80 3f 2d 3c 81 3f 71 b1 88 3f
       0.9801158 1.0008422 1.0096489 1.0679151
0000a0 dc 8b 7c 3f 4d fc 87 3f c0 5d 8f 3f cf 89 89 3f
       0.9865091 1.0623871 1.1200485 1.0745181
0000b0 d7 32 88 3f b7 1b 73 3f d5 bf 7f 3f 75 b5 8f 3f
       1.0640515 0.94964164 0.9990209 1.1227251
0000c0 6f 96 83 3f 9a 86 79 3f 4b d5 81 3f 1f a9 5c 3f
       1.0280284 0.9747101 1.0143217 0.8619556
0000d0 28 00 66 3f 95 89 82 3f 44 4e 81 3f 6c a4 6e 3f
       0.8984399 1.0198237 1.010201 0.9321964
0000e0 97 01 83 3f c0 c4 6b 3f e2 1e 6e 3f a0 23 81 3f
       1.023486 0.9209709 0.93015873 1.0088997
0000f0 9a db 91 3f de 1f 75 3f a6 5d 68 3f 7a 75 6b 3f
       1.1395142 0.9575175 0.90767896 0.9197613

phi.initial_conv_module.0._layers.1.bias f4 [64]
000000 cf df 24 bd 2e b4 08 bd f7 cb f9 3b 64 1c 26 bd
       -0.040252503 -0.033374958 0.0076231915 -0.04055442
000010 29 3e 5f bc 2c ff 8e bd e0 79 2e 3d b5 79 8b bd
       -0.01362566 -0.06982264 0.042596698 -0.06810323
000020 ac 58 16 3d dd 9d 1a 3b a0 96 0e be 6c 18 eb 3d
       0.036705658 0.002359263 -0.13924646 0.114792675
000030 1c 5d 0a 3e 51 93 4b 3d 2f 22 10 bd 24 4d 0f 3e
       0.13512081 0.04970104 -0.03518885 0.1399427
000040 5c bd 83 3d 98 97 9a 3a 09 11 04 3e 57 73 3c 3d
       0.06432602 0.0011794446 0.12897123 0.046008434
000050 0d 03 51 be a4 e2 95 3d 4a d7 94 3d 7f 5c d1 3d
       -0.2041132 0.07318619 0.07267626 0.1022272
000060 83 ec 87 3d 2e 78 06 bd c7 b4 bb 3c 11 8b 54 3d
       0.06636908 -0.032829456 0.02291335 0.051890437
000070 ea 44 50 bd 7c ac 0b bc 65 9a a4 ba 3c 0a 38 bc
       -0.05084697 -0.00852501 -0.001255822 -0.011232909
000080 62 b8 c7 bd 51 b5 1f bd 15 59 3d 3d 46 a3 1c 3d
       -0.09751965 -0.038991276 0.046227533 0.038241647
000090 48 fc 41 bc e3 1e d7 bd dd fa 3f 3d b4 89 4e 3d
       -0.011839934 -0.10503938 0.0468701 0.050424293
0000a0 8e d9 f2 3b e2 57 ad bd 82 ab 9c 3d 7c ec a6 3b
       0.0074111884 -0.08464028 0.076499 0.005094109
0000b0 16 17 e4 bc 2b bf 50 bd 60 84 a7 bd 05 e0 96 3c
       -0.02784304 -0.050963562 -0.081795454 0.018417368
0000c0 36 5d 12 3d 43 00 29 bd 7e 15 2c bc 2d 94 45 3d
       0.035733424 -0.041260015 -0.010503171 0.048237015
0000d0 fe 82 18 3d 5a b4 7b 3b a7 26 8d 3c e1 23 1c bd
       0.0372343 0.0038407058 0.017230345 -0.038120154
0000e0 34 52 16 bd d7 98 e6 bd 9e 66 0a be 75 2e 5d bd
       -0.03669949 -0.11259621 -0.13515708 -0.053999383
0000f0 52 25 14 be 41 38 6d bd 62 dc 5c bc 22 7a 20 3c
       -0.14467362 -0.057914976 -0.013480278 0.009794744

phi.initial_conv_module.0._layers.1.running_mean f4 [64]
000000 1c a1 11 3f 37 4f 74 3e bf 50 27 3f 2f 03 42 3f
       0.5688646 0.23858343 0.65357584 0.7578611
000010 ba fb 07 3f 8e 42 7f 3f c4 86 69 3f ce 37 a0 bf
       0.5311848 0.9971093 0.9122126 -1.251703
000020 e9 a9 fd 3e 79 8e 50 3f 60 07 b6 be 2c 64 98 bf
       0.49543694 0.81467396 -0.35552502 -1.190557
000030 2d 11 dc 3f 3f 42 5c be ad 60 68 3f 33 9a 95 3d
       1.7192742 -0.21509646 0.90772516 0.07304802
000040 b0 d0 6e 3f 1e 48 0d be 47 ae b1 bc 14 2c 53 3f
       0.9328718 -0.13797042 -0.021689547 0.8248913
000050 d7 fd 30 bc b8 ea 28 3d fb 33 b7 3e 1d 29 2e 3f
       -0.010802708 0.04123947 0.35781845 0.68031484
000060 08 9a 48 bd 29 46 13 3f f6 5d d7 3e a5 28 66 3e
       -0.04897502 0.5752893 0.42063874 0.22476442
000070 7d 7a f9 bd 0d fb d3 bd a9 16 44 bf 28 d1 32 3f
       -0.12181566 -0.103506185 -0.76597077 0.698504
000080 84 05 3b 3f 26 fa 82 be 99 c5 35 be 45 7c 4b bf
       0.7305529 -0.25581473 -0.17751159 -0.79486495
000090 43 31 3b 3d 2b 45 bc 3f 30 8a d8 bd de ff 84 3e
       0.045701277 1.4708608 -0.10573232 0.2597646
0000a0 3a a5 01 bf 8e d2 b9 3e 13 54 2d be f7 c1 9e 3f
       -0.5064274 0.36293453 -0.16926603 1.2402943
0000b0 10 67 0b 3f d4 16 96 bd 07 c9 af be 71 af d5 3f
       0.54454136 -0.07328573 -0.3433306 1.6694165
0000c0 bd 0a 08 40 8f db ae 3e 28 26 14 bd 52 30 a4 3e
       2.1256554 0.34151885 -0.0361692 0.32068115
0000d0 60 e1 c3 be b9 71 2f bf 0f 62 67 3d 5d 16 be 3e
       -0.38257885 -0.685329 0.05649 0.37126437
0000e0 99 92 21 be 2d ae d9 be 14 0b 7f 3e 81 40 87 3f
       -0.15778579 -0.42515698 0.2490657 1.056656
0000f0 6e c9 96 be 5f 5e 4d be a1 e2 56 3e 61 3b b0 3e
       -0.29450554 -0.20055531 0.2098489 0.34420303

phi.initial_conv_module.0._layers.1.running_var f4 [64]
000000 2c 4a c5 3d 6d ba de 3d 46 ce 76 3e 88 a5 24 3e
       0.09633288 0.10875402 0.24102125 0.1607877
000010 f0 53 3e 3e db 6a 45 3e ed 6a 26 3e 97 df 2b 3f
       0.18586707 0.19279043 0.16251726 0.67138046
000020 f0 f9 11 3e 04 c5 d4 3e 71 29 14 3e 38 f7 37 3f
       0.142555 0.4155656 0.14468934 0.718616
000030 91 15 05 3f 8d 52 b3 3d f5 e0 dc 3e 95 7f 6e 3e
       0.5198603 0.0875598 0.4314038 0.23290856
000040 32 ec 9b 3e 6f 52 58 3e 94 e1 88 3e 01 7a eb 3d
       0.3045364 0.21125196 0.26734602 0.1149788
000050 e0 75 5d 3e f9 3c 10 3e 0b 9c 18 3e b8 ed 47 3e
       0.21626997 0.14085759 0.14903276 0.19524276
000060 cc 1a e2 3d e0 12 82 3e 07 ea 30 3e 4b 08 d1 3e
       0.11040267 0.25405025 0.17276774 0.4082664
000070 d9 a4 0e 3e 8f 25 d3 3d c2 2b 0c 3f d2 49 8b 3e
       0.13930072 0.10309898 0.5475427 0.27204758
000080 89 30 cc 3e f6 6f 01 3e 5f 1a 12 3e 95 f9 85 3e
       0.3988078 0.12640366 0.14267872 0.26166978
000090 39 45 42 3e 6c c5 37 3f cb 47 d6 3d 90 c1 86 3d
       0.18971719 0.71785617 0.10462912 0.06579888
0000a0 a4 fa 2d 3e e1 78 2a 3f bf ae 50 3d eb f3 91 3e
       0.16990143 0.66590697 0.0509479 0.28506407
0000b0 48 4e cd 3e 01 57 10 3e a3 ed 09 3f b1 b8 21 3f
       0.40098786 0.1409569 0.5387823 0.6317244
0000c0 03 e2 16 3f 49 40 d3 3d ab 34 e9 3d 52 ee 84 3d
       0.58938617 0.10314996 0.11386999 0.064907685
0000d0 f0 4b a6 3e 81 3e d1 3e 24 7b c1 3d dd 9d 5a 3e
       0.3247981 0.40868 0.09447315 0.21349283
0000e0 56 50 81 3e c6 91 43 3e ad 19 e3 3d dd ac c1 3d
       0.25256604 0.19098577 0.11088882 0.09456799
0000f0 99 e3 b0 3e 75 c9 00 3e 71 cc 93 3d e1 27 9d 3e
       0.34548643 0.1257685 0.072167285 0.30694488

phi.initial_conv_module.0._layers.4.conv.weight f4 [64, 1, 5]
000000 09 81 79 bd 89 1c 0c 3d b6 a0 6e bc 73 fa 39 3e
       -0.060914073 0.0342069 -0.014564684 0.18161945
000010 c7 6e 9e 3e 2d d2 94 be 9e 23 05 be a0 ed 8b be
       0.3094389 -0.290666 -0.13001868 -0.2732973
000020 68 54 cc be 99 39 53 3d 1c f1 92 be d0 75 7f bd
       -0.39908147 0.0515686 -0.28699577 -0.062368214
000030 8d d7 50 be cc 0c b8 bd 03 b5 f2 be 42 39 9f 3e
       -0.20394726 -0.08986816 -0.47403726 0.31098372
000040 62 d6 60 be 2c 6c a7 3c 1d 95 ef 3e f4 d6 17 3e
       -0.2195678 0.020437323 0.46793452 0.14828092
000050 79 64 65 3e cc 6d d3 bd 80 0e ac bd 9f 23 69 3c
       0.22401609 -0.103236765 -0.08401203 0.014229684
000060 d0 2d 75 be 36 5a 3d be 57 a3 cc be 4b da 5c 3c
       -0.23943257 -0.18491444 -0.39968368 0.0134797795
000070 09 bd d3 3e ab 7f 91 3e 45 ce d2 3e 77 19 29 be
       0.4135516 0.28417715 0.41172996 -0.1651362
000080 1c aa 18 bd 9e a0 dd 3e 60 d7 7f 3e e1 ed c6 3e
       -0.037271604 0.43286604 0.24984503 0.38853362
000090 ed be ed 3e ea fa a5 3e 5c a7 b0 be 5f b9 9d be
       0.46434727 0.32417995 -0.34502685 -0.3080549
0000a0 ad a1 be bd 72 79 85 be 69 28 b3 3e dd 52 22 3e
       -0.09308181 -0.26069218 0.34991768 0.15851922
0000b0 5e c8 46 be 76 5f f1 bd 32 99 b8 be 0d 42 fd 3c
       -0.19412372 -0.11785786 -0.3605438 0.030915285
0000c0 9a f7 f0 bd 9d d3 59 3e 59 6c a5 bd e5 78 1c 3e
       -0.11765976 0.2127213 -0.08077306 0.15280493
0000d0 3f 54 b3 bd 1b cf c2 3e cb 7b 7a 3e 0f 90 ba 3d
       -0.08756303 0.38048634 0.24461286 0.09109508
0000e0 21 9b 97 be 03 9c af be 58 d1 da 3e d7 fe fe 3e
       -0.2961054 -0.34298715 0.42737842 0.49803802
0000f0 5d f9 ea 3d 5f 83 ac 3c 69 b5 65 be a1 25 2f be
       0.114733435 0.021058736 -0.22432484 -0.17104198
000100 24 7e 6b 3e 20 1e cc 3e 90 8a 12 bc 80 8f 15 3d
       0.22997338 0.39866734 -0.008944169 0.036513805
000110 ae dd ba 3e 15 d9 cf be a6 6f a6 3d 4e 14 ad 3e
       0.36497253 -0.40595308 0.08126764 0.33804554
000120 2e 66 58 be 0a e2 b1 bd 81 37 bd 3e bd ed 19 be
       -0.21132728 -0.08685692 0.3695641 -0.15032096
000130 7f 6b 55 be f2 a8 d1 be 07 e9 8c 3e a1 99 bd 3e
       -0.20841788 -0.40949208 0.27521536 0.37031272
000140 c4 22 d8 bb 89 d7 7c 3e 73 19 7a be ca b9 54 be
       -0.0065959413 0.24691595 -0.2442377 -0.20773998
000150 ec c8 f4 be 69 60 1d 3e 56 31 8d be 4c da e4 3e
       -0.4780954 0.15368809 -0.27576703 0.44697797
000160 57 a2 b3 bd 77 88 c2 3e 64 ae 29 3e e4 31 8d 3e
       -0.08771198 0.3799474 0.16570431 0.27577126
000170 02 93 16 be bb 5c d4 3a eb 9b ac be 98 4c e5 be
       -0.14704517 0.0016201952 -0.33712706 -0.44785
000180 ac 6b 1d 3e 28 ff 01 bf 75 e1 a0 be 4c 18 63 3e
       0.15373105 -0.5077996 -0.3142201 0.22177237
000190 14 63 13 bc 89 8b c5 bd 46 66 e2 3e 34 66 87 bd
       -0.00899579 -0.09645755 0.44218653 -0.066112906
0001a0 d9 d6 f7 bd 64 77 af be ff bb 5e 3d 1b a4 60 3e
       -0.12101526 -0.34270775 0.054378506 0.21937601
0001b0 d7 d6 1b be a5 2c a3 3e 8d bc 35 bc 15 85 b4 3d
       -0.15218674 0.3187 -0.011092317 0.08814446
0001c0 c3 63 ab be 40 9f f5 bc 0c 56 68 be 59 f3 b9 3e
       -0.3347455 -0.029983163 -0.22689074 0.36318472
0001d0 2a 9a c8 3e bf 8d c2 be ae 1d 5b 3e 2c 42 88 be
       0.39180118 -0.3799877 0.2139804 -0.26612985
0001e0 67 55 53 3d 99 ff aa be e1 1b 62 be c6 44 9b 3e
       0.051595118 -0.3339813 -0.22080947 0.30325907
0001f0 dc 21 38 3e 52 6f a4 3c 1d ea 1c be 5a 93 ff bc
       0.17981666 0.020072613 -0.15323682 -0.031198192
000200 3d 6e 92 3e df d7 81 be b1 97 ce bd 9f c9 4a be
       0.2859973 -0.2536001 -0.100875266 -0.19803475
000210 b4 46 93 be 89 8b e2 be 62 26 85 3e 1d 83 07 3e
       -0.2876488 -0.44247082 0.26005846 0.1323361
000220 de 43 e8 bd f4 b2 a0 be 1d 6f 9c 3e 20 e9 cb bd
       -0.1134107 -0.3138653 0.30553523 -0.099565744
000230 e0 d5 9a 3e a1 00 96 3e 32 96 ed 3d aa 87 9a 3e
       0.302413 0.29297355 0.11600913 0.30181628
000240 08 30 23 be ff 27 f9 3e aa 87 6a 3e 73 cb 00 3e
       -0.15936291 0.48663327 0.22903314 0.1257761
000250 91 f3 8c bc 5c 87 b6 bd 7a 85 8c 3e 5e 4d 76 bd
       -0.017205985 -0.089125365 0.27445585 -0.060132377
000260 67 6c cf 3e fc 68 c2 3e b8 59 6c 3c db f0 81 3e
       0.40512392 0.37970722 0.0144256875 0.2537907
000270 eb dc 5d 3e 1d 8e ba 3e f1 3d 42 bc 9e 36 7d 3e
       0.21666305 0.3643655 -0.011855588 0.24727866
000280 2a 7d a1 3e 3d ab 3e 3d 46 4e 65 3e 16 fc 43 be
       0.31540805 0.046550024 0.2239314 -0.19139132
000290 74 25 2a be c3 08 12 3e d1 0a a6 bc 4d 5c 9c be
       -0.1661585 0.14261155 -0.02026883 -0.3053917
0002a0 27 42 9a 3e d3 91 c5 3e d9 d9 b7 be 2e 54 64 3e
       0.30128595 0.38587818 -0.35908392 0.22297737
0002b0 37 4c dd be c0 66 2c be 50 c7 50 bd 6e 6d 74 be
       -0.4322221 -0.16836071 -0.05097133 -0.23869869
0002c0 1f 95 27 be 87 06 c2 3e b6 30 fc be 57 fa b0 be
       -0.16365479 0.37895605 -0.49255913 -0.34565994
0002d0 61 7c 09 3e b7 58 a9 bd 08 49 12 3e ac 37 a2 3e
       0.13426353 -0.08268874 0.14285672 0.316831
0002e0 9a d6 88 3e 72 bc 2f be 34 bc 2f be c6 0a 89 3e
       0.26726228 -0.1716173 -0.17161638 0.26766032
0002f0 80 f6 99 bd 52 75 33 be a8 11 74 3e 32 33 9f 3e
       -0.07517719 -0.17525223 0.2383486 0.31093746
000300 e7 fe 46 bc 29 93 e2 3e 80 44 94 be 9f 2b 48 be
       -0.012145734 0.442529 -0.2895851 -0.1954789
000310 ca f0 1a 3e 6e 03 b6 3e c1 34 ce 3e cd 5e 55 3e
       0.15130916 0.35549492 0.40274623 0.20836945
000320 7c d1 dc be 14 5f e1 be e7 23 76 3e 11 e1 88 be
       -0.43128574 -0.4401785 0.24037133 -0.26734212
000330 a2 aa 32 bd a0 0a e5 bc 7b 41 11 bb 6e 62 be 3e
       -0.04361976 -0.027959168 -0.0022164274 0.3718447
000340 cc a5 a5 be 65 0a 9a be 3c 35 ab 3d 5b 91 31 be
       -0.32353055 -0.30086055 0.08359763 -0.17340605
000350 c1 4c cd be 70 1f 5f 3e f3 3d 67 3e bf 69 73 bc
       -0.4009762 0.21789336 0.22582226 -0.014856755
000360 80 48 ab 3e f3 50 10 3e 26 a6 20 3e 37 d4 9b 3e
       0.3345375 0.1409338 0.1568838 0.30435345
000370 fd a9 8c be c4 ba 03 3e e5 30 9f 3e 3b 4a df be
       -0.2747344 0.12864214 0.3109199 -0.4361132
000380 8c c6 5d 3e 37 6b 68 3e 03 cf 0c bd ff fa 05 3f
       0.21657771 0.22697149 -0.03437711 0.52336115
000390 05 df 15 3e b2 cf cd bd c0 d4 94 3e f5 64 82 be
       0.14635856 -0.1004938 0.29068565 -0.2546765
0003a0 8a fe e7 3d 71 22 e9 3d 9e 13 2c 3e f7 aa ed bd
       0.11327846 0.11383522 0.16804358 -0.116048746
0003b0 75 db 78 be c2 5e ec bd 91 a3 41 3e 77 3e 39 3e
       -0.24302466 -0.11541511 0.18910052 0.18090235
0003c0 e5 64 5c be e9 69 94 bd 5d 8c 98 3c 16 32 84 3e
       -0.21522863 -0.07246763 0.018621618 0.25819463
0003d0 34 10 c6 3d 79 bd 77 be 88 2c 58 be 0f cc a4 be
       0.09671059 -0.24193372 -0.21110737 -0.32186934
0003e0 7d c7 8d be 2a bb 8b be f1 0b 6a be 45 bb da be
       -0.2769126 -0.27291232 -0.22856118 -0.42721
0003f0 a9 20 b7 be cc 0c 90 be 84 68 5a be ca 57 62 be
       -0.35767105 -0.28134763 -0.21328932 -0.22103801

phi.initial_conv_module.0._layers.5.weight f4 [64]
000000 8c 32 7c 3f 00 c1 87 3f 48 d9 8f 3f da d4 5d 3f
       0.9851463 1.0605774 1.1238184 0.8665291
000010 4a e0 83 3f eb 4e 93 3f 09 43 66 3f 82 e9 6d 3f
       1.0302823 1.1508459 0.8994604 0.9293443
000020 d4 78 88 3f 91 4e 5b 3f 7d a2 83 3f 81 ad 83 3f
       1.0661874 0.8566676 1.0283962 1.0287324
000030 0f 56 99 3f 20 b8 82 3f e9 a6 63 3f 78 5a 63 3f
       1.1979388 1.021244 0.8892656 0.8880992
000040 5f 24 89 3f 66 7a 72 3f 0c 64 95 3f d8 44 88 3f
       1.0714225 0.94718015 1.1671157 1.064601
000050 eb 78 86 3f 27 94 7b 3f 6c 08 82 3f fc ba 79 3f
       1.0505651 0.9827294 1.015882 0.9755094
000060 47 66 93 3f e3 17 91 3f 42 3b 78 3f 48 51 7c 3f
       1.1515588 1.1335415 0.9696542 0.98561525
000070 aa a0 7b 3f 6c 72 66 3f f6 3f 77 3f 15 7f 72 3f
       0.9829203 0.90018344 0.9658197 0.9472516
000080 0f 32 7c 3f 98 7d 79 3f a3 88 84 3f 99 53 89 3f
       0.98513883 0.97457266 1.0354198 1.0728637
000090 1c 1b 76 3f 28 75 8c 3f ab cf 7c 3f 5f 10 86 3f
       0.96135116 1.0973253 0.98754376 1.0473746
0000a0 0d ca 8a 3f 3d b7 7a 3f cb 9c 8d 3f f0 1a 7f 3f
       1.0842911 0.9793585 1.1063474 0.9965048
0000b0 44 e4 7f 3f 76 02 78 3f 13 92 6f 3f 96 4f 88 3f
       0.9995768 0.96878755 0.93582267 1.0649288
0000c0 3a f7 86 3f 5e 00 84 3f 68 d5 6c 3f ee 41 8d 3f
       1.0544198 1.0312612 0.9251313 1.1035745
0000d0 06 2c 91 3f d8 e9 79 3f 47 02 73 3f ed 90 6a 3f
       1.134156 0.9762244 0.9492535 0.9162739
0000e0 d5 58 63 3f e1 40 70 3f de 7d 69 3f 4e 15 7a 3f
       0.8880742 0.93849 0.91207683 0.9768876
0000f0 70 b4 6d 3f 30 b1 5f 3f 3b e4 7e 3f 17 a1 6d 3f
       0.9285345 0.8737974 0.99567 0.9282393

phi.initial_conv_module.0._layers.5.bias f4 [64]
000000 4c c3 92 3d 54 a1 07 3e 37 b2 3f 3d c8 c5 15 bd
       0.07166156 0.13245136 0.04680082 -0.036565572
000010 ed ce 07 bc 4a 03 56 3e 6f 98 f8 3b 6b ec b4 bd
       -0.008289081 0.20899692 0.007586531 -0.08834156
000020 c0 e0 42 bd a9 7f 49 bd 2c df b3 3d 74 24 f5 3d
       -0.04757762 -0.04919401 0.08782801 0.119698435
000030 bb c3 86 3e 08 52 0c 3e 3b 69 e8 bc 17 de 01 3d
       0.26321205 0.13703167 -0.02837049 0.031705942
000040 3a ea 1a 3d 85 4d 83 3d c7 d9 ae 3c 78 86 ef bc
       0.037821032 0.0641127 0.021344079 -0.029238924
000050 22 6c 99 3d 33 41 a0 3d 31 b3 64 bd e3 23 bf 3d
       0.07491328 0.07824936 -0.055834953 0.09333017
000060 d1 9a 15 3d af 67 59 bd b1 22 85 bc 8f a5 44 3b
       0.036524598 -0.053077396 -0.016251894 0.0030005907
000070 15 0b 41 3d 54 23 e5 bc e6 46 4c 3d fa c0 60 3d
       0.04712971 -0.027970947 0.0498723 0.054871537
000080 66 57 88 3d e3 a7 f1 3d 90 85 52 bc 6f 43 ee 3d
       0.06657295 0.117996 -0.012849227 0.11633956
000090 f3 d1 d6 3d 73 3c 43 bd 3f 9b ae 3d 71 7f 36 3e
       0.104892634 -0.04766507 0.085257046 0.17822053
0000a0 00 1c b9 3d 14 e7 02 bc 9b 9e 73 bc 54 ac 11 3e
       0.09038544 -0.007989664 -0.014869357 0.14225894
0000b0 ed b4 8a bd b5 e2 8d 3c e6 6e c0 bd a7 93 03 3e
       -0.0677279 0.017320016 -0.09396152 0.12849294
0000c0 dc 15 d8 3d 85 bc b1 3d 4b 4e 5f bd d6 e1 0c bd
       0.10551044 0.08678535 -0.054518025 -0.03439506
0000d0 9f bb 85 3d 8c 4d 35 3d 05 bf d0 3c 33 6a 4a bd
       0.065299265 0.044263408 0.02548171 -0.049417686
0000e0 01 74 95 bc 96 85 84 3c 50 2e 99 bd 74 0c 7a 3d
       -0.018243792 0.01617698 -0.074795365 0.061047032
0000f0 81 34 23 bc c1 6b ae bd 39 72 b4 3d 2a 4b b1 3c
       -0.009961248 -0.08516646 0.08810849 0.021642286

phi.initial_conv_module.0._layers.5.running_mean f4 [64]
000000 1d cf 9b 3d 04 dc 17 be 62 62 2b be 63 00 9c 3d
       0.07607863 -0.14830023 -0.16736749 0.07617261
000010 ce 79 f4 bc 6c 6d 47 3c 65 fc 0b 3e 4d ba 68 3a
       -0.029843237 0.012172084 0.136705 0.00088778586
000020 23 e9 e8 bb 65 82 77 bd a0 17 9b 3d 1c 3f 9a 3d
       -0.00710787 -0.06042709 0.075728655 0.075315684
000030 c3 ce ba bb 44 cb ac 3d 83 32 53 3d 3a 57 eb bc
       -0.0057009174 0.08437207 0.051561844 -0.028728116
000040 da 7a ee bd 09 61 d1 3d 6b d6 2e bc b6 f1 1c be
       -0.11644526 0.10223586 -0.010671238 -0.1532658
000050 da 61 a1 3b 7e d5 c4 3c 8f 73 ab bd e5 5d ac 3d
       0.004924995 0.024027582 -0.083716504 0.084163465
000060 f4 e5 7d bb 79 00 49 bc 0e 99 e5 bd 2e aa 6d bc
       -0.00387418 -0.012268179 -0.112108335 -0.014505906
000070 fc dc 23 3e eb a4 03 3e 19 13 0b 3e 35 7e 14 3e
       0.16002268 0.1285588 0.13581504 0.14501269
000080 32 7a d7 3c fe 8c 96 3d 4a 2d f6 bd 76 d2 1f be
       0.026303384 0.07351111 -0.12020357 -0.15607628
000090 f4 c6 a2 3d 3c 19 e9 bc 21 a6 0b 3e 3d 7b 4e 3e
       0.079481035 -0.028454416 0.13637592 0.20164199
0000a0 7e 6b 1b be d1 bd 16 bd f2 c0 3a bc 2a a8 40 3e
       -0.15177724 -0.036802117 -0.011398541 0.1881415
0000b0 ed 4c f1 ba 40 95 85 3d 66 26 18 3d b6 7a c6 bc
       -0.0018409766 0.06522608 0.037145995 -0.024228435
0000c0 9f 0f 91 3c e5 1b 3e be 76 62 6b be 60 38 47 bd
       0.017707644 -0.18565328 -0.22986779 -0.048637748
0000d0 1b 2b b7 bd f6 fc 89 bd 36 06 c9 bd 1a 24 b9 3d
       -0.089437686 -0.067377016 -0.09815638 0.09040089
0000e0 c1 5d 46 bb e2 56 89 3d c7 2b dd 3c 27 4c b0 3d
       -0.0030268284 0.06706025 0.026998414 0.08608275
0000f0 3b c0 79 bd 13 4d 0b 3e e7 5f f3 bd 18 b3 c7 3d
       -0.06097434 0.1360362 -0.11883526 0.09750956

phi.initial_conv_module.0._layers.5.running_var f4 [64]
000000 3c c7 ac 3d ea 43 a4 3e 37 60 b4 3e e9 6a 1e 3d
       0.084364384 0.32083064 0.35229656 0.038676176
000010 de 2d 55 3c 95 99 b2 3d 7c 61 20 3e d3 cf e8 3c
       0.013011424 0.087207 0.15662187 0.02841941
000020 1a 3c 02 3d 0e f1 ed 3c 7f f1 da 3d c6 17 30 3d
       0.0317956 0.029045608 0.10690593 0.042991422
000030 a0 46 bd 3b b1 13 98 3d d4 f8 04 3d b4 0a c4 3d
       0.0057762414 0.07425631 0.032463863 0.09572354
000040 36 fe 19 3e 1a dd a1 3d 95 31 53 3d ae a8 2d 3e
       0.1503838 0.079035 0.051560957 0.16958877
000050 5b 43 51 3c 48 fc c7 3c e4 e0 ab 3d f5 8c cc 3d
       0.012772406 0.02441229 0.08392504 0.09987823
000060 45 83 06 3d b8 91 bf 3b 95 4b b6 3d 8e ed 18 3c
       0.032840032 0.0058462285 0.08901135 0.009333981
000070 a3 48 f4 3e 1d 8f eb 3d 88 df 80 3e 2d d1 6f 3e
       0.47711667 0.11501906 0.2517054 0.23419638
000080 11 59 50 3d 27 3e b0 3d 17 4f 01 3e 4c f4 54 3e
       0.05086619 0.086056046 0.12627827 0.20796317
000090 88 2a 15 3e 68 16 89 3c ee cb 5a 3e 29 3d fc 3e
       0.14567006 0.016734317 0.21366856 0.49265411
0000a0 32 c4 3b 3e a6 60 9a 3d 44 18 87 3d 1b 7c 8f 3e
       0.18336561 0.075379655 0.06596425 0.28024372
0000b0 2c e5 b3 3b da 95 37 3e 6c 1a d5 3c eb 7c 13 3d
       0.005489966 0.17928258 0.026013575 0.036007803
0000c0 8d 28 b6 3c 59 13 ad 3e 08 af f0 3e c6 d6 d7 3d
       0.022236133 0.33803824 0.47008538 0.10539012
0000d0 68 d4 dc 3d d5 ff f0 3c f7 f2 2f 3e 02 eb 45 3e
       0.10782701 0.029418865 0.17182527 0.1932793
0000e0 f6 3f 46 3c 9a f1 e8 3d 65 e6 8c 3d f9 87 a1 3d
       0.01210021 0.11374207 0.06879882 0.07887263
0000f0 d1 94 8f 3d 53 0f d9 3e c0 94 42 3e 15 1b 4b 3e
       0.07010806 0.42394504 0.19002056 0.1983455

phi.initial_conv_module.0._layers.7.se_conv.conv.weight f4 [10, 64, 1]
000000 7c 76 02 3e d3 e8 84 3d 32 5b 85 3d 3c 1e bf 3d
       0.1274051 0.0648972 0.06511535 0.093319386
000010 c5 e6 7d 3e 2f 31 25 bc d1 8d ff 3c 67 32 37 be
       0.24795063 -0.010082527 0.031195553 -0.1789032
000020 6a 57 e7 bc 2f 0b ba bc 03 62 ec 3c e2 c2 33 3c
       -0.028239924 -0.02271041 0.02885533 0.010971757
000030 94 1f af bb 56 42 28 3e 0b 97 03 bd 1b 4c 85 bd
       -0.0053443406 0.16431555 -0.032126468 -0.065086566
000040 99 64 32 bd 66 e2 3c 3d 8c 1e 0d 3e ed 1f 80 3d
       -0.04355297 0.046114348 0.13781184 0.06256089
000050 ef f6 8d bd a7 e4 ab 3d 1e 4e f7 3d f8 35 14 bd
       -0.069318645 0.08393221 0.120754465 -0.03618428
000060 7f e6 0f be c4 29 1e 3e f7 a8 11 3e 4c 2f 87 3d
       -0.14052771 0.1544562 0.14224611 0.06600818
000070 35 f0 62 3e fd b4 4c 3d cf e8 eb 3d 91 ae 1f 3e
       0.22161944 0.04997729 0.11519014 0.15593936
000080 f3 4e 54 3d ba ed 70 bd 30 ce ec 3d a7 1d 6d bc
       0.051833104 -0.058820464 0.11562765 -0.014472402
000090 8a 9a 29 3e a9 fd a2 bd 62 44 05 3d b9 0d 8b bd
       0.16562858 -0.07958538 0.032535918 -0.06789727
0000a0 5a ca 3b 3e 18 cc b3 bd fa ab ec bd f9 ea 81 be
       0.1833891 -0.08779162 -0.115562394 -0.25374582
0000b0 0e 7c 94 3d 86 9d a4 3d 04 c3 49 3b b1 a5 9c 3d
       0.07250224 0.08037858 0.0030786404 0.07648791
0000c0 63 bd 63 bd 10 6c b4 3d 3f 8b 6b bd 41 55 09 bd
       -0.055600535 0.08809674 -0.057505842 -0.03352857
0000d0 0d 98 9a bb 58 3d 39 3e 55 c3 40 bd eb a4 85 3e
       -0.004717833 0.18089807 -0.047061283 0.26102385
0000e0 61 34 37 3e c5 b3 0c 3d 31 2d 2c 3e 3c 1f d9 bd
       0.17891075 0.03435113 0.16814114 -0.106016606
0000f0 ba 4b cc bb 64 b8 de bd 51 32 95 bd 67 ce 39 3d
       -0.0062346132 -0.108750135 -0.07284988 0.045362856
000100 b1 16 8c 3e cd 29 05 bc 41 6b 2d 3e b4 1a c1 bc
       0.27361062 -0.008127642 0.16935445 -0.023572303
000110 88 66 c0 3d e8 01 31 3e b5 ce c7 bc ec b1 15 be
       0.09394556 0.17285883 -0.024390558 -0.14618653
000120 6d 6b 11 bd 87 1c cc 3c d4 20 b2 bd f0 ca 4a bd
       -0.03550284 0.024915947 -0.08697668 -0.049509943
000130 9b 79 6e bc 09 87 03 3d 9a fc 78 3d ba c9 9b 3d
       -0.01455536 0.0321112 0.060787775 0.07606836
000140 a9 b6 d4 bd a0 63 5d 3c 51 53 7e 3e cc 47 ac 3d
       -0.10386402 0.013512522 0.2483647 0.08412132
000150 cc e6 0a 3e 14 77 1f 3a 84 3b 00 3e 70 41 27 bc
       0.13564605 0.00060831127 0.12522703 -0.010208473
000160 ba 5f 39 bc e8 c3 55 3b 60 e9 a9 3d 09 9c 16 3d
       -0.011314327 0.003261799 0.08296466 0.0367699
000170 49 94 7b 3d 1f f5 47 bc 67 f7 69 bd f1 6b 7e 3e
       0.061420713 -0.0122044375 -0.057120707 0.24845864
000180 69 d6 90 3a 4a d8 8e 3d ac 4e 75 3c 08 97 54 3e
       0.0011050227 0.069748476 0.01497237 0.20760739
000190 78 7c 2e 3e b9 60 8b bd 4e 30 c1 3c 90 85 a9 3d
       0.17039669 -0.06805558 0.023582604 0.08277428
0001a0 f8 68 a1 3e fa c3 f0 3d 1a d5 68 3d 46 13 24 bc
       0.31525397 0.117561296 0.056843854 -0.010014361
0001b0 19 57 06 3d 3f e3 19 3e cd af 4f 3d 35 d1 b3 3d
       0.032797907 0.15028094 0.050704766 0.087801374
0001c0 7e ce 9c b9 c8 0b 4b 3e 2a 12 83 bc a5 09 ee 3d
       -0.00029908487 0.19828713 -0.015999872 0.11622933
0001d0 9e f0 51 3d 22 7d a1 3d f3 3b ee 3d 32 25 d5 bd
       0.05125486 0.07885195 0.11632528 -0.10407485
0001e0 84 a3 e9 3b 76 8f 9d bd e3 12 13 3e 13 59 68 3e
       0.0071300883 -0.076933786 0.14362673 0.22690229
0001f0 fa 21 5c bc 49 60 bd 3c a2 84 cf 3c 2c 63 96 3d
       -0.013435835 0.023117201 0.025331799 0.07343134
000200 fd 43 7a be f8 d3 c6 3d f6 e5 2c 3e 60 3f af bb
       -0.24439998 0.097083986 0.16884598 -0.005348131
000210 67 fd cb bd 32 f7 0d be 36 8c b5 bd a2 10 97 3d
       -0.09960442 -0.13863829 -0.08864634 0.07376219
000220 ee ef 85 bd ab 8a cf bd cd 27 2e bd fc 70 28 3d
       -0.065399036 -0.10133871 -0.042518426 0.041123375
000230 93 47 56 3e 2e 70 ac 3e fd f7 03 3d e6 ea 13 3e
       0.20925741 0.33679336 0.032218922 0.14445075
000240 6b 12 0f bc 9b 14 d8 bd 49 5f 68 3d 83 16 81 3d
       -0.0087324185 -0.10550805 0.056731496 0.06303122
000250 b9 b0 b9 bc a3 02 2a 3e bc cf dd 3b 16 b3 60 3e
       -0.022667276 0.16602568 0.0067691486 0.21943316
000260 e1 ef da bb 87 ff da bd 86 4b 1c be 4e e1 1f bd
       -0.006681428 -0.10693269 -0.15263185 -0.039033227
000270 0e a1 50 3c 60 24 25 3e 15 47 40 be cc a5 1f be
       0.012733711 0.16127157 -0.18777116 -0.1559059
000280 54 10 9f bd 26 68 50 3e 75 d4 f2 3d f4 12 37 be
       -0.07766786 0.2035223 0.11856929 -0.17878324
000290 1e 10 25 be 1c ab 89 3e 03 56 14 bc 67 09 1b 3e
       -0.1611943 0.2688836 -0.00905371 0.15140305
0002a0 1d ae 7f be 81 4f c5 3d ba de 2b 3d ad 12 0a be
       -0.24968763 0.09634305 0.041960455 -0.13483687
0002b0 cf 98 a1 3c d7 10 09 be bb ae c9 bd 4e 68 eb 3d
       0.019726185 -0.1338533 -0.0984778 0.11494504
0002c0 28 9e 0a 3d 4a 29 24 be 1c f7 45 3e 15 65 87 bb
       0.033842236 -0.16031376 0.19332546 -0.004131923
0002d0 36 03 18 be 1b 43 f5 3c 69 03 cc 3c bb 00 36 3e
       -0.14844975 0.029939225 0.02490397 0.17773716
0002e0 03 c3 5f bd f9 19 66 3d af f4 3c 3e 8d 2c b3 be
       -0.054629337 0.056177113 0.18452714 -0.34994927
0002f0 38 1a b1 bd 49 21 99 3d f1 22 14 3d 09 c4 07 be
       -0.08647579 0.07477052 0.036166135 -0.13258375
000300 20 c2 a9 bd 96 40 21 be 81 5a 9b bd 0e 40 0c 3e
       -0.082889795 -0.15747294 -0.075856216 0.1369631
000310 9b 1a 65 bd 9f 4e 94 bd af 1d a2 3d 8c d3 0e 3e
       -0.055933576 -0.07241558 0.07915818 0.13947886
000320 e5 53 f4 3d ba df 46 3d 88 b7 1c bd 84 be 38 3e
       0.11930064 0.048553206 -0.038260967 0.18041426
000330 aa df 35 3e 0d 18 e3 3c bb 28 08 be 5f b2 07 3e
       0.17761102 0.02772143 -0.13296787 0.13251637
000340 4b 8a 43 3e 3b a7 cc bc a1 34 01 3e 22 0e 21 3e
       0.19095723 -0.024982085 0.12617733 0.15728047
000350 c5 58 aa bd 78 f4 94 3d 51 61 c8 3d 15 76 f3 3b
       -0.08317713 0.07273191 0.09784187 0.007429848
000360 2c 2e 1a bd 3f 82 df bd e3 d5 3e bd 71 a5 b5 3d
       -0.03764169 -0.10913514 -0.046590697 0.08869446
000370 22 f5 7b 3e 99 51 e3 bb 2a 13 b8 bc 03 1d 4c 3e
       0.2460523 -0.0069372174 -0.022470076 0.19932942
000380 82 13 9e bd 90 96 08 3e 6f 79 14 be cb 9f 88 bd
       -0.077185646 0.13338685 -0.14499448 -0.06671103
000390 5d f8 2e bd da 62 0c 3e 9c 04 64 bd 96 7b e0 bd
       -0.042717326 0.13709584 -0.05566846 -0.10961072
0003a0 78 f4 31 be 5d 25 d1 3d 14 8b 97 bd 66 77 86 be
       -0.17378414 0.102122046 -0.07399574 -0.2626297
0003b0 06 15 70 bd 5a 7d 8a 3d 3d 16 b9 3d 71 3e 7a 3e
       -0.0586138 0.0676219 0.09037445 0.24437882
0003c0 4c 2f 12 3e f9 33 09 be 05 a8 04 3e 39 24 af 3d
       0.14275855 -0.13398732 0.1295472 0.08551831
0003d0 f4 c7 2f be 34 04 91 bd 02 34 e7 3c 05 15 9b 3c
       -0.1716612 -0.0708088 0.028223041 0.018930921
0003e0 0b c1 1d be c9 8b e2 3c 55 84 3b 3e 0a b2 29 be
       -0.15405671 0.027654545 0.183122 -0.16571823
0003f0 25 9c 8d bd 34 3f 28 3e 98 f2 f6 bc d9 fc b6 bd
       -0.06914548 0.1643036 -0.030144975 -0.089349456

phi.initial_conv_module.0._layers.7.se_conv2.conv.weight f4 [64, 10, 1]
000000 1b 25 e1 bd db ab 98 be 33 3c 48 3e 19 a9 3c be
       -0.109934054 -0.29818615 0.19554214 -0.1842388
000010 09 c1 f0 3d 31 2c 4f be d2 30 06 bd 57 4c 16 3e
       0.117555685 -0.20231701 -0.032761402 0.14677559
000020 f4 99 bc bd 91 2a d0 3d ec 41 6b bb 54 2b a0 3e
       -0.09209052 0.10164369 -0.0035897447 0.31283057
000030 0c dc 05 bd 4a 5b ff 3c 9c 58 27 3e 8e 5d d5 3d
       -0.032680556 0.03117146 0.16342396 0.10418235
000040 e6 2e 7b 3e 46 8a c9 bb 92 9f 87 bd 36 9c 8a 3e
       0.24529609 -0.0061505167 -0.066222325 0.27072304
000050 b0 d7 f6 3d ec a1 21 3d 50 61 65 be 86 d8 3f be
       0.12052858 0.03946106 -0.22400403 -0.18734941
000060 ea 27 2a be ce 96 8d be cd a5 d3 be a5 68 86 bd
       -0.16616789 -0.27654117 -0.41337433 -0.06562928
000070 59 57 9a 3e 8a 06 c9 bd 17 6c 95 3d 31 7a d5 3d
       0.30144766 -0.098157 0.07296007 0.10423697
000080 e1 18 26 3e 29 4c 7f be 87 40 55 bd 33 00 5e bd
       0.16220428 -0.24931397 -0.05206349 -0.05419941
000090 98 0f bd bd 3d dd c6 3d ad 06 03 3d 16 4e 78 be
       -0.0923149 0.097101666 0.03198879 -0.24248537
0000a0 7b b3 55 be 4c 89 ac be 7a dc b7 bd 80 14 92 3e
       -0.20869248 -0.336985 -0.089775994 0.28531265
0000b0 28 d6 04 3e 8f 14 a2 3d 99 bd 59 3e b9 43 57 3e
       0.12972319 0.079140775 0.21263732 0.21021928
0000c0 f1 4d 98 3d 66 df 2f 3d df 44 78 3e 18 8a 70 3e
       0.07436741 0.04293766 0.24245022 0.23490179
0000d0 f2 0d 9c 3e 92 06 2a be 6d 5b ee 3d 32 98 cc 3a
       0.3047939 -0.16604069 0.11638532 0.0015609323
0000e0 15 d9 9d be b9 45 13 be 7f 37 1d 3e c6 a0 ae bd
       -0.30829683 -0.14382066 0.15353201 -0.08526759
0000f0 c2 16 46 be 1e e5 97 3d a6 c2 8a 3e 47 e7 86 be
       -0.19344619 0.074167475 0.2710163 -0.26348326
000100 33 eb 57 3e dc f5 7a 3e df de 03 bd 7d 5e db bd
       0.21085815 0.2450785 -0.03219497 -0.107113816
000110 ff 2c 1f 3e 5d e9 3f 3e 69 d0 16 3e 1e f3 a0 be
       0.15544508 0.18741365 0.1472794 -0.31435484
000120 25 30 02 b9 da 10 28 be b8 ea a6 bc 45 46 93 3e
       -0.00012415701 -0.16412678 -0.020375594 0.2876455
000130 92 8b 94 be 81 bd 82 3d 68 08 00 3e 68 34 d1 3d
       -0.29012734 0.06383801 0.12503207 0.10215074
000140 de 88 5b be 4f 38 8e be b7 04 b1 bd 66 ce 83 3c
       -0.2143893 -0.27777335 -0.086434774 0.01608963
000150 1f a6 df 3c 1f 77 99 be a0 0b 33 3c e5 b0 de 3d
       0.027300892 -0.29973695 0.010928065 0.10873584
000160 d9 aa af bd 90 39 d1 3d 48 20 70 3e 92 16 20 3e
       -0.085775085 0.10216057 0.23449814 0.1563361
000170 de e4 7c 3e bd 50 6f be 56 5e 8e be 69 0b 01 be
       0.24696681 -0.23370643 -0.27806348 -0.12602009
000180 a9 72 40 bd 90 e1 19 be 35 70 4e be 8a a4 c8 bd
       -0.04698435 -0.15027452 -0.20159991 -0.09797008
000190 30 85 80 3e 53 47 6c 3e e2 df 1a be eb 87 88 be
       0.25101614 0.23074083 -0.15124467 -0.26666197
0001a0 78 34 87 be 0d 8c 4d be ec 86 8a be 53 f1 b7 bd
       -0.26407218 -0.20072956 -0.27056062 -0.08981576
0001b0 55 06 ad be fb 5a 6c 3e 1f 41 ae 3e f8 c5 ec 3d
       -0.33793893 0.23081581 0.34034058 0.11561197
0001c0 41 10 35 bc a0 b5 68 be 71 b4 48 be 72 8a 2c 3e
       -0.0110512385 -0.22725534 -0.19600083 0.16849688
0001d0 cb c8 ed 3d 4e a2 9e 3e 4f bf f1 3e 42 36 3a be
       0.11610564 0.30983204 0.4721627 -0.1818476
0001e0 ea f7 c8 3e 72 48 a6 3e 10 13 71 be 8f da 62 be
       0.39251643 0.32477146 -0.23542428 -0.22153686
0001f0 d1 b5 97 3e 4d 9e a9 be ef a3 c0 3c 81 c6 a9 3e
       0.29630902 -0.33128586 0.02351567 0.3315926
000200 34 d8 e7 3e 05 7d 90 3e 35 a7 d8 3d 75 a0 27 3e
       0.45282137 0.28220382 0.10578767 0.16369803
000210 72 24 ec be f5 34 99 bd 4e 95 fc 3c f0 f0 af bd
       -0.46121556 -0.07480804 0.030832913 -0.08590877
000220 38 6c ff bd 52 42 cb be ae d2 2c be 00 75 34 bc
       -0.12471813 -0.39699036 -0.16877243 -0.011014223
000230 a6 21 1b bd fb 50 87 be 8a 3f be 3e ee 17 7b 3e
       -0.037873887 -0.2642897 0.3715785 0.24520847
000240 5d 3c f1 bd 6b d1 af 3e 7c 3d 82 3e fa 68 f5 3c
       -0.117790915 0.3433946 0.25437534 0.029957283
000250 8a e0 64 3e d6 f4 dc be ff dd b7 bc d9 94 9c be
       0.2235128 -0.43155545 -0.022444723 -0.30582312
000260 88 dd f0 3c c0 f9 83 3c 18 19 3c be 2e b6 c6 3e
       0.02940251 0.016110301 -0.18368948 0.38810867
000270 81 4c 6e 3e 0f a7 c0 be b3 15 a3 bb f3 c4 ec 3d
       0.23271371 -0.37627456 -0.004976952 0.115610026
000280 4b f4 50 be 98 f0 9a 3e 5c 92 b5 be d0 01 8e be
       -0.2040569 0.30261683 -0.35463226 -0.27735758
000290 49 50 44 3e 33 c2 98 be cd 65 24 be 1b 4a 64 bb
       0.19171251 -0.29835662 -0.16054459 -0.003483421
0002a0 d9 c3 4f be c2 0f b6 3d 7c dc a5 be a4 16 b3 3d
       -0.20289554 0.08889724 -0.3239478 0.08744553
0002b0 e1 ec b7 3e 59 9e 73 3d 1a bb 4c be bc 30 6c 3e
       0.35922912 0.059477184 -0.19993249 0.23065466
0002c0 f4 62 45 be 71 a0 4d bd 9e 2e 8b be 09 5a f4 bd
       -0.19276029 -0.050201837 -0.27184004 -0.11931235
0002d0 aa 2a 07 3e bc 18 b8 3e 05 ce 89 be 76 a8 0b bd
       0.13199869 0.3595637 -0.26914993 -0.034096204
0002e0 c5 b3 a7 be 05 d4 9d be 38 c0 3c be 7a 96 c1 3d
       -0.3275434 -0.3082582 -0.184327 0.09452529
0002f0 26 46 2b be b8 1a c7 3e 66 5e 58 3e aa b4 50 be
       -0.16725978 0.38887572 0.2112976 -0.20381418
000300 0a 18 a3 3d 10 0a 5a be 00 77 b2 be 2b 47 03 bd
       0.079635695 -0.21292901 -0.34856415 -0.032050293
000310 61 39 79 3c 30 bc 86 be bd c8 64 3c bd 3c e2 bd
       0.015211434 -0.2631545 0.013963875 -0.11046741
000320 6a 3e 86 3e ae 1f ad be 47 a9 6e be 4d 22 90 3d
       0.26219493 -0.33813232 -0.23306762 0.07037792
000330 a4 37 82 be 72 a2 36 3d 42 74 00 be b2 f6 47 3e
       -0.25433075 0.044588514 -0.12544349 0.195277
000340 84 1a 63 be 69 49 9b 3e 8a 58 8d be ec 1e 35 be
       -0.22178084 0.30329445 -0.27606612 -0.17687577
000350 fa ff c7 be 32 55 01 be a2 c2 3f 3e 47 55 8b 3e
       -0.39062482 -0.12630156 0.1872659 0.272135
000360 75 f6 c4 be 05 1d 35 3e 1e 53 43 be 5b 99 63 3e
       -0.38469282 0.17686851 -0.19074675 0.22226469
000370 ab e5 06 be c8 0a b4 3c 02 45 3e be 8a fc 32 be
       -0.13173549 0.021977797 -0.18581012 -0.17479149
000380 59 59 0a 3e a6 92 29 bd 1e b4 b6 bd df 27 dd 3d
       0.13510646 -0.04139962 -0.089210734 0.107986204
000390 87 5e a1 bd a0 91 5d be 27 dd 87 be 27 a4 49 bd
       -0.07879358 -0.21637583 -0.26535913 -0.049228813
0003a0 90 18 21 be 12 fe 65 3d 8f 3a f3 3c 45 bf 12 bd
       -0.15732026 0.056150503 0.029691009 -0.03582694
0003b0 a3 ed a7 be af 6a 97 be c9 64 03 3c 2a 38 d4 3b
       -0.3279849 -0.2957358 0.0080196345 0.006476422
0003c0 06 df 89 3d 69 92 7d 3e 7e ff 5e be 9b d6 82 be
       0.067319915 0.24762882 -0.2177715 -0.25554356
0003d0 c5 22 09 be 6f 3e c9 bd 90 61 9c 3d dc 53 af be
       -0.1339217 -0.098263614 0.07635796 -0.34243667
0003e0 7d 87 63 3e e8 7a 8b bd 27 75 c9 be 91 00 ff bc
       0.22219653 -0.06810552 -0.39347193 -0.0311282
0003f0 3f 61 82 3d 10 0e c0 3e c5 15 a7 3d a1 47 9e 3d
       0.063662045 0.3751073 0.08158449 0.07728506

phi.initial_conv_module.0._layers.8.conv.weight f4 [32, 64, 1]
000000 5f 4e 83 3b b1 1f f4 bd 30 56 5f be 33 1e 41 be
       0.0040071453 -0.11920107 -0.21810222 -0.18859176
000010 9f 53 a3 3d 2b 97 bd bd 3f c9 85 3d 16 24 b3 3d
       0.07974934 -0.092573486 0.06532525 0.08747117
000020 89 e8 15 3e 16 b7 5a 3c 8f 20 39 be b1 2f 0f bb
       0.14639486 0.013349315 -0.18078826 -0.0021848495
000030 4c 98 bf 3d 31 c0 c2 3d 61 19 9b bc 95 e2 a0 bd
       0.0935522 0.09509314 -0.018933 -0.07855717
000040 57 5b ac bd 62 ac 82 3d fd 3b 42 3e c6 20 0f be
       -0.08415859 0.06380536 0.18968196 -0.13977346
000050 26 00 6d 38 10 a4 7f bd 6b f9 cf bc b8 fa b1 bd
       5.650534e-05 -0.06241232 -0.025387486 -0.08690399
000060 71 73 55 3d 3b d5 e8 bc eb 51 96 bc b5 c8 2a be
       0.052112047 -0.028421989 -0.018349608 -0.16678126
000070 56 0a 7c bb 5f a6 ad bc 8d 62 aa bc bd 43 74 3c
       -0.003845831 -0.021197496 -0.020798946 0.014908728
000080 a6 db aa bc ef 9b 93 bc 1c 75 93 bd eb 28 6d 3a
       -0.02085669 -0.01801869 -0.07200071 0.000904693
000090 7e 97 b2 3d ec 02 20 3d 0f 4c 70 bc c3 c2 af bb
       0.08720301 0.039065287 -0.014666571 -0.0053637936
0000a0 c9 09 4c bd 6b 59 6a 3d 82 d7 2c 3e 63 38 1d 39
       -0.04981402 0.057214182 0.16879085 0.00014993692
0000b0 92 e1 19 bd 19 c7 9e bd 35 83 27 3d f1 1e 39 3e
       -0.037568636 -0.077528186 0.040896613 0.1807821
0000c0 25 02 38 3d 60 f7 97 3c 46 17 1b 3c d9 25 13 3e
       0.04492392 0.018550575 0.009465998 0.14369906
0000d0 e1 e7 9e bd da 5a 84 3c f2 00 11 be 9d ca 4c bd
       -0.07759071 0.016156603 -0.14160517 -0.049997915
0000e0 8e 49 18 bd f3 60 dd bd c3 cc de 3c a9 e0 ce bd
       -0.037179522 -0.10809507 0.027197247 -0.10101444
0000f0 85 55 26 3c bf 98 e6 bd c8 c3 9f bd b2 5e 72 bc
       0.010152225 -0.11259603 -0.07801014 -0.014793085
000100 e7 38 b2 3d 55 6b ba bc ca c2 7a bc fd 95 c7 3c
       0.087022595 -0.022756258 -0.01530523 0.024363512
000110 e1 57 c4 3b b5 0b 58 3d 82 46 d1 3c 38 c8 ae bd
       0.0059919213 0.05274554 0.025546316 -0.085342824
000120 5f e8 fa 3d f7 9e 8e bd 30 e4 2f 3d 3e 90 50 3c
       0.122513525 -0.06963914 0.042942226 0.0127297025
000130 2d 66 54 be 48 e3 1b be 40 0a c0 3c 7e 3a 80 ba
       -0.20742102 -0.1522342 0.023442388 -0.0009783057
000140 d9 d3 1b bd 6b 5d a2 3d 5a 12 35 3b fe 66 ee 3c
       -0.03804383 0.07927974 0.0027629347 0.029101845
000150 ff 6d 30 3e b8 db 9d bc 55 b0 b1 bd f0 99 9c 3d
       0.1722946 -0.01926981 -0.08676211 0.07646549
000160 dc bc b7 bd 66 71 15 3d ac 85 ba 3d 4c ea 1e bd
       -0.08971569 0.0364851 0.09107527 -0.03879766
000170 9e 36 69 3d fe e6 b1 bd 67 51 3e bd eb b3 8a bd
       0.056936853 -0.086866364 -0.04646435 -0.06772598
000180 d2 4b 9e 3d 12 01 bd 3d 7c d8 24 bd ab 87 08 3d
       0.07729305 0.0922872 -0.040245518 0.033332508
000190 23 82 fa 3c af 8d cc bd d5 a2 90 bc 68 17 fa bc
       0.030579632 -0.099879615 -0.01765577 -0.03052874
0001a0 bd df 72 3d 3d e4 36 bd b4 26 df bc d6 d8 cd 3d
       0.059295405 -0.04465126 -0.027240135 0.10051124
0001b0 b0 67 4b bd 7d 96 5a 3d 60 56 98 bc f8 c9 70 bd
       -0.04965943 0.053366173 -0.018595874 -0.058786362
0001c0 90 e6 bd 3d 20 f5 64 3d 42 66 46 bd 49 50 04 3d
       0.09272492 0.055897832 -0.048437364 0.03230313
0001d0 d8 f9 03 bd c4 96 11 bd 83 7b 38 3d e6 b5 c2 3c
       -0.03222069 -0.035544172 0.045039665 0.023768377
0001e0 22 40 6b bd 3c ad a2 3d 89 a7 15 be ae b9 ea 3d
       -0.05743421 0.07943198 -0.14614691 0.11461197
0001f0 56 35 89 bd 5f c8 84 bd d4 34 ed bd d4 61 11 3d
       -0.06699626 -0.0648353 -0.11582342 0.035493687
000200 48 de 63 be 91 20 c7 3d f3 3e ed 3c fa 77 07 3e
       -0.22252762 0.097230084 0.02896068 0.13229361
000210 7d 5f c6 bd 1f 01 03 3b 9b 44 0d bd 60 78 37 3d
       -0.09686182 0.0019989682 -0.034489255 0.044792533
000220 09 f3 f5 bd f6 79 9e 3d 30 0d 93 3c 51 b1 5b 3d
       -0.12009246 0.07738106 0.017950624 0.0536359
000230 8f c0 c4 bd 61 b7 0a 3e ae 49 11 3d 38 73 43 3e
       -0.0960704 0.13546516 0.035470657 0.19086921
000240 94 59 7a 3d 2f 9d 88 3c 66 14 58 bc 1e c8 f1 bd
       0.061120585 0.016676513 -0.013188457 -0.118057474
000250 4a 67 67 bd 3a 04 fb bd d7 c7 86 3d cd 2d b6 bd
       -0.05649499 -0.122566655 0.06581085 -0.088954546
000260 e4 f6 2e bd 23 06 68 bd 30 3a 3d 3d a1 c3 91 3c
       -0.042715922 -0.056646477 0.04619807 0.017793478
000270 b4 78 0b 3d 0f 83 19 bd 32 6d 0a 3e dc 75 4a 3d
       0.03405066 -0.037478503 0.13518217 0.049428806
000280 11 9e 4b 3d e8 5f 79 bd d7 d0 54 bd 75 a7 8f 3c
       0.04971129 -0.06088248 -0.051956978 0.017535904
000290 a8 67 e7 3b 53 f6 e7 b9 da a9 a3 bd 36 3d 62 bd
       0.0070619173 -0.0004424328 -0.07991381 -0.055234157
0002a0 f3 49 e7 bd 84 a8 e7 3d 31 9b 80 bd 75 03 8c bd
       -0.112934016 0.11311439 -0.062796004 -0.06836597
0002b0 71 f7 56 bc 3e fc ef bc c2 f9 cb 3d f7 47 59 bd
       -0.013120518 -0.029295083 0.09959747 -0.053047147
0002c0 41 2c a2 bb b7 c3 bc 3d 06 2a 4f 3d 04 c4 fe 3d
       -0.004949123 0.09217017 0.050577186 0.12439731
0002d0 ad d5 87 3d 56 70 2d bb 59 dc 1e 3d a8 07 89 bd
       0.06632552 -0.0026464663 0.03878436 -0.066909134
0002e0 44 4c 7d bd 02 0f 87 3d 1c ca 96 bb 21 fe bd bd
       -0.06184031 0.065946594 -0.00460173 -0.09276987
0002f0 a4 0f 92 3b 97 bc 15 bd 66 d5 fc 3d 33 a0 55 bd
       0.004457431 -0.036556806 0.1234539 -0.05215473
000300 23 89 e3 bc 31 ab 77 3d 4a 56 6d bd f7 dc 13 3d
       -0.027775353 0.060465995 -0.05794362 0.0360994
000310 19 ef 17 bd 06 30 cc 3d f3 16 16 bd 31 7f 29 ba
       -0.037093256 0.09970097 -0.03664298 -0.00064657914
000320 9d 48 b3 3d 02 59 88 bd e5 08 18 be 63 9b e2 bd
       0.08754084 -0.06657602 -0.14847143 -0.11064794
000330 5e 28 f1 3d c1 bb 37 3c d8 d2 7b 3c d6 bf 56 bd
       0.117752776 0.011214198 0.015370093 -0.052429043
000340 b9 76 df bd 7e 2b 6e 3d 48 fb 8d 3d 42 fd be bd
       -0.109113164 0.058146946 0.06932694 -0.09325649
000350 18 c7 4a be 39 67 54 bd 7c b7 05 bd 04 e0 0d be
       -0.1980251 -0.051856253 -0.032645687 -0.13854986
000360 cd 89 0b be f0 bf 5d bd ad 3f ce bb f8 5e cc bd
       -0.13626786 -0.054138124 -0.006294212 -0.09979051
000370 e5 b2 2a 3d 4f df 55 3d 44 1a 77 3d 69 0f d4 3b
       0.041674513 0.052214917 0.060327783 0.0064715636
000380 ee 29 24 be a9 5f bd bd fc 66 68 bd 02 da 97 3d
       -0.1603162 -0.09246761 -0.05673884 0.074146286
000390 ac e2 b2 ba d4 7c 5d 3c 79 79 eb 3b 35 18 01 be
       -0.0013647876 0.013518531 0.0071861115 -0.1260689
0003a0 d7 d9 4d bd d7 fa 52 3c 26 b9 2c 3c e6 44 6d bb
       -0.050256576 0.012877188 0.01054219 -0.0036204397
0003b0 fc 99 c3 b9 b6 20 94 bd 3a ca 18 bd 95 ac 21 3e
       -0.00037308026 -0.072328016 -0.037302233 0.15788491
0003c0 08 2c e2 3d 7b c8 41 3d 2f 18 11 bd 59 97 63 bc
       0.110435545 0.047310334 -0.035423454 -0.013891065
0003d0 77 c0 b5 bd 68 81 e6 3d b1 2a c9 3d 0a 7a 55 3d
       -0.088746004 0.11255151 0.09822596 0.05211834
0003e0 50 e1 b0 bc 17 4c 66 3b 2d b5 76 bd b4 27 85 bd
       -0.021591812 0.0035140568 -0.060231376 -0.065017134
0003f0 42 e2 80 3d 3d dc 8f 3d 8f ba 02 bd 9f eb 25 3b
       0.06293155 0.07024429 -0.031916197 0.0025317443

phi.initial_conv_module.0._layers.9.weight f4 [32]
000000 b6 36 83 3f 92 6e 78 3f 19 2b 81 3f 26 5a 8b 3f
       1.0251071 0.97043717 1.0091277 1.0886886
000010 0e 03 80 3f 05 86 89 3f a6 4b 84 3f b5 e8 88 3f
       1.0000932 1.0744025 1.0335586 1.0696017
000020 91 c1 86 3f 5d e6 82 3f 5d 4a 75 3f d5 d1 83 3f
       1.0527822 1.0226551 0.95816594 1.0298411
000030 3c 73 7b 3f 1a 9c 7e 3f 0d 3f 7d 3f 38 53 85 3f
       0.9822271 0.9945694 0.9892433 1.0416021
000040 4f b2 8a 3f 8a d1 87 3f 4c 0b 82 3f 6d 24 85 3f
       1.0835665 1.0610821 1.0159698 1.0401741
000050 ee ea 82 3f cf 35 7c 3f 73 51 85 3f d0 db 80 3f
       1.0227945 0.98519605 1.0415481 1.0067081
000060 93 cc 72 3f 93 fb 82 3f bf 9b 89 3f 16 3c 81 3f
       0.94843405 1.0233024 1.0750655 1.0096462
000070 b1 c3 87 3f 9b 1b 89 3f c4 dd 84 3f cf 73 84 3f
       1.0606595 1.071155 1.0380177 1.0347842
