logs/4birds_CF_combined_log_linear_gru64_30epochs/2025-05-20_09-10-45/4birds_CF_combined_log_linear_gru64_30epochs_best_model.pth (torch, 463020 bytes, 199 tensors)

combined_log_linear_spec.filter_bank f4 [64, 513]
0.0 0.071428575 0.14285715 0.21428573 0.2857143 0.35714287 0.42857146 0.49999997
0.57142854 0.64285713 0.71428573 0.78571427 0.85714287 0.9285714 1.0 0.0
0.0 0.0 0.0 0.0 0.0 0.0 0.0 0.0
0.0 0.0 0.0 0.0 0.0 0.0 0.0 0.0
0.0 0.0 0.0 0.0 0.0 0.0 0.0 0.0
0.0 0.0 0.0 0.0 0.0 0.0 0.0 0.0
0.0 0.0 0.0 0.0 0.0 0.0 0.0 0.0
0.0 0.0 0.0 0.0 0.0 0.0 0.0 0.0
0.0 0.0 0.0 0.0 0.0 0.0 0.0 0.0
0.0 0.0 0.0 0.0 0.0 0.0 0.0 0.0
0.0 0.0 0.0 0.0 0.0 0.0 0.0 0.0
0.0 0.0 0.0 0.0 0.0 0.0 0.0 0.0
0.0 0.0 0.0 0.0 0.0 0.0 0.0 0.0
0.0 0.0 0.0 0.0 0.0 0.0 0.0 0.0
0.0 0.0 0.0 0.0 0.0 0.0 0.0 0.0
0.0 0.0 0.0 0.0 0.0 0.0 0.0 0.0
0.0 0.0 0.0 0.0 0.0 0.0 0.0 0.0
0.0 0.0 0.0 0.0 0.0 0.0 0.0 0.0
0.0 0.0 0.0 0.0 0.0 0.0 0.0 0.0
0.0 0.0 0.0 0.0 0.0 0.0 0.0 0.0
0.0 0.0 0.0 0.0 0.0 0.0 0.0 0.0
0.0 0.0 0.0 0.0 0.0 0.0 0.0 0.0
0.0 0.0 0.0 0.0 0.0 0.0 0.0 0.0
0.0 0.0 0.0 0.0 0.0 0.0 0.0 0.0
0.0 0.0 0.0 0.0 0.0 0.0 0.0 0.0
0.0 0.0 0.0 0.0 0.0 0.0 0.0 0.0
0.0 0.0 0.0 0.0 0.0 0.0 0.0 0.0
0.0 0.0 0.0 0.0 0.0 0.0 0.0 0.0
0.0 0.0 0.0 0.0 0.0 0.0 0.0 0.0
0.0 0.0 0.0 0.0 0.0 0.0 0.0 0.0
0.0 0.0 0.0 0.0 0.0 0.0 0.0 0.0
0.0 0.0 0.0 0.0 0.0 0.0 0.0 0.0
00000000: 0000 0000 2549 923d 2549 123e b86d 5b3e
00000010: 2549 923e 6edb b63e b86d db3e ffff ff3e
00000020: 2449 123f 4992 243f 6edb 363f 9224 493f
00000030: b76d 5b3f dbb6 6d3f 0000 803f 0000 0000
00000040: 0000 0000 0000 0000 0000 0000 0000 0000
00000050: 0000 0000 0000 0000 0000 0000 0000 0000
00000060: 0000 0000 0000 0000 0000 0000 0000 0000
00000070: 0000 0000 0000 0000 0000 0000 0000 0000
00000080: 0000 0000 0000 0000 0000 0000 0000 0000
00000090: 0000 0000 0000 0000 0000 0000 0000 0000
000000a0: 0000 0000 0000 0000 0000 0000 0000 0000
000000b0: 0000 0000 0000 0000 0000 0000 0000 0000
000000c0: 0000 0000 0000 0000 0000 0000 0000 0000
000000d0: 0000 0000 0000 0000 0000 0000 0000 0000
000000e0: 0000 0000 0000 0000 0000 0000 0000 0000
000000f0: 0000 0000 0000 0000 0000 0000 0000 0000
00000100: 0000 0000 0000 0000 0000 0000 0000 0000
00000110: 0000 0000 0000 0000 0000 0000 0000 0000
00000120: 0000 0000 0000 0000 0000 0000 0000 0000
00000130: 0000 0000 0000 0000 0000 0000 0000 0000
00000140: 0000 0000 0000 0000 0000 0000 0000 0000
00000150: 0000 0000 0000 0000 0000 0000 0000 0000
00000160: 0000 0000 0000 0000 0000 0000 0000 0000
00000170: 0000 0000 0000 0000 0000 0000 0000 0000
00000180: 0000 0000 0000 0000 0000 0000 0000 0000
00000190: 0000 0000 0000 0000 0000 0000 0000 0000
000001a0: 0000 0000 0000 0000 0000 0000 0000 0000
000001b0: 0000 0000 0000 0000 0000 0000 0000 0000
000001c0: 0000 0000 0000 0000 0000 0000 0000 0000
000001d0: 0000 0000 0000 0000 0000 0000 0000 0000
000001e0: 0000 0000 0000 0000 0000 0000 0000 0000
000001f0: 0000 0000 0000 0000 0000 0000 0000 0000
00000200: 0000 0000 0000 0000 0000 0000 0000 0000
00000210: 0000 0000 0000 0000 0000 0000 0000 0000
00000220: 0000 0000 0000 0000 0000 0000 0000 0000
00000230: 0000 0000 0000 0000 0000 0000 0000 0000
00000240: 0000 0000 0000 0000 0000 0000 0000 0000
00000250: 0000 0000 0000 0000 0000 0000 0000 0000
00000260: 0000 0000 0000 0000 0000 0000 0000 0000
00000270: 0000 0000 0000 0000 0000 0000 0000 0000
00000280: 0000 0000 0000 0000 0000 0000 0000 0000
00000290: 0000 0000 0000 0000 0000 0000 0000 0000
000002a0: 0000 0000 0000 0000 0000 0000 0000 0000
000002b0: 0000 0000 0000 0000 0000 0000 0000 0000
000002c0: 0000 0000 0000 0000 0000 0000 0000 0000
000002d0: 0000 0000 0000 0000 0000 0000 0000 0000
000002e0: 0000 0000 0000 0000 0000 0000 0000 0000
000002f0: 0000 0000 0000 0000 0000 0000 0000 0000
00000300: 0000 0000 0000 0000 0000 0000 0000 0000
00000310: 0000 0000 0000 0000 0000 0000 0000 0000
00000320: 0000 0000 0000 0000 0000 0000 0000 0000
00000330: 0000 0000 0000 0000 0000 0000 0000 0000
00000340: 0000 0000 0000 0000 0000 0000 0000 0000
00000350: 0000 0000 0000 0000 0000 0000 0000 0000
00000360: 0000 0000 0000 0000 0000 0000 0000 0000
00000370: 0000 0000 0000 0000 0000 0000 0000 0000
00000380: 0000 0000 0000 0000 0000 0000 0000 0000
00000390: 0000 0000 0000 0000 0000 0000 0000 0000
000003a0: 0000 0000 0000 0000 0000 0000 0000 0000
000003b0: 0000 0000 0000 0000 0000 0000 0000 0000
000003c0: 0000 0000 0000 0000 0000 0000 0000 0000
000003d0: 0000 0000 0000 0000 0000 0000 0000 0000
000003e0: 0000 0000 0000 0000 0000 0000 0000 0000
000003f0: 0000 0000 0000 0000 0000 0000 0000 0000

phi.initial_conv_module.0._layers.0.conv.weight f4 [64, 64, 1]
0.07639021 0.081548 -0.052591074 0.10651598 -0.035687488 -0.0070672375 -0.0852672 0.044111636
0.07825566 -0.11794904 0.08247406 -0.00455515 0.06841373 -0.0033960175 0.044812676 -0.025315389
0.09158355 0.023915442 -0.05498764 0.030469932 -0.06056514 -0.018881015 -0.047931463 0.08604286
-0.08702716 -0.03258677 -0.008261558 -0.05328274 0.03505321 -0.094875395 0.13076346 -0.10389264
0.06334446 -0.014206066 -0.043750443 0.13480149 0.12703247 0.20759474 0.09066036 -0.020432688
-0.008368949 -0.09497184 0.0037951588 0.046895284 0.012974814 -0.07806756 0.062021423 0.005945841
0.025370827 -0.107006915 -0.13203168 -0.056592606 -0.104171105 0.09425773 0.02770002 0.043472257
0.031228743 -0.010475693 0.089518994 -0.09710845 -0.00043137465 -0.093614 0.030240081 -0.062115274
-0.001972006 -0.054454993 0.07062363 -0.06963659 -0.0700986 -0.12311971 0.07433111 -0.0059378534
0.0747528 -0.14607988 -0.1674548 -0.14656821 -0.11599615 0.02881885 0.026732707 0.087094255
-0.07989234 -0.108186826 0.044877 -0.060057722 0.051683415 -0.07280132 0.046130598 -0.09317428
-0.058668286 0.046927962 0.027370837 -0.032132965 0.04429397 0.031918555 -0.1538789 -0.12477763
0.045599565 -0.12032841 -0.07333363 -0.07984839 0.022995938 0.14546461 0.07799759 -0.050922517
-1.5122686e-06 -0.09572882 -0.09245306 -0.06499623 -0.10904118 -0.06222453 0.11917235 -0.009576843
0.025536677 -0.15742123 -0.07764563 -0.03715811 0.023991207 -0.10553619 -0.049409643 -0.07038244
0.00479246 -0.04206376 -0.0042153504 -0.080252595 -0.081348285 -0.068474054 -0.03833824 -0.06533074
0.096288554 -0.03296764 0.09639822 0.016254261 -0.12853283 0.07160894 -0.0517103 -0.06827473
-0.124145456 -0.14345601 0.016544517 -0.050287716 0.024307417 -0.12116697 0.08150717 -0.106366776
-0.041623488 0.0005704459 0.028705826 0.07577693 0.10919054 -0.10433276 0.027354809 -0.04134262
0.0060746786 -0.07017211 0.13585797 -0.065649614 0.08224088 0.046765458 0.035589293 -0.075662635
0.12626445 0.048758313 0.024845038 -0.13253751 0.008760015 -0.070318215 -0.09731257 0.12863168
0.094036214 -1.3333473e-05 -0.00080968713 0.06195484 0.14068599 0.028856855 -0.04577715 -0.0533991
-0.11391522 -0.014364916 0.07405843 -0.14036317 0.0063384483 0.041878443 -2.6282967e-05 -0.06720331
0.042547185 0.04299349 0.024046963 -0.044654906 -0.055788733 -0.009319234 -0.04477148 -0.04639873
0.08542416 0.11833323 0.0011335076 -0.02269042 0.007118595 0.012978421 0.044612728 0.054118022
-0.08836403 -0.009212779 0.14325224 0.09545029 0.03785417 -0.043276645 -0.03981737 -0.09000982
-0.034152135 0.037418373 0.07572762 0.06959777 -0.07819061 -0.054333054 -0.004857291 0.14510575
0.055005286 -0.0017023608 0.07285643 -0.03128367 -0.078177616 0.08962379 -0.050913088 -0.017526314
-0.10963746 0.08519344 0.08815603 0.04159186 -0.08984708 -0.1349588 -0.1164093 0.11415435
0.08085677 0.12291477 0.09019455 0.071066566 0.032476705 -0.08054063 -0.09760158 -0.096088216
0.0617162 -0.086800896 -0.019860066 -0.06663924 -0.017481685 -0.08268028 -0.07637807 0.046756092
-0.031852532 0.082458146 -0.034804046 -0.086396 -0.016758665 -0.055294335 -0.032945685 -0.15084232
00000000: 7872 9c3d a302 a73d bd69 57bd 0d25 da3d
00000010: 0b2d 12bd 4994 e7bb 92a0 aebd 67ae 343d
00000020: 8144 a03d 448f f1bd 29e8 a83d 5e43 95bb
00000030: 7f1c 8c3d b88f 5ebb 7f8d 373d 3862 cfbc
00000040: 2890 bb3d 51ea c33c b83a 61bd 149c f93c
00000050: 2713 78bd 5cac 9abc c853 44bd 3d37 b03d
00000060: 4c3b b2bd b479 05bd 7c5b 07bc 013f 5abd
00000070: f493 0f3d 084e c2bd dbe6 053e aac5 d4bd
00000080: beba 813d 8fc0 68bc aa33 33bd 6709 0a3e
00000090: cd14 023e b793 543e 24ac b93d 7462 a7bc
000000a0: eb1d 09bc 9980 c2bd 33b8 783b 4515 403d
000000b0: 5094 543c e3e1 9fbd 2d0a 7e3d 54d5 c23b
000000c0: 7bd6 cf3c 7126 dbbd 5033 07be a6cd 67bd
000000d0: a957 d5bd 320a c13d 27eb e23c f70f 323d
000000e0: 6cd3 ff3c 3ea2 2bbc bc55 b73d cce0 c6bd
000000f0: 202a e2b9 b2b8 bfbd 0cba f73c 966c 7ebd
00000100: c53c 01bb 330c 5fbd 1fa3 903d a19d 8ebd
00000110: db8f 8fbd 3026 fcbd e93a 983d 5392 c2bb
00000120: ff17 993d f795 15be 4579 2bbe fa15 16be
00000130: 648f edbd 8215 ec3c 8dfe da3c 795e b23d
00000140: 989e a3bd 0e91 ddbd f2d0 373d 16ff 75bd
00000150: fdb1 533d dc18 95bd 70f3 3c3d 28d2 bebd
00000160: 284e 70bd 8937 403d ce38 e03c db9d 03bd
00000170: 986d 353d 08bd 023d 6e92 1dbe 6a8b ffbd
00000180: 9cc6 3a3d be6e f6bd f12f 96bd 8d87 a3bd
00000190: fa61 bc3c adf4 143e 33bd 9f3d 2194 50bd
000001a0: 27f9 cab5 790d c4bd 0858 bdbd be1c 85bd
000001b0: fb50 dfbd 26df 7ebd a210 f43d 31e8 1cbc
000001c0: 4b32 d13c 0833 21be ac04 9fbd 1a33 18bd
000001d0: 3589 c43c 5c23 d8bd c461 4abd ab24 90bd
000001e0: 110a 9d3b 0d4b 2cbd ec20 8abb 795b a4bd
000001f0: ee99 a6bd 203c 8cbd 8f08 1dbd 1fcc 85bd
00000200: ef32 c53d 1309 07bd 6e6c c53d a827 853c
00000210: 1c9e 03be b5a7 923d 2ece 53bd 9fd3 8bbd
00000220: f93f febd 22e6 12be 5e88 873c 7efa 4dbd
00000230: 5920 c73c 6326 f8bd 3bed a63d d3d6 d9bd
00000240: 647d 2abd fa89 153a 7b28 eb3c ef30 9b3d
00000250: 4a9f df3d 6aac d5bd 3117 e03c e156 29bd
00000260: 190e c73b 65b6 8fbd 5a1e 0b3e 4e73 86bd
00000270: e86d a83d 238d 3f3d 14c6 113d 03f5 9abd
00000280: 784b 013e ccb6 473d d287 cb3c eab7 07be
00000290: 2a86 0f3c ff02 90bd d04b c7bd 06b8 033e
000002a0: 0f96 c03d d5b2 5fb7 2f41 54ba 5cc4 7d3d
000002b0: fd0f 103e 3665 ec3c d280 3bbd 04b9 5abd
000002c0: 624c e9bd d35a 6bbc f2ab 973d 5dbb 0fbe
000002d0: c2b2 cf3b bb88 2b3d 3e7a dcb7 e4a1 89bd
000002e0: f545 2e3d f119 303d 23fe c43c 10e8 36bd
000002f0: ba82 64bd b3af 18bc 4d62 37bd 980c 3ebd
00000300: ddf2 ae3d b158 f23d 3492 943a 42e1 b9bc
00000310: 1a43 e93b 71a3 543c d6bb 363d dcaa 5d3d
00000320: 33f8 b4bd 32f1 16bc b7b0 123e 717b c33d
00000330: f90c 1b3d da42 31bd 8a17 23bd 1257 b8bd
00000340: 1ce3 0bbd 0244 193d 1517 9b3d 4789 8e3d
00000350: 6622 a0bd 568c 5ebd e929 9fbb 9a96 143e
00000360: 394d 613d c021 dfba c135 953d 4e23 00bd
00000370: 961b a0bd ad8c b73d 3e8a 50bd 5893 8fbc
00000380: 9b89 e0bd e679 ae3d 268b b43d 3a5c 2a3d
00000390: bf01 b8bd a432 0abe 0068 eebd c1c9 e93d
000003a0: 3c98 a53d bdba fb3d ecb7 b83d 598b 913d
000003b0: 4b06 053d 7cf2 a4bd 56e3 c7bd e6c9 c4bd
000003c0: 20ca 7c3d abc4 b1bd 94b1 a2bc 277a 88bd
000003d0: c035 8fbc 4754 a9bd 1b6c 9cbd 5183 3f3d
000003e0: cd77 02bd d1df a83d b08e 0ebd 63f0 b0bd
000003f0: 7849 89bc 507c 62bd 0ef2 06bd 6976 1abe

phi.initial_conv_module.0._layers.1.weight f4 [64]
0.95611715 0.98423326 1.0195596 0.95285964 0.9873951 0.9910619 0.99511653 0.96386576
1.0462168 0.97377676 1.0350688 1.0012525 0.9910225 0.99958265 0.97137636 1.0349814
0.99468774 0.9994673 0.974784 1.013507 0.99660116 1.0268995 0.9810984 0.9986061
1.0415016 0.9377703 1.0247115 1.0588821 0.97743785 0.9810083 1.0185981 0.98259425
0.9656353 0.9792985 0.9039121 1.0119107 0.95447695 0.99579024 1.0533081 1.0481886
0.9675511 0.9385304 1.0703691 1.0222421 1.0278385 1.0056171 0.97295916 1.0551167
0.9558819 1.0210876 0.9420434 0.98601973 0.9701583 0.9758496 1.0343266 0.8985513
0.95119035 1.017896 1.0303305 1.0064437 0.96575534 0.97725344 0.96535933 1.0273
00000000: 18c4 743f b6f6 7b3f ee80 823f 9cee 733f
00000010: edc5 7c3f 3cb6 7d3f f5bf 7e3f e8bf 763f
00000020: 6fea 853f 6f49 793f 227d 843f 0b29 803f
00000030: a7b3 7d3f a6e4 7f3f 1fac 783f 457a 843f
00000040: dba3 7e3f 17dd 7f3f 728b 793f 99ba 813f
00000050: 4121 7f3f 7171 833f 4429 7b3f a6a4 7f3f
00000060: ed4f 853f b711 703f bf29 833f 7389 873f
00000070: 5e39 7a3f 5c23 7b3f 6c61 823f 4c8b 7b3f
00000080: e033 773f 4eb3 7a3f c966 673f 4a86 813f
00000090: 9a58 743f 1cec 7e3f cdd2 863f 0b2b 863f
000000a0: 6eb1 773f 8743 703f db01 893f d4d8 823f
000000b0: 3690 833f 10b8 803f da13 793f 100e 873f
000000c0: adb4 743f 00b3 823f c229 713f ca6b 7c3f
000000d0: 4b5c 783f 48d1 793f d064 843f 7507 663f
000000e0: 3681 733f 6b4a 823f dfe1 833f 26d3 803f
000000f0: be3b 773f 482d 7a3f ca21 773f 917e 833f

phi.initial_conv_module.0._layers.1.bias f4 [64]
0.0009502058 0.013982376 0.00015121962 -0.005358427 -0.03761105 -0.006447078 -0.019431395 -0.027600838
-0.013825164 -0.02253648 -0.040338792 -0.01771002 -0.03999628 0.039549153 0.030568251 0.0048453384
0.009733493 -0.008117012 0.017328184 -0.052488588 -0.0151005415 0.0113959 0.02100075 0.029327992
-0.07847299 0.0014645531 0.008358753 -0.014964971 -0.052829996 0.018640786 -0.007699987 -0.026478613
0.009811062 0.0042459997 0.018932194 0.016343348 -0.0012175356 0.03471725 0.0044072717 0.051325332
0.020738779 -0.004235765 -0.05881568 -0.04627943 0.07092469 -0.025957566 0.01030971 -0.0363267
-0.011769985 -0.031903762 0.013047304 0.026275627 0.008520964 -0.008280372 -0.005876354 -0.00129615
0.0033848702 -0.0035475034 -0.041386556 0.054257933 -0.0064671934 -0.019827316 -0.014524404 -0.005329194
00000000: 3b17 793a 5616 653c b590 1e39 be95 afbb
00000010: 0b0e 1abd 0342 d3bb 972e 9fbc 271b e2bc
00000020: f182 62bc 6d9e b8bc 4a3a 25bd 9b14 91bc
00000030: 24d3 23bd 4bfe 213d 456a fa3c a5c5 9e3b
00000040: 3b79 1f3c 37fd 04bc d6f3 8d3c 46fe 56bd
00000050: 4368 77bc deb5 3a3c c409 ac3c 4241 f03c
00000060: 72b6 a0bd 3ff6 bf3a 27f3 083c a32f 75bc
00000070: 4464 58bd 90b4 983c 2c50 fcbb ade9 d8bc
00000080: 94be 203c 0722 8b3b b017 9b3c 7ce2 853c
00000090: b795 9fba ad33 0e3d e06a 903b 833a 523d
000000a0: 5fe4 a93c 2ccc 8abb b6e8 70bd 808f 3dbd
000000b0: f740 913d f6a4 d4bc 0fea 283c 4ecb 14bd
000000c0: e5d6 40bc 85ad 02bd 5cc4 553c fc3f d73c
000000d0: 839b 0b3c 66aa 07bc 6e8e c0bb 94e3 a9ba
000000e0: b3d4 5d3b 3b7d 68bb f384 29bd 913d 5e3d
000000f0: c0ea d3bb e56c a2bc c4f7 6dbc 85a0 aebb

phi.initial_conv_module.0._layers.1.running_mean f4 [64]
0.46846902 0.5972903 0.46008694 0.9733882 -3.0120952 0.4818427 -0.14556281 1.2669318
0.81411064 0.3353833 0.12560192 0.214177 0.34294164 -1.0480337 -0.80288637 0.5478531
1.6314373 0.72196007 0.25306177 0.5040608 0.8598801 1.2135072 -0.17850932 0.1377227
0.35849938 -0.055565022 -0.13010643 1.5416617 -0.7184494 0.106160186 -1.0398188 -0.27437192
0.64361733 -0.3238512 0.5342759 0.60147524 0.15089904 0.84511083 0.29747212 1.2084353
0.4703901 -0.770818 0.3069592 -0.5928015 0.21595506 -0.06240948 -0.45874792 0.024766536
0.60864514 -1.3298056 -0.115166746 -0.24348585 -0.091538094 0.100827545 -0.9619114 1.1148012
0.24739136 1.0091068 -1.4316727 -0.35024676 -0.018036602 0.63076454 1.1625363 0.5959429
00000000: 2cdb ef3e 04e8 183f 8490 eb3e f82f 793f
00000010: 2bc6 40c0 16b4 f63e 6b0e 15be d22a a23f
00000020: 8e69 503f 5cb7 ab3e ca9d 003e 3751 5b3e
00000030: 0c96 af3e f825 86bf f689 4dbf 1a40 0c3f
00000040: f0d2 d03f 60d2 383f 5091 813e 210a 013f
00000050: 1a21 5c3f 3454 9b3f 26cb 36be 2e07 0d3e
00000060: 3b8d b73e 2698 63bd 9f3a 05be 2c55 c53f
00000070: 4dec 37bf 836a d93d c818 85bf 7a7a 8cbe
00000080: 1bc4 243f d3cf a5be 4ec6 083f 48fa 193f
00000090: 4785 1a3e 2f59 583f 444e 983e 02ae 9a3f
000000a0: f9d6 f03e 5454 45bf c229 9d3e d7c1 17bf
000000b0: 5323 5d3e 15a1 7fbd 02e1 eabe 31e3 ca3c
000000c0: 2bd0 1b3f 1237 aabf 8bdc ebbd 5b54 79be
000000d0: 5378 bbbd ac7e ce3d d33f 76bf ceb1 8e3f
000000e0: 2954 7d3e 692a 813f 0d41 b7bf 8b53 b3be
000000f0: 7fc1 93bc c979 213f fdcd 943f b78f 183f

phi.initial_conv_module.0._layers.1.running_var f4 [64]
0.016496286 0.129659 0.007491341 0.04014245 0.14635774 0.028312353 0.00565043 0.035162624
0.09487674 0.02813625 0.023667403 0.025521915 0.006324405 0.14114454 0.02086739 0.012640441
0.07897717 0.01872284 0.028319411 0.029121868 0.056090888 0.073305346 0.011515538 0.023314925
0.01930369 0.003719898 0.010540165 0.14604343 0.120515436 0.13521315 0.2358573 0.2264798
0.05145078 0.0068766144 0.026236346 0.0151169095 0.014860048 0.022221284 0.008401751 0.15462188
0.0054300926 0.18917829 0.013772207 0.01904112 0.013030621 0.012963416 0.032767355 0.0034655754
0.035618458 0.04462762 0.06314433 0.11456364 0.040687192 0.007027569 0.13371933 0.059195757
0.003394797 0.029530251 0.15165272 0.016691752 0.009776928 0.009319012 0.062963195 0.05028328
00000000: 3823 873c 54c5 043e ec79 f53b 696c 243d
00000010: cede 153e 4fef e73c 3e27 b93b af06 103d
00000020: bc4e c23d fe7d e63c 24e2 c13c 5613 d13c
00000030: f43c cf3b 3288 103e 17f2 aa3c da19 4f3c
00000040: c8be a13d a460 993c 1cfe e73c fc90 ee3c
00000050: 8fbf 653d 1d21 963d abab 3c3c f1fe be3c
00000060: c622 9e3c 88c9 733b a8b0 2c3c 698c 153e
00000070: ccd0 f63d 5175 0a3e 9384 713e 52ea 673e
00000080: 0ebe 523d 3955 e13b 9bed d63c eaac 773c
00000090: 8f77 733c 6909 b63c 7fa7 093c 3355 1e3e
000000a0: ebee b13b f4b7 413e d3a4 613c 1ffc 9b3c
000000b0: 637e 553c 8264 543c 1037 063d b51e 633b
000000c0: a9e4 113d 74cb 363d d151 813d 57a0 ea3d
000000d0: 9da7 263d 8647 e63b b8ed 083e 4077 723d
000000e0: 3e7b 5e3b 6de9 f13c da4a 1b3e 24bd 883c
000000f0: 692f 203c c5ae 183c d9f2 803d d7f5 4d3d

phi.initial_conv_module.0._layers.4.conv.weight f4 [64, 1, 5]
-0.35013318 0.33576393 0.35438058 0.35543963 -0.16228944 0.2553723 -0.39841154 0.16680552
-0.09199528 -0.39546067 -0.366554 -0.44626066 0.08147818 -0.14112298 -0.19816545 0.39180484
-0.13466187 0.1899332 -0.051846646 0.27972156 0.1439495 0.28381613 0.09095437 -0.08270746
0.40906155 -0.07107166 -0.3148135 0.113808826 -0.06899175 -0.27480265 -0.0045055514 -0.19178107
-0.21242233 -0.17684539 -0.11898846 -0.21311086 0.009131928 0.39113835 -0.30581173 -0.24108033
-0.31897458 -0.06171117 -0.016983828 -0.33753768 0.1775007 -0.41891196 0.3822963 0.042992488
-0.09365665 -0.20818 0.21536516 0.3275962 -0.28766608 -0.086006366 0.35439193 -0.10332627
-0.33227578 -0.1556833 0.031535596 -0.06937256 -0.33541188 -0.303759 0.10027456 0.28394186
0.37886745 -0.040646765 0.17964987 -0.3489117 0.2519324 0.42389637 0.23918332 -0.18251969
0.352243 -0.43347394 -0.058733925 -0.05717814 -0.4417469 -0.21344586 -0.21402164 0.23888412
-0.00732134 0.19575262 -0.09540393 0.38077477 0.07572268 0.44422188 0.45987853 -0.28632194
-0.21984845 0.32229015 0.4876733 -0.31872365 0.04992269 -0.15596561 0.41936156 0.39597732
0.30334452 0.2353547 -0.029256282 0.4114932 -0.23495156 0.008719959 -0.13764578 -0.31849188
-0.16409443 0.11519163 -0.045547426 -0.2682856 -0.010026291 0.133819 -0.32467967 0.2164834
-0.5136012 -0.07826257 -0.28031823 -0.42933223 -0.07783754 0.384409 0.39245865 0.13663855
0.39441368 -0.1790087 0.31103972 0.3284768 -0.37298495 -0.3989993 0.1461893 -0.017544303
-0.37123573 -0.28197116 0.34466684 0.06379329 0.010480129 -0.4280412 0.38596782 -0.21501249
0.26006937 -0.0039002674 0.06814074 0.27567396 -0.11138099 -0.11805634 0.36833832 -0.33096954
0.20620978 -0.13069566 -0.18290745 0.25894994 0.05201827 -0.45429903 0.37835592 -0.23216525
0.3998775 -0.07535409 0.45483753 0.1142466 -0.04137714 0.14416318 -0.041320875 -0.24512297
0.20526713 0.33899122 -0.016745083 0.4056619 0.032900263 -0.257304 -0.26959157 0.27228215
-0.20948254 0.26279095 -0.41302493 0.016233312 -0.30541563 0.17577732 0.3781568 0.21426871
-0.12562247 -0.43286622 -0.16777706 -0.20736991 0.41238844 -0.2133256 0.20145665 0.4041265
0.16726467 -0.43835562 -0.08553051 -0.16782175 0.24880633 -0.069232225 -0.057312675 0.33709356
0.16066405 0.28968698 -0.0746822 0.3073403 0.07173696 -0.083722405 0.088780865 -0.35352048
-0.02082173 0.1435953 -0.48376006 -0.3117265 0.2211633 -0.040548876 -0.07375638 0.00028069073
-0.24914815 0.317306 -0.13483864 -0.23942615 0.1599328 -0.33945143 -0.046039216 0.020327706
-0.18990329 0.19011976 -0.43044177 -0.116864756 -0.18300386 0.4123459 0.1685234 -0.35460958
0.14608048 0.00065850373 0.4362649 0.28328088 -0.25826845 0.37211198 -0.07288414 -0.07541535
0.1468298 0.43373117 0.16104804 -0.4588497 -0.17918989 0.3945482 -0.17202283 -0.2179656
-0.3414177 -0.24151696 -0.20950866 0.13536268 0.2050126 0.4415839 0.28133145 -0.00068884745
0.23098291 0.2652279 -0.4058266 0.21075262 -0.30816823 0.3322115 -0.20611902 0.081666775
00000000: a844 b3be 40e9 ab3e 5f71 b53e 2ffc b53e
00000010: 342f 26be 28c0 823e 99fc cbbe 11cf 2a3e
00000020: 0568 bcbd d279 cabe f7ac bbbe 477c e4be
00000030: 08de a63d 8b82 10be e2eb 4abe a59a c83e
00000040: cde4 09be d97d 423e 265d 54bd aa37 8f3e
00000050: 7f67 133e 5950 913e 4946 ba3d 8762 a9bd
00000060: 8470 d13e 058e 91bd 3c2f a1be 9a14 e93d
00000070: 8c4b 8dbd efb2 8cbe 4ea3 93bb 4262 44be
00000080: 3d85 59be f516 35be 39b0 f3bd bc39 5abe
00000090: 159e 153c 4943 c83e 5b93 9cbe c3dd 76be
000000a0: a350 a3be dac4 7cbd ab21 8bbc bdd1 acbe
000000b0: bec2 353e a17b d6be 57bc c33e e418 303d
000000c0: 0fcf bfbd 232d 55be af88 5c3e b0ba a73e
000000d0: f848 93be 1b24 b0bd dc72 b53e b99c d3bd
000000e0: 0d20 aabe 716b 1fbe 782b 013d 3313 8ebd
000000f0: 1bbb abbe 4d86 9bbe c05c cd3d d460 913e
00000100: eafa c13e 397d 26bd 23f6 373e 8ea4 b2be
00000110: 49fd 803e f208 d93e 79ec 743e 71e6 3abe
00000120: 3259 b43e 4cf0 ddbe fc92 70bd a033 6abd
00000130: a62c e2be 8d91 5abe 7d28 5bbe 0a9e 743e
00000140: dae7 efbb 6073 483e 2363 c3bd e9f4 c23e
00000150: 7e14 9b3d 0d71 e33e 3375 eb3e ca98 92be
00000160: f41f 61be 3703 a53e 51b0 f93e bf2f a3be
00000170: bc7b 4c3d 73b5 1fbe 8fb6 d63e 8abd ca3e
00000180: f94f 9b3e d300 713e dfaa efbc 3daf d23e
00000190: 2497 70be 29de 0e3c 04f3 0cbe 5e11 a3be
000001a0: 5f08 28be 97e9 eb3d f08f 3abd bb5c 89be
000001b0: 5045 24bc d907 093e 6a3c a6be d3ad 5d3e
000001c0: 5e7b 03bf 2048 a0bd df85 8fbe 6fd1 dbbe
000001d0: 4a69 9fbd 42d1 c43e 57f0 c83e faea 0b3e
000001e0: 97f0 c93e 0f4e 37be 9940 9f3e 1c2e a83e
000001f0: e2f7 bebe a349 ccbe a6b2 153e 12b9 8fbc
00000200: 9c12 bebe 865e 90be 2c78 b03e 0ea6 823d
00000210: d9b4 2b3c 3728 dbbe 939d c53e 3c2c 5cbe
00000220: d027 853e a19b 7fbb 5f8d 8b3d 2325 8d3e
00000230: b71b e4bd 86c7 f1bd d796 bc3e d774 a9be
00000240: a828 533e 15d5 05be 174c 3bbe 1695 843e
00000250: 1c11 553d e299 e8be deb7 c13e babc 6dbe
00000260: bebc cc3e 3f53 9abd 77e0 e83e 1ffa e93d
00000270: 137b 29bd 839f 133e 1440 29bd 8401 7bbe
00000280: 8c31 523e 4290 ad3e fc2c 89bc ebb2 cf3e
00000290: 6dc2 063d 5abd 83be e807 8abe 9168 8b3e
000002a0: 9782 56be 898c 863e 0178 d3be b9fb 843c
000002b0: 705f 9cbe f8fe 333e c59d c13e 4269 5b3e
000002c0: 2da3 00be a4a0 ddbe c0cd 2bbe c758 54be
000002d0: 9424 d33e 0772 5abe a74a 4e3e abe9 ce3e
000002e0: 6e47 2b3e 2670 e0be 9f2a afbd 77d9 2bbe
000002f0: 16c7 7e3e a0c9 8dbd b2c0 6abd 8797 ac3e
00000300: 1e85 243e da51 943e fbf2 98bd b55b 9d3e
00000310: d4ea 923d a776 abbd bed2 b53d a300 b5be
00000320: 5592 aabc a50a 133e 66af f7be 9e9a 9fbe
00000330: a278 623e 9416 26bd 960d 97bd ac29 9339
00000340: b120 7fbe ef75 a23e 2413 0abe 212c 75be
00000350: 6dc5 233e 94cc adbe 9e93 3cbd 4a86 a63c
00000360: 0276 42be c1ae 423e dd62 dcbe ca56 efbd
00000370: 5d65 3bbe 001f d33e 6691 2c3e 638f b5be
00000380: 1f96 153e 709f 2c3a 1d5e df3e 310a 913e
00000390: c33b 84be 7685 be3e 4844 95bd 5d73 9abd
000003a0: 8d5a 163e 0312 de3e c7e9 243e 59ee eabe
000003b0: 8e7d 37be 3902 ca3e c126 30be 6032 5fbe
000003c0: 4dce aebe 3950 77be 7089 56be 849c 0a3e
000003d0: d3ee 513e 4917 e23e ad0a 903e c593 34ba
000003e0: c986 6c3e f4cb 873e 81c8 cfbe 89cf 573e
000003f0: 3ac8 9dbe a017 aa3e dd10 53be e940 a73d

phi.initial_conv_module.0._layers.5.weight f4 [64]
0.967068 1.0170699 1.0364271 1.0024079 0.9982291 1.0004655 1.0122877 1.0096213
1.0323814 1.0233063 1.0187308 1.0260271 0.9884127 0.9556335 1.0194392 0.9902212
1.009859 0.9958507 0.9738516 1.0149293 0.97494245 1.0148904 1.0032989 0.99288255
1.0125058 1.0565146 0.9804156 1.0307578 0.96001023 1.0026807 0.99395204 0.9378172
0.9377179 1.0154736 1.0303805 1.0084964 0.95918787 1.0030442 1.0108179 1.0759474
1.1041812 0.9575191 1.0210657 0.99984723 0.98009735 0.98414963 0.97870535 1.0091152
1.0406475 0.9753688 1.007246 0.97130483 1.0106614 0.98617566 1.0333105 1.0050967
1.1072497 0.97493595 0.97724444 1.0352894 0.9875446 1.0236359 0.9709199 1.0289168
00000000: c591 773f 592f 823f a5a9 843f e74e 803f
00000010: f18b 7f3f 410f 803f a592 813f 453b 813f
00000020: 1325 843f b3fb 823f c565 823f db54 833f
00000030: 9d08 7d3f 66a4 743f fc7c 823f 237f 7d3f
00000040: 0f43 813f 12f0 7e3f 574e 793f 34e9 813f
00000050: d495 793f eee7 813f 196c 803f 8d2d 7e3f
00000060: ca99 813f df3b 873f 84fc 7a3f dfef 833f
00000070: 3bc3 753f d757 803f a473 7e3f ca14 703f
00000080: 480e 703f 0afb 813f 82e3 833f 6916 813f
00000090: 568d 753f c163 803f 7b62 813f a5b8 893f
000000a0: cf55 8d3f f91f 753f 48b2 823f fdf5 7f3f
000000b0: a9e7 7a3f 3bf1 7b3f 6f8c 7a3f b02a 813f
000000c0: f033 853f c5b1 793f 70ed 803f 6fa7 783f
000000d0: 5a5d 813f 0276 7c3f 8543 843f 02a7 803f
000000e0: 5cba 8d3f 6795 793f b12c 7a3f 5d84 843f
000000f0: b9cf 7c3f 8006 833f 358e 783f 8cb3 833f

phi.initial_conv_module.0._layers.5.bias f4 [64]
0.012543728 0.011447039 0.0053773653 0.023865059 0.009589829 0.03538863 0.031814747 -0.008269398
0.03505079 -0.03672386 0.008745135 -0.030481586 0.011578979 -0.023604888 0.019500434 -0.007934654
-0.011807091 0.011349565 0.0039174897 0.015792523 0.0060310583 0.0035523842 0.062155012 0.013047119
0.007106453 0.030820884 -0.034234814 -0.033165634 -0.0505499 0.0014039989 0.01516963 -0.040896796
-0.04445533 0.06151126 0.025565034 0.061379038 0.0012297166 -0.010198621 -0.006452088 0.027458128
0.12757379 -0.05027539 0.05444299 0.035497796 0.02109885 -0.003433408 0.001925678 0.07009939
0.032809615 3.118408e-05 -0.04564975 -0.047992405 0.011762666 0.027585741 0.0059751836 0.011745253
0.13590589 -0.026296483 0.008729754 0.030638894 0.010364418 0.025948893 -0.009036845 0.043072555
00000000: 3584 4d3c 5d8c 3b3c 9c34 b03b a880 c33c
00000010: a81e 1d3c abf3 103d 2e50 023d 5e7c 07bc
00000020: 6b91 0f3d c26b 16bd c147 0f3c 85b4 f9bc
00000030: c2b5 3d3c 0a5f c1bc 60bf 9f3c 5a00 02bc
00000040: 8772 41bc 87f3 393c 495e 803b 525f 813c
00000050: 2fa0 c53b 1ecf 683b 4196 7e3d 95c3 553c
00000060: 40dd e83b 147c fc3c ce39 0cbd b0d8 07bd
00000070: 690d 4fbd 6306 b83a 0a8a 783c 6683 27bd
00000080: cb16 36bd 3bf3 7b3d c36d d13c 9668 7b3d
00000090: 712e a13a 1e18 27bc 096c d3bb deef e03c
000000a0: b4a2 023e 91ed 4dbd 9dff 5e3d 2366 113d
000000b0: 7fd7 ac3c 0703 61bb 0867 fc3a 4590 8f3d
000000c0: 6063 063d a7cb 0238 3bfb 3abd af93 44bd
000000d0: 32b8 403c 7efb e13c 79cb c33b 296f 403c
000000e0: ea2a 0b3e b96b d7bc 3e07 0f3c 6bfe fa3c
000000f0: 85cf 293c c692 d43c 460f 14bc d96c 303d

phi.initial_conv_module.0._layers.5.running_mean f4 [64]
0.055751074 -0.05751489 -0.18354736 0.085516155 -0.024015721 -0.054881904 -0.06270855 -0.036986027
-0.04853596 -0.031570792 0.07401911 -0.07188892 0.01524091 0.08259732 -0.0068897703 -0.120161824
0.046381783 0.06717542 0.081533596 0.13880669 -0.10192907 -0.0074587315 -0.11367791 0.056226205
0.04148121 -0.11328405 0.063189454 0.0335032 0.002282748 -0.059287094 0.083694145 -0.008827683
0.102605514 -0.029559122 -0.021974808 -0.094443426 0.13155106 -0.05620083 0.08437683 0.003032545
-0.06112638 -0.0016529683 -0.07849822 -0.06006242 0.026217341 0.10533265 0.048306223 -0.08339257
-0.035966653 0.12399249 -0.04644922 -0.002932311 -0.03631751 -0.051257893 -0.009774551 -0.057143576
-0.10624041 -0.032868903 -0.019214373 -0.06054745 0.07245588 -0.042470083 0.037755907 0.02912235
00000000: 3d5b 643d bc94 6bbd d7f3 3bbe 1823 af3d
00000010: 9ebc c4bc d9cb 60bd 576d 80bd a97e 17bd
00000020: a5cd 46bd 6050 01bd 5597 973d 803a 93bd
00000030: 03b5 793c c928 a93d 95c3 e1bb 6717 f6bd
00000040: d3fa 3d3d 4493 893d 16fb a63d 5723 0e3e
00000050: 30c0 d0bd 6068 f4bb f7cf e8bd 734d 663d
00000060: 34e8 293d 7801 e8bd 7969 813d a73a 093d
00000070: 289a 153b 06d7 72bd d667 ab3d fca1 10bc
00000080: d722 d23d f925 f2bc 8304 b4bc 8e6b c1bd
00000090: 52b5 063e d732 66bd c2cd ac3d aabd 463b
000000a0: a85f 7abd 6aa8 d8ba adc3 a0bd 0304 76bd
000000b0: c0c5 d63c a5b8 d73d bfdc 453d b9c9 aabd
000000c0: c551 13bd c6ef fd3d 8a41 3ebd 042c 40bb
000000d0: abc1 14bd ccf3 51bd 7025 20bc 620f 6abd
000000e0: 9294 d9bd 8ba1 06bd 7667 9dbc 9a00 78bd
000000f0: c063 943d 1cf5 2dbd f0a5 1a3d ff91 ee3c

phi.initial_conv_module.0._layers.5.running_var f4 [64]
0.032012854 0.13235012 0.44123057 0.06364127 0.22925593 0.03081524 0.116863236 0.009064717
0.026728844 0.010468087 0.05225773 0.20175654 0.01139032 0.17768492 0.010197005 0.0988016
0.008919147 0.050927516 0.047232073 0.109361775 0.035776284 0.000551188 0.555885 0.04023477
0.023762617 0.1577054 0.07351762 0.0075046993 0.0033947052 0.05913298 0.7495542 0.009227766
0.104838215 0.019565187 0.013532954 0.058132213 0.17276944 0.023154816 0.074258745 0.001383484
0.030566698 0.004737565 0.12938452 0.1613697 0.031184403 0.22562811 0.22862363 0.08245994
0.011112868 1.2411821 0.040487293 0.0068552312 0.16183747 0.06850808 0.017666385 0.021470128
0.128563 0.0077924966 0.09179405 0.1362351 0.110239625 0.0137270205 0.007405014 0.008833797
00000000: e91f 033d ca86 073e f9e8 e13e 5b56 823d
00000010: 11c2 6a3e 3e70 fc3c fe55 ef3d 2e84 143c
00000020: 73f6 da3c 5782 2b3c 340c 563d 4499 4e3e
00000030: 779e 3a3c 09f3 353e 5711 273c 7e58 ca3d
00000040: 9d21 123c 5f99 503d 6b76 413d 11f9 df3d
00000050: 278a 123d 9a7d 103a 7b4e 0e3f 37cd 243d
00000060: d2a9 c23c 867d 213e 6890 963d fbe9 f53b
00000070: b479 5e3b 6c35 723d c9e2 3f3f 0e30 173c
00000080: 6bb5 d63d 2c47 a03c 53b9 5d3c 0b1c 6e3d
00000090: 79ea 303e 2baf bd3c f814 983d 0556 b53a
000000a0: 0367 fa3c 933d 9b3b 607d 043e 193e 253e
000000b0: 6f76 ff3c 0e0b 673e 501c 6a3e c2e0 a83d
000000c0: bf12 363c 0edf 9e3f 01d6 253d d9a1 e03b
000000d0: b9b8 253e f74d 8c3d 18b9 903c 1fe2 af3c
000000e0: 05a6 033e 3358 ff3b 85fe bb3d 3781 0b3e
000000f0: 50c5 e13d 4ce7 603c c2a5 f23b a1bb 103c

phi.initial_conv_module.0._layers.7.se_conv.conv.weight f4 [10, 64, 1]
0.08897149 -0.12289784 -0.16464403 -0.0037587036 -0.13425057 -0.11160648 -0.07971372 0.06049064
0.05602546 -0.071041584 -0.008921778 -0.12793145 -0.16749975 -0.07197003 -0.16395722 0.05764085
-0.038536385 -0.06741522 -0.08285684 -0.03112207 0.029980907 -0.0672674 0.122249745 0.11502008
-0.15274443 0.03087897 -0.050094817 -0.02836875 0.053392567 -0.012528409 0.089633904 0.05184699
-0.07240365 -0.05756254 -0.16785575 0.054850426 -0.09498754 -0.12650035 -0.103565 -0.07725701
-0.09236224 0.090883866 0.081428565 0.108588986 -0.042507816 -0.044052448 -0.041111153 0.0058245175
-0.08967062 0.022910938 -0.086245395 0.017825482 0.11685708 -0.0033765368 0.059405707 -0.11285751
-0.0056705526 -0.087062754 -0.03028364 -0.07699425 -0.093883 -0.14794578 -0.08009645 0.0078066485
-0.1214922 -0.03613397 0.1282594 0.020411443 -0.12261005 -0.03288297 0.026861679 -0.10755051
-0.12950613 0.1292202 -0.08788697 0.12018874 -0.018112289 0.01620039 0.08818889 0.054677185
-0.022524394 -0.03874215 -0.02592538 0.095796786 -0.12230347 0.0019121713 0.03969756 -0.07856814
-0.0031507348 -0.018963728 -0.086594164 -0.009153037 -0.08786252 0.032358978 -0.050801467 -0.018347021
-0.024538489 0.08652927 -0.035417985 -0.1333108 -0.020327918 -0.03272414 -0.10892718 0.043072138
-0.13311598 -0.09046442 -0.12915336 -0.053433694 -0.016308187 -0.043221053 -0.009529593 0.017517556
-0.005547983 0.021941938 0.069754235 0.11849341 0.02348992 0.13139546 0.12191899 0.037364956
0.024994733 -0.08611416 -0.09205845 0.047329746 -0.022004858 0.10116679 -0.015628917 -0.0600319
0.025302675 0.052731827 0.18385041 -0.07663032 -0.037215196 0.030255225 0.10603893 -0.07262615
-0.07178805 0.11216729 -0.009189444 0.08382504 -0.03347985 -0.05081103 -0.06435271 -0.04109651
-0.10416164 0.124493904 0.030678365 -0.08710559 0.097853266 0.010461163 0.025957141 -0.09374656
0.12945072 -0.06584415 0.05947578 -0.08643672 0.06663635 -0.03522517 0.08145702 -0.11659573
-0.052544933 0.0043437686 -0.02378248 -0.038993184 -0.0072798426 0.0832142 0.061676294 -0.055119842
0.1353131 -0.059080146 -0.04286002 -0.0071095433 -0.03043611 0.012099906 0.12158591 0.04633688
-0.10274245 -0.031562876 -0.033492003 -0.10579971 0.05695195 0.12932862 0.08237793 -0.042445567
-0.001542029 -0.062049076 0.026450766 0.14323801 -0.08802862 0.031694207 -0.08185609 -0.075858824
0.018274115 -0.071525164 0.084587514 -0.10014394 -0.011419702 0.119145125 0.117191516 -0.03790329
-0.11503027 -0.112246476 -0.043570075 -0.04292125 0.13601783 -0.07659291 0.10128809 0.06289752
0.016126879 0.10547047 0.09676603 0.0815849 -0.049940076 -0.02264773 0.030801577 0.1291865
-0.01716477 -0.0342588 -0.1113689 0.125196 0.14860879 0.091805905 -0.050650686 0.09837431
-0.03323778 0.11986231 0.13535278 -0.08353545 0.049060926 0.0450676 -0.072819166 0.17407933
0.14349923 0.1275696 0.012346571 -0.08779414 -0.03799558 0.12038839 -0.018603992 0.11063524
0.14065157 0.044621456 -0.08540883 0.06275815 0.11289451 0.014788691 -0.020940084 -0.061015077
0.035504818 -0.0749984 0.10217482 0.051129922 -0.013858967 -0.041051555 -0.026350016 0.10215441
00000000: af36 b63d ddb1 fbbd 7298 28be 9554 76bb
00000010: fb78 09be f091 e4bd f240 a3bd 09c5 773d
00000020: f47a 653d 407e 91bd a62c 12bc 7600 03be
00000030: 0e85 2bbe 0665 93bd 67e4 27be d018 6c3d
00000040: 54d8 1dbd fe10 8abd d9b0 a9bd b6f3 febc
00000050: 859a f53c 7ec3 89bd 135e fa3d a68f eb3d
00000060: 0969 1cbe e5f5 fc3c 3930 4dbd 9565 e8bc
00000070: 2ab2 5a3d f543 4dbc fb91 b73d 825d 543d
00000080: 5d48 94bd b3c6 6bbd 61e2 2bbe d7aa 603d
00000090: d488 c2bd 4f89 01be e319 d4bd ec38 9ebd
000000a0: 6a28 bdbd 5221 ba3d 05c4 a63d e763 de3d
000000b0: ad1c 2ebd 5770 34bd 2b64 28bd 98db be3b
000000c0: 3ba5 b7bd b8af bb3c 6da1 b0bd bf06 923c
000000d0: c452 ef3d e348 5dbb 6653 733d d721 e7bd
000000e0: 0bd0 b9bb f54d b2bd 6515 f8bc 29af 9dbd
000000f0: bb45 c0bd 197f 17be 9c09 a4bd eace ff3b
00000100: e7d0 f8bd 3701 14bd 6f56 033e e635 a73c
00000110: fa1a fbbd 4bb0 06bd 060d dc3c 7143 dcbd
00000120: 419d 04be 4d52 043e 15fe b3bd 8425 f63d
00000130: 3960 94bc aeb6 843c 609c b43d 2ff5 5f3d
00000140: 1485 b8bc 17b0 1ebd 7661 d4bc 1b31 c43d
00000150: 3e7a fabd d2a1 fa3a e999 223d 55e8 a0bd
00000160: 8f7c 4ebb d259 9bbc 4858 b1bd 9ff6 15bc
00000170: 44f1 b3bd d98a 043d 3315 50bd 7e4c 96bc
00000180: f104 c9bc 4236 b13d 7312 11bd a082 08be
00000190: bc86 a6bc bf09 06bd 3715 dfbd 696c 303d
000001a0: 8e4f 08be 6945 b9bd c740 04be 4add 5abd
000001b0: bf98 85bc 8f08 31bd 0322 1cbc fa80 8f3c
000001c0: dbcb b5bb 94bf b33c 4fdb 8e3d acac f23d
000001d0: ef6d c03c 888c 063e aab0 f93d ff0b 193d
000001e0: c1c1 cc3c 9f5c b0bd 2489 bcbd d6dc 413d
000001f0: 8843 b4bc 8930 cf3d 3708 80bc 02e4 75bd
00000200: 8e47 cf3c 54fd 573d 4843 3c3e 5bf0 9cbd
00000210: f66e 18bd ced9 f73c f02a d93d 05bd 94bd
00000220: 9d05 93bd f7b7 e53d 528f 16bc 76ac ab3d
00000230: 2b22 09bd 3a1f 50bd 5bcb 83bd d054 28bd
00000240: b352 d5bd a9f6 fe3d 3251 fb3c 6a64 b2bd
00000250: 4b67 c83d 4c65 2b3c 12a4 d43c 32fe bfbd
00000260: bb8e 043e 4cd9 86bd e09c 733d bc05 b1bd
00000270: a378 883d 4548 10bd f0d2 a63d bec9 eebd
00000280: 5b39 57bd 2c56 8e3b 7ad3 c2bc 51b7 1fbd
00000290: bf8b eebb 356c aa3d 48a0 7c3d 58c5 61bd
000002a0: 848f 0a3e 06fe 71bd fd8d 2fbd 2cf7 e8bb
000002b0: 2655 f9bc af3e 463c 0902 f93d becb 3d3d
000002c0: a26a d2bd 1348 01bd e92e 09bd 85ad d8bd
000002d0: 7346 693d b96e 043e c3b5 a83d 67db 2dbd
000002e0: e81d caba 2c27 7ebd 47af d83c fcac 123e
000002f0: 5948 b4bd c9d1 013d 2aa4 a7bd df5b 9bbd
00000300: 99b3 953c c97b 92bd 383c ad3d 4418 cdbd
00000310: b419 3bbc 5c02 f43d 1b02 f03d 7b40 1bbd
00000320: fd94 ebbd 7be1 e5bd 8976 32bd 31ce 2fbd
00000330: 4248 0b3e bedc 9cbd 2170 cf3d 6ad0 803d
00000340: 841c 843c e700 d83d 452d c63d fc15 a73d
00000350: f78d 4cbd bb87 b9bc 9753 fc3c 7749 043e
00000360: 229d 8cbc f552 0cbd 6115 e4bd 6133 003e
00000370: e72c 183e bc04 bc3d 1877 4fbd 7878 c93d
00000380: 5724 08bd 5f7a f53d eb99 0a3e a214 abbd
00000390: 1cf4 483d ce98 383d 3722 95bd da41 323e
000003a0: 76f1 123e 9ba1 023e 4649 4a3c 6acd b3bd
000003b0: 41a1 1bbd 308e f63d 6667 98bc bb94 e23d
000003c0: f706 103e fdc4 363d d3ea aebd 5887 803d
000003d0: 3d35 e73d 444c 723c 8a8a abbc f2ea 79bd
000003e0: 806d 113d c398 99bd 0841 d13d 9c6d 513d
000003f0: b910 63bc ad25 28bd fddb d7bc 5536 d13d

phi.initial_conv_module.0._layers.7.se_conv2.conv.weight f4 [64, 10, 1]
-0.13151366 0.06949382 -0.0091394335 -0.11852446 -0.10884935 0.076910034 -0.29314244 0.288943
-0.09075946 0.039447516 0.03919919 -0.15278335 0.25637943 0.07051591 0.051270645 -0.3190351
0.0954461 0.08966818 0.071060486 -0.09958593 0.24152435 0.32243517 0.22447075 -0.020565262
0.1152218 -0.2436568 -0.1934126 -0.13651662 0.0020911784 -0.22624972 -0.23119466 0.17321023
0.09690267 -0.2006398 0.23221378 -0.22893672 0.22834723 0.15148681 -0.1237823 0.27881774
-0.17861362 -0.15647776 0.2688864 -0.10377452 -0.10031962 0.047973048 -0.054854948 0.20878917
0.30158094 0.11363006 0.07437344 0.090250105 0.047962792 0.034089718 0.034032226 0.24763854
0.1637074 -0.06151095 0.12937771 0.064868405 0.06962802 0.31634548 -0.2398749 0.062377647
-0.015614465 -0.38807434 -0.28837934 -0.077401385 0.23304787 -0.22721054 0.06384476 0.1071774
-0.21120487 0.12062487 0.013502778 -0.2529493 -0.0015664838 -0.28626585 0.315592 0.17258747
0.09806489 0.26691198 0.2222938 0.4122876 0.16044131 -0.21762267 0.41188914 0.11590593
-0.075931445 -0.22165756 0.27720585 0.071095034 0.18761949 0.088917166 0.30880612 -0.20288706
0.11450037 0.044514544 0.02855096 0.18156517 0.14353164 0.039514262 0.16700478 -0.035253003
-0.082720846 -0.26533478 -0.06657215 -0.10678644 0.15375195 0.34660277 -0.30609873 -0.17687578
0.3298636 -0.058621157 0.38593554 0.29364556 -0.045911252 -0.33108374 0.14811444 0.037585475
0.31046045 0.080795854 0.19025315 -0.2684688 0.08807567 0.05653964 0.20239085 -0.20420018
-0.07984172 -0.23440842 -0.17126103 0.16435133 0.010208485 0.14755544 0.01825443 -0.049943507
-0.029411899 0.14105375 -0.24422784 0.051327635 0.14954212 0.21166094 -0.16740124 0.2796213
-0.24694866 0.14923422 0.28245652 0.0021194222 0.15087754 -0.3507917 -0.13142003 -0.14392357
-0.26894414 -0.061492853 0.23962447 0.009417464 0.30580753 -0.24373494 0.098316684 0.21766806
0.30188566 -0.11786228 -0.2913312 -0.11269119 0.1954071 0.0052390406 0.3195874 -0.2546749
-0.22367267 0.15142746 0.09972777 -0.17270945 0.32210666 -0.12479536 -0.22682025 0.07136147
-0.16103435 -0.14452316 -0.15128733 0.08707202 0.19515021 0.261813 -0.15559527 -0.044993166
0.35313907 -0.19095053 -0.11319155 -0.112856686 -0.2760992 -0.2575663 0.28681126 0.104870684
0.06993381 0.14502713 0.23158483 0.21264096 0.21813735 0.10897358 0.24963434 0.16936927
-0.0460267 0.035762973 -0.138486 -0.19787253 0.29452097 -0.24627307 -0.22065035 -0.31423977
-0.24060288 0.09872542 0.14682066 -0.256178 -0.008492444 -0.17614333 0.04716165 0.18894596
-0.10183739 -0.17465559 0.2031095 -0.2399528 -0.09719744 -0.2562021 0.22313972 0.1538119
-0.106993124 0.22746044 0.34800842 0.119229764 -0.22027025 -0.11028691 0.25722617 0.23801789
-0.076622434 0.20397401 -0.19804877 0.061180875 0.27472487 -0.005885997 -0.2840571 0.08749636
0.17695443 0.24625343 -0.2229265 -0.024882829 -0.009508122 -0.07894878 -0.04602617 -0.13367435
0.11641554 0.12745968 -0.14129359 0.25818056 -0.007385828 0.15986171 0.10975883 -0.14086199
00000000: 84ab 06be c752 8e3d 90bd 15bc f4bc f2bd
00000010: 68ec debd 0283 9d3d c416 96be 56f0 933e
00000020: 19e0 b9bd b893 213d 548f 203d 3d73 1cbe
00000030: 2a44 833e a56a 903d 2b01 523d 9258 a3be
00000040: 3f79 c33d f3a3 b73d 2988 913d b5f3 cbbd
00000050: 2952 773e 3916 a53e a9db 653e 7b78 a8bc
00000060: 68f9 eb3d 2b81 79be f40d 46be 03cb 0bbe
00000070: 270c 093b 02ae 67be 4bbe 6cbe 065e 313e
00000080: e874 c63d 8574 4dbe 73c9 6d3e 636e 6abe
00000090: dbd3 693e 5c1f 1b3e 9381 fdbd 33c1 8e3e
000000a0: 7de6 36be b53b 20be 7aab 893e bc87 d4bd
000000b0: 5f74 cdbd 637f 443d 95af 60bd d4cc 553e
000000c0: d168 9a3e e0b6 e83d 1a51 983d 0cd5 b83d
000000d0: a274 443d a9a1 0b3d 6065 0b3d f594 7d3e
000000e0: eaa2 273e e8f2 7bbd 977b 043e bad9 843d
000000f0: 2399 8e3d 09f8 a13e c4a1 75be b47f 7f3d
00000100: d0d3 7fbc aeb1 c6be 75a6 93be 9e84 9ebd
00000110: 1aa4 6e3e e1a9 68be 0bc1 823d d37f db3d
00000120: 1746 58be 2c0a f73d c13a 5d3c 9282 81be
00000130: 7952 cdba 7091 92be 4695 a13e c5ba 303e
00000140: 3fd6 c83d b0a8 883e fca0 633e 5c17 d33e
00000150: ba4a 243e 7ad8 5ebe 22e3 d23e 1760 ed3d
00000160: f281 9bbd 33fa 62be eded 8d3e 469a 913d
00000170: 531f 403e 341a b63d d61b 9e3e a0c1 4fbe
00000180: 2c7f ea3d e254 363d b4e3 e93c 38ec 393e
00000190: f5f9 123e b5d9 213d 4d03 2b3e 7465 10bd
000001a0: 8c69 a9bd f6d9 87be fb56 88bd d9b2 dabd
000001b0: 2771 1d3e eb75 b13e f9b8 9cbe ed1e 35be
000001c0: e2e3 a83e bd1c 70bd 5899 c53e b658 963e
000001d0: 700d 3cbd cf83 a9be 50ab 173e 3af3 193d
000001e0: acf4 9e3e 4c78 a53d b9d1 423e be74 89be
000001f0: 0461 b43d 1c96 673d 8c3f 4f3e da19 51be
00000200: 0e84 a3bd c308 70be 0d5f 2fbe b74b 283e
00000210: 7d41 273c c618 173e 508a 953c 9091 4cbd
00000220: 39f1 f0bc 6570 103e dd16 7abe ed3c 523d
00000230: 9221 193e a5bd 583e 3b6b 2bbe 862a 8f3e
00000240: 1ce0 7cbe dbd0 183e 249e 903e 01e6 0a3b
00000250: a47f 1a3e f89a b3be f992 06be b360 13be
00000260: 0cb3 89be eedf 7bbd 1e60 753e b54b 1a3c
00000270: ce92 9c3e a795 79be 425a c93d 60e4 5e3e
00000280: c290 9a3e c761 f1bd 5d29 95be a3ca e6bd
00000290: cc18 483e 42ac ab3b f6a0 a33e c064 82be
000002a0: 730a 65be cd0f 1b3e 133e cc3d bfda 30be
000002b0: 2aeb a43e b694 ffbd 9143 68be f625 923d
000002c0: 30e6 24be e1fd 13be 11eb 1abe d152 b23d
000002d0: 75d5 473e 5b0c 863e 5e54 1fbe c14a 38bd
000002e0: a5ce b43e 8988 43be f9d0 e7bd 6821 e7bd
000002f0: e05c 8dbe bbdf 83be edd8 923e 71c6 d63d
00000300: 7539 8f3d fe81 143e 9324 6d3e 8dbe 593e
00000310: 665f 5f3e 8a2d df3d 25a0 7f3e 236f 2d3e
00000320: 7e86 3cbd 327c 123d 46cf 0dbe 199f 4abe
00000330: 74cb 963e 022f 7cbe 2af2 61be 09e4 a0be
00000340: 9a60 76be 8e30 ca3d 2858 163e c329 83be
00000350: e423 0bbc eb5e 34be 932c 413d 0d7b 413e
00000360: 1f90 d0bd ead8 32be f0fb 4f3e 30b6 75be
00000370: 740f c7bd ec2c 83be bd7e 643e de80 1d3e
00000380: 361f dbbd 64eb 683e 292e b23e bc2e f43d
00000390: 868e 61be 1ade e1bd 26b3 833e f6ba 733e
000003a0: 39ec 9cbd 90de 503e 4ccd 4abe cc98 7a3d
000003b0: bda8 8c3e 52df c0bb ef6f 91be 4b31 b33d
000003c0: 8b33 353e dc29 7c3e d846 64be 13d7 cbbc
000003d0: f4c7 1bbc e6af a1bd f085 3cbd eee1 08be
000003e0: 456b ee3d ca84 023e 44af 10be 3e30 843e
000003f0: d104 f2bb cab2 233e 3dc9 e03d 203e 10be

phi.initial_conv_module.0._layers.8.conv.weight f4 [32, 64, 1]
-0.06514254 0.11353995 0.0324215 -0.019836716 -0.09851083 0.10056885 -0.04742307 0.089212246
-0.10273502 0.04304438 -0.106668346 0.002540733 -0.070549116 -0.11404262 0.016681049 0.10400067
0.045497745 0.0111691365 0.09493544 0.072765075 -0.10734358 0.07614706 0.05719545 0.12593922
0.12671964 0.086687654 -0.050104212 0.05508169 -0.045655552 -0.055716526 0.07829201 -0.06983573
0.066751026 -0.07420211 0.057039574 -0.079561144 -0.0739178 0.017295515 -0.054389235 0.12745526
-0.029021189 0.06859674 -0.1074093 -0.10042627 0.08507676 -0.034958873 -0.07767627 -0.0055136774
-0.011835369 0.0045475047 -0.021088911 -0.00466205 0.06294787 0.027088918 0.12975527 -0.0028362921
-0.030811818 -0.01828122 0.012045266 -0.07345025 -0.06447037 -0.02692183 0.06812097 0.09437849
0.12845378 -0.09112515 0.097619765 0.0031054094 -0.15212116 0.03619016 -0.037095927 -0.04183466
0.04500619 0.02954218 0.07794896 -0.1263962 0.06014236 0.046096098 0.079632394 -0.017081851
-0.00802163 0.04264903 0.10580474 -0.13147496 -0.12765235 -0.17599922 0.036615755 -0.08863648
-0.048017733 -0.017285706 0.044700213 -0.081744276 0.061622947 -0.15134183 -0.08294692 0.02615351
-0.11680152 0.05286161 -0.08097742 -0.06686537 0.09982629 -0.08082066 0.0639218 -0.02382741
-0.0020742146 0.088924766 0.14541766 -0.06871832 -0.12352594 -0.10294425 0.031148616 0.03317238
0.07909473 0.059004087 0.10929093 -0.11021765 -0.05444352 -0.050878193 0.09237619 -0.015425056
0.11080731 -0.008763736 0.058779422 0.16741906 0.16054225 0.085425325 -0.009160403 0.01327935
0.016802436 0.10833404 0.023207856 -0.021731175 -0.0035603838 -0.08576667 0.036399245 -0.08833899
0.063191704 -0.02300089 -0.09373841 -0.0074032554 -0.08645273 -0.10175241 0.06886828 -0.018918347
-0.0042103147 0.0079980865 0.063930444 0.08057376 -0.10160357 -0.030000657 -0.027575087 -0.14495018
0.14571074 -0.042366743 -0.039020617 0.15514646 -0.018608814 0.11545011 -0.073735476 -0.0012720318
-0.06294737 -0.058016025 0.04786532 0.1291372 -0.06154292 -0.017814986 -0.017988037 0.05674343
-0.15150061 -0.07595492 -0.025246158 0.1409589 0.024442092 -0.0744912 0.11081718 0.06075723
0.112554386 -0.029645061 -0.011601177 0.051932283 0.07678184 0.1134798 0.09803697 -0.1021264
0.1573588 -0.03121972 0.09595627 0.10410605 0.049064405 0.12864439 0.13219059 -0.008049664
-0.092679255 0.0039940383 -0.057367068 0.09328974 0.0042008865 0.017685883 -0.09455686 -0.20518866
-0.011008767 0.14874423 0.07441498 0.10885289 0.13565132 0.030328698 -0.020232437 -0.070676394
0.064915895 -0.08545594 -0.09291454 0.05828651 0.0504121 -0.04253432 0.08113595 -0.08688575
0.048788026 0.020966172 0.062389586 -0.0647124 -0.09828954 0.043084092 0.012620884 -0.046994966
0.081265084 -0.06271861 0.03839888 0.020114578 0.11914109 -0.029726012 -0.05891569 -0.10685378
0.05301795 -0.053824537 -0.04804925 0.07498693 -0.12736177 0.07302805 0.04206213 0.036993798
-0.047835715 0.028094709 -0.095603704 0.104310825 -0.060384713 -0.04704913 0.07347404 0.030483892
-0.13688424 -0.032932322 -0.08336796 -0.1419087 -0.039788153 -0.09922009 -0.05372595 -0.07958304
00000000: 7469 85bd a287 e83d 68cc 043d 9c80 a2bc
00000010: 0cc0 c9bd 0bf7 cd3d b13e 42bd e9b4 b63d
00000020: bd66 d2bd 4e4f 303d ef74 dabd 6d82 263b
00000030: 0e7c 90bd 2d8f e9bd b2a6 883c 4efe d43d
00000040: d85b 3a3d c1fe 363c 836d c23d db05 953d
00000050: f3d6 dbbd fdf2 9b3d c745 6a3d 36f6 003e
00000060: cbc2 013e 4c89 b13d 133a 4dbd 579d 613d
00000070: 5101 3bbd 0337 64bd 9057 a03d 0906 8fbd
00000080: c3b4 883d 47f7 97bd 54a2 693d f4f0 a2bd
00000090: 3762 97bd 53af 8d3c 3fc7 5ebd a283 023e
000000a0: d8bd edbc 737c 8c3d 68f9 dbbd 4aac cdbd
000000b0: b93c ae3d 0931 0fbd bc14 9fbd 14ac b4bb
000000c0: 23e9 41bc 3c03 953b a7c2 acbc 1cc4 98bb
000000d0: d0ea 803d 94e9 dd3c 91de 043e 16e1 39bb
000000e0: 1169 fcbc 7fc2 95bc 8259 453c 166d 96bd
000000f0: 0b09 84bd 2b8b dcbc 0283 8b3d 8249 c13d
00000100: 6389 033e d39f babd dfec c73d 2084 4b3b
00000110: a6c5 1bbe 223c 143d e6f1 17bd d25a 2bbd
00000120: 6958 383d 7102 f23c b4a3 9f3d 016e 01be
00000130: d657 763d 43cf 3c3d 4f16 a33d 3def 8bbc
00000140: 286d 03bc c0b0 2e3d 28b0 d83d 5fa1 06be
00000150: 4cb7 02be 2439 34be 67fa 153d 0b87 b5bd
00000160: 3eae 44bd c19a 8dbc 9217 373d 8b69 a7bd
00000170: 5868 7c3d 5af9 1abe 13e0 a9bd e33f d63c
00000180: a335 efbd 6a85 583d 7dd7 a5bd b6f0 88bd
00000190: ba71 cc3d 4d85 a5bd 6fe9 823d b331 c3bc
000001a0: 8cef 07bb 301e b63d 5ee8 143e 31bc 8cbd
000001b0: 2bfb fcbd 6fd4 d2bd 622b ff3c c3df 073d
000001c0: 6bfc a13d 45ae 713d ecd3 df3d cbb9 e1bd
000001d0: 2b00 5fbd a765 50bd ba2f bd3d 60b9 7cbc
000001e0: f1ee e23d c695 0fbc b1c2 703d e76f 2b3e
000001f0: 3065 243e 79f3 ae3d 8415 16bc a191 593c
00000200: 43a5 893c 3dde dd3d 671e be3c 9405 b2bc
00000210: 5455 69bb 70a6 afbd 6017 153d 13eb b4bd
00000220: a76a 813d 5d6c bcbc ecf9 bfbd 0297 f2bb
00000230: 210e b1bd 9163 d0bd d00a 8d3d a6fa 9abc
00000240: aef6 89bb 680a 033c f7ed 823d db03 a53d
00000250: 8815 d0bd f0c3 f5bc 26e5 e1bc d26d 14be
00000260: 3235 153e c088 2dbd 15d4 1fbd b7de 1e3e
00000270: 8371 98bc 1b71 ec3d a002 97bd 4eba a6ba
00000280: 8dea 80bd 36a2 6dbd 6d0e 443d 8b3c 043e
00000290: 6e14 7cbd bcf0 91bc a65b 93bc cd6b 683d
000002a0: fa22 1bbe 418e 9bbd 08d1 cebc 8857 103e
000002b0: c83a c83c d88e 98bd 1ef4 e23d 93dc 783d
000002c0: ea82 e63d 33da f2bc dd12 3ebc f2b6 543d
000002d0: cc3f 9d3d 1968 e83d 9bc7 c83d a527 d1bd
000002e0: aa22 213e 80c0 ffbc b984 c43d 8e35 d53d
000002f0: c2f7 483d 5bbb 033e f85c 073e bde2 03bc
00000300: 9fce bdbd 6ce0 823b bbf9 6abd b10e bf3d
00000310: 97a7 893b fce1 903c 07a7 c1bd fa1c 52be
00000320: 1e5e 34bc 6850 183e e266 983d 44ee de3d
00000330: 2ee8 0a3e e473 f83c 7fbe a5bc c9be 90bd
00000340: a0f2 843d 8603 afbd fa49 bebd d6bd 6e3d
00000350: eb7c 4e3d 7838 2ebd 9b2a a63d 28f1 b1bd
00000360: f4d5 473d 40c1 ab3c 398c 7f3d ef87 84bd
00000370: 074c c9bd f278 303d d3c7 4e3c cb7d 40bd
00000380: 4f6e a63d 9d72 80bd 2548 1d3d 54c7 a43c
00000390: 3e00 f43d f783 f3bc 9451 71bd 28d6 dabd
000003a0: 5a29 593d 1e77 5cbd 4acf 44bd bf92 993d
000003b0: 206b 02be bb8f 953d 5749 2c3d cf86 173d
000003c0: 62ef 43bd e026 e63c e0cb c3bd eaa0 d53d
000003d0: f655 77bd 97b6 40bd 8f79 963d 5bb9 f93c
000003e0: 622b 0cbe 0be4 06bd d2bc aabd 8450 11be
000003f0: e7f8 22bd e733 cbbd be0f 5cbd 6ffc a2bd

phi.initial_conv_module.0._layers.9.weight f4 [32]
0.9958653 1.0301689 1.0655584 1.0126582 1.0595924 1.0476018 0.9958177 1.0115665
1.0647624 0.97644585 1.0138102 1.0410588 1.0116131 0.974356 0.9821738 1.0137805
1.0013249 1.0153298 1.0602578 1.0432376 1.0048025 1.0404294 1.0217361 0.9862669
1.0157708 1.055666 0.9992024 0.9933865 0.9794456 1.0134746 1.0297172 1.0497409
00000000: 07f1 7e3f 93dc 833f 3864 883f c99e 813f
00000010: b9a0 873f d117 863f e9ed 7e3f 037b 813f
00000020: 224a 883f 5bf8 793f 88c4 813f 6a41 853f
00000030: 8a7c 813f 656f 793f be6f 7b3f 8fc3 813f
00000040: 6a2b 803f 54f6 813f 87b6 873f cf88 853f
00000050: 5e9d 803f ca2c 853f 40c8 823f fd7b 7c3f
00000060: c704 823f 1020 873f bacb 7f3f 944e 7e3f
00000070: f2bc 7a3f 89b9 813f c6cd 833f e95d 863f

phi.initial_conv_module.0._layers.9.bias f4 [32]
-0.005849388 0.004817795 0.008066462 -0.0022581138 0.0017108028 -0.012496195 -4.896295e-05 -0.0041891774
-0.006355468 -0.0056502516 0.0007970057 -0.002224838 0.0024910918 0.0012366802 -0.0008697235 0.0008386547
0.0044044256 -0.006381034 -0.008168756 0.00016881934 -0.0013891654 -0.0004031057 -0.0038365358 0.0028995418
-0.0031972148 0.0024924208 -0.0016009522 0.008199254 -0.0027253318 -0.0020035503 -0.00034893578 -0.0058471556
00000000: 39ac bfbb 98de 9d3b 3229 043c ddfc 13bb
00000010: 043d e03a d7bc 4cbc 915d 4db8 5e45 89bb
00000020: 8841 d0bb bf25 b9bb 26ee 503a 96ce 11bb
00000030: 9641 233b 1a18 a23a 28fe 63ba 2ad9 5b3a
00000040: 0053 903b fe17 d1bb 3fd6 05bc 1905 3139
00000050: a814 b6ba ee57 d3b9 646e 7bbb 3d06 3e3b
00000060: 5d88 51bb e257 233b 0bd7 d1ba 2a56 063c
00000070: 7b9b 32bb ff4d 03bb 5ef1 b6b9 7f99 bfbb

phi.initial_conv_module.0._layers.9.running_mean f4 [32]
0.00663273 0.027762452 0.046768878 -0.037950974 -0.09187015 -0.0037995223 -0.097183295 0.002132792
-0.05396112 -0.0091852425 0.00839507 0.015936492 0.030262373 0.05915877 -0.025833149 0.013484656
0.05744934 -0.046555217 -0.06712816 0.0040009604 -0.035313055 -0.038801294 0.037079774 -0.024955798
0.05487079 -0.022769941 0.049930338 -0.008257155 0.03859412 -0.0667445 0.031939182 -0.0073162536
00000000: 5f57 d93b 156e e33c b990 3f3d 7b72 1bbd
00000010: 6b26 bcbd 6801 79bb 0908 c7bd 50c6 0b3b
00000020: 5606 5dbd b37d 16bc 7a8b 093c 3f8d 823c
00000030: cce8 f73c 7750 723d 0aa0 d3bc bfee 5c3c
00000040: 0050 6b3d afb0 3ebd 7d7a 89bd 7d1a 833b
00000050: 6ca4 10bd 1bee 1ebd f6e0 173d 1a70 ccbc
00000060: 32c0 603d 0788 babc c183 4c3d 0549 07bc
00000070: de14 1e3d 57b1 88bd a9d2 023d 2fbd efbb
