logs/4birds_CF_combined_log_linear_gru64_50epochs_try2/2025-05-27_14-03-18/4birds_CF_combined_log_linear_gru64_50epochs_try2_best_model.pth (torch, 334849 bytes, 198 tensors)

phi.initial_conv_module.0._layers.0.conv.weight f4 [64, 64, 1]
0.10143515 0.11059337 -0.031735532 0.10347648 -0.02993863 0.009297701 -0.06209837 0.07069373
0.110582195 -0.08707172 0.13251075 0.07710803 0.15508074 0.055002775 0.11123174 0.014084559
0.060803603 -0.018425662 -0.06682543 0.022835566 -0.06145281 -0.0165142 -0.06570691 0.057657555
-0.110594906 -0.037508905 -0.0070605706 -0.04776708 0.035679504 -0.12752303 0.111643575 -0.10718871
0.08637096 0.023620259 -0.03309614 0.08585594 0.03425942 0.12072005 0.035272606 -0.01758584
0.045754947 -0.043993574 0.02935502 0.08446798 0.053337205 -0.064037964 0.07335816 0.023872413
0.06785573 -0.07311779 -0.12374647 -0.06432053 -0.12585826 0.06554578 -0.0062970347 0.0053566787
-0.0036443889 -0.034404345 0.0695839 -0.122745045 -0.006880488 -0.078251995 0.052296836 -0.030956257
0.0356315 -0.029831493 0.10957601 -0.07863928 -0.06082018 -0.088198125 0.12667939 0.032507125
0.11878578 -0.105894536 -0.1300416 -0.112905025 -0.094418444 0.038456507 0.027937524 0.101755515
-0.05760014 -0.0747285 0.07078962 -0.052842867 0.07297565 -0.034098335 0.055450335 -0.12458195
-0.09616699 0.012172116 0.013312582 -0.030406348 0.07911788 0.08574995 -0.09872177 -0.06987918
0.112390675 -0.04485246 -0.036990367 -0.10598505 -0.062398456 0.039601292 -0.005917126 -0.06620178
0.021877324 -0.08689223 -0.12464805 -0.10318142 -0.1290436 -0.075030684 0.13319747 0.038045026
0.054798022 -0.10631167 -0.07744798 -0.037216224 -0.0041077673 -0.14087462 -0.08420502 -0.11428421
-0.027045257 -0.055251975 -0.016966801 -0.086526886 -0.061398286 -0.04931098 -0.020943511 -0.083054714
0.0888731 -0.041476544 0.08548053 0.02605555 -0.122396216 0.08101169 -0.0366729 -0.04787336
-0.10188226 -0.12193572 0.037016913 -0.022812849 0.048484668 -0.09413935 0.07694815 -0.13297535
-0.020752162 0.06850711 0.08347638 0.10380802 0.09592788 -0.14239497 -0.0040773936 -0.07827098
-0.046592 -0.12549129 0.10466872 -0.07485021 0.0935244 0.061250377 0.03994843 -0.07191397
0.109234415 0.016249483 0.018612381 -0.10189457 0.053722095 -0.027422648 -0.06632385 0.10300801
0.019788507 -0.08092113 -0.07845643 -0.021076731 0.051940784 -0.035893563 -0.07004152 -0.037910692
-0.091356464 0.040518593 0.08235307 -0.13039814 0.017105168 0.04920945 0.012921861 -0.05453304
0.05108735 0.055108488 0.046366494 -0.018416414 -0.035606567 -0.0019052858 -0.039877687 -0.058624536
0.034840584 0.06255669 -0.02131986 -0.06351029 -0.005625958 -0.03464514 0.0046739304 0.008323172
-0.139408 -0.07413637 0.077168345 0.024391968 -0.020800699 -0.07372589 -0.07268747 -0.12439896
-0.029083677 0.07309749 0.097537726 0.056538567 -0.11982952 -0.09446648 -0.040851805 0.11359384
0.011722339 -0.053139184 0.021877574 -0.08168978 -0.10792196 0.06912316 -0.06856279 -0.03178482
-0.11418423 0.105201654 0.11830438 0.056647502 -0.084680505 -0.120765075 -0.10352832 0.088471785
0.050578404 0.09574034 0.0754165 0.051724955 0.022082193 -0.09419282 -0.12626483 -0.13812357
0.054173224 -0.053308118 -0.02048818 -0.055282 -0.004419741 -0.069438666 -0.06198683 0.064374164
-0.015754363 0.09752555 -0.023975007 -0.07420621 -0.010122796 -0.06346054 -0.04321527 -0.12409476
00000000: 3bbd cf3d c77e e23d 1efd 01bd 7aeb d33d
00000010: dc41 f5bc 6255 183c dc5a 7ebd e0c7 903d
00000020: eb78 e23d a852 b2bd e6b0 073e d1ea 9d3d
00000030: 7ccd 1e3e 974a 613d 77cd e33d ecc2 663c
00000040: 330d 793d 6af1 96bc c5db 88bd a711 bb3c
00000050: f1b5 7bbd ca48 87bc 5891 86bd 542a 6c3d
00000060: 957f e2bd f0a2 19bd 5c5c e7bb 6aa7 43bd
00000070: ac24 123d 6695 02be 63a5 e43d c185 dbbd
00000080: 42e3 b03d 467f c13c d18f 07bd 3dd5 af3d
00000090: 9b53 0c3d 133c f73d 027a 103d 2e10 90bc
000000a0: 8a69 3b3d 9b32 34bd f079 f03c 8cfd ac3d
000000b0: 1d78 5a3d 5626 83bd ce3c 963d 1490 c33c
000000c0: f2f7 8a3d c8be 95bd ca6e fdbd 7bba 83bd
000000d0: fde0 00be de3c 863d 5b57 cebb 1487 af3b
000000e0: b3d6 6ebb 92eb 0cbd 0182 8e3d c161 fbbd
000000f0: b775 e1bb 9542 a0bd 3535 563d fa97 fdbc
00000100: 56f2 113d 2d61 f4bc 6369 e03d a10d a1bd
00000110: 951e 79bd 38a1 b4bd 3eb8 013e 3126 053d
00000120: f645 f33d 3cdf d8bd a029 05be c03a e7bd
00000130: 755e c1bd 9284 1d3d 3cdd e43c 3265 d03d
00000140: 20ee 6bbd 410b 99bd 26fa 903d c371 58bd
00000150: 4274 953d b2aa 0bbd e41f 633d d224 ffbd
00000160: 33f3 c4bd 8e6d 473c 041d 5a3c bc16 f9bc
00000170: 8e08 a23d ab9d af3d a42e cabd d11c 8fbd
00000180: 152d e63d 37b7 37bd 3683 17bd b10e d9bd
00000190: 8695 7fbd f734 223d 73e4 c1bb cd94 87bd
000001a0: 1338 b33c 8ef4 b1bd 7a47 ffbd c850 d3bd
000001b0: 0124 04be b0a9 99bd eb64 083e 1ad5 1b3d
000001c0: e473 603d efb9 d9bd 0c9d 9ebd 0a70 18bd
000001d0: 739a 86bb 7041 10be ae73 acbd d70d eabd
000001e0: 048e ddbc e54f 62bd f6fd 8abc 0235 b1bd
000001f0: c57c 7bbd 4ffa 49bd ba91 abbc 9718 aabd
00000200: 1a03 b63d 4fe3 29bd 6b10 af3d 7372 d53c
00000210: deaa fabd 75e9 a53d 5336 16bd db16 44bd
00000220: a5a7 d0bd 6fb9 f9bd 0c9f 173d 03e2 babc
00000230: dc97 463d 22cc c0bd fe96 9d3d b12a 08be
00000240: 7000 aabc 754d 8c3d aaf5 aa3d 4d99 d43d
00000250: d675 c43d fdcf 11be a89b 85bb 894c a0bd
00000260: 41d7 3ebd ca80 00be 8e5c d63d 114b 99bd
00000270: b889 bf3d ade1 7a3d f7a0 233d a247 93bd
00000280: 4bb6 df3d a31d 853c fe78 983c 1aae d0bd
00000290: b30b 5c3d 76a5 e0bc ccd4 87bd ddf5 d23d
000002a0: 821b a23c fab9 a5bd c4ad a0bd 1ca9 acbc
000002b0: dcbf 543d 2105 13bd ee71 8fbd 3e48 1bbd
000002c0: 1919 bbbd d3f6 253d baa8 a83d 1787 05be
000002d0: 2320 8c3c d98f 493d 37b6 533c 095e 5fbd
000002e0: f840 513d 70b9 613d cbea 3d3d 05de 96bc
000002f0: 31d8 11bd c8ba f9ba c956 23bd 4820 70bd
00000300: 00b5 0e3d b91d 803d fda6 aebc af11 82bd
00000310: f559 b8bb 10e8 0dbd c527 993b ea5d 083c
00000320: f9c0 0ebe cfd4 97bd 700a 9e3d aad1 c73c
00000330: 3a66 aabc 99fd 96bd 2bdd 94bd e2c4 febd
00000340: e440 eebc 23b4 953d dcc1 c73d fc94 673d
00000350: 2e69 f5bd a477 c1bd 3954 27bd e3a3 e83d
00000360: 0e0f 403c 79a8 59bd 9938 b33c f94c a7bd
00000370: 3006 ddbd 7190 8d3d a66a 8cbd cd30 02bd
00000380: 6cd9 e9bd f773 d73d 9149 f23d 3607 683d
00000390: f96c adbd ae53 f7bd a806 d4bd b230 b53d
000003a0: 4d2b 4f3d 8313 c43d f773 9a3d 8cdd 533d
000003b0: b7e5 b43c 2ae8 c0bd 914b 01be 4470 0dbe
000003c0: bee4 5d3d 9d59 5abd d4d6 a7bc 616f 62bd
000003d0: 7ad3 90bb dc35 8ebd e7e5 7dbd 9ad6 833d
000003e0: 4b0f 81bc 7abb c73d 3c67 c4bc 6df9 97bd
000003f0: 15da 25bc 99f7 81bd 7f02 31bd 6525 febd

phi.initial_conv_module.0._layers.1.weight f4 [64]
0.9571884 1.0419198 1.0048274 0.98557425 0.9822838 1.0148431 0.97476614 1.001832
1.0310597 0.9928275 0.9582024 0.940841 1.0345391 0.9944095 1.0038339 1.019452
1.0036345 0.9759559 0.96361744 1.0257872 0.8829145 1.0528586 1.0231154 0.9883398
1.0294489 0.9910549 1.0289897 0.9716199 0.995198 0.99500334 1.001636 0.9848741
1.0130985 0.97778696 0.98799616 0.9859248 0.9947594 0.9944942 1.0249356 0.99468464
0.9622032 1.0139763 1.0179764 0.97358966 0.9883101 1.0575724 0.98709273 0.95480084
0.9498953 0.99358654 0.9817644 1.002248 0.9509241 1.0265474 0.9900056 0.99483496
0.98441833 1.0182495 1.0001692 0.98917186 1.0332046 1.019537 0.9549911 0.93078625
00000000: 4d0a 753f a15d 853f 2f9e 803f 984e 7c3f
00000010: f376 7b3f 61e6 813f 468a 793f 083c 803f
00000020: c4f9 833f f129 7e3f c14c 753f f5da 703f
00000030: c76b 843f 9f91 7e3f a17d 803f 677d 823f
00000040: 1877 803f 3fd8 793f a2af 763f ff4c 833f
00000050: af06 623f 12c4 863f 72f5 823f d603 7d3f
00000060: fbc4 833f c6b5 7d3f efb5 833f 15bc 783f
00000070: 4cc5 7e3f 8ab8 7e3f 9c35 803f b620 7c3f
00000080: 36ad 813f 3f50 7a3f 51ed 7c3f 9165 7c3f
00000090: 8da8 7e3f 2c97 7e3f 1731 833f a7a3 7e3f
000000a0: f352 763f fac9 813f 0d4d 823f 2c3d 793f
000000b0: e401 7d3f 885e 873f 1cb2 7c3f d46d 743f
000000c0: 572c 733f b05b 7e3f e954 7b3f aa49 803f
000000d0: c36f 733f e865 833f 0271 7d3f 81ad 7e3f
000000e0: d702 7c3f 0056 823f 8b05 803f 5e3a 7d3f
000000f0: 0c40 843f 3080 823f 4c7a 743f 0248 6e3f

phi.initial_conv_module.0._layers.1.bias f4 [64]
0.0022095244 -0.023242516 0.0037251709 0.0057795085 0.021522816 -0.03126774 0.00036966495 0.0048361514
-0.008868675 0.00073434727 0.01796029 0.010636738 -0.01596311 -0.03364714 0.032961402 -0.014769679
-0.0050090034 -0.037592284 0.0022108585 0.0052519203 0.09090446 -0.0034785052 0.004351378 0.007563375
0.0040780925 0.013504896 0.01485951 -0.005315546 0.030804524 0.022494191 0.0013778305 0.048831496
0.019244583 0.044195883 -0.0026280514 0.025407903 -0.03189181 0.01858289 0.033281546 0.00090003066
0.001846622 0.008034262 -0.046041947 0.021290062 0.021728855 0.021870386 -0.011063039 0.03994461
-0.0012441273 -0.011923094 0.018181225 -0.005148428 0.01636711 -0.0016735526 0.0074236006 0.00713025
0.01331923 -0.001141142 0.001845605 -0.009230972 -0.03497681 -0.0047145193 0.00079687696 0.026711471
00000000: abcd 103b 1767 bebc ff21 743b 0862 bd3b
00000010: 9e50 b03c 9a12 00bd 97cf c139 9478 9e3b
00000020: eb4d 11bc 3681 403a 7521 933c b645 2e3c
00000030: 11c5 82bc 95d1 09bd 8902 073d 86fc 71bc
00000040: 9122 a4bb 5efa 19bd 0de4 103b 4d18 ac3b
00000050: 1e2c ba3d a2f7 63bb 0196 8e3b 30d6 f73b
00000060: 85a1 853b a443 5d3c 4d75 733c 082e aebb
00000070: c559 fc3c bd45 b83c 5298 b43a 8903 483d
00000080: d1a6 9d3c be06 353d 633b 2cbb 3c24 d03c
00000090: fda0 02bd 253b 983c 3b52 083d 09f0 6b3a
000000a0: 5a0a f23a 23a2 033c 7b96 3cbd 7f68 ae3c
000000b0: b600 b23c 8629 b33c c041 35bc f69c 233d
000000c0: fc11 a3ba 1559 43bc cbf0 943c 25b4 a8bb
000000d0: 5114 863c 1b5b dbba ad41 f33b dfa4 e93b
000000e0: e638 5a3c 5f92 95ba 3ae8 f13a 813d 17bc
000000f0: d843 0fbd 417c 9abb 82e5 503a 04d2 da3c

phi.initial_conv_module.0._layers.1.running_mean f4 [64]
0.35015658 0.49054202 0.106545895 -0.16468109 -0.46814477 -0.139287 -0.27946022 0.22450097
0.57978404 0.117239036 0.41674894 -0.3554129 0.0053148684 0.20532072 0.116497986 1.0462896
-0.110369824 0.27851808 0.016726442 0.6083792 0.004506027 0.07205115 0.16452298 -0.34861976
0.31832767 0.26070493 0.19699949 1.2794651 -0.30618238 0.6704994 -0.15170558 0.33937424
0.11976326 0.03545062 -0.8141046 0.0550532 -0.118167244 -0.094163924 -0.02016944 0.0035510676
-0.1336058 0.20643672 -0.65352327 -1.4008766 -0.29192692 0.2006778 -1.0091676 0.24334994
0.54113245 0.047115963 0.39014977 0.4380879 -0.10810814 0.21577454 0.5955897 0.095369995
0.029074166 -0.31259575 0.06151983 -0.522888 0.2837863 0.091047116 0.14063036 0.7532759
00000000: b947 b33e 5328 fb3e bc34 da3d 29a2 28be
00000010: acb0 efbe 40a1 0ebe 6915 8fbe 95e3 653e
00000020: ba6c 143f 051b f03d 1e60 d53e aef8 b5be
00000030: 5928 ae3b 983f 523e 7f96 ee3d d1ec 853f
00000040: 9309 e2bd ec99 8e3e e405 893c bdbe 1b3f
00000050: 4ba7 933b 8e8f 933d b678 283e 4a7e b2be
00000060: d8fb a23e 1e7b 853e 3cba 493e 83c5 a33f
00000070: f0c3 9cbe d9a5 2b3f b558 1bbe 76c2 ad3e
00000080: 7146 f53d ab34 113d 2969 50bf 777f 613d
00000090: ab01 f2bd 04d9 c0bd 623a a5bc 07b9 683b
000000a0: f5cf 08be 2664 533e 4d4d 27bf ed4f b3bf
000000b0: 7277 95be 7b7e 4d3e 672c 81bf ba30 793e
000000c0: a887 0a3f abfc 403d b6c1 c73e 0f4d e03e
000000d0: cd67 ddbd 00f4 5c3e 9178 183f 5851 c33d
000000e0: f22c ee3c 8d0c a0be 38fc 7b3d fddb 05bf
000000f0: 704c 913e e976 ba3d 6801 103e b0d6 403f

phi.initial_conv_module.0._layers.1.running_var f4 [64]
0.39621395 0.24866535 0.098593034 0.12143421 0.23189422 0.2157017 0.36641508 0.20393579
0.4496292 0.26965964 0.098720245 0.36978075 0.1312003 0.31679899 0.12764958 0.35373005
0.08127766 0.30128607 0.32956374 0.1221526 0.10539438 0.14869788 0.17205591 0.2927728
0.10097307 0.24274176 0.16156389 0.5481632 0.13458917 0.20056836 0.1313002 0.22619087
0.0968834 0.29276857 0.15388642 0.2145789 0.14145203 0.173893 0.113449365 0.22357823
0.112807766 0.13454507 0.221663 0.3923455 0.1811415 0.1925867 0.63496983 0.1158927
0.18608895 0.18072736 0.1870828 0.27351773 0.14185414 0.25342703 0.1429487 0.28796968
0.16748893 0.19896108 0.15366955 0.15939803 0.18970779 0.39047825 0.12908277 0.1810147
00000000: 8edc ca3e 21a2 7e3e 25eb c93d 80b2 f83d
00000010: ae75 6d3e e8e0 5c3e c29a bb3e 8bd4 503e
00000020: cc35 e63e d410 8a3e d72d ca3d e753 bd3e
00000030: 5f59 063e 7a33 a23e 92b6 023e 1b1c b53e
00000040: e774 a63d 2b42 9a3e 94bc a83e 242b fa3d
00000050: 02d9 d73d 4244 183e 6d2f 303e 51e6 953e
00000060: f8ca ce3d 4c91 783e 0171 253e 6c54 0c3f
00000070: bed1 093e cb61 4d3e 8f73 063e 949e 673e
00000080: ce6a c63d c3e5 953e 6794 1d3e 92ba 5b3e
00000090: cdd8 103e 0211 323e 2458 e83d b1f1 643e
000000a0: c207 e73d 2fc6 093e a0fb 623e 82e1 c83e
000000b0: 287d 393e 7335 453e 628d 223f 2759 ed3d
000000c0: 1a8e 3e3e 9810 393e a292 3f3e 840a 8c3e
000000d0: 3642 113e 30c1 813e 2561 123e c370 933e
000000e0: 3882 2b3e 74bc 4b3e 8d5b 1d3e 3d39 233e
000000f0: c242 423e c4ec c73e 462e 043e eb5b 393e

phi.initial_conv_module.0._layers.4.conv.weight f4 [64, 1, 5]
-0.29499295 0.39008647 0.39069048 0.34404406 -0.16221565 0.26078102 -0.39015433 0.19231799
-0.06371099 -0.38461965 -0.34604323 -0.3651465 0.07140346 -0.20534825 -0.2447798 0.4391723
-0.1339992 0.16510113 -0.077540785 0.24960868 0.115854174 0.2521177 0.111733995 -0.085268065
0.42536575 -0.062168993 -0.28274727 0.13044062 -0.040021498 -0.31751516 0.09696217 -0.06450417
-0.16805182 -0.19829527 -0.19413374 -0.16538598 0.06439215 0.43959287 -0.2549285 -0.21210454
-0.27975017 0.0007129326 0.03220743 -0.31177393 0.20857286 -0.44433358 0.36487356 0.03371342
-0.09440948 -0.20777428 0.17178485 0.31263602 -0.2933963 -0.1043698 0.3529834 -0.09852259
-0.27445444 -0.1333885 -0.023757774 -0.14444515 -0.23780988 -0.21299787 0.18036473 0.3720897
0.470577 -0.0531827 0.17329516 -0.3373005 0.266023 0.4405078 0.23033553 -0.1808125
0.35202587 -0.434798 -0.07225647 -0.044923153 -0.41600835 -0.33568105 -0.33007592 0.1283072
-0.018759253 0.22451909 -0.054211814 0.3795152 0.027652735 0.40700585 0.38964483 -0.35095516
-0.2715865 0.28544706 0.4048478 -0.39843786 -0.008387477 -0.17839035 0.41518617 0.33449948
0.30197996 0.23318179 -0.02839101 0.45498413 -0.17158768 0.034568757 -0.10645468 -0.34309685
-0.25635618 0.14518598 -0.010813851 -0.26372474 -0.03041928 0.105719484 -0.28659254 0.2628691
-0.41593346 -0.039666913 -0.37150308 -0.32714948 0.016793568 0.45761034 0.4766103 0.23746634
0.38236904 -0.2160406 0.26450202 0.27787128 -0.4127646 -0.3127925 0.1961399 0.030939557
-0.32923487 -0.38657442 0.35657707 0.09413151 0.0487748 -0.3703867 0.44717407 -0.3010728
0.18223047 -0.07045386 0.0031705217 0.22562504 -0.13860835 -0.14962444 0.32717937 -0.37387335
0.17334734 -0.12410296 -0.15182126 0.30252764 0.06657338 -0.40941873 0.40689102 -0.21999545
0.36103043 -0.135494 0.4458731 0.13762563 -0.017319307 0.16878779 -0.018516177 -0.22342183
0.20989431 0.24301536 -0.053997178 0.47332257 0.033153743 -0.27109545 -0.26084572 0.27517247
-0.21449883 0.25202754 -0.4611302 -0.013847623 -0.32654852 0.13809162 0.34134066 0.14778197
-0.20496728 -0.42552125 -0.17175229 -0.27897242 0.40197715 -0.27808478 0.14111702 0.3564498
0.19522654 -0.4355015 -0.089713216 -0.1771083 0.23467559 -0.09789041 -0.0042159413 0.4017054
0.122295596 0.20928977 -0.14170457 0.29170263 0.06706174 -0.08981092 0.08391257 -0.35528082
0.0129741635 0.20127164 -0.43262702 -0.26325884 0.25408992 -0.009282133 -0.032062173 0.032032385
-0.20504004 0.37055036 -0.0293947 -0.15693675 0.22977968 -0.3881301 -0.084634095 0.0052505517
-0.16682158 0.250825 -0.3481546 -0.13920556 -0.16280425 0.44511718 0.19880895 -0.33548737
0.14142787 -0.012938834 0.3393608 0.29681242 -0.19220486 0.46351734 -0.0695117 -0.09749694
0.13387015 0.46199068 0.13532889 -0.44772014 -0.16297407 0.39522502 -0.1799054 -0.24195719
-0.4298307 -0.25610316 -0.2815479 0.06365541 0.12529726 0.43618333 0.29840842 -0.013380766
0.2523074 0.22953787 -0.40557638 0.20347719 -0.31997496 0.3360731 -0.1998798 0.08871196
00000000: 5109 97be 6ab9 c73e 9508 c83e 8b26 b03e
00000010: dc1b 26be 1785 853e 4fc2 c7be 02ef 443e
00000020: e87a 82bd deec c4be 942c b1be 7bf4 babe
00000030: fa3b 923d d046 52be 8ea7 7abe 31db e03e
00000040: 1637 09be 4510 293e b4cd 9ebd 6b99 7f3e
00000050: f444 ed3d 9215 813e cbd4 e43d 06a1 aebd
00000060: 8ac9 d93e eaa4 7ebd 40c4 90be 3a92 053e
00000070: 95ed 23bd 5991 a2be 1a94 c63d c31a 84bd
00000080: c715 2cbe ea0d 4bbe ffca 46be f15a 29be
00000090: 08e0 833d 5112 e13e fd85 82be ef31 59be
000000a0: 6a3b 8fbe 19e4 3a3a f0eb 033d d5a0 9fbe
000000b0: 2094 553e b17f e3be b5d0 ba3e 1517 0a3d
000000c0: c259 c1bd c8c2 54be 5ee8 2f3e d411 a03e
000000d0: 0a38 96be d5bf d5bd 3dba b43e 36c6 c9bd
000000e0: 4b85 8cbe ff96 08be aa9f c2bc 6ee9 13be
000000f0: 6f84 73be 1d1c 5abe 88b1 383e 8b82 be3e
00000100: 78ef f03e 1ad6 59bd 4974 313e a7b2 acbe
00000110: 2b34 883e 3d8a e13e 14dd 6b3e e926 39be
00000120: bc3c b43e d89d debe 33fb 93bd 5701 38bd
00000130: 0cff d4be 63de abbe b6ff a8be f662 033e
00000140: 01ad 99bc 55e8 653e 350d 5ebd d14f c23e
00000150: fd87 e23c 1263 d03e 877f c73e 65b0 b3be
00000160: 630d 8bbe 1e26 923e 3648 cf3e 0c00 ccbe
00000170: a16b 09bc f6ab 36be 4893 d43e 8443 ab3e
00000180: 1e9d 9a3e 35c7 6e3e 4394 e8bc aef3 e83e
00000190: aeb4 2fbe f897 0d3d e904 dabd 64aa afbe
000001a0: 1e41 83be a2ab 143e 942c 31bc ee06 87be
000001b0: db31 f9bc 7583 d83d 42bc 92be c796 863e
000001c0: 3bf5 d4be c679 22bd a735 bebe 2380 a7be
000001d0: aa92 893c e74b ea3e 4406 f43e 602a 733e
000001e0: e0c5 c33e bf39 5dbe cf6c 873e 2545 8e3e
000001f0: e255 d3be 5726 a0be e6d8 483e f474 fd3c
00000200: 7991 a8be 15ed c5be 4591 b63e 05c8 c03d
00000210: 16c8 473d 53a3 bdbe 00f4 e43e 3726 9abe
00000220: a09a 3a3e 1d4a 90bd 87c8 4f3b 400a 673e
00000230: 59ef 0dbe 2637 19be 0e84 a73e 546c bfbe
00000240: f781 313e b129 febd 0877 1bbe e7e4 9a3e
00000250: a057 883d 559f d1be 0554 d03e 7d46 61be
00000260: fbd8 b83e f0be 0abe 7b49 e43e bced 0c3e
00000270: 38e1 8dbc b5d6 2c3e 3daf 97bc b1c8 64be
00000280: 89ee 563e 05d9 783e 252c 5dbd 5657 f23e
00000290: 38cc 073d 06cd 8abe 928d 85be 68e3 8c3e
000002a0: 95a5 5bbe c109 813e 4219 ecbe 24e1 62bc
000002b0: 5e31 a7be e467 0d3e 34c4 ae3e 2854 173e
000002c0: f1e2 51be ecdd d9be d5df 2fbe 79d5 8ebe
000002d0: f3cf cd3e 2161 8ebe fb80 103e 9780 b63e
000002e0: 77e9 473e 0dfa debe 90bb b7bd e15b 35be
000002f0: cc4e 703e c47a c8bd e125 8abb 55ac cd3e
00000300: 1d76 fa3d 0f50 563e 011b 11be 0c5a 953e
00000310: aa57 893d caee b7bd 5ada ab3d 5ee7 b5be
00000320: 9691 543c 271a 4e3e 4a81 ddbe ddc9 86be
00000330: 1318 823e 1614 18bc a053 03bd 6434 033d
00000340: 04f6 51be c7b8 bd3e 27cd f0bc 07b4 20be
00000350: 5d4b 6b3e fdb8 c6be a454 adbd d20c ac3b
00000360: 47d3 2abe 226c 803e 5241 b2be e78b 0ebe
00000370: 28b6 26be 66e6 e33e 9394 4b3e 00c5 abbe
00000380: 78d2 103e 67fd 53bc b3c0 ad3e ccf7 973e
00000390: 5ad1 44be 2552 ed3e 265c 8ebd 7aac c7bd
000003a0: 4215 093e 0b8a ec3e a893 0a3e 933b e5be
000003b0: ade2 26be ef5a ca3e 1f39 38be a0c3 77be
000003c0: c512 dcbe f41f 83be 0c27 90be c55d 823d
000003d0: ed4d 003e 6c53 df3e fdc8 983e 003b 5bbc
000003e0: 6f2e 813e fa0b 6b3e b5a7 cfbe 535c 503e
000003f0: c2d3 a3be c611 ac3e 4aad 4cbe 9eae b53d

phi.initial_conv_module.0._layers.5.weight f4 [64]
0.9538993 0.98091567 0.9917129 0.99204874 0.9921648 0.9920675 1.0029505 1.0895582
0.9857757 0.98603225 0.964227 1.0214208 1.0092584 0.99032396 1.0117387 1.015949
0.9714565 0.9638608 0.9761495 1.0268356 1.0568254 1.026779 0.98251307 0.966392
1.0456834 0.98632824 1.0499525 0.9730984 0.96754086 0.98688334 0.983266 1.0070733
1.0105289 1.0215029 1.0383185 1.0122178 0.9800868 1.0213331 1.0213361 1.021129
1.0202695 0.9993165 0.9745088 1.0016822 1.0259302 1.0358412 0.9954032 1.0340189
1.027074 0.98605996 1.0242946 1.0333607 1.003566 0.985739 0.9848616 1.0116245
0.9919243 1.0674417 1.0251608 1.0127712 1.0098819 0.9555525 0.97292846 0.93119586
00000000: bf32 743f 4a1d 7b3f e6e0 7d3f e8f6 7d3f
00000010: 83fe 7d3f 23f8 7d3f af60 803f a576 8b3f
00000020: cc5b 7c3f 9c6c 7c3f 95d7 763f ebbd 823f
00000030: 612f 813f df85 7d3f a780 813f 9e0a 823f
00000040: 60b1 783f 95bf 763f efe4 793f 596f 833f
00000050: 0e46 873f 7f6d 833f fa85 7b3f 7765 773f
00000060: f4d8 853f 0280 7c3f d864 863f fa1c 793f
00000070: c2b0 773f 63a4 7c3f 52b7 7b3f c7e7 803f
00000080: 0359 813f 9bc0 823f 9fe7 843f 5a90 813f
00000090: f8e6 7a3f 0bbb 823f 24bb 823f 5bb4 823f
000000a0: 3198 823f 35d3 7f3f 6979 793f 1f37 803f
000000b0: ae51 833f 7296 843f bed2 7e3f bb5a 843f
000000c0: 2977 833f 6d6e 7c3f 161c 833f 2a45 843f
000000d0: da74 803f 6459 7c3f e41f 7c3f e97c 813f
000000e0: c0ee 7d3f eea1 883f 7838 833f 7da2 813f
000000f0: cf43 813f 179f 743f d711 793f da62 6e3f

phi.initial_conv_module.0._layers.5.bias f4 [64]
-0.0252793 0.027849339 0.06958106 -0.0012720651 0.0047787605 -0.016929418 -0.012903095 0.07406079
-0.047155112 0.016298117 -0.01199305 0.028342033 0.016197491 -0.0018297499 0.02886745 0.014846961
-0.0067162127 -0.026158847 0.0029886842 0.02313853 0.011055352 -0.008735211 0.019578567 0.0041529736
0.035708845 -0.027225457 0.045277253 -0.0060043386 -0.0145542445 -0.012948705 -0.00022477157 -0.04552119
0.028079702 -0.008244652 0.021216633 0.014230355 -0.019816061 0.018952042 0.028851243 -0.022537107
0.014247273 -0.0074378056 0.0010329655 0.014112631 0.0314355 0.031199226 0.002639291 0.033537008
0.046259366 -0.014953244 0.042003278 -0.021527767 -0.004076104 -0.05521001 0.026416278 0.016635893
-0.041499425 0.013479776 -0.0088786315 0.045163378 0.008646826 -0.03203599 -0.026836645 -0.005294115
00000000: 8916 cfbc 4c24 e43c 8480 8e3d 6cbb a6ba
00000010: 2697 9c3b 90af 8abc 8167 53bc 2fad 973d
00000020: b825 41bd a183 853c 7f7e 44bc 8d2d e83c
00000030: 9ab0 843c 38d4 efba 6e7b ec3c ab40 733c
00000040: ad13 dcbb 144b d6bc cddd 433b 048d bd3c
00000050: 8221 353c 211e 0fbc 3b63 a03c ab15 883b
00000060: 7043 123d ec07 dfbc a474 393d 0bc0 c4bb
00000070: ed74 6ebc ce26 54bc a9b0 6bb9 6d74 3abd
00000080: 6707 e63c 9414 07bc 81ce ad3c 6f26 693c
00000090: 4b55 a2bc 5041 9b3c 7159 ec3c bd9f b8bc
000000a0: 656d 693c d6b8 f3bb 9264 873a aa38 673c
000000b0: 83c2 003d 8595 ff3c f5f7 2c3b 1a5e 093d
000000c0: 767a 3d3d 73fe 74bc a10b 2c3d 005b b0bc
000000d0: d790 85bb e423 62bd f366 d83c ff47 883c
000000e0: 4dfb 29bd 47da 5c3c ae77 11bc 3cfd 383d
000000f0: 6bab 0d3c 2c38 03bd 86d8 dbbc 417a adbb

phi.initial_conv_module.0._layers.5.running_mean f4 [64]
0.09032413 -0.056514435 -0.18243451 0.07933237 0.116684325 -0.08356195 -0.08591343 -0.01939009
-0.0634905 -0.053180717 0.069552146 -0.10120907 0.09636386 0.076423205 -0.021871699 -0.16990376
0.093272105 0.06712343 0.03814694 0.22447507 -0.1464082 -0.0067650634 -0.11418505 0.12163507
0.051929906 -0.14307393 0.10432516 0.006813972 -0.02921339 -0.06123489 0.1415216 0.0068451557
0.14806561 -0.036375593 -0.051637713 -0.13868813 0.12971807 -0.09873714 0.11228783 -0.0009683125
-0.03655919 0.028064817 -0.0611413 -0.046355553 0.04778807 0.1747453 0.07155575 -0.111425936
-0.1098575 0.20740463 -0.06663227 -0.0046123792 -0.045765046 -0.055677395 -0.09451869 -0.12003775
-0.04911715 -0.019067325 -0.0054776515 -0.076719865 0.10770798 -0.05035862 0.054024655 -0.02898132
00000000: dcfb b83d ae7b 67bd 1dd0 3abe 0279 a23d
00000010: 31f8 ee3d 8722 abbd 61f3 afbd f7d7 9ebc
00000020: 4f07 82bd 06d4 59bd 5b71 8e3d b346 cfbd
00000030: 6a5a c53d c583 9c3d 472c b3bc 40fb 2dbe
00000040: 7205 bf3d 0278 893d f73f 1c3d cbdc 653e
00000050: 08ec 15be 77ad ddbb dad9 e9bd cf1b f93d
00000060: 74b4 543d f981 12be 6ea8 d53d bd47 df3b
00000070: eb50 efbc 70d1 7abd 0aeb 103e 544d e03b
00000080: 839e 173e 93fe 14bd 1182 53bd 4304 0ebe
00000090: d0d4 043e b336 cabd 29f7 e53d 5ad6 7dba
000000a0: 17bf 15bd 30e8 e53c 4d6f 7abd 52df 3dbd
000000b0: 6cbd 433d 6ff0 323e d28b 923d 4833 e4bd
000000c0: f8fc e0bd e161 543e 8076 88bd 7123 97bb
000000d0: 2174 3bbd fb0d 64bd 0493 c1bd 5ad6 f5bd
000000e0: 112f 49bd 1433 9cbc df7d b3bb 4e1f 9dbd
000000f0: 0096 dc3d d744 4ebd f548 5d3d 3c6a edbc

phi.initial_conv_module.0._layers.5.running_var f4 [64]
0.13006057 0.038139023 0.2860464 0.086477414 0.19103129 0.08733585 0.044938043 0.025458805
0.059627626 0.027887926 0.0665009 0.07294281 0.2448245 0.11321585 0.027184403 0.45475063
0.114014365 0.06771131 0.028151004 0.8071652 0.14451766 0.008703813 0.2394514 0.25421664
0.07324292 0.16724801 0.10603361 0.008217649 0.0151727805 0.036262397 0.30634978 0.004345604
0.24206837 0.04926475 0.051636506 0.20065995 0.25914413 0.09510822 0.16510989 0.03337095
0.027629986 0.016596623 0.114673145 0.035697535 0.061865572 0.28851566 0.062687606 0.12454662
0.1481897 0.45366505 0.057152163 0.012328236 0.03369594 0.034426916 0.12152622 0.108251914
0.06214562 0.011101049 0.003887819 0.09155962 0.28812158 0.04899941 0.06894747 0.017879214
00000000: 992e 053e aa37 1c3d ac74 923e 121b b13d
00000010: b59d 433e 23dd b23d f410 383d fc8e d03c
00000020: 193c 743d 3875 e43c a031 883d 0a63 953d
00000030: 46b3 7a3e b6dd e73d d3b1 de3c 13d5 e83e
00000040: 5d80 e93d 3aac 8a3d ef9c e63c 61a2 4e3f
00000050: 70fc 133e 709a 0e3c bf32 753e af28 823e
00000060: 6200 963d 1043 2b3e 2628 d93d 51a3 063c
00000070: 4197 783c e187 143d e1d9 9c3e 9265 8e3b
00000080: c5e0 773e d6c9 493d cd80 533d cd79 4d3e
00000090: 8aae 843e 19c8 c23d 9112 293e faaf 083d
000000a0: 4858 e23c a4f5 873c c1d9 ea3d 9437 123d
000000b0: c166 7d3d 53b8 933e 5c62 803d 4c12 ff3d
000000c0: 0abf 173e c946 e83e 6318 6a3d 5ffc 493c
000000d0: c104 0a3d 3d03 0d3d bde2 f83d 2eb3 dd3d
000000e0: 688c 7e3d 2de1 353c c7ca 7e3b 9c83 bb3d
000000f0: ac84 933e 9bb3 483d 5534 8d3d 6e77 923c

phi.initial_conv_module.0._layers.7.se_conv.conv.weight f4 [10, 64, 1]
0.084217444 -0.1291293 -0.08058131 -0.032140363 -0.14739172 -0.11420904 -0.120129846 0.09056199
0.042916488 -0.0542841 0.0066066105 -0.13265651 -0.15801413 -0.11952233 -0.13470179 0.08965326
-0.07662771 -0.021321757 -0.12809281 0.019329077 -0.00041259266 -0.09447103 0.07578739 0.12341303
-0.084535286 0.06622471 -0.020556513 -0.02428586 0.07039089 -0.06522588 0.073333986 0.103730895
-0.08011893 -0.08720203 -0.114201315 0.0619958 -0.1111646 -0.12681448 -0.12136656 -0.1623136
-0.11611593 0.10468237 0.083600216 0.107515655 -0.08891867 -0.049331702 -0.028811831 -0.017567292
-0.113195114 0.023565356 -0.15054701 -0.016487662 0.13469423 0.022878243 0.09006556 -0.11514754
-0.006654004 -0.063060455 -0.04744783 -0.061048854 -0.11850679 -0.09804284 -0.049857926 0.015180454
-0.013459255 -0.09552289 0.10216694 0.06276062 -0.08195272 0.010624445 0.075770915 -0.14391968
-0.09967563 0.06876087 0.013772526 0.065008305 -0.04096793 0.038435057 0.07605053 -0.013188192
-0.033178605 -0.15767756 -0.036550973 0.10044807 -0.11797022 0.0023869595 0.06602568 -0.01869733
-0.067228466 -0.025349468 -0.048711833 -0.04789164 -0.1556732 0.06880955 -0.026427634 -0.0065600234
-0.031072123 0.0356189 -0.06784486 -0.10883682 -0.09470107 -0.10135122 -0.11130451 0.02297748
-0.08805688 -0.051211186 -0.114588164 -0.077315144 -0.0051466515 -0.08056858 0.008361376 0.02543588
-0.009318313 0.052309994 0.03783938 0.035833728 -0.004039214 0.11658339 0.103550084 0.019854445
0.05245842 -0.07602197 -0.06832144 0.020557668 0.042652566 0.12199937 0.0015832207 -0.024591956
0.070238955 0.0025129446 0.13158657 -0.07350404 -0.042040024 -0.022559544 0.035610948 -0.113554716
-0.029986372 0.054967325 0.024641454 0.10850354 -0.042001914 -0.045813035 -0.119057834 -0.035859365
-0.07017795 0.02646626 0.04593151 -0.08127612 0.11635923 0.066682786 0.01741181 -0.046785776
0.07343596 -0.083062954 0.075005844 -0.04094221 0.013758476 -0.019248331 0.092011794 -0.0988809
-0.025727501 -0.028499393 -0.07363334 -0.09075623 -0.05180825 0.0028727131 0.09123322 -0.023584852
0.116755284 -0.07583949 -0.13162509 -0.04144604 0.0034448525 0.04283093 0.11657816 0.045258775
-0.0889652 -0.060893867 0.01841133 -0.123549916 0.002506577 0.07364763 0.06610113 -0.0144832255
-0.029583605 -0.07718253 -0.0052682892 0.077648684 -0.07231327 0.017878419 -0.0959046 -0.052962746
-0.0023654238 -0.08615576 0.026820537 -0.09247134 -0.021754047 0.06690703 0.1611997 0.0027664385
-0.093717165 -0.08487621 -0.019612748 -0.05154763 0.12845977 -0.083946355 0.07998905 0.032628905
0.022492582 0.11738636 0.072023794 0.010516838 -0.08254487 0.0034709342 0.021182558 0.09094786
-0.01810262 -0.03730514 -0.12240583 0.10986089 0.11339329 0.08562629 -0.040133867 0.12391415
-0.007318697 0.13160208 0.07843332 -0.13377665 0.034031343 0.04222432 -0.065965235 0.18988521
0.10205466 0.10980448 -0.022703758 -0.09896664 -0.014541705 0.051064175 -0.062853865 0.13559538
0.098146185 0.02153665 -0.08107481 0.07830432 0.08785906 -0.0435774 -0.05906281 -0.0025257338
0.002862195 -0.09403311 0.06502512 0.04332583 -0.029763134 -0.03869617 -0.06416278 0.081260815
00000000: 327a ac3d 793a 04be d007 a5bd 9da5 03bd
00000010: dbed 16be 6ee6 e9bd a306 f6bd 9178 b93d
00000020: 33c9 2f3d 0159 5ebd 447c d83b 1cd7 07be
00000030: 75ce 21be 20c8 f4bd 44ef 09be 219c b73d
00000040: fdee 9cbd f7aa aebc c32a 03be 0358 9e3c
00000050: 4051 d8b9 077a c1bd 6b36 9b3d f8bf fc3d
00000060: d620 adbd d2a0 873d 2266 a8bc 24f3 c6bc
00000070: 1929 903d 2595 85bd 2130 963d dd70 d43d
00000080: 6515 a4bd fa96 b2bd 61e2 e9bd 4fef 7d3d
00000090: 44aa e3bd a8db 01be 088f f8bd 8935 26be
000000a0: 30ce edbd b663 d63d 9736 ab3d 2b31 dc3d
000000b0: fe1a b6bd 0a10 4abd ca06 ecbc 48e9 8fbc
000000c0: d7d2 e7bd 220c c13c ff28 1abe 2211 87bc
000000d0: 49ed 093e 276b bb3c 4b74 b83d 79d2 ebbd
000000e0: d509 dabb d725 81bd a858 42bd 5d0e 7abd
000000f0: b0b3 f2bd afca c8bd d337 4cbd 70b7 783c
00000100: 3584 5cbc 81a1 c3bd e73c d13d a488 803d
00000110: d4d6 a7bd 2712 2e3c c82d 9b3d ae5f 13be
00000120: bd22 ccbd 80d2 8c3d 29a6 613c 1323 853d
00000130: fdcd 27bd 146e 1d3d 61c0 9b3d 4913 58bc
00000140: 4ae6 07bd 3a76 21be 79b6 15bd b8b7 cd3d
00000150: 5f9a f1bd 896e 1c3b 7938 873d 252b 99bc
00000160: 14af 89bd b0a9 cfbc 0f86 47bd 062a 44bd
00000170: cc68 1fbe 05ec 8c3d c47e d8bc 77f5 d6bb
00000180: f78a febc 20e5 113d 3ff2 8abd d7e5 debd
00000190: a2f2 c1bd 3a91 cfbd 9ef3 e3bd 453b bc3c
000001a0: 2a57 b4bd d2c2 51bd 33ad eabd 6757 9ebd
000001b0: 3ea5 a8bb 2401 a5bd 27fe 083c e85e d03c
000001c0: d6ab 18bc 0143 563d 77fd 1a3d 63c6 123d
000001d0: 625b 84bb 46c3 ee3d 1112 d43d caa5 a23c
000001e0: a4de 563d 68b1 9bbd 1cec 8bbd 8e68 a83c
000001f0: 75b4 2e3d ceda f93d 1284 cf3a 1275 c9bc
00000200: 71d9 8f3d 37b0 243b a1be 063e 4989 96bd
00000210: 2932 2cbd cbce b8bc c9dc 113d 608f e8bd
00000220: fba5 f5bc 6b25 613d e0dc c93c 1b37 de3d
00000230: 330a 2cbd 73a6 3bbd 98d4 f3bd 45e1 12bd
00000240: 75b9 8fbd c5cf d83c ae22 3c3d 1874 a6bd
00000250: bf4d ee3d fc90 883d 36a3 8e3c 71a2 3fbd
00000260: 9865 963d e91c aabd aa9c 993d 05b3 27bd
00000270: 3b6b 613c adae 9dbc ae70 bc3d 1282 cabd
00000280: 7bc2 d2bc 8f77 e9bc 14cd 96bd 67de b9bd
00000290: e334 54bd 2144 3c3b 7cd8 ba3d 0535 c1bc
000002a0: 651d ef3d bc51 9bbd bac8 06be 53c3 29bd
000002b0: 09c3 613b 7c6f 2f3d 88c0 ee3d 4461 393d
000002c0: 6333 b6bd d96b 79bd 5cd3 963c bd07 fdbd
000002d0: 6245 243b 92d4 963d 0760 873d 0d4b 6dbc
000002e0: 5159 f2bc e011 9ebd 9da1 acbb 4606 9f3d
000002f0: fb18 94bd c375 923c a269 c4bd 77ef 58bd
00000300: 3a05 1bbb 6e72 b0bd beb6 db3c 9d61 bdbd
00000310: 8b35 b2bc 8e06 893d 8911 253e 234d 353b
00000320: c9ee bfbd 94d3 adbd eaaa a0bc 9c23 53bd
00000330: f58a 033e 11ec abbd 4dd1 a33d e3a5 053d
00000340: 5d42 b83c 4368 f03d 3681 933d d14e 2c3c
00000350: 490d a9bd 9d78 633b 0b87 ad3c df42 ba3d
00000360: f24b 94bc 46cd 18bd e8af fabd bffe e03d
00000370: be3a e83d d65c af3d 6963 24bd b4c6 fd3d
00000380: aed1 efbb b2c2 063e a6a1 a03d bffc 08be
00000390: 7364 0b3d 69f3 2c3d c818 87bd 4571 423e
000003a0: 0902 d13d 2ce1 e03d 3bfd b9bc 06af cabd
000003b0: 5540 6ebc ab28 513d 87b9 80bd 84d9 0a3e
000003c0: de00 c93d a16d b03c 8d0a a6bd 045e a03d
000003d0: 73ef b33d 377e 32bd d8eb 71bd c886 25bb
000003e0: aa93 3b3b 6e94 c0bd e42b 853d 6d76 313d
000003f0: d1d1 f3bc e07f 1ebd c767 83bd 126c a63d

phi.initial_conv_module.0._layers.7.se_conv2.conv.weight f4 [64, 10, 1]
-0.10816465 0.14160652 -0.03560626 -0.08078936 -0.20902383 0.054483395 -0.26945287 0.31274322
-0.11094405 0.013920333 0.07631167 -0.1127966 0.32157528 0.029174468 0.05092912 -0.2902928
0.021962484 0.12037197 0.032615148 -0.057120852 0.19315362 0.25563842 0.18571402 -0.061413098
0.046008747 -0.2343958 -0.22485866 -0.07742822 0.059213217 -0.14669766 -0.23422311 0.12662487
0.07945532 -0.20808443 0.20047247 -0.2276709 0.23438859 0.13496393 -0.09737817 0.3123438
-0.1640427 -0.14004096 0.2462583 -0.08175343 -0.12298144 0.030200081 -0.06786207 0.19353293
0.30632812 0.2116454 0.08649031 0.0035249833 -0.060846645 0.016283123 0.012262235 0.20490915
0.20579831 -0.043453593 0.18622513 0.066596046 0.11530593 0.2647641 -0.24467187 -0.015262326
-0.14328508 -0.37466288 -0.30912864 -0.06834181 0.25160098 -0.1980152 0.002645362 0.12621458
-0.2550329 0.13951173 0.14962159 -0.27204588 0.051809367 -0.29387888 0.35099944 0.21624905
0.15210423 0.24825291 0.21437283 0.3024399 0.07135209 -0.21505095 0.2942597 0.0686386
-0.14521672 -0.1436136 0.32160985 0.08210419 0.2050797 -0.034624275 0.26248753 -0.24683048
0.08689647 0.047593098 0.01810292 0.3213343 0.082854494 -0.014746206 0.2663598 0.0055351085
0.018256852 -0.21606961 -0.036453158 -0.12554103 0.15909922 0.2366199 -0.34015575 -0.17970242
0.2862058 -0.15973312 0.26954022 0.30814093 -0.07220288 -0.22863077 0.19919488 0.18732825
0.2924034 0.04011109 0.23032705 -0.23675336 0.014617236 0.10613574 0.1621816 -0.13790156
-0.07299273 -0.20642458 -0.22740917 0.16145615 0.089436226 0.09755476 -0.025497902 0.02899555
-0.037217077 0.22252178 -0.22921506 0.03425557 0.1751493 0.124906026 -0.1620004 0.21014266
-0.19535081 0.13477866 0.2914286 -0.029025014 0.09081116 -0.29848993 -0.15273196 -0.14422941
-0.2858354 -0.08975834 0.27568525 -0.05454303 0.32734293 -0.29704463 0.123956345 0.28740183
0.3554954 -0.13698451 -0.25560033 -0.111887224 0.22904666 0.027658576 0.2749617 -0.2517324
-0.19868633 0.16770367 0.13239098 -0.17073989 0.31808418 -0.14994152 -0.27734494 0.083734475
-0.1799916 -0.18077528 -0.22856417 0.042394754 0.17527702 0.13222334 -0.14792724 -0.07226259
0.34425077 -0.16348818 -0.10480871 -0.11190741 -0.3518833 -0.26374266 0.29617625 0.052153476
0.027314961 0.16714817 0.19814165 0.16788398 0.22941674 0.124360725 0.2786806 0.26182806
-0.026360871 -0.0077162744 -0.23320244 -0.2582468 0.33618662 -0.2819208 -0.14301825 -0.3745371
-0.23149964 0.11689603 0.15736501 -0.3447305 -0.014557345 -0.21467948 0.06617597 0.21058555
-0.08803394 -0.15667076 0.24037135 -0.17640384 -0.031615935 -0.2922948 0.22337373 0.12038599
-0.08254579 0.25423157 0.30644244 0.12008446 -0.26281208 -0.106992185 0.23336922 0.19445555
-0.08265056 0.15221722 -0.18966956 0.08304603 0.25156727 0.043373685 -0.28670686 0.06560552
0.18297073 0.18453258 -0.21534862 -0.041211903 0.0058284174 -0.052506678 -0.053903032 -0.118118376
0.122519925 0.17408371 -0.025199974 0.26437238 0.018215256 0.0885281 0.05169033 -0.11222209
00000000: 6e85 ddbd 4d01 113e dfd7 11bd e474 a5bd
00000010: 580a 56be fb29 5f3d baf5 89be e11f a03e
00000020: a236 e3bd 1c12 643c 4b49 9c3d e701 e7bd
00000030: 84a5 a43e 4bff ee3c 0e9b 503d 42a1 94be
00000040: abea b33c 9485 f63d 7697 053d 8ef7 69bd
00000050: 10ca 453e 0ae3 823e d12b 3e3e 4d8c 7bbd
00000060: ab73 3c3d 7405 70be 5941 66be b092 9ebd
00000070: 8f89 723d e937 16be 2fd8 6fbe f3a9 013e
00000080: 79b9 a23d 1614 55be a848 4d3e 8f22 69be
00000090: 9003 703e fc33 0a3e 356e c7bd 87eb 9f3e
000000a0: cffa 27be e666 0fbe 232b 7c3e 586e a7bd
000000b0: b1dd fbbd 2966 f73c 45fb 8abd 7f2d 463e
000000c0: 0ad7 9c3e 92b9 583e d521 b13d 6803 673b
000000d0: 553a 79bd 2f64 853c 8be7 483c b4d3 513e
000000e0: cbbc 523e 65fc 31bd cdb1 3e3e 8263 883d
000000f0: 8425 ec3d 298f 873e 438b 7abe d60e 7abc
00000100: 53b9 12be d0d3 bfbe 1c46 9ebe caf6 8bbd
00000110: d8d1 803e 7fc4 4abe cf5d 2d3b 653e 013e
00000120: ac93 82be 2adc 0e3e 6736 193e 9949 8bbe
00000130: 0f36 543d 4b77 96be 33b6 b33e 6470 5d3e
00000140: 36c1 1b3e 0336 7e3e 8d84 5b3e 67d9 9a3e
00000150: 0b21 923d 5136 5cbe 35a9 963e 6592 8c3d
00000160: b1b3 14be 720f 13be 0caa a43e 3e26 a83d
00000170: 6a00 523e 2fd2 0dbd c464 863e 21c1 7cbe
00000180: c7f6 b13d fbf0 423d 934c 943c ee85 a43e
00000190: 9eaf a93d 129a 71bc 5060 883e db5f b53b
000001a0: 658f 953c 5a41 5dbe e84f 15bd d48d 00be
000001b0: e8ea 223e 7d4c 723e e528 aebe e903 38be
000001c0: 9189 923e 1491 23be 2d01 8a3e a6c4 9d3e
000001d0: 1bdf 93bd 2f1e 6abe bef9 4b3e fad2 3f3e
000001e0: e6b5 953e 874b 243d dbda 6b3e 796f 72be
000001f0: 227d 6f3c b25d d93d ef12 263e 1136 0dbe
00000200: 367d 95bd f760 53be f3dd 68be c354 253e
00000210: 572a b73d caca c73d fae0 d0bc 1388 ed3c
00000220: ef70 18bd c0dc 633e 5ab7 6abe 924f 0c3d
00000230: 575a 333e bbce ff3d 6fe3 25be a32f 573e
00000240: 0b0a 48be 6b03 0a3e 2136 953e dec5 edbc
00000250: 34fb b93d acd3 98be c465 1cbe e0b0 13be
00000260: 0459 92be 38d3 b7bd 9e26 8d3e 8368 5fbd
00000270: 7e99 a73e 3c16 98be d3dc fd3d 5526 933e
00000280: 7e03 b63e ab45 0cbe 0cde 82be 2125 e5bd
00000290: 358b 6a3e 3d94 e23c c8c7 8c3e 12e3 80be
000002a0: 6e74 4bbe 83ba 2b3e 8091 073e 70d6 2ebe
000002b0: eedb a23e 458a 19be 2800 8ebe fb7c ab3d
000002c0: b84f 38be 281d 39be ba0c 6abe 1fa6 2d3d
000002d0: d27b 333e 8e65 073e 3d7a 17be 69fe 93bd
000002e0: a341 b03e 7269 27be f3a5 d6bd b62f e5bd
000002f0: 0c2a b4be 4709 87be 6aa4 973e e29e 553d
00000300: a0c3 df3c e428 2b3e a5e5 4a3e c7e9 2b3e
00000310: 39ec 6a3e d6b0 fe3d 39af 8e3e 540e 863e
00000320: c1f2 d7bc cdd8 fcbb 9fcc 6ebe ed38 84be
00000330: a720 ac3e ec57 90be 6073 12be 54c3 bfbe
00000340: 3e0e 6dbe 3067 ef3d 4b24 213e 8480 b0be
00000350: ee81 6ebc f0d4 5bbe 4487 873d bda3 573e
00000360: 234b b4bd 4d6e 20be e823 763e 35a3 34be
00000370: b67f 01bd aaa7 95be 15bc 643e ee8c f63d
00000380: c40d a9bd a42a 823e 06e6 9c3e d7ee f53d
00000390: 4e8f 86be b81e dbbd 57f8 6e3e 5b1f 473e
000003a0: b244 a9bd d5de 1b3e bd38 42be 0914 aa3d
000003b0: 6dcd 803e 9ba8 313d 3ecb 92be 305c 863d
000003c0: ae5c 3b3e 1cf6 3c3e 5984 5cbe d0cd 28bd
000003d0: 4ffc be3b 3e11 57bd 6dc9 5cbd 0ce8 f1bd
000003e0: baeb fa3d 0043 323e 2d70 cebc d15b 873e
000003f0: 2938 953c 384e b53d 3db9 533d b2d4 e5bd

phi.initial_conv_module.0._layers.8.conv.weight f4 [32, 64, 1]
-0.055879053 0.08807948 0.057942312 -0.015614759 -0.10208463 0.08092772 -0.045542512 0.11722259
-0.06427034 0.06581515 -0.08760276 -0.0040000463 -0.11676377 -0.11590755 0.04323807 0.13463178
-0.036404967 -0.0654444 0.10310473 -0.031029355 -0.11226279 0.07773088 0.06264768 0.12086802
0.08196512 0.111069046 -0.091244936 -0.017129237 -0.08188004 0.0052096387 0.06096323 -0.13209058
0.044423748 -0.106554575 -0.010130076 -0.019330401 -0.097557455 0.010022644 -0.08176528 0.13580525
-0.06513595 0.041086063 -0.11159962 -0.104801774 0.11513823 -0.039958 -0.03767061 0.08038601
0.051359847 -0.008397 0.018768104 -0.0135574825 0.03630712 0.022690885 0.10477498 0.043762416
-0.030782863 -0.02584014 0.007264791 -0.069198646 -0.06449313 -0.030730058 0.0116016455 0.044079926
0.040679336 -0.118556194 0.07858672 -0.06096163 -0.12595747 0.049738787 -0.02717049 -0.08652275
0.0075125317 0.043383446 0.049069542 -0.04995754 0.067395 0.05914048 0.057916194 -0.060238484
0.014791274 -0.021404771 0.105440706 -0.07987717 -0.097594075 -0.11769004 0.008590291 -0.13576142
-0.09717043 -0.014357261 0.048289295 -0.09744325 0.078782365 -0.09298977 -0.0053151203 0.010206854
-0.09277683 0.011733226 -0.037245236 -0.055006966 0.14645141 -0.081426576 0.05726989 -0.015611913
0.055543475 0.112014346 0.14038911 -0.07616834 -0.13877764 -0.099966325 0.020823756 0.0923008
0.018780414 0.10760974 0.15175524 -0.102883734 -0.05303194 0.009536667 0.13653682 -0.10996453
0.061662693 0.017350232 0.105094135 0.09123295 0.1391586 0.11706227 -0.07108485 -0.020515438
0.10734402 0.088376135 0.002903399 -0.0004125945 -0.05868557 -0.06335676 0.035757378 -0.16875896
0.05895657 -0.084888995 -0.035636473 -0.12644322 -0.06982239 -0.10814859 0.0055382033 -0.008315475
-0.029622814 0.0025796506 0.02217189 0.053276986 -0.11907221 -0.01963312 0.03394009 -0.11914971
0.08833421 -0.05652399 0.080803335 0.067347504 0.047244854 0.0728065 -0.10747143 0.0012170385
-0.11414728 -0.09484509 0.023771146 0.07169471 -0.08487241 -0.025897512 -0.089025214 -0.011131126
-0.13487704 -0.097389586 0.022948138 0.10692368 0.031591974 -0.04084524 0.102634095 0.08181916
0.07347855 0.0060996036 -0.04233607 0.04206149 0.03227325 0.016264642 0.05981501 -0.06865997
0.10222831 0.024489447 0.084041364 0.15783362 0.08308877 0.10889417 0.16342218 -0.04773424
-0.025053304 0.0030932291 -0.036339786 0.071473226 0.03348204 0.013425668 -0.039736997 -0.054624617
0.0015141134 0.10301792 0.056315206 0.09349078 0.0027458789 0.03214544 -0.030035222 -0.083967134
0.057041474 -0.08123831 -0.112198874 0.109065354 0.15258324 -0.059856404 0.069511935 -0.09326537
0.064432204 0.03683075 -0.0081862165 -0.035628315 -0.09783952 0.04884944 0.035154045 -0.03656906
0.14687121 -0.04950619 0.019870484 0.071144655 0.05292363 -0.0819878 -0.037692286 -0.03399411
-0.017798519 0.0018244823 0.05732227 0.13890605 -0.10268936 0.12971213 0.08053193 -0.061284974
-0.03872617 0.00041911314 -0.17879935 0.12842679 0.010789603 0.02860384 0.08273633 0.070843205
-0.06521502 -0.062972344 -0.08696623 -0.109748065 -0.051315382 -0.09532353 -0.013236931 -0.05622031
00000000: 6fe1 64bd 0463 b43d eb54 6d3d 0cd5 7fbc
00000010: bf11 d1bd 6fbd a53d c98a 3abd 6612 f03d
00000020: 2ba0 83bd 18ca 863d 1369 b3bd d212 83bb
00000030: d821 efbd f060 edbd 671a 313d eadc 093e
00000040: 601d 15bd b707 86bd 9328 d33d 4631 febc
00000050: 09ea e5bd 5e31 9f3d 6d4d 803d a789 f73d
00000060: 54dd a73d 2b78 e33d a0de babd 9d52 8cbc
00000070: b9b0 a7bd 9eb5 aa3b 94b4 793d c142 07be
00000080: adf5 353d 4939 dabd 9ef8 25bc ca5a 9ebc
00000090: 34cc c7bd 0436 243c 8e74 a7bd 8810 0b3e
000000a0: ff65 85bd dc49 283d 578e e4bd 50a2 d6bd
000000b0: 98cd eb3d 00ab 23bd 7f4c 1abd 6ca1 a43d
000000c0: b45e 523d 9293 09bc 91bf 993c 3420 5ebc
000000d0: c6b6 143d 3ce2 b93c 4494 d63d 3840 333d
000000e0: 582c fcbc b4ae d3bc 7c0d ee3b 05b8 8dbd
000000f0: f914 84bd 9abd fbbc d414 3e3c 278d 343d
00000100: 609f 263d 97cd f2bd 13f2 a03d e7b2 79bd
00000110: fffa 00be e6ba 4b3d a694 debc d732 b1bd
00000120: af2b f63b d7b2 313d 25fd 483d 47a0 4cbd
00000130: 6406 8a3d 4a3d 723d 8839 6d3d a1bc 76bd
00000140: 1a57 723c 0f59 afbc 4cf1 d73d a496 a3bd
00000150: 67df c7bd 7a07 f1bd 4bbe 0c3c 0b05 0bbe
00000160: 4a01 c7bd b83a 6bbc ffca 453d 5490 c7bd
00000170: a658 a13d 6c71 bebd 762a aebb a63a 273c
00000180: c701 bebd b73c 403c 768e 18bd fc4e 61bd
00000190: 5cf7 153e fac2 a6bd d593 6a3d 1cc9 7fbc
000001a0: 8e81 633d c767 e53d 2ac2 0f3e 26fe 9bbd
000001b0: ba1b 0ebe 25bb ccbd 9596 aa3c 3408 bd3d
000001c0: 62d9 993c 7f62 dc3d ba65 1b3e b5b4 d2bd
000001d0: 0538 59bd ae3f 1c3c 4fd0 0b3e 1535 e1bd
000001e0: 0592 7c3d 1322 8e3c 983b d73d 57d8 ba3d
000001f0: 987f 0e3e 58be ef3d ef94 91bd fe0f a8bc
00000200: 2ed7 db3d 8cfe b43d f446 3e3b 7f51 d8b9
00000210: 4860 70bd 30c1 81bd 5476 123d 26cf 2cbe
00000220: 727c 713d 48da adbd 8df7 11bd 557a 01be
00000230: 0bff 8ebd 027d ddbd d179 b53b a13d 08bc
00000240: 8bab f2bc 5b0f 293b d3a1 b53c f838 5a3d
00000250: 21dc f3bd a3d5 a0bc c404 0b3d c304 f4bd
00000260: 91e8 b43d b385 67bd 387c a53d 7ded 893d
00000270: d283 413d 931b 953d fb19 dcbd 0985 9f3a
00000280: 0dc6 e9bd 243e c2bd b5bb c23c add4 923d
00000290: 96d1 adbd 0527 d4bc da52 b6bd 545f 36bc
000002a0: 351d 0abe 3174 c7bd bcfd bb3c cdfa da3d
000002b0: 9666 013d 574d 27bd d331 d23d ce90 a73d
000002c0: ec7b 963d 2fdf c73b 9668 2dbd ab48 2c3d
000002d0: f530 043d 6d3d 853c 9500 753d 999d 8cbd
000002e0: 145d d13d 189e c83c e11d ac3d 239f 213e
000002f0: 722a aa3d e803 df3d 2558 273e fa84 43bd
00000300: 963c cdbc c6b7 4a3b 07d9 14bd 8e60 923d
00000310: 7724 093d 55f7 5b3c 43c3 22bd 10be 5fbd
00000320: 3775 c63a 0ffb d23d c6aa 663d 1878 bf3d
00000330: 34f4 333b f0aa 033d 6d0c f6bc f6f6 abbd
00000340: 52a4 693d 4560 a6bd 86c8 e5bd a85d df3d
00000350: c83e 1c3e fd2b 75bd 465c 8e3d ea01 bfbd
00000360: 08f5 833d d7db 163d 7b1f 06bc ffee 11bd
00000370: 1660 c8bd 5a16 483d b0fd 0f3d 70c9 15bd
00000380: 6865 163e 01c7 4abd 6dc7 a23c 4ab4 913d
00000390: 73c6 583d 38e9 a7bd 3a63 1abd 683d 0bbd
000003a0: 33ce 91bc 7823 ef3a c2ca 6a3d 633d 0e3e
000003b0: cd4e d2bd 42d3 043e eded a43d f405 7bbd
000003c0: 559f 1ebd 6abc db39 2d17 37be 5082 033e
000003d0: e0c6 303c 9a52 ea3c aa71 a93d 3e16 913d
000003e0: 748f 85bd a5f7 80bd 5a1b b2bd 98c3 e0bd
000003f0: 1430 52bd fc38 c3bd b6df 58bc 4547 66bd

phi.initial_conv_module.0._layers.9.weight f4 [32]
0.98319423 1.0448749 1.0107931 1.001902 0.98865056 1.0351554 1.0562096 1.0091927
1.0297 1.0113176 1.0199653 0.98723114 1.0165856 1.054573 1.0407257 1.0382422
1.0625455 1.0296179 1.0450984 1.0252411 1.0154492 1.0235065 1.0231159 1.0149035
1.0078461 1.0167148 1.0000675 1.0336987 1.0346915 1.0080034 1.0222015 1.0432044
00000000: 9eb2 7b3f 76be 853f ab61 813f 533e 803f
00000010: 3418 7d3f f97f 843f e031 873f 3a2d 813f
00000020: 36cd 833f db72 813f 398e 823f 2ebb 7c3f
00000030: 7a1f 823f 40fc 863f 8036 853f 1fe5 843f
00000040: 7e01 883f 85ca 833f c9c5 853f 1a3b 833f
00000050: 3dfa 813f 4302 833f 76f5 823f 5ce8 813f
00000060: 1a01 813f b623 823f 3602 803f 3d50 843f
00000070: c570 843f 4106 813f 80d7 823f b987 853f

phi.initial_conv_module.0._layers.9.bias f4 [32]
0.0003317126 -0.002606592 -0.001199138 0.0013042748 -0.00029880984 -0.001161428 -0.002156879 0.0006253897
-0.0011877508 0.0020978632 0.00055271835 -0.0008855528 0.00053190574 -0.0071896766 0.0005475138 0.0010422557
8.538931e-05 -0.00017692558 0.0016015888 -0.004057111 0.00085758267 0.000111327434 0.00216422 0.0020564608
0.00043695886 0.0018616219 0.0018567144 -0.0017064377 -0.00071872986 -0.001261231 0.0008051862 -0.0011665361
00000000: b6e9 ad39 5bd3 2abb 652c 9dba 33f4 aa3a
00000010: 94a9 9cb9 0f3b 98ba 6d5a 0dbb 31f1 233a
00000020: 4eae 9bba 4e7c 093b 4de4 103a 7124 68ba
00000030: 976f 0b3a 6197 ebbb 0787 0f3a 4c9c 883a
00000040: 0913 b338 1985 39b9 67ec d13a 84f1 84bb
00000050: 66cf 603a 7678 e938 96d5 0d3b b0c5 063b
00000060: a017 e539 aa01 f43a ff5c f33a 8caa dfba
00000070: 2569 3cba e44f a5ba 2213 533a 75e6 98ba

phi.initial_conv_module.0._layers.9.running_mean f4 [32]
0.0017909395 -0.00687477 0.0035869093 0.016193451 -0.02859403 0.049292926 -0.07833287 0.020722918
-0.1063577 0.017684167 -0.030845597 0.00085947674 0.09589534 0.037858803 -0.029026207 0.050744582
-0.0068058334 -0.038380608 -0.049367815 0.054511145 -0.03416011 -0.025639422 0.016555829 -0.07020612
0.07708146 -0.025239075 0.04649681 0.050149288 0.042600513 -0.11630155 0.0006125558 0.05670192
00000000: f5bd ea3a c045 e1bb 5a12 6b3b 21a8 843c
00000010: 073e eabc 61e7 493d fc6c a0bd 1cc3 a93c
00000020: 11d2 d9bd 63de 903c e8af fcbc 824e 613a
00000030: c764 c43d d511 1b3d 5ec8 edbc 8dd9 4f3d
00000040: 7803 dfbb fc34 1dbd e835 4abd 1447 5f3d
00000050: 79eb 0bbd c409 d2bc 17a0 873c 3ac8 8fbd
00000060: e2dc 9d3d 2dc2 cebc 7073 3e3d 5769 4d3d
00000070: e07d 2e3d 822f eebd ed93 203a 4640 683d

phi.initial_conv_module.0._layers.9.running_var f4 [32]
0.028530365 0.05037092 0.050487895 0.035911158 0.04792239 0.058201347 0.044996716 0.053415023
0.051506598 0.036844276 0.033833392 0.041513078 0.0389818 0.06754111 0.033727903 0.054752927
0.06072205 0.065651745 0.05567342 0.0374593 0.0456649 0.035014894 0.026604941 0.025635334
0.046178218 0.033997003 0.061957683 0.047778133 0.039072033 0.07761011 0.043921478 0.052098695
00000000: 83b8 e93c bd51 4e3d 65cc 4e3d 9417 133d
00000010: 454a 443d 8964 6e3d 7a4e 383d b6c9 5a3d
00000020: 95f8 523d 06ea 163d e294 0a3d 9e09 2a3d
00000030: 61ab 1f3d fe52 8a3d 4526 0a3d 9b44 603d
00000040: afb7 783d 6c74 863d d009 643d ec6e 193d
00000050: 1e0b 3b3d c76b 0f3d 9bf2 d93c 3101 d23c
00000060: 5f25 3d3d 7140 0b3d 57c7 7d3d 01b3 433d
00000070: ff09 203d 0df2 9e3d 02e7 333d 7165 553d

phi.initial_conv_module.1.weight f4 [32]
0.9750164 1.0571625 1.0122776 1.0026696 0.98303556 1.0402372 1.0695301 1.0130343
1.0387157 1.0146456 1.0207745 0.98565495 1.0146208 1.0638192 1.0515234 1.0500932
1.0789022 1.0406387 1.0581653 1.0303658 1.0184451 1.0297337 1.0311289 1.0164458
1.0106812 1.0230525 1.001156 1.0447867 1.0405264 1.0083325 1.0274385 1.0551566
00000000: ad9a 793f 1a51 873f 5092 813f 7a57 803f
00000010: 38a8 7b3f 7e26 853f 5de6 883f 1cab 813f
00000020: a3f4 843f e8df 813f bda8 823f e253 7c3f
00000030: 18df 813f 3a2b 883f 5298 863f 7469 863f
00000040: 7819 8a3f a633 853f f671 873f 07e3 833f
00000050: 695c 823f 50ce 833f 08fc 833f e51a 823f
00000060: 005e 813f 62f3 823f e125 803f 92bb 853f
00000070: f82f 853f 0a11 813f 1b83 833f 5f0f 873f

phi.initial_conv_module.1.bias f4 [32]
-0.026907306 0.067033544 -0.007910706 -0.0201227 -0.02262544 0.022169342 0.014960188 0.0051254253
0.017017907 -0.00688155 0.02616163 0.04597492 -0.022011131 -0.0040821475 0.026790049 0.042887755
0.060323525 0.049425628 0.003397544 0.022140304 0.015565619 0.033048403 0.020101927 0.02074055
-0.0048276777 0.029270647 0.0043870215 -0.0016296504 0.019689504 0.01192941 0.037164308 -0.007690437
00000000: b66c dcbc e248 893d e89b 01bc 5cd8 a4bc
00000010: fd58 b9bc 7b9c b53c 941b 753c 2ff3 a73b
00000020: 2369 8b3c a07e e1bb ea50 d63c 3350 3c3d
00000030: b050 b4bc 89c3 85bb ce76 db3c 12ab 2f3d
00000040: cd15 773d 8772 4a3d 54a9 5e3b 955f b53c
00000050: f006 7f3c c35d 073d ccac a43c 16e8 a93c
00000060: 7f31 9ebb ffc8 ef3c 01c1 8f3b fe99 d5ba
00000070: e24b a13c 9273 433c 9a39 183d 1000 fcbb

phi.initial_conv_module.1.running_mean f4 [32]
0.00035327958 -0.00254424 -0.0013650659 0.0010189599 -0.0005195197 -0.0009799016 -0.0021141958 0.001222191
-0.0015785531 0.0021836122 0.0006783414 -0.00038631284 0.0008242294 -0.0075128186 0.0003884527 0.0007222089
-0.00012111318 -0.0002707793 0.0012820819 -0.003938832 0.001137936 0.0005587326 0.0017530053 0.0019567416
0.00037367927 0.0015323147 0.0018473051 -0.0018596698 -0.00031933084 -0.0010436334 0.00079556764 -0.00053245464
00000000: 6238 b939 44bd 26bb 03ec b2ba 9f8e 853a
00000010: 6030 08ba 0b70 80ba 528e 0abb ed31 a03a
00000020: 74e7 ceba ef1a 0f3b b9d2 313a 088a cab9
00000030: 1911 583a 172e f6bb 3da9 cb39 9e52 3d3a
00000040: 25fe fdb8 62f7 8db9 880b a83a 5111 81bb
00000050: cc26 953a e977 123a 19c5 e53a ad3c 003b
00000060: 62ea c339 f3d7 c83a 4621 f23a 2ac0 f3ba
00000070: dc6b a7b9 87ca 88ba a48d 503a 6d94 0bba

phi.initial_conv_module.1.running_var f4 [32]
0.9358048 1.0668559 1.0062956 0.9878478 0.95585 1.0464016 1.0803792 1.0035651
1.0392 0.9995247 1.0142083 0.9546614 0.99816567 1.0941269 1.0575997 1.0516411
1.1030492 1.0342263 1.0714829 1.0275613 1.0066823 1.0171889 0.99912745 0.9880267
0.9906903 0.99484605 0.98275024 1.0428274 1.0376909 1.0070449 1.0242295 1.0632248
00000000: e790 6f3f bc8e 883f 4bce 803f 98e3 7c3f
00000010: 96b2 743f 7df0 853f de49 8a3f d274 803f
00000020: 8104 853f dae0 7f3f 94d1 813f b164 743f
00000030: c987 7f3f 5a0c 8c3f 6d5f 873f 2d9c 863f
00000040: b730 8d3f 8761 843f 5a26 893f 2187 833f
00000050: f7da 803f 3f33 823f d1c6 7f3f 51ef 7c3f
00000060: e19d 7d3f 3bae 7e3f 8595 7b3f 5e7b 853f
00000070: 0ed3 843f d9e6 803f f419 833f c017 883f
