logs/bird_classification_test_Certhia/2025-05-11_21-25-19/best_bird_classification_test_Certhia.pth (torch, 313878 bytes, 200 tensors)

mel_spec.spectrogram.window f4 [400]
0	0x00000000	0.0
1	0x38816000	6.169081e-05
2	0x39815c00	0.00024673343
3	0x3a118200	0.00055506825
4	0x3a815200	0.0009866357
5	0x3aca0700	0.0015413463
6	0x3b116d00	0.0022190213
7	0x3b45e300	0.0030195117
8	0x3b813140	0.0039426386
9	0x3ba373c0	0.0049881637
10	0x3bc9b6c0	0.0061558187
11	0x3bf3f800	0.0074453354
12	0x3c111a60	0.008856386
13	0x3c2a34e0	0.010388583
14	0x3c454a40	0.012041628
15	0x3c625880	0.013815045
16	0x3c80aef0	0.015708417
17	0x3c912c40	0.017721295
18	0x3ca2a310	0.019853145
19	0x3cb51260	0.022103488
20	0x3cc878f0	0.02447173
21	0x3cdcd5a0	0.026957333
22	0x3cf22700	0.029559612
23	0x3d0435e8	0.03227797
24	0x3d0fd158	0.035111755
25	0x3d1be510	0.038060248
26	0x3d287040	0.041122675
27	0x3d357230	0.04429835
28	0x3d42ea08	0.04758647
29	0x3d50d6f0	0.05098623
30	0x3d5f37f8	0.054496735
31	0x3d6e0c48	0.05811718
32	0x3d7d52f0	0.061846673
33	0x3d868578	0.06568426
34	0x3d8e99a4	0.069628984
35	0x3d96e580	0.073679924
36	0x3d9f6880	0.07783604
37	0x3da82220	0.08209634
38	0x3db111cc	0.086459726
39	0x3dba36f8	0.09092516
40	0x3dc3910c	0.0954915
41	0x3dcd1f78	0.10015768
42	0x3dd6e19c	0.1049225
43	0x3de0d6dc	0.10978481
44	0x3deafe94	0.11474338
45	0x3df55824	0.11979702
46	0x3dffe2e4	0.12494448
47	0x3e054f14	0.13018447
48	0x3e0ac4a2	0.13551572
49	0x3e1051c0	0.14093685
50	0x3e15f61a	0.14644662
51	0x3e1bb152	0.15204361
52	0x3e21830c	0.15772647
53	0x3e276ae8	0.16349375
54	0x3e2d688a	0.1693441
55	0x3e337b8c	0.17527598
56	0x3e39a392	0.18128803
57	0x3e3fe034	0.1873787
58	0x3e46310e	0.1935465
59	0x3e4c95b8	0.19978988
60	0x3e530dd0	0.20610738
61	0x3e5998ea	0.21249738
62	0x3e60369c	0.21895832
63	0x3e66e67c	0.2254886
64	0x3e6da81e	0.23208663
65	0x3e747b14	0.23875076
66	0x3e7b5eee	0.24547932
67	0x3e8129a0	0.2522707
68	0x3e84abcc	0.2591232
69	0x3e8835c2	0.26603514
70	0x3e8bc748	0.27300477
71	0x3e8f6027	0.28003046
72	0x3e930022	0.2871104
73	0x3e96a700	0.29424286
74	0x3e9a5486	0.3014261
75	0x3e9e0876	0.3086583
76	0x3ea1c297	0.31593773
77	0x3ea582ac	0.32326257
78	0x3ea94879	0.33063105
79	0x3ead13c0	0.3380413
80	0x3eb0e444	0.34549153
81	0x3eb4b9c6	0.35297984
82	0x3eb8940a	0.36050445
83	0x3ebc72d2	0.3680635
84	0x3ec055dd	0.37565508
85	0x3ec43cee	0.38327736
86	0x3ec827c5	0.39092842
87	0x3ecc1623	0.3986064
88	0x3ed007c8	0.40630937
89	0x3ed3fc76	0.4140355
90	0x3ed7f3eb	0.42178282
91	0x3edbede7	0.42954943
92	0x3edfea2b	0.43733343
93	0x3ee3e876	0.4451329
94	0x3ee7e887	0.45294592
95	0x3eebea1d	0.46077052
96	0x3eefecf8	0.4686048
97	0x3ef3f0d5	0.47644678
98	0x3ef7f577	0.48429462
99	0x3efbfa9c	0.49214637
100	0x3f000000	0.5
101	0x3f0202b3	0.5078537
102	0x3f040545	0.5157054
103	0x3f060796	0.52355325
104	0x3f080986	0.5313953
105	0x3f0a0af3	0.5392296
106	0x3f0c0bbe	0.5470542
107	0x3f0e0bc7	0.5548672
108	0x3f100aec	0.56266665
109	0x3f12090e	0.57045066
110	0x3f14060c	0.57821727
111	0x3f1601c7	0.5859646
112	0x3f17fc1d	0.5936907
113	0x3f19f4f0	0.6013937
114	0x3f1bec1f	0.6090717
115	0x3f1de18b	0.61672276
116	0x3f1fd513	0.624345
117	0x3f21c699	0.6319366
118	0x3f23b5fb	0.63949555
119	0x3f25a31e	0.6470202
120	0x3f278ddf	0.65450853
121	0x3f297621	0.66195875
122	0x3f2b5bc4	0.669369
123	0x3f2d3eaa	0.6767374
124	0x3f2f1eb5	0.6840623
125	0x3f30fbc6	0.69134176
126	0x3f32d5bf	0.698574
127	0x3f34ac82	0.70575726
128	0x3f367ff0	0.7128897
129	0x3f384fee	0.71996963
130	0x3f3a1c5d	0.7269953
131	0x3f3be521	0.733965
132	0x3f3daa1c	0.7408769
133	0x3f3f6b32	0.7477294
134	0x3f412846	0.7545208
135	0x3f42e13c	0.7612493
136	0x3f4495fa	0.76791346
137	0x3f464662	0.77451146
138	0x3f47f25a	0.78104174
139	0x3f4999c7	0.7875027
140	0x3f4b3c8e	0.79389274
141	0x3f4cda93	0.8002102
142	0x3f4e73be	0.8064536
143	0x3f5007f5	0.8126214
144	0x3f51971e	0.8187121
145	0x3f53211e	0.8247241
146	0x3f54a5e0	0.83065605
147	0x3f562548	0.83650637
148	0x3f579f3e	0.8422736
149	0x3f5913ad	0.8479565
150	0x3f5a827a	0.8535534
151	0x3f5beb90	0.85906315
152	0x3f5d4ed8	0.8644843
153	0x3f5eac3c	0.8698156
154	0x3f6003a4	0.87505555
155	0x3f6154fc	0.880203
156	0x3f62a02e	0.88525665
157	0x3f63e525	0.8902152
158	0x3f6523cd	0.8950775
159	0x3f665c12	0.8998424
160	0x3f678ddf	0.90450853
161	0x3f68b922	0.9090749
162	0x3f69ddc7	0.9135403
163	0x3f6afbbc	0.91790366
164	0x3f6c12f0	0.92216396
165	0x3f6d2350	0.9263201
166	0x3f6e2ccc	0.93037105
167	0x3f6f2f52	0.9343158
168	0x3f702ad2	0.9381534
169	0x3f711f3c	0.94188285
170	0x3f720c81	0.9455033
171	0x3f72f292	0.9490138
172	0x3f73d160	0.95241356
173	0x3f74a8de	0.9557017
174	0x3f7578fc	0.9588773
175	0x3f7641b0	0.9619398
176	0x3f7702eb	0.9648883
177	0x3f77bca2	0.96772206
178	0x3f786ec8	0.9704404
179	0x3f791954	0.9730427
180	0x3f79bc39	0.9755283
181	0x3f7a576e	0.9778966
182	0x3f7aeae8	0.9801469
183	0x3f7b769e	0.9822787
184	0x3f7bfa89	0.9842916
185	0x3f7c769e	0.98618495
186	0x3f7cead8	0.98795843
187	0x3f7d572c	0.9896114
188	0x3f7dbb97	0.99114364
189	0x3f7e1810	0.99255466
190	0x3f7e6c92	0.99384415
191	0x3f7eb918	0.9950118
192	0x3f7efd9e	0.9960574
193	0x3f7f3a1d	0.9969805
194	0x3f7f6e93	0.997781
195	0x3f7f9afc	0.9984586
196	0x3f7fbf57	0.99901336
197	0x3f7fdba0	0.99944496
198	0x3f7fefd4	0.99975324
199	0x3f7ffbf5	0.9999383
200	0x3f800000	1.0
201	0x3f7ffbf5	0.9999383
202	0x3f7fefd4	0.99975324
203	0x3f7fdba0	0.99944496
204	0x3f7fbf57	0.99901336
205	0x3f7f9afc	0.9984586
206	0x3f7f6e93	0.997781
207	0x3f7f3a1c	0.9969804
208	0x3f7efd9d	0.99605733
209	0x3f7eb918	0.9950118
210	0x3f7e6c92	0.99384415
211	0x3f7e1810	0.99255466
212	0x3f7dbb96	0.9911436
213	0x3f7d572c	0.9896114
214	0x3f7cead7	0.9879584
215	0x3f7c769e	0.98618495
216	0x3f7bfa88	0.98429155
217	0x3f7b769e	0.9822787
218	0x3f7aeae7	0.9801468
219	0x3f7a576c	0.97789645
220	0x3f79bc38	0.97552824
221	0x3f791952	0.9730426
222	0x3f786ec8	0.9704404
223	0x3f77bca0	0.96772194
224	0x3f7702ea	0.9648882
225	0x3f7641ae	0.9619397
226	0x3f7578fb	0.95887727
227	0x3f74a8dc	0.9557016
228	0x3f73d15e	0.95241344
229	0x3f72f290	0.9490137
230	0x3f720c80	0.94550323
231	0x3f711f3a	0.9418827
232	0x3f702ad0	0.93815327
233	0x3f6f2f50	0.9343157
234	0x3f6e2cca	0.9303709
235	0x3f6d2350	0.9263201
236	0x3f6c12f0	0.92216396
237	0x3f6afbbc	0.91790366
238	0x3f69ddc6	0.91354024
239	0x3f68b921	0.90907484
240	0x3f678dde	0.9045085
241	0x3f665c10	0.89984226
242	0x3f6523cc	0.89507747
243	0x3f63e524	0.89021516
244	0x3f62a02d	0.8852566
245	0x3f6154fb	0.88020295
246	0x3f6003a3	0.8750555
247	0x3f5eac3a	0.86981547
248	0x3f5d4ed7	0.86448425
249	0x3f5beb8f	0.8590631
250	0x3f5a8278	0.8535533
251	0x3f5913aa	0.8479563
252	0x3f579f3c	0.8422735
253	0x3f562545	0.8365062
254	0x3f54a5dd	0.8306559
255	0x3f53211c	0.82472396

mel_spec.mel_scale.fb f4 [201, 64]
0	0x00000000	0.0
1	0x00000000	0.0
2	0x00000000	0.0
3	0x00000000	0.0
4	0x00000000	0.0
5	0x00000000	0.0
6	0x00000000	0.0
7	0x00000000	0.0
8	0x00000000	0.0
9	0x00000000	0.0
10	0x00000000	0.0
11	0x00000000	0.0
12	0x00000000	0.0
13	0x00000000	0.0
14	0x00000000	0.0
15	0x00000000	0.0
16	0x00000000	0.0
17	0x00000000	0.0
18	0x00000000	0.0
19	0x00000000	0.0
20	0x00000000	0.0
21	0x00000000	0.0
22	0x00000000	0.0
23	0x00000000	0.0
24	0x00000000	0.0
25	0x00000000	0.0
26	0x00000000	0.0
27	0x00000000	0.0
28	0x00000000	0.0
29	0x00000000	0.0
30	0x00000000	0.0
31	0x00000000	0.0
32	0x00000000	0.0
33	0x00000000	0.0
34	0x00000000	0.0
35	0x00000000	0.0
36	0x00000000	0.0
37	0x00000000	0.0
38	0x00000000	0.0
39	0x00000000	0.0
40	0x00000000	0.0
41	0x00000000	0.0
42	0x00000000	0.0
43	0x00000000	0.0
44	0x00000000	0.0
45	0x00000000	0.0
46	0x00000000	0.0
47	0x00000000	0.0
48	0x00000000	0.0
49	0x00000000	0.0
50	0x00000000	0.0
51	0x00000000	0.0
52	0x00000000	0.0
53	0x00000000	0.0
54	0x00000000	0.0
55	0x00000000	0.0
56	0x00000000	0.0
57	0x00000000	0.0
58	0x00000000	0.0
59	0x00000000	0.0
60	0x00000000	0.0
61	0x00000000	0.0
62	0x00000000	0.0
63	0x00000000	0.0
64	0x00000000	0.0
65	0x00000000	0.0
66	0x00000000	0.0
67	0x00000000	0.0
68	0x00000000	0.0
69	0x00000000	0.0
70	0x00000000	0.0
71	0x00000000	0.0
72	0x00000000	0.0
73	0x00000000	0.0
74	0x00000000	0.0
75	0x00000000	0.0
76	0x00000000	0.0
77	0x00000000	0.0
78	0x00000000	0.0
79	0x00000000	0.0
80	0x00000000	0.0
81	0x00000000	0.0
82	0x00000000	0.0
83	0x00000000	0.0
84	0x00000000	0.0
85	0x00000000	0.0
86	0x00000000	0.0
87	0x00000000	0.0
88	0x00000000	0.0
89	0x00000000	0.0
90	0x00000000	0.0
91	0x00000000	0.0
92	0x00000000	0.0
93	0x00000000	0.0
94	0x00000000	0.0
95	0x00000000	0.0
96	0x00000000	0.0
97	0x00000000	0.0
98	0x00000000	0.0
99	0x00000000	0.0
100	0x00000000	0.0
101	0x00000000	0.0
102	0x00000000	0.0
103	0x00000000	0.0
104	0x00000000	0.0
105	0x00000000	0.0
106	0x00000000	0.0
107	0x00000000	0.0
108	0x00000000	0.0
109	0x00000000	0.0
110	0x00000000	0.0
111	0x00000000	0.0
112	0x00000000	0.0
113	0x00000000	0.0
114	0x00000000	0.0
115	0x00000000	0.0
116	0x00000000	0.0
117	0x00000000	0.0
118	0x00000000	0.0
119	0x00000000	0.0
120	0x00000000	0.0
121	0x00000000	0.0
122	0x00000000	0.0
123	0x00000000	0.0
124	0x00000000	0.0
125	0x00000000	0.0
126	0x00000000	0.0
127	0x00000000	0.0
128	0x00000000	0.0
129	0x00000000	0.0
130	0x00000000	0.0
131	0x00000000	0.0
132	0x00000000	0.0
133	0x00000000	0.0
134	0x00000000	0.0
135	0x00000000	0.0
136	0x00000000	0.0
137	0x00000000	0.0
138	0x00000000	0.0
139	0x00000000	0.0
140	0x00000000	0.0
141	0x00000000	0.0
142	0x00000000	0.0
143	0x00000000	0.0
144	0x00000000	0.0
145	0x00000000	0.0
146	0x00000000	0.0
147	0x00000000	0.0
148	0x00000000	0.0
149	0x00000000	0.0
150	0x00000000	0.0
151	0x00000000	0.0
152	0x00000000	0.0
153	0x00000000	0.0
154	0x00000000	0.0
155	0x00000000	0.0
156	0x00000000	0.0
157	0x00000000	0.0
158	0x00000000	0.0
159	0x00000000	0.0
160	0x00000000	0.0
161	0x00000000	0.0
162	0x00000000	0.0
163	0x00000000	0.0
164	0x00000000	0.0
165	0x00000000	0.0
166	0x00000000	0.0
167	0x00000000	0.0
168	0x00000000	0.0
169	0x00000000	0.0
170	0x00000000	0.0
171	0x00000000	0.0
172	0x00000000	0.0
173	0x00000000	0.0
174	0x00000000	0.0
175	0x00000000	0.0
176	0x00000000	0.0
177	0x00000000	0.0
178	0x00000000	0.0
179	0x00000000	0.0
180	0x00000000	0.0
181	0x00000000	0.0
182	0x00000000	0.0
183	0x00000000	0.0
184	0x00000000	0.0
185	0x00000000	0.0
186	0x00000000	0.0
187	0x00000000	0.0
188	0x00000000	0.0
189	0x00000000	0.0
190	0x00000000	0.0
191	0x00000000	0.0
192	0x00000000	0.0
193	0x00000000	0.0
194	0x00000000	0.0
195	0x00000000	0.0
196	0x00000000	0.0
197	0x00000000	0.0
198	0x00000000	0.0
199	0x00000000	0.0
200	0x00000000	0.0
201	0x00000000	0.0
202	0x00000000	0.0
203	0x00000000	0.0
204	0x00000000	0.0
205	0x00000000	0.0
206	0x00000000	0.0
207	0x00000000	0.0
208	0x00000000	0.0
209	0x00000000	0.0
210	0x00000000	0.0
211	0x00000000	0.0
212	0x00000000	0.0
213	0x00000000	0.0
214	0x00000000	0.0
215	0x00000000	0.0
216	0x00000000	0.0
217	0x00000000	0.0
218	0x00000000	0.0
219	0x00000000	0.0
220	0x00000000	0.0
221	0x00000000	0.0
222	0x00000000	0.0
223	0x00000000	0.0
224	0x00000000	0.0
225	0x00000000	0.0
226	0x00000000	0.0
227	0x00000000	0.0
228	0x00000000	0.0
229	0x00000000	0.0
230	0x00000000	0.0
231	0x00000000	0.0
232	0x00000000	0.0
233	0x00000000	0.0
234	0x00000000	0.0
235	0x00000000	0.0
236	0x00000000	0.0
237	0x00000000	0.0
238	0x00000000	0.0
239	0x00000000	0.0
240	0x00000000	0.0
241	0x00000000	0.0
242	0x00000000	0.0
243	0x00000000	0.0
244	0x00000000	0.0
245	0x00000000	0.0
246	0x00000000	0.0
247	0x00000000	0.0
248	0x00000000	0.0
249	0x00000000	0.0
250	0x00000000	0.0
251	0x00000000	0.0
252	0x00000000	0.0
253	0x00000000	0.0
254	0x00000000	0.0
255	0x00000000	0.0

phi.initial_conv_module.0._layers.0.conv.weight f4 [64, 64, 1]
0	0x3deca0bc	0.11554095
1	0x3e051a7e	0.12998387
2	0x3bda8bfa	0.0066695185
3	0x3e1f2d7b	0.15544693
4	0x3c7bf93a	0.015379244
5	0x3d8e078e	0.06935035
6	0xbc17b28c	-0.0092588775
7	0x3de5c192	0.11218561
8	0x3e0957c4	0.13412386
9	0xbd8540d7	-0.06506508
10	0x3e0a7e52	0.1352475
11	0x3d58e4de	0.05295264
12	0x3dd92071	0.10601891
13	0x392468a1	0.00015679236
14	0x3d489d6c	0.048978254
15	0xbca05b3c	-0.019574754
16	0x3dcf7bae	0.10131012
17	0x3cfd9b44	0.030957825
18	0xbcf0f503	-0.029413706
19	0x3d9a787d	0.075425126
20	0xbcfddb22	-0.03098828
21	0x3c248703	0.010041955
22	0xbc6cc3c4	-0.014450971
23	0x3ddc1ef2	0.1074809
24	0xbda7140f	-0.08158123
25	0xbd7a96ac	-0.06117885
26	0xbc2b6b20	-0.010462552
27	0xbd559983	-0.052148353
28	0x3c647947	0.01394493
29	0xbe058cde	-0.13042018
30	0x3dbf19c7	0.093310885
31	0xbdf4e486	-0.1195765
32	0x3d99acb1	0.075036414
33	0xba07af17	-0.0005175932
34	0xbd83a639	-0.06428189
35	0x3d818ec4	0.063260585
36	0x3a738722	0.0009289851
37	0x3db6c0a7	0.08923464
38	0x3bd838b6	0.0065985573
39	0xbd664eed	-0.056227613
40	0x3c941a0b	0.018078825
41	0xbd3e11b7	-0.046403613
42	0x3d18c208	0.037294418
43	0x3dc84c5b	0.09780189
44	0x3d139269	0.0360283
45	0xbd9de361	-0.07709385
46	0x3d82fc5a	0.063957885
47	0x3c6f2f3b	0.014598663
48	0x3d7072aa	0.058703102
49	0xbd92f304	-0.07175258
50	0xbdf3ad15	-0.11898247
51	0xbd658517	-0.056035127
52	0xbdd3a896	-0.103348896
53	0x3dcbdf08	0.09954649
54	0x3d0f54e1	0.034993056
55	0x3d572442	0.052524813
56	0x3d0530d4	0.03251727
57	0xbca17675	-0.019709805
58	0x3dad2b02	0.08455469
59	0xbdb23769	-0.08701975
60	0x3bb955bc	0.0056559723
61	0xbdbceab5	-0.09224454
62	0x3d1a3bb8	0.03765461
63	0xbd269e38	-0.040678233
64	0x3d92d360	0.07169223
65	0x3b2a15a0	0.002595283
66	0x3df9ecf7	0.122034006
67	0xbd78a08e	-0.060699992
68	0xbd826fda	-0.0636899
69	0xbd78abc0	-0.06071067
70	0x3e085d4d	0.13316841
71	0x3d714307	0.058901813
72	0x3e15a7ca	0.14614788
73	0xbd57e6b7	-0.05271026
74	0xbda6da88	-0.0814715
75	0xbd5a5ba9	-0.05331007
76	0xbccc1a32	-0.024914835
77	0x3dcba211	0.09943021
78	0x3dafc8dd	0.085832335
79	0x3e13545c	0.1438765
80	0xbc8d6a62	-0.017262641
81	0xbd49e8e7	-0.04929438
82	0x3dc1f43f	0.09470414
83	0xbcfb107d	-0.03064751
84	0x3dc34f94	0.09536663
85	0x3a0c54d1	0.0005353215
86	0x3dd66514	0.10468498
87	0xbd99975b	-0.07499572
88	0xbd436f33	-0.04771347
89	0x3d1ef74e	0.038810067
90	0x3cd7eed3	0.026358997
91	0xbcd0b394	-0.025476255
92	0x3da8b33a	0.0823731
93	0x3d85ba63	0.06529691
94	0xbdd6442c	-0.104622215
95	0xbd96bf7b	-0.07360741
96	0x3dddc37f	0.108283035
97	0xbd6c044f	-0.057621296
98	0xbd33695e	-0.043801658
99	0xbe0ce438	-0.13758934
100	0xbdaa4867	-0.08314591
101	0x3c540ea2	0.012942942
102	0xbd0c5f4a	-0.034270562
103	0xbdd10862	-0.10206677
104	0x3ab8a6fa	0.0014087849
105	0xbdccc57d	-0.099986054
106	0xbdd73020	-0.10507226
107	0xbd791a0d	-0.06081586
108	0xbde95b77	-0.11394399
109	0xbdb4960d	-0.088176824
110	0x3dc80978	0.09767431
111	0x3bea9902	0.0071593532
112	0xba573964	-0.0008210151
113	0xbe1f9caf	-0.15587114
114	0xbdf41250	-0.11917555
115	0xbd9747cf	-0.07386743
116	0x3c121e13	0.008918303
117	0xbdd1ce79	-0.1024446
118	0xbd3a5af8	-0.04549691
119	0xbd96c211	-0.07361234
120	0x3cf637fa	0.030055989
121	0xbcbb8baa	-0.022893745
122	0x3c842a57	0.01613347
123	0xbd08412a	-0.03326527
124	0xbd87e47c	-0.06635377
125	0xbd63c16c	-0.055604383
126	0xbcda56e1	-0.026652755
127	0xbdb8f94a	-0.09031923
128	0x3dfa72a9	0.12228901
129	0xbbda3940	-0.0066596568
130	0x3dffd70d	0.124921896
131	0x3d6a12ed	0.057146955
132	0xbdbb916e	-0.09158598
133	0x3db21500	0.08695412
134	0xbd13d88c	-0.036095187
135	0xbd1a440d	-0.037662555
136	0xbdae8499	-0.08521385
137	0xbdd3558d	-0.10319052
138	0x3d501ea0	0.050810456
139	0xbcada697	-0.0211976
140	0x3d596275	0.05307241
141	0xbdc58020	-0.096435785
142	0x3dc8f460	0.09812236
143	0xbdb6958b	-0.08915242
144	0xbc847656	-0.016169708
145	0x3d216162	0.039399512
146	0x3da60727	0.08106833
147	0x3de7a874	0.11311427
148	0x3deed86f	0.11662375
149	0xbdd1e0f1	-0.10247982
150	0x3cc22555	0.023699442
151	0xbd80fe89	-0.06298549
152	0xbcbf94e0	-0.023386419
153	0xbdc37919	-0.09544582
154	0x3df3e6bd	0.11909244
155	0xbdb4974d	-0.08817921
156	0x3d8751cc	0.066073984
157	0x3d4e55f6	0.050374947
158	0x3d5d0980	0.053964138
159	0xbd400d12	-0.046887465
160	0x3e0553a1	0.13020183
161	0x3d0ece0d	0.034864474
162	0x3ca68fcf	0.020332245
163	0xbdd5b8dc	-0.1043565
164	0x3d5d908b	0.054092925
165	0xbc4afa44	-0.01238877
166	0xbd2f95de	-0.042867534
167	0x3e04bf56	0.12963614
168	0x3d48f5c2	0.049062498
169	0xbd7d6b6c	-0.061870024
170	0xbd72ac5e	-0.059246413
171	0xbc1e9cbf	-0.009680926
172	0x3d8ca4a2	0.06867339
173	0xbcf690be	-0.030098315
174	0xbd8f11a0	-0.069857836
175	0xbd2976ff	-0.04137325
176	0xbdd3edc1	-0.10348082
177	0x3cdfec2e	0.027334299
178	0x3dac3464	0.0840843
179	0xbe003ac8	-0.12522423
180	0x3cc01caa	0.023451168
181	0x3d705f78	0.058684796
182	0x3cbd12c3	0.023080235
183	0xbd1d475b	-0.038398128
184	0x3d92d212	0.07168974
185	0x3d990f01	0.07473565
186	0x3d5f255d	0.05447899
187	0xbc666e3b	-0.014064367
188	0xbcdadea9	-0.0267175
189	0x3ca7ad6b	0.020468434
190	0xbc803c70	-0.015653819
191	0xbd08cc93	-0.033398222
192	0x3d968e48	0.07351357
193	0x3ded8379	0.11597342
194	0xbc2f19ed	-0.0106873335
195	0xbd18420b	-0.03717236
196	0x3b8247ee	0.00397586
197	0xbad00356	-0.0015870135
198	0x3cd51286	0.02600981
199	0x3cce70ce	0.025200274
200	0xbde337fc	-0.110946625
201	0xbd0b941e	-0.034076802
202	0x3ddc5e72	0.107602015
203	0x3d42383f	0.04741692
204	0xb790751c	-1.7220671e-05
205	0xbd4b9b73	-0.049708795
206	0xbd9cdfed	-0.07659898
207	0xbdee2396	-0.11627881
208	0xbd139d10	-0.03603846
209	0x3d4347fa	0.047676064
210	0x3da12c19	0.07869739
211	0x3d7a3206	0.061082862
212	0xbdeb9f23	-0.11504962
213	0xbda894fe	-0.08231543
214	0xbce60ee7	-0.028083278
215	0x3de2497a	0.11049171
216	0x3b978568	0.0046240576
217	0xbd441f21	-0.04788125
218	0x3d1d2914	0.038369253
219	0xbd68e385	-0.056857605
220	0xbdac9741	-0.08427287
221	0x3db652b6	0.089024946
222	0xbd84712f	-0.064669006
223	0xbd33247e	-0.043735974
224	0xbe05ba7b	-0.13059418
225	0x3da5c750	0.080946565
226	0x3db670c7	0.08908229
227	0x3d02e686	0.031958126
228	0xbde3ee1a	-0.11129399
229	0xbe17f7a4	-0.14840561
230	0xbe034cf4	-0.12822324
231	0x3d8ee9a1	0.06978155
232	0x3d24099f	0.040048238
233	0x3d936a56	0.07198016
234	0x3d51ab08	0.0511885
235	0x3c9ca4a4	0.019121476
236	0xbc2306aa	-0.009950319
237	0xbdba6a94	-0.091023594
238	0xbdd3eccb	-0.10347899
239	0xbe0a2300	-0.13489914
240	0x3ceef9f2	0.029171918
241	0xbdc3cedf	-0.09560942
242	0xbd7302e6	-0.059328936
243	0xbdb48912	-0.088152066
244	0xbcd30086	-0.025757086
245	0xbdc1bcd3	-0.094598435
246	0xbdb57619	-0.08860416
247	0x3d350bd0	0.04420072
248	0xbd0c1783	-0.03420211
249	0x3dbd3f38	0.09240574
250	0xbcb9a0ed	-0.022659743
251	0xbd91c583	-0.071177505
252	0xbca30dbf	-0.019904016
253	0xbd6ca9e9	-0.057779226
254	0xbd04518a	-0.032304324
255	0xbdf07246	-0.11740546

phi.initial_conv_module.0._layers.1.weight f4 [64]
0	0x3f82a2eb	1.0205969
1	0x3f7d3e9d	0.98923665
2	0x3f80d20f	1.0064105
3	0x3f829b3e	1.0203626
4	0x3f77d21c	0.96804976
5	0x3f7b2181	0.98098
6	0x3f7d2465	0.9888366
7	0x3f772c27	0.96551746
8	0x3f83390e	1.0251787
9	0x3f82769f	1.019245
10	0x3f7e70d2	0.993909
11	0x3f824a05	1.0178839
12	0x3f79eac8	0.9762387
13	0x3f7f7ddd	0.9980143
14	0x3f83a845	1.0285727
15	0x3f7fb1b9	0.9988056
16	0x3f77c093	0.9677822
17	0x3f7e1180	0.9924545
18	0x3f83c123	1.0293316
19	0x3f859d1e	1.0438573
20	0x3f804524	1.00211
21	0x3f81047e	1.0079496
22	0x3f7e095d	0.9923304
23	0x3f7c4817	0.985475
24	0x3f7c8b25	0.9864982
25	0x3f813db2	1.0096953
26	0x3f75ae67	0.9596924
27	0x3f8255ea	1.0182469
28	0x3f81e63d	1.0148388
29	0x3f83c430	1.0294247
30	0x3f80c1ff	1.0059203
31	0x3f7c5baa	0.9857737
32	0x3f80d969	1.0066348
33	0x3f7e9b59	0.9945579
34	0x3f80d0c6	1.0063713
35	0x3f76f867	0.9647278
36	0x3f7b87c2	0.98254025
37	0x3f8058d5	1.0027109
38	0x3f850746	1.0392845
39	0x3f7d8485	0.99030334
40	0x3f7c5c15	0.98578006
41	0x3f831f98	1.0244017
42	0x3f7e2487	0.99274486
43	0x3f8116c7	1.0085076
44	0x3f7cab9d	0.9869936
45	0x3f820b4e	1.01597
46	0x3f80cac7	1.0061883
47	0x3f7c5af9	0.98576313
48	0x3f7f4bea	0.9972521
49	0x3f83d70d	1.0300003
50	0x3f8155d7	1.0104321
51	0x3f7ff907	0.9998936
52	0x3f800a57	1.0003155
53	0x3f803640	1.0016556
54	0x3f80c5dd	1.0060383
55	0x3f766899	0.96253353
56	0x3f81a1a6	1.0127456
57	0x3f7e0d79	0.9923931
58	0x3f7f6159	0.99757916
59	0x3f8218df	1.016384
60	0x3f81f20f	1.0151995
61	0x3f7eae04	0.99484277
62	0x3f84051a	1.0314057
63	0x3f7c4961	0.9854947

phi.initial_conv_module.0._layers.1.bias f4 [64]
0	0xbac08925	-0.001468931
1	0xbc9d1df5	-0.019179324
2	0xbb11bbfa	-0.0022237287
3	0x3c3c3b70	0.01148878
4	0xbba4de7a	-0.005031404
5	0x3c8f5414	0.017496146
6	0x3c5b3b15	0.0133807855
7	0x3d151854	0.036400154
8	0xbc69065b	-0.014222707
9	0xbce0fd51	-0.02746454
10	0x3b323873	0.002719429
11	0xb91fb2aa	-0.00015229979
12	0x3c3d5201	0.011555196
13	0xbc653f38	-0.013992123
14	0xbc411623	-0.011785063
15	0xbc19b495	-0.009381433
16	0x3d010d6b	0.031506937
17	0x3b4451c9	0.0029955974
18	0xbc6ac415	-0.014328976
19	0xbc2756ee	-0.010213597
20	0x3cc79ca4	0.024366684
21	0xbc504d1d	-0.012713698
22	0x3c5ee396	0.013604065
23	0x3c9904d3	0.018679058
24	0x3d0d151a	0.034443952
25	0x3c0e6ecb	0.008693407
26	0x3c3e5c68	0.011618711
27	0xbcefa5aa	-0.0292538
28	0xbb434d3a	-0.002980067
29	0xbcd10c71	-0.025518628
30	0xbcba4453	-0.022737658
31	0x3ce4b1d8	0.027916834
32	0x3babaf92	0.0052394355
33	0x3be4302f	0.0069637517
34	0xb906cfbb	-0.00012856621
35	0x3c93e19d	0.018051917
36	0x3c829d49	0.01594414
37	0x3c117c45	0.008879726
38	0xbd17469b	-0.03693257
39	0xbc55c74b	-0.013048003
40	0x37f56bd8	2.9256495e-05
41	0x3d0a8eb3	0.033827495
42	0x3cf800c1	0.030273797
43	0x3c9899bf	0.018628
44	0x3bb9708e	0.0056591695
45	0xbb75b878	-0.0037493985
46	0x3bd4856e	0.0064856326
47	0x3c340cfb	0.010989423
48	0xbbaa0851	-0.0051889797
49	0xbce28edb	-0.02765601
50	0xbc349d75	-0.011023869
51	0xbb6be461	-0.0035994279
52	0xbb184144	-0.002323226
53	0x3ccdd77e	0.025127169
54	0xbc1bed28	-0.009516992
55	0x3cffa6fb	0.031207552
56	0xbca6fc46	-0.020383965
57	0x3c69481e	0.0142383855
58	0x3c1290c3	0.008945647
59	0xba16ae0c	-0.0005747981
60	0xbccb7fb9	-0.024841176
61	0x3bfc7074	0.007703835
62	0x3aad007e	0.0013198999
63	0x3c7c444c	0.015397143

phi.initial_conv_module.0._layers.1.running_mean f4 [64]
0	0xbe7128e4	-0.23550755
1	0xbf063849	-0.52429634
2	0xbe098c6f	-0.13432477
3	0xbe367b3b	-0.17820446
4	0xbe86974b	-0.26287302
5	0x3eb884db	0.3603886
6	0xbeb7c22a	-0.35890323
7	0x3e327259	0.17426433
8	0x3e95d16d	0.29261342
9	0x3d028096	0.03186091
10	0x3e706ba9	0.23478569
11	0x3e44b580	0.19209862
12	0x3e18c338	0.1491822
13	0x3eac06bc	0.33598888
14	0xbf03f7bf	-0.51549906
15	0xbef484f9	-0.477577
16	0x3ec1f12e	0.37879318
17	0xbd44bfc3	-0.04803444
18	0xbf1ef5fd	-0.620941
19	0xbed56597	-0.4167907
20	0xbd833cee	-0.06408106
21	0x3e8014c0	0.2501583
22	0xbcdf1a22	-0.02723414
23	0x3ee1d9bf	0.4411144
24	0xbe777d33	-0.24168853
25	0xbecf4379	-0.40481165
26	0x3ea6b0a4	0.3255664
27	0xbe58fe9c	-0.21190876
28	0xbe0331a5	-0.12811907
29	0xbe09cc82	-0.1345692
30	0xbeb4977f	-0.35271832
31	0xbda92a62	-0.08260037
32	0xbe7a0101	-0.24414445
33	0x3d375d0d	0.044766475
34	0x3ea66931	0.3250213
35	0x3ee82473	0.4534031
36	0xbcfbb944	-0.03072799
37	0x3e31f797	0.17379604
38	0xbe3dc3e5	-0.18531759
39	0xbe619d2c	-0.22032613
40	0x3e2d2044	0.1690684
41	0xbede9583	-0.43473443
42	0x3de4d6d8	0.11173791
43	0x3ca34f6c	0.019935332
44	0xbc911df7	-0.017714484
45	0x3de93212	0.11386503
46	0xbec4e75d	-0.38457766
47	0x3ec364c9	0.3816283
48	0xbebaa2e9	-0.36452416
49	0xbe64d693	-0.22347479
50	0xbdfcb9c1	-0.12340117
51	0x3e155e75	0.14586814
52	0x3eac94fa	0.3370741
53	0xbe4c8a2e	-0.19974586
54	0xbd31fd9b	-0.043454748
55	0x3e40f1ef	0.1884229
56	0x3e842be8	0.25814748
57	0xbe1b8c9d	-0.15190358
58	0xbe6e2ba7	-0.2325884
59	0x3e1345f1	0.1438215
60	0x3e060b9f	0.1309037
61	0xbd0672e5	-0.032824416
62	0xbe956972	-0.2918201
63	0xbdd62132	-0.1045555

phi.initial_conv_module.0._layers.1.running_var f4 [64]
0	0x3eceb84b	0.4037498
1	0x3f7c8d8d	0.9865349
2	0x3e241d8f	0.160269
3	0x3f778ecd	0.9670227
4	0x3eddc18b	0.43311724
5	0x3e8730bc	0.2640437
6	0x3e60d7ed	0.21957369
7	0x3edfc046	0.4370138
8	0x3f0ba9ec	0.54556155
9	0x3f82b4e7	1.0211457
10	0x3e5349e1	0.20633651
11	0x3e506cde	0.2035403
12	0x3e1ea094	0.15490943
13	0x3ee2995c	0.4425763
14	0x3e613967	0.21994554
15	0x3f053cea	0.5204607
16	0x3eda12a2	0.4259234
17	0x3f3d58a5	0.73963386
18	0x3ea99fb6	0.33129662
19	0x3dff9ae3	0.12480714
20	0x3f1ae92b	0.60512036
21	0x3e6e8d88	0.23296177
22	0x3f1883c0	0.59576035
23	0x3f480997	0.7813963
24	0x3e129324	0.14313942
25	0x3e50fc08	0.20408642
26	0x3eda25b7	0.426069
27	0x3f24075c	0.6407373
28	0x3d917e86	0.071042106
29	0x3db51577	0.08841985
30	0x3dd00fba	0.101592496
31	0x3f389a9b	0.7211091
32	0x3d6839a9	0.056695614
33	0x3febcab1	1.8421232
34	0x3e61a850	0.22036862
35	0x3e9fefea	0.31237727
36	0x3f23f94d	0.6405228
37	0x3f54067a	0.8282238
38	0x3f1fd4d1	0.6243411
39	0x3e8c60e7	0.2741768
40	0x3f395f8c	0.7241142
41	0x3f450104	0.76954675
42	0x3f35a57d	0.7095564
43	0x3ee69294	0.45033705
44	0x3eab448b	0.33450732
45	0x3f8373ed	1.0269753
46	0x3ea616d8	0.32439303
47	0x3eeefc4f	0.4667687
48	0x3e5683ff	0.2094879
49	0x3dfa5d3b	0.122248136
50	0x3e2ffff4	0.17187482
51	0x3ebee186	0.37281436
52	0x3e509612	0.20369747
53	0x3e8d962a	0.2765363
54	0x3f0d7df9	0.55270344
55	0x3e89b892	0.26898628
56	0x3e0fd792	0.14047077
57	0x3efee18f	0.49781463
58	0x3f012dfd	0.504608
59	0x3f18bec4	0.59666085
60	0x3ebcd6ee	0.36882728
61	0x3df3dbce	0.11907159
62	0x3e91a2ed	0.28444615
63	0x3ea9651d	0.33084956

phi.initial_conv_module.0._layers.4.conv.weight f4 [64, 1, 5]
0	0xbeb0e6ca	-0.34551078
1	0x3eb0d81c	0.34539878
2	0x3ec9f8bb	0.3944758
3	0x3ea4f5d8	0.32218814
4	0xbe1ccc6e	-0.15312359
5	0x3e790f84	0.24322325
6	0xbed0134c	-0.40639722
7	0x3e326675	0.17421897
8	0xbdac0ee1	-0.084012754
9	0xbecdb6aa	-0.40178424
10	0xbeb691bb	-0.3565806
11	0xbed7ac9a	-0.42123872
12	0x3db241bd	0.08703945
13	0xbe229556	-0.1587728
14	0xbe5187d0	-0.20461965
15	0x3ed854f9	0.4225233
16	0xbe15c6d6	-0.14626631
17	0x3e194e6c	0.14971322
18	0xbdb89c60	-0.09014201
19	0x3e860f6c	0.2618364
20	0x3dfb6d76	0.122767374
21	0x3ea30cd6	0.3184573
22	0x3dfccc36	0.12343638
23	0xbdbb136b	-0.09134563
24	0x3ebc7b76	0.36812943
25	0xbd34b617	-0.044118967
26	0xbe920743	-0.28521165
27	0x3df7ef77	0.12106221
28	0xbd3c84ac	-0.046024963
29	0xbeb0deec	-0.34545076
30	0x3d0e127f	0.034685608
31	0xbda2902d	-0.079376556
32	0xbe2feb59	-0.17179622
33	0xbe70c8b3	-0.2351406
34	0xbe4ece3e	-0.20195863
35	0xbe48a515	-0.19594224
36	0x3d0a99d8	0.033838123
37	0x3ed5a6e1	0.4172888
38	0xbe90f0bb	-0.28308663
39	0xbe5ad5af	-0.21370576
40	0xbe95e2f4	-0.29274714
41	0xbba49665	-0.0050228112
42	0x3d4a05a8	0.0493218
43	0xbea5e0f2	-0.32398182
44	0x3e433ecb	0.19066922
45	0xbec7d509	-0.3902972
46	0x3ed8d84c	0.4235252
47	0x3dcf8dbe	0.10134457
48	0xbd28330d	-0.04106431
49	0xbe17cb1b	-0.14823572
50	0x3e52e522	0.2059522
51	0x3ea36267	0.31911013
52	0xbe988c57	-0.2979457
53	0xbdda0855	-0.106461205
54	0x3ea6b4ec	0.32559907
55	0xbd803f42	-0.062620655
56	0xbeaa3ec9	-0.33251026
57	0xbe171ce4	-0.14757115
58	0x3cfb8b0a	0.030705947
59	0xbdae19d1	-0.08501018
60	0xbeacfb9b	-0.3378571
61	0xbe9d597c	-0.30732334
62	0x3dc8fa0e	0.09813319
63	0x3e92f0b0	0.28699255
64	0x3ebb1106	0.36536425
65	0xbd390b68	-0.045176893
66	0x3e3ef76b	0.1864907
67	0xbeafce3d	-0.34337035
68	0x3e8678d0	0.26264048
69	0x3ed57e21	0.4169779
70	0x3e84375e	0.25823492
71	0xbe146f2d	-0.14495535
72	0x3eca9bee	0.3957209
73	0xbecb7060	-0.39734173
74	0xbc604c56	-0.013690075
75	0xbe08a787	-0.13345157
76	0xbee287fd	-0.44244376
77	0xbe837b38	-0.25679946
78	0xbeade65d	-0.33964816
79	0x3dcc2106	0.09967236
80	0xbd3eb729	-0.046561394
81	0x3e4d4c7b	0.20048706
82	0xbdaccc67	-0.08437424
83	0x3ec147c0	0.37750053
84	0x3d830184	0.063967735
85	0x3ec8345f	0.39102456
86	0x3eb8f07c	0.36120975
87	0xbec300de	-0.380866
88	0xbe987d1a	-0.29782945
89	0x3e83ae1d	0.25718775
90	0x3ed634d1	0.4183717
91	0xbecadcbb	-0.3962153
92	0x3a8c04aa	0.0010682542
93	0xbe3671af	-0.17816804
94	0x3ecb49eb	0.39704832
95	0x3ebe9f05	0.37230697
96	0x3ea3516b	0.31898054
97	0x3e8538eb	0.26019987
98	0xbd929489	-0.07157237
99	0x3ecc495f	0.39899728
100	0xbe67b8ef	-0.2262914
101	0x3c9db9af	0.01925358
102	0xbe002ff0	-0.12518287
103	0xbea47340	-0.3211918
104	0xbe48080f	-0.19534324
105	0x3db4ec38	0.08834118
106	0xbd69f65e	-0.05711972
107	0xbea040fe	-0.31299585
108	0xbd86e39f	-0.06586384
109	0x3d82e267	0.06390839
110	0xbea8bd80	-0.32957077
111	0x3e81dc91	0.2536359
112	0xbec9c20b	-0.39405856
113	0xbca61ae6	-0.020276498
114	0xbeaf3dd1	-0.3422685
115	0xbed033e9	-0.40664604
116	0xbd8dc74a	-0.06922777
117	0x3ecd69b3	0.40119705
118	0x3eda1e5c	0.42601287
119	0x3e187cb2	0.14891317
120	0x3ea9f7c1	0.33196834
121	0xbe87aeca	-0.2650054
122	0x3e6577b9	0.22408952
123	0x3e850577	0.25980732
124	0xbee4ec79	-0.44711664
125	0xbea9610b	-0.3308185
126	0x3e3a47a3	0.1819139
127	0x3cf64728	0.030063227
128	0xbea068f6	-0.3133008
129	0xbebd4b47	-0.36971495
130	0x3ea19052	0.3155542
131	0x3d30e96f	0.04319137
132	0xbbd750ce	-0.006570912
133	0xbedebb30	-0.43502188
134	0x3ec984f8	0.3935926
135	0xbe9525c9	-0.2913039
136	0x3e59bc41	0.2126322
137	0xbd43e470	-0.047825277
138	0x3b2489d6	0.002510657
139	0x3e606995	0.21915276
140	0xbdc3ebe3	-0.09566476
141	0xbddbe136	-0.10736315
142	0x3ebb732b	0.36611304
143	0xbeacaf95	-0.33727708
144	0x3e5bfeff	0.21483992
145	0xbdb95dc2	-0.09051086
146	0xbe0858bb	-0.13315098
147	0x3eadc81d	0.33941737
148	0x3de75ac4	0.11296609
149	0xbebb3e73	-0.36571082
150	0x3ec76c09	0.38949612
151	0xbe81b340	-0.2533207
152	0x3eb9e74d	0.3630928
153	0xbe2e502b	-0.17022769
154	0x3edd72c4	0.43251622
155	0x3def6207	0.11688619
156	0xbd1f41ba	-0.03888104
157	0x3e22a055	0.15881474
158	0xbcba510b	-0.022743722
159	0xbe70e622	-0.23525289
160	0x3e6c61a0	0.23084116
161	0x3e82f431	0.25576928
162	0xbd277979	-0.04088733
163	0x3eea9ee8	0.4582436
164	0x3c71cecb	0.014758776
165	0xbe89d924	-0.26923478
166	0xbe8e14b5	-0.27750173
167	0x3e8a29a1	0.26984885
168	0xbe4f64f8	-0.2025336
169	0x3e80a434	0.25125277
170	0xbee42b81	-0.4456444
171	0xbb2974cd	-0.0025856972
172	0xbe9a581c	-0.30145347
173	0x3e1bc6ef	0.15212606
174	0x3eba4142	0.36377913
175	0x3e408ce1	0.18803741
176	0xbe17d8fc	-0.14828867
177	0xbee0dbc4	-0.43917668
178	0xbe47ab4f	-0.19498943
179	0xbe7f01f4	-0.24903089
180	0x3edbd948	0.4293921
181	0xbe6f6317	-0.23377644
182	0x3e2cca2f	0.16874002
183	0x3ebadd61	0.36497024
184	0x3e248e2d	0.16069861
185	0xbec7d1a6	-0.39027137
186	0xbd37f528	-0.044911534
187	0xbe1b413e	-0.15161607
188	0x3e90277c	0.28155124
189	0xbd638470	-0.055546224
190	0xbd14888d	-0.036263037
191	0x3ecb6a23	0.39729413
192	0x3db38e02	0.0876732
193	0x3e6116df	0.21981381
194	0xbe172d3f	-0.14763354
195	0x3e9e3a69	0.30903938
196	0x3dbc43c3	0.09192612
197	0xbd96dbbe	-0.07366131
198	0x3dcfbe29	0.10143692
199	0xbeaa6433	-0.3327957
200	0xba437a21	-0.00074568583
201	0x3e3c1679	0.18367948
202	0xbee35ce0	-0.44406796
203	0xbe80737a	-0.25088102
204	0x3e856fa0	0.26061726
205	0x3d128e21	0.035780076
206	0x3bed24d5	0.0072370567
207	0x3d8f3d5c	0.06994125
208	0xbe3b1083	-0.18268017
209	0x3ec5bbce	0.38619846
210	0xbd6689c2	-0.05628372
211	0xbe24c93a	-0.16092387
212	0x3e710f8d	0.23541088
213	0xbebf22f5	-0.37331358
214	0xbd94bc11	-0.07262433
215	0x3d777bbc	0.060420737
216	0xbe1f069a	-0.15529862
217	0x3e6e4f39	0.23272409
218	0xbec54bdd	-0.38534442
219	0xbe0899c3	-0.13339905
220	0xbe4bc291	-0.1989844
221	0x3ed3414f	0.41260764
222	0x3e2400ca	0.16015926
223	0xbeaa4c46	-0.33261317
224	0x3e35360c	0.17696398
225	0xbbd37511	-0.0064531644
226	0x3ec733bd	0.3890666
227	0x3e834122	0.2563563
228	0xbe88bae2	-0.2670508
229	0x3ed0a71a	0.40752488
230	0xbd733798	-0.05937919
231	0xbdac5fc4	-0.08416703
232	0x3e0b2d36	0.13591465
233	0x3efb6d4e	0.4910683
234	0x3dc06585	0.09394363
235	0xbedec4d6	-0.4350955
236	0xbe0841fa	-0.13306418
237	0x3ed571f0	0.4168849
238	0xbe1ee346	-0.15516385
239	0xbe5ea5f8	-0.21743
240	0xbec44749	-0.38335636
241	0xbe8889fa	-0.26667768
242	0xbe7a2dc5	-0.24431522
243	0x3db78fce	0.089629754
244	0x3e18b086	0.14911088
245	0x3eebd688	0.46062112
246	0x3e859d38	0.2609651
247	0xbaed19df	-0.0018089375
248	0x3e60f9b5	0.21970256
249	0x3e81dbe5	0.2536308
250	0xbeaa0cac	-0.33212793
251	0x3e87e373	0.26540717
252	0xbe87650a	-0.26444274
253	0x3ecbd2fb	0.39809403
254	0xbe138595	-0.14406426
255	0x3db06c51	0.0861441

phi.initial_conv_module.0._layers.5.weight f4 [64]
0	0x3f7f77e3	0.9979231
1	0x3f7ea198	0.9946532
2	0x3f802434	1.0011048
3	0x3f7f2cf4	0.9967797
4	0x3f737b9b	0.9511048
5	0x3f81fe5b	1.0155748
6	0x3f83061e	1.0236242
7	0x3f7fa3a7	0.9985909
8	0x3f7cbb71	0.9872351
9	0x3f7f1c42	0.99652493
10	0x3f75bdd4	0.9599278
11	0x3f75b768	0.9598298
12	0x3f788215	0.9707349
13	0x3f800598	1.0001707
14	0x3f868b85	1.0511328
15	0x3f84efcc	1.038568
16	0x3f74aa39	0.9557224
17	0x3f7fd279	0.9993053
18	0x3f8469c4	1.0344777
19	0x3f835ecd	1.0263306
20	0x3f7a7504	0.978348
21	0x3f7976e4	0.9744704
22	0x3f7e4f89	0.9934011
23	0x3f7fff29	0.9999872
24	0x3f7c5366	0.98564756
25	0x3f818c65	1.012097
26	0x3f7d4651	0.9893542
27	0x3f7ffdbf	0.9999656
28	0x3f7d77f8	0.9901118
29	0x3f82f2bf	1.023033
30	0x3f7ed5d6	0.9954504
31	0x3f7ac1fc	0.97952247
32	0x3f8363b6	1.0264804
33	0x3f7afcea	0.98042166
34	0x3f7ea6e3	0.994734
35	0x3f829b55	1.0203654
36	0x3f77979c	0.9671571
37	0x3f781cd1	0.9691897
38	0x3f829b39	1.020362
39	0x3f840d93	1.0316643
40	0x3f7c85f3	0.9864189
41	0x3f851b15	1.039889
42	0x3f815914	1.010531
43	0x3f7ff850	0.9998827
44	0x3f7e7e18	0.99411154
45	0x3f808beb	1.00427
46	0x3f816c95	1.0111262
47	0x3f826e70	1.0189953
48	0x3f7c4d01	0.98555
49	0x3f81a0d8	1.0127211
50	0x3f851c1b	1.0399202
51	0x3f791c3c	0.9730871
52	0x3f7630ef	0.96168417
53	0x3f7ad71f	0.979845
54	0x3f7a5f7e	0.9780196
55	0x3f832f16	1.0248744
56	0x3f7cd8b1	0.98768145
57	0x3f81b804	1.0134282
58	0x3f7d4201	0.9892884
59	0x3f7d951a	0.99055636
60	0x3f7feeab	0.99973553
61	0x3f7fb2ab	0.99882
62	0x3f88c337	1.0684575
63	0x3f7a9f81	0.97899634

phi.initial_conv_module.0._layers.5.bias f4 [64]
0	0xbc462745	-0.0120943235
1	0x3c5bffa9	0.013427653
2	0xbc0d4d45	-0.0086243795
3	0x3ba15ab3	0.0049241423
4	0xbd4803dc	-0.048831806
5	0x3cb6f6d6	0.022334497
6	0x3cad7b96	0.021177094
7	0xbc14060f	-0.009034648
8	0xbbf341af	-0.0074236016
9	0xba08430f	-0.0005197981
10	0xbd0c6af9	-0.034281705
11	0xbd140381	-0.036136154
12	0xbd4cd997	-0.050012197
13	0xbab9ff36	-0.0014190439
14	0x3ced70cb	0.028984448
15	0x3d62c5cf	0.055364426
16	0xbd251b2e	-0.040309124
17	0x3b8f516b	0.0043737195
18	0x3cad8ed3	0.021186268
19	0x3c0c92b7	0.008579901
20	0xbbb9d3cb	-0.0056709996
21	0xbcd73b3b	-0.02627336
22	0xbb3766f8	-0.0027984958
23	0x3c310b88	0.010805972
24	0xbc861af1	-0.016370269
25	0x3cbab1fe	0.022789951
26	0xbc1179cb	-0.008879135
27	0xbb903811	-0.004401215
28	0x3c7e2b88	0.015513308
29	0xbc940955	-0.018070856
30	0xbc0bb9f2	-0.00852822
31	0x3cac4624	0.02102954
32	0x3c7d9360	0.0154770315
33	0x3c4b535b	0.01241001
34	0xb8191ba8	-3.65038e-05
35	0xbb8b99c7	-0.004260275
36	0xbcf95181	-0.030434372
37	0xbce3d3fa	-0.02781104
38	0x3a6b829f	0.00089840026
39	0x3cd30827	0.025760723
40	0xbd00b49c	-0.031422243
41	0x3d557ba9	0.052119885
42	0xbba91f73	-0.0051612197
43	0xbc4311f9	-0.0119061405
44	0x3c2c6e8b	0.010524402
45	0xbc472ea7	-0.012157119
46	0x3c7c2d45	0.0153916525
47	0x3ca89e49	0.020583289
48	0x3cf08ccb	0.02936401
49	0xbb339ae6	-0.002740556
50	0x3bda7d54	0.0066677723
51	0xbcd2e9ab	-0.025746187
52	0xbd3d147d	-0.046162117
53	0xbb8e5e63	-0.004344748
54	0xbcde2247	-0.027115954
55	0x3ba44574	0.0050131623
56	0xbbbe797b	-0.0058128214
57	0xba4ccbb2	-0.00078123354
58	0xbb963d14	-0.004584918
59	0x3a16c6f1	0.00057516905
60	0x3b966dd4	0.0045907293
61	0xba818600	-0.0009881854
62	0x3d16ff3c	0.036864504
63	0xbc0120d7	-0.007881365

phi.initial_conv_module.0._layers.5.running_mean f4 [64]
0	0x3d83b413	0.06430831
1	0xbd87aa0e	-0.06624232
2	0xbe388bf2	-0.18022135
3	0x3d96a0b7	0.07354873
4	0x3e0993df	0.13435315
5	0xbdc823c6	-0.09772448
6	0xbde318a6	-0.11088686
7	0xbd18592c	-0.037194416
8	0xbd8116e7	-0.063031964
9	0xbbc3bb29	-0.005973239
10	0x3d90f76d	0.07078443
11	0xbdcc4f2d	-0.09976039
12	0x3c8e7747	0.01739086
13	0x3d9926ea	0.074781254
14	0x3c6322b9	0.013863259
15	0xbe220226	-0.15821132
16	0x3dbdf112	0.09274496
17	0x3d0084b6	0.031376563
18	0x3d2c540a	0.042072333
19	0x3e664ad1	0.22489478
20	0xbe0c2649	-0.1368648
21	0x3ce2b00c	0.027671836
22	0xbdece44c	-0.11566982
23	0x3b5239ae	0.0032077837
24	0x3c5ba4ba	0.013405973
25	0xbe0e9d83	-0.13927273
26	0x3d39003d	0.045166243
27	0x3c2812d4	0.010258395
28	0x3be6a974	0.0070392434
29	0xbb50f282	-0.0031882827
30	0x3dff04f1	0.124521144
31	0xbbec0259	-0.0072024283
32	0xbceb5670	-0.02872774
33	0xbcddce3a	-0.027075876
34	0x3bc6e6b6	0.0060699834
35	0xbe0ddc94	-0.13853675
36	0x3ddcfbee	0.10790239
37	0xbd1bd4dd	-0.0380448
38	0x3d658c77	0.05604216
39	0x3c4b8ac2	0.012423219
40	0xbcf50527	-0.029909683
41	0x3d33effb	0.043930035
42	0xbd122eaf	-0.035689052
43	0xbd924ed1	-0.07143939
44	0x3cf48ff1	0.029853793
45	0x3dba5bce	0.090995416
46	0x3dbeed7f	0.093226425
47	0xbdada06e	-0.08477865
48	0xbdd31739	-0.10307164
49	0x3e4c9012	0.19976833
50	0xbc08cd4c	-0.008349728
51	0xbc03ae42	-0.008037152
52	0xbd9b8cc5	-0.07595209
53	0xbd89129e	-0.06693004
54	0xbcdea012	-0.027175937
55	0xbe01bbe7	-0.12669335
56	0xbd9b24a1	-0.07575346
57	0xbc3393c2	-0.010960521
58	0x3b6e8e88	0.0036400873
59	0xbd68fc5a	-0.056881286
60	0x3db35ce7	0.08757954
61	0xbd0e7ad5	-0.03478511
62	0x3d84f4b9	0.0649199
63	0xbc54e005	-0.012992864

phi.initial_conv_module.0._layers.5.running_var f4 [64]
0	0x3cbcb214	0.023034133
1	0x3e1b974f	0.15194438
2	0x3e2be4c5	0.16786487
3	0x3e899d9a	0.26878053
4	0x3dca1f9c	0.0986931
5	0x3e451db8	0.19249618
6	0x3e241c5f	0.16026448
7	0x3c82f3fc	0.015985481
8	0x3d6b99dc	0.05751978
9	0x3c2171b6	0.009853771
10	0x3d0e30a0	0.03471434
11	0x3dc373fa	0.09543605
12	0x3d577de4	0.052610293
13	0x3d768d83	0.06019355
14	0x3c7f1ace	0.015570356
15	0x3f09e702	0.53868115
16	0x3dbf1e67	0.09331971
17	0x3db8e570	0.09028137
18	0x3cbdf9be	0.023190375
19	0x3e908589	0.2822688
20	0x3da07922	0.07835604
21	0x3ae73c64	0.0017641899
22	0x3ee71618	0.45134044
23	0x3b35b234	0.0027724626
24	0x3cbfb818	0.023403212
25	0x3e91d3d4	0.28481925
26	0x3d6091ee	0.05482667
27	0x3b8349ed	0.0040066154
28	0x3c9c1b77	0.019056065
29	0x3b9b9281	0.0047476892
30	0x3df13c28	0.11779052
31	0x3bdc12b1	0.0067160954
32	0x3d366a3d	0.04453491
33	0x3bb6f6f4	0.0055836383
34	0x3b937a46	0.00450066
35	0x3ec2c797	0.380429
36	0x3f0ef88d	0.5584801
37	0x3dc2339d	0.09482501
38	0x3e504f4a	0.20342746
39	0x3c52f89a	0.012876654
40	0x3c50cc2e	0.012743993
41	0x3d9127df	0.07087683
42	0x3c87d78a	0.01658227
43	0x3da5b167	0.080904774
44	0x3c10992b	0.008825581
45	0x3ef4dd56	0.47825116
46	0x3e4c8666	0.19973144
47	0x3d71269d	0.058874715
48	0x3de11566	0.109904096
49	0x3e2b54d9	0.16731586
50	0x3ca2ec5c	0.019888096
51	0x3c3e97f6	0.01163291
52	0x3e074878	0.13211238
53	0x3daa5ec7	0.083188586
54	0x3db559da	0.088550285
55	0x3dec7268	0.11545259
56	0x3d9a77db	0.07542392
57	0x3c46eaf3	0.012140977
58	0x3b034c8b	0.0020034637
59	0x3c983240	0.018578649
60	0x3e460025	0.19335993
61	0x3cb4c328	0.022065714
62	0x3d106fe1	0.035262946
63	0x3bf7ff0d	0.007568246

phi.initial_conv_module.0._layers.7.se_conv.conv.weight f4 [10, 64, 1]
0	0x3d92d793	0.07170024
1	0xbdcc1932	-0.09965743
2	0xbdd13113	-0.10214438
3	0x3b2e398b	0.0026584591
4	0xbdd255d9	-0.102702804
5	0xbdd2d1c4	-0.10293916
6	0xbdde46e8	-0.10853368
7	0x3dc60a42	0.09669925
8	0x3d6f61e5	0.05844297
9	0xbcf525ab	-0.029925188
10	0xbc1191f5	-0.0088848965
11	0xbde587a8	-0.11207515
12	0xbdf17bc5	-0.11791185
13	0xbd8290ad	-0.06375251
14	0xbdf42273	-0.11920633
15	0x3dd19646	0.102337405
16	0xbd5c3ed0	-0.05377084
17	0xbd062d93	-0.032758307
18	0xbd8aa567	-0.06769829
19	0x3cf3fd01	0.029783728
20	0xbc97c8f8	-0.018528447
21	0xbd724db5	-0.05915614
22	0x3dc75a00	0.09733963
23	0x3dc3efdd	0.09567235
24	0xbdc2a597	-0.0950424
25	0x3da372a5	0.07980851
26	0xbd1e4c6d	-0.038647104
27	0x3b07a8dc	0.0020700013
28	0x3d34d645	0.044149656
29	0xbc5a6bd1	-0.0133313695
30	0x3e09dd1f	0.13463257
31	0x3db58b8f	0.08864509
32	0xbdbab477	-0.09116452
33	0xbd9c62e4	-0.076360494
34	0xbdc7e5f4	-0.09760657
35	0x3d85eae2	0.06538941
36	0xbd817c22	-0.063225046
37	0xbda6f8e1	-0.08152939
38	0xbda18540	-0.078867435
39	0xbde7919a	-0.11307068
40	0xbdd213f0	-0.10257709
41	0x3deb4ccb	0.114892565
42	0x3d95bc8a	0.073113516
43	0x3e0c1ba7	0.13682424
44	0xbd1adadc	-0.037806377
45	0xbd06e9d3	-0.032937836
46	0xbd4c0eff	-0.04981899
47	0x3cbe93e2	0.023263875
48	0xbdbbdc2c	-0.09172854
49	0x3d386c5d	0.04502522
50	0xbd817cb0	-0.063226104
51	0x3ce3e616	0.027819674
52	0x3e154409	0.14576735
53	0x3d374627	0.044744637
54	0x3e00e011	0.12585475
55	0xbdad2e3c	-0.08456084
56	0xbbe62114	-0.007022986
57	0xbd9e46e4	-0.07728365
58	0xbc9e41ca	-0.01931848
59	0xbd45e7e6	-0.04831686
60	0xbd6ee7ec	-0.058326647
61	0xbde84977	-0.11342137
62	0xbd44298a	-0.047891177
63	0x3c23c83c	0.00999647
64	0xbc35941f	-0.011082678
65	0xbdcdd269	-0.10049898
66	0x3dd2fcbf	0.10302114
67	0x3dd16a19	0.10225315
68	0xbd8f204f	-0.06988584
69	0x3ccf2dea	0.025290448
70	0x3dad948f	0.08475601
71	0xbdf4fa64	-0.11961821
72	0xbdabe562	-0.08393361
73	0x3d90c2ca	0.07068403
74	0x3c085921	0.008322031
75	0x3d20e2b9	0.03927872
76	0xbd302943	-0.0430081
77	0x3d06a9c4	0.032876745
78	0x3db6e21c	0.08929846
79	0xbcb8733d	-0.022515887
80	0xbd3a545e	-0.045490615
81	0xbdf80a2c	-0.12111315
82	0xbcf381c0	-0.029724956
83	0x3dab59a4	0.08366707
84	0xbdf85c45	-0.12126974
85	0x3afa8a1c	0.0019114646
86	0x3dcb4b30	0.0992645
87	0xbd16c96a	-0.036813177
88	0xbd51ee6c	-0.051252767
89	0xbd3f72c7	-0.04674032
90	0xbd1c0f8d	-0.038100768
91	0x3c40c4c0	0.011765659
92	0xbdf7295b	-0.12068435
93	0x3d62e896	0.055397592
94	0xbd197568	-0.037465483
95	0xbb965c6e	-0.004588655
96	0x3c09e7a9	0.0084170485
97	0x3d56acf9	0.052411053
98	0xbda13bbc	-0.078727216
99	0xbdc66a25	-0.09688214
100	0xbdaacbb3	-0.08339634
101	0xbd9b0608	-0.0756951
102	0xbd8e386b	-0.069443546
103	0x3db0876b	0.08619579
104	0xbdcc41e4	-0.09973505
105	0xbd450c91	-0.048107687
106	0xbdc275df	-0.094951384
107	0xbd544b22	-0.051829465
108	0x3c4c0983	0.01245344
109	0xbd63c550	-0.055608094
110	0xbc25c979	-0.010118836
111	0x3d1f4ea9	0.038893376
112	0xbcbdf97c	-0.023190252
113	0x3d7d421e	0.061830632
114	0x3d603028	0.054733425
115	0x3e00dd91	0.12584521
116	0x3aef0751	0.0018236433
117	0x3df86a9a	0.12129708
118	0x3dd18d0d	0.102319814
119	0x3d8ca17c	0.06866738
120	0x3d970127	0.07373267
121	0xbd9bd0f5	-0.07608215
122	0xbdb3e3ee	-0.087837085
123	0x3d86636b	0.06561931
124	0x3d4bb0bd	0.049729098
125	0x3dec14ba	0.11527391
126	0xbb523ab5	-0.003207845
127	0xbcf420ad	-0.029800737
128	0x3d6584fa	0.05603502
129	0x3c1e3eb4	0.009658504
130	0x3d962eca	0.07333143
131	0xbddf7eb9	-0.10912842
132	0xbd956b01	-0.072958
133	0xbd4ac8f9	-0.04950807
134	0x3ccafadb	0.02477782
135	0xbe096493	-0.13417272
136	0xbd6d13d3	-0.057880234
137	0x3d81626a	0.06317599
138	0x3b64da10	0.0034920014
139	0x3d9f8cde	0.0779054
140	0xbdbc4401	-0.09192658
141	0xbd9fe1c0	-0.0780673
142	0xbe01214b	-0.12610357
143	0xbd9c32bb	-0.076268636
144	0xbdb87723	-0.090070985
145	0x3c919eb1	0.017775865
146	0xbc24305f	-0.010021298
147	0xbdcf28b6	-0.10115187
148	0x3d8e5a21	0.069507845
149	0x3ccae85b	0.024768999
150	0xbbd82956	-0.0065967245
151	0xbd7f2362	-0.062289603
152	0x3d456abf	0.048197504
153	0xbe06a893	-0.13150243
154	0x3d90a7f3	0.07063284
155	0xbdd6d1f1	-0.10489262
156	0x3ccbda00	0.024884224
157	0xbd9a576a	-0.07536204
158	0x3d8e75ba	0.06956048
159	0xbdff7276	-0.124730036
160	0xbd138334	-0.036013797
161	0xbd8d2671	-0.06892098
162	0xbdd00c50	-0.101585984
163	0xbdbef525	-0.09324101
164	0xbd093b70	-0.03350395
165	0xbd0d74ac	-0.034535095
166	0x3d880cc1	0.066430576
167	0xbd74dc2a	-0.059780277
168	0x3dccdd75	0.10003177
169	0xbdc5b6a9	-0.0965398
170	0xbdd11dae	-0.10210739
171	0xbcc42545	-0.023943553
172	0xbd2e19b1	-0.04250497
173	0x3ccd825e	0.025086578
174	0x3dbf468f	0.0933963
175	0x3b881279	0.0041525927
176	0xbdf1d202	-0.11807634
177	0xbd938a4c	-0.072041124
178	0xbd767061	-0.060165767
179	0xbe1d7536	-0.15376744
180	0x3ca050ef	0.019569842
181	0x3dd85d6f	0.10564696
182	0x3d74cb6b	0.059764307
183	0xbd1b0a5b	-0.037851673
184	0xbd3fe75f	-0.046851512
185	0xbdb12bb7	-0.08650916
186	0xbd274d07	-0.040844943
187	0x3d8d4bf8	0.068992555
188	0xbe016c64	-0.12639004
189	0xbc137075	-0.00899898
190	0xbe0030a9	-0.12518562
191	0xbd96abc2	-0.07356979
192	0x3d7640ca	0.06012038
193	0xbda16e12	-0.07882322
194	0x3dc81e32	0.09771384
195	0xbd8c972e	-0.06864773
196	0x3b9a4005	0.0047073388
197	0x3e12362d	0.14278479
198	0x3df19077	0.117951326
199	0x3d7bc3cb	0.06146602
200	0xbccd668c	-0.025073312
201	0xbd1435b0	-0.036184013
202	0xbbad6900	-0.005292058
203	0xbc1b1f9f	-0.009467988
204	0x3e0d8893	0.1382163
205	0xbddf633c	-0.10907599
206	0x3e130a18	0.14359319
207	0x3cd6d825	0.026226113
208	0xbd1d96dc	-0.03847395
209	0x3e168e02	0.14702609
210	0x3dff1df1	0.12456883
211	0x3d073244	0.03300692
212	0xbd492b50	-0.04911357
213	0x3d23d8d8	0.04000172
214	0x3da52269	0.08063204
215	0x3dff3058	0.12460393
216	0x3c0447ed	0.008073789
217	0xbce5190e	-0.027966049
218	0xbdd4c43d	-0.10388992
219	0x3e029f16	0.12755999
220	0x3e3a3afb	0.18186562
221	0x3e18db1f	0.14927338
222	0xbd6c1fc1	-0.05764747
223	0x3e1eb529	0.15498795
224	0x3d004530	0.031315982
225	0x3e0d7dac	0.13817471
226	0x3e106be3	0.14103656
227	0xbd052f38	-0.032515734
228	0x3cfc4132	0.030792806
229	0x3dcb9d22	0.0994208
230	0xbd22946d	-0.03969233
231	0x3e365d12	0.17808941
232	0x3e314c1c	0.1731419
233	0x3e35829f	0.17725609
234	0x3d776526	0.060399197
235	0xbcb8d96e	-0.022564616
236	0xba77046d	-0.0009422962
237	0x3d5c6723	0.053809296
238	0x3ce9238f	0.028459338
239	0x3e29e1f8	0.16590106
240	0x3e09a567	0.13442002
241	0x3cb06512	0.02153257
242	0xbcf6fc0f	-0.030149488
243	0x3ddb7a92	0.10716738
244	0x3e412526	0.18861827
245	0xbd02a5ec	-0.031896517
246	0xbd07ad4f	-0.033124264
247	0x3cbc5f65	0.022994706
248	0x3db04824	0.0860751
249	0xbcebea63	-0.028798288
250	0x3de96f14	0.113981396
251	0x3deb6e28	0.1149562
252	0xbcaaa1c7	-0.020829095
253	0x3cdd8dac	0.027045093
254	0x3b9b5b81	0.0047411327
255	0x3e221f70	0.15832305
