logs/4birds_CF_combined_log_linear_gru64_30epochs/2025-05-19_18-29-52/best_4birds_CF_combined_log_linear_gru64_30epochs.pth (torch, 461458 bytes, 199 tensors)

combined_log_linear_spec.filter_bank f4 [64, 513]
00000000: 0000 0000 0000 0000 0000 0000 0000 0000
00000010: 0000 0000 0000 0000 0000 0000 0000 0000
00000020: 0000 0000 0000 0000 0000 0000 0000 0000
00000030: 0000 0000 0000 0000 0000 0000 0000 0000
00000040: 0000 0000 0000 0000 0000 0000 0000 0000
00000050: 0000 0000 0000 0000 0000 0000 0000 0000
00000060: 0000 0000 0000 0000 0000 0000 0000 0000
00000070: 0000 0000 0000 0000 0000 0000 0000 0000
00000080: 0000 0000 0000 0000 0000 0000 0000 0000
00000090: 0000 0000 0000 0000 0000 0000 0000 0000
000000a0: 0000 0000 0000 0000 0000 0000 0000 0000
000000b0: 0000 0000 0000 0000 0000 0000 0000 0000
000000c0: 0000 0000 0000 0000 0000 0000 0000 0000
000000d0: 0000 0000 0000 0000 0000 0000 0000 0000
000000e0: 0000 0000 0000 0000 0000 0000 0000 0000
000000f0: 0000 0000 0000 0000 0000 0000 0000 0000
00000100: 0000 0000 0000 0000 0000 0000 0000 0000
00000110: 0000 0000 0000 0000 0000 0000 0000 0000
00000120: 0000 0000 0000 0000 0000 0000 0000 0000
00000130: 0000 0000 0000 0000 0000 0000 0000 0000
00000140: 0000 0000 0000 0000 0000 0000 0000 0000
00000150: 0000 0000 0000 0000 0000 0000 0000 0000
00000160: 0000 0000 0000 0000 0000 0000 0000 0000
00000170: 0000 0000 0000 0000 0000 0000 0000 0000
00000180: 0000 0000 0000 0000 0000 0000 0000 0000
00000190: 0000 0000 0000 0000 0000 0000 0000 0000
000001a0: 0000 0000 0000 0000 0000 0000 0000 0000
000001b0: 0000 0000 0000 0000 0000 0000 0000 0000
000001c0: 0000 0000 0000 0000 0000 0000 0000 0000
000001d0: 0000 0000 0000 0000 0000 0000 0000 0000
000001e0: 0000 0000 0000 0000 0000 0000 0000 0000
000001f0: 0000 0000 0000 0000 0000 0000 0000 0000
00000200: 0000 0000 0000 0000 0000 0000 0000 0000
00000210: 0000 0000 0000 0000 0000 0000 0000 0000
00000220: 0000 0000 0000 0000 0000 0000 0000 0000
00000230: 0000 0000 0000 0000 0000 0000 0000 0000
00000240: 0000 0000 0000 0000 0000 0000 0000 0000
00000250: 0000 0000 0000 0000 0000 0000 0000 0000
00000260: 0000 0000 0000 0000 0000 0000 0000 0000
00000270: 0000 0000 0000 0000 0000 0000 0000 0000
00000280: 0000 0000 0000 0000 0000 0000 0000 0000
00000290: 0000 0000 0000 0000 0000 0000 0000 0000
000002a0: 0000 0000 0000 0000 0000 0000 0000 0000
000002b0: 0000 0000 0000 0000 0000 0000 0000 0000
000002c0: 0000 0000 0000 0000 0000 0000 0000 0000
000002d0: 0000 0000 0000 0000 0000 0000 0000 0000
000002e0: 0000 0000 0000 0000 0000 0000 0000 0000
000002f0: 0000 0000 0000 0000 0000 0000 0000 0000
00000300: 0000 0000 0000 0000 0000 0000 0000 0000
00000310: 0000 0000 0000 0000 0000 0000 0000 0000
00000320: 0000 0000 0000 0000 0000 0000 0000 0000
00000330: 0000 0000 0000 0000 0000 0000 0000 0000
00000340: 0000 0000 0000 0000 0000 0000 0000 0000
00000350: 0000 0000 0000 0000 0000 0000 0000 0000
00000360: 0000 0000 0000 0000 0000 0000 0000 0000
00000370: 0000 0000 0000 0000 0000 0000 0000 0000
00000380: 0000 0000 0000 0000 0000 0000 0000 0000
00000390: 0000 0000 0000 0000 0000 0000 0000 0000
000003a0: 0000 0000 0000 0000 0000 0000 0000 0000
000003b0: 0000 0000 0000 0000 0000 0000 0000 0000
000003c0: 0000 0000 0000 0000 0000 0000 0000 0000
000003d0: 0000 0000 0000 0000 0000 0000 0000 0000
000003e0: 0000 0000 0000 0000 0000 0000 0000 0000
000003f0: 0000 0000 0000 0000 0000 0000 0000 0000
0.0 0.0 0.0 0.0 0.0 0.0 0.0 0.0
0.0 0.0 0.0 0.0 0.0 0.0 0.0 0.0
0.0 0.0 0.0 0.0 0.0 0.0 0.0 0.0
0.0 0.0 0.0 0.0 0.0 0.0 0.0 0.0
0.0 0.0 0.0 0.0 0.0 0.0 0.0 0.0
0.0 0.0 0.0 0.0 0.0 0.0 0.0 0.0
0.0 0.0 0.0 0.0 0.0 0.0 0.0 0.0
0.0 0.0 0.0 0.0 0.0 0.0 0.0 0.0
0.0 0.0 0.0 0.0 0.0 0.0 0.0 0.0
0.0 0.0 0.0 0.0 0.0 0.0 0.0 0.0
0.0 0.0 0.0 0.0 0.0 0.0 0.0 0.0
0.0 0.0 0.0 0.0 0.0 0.0 0.0 0.0
0.0 0.0 0.0 0.0 0.0 0.0 0.0 0.0
0.0 0.0 0.0 0.0 0.0 0.0 0.0 0.0
0.0 0.0 0.0 0.0 0.0 0.0 0.0 0.0
0.0 0.0 0.0 0.0 0.0 0.0 0.0 0.0
0.0 0.0 0.0 0.0 0.0 0.0 0.0 0.0
0.0 0.0 0.0 0.0 0.0 0.0 0.0 0.0
0.0 0.0 0.0 0.0 0.0 0.0 0.0 0.0
0.0 0.0 0.0 0.0 0.0 0.0 0.0 0.0
0.0 0.0 0.0 0.0 0.0 0.0 0.0 0.0
0.0 0.0 0.0 0.0 0.0 0.0 0.0 0.0
0.0 0.0 0.0 0.0 0.0 0.0 0.0 0.0
0.0 0.0 0.0 0.0 0.0 0.0 0.0 0.0
0.0 0.0 0.0 0.0 0.0 0.0 0.0 0.0
0.0 0.0 0.0 0.0 0.0 0.0 0.0 0.0
0.0 0.0 0.0 0.0 0.0 0.0 0.0 0.0
0.0 0.0 0.0 0.0 0.0 0.0 0.0 0.0
0.0 0.0 0.0 0.0 0.0 0.0 0.0 0.0
0.0 0.0 0.0 0.0 0.0 0.0 0.0 0.0
0.0 0.0 0.0 0.0 0.0 0.0 0.0 0.0
0.0 0.0 0.0 0.0 0.0 0.0 0.0 0.0

phi.initial_conv_module.0._layers.0.conv.weight f4 [64, 64, 1]
00000000: 103f 9a3d 5600 ab3d c0bd 4abd 55ae c13d
00000010: c3f9 42bd 40a6 a33b f303 a6bd 65c7 593d
00000020: 5331 b83d 872b e5bd 4708 b53d f979 4f3b
00000030: e7a9 933d 522d 58bb 1ffa 233d 5619 1bbd
00000040: d4de 9b3d 4997 e5ba c4e4 a0bd d88f 3e3c
00000050: 1755 9fbd abdb 0ebd 5b5d 91bd 345c 803d
00000060: a66e f3bd 0567 9fbd 895d 63bd 234b c3bd
00000070: 0415 0abc 8418 13be 99b6 bd3d e167 01be
00000080: 9f29 9c3d 9b7d 163a 0009 79bd b079 693d
00000090: 1bb7 43ba f05b a53d a701 d7bb 2042 74bd
000000a0: 45c9 5a3c 61a2 5dbd f494 043d 7914 bb3d
000000b0: cc0e 553d 9b4d 99bd 9ca6 543d bb0c 0c3b
000000c0: 441b 313d a266 c5bd 9061 13be 354c 8cbd
000000d0: b7b6 edbd e993 a83d e832 813c 472e 013d
000000e0: 5a18 9e3c 6078 b7bc b7de 9e3d 5441 dfbd
000000f0: b668 4abc 6b18 d8bd a7ff 953c 7f2e 09be
00000100: fd4a 27bb 07f8 88bd 0a9e 803d 3b54 ebbd
00000110: 5246 ecbd ae48 ecbd de8b 923d e5dd 513a
00000120: 369e a23d 706e 13be 9cc1 28be 45f0 0dbe
00000130: 08cd ffbd 3919 203c a1c2 7f3b 7a02 813d
00000140: 9bcf d7bd 2c0e 01be 0a90 d03c 5518 bbbd
00000150: 8a5b 0f3d 5a61 90bd 1403 fb3c 733f 0dbe
00000160: 31cc d4bd 92e7 33bb 6658 6cbc 62e6 94bd
00000170: 63cd 093d 2caa 343d 459e 06be 1646 dcbd
00000180: 26b2 963d 2302 aabd 4861 aebd f4a5 25be
00000190: 2434 e6bd b6bc 1dbc 47db 6abd a0b5 06be
000001a0: 204a 1bbd 0c3b 01be 0a64 16be 4e92 e0bd
000001b0: bdd2 19be f898 f6bd 572d ac3d 283d 8dbc
000001c0: d503 19bb 032e 21be f8b9 fbbd 50d6 a8bd
000001d0: 9a83 aebc 0f6d 1abe 4eeb c1bd 09db ecbd
000001e0: 5ae0 25bd 34e1 b2bd 3fc3 4abd 6888 00be
000001f0: a2a7 01be 18f3 e8bd d940 abbd 24ff acbd
00000200: 0363 c43d c5f9 09bd 93ff c93d 552f f63c
00000210: 53e8 eabd 14ea 9e3d 7439 31bd ed98 68bd
00000220: a0a0 e6bd 0f50 08be ef1b dc3c b933 14bd
00000230: a5e2 223d 6638 e4bd 92cf ab3d 3b0e cebd
00000240: 5b8c f9bc 8709 8d3c b5db 633d a769 bc3d
00000250: 34f0 d63d 321f ddbd 50d9 b83c ec46 80bd
00000260: 54f7 b8bc 00c0 d1bd 9de9 d63d 7707 cebd
00000270: 3e2c 6d3d 217e 0f3d f3ef 013d 3790 9cbd
00000280: af6c d63d 212d 983c 7fa2 eb3b 22ba f3bd
00000290: 727a 323d 1d5c e2bc 7071 87bd 8ba0 c93d
000002a0: 3b73 9b3c b8cb 9fbd 54bb 93bd 9056 73bc
000002b0: c868 793d 8a2f 27bd f838 a4bd 88ab 53bd
000002c0: 4863 d1bd a626 123d b0e6 b33d d690 01be
000002d0: cbf8 a43c 4308 643d 72b0 613c 53ac 5abd
000002e0: 4dc5 663d 1d99 683d 1801 1b3d 3dab fcbc
000002f0: 08ee 2bbd 53f1 923b af9f fdbc a28d 03be
00000300: 3ddb 933d 0133 cc3d a548 a4bc 4a13 12bd
00000310: fe01 c0bb 0c21 78bc 6d2c b73c 22ee df3c
00000320: a52c f8bd 8d5b 5cbd 3bc8 c73d 2fed 273d
00000330: feb6 63bc 660a aabd 6351 acbd 44fa f4bd
00000340: 184f 46bd bd61 0d3d 6273 933d b7d9 4c3d
00000350: a6f3 f1bd 53a5 a9bd 5c7f e0bc c4d3 e73d
00000360: 724a 2a3c 2d07 24bd fb4a 343d ba6b 62bd
00000370: 6863 b5bd 9e10 ab3d 501b 84bd a514 06bd
00000380: 4b2a 07be d18c 9b3d a82a b23d e112 1b3d
00000390: 522e c2bd 9c28 06be 5596 dfbd c81c af3d
000003a0: 4545 563d 4d9f c73d 0aac 6c3d a926 c43c
000003b0: d3ed 11bc 7a5c d2bd f5ff eabd 1f1c ffbd
000003c0: 9910 323d a063 8dbd a17b 06bd e006 a3bd
000003d0: 077c f9bc 0edc c3bd cef6 b6bd 5650 0a3d
000003e0: 9996 37bd 4a43 8e3d d5ab 43bd 7b77 cbbd
000003f0: e98f f3bc 05cc 8bbd 4a10 3cbd ce5e 5cbe
0.075315595 0.083496734 -0.049497366 0.09457079 -0.047601473 0.004994184 -0.08106222 0.053168673
0.08993783 -0.11189943 0.088394694 0.0031658395 0.07210141 -0.0032985997 0.040033456 -0.03786596
0.076108605 -0.00175164 -0.078561336 0.011630975 -0.077799015 -0.03487746 -0.07097884 0.06267586
-0.11886339 -0.07783321 -0.055509124 -0.095358156 -0.008427862 -0.1436482 0.09263343 -0.12637283
0.07625126 0.00057407626 -0.0607996 0.057000816 -0.00074659445 0.08074176 -0.0065614763 -0.059633374
0.01335365 -0.054109935 0.032368615 0.09134764 0.052016065 -0.07485505 0.051916704 0.0021369893
0.043238893 -0.09638716 -0.14392686 -0.06850473 -0.11607116 0.082313366 0.015771344 0.031538274
0.019298721 -0.022396266 0.07757323 -0.10901132 -0.012354067 -0.10551532 0.018310381 -0.13396643
-0.0025526874 -0.066879325 0.062801436 -0.11490675 -0.1153685 -0.115373 0.07155584 0.0008005782
0.079403326 -0.14397597 -0.16480106 -0.13861187 -0.124902785 0.009771639 0.003902592 0.062993005
-0.105376445 -0.12603062 0.025459308 -0.091355 0.034999408 -0.07049818 0.030641116 -0.13793735
-0.10390509 -0.002745126 -0.014425373 -0.072705045 0.033643138 0.0441076 -0.13146313 -0.10755555
0.07358198 -0.08301189 -0.08514649 -0.16176587 -0.11240414 -0.009627512 -0.057338025 -0.13155222
-0.037912488 -0.12620181 -0.146866 -0.109654054 -0.15021797 -0.12040895 0.084070854 -0.017241076
-0.0023348231 -0.15740208 -0.1229133 -0.08244002 -0.021302987 -0.15080665 -0.09468709 -0.11565215
-0.04049716 -0.0873436 -0.049502607 -0.12552035 -0.12661603 -0.113744915 -0.08361978 -0.08447102
0.095891975 -0.033685464 0.098632 0.030051867 -0.114700936 0.077594906 -0.043267682 -0.056786466
-0.112611055 -0.1331179 0.026868789 -0.03618214 0.039766926 -0.1114357 0.083892 -0.10061308
-0.030462435 0.017216457 0.05562945 0.09199839 0.10495034 -0.10796966 0.02256456 -0.06263527
-0.022578873 -0.10241699 0.10493777 -0.100600176 0.05790352 0.035032395 0.031722974 -0.07644694
0.104699485 0.018576207 0.007191002 -0.119007364 0.043573804 -0.027631814 -0.06613433 0.09845074
0.018975845 -0.07802528 -0.072134644 -0.014852181 0.060890943 -0.04081682 -0.080186784 -0.051677257
-0.102240145 0.03568139 0.087842345 -0.12652907 0.020138165 0.05567194 0.013774978 -0.053386997
0.056340504 0.056786645 0.03784284 -0.030843372 -0.04197505 0.0044843345 -0.030959932 -0.12846997
0.07219551 0.09970666 -0.02005417 -0.035662927 -0.0058596125 -0.015144598 0.022360051 0.02733523
-0.1211789 -0.053798247 0.09754988 0.04099768 -0.013898609 -0.083027646 -0.08413961 -0.11961797
-0.048415273 0.03451704 0.07199742 0.050012317 -0.118140504 -0.08283486 -0.02740448 0.11319688
0.010393726 -0.040045906 0.04401682 -0.055278517 -0.08856851 0.08352779 -0.06450522 -0.032734532
-0.13199727 0.07595218 0.08699542 0.0378598 -0.09481491 -0.13101429 -0.109173454 0.085504115
0.052312154 0.09747181 0.057781257 0.023944216 -0.008906799 -0.10271545 -0.11474601 -0.124565355
0.04347286 -0.069037676 -0.032832745 -0.07960296 -0.030454649 -0.095634565 -0.08933793 0.03376802
-0.044821355 0.06946428 -0.047771294 -0.099348985 -0.029731708 -0.06826023 -0.045913972 -0.2152054

phi.initial_conv_module.0._layers.1.weight f4 [64]
00000000: 84a1 913f cc06 5d3f 2769 5e3f b9fc 543f
00000010: 19a9 883f dd5d 8a3f 1585 773f f2bc 4f3f
00000020: 6551 513f e759 5f3f 9241 8f3f 17da 733f
00000030: e909 6b3f f71c 6b3f c693 973f a58e 6d3f
00000040: 5fdc 803f 29e7 9a3f 4c15 7a3f 33eb 703f
00000050: 90b7 793f 09ae 763f 49e0 813f a56f 8f3f
00000060: 12c2 9e3f d25e 853f e301 813f 5dd4 5a3f
00000070: 4c98 a13f 668f 893f e534 5e3f 7d45 993f
00000080: f4ca 813f 67dd 863f 1f09 493f 35f6 8e3f
00000090: ecc6 8a3f 7626 423f 956d 493f f078 2f3f
000000a0: 0be2 5e3f 1dee 6d3f c989 743f 357c 483f
000000b0: 1637 7c3f 3626 923f 0a78 993f 818c 853f
000000c0: 12b3 593f acd9 973f c0db 813f 2f59 743f
000000d0: b7a6 863f 2eaf 7c3f a4e4 383f c118 823f
000000e0: d5b8 8f3f bbaf 943f 7cd7 983f 5e07 873f
000000f0: 8e36 953f 21d8 893f b1ab 933f f539 8a3f
1.1377416 0.86338496 0.868792 0.83198124 1.0676605 1.0809895 0.9668744 0.8114768
0.81764823 0.87246555 1.1191885 0.95254654 0.91811997 0.9184107 1.1841972 0.92795783
1.0067252 1.2101794 0.97688746 0.94108886 0.9754572 0.96359307 1.0146571 1.1205946
1.2402976 1.0419562 1.0078701 0.8548029 1.2624602 1.0746887 0.8679946 1.1974331
1.0140061 1.0536317 0.7852954 1.1168886 1.0841956 0.75839937 0.78682834 0.6854391
0.87063664 0.9294146 0.95522743 0.78314525 0.98521554 1.1417911 1.1989758 1.0433503
0.85038865 1.1863303 1.0145187 0.95448583 1.0519627 0.98704803 0.7222388 1.0163804
1.1228281 1.1616129 1.1940761 1.0549123 1.1657274 1.0769082 1.1536771 1.0798937

phi.initial_conv_module.0._layers.1.bias f4 [64]
00000000: dee7 d83c 7c01 af3d 8ea6 3b3e db01 23bd
00000010: e475 6fbe a731 10be 5115 a4bd 8d84 ecbd
00000020: 50e4 083e f65d 5dbd e059 09bc 19e4 1d3e
00000030: 6397 a43c 5e70 94bc 408f b5bd 750c fe3d
00000040: 1273 23be 97b7 573d cab8 22be 2505 5dbe
00000050: 0a29 dcbd ebba 433d abcf 85bd 9601 1ebd
00000060: a2c5 333e c488 6abe 8832 673d a86c 8d3d
00000070: b139 ab3c b914 9c3d 0645 123c 197b 003e
00000080: 3ea5 88bd d0e4 90bd dc0a 3f3e 7fae 013c
00000090: 1956 38be de56 bcbb 1434 72bd 1230 593c
000000a0: 7436 113e 5838 d9bd 782d a13c 6751 db3d
000000b0: b3d1 17be 9b56 61be 3b38 66be e5ff 03be
000000c0: 651c 263e f61d 2bbe 7dd6 733d f315 993d
000000d0: 8e32 1ebd bdde 893c d7a8 c63a 45d0 10be
000000e0: 45c3 97bd 19f4 06be 5aa8 583d cd3d 023c
000000f0: 60b5 a43d 493d eabd 3b49 9fbd 69ad 9e3d
0.02647775 0.08545205 0.18325254 -0.03979669 -0.23384815 -0.14081441 -0.08011878 -0.115487196
0.13368344 -0.054044686 -0.008383244 0.15419044 0.020091718 -0.018119987 -0.088652134 0.1240472
-0.15961865 0.05266532 -0.15890804 -0.21583994 -0.10750015 0.04778568 -0.0653375 -0.03857573
0.1755586 -0.22903734 0.056444675 0.0690549 0.020901533 0.0762114 0.008927589 0.12546958
-0.066721424 -0.070748925 0.18656486 0.007915138 -0.18001594 -0.00574766 -0.059131697 0.01325609
0.14180928 -0.1060645 0.019675002 0.10708886 -0.14826088 -0.22005694 -0.22482388 -0.12890585
0.16221769 -0.16710648 0.059530724 0.074748896 -0.03862243 0.016829843 0.0015156519 -0.14141949
-0.074102916 -0.13179053 0.052894928 0.007949305 0.08042407 -0.114374705 -0.077776395 0.07747919

phi.initial_conv_module.0._layers.1.running_mean f4 [64]
00000000: 2149 73bf 0ed4 1cbe 243e 6bbf 4c2d bebf
00000010: ea27 443f 5efa ae3f 56c6 f13e a239 adbf
00000020: 27a0 d1be dce2 f03d ac26 b7bf 880e 99bf
00000030: 4950 1dbf 60cf f73e 4795 623f cfdb 78bf
00000040: 628f 773f 2af7 aa3f d17e 833f f7b1 733f
00000050: 74a6 873e 0198 6bbe 8432 833e a988 91bf
00000060: 03cc 643f 99f1 813f ce94 f7be 923f b2bf
00000070: 9f6d c63f eabe 73bf 595f 1c3f 9bda cf3f
00000080: 7b08 66be 8ba9 aabf a15e 453f 1713 7b3e
00000090: 13a7 9f3f 2a8b 6e3e 1f09 be3e ab5f 0fbf
000000a0: 9c43 39bf 873c 0c3f 9316 0bbf 8019 d1be
000000b0: d200 283f 2759 9a3f 3b1f 853f a233 943f
000000c0: 0f65 84bf e6ad 3a3f c7f1 9ebf 1549 383e
000000d0: 32ce 1a3f e1d7 ecbe fa39 563e d2bb 7f3f
000000e0: e881 573f 0469 c93f c826 c63f 896c 26bf
000000f0: 6b3b d1bf bde6 7e3f 7a23 3e3f 2c21 39bf
-0.9503346 -0.15315267 -0.91891694 -1.4857574 0.76623404 1.3670156 0.4722163 -1.3533213
-0.409425 0.1176202 -1.4308677 -1.195756 -0.6145063 0.48400402 0.8850903 -0.972104
0.9670316 1.3356678 1.0273076 0.9519343 0.2649418 -0.23007204 0.25624478 -1.136983
0.893738 1.0151855 -0.48355716 -1.392565 1.5502204 -0.95213187 0.6108299 1.6238588
-0.22464173 -1.333299 0.7709752 0.24519001 1.2472862 0.23295274 0.37116334 -0.5600535
-0.7236879 0.5477986 -0.5433132 -0.40839767 0.6562625 1.2058457 1.0400156 1.1578257
-1.0343341 0.729216 -1.2417535 0.17996629 0.6047088 -0.46258453 0.20920554 0.99895966
0.84182596 1.5735173 1.5480585 -0.6500936 -1.6346258 0.9957083 0.7427288 -0.7231624

phi.initial_conv_module.0._layers.1.running_var f4 [64]
00000000: 890b 2f3d 49b2 673b 7645 233d 91b6 d73d
00000010: c621 c93c acc6 b23d f8a8 4f3c 53fa a73d
00000020: 4b53 233c 9792 a03a c5d0 bf3d 526c 713d
00000030: c297 7e3c d068 1c3c fff7 0a3d cc72 3b3d
00000040: f4e7 2e3d 24c2 b03d 995c 323d ecce 1a3d
00000050: 4188 733b f7a1 503b f749 8e3b 8870 713d
00000060: 09a3 1e3d e5fd 2e3d eca4 4a3c 2e3e a73d
00000070: e77f e33d b739 243d 678a 873c 24ea f53d
00000080: 86ba 5d3b bf63 ad3d 3517 c63c 7fb6 7b3b
00000090: 176d 843d 9e27 643b b43e b93b 972c 603c
000000a0: 74ce af3c c1e7 483c f21c 423c 7ca6 0e3c
000000b0: 1b6f 923c 6e93 773d 1bca 3b3d 7486 7c3d
000000c0: 1fc6 433d 5b17 b63c a76c 8f3d 922c 283b
000000d0: f3e0 813c 5c47 0d3c c80b 043b d3d8 4a3d
000000e0: 8e79 0b3d 9ab5 e33d 49dc de3d 85f0 8a3c
000000f0: f065 013e 3ac3 2f3d 4310 c83c 7f5a ba3c
0.04273561 0.003535407 0.039861165 0.10532869 0.024552237 0.087293 0.012674563 0.082020424
0.009968589 0.0012250718 0.093659915 0.058941193 0.015539112 0.009546474 0.033927914 0.045763776
0.042701676 0.086307794 0.04354534 0.037794992 0.003716007 0.003183482 0.0043423134 0.05894521
0.0387297 0.0427226 0.012368422 0.08166157 0.1110838 0.040094104 0.016545488 0.120075494
0.00338331 0.08466291 0.024180988 0.0038408337 0.0646612 0.0034813653 0.0056532267 0.013682506
0.02146075 0.012262286 0.011847721 0.008706685 0.017875245 0.060443334 0.04584704 0.061651662
0.047796365 0.022227934 0.07003146 0.0025661332 0.015854334 0.00862297 0.0020148624 0.049523186
0.03405147 0.11118622 0.1088186 0.016960392 0.12636542 0.042910792 0.024421817 0.02274823

phi.initial_conv_module.0._layers.4.conv.weight f4 [64, 1, 5]
00000000: bba2 95be f095 ce3e bdcc d73e 8803 b23e
00000010: e1bf 0dbe 7fc4 b33e d546 a1be dd3c 6b3e
00000020: a163 18bd 3958 b9be e0b3 9abd 5b46 dfbd
00000030: a756 b73d b464 12bf 4916 b5be 3204 ff3e
00000040: 4d36 91bd e3ce 543e 418f 73bd 232e 3d3e
00000050: 6eb1 fc3d bf20 923e 4a5b 3f3e 41a7 d1bd
00000060: 9862 c03e 6b0c c7bc 2584 49be 5136 fd3d
00000070: 948b d9bd 234b bbbe 50e4 b03d c8fc 80bd
00000080: 684e 87bd 3dbb 9bbd 46d5 4cbe a7ab ecbd
00000090: 6402 d33d 6d45 f53e b2a8 65be 0357 32be
000000a0: a123 23be 86c2 f43d e28d 933d 6108 c1be
000000b0: b1de 713e 8c86 b8be 9d1f e13e c991 be3d
000000c0: 4eb0 26bd dff0 1dbe b892 4e3e ccf0 a03e
000000d0: d624 b0be 46be 18be 683b 963e 66ff 72bd
000000e0: f97b 78be c429 8fbe e471 f7bd 601a e6bd
000000f0: 24e5 6cbe 81ac 34be 1634 643e c8cc da3e
00000100: 746c d83e ee31 cbbd 80f6 c13d 7335 e9be
00000110: e599 393e b044 a23e 0acc 8a3e 7493 0fbe
00000120: 7090 ba3e 1536 e6be 3763 98bd 5e41 c63d
00000130: 6fdc 7cbe d4a1 43be 1bd6 0bbf 5963 c13d
00000140: 29f0 853c 2cd1 2c3e d63d 2cbe e65c 653e
00000150: c0fb bcbc 2426 c23e 0b46 ab3e acee dfbe
00000160: fd26 c8be d038 2f3e f48a ec3e 39a3 61be
00000170: 08ba 063e 9ed0 a3bd 0f6a e93e 79f5 e23e
00000180: 3b07 533e 0bd5 483e db70 9ebd 2fc3 c93e
00000190: 6fcd 01ba 80db 4d3e e43e a03c 7142 4dbe
000001a0: 3191 f1bd 0c6d 4b3e 9ac3 bb3c 3aae 8ebe
000001b0: 59f8 3bbd e21a d53d 48cc 70be 58a6 a23e
000001c0: c143 ddbe f73e 8f3c 2683 b8be 835c dfbe
000001d0: 9bb0 a7bd 6ae9 c83e db46 ce3e 2fe8 1a3e
000001e0: 87fd bf3e 8aa2 73be 1d77 613e 1dc4 523e
000001f0: d049 04bf f262 81be a053 9b3e 70d4 e73d
00000200: 5bc7 94be 550f a7be f2d0 383e 16d4 4dbd
00000210: 526a 91bd 2285 f6be 7644 da3e 2ef4 88be
00000220: c8d3 743e 778f 7fbc 8c94 5a3d 35c7 793e
00000230: 4864 29be 4060 26be a3db c03e 525d 9abe
00000240: 9a24 863e b635 67bd f346 6abe 467a 963e
00000250: 990e 1a3e 5edd babe 4abc 793e fc61 90be
00000260: ee61 aa3e 86a2 52be c1d0 d43e c45d 353e
00000270: 3079 c23c 9cae 223e d4c6 90bd 7f3a 91be
00000280: 1470 743e cd09 783e 7899 b33b b9b9 ef3e
00000290: dc7e f53c c197 3ebe 6d2e 41be 2f2b b83e
000002a0: e115 fbbd f011 b33e 4d16 cdbe 2cf7 783d
000002b0: 9274 85be 45c2 5d3e 74ac d53e 2163 8b3e
000002c0: 41cc c3bd e1fb cfbe 5275 19be 6313 ecbd
000002d0: 205b da3e 4ae0 98be c910 2c3e fa42 c03e
000002e0: 5c96 563d 3da7 babe d56c 37bc 7ca0 8ebd
000002f0: 2eee b53e fdbc 0d3d 4404 fbbd 60b2 8b3e
00000300: 8244 fa3c bc1d 343e 87dd 2abe 7258 973e
00000310: d9fe 5e3d 14ba ddbd 6745 713d 2f1f c2be
00000320: e7bd 1c3c c486 593e 4ac0 d9be 0d11 8fbe
00000330: 57c3 873e 3e22 0cbc 2ada 08bd 2e93 bc3c
00000340: a2f6 68be 4dd1 a23e 2570 53bc 1a59 1cbe
00000350: 24de 4c3e 8b09 e0be c734 02be 7eab 1f3e
00000360: 90bc f6bc f8e6 8e3e c818 cebe 161a 98bd
00000370: b36a 5bbe 0dcd d03e 9fd7 293e 59bc 95be
00000380: b646 663e 13f4 eb3d 0a23 de3e c149 ae3e
00000390: f0af 46be bbb5 d53e 818b f4bd 5abd 14be
000003a0: 5756 0b3e 5ede 1a3f 5039 c53d c200 9bbe
000003b0: 91df 3cbd 31be 053f c665 bbbd 4bbc 35be
000003c0: 0744 bdbe 8a6d 42be f40e 65be 6615 c93d
000003d0: 5673 663e 5061 c83e fa83 8e3e 6d63 193e
000003e0: e278 b63e 7dfb 8e3e a8f2 93be 770f 383e
000003f0: a47e abbe e3c8 a73e d9b1 92be 73fc c03d
-0.29225716 0.40348768 0.4214839 0.3476832 -0.13842727 0.35110852 -0.31499353 0.22972436
-0.03720439 -0.3620012 -0.0755384 -0.10902091 0.089520745 -0.5718491 -0.35368565 0.49807888
-0.07090435 0.20782046 -0.05946279 0.18474631 0.123385295 0.28540608 0.18687168 -0.10236979
0.3757522 -0.024297914 -0.19679315 0.12363876 -0.106223255 -0.36580762 0.08637297 -0.06298214
-0.06606752 -0.07604072 -0.20003232 -0.115561776 0.1030319 0.4790453 -0.22427633 -0.17416005
-0.1593156 0.11951165 0.072047964 -0.37701705 0.23620106 -0.3604015 0.43969432 0.0930515
-0.04069548 -0.15423916 0.20173156 0.31433713 -0.34403104 -0.14916334 0.29342198 -0.0593256
-0.24266042 -0.27961552 -0.1208227 -0.112354994 -0.23134285 -0.1764393 0.22285494 0.4273436
0.42270243 -0.09921633 0.09470844 -0.4554859 0.18125112 0.3169303 0.27108794 -0.14021093
0.36438322 -0.44963136 -0.07440799 0.096804366 -0.24693464 -0.19104701 -0.54623574 0.09442777
0.016349869 0.16876668 -0.16820464 0.22398719 -0.023069263 0.37919724 0.33451876 -0.4373678
-0.39092246 0.17111516 0.46199763 -0.22034921 0.13156903 -0.07998775 0.4558873 0.44327906
0.20608227 0.1961252 -0.07736369 0.39406726 -0.00049515715 0.20103264 0.019561239 -0.20044877
-0.11795271 0.19865817 0.022920419 -0.278673 -0.04589114 0.10405518 -0.23515427 0.31767535
-0.43215755 0.017486079 -0.36037558 -0.43625268 -0.08187982 0.3924058 0.40288433 0.15127634
0.37498114 -0.23792472 0.22018094 0.20582624 -0.5167513 -0.25270802 0.30337238 0.11319816
-0.29058346 -0.32628885 0.18048456 -0.05025109 -0.07100357 -0.48148447 0.42630357 -0.26748794
0.23908913 -0.0155981695 0.05336432 0.24392398 -0.1654216 -0.16247654 0.3766757 -0.30149323
0.261998 -0.056447707 -0.22878627 0.29390162 0.15044631 -0.36497015 0.24388233 -0.28199756
0.3327784 -0.2056981 0.41565517 0.1771155 0.023739427 0.1588692 -0.070691735 -0.2836494
0.2387088 0.24222489 0.0054809414 0.46821383 0.029967718 -0.18612577 -0.18865366 0.35970446
-0.122600324 0.34974623 -0.40056077 0.060782596 -0.260655 0.21656139 0.41733134 0.27224067
-0.09560443 -0.40621856 -0.1498616 -0.11527135 0.42647648 -0.2985862 0.16803278 0.375511
0.052389488 -0.36455718 -0.011195381 -0.06964204 0.3553328 0.03460406 -0.12256673 0.27284527
0.030550245 0.17589468 -0.16686068 0.29559666 0.05444226 -0.10826507 0.058904078 -0.37914416
0.009566761 0.21242815 -0.42529517 -0.27942696 0.2651622 -0.008553086 -0.033411182 0.0230194
-0.22750333 0.3180031 -0.012905155 -0.15268365 0.20006615 -0.4375728 -0.12715445 0.15592763
-0.03011921 0.2791059 -0.40253282 -0.074268505 -0.21427421 0.4078144 0.16586159 -0.2924526
0.22487912 0.11521163 0.43386108 0.34040645 -0.19403052 0.41740212 -0.11940671 -0.14525357
0.13607155 0.60495555 0.09630072 -0.30274016 -0.046111647 0.52243334 -0.09150271 -0.1774761
-0.36965963 -0.18987098 -0.22368985 0.098185346 0.22504935 0.39136744 0.27835065 0.14979334
0.356391 0.27926245 -0.2889607 0.1797465 -0.33495057 0.32770452 -0.28651312 0.09423151

phi.initial_conv_module.0._layers.5.weight f4 [64]
00000000: 0525 723f 9219 973f 0721 9e3f a70f 7b3f
00000010: 0d3e 883f 7e03 813f ec3c 783f a0dd 5d3f
00000020: 7562 aa3f 45fc 533f 7b00 873f e894 8c3f
00000030: 40b7 7b3f 1b8a 6d3f 0329 8b3f 4ce4 993f
00000040: c23f 643f 4edc 8d3f 7d63 7c3f 4d08 6e3f
00000050: b0f8 723f 8df3 903f cf88 833f 2d94 803f
00000060: 9583 9d3f 7d98 7f3f b0eb 843f 4cc7 853f
00000070: d64e 9b3f 94e0 813f 5a2b 563f 3c78 943f
00000080: a1b1 6c3f 8905 8c3f ac81 913f 8d7b 833f
00000090: 1534 8b3f 4a7f 8f3f d583 683f c363 973f
000000a0: 75e2 913f 715d 663f 5e74 6e3f fb85 9b3f
000000b0: 7328 7c3f 4154 8c3f 0ce4 8c3f dfe4 7b3f
000000c0: 7ca6 9d3f 0466 923f 19cd 703f 99ca 853f
000000d0: c227 883f d0d0 6e3f c3f5 953f 28fd 6a3f
000000e0: 2148 8c3f 89c6 8d3f 571d 953f b96c 7c3f
000000f0: e5a4 813f 8b9a 7c3f 65bb 713f 8914 853f
0.9458774 1.1804678 1.2353829 0.9807076 1.0643936 1.0079191 0.9696796 0.866663
1.3311297 0.8280681 1.0547022 1.0982943 0.9832649 0.9278886 1.0871891 1.2022796
0.89159787 1.1082857 0.9858931 0.92981416 0.94910717 1.1324326 1.0276126 1.004522
1.2305781 0.99842054 1.0384426 1.0451446 1.2133434 1.0146661 0.836599 1.1599193
0.9245854 1.0939189 1.1367698 1.027208 1.0875269 1.121072 0.9082616 1.182732
1.1397234 0.8998633 0.9314631 1.2150263 0.9849922 1.0963212 1.1007094 0.98396105
1.2316432 1.1437383 0.94062954 1.0452453 1.0637133 0.9328737 1.1715626 0.91792536
1.0959512 1.1076213 1.1649579 0.986034 1.0128447 0.98673314 0.94426566 1.0396892

phi.initial_conv_module.0._layers.5.bias f4 [64]
00000000: 19b8 f6bd f20a 6c3e ae3c 923e bca4 8cbd
00000010: 483f b23c e039 a13d 8b67 953d 898b 2cbe
00000020: 89f4 943e 28a5 bcbd 76e2 c23d d65f 093e
00000030: c1ce 9bbd 3c78 c5bd 0b5a 9a3e 2d77 7ebc
00000040: 4476 57be 70d4 553e 95a0 05bd d7fc 6abd
00000050: d531 1c3d cbc7 c13d 93b8 1e3d efad a53c
00000060: ddc2 a83e 16a1 0f3d 50e2 87be 30d9 1d3e
00000070: 7953 8d3e dc40 ab3d 5cd1 2cbe f5a0 7c3e
00000080: b4b1 adbd 30cd 2d3e 5092 453e 9730 043e
00000090: 6309 adbc 97e3 dd3d 1a3e eabd beb0 af3e
000000a0: 61ec e83d 2e6f dbbc e08a ff3b d6bc 613d
000000b0: b4a9 6ebc 5bee ac3c 9b4a 793c cf70 313e
000000c0: c464 ee3d f4fa b4bc 12fa 063d a106 3e3e
000000d0: 888e 083e dd20 723d 0ab7 9c3e 34f6 053d
000000e0: 6545 903d 7e48 773e 4541 973e b7a5 df3b
000000f0: fbf3 75bd f030 ce3d aaca 29be 1b27 9a3d
-0.120468326 0.2305105 0.2856192 -0.06867358 0.02175869 0.07872367 0.0729514 -0.16850103
0.29092816 -0.092111886 0.0951585 0.13415465 -0.076077946 -0.096420735 0.30146822 -0.015531343
-0.21041209 0.2088182 -0.032623846 -0.057370033 0.03813346 0.094619356 0.038750242 0.02022454
0.3296117 0.035065733 -0.2653985 0.15414882 0.27602747 0.0836198 -0.1687674 0.24670775
-0.0848116 0.16972804 0.19294095 0.1290916 -0.02112264 0.10834425 -0.11437626 0.3431453
0.11373211 -0.026786413 0.0077985376 0.05511173 -0.014566828 0.02110975 0.015215541 0.1732819
0.11640313 -0.02209232 0.03295333 0.18557216 0.13335621 0.059113372 0.30608398 0.0327055
0.07044486 0.24148747 0.29541984 0.0068251747 -0.06004713 0.10067928 -0.16581216 0.0752699

phi.initial_conv_module.0._layers.5.running_mean f4 [64]
00000000: b442 3fbd ed45 88bc a066 47be d956 6c3d
00000010: f9f0 9dbb 8f64 dbbc 1d6f a2bc 1b2f 033b
00000020: 727f 85bc 06de 30ba 794b 2a3d f1ec 16be
00000030: f9a7 a03d 72c8 4a3b 7bcf 20bb 5e24 05be
00000040: db15 ad3b 9cad 133c a205 6b3c b4c9 39bc
00000050: f9e0 78bb dae0 3dba 8cfe 3dbd c56d 543d
00000060: 599a 323c 3499 493b 2d0a 053a 4f1d 28bc
00000070: 9ccc e83a 3fdd 0abd b9d6 463d 4ce8 3c3a
00000080: 0ac3 8e3d a3fa af3c 6481 ed3b bb08 69bd
00000090: c80f 8c3c 1b57 bcba 6063 083c c0ea f4bb
000000a0: ddf2 13bd 5948 293b 07b8 6abd 2c9e 2fbc
000000b0: d703 f63b 1e5b 2e3c 7d79 043c 4633 94bb
000000c0: dce6 a2bd 958b 713d 7428 79bd 8d71 e2bb
000000d0: c590 e0bb 0a87 92bb 9869 cdba 152e 8bbc
000000e0: c155 f3bb 6715 e1b9 2fe6 4c3a b996 81bd
000000f0: e708 cf3c 7ed9 d6bb a45a 823d 30fd 0e3d
-0.046694472 -0.016634906 -0.19472742 0.057700012 -0.004819986 -0.026781349 -0.019828374 0.002001709
-0.016296122 -0.0006746951 0.041575883 -0.14738823 0.07844538 0.0030942229 -0.002453773 -0.13002154
0.0052821464 0.00901356 0.014344605 -0.011339594 -0.003797589 -0.00072432833 -0.046385333 0.051862497
0.010901057 0.0030761482 0.00050750637 -0.010260894 0.0017761174 -0.033902403 0.04854462 0.0007206246
0.069707945 0.021481818 0.0072480906 -0.05689309 0.017097369 -0.0014369221 0.008324474 -0.0074742734
-0.036120284 0.0025830476 -0.05730441 -0.010718863 0.007507782 0.010641841 0.008085606 -0.004522714
-0.07954189 0.058971006 -0.060829595 -0.006910509 -0.0068531954 -0.0044716643 -0.0015671728 -0.016989747
-0.007425994 -0.0004293129 0.00078162825 -0.06327576 0.0252728 -0.006556689 0.063649446 0.034909427

phi.initial_conv_module.0._layers.5.running_var f4 [64]
00000000: ec01 c93d 2b2e d73c 725f 523f c242 c73e
00000010: b1d4 7d3a 8748 0a3b 2d66 ae3a cd3b 9b3b
00000020: e8f3 0e3c f323 693b 5ecf fc3d 1648 233f
00000030: 15d9 be3e 0d91 6338 a5cc 1639 922b 0a3f
00000040: 602d 6839 2bbd 803a a628 413a e08d ca3a
00000050: 25ae 2639 1382 143b a99e ff3b 2a74 813e
00000060: 670f 763a 561f 9339 26f9 a03b 48c6 1e3b
00000070: e2a7 5539 4029 513d 8c56 773a 1314 8c39
00000080: cba5 223f ce64 713d ca17 f339 131f c03d
00000090: bcfe 4b3a 851e ec3a 520f 8338 c757 a13b
000000a0: d003 1b3d 044e a237 2d8c 803e a5be aa3b
000000b0: c89a 1a39 f0be ee3a 97f5 813a a7f8 3039
000000c0: 7a7d 263e c12f 883b 01bd 2d3e 994c 9b3b
000000d0: dd97 a739 f1e5 c93a 185e 053b f97b cc3a
000000e0: db61 c539 2f7d 1139 28cb 2439 6e8e 903e
000000f0: a589 6c3d b8a8 6c38 301d 483b 47b5 7a3d
0.0981482 0.026267132 0.8217689 0.3891812 0.00096828776 0.0021100359 0.0013305597 0.0047373534
0.008725144 0.0035574406 0.1234424 0.6378187 0.37274995 5.4256107e-05 0.00014381351 0.53972733
0.00022142148 0.0009822001 0.0007368423 0.0015453659 0.00015895868 0.0022660538 0.007800896 0.2528394
0.00093864504 0.00028061372 0.0049125133 0.0024227072 0.00020375804 0.05106473 0.0009435199 0.00026717837
0.6353423 0.058934025 0.00046366296 0.09380927 0.0007781794 0.0018014467 6.2494204e-05 0.004923794
0.037845433 1.9348234e-05 0.25106946 0.005210715 0.00014744245 0.0018214863 0.000991511 0.00016877298
0.16258803 0.0041560833 0.1696663 0.0047393558 0.0003196587 0.0015403611 0.0020350274 0.0015600912
0.00037647676 0.00013874912 0.0001571594 0.28233665 0.057748456 5.6423916e-05 0.0030534975 0.061208036

phi.initial_conv_module.0._layers.7.se_conv.conv.weight f4 [10, 64, 1]
00000000: 8d03 ae3d 3dcb 63be 7b27 77be 0e98 4a3c
00000010: e2b2 b3be f192 87be e19f 4abe 9c1f cd3d
00000020: de99 ddbd c467 c2bd 73a3 81bc 97b9 93be
00000030: 8572 b0bd c93c 82bd 04df 28be 7d82 efbb
00000040: 26c0 b03a 0aba 40bc bcec 38be 226d 603b
00000050: 2b7d 93bd 6e6a f2bd 0379 2abd c13d bb3d
00000060: a674 b5bd 9955 823c 9ee5 123d a4c9 d83c
00000070: d2d8 563d 2f8e f0bd c359 0d3e 33da 493d
00000080: a518 6fbd 3411 0abe 6908 e2bd 9be2 8ebd
00000090: 5c12 50be d422 23be 528e 0bbd 476f 0bbe
000000a0: aab9 3dbe ca4f cfbc 2eef ac3c 6803 1a3d
000000b0: 0d7e 03be 617c 1cbe 1537 92bd 90b4 b7bd
000000c0: 5498 7abe 2ab7 82bd 2a10 1abe 1410 3f3d
000000d0: 9888 633d f7bd 7cbd e593 3d3d 14e0 80be
000000e0: af74 893c c012 80bd ef05 60bd affd 1bbe
000000f0: 99f8 b7bd 1095 28be bcff 3fbc 13ec e43c
00000100: 209a ddbd 29ba d1bd e0fb 4e3e e1ba 3a3d
00000110: 1a8d d1be 56d7 523e c16e 703e 939b 41be
00000120: cdf1 5ebd a1e4 113d 1190 b7bd 95b4 103e
00000130: 6fb6 c5bd 6def d7bd 77c2 9b3e 83ed ae3c
00000140: db69 2bbe d385 22be 0385 5bbe 684e 10be
00000150: 346f 833d 3811 b1ba 6ddc 4a3e 138e fbbd
00000160: bb29 c8bc 0e42 fe3d 0ddf 41be 6147 c8bc
00000170: efcd b8bd 4e67 383e 124c 6dbe ddad 173e
00000180: 17ce 28bd 74ff 23bc 2764 d5bd a992 8dbe
00000190: 3739 ebbe 3468 21be 54a2 6abd ad6b 8b3e
000001a0: a7dc 1c3d 8d53 c1bd 1318 2b3d 2e82 8ebd
000001b0: feb3 41be cdfb d8be fe01 aebe e08e 603e
000001c0: 0fb2 1a3d e9c3 61be bac6 493e 50f0 743e
000001d0: dec5 fabc 9da4 283e 2b99 423e 82b2 643e
000001e0: ddb7 053e 4e78 d13c 29d4 07bd b35e fa3d
000001f0: 33ba cabc 17b0 8f3e 4307 4abe 3967 c4bd
00000200: c5d3 9ebd 0f74 c63c 3170 a43e 8615 62be
00000210: 3e59 8fbe bf4f 3f3e 8439 663e 7f41 00be
00000220: 296c c23d 1420 c03c 30b1 a5bd 57ef 943e
00000230: 51f0 bebd e092 46be cd29 143e 8bb8 143d
00000240: 0c62 48be be2c 1ebd 0a9d 39be 6f34 a2be
00000250: 8bac 873e 465e e93c bf5f ea3d 8d51 56be
00000260: aa4e 9d3d fdf3 863d dd45 93bd 2bf8 47be
00000270: 360d 1a3e ce6c 2c3e 16df ccbd 57f4 e03d
00000280: 15f2 11be 39f4 5ebe 044f 06be e6f3 75be
00000290: 833d c2be b7b6 d93c 4db3 783d b2fe f63d
000002a0: 2530 a13e a167 85bd 8911 fe3d 2736 e73c
000002b0: 1811 5ebe 0dca 86be 0794 61be f014 423e
000002c0: 5317 413d 92c3 aebe 965a 813e 7a7f 8dbc
000002d0: ca9c 97bd f582 673e 8277 363e c3ed 363e
000002e0: 581b fe3a f339 ca3d 1339 623c 755b 823e
000002f0: b996 52be 72c2 3b3e 8e08 71be 83b8 dcbd
00000300: 1cc7 e23d e2ea 21be c467 89bb 1181 0abd
00000310: 7d76 4f3e e5f9 c23e cec9 db3e faf7 eabd
00000320: 99f1 28be 4c2d e5bd baac d83d 9532 643d
00000330: a52d 5b3e 28d4 a6bd 9b09 9d3e 0919 78bd
00000340: 6a78 adbd 4355 313e 536f 753e 6bae 513e
00000350: f490 603e a39a 35be 2623 ad3e 1291 623e
00000360: aa6e 6b3d 3450 bb3d 8299 92be 049b 563e
00000370: f51d c23d 9444 543d 8eed 0fbe 7b57 913e
00000380: eed6 0bbc 415d 453e 9bb2 e63d ed7a a4bd
00000390: b561 893e 2201 f9bc 4051 96bc 05a3 cb3d
000003a0: ed2d 543e bbf4 3f3e b037 973d 572c 87be
000003b0: bbe2 b43d 570c 873e 9eab 7f3d 2399 ca3e
000003c0: bc42 a43d 4b63 283e e38a 39be 8916 013d
000003d0: b579 713e 673b d7bc 28de c0bd 29b5 8f3e
000003e0: a8fe 6b3e 0bb7 3e3d 40e3 223e 4ef7 013e
000003f0: d923 863d ab9d 3e3e 0747 9fbd 43de 573e
0.08496771 -0.22245498 -0.24136154 0.012365354 -0.35097414 -0.26479295 -0.19787551 0.10015795
-0.108203635 -0.09492448 -0.015825009 -0.2885253 -0.08615593 -0.0635925 -0.16491324 -0.0073092566
0.0013484999 -0.011763105 -0.18059057 0.0034244736 -0.07201608 -0.11836706 -0.041619312 0.09142638
-0.088601395 0.015909957 0.03586351 0.026463337 0.05245287 -0.11745869 0.13803773 0.049280357
-0.058373112 -0.13483125 -0.1103676 -0.06976815 -0.20319504 -0.15931255 -0.034071274 -0.13616668
-0.18527856 -0.025306601 0.021110144 0.037600905 -0.12841053 -0.15281822 -0.07139412 -0.089699864
-0.24472171 -0.06382592 -0.15045229 0.046646193 0.055550188 -0.061704602 0.04628362 -0.25170958
0.016779272 -0.06253576 -0.05469316 -0.15233491 -0.08982963 -0.16463113 -0.011718687 0.0279446
-0.10820413 -0.10240585 0.2021327 0.045588378 -0.40927964 0.20589957 0.2347975 -0.18907003
-0.054429818 0.03561843 -0.08963025 0.14131387 -0.09653937 -0.10543714 0.30421802 0.021353489
-0.167396 -0.15871362 -0.21437459 -0.1409241 0.06417695 -0.001350916 0.19810648 -0.12282958
-0.024433961 0.12414943 -0.18932743 -0.024448099 -0.09023654 0.18008158 -0.2317355 0.14812417
-0.041212168 -0.010009635 -0.10419493 -0.27650955 -0.4594209 -0.15762407 -0.057283714 0.27230588
0.038296368 -0.09439764 0.041771006 -0.069584236 -0.18916318 -0.4237961 -0.33985895 0.21929502
0.037767466 -0.2204739 0.19704714 0.23919797 -0.030611929 0.16469045 0.19003741 0.2233372
0.1305842 0.025570061 -0.033161316 0.12225094 -0.02474699 0.28064033 -0.19729333 -0.09590001
-0.077552356 0.024225263 0.32116845 -0.22078523 -0.27997774 0.18682764 0.22482878 -0.12524985
0.09493286 0.023452796 -0.080904365 0.29088852 -0.093231805 -0.19391966 0.1446907 0.036308806
-0.19568652 -0.03861689 -0.18126312 -0.3168063 0.26498827 0.028487336 0.11444043 -0.20929547
0.076810196 0.06589506 -0.0719106 -0.19528262 0.15044102 0.1683838 -0.10003488 0.10984104
-0.14252503 -0.21772851 -0.1311608 -0.24018821 -0.37937555 0.026576383 0.06071787 0.12060298
0.31482044 -0.06513906 0.12405688 0.028224064 -0.21686208 -0.26326028 -0.22029124 0.189533
0.047141384 -0.34133583 0.25264424 -0.0172727 -0.07402952 0.2260855 0.17819026 0.17864136
0.0019386811 0.09874334 0.013807553 0.254604 -0.20565309 0.18335894 -0.2353842 -0.1077738
0.11073133 -0.15812257 -0.004193278 -0.033814494 0.20260043 0.3808128 0.42927402 -0.11473079
-0.16498412 -0.1119028 0.1057982 0.0557123 0.21404131 -0.08145934 0.3067139 -0.06057075
-0.08470233 0.17317681 0.23968248 0.20476691 0.21930295 -0.1773477 0.3381588 0.22125652
0.057478584 0.09146157 -0.28632742 0.20957571 0.0947837 0.051823214 -0.14055464 0.28387055
-0.00853513 0.19273855 0.11264535 -0.08031259 0.26832357 -0.030396048 -0.01834929 0.09943203
0.20720644 0.18745701 0.073836684 -0.26401016 0.08832308 0.26376602 0.062419526 0.3956996
0.08020541 0.16444127 -0.18119387 0.03151563 0.23581584 -0.026273442 -0.09417373 0.28067902
0.23046362 0.046561282 0.15907001 0.12691996 0.06549806 0.18614833 -0.07777219 0.2108088

phi.initial_conv_module.0._layers.7.se_conv2.conv.weight f4 [64, 10, 1]
00000000: dc6c 06be 346c cf3d ce99 6fbe 32f9 0fbe
00000010: 79a0 eebd b6d5 483d 2813 49be 505f 5a3e
00000020: 65ab 3ebe 9f4f 8b3c 931f 023e 5d9e fa3d
00000030: 1e44 153f b5ad 60bc 0629 733e 736a 02bf
00000040: c085 993e 2d66 04bd f865 a93e a9c1 c0bd
00000050: 2fab 073f 5d6a 4a3f e284 2e3f cae1 41be
00000060: e7a2 ab3e 9522 29bf 2c00 8e3c dea3 98be
00000070: f04e d13e d6c3 b4bc ed5b 82be ef49 dc3c
00000080: 8037 3b3e a90e 7abe 81c5 0f3e c808 62be
00000090: 84a1 2c3e 399d 603e ad23 1fbd a4e1 813e
000000a0: 8ae7 a3bc eb3f 98bd d0af b63e 936b a5be
000000b0: c143 a9bd fd88 2fbe 19bc 28bc 0137 893d
000000c0: ce27 ce3e ad4b 92bd ab80 4b3e 9136 8e3d
000000d0: 7892 0a3e 88f8 3bbe da9b 063e a2ed ceb9
000000e0: e5c8 743e 3e24 3dbe 393c 933e 9ad9 0fbe
000000f0: 302e 8f3e 9fbe 643e 57a0 02be 3462 77be
00000100: edcf 3f3d a7e1 0dbf e071 90be 0b9a 55be
00000110: 5be5 fd3e a301 c9be 9d62 0b3e fefe 523e
00000120: 5c93 1dbe 3aec 863c 328a b53d 7ce2 aabe
00000130: 8c10 5e3d 0262 b4be eb54 b03e 1be7 313b
00000140: 231e a73e 4308 383f 36f5 373f 7b72 323e
00000150: c402 c23e 723c 16bf f457 0e3f a55e 0ebe
00000160: 9a86 933e 9f31 12be 6c6f bc3e 64f8 9f3d
00000170: 1b5a 8a3e c0fd 043d 834c b33e 63d3 2cbe
00000180: 3529 e83d f8db 0a3e 012e 243d 787c 6b3e
00000190: 925c 423d 9227 163e e763 b33d f727 e83c
000001a0: cb22 cd3c 831e 4cbe 04dc a6bc 2541 0ebe
000001b0: d24e 193d 0596 9e3e 3adb 43bd 37e9 433e
000001c0: 902f 1a3f c7ac 13be 5aab fa3e 50e0 77bc
000001d0: be18 d43d bb02 ddbe 91db ce3e 300c 8e3e
000001e0: 6096 993e 6f10 07bc 2435 8e3e 46d5 74be
000001f0: 0ef7 cc3d cba3 ac3d 7209 553e 2673 b0bd
00000200: 7b5d 3f3d 498a 42be 5614 2dbe 11c7 3f3e
00000210: c440 d03d 7ec3 de3d e900 813d f2a1 38bc
00000220: 4028 1abd ed8c 213e 9db1 20be 0cb3 c03d
00000230: 7cda 403e 25a7 183e 5a6c 9bbd 47a1 ea3b
00000240: d052 3fbe 7554 53bd 5bf1 8b3e f886 6abd
00000250: c3f9 793e 572d 06bf 299d 833d 59e3 6f3e
00000260: d080 fe3c 1caf 4dbe ff91 cf3e 717e bfbe
00000270: 4d60 053f 5544 edbe 22b8 d23e 7592 623e
00000280: ecc4 cd3e c07c babd 3a10 7cbe c344 6fbe
00000290: 5df0 a33e 8304 c5bd fcd0 a13e 9d84 8dbe
000002a0: d577 37be 108d c93d b9ff 803d b353 eabd
000002b0: 709c df3e 5879 97be 749b 89be e78e 15b9
000002c0: 4661 f2bd 80c7 46be 1999 43bd c0e5 e4bd
000002d0: b850 9c3e 4bf3 9f3e a782 193c 6ec2 36be
000002e0: b80b 953e 57e3 9abe ea59 a6be f203 51bd
000002f0: 8528 cbbd 5f3c 88be 3528 cf3e 8b8e 153e
00000300: dff3 d83d f1e6 d3bc 3997 923e ea30 6f3d
00000310: 5581 4d3e 1be2 3c3c 292e 9b3e 735c f13d
00000320: 3073 d83d 1ed8 b63d 324f dcbd 8e6b debe
00000330: 3dc5 e93e 5a9d f0be 07c6 2ebe 9286 cfbe
00000340: a8ad 7abd 1735 fabc a86c b03d 7a9d 13be
00000350: 429b 8f3e f3d0 a6be 42f9 f23d fac0 ad3c
00000360: 2e11 573d 16d3 69be 43b0 c13e 2e11 9bbe
00000370: 220a 4e3d 09af 97be 0dab 6a3e b2a0 1b3d
00000380: 854c 4ebd cd38 d73d 5534 8c3e 1312 443d
00000390: 9083 17be 5c13 e1bd 80c9 9c3e 64bb c73e
000003a0: c998 42be c10a 353e 05be ebbd 134a 41bb
000003b0: 4d39 913e efa9 19bc 6627 93be f53f b73d
000003c0: a8a1 823c ac6d b23e d734 e83c a9d2 4dbe
000003d0: 953b 2ebd 1777 f2bd 0d88 953c 4b01 b7bd
000003e0: 462a 8c3e 5236 ba3b 3147 daba 7f2a 5f3e
000003f0: bcfb 413e 7dd8 2abd 8c3b 193e 6840 55be
-0.13127464 0.1012806 -0.23398516 -0.14059904 -0.116517015 0.049031936 -0.19636214 0.21325421
-0.1862007 0.01700574 0.12707357 0.12237237 0.58307064 -0.01371329 0.23746118 -0.5094368
0.29984856 -0.032324005 0.33085608 -0.09411938 0.5299558 0.7906855 0.68171513 -0.18933788
0.33522722 -0.66068393 0.017334066 -0.2981252 0.40880537 -0.022066038 -0.2546076 0.026890723
0.1828289 -0.24419655 0.14040186 -0.22073662 0.16858488 0.21934976 -0.038852382 0.25367463
-0.020007867 -0.074340664 0.3568101 -0.32308635 -0.08264876 -0.171421 -0.010298752 0.06699944
0.40264744 -0.0714334 0.19873302 0.069440015 0.13532436 -0.18356526 0.1314539 -0.00039468432
0.2390476 -0.18470857 0.28756884 -0.14047852 0.27964926 0.22338341 -0.12756477 -0.24158555
0.046829153 -0.55422443 -0.2821188 -0.20859544 0.49589047 -0.3925906 0.13611837 0.20605084
-0.15388244 0.016470063 0.08864249 -0.3337592 0.054215 -0.35231024 0.34439787 0.0027145806
0.3264018 0.71887606 0.7185854 0.17426483 0.37892735 -0.5868598 0.55602956 -0.13903292
0.2881363 -0.14276741 0.36803758 0.078110486 0.2702187 0.032468557 0.3501931 -0.16877513
0.113359846 0.13560474 0.040082935 0.229967 0.047451563 0.14663532 0.08759289 0.02833937
0.025041005 -0.19933514 -0.020368584 -0.13892038 0.037428685 0.3097383 -0.047816493 0.19131933
0.60228825 -0.14421378 0.48958856 -0.015129164 0.10356282 -0.43166146 0.4040189 0.27743673
0.2999754 -0.008243664 0.27774918 -0.23909482 0.100080594 0.084296785 0.20804384 -0.08615713
0.04672001 -0.18998064 -0.16902289 0.18728282 0.10168603 0.10877131 0.06299002 -0.0112690795
-0.03763604 0.15776415 -0.15692754 0.094091505 0.18833345 0.1490751 -0.07589026 0.007160339
-0.18683934 -0.051594216 0.27332577 -0.057257622 0.24411683 -0.52412933 0.0642646 0.2342657
0.031067282 -0.2008633 0.40541074 -0.37401155 0.5210007 -0.46341196 0.41156107 0.22126181
0.40189302 -0.091058254 -0.24615565 -0.23366074 0.3201932 -0.09620001 0.31604755 -0.27640238
-0.17916806 0.09841359 0.06298775 -0.114417456 0.4367404 -0.29584765 -0.26876414 -0.00014262983
-0.1183496 -0.1941204 -0.047753427 -0.11176634 0.30530334 0.31240305 0.009369529 -0.17847607
0.29110503 -0.30251572 -0.32490474 -0.051029153 -0.09919838 -0.2660856 0.40460363 0.14605157
0.1059339 -0.025866957 0.28631 0.058396257 0.20068868 0.011528517 0.30308655 0.117852114
0.10568845 0.0892794 -0.10757293 -0.43441433 0.45658293 -0.4699505 -0.17067729 -0.40532357
-0.061200768 -0.030542893 0.086144745 -0.14415541 0.2804814 -0.3258129 0.118639484 0.021210182
0.05250662 -0.22834429 0.3782979 -0.30286545 0.050302632 -0.2962573 0.22916813 0.037995048
-0.050365943 0.10508881 0.27383676 0.0478688 -0.14796281 -0.10990021 0.30622482 0.39010155
-0.19003595 0.17679884 -0.11510853 -0.0029493615 0.2836403 -0.009378894 -0.28740996 0.08947746
0.015946224 0.34849298 0.028345509 -0.20099892 -0.04253729 -0.11839121 0.01825335 -0.089357935
0.27376002 0.005682745 -0.0016653297 0.21793555 0.18943685 -0.041710366 0.14964122 -0.2082535

phi.initial_conv_module.0._layers.8.conv.weight f4 [32, 64, 1]
00000000: 220b 48bd d2a1 4e3e 4f04 773d 1d68 bcbc
00000010: a0bb a6bd 5751 983d 1835 a3bc c33a 073e
00000020: 0c4e e1bd 0260 90ba f412 9cbd 354d f4bc
00000030: 12e1 9bbd b59c d9bd 1f4e 78be 1e1e e03d
00000040: 9708 67bc 2a86 38be a42a a33d efcc 65bc
00000050: ead1 8bbd fea2 3c3d b340 183d 0f04 ad3d
00000060: 84b3 72be 3562 ee3d ce6b febc 3d30 70bc
00000070: a82e acbc 8bc6 243c 69f7 be3c 7b3a a1be
00000080: 6ded 803d 90bc 01be 0812 1fbe 1140 4a3d
00000090: 406d 51bd 6393 cebd 6cbe cabd 9ce5 3d3e
000000a0: 71b2 873b a790 d73d 5a1b 00bd ac06 92bd
000000b0: fa2a a63d eafa ab3a 3f0a b2bd 5230 6e3c
000000c0: 00bf 92bd 8182 123d 5bac dbbd bfa4 c3bc
000000d0: 143a 1cbd da75 373d 43a4 013e 0721 c03c
000000e0: 84ad 14be febf 9abe 95d2 aa3c 5389 c6bd
000000f0: f042 0dbd 4d4a b1ba 6486 76bd e2dc 4a3d
00000100: 7ea6 063e 76d8 0cbe 285f 50bc 644e e6bc
00000110: 7fe8 bdbd 57ef 333e 2af5 953c abd0 ec3c
00000120: 81d6 12bd 3848 99bb 286d db3d 85b6 19be
00000130: 68cc a43d 0a66 653b 1f08 6abb 412f ccbd
00000140: 4046 ebbd 2082 60bd 20f9 463d ebaf 3bbd
00000150: dccb 39bd a37f 1cbe 3b0c aa3d 8b6a 43bd
00000160: 64db d7bd 1533 edbc 0573 723d c124 e2bd
00000170: db05 373d a07e 3cbe 4b22 61be 303d 0abd
00000180: b971 e7bd 94e5 603d 5a44 7ebe f947 febd
00000190: 7c33 5cbc 9a7b 5bbe 664e 2bbd 59c0 5a3c
000001a0: 14a8 a83d 8b87 e13c dc36 103e d157 fabc
000001b0: eab9 fcbd 05fd 0dbe baa9 9e3d 3cce d93d
000001c0: 1dac 84bd e9f6 37bd 9428 8f3c bf21 97bc
000001d0: c5ba 02be 3627 423e 647e 883e 3978 c6bc
000001e0: ff62 af3d 23ad bf3d 1894 f43d c835 ff3d
000001f0: d4ad d93d 9b8e c13d 1227 d1bd 3a9c 33bd
00000200: c81f 423d 776f 503e 3cfa 693e f6e8 60bc
00000210: 67c3 393d b9a1 8fbd e0e8 cc3c 63ee 2abe
00000220: 9c15 9a3e 2f47 d2bd 7dd2 543b f092 623d
00000230: fe6d 05be a1ff e3bd 39e8 0abe 9de3 b43d
00000240: e823 8cbc 8aea cebd 448b ce3c 50c8 683d
00000250: 1a67 f3bd f159 ec3d 7ed9 22bd 9006 a5bd
00000260: 7a97 04bd 9207 3bbd ebb6 6b3e cd3b 10bb
00000270: 9cac 2f3d 3b73 023e 93b3 dcbd fd98 c6bd
00000280: 7c2c e9bd fe1f a9bd 52c0 413c c02f 313e
00000290: 0aa8 44bd e80b 3abe 5bda 0cbe 1350 153d
000002a0: d9a6 a6bc dfac 71bd ca51 7abc 12fa 2a3e
000002b0: 25ae 223d 0a04 4c3b 4535 ab3d 768c ae3d
000002c0: 26c7 ea3d c46c 443d 741e 44bd 700e b23d
000002d0: c5cc e33b 5640 1a3e 9b19 2d3e 4213 78bd
000002e0: 8665 ebbc 6bfb 53bd 4173 f63d 5da9 063e
000002f0: 5972 de3d b700 d53d 9767 9d3d 6b90 8dbd
00000300: 18f9 113d 0cf7 61bd b92d 23bd bf9c 1b3e
00000310: 79c0 203c 88e6 88bd e4f4 cfbd 4668 c8bd
00000320: 360d 673c ff5b cd3d 1947 193e 75a5 aa3d
00000330: c0fd 003e 3381 2abc f2c7 d1bd 3165 36bd
00000340: 3b9d 9f3d 499c ac3c 3717 20be e855 a539
00000350: ba81 c43c 296c 19be e9c2 fd3d 3ce2 60bc
00000360: 68f6 323d f41e 683d 32e7 533d b6aa afbd
00000370: 3f37 12be fbb0 193e aede 0f3d 417b 1dbd
00000380: 95ca 3a3e 31a8 403d 28a6 babd 2ac8 6f3d
00000390: dcb5 823d 8d19 6ebd bc57 4a3d 061a 6dbd
000003a0: 7726 0ebe aa6c 5abd 1aae 1fbd 01be 6c3d
000003b0: 01fd 10be a2e4 073d 278d a03d 31a8 24bd
000003c0: 1357 9abc e475 223d ceac f7bc cc2d db3d
000003d0: 3d18 8ebd 414e 8dbd 7ae7 a93c f5eb 933d
000003e0: d805 01bd 6114 cbbd b7a6 3dbe 9393 f5bd
000003f0: 6612 e03a 3bb6 e8bd 34f0 00bd 528f 8fba
-0.048838742 0.20178917 0.060306843 -0.022998864 -0.081412554 0.07437389 -0.019922778 0.1320601
-0.110012144 -0.0011014941 -0.076208025 -0.029821971 -0.07611288 -0.106255926 -0.24248551 0.109432444
-0.014101169 -0.1801993 0.079671174 -0.014025911 -0.06827147 0.04605388 0.037171077 0.0844804
-0.23701292 0.11639825 -0.031057265 -0.014659938 -0.021018341 0.010057102 0.023311334 -0.3148993
0.062952854 -0.12669587 -0.15534222 0.049377505 -0.05112958 -0.100867055 -0.09899601 0.1854462
0.004141145 0.10525637 -0.031276084 -0.07130179 0.08113666 0.0013121043 -0.086933605 0.014537888
-0.071653366 0.03576899 -0.107262336 -0.023882268 -0.038141325 0.044790126 0.12660317 0.023453249
-0.14519316 -0.30224603 0.020852366 -0.09694161 -0.034487665 -0.0013526172 -0.06018676 0.049527057
0.13149449 -0.13754448 -0.0127179995 -0.028113551 -0.09272861 0.1757177 0.01830538 0.028908094
-0.035849098 -0.0046777986 0.10714179 -0.15011032 0.080468 0.0035003447 -0.0035710407 -0.099699505
-0.114880085 -0.054811597 0.048577428 -0.045822065 -0.04536043 -0.15283065 0.08303114 -0.04770903
-0.10539892 -0.028955022 0.059191722 -0.110421665 0.04468332 -0.18407679 -0.21985738 -0.03374976
-0.11300988 0.054906443 -0.24830762 -0.124160714 -0.013440009 -0.21433869 -0.041822813 0.013351523
0.08235183 0.027530452 0.14083427 -0.030559452 -0.12340148 -0.1386605 0.077472165 0.10635039
-0.064781405 -0.044913206 0.017475404 -0.018448709 -0.1276656 0.1896027 0.26658928 -0.024227249
0.08563804 0.09359195 0.11942309 0.1246143 0.10628858 0.09451028 -0.1021253 -0.04385016
0.04739359 0.2035502 0.22849363 -0.013727417 0.045352366 -0.07013268 0.025013387 -0.166925
0.30094612 -0.102674834 0.0032474094 0.05531591 -0.1303024 -0.11132742 -0.13565148 0.08832476
-0.017106965 -0.101033285 0.025212891 0.056831658 -0.118848994 0.115405925 -0.039758198 -0.08057892
-0.03237102 -0.045661516 0.23018996 -0.00220083 0.042889223 0.1273927 -0.107764386 -0.09697149
-0.11385438 -0.08258055 0.011825638 0.17303371 -0.048011817 -0.18168604 -0.13755171 0.036453318
-0.020343231 -0.059002753 -0.015278289 0.16696957 0.03971686 0.0031130337 0.0835977 0.085228845
0.11463766 0.04795529 -0.047880605 0.0869416 0.0069519007 0.15063605 0.16904299 -0.06056524
-0.028734934 -0.051753443 0.12033702 0.13150544 0.10861654 0.10400527 0.07685774 -0.06912311
0.035637945 -0.055167243 -0.039838526 0.15196513 0.009811514 -0.06684595 -0.10154131 -0.097855136
0.014102271 0.100273125 0.14968528 0.0833234 0.12596798 -0.01040678 -0.10243215 -0.044530097
0.07793661 0.021070616 -0.15633856 0.00031535258 0.02398764 -0.14982666 0.12390692 -0.0137258135
0.043692023 0.056670144 0.051734157 -0.085774824 -0.14278887 0.15008919 0.035124473 -0.038447622
0.18241341 0.0470354 -0.09113723 0.0585405 0.06382343 -0.058129836 0.049400076 -0.057886146
-0.1388186 -0.053326286 -0.038984396 0.05779839 -0.14159013 0.033177026 0.07839423 -0.040199462
-0.018840348 0.03966321 -0.030233767 0.107020944 -0.06938217 -0.068996914 0.02074026 0.072227396
-0.031499714 -0.09915996 -0.18520628 -0.11991038 0.0017095327 -0.11362883 -0.031479076 -0.0010952747

phi.initial_conv_module.0._layers.9.weight f4 [32]
00000000: a635 803f 06eb 7d3f ab2c 6f3f 530e 673f
00000010: f3be 7b3f 5dde 7c3f e7a3 813f 4e2d 833f
00000020: 61da 7b3f 1afb 803f 32a3 8a3f c23e 803f
00000030: 8beb 7d3f 5f11 8b3f d21e 7a3f 99c2 643f
00000040: 2e29 783f 5310 823f 4b0c 623f f48c 883f
00000050: 8ab8 743f c379 6b3f 9cba 873f 3ff5 813f
00000060: a865 803f a62d 713f 68ec 743f 01ba 843f
00000070: 11f9 8a3f ece6 7e3f 78d0 803f bb62 823f
1.0016372 0.9918674 0.9342753 0.9025623 0.9833824 0.987768 1.0128144 1.0248201
0.98380095 1.007663 1.0831053 1.0019152 0.99187535 1.0864676 0.9770328 0.8935943
0.96937835 1.0161232 0.8830001 1.0668015 0.95594084 0.9198267 1.0603824 1.0152968
1.0031023 0.9421028 0.9567323 1.0369264 1.0857259 0.9957111 1.006362 1.018638

phi.initial_conv_module.0._layers.9.bias f4 [32]
00000000: e766 aa3c cd9b d8bb 9233 52bd 332d 743a
00000010: b5c0 523c ab72 4ebd 60de f83c b52b 69bc
00000020: 36c7 913c 1d7d 09bc 7753 0f3c 0ae4 573c
00000030: db8f 7d3a 0e31 28bb 5786 1a3d 0cb7 0a3c
00000040: 2298 50bb 59e3 a43a b3d4 26bd 92c5 3dbc
00000050: d4de 8bbd 0d8b b43c fcbc 2dbc c67a 793b
00000060: 0445 e43b 79fc 0dbd 5fb2 cebc 94fd bebb
00000070: 11f5 ac3c ae98 63bb e733 9cbb af01 67bd
0.02080102 -0.00661037 -0.051318713 0.00093145965 0.012863328 -0.050402325 0.030379474 -0.014231612
0.017795186 -0.008391646 0.008747927 0.013176927 0.000967262 -0.0025664004 0.037725773 0.008466493
-0.003182896 0.0012579962 -0.04073019 -0.011582749 -0.068296105 0.02203896 -0.010604139 0.0038067563
0.006966235 -0.034664605 -0.025231538 -0.0058285687 0.02111295 -0.0034728455 -0.0047669294 -0.05639809

phi.initial_conv_module.0._layers.9.running_mean f4 [32]
00000000: 9de6 ddbd 6b1a 0bbd 0aa4 233e 5b4e 85bd
00000010: 3a1b 6abe ed4d d23d a19c 6ebd cd92 05be
00000020: beaa 14be 0fca f63d 7f14 bbbd aada 973d
00000030: ce85 1bbe 72a7 f93d 253c 083e 6b9d 963d
00000040: 8b1e 513d cd8d 8ebc 1862 1fbe 8181 a73d
00000050: 752e 783d 1379 ec3d 85ef 8abd 316a 32be
00000060: 245c 26bc e629 a03d d7a5 c6bd 3de4 3b3d
00000070: a09c 9dbd 44ce 05bd 9268 283e d74a 42be
-0.108350016 -0.03396074 0.15980545 -0.06509086 -0.22861949 0.102687694 -0.05825484 -0.13044281
-0.14518258 0.12050258 -0.09134769 0.07414754 -0.15187761 0.12190141 0.13304193 0.07354244
0.05105452 -0.0174016 -0.15564764 0.08178998 0.06059118 0.115465306 -0.06783966 -0.17423321
-0.010153804 0.078204915 -0.096996 0.04587196 -0.076958895 -0.032667413 0.1644614 -0.18973862
