logs/bird_classification_distillation_extract_calls_100_epochs/2025-06-17_17-15-16/bird_classification_distillation_extract_calls_100_epochs_best_model.pth (torch, 338890 bytes, 198 tensors)

phi.initial_conv_module.0._layers.0.conv.weight f4 [64, 64, 1]
00000000: ad6e b1bc b595 523d 6bc3 8f3d 322b babc
00000010: 11c6 053d 75ef e03c ab7c 29bd 6105 a3bc
00000020: 9504 11bd 4e88 8f3c eec4 22bd 8b4e 0e3d
00000030: 1263 753d acb0 633d 8a23 8dbd f053 123e
00000040: 4a98 f73d ac62 5c3c d143 803c ac21 d2bd
00000050: a95c 2bbe d9a4 a3bd 1d6f 3c3d 8f57 163e
00000060: 312f 073e ba99 2a3e 7e3d ae3d 45f5 1fbe
00000070: fade 38be 1549 0dbe 3c0a cdbd 0f6c 9dbd
00000080: a7de 08bd 0e17 91bd 71c8 9f3c a60e b93d
00000090: b10f 673d ab45 85bd 7625 a43c 946f 91bd
000000a0: c0ad 10be a1f5 083c 0587 743d efb1 fc3d
000000b0: c249 51bd 9a36 22bd a47a 673d acb2 4dbd
000000c0: 68f2 95bd 045d 1b3d d627 253b 0d35 51bd
000000d0: bcdf 503d 5539 15bd 80a6 f53b 2946 a9bd
000000e0: 8d61 24bd e068 9bbc 3eb9 e73d a2d8 78bd
000000f0: eb0b 0a3d 4c95 443d 6942 7bbd bbbd 543c
00000100: 3fec 04bd d18e e5bd ebca 0ebb 7c77 413d
00000110: 61a1 17be 271d 22bd ae05 423d d7ef cebc
00000120: 1f88 bd3b 21df 033d 987e 05bb 4e1d 893c
00000130: e57b c43b 6312 833d 78f4 86bd 97b1 c0bd
00000140: 504c 09be 55aa a9bd e74b 74bd 68c9 b1bd
00000150: 52d8 213d 90d9 063e 9733 c2bd fb38 1ebe
00000160: 5972 4dbd 71a3 a23d c1f6 183e def3 bc3d
00000170: 6f54 6d3e 416d af3d 67de c3bd 9ee6 2d3d
00000180: 1455 a53d f4de 96bd 4498 8a3d 35c7 18bd
00000190: a475 793b fb52 9dbd 5166 3fbd 5acb 1cbd
000001a0: d891 d3bd 83ac c0bc 68c8 22bc 1b06 b7bb
000001b0: 291d 36bc 20b5 dcbc e051 f63c 5461 93bc
000001c0: a7e4 0b3e 9e20 973d 4625 5ebc 3b19 abbd
000001d0: bc0c c13c 4978 123d c1b6 593d 4f13 953c
000001e0: b9ab 923b 6fa0 f0bc d4ad 413c 2647 6cbd
000001f0: fcbd 4dbd a9c7 3a3d c20b 9e3c f9d0 a2bd
00000200: 26ca 7cbd d27d e8bc 03c1 e43d 7607 45bd
00000210: 8248 7bbd f8d4 cbbc 104a f1bc 0dc6 943d
00000220: 52ed b03d ec29 073d 98b9 bdbd 0dea 4e3d
00000230: 2bdf 773d 2269 a7bd 1fe2 56bc ebc5 283e
00000240: 9035 7abc bc52 24be b2fd d0bd 047b 1d3d
00000250: ea36 4d3e ff7c 293e f4cf 0b3e 5619 20bb
00000260: 50f7 0fbe e923 90bd fc00 17be 66a3 c9bd
00000270: ccb0 00be e053 e4bd 058b f8bd 6d0b 90bc
00000280: 4be1 29bd 7a66 0b3d 7bc0 a73d 9a1e 153e
00000290: d413 ffbc 92ee 0c3a f17b 9b3c d061 b33c
000002a0: 4be8 9cbb e1cc ee3c cc6f c43d 0113 2a3e
000002b0: 4b7b 20bd 58e1 ee3c 8592 11be f182 42be
000002c0: 33b6 c0bd 9054 bfbc af95 aebb d7df aabd
000002d0: 5597 2cbd 18d0 493c 5a12 c03d c70a d5bc
000002e0: c225 20bd 2342 c03d b220 cebd 0bb7 973d
000002f0: 87bb 54bd 47b5 9d3d c69d 213d df70 91bd
00000300: ff06 5bbd 2a53 f23c ce2d 9d3b 4c9d 38bd
00000310: 40a4 52bc 6ef7 5a3d 51f7 30bd 2a9c 6fbc
00000320: fa9d 8abd af34 39bd 3afc 323d d6e5 a83c
00000330: 994d 313c 6425 6ebd b4eb ad3d f12a 2bbd
00000340: 5a26 47bd 94ad f7bc 38cf adbd f153 423d
00000350: 511b 9c3c 4662 5e3e b0fe 633e 25f5 e93c
00000360: 9be6 953d 3fe9 943d d492 0fbe 90c2 b4bd
00000370: 744b ecbd 2eb2 babd 532e 50be fb2b b43d
00000380: d8dc af3d e33e 233e 9b8c 3dbd b503 cb3d
00000390: 5ce8 b33c ae21 aabd 83ca 893b e29b 5ebd
000003a0: f4c8 28bc 8c3a 403d aad3 b93d 25bc 5e3c
000003b0: 9e4c ea3d a6b5 073a f9b9 be3d 8996 953c
000003c0: 5271 8bbd e80d 40bd 942f 8b39 b87f cfbc
000003d0: e6d8 17be e725 b03d 31f8 c1bd 146f b6bd
000003e0: 5abc 623d 3bce 053d a678 cbbc af89 88bd
000003f0: 255e 783d c139 fa3c 4ba2 90bd e4e0 f43c
-0.02165922 0.051412303 0.07019695 -0.022725675 0.032659594 0.027457932 -0.04137866 -0.019900026
-0.03540476 0.01752105 -0.039738588 0.034742873 0.059908934 0.05558841 -0.06891544 0.14289832
0.12089594 0.01345126 0.015657337 -0.10260329 -0.16734566 -0.079904266 0.046004403 0.14681838
0.13201596 0.16660205 0.085078225 -0.15620907 -0.18053809 -0.1379741 -0.10011718 -0.07686626
-0.033415463 -0.070844755 0.019504758 0.09035997 0.05641145 -0.06507429 0.020037394 -0.0710136
-0.1412878 0.008359344 0.059699077 0.12338626 -0.05109573 -0.039602853 0.056513444 -0.050219223
-0.07321626 0.037930503 0.0025200746 -0.051075984 0.05099462 -0.03643163 0.007496655 -0.08265335
-0.040132094 -0.018970907 0.11314629 -0.060753472 0.033702772 0.047993943 -0.06134263 0.012984688
-0.032451864 -0.11208881 -0.002178843 0.04723309 -0.14807655 -0.039578583 0.047368698 -0.025260849
0.005784049 0.032195214 -0.0020369645 0.016737606 0.0059962147 0.06399991 -0.065895975 -0.094088726
-0.13408017 -0.082844414 -0.0596427 -0.08680993 0.03951294 0.13168931 -0.09482496 -0.15451424
-0.05015788 0.0794133 0.14937879 0.092262015 0.2317674 0.085657604 -0.09563904 0.04245626
0.08072868 -0.07366744 0.067673236 -0.037299354 0.0038064504 -0.07681843 -0.046728436 -0.03827987
-0.10330552 -0.02351976 -0.009935476 -0.0055854446 -0.011115351 -0.026941836 0.030068338 -0.017990746
0.13661443 0.07379268 -0.013558691 -0.08354422 0.023565643 0.035759244 0.053152803 0.018197684
0.0044760373 -0.029373376 0.011821229 -0.05768504 -0.05023001 0.045600567 0.019292716 -0.079500146
-0.06171622 -0.028380308 0.111696266 -0.04810282 -0.061348446 -0.024881825 -0.029454261 0.07264338
0.08639015 0.032998964 -0.09263915 0.050516177 0.060515564 -0.08174349 -0.013115435 0.1648175
-0.015271559 -0.16047186 -0.102046385 0.038447395 0.2004048 0.16551588 0.13653547 -0.0024429164
-0.14059186 -0.07038099 -0.1474647 -0.09845619 -0.12567443 -0.111488104 -0.12135891 -0.017583573
-0.04147462 0.034033276 0.081910096 0.14562455 -0.031137384 0.0005376126 0.018979998 0.021897227
-0.0047884337 0.029150428 0.09591636 0.16608812 -0.03918008 0.029160187 -0.14216049 -0.18995263
-0.09409752 -0.023355752 -0.0053279023 -0.08343475 -0.04213651 0.01231768 0.093785 -0.026006116
-0.03909851 0.093876146 -0.1006483 0.074079596 -0.051936653 0.077005915 0.039457105 -0.071016066
-0.05347347 0.029580671 0.00479672 -0.045071885 -0.012856543 0.053458624 -0.04320461 -0.014624635
-0.06768413 -0.04521626 0.043697573 0.020617407 0.010821723 -0.058141127 0.084922224 -0.041789
-0.04862056 -0.030234136 -0.084867895 0.047443334 0.019055994 0.21717176 0.22265124 0.028559277
0.07319375 0.07271051 -0.14020854 -0.08826172 -0.11537829 -0.09116016 -0.20330171 0.08797451
0.085870445 0.15941958 -0.04627667 0.099128164 0.021961384 -0.08307205 0.0042050495 -0.05434788
-0.010301817 0.046930835 0.09073575 0.013594662 0.11440395 0.0005176909 0.09312815 0.018260257
-0.068087235 -0.046888262 0.00026547594 -0.025329456 -0.14828834 0.08600979 -0.09471167 -0.08907905
0.055355407 0.03266738 -0.024837803 -0.06666886 0.06063666 0.030545117 -0.07062205 0.029892392

phi.initial_conv_module.0._layers.1.weight f4 [64]
00000000: f7bd 3c3f c0ad 6c3f 749e 6f3f 7d41 693f
00000010: 4234 763f 3ab0 793f 008d 903f 7345 7b3f
00000020: 1606 833f 7055 393f 0e1c 413f da98 5b3f
00000030: 648b 633f 292b 343f f204 373f 5aeb 803f
00000040: 6914 7c3f e6db 823f 6d01 773f f2d0 773f
00000050: 8106 7c3f c709 743f 5b9d 5d3f 8cd3 953f
00000060: 3bd2 623f 0e0b 793f cd1f 7e3f 0cda 803f
00000070: 454f 873f d4e0 5b3f f5ae 4d3f d4d4 663f
00000080: 35b7 693f 0ade 693f c046 7b3f 007a 7a3f
00000090: 871d 433f 0726 a83f 3355 9b3f f822 7e3f
000000a0: d6f9 793f ecd3 743f 9a10 693f fbb3 573f
000000b0: 3ce5 883f 4b7e 743f 7782 9c3f f83d 7a3f
000000c0: f505 883f 20e2 4c3f c2bf 583f 1bee 313f
000000d0: d455 813f 5eb2 893f 6aea 3b3f e197 4a3f
000000e0: 1af8 803f af40 9a3f 0afc 223f e760 653f
000000f0: 5f45 763f 0f4a 593f 7e58 5c3f 3104 8f3f
0.73727363 0.9245262 0.93601155 0.9111555 0.9617349 0.97534525 1.129303 0.98152846
1.0236232 0.7239599 0.75433433 0.8578011 0.8888457 0.7037836 0.7149192 1.0071824
0.98468643 1.0223358 0.9648655 0.968032 0.98447424 0.9532742 0.8656823 1.1705184
0.88602036 0.97282493 0.99267274 1.0066543 1.0571066 0.85889935 0.8034509 0.901685
0.91295177 0.9135443 0.9815483 0.9784241 0.7621693 1.3136605 1.2135376 0.9927211
0.97646844 0.9563587 0.91040957 0.84259003 1.0694957 0.9550521 1.2227315 0.97750807
1.0626818 0.8003254 0.846676 0.69503945 1.0104318 1.0757558 0.7340456 0.79138
1.0075715 1.205099 0.6366583 0.89600986 0.961996 0.8487863 0.8607253 1.1173154

phi.initial_conv_module.0._layers.1.bias f4 [64]
00000000: 5ebe 363e 6710 54bd f16b 083c 37b6 8f3d
00000010: e088 b8bd d14b 983d f815 72be e783 f93c
00000020: f976 5c3e 0392 223e e3dd 233e cdec cebe
00000030: 5f5e 8c3c fa74 c73d 2ef8 a43e ffb8 9cbd
00000040: d79c d33e 6947 81be 3efa b0bd 52ea febb
00000050: 783e aa3d 44d6 72be bad5 b9bd b0f8 613e
00000060: 2ecf 513e 89e0 10bc ec88 4dbd b8f2 ccbd
00000070: 8c8e 703d 7c94 883d 31fa 4d3e 9480 11bc
00000080: 5e1d 9b3d bb30 8dbe 2511 9abd 81ef ffbd
00000090: b3ec 5f3e 50be 95be a9df 2f3e 1584 05be
000000a0: 68dc f6bd 6ef0 58be 512d 9ebd 5073 aebc
000000b0: 674d c6bd 1039 a33d d779 ab3d 7e49 3ebd
000000c0: 51c7 5bbe daee 123d f012 f7bc 2384 ed3c
000000d0: 8c82 8fbd 92b1 8f3e 24a8 013e 0dd5 4a3e
000000e0: c21a 3fbe d01a 79be 4081 ab3e 7ced 1dbe
000000f0: 37a3 d33b 8884 c23d 61b0 f8bd 56a1 5bbe
0.17846057 -0.051773455 0.0083265165 0.070171766 -0.09010482 0.07436336 -0.23641193 0.030458404
0.2152976 0.15876012 0.16002612 -0.4041504 0.017134843 0.097391084 0.32220596 -0.07652473
0.41330597 -0.25249794 -0.0864148 -0.007779398 0.08312696 -0.23714548 -0.09073968 0.22067523
0.20489189 -0.008842596 -0.050179407 -0.100072324 0.058729693 0.06668946 0.20114972 -0.008880753
0.07573961 -0.2757624 -0.07522801 -0.124968536 0.21867637 -0.2924676 0.17175163 -0.13038667
-0.12053758 -0.21185467 -0.07723487 -0.02129522 -0.09682732 0.07969868 0.083728485 -0.046456806
-0.21462752 0.035872318 -0.030160397 0.028993672 -0.07007322 0.28065163 0.12661797 0.19807835
-0.18662551 -0.24326634 0.33497047 -0.15422624 0.0064586657 0.094979346 -0.121430166 -0.21448264

phi.initial_conv_module.0._layers.1.running_mean f4 [64]
00000000: 2e0e 103e 4518 543d ff0c e2bd 1a1f 803e
00000010: dc80 a13e 2b75 e0be 7865 403d 97cb 61bf
00000020: e9ed 213f b96e ecbe 72ff 47be 4bbe 3cbf
00000030: 6407 7d3d 41fa d13e 9bbd 923e 8757 0ebf
00000040: 5a58 ce3f 6a96 6fbe 2a73 2a3e f50b 7f3f
00000050: bac9 2b3f 2672 8e3f 927c 1837 e2e6 303f
00000060: bebd 52bf 8029 52bf bf91 233f 2267 133f
00000070: 4d38 973f d64b 5abf 0ef7 9cbc 1986 9e3d
00000080: adf1 31be fa7e 5c3f 9c90 fd3d 00eb 3dbe
00000090: 056c c0be a9c1 5ebe cb16 6f3e 9970 363e
000000a0: 4b01 1cbf c276 463f 2bff 04be 6e48 cb3e
000000b0: f647 0ebe a2cc a63d ca80 84be 40b1 3a3f
000000c0: 804e b3bd 3e56 b4be aed0 00be ac75 633e
000000d0: 9774 be3e c13e b93f 9d20 963d 7905 4f3d
000000e0: 3eef 3f3f d669 06bf 99df b7bf 67fb 41be
000000f0: 00d0 dc3e d286 cd3b d713 41bf 55f8 103e
0.14067909 0.051780958 -0.11037635 0.2502373 0.31543624 -0.43839392 0.04697177 -0.8820128
0.6325365 -0.46178225 -0.19531038 -0.73727864 0.061774626 0.4101124 0.28660282 -0.55602306
1.6120713 -0.23397222 0.16645494 0.9962762 0.67104685 1.1128585 9.08891e-06 0.691023
-0.82320774 -0.82094574 0.63894266 0.57579243 1.1814057 -0.85271966 -0.019160774 0.07740421
-0.17377348 0.8613125 0.12381098 -0.18546677 -0.37582412 -0.21753563 0.23348539 0.1781639
-0.6093947 0.7752496 -0.12987964 0.39703697 -0.13894638 0.08144499 -0.25879508 0.7292671
-0.08755207 -0.35222048 -0.12579605 0.22212857 0.37198326 1.4472276 0.07330439 0.05054233
0.7497443 -0.5250524 -1.4365112 -0.18943559 0.4312744 0.0062721753 -0.754209 0.14157231

phi.initial_conv_module.0._layers.1.running_var f4 [64]
00000000: 9764 9f3e bf62 a03e d30b 023f a619 c63e
00000010: 94d7 a83e b894 cd3e ebe3 a33d 84ca c33e
00000020: a4f8 0f3e 91b7 413e 43dc 0d3e 0b81 c23e
00000030: 32e8 a13d f65f 433e df9d 183f 54db 8c3f
00000040: 7a58 583f 5eec 103e 25b6 b03e 4e67 903e
00000050: 489d 4e3f 6b73 dd3e eb9b 9e3e c96f a33e
00000060: 5dd3 1e3f 2235 163f 0e02 9d3e e239 9c3e
00000070: 6098 9f3f da11 3b3e 3b7a 9d3e 5864 983e
00000080: 1782 d53d 490f 463e 9050 543e 2ab9 8f3e
00000090: a03e 843e f8c3 7b3e 0467 1c3f adf2 b83e
000000a0: fe98 f33e 62d0 963e 5d58 9f3e 6028 e23e
000000b0: 5084 933e 3207 513f b5ae 3e3e 20c5 083f
000000c0: b082 e93e 61a6 983e 6cb2 c33e 7691 bc3e
000000d0: 85e8 893e 1cef e53e 5094 b03e 1088 753e
000000e0: 153a 5d3f 3f61 8a3e 4b82 983f d271 2b3f
000000f0: 9cc6 a53e 89d7 303f 5303 2a3f 335e 3d3e
0.3113143 0.31325337 0.5079929 0.38691443 0.32976973 0.40152526 0.08002456 0.38240445
0.14059693 0.18917681 0.13853554 0.37989077 0.07905616 0.19079575 0.5961589 1.1004434
0.84510005 0.14152667 0.34513965 0.28203815 0.8070874 0.4325212 0.3097833 0.31921223
0.62041265 0.58674824 0.3066563 0.3051291 1.2468376 0.18268529 0.30757317 0.29764056
0.10425203 0.19341768 0.20733857 0.28070956 0.2582903 0.24586475 0.6109469 0.36122647
0.4757766 0.29455858 0.31122103 0.4417143 0.28811884 0.81651604 0.18621333 0.5342579
0.4560752 0.29814437 0.38222063 0.36829728 0.2693521 0.44908988 0.34488153 0.23977685
0.8641675 0.27027318 1.1914762 0.6697055 0.3237809 0.6907888 0.6641132 0.18492965

phi.initial_conv_module.0._layers.4.conv.weight f4 [64, 1, 5]
00000000: d6c3 803c 63e5 183e 030f f2be d935 cabe
00000010: dcaa b9bd d557 93bd 67d0 fe3d cb14 9c3e
00000020: ad0e ef3d 874a 9bbe 3a93 91be 0acd e7bb
00000030: d09d 96be c438 8cbd 87ac 413e e6d1 af3e
00000040: 9718 9bbe 56e2 75be b708 b6be b950 b3bd
00000050: 38ed d03d 9b19 7d3e 3256 cf3e 8753 79be
00000060: a465 b23e c9d5 babe c0d3 e7be 657e db3d
00000070: 63e6 4cbe bb34 64be 6b76 1f3e 5391 ac3e
00000080: 210e 06bd 79e6 2a3e a417 98bd 7d08 c1bd
00000090: 439b 2a3e b689 93be a380 04bf 6940 5f3e
000000a0: da2f 8cbe 921f 9b3e ec44 013e 3c04 98bd
000000b0: 2b03 20be 0d39 8bbe 607c 1dbe 9412 a6bc
000000c0: 0842 b7bd 0317 72be e914 1b3e 55bd 9fbe
000000d0: b2eb e2be aba9 3abe 94fc 99bc 06a2 ca3d
000000e0: 45c5 773e b3c3 1fbe c37b ad3e 6690 a63d
000000f0: 5ac2 d1be 8edf b53e 04ac 5abe 22cd 033e
00000100: 2348 ac3c 4594 9a3e d930 37be dec7 adbe
00000110: ec95 a9be 62e3 0cbc 0242 9d3e e6b9 ec3d
00000120: 0353 7fbc 7da7 54be 8eeb acbe 3c0a b63e
00000130: 1f88 0e3f fd2a e43d a461 90be e2fe 953e
00000140: 6f8f 9abe fa09 1fbe 0b40 adbd 90bb b73e
00000150: 4a49 de3d b8f8 a33e ae19 b5be 1f77 c1be
00000160: 5b00 893c 2951 08be f286 f0be fc06 95be
00000170: 963e 4b3e e946 813e d00b 48be eb8c 1abe
00000180: 6625 14be 0e82 c33d d45a 953e 121d 873d
00000190: 5ed7 98be 4ad4 8c3d 79a7 b7be 4105 7e3c
000001a0: 43f0 c53e 3c47 a93e c374 683d 9aa9 ecbd
000001b0: 483d 0c3e bdae 9a3e 5aa4 bc3d 9ada 413e
000001c0: 99ee bc3e 0545 7f3e 54a0 2f3c a886 dbbe
000001d0: 8284 003e 1262 31bd a541 573e aa10 fd3d
000001e0: fd4f 34be e3c9 373e 8429 15bf c59d 96be
000001f0: a71f b93d 318c 1b3e d713 49be 8cd2 e7bc
00000200: 5a85 f0bd 9a85 c3be 0df1 c03e a58d d33e
00000210: 0364 df3d 46f8 07be 8842 7b3e 67c5 fabd
00000220: 5e40 22be f69d 12be 8e55 adbe 8db7 08be
00000230: 450a 7c3e c155 303d f967 75be 9ca4 843d
00000240: a25a 24be c13c 083e dcba 853d 9005 bf3e
00000250: 5b18 8b3e 9842 753e 7d26 623e 4033 a53e
00000260: 900b 8cbe 5781 16be 71b3 0cbe 1894 65be
00000270: b1a1 04bf 6af7 13be 0328 3f3e cbb7 17be
00000280: dd4b f9be a988 a3be e541 343d 11d1 483e
00000290: d8f2 fbbe 6d1b 80be 2604 373e c9d9 14be
000002a0: 8b5c 793e 13e8 883e d9a7 cebe 6f0e 1dbe
000002b0: a7ef 313d d705 6b3e 16cf acbe 6432 c3bc
000002c0: 81c1 443e 6bb8 84bd 59f6 02bf c0ef 2dbd
000002d0: 90ba 653e f44e a53d 122c 63be b31c 32be
000002e0: 1f58 9abc 601e e73e b61a 87bd a2e5 953e
000002f0: 7934 84be 8eff bfbd aeb0 e4be 473f f43b
00000300: 0527 623e d236 c4bd ecea 793e fa5f 763e
00000310: b588 a43e 823c babd d613 e23e 7978 013d
00000320: d699 503e 8fa1 7c3e 3175 163f 5251 80be
00000330: 92f9 233e a2a4 113e 1ded f13e e33a 773d
00000340: 920c 293e 67d4 7a3d ef82 e23c 8b1e 803e
00000350: 4d9d 8f3e 1bed 593d 3272 c5bc 85b7 52be
00000360: 5863 7abd 382c 97be a456 283e 1bdf a23e
00000370: 6755 8cbe 507c 24bd 4524 c7be dab5 efbc
00000380: 7a42 a0bd 01ef e33d f833 993d 9bf1 cdbd
00000390: 4589 3cbe 4b72 6cbe 4ac1 f0bd 8d3f a6be
000003a0: 0b6f 153d d29c b23e 5fe2 023e 7042 3e3d
000003b0: 963d b5be 3468 113c 9ca2 e5be aab6 a93d
000003c0: 0339 03bd 0ac5 ae3e 38e6 a73e 8fc3 6ebe
000003d0: a70e 21be 03d8 5bbe a4f5 6cbe a967 6a3e
000003e0: fab4 a6be 4794 0abf bc01 81be b58d a8bd
000003f0: 3b39 8cbe 5be7 64be ecf0 1fbd 1fc8 99be
0.015718382 0.14931254 -0.47277078 -0.39494208 -0.09065792 -0.07194487 0.12442093 0.30484614
0.11672721 -0.30330297 -0.28432637 -0.007074003 -0.29417276 -0.06846765 0.1891347 0.34339827
-0.30292198 -0.24012122 -0.35553524 -0.08755631 0.10201496 0.24716799 0.4049545 -0.2434827
0.3484317 -0.3649123 -0.4527874 0.10717467 -0.2000976 -0.2228574 0.15572517 0.33704624
-0.032728318 0.16689481 -0.07426384 -0.09425447 0.1666079 -0.28816003 -0.51758784 0.21801914
-0.27380258 0.30297524 0.12623948 -0.07422683 -0.15626208 -0.27191964 -0.15379477 -0.02027253
-0.08948141 -0.23641591 0.15144695 -0.31199136 -0.44320446 -0.18228786 -0.018797196 0.09894185
0.24196346 -0.15601997 0.33883485 0.081330106 -0.4096859 0.3552212 -0.21354681 0.1287122
0.021030491 0.30191246 -0.17889728 -0.3394155 -0.33122194 -0.008599134 0.30714422 0.11558895
-0.015583756 -0.20767017 -0.33773464 0.35554683 0.55676454 0.11141012 -0.28199494 0.29296023
-0.30187556 -0.1553115 -0.08459481 0.35885286 0.108538225 0.32025695 -0.35371155 -0.37786195
0.016723802 -0.1331221 -0.46977955 -0.2910689 0.19848093 0.25249413 -0.19535756 -0.15092818
-0.14467391 0.0954629 0.2917086 0.065973416 -0.29851812 0.068764284 -0.3586996 0.015504182
0.38659868 0.3306216 0.056751978 -0.115557864 0.13695252 0.3021144 0.09211035 0.18931046
0.36900786 0.24928673 0.010719378 -0.42876172 0.12550548 -0.043306418 0.21021135 0.12356694
-0.17608638 0.17948107 -0.5826647 -0.29417244 0.0903924 0.15190198 -0.19636475 -0.028298639
-0.11744185 -0.38187867 0.37683907 0.41319004 0.109077476 -0.13278303 0.24537098 -0.12244683
-0.15844867 -0.1431807 -0.33854336 -0.13351269 0.24613293 0.04305053 -0.23965444 0.06476709
-0.16050199 0.13304426 0.06529781 0.3730893 0.2716702 0.23951185 0.22084995 0.32265663
-0.2735257 -0.14697777 -0.13740326 -0.22419775 -0.5180922 -0.1444985 0.18667607 -0.14816205
-0.48690692 -0.319402 0.044008154 0.19611003 -0.49208713 -0.25020924 0.17872676 -0.14536203
0.24351709 0.2673956 -0.40362433 -0.15337537 0.04344144 0.22951446 -0.33751744 -0.023827739
0.19214441 -0.064804874 -0.51157147 -0.04246497 0.22434449 0.080717 -0.2218478 -0.1739376
-0.018840848 0.45140362 -0.065968916 0.29276758 -0.25821283 -0.09374915 -0.44666046 0.0074538323
0.22085197 -0.09580769 0.24406022 0.2406005 0.3213555 -0.09093572 0.4415576 0.031609032
0.20371184 0.24671005 0.5877257 -0.25062042 0.16013172 0.14222959 0.47251216 0.060358893
0.16508701 0.06123772 0.027650325 0.25023302 0.28049698 0.053204637 -0.024102304 -0.2057782
-0.061129898 -0.29525924 0.16439301 0.3181084 -0.27408907 -0.040157616 -0.3889486 -0.029261518
-0.078251794 0.11129571 0.074806154 -0.10055848 -0.18411739 -0.23090474 -0.11755617 -0.3247036
0.036482852 0.3488527 0.12781666 0.04645008 -0.3539855 0.008874942 -0.44850624 0.082867935
-0.032036792 0.34134704 0.3279283 -0.23316787 -0.15728246 -0.2146912 -0.2314058 0.22891106
-0.3255995 -0.54132503 -0.25196636 -0.082301535 -0.27387413 -0.2235388 -0.03904812 -0.30035493

phi.initial_conv_module.0._layers.5.weight f4 [64]
00000000: a99f 723f 3c3a 5b3f b23f 7d3f ca5f 753f
00000010: 7b6a 613f 1249 853f f3b2 7d3f 0251 783f
00000020: 7742 913f c113 8a3f e52b 8e3f bdd4 5d3f
00000030: fb37 7e3f 1422 6f3f 44b5 803f 9281 7b3f
00000040: 94fa 863f 9c75 863f 8384 693f 5463 6d3f
00000050: 1ec0 813f a9e2 713f 319f 583f e137 833f
00000060: d575 7d3f 1ada 893f 9402 603f d0da 753f
00000070: 4898 8c3f 9fa4 643f abb1 6a3f ca52 623f
00000080: 61a9 7a3f 38dc 733f bd1c 7d3f 2e1d 6e3f
00000090: d7ec 803f a248 843f d214 853f 4f2b 5f3f
000000a0: 5c21 723f 9940 5b3f 777d 6f3f f134 863f
000000b0: fd8e 713f 3e07 763f dcf5 823f cd4f 7b3f
000000c0: 09dc 673f 1d0c 803f ad07 803f f8e8 883f
000000d0: c4aa 693f 23ea 9e3f e715 873f d578 663f
000000e0: d12f 813f 5d96 783f 8a77 853f 6ab1 693f
000000f0: 9fa9 6e3f 36a3 843f ca1b 703f a95a 6d3f
0.9477487 0.85635734 0.98925316 0.9584929 0.880531 1.0412924 0.9910118 0.9699861
1.1348408 1.0787278 1.1107146 0.8665274 0.9930417 0.93411374 1.0055318 0.98244584
1.054522 1.0504642 0.9121782 0.9272969 1.0136755 0.9448648 0.84617907 1.0251428
0.9900792 1.0769684 0.87503934 0.96037006 1.0983973 0.8931369 0.9167735 0.88407576
0.979147 0.952579 0.98871976 0.93013275 1.0072278 1.0334666 1.0396979 0.8717546
0.9458215 0.85645443 0.9355082 1.0484906 0.9435881 0.961048 1.023128 0.9816864
0.9057012 1.0003697 1.0002342 1.0696096 0.9127619 1.2415203 1.0553559 0.90028125
1.0092717 0.97104436 1.0427105 0.9128634 0.9322757 1.0362308 0.937924 0.9271646

phi.initial_conv_module.0._layers.5.bias f4 [64]
00000000: aa68 e33d 11a9 953d 166a 0a3e a833 a63d
00000010: 56ef a03d 63ce d43d e617 063e 9f17 283d
00000020: 495b 993c e544 e33d 9341 203e d33d abbd
00000030: 4ada f73c c08a c8bc 0c7d 2a3e 53d2 663d
00000040: 8a9e b1bd 84fb afbd 90cd 093e 0229 593e
00000050: b8a3 9f3e 48db 8f3e 5720 563d 7163 023e
00000060: 787f 113e d917 7a3e 5cf1 153d 4e59 2abd
00000070: cb46 e43e 1749 583e b90b 1fbd 86b8 c93d
00000080: 6900 053e 6a75 3b3e 870f 153e 1013 aa3e
00000090: 9dfa 853b 83e1 373e 3ed3 d03e 8c55 92bd
000000a0: 2e54 a5bd 9b8a 62bd ff95 b0bc be56 8fbd
000000b0: f075 173e 7c46 263e b5fd 933d d725 2c3c
000000c0: b3fc 103e 6297 01bd 5e0a 52bc f88d c13d
000000d0: e3c9 ff3d 116d a33e b77c a83b f8a8 16be
000000e0: a516 ae3d 0533 043d e130 1a3e 9ae9 033e
000000f0: f588 a63c f2bb b73d 6aab 7a3c eeb2 813e
0.111039475 0.073076375 0.13517031 0.081153214 0.0785815 0.10390928 0.13095054 0.04103815
0.018720286 0.11097125 0.15650015 -0.083614014 0.030255456 -0.024480224 0.16649264 0.056352925
-0.08672817 -0.08592895 0.13457322 0.2120705 0.31179595 0.28096986 0.052276935 0.12733246
0.14208782 0.2442316 0.03660713 -0.041589074 0.4458526 0.21121632 -0.03882954 0.09849648
0.12988438 0.18306509 0.14556704 0.3321767 0.0040887133 0.1795712 0.40786165 -0.07145223
-0.080726966 -0.055307966 -0.021555899 -0.06998967 0.14791083 0.16237825 0.07226125 0.010507069
0.14158897 -0.03163851 -0.012819855 0.094509065 0.12489679 0.3191915 0.0051418203 -0.14712894
0.08500413 0.03227522 0.15057708 0.1288208 0.020328978 0.089713946 0.015299657 0.25331825

phi.initial_conv_module.0._layers.5.running_mean f4 [64]
00000000: ff40 00be d0ce a53c 8ebc 91bd c5f7 8bbd
00000010: 3724 e63d b948 5bbe b59e 5a3d 5979 b6bd
00000020: 10b1 b6bc 6a59 0cbe 32df 19be 287f 08bd
00000030: d1bd 80bc a722 9ebd c311 22bd 3ac3 013e
00000040: 50c4 f6bc 8797 f4bc 3c8f 70bd 6ea4 003d
00000050: 4358 23bd 4b87 a0bc ca8c 273d 2a85 8ebb
00000060: a251 19be 4195 bcbd 7de6 173e 43cf e8bd
00000070: 5760 26bc c473 343e 58ef 75bb ebe6 0bbd
00000080: 49e4 46be 5c42 763b b685 a4bd 23ff 3dbd
00000090: 2793 cbbc 843f 4f3d 7ca5 c2bc 9f49 ca3d
000000a0: 8de4 a03d 4f0f 543d 8489 7c3d 135c 1bbc
000000b0: 7194 e8bd 7df0 84bd b714 b93c dc09 80bd
000000c0: 93ec b13c 5276 10be 23c7 c1bd 82b1 b7bc
000000d0: 58e9 3f3d 1b54 26bc 5697 1ebd 9211 efbc
000000e0: 79b6 423c 6498 e43d 5ce1 4abc 0637 223c
000000f0: 91ac e13c 1545 d3bd b79b 633d 120e 9abc
-0.12524794 0.020240217 -0.07116042 -0.06834368 0.11237376 -0.2141446 0.05337401 -0.08909864
-0.022301227 -0.13705984 -0.15026549 -0.03332439 -0.015715512 -0.07721453 -0.03956772 0.1267213
-0.030122906 -0.02985741 -0.05873035 0.031406812 -0.039879095 -0.019595763 0.04090575 -0.0043493705
-0.14972547 -0.092081554 0.14834018 -0.11367657 -0.010154805 0.17622286 -0.0037526693 -0.034155767
-0.19423021 0.0037576174 -0.08033316 -0.046385895 -0.024850441 0.050597683 -0.02376055 0.09877323
0.078560926 0.051772412 0.061654583 -0.009482401 -0.11356438 -0.06491182 0.022592885 -0.062518805
0.021719253 -0.14107636 -0.094618104 -0.02242351 0.046853393 -0.010151888 -0.038718544 -0.029183183
0.011884325 0.11161879 -0.012382831 0.009900814 0.027548106 -0.10315911 0.055568423 -0.018805537

phi.initial_conv_module.0._layers.5.running_var f4 [64]
00000000: 5c2f 0f3e a13f b03c e1c9 4e3d b746 be3d
00000010: 5b6c 393e 047d c73e 827d c93d b28e c93d
00000020: a81a 763c 1839 bf3d 13c0 1d3e 1369 1e3d
00000030: f72a 423c bcd1 843d 3aa7 463c f70c eb3e
00000040: ca5d 883c 9b21 bd3d dfff a23d a9a7 6d3c
00000050: 3e96 233d d177 3b3d d9b5 0b3e 0ee2 0c3d
00000060: b5f5 2f3e be8f a33d 30f5 893e 3245 523e
00000070: 29cc 223c 212f 733e 9502 af3c 2b44 903d
00000080: a60a 903e dcca e83c cc9e f23d 7a38 963d
00000090: 97d8 e33b 743e af3d db86 3c3d c476 403e
000000a0: c01f 283e 0592 103e 201e b03d 03cc c13c
000000b0: 9aa5 323e 757b 483d bd6a 6f3d b32b 063e
000000c0: 40b1 3c3d 7875 2b3e 2ad3 d73d 50a2 533c
000000d0: 7112 0b3d 659c 133c e8eb 7e3c 6227 543c
000000e0: fbc4 023d 0205 743e 47c0 703b a33a b73c
000000f0: 5913 a53c 9f25 ed3d f0e7 223e 71b2 c63d
0.1398291 0.021514716 0.050485495 0.092908315 0.1810774 0.38962567 0.09838392 0.0984167
0.015021004 0.09337062 0.15405302 0.038674425 0.011851064 0.06485316 0.012124831 0.4590833
0.016646285 0.09234925 0.0795896 0.014505305 0.039938204 0.045768563 0.13643588 0.03439527
0.17183574 0.07986401 0.26944876 0.20534208 0.009936371 0.23748447 0.021363536 0.07044252
0.28133124 0.028417043 0.11846694 0.07334991 0.0069533098 0.08556834 0.046027046 0.18795305
0.16418362 0.14118202 0.08599496 0.02365685 0.17445984 0.048945863 0.058451403 0.13102607
0.046067476 0.1674403 0.10538323 0.012917116 0.033953134 0.009009455 0.015559174 0.012948843
0.031926136 0.23830035 0.00367357 0.022366827 0.020150827 0.11579441 0.1590879 0.09702004

phi.initial_conv_module.0._layers.7.se_conv.conv.weight f4 [10, 64, 1]
00000000: 153d 773e 42ad 683e 8ec2 b43e d151 e9bc
00000010: a1fd 01be b84c 673d bf4d cdbd 2a42 e33e
00000020: 4dcf febd 4ad1 753d 12a3 c9bd bec4 023d
00000030: a13c 523e d000 13be 41af 3e3e 020e 3bbe
00000040: 7d45 0abf 27d9 cd3d a582 563c 827b 8cbd
00000050: 9245 f8bc ccd7 98bd 7e3d 8cbd 8144 30be
00000060: 6c2b 253e 6823 d83e 104b 5ebd 2fe5 113e
00000070: 5311 a63c ed9c 84be 461c 313e ebe8 c1bc
00000080: 3c1b 713e 245b d23d a8ec fcbc beba d53c
00000090: 0cb7 22be af48 72be e643 bebc 24ed 37bd
000000a0: b106 cbbe 60f9 d33d f8b4 cbbd 2e4d 07bd
000000b0: 7e9d 763e 9c03 9c3e 71f5 b3be 2f7e cabd
000000c0: 2514 0e3e 086c ebbc 2baa c13e e366 923d
000000d0: 19a3 13be c571 8bbe 4f51 0bbd 58f0 8a3d
000000e0: 6710 02be 94d2 7abe 620e 623e ff6c 173e
000000f0: ac16 c6bd 2d94 383e 4f37 8bbc 842a 15bd
00000100: 4cea 643d 64ff 103e bcd6 1bbd dee5 913b
00000110: 11d4 f03c 4ee9 913c c268 993e 1f3d af3e
00000120: 9240 8bbd d7ba 4e3e 7489 2c3e 7b81 4e3e
00000130: 09c4 843e 25e7 18be 9129 0c3e 4273 1e3d
00000140: 74c1 acbe 85be 1a3e 93c2 e43d 788f c23d
00000150: 772e 33bc 152e 8c3e 298a c23c c01f f7be
00000160: a705 363e 1e47 893e f883 bb3e 4112 883e
00000170: ccc5 bdbd 96cd f03d 22e4 aa3e c505 c5bd
00000180: 0ee9 9bbd f0c1 88be 3a60 ff3d b084 2a3e
00000190: e8f1 b43c b03d 523e 4356 733d 8d84 ba3d
000001a0: 4a78 fabd 684a b23c aafd b73e 5901 653c
000001b0: a813 543e 582c 663e 9b87 08be 2f85 733e
000001c0: c2dc 103d 280a 5abe 4775 153e 1c3c d23d
000001d0: 0484 a23e 2f7a e1bd a182 9abd bf41 41bb
000001e0: bdf8 73bd a783 34bd c5af dd3b 45ba db3d
000001f0: 6b4b bd3d dd02 be3d 8a81 033e 80f7 913e
00000200: 46e4 a3be 0cdd b4bd 7785 e8bd b30b 5a3d
00000210: a4b3 0fbe 8903 7c3e f5e2 8dbd a150 bf3d
00000220: 5651 0c3e d25c c53e a2b2 183e c718 5e3e
00000230: 8734 673d f5e4 0cbe 5789 7c3d 539b 1cbe
00000240: 5e71 3e3e 7193 cabc fe51 fb3c bca4 0c3e
00000250: f27c ddbd 693d bb3d aa09 3cbd 5684 253d
00000260: 1ce5 8ebd 15a0 623e 0710 3e3d 6232 d03c
00000270: bde4 883d 8fe5 e5bc fa29 fcbd 6c6b 9dbe
00000280: 30ee 75be 04f2 d7bd 0e40 ca3d aec8 403e
00000290: 453c 19be ef33 063e f29c a6bd b3da b33d
000002a0: a422 83be 1d0e 42be eddc 783d 3fd9 ae3d
000002b0: 5b7a 12be 6e41 16be 95fb a0be db48 0f3e
000002c0: d638 05bd a4a1 7dbe c637 cc3d 8905 0d3e
000002d0: 581b 87bd daed f53d ff41 09be 617e 0bbe
000002e0: b91e 453d 1f40 4bbe f34a 093e adda 61bd
000002f0: af91 c33c 7dc0 bfbd 975d 9ebc b36e 333d
00000300: ec4c e63c 171b 1e3e feb0 69be f18d 72bd
00000310: fc32 50be dfc4 03be 4e0c e0bd 25a0 013e
00000320: 4193 21be 318f 21bd 4c7b 0bbd 2c4f aabe
00000330: 9c57 1abc 05f9 20be f84f c9bc 81bf ad3d
00000340: a10d f4b9 3042 70bc e44b 083e 0657 c9bd
00000350: 368f 42bc af16 3abb b89f cdbc 75b7 6dbe
00000360: 6eab 353e f591 3f3e 2d02 233e aca9 7ebd
00000370: fb75 913b d413 1cbe 1b14 9c3d b0ef 46be
00000380: 5caf 80be 452e 74be e34c 783b 50f2 973a
00000390: fb0d 653c f3b5 0ebe d3cb 12be e68e 88bd
000003a0: 38b0 4ebe 7b1d 1bbd d2ef 2cbe 633b 833d
000003b0: 6a8e aebd 8fc5 9abc fa51 acbe 43f5 09bd
000003c0: 153e 0b3d f1de 2fbe d80a 0a3d 8f55 1f3d
000003d0: c7e6 17be 948e afbd 04fa c6bb ab69 803d
000003e0: a2dc 5dbe 6709 97be af80 8e3d a254 3c3e
000003f0: f2a7 893e f22f b6bd 4e28 1f3d 022a 013e
0.24144395 0.22722343 0.35304683 -0.028481396 -0.12694408 0.05646965 -0.100245945 0.44386417
-0.12441883 0.060014047 -0.09845556 0.03192591 0.2053094 -0.14355779 0.18621542 -0.18267062
-0.5401228 0.10051184 0.0130926715 -0.06859495 -0.030306611 -0.07463035 -0.06847666 -0.17213632
0.16129845 0.42214513 -0.054270804 0.14247583 0.020271933 -0.25900975 0.17295942 -0.023670634
0.23545545 0.1027129 -0.030874565 0.026090022 -0.1589014 -0.23660539 -0.023225736 -0.04490389
-0.39653543 0.10350299 -0.099466264 -0.03303259 0.24083516 0.30471504 -0.35148194 -0.09887349
0.13874872 -0.028738037 0.3782514 0.0714853 -0.14417686 -0.27235237 -0.03401309 0.06784123
-0.1270157 -0.24494392 0.22075799 0.14787672 -0.09672293 0.18025275 -0.016994147 -0.0364175
0.055887505 0.14159924 -0.038046584 0.004452451 0.029397996 0.017811444 0.29962736 0.3422632
-0.06799425 0.20188461 0.16849309 0.2016658 0.25930813 -0.14931925 0.13687731 0.038684137
-0.33741343 0.1511174 0.111699246 0.09500021 -0.010936371 0.27378908 0.02374752 -0.4826641
0.17775594 0.2681207 0.36624122 0.26576427 -0.092662424 0.117579624 0.33377177 -0.09620241
-0.07612811 -0.26710463 0.12469526 0.16652179 0.022088006 0.20531344 0.059408437 0.09107313
-0.122299746 0.021763995 0.35935718 0.013977372 0.20710623 0.22477853 -0.1333298 0.23781274
0.03536678 -0.21292937 0.14595519 0.10265371 0.31741345 -0.11009633 -0.07544447 -0.002948865
-0.059563387 -0.044070866 0.006765338 0.107288875 0.092429005 0.0927789 0.12842384 0.2850914
-0.32010096 -0.08831224 -0.113535814 0.053233813 -0.14033371 0.24610724 -0.06928054 0.093415506
0.13702902 0.3854738 0.14911893 0.2168914 0.05644658 -0.13759215 0.061654415 -0.15293626
0.18597934 -0.024728509 0.030678745 0.13734716 -0.10814847 0.091425724 -0.045907654 0.04040941
-0.06977293 0.22131379 0.046402004 0.02541465 0.06684253 -0.028063564 -0.12312694 -0.3074602
-0.24016643 -0.10544208 0.09875499 0.18826553 -0.14964397 0.13105749 -0.08135404 0.08781948
-0.25612366 -0.18950696 0.060757566 0.0853753 -0.14304487 -0.14673397 -0.31441942 0.13992636
-0.032524906 -0.24768692 0.099715754 0.13771643 -0.06597012 0.12008257 -0.13404082 -0.13622428
0.048125003 -0.19848679 0.13407497 -0.055140186 0.023873178 -0.09362886 -0.019331736 0.043806743
0.028112851 0.15440021 -0.22821423 -0.059217397 -0.20331949 -0.12868069 -0.10939847 0.12658747
-0.15778829 -0.0394432 -0.034053132 -0.33263528 -0.009420302 -0.15719993 -0.024574265 0.08483792
-0.0004654946 -0.014664218 0.133102 -0.098310515 -0.011874964 -0.0028394868 -0.025100574 -0.23214515
0.17741176 0.18708022 0.15918799 -0.06217353 0.004439113 -0.15241939 0.07621022 -0.19427371
-0.2513379 -0.23845775 0.0037887625 0.00115926 0.013980384 -0.13936596 -0.14335565 -0.06667881
-0.2018441 -0.03786991 -0.16888359 0.064078115 -0.08523257 -0.018893031 -0.33656293 -0.033681165
0.033994753 -0.17174889 0.033701748 0.038899954 -0.14834128 -0.085721165 -0.0060722847 0.062701546
-0.21666196 -0.2949936 0.06958138 0.1839166 0.26885945 -0.088958636 0.038856797 0.12613681

phi.initial_conv_module.0._layers.7.se_conv2.conv.weight f4 [64, 10, 1]
00000000: faf0 313e 3467 083e bfd8 853e b039 89bd
00000010: 200b a03e 5300 5e3d 1fc6 95be d2bf 06bf
00000020: 67a6 343e 53ee ce38 ac9c 9bbe 5eb2 10be
00000030: d815 a03d 9736 3dbe f9d8 b23e df80 ebbd
00000040: 34db d63c e8ac 38be 1319 95bd 339c 803c
00000050: aa1c 10be fd26 bbbe 4977 15be 6f69 c13d
00000060: fa2c 813e 6aa7 783e e5d0 863e 96b2 ec3d
00000070: 037b 21be 3cfd bc3e 239d c8bd 6c99 fdbc
00000080: 4015 cebe 1bd1 8c3e d878 fc3e ec36 bc3e
00000090: 9385 963e 2d50 2ebd 4876 083e 2b2e 733e
000000a0: 87b5 f53e 10a0 093d 5b55 c1be b2e1 a23e
000000b0: b158 abbe cf47 32bd f335 143e 99db 9dbe
000000c0: df0b adbd 601f ffbc 9d14 ae3e 0812 3dbd
000000d0: 0a81 f73c ec3e bf3d a88a 49be 364e 213d
000000e0: d8aa 383e c0ca f7bc 340c b3bd 62f3 b6be
000000f0: 3f6e ee3e 83af 4fbe 1a8b d03e 0272 c43e
00000100: 015b 7ebe 7ba9 54bd e0a6 47be dcdc 60be
00000110: 0083 16be 50ec 9bbd cdcc a4be 10c1 eabd
00000120: b076 d5be 9072 ec3d ee81 8d3d 04b0 8ebd
00000130: 228c 2f3d 41ef 8bbd d558 9b3d 1725 5cbd
00000140: 0da8 bf3e 57a2 3f3e 5a35 3abe fffc 67be
00000150: 3389 a5bd 2b1a 883d 66b7 b33e c7eb 30be
00000160: 7ae3 1b3e bea1 adbc 5283 ce3d 1861 62be
00000170: eb6e 83be 96fc c8bc bfa8 a0be 1e6f c8be
00000180: 2fb4 24be 2d27 e0bb f96a 43be adf6 6d3d
00000190: a9c2 123e 19ee 673e bdfd febd 7ecf 18be
000001a0: 324e 8fbe 8258 3fbe 9dba a43c 1314 e93e
000001b0: be80 463d 77d6 bd3c 6bbe 41be 4e0d 51be
000001c0: 04eb 0a3e 6da9 7d3e 6f22 463d f538 223d
000001d0: 4b88 b5bd c42b c0bd d3d3 5dbd 8367 8ebe
000001e0: 4b25 97be 533c 80be 00e8 dd3e 571a 6bbd
000001f0: 4cf3 a7be 1255 ce3c 9d12 5a3d 305e 813c
00000200: a982 55be d27a 5fbd b5db 973d db8a 0d3e
00000210: 42c9 ad3e 63cc dfbb 7057 bebe f7c2 5bbe
00000220: 48de 33be e771 bf3d 6ece 893e 9b4a 07be
00000230: 0557 eebd 5e3f 2ebe f560 5abe bbae 933c
00000240: c610 793e 93a3 08bd c3df a03d 0d64 13be
00000250: 9f6a 12be 8eeb b33d 7b53 c63e f73f babc
00000260: c856 893d 5928 a1be 5d54 7a3e 2d2d 2abe
00000270: 657a 9a3e 2f44 ae3c c97c ce3d 36bd 543e
00000280: b1ec 9e3e 11fc 153e 287a db3e 97e9 0a3e
00000290: f069 98be fc27 18be 28af 353e cf49 26bd
000002a0: 3d64 4f3e 6609 303e f6c4 673e 5c87 783d
000002b0: 858a 603e bc84 2a3d 9735 683e 5b43 ffbd
000002c0: dab1 f53d e55e 9e3d 8886 483e 069b 313e
000002d0: 866a 863e a785 4ebe 1056 6abe dd7a 20be
000002e0: 5e70 dc3d 93a8 d1be a04b fbbd 0111 9ebe
000002f0: 7590 a2bd 3e5b f4bd 13d8 be3e 4274 a33c
00000300: f781 103e cdd1 323e 5de6 81be a8bb 41be
00000310: 3f97 a8be df0d 903d c561 c83d 4a38 2c3d
00000320: e6f3 dc3e de50 4c3d 61f8 893e 1705 ad3e
00000330: 8a1c 2ebe 4b72 16be b1ea 183f 5136 aabd
00000340: e8f0 1639 2ecd 0c3e aa4e f7bd eef0 bdbe
00000350: e92e 8abe 15b5 853e 2f55 c4be aac8 d3be
00000360: b245 803d 10f1 0bbe b781 d3be 52db 63be
00000370: 3a1b 27be b331 d83d b0e2 b23a fa9a 6bbe
00000380: 4522 57bd a3be 823d 73c3 b0bd ab6c 6cbe
00000390: 342e f4be 6f86 013d cd2d a03d d145 1a3e
000003a0: 61b6 27be 67aa 22be ed3d 2f3e 96c9 b1be
000003b0: 77a7 a23e 512f 07be 377b d63e b536 0e3f
000003c0: b7e5 3b3e f13e 2c3e c9f1 f93e f72f 113f
000003d0: 291c b8be fd56 10bf 7ff2 6dbd 3ec6 e03e
000003e0: aa46 bd3e 5371 a5bc f721 ecbd fbee dbbd
000003f0: 8d21 8abe 5c42 f3bd 97aa e23d 4109 93be
0.17377082 0.13320619 0.26141927 -0.06700456 0.31258488 0.054199528 -0.29252717 -0.52636445
0.17641602 9.867237e-05 -0.3039297 -0.14130542 0.07816666 -0.18477856 0.34931162 -0.114991896
0.026227571 -0.18034708 -0.07280173 0.015699482 -0.14073434 -0.36553183 -0.14596285 0.09443938
0.25229627 0.24282613 0.2633125 0.115575 -0.15769581 0.36911952 -0.097955965 -0.030956946
-0.40250587 0.27503285 0.49310946 0.36760652 0.29398784 -0.04255693 0.1332637 0.2374808
0.47990057 0.033599913 -0.37760434 0.31812817 -0.33466104 -0.043525513 0.14473705 -0.30831602
-0.0844953 -0.03114289 0.34000102 -0.046159774 0.030212898 0.09338173 -0.196818 0.03938123
0.18033922 -0.030248046 -0.08742562 -0.3573256 0.46568486 -0.20281796 0.40731126 0.3836823
-0.24839403 -0.05191944 -0.19497252 -0.21959251 -0.1469841 -0.076134324 -0.321875 -0.11462605
-0.41692114 0.115452886 0.06909548 -0.06967166 0.04285825 -0.068327434 0.07585303 -0.05374631
0.374329 0.18714271 -0.18184415 -0.22655104 -0.08082809 0.06645616 0.3510086 -0.17277442
0.15223494 -0.021195289 0.10083641 -0.22107351 -0.2567056 -0.024534505 -0.31378743 -0.39147276
-0.1608436 -0.0068406076 -0.19083776 0.058096576 0.1433207 0.22649421 -0.124507405 -0.14922902
-0.27989346 -0.18686107 0.020108515 0.45523128 0.048462622 0.023173554 -0.18920295 -0.20415232
0.13566214 0.24771662 0.048372682 0.0396051 -0.088638864 -0.09383348 -0.05415709 -0.27813348
-0.2952064 -0.25046024 0.43341064 -0.057398167 -0.32802808 0.025187049 0.053240407 0.015791982
-0.20850624 -0.05456049 0.07414953 0.138225 0.3394261 -0.0068297847 -0.37176085 -0.21461092
-0.17565262 0.09347897 0.26915306 -0.13212053 -0.116376914 -0.1701636 -0.21326049 0.018027654
0.24322805 -0.03335912 0.07855179 -0.14393635 -0.14298485 0.08785163 0.38735566 -0.022735579
0.06706005 -0.31476095 0.24446245 -0.16618796 0.30171505 0.021272747 0.10082395 0.20775303
0.31039956 0.14646937 0.42866635 0.1356567 -0.29768324 -0.14859003 0.17742598 -0.040597733
0.20253082 0.17191085 0.22633728 0.060675964 0.21927841 0.04163049 0.22676693 -0.12464019
0.11996813 0.077329434 0.1958257 0.17344293 0.26253146 -0.20168172 -0.22884393 -0.15671869
0.1076362 -0.40948924 -0.12270284 -0.30872348 -0.07937709 -0.119314656 0.37274227 0.019952897
0.14112078 0.17462845 -0.25371066 -0.18919241 -0.32927892 0.07033896 0.09784273 0.04204587
0.4315483 0.04988181 0.2694731 0.33792946 -0.17003074 -0.14692037 0.5973311 -0.08311141
0.0001439486 0.13750145 -0.12075551 -0.37097877 -0.26988915 0.26114717 -0.3834624 -0.41364032
0.06263293 -0.13666177 -0.41309902 -0.22251633 -0.1631898 0.105563544 0.001364788 -0.23008338
-0.052522916 0.06384017 -0.08631029 -0.23088329 -0.476915 0.031622346 0.07821236 0.15065695
-0.16378166 -0.15885316 0.17113467 -0.3472411 0.3176839 -0.13201644 0.4189088 0.55552226
0.18349348 0.16820885 0.4881728 0.56713814 -0.35958984 -0.56382734 -0.05809259 0.43901247
0.36967975 -0.020195639 -0.11529916 -0.10738941 -0.26978722 -0.118778914 0.11067694 -0.28717998

phi.initial_conv_module.0._layers.8.conv.weight f4 [32, 64, 1]
00000000: 0c07 a1bd a457 bc3d 3ea1 863d 3aef e43d
00000010: d4ea a93d d853 a83c f152 cc3c 7ca3 e7ba
00000020: d67d e33c f39f c03b 5be8 cdbc 0f22 ab3c
00000030: bbbc d13d 755d a33c 5ea5 89bd 707d d73b
00000040: 1081 ffbd e2aa 17bd c644 683d 229a edbd
00000050: 65c0 2bbe 5eba 9abd 61e6 703d 7cad 603e
00000060: 1818 90bd 2a2c 84bd 8937 5b3c 5169 dbbb
00000070: 005b 85be bded 16be 7103 d03d 337e 823d
00000080: 4f20 0bbe 1523 98bd 72f2 a93b 7c50 cb3d
00000090: eb20 abbd 036f f13c e813 16be 2a38 9fbd
000000a0: 4e71 833d 3b66 9dbd 8ba5 043d bd68 36bd
000000b0: a78d 833d 0dba 0d3e 60be 0a3d 0f14 61bd
000000c0: 83da da39 6379 4dbc 4bd7 f53c f2ff 3b3d
000000d0: 7cec 0e3c edef 14bd ed99 45bd 9ec3 053d
000000e0: 1c00 cb3d 3a36 753a 3512 8f3a 1d60 1abe
000000f0: 3f5d 8e3c 9416 84bd 7d8b 5abc 2907 1ebd
00000100: 96d8 b23d bace c5bc 3e12 2b3d bbdc d43c
00000110: afd7 013e b98d 05be f6fe ffbc de62 debd
00000120: 9027 56bd 75f5 783c 3039 0ebe b9e2 c1bd
00000130: 47d7 543d 7b6e 29bc 94de 1b3e 029f c63d
00000140: ae99 95bb 90ab 0d3d 74d8 b239 e56f 80be
00000150: 4244 343e 2d28 a4bd 4c7a 97bd bddf dc3a
00000160: ee29 ad3d 06f1 203d cfee 9c3c 4f9e e13d
00000170: e50f 3fbd 5c01 e53a f585 893d e6ae 69bc
00000180: bd4a f9bd 2c99 5cbd ba3b 123e dfb9 9fbc
00000190: cf3e 9bbd 69aa f8bc bc3c fdbc 84ba 813d
000001a0: 3413 eb3c e73a 45bd 6826 12be 37a8 fa3d
000001b0: 7829 85bd 73b0 4fbd c3fd 39bd 8607 6cbd
000001c0: 76df b1bd 8b75 0dbd 3b0d 8f3d 0775 743d
000001d0: ff7e ba3b ff04 cebd 74ff 82bc ed81 ac3c
000001e0: 1914 6e3d cc30 bb3c de6c 0e3e fda7 123e
000001f0: f693 3fbe 6630 1c3e d52c 08bc fbc2 8f3d
00000200: 0da4 5d3b 7e04 d0bd dea4 f53a 9345 903d
00000210: e09c d7bd b515 adbb 7c52 18be 7cd6 97bd
00000220: 65ab 76be 7735 d7bd 97fc 0d3e db54 9c3c
00000230: c46a 1abe 7e16 d6bd 3c21 83bd ecea f13c
00000240: 7304 17be 9052 cf3c ab42 8c3d c577 c43c
00000250: 72d5 98bd f7e2 163d 56d7 86bd c5ce 0ebd
00000260: b4b3 c9bd 110f 20be 8d03 e9bd 44b9 e8bd
00000270: d4f4 c43c 4826 c13d 7685 01be 853a 21bd
00000280: 34ba 333d a89c 87bc f79b 40bd 2d22 343d
00000290: 4574 03be db9b 2bbd 0396 6dbc cae1 80bd
000002a0: 9be3 df3c 579a c5bc ccbc b23d 39ad 9dbd
000002b0: ed0e 91bd f028 00be ad90 5d3d 7b82 8bbc
000002c0: 7330 3c3d fb37 40bd 7dda 933d 6322 eb3c
000002d0: b560 403d c155 2ebe d752 cbbd 6209 16be
000002e0: bb28 d8bd 6953 02be 2674 64be 4cf0 66bc
000002f0: f2cb 0f3e 0b40 2a3e 61d1 e13d a732 cebc
00000300: 5887 ec3d 48b7 c53d 3842 64bd 99b9 a03d
00000310: 48b4 413d 8c54 e1bd b93a 1abb a845 543d
00000320: 7a4a d13c 953d 98bd 5794 f4bd 1886 6abc
00000330: 776c e6bc 0438 9e3c 2194 4d3d 5cb8 223e
00000340: 95ef 38be d781 8d3d a8f6 133e d594 e9bd
00000350: ca65 07be 0447 e8bd ebf6 6ebe 0375 ab3d
00000360: 2ab9 943d c5c0 a13d 4607 8c3d 2dd8 653d
00000370: 47ea e3bc 955b 593d 9f1f eb3d 41ec 92bc
00000380: 5956 323d feb9 c0bc 16c4 783c 5981 cfbd
00000390: 3626 9bbd 3062 80bd 008d 9cbd 31e5 9d3d
000003a0: 2574 70bd 3205 a13d 0745 0f3d aba9 41bd
000003b0: 3f6d 0ebe 97a7 023d bf98 99bb 2d98 1abe
000003c0: 25df 473e ee63 dfbc 5675 2e3d cb7f 9c3d
000003d0: ad1a e73b 49cb 34bc 79d2 143e 77fa d43c
000003e0: 31cd 163d 5519 01bd a518 d9bc 36a1 cb3d
000003f0: bebd fc3c 24d2 993d f72a d4bc 147b e53b
-0.07862672 0.091964036 0.06573723 0.11178441 0.08296743 0.020547792 0.024941893 -0.0017672624
0.027769964 0.0058784424 -0.02513521 0.020890264 0.102410756 0.019942025 -0.067209944 0.0065762326
-0.124757886 -0.0370282 0.056706212 -0.11601664 -0.16772611 -0.07555078 0.058813456 0.21941179
-0.070358455 -0.06453736 0.01337994 -0.0066959043 -0.2604599 -0.14739127 0.101569064 0.06371727
-0.13586544 -0.07428566 0.0051863724 0.099274606 -0.08355888 0.02947188 -0.14656031 -0.07774384
0.064180955 -0.076855145 0.032384437 -0.04453348 0.064235024 0.13840504 0.033872962 -0.05495077
0.00041743004 -0.012541148 0.030009886 0.045898385 0.008723374 -0.036361624 -0.0482425 0.03265726
0.0991213 0.00093540887 0.001091546 -0.15075727 0.017378448 -0.06449619 -0.013338921 -0.038581047
0.08732717 -0.024146426 0.041765444 0.025984159 0.12679933 -0.13042344 -0.031249505 -0.10858701
-0.052283823 0.01519524 -0.13889003 -0.09467072 0.051963117 -0.010341282 0.15221626 0.09698297
-0.004565439 0.034587443 0.00034112076 -0.2508537 0.17604163 -0.080154754 -0.07396373 0.0016851347
0.08455263 0.039292358 0.019156842 0.11016523 -0.046646018 0.0017471719 0.067150034 -0.01426289
-0.12172458 -0.053857014 0.14280596 -0.01949781 -0.07580339 -0.030354695 -0.03091275 0.06334403
0.02869568 -0.048151877 -0.14272463 0.12239116 -0.0650205 -0.050705384 -0.04540802 -0.057624362
-0.086852 -0.034535926 0.069849454 0.05968192 0.0056914086 -0.10059547 -0.01599095 0.021058047
0.058124635 0.022850417 0.13908717 0.14321895 -0.18708786 0.15252838 -0.00831147 0.070196114
0.0033819706 -0.10157107 0.0018741151 0.0704452 -0.105279684 -0.0052821287 -0.14875215 -0.074139565
-0.2408882 -0.105082445 0.13865887 0.019083431 -0.1507979 -0.10453509 -0.06402823 0.029530965
-0.14747791 0.025307924 0.068486534 0.023982892 -0.074625865 0.036837544 -0.06584041 -0.03486516
-0.09848729 -0.15630747 -0.113776304 -0.113634616 0.024042524 0.0943113 -0.12648568 -0.03936245
0.04387875 -0.016554192 -0.04702374 0.043977905 -0.12837322 -0.041896682 -0.014501098 -0.06293066
0.02733021 -0.024121447 0.087274164 -0.07699055 -0.07082925 -0.12515616 0.05409305 -0.017029991
0.045944642 -0.046928387 0.07219408 0.02870292 0.046967227 -0.170249 -0.0992791 -0.14652017
-0.10554644 -0.12727131 -0.22309932 -0.014095377 0.14042643 0.16625993 0.11026264 -0.025170637
0.11549252 0.09654099 -0.055727214 0.078479 0.04729107 -0.11002454 -0.0023533537 0.051824242
0.025548209 -0.07433621 -0.11942356 -0.014314197 -0.028127892 0.01931382 0.050190095 0.1589064
-0.18060143 0.069095306 0.1444956 -0.114053406 -0.13222423 -0.1134167 -0.23336379 0.083719276
0.0726188 0.07898096 0.06837325 0.056114364 -0.027821673 0.053065855 0.114806406 -0.01793492
0.04353938 -0.023526188 0.015183469 -0.10132093 -0.075756475 -0.06268728 -0.07644081 0.077097304
-0.058704514 0.07862319 0.03497794 -0.04728095 -0.13908862 0.031898107 -0.004687398 -0.15097113
0.19518717 -0.02726933 0.04259237 0.07641562 0.0070527405 -0.011034795 0.14533414 0.025998337
0.03681678 -0.0315183 -0.02650101 0.09942858 0.030852195 0.07510784 -0.025899393 0.0070031974

phi.initial_conv_module.0._layers.9.weight f4 [32]
00000000: 3ac5 633f ae13 873f 5c8d 833f 37a8 683f
00000010: a1ab 793f b644 833f 2c88 833f 178c 763f
00000020: 60ef 7b3f 4f74 833f 7cf9 933f 9159 793f
00000030: 42b5 7a3f 27fb 603f c60d 903f e3d2 823f
00000040: 717e 793f b235 853f 869e 843f e547 853f
00000050: a76d 8b3f ac28 673f 5eea 843f 3eb8 7b3f
00000060: 8c45 863f e4dd 903f 6997 793f 684f 703f
00000070: 282a 763f f3ed 753f 0862 873f 1180 893f
0.8897282 1.0552881 1.0277514 0.90881675 0.9752751 1.0255344 1.0275931 0.9630751
0.9841213 1.026987 1.1560512 0.9740229 0.9793283 0.8788323 1.1254203 1.0220608
0.9745856 1.0407012 1.0360878 1.0412565 1.0892838 0.90296435 1.0384023 0.98328006
1.0489974 1.1317716 0.9749666 0.93871164 0.96158075 0.96066207 1.0576792 1.0742208

phi.initial_conv_module.0._layers.9.bias f4 [32]
00000000: 0dea 11bc d3b0 01bc cf8d 9c3b a67a 3e3b
00000010: 966a c43b 5cb2 af3b a3ac 603c e103 0d3a
00000020: e41b 82bb c17e 2d3c 32a5 f1ba 7de4 11bb
00000030: f6a9 5abb 99ee c93a 137f 4e3b f514 83ba
00000040: 285a 3f3a 8b27 e33b 6dd7 a23b 105b 0dbc
00000050: 775e 743b 0697 94bc 9d3c bb3b 1993 7dbc
00000060: 6847 0f3b 9985 3338 70db 903b ccf8 0fbc
00000070: 014a 573b 0f13 dd3a e086 d23b 0af8 063c
-0.0089059 -0.007915693 0.004777647 0.0029064803 0.0059941513 0.0053618383 0.013713035 0.0005379301
-0.00397061 0.0105893025 -0.0018436073 -0.0022261434 -0.0033365465 0.0015406191 0.0031508848 -0.0010000753
0.0007299506 0.006932204 0.0049695284 -0.008627668 0.003728775 -0.01813842 0.005714013 -0.015476965
0.002186263 4.2801348e-05 0.0044206902 -0.008787345 0.0032850506 0.0016866642 0.0064247698 0.008237848

phi.initial_conv_module.0._layers.9.running_mean f4 [32]
00000000: 8740 d3bd 459d edbb c889 1abe c517 f6bc
00000010: 9fe2 b4bd 97bd d3bd 1cb9 223d 114f 95bd
00000020: bd92 43bd e21e f43c ed72 093b 9695 6bbd
00000030: 7302 07bd 637f 06be 2989 00bd 4b54 f4bd
00000040: ddcd ac3b be26 b1bd 3de7 b9bc fded 00be
00000050: 2e51 3cbe d02a 92bd 31a7 aa3c 8441 1f3d
00000060: 3f83 753d 3667 b5bd 6a68 f7bc 76a5 103e
00000070: af9c 9cbc aa8c 59bc de0d adbd 2a7d abbd
-0.10315042 -0.007251414 -0.15091622 -0.030040631 -0.08832287 -0.10338896 0.039727315 -0.07290471
-0.047747362 0.029799882 0.0020973042 -0.057515703 -0.03296132 -0.13134532 -0.031380806 -0.1193014
0.0052735643 -0.086499676 -0.02269327 -0.12590785 -0.18390343 -0.07137072 0.020831676 0.03888084
0.05993962 -0.088575765 -0.030201156 0.14125618 -0.019117681 -0.013278166 -0.084499106 -0.083734825

phi.initial_conv_module.0._layers.9.running_var f4 [32]
00000000: b884 1e3d ba33 503d 5dfd 813d 0520 333d
00000010: 8f1d 4b3d e342 213d 9b28 393d 4e48 813d
00000020: 53b2 3d3d 149e 553d 3f9e 1b3d 2997 473d
00000030: 7acd 483d a7b8 1d3d a9ab 5e3d 9cc4 3f3d
00000040: 3abf 0f3d 1ad2 4d3d b994 953d ead8 243d
00000050: 03df 743d 2eff 383d 74d4 283d 4785 563d
00000060: f9dd 303d 2584 653d 69b1 853d 207d 5d3d
00000070: 8413 323d eea8 663d 3b0e 583d 30a3 5d3d
0.03870079 0.05083058 0.06347153 0.043731708 0.049588736 0.03937043 0.04520474 0.06312619
0.04631264 0.05215271 0.037992712 0.048728142 0.049024083 0.038506176 0.054362927 0.04681836
0.035094477 0.050249197 0.07303757 0.040245928 0.059782993 0.045165233 0.041218236 0.052373197
0.04318044 0.056034226 0.06527979 0.054074407 0.043475643 0.056313448 0.052747946 0.054110706

phi.initial_conv_module.1.weight f4 [32]
00000000: 6798 633f 3dee 893f e55d 873f 4564 693f
00000010: 80a0 7c3f 5bd2 853f 8596 863f 0f1f 773f
00000020: 3130 7d3f b9fa 853f e56e 983f 0167 793f
00000030: c89a 7d3f a222 613f a236 963f 415e 853f
00000040: 79c7 7c3f 5d4f 883f 07d3 863f 6f24 873f
00000050: 5e1b 8f3f 67fd 653f 5a5a 873f 0d5b 803f
00000060: 0d0a 893f efd1 963f c3f4 7b3f 3ab3 703f
00000070: b8f3 763f d74d 793f 8604 8a3f 8df8 8d3f
0.8890442 1.077583 1.0575529 0.91168624 0.98682404 1.045482 1.0514685 0.96531767
0.9890166 1.046714 1.1908842 0.97422796 0.990643 0.8794347 1.1735423 1.0419389
0.9874187 1.064922 1.053315 1.0557994 1.1180227 0.89839786 1.0574448 1.0027786
1.0706192 1.1782817 0.9842035 0.9402348 0.96465635 0.973844 1.078263 1.1091477

phi.initial_conv_module.1.bias f4 [32]
00000000: 0c1e 6bbd 5fcc 10be 72eb 4a3e fb12 c1bd
00000010: 6430 b4bd 6648 fd3d 934c 823d fdbe e6bd
00000020: 23ed 5ebe eaed 463d aa8d 973d 9476 0d3d
00000030: 40f9 86bd bd78 db3c 12f0 7b3e 0a1e 1a3d
00000040: 754e 91bd 20a8 9abc 1877 073e f3c6 8abd
00000050: 6845 a53d cf72 c9bd 4c0c bcbc e1dc 38bd
00000060: bca8 ed3c ae04 c83d fa99 00be ac38 f5bd
00000070: 64b4 ee3c 932e 05be b217 b33d b265 a93e
-0.0574017 -0.14140461 0.19816378 -0.09427448 -0.08798292 0.123673245 0.063622616 -0.11266897
-0.21770148 0.048566736 0.07400067 0.034536913 -0.065905094 0.026790971 0.24603298 0.037626304
-0.070950426 -0.018878996 0.13229024 -0.06776228 0.08069879 -0.09836351 -0.022955082 -0.04513252
0.029011123 0.097665176 -0.12558737 -0.119737 0.029138751 -0.13006048 0.08744754 0.330854

phi.initial_conv_module.1.running_mean f4 [32]
00000000: 31cf 11bc 7fb2 01bc e065 9d3b b88c 3d3b
00000010: 3f58 c43b 08cc af3b 8e9c 603c b6c1 093a
00000020: 5031 82bb b379 2d3c b7ed f1ba 6408 12bb
00000030: c9b4 5bbb dd9c c93a e142 4e3b 22c5 82ba
00000040: e27a 3f3a 9c0d e33b e8e1 a23b 625e 0dbc
00000050: 0381 743b bb9d 94bc 4326 bb3b 2a8a 7dbc
00000060: 24cf 0e3b abba 3838 49d2 903b 7c07 10bc
00000070: 692d 573b d0f9 dc3a e587 d23b 5efb 063c
-0.008899496 -0.007916092 0.004803404 0.0028922986 0.005991965 0.0053648986 0.013709201 0.00052550004
-0.0039731637 0.010588097 -0.0018457685 -0.0022282833 -0.0033524504 0.0015381832 0.0031472968 -0.0009976963
0.0007304383 0.0069291126 0.004970778 -0.00862846 0.0037308342 -0.018141618 0.0057113483 -0.015474835
0.0021790946 4.4042867e-05 0.004419599 -0.008790847 0.0032833463 0.0016859118 0.0064248913 0.008238642

phi.initial_conv_module.1.running_var f4 [32]
00000000: 2dd0 443f a3e7 8b3f f07b 853f b032 4f3f
00000010: f3b7 6d3f 06ae 833f abbf 833f b689 693f
00000020: d804 723f 848b 843f b3d1 a63f fda5 6e3f
00000030: 1659 703f a1fc 403f ee59 9f3f b42b 833f
00000040: f692 6c3f dbd5 873f 519e 873f 393a 873f
00000050: 0a91 953f 40a0 4c3f e20b 873f 056b 723f
00000060: 8b6c 883f 122b a13f aa5c 6e3f 5462 5d3f
00000070: d45e 673f 9ef2 673f 0b32 8c3f 080a 913f
0.7688015 1.0930065 1.0428448 0.8093672 0.9285881 1.0287483 1.0292867 0.91225755
0.9453864 1.0355077 1.3032745 0.9322203 0.93885934 0.7538548 1.2449319 1.0247712
0.92411745 1.0612139 1.0595189 1.0564643 1.1684887 0.7993202 1.0550501 0.9469455
1.0658125 1.2591269 0.93110144 0.8647816 0.9037907 0.9060458 1.0952772 1.1331186
