logs/4birds_CF_combined_log_linear_gru64_30epochs/2025-05-20_07-54-16/best_4birds_CF_combined_log_linear_gru64_30epochs.pth (torch, 333506 bytes, 199 tensors)

stft_transform.window f4 [1024]
00000000: 0000 0000 0000 1e37 00e0 1d38 00a0 b138
00000010: 00e8 1d39 00b8 7639 00a4 b139 00c4 f139
00000020: 00e2 1d3a 00d0 473a 00aa 763a 0039 953a
00000030: 0093 b13a 0063 d03a 00a8 f13a 80b1 0a3b
00000040: 80c9 1d3b 801b 323b 00a8 473b 806e 5e3b
00000050: 806e 763b c0d3 873b 400d 953b 00e3 a23b
00000060: 0055 b13b 4063 c03b c00d d03b 0054 e03b
00000070: 0036 f13b e059 013c 6066 0a3c 80c0 133c
00000080: 2068 1d3c 405d 273c c09f 313c 802f 3c3c
00000090: 600c 473c 4036 523c 00ad 5d3c a070 693c
000000a0: 0081 753c 00ef 803c b043 873c 90be 8d3c
000000b0: 905f 943c 9026 9b3c a013 a23c 9026 a93c
000000c0: 505f b03c e0bd b73c 3042 bf3c 10ec c63c
000000d0: 90bb ce3c 80b0 d63c e0ca de3c 900a e73c
000000e0: 806f ef3c a0f9 f73c 6854 003d 80be 043d
000000f0: 103b 093d 10ca 0d3d 686b 123d 181f 173d
00000100: 10e5 1b3d 40bd 203d a0a7 253d 28a4 2a3d
00000110: d0b2 2f3d 78d3 343d 2806 3a3d c04a 3f3d
00000120: 40a1 443d a009 4a3d c083 4f3d a80f 553d
00000130: 38ad 5a3d 685c 603d 381d 663d 80ef 6b3d
00000140: 48d3 713d 70c8 773d f8ce 7d3d 64f3 813d
00000150: ec07 853d 0825 883d b44a 8b3d e878 8e3d
00000160: 98af 913d c0ee 943d 5836 983d 5886 9b3d
00000170: b4de 9e3d 6c3f a23d 6ca8 a53d b819 a93d
00000180: 3c93 ac3d f814 b03d e09e b33d e830 b73d
00000190: 0ccb ba3d 446d be3d 8417 c23d c0c9 c53d
000001a0: f883 c93d 1c46 cd3d 2010 d13d 04e2 d43d
000001b0: b8bb d83d 309d dc3d 6c86 e03d 5c77 e43d
000001c0: f46f e83d 2c70 ec3d 0078 f03d 6087 f43d
000001d0: 409e f83d 9cbc fc3d 3271 003e ca87 023e
000001e0: 0ea2 043e fcbf 063e 8ce1 083e b806 0b3e
000001f0: 7c2f 0d3e d65b 0f3e bc8b 113e 28bf 133e
00000200: 1af6 153e 8830 183e 6e6e 1a3e c6af 1c3e
00000210: 8cf4 1e3e b83c 213e 4488 233e 2ed7 253e
00000220: 6e29 283e fc7e 2a3e d8d7 2c3e f633 2f3e
00000230: 5693 313e ecf5 333e b65b 363e b0c4 383e
00000240: ce30 3b3e 10a0 3d3e 6c12 403e de87 423e
00000250: 5e00 453e e87b 473e 76fa 493e 007c 4c3e
00000260: 8000 4f3e f287 513e 4e12 543e 8e9f 563e
00000270: ac2f 593e a2c2 5b3e 6658 5e3e f8f0 603e
00000280: 4e8c 633e 602a 663e 2acb 683e a46e 6b3e
00000290: ca14 6e3e 94bd 703e fc68 733e fa16 763e
000002a0: 88c7 783e a07a 7b3e 3630 7e3e 2674 803e
000002b0: 6cd1 813e ea2f 833e 9c8f 843e 7df0 853e
000002c0: 8c52 873e c4b5 883e 221a 8a3e a47f 8b3e
000002d0: 46e6 8c3e 044e 8e3e dab6 8f3e c420 913e
000002e0: c08b 923e caf7 933e e064 953e fcd2 963e
000002f0: 1c42 983e 3cb2 993e 5823 9b3e 6b95 9c3e
00000300: 7608 9e3e 727c 9f3e 5cf1 a03e 3067 a23e
00000310: ecdd a33e 8c55 a53e 08ce a63e 6347 a83e
00000320: 96c1 a93e 9e3c ab3e 78b8 ac3e 1e35 ae3e
00000330: 8fb2 af3e c430 b13e bdaf b23e 752f b43e
00000340: e8af b53e 1231 b73e f0b2 b83e 7e35 ba3e
00000350: b6b8 bb3e 993c bd3e 20c1 be3e 4846 c03e
00000360: 0ecc c13e 6d52 c33e 60d9 c43e e660 c63e
00000370: fce8 c73e 9b71 c93e c0fa ca3e 6984 cc3e
00000380: 910e ce3e 3299 cf3e 4c24 d13e daaf d23e
00000390: d83b d43e 42c8 d53e 1455 d73e 4ae2 d83e
000003a0: df6f da3e d2fd db3e 1f8c dd3e c01a df3e
000003b0: b2a9 e03e f238 e23e 7cc8 e33e 4958 e53e
000003c0: 59e8 e63e a878 e83e 3109 ea3e f099 eb3e
000003d0: e12a ed3e 00bc ee3e 494d f03e bade f13e
000003e0: 4d70 f33e 0002 f53e ce93 f63e b325 f83e
000003f0: acb7 f93e b249 fb3e c6db fc3e e16d fe3e
0.0 9.417534e-06 3.7640333e-05 8.46982e-05 0.00015059114 0.00023528934 0.0003388226 0.00046113133
0.00060227513 0.0007622242 0.0009409487 0.0011384785 0.0013547838 0.0015898645 0.0018436909 0.0021162927
0.0024076402 0.0027177036 0.0030465126 0.0033940375 0.0037602484 0.0041451156 0.0045486987 0.004970908
0.005411744 0.0058712065 0.0063492954 0.006845951 0.0073611736 0.007894963 0.00844726 0.009018064
0.009607345 0.010215104 0.01084131 0.011485934 0.0121489465 0.012830317 0.013530016 0.014248043
0.014984369 0.015738964 0.016511768 0.017302781 0.018111974 0.018939286 0.019784749 0.02064827
0.021529824 0.022429407 0.02334699 0.024282485 0.025235921 0.026207209 0.027196348 0.028203279
0.029227972 0.030270398 0.031330496 0.032408237 0.033503592 0.03461653 0.03574696 0.036894888
0.038060248 0.039242983 0.040443063 0.041660458 0.04289514 0.044146985 0.045416027 0.046702147
0.048005342 0.049325585 0.050662756 0.052016884 0.05338785 0.054775625 0.05618021 0.057601452
0.059039384 0.060493886 0.06196496 0.06345251 0.064956516 0.06647688 0.06801358 0.06956655
0.0711357 0.072721004 0.0743224 0.075939834 0.07757321 0.07922253 0.080887645 0.082568586
0.0842652 0.085977495 0.087705374 0.08944875 0.09120759 0.092981845 0.094771415 0.096576214
0.09839624 0.10023138 0.10208154 0.103946716 0.105826795 0.10772169 0.10963139 0.111555785
0.11349478 0.115448326 0.11741638 0.11939883 0.12139559 0.12340662 0.1254318 0.12747112
0.12952444 0.13159174 0.1336729 0.13576782 0.13787645 0.13999876 0.1421346 0.14428389
0.14644662 0.14862263 0.15081188 0.15301427 0.15522975 0.15745819 0.1596995 0.16195366
0.16422054 0.16650003 0.16879213 0.17109665 0.1734136 0.1757428 0.17808422 0.1804378
0.18280336 0.1851809 0.18757027 0.18997142 0.19238421 0.1948086 0.1972445 0.19969177
0.20215034 0.20462015 0.20710108 0.20959303 0.21209592 0.21460965 0.21713409 0.21966922
0.2222149 0.22477102 0.22733751 0.22991425 0.23250118 0.23509818 0.23770517 0.24032202
0.24294865 0.24558496 0.24823079 0.25088614 0.2535509 0.25622493 0.25890815 0.2616004
0.26430166 0.26701176 0.26973063 0.2724582 0.27519435 0.27793896 0.28069192 0.2834531
0.28622246 0.28899986 0.29178524 0.29457843 0.29737937 0.30018795 0.30300403 0.30582747
0.3086583 0.31149632 0.31434143 0.3171935 0.3200525 0.3229183 0.32579064 0.32866964
0.33155507 0.33444685 0.33734488 0.340249 0.34315917 0.34607518 0.34899703 0.35192457
0.35485768 0.35779625 0.36074018 0.36368936 0.3666436 0.36960295 0.37256718 0.3755362
0.37850994 0.38148823 0.38447094 0.38745803 0.3904494 0.39344487 0.39644432 0.3994477
0.40245488 0.40546566 0.40848005 0.4114979 0.41451907 0.41754347 0.42057097 0.42360145
0.42663476 0.42967087 0.43270966 0.43575096 0.43879467 0.4418407 0.44488895 0.4479392
0.45099142 0.45404553 0.45710137 0.46015882 0.46321777 0.46627808 0.46933964 0.4724024
0.47546616 0.47853088 0.4815964 0.48466262 0.48772943 0.49079663 0.49386424 0.49693206

phi.initial_conv_module.0._layers.0.conv.weight f4 [64, 64, 1]
00000000: a6d3 1c3e d169 a43d ee48 0fbd b233 b53d
00000010: 397b 86bd 4e78 293d c58c 8ebd 36ad af3d
00000020: c8bd 743d fb51 37be 5b78 753c 4b18 9ebc
00000030: 9eb5 e13d 6341 783d bdf0 d03d ae2c 143d
00000040: f117 233e e6d8 e43c 7822 b0bd 3dbb 183d
00000050: 80a9 ecbc fd75 963b cece adbc 86aa a23d
00000060: 1b12 e0bd d8f7 66bd 23d2 4bbd 6a8d 98bd
00000070: 016a 77bc 3794 21be 7517 8a3d 75bc 05be
00000080: 036a c33d 6543 fa3c 2d60 77bd 2083 473d
00000090: 0de2 7dbc 4630 6f3d 170c 22bb 0b4e 7dbd
000000a0: 5fdf 223c 85ba a4bc f33d a13d 9d67 023e
000000b0: b6b5 843d ae7a c2bd 728c 883c 0ed0 88bd
000000c0: 2c9d 59bc 4fbe aabd 62f9 10be db2c a6bd
000000d0: 2a3b c3bd 6c8a b83d 4046 4d3d 06a1 a13d
000000e0: 973b 4f3d d018 a6bc 0e7d 983d 059c a2bd
000000f0: ac26 4d3b 95c7 b3bd 9d74 5b3d f625 e3bc
00000100: c673 c73d 45a5 f1bc 00e2 053e b6e2 74bd
00000110: af3a b8bd 63a7 c4bd 5359 963d 9996 d6ba
00000120: 9dee 6b3d d995 2bbe e6de 22be 99e3 e8bd
00000130: 0ae7 93bd 8419 c03d 56ef d83d 82d6 2c3e
00000140: 3b7a 7abc cefd 85bd 41ed a43d aeab 8fbc
00000150: ec3b fe3d c82d 6f3d 5707 1a3e 6b3b 96bd
00000160: 6bef 86bd 8351 1d3c bd23 3d3d 890c 023d
00000170: 5091 173e eb28 e63d 0082 d6bd 086c 04be
00000180: 0377 c2bc eb71 9dbd 9157 28bd 1655 b7bd
00000190: e5a6 b9bd 020b 9abb 7c7d fcbc 7cc6 c9bd
000001a0: 8a6c d13c 8a0b 01bd 4a65 a1bc c2a3 813c
000001b0: ef54 cebc 4f98 e83b 06e0 4d3e aa60 d23d
000001c0: 5cf2 b63d 0de5 c0bd dfc7 d0bd b41d bdbd
000001d0: f542 203d 5a52 91bd 2210 19bd 9ace a5bd
000001e0: 5bd0 ba3c 6190 abbc 1c91 88bb 5ca4 23bd
000001f0: 902e f1bc 96c1 963c e12e d53c ec9c 2abd
00000200: 9dc9 c33d 6d10 55bc c188 d23d 5642 143d
00000210: 6587 e8bd 0ceb 283d b73a b1bd 9675 0fbd
00000220: 72a8 85bd 9ec5 a3bd 71be a63d 025a 393d
00000230: 7f11 e73d d553 abbd 5da1 833d 4634 f2bd
00000240: ace7 713c 5c53 cc3d 4f67 0d3e 0629 1d3e
00000250: 1168 1b3e 9da7 dcbd 31dc 1dbb bdea bfbd
00000260: 4472 eabb 8a9b 2fbd aac7 4e3e 16d6 9c3c
00000270: ca1d 273e 1057 d53d acbd 873d a133 39bd
00000280: 699e 073e a52f 6a3d 8d25 0d3d 96f4 b3bd
00000290: 6710 aa3d 7690 623c bc29 47bc ac38 fd3d
000002a0: ba34 0e3d 55fb 66bd c8a9 62bd 09a5 2d3c
000002b0: b59e b13d 8d18 b5bc 070a 96bd 636c 19bd
000002c0: e899 a0bd 1249 6f3d da4e dd3d 7c80 ccbd
000002d0: 126d 1e3d 474c af3d 677a de3c d131 52bd
000002e0: 0930 483d 9582 243d aaa6 133d 51d1 2abd
000002f0: 5cd7 8bbd f11e ddbc 7774 83bd bc92 ccbd
00000300: 20c3 463d 4efa 6a3e 5b72 18bd e642 d0bd
00000310: a354 25bd 3d68 2bbd f837 223d 7801 a43d
00000320: 4216 81bd f294 2abc ad84 123e 24d2 193d
00000330: 7d3a a1bb 84fd 16bd 087b 5ebc 4793 a0bd
00000340: 5743 82bd 7f3c 8dbc 42b1 883c 022a 1e3b
00000350: 8166 01be 31be 84bd 2856 48bd 9172 403d
00000360: 7b83 01bd efa9 35bd 9350 0b3d f20f 18bd
00000370: 477e b7bd 65b3 5c3d 0654 88bd e375 d23b
00000380: 9360 b1bd 3f86 903d 8d79 a23d 9507 6b3c
00000390: c7c4 edbd fff9 03be 5a29 f6bd 3bb8 a33d
000003a0: 369c b23d a4d2 1b3e 4bd0 223e f937 033e
000003b0: d568 7e3d 3a9c 14bd a573 e7bd 32d0 4fbe
000003c0: 0248 5abb f0d9 e8bd bf8f a2bd bfd0 d5bd
000003d0: 11dc 2fbd 10ba b5bd 7704 5bbd c0ed a63d
000003e0: 77d6 993c 8a73 eb3d 08c0 03bd a711 c4bd
000003f0: 2c10 9fbc 0067 8ebd 80d3 2dbd 3ad5 d0bd
0.15315112 0.080279954 -0.03498166 0.08847751 -0.065664716 0.041374497 -0.069604434 0.08577959
0.059751302 -0.17902367 0.014982308 -0.019298693 0.11020969 0.060609233 0.10202167 0.036175422
0.15927102 0.027935456 -0.086003244 0.03728794 -0.028889418 0.004591702 -0.021216776 0.07942681
-0.10940953 -0.056388706 -0.04976095 -0.074488476 -0.015100957 -0.15779196 0.06742755 -0.13060172
0.095417045 0.030549714 -0.060394455 0.048709035 -0.015495789 0.058395647 -0.0024726444 -0.061842006
0.009940951 -0.02010847 0.07873144 0.12734838 0.06479971 -0.094960555 0.016668532 -0.06680308
-0.013282102 -0.0833708 -0.14157632 -0.08114024 -0.09532769 0.09010777 0.050115824 0.07892041
0.05059394 -0.020275503 0.07445727 -0.079399146 0.0031303568 -0.087783016 0.053578008 -0.027728062
0.09738879 -0.029497752 0.13074493 -0.05978652 -0.08995568 -0.09602239 0.07341256 -0.0016371786
0.057600606 -0.16756381 -0.15905342 -0.11371536 -0.072218016 0.09379867 0.10592525 0.16878703
-0.015287931 -0.0654255 0.08053065 -0.017537918 0.12413773 0.05839327 0.15041862 -0.07335552
-0.06588634 0.009601953 0.04617666 0.031750236 0.14801526 0.11238273 -0.10474014 -0.12931836
-0.02373839 -0.07687744 -0.041099135 -0.08951776 -0.09065036 -0.0047010193 -0.030821554 -0.09852311
0.02556445 -0.031505145 -0.019701619 0.015825156 -0.025186984 0.0070982347 0.2010499 0.102723435
0.08932945 -0.09418688 -0.101943724 -0.09234181 0.039126355 -0.070957854 -0.0373689 -0.08096047
0.02280443 -0.020942869 -0.004167689 -0.039951667 -0.029441148 0.018402856 0.02602333 -0.04165356
0.09559939 -0.0130044045 0.1027999 0.036196075 -0.113539495 0.041239783 -0.08653777 -0.035024248
-0.06526269 -0.07996677 0.081417926 0.045251854 0.11282634 -0.08365599 0.06427262 -0.118263766
0.014764708 0.09976837 0.1380894 0.1534768 0.15176417 -0.10774157 -0.0024087543 -0.09370945
-0.007154735 -0.042872943 0.20193353 0.019145053 0.16319957 0.104169965 0.06627974 -0.045215253
0.13244022 0.057174344 0.03445964 -0.087868854 0.0830391 0.0138283875 -0.012155946 0.12364325
0.034718253 -0.056392033 -0.055337697 0.0105984295 0.08672849 -0.022106433 -0.07326131 -0.03745688
-0.07841855 0.058419295 0.10806055 -0.09985444 0.038678236 0.085594706 0.027157975 -0.05131704
0.048873935 0.040163595 0.036047615 -0.041703526 -0.06828186 -0.026992293 -0.06418698 -0.09988925
0.04852593 0.22947046 -0.037218433 -0.1016901 -0.04036392 -0.041847456 0.039604157 0.08008093
-0.063030735 -0.010411488 0.14308424 0.03755392 -0.0049203024 -0.036862865 -0.013579138 -0.07840591
-0.063605 -0.01724076 0.016686086 0.0024133925 -0.12636758 -0.06481589 -0.04891029 0.04698426
-0.03161953 -0.044351514 0.03401239 -0.03712458 -0.08959632 0.05388202 -0.06656651 0.0064227446
-0.08660998 0.070568554 0.0793334 0.014345069 -0.11609798 -0.12888335 -0.12019606 0.079941235
0.08721201 0.15217072 0.1589977 0.1281432 0.062111694 -0.0362818 -0.11301354 -0.20294264
-0.003330708 -0.11369693 -0.07937574 -0.10440206 -0.04293448 -0.08873379 -0.053471055 0.08150816
0.018779023 0.11496647 -0.032165557 -0.095736794 -0.019416891 -0.069532394 -0.04243803 -0.1019692

phi.initial_conv_module.0._layers.1.weight f4 [64]
00000000: 6c51 7a3f 4cba 823f 88bf 673f f4ba 7a3f
00000010: 8990 853f 1eae 663f dbdb 823f 2446 873f
00000020: 081b 953f 7b2a 853f 88c7 6f3f b0e3 773f
00000030: 9eeb 723f 1ce4 683f da7f 643f ae30 823f
00000040: c510 733f 1505 803f 7536 933f 74f4 823f
00000050: bf81 833f d44f 8f3f 405e 723f 6c99 8d3f
00000060: 0c2a 773f 4aac 6f3f f80f 863f d39d 843f
00000070: 0930 883f f07d 813f b60e 853f ae1c 793f
00000080: 5735 813f 80ca 863f e138 723f 7d1c 843f
00000090: a4b4 853f ac62 6d3f 5e29 843f 6fa9 7e3f
000000a0: 52d2 893f 171a 833f da36 833f da25 843f
000000b0: b060 823f a804 773f 48a5 763f 4afd 703f
000000c0: 0afb 873f 0800 863f 1d4a 843f 1bc1 783f
000000d0: 983d 7d3f 1157 813f 9eae 7c3f 09ab 733f
000000e0: b6a4 8b3f 3450 913f 6e0e 803f e93e 923f
000000f0: d16a 7f3f 3982 693f 5d3e 853f a39a 873f
0.9778049 1.0213103 0.9052663 0.9794152 1.0434734 0.9010943 1.0223345 1.056828
1.1648874 1.0403589 0.93663836 0.968318 0.94890773 0.9097307 0.89257586 1.0171106
0.94947463 1.0001551 1.1500994 1.0230851 1.027397 1.1196237 0.94675064 1.1062446
0.96548533 0.9362227 1.0473623 1.0360664 1.0639659 1.0116558 1.0395114 0.97309387
1.0094403 1.0530548 0.9461804 1.0321194 1.0445752 0.92728686 1.0325124 0.99477285
1.076731 1.0242337 1.0251114 1.0324051 1.0185757 0.9649148 0.9634595 0.9413649
1.0623486 1.046876 1.0335118 0.97169656 0.9892211 1.0104696 0.98703945 0.95182854
1.0909641 1.1352601 1.0004404 1.1425449 0.99772364 0.9121433 1.0409657 1.0594066

phi.initial_conv_module.0._layers.1.bias f4 [64]
00000000: 0743 afbc 9aa3 82bc 28a3 943b bede 0bbe
00000010: 50c0 c6bd fa6a 1abc a4a1 a33c 465d a23c
00000020: 22e2 9c3d ba57 01bd 795c 11bd 77a9 95bd
00000030: 5763 40bb bbd2 a6bd 144f 823d 22d3 92bd
00000040: b88f a2bd 257c 2cbe e193 62bd 4054 68bc
00000050: 4416 1cbb ce5b 8fbd 38ed 113e 5b23 aebd
00000060: e170 f83d 36b4 943d 82d5 8e3c 0adc f3bc
00000070: 6c3a 303e 14f1 98bb b742 54bd 1de0 efbc
00000080: 27f2 1f3c c614 47bd 5593 493d a66c 923c
00000090: 1a3b f9bc 1e0b 033e f215 c83b d2c2 1ebd
000000a0: a108 5b3c b407 d0bd 6a4b 8cbc 2e6b 9aba
000000b0: e190 8c3a db06 d4bd 8531 42bd 3f98 9e3d
000000c0: 82d6 59bd 164d 2ebe 6948 94bc 503e a6bb
000000d0: ac89 bf3d 5dff fd3b d303 c7bc c4ad c13c
000000e0: 9f59 2bbd f1c8 ae3d 4cc6 95bd c826 edba
000000f0: 3aa7 b0bd 87a2 9e3b defd b1bd cfca 94be
-0.021394266 -0.015947152 0.0045360513 -0.13659188 -0.097046494 -0.009424919 0.019974537 0.019819867
0.07660319 -0.031577803 -0.03548858 -0.073077135 -0.0029356086 -0.081456624 0.06362739 -0.07169177
-0.079375684 -0.16844232 -0.05531681 -0.014180243 -0.0023816982 -0.06999932 0.14250648 -0.08502837
0.12130905 0.07260935 0.017435793 -0.029768009 0.17209786 -0.0046674106 -0.051821437 -0.02928167
0.009762323 -0.048603795 0.049212772 0.017874073 -0.03042369 0.1279721 0.0061061317 -0.038760014
0.0133687565 -0.10157719 -0.017125804 -0.001178121 0.001072433 -0.1035287 -0.047410507 0.077438824
-0.053183086 -0.17021593 -0.018100934 -0.005073346 0.09352431 0.007751389 -0.024293816 0.023642428
-0.041833516 0.0853442 -0.07313213 -0.0018093223 -0.08625646 0.004841152 -0.086909994 -0.2906098

phi.initial_conv_module.0._layers.1.running_mean f4 [64]
00000000: 1ebc 9a3e e4cc e73e 16ae 1d3f 222a d13e
00000010: 014e 86bc a8e2 3ebd 8fe6 32be bd49 1f3f
00000020: 8c1e e8be e606 0d3d 26b6 dcbd 19ff 97be
00000030: 281b f5be 92c5 d2be e470 cf3e 02fa 2d3f
00000040: aa5e 873e 7b2c 513f b6dc 863e ebe1 dd3d
00000050: c22f e93e 98e8 a13e e697 833e 8bdd ea3d
00000060: 9248 d63e 4ba6 793e b0ff 7fbd 987d 8e3f
00000070: 606c eebe 7b83 03bf d2fb ddbd 576b 9cbf
00000080: d707 abbe 1c99 a63f 8713 bdbd 77ad 083d
00000090: 40cd 70be 0e67 363d 1be4 c1be 7fee af3e
000000a0: dfe6 9fbe 4538 c23d 461e 1abe fe70 e5bd
000000b0: 6183 4e3e 6316 cc3c dea1 9cbf 75bd c8bc
000000c0: 15b4 a43e b392 c83e 0e38 bbbd a9c9 343f
000000d0: d282 ff3e 971e 033e c995 68bd acde a3be
000000e0: a022 d5be ed83 e23e e0fa e63e 1985 af3e
000000f0: 864b ee3d 7cbd fcbd e5c6 6a3f 5d72 c33f
0.30221647 0.45273507 0.6159376 0.40852457 -0.016394617 -0.046602875 -0.17470764 0.6222189
-0.45335805 0.034430407 -0.107769296 -0.29686812 -0.4787228 -0.4116636 0.40515816 0.67959607
0.2643941 0.81708497 0.26340264 0.10834106 0.4554425 0.31622767 0.25701827 0.11468037
0.41852242 0.24379842 -0.062499702 1.1132078 -0.4656706 -0.513725 -0.108390465 -1.2220258
-0.3340442 1.3015475 -0.0923224 0.033368554 -0.23515797 0.044531874 -0.37869343 0.34361646
-0.31230828 0.09483389 -0.15050611 -0.11203192 0.20167305 0.024913019 -1.2236898 -0.024504403
0.32168642 0.39174423 -0.09141551 0.7062021 0.49904495 0.12804638 -0.05678347 -0.32005823
-0.4162798 0.44241276 0.45113277 0.34281233 0.11635499 -0.12340829 0.9170974 1.5269276

phi.initial_conv_module.0._layers.1.running_var f4 [64]
00000000: 2aef b43e 7c16 8f3e 92a8 f43e 1fc8 a43e
00000010: 57f9 923e 88bd e63e 7966 593e 3743 123f
00000020: 4440 a33f 6c73 8a3e 1c01 3b3e c809 043f
00000030: be5f 973e 0172 ff3e e74d a43e 2107 b33e
00000040: c0ec 913e 3748 fd3e 7886 fb3e 4608 a23e
00000050: f275 df3e 7f5d 563e b3ba ca3e 205a ab3e
00000060: f1af 8f3e 86f1 da3e f569 a83e 4018 2b3f
00000070: 7606 a03e 721c c93e 9f68 ee3e d544 3a3f
00000080: 5126 ad3e a91a 8f3f 1da8 bc3e ef57 7c3f
00000090: bd5f e33e b219 8c3e 05d9 793f 21ab 3f3f
000000a0: 5b18 163e adb6 b53e 9773 113f 7338 f53e
000000b0: a612 7a3e 1968 9b3e 1127 673f ba97 603e
000000c0: 4d14 4e3e 119a bb3e 6bb1 833f 2dcf 143f
000000d0: 3e43 753f 586b 0c3f 8d19 d13e c979 e03e
000000e0: 1a9f a13e 8273 3f3e ea93 a63e b11d 903f
000000f0: 6638 d23e a09c df3e e1b4 113f f470 873f
0.35338718 0.27946842 0.4778486 0.3218393 0.28705856 0.45066476 0.21230496 0.5713381
1.2753987 0.27041185 0.18262142 0.51577425 0.29565233 0.49891666 0.32090685 0.34966376
0.28500938 0.49469158 0.4912603 0.31646937 0.43644673 0.20934103 0.39595565 0.33467197
0.2806392 0.42762393 0.3289334 0.6683388 0.3125493 0.39279515 0.46564195 0.7276128
0.33818296 1.1180011 0.3684701 0.98571676 0.4440898 0.27363354 0.9759677 0.74870497
0.14657728 0.35490933 0.56817 0.4789463 0.24421176 0.30352858 0.90293986 0.21932879
0.20124932 0.3664098 1.0288519 0.58128625 0.9580573 0.54851294 0.40839806 0.43842915
0.31566697 0.18696406 0.32534724 1.1259061 0.41058654 0.43674183 0.56916624 1.0581346

phi.initial_conv_module.0._layers.4.conv.weight f4 [64, 1, 5]
00000000: 35b1 b2be 3865 a23e fda1 bd3e c906 ab3e
00000010: fc94 3abe 8aed 5b3e 838c d4be 3210 153e
00000020: b33c 17be 5b59 ddbe 321a 2cbe f57d 79be
00000030: 39fd 2b3e e77c 46be c7af cbbe b4f2 d03e
00000040: 9506 14be d975 1a3e cd55 a6bd 3a71 8c3e
00000050: 2f36 b93d b091 993e 02b7 503e 8856 583a
00000060: 8a12 c43e 5557 b13b b16c 89be 39da 0a3e
00000070: 0b45 aebc e9ea cbbe 6e19 363d 2b45 08be
00000080: 715d 41be b9ed 49be d105 68be 084a 15be
00000090: 8f01 bf3d 9ead e53e a6c2 7abe d6be 60be
000000a0: a96d 4bbe bdfe e03d 8077 643d b5ee a7be
000000b0: 33ce 673e 036a d1be 3604 d43e c661 b83d
000000c0: 7ee9 46bd 8c7e 26be d66e 9c3e f027 c63e
000000d0: 8a5a 85be ef01 1abe 55b2 693e 4be3 b4bd
000000e0: 9745 37be 1c1d 24be 6d43 19bd cd8c 5abe
000000f0: 9a36 a2be 21ab 99be 0a76 093e 3369 a13e
00000100: 1f98 bd3e 2e18 4ebd 5906 3c3e 57b3 9bbe
00000110: ef73 a53e 3a75 f63e 70a4 813e 6400 18be
00000120: 0375 cc3e f594 cdbe 7fc0 35bd da97 12be
00000130: e774 07bf 7e19 87be 1195 98be aef3 bc3d
00000140: 4244 efbc ec7e 933e 4db0 56bc b037 893e
00000150: cfb2 b9bd 8ba5 f43e 5140 db3e 5ba9 a4be
00000160: 1cb4 89be 2e8e 7a3e 0782 f03e 2ad7 8ebe
00000170: ac85 eb3d 25d3 92bc 6a22 063f e683 ae3e
00000180: b92c a53e cd7f 833e 9f31 99bd ff0e dc3e
00000190: 86be 91bd 9aaf 9c3d b693 50be dceb c0be
000001a0: ce0f 66be f02e 113e a9db 59bc 7e7a 94be
000001b0: b574 3abd 0c2f c33d 60d8 97be 6cb4 963e
000001c0: b3d4 a2be 5312 0e3d c26c debe 18af cebe
000001d0: 4304 29bd 9319 e23e 7015 de3e 9988 4f3d
000001e0: 1d4d 9c3e 9444 94be 793b 463e 93bc 493e
000001f0: a9da 00bf 4e58 cabd 437f 8d3e 0954 b63d
00000200: 82b8 b6be 4e5b 04bf f8e5 f13e cb34 0c3e
00000210: b1bc 863d 6bac cebe ab8f a93e 7e94 acbe
00000220: 4635 213e 72a6 3bbd f6f5 de3c 02cf 5b3e
00000230: 68b3 27be eb5d 1dbe a1b3 b63e 98e1 a1be
00000240: 8a7e 5e3e 53b3 f8bd bf95 29be bb03 8c3e
00000250: 1595 8abb 0007 f0be 7c29 5a3e 0fb8 b6be
00000260: ba0f cf3e 221f f2bd b2e6 f73e 6574 253e
00000270: 97fc 9bbb 8354 3b3e a455 763c d128 53be
00000280: d1a5 a13e 5b94 a13e fd47 06bc 4754 b63e
00000290: dfe5 8cbd 046e 71be 7d63 73be 62b4 9b3e
000002a0: 3371 1bbe 0a99 a13e bbaf dbbe fc40 123d
000002b0: 4608 86be 8546 4e3e 8605 c83e f193 073e
000002c0: b8b2 7fbe 8c16 eebe 68a7 47be 082d 61be
000002d0: ca8a 093f a4cf 96bd 5a19 843e 99d8 873e
000002e0: 300f 173d a174 c5be a09d 29be e30b 80be
000002f0: 56f3 603e 06bb 54bd 9b88 c13d 0694 f63e
00000300: 86c4 543d f004 f53d 60a8 3bbe 7373 9f3e
00000310: 1e31 c73d a5b0 80bd f819 e13d 6e03 acbe
00000320: db49 223d 6b77 603e 18dd d4be 650b 5cbe
00000330: b49e 9a3e d14b 33bd 9b8d 34bd 8a81 393d
00000340: e006 34be 327c cd3e b985 1abd 5f59 f8bd
00000350: 1966 8c3e 29ac b2be 9038 eebd 1b56 6b3b
00000360: ee2d 70be f91a e83c 42b8 f9be 0ee0 4fbe
00000370: 875c 44be cf61 dd3e 61ff 8f3e 5b1d 90be
00000380: 2029 303e 1d80 a3bc cf99 f63e 0e71 bb3e
00000390: 9e9f 82be 0c1b 993e b3b1 95bd 4e32 cdbd
000003a0: 54ac e13d cf66 e23e 51d9 3f3e 9fa2 ddbe
000003b0: ebb4 c8bd 5d77 dc3e e58d 21be 341d 69be
000003c0: 4b3b 92be 576e 2cbe 76fc 28be decc 453e
000003d0: 6452 883e 5f94 073f d99d 9d3e 84ae 43bd
000003e0: 96be 3d3e d7d3 0e3e 83aa dfbe 5680 4e3e
000003f0: a035 64be 6736 d23e bb7f 18be 2a30 083e
-0.34900823 0.3171785 0.3703765 0.33403614 -0.18220896 0.21477333 -0.41513452 0.1455696
-0.14769249 -0.43232235 -0.16806868 -0.24364455 0.16795816 -0.19383584 -0.39782545 0.40810168
-0.14455636 0.15084018 -0.08121834 0.27430135 0.09043538 0.29993963 0.20382312 0.000825264
0.38295394 0.005412022 -0.26840737 0.13559808 -0.021273157 -0.3982766 0.044457845 -0.13307635
-0.18883301 -0.1971959 -0.22658469 -0.14579022 0.09326469 0.44859022 -0.24488315 -0.21947798
-0.19866051 0.109860875 0.055778027 -0.32799307 0.22637253 -0.40901193 0.41409463 0.09003024
-0.04856252 -0.16259211 0.3055331 0.38702345 -0.26045638 -0.150398 0.22821935 -0.08832415
-0.1789764 -0.1602673 -0.037417818 -0.21342774 -0.31682283 -0.30013373 0.13423935 0.31525573
0.37030122 -0.05031603 0.18361796 -0.30410263 0.32315013 0.48136312 0.25320768 -0.14843899
0.39933023 -0.40152708 -0.04437303 -0.1431574 -0.52912754 -0.26386636 -0.2980123 0.09226166
-0.029207353 0.2880777 -0.013103557 0.268003 -0.09067308 0.4778255 0.42822507 -0.32160458
-0.26895225 0.244683 0.46974203 -0.27898532 0.11500105 -0.017922947 0.5239626 0.34085006
0.32260683 0.25683442 -0.074801676 0.4298019 -0.071164176 0.07650681 -0.20368847 -0.37679946
-0.22466967 0.14178061 -0.013297 -0.28999704 -0.045521457 0.09530458 -0.2965727 0.29434526
-0.31802902 0.034685444 -0.4344235 -0.4036796 -0.04126383 0.44160137 0.4337573 0.05066738
0.30527583 -0.2895857 0.19358625 0.19700842 -0.5033365 -0.09880124 0.27636155 0.08902747
-0.35687643 -0.5170182 0.47245765 0.13692014 0.06578959 -0.4036592 0.33117422 -0.3370704
0.15742978 -0.04581303 0.027216893 0.21465686 -0.16377032 -0.15367858 0.3568392 -0.31617427
0.21727958 -0.121435784 -0.1656103 0.27346596 -0.0042291977 -0.4688034 0.21304888 -0.356873
0.40441686 -0.11822344 0.48418194 0.16157682 -0.0047603357 0.18293957 0.015035067 -0.20621039
0.3157182 0.315585 -0.008195874 0.35611174 -0.06879782 -0.23577124 -0.2376842 0.3041106
-0.15179901 0.31562072 -0.4290751 0.035706505 -0.26178187 0.20144089 0.39066714 0.13240029
-0.2497052 -0.46501577 -0.19497454 -0.21989834 0.537274 -0.07363823 0.25800592 0.26532438
0.03687972 -0.38565543 -0.16564035 -0.2500907 0.21967825 -0.051936172 0.094498836 0.48159808
0.05194523 0.119638324 -0.18325949 0.31142768 0.09726165 -0.06283692 0.10991281 -0.33596367
0.039621215 0.21920554 -0.4157493 -0.21488722 0.30199206 -0.043773476 -0.044080358 0.045289554
-0.17580748 0.40133816 -0.037725184 -0.12126421 0.27421644 -0.34896973 -0.11631882 0.0035909477
-0.23455021 0.028333174 -0.4877339 -0.20300314 -0.19175921 0.43238685 0.28124526 -0.28147396
0.17203188 -0.01995855 0.48164222 0.3660969 -0.25512403 0.29903448 -0.07309284 -0.100193605
0.11019197 0.44219062 0.18735243 -0.43288133 -0.09800132 0.43059817 -0.15776785 -0.22765046
-0.28560862 -0.16838966 -0.16502556 0.19316432 0.2662536 0.5296077 0.3078449 -0.047773853
0.18529734 0.13947998 -0.43684778 0.20166144 -0.22286081 0.4105713 -0.14892475 0.13299623

phi.initial_conv_module.0._layers.5.weight f4 [64]
00000000: d857 733f 1819 773f afe6 853f aa10 7d3f
00000010: 97ff 853f 0a27 8e3f 2dba 893f 6a91 8c3f
00000020: 5f0d 8f3f ec49 843f 874e 6d3f 1025 853f
00000030: 654f 783f db2c 793f 2bc7 773f 6ee9 843f
00000040: 6bd1 6f3f c0a7 7e3f 7446 8b3f bfb7 743f
00000050: a488 833f ff84 883f 107a 883f a335 823f
00000060: 752a 893f cbb1 883f 4bb8 6f3f c15b 833f
00000070: c3b3 853f 057f 7c3f f222 773f feec 733f
00000080: 6968 7b3f 395d 873f e7d8 853f 3de0 893f
00000090: c13e 843f 33b4 813f 521c 7e3f c05a 6c3f
000000a0: 7c61 913f 7233 803f ad35 853f 5a50 833f
000000b0: a5b2 813f 65bd 733f b274 7c3f 80f1 863f
000000c0: 06cc 8d3f fc30 803f fedf 863f 2378 7f3f
000000d0: 4b98 9e3f 70d3 8f3f d30f 843f f73a 8b3f
000000e0: 746c 8e3f 158c aa3f 3f03 873f ffe7 833f
000000f0: d877 743f 693f 8c3f b97e 793f efd4 7c3f
0.95055914 0.96522665 1.0461024 0.9885355 1.0468625 1.1105664 1.0759941 1.0981877
1.1175956 1.0335059 0.9269795 1.0401936 0.96996146 0.9733407 0.9678828 1.0383737
0.9367892 0.99474716 1.0880876 0.95592874 1.0276074 1.0665587 1.066225 1.0172619
1.0716082 1.0679258 0.93640584 1.0262376 1.0445484 0.98631316 0.965377 0.95283496
0.9820619 1.0575324 1.0456818 1.0771557 1.0331651 1.0133117 0.99261963 0.92325974
1.1357875 1.00157 1.0407006 1.0258896 1.0132643 0.9521087 0.9861556 1.054245
1.1077888 1.0014949 1.0537107 0.9979269 1.2390226 1.1236401 1.0317329 1.087737
1.1126847 1.3324 1.0547866 1.0305175 0.9549537 1.0956851 0.9745899 0.9876241

phi.initial_conv_module.0._layers.5.bias f4 [64]
00000000: 926e d53c dfa9 bb3b ba62 03bd 06db 80bd
00000010: 0cc2 5d3d 8fd2 6c3d 7b10 123d 0bbc 273e
00000020: 917f bdbd afe4 89bd 40a3 80bd 5af1 bbbc
00000030: 23da ea3c eb96 c1bc 2682 10bd e325 ea3a
00000040: 2a9d 62bd 861f 8bbd 705f 1e3e c373 e9bc
00000050: d1db c3bc a068 1ebd 6c10 fe3b 3229 413a
00000060: 60db 93bb 119a d1bc 1fde 8ebb 87ac b7bd
00000070: 1692 6e3c 3050 86bc b645 e33b 038b a3bd
00000080: ee91 113d 1c39 01bd b540 ad3d 86fd d43d
00000090: 2585 803d ad43 5d3b c4dd e0ba 70c4 02be
000000a0: 312c 0dbe 2bc8 debb dd28 cbbb 6a2a 933d
000000b0: 2028 7a3d 4ad1 b0bd b503 87bc 09b8 43bc
000000c0: 0a19 0b3e 5a02 1cbd 2276 bcbb 96be e33c
000000d0: 0ab9 9b3e 6ce8 a53d 47d3 cf3d a54c a53d
000000e0: 2a82 de3d 46af ac3c cc47 853d 8738 473d
000000f0: b727 84bc 4171 9b3c 0506 95bd 728f e5bd
0.0260537 0.0057270373 -0.032076575 -0.062917754 0.054140136 0.05781799 0.03566025 0.16380326
-0.09252847 -0.06733071 -0.062811375 -0.022942234 0.028668469 -0.023631534 -0.03528037 0.0017864074
-0.055325665 -0.06793122 0.15466094 -0.028497582 -0.023908528 -0.038673997 0.0077534225 0.00073685043
-0.0045122355 -0.02558616 -0.004359975 -0.08968454 0.014561197 -0.016395658 0.0069358004 -0.07985499
0.03553956 -0.031548604 0.084596075 0.10399918 0.06275395 0.0033762262 -0.0017155935 -0.12770247
-0.13786389 -0.006798764 -0.0061999396 0.07185824 0.061073422 -0.08633669 -0.01648126 -0.011945733
0.1358377 -0.03808818 -0.005751387 0.02780084 0.3041461 0.081009716 0.1014772 0.080712594
0.108646706 0.02107967 0.06507835 0.048637893 -0.016132219 0.018974902 -0.07276539 -0.11209001

phi.initial_conv_module.0._layers.5.running_mean f4 [64]
00000000: 71ec 9a3d 0f1d d5bd fae8 f4bd 599c 193d
00000010: 1cc7 e43d d17a 87bd ecd3 e6bd 02e1 55bc
00000020: 74f7 03bd 825c 97bc 68a6 683d 681f b1bd
00000030: e22c f93c aaca 7d3d e39e 0e3c c647 31be
00000040: c72a 563d 791e 523d 9278 0f3e b909 533e
00000050: 536c 0dbe ddbd 83bc 137d 08be 4b03 9e3d
00000060: dc35 a9bc 842b edbd 2ac8 ff3d d9d5 063b
00000070: 7ee1 7abc 3bd7 aebd 115b bc3d 77b0 953c
00000080: 64f7 213e f5f9 87ba 3e47 16bc a2f9 2ebe
00000090: e7a7 203e c31f 02be 21ce e53d 86b8 623c
000000a0: baa0 61bc c37f a73c ffd5 68bd dc3c 26be
000000b0: be4f 933d 7412 ba3d b698 9d3d 8056 b6bd
000000c0: 5aaa ccbc 531c ed3d 1c07 07bd 908e ee3c
000000d0: 52a9 04bc f8e4 d7bd ed6a e4bc b533 00be
000000e0: 2022 05be f029 b8bc a226 39bc c0bd 26bd
000000f0: 2ae6 8b3d 0948 74bd 6f0d af3d bce0 5a3c
0.07564629 -0.10405933 -0.11958499 0.03750262 0.111707896 -0.06615222 -0.1127089 -0.013054134
-0.03221841 -0.018476728 0.056799322 -0.086485684 0.03041691 0.061960854 0.008704874 -0.17312536
0.05228689 0.051298592 0.14010838 0.20609178 -0.13810854 -0.016081745 -0.13328962 0.07715472
-0.020655565 -0.115805656 0.1248935 0.002057424 -0.015312551 -0.08537146 0.09197057 0.018272622
0.15817028 -0.0010374176 -0.009172259 -0.17087415 0.1568905 -0.12707429 0.112209566 0.013837939
-0.01377123 0.020446664 -0.056844708 -0.16234154 0.07192944 0.09085551 0.07695143 -0.08903217
-0.024983574 0.11577668 -0.032965764 0.029120713 -0.00809701 -0.10541719 -0.027883017 -0.12519725
-0.13001299 -0.022480935 -0.011300715 -0.040708303 0.0683101 -0.05963901 0.08547484 0.013359245

phi.initial_conv_module.0._layers.5.running_var f4 [64]
00000000: 639b a23d 3b7f e43d 4ba3 2b3e 233c 843d
00000010: 641e 813e 97a9 8c3d d967 ce3d ee96 b63c
00000020: 1e5d 523c f8cf 3a3c 442a 0c3e a1e3 ec3d
00000030: 9a05 1a3d def9 333e 4667 003c 17af cc3e
00000040: 2788 663d acca dd3d 703f 8d3e 11fa 143f
00000050: c679 413e 5e46 7e3c ebfd 2d3e d3c8 fe3d
00000060: cb41 483c 1995 223e 164b 213e 727c be3b
00000070: 87ce eb3b 0653 aa3d dbef cd3d 6606 243c
00000080: 6499 b73e a13b 443c 8df2 0c3d dff8 073f
00000090: 2f94 983e db87 e43d 2e66 1c3e 076c 123c
000000a0: 7ebb b23c de99 693c 1ac8 193d 2aca 893e
000000b0: 7cb5 953d 1dac a03e 734d a83d de27 a73d
000000c0: 339a 5f3d 1c4a 973e ac03 913c eebe e03c
000000d0: 3f62 233d d1c0 f63d 0690 ec3c 99ab 5e3e
000000e0: 8448 373e 4d59 5e3c a560 0b3c 5b8c bf3c
000000f0: 8596 2a3e fec5 623d 0c62 f63d e735 763c
0.07939794 0.1115708 0.1676151 0.06456783 0.252185 0.06868284 0.10078401 0.022288766
0.012839584 0.011402123 0.13687998 0.11566854 0.037603 0.17575786 0.007837122 0.39977333
0.05628219 0.10829672 0.2758746 0.5819407 0.18894109 0.0155197065 0.16991393 0.12440648
0.0122227175 0.15877189 0.157513 0.005813175 0.007196251 0.08316617 0.100555144 0.010011291
0.35859215 0.011977107 0.034411002 0.5311412 0.29800555 0.11158725 0.15273353 0.008936889
0.021817919 0.014257876 0.037544347 0.2691205 0.07310006 0.31381312 0.08217897 0.08161901
0.054590415 0.29548728 0.017701946 0.027434792 0.039888617 0.120484956 0.02887727 0.21745147
0.17898756 0.013571096 0.008506929 0.023382356 0.16658981 0.0553646 0.1203042 0.0150275

phi.initial_conv_module.0._layers.7.se_conv.conv.weight f4 [10, 64, 1]
00000000: 8408 603e 5643 43be 6222 37be 6363 c43d
00000010: f676 95bd 0bca 37be 3bbc d5bd 54b2 723c
00000020: 50d7 813d 35a0 7bbe d2b5 44bd 4ba2 cabd
00000030: ceb7 81be cab5 9abe 4a9c 4dbe 3f4c 35bd
00000040: 76fe a63c 14b8 0fbb a84d 4cbe 1ed1 e8bc
00000050: f3af a0bd 951c 98be 44fd 2a3e b151 fc3c
00000060: faf3 1abe d8ef 343e 57f7 24bd 117c 0dbd
00000070: fa6c 173d c70f 8c3d 26cf 013d 22db 16be
00000080: bc47 01be be12 3abe 074b 3fbe 116c a23d
00000090: 2c37 f2bd 374b b5bd 731f 8cbe 142c 8dbe
000000a0: 22bb 4bbe b6ae 1b3e 59bd cc3d ced5 353e
000000b0: d01f 54be b3ac 7fbd 144a 00bd 94f1 043e
000000c0: 275c 2bbe 3d53 ff3d b406 51be 9975 b3bd
000000d0: 7b04 3fbd 1719 4f3d 4e34 db3d 8136 41bd
000000e0: ad9b 6b3d 3c86 46be 5bee 15be 536b 0cbe
000000f0: b703 40be 4f0e 88bd 9736 6bbc 1395 203e
00000100: fbcd 0f3e 18bf f3bd 188f 973d 08d4 103e
00000110: 2ffb 2a3d b1e4 053e 6fc4 4a3e c0ea 453d
00000120: 303c 42be 1d60 943d 2fdc a63d 898e f03d
00000130: 0cf9 86bd 9030 54bd c0cc 9c3d 825e ffbd
00000140: 3469 fcbc 30d8 7bbd e753 663d 7fb9 6e3e
00000150: 399b 16be 0ca4 473d 5a0d 063e 0a94 06be
00000160: 1193 c9bc fe48 89bb 4626 113e e2b5 bdbd
00000170: c972 81bd 58b0 3d3e 69b2 b53d 11b2 01be
00000180: c7c6 f1bd 08a4 a0bd cb90 e2bd 0c2b b63d
00000190: 8e5e a63d 5410 86bc 8ac6 a9bd 2f04 923c
000001a0: 1370 e9bd 164a 083e 6fb8 f53c 6b7e 18bc
000001b0: cadd 85bd 8749 babd b124 053d 24c6 6f3d
000001c0: 38b5 973c 7033 283e d4f4 8aba e874 793e
000001d0: 6c9b 443c d539 9c3e ccd2 e53d 5418 633e
000001e0: de1f 663e ed53 3ebd 1074 b0bd c1b6 00be
000001f0: 32cf f53d 78b0 113e cc4a 9f3d 4a45 e63c
00000200: 8038 183e f145 e23d 3bd6 493e 29d1 f73c
00000210: 61a0 6dbd b65f 04bc 4628 e1bc b738 50be
00000220: 6d83 59be a038 dfbb 4b3a 0e3d b513 bb3d
00000230: 4c07 22be d949 73bd 5861 1dbe dec3 13bc
00000240: 0fdc 3ebd f63d 72bc c58a 9e3d c280 ebbd
00000250: fa00 063e b1e5 30bd 2ac8 083e 207a 78bc
00000260: 39aa 3f3d e484 b9bd 4fbb aabc 09f1 f6bd
00000270: 4422 a7bb c35b 53bd 74bb 0a3e 6bfa 7bbd
00000280: d31f 6e3d 18ad aebd e0f0 fcbd d2fc a93d
00000290: 6390 79bd 7425 223d 6704 333e 98dc 1cbe
000002a0: 1bc1 473d 88ac 72bd 2f03 32be 2365 583d
000002b0: 32db 493c 2126 ed3c 405e f63d 5132 c8bb
000002c0: 2900 20bd 7527 40be 3ef1 bcbd 9a80 41be
000002d0: 000b 28bc 9afe b63d 3077 a63d bada 283d
000002e0: 46c4 5b3d 317f f4bd b0c9 22bd 7189 1e3d
000002f0: 4289 7bbe c887 4b3d da69 08bd 8b8d 993d
00000300: fdbd 97bd a6f4 a8bd 8467 a73d f180 09be
00000310: 5a66 95bd dd03 893e 75c5 173e 2197 493e
00000320: 4053 d83c 307f b23d bbd5 42be 1a68 593d
00000330: 26f6 7b3e 4275 b73c b492 823e bf28 de3d
00000340: 08ae c2bd 5271 0bbd c326 903e 2abf f9bc
00000350: e054 ecbd 04f6 f33d 2d9f 2d3d edff d13d
00000360: d872 e73c 33fd 0fbe 3bb5 5abe 8f7d c13c
00000370: 24c6 a23e 0aff 923e e379 153e 70b3 ea3d
00000380: 4c67 76bd b7ed 233e faa8 553e 2329 3bbe
00000390: ed90 263e aacb d93d 149d 153d eb7d 553e
000003a0: a34d 343e 80c6 a23d 962f 913d a130 75be
000003b0: f228 d93d fb69 a1bd 7e46 9a3c 5041 453e
000003c0: d437 843e c849 7b3e 9708 a53d 33d5 703e
000003d0: e7e1 893e 9fc8 053d f58f d03d e4fd f4bb
000003e0: aad0 e63d 3efa e83c 429e 713e 0cbd 273e
000003f0: e87b be3d 75b2 7e3c d71e 3abe 2218 9b3d
0.21878248 -0.19068655 -0.1788421 0.09589269 -0.072980806 -0.17948167 -0.10436293 0.014813025
0.06339896 -0.24572833 -0.04802496 -0.09894236 -0.25335544 -0.3021682 -0.20079151 -0.044262167
0.020385008 -0.0021929787 -0.19951499 -0.028420027 -0.0784606 -0.29709306 0.16698176 0.030800672
-0.15132132 0.17669618 -0.040274944 -0.034542147 0.036969163 0.06838947 0.031691693 -0.1473203
-0.1262502 -0.18171212 -0.18680964 0.07930768 -0.118269295 -0.08852237 -0.27367744 -0.2757269
-0.19895604 0.15203366 0.09997053 0.17757341 -0.2071526 -0.06242056 -0.031320646 0.1298278
-0.16734372 0.12467048 -0.20412713 -0.08762664 -0.046635132 0.050561037 0.10703336 -0.04717112
0.05752151 -0.19387144 -0.14641707 -0.13712816 -0.18751417 -0.06643354 -0.014356277 0.15681867
0.14043419 -0.119016826 0.0740034 0.14143384 0.041743454 0.1307552 0.19801496 0.04831958
-0.18968272 0.07244895 0.081474654 0.117459364 -0.06590471 -0.051804125 0.076562405 -0.12469198
-0.030811884 -0.06148547 0.05623236 0.23312949 -0.1470765 0.04874043 0.1309103 -0.1314241
-0.02460626 -0.0041896095 0.14174756 -0.09263207 -0.06320722 0.18524301 0.0887192 -0.12665583
-0.11805492 -0.078437865 -0.11062773 0.08894929 0.081235036 -0.016365208 -0.082898214 0.01782426
-0.113983296 0.13309512 0.029995171 -0.009307484 -0.065364435 -0.090960555 0.032505695 0.05853857
0.018519029 0.16425872 -0.0010601529 0.24361002 0.011999946 0.30512872 0.11221847 0.22177249
0.22473094 -0.046466757 -0.08615887 -0.12569715 0.1200241 0.14227474 0.07777938 0.028109211
0.14865303 0.110484965 0.19710629 0.030251103 -0.058014277 -0.00807946 -0.027485024 -0.20334135
-0.21241541 -0.00681217 0.03472356 0.09134618 -0.15823096 -0.0593966 -0.15369165 -0.009018866
-0.046596583 -0.01478528 0.07741312 -0.11499168 0.1308631 -0.0431878 0.13357607 -0.015165836
0.046793196 -0.0905855 -0.020841269 -0.120576926 -0.0051005203 -0.051601183 0.1354807 -0.061518114
0.05813582 -0.08529109 -0.12350631 0.08300175 -0.060928714 0.0395865 0.17482148 -0.15318525
0.048768144 -0.05924657 -0.17384027 0.052830826 0.012320327 0.028948845 0.120296955 -0.006109514
-0.039062653 -0.18765052 -0.09225701 -0.18896714 -0.010256529 0.0893528 0.08128202 0.04122422
0.053653978 -0.11938322 -0.039743125 0.038705293 -0.24564078 0.049690038 -0.033304073 0.074977
-0.07409284 -0.08249788 0.08174041 -0.13428093 -0.07294913 0.2676076 0.14821418 0.19686557
0.026406884 0.08715665 -0.19026844 0.053077795 0.24605617 0.02239478 0.2550255 0.108476155
-0.0950585 -0.034043618 0.28154573 -0.030486662 -0.11539626 0.11912158 0.04238813 0.10253892
0.028253004 -0.14061432 -0.21358196 0.023619441 0.31791794 0.28710204 0.14597277 0.11460006
-0.060157105 0.1600865 0.2086524 -0.18277411 0.16266222 0.10634549 0.036526754 0.20848815
0.17607741 0.07948017 0.070891544 -0.23944332 0.10603513 -0.07881542 0.018832441 0.19263196
0.25823843 0.24539864 0.08058279 0.23518829 0.26930162 0.03266203 0.101837076 -0.007476555
0.11270268 0.028439637 0.23595527 0.1638071 0.09300977 0.015545477 -0.18175827 0.07572962

phi.initial_conv_module.0._layers.7.se_conv2.conv.weight f4 [64, 10, 1]
00000000: 248e 61be e658 3c3d 139b 0bbd dbc3 b3bd
00000010: 972e 58be 7ba7 0e3e 3795 bebe 983d af3e
00000020: 3ccc 6cbb f53b d93d a3bf 1f3e 1a72 0ebe
00000030: 6456 503e 9bea 19bd 23fc 153d b914 a4be
00000040: 579c 843d 78d4 493d d853 9a3d 2a91 5cbc
00000050: 077d 5e3e 9f81 693e 4f62 3a3e 0ff5 5cbd
00000060: 24bf bbbc 5b9e 08be 40ae b8be a96e 8abd
00000070: 8def 823d 1b23 38be 4a00 b1be a8ad 213d
00000080: d086 2a3d 6507 46be aba8 333e dc8b 7bbe
00000090: d562 ec3d 40f1 383e 8c07 ed3a f428 963e
000000a0: 2e83 51be 3c06 90bc 505b 673e cd1c 18bb
000000b0: 4d3a 34be dde1 ef3c 99e6 5bbd 2fdc 903e
000000c0: c97b bb3e b84f 593e 467a 1d3d cdd7 c23c
000000d0: 5c2e ff3d 9210 c0bd 70d9 8e3e 79eb 343e
000000e0: 92cf 7b3e 309d bdbc 2f39 c33d 3927 ed3d
000000f0: 8670 7cbd f8a1 353e a1ad 38be 20ee 483e
00000100: 9fe7 bd3c 97c1 f3be f192 d7be 2fea 053e
00000110: 9369 7f3e 0aa5 0fbe 48c2 fa3d b02a b43e
00000120: 9945 88be 500b 573c 5c7f db3b f775 d2be
00000130: 974a 023e e0a8 22bf 31d8 0d3e e864 cb3d
00000140: ec1b 583e 89a1 dd3e 21fa 913e 71ac bb3e
00000150: 1d11 883e 121e 97be 79e0 093f 18c5 723e
00000160: 6760 11be 1476 1ebd b4c8 c83e ceb9 643d
00000170: 4915 bd3e 1945 24bd 5d77 903e d34a 73be
00000180: 4a11 6c3e 9dbe e13d 6715 4abd 4de9 853e
00000190: 8fd1 053e 6627 ae3d 8558 723e 93ca 7a3d
000001a0: ca82 b73b 4f89 71be a850 023d 5529 a6bd
000001b0: e1e6 5e3e 6802 a33e d324 babe 87ed 61be
000001c0: f8b5 af3e cc6d 13be aab2 003f 64d2 683e
000001d0: 8bb2 10be 5a75 6dbe acaa f93d 4e5d 3b3e
000001e0: 640a a13e c710 58bc bb67 4f3e f199 aabe
000001f0: aa44 33bc 559a 523e 05c8 4b3e 7890 00be
00000200: bf17 85bc 665f 7abe 1913 65be b1f2 4a3e
00000210: 4b6d ebbd 9bb6 1c3e 4ae7 10be 12d8 d73b
00000220: 5b83 e6bc 7b7a 573e abe8 03be 0334 bb3d
00000230: 1dee 853e 20f1 0a3e 4450 58bd b1a1 fc3d
00000240: 0d9c b8be 8fda a63e 1c73 723e 0a56 0b3d
00000250: b56d 033e 8036 b4be 5779 65bd db59 16be
00000260: 2068 13be a09d 2bbd 2acf b63e ee32 59be
00000270: 50c9 e93e db85 b7be 354b a63c d0ec 833e
00000280: 0b96 bd3e 526e 4ebe d51c 8cbe 5f0d c9bd
00000290: 0b3b 1a3e 7579 0b3e 7917 803e c6b6 7bbe
000002a0: c99d 92be 7c63 1c3d df17 533e 4fec bbbe
000002b0: 454a b03e ada5 81be f5e3 02be 11d8 e1bc
000002c0: 47b9 c5bd c0a9 27be 5103 babe 6a99 6fbd
000002d0: 0eb1 0e3e 03ce 343e 2f9f 99be fe18 64be
000002e0: 2aac c53e b6ae 79be 2fa0 aabd 3c13 a5be
000002f0: 5e80 babe 98b5 a6be 3908 e73e b665 c33d
00000300: 973c 9f3e 32d1 0c3c 7d0b aa3e 9788 073e
00000310: 30a0 9e3e 1c50 613e 669e 0e3e 360b a73e
00000320: 1818 bdbd c965 cd3d efd2 5dbe cd8a e1bd
00000330: 52a4 b53e 7499 83be d8ab 23be a8d5 cfbe
00000340: 543a 52be 5f22 d73d 0c35 6f3e 02fb b7bd
00000350: fa66 563d 13d8 9bbe 76af b53d 3687 8d3d
00000360: 00d0 6abc 50c6 8bbe 690e 653d 7dd6 70be
00000370: 8975 893d 4478 a0be cbf0 003e 19a9 203c
00000380: e270 aabd 9a20 013e 4971 c23e 778e 0c3e
00000390: bdd6 66be afa4 49be e463 803e 6817 d53e
000003a0: 9a03 18be b2ca 913e 51cb 04be 45b2 b83d
000003b0: 4ef3 933e ae1f 9bbd d009 9dbe 5fca 5a3d
000003c0: bc25 2a3e 80a9 973e 0f6a 0cbe 4d81 71bd
000003d0: e4ed 4dbb 04ca 4fbd 0b1a bdbb 0517 35be
000003e0: 2522 ff3d 1cbf 5b3e 0f80 07be 3b46 2f3e
000003f0: f012 b93b 4367 343d 3ad4 ddbc f513 6fbd
-0.22026879 0.045983218 -0.034083437 -0.08777591 -0.21111523 0.13931076 -0.37223217 0.3422668
-0.0036132475 0.10607139 0.15600447 -0.13910714 0.20345455 -0.037577253 0.03661741 -0.3204706
0.06475132 0.04927489 0.07535523 -0.013462344 0.21727382 0.22803353 0.18201564 -0.053944644
-0.022918291 -0.13341658 -0.36070442 -0.06759388 0.06393347 -0.17982142 -0.34570533 0.039472252
0.041632473 -0.19338758 0.1754481 -0.24565071 0.11542288 0.1806078 0.0018083914 0.2932812
-0.20460197 -0.017581098 0.22593427 -0.0023210526 -0.17600365 0.029282505 -0.053686712 0.28292987
0.36617878 0.21221817 0.038446687 0.023784542 0.12460014 -0.093781605 0.27900267 0.1766795
0.245909 -0.023146242 0.09532391 0.11579747 -0.06163075 0.17737567 -0.18034984 0.19622087
0.023181735 -0.47608635 -0.42104295 0.13077615 0.24942617 -0.14027801 0.122440875 0.35188818
-0.266156 0.013125256 0.006698532 -0.41105625 0.12723766 -0.6353893 0.13852002 0.09931356
0.21104401 0.43287304 0.28511146 0.36655 0.26575556 -0.2951513 0.53858143 0.23707998
-0.14196931 -0.038686827 0.39215624 0.05584126 0.36930302 -0.04010496 0.28216067 -0.23759012
0.2305347 0.11022685 -0.049336817 0.26154557 0.13068222 0.085036084 0.2366658 0.061228346
0.005600308 -0.23587535 0.0318152 -0.08113352 0.21767761 0.31837773 -0.3635622 -0.22063266
0.3431852 -0.14397353 0.5027262 0.22736508 -0.14130609 -0.23189297 0.12190756 0.18297312
0.3145324 -0.013187594 0.20254414 -0.33320573 -0.010941664 0.20566685 0.1990052 -0.1255511
-0.016246675 -0.24450454 -0.22370566 0.19819142 -0.11495455 0.15304033 -0.1415073 0.006587037
-0.028138807 0.21042816 -0.12881725 0.0914078 0.2615823 0.13568544 -0.052810922 0.12335528
-0.36056557 0.32588622 0.23676723 0.0340176 0.12834819 -0.3519783 -0.05602392 -0.14682715
-0.1439519 -0.04189837 0.3570493 -0.21210834 0.45661402 -0.3584431 0.020299533 0.2576661
0.37028536 -0.20159271 -0.27365747 -0.098170035 0.15061586 0.13620551 0.25017908 -0.24581441
-0.28636006 0.038180813 0.20614575 -0.36703727 0.34431663 -0.25321713 -0.12782271 -0.027568849
-0.096544795 -0.16373348 -0.36330655 -0.058495916 0.13934729 0.17656712 -0.3000426 -0.22275159
0.38607913 -0.24383053 -0.08331334 -0.32241237 -0.3642606 -0.3256042 0.4512346 0.09540884
0.31100914 0.008594798 0.3321189 0.13235699 0.30981588 0.22003216 0.13927612 0.3262574
-0.09233111 0.100291796 -0.21662496 -0.11012802 0.3547693 -0.25703013 -0.15983522 -0.40592694
-0.20530063 0.10504603 0.2336008 -0.08983423 0.0523443 -0.3043829 0.08871357 0.06910555
-0.014331818 -0.27299738 0.055921946 -0.23519321 0.06711871 -0.31341755 0.12591855 0.009805941
-0.08322312 0.12610093 0.37977055 0.13726221 -0.22542854 -0.19691728 0.2507621 0.4161942
-0.14845124 0.28474957 -0.12968184 0.09018377 0.28896564 -0.07574402 -0.3067155 0.053415652
0.16615957 0.29621506 -0.13712333 -0.0589612 -0.0031422311 -0.050729766 -0.005770927 -0.17684563
0.124576844 0.21459621 -0.13232444 0.17116635 0.0056480095 0.04404379 -0.027078737 -0.058368642

phi.initial_conv_module.0._layers.8.conv.weight f4 [32, 64, 1]
00000000: ec82 83bc 9f2b 5e3d 3325 b93c b648 f8bb
00000010: 6bb1 1cbe 4b21 893d 1ed5 b8bd 9c8a 9d3d
00000020: 8d62 debd 3d26 59bd 0e08 a7bd 5cdf a1bd
00000030: f5dd 9ebd dcd9 0ebe 1d2d 213d a8bc 363d
00000040: dd3d 8f3c c1be 503d 14dc b53d 18c2 763d
00000050: 5389 07be 6826 0c3d 6c28 ed3d 8625 003e
00000060: 12c0 a03d 0df4 023e 4481 96bd accc 933d
00000070: a5ec bdbd 67c9 e6bc 7976 d03c c55f 73bd
00000080: 3783 0e3d 772e 9dbd d7d7 bb3d 71d5 2cbd
00000090: 16e3 9fbd 4f0b 2b3c 26c1 bdbd 55a9 063e
000000a0: 076d 42bd d563 833d d98a e3bd d3cb 7cbd
000000b0: f96d 173d fba8 a0bd 5325 bbbd b00b be3d
000000c0: 1ecf 9c3c d384 7f3d d6b6 673d 5dcd 8bbc
000000d0: ee22 173d beda 11bd c150 fe3d b616 f93c
000000e0: c028 343d 99a0 93bc ea88 77bd 236b 37bd
000000f0: 5636 56bd c256 8abd 5f90 c83d e2ae 2f3e
00000100: dfee 983d eba3 8dbd 5ae0 343e 9eb2 963d
00000110: cc9d 40be 0bc7 1a3e ae48 3fbb 094d f8bd
00000120: d27c b9bc c359 473c 0474 8a3d 2cc8 39bd
00000130: d61d a63d 4254 ab3d 400c 0a3e 58fe e6bd
00000140: 1fba 133d f816 b83d 0f74 b13d 3700 17bd
00000150: 5024 c4bd d057 71bd 85bd 3d3c e054 4abe
00000160: af31 87bd e87c 9dbd 895c 573d 43dd 90bd
00000170: d6ae ac3d 0951 96bd 6fbc 03bd 0ba4 12bd
00000180: 1626 15be 7eb0 803c 99cb ad3b 05d9 44bc
00000190: 8884 bb3d 1660 5439 45fc 173d 07c6 75bc
000001a0: 47b4 ad3d d852 973d 6e40 7c3e 091b e2bd
000001b0: 331e cbbd c99f 31bd 3e91 da3c 84b5 913d
000001c0: 3aac 1b3e dfdb e93d bf5f a03d 2413 4abc
000001d0: e2d0 87be 9428 643d 9369 483e ad69 3cbe
000001e0: 80da f23d b00d c13c f4a5 6a3d d9bc 4b3d
000001f0: 3f82 0f3e c83f 143e 8c7b 39bd dac3 11bb
00000200: f563 5a3d 87ba 383c 74de 30bc 8ff9 383d
00000210: 057d 6abd 8ec6 813c b463 8d3d 92a6 09be
00000220: 11d2 2b3e 0f38 afbd 687e 73bd ff29 8cbc
00000230: b45b b0bd 488f 27be 13a1 3cbd af32 ecbd
00000240: 8faf 60bd 8ab2 21bd 6cb4 5abd fa2c 643d
00000250: 0d5c a6bd 1759 54bd a568 953d 684e 68bd
00000260: c4dd cf3d efe0 a4bd 8dd7 1b3a 7489 4c3e
00000270: f3b0 10bc fe74 043e 80aa c5bd 370b 243d
00000280: e4a3 7e3c d4ae 443d e911 113e 398b 3f3c
00000290: daf2 11bd ea68 aebd 56e6 f5bd 3406 103c
000002a0: 6c92 e6bd b7fa febd e281 30bd 4b67 0d3e
000002b0: d73d b83d bffa 34bd 0f3e c13d d695 6a3e
000002c0: f11f 273d ec40 17bd 1400 b23c 169f ac3d
000002d0: af01 523d 7cfd 983d c2f0 be3d db0d 9ebd
000002e0: 843a 143d d96a b3bd 3696 a5bc af8d 133e
000002f0: ffde 8dbc a020 133e d6da 013e f58d 42bd
00000300: e0b6 3abd 057c d23c 200a 17be 8774 043e
00000310: 5b56 ba3d c748 a1bd 0605 abbd 0b15 67bd
00000320: 3436 80bd 2fc9 143e 939e 013e 6fc2 493d
00000330: b554 a9bc 58cf 04bd c3fa 54bd 83a6 b6bd
00000340: c870 fa3d efb2 ffbd 978e 55bd b9a3 943d
00000350: e306 833c 9374 3abd aeed ec3d 6079 85bd
00000360: 7dab 323c 1dec 793d cdd8 21ba 7e6c b1bd
00000370: e0af f4bd 93f7 f73d 23d7 2d3d 9044 c5bd
00000380: 54b0 0b3e 8f8d 95bc 8291 fbbd e835 833c
00000390: aa9e ce3d b5d5 133d 935b eb3c fdde ebbc
000003a0: 54be 9c3c 895a a5bc 6ed1 58bd 9c75 be3d
000003b0: fb23 8dbd e420 13bc 406b f63d ba6a 80bd
000003c0: 78cf 51bb c36e c3bc 213e 45be 2a60 353d
000003d0: d46d d2bc 2514 c5bd 0af7 fd3c 69c3 b43d
000003e0: b606 16bd 9206 91bd 945f a6bd 9b42 f7bd
000003f0: 972d a7bd 0d8b 1fbe 1848 56bd 63d0 23bb
-0.01605364 0.05424082 0.022600746 -0.007577027 -0.15302055 0.06695803 -0.09025024 0.07692453
-0.10858641 -0.053014982 -0.08155833 -0.079039305 -0.07757179 -0.13950294 0.039349664 0.04461351
0.017485553 0.050963167 0.08879867 0.060243696 -0.13235979 0.034216315 0.115799755 0.12514314
0.078491345 0.1278841 -0.07348874 0.072167724 -0.09273652 -0.028172208 0.025447117 -0.059417505
0.034793105 -0.07674878 0.091720276 -0.04219574 -0.07806985 0.010439708 -0.09265356 0.13150533
-0.047467258 0.06415526 -0.111104675 -0.06171782 0.036970112 -0.078447305 -0.091379784 0.09279573
0.01914173 0.06238253 0.05657085 -0.017065698 0.036898546 -0.035609 0.12417746 0.030406337
0.043984175 -0.018020915 -0.060433306 -0.044779908 -0.052297913 -0.06754829 0.097931616 0.17156556
0.07467436 -0.069160305 0.17663708 0.07358287 -0.18810195 0.15114991 -0.0029187608 -0.12124068
-0.022642527 0.012167397 0.067604095 -0.045356914 0.081111595 0.0836568 0.13481236 -0.11278981
0.03606617 0.08988756 0.086647145 -0.03686544 -0.095772386 -0.058921635 0.0115808295 -0.1975894
-0.06601273 -0.076898396 0.052578483 -0.07073452 0.08431785 -0.07339675 -0.032162126 -0.035800975
-0.1456531 0.015709158 0.0053038117 -0.012014632 0.09156138 0.0002025369 0.037105817 -0.015000827
0.08481651 0.07388848 0.24633953 -0.11040313 -0.099178694 -0.043365274 0.026680585 0.071146995
0.15202418 0.1141889 0.07830762 -0.012333665 -0.26526552 0.05570276 0.19571523 -0.18399687
0.11858082 0.023566097 0.05728717 0.049740646 0.14014529 0.14477456 -0.04528384 -0.002224198
0.053317983 0.01127494 -0.010795224 0.045159873 -0.057248134 0.015841749 0.069037825 -0.13442448
0.16779353 -0.08555614 -0.059446722 -0.017109869 -0.08611241 -0.16363251 -0.04605205 -0.11533105
-0.054854926 -0.03947691 -0.05339472 0.055706955 -0.08123026 -0.051842775 0.0729535 -0.0567154
0.1014972 -0.08050715 0.00059449003 0.19974309 -0.0088312505 0.12935254 -0.09651661 0.040049758
0.015542004 0.04801829 0.14166988 0.011690908 -0.035631992 -0.085161045 -0.12006824 0.008790541
-0.112583965 -0.12450164 -0.043092616 0.13808934 0.0899617 -0.044184443 0.09435665 0.2290872
0.040801946 -0.03692715 0.021728553 0.08428781 0.051271137 0.07470223 0.09323265 -0.077174865
0.036188617 -0.08760614 -0.020213228 0.14409517 -0.017318247 0.14367914 0.12681136 -0.047498662
-0.04558456 0.025693903 -0.14749956 0.12935077 0.09098502 -0.07875209 -0.083505675 -0.056416553
-0.062603384 0.1452987 0.12658148 0.049257692 -0.020670274 -0.0324243 -0.051996958 -0.08918478
0.122285426 -0.12485301 -0.052137937 0.0725779 0.015994495 -0.04552133 0.11568771 -0.06517291
0.010905144 0.06101619 -0.00061739684 -0.08663271 -0.11947608 0.12107768 0.0424415 -0.09632218
0.13641483 -0.018255977 -0.12283613 0.016016915 0.100888565 0.03609248 0.02873019 -0.028792853
0.019133724 -0.020184772 -0.052934103 0.09299776 -0.06891628 -0.00898001 0.12032175 -0.062703565
-0.003201453 -0.023856526 -0.19261982 0.044281162 -0.025687136 -0.09622983 0.031001586 0.08826334
-0.036627494 -0.07081331 -0.08123699 -0.12073251 -0.081629924 -0.15580387 -0.052314848 -0.0024996034

phi.initial_conv_module.0._layers.9.weight f4 [32]
00000000: b3ad 843f 8777 853f 4ddf 863f cef0 7c3f
00000010: a5be 863f 3dd6 7c3f 19d9 8c3f ad9f 8b3f
00000020: ca33 923f 6a3a 8f3f 6b13 8a3f d7ef 863f
00000030: 5467 893f 1185 793f 3104 6a3f eab3 833f
00000040: 6bc7 8d3f d9f5 863f fb0b 8f3f 096b 8a3f
00000050: d6a5 823f 8277 853f 50bf 873f 0dd2 893f
00000060: fee6 853f e956 863f a28d 823f 2289 823f
00000070: e9ad 843f 0177 883f a371 833f affe 863f
1.0365509 1.0427102 1.0536896 0.9880494 1.052693 0.987644 1.1003753 1.0908104
1.1422055 1.1189702 1.0787176 1.0541943 1.0734658 0.9746867 0.91412646 1.028928
1.1076483 1.0543777 1.1175531 1.0813915 1.0206859 1.0427096 1.0605259 1.0767227
1.0461118 1.0495273 1.0199473 1.01981 1.0365573 1.0661317 1.0269054 1.0546473
