logs/bird_classification_test_Certhia/2025-05-12_16-09-40/best_bird_classification_test_Certhia.pth (torch, 314134 bytes, 200 tensors)

mel_spec.spectrogram.window f4 [400]
00000000: 0000 0000 0060 8138 005c 8139 0082 113a
00000010: 0052 813a 0007 ca3a 006d 113b 00e3 453b
00000020: 4031 813b c073 a33b c0b6 c93b 00f8 f33b
00000030: 601a 113c e034 2a3c 404a 453c 8058 623c
00000040: f0ae 803c 402c 913c 10a3 a23c 6012 b53c
00000050: f078 c83c a0d5 dc3c 0027 f23c e835 043d
00000060: 58d1 0f3d 10e5 1b3d 4070 283d 3072 353d
00000070: 08ea 423d f0d6 503d f837 5f3d 480c 6e3d
00000080: f052 7d3d 7885 863d a499 8e3d 80e5 963d
00000090: 8068 9f3d 2022 a83d cc11 b13d f836 ba3d
000000a0: 0c91 c33d 781f cd3d 9ce1 d63d dcd6 e03d
000000b0: 94fe ea3d 2458 f53d e4e2 ff3d 144f 053e
000000c0: a2c4 0a3e c051 103e 1af6 153e 52b1 1b3e
000000d0: 0c83 213e e86a 273e 8a68 2d3e 8c7b 333e
000000e0: 92a3 393e 34e0 3f3e 0e31 463e b895 4c3e
000000f0: d00d 533e ea98 593e 9c36 603e 7ce6 663e
00000100: 1ea8 6d3e 147b 743e ee5e 7b3e a029 813e
00000110: ccab 843e c235 883e 48c7 8b3e 2760 8f3e
00000120: 2200 933e 00a7 963e 8654 9a3e 7608 9e3e
00000130: 97c2 a13e ac82 a53e 7948 a93e c013 ad3e
00000140: 44e4 b03e c6b9 b43e 0a94 b83e d272 bc3e
00000150: dd55 c03e ee3c c43e c527 c83e 2316 cc3e
00000160: c807 d03e 76fc d33e ebf3 d73e e7ed db3e
00000170: 2bea df3e 76e8 e33e 87e8 e73e 1dea eb3e
00000180: f8ec ef3e d5f0 f33e 77f5 f73e 9cfa fb3e
00000190: 0000 003f b302 023f 4505 043f 9607 063f
000001a0: 8609 083f f30a 0a3f be0b 0c3f c70b 0e3f
000001b0: ec0a 103f 0e09 123f 0c06 143f c701 163f
000001c0: 1dfc 173f f0f4 193f 1fec 1b3f 8be1 1d3f
000001d0: 13d5 1f3f 99c6 213f fbb5 233f 1ea3 253f
000001e0: df8d 273f 2176 293f c45b 2b3f aa3e 2d3f
000001f0: b51e 2f3f c6fb 303f bfd5 323f 82ac 343f
00000200: f07f 363f ee4f 383f 5d1c 3a3f 21e5 3b3f
00000210: 1caa 3d3f 326b 3f3f 4628 413f 3ce1 423f
00000220: fa95 443f 6246 463f 5af2 473f c799 493f
00000230: 8e3c 4b3f 93da 4c3f be73 4e3f f507 503f
00000240: 1e97 513f 1e21 533f e0a5 543f 4825 563f
00000250: 3e9f 573f ad13 593f 7a82 5a3f 90eb 5b3f
00000260: d84e 5d3f 3cac 5e3f a403 603f fc54 613f
00000270: 2ea0 623f 25e5 633f cd23 653f 125c 663f
00000280: df8d 673f 22b9 683f c7dd 693f bcfb 6a3f
00000290: f012 6c3f 5023 6d3f cc2c 6e3f 522f 6f3f
000002a0: d22a 703f 3c1f 713f 810c 723f 92f2 723f
000002b0: 60d1 733f dea8 743f fc78 753f b041 763f
000002c0: eb02 773f a2bc 773f c86e 783f 5419 793f
000002d0: 39bc 793f 6e57 7a3f e8ea 7a3f 9e76 7b3f
000002e0: 89fa 7b3f 9e76 7c3f d8ea 7c3f 2c57 7d3f
000002f0: 97bb 7d3f 1018 7e3f 926c 7e3f 18b9 7e3f
00000300: 9efd 7e3f 1d3a 7f3f 936e 7f3f fc9a 7f3f
00000310: 57bf 7f3f a0db 7f3f d4ef 7f3f f5fb 7f3f
00000320: 0000 803f f5fb 7f3f d4ef 7f3f a0db 7f3f
00000330: 57bf 7f3f fc9a 7f3f 936e 7f3f 1c3a 7f3f
00000340: 9dfd 7e3f 18b9 7e3f 926c 7e3f 1018 7e3f
00000350: 96bb 7d3f 2c57 7d3f d7ea 7c3f 9e76 7c3f
00000360: 88fa 7b3f 9e76 7b3f e7ea 7a3f 6c57 7a3f
00000370: 38bc 793f 5219 793f c86e 783f a0bc 773f
00000380: ea02 773f ae41 763f fb78 753f dca8 743f
00000390: 5ed1 733f 90f2 723f 800c 723f 3a1f 713f
000003a0: d02a 703f 502f 6f3f ca2c 6e3f 5023 6d3f
000003b0: f012 6c3f bcfb 6a3f c6dd 693f 21b9 683f
000003c0: de8d 673f 105c 663f cc23 653f 24e5 633f
000003d0: 2da0 623f fb54 613f a303 603f 3aac 5e3f
000003e0: d74e 5d3f 8feb 5b3f 7882 5a3f aa13 593f
000003f0: 3c9f 573f 4525 563f dda5 543f 1c21 533f
0.0 6.169081e-05 0.00024673343 0.00055506825 0.0009866357 0.0015413463 0.0022190213 0.0030195117
0.0039426386 0.0049881637 0.0061558187 0.0074453354 0.008856386 0.010388583 0.012041628 0.013815045
0.015708417 0.017721295 0.019853145 0.022103488 0.02447173 0.026957333 0.029559612 0.03227797
0.035111755 0.038060248 0.041122675 0.04429835 0.04758647 0.05098623 0.054496735 0.05811718
0.061846673 0.06568426 0.069628984 0.073679924 0.07783604 0.08209634 0.086459726 0.09092516
0.0954915 0.10015768 0.1049225 0.10978481 0.11474338 0.11979702 0.12494448 0.13018447
0.13551572 0.14093685 0.14644662 0.15204361 0.15772647 0.16349375 0.1693441 0.17527598
0.18128803 0.1873787 0.1935465 0.19978988 0.20610738 0.21249738 0.21895832 0.2254886
0.23208663 0.23875076 0.24547932 0.2522707 0.2591232 0.26603514 0.27300477 0.28003046
0.2871104 0.29424286 0.3014261 0.3086583 0.31593773 0.32326257 0.33063105 0.3380413
0.34549153 0.35297984 0.36050445 0.3680635 0.37565508 0.38327736 0.39092842 0.3986064
0.40630937 0.4140355 0.42178282 0.42954943 0.43733343 0.4451329 0.45294592 0.46077052
0.4686048 0.47644678 0.48429462 0.49214637 0.5 0.5078537 0.5157054 0.52355325
0.5313953 0.5392296 0.5470542 0.5548672 0.56266665 0.57045066 0.57821727 0.5859646
0.5936907 0.6013937 0.6090717 0.61672276 0.624345 0.6319366 0.63949555 0.6470202
0.65450853 0.66195875 0.669369 0.6767374 0.6840623 0.69134176 0.698574 0.70575726
0.7128897 0.71996963 0.7269953 0.733965 0.7408769 0.7477294 0.7545208 0.7612493
0.76791346 0.77451146 0.78104174 0.7875027 0.79389274 0.8002102 0.8064536 0.8126214
0.8187121 0.8247241 0.83065605 0.83650637 0.8422736 0.8479565 0.8535534 0.85906315
0.8644843 0.8698156 0.87505555 0.880203 0.88525665 0.8902152 0.8950775 0.8998424
0.90450853 0.9090749 0.9135403 0.91790366 0.92216396 0.9263201 0.93037105 0.9343158
0.9381534 0.94188285 0.9455033 0.9490138 0.95241356 0.9557017 0.9588773 0.9619398
0.9648883 0.96772206 0.9704404 0.9730427 0.9755283 0.9778966 0.9801469 0.9822787
0.9842916 0.98618495 0.98795843 0.9896114 0.99114364 0.99255466 0.99384415 0.9950118
0.9960574 0.9969805 0.997781 0.9984586 0.99901336 0.99944496 0.99975324 0.9999383
1.0 0.9999383 0.99975324 0.99944496 0.99901336 0.9984586 0.997781 0.9969804
0.99605733 0.9950118 0.99384415 0.99255466 0.9911436 0.9896114 0.9879584 0.98618495
0.98429155 0.9822787 0.9801468 0.97789645 0.97552824 0.9730426 0.9704404 0.96772194
0.9648882 0.9619397 0.95887727 0.9557016 0.95241344 0.9490137 0.94550323 0.9418827
0.93815327 0.9343157 0.9303709 0.9263201 0.92216396 0.91790366 0.91354024 0.90907484
0.9045085 0.89984226 0.89507747 0.89021516 0.8852566 0.88020295 0.8750555 0.86981547
0.86448425 0.8590631 0.8535533 0.8479563 0.8422735 0.8365062 0.8306559 0.82472396

mel_spec.mel_scale.fb f4 [201, 64]
00000000: 0000 0000 0000 0000 0000 0000 0000 0000
00000010: 0000 0000 0000 0000 0000 0000 0000 0000
00000020: 0000 0000 0000 0000 0000 0000 0000 0000
00000030: 0000 0000 0000 0000 0000 0000 0000 0000
00000040: 0000 0000 0000 0000 0000 0000 0000 0000
00000050: 0000 0000 0000 0000 0000 0000 0000 0000
00000060: 0000 0000 0000 0000 0000 0000 0000 0000
00000070: 0000 0000 0000 0000 0000 0000 0000 0000
00000080: 0000 0000 0000 0000 0000 0000 0000 0000
00000090: 0000 0000 0000 0000 0000 0000 0000 0000
000000a0: 0000 0000 0000 0000 0000 0000 0000 0000
000000b0: 0000 0000 0000 0000 0000 0000 0000 0000
000000c0: 0000 0000 0000 0000 0000 0000 0000 0000
000000d0: 0000 0000 0000 0000 0000 0000 0000 0000
000000e0: 0000 0000 0000 0000 0000 0000 0000 0000
000000f0: 0000 0000 0000 0000 0000 0000 0000 0000
00000100: 0000 0000 0000 0000 0000 0000 0000 0000
00000110: 0000 0000 0000 0000 0000 0000 0000 0000
00000120: 0000 0000 0000 0000 0000 0000 0000 0000
00000130: 0000 0000 0000 0000 0000 0000 0000 0000
00000140: 0000 0000 0000 0000 0000 0000 0000 0000
00000150: 0000 0000 0000 0000 0000 0000 0000 0000
00000160: 0000 0000 0000 0000 0000 0000 0000 0000
00000170: 0000 0000 0000 0000 0000 0000 0000 0000
00000180: 0000 0000 0000 0000 0000 0000 0000 0000
00000190: 0000 0000 0000 0000 0000 0000 0000 0000
000001a0: 0000 0000 0000 0000 0000 0000 0000 0000
000001b0: 0000 0000 0000 0000 0000 0000 0000 0000
000001c0: 0000 0000 0000 0000 0000 0000 0000 0000
000001d0: 0000 0000 0000 0000 0000 0000 0000 0000
000001e0: 0000 0000 0000 0000 0000 0000 0000 0000
000001f0: 0000 0000 0000 0000 0000 0000 0000 0000
00000200: 0000 0000 0000 0000 0000 0000 0000 0000
00000210: 0000 0000 0000 0000 0000 0000 0000 0000
00000220: 0000 0000 0000 0000 0000 0000 0000 0000
00000230: 0000 0000 0000 0000 0000 0000 0000 0000
00000240: 0000 0000 0000 0000 0000 0000 0000 0000
00000250: 0000 0000 0000 0000 0000 0000 0000 0000
00000260: 0000 0000 0000 0000 0000 0000 0000 0000
00000270: 0000 0000 0000 0000 0000 0000 0000 0000
00000280: 0000 0000 0000 0000 0000 0000 0000 0000
00000290: 0000 0000 0000 0000 0000 0000 0000 0000
000002a0: 0000 0000 0000 0000 0000 0000 0000 0000
000002b0: 0000 0000 0000 0000 0000 0000 0000 0000
000002c0: 0000 0000 0000 0000 0000 0000 0000 0000
000002d0: 0000 0000 0000 0000 0000 0000 0000 0000
000002e0: 0000 0000 0000 0000 0000 0000 0000 0000
000002f0: 0000 0000 0000 0000 0000 0000 0000 0000
00000300: 0000 0000 0000 0000 0000 0000 0000 0000
00000310: 0000 0000 0000 0000 0000 0000 0000 0000
00000320: 0000 0000 0000 0000 0000 0000 0000 0000
00000330: 0000 0000 0000 0000 0000 0000 0000 0000
00000340: 0000 0000 0000 0000 0000 0000 0000 0000
00000350: 0000 0000 0000 0000 0000 0000 0000 0000
00000360: 0000 0000 0000 0000 0000 0000 0000 0000
00000370: 0000 0000 0000 0000 0000 0000 0000 0000
00000380: 0000 0000 0000 0000 0000 0000 0000 0000
00000390: 0000 0000 0000 0000 0000 0000 0000 0000
000003a0: 0000 0000 0000 0000 0000 0000 0000 0000
000003b0: 0000 0000 0000 0000 0000 0000 0000 0000
000003c0: 0000 0000 0000 0000 0000 0000 0000 0000
000003d0: 0000 0000 0000 0000 0000 0000 0000 0000
000003e0: 0000 0000 0000 0000 0000 0000 0000 0000
000003f0: 0000 0000 0000 0000 0000 0000 0000 0000
0.0 0.0 0.0 0.0 0.0 0.0 0.0 0.0
0.0 0.0 0.0 0.0 0.0 0.0 0.0 0.0
0.0 0.0 0.0 0.0 0.0 0.0 0.0 0.0
0.0 0.0 0.0 0.0 0.0 0.0 0.0 0.0
0.0 0.0 0.0 0.0 0.0 0.0 0.0 0.0
0.0 0.0 0.0 0.0 0.0 0.0 0.0 0.0
0.0 0.0 0.0 0.0 0.0 0.0 0.0 0.0
0.0 0.0 0.0 0.0 0.0 0.0 0.0 0.0
0.0 0.0 0.0 0.0 0.0 0.0 0.0 0.0
0.0 0.0 0.0 0.0 0.0 0.0 0.0 0.0
0.0 0.0 0.0 0.0 0.0 0.0 0.0 0.0
0.0 0.0 0.0 0.0 0.0 0.0 0.0 0.0
0.0 0.0 0.0 0.0 0.0 0.0 0.0 0.0
0.0 0.0 0.0 0.0 0.0 0.0 0.0 0.0
0.0 0.0 0.0 0.0 0.0 0.0 0.0 0.0
0.0 0.0 0.0 0.0 0.0 0.0 0.0 0.0
0.0 0.0 0.0 0.0 0.0 0.0 0.0 0.0
0.0 0.0 0.0 0.0 0.0 0.0 0.0 0.0
0.0 0.0 0.0 0.0 0.0 0.0 0.0 0.0
0.0 0.0 0.0 0.0 0.0 0.0 0.0 0.0
0.0 0.0 0.0 0.0 0.0 0.0 0.0 0.0
0.0 0.0 0.0 0.0 0.0 0.0 0.0 0.0
0.0 0.0 0.0 0.0 0.0 0.0 0.0 0.0
0.0 0.0 0.0 0.0 0.0 0.0 0.0 0.0
0.0 0.0 0.0 0.0 0.0 0.0 0.0 0.0
0.0 0.0 0.0 0.0 0.0 0.0 0.0 0.0
0.0 0.0 0.0 0.0 0.0 0.0 0.0 0.0
0.0 0.0 0.0 0.0 0.0 0.0 0.0 0.0
0.0 0.0 0.0 0.0 0.0 0.0 0.0 0.0
0.0 0.0 0.0 0.0 0.0 0.0 0.0 0.0
0.0 0.0 0.0 0.0 0.0 0.0 0.0 0.0
0.0 0.0 0.0 0.0 0.0 0.0 0.0 0.0

phi.initial_conv_module.0._layers.0.conv.weight f4 [64, 64, 1]
00000000: f657 fd3d 5bb6 ed3d 0a03 08bc 8b1a 123e
00000010: 8103 84bc 7b12 8f3d e394 a63c f174 2b3e
00000020: 660d 443e dcda 33bd bc64 fa3d f5ba 303d
00000030: 2996 ed3d f48f f73c 12cf 983d b2e9 19bc
00000040: 1131 ea3d be68 093c 41f7 95bd 05b6 e33c
00000050: 59d5 9abd dfa5 82bd 13db d7bd 8049 743d
00000060: 1c81 e0bd fa09 a5bd 11ab b5bd eaa3 06be
00000070: faa7 18bd 4f3c 0fbe f91d cb3d 15b7 08be
00000080: 72d3 3d3d 3a28 c43b 67e8 35bd 7735 963d
00000090: 8caa e83b 6bcd c53d ea89 8b3c 15b6 11bd
000000a0: d1fc c53c 7a8e 35bd c848 563d 5ff2 db3d
000000b0: b2fe 503d 4eea c9bd 4f88 913c 16d4 d5bc
000000c0: f8f3 693d 14ba 8bbd a5fc 00be fc0a 4ebd
000000d0: f9b0 a1bd 439e 003e 06c5 3f3d 1d39 743d
000000e0: b9c5 773d 23a4 b53c 51c4 093e 8c68 83bd
000000f0: a534 643d 3efd 73bd 0ea2 853d 05c5 feba
00000100: ee0d 013b d8eb 85bd 197a 5a3d 388f febd
00000110: 2a8d 01be aa38 bfbd ca5b c93d 7839 a73b
00000120: 0127 bc3d a2e3 d4bd f4b1 dbbd 4b1f 5ebd
00000130: 1204 9abd 53e3 433d 2b70 c13d 95de be3d
00000140: 4313 cabd 7ea2 f7bd 5d17 b63c a189 92bd
00000150: 9601 3e3d 51a4 eebc 646f b03d 4a39 cbbd
00000160: 4a1c a9bd ec98 a0bb c927 7dbc 1ba7 9cbd
00000170: dcb5 253d 89ac 7a3d 5561 fdbd d566 9dbd
00000180: 34ae 003e a50e 0abd a8dd 2fbd 41e7 d7bd
00000190: 05fb 83bd 3d1b 493d af1a edbc 1a3c 04be
000001a0: 6e9e a4bc 9db9 bbbd 3653 bcbd cf85 3fbd
000001b0: 60ac acbd ea18 94bd 21f6 b73d d8d2 7bbd
000001c0: e10f f1bc bb6d 3dbe e4a9 15be 96b2 b4bd
000001d0: ea1f cebb e1f2 d3bd 5374 92bd 3948 b0bd
000001e0: 2180 a2bc 384f b1bd d726 c1bb a7e9 f4bd
000001f0: 1ffe d8bd 5395 9ebd 322a a2bd be0c fabd
00000200: f6a0 803d fd83 81bd aa36 923d 3e52 043b
00000210: 8011 0fbe 5cc9 3c3d 1f20 9bbd c6fd bfbd
00000220: af43 12be 414c 20be a1e7 b7ba d76b 7ebd
00000230: ac71 1b3c 7f38 0ebe 3b91 283d ee88 08be
00000240: 3846 7fbd f545 413b 0b6e fa3c cbd7 9c3d
00000250: 7ecc b83d eee6 06be 976c 373b 56ff 87bd
00000260: afde 39bd 8792 06be e5b6 d73d fe0a f1bd
00000270: 8679 ea3c cc84 ac3a ff78 9e3c 9f36 a1bd
00000280: 8492 d63d 4c54 003d aa6d d43c ff55 c8bd
00000290: 90da 293d c98f eebc 1721 4cbd 1ee1 ff3d
000002a0: 5ec3 743d 6b41 2ebd 36b7 55bd 45a9 71bb
000002b0: 43c3 843d ee09 35bd ee08 cabd 6706 a3bd
000002c0: 3332 1dbe 437f 5dbd 124c 723b b420 3ebe
000002d0: c90c 6cbc fba8 5d3d 4a57 9c3c 724e 22bd
000002e0: 650c 903d 5cde 8f3d fa8a 853d bb62 2a3c
000002f0: 4873 a93b 101c 453d 4e42 353c accf a93b
00000300: fc5e 9e3d 5775 c83d 32fb e3bc 8072 0dbd
00000310: 5095 0c3c 2cf0 cdbc 82dd 443b c895 7a39
00000320: 6831 25be 12c6 babd 15f8 c03d 2eba 213d
00000330: 702f af3a 1061 84bd 9829 bebd dfda 0fbe
00000340: d338 c2bd 5a53 ed3b dd89 543d 1e4c d73c
00000350: 749c 17be c941 f9bd f35a aabd 6366 2f3d
00000360: 44c9 6fbd e4f3 c7bd 326a e63c 16bd 5fbd
00000370: 2e46 f2bd c9c8 793d ae7a 93bd 3be6 1fbd
00000380: 20a8 08be 730a be3d bd5c ce3d feb1 a03d
00000390: 8025 a0bd 52b5 d0bd b020 a1bd f7db be3d
000003a0: ca6e 7b3d a498 db3d 2fe1 5f3d 9a8d 2d3d
000003b0: f329 49bc 5953 12be 1713 1dbe 8ac0 49be
000003c0: ab63 b7bc 6c63 e2bd 9ccc 35bd 5243 4abd
000003d0: 754b f13a 6bcd 96bd 910c c5bd fb45 ed3c
000003e0: 2c62 1cbd 50a1 cb3d dfdc 0fbc 97da 83bd
000003f0: 7bfe a83c b29c 32bd 132c 70bc fde6 abbd
0.12370293 0.11607047 -0.008301506 0.14267938 -0.016114952 0.06985947 0.020334667 0.16743828
0.19145736 -0.043909892 0.12226245 0.043147046 0.116009064 0.03022001 0.074613705 -0.009394096
0.1143514 0.008386789 -0.073225506 0.027796755 -0.07560224 -0.06379294 -0.10539832 0.059640408
-0.10962126 -0.080585435 -0.08870519 -0.13148466 -0.03726957 -0.1398785 0.09917826 -0.1335109
0.046344228 0.0059862407 -0.04441109 0.07334416 0.007100409 0.09658321 0.017033536 -0.035574038
0.024168404 -0.04432533 0.052315503 0.10739588 0.051024146 -0.09859143 0.017765192 -0.026102107
0.057117432 -0.06822601 -0.12596376 -0.050303444 -0.07895083 0.12560372 0.046818756 0.05962478
0.060491297 0.022172993 0.13453795 -0.06416425 0.05571427 -0.059567682 0.0652505 -0.0019437379
0.001969214 -0.06539124 0.053339098 -0.124296606 -0.12651506 -0.0933698 0.098319605 0.0051032864
0.09187127 -0.1039498 -0.10727301 -0.054229062 -0.075203076 0.047824215 0.094452225 0.09319798
-0.09866955 -0.1209154 0.022227937 -0.07155157 0.04638823 -0.029131087 0.08614996 -0.099230364
-0.08257349 -0.004901042 -0.01545138 -0.0764906 0.040456638 0.0611997 -0.1237208 -0.07685629
0.12566453 -0.033705372 -0.042935997 -0.10542155 -0.064443626 0.049098242 -0.028943388 -0.12913552
-0.020095076 -0.09166262 -0.09195559 -0.04675847 -0.084313154 -0.072313145 0.08982492 -0.061480373
-0.029426517 -0.1849889 -0.1461559 -0.08823125 -0.0062904255 -0.1034906 -0.07151093 -0.086075254
-0.019836487 -0.08657688 -0.0058945226 -0.11958628 -0.10595345 -0.07743325 -0.07918204 -0.12209462
0.06280701 -0.06324003 0.071393326 0.0020190622 -0.1397152 0.04609047 -0.07574486 -0.09374575
-0.14283632 -0.15654089 -0.0014030823 -0.062114563 0.009487551 -0.13888739 0.041154128 -0.13333485
-0.062322825 0.002949116 0.03057005 0.07658347 0.09023379 -0.1317403 0.0027988309 -0.06640498
-0.045378383 -0.13141833 0.10532931 -0.11769675 0.0286224 0.0013162135 0.019344805 -0.07871746
0.104771644 0.03133039 0.025931198 -0.097820275 0.041468203 -0.029121296 -0.049836244 0.124941096
0.05975663 -0.042542856 -0.052176677 -0.0036874574 0.06482556 -0.044198923 -0.098649845 -0.079602055
-0.1535118 -0.054076444 0.003697161 -0.18567163 -0.014407345 0.05411623 0.019084591 -0.039625593
0.07033614 0.070248336 0.06520648 0.010399516 0.0051712133 0.048122466 0.011063172 0.005182227
0.077329606 0.09788006 -0.02782974 -0.034533024 0.008580521 -0.025138937 0.0030039256 0.00023897656
-0.16132128 -0.0911981 0.09422318 0.039484195 0.0013365578 -0.06463826 -0.09285277 -0.14048336
-0.094834946 0.0072426023 0.05188929 0.026281413 -0.14805776 -0.12170751 -0.083181284 0.042822253
-0.05854155 -0.09763315 0.02812681 -0.054623686 -0.11829792 0.0609825 -0.07201134 -0.039037924
-0.13345385 0.09279337 0.10076282 0.07846449 -0.078196526 -0.10190834 -0.07867563 0.09319299
0.061384954 0.10722473 0.05465811 0.04237137 -0.012278068 -0.14289607 -0.15339313 -0.19702354
-0.022386393 -0.110541195 -0.044384584 -0.049380608 0.0018409329 -0.07363399 -0.096215375 0.028964033
-0.03817956 0.09942877 -0.008780687 -0.06438177 0.020629158 -0.043606468 -0.014658946 -0.08393667

phi.initial_conv_module.0._layers.1.weight f4 [64]
00000000: f03d 813f e675 7e3f a0cf 753f 504f 773f
00000010: 7b2a 833f 7847 823f 3f7d 7a3f ee99 8a3f
00000020: 4b29 863f 1809 823f a2ff 7e3f 59ab 813f
00000030: dd73 673f 225a 803f 09f7 823f 0d5e 713f
00000040: b3b6 7b3f d46b 803f f882 793f 2b5d 7a3f
00000050: bdf5 863f 8f95 873f 40cb 813f c9a8 713f
00000060: 488e 823f be4b 7b3f 6e46 6c3f 9fdf 773f
00000070: 995b 813f 3f89 873f c5e0 813f 02c7 7a3f
00000080: 7b7f 743f 4e8b 893f 5623 813f ce8e 813f
00000090: 0ed0 7d3f 1153 843f 6701 7f3f 01c2 853f
000000a0: 0555 893f 5976 813f 6689 813f 7584 843f
000000b0: 46d1 7d3f 87c6 693f 29cd 8a3f d53b 813f
000000c0: b02b 703f cee2 7b3f 778b 853f 84bc 813f
000000d0: c2d0 833f 190a 813f d009 853f c3c6 803f
000000e0: b55c 813f 9b9c 813f d3cb 7e3f eaca 8a3f
000000f0: 8b00 7b3f c495 803f 140a 813f a37b 803f
1.0097027 0.9939865 0.96019936 0.96605396 1.0247339 1.017806 0.9784736 1.0828226
1.0481352 1.0159025 0.99608815 1.0130416 0.9041117 1.0027506 1.0231639 0.94284135
0.9832565 1.0032907 0.9746547 0.97798413 1.0543743 1.0592517 1.0140152 0.9439817
1.0199671 0.9816245 0.9229497 0.96825594 1.0106078 1.0588759 1.0146719 0.9795991
0.9550702 1.0745637 1.0088909 1.0121706 0.9914559 1.033785 0.99611515 1.044983
1.0729071 1.0114242 1.0120056 1.0352923 0.9914745 0.91318554 1.084386 1.0096384
0.9381666 0.9839295 1.0433186 1.0135655 1.0298083 1.0081207 1.039362 1.0060657
1.0106417 1.0125917 0.9952976 1.0843174 0.98047704 1.0045705 1.0081201 1.0037731

phi.initial_conv_module.0._layers.1.bias f4 [64]
00000000: 3697 4a3d e01a f73c ddc4 9e3d a4de 433a
00000010: 49af 833d 2653 913c c5b4 3dbd 7f6b 21bd
00000020: 36fc f2bc e131 38bb 2785 603c 84e4 6dbd
00000030: 641c 293d 7184 43bd 7830 8e3c 04e6 543d
00000040: c823 3dbd 764c c1b9 d31c 7b3d 97f6 c7bc
00000050: 3728 c0bb 7841 073c a92e 58bc 8e82 45bb
00000060: e459 ba3d df67 1e3d f817 0fbd 86ce e3bc
00000070: 442b 1a3d e043 efbc 69b2 bfbc 2bc0 3cbd
00000080: 1143 dabc 4cf0 e9bc 0547 9e3c 0182 0fbd
00000090: 8644 ecbc 2ac3 bcbb 37df 403b 704e 253d
000000a0: 0b37 143b 012d e33b f2ea b53c 036d 293c
000000b0: 3ec7 c63c 9d93 693c 27ef 0dbd 34e7 6dbc
000000c0: 779a 093d 0ab4 e73c 3545 b8bc 29de ffba
000000d0: 2ad7 e5bc 2401 4a3c 3e9e 10bd aaad 11bd
000000e0: f136 8cbd 94b4 cd3c 3cec ce3c 560c 38bc
000000f0: dbe1 8a3d 38a1 e9bc bf48 533b b98e 013c
0.049460612 0.030164182 0.077523924 0.00074718357 0.06429917 0.017739844 -0.046314973 -0.039409157
-0.02966128 -0.0028105902 0.013703621 -0.058079258 0.04128684 -0.047733728 0.017357096 0.051977172
-0.0461767 -0.00036868796 0.061306786 -0.024409575 -0.005864169 0.008255355 -0.013194718 -0.003013763
0.090991765 0.038673278 -0.034934968 -0.027808439 0.037638918 -0.02920717 -0.023400502 -0.046081703
-0.026643308 -0.028556965 0.019320974 -0.03503609 -0.028841268 -0.00576057 0.0029429921 0.040358007
0.0022615816 0.006932855 0.022206757 0.010340932 0.024264928 0.014256385 -0.0346519 -0.014520455
0.033594575 0.028284092 -0.022493938 -0.0019521165 -0.0280567 0.0123293735 -0.03530716 -0.03556601
-0.06846417 0.02511052 0.02525913 -0.01123341 0.0678136 -0.028519258 0.0032239405 0.007907563

phi.initial_conv_module.0._layers.1.running_mean f4 [64]
00000000: 0eeb 8f3e cf44 9cbe 72cb 203e b466 f73d
00000010: 8851 2b3e 9d8e 813e 561a 1ebe c74a c63d
00000020: 06d3 07be 075a 493d d8b4 c73e 2e80 9a3c
00000030: 3c79 9b3e f904 73be fad2 fdbd 437b c03c
00000040: caa8 38bd 0d5e 0bbf 1fda 02bf 1dbf bcbe
00000050: 916d 0d3e b8ef a4be 626c 31bf 7b63 f73d
00000060: e923 7abe 90b7 04bf 1d1c af3e e267 11bf
00000070: c0ae e3bd 39b7 f5be f2ad 14bf a0c3 923c
00000080: ebc6 dabe d6c6 633d 254f bb3e b3a8 80bd
00000090: e5f0 023f 786e 0e3f 7743 eabe 5d64 313e
000000a0: 4d4f b6bd be7b 28bd 56f7 a63c 028b dcbe
000000b0: 9d58 8abe 9472 753e 0201 123e 3477 8fbc
000000c0: 3887 d4be b757 4bbe f9a7 103e fd8c 8bbe
000000d0: 8451 4c3d 3459 e03e 9678 5ebc ebb0 34be
000000e0: c2fe 9d3d 3359 bb3c 0507 c8bd 504c 863e
000000f0: 2900 0dbe b97c 123e c8fa edbd b1c7 873e
0.2810902 -0.30521247 0.15702608 0.12080136 0.1673032 0.25304118 -0.15439734 0.096822314
-0.13264093 0.049158122 0.3900516 0.018859949 0.30365932 -0.23732366 -0.12393756 0.023496276
-0.045082845 -0.54440385 -0.51114076 -0.36864558 0.13811328 -0.3221414 -0.69306004 0.12079521
-0.24427761 -0.51842594 0.34201136 -0.5679914 -0.11117315 -0.4799135 -0.5807792 0.017915547
-0.42729887 0.055609547 0.3658382 -0.06282177 0.51148826 0.5563731 -0.45754597 0.17323442
-0.08901844 -0.041133635 0.02038161 -0.43074805 -0.27020732 0.2396949 0.14258197 -0.017512895
-0.41509414 -0.1985768 0.14126576 -0.27256003 0.049882427 0.43818057 -0.013578555 -0.17645614
0.07714607 0.022869682 -0.09766964 0.26230097 -0.13769592 0.1430539 -0.11620098 0.2651954

phi.initial_conv_module.0._layers.1.running_var f4 [64]
00000000: 7b1b c73e 347e fd3f 2549 e13e 7b41 573f
00000010: 1f2b a83e 51a9 2d3f 7fb5 3b3f e034 023f
00000020: 00f6 613f 2667 1d3f a9c4 2340 e3cf 8c3e
00000030: 357e 893e fdde 353f 75c5 ca3e cea9 1c3f
00000040: 4b5f c93e c319 333f 0cb3 303f 616a 8f3f
00000050: d315 8d3f d1df 2e3f 1825 573f 9df6 4a3f
00000060: dd17 033f 07b3 843f f387 953f 6114 2c3f
00000070: 6fae 603e 54fc ba3e e32e b63f 120b 763f
00000080: f43f f13e 3717 e13e 687d 993f f822 e73e
00000090: 79db 843f 7fcb d63e 12d8 923e 371b 8b3f
000000a0: 5a61 6d3f a9e4 7b3e acd3 993f 376c d03f
000000b0: 908f d83e 2ee1 903e 0317 c23e 46cc bd3e
000000c0: 6c30 4f3f 2a78 8e3e 1213 503e ca41 433e
000000d0: 5e29 a53e 0b9f 453f 845b 873e bb39 ae3e
000000e0: 8699 023f b229 403e b81a a43e afed a73f
000000f0: 93e8 4b3f 91d4 113f 896f 583f a1d8 093f
0.38888153 1.9804139 0.44001117 0.8408429 0.328454 0.6783648 0.73323816 0.5086193
0.8826599 0.6148552 2.5588782 0.27502355 0.268541 0.7104338 0.39603773 0.611966
0.39330515 0.69961184 0.69023204 1.1204339 1.1022285 0.68310267 0.84040976 0.7928255
0.5120829 1.0367135 1.1682113 0.67218596 0.21941541 0.36520636 1.4233059 0.9611064
0.47119105 0.43963024 1.1991396 0.45143867 1.0379478 0.4195213 0.28680474 1.086768
0.9272667 0.24598946 1.2017722 1.6283025 0.4229703 0.28296798 0.37908182 0.3706991
0.8093326 0.27826053 0.20319775 0.19068065 0.32258123 0.77195805 0.26437008 0.3402842
0.5101551 0.18765905 0.32051635 1.311941 0.79651755 0.56964976 0.8454519 0.53846174

phi.initial_conv_module.0._layers.4.conv.weight f4 [64, 1, 5]
00000000: 02ef a9be 0722 bd3e b99e b43e 51e0 a53e
00000010: 3031 41be ff6f 963e 1b68 babe d974 683e
00000020: 8b4f 80bd ba21 adbe fa47 a7be f6df c6be
00000030: 521b 573c 2ddf 5bbe 5ec3 80be 144c e03e
00000040: 9fcc 32be 38de 183e 0561 8dbd 9dcd 813e
00000050: a0fa 4c3e 1eea 9c3e 7797 d83d 86d0 ccbd
00000060: 6d30 b93e 2c37 87bd 0ed3 b4be d6a9 9f3d
00000070: dd85 c4bd e354 91be b025 5a3c 38f2 9bbd
00000080: 80f6 1ebe 9da4 8fbe 57e0 46be f9ba 3fbe
00000090: 118a ca3c efe5 d43e adb4 8fbe 45d8 6bbe
000000a0: 5190 82be d2a0 1f3d d539 b03d ce63 9fbe
000000b0: a74b 693e 1c96 c5be 8e72 da3e 3e4a d93d
000000c0: c7f2 13bd 8add 19be 76f8 8c3e 922b cf3e
000000d0: 29f2 93be 67d1 ecbd b9ba 6a3e 8b27 a13b
000000e0: 2f40 babe 3250 d3bd 903e c73d 203d 53bd
000000f0: a650 88be 1a3b 58be b6d3 483e 1e23 ba3e
00000100: 426f df3e 4fa3 9cbc a108 2f3e 0238 a8be
00000110: 5448 833e 06ea f93e 6117 5a3e 716e 3cbe
00000120: 0345 c43e 5ef2 d7be 7b24 48bd 1009 7cbd
00000130: ba1c fbbe 67ce 42be 3590 b4be f5d0 e73d
00000140: 6bbd 56bd 8743 653e 3d62 63bd 90d9 bd3e
00000150: 43b3 dc3c 2669 cc3e 982e bf3e c301 b7be
00000160: 949c 8bbe 8e77 983e ec46 e73e 0d59 bdbe
00000170: 491f 0a3d 0dbc 3cbe 4789 d03e 5584 c93e
00000180: df4f 983e 24d1 343e 9d78 bebc afb5 e03e
00000190: fb2a 19be 93e7 c23d 3a88 2cbd f7d1 bdbe
000001a0: efec 7dbe 5222 af3d 00ec 7ebd 77e2 97be
000001b0: b7f3 ecbb 850f f33d 9b16 cfbe 0b10 643e
000001c0: 138c d0be 3628 21bd f220 9ebe bb04 c4be
000001d0: 2645 e3bc ea9c d23e add3 e03e 02b1 563e
000001e0: ad45 be3e 0b3c 5abe 502c 893e 2308 873e
000001f0: 85a0 d9be 7cad eebe dc37 503d 3428 3abd
00000200: 01e5 bfbe b788 91be 8710 c23e 24ec 9e3d
00000210: d4e9 453d 2f2c babe 7260 e03e ac13 67be
00000220: 22c8 843e 02d3 80ba 86ca b23d c41e 893e
00000230: 79a9 c1bd ae58 d7bd 769b c13e b876 a3be
00000240: 61d7 6e3e 7b78 98bd d4e0 04be 1472 b03e
00000250: 4298 f13d 5372 bdbe 31bd ea3e 0913 21be
00000260: c1f7 ce3e d4fd 34be 0f07 c73e 3c4c c53d
00000270: 8190 40bd be94 de3d 690b a3bd 0a5d 92be
00000280: 8ed3 913e 04ba bd3e b419 48bd 2acf aa3e
00000290: 55cf 2abc 115e 51be a29b 79be 1a1d 9f3e
000002a0: 833a 47be dcca 903e a39a dabe 2132 ec3c
000002b0: 0112 a9be 414c 123e 4942 bc3e 8eda 563e
000002c0: e5a4 43be ad0b e0be dc9c 0cbe 35c6 4fbe
000002d0: 355a cc3e b7bb 8abe 7c51 0c3e 5d0e ca3e
000002e0: d5c5 2b3e bb2c c2be 6651 0bbd 27b7 d0bd
000002f0: ba17 a23e 2981 39bc 765d 043d f05a d53e
00000300: d2d5 123e 1fae 303e 5bad 1bbe 0b5a 933e
00000310: 295c a83d 40dd b8bd 98bd 9d3d 5051 b9be
00000320: e13d 643c fa1c 633e fe2f c9be 3264 27be
00000330: e7f1 b13e 4379 493d f764 c53b 2561 a33d
00000340: 9d39 4abe 55ab bd3e e1e0 ca3c df13 0bbe
00000350: 62fd 823e b438 c4be d9f8 a8bd 285e a13c
00000360: 6612 43be e256 3e3e 7ef8 cfbe 31c2 3fbe
00000370: 7d0d 43be 40e5 d63e 24bb 7a3e ac47 88be
00000380: f27d 6c3e 39a3 a13d 2179 f43e 83a3 453e
00000390: 6598 9abe 1916 ae3e 273c 1abd a0ce b7bd
000003a0: 794f 093e 6e6f f73e 1144 103e 47cb debe
000003b0: 738f 04be f083 d93e fb25 20be 2eed 5dbe
000003c0: 29c4 b1be 53f7 9cbe 91df 90be 769e 7e3d
000003d0: a831 1f3e b12a fa3e ee12 b93e 0c6c d3bc
000003e0: f0fe 163e cbaa 2f3e 0f60 b2be b4ef 893e
000003f0: 363c 8bbe a4a1 cb3e 2eee f0bd 5964 173e
-0.3319016 0.36940023 0.35277346 0.32397702 -0.1886642 0.2938232 -0.3640755 0.22700824
-0.062651716 -0.33814794 -0.326721 -0.38842744 0.013129072 -0.21471854 -0.25149053 0.43808043
-0.17460869 0.1492852 -0.06903271 0.25352183 0.20017481 0.30647367 0.105757646 -0.1000071
0.36169758 -0.0660232 -0.35317272 0.077960655 -0.09595845 -0.28385076 0.013314649 -0.07614559
-0.1552372 -0.28055277 -0.19421516 -0.18723668 0.024724038 0.41581675 -0.28067532 -0.23031719
-0.2550073 0.03897173 0.086047806 -0.31130832 0.22782765 -0.38591087 0.42665523 0.10609864
-0.036120202 -0.15025917 0.2753331 0.4046293 -0.2889569 -0.11563378 0.22922792 0.004918044
-0.36377093 -0.103180304 0.0972873 -0.051571965 -0.2662403 -0.21116295 0.19612011 0.36354917
0.4363957 -0.01912084 0.17093135 -0.3285523 0.2564112 0.48811358 0.21297981 -0.18401505
0.38333902 -0.421771 -0.048862915 -0.06153208 -0.49045354 -0.19024049 -0.3526627 0.11319152
-0.052426737 0.22389041 -0.05551361 0.3708005 0.026940947 0.39923972 0.37340236 -0.35743532
-0.27267897 0.29778713 0.45171297 -0.36982003 0.033721242 -0.1843111 0.40729734 0.39358774
0.29748437 0.17657906 -0.023250872 0.43888614 -0.14957802 0.095168255 -0.042122103 -0.37074253
-0.24797414 0.08551468 -0.062236786 -0.29664966 -0.0072312015 0.118681945 -0.40446934 0.22271745
-0.40731868 -0.03934499 -0.3088451 -0.3828486 -0.027742933 0.4113534 0.43911496 0.2096596
0.37162533 -0.21311967 0.2679162 0.26373395 -0.4250528 -0.46616733 0.05083452 -0.045448497
-0.37479404 -0.28424618 0.37903234 0.07759884 0.0483187 -0.36361834 0.43823582 -0.22566098
0.2593394 -0.000982851 0.087300345 0.26781285 -0.094561525 -0.10514961 0.3781392 -0.31926513
0.23324348 -0.07444855 -0.1297639 0.34462035 0.11796619 -0.37001285 0.45847467 -0.15729918
0.40423396 -0.17674953 0.38872573 0.09633681 -0.04701281 0.10868214 -0.07961161 -0.28586608
0.28481716 0.3705598 -0.048852637 0.3336118 -0.010425408 -0.2044604 -0.24375775 0.3107689
-0.19455914 0.2827977 -0.42696103 0.028832497 -0.33021548 0.14286901 0.36769322 0.2098181
-0.19105871 -0.43758908 -0.13731712 -0.20290454 0.39912573 -0.2709634 0.13702959 0.39464083
0.16774686 -0.37924752 -0.034013174 -0.101911835 0.31658727 -0.011322298 0.032315694 0.41670942
0.14339378 0.17253922 -0.15202849 0.28779635 0.08220703 -0.09026575 0.07702178 -0.3619485
0.013930769 0.22179022 -0.39294428 -0.16346815 0.3475487 0.04918791 0.006023999 0.07977513
-0.1974854 0.37044778 0.024765434 -0.13581799 0.2558394 -0.3832451 -0.08250589 0.019698218
-0.19049987 0.1858783 -0.40619272 -0.18726422 -0.19048114 0.4197178 0.24485451 -0.2661718
0.2309492 0.078924604 0.47748664 0.19300656 -0.30194393 0.34001234 -0.037655022 -0.089749575
0.13409223 0.48327202 0.14088465 -0.43514463 -0.12945347 0.42483473 -0.15639488 -0.21672508
-0.3471997 -0.30657443 -0.28295568 0.06216284 0.15546286 0.48860696 0.36147255 -0.025808357
0.14745688 0.17154996 -0.34838912 0.2694069 -0.27194375 0.3977176 -0.11764179 0.14784373

phi.initial_conv_module.0._layers.5.weight f4 [64]
00000000: 3324 823f 51af 7e3f be7b 8a3f b277 7d3f
00000010: a549 833f da11 843f bb63 7d3f 881d 6f3f
00000020: d699 853f a115 783f d47b 6e3f 93f9 6b3f
00000030: cb27 763f f367 723f 7467 833f 6500 873f
00000040: 8f6e 7d3f 0688 783f 11b5 803f a67f 7b3f
00000050: 2f76 803f 9a52 803f 1afd 7a3f 8212 753f
00000060: 33d2 6f3f e045 8d3f 2112 7a3f 620c 7e3f
00000070: 4f3d 823f 63c7 7e3f 3f64 823f ef7b 793f
00000080: fd10 803f addf 853f f90f 873f e990 7a3f
00000090: 6d5a 793f d34f 873f 229e 813f edbd 863f
000000a0: 9058 8d3f 30d8 803f 9302 843f fd5e 7f3f
000000b0: 0bac 813f 25cd 733f f970 8b3f 21ab 813f
000000c0: 32e3 8a3f 7c9c 7e3f 056a 833f d3e4 853f
000000d0: 60a6 7f3f 8781 703f 47aa 743f ff2a 833f
000000e0: 5d4c 823f b61c 7c3f 88cd 733f 4758 853f
000000f0: 58a6 7c3f 1aab 843f c5af 823f 0529 763f
1.0167297 0.9948626 1.0819013 0.99010766 1.025685 1.0317948 0.989803 0.93404436
1.0437572 0.96908003 0.93157697 0.92177695 0.9615447 0.94689864 1.0265946 1.0546995
0.98996824 0.97082555 1.0055257 0.9824165 1.0036067 1.0025208 0.9804245 0.95731366
0.93680114 1.1036949 0.9768391 0.99237645 1.017496 0.9952299 1.0186843 0.9745473
1.0005184 1.0458885 1.055175 0.97877365 0.97403604 1.0571235 1.0126383 1.0526711
1.1042652 1.0065975 1.0313286 0.99754316 1.0130628 0.952349 1.0893852 1.0130349
1.0850585 0.99457526 1.026673 1.0460457 0.99863243 0.93947643 0.9557232 1.0247496
1.0179554 0.9848131 0.9523549 1.0417565 0.9869132 1.0364716 1.0209891 0.9615634

phi.initial_conv_module.0._layers.5.bias f4 [64]
00000000: 4266 713d 1b4d 05bd 7982 073d baed e93c
00000010: 4924 b0bb 51bf 063c 5dd4 6fbd 406c c8bb
00000020: 568d 993d d717 a9bc bbe4 adbd 6973 8bbd
00000030: cb99 adbb 3b06 fcbb e23d e8bc 3ddc e9bb
00000040: b3cc 27bc 152c 89bc 8607 8c3b e5fc 29bd
00000050: 592a 903d b23a e4bc 87b8 3abd 5ba5 b3ba
00000060: f088 92bc d6e0 1b3d 8be6 db3c 079b b43c
00000070: b969 5b3c 1066 ffbb 851f 6e3c f3fc 783d
00000080: 9c7b 933b 7b55 a83c 15da 863d bf24 a93d
00000090: 4351 98bd cd28 403c 09db c73c b47e 993b
000000a0: 083b 3e3c 1a00 b8bb f2f9 913d 3970 f43c
000000b0: d7ac 283d c6c7 4bbd f549 a53d 4f03 fa3c
000000c0: 2f09 3f3d ae3b b23c aceb 3cbd cafc 323d
000000d0: 3664 dbbb 6b47 64bd 6bd8 49bd 8360 3bbd
000000e0: 0d76 273d 0a8f bfbd 2a7c 86bd 722b 233d
000000f0: 83c3 ce3c 8d5f 24bd 9a49 6c3b 20a3 d3bc
0.05893541 -0.032544237 0.033083413 0.02855574 -0.0053754193 0.008224324 -0.058552135 -0.00611642
0.07497661 -0.02064125 -0.084908925 -0.06809122 -0.0052978746 -0.0076911724 -0.02834982 -0.00713685
-0.010241675 -0.016744653 0.004273358 -0.041500945 0.07039327 -0.02786002 -0.045586135 -0.0013705896
-0.017887563 0.038056217 0.02684333 0.022046579 0.013391905 -0.007794149 0.014533882 0.060788106
0.0045008194 0.020548573 0.065845646 0.08258962 -0.074373744 0.011728478 0.024396436 0.0046842936
0.011610754 -0.0056152465 0.071277514 0.029838668 0.041180458 -0.049751066 0.08070747 0.030519156
0.046639618 0.021756973 -0.04612319 0.04369811 -0.0066952957 -0.055732172 -0.049278658 -0.045746338
0.040884066 -0.093534544 -0.06566651 0.039836355 0.025239712 -0.040130187 0.0036054612 -0.02583462

phi.initial_conv_module.0._layers.5.running_mean f4 [64]
00000000: 6ae8 da3d 42ce 3fbd ae1a 65be c733 bd3d
00000010: d207 4739 ae1d 07be dfff c4bd f7c5 36bd
00000020: 4791 11bd 898c 09bc 427d b23d 5152 7dbd
00000030: 1381 ab3d bac2 af3d b752 46bc 45db 37be
00000040: a02b 943d a21c 9a3d 127d 893d e955 483e
00000050: 0a09 05be d49c f0bc 8252 1fbe c7cd c73d
00000060: 0c93 7c3d 1dd6 56be e42c 9b3d e637 6c3d
00000070: 4fd8 a43c 7739 a1bc fd90 153e dec2 f3bc
00000080: 9468 073e d069 13bc 998d 24b8 8a0f eebd
00000090: 0e92 043e 70a9 13bd 62e3 df38 9eaf 13ba
000000a0: ceb3 a13b 2ff8 633d 058f 6bbd d351 cabd
000000b0: 8263 a63d eab3 f33d 3dad f03d bc51 b2bd
000000c0: e12b febd c924 543e 547b 3fbc a46a 5e3d
000000d0: f9f2 98bd 1ae9 a2bd a403 1ebd 10e5 2abd
000000e0: 71cb 1cbd a8e0 06bd 1f10 02bd 9a28 edbc
000000f0: 1dbf 123e fcd6 a9bc 964e 003d 161e 0e3c
0.10688861 -0.046827562 -0.22373459 0.09238391 0.00018981032 -0.13194916 -0.09619116 -0.044622388
-0.035538938 -0.008395323 0.08715297 -0.06184608 0.08374228 0.08582063 -0.012104682 -0.17954738
0.07234883 0.075249925 0.067133084 0.19564022 -0.1299173 -0.029371656 -0.15558818 0.09756046
0.061663672 -0.20980115 0.075769216 0.057670496 0.020122675 -0.019680722 0.1460609 -0.029756006
0.13223487 -0.008997396 -3.923252e-05 -0.116240576 0.1294634 -0.03605026 0.00010675822 -0.0005633774
0.0049347645 0.05565661 -0.05750944 -0.09878888 0.08124448 0.1189955 0.117517926 -0.08706996
-0.12410713 0.20717157 -0.011687119 0.05430092 -0.07468218 -0.07954617 -0.03857769 -0.041722357
-0.038279954 -0.032929093 -0.031753656 -0.028950024 0.14330716 -0.020732395 0.031324945 0.008674165

phi.initial_conv_module.0._layers.5.running_var f4 [64]
00000000: 02df 0b3e 9991 8b3c 6140 2b3e 1fcf 483d
00000010: 75af 6039 45c5 143e 2ba8 e43c c485 a13d
00000020: b53b 443d 2660 ad3c ddf1 603e f601 9a3d
00000030: c68e 4a3e 2e7c 443e 44ba 343d 2df5 943e
00000040: b075 663d 4dae 613d 82ff 4c3d 60ec a83e
00000050: 7602 d73e e28c f63c e069 8f3d 9de8 703e
00000060: 797e 9d3d 4ad0 3a3e 70d3 4a3e 6f22 833d
00000070: 4fdf 5a3d 8b74 553d 3611 a13d aa1d 2f3c
00000080: e17c cb3e 90cd 113d 0d21 3838 460c 9e3e
00000090: 1d6f d73e c730 763d 44b8 2239 01e5 f43c
000000a0: 387d a03c 8b16 373d 0c94 9e3d 4449 b23c
000000b0: 847e d53d 35af 593e 738e f23d dfb3 1d3e
000000c0: f6a7 fb3d 822b 8f3e b3b1 b43d c7b0 833d
000000d0: 0b4d 873d e60b d73d f655 6a3d eba1 643d
000000e0: 4c74 853d 11a1 923d 0f71 573c dad6 0f3d
000000f0: 74bc 823e da61 7b3c 749a c43c 8fee 5c3c
0.1365929 0.0170372 0.16723777 0.04902565 0.00021427668 0.14528377 0.02791222 0.07886842
0.047908504 0.021164011 0.21967264 0.07519905 0.19781026 0.19187996 0.04412295 0.29093304
0.05626458 0.055097867 0.05004836 0.3299284 0.41994065 0.030096475 0.07002616 0.23526235
0.07690138 0.18243518 0.1980722 0.06403052 0.05343562 0.052113097 0.07864611 0.010688225
0.39743713 0.03559643 4.38998e-05 0.3086874 0.4207696 0.06010511 0.00015518168 0.029894354
0.019590959 0.044699233 0.077430815 0.021763451 0.104245216 0.21258242 0.11843576 0.15400647
0.122878954 0.2796288 0.08822956 0.06430202 0.06606492 0.10500316 0.057210885 0.05581848
0.065163225 0.07159627 0.013149514 0.035117008 0.25534403 0.015343154 0.02399943 0.013484611

phi.initial_conv_module.0._layers.7.se_conv.conv.weight f4 [10, 64, 1]
00000000: b2bf ea3d 9ba1 36be 6d7b 0fbe f535 b5bd
00000010: e718 2abe 0557 00be 9358 d1bd 7be1 c43d
00000020: 9132 5f3c be7c e7bd d048 6cbd 3938 23be
00000030: 7ae4 69be 5b37 fbbd daec 50be f3ed 2cbb
00000040: fc7e 0cbe 69f4 a9bd 14ca c6bd 6c39 6ebd
00000050: 9dd6 62bd f97d 0fbe a293 e0bb bbfe 853c
00000060: 1cc1 1cbe 5ab6 08bb ed61 b7bd 3b2d 82bd
00000070: 773d 05bd 5a02 94bd a704 32bc a8a1 9cbb
00000080: 5535 f5bd 9577 1cbe 63e8 3abe ebbe 903c
00000090: 95b3 00be 11b3 dabd bdae a3bd 1f96 28be
000000a0: 7e20 35be a758 bf3d 8d47 153d 94c9 aa3d
000000b0: 7dc7 c5bd 0914 8cbd 931e 1dbd 3d6b 953b
000000c0: ed46 1cbe 208a 0ebd e6a1 14be d0ae 59bd
000000d0: 189d 9c3d d05d 21bd b6bc 7cbc b9a5 d7bd
000000e0: 90c7 7abd f117 08be 8178 b9bd 9a45 bfbd
000000f0: 88e4 2dbe 4a42 18be d658 afbd 3b4b 46bd
00000100: f3ca 94bc aae8 d7bd 4267 253e ea0f 1a3d
00000110: 9c9b 34bd 5973 863d 5114 eb3d af17 d3bd
00000120: ebbc ebbd ebf0 903d fc9d c9bd ded5 393d
00000130: 52ed 87bd cbb2 89bc 5c9f 0c3d 8ac2 14bd
00000140: 86d3 48bc 34d7 a6bd ebe5 44bc 04c9 9c3d
00000150: 596a d5bd 00d8 903b a237 e93d 6934 e0bc
00000160: ed2c 87bd 8974 6abd ee3a f0bc 79eb e2bc
00000170: 4bdc 30be 866d 5b3d a0bf c0ba 2ef0 cf3b
00000180: 8b41 92bd 4cad 883c dcdf 85bd 11bb 90bd
00000190: 24b1 c8bd 6256 35bd 8692 c7bd c696 a03d
000001a0: 65d2 02be 0bcc 70bd d655 e7bd 7236 88bd
000001b0: 0739 c2bd 3096 34bd c252 5f3d 3640 5a3d
000001c0: 4b0b 3ebd 00aa e236 fd25 e53a 9525 003e
000001d0: f22e 0abb 55b1 403e 00b1 ad3d e4eb 913d
000001e0: 40d5 af3d 9316 c1bd 48c1 f5bd 2846 093d
000001f0: da97 cebc cdb8 883d 4d5b 083c 105a 97bd
00000200: cb39 023e 0254 65bc 5931 243e e626 bebd
00000210: c861 783c 8339 103d c048 ee3c faa4 0fbd
00000220: 24a3 04bd 1dea f93d 6841 8abc a66d 973d
00000230: 2d84 d3bc 11c7 0bbe 40e8 94bd 955b 9ebd
00000240: db20 b6bd 8aa3 9c3d 6fbd a43d ea6e f9bc
00000250: 088f 163e 23bc a33d c470 393d 58ee 90bb
00000260: d4f6 eb3d 4d80 d3bd 8519 0d3e 834f 07be
00000270: daf2 b03d 7e45 cabc 914c e83d 650a abbc
00000280: 4a1f 8dbd 8a75 94bd af87 f1bc 1623 17bd
00000290: a040 4fbd 47b3 403d 31bc b93d 5c32 e8bc
000002a0: 5c12 0d3e 8569 c5bc 198e 9ebd 3b61 49bd
000002b0: 7bd7 88bd 90a7 693d 6b03 473e 6cf5 8f3d
000002c0: eebc fcbd 4aab 0cbe 8d3b 17bc 5469 23be
000002d0: 1a9a 223d d08c 023e a468 3c3d 1c42 2a3d
000002e0: 7be5 223d df52 70bc 292a 473c bb0b 063e
000002f0: 589f 03be 4d63 b93c c970 43bd a192 f2bc
00000300: 235e d23c feaf 9abd fcaf 133d 6bf2 eebd
00000310: 55f3 2cbd 11c5 403d 8b37 ea3d f13a a73b
00000320: 9182 d0bd b436 3cbd c05d 07bc 8c5b 29bd
00000330: e81c 3e3e 4893 4bbd effd 403e 77e9 8e3d
00000340: 6b5d 0f3d 9b36 e33d 49d7 0a3e ab90 bd3c
00000350: 56b6 05bd ad41 ee3c 8cb8 563d 7bf3 103e
00000360: 26dc 033d 12b0 d63c 6ca6 99bd 3001 f13d
00000370: 5003 6d3e d6cb 0b3e 46aa b4bd a97e c63d
00000380: 265c f13b 342a 403e db75 ca3d ccfe 26be
00000390: c1e6 f53c d468 643d 5061 55bd 9957 363e
000003a0: 2d45 5b3e 97f0 dd3d a832 8e3d 7bdb dcbd
000003b0: 0201 edbc 6bd3 4a3d bb7b 863c c8a9 063e
000003c0: cff2 243e 59df 713d f0da b93b b7c4 b53d
000003d0: beda d43d 6b5b 19bd b65b 66bc 98af cb3b
000003e0: 54ef 7e3d edd4 423d f838 193e a91c 113e
000003f0: 3234 713d cfeb 033d 841a 89bc e68e 4b3e
0.11462344 -0.17835085 -0.14011927 -0.08848182 -0.16611062 -0.12533195 -0.10221972 0.096133195
0.013622896 -0.113030896 -0.057686627 -0.15939416 -0.22841063 -0.122664176 -0.20402852 -0.0026386946
-0.13720316 -0.08298571 -0.09706512 -0.05816023 -0.055380452 -0.14012899 -0.0068535367 0.016356817
-0.1530804 -0.0020860643 -0.08954225 -0.06356283 -0.03252932 -0.07227011 -0.010865367 -0.004780013
-0.11973063 -0.15279992 -0.18252711 0.017669162 -0.12568505 -0.106786855 -0.07992313 -0.16463517
-0.17688176 0.09343081 0.03644519 0.08339229 -0.0965719 -0.06839759 -0.038359236 0.004559903
-0.15261431 -0.034799695 -0.14514884 -0.05314523 0.07647151 -0.039396107 -0.015425852 -0.10529656
-0.061225474 -0.13290383 -0.090561874 -0.09339447 -0.16981709 -0.14869037 -0.08561866 -0.04841159
-0.01816318 -0.10542424 0.16152671 0.037612833 -0.044093713 0.065649696 0.114784844 -0.10307252
-0.115106426 0.070772015 -0.09844586 0.045369975 -0.06637062 -0.016808888 0.034331664 -0.03631834
-0.012257462 -0.081465155 -0.012017707 0.07655528 -0.10420675 0.0044202805 0.11387564 -0.027368741
-0.06600366 -0.057240043 -0.029324975 -0.027700173 -0.17271535 0.053571247 -0.0014705546 0.0063457703
-0.071414076 0.016684197 -0.065368384 -0.0706693 -0.09799412 -0.044271834 -0.09744744 0.07841258
-0.12775572 -0.05878834 -0.11295669 -0.066510096 -0.09483533 -0.044088542 0.054522283 0.053283893
-0.04639749 6.7551155e-06 0.0017482635 0.12514336 -0.002108511 0.18817647 0.08481026 0.07125071
0.08585596 -0.09428134 -0.11999756 0.03351417 -0.025218893 0.06675873 0.008322549 -0.07390225
0.12717359 -0.01399708 0.1603445 -0.09284763 0.015160032 0.035211097 0.029087424 -0.035069443
-0.032382146 0.12202857 -0.016876891 0.07393961 -0.025819862 -0.13650157 -0.07270861 -0.07732312
-0.088929854 0.0764838 0.08043944 -0.030448396 0.14703 0.079948686 0.045273557 -0.004422944
0.11521688 -0.10327206 0.13779266 -0.13213925 0.0864007 -0.02469134 0.11342729 -0.02087898
-0.068907335 -0.07248981 -0.029483644 -0.036898695 -0.05059874 0.047045972 0.09069098 -0.028344326
0.13776535 -0.024098167 -0.07741947 -0.04916499 -0.06681725 0.057044566 0.19434898 0.070292324
-0.12340723 -0.13737217 -0.009230507 -0.15958148 0.039697744 0.12749028 0.04599823 0.041566953
0.03976963 -0.0146681955 0.012156048 0.13090412 -0.12853754 0.022630358 -0.047714982 -0.029610934
0.025679654 -0.07553099 0.036056504 -0.11667331 -0.042224247 0.047062937 0.11436375 0.005103462
-0.101811536 -0.045950606 -0.008262098 -0.04134707 0.18565714 -0.049701005 0.18846868 0.06978124
0.0350012 0.110943995 0.13558687 0.023140272 -0.032644592 0.029084051 0.05242209 0.1415538
0.03219237 0.026207004 -0.075024456 0.117678046 0.23145795 0.13651976 -0.088215396 0.09692127
0.0073657213 0.18766099 0.098857604 -0.16308135 0.030017259 0.055764034 -0.052094758 0.17806853
0.21413107 0.108369045 0.06943256 -0.1078405 -0.028931145 0.04951803 0.016416421 0.13150704
0.16108249 0.05905089 0.0056718513 0.08875411 0.10393284 -0.0374407 -0.0140599515 0.0062160008
0.06223996 0.047566343 0.14963138 0.14171089 0.058887668 0.032207306 -0.016736276 0.1987873

phi.initial_conv_module.0._layers.7.se_conv2.conv.weight f4 [64, 10, 1]
00000000: 9bcf 2fbe a8bd b33d d676 05be eca3 67bd
00000010: c708 debd 6044 e23c 46ca 6bbe 48b2 973e
00000020: cc42 47bd c1a4 4c3d 0bf8 fb3d 8c23 0fbe
00000030: bbe8 8a3e 91c4 c3bc 3cbf 26bd 1005 91be
00000040: f855 793d 80ab 713d ebf2 953d 4c7e a5bd
00000050: 1dde 413e eff2 0d3e 2cc8 5d3e f281 26bd
00000060: a022 263d daa5 3abe 5978 3fbe 69d3 95bd
00000070: f6d5 853d 62fc 27be 241d 86be 776c fa3d
00000080: 221c 0e3e bd64 2ebe e976 553e 8379 5ebe
00000090: f66d 7e3e d1c9 403e 5668 24be daf3 973e
000000a0: c5aa 4bbe 0eed 19be 2621 743e 96a1 86bd
000000b0: 06d8 a2bd 38a1 f33c 9564 8ebd 0d57 5a3e
000000c0: 18d1 5e3e bfe7 1b3e 1ac4 d23d aa0f e83d
000000d0: 4bbe 843d 58ba 903b afd4 913c 1b6b 3b3e
000000e0: 8c9d 6e3e d3d6 babd af79 dc3d 840e 0b3c
000000f0: dae4 2b3e f608 8a3e 1c2a 62be 8ff0 41bd
00000100: 68f5 afbd ace8 a4be d92e 5fbe 2c02 04be
00000110: 0baf 713e 2bfe 68be df24 1e3e 2a05 713e
00000120: 762c 66be 2125 9f3d 52e6 8f3c 352c 49be
00000130: 647c 89bc 391d babe 608b 8b3e f780 4f3e
00000140: 356a 303d acbe 573e 92cd 553e 9e3f d93e
00000150: cdec 293e 71e8 97be 36f9 923e 929a 0d3e
00000160: ba16 a0bd ec5e 02be af0c a73e 7eba f13d
00000170: 463c 473e fcfc 37bc 26ac 943e 66c4 75be
00000180: 7826 963d 8a0f 463c 93cd 2d3d 2b79 863e
00000190: 3b5a 303e 687c 843d c636 a53e 4abf 12be
000001a0: ebb2 b3bd 042c 2bbe 0c5f 87bd e4b9 6bbe
000001b0: d3cf 2b3e 279b 5e3e a489 55be 3ae4 39be
000001c0: 470c 9f3e 4583 50be 648c 773e 53d5 b43e
000001d0: 6c26 adbd ed51 a2be cd26 f83d 741a ee3d
000001e0: 0af4 b03e b4a5 783d 00f4 553e 9489 bdbe
000001f0: 9dbc 0e3d 7506 023e 71dc 763e ee58 64be
00000200: 98e6 72bd 15fa 5abe 9304 1dbe be82 303e
00000210: c8ef 9a3d 6cf0 583d 98df b9bc e661 ea3b
00000220: e712 2b3c 6ab9 d23d a4df 3cbe b38b 9f3d
00000230: 852f 253e 07f0 453e 1f70 43be 0b46 743e
00000240: 8787 55be d045 4f3e f65a 6c3e 0e21 39bc
00000250: e42c f03d ce47 70be 3195 f4bd 673b fabd
00000260: 622d 82be 9ac8 bebd eca5 5b3e 132c 7cbc
00000270: eb62 a73e 0e14 a6be b503 143e cf7f 893e
00000280: 6ee1 a43e 8036 09be c512 96be 688e 1fbe
00000290: 7192 753e bdec 9d3d deb9 843e e5aa 5ebe
000002a0: 3720 83be 8f2e 473e 1c39 133e ff8f 2ebe
000002b0: cc91 9a3e 4d7f 5abe 34bd 9bbe 1169 093e
000002c0: c310 14be 80e2 6abe b339 15be 024b da3d
000002d0: 81b2 1e3e 5d90 523e 301c 63be ae74 aebd
000002e0: 53bc 973e 0bc3 3abe a4b3 81bd a9b9 c2bd
000002f0: 8f71 8cbe 5c4d 66be 7bba 943e a1cd a43d
00000300: db7b 053e 7fee ef3d 3acd 333e 1f38 593e
00000310: db6b 2c3e 03cc 343e a1d2 5e3e d8a6 8a3e
00000320: da91 adbd 471b 913d 303a 3bbe 04b7 29be
00000330: 57f0 ae3e df6c a7be c1e5 48be c4ab 70be
00000340: 1671 91be 1603 6d3d cf75 2e3e 050c 83be
00000350: fb3a 7a3d b71f 8ebe ac35 693c cc81 743e
00000360: fa7b 14be 112e 48be 92ae 853e 0098 0bbe
00000370: 1a55 86bc ef53 92be 77c9 853e 32c2 643d
00000380: fd01 3cbe 11ba a63e 95aa a53e 20c1 5e3d
00000390: c1c2 61be 5312 93bd cf7c 9d3e bef1 853e
000003a0: 02ab 953d 9216 103e b79b 84be f067 3b3e
000003b0: ca44 453e 0310 b83c 7b13 99be 9594 d83d
000003c0: c3d9 7a3e 9629 9a3e 5d4a ebbd b496 10be
000003d0: 1bc4 c2bd bf0a d53c fca3 90bd d0fc 10be
000003e0: 5e0f 693d f20d 423e 146c eebd 81bb 173e
000003f0: 9632 acbc 708f 0f3e 8111 fa3d aa9f e6bd
-0.17169039 0.087764084 -0.13033614 -0.056552812 -0.10841518 0.027620494 -0.2302638 0.29628205
-0.048647687 0.04996181 0.1230317 -0.13978404 0.27130684 -0.023897441 -0.04070972 -0.28324175
0.060873 0.059001446 0.073217236 -0.0808073 0.18932386 0.13862203 0.21658391 -0.04065127
0.040560365 -0.1822733 -0.18698253 -0.07315714 0.065349504 -0.1640487 -0.26194108 0.12227719
0.1387792 -0.17030616 0.20846142 -0.2172604 0.24846634 0.18826987 -0.16055426 0.2967823
-0.19889362 -0.15031835 0.2384077 -0.06573789 -0.079513595 0.029739961 -0.06952778 0.2132227
0.2175945 0.15225123 0.1029131 0.11331113 0.06481608 0.004416745 0.01780161 0.18302576
0.23302287 -0.09123006 0.10765397 0.0084873475 0.16786519 0.26959962 -0.22086376 -0.047348555
-0.085917294 -0.32208765 -0.21795215 -0.12891454 0.2360193 -0.22753207 0.15443753 0.23537126
-0.22477898 0.07770754 0.01756588 -0.1964577 -0.016782947 -0.3635042 0.27254772 0.2026404
0.043070037 0.2106883 0.208792 0.4243135 0.16594239 -0.29669526 0.28705758 0.13828495
-0.07816835 -0.12731522 0.32626864 0.11803149 0.19456586 -0.01122975 0.2903759 -0.24000701
0.07331556 0.012088666 0.04243238 0.2626432 0.1722192 0.06469041 0.3226835 -0.14330783
-0.0877436 -0.1671601 -0.06609926 -0.2302013 0.16778497 0.21738873 -0.20853287 -0.18153468
0.31064054 -0.20362575 0.24174649 0.35319003 -0.08454594 -0.3170313 0.12116776 0.11626139
0.34561187 0.0607049 0.2089386 -0.37019026 0.034847844 0.12697776 0.24107529 -0.22299549
-0.059301943 -0.21384461 -0.15333776 0.17237374 0.07565266 0.05296366 -0.022689626 0.0071527837
0.010441518 0.10289271 -0.18444687 0.077903174 0.16131409 0.19329844 -0.1908574 0.23854844
-0.20852481 0.20241475 0.23081574 -0.011299385 0.11727312 -0.23464891 -0.119425185 -0.12218361
-0.2542525 -0.093156055 0.21450013 -0.0153913675 0.32692656 -0.32437176 0.14454539 0.26855323
0.3220324 -0.13399696 -0.29311195 -0.15581667 0.23981644 0.0771117 0.25923055 -0.21744879
-0.25610515 0.19451354 0.14377254 -0.17047118 0.3018936 -0.21337624 -0.30417788 0.13418986
-0.14459519 -0.22937965 -0.14572792 0.10658838 0.15497781 0.20562883 -0.22178721 -0.08518349
0.29635867 -0.18238465 -0.06333092 -0.09508068 -0.27430388 -0.22490448 0.29048523 0.08047033
0.13035528 0.117154114 0.17558756 0.21212815 0.16838019 0.1765595 0.21760036 0.27080417
-0.084750846 0.07085281 -0.18283916 -0.16573721 0.3416774 -0.3270025 -0.19618894 -0.23503023
-0.2840659 0.05786427 0.17037128 -0.25595108 0.061091404 -0.27758572 0.014233988 0.23877639
-0.14500418 -0.19548823 0.2610975 -0.13632202 -0.016398001 -0.2857966 0.26130268 0.05584926
-0.18360133 0.32563832 0.32356706 0.054383397 -0.22046949 -0.071812294 0.30759284 0.26160997
0.07308008 0.1407111 -0.2590005 0.18301368 0.19264522 0.022468572 -0.29897675 0.10575215
0.24497132 0.30109853 -0.11488793 -0.14119989 -0.095100604 0.0260061 -0.070625275 -0.1415894
0.05689942 0.18950632 -0.11641708 0.14817621 -0.021020215 0.14019561 0.1221037 -0.11260922
