logs/bird_classification_distillation/2025-06-16_15-08-44/bird_classification_distillation_best_model.pth (torch, 330074 bytes, 198 tensors)

phi.initial_conv_module.0._layers.0.conv.weight f4 [64, 64, 1]
0	0x3d673706	0.05644896
1	0xbd8c8fe3	-0.06863382
2	0x3d6bfbf5	0.05761333
3	0xbaf60a22	-0.001877133
4	0x3b8f2389	0.00436825
5	0xbca0239a	-0.019548226
6	0xbe151ac7	-0.14560996
7	0x3d23871e	0.03992378
8	0x3cd15afe	0.025556084
9	0xbd8cbac6	-0.06871562
10	0x3ad4c477	0.0016232867
11	0xbe12f12f	-0.14349817
12	0x3da21081	0.07913304
13	0x3d938a7f	0.072041504
14	0xbc67f5cc	-0.014157724
15	0x3dbe6225	0.09296063
16	0xbd923008	-0.071380675
17	0xbdff5da1	-0.1246903
18	0xbdf37842	-0.11888172
19	0xbc335fa5	-0.010948096
20	0x3b2ab88b	0.0026049938
21	0x3cea111d	0.028572613
22	0xbd82a0d9	-0.063783355
23	0xbd8e715a	-0.06955214
24	0x3da5d5de	0.080974326
25	0x3d9cbbdd	0.076530196
26	0x3da46425	0.080269136
27	0x3e1639a3	0.14670424
28	0x3e27c516	0.16383776
29	0x3cec60b5	0.028854707
30	0xbdb3fbd6	-0.08788268
31	0xbd82d10f	-0.06387531
32	0x3ced3e1d	0.028960282
33	0x3d116aa3	0.035502087
34	0x3d129559	0.03578696
35	0x3d53ce87	0.05171063
36	0x3d861c96	0.06548421
37	0xbb71d7a5	-0.0036902216
38	0xbddb9e03	-0.10723498
39	0xbd0f7cd9	-0.035031173
40	0xbdfe7f4f	-0.12426626
41	0xbdee65fc	-0.11640546
42	0xbc8fc0f0	-0.017548054
43	0x3d67d3cb	0.056598466
44	0xbcff0fc3	-0.031135445
45	0x3dd39915	0.103319325
46	0xbde94df8	-0.113918245
47	0x3d88def4	0.0668315
48	0x3cef05f1	0.029177638
49	0x3d66d6bf	0.05635714
50	0xbd54d5f4	-0.051961854
51	0xbc983bef	-0.018583266
52	0xbd4cbf65	-0.049987216
53	0x3da84c46	0.08217673
54	0xbc5b1816	-0.013372442
55	0xbd9088bc	-0.0705733
56	0x3c8f051d	0.017458493
57	0x3da087ae	0.07838379
58	0xbda6a264	-0.08136442
59	0xbdbfa31b	-0.09357282
60	0x3e0b10e8	0.13580668
61	0xbcaa59a3	-0.020794695
62	0xbd3ed18a	-0.04658655
63	0xbc02533e	-0.007954417
64	0xbdb48516	-0.08814447
65	0xbd5f0433	-0.054447364
66	0xbd23fcab	-0.040035885
67	0xbdebff31	-0.11523283
68	0xbdce7ca9	-0.10082371
69	0xbd998a21	-0.07497049
70	0x3cfaac6a	0.030599792
71	0x3def1350	0.116736054
72	0x3cc147f0	0.023593873
73	0xbd40f6d2	-0.047110386
74	0xbdecbc28	-0.115593255
75	0x3da0b4ef	0.0784701
76	0xbdf098be	-0.11747883
77	0xbdaaaa26	-0.083332345
78	0x3b413f63	0.0029487244
79	0x3dd2b3cc	0.102882
80	0x3d85467a	0.06507583
81	0xbde0fe07	-0.10985952
82	0xbd210615	-0.03931244
83	0x3d43a3ef	0.04776376
84	0x3e0c754a	0.13716617
85	0xbd10dd99	-0.035367582
86	0x3d909427	0.07059508
87	0xbda4670b	-0.080274664
88	0xbd953301	-0.07285119
89	0xbdff1463	-0.1245506
90	0xbe0cec0d	-0.13761921
91	0xbe1cb555	-0.15303548
92	0xbe03d946	-0.12875852
93	0x3c17ca09	0.0092644775
94	0x3b9f8efb	0.0048693395
95	0x3d616e98	0.05503711
96	0xbe0a00d6	-0.13476881
97	0xba467187	-0.00075700175
98	0x3d5f2b16	0.05448445
99	0xbd58f2ca	-0.052965917
100	0x3d9016be	0.07035588
101	0x3d614257	0.054994907
102	0xbdb446b5	-0.08802549
103	0x3d4eebe6	0.05051794
104	0xbddd68fb	-0.10811039
105	0xbb23bc1f	-0.0024983955
106	0x3d9d7c1b	0.07689687
107	0xbd8d823b	-0.06909605
108	0x3cae4be0	0.021276414
109	0xbd81ebfc	-0.063438386
110	0x3d147117	0.036240663
111	0xbd048062	-0.032348998
112	0x3ccbb182	0.024864916
113	0x3db4c6a4	0.0882695
114	0xbd7ae5a5	-0.061254162
115	0xbda190ad	-0.07888923
116	0x3c7f34df	0.01557657
117	0xbdc8d162	-0.098055616
118	0x3dbf23c6	0.09332995
119	0xbdb93659	-0.09043569
120	0xbda6b6dd	-0.08140347
121	0x3d9fcd9e	0.0780289
122	0xbd089fc1	-0.03335548
123	0x3cdd175d	0.02698868
124	0x3d28f28e	0.041246943
125	0x3d848f46	0.0647264
126	0x3d5a3919	0.05327711
127	0x3cb76cfa	0.022390831
128	0xbdbfc139	-0.09363026
129	0xbcdd712a	-0.0270315
130	0xbdc4bab2	-0.09605922
131	0x3db6c498	0.08924216
132	0xbd385da6	-0.045011185
133	0xbd952fc3	-0.072845004
134	0x3d62a2e0	0.05533111
135	0xbc8a0ba7	-0.01685126
136	0x3cb16323	0.021653717
137	0x3d2f2e08	0.04276851
138	0x3cc74433	0.024324512
139	0x3d22d47a	0.039753415
140	0x3d0f984f	0.035057362
141	0x3c0fbeac	0.008773487
142	0xbd1525c3	-0.036412966
143	0x3db77b93	0.08959117
144	0xbe11206a	-0.14172521
145	0xbd102e17	-0.035200205
146	0xbc01187a	-0.007879371
147	0xbc032d28	-0.008006372
148	0x3d71ad9c	0.059003457
149	0x3d925429	0.071449585
150	0xbc2e2910	-0.010629907
151	0xbd8b3dec	-0.0679892
152	0x3dfd622f	0.12372243
153	0xbb89a77a	-0.004200873
154	0xbdf7afe8	-0.12094098
155	0xbe056591	-0.13027026
156	0x3dd6dc38	0.10491222
157	0x3db2913b	0.08719107
158	0xbc97e672	-0.018542502
159	0x3d6ef4d8	0.05833897
160	0x3d9d6c0b	0.07686623
161	0x3dbfb631	0.09360922
162	0x3ccbce74	0.024878718
163	0x3dda15a3	0.10648658
164	0xbc7db34b	-0.015484641
165	0xbdc96fb8	-0.09835762
166	0x3c2cd0fa	0.010547871
167	0x3cd04feb	0.025428733
168	0x3c1e4379	0.009659641
169	0x3d086eb4	0.0333087
170	0xbdbb2256	-0.091374084
171	0xbdf31918	-0.11870021
172	0xbdc6ded8	-0.09710473
173	0x3dd503ab	0.1040109
174	0xbdc54476	-0.096321985
175	0xbd306e7e	-0.043074124
176	0x3cfa40bc	0.030548446
177	0x3d95ec01	0.07320405
178	0xbcccd116	-0.025002044
179	0xbd2d31fb	-0.042283993
180	0xbd2b0f20	-0.04176247
181	0xbdd09d38	-0.10186237
182	0xbd99bf32	-0.07507171
183	0xbd92dad3	-0.07170644
184	0xbb35d432	-0.0027744886
185	0x3dd0a086	0.101868674
186	0x3d6c9c66	0.05776634
187	0xbd713562	-0.0588888
188	0x3dd766d5	0.105176605
189	0xbdc753e1	-0.097327955
190	0x3de321fd	0.11090467
191	0xbb819a21	-0.003955141
192	0xbd3a6206	-0.04550364
193	0x3d8fdbc8	0.07024342
194	0xbdc60585	-0.096690215
195	0xbd3a45c1	-0.04547668
196	0x3d1bb1db	0.038011413
197	0xbd0ec513	-0.034855913
198	0x3c358c2e	0.011080785
199	0x3d880f4a	0.06643541
200	0xbda05ee3	-0.07830598
201	0x3d589557	0.052876797
202	0xbd8388d2	-0.06422581
203	0x3df7f419	0.12107105
204	0xbdbabff5	-0.09118644
205	0x3dae8c0b	0.08522805
206	0xbc7bbaf1	-0.0153643945
207	0x3be5c657	0.0070121693
208	0xbdc67625	-0.09690503
209	0xbd5fbb95	-0.05462225
210	0x3c71c173	0.014755595
211	0xbd470db9	-0.04859707
212	0xbdf46b94	-0.119345814
213	0xbd3c62e2	-0.04599274
214	0xbde8a11d	-0.11358855
215	0xbca65c94	-0.020307817
216	0xbde8bd4d	-0.11364231
217	0x3cac2662	0.021014396
218	0x3d71a678	0.058996648
219	0xbddb4313	-0.10706153
220	0x3ca0eae4	0.019643255
221	0x3e167af2	0.14695337
222	0x3c845213	0.016152417
223	0x3e0a1b92	0.1348708
224	0x3df688b0	0.1203779
225	0xbd8aa0de	-0.06768964
226	0x3defe97e	0.11714457
227	0xbcad81d0	-0.021180063
228	0x3cf7f8b3	0.030269956
229	0xbdf975a5	-0.12180642
230	0x3d4c36aa	0.04985682
231	0x3d88d8d4	0.06681982
232	0x3d498810	0.049202025
233	0x3dc1c00b	0.094604574
234	0xbdaffb0e	-0.08592807
235	0xbd355050	-0.044266045
236	0x3dc04397	0.09387892
237	0x3d237dc8	0.039914876
238	0x3d533f64	0.051574126
239	0xbd51ee60	-0.051252723
240	0xbddfc1a4	-0.10925606
241	0xbdcc1822	-0.099655405
242	0x3d66420c	0.05621533
243	0xbdb1e7bc	-0.08686778
244	0x3d8dda22	0.06926371
245	0xbce5ee04	-0.028067596
246	0x3d73703a	0.0594332
247	0xbc786a29	-0.015162029
248	0xbd07cd6c	-0.03315489
249	0xbc0b2c1e	-0.008494405
250	0xbc86ff49	-0.016479151
251	0x3da7fc88	0.082024634
252	0x3c2e649d	0.010644105
253	0x3cead131	0.028664203
254	0xbcb33510	-0.021875888
255	0x3da47c83	0.08031561

phi.initial_conv_module.0._layers.1.weight f4 [64]
0	0x3f8320b5	1.0244356
1	0x3f7f5a2e	0.9974698
2	0x3f7b86c7	0.9825253
3	0x3f820e4b	1.0160612
4	0x3f7d7b8a	0.9901663
5	0x3f746c8b	0.95478123
6	0x3f751604	0.9573672
7	0x3f7955a6	0.97396314
8	0x3f7c4b4f	0.9855241
9	0x3f791592	0.9729854
10	0x3f7637d3	0.9617893
11	0x3f7a9ee5	0.97898704
12	0x3f7c74ab	0.9861552
13	0x3f783ceb	0.96967953
14	0x3f7005d3	0.9375889
15	0x3f822c9c	1.0169864
16	0x3f7ba6ad	0.983012
17	0x3f721ca7	0.9457497
18	0x3f7cccc0	0.98749924
19	0x3f7d21cd	0.988797
20	0x3f84dc76	1.0379779
21	0x3f6c6b5a	0.92351305
22	0x3f7b02ec	0.98051333
23	0x3f803e4e	1.0019014
24	0x3f814521	1.0099221
25	0x3f7fa4e4	0.9986098
26	0x3f8043c2	1.0020678
27	0x3f7cbcd6	0.9872564
28	0x3f797e30	0.9745817
29	0x3f766b07	0.9625706
30	0x3f74704c	0.9548385
31	0x3f724937	0.94642967
32	0x3f79d320	0.97587776
33	0x3f700e87	0.93772167
34	0x3f8419f0	1.0320415
35	0x3f77129c	0.9651277
36	0x3f7b26ad	0.9810589
37	0x3f7c642a	0.9859034
38	0x3f7e03ba	0.99224436
39	0x3f748fbc	0.9553182
40	0x3f7fed53	0.99971503
41	0x3f7de624	0.9917929
42	0x3f7a5c17	0.9779677
43	0x3f7741a4	0.96584535
44	0x3f7c9f9a	0.9868103
45	0x3f8040e4	1.0019803
46	0x3f80bb3e	1.0057142
47	0x3f7c3580	0.98519135
48	0x3f7cb0bc	0.98707175
49	0x3f82d063	1.0219845
50	0x3f80f495	1.007464
51	0x3f7babeb	0.983092
52	0x3f73e6fb	0.95274323
53	0x3f816c66	1.0111206
54	0x3f7a4258	0.9775748
55	0x3f7a1ed8	0.97703314
56	0x3f7a4720	0.9776478
57	0x3f8149b6	1.010062
58	0x3f80431c	1.002048
59	0x3f79dd7a	0.9760357
60	0x3f788837	0.9708285
61	0x3f80cfa4	1.0063367
62	0x3f7125ca	0.94198287
63	0x3f7b2da9	0.98116547

phi.initial_conv_module.0._layers.1.bias f4 [64]
0	0x3b639393	0.0034725412
1	0xbc9335e0	-0.017970026
2	0x3d0f07e3	0.03491963
3	0xbc2ae64d	-0.010430885
4	0x3c32195b	0.010870303
5	0x3c59e604	0.013299469
6	0xbc0c6398	-0.008568667
7	0x3c42898d	0.011873615
8	0xbc8e8abb	-0.017400136
9	0xba180d08	-0.00058002817
10	0x3c50a30c	0.012734186
11	0x3bfcead8	0.0077184252
12	0x3cb23a08	0.021756187
13	0x3ccdb642	0.025111321
14	0x3d9d990d	0.07695208
15	0xbcf34136	-0.029694181
16	0xbb3d2fa7	-0.0028867514
17	0xbb69540c	-0.0035603074
18	0x3c18cb05	0.009325747
19	0xbc800f14	-0.01563219
20	0x3c16f5f1	0.00921391
21	0x3cf478b1	0.029842706
22	0x3cdf029d	0.027222926
23	0xbc95bfd5	-0.01827995
24	0x3c62dc4e	0.01384647
25	0xbb50c896	-0.003185784
26	0xbcf0ea73	-0.02940867
27	0x3d046b55	0.032328922
28	0x3c8aa7ba	0.016925681
29	0xbc04edd0	-0.00811334
30	0x3d2f9512	0.042866774
31	0x3d286548	0.041112214
32	0x3bc7b7ca	0.0060949074
33	0x3d76bd02	0.060238846
34	0xbccc24da	-0.024919916
35	0xbbf3e6ff	-0.0074433084
36	0x3c541b0e	0.012945903
37	0x3c433e84	0.01191676
38	0x3b097f25	0.0020980325
39	0x3cf5ee96	0.030020993
40	0xbc4348da	-0.011919225
41	0xbcd785d5	-0.026308933
42	0x3c16a6ab	0.00919501
43	0x3c2f7829	0.010709801
44	0xbcf95fb4	-0.030441143
45	0xbc02ed84	-0.007991198
46	0x3c541312	0.012944
47	0x3c849981	0.016186478
48	0x3cf18336	0.029481512
49	0x3c6d9bd6	0.014502486
50	0xba4b7949	-0.00077619083
51	0xbd0e8a91	-0.034800116
52	0x3c3597af	0.0110835275
53	0x3b2e1118	0.0026560482
54	0xbbc068a1	-0.0058718477
55	0x3c830c82	0.015997175
56	0x3c6adbe1	0.01433465
57	0xbc59bf96	-0.013290307
58	0xbd242f77	-0.04008433
59	0x3c904aec	0.01761385
60	0x3c760459	0.015015685
61	0xbc39eb7e	-0.01134765
62	0x3cf2df53	0.029647505
63	0x3c1c6a05	0.009546761

phi.initial_conv_module.0._layers.1.running_mean f4 [64]
0	0x3e2be9f8	0.16788471
1	0x3e09f946	0.13473997
2	0x3e0b90fe	0.13629529
3	0xbea64967	-0.32477877
4	0xbef075d5	-0.469649
5	0x3eb6e5aa	0.35722095
6	0xbe09476b	-0.1340615
7	0x3eb3ffba	0.3515604
8	0x3ce92f27	0.028464867
9	0x3eb5d09b	0.35510716
10	0xbf0aa2cc	-0.5415466
11	0x3e968cd8	0.2940433
12	0x3e378f12	0.1792567
13	0x3e9699eb	0.29414305
14	0x3e2fdefc	0.17174906
15	0x3f448e79	0.76779896
16	0xbf87343b	-1.0562814
17	0xbe171ab6	-0.14756283
18	0xbea8d95e	-0.32978338
19	0xbe75883d	-0.23977752
20	0x3e17f908	0.14841092
21	0x3e4eb81b	0.20187418
22	0xbee2f258	-0.4432552
23	0x3e9bc554	0.30423987
24	0xbebd53b4	-0.36977923
25	0xbe7bbba6	-0.24583301
26	0xbbf9cee1	-0.007623539
27	0x3e11f063	0.14251857
28	0x3ecdbbc1	0.40182307
29	0x3e162bdb	0.14665167
30	0xbe882991	-0.26594213
31	0xbde3d285	-0.11124138
32	0x3dbcc332	0.09216918
33	0x3ca727c7	0.02040471
34	0xbe4a2917	-0.19742237
35	0xbf59ff55	-0.8515523
36	0x3f16d502	0.58918774
37	0xbe04669f	-0.12929772
38	0x3dcc6210	0.099796414
39	0x3e6c5ebf	0.23083018
40	0x3ee7195e	0.4513654
41	0x3cea1ccf	0.02857819
42	0x3e472f83	0.19451718
43	0x3e90b21d	0.2826089
44	0xbf0632d6	-0.5242132
45	0x3e0ff46d	0.14058085
46	0x3e2381d4	0.15967494
47	0xbe47b48b	-0.19502465
48	0xbd6c62a3	-0.057711255
49	0xbe09de94	-0.13463813
50	0xbdcaf356	-0.09909694
51	0x3f049498	0.51789236
52	0xbe1c92f4	-0.15290433
53	0x3dc6e6c9	0.097119875
54	0xbf6e7cac	-0.93158984
55	0xbd72de44	-0.059294
56	0xbf24e38f	-0.64409727
57	0xbec604b7	-0.38675472
58	0x3dae786e	0.08519064
59	0xbec4e4be	-0.38455766
60	0xbd9ba2e1	-0.07599426
61	0x3f490c27	0.7853417
62	0x3e5b0e8c	0.21392268
63	0xbf0a73fb	-0.5408322

phi.initial_conv_module.0._layers.1.running_var f4 [64]
0	0x3dae8359	0.08521146
1	0x3e9330fc	0.2874831
2	0x3d645641	0.05574632
3	0x3e0fb672	0.14034441
4	0x3eb738b4	0.3578545
5	0x3db5600f	0.08856212
6	0x3e65aa05	0.22428139
7	0x3dc0516f	0.09390532
8	0x3d9bd716	0.07609384
9	0x3ee4bb4b	0.44674143
10	0x3e0a58e1	0.13510467
11	0x3db05923	0.086107515
12	0x3d1fa8f3	0.038979482
13	0x3de2ef8e	0.11080848
14	0x3e23d6aa	0.15999857
15	0x3e805698	0.25066066
16	0x3e54794f	0.207494
17	0x3db6dd68	0.08928949
18	0x3e4c3f01	0.19945909
19	0x3de7cf6d	0.1131886
20	0x3e89af2d	0.2689146
21	0x3d939585	0.07206253
22	0x3e7605a9	0.24025597
23	0x3e37ba12	0.17942074
24	0x3debea2b	0.11519273
25	0x3d8cab4a	0.06868608
26	0x3e1137af	0.14181398
27	0x3e144a41	0.1448145
28	0x3e3e59f2	0.18588999
29	0x3d0ca7a0	0.034339547
30	0x3e2fc23f	0.17163943
31	0x3dd7bee5	0.10534457
32	0x3e1e110c	0.1543619
33	0x3d87bd6d	0.06627927
34	0x3d1b8f72	0.037978597
35	0x3d7739e7	0.060357954
36	0x3e1823c1	0.14857389
37	0x3ed41da4	0.41428864
38	0x3dc6ee3f	0.097134106
39	0x3dd01baf	0.1016153
40	0x3e82e6c9	0.255667
41	0x3dfed3da	0.12442751
42	0x3e0dbb62	0.13841012
43	0x3d827ad5	0.063710846
44	0x3e92a8ee	0.28644508
45	0x3ddd039a	0.107917026
46	0x3e459348	0.19294465
47	0x3df9357b	0.12168404
48	0x3e126090	0.14294648
49	0x3d9b3ca3	0.07579925
50	0x3de3683e	0.11103867
51	0x3df50ea2	0.119656816
52	0x3d74269a	0.059607126
53	0x3eab515e	0.33460516
54	0x3e893a40	0.26802254
55	0x3d94bf6a	0.07263072
56	0x3dce850e	0.10083972
57	0x3e6abd97	0.22923885
58	0x3dbf906a	0.09353717
59	0x3ea3de80	0.32005692
60	0x3e55e089	0.20886435
61	0x3de51236	0.11185114
62	0x3d11df9b	0.035613637
63	0x3dd3467a	0.10316177

phi.initial_conv_module.0._layers.4.conv.weight f4 [64, 1, 5]
0	0x3eb61125	0.35559955
1	0xbe3ce2f6	-0.18445954
2	0x3ea4d01d	0.32190028
3	0xbe34605a	-0.1761488
4	0x3ec5e541	0.3865147
5	0xbec92283	-0.39284143
6	0xbec3c92f	-0.38239428
7	0x3ea60fb2	0.3243385
8	0xbe86da12	-0.2633825
9	0xbd962052	-0.07330383
10	0x3e77a8d0	0.2418549
11	0x3dc18e75	0.09451
12	0xbdb8b85b	-0.09019538
13	0xbeca74e1	-0.39542297
14	0xbc8fcb58	-0.017553017
15	0x3ea365c9	0.31913593
16	0x3ebfc601	0.37455752
17	0x3e921349	0.28530338
18	0xbe0281a5	-0.12744768
19	0xbe7a53a7	-0.24445973
20	0x3e86913a	0.26282674
21	0xbe60dda8	-0.21959555
22	0xbc686a57	-0.01418551
23	0x3ed9f21a	0.4256752
24	0x3d237d12	0.0399142
25	0x3dda129d	0.106480815
26	0x3e03b70b	0.12862794
27	0xbde0d43b	-0.1097798
28	0x3e4c40b0	0.19946551
29	0xbb37e6ac	-0.0028061075
30	0x3e35c16f	0.1774957
31	0x3c2db346	0.010601824
32	0x3e24aa44	0.16080576
33	0x3ed72128	0.42017484
34	0x3eb8c693	0.36089
35	0xbedc473c	-0.43023098
36	0xbee146d5	-0.43999353
37	0x3e1b496a	0.15164724
38	0x3e7b58bc	0.24545568
39	0xbeab12dc	-0.33412826
40	0x3e4a833a	0.19776621
41	0xbdb0ea37	-0.08638423
42	0x3e3d0b26	0.18461284
43	0xbe34af5d	-0.17645021
44	0x3eafcd75	0.3433644
45	0x3d5630ab	0.052292507
46	0x3e0fc2c8	0.14039147
47	0x3e7ac9c0	0.24491024
48	0x3e05a7fa	0.13052359
49	0x3e5e2166	0.21692428
50	0xbea80ded	-0.32823125
51	0xbdace82f	-0.08442723
52	0xbe968033	-0.29394683
53	0x3e88b1ec	0.26698244
54	0xbeb08555	-0.34476724
55	0x3ebeec72	0.37289768
56	0xbedd643d	-0.43240538
57	0xbe4f5ec5	-0.20250995
58	0xbece0b2f	-0.40242907
59	0xbe616919	-0.22012748
60	0xbeb0df7c	-0.34545505
61	0x3e18f274	0.14936239
62	0xbea56055	-0.32300058
63	0x3d49312a	0.049119152
64	0xbec21831	-0.37909082
65	0xbd044487	-0.032291915
66	0xbe666258	-0.22498453
67	0xbed81b71	-0.42208436
68	0x3e36c9b0	0.17850375
69	0x3ec7bed0	0.39012766
70	0x3eb7d644	0.3590566
71	0x3ec9a085	0.3938028
72	0xbe00aee2	-0.12566712
73	0xbe8e6b8d	-0.2781643
74	0xbe71bdcf	-0.23607562
75	0x3d1120b7	0.03543159
76	0xbe9e905c	-0.30969512
77	0xbec5e62d	-0.38652173
78	0xbeb942d6	-0.36183804
79	0x3aeeec6a	0.0018228416
80	0xbec265cc	-0.3796829
81	0x3e74b6e3	0.23897891
82	0x3e41a6ba	0.18911257
83	0x3e9f33b3	0.3109413
84	0x3e70b29d	0.23505636
85	0x3e6fba7e	0.23410985
86	0xbe40aaa0	-0.18815088
87	0x3d8dd767	0.0692585
88	0x3ed098d9	0.40741614
89	0x3c8d3679	0.017237889
90	0x3dae6945	0.08516172
91	0xbe007a35	-0.12546618
92	0x3e5fe1f8	0.21863544
93	0x3e212e1c	0.15740246
94	0xbe803301	-0.25038913
95	0x3de3de36	0.11126368
96	0x3eebed72	0.46079594
97	0x3d493c72	0.04912991
98	0xbe06ac70	-0.13151717
99	0xba554cda	-0.0008136757
100	0x3e603a40	0.2189722
101	0x3d2e0c66	0.042492293
102	0xbdc08a79	-0.094014116
103	0x3e3ef467	0.1864792
104	0xbeb62573	-0.35575446
105	0xbc96b1c1	-0.018395307
106	0xbe9ea5da	-0.3098591
107	0xbe0f0848	-0.13968003
108	0xbe8acae5	-0.2710792
109	0x3e4afad8	0.19822252
110	0xbe33a39c	-0.17542881
111	0xbec5cab0	-0.386312
112	0xbe242dd7	-0.16033112
113	0x3ed3424c	0.41261518
114	0x3e080e93	0.1328681
115	0x3e16c325	0.14722879
116	0x3e8bd325	0.27309528
117	0x3e594a2a	0.21219698
118	0xbe59b58f	-0.21260665
119	0x3ec2ee50	0.38072443
120	0x3e1cc0b0	0.1530788
121	0xbdcb66db	-0.099317275
122	0xbe424b1e	-0.18973967
123	0x3d125e95	0.03573473
124	0x3db89823	0.09013393
125	0xbe70b97d	-0.23508258
126	0xbd9149c2	-0.07094146
127	0x3eb826aa	0.35966998
128	0x3e0acde5	0.13555105
129	0x3ea20e96	0.31651753
130	0xbe88a179	-0.26685694
131	0x3e8164a2	0.2527209
132	0xbe5fe9f4	-0.2186659
133	0x3dfe7db3	0.12426319
134	0xbc2b0337	-0.010437778
135	0xbeaffe76	-0.34373826
136	0xbe856fb3	-0.26061782
137	0x3e873369	0.2640641
138	0xbe8003c2	-0.25002867
139	0xbe4942b8	-0.19654357
140	0x3ed15de3	0.40891942
141	0xbea72ca7	-0.32651255
142	0x3e070287	0.13184558
143	0xbe033fe6	-0.12817344
144	0x3eb353c9	0.3502486
145	0xbe28bf6a	-0.16479269
146	0x3c1d385e	0.0095959585
147	0xbea89e4c	-0.3293327
148	0x3e3595fd	0.17732997
149	0x3e98a578	0.29813743
150	0xbe0a70c1	-0.13519575
151	0xbdf99751	-0.121870644
152	0xbe848284	-0.25880826
153	0xbe80b52c	-0.25138223
154	0xbec01c15	-0.37521425
155	0x3df0d284	0.11758903
156	0xbe939d54	-0.2883097
157	0x3dd35b01	0.10320092
158	0xbcf59e6c	-0.029982768
159	0xbeaa20b7	-0.33228084
160	0xbea03c0c	-0.31295812
161	0x3e6d5991	0.23178698
162	0xbbfb7d1c	-0.0076748263
163	0xbe694d6c	-0.2278344
164	0xbdc46538	-0.095896184
165	0xbd99a4b7	-0.0750212
166	0xbe60db76	-0.21958718
167	0xbea6d823	-0.32586774
168	0x3e99db3a	0.3005007
169	0xbef41982	-0.4767571
170	0x3eba4f54	0.36388648
171	0x3e9e23e0	0.30886745
172	0x3eada713	0.3391653
173	0x3e85703d	0.26062194
174	0x3ea908b2	0.33014446
175	0x3dae484c	0.08509883
176	0x3e4f160b	0.20223252
177	0x3ee66424	0.44998276
178	0xbec0b774	-0.37639964
179	0x3e4f0429	0.2021643
180	0xbe92e1ea	-0.28687984
181	0x3e1ef0c9	0.1552154
182	0xbcc00d53	-0.023443853
183	0x3e721d66	0.23644027
184	0x3d541e26	0.051786564
185	0x3e1478a0	0.1449914
186	0xbecc1917	-0.39862892
187	0x3d025edb	0.031828742
188	0x3e3cc92b	0.18436114
189	0xbee4cef4	-0.44689143
190	0xbe1b4557	-0.1516317
191	0x3eb717cf	0.35760352
192	0xbe83e07b	-0.25757203
193	0xbef19fb8	-0.47192168
194	0xbb7ebacd	-0.0038868666
195	0xbe1362e4	-0.14393193
196	0xbe97b440	-0.29629707
197	0xbe90cead	-0.2828268
198	0x3d987ec7	0.07446056
199	0xbe81016c	-0.25196397
200	0x3d6d3b3e	0.057917826
201	0xbe872bb9	-0.26400545
202	0x3e30e003	0.17272954
203	0xbe80f172	-0.25184208
204	0x3eb3250f	0.3498921
205	0xbea900cf	-0.3300843
206	0xbd714ac3	-0.05890919
207	0xbdfa0dec	-0.12209687
208	0xbd6fb9cf	-0.05852681
209	0xbe208676	-0.15676293
210	0xbecad165	-0.3961288
211	0x3dab9415	0.08377854
212	0x3ee30dc3	0.44346437
213	0xbeb1d7dd	-0.34735003
214	0xbe8ea580	-0.2786064
215	0x3e2df2e8	0.16987193
216	0xbec82d2e	-0.3909697
217	0x3e9f4e7d	0.3111457
218	0xbeab6aea	-0.33480006
219	0xbe31a2dc	-0.17347282
220	0xbeb4aed3	-0.3528963
221	0x3ed9e63c	0.42558467
222	0x3ed18bbb	0.40926918
223	0xbd951a32	-0.07280387
224	0x3e64af79	0.22332563
225	0xbe51b57c	-0.20479387
226	0x3e63ac89	0.22233786
227	0x3ed98f8f	0.4249234
228	0xbdb53d70	-0.08849609
229	0x3e7f305f	0.24920796
230	0xbeca8c53	-0.39560184
231	0xbed2a9d6	-0.411452
232	0xbb17cf63	-0.0023164384
233	0xbebcf8ea	-0.36908656
234	0x3cd60049	0.026123183
235	0x3e06339f	0.1310563
236	0x3e8c2cd7	0.2737796
237	0x3d7576f6	0.059927903
238	0xbe796fcd	-0.24359055
239	0xbeb9b388	-0.36269784
240	0x3eb16115	0.3464438
241	0xbdbd4234	-0.09241143
242	0x3eb10ccb	0.34580073
243	0x3d00652e	0.031346492
244	0xbe773324	-0.24140602
245	0x3da1c221	0.07898355
246	0x3e6063a5	0.21913011
247	0x3da58016	0.08081071
248	0xbe69826b	-0.22803657
249	0x3e2ca973	0.16861515
250	0xbe2bca3f	-0.1677637
251	0xbed40c67	-0.41415712
252	0xbe966b36	-0.2937867
253	0x3e8df96f	0.27729365
254	0xbec9449b	-0.39310154
255	0x3e69cedd	0.22832818

phi.initial_conv_module.0._layers.5.weight f4 [64]
0	0x3f7ac4b1	0.9795638
1	0x3f7a7f27	0.9785027
2	0x3f8614dc	1.0475116
3	0x3f81d04a	1.014169
4	0x3f7a8f79	0.9787517
5	0x3f77de99	0.9682403
6	0x3f76efa4	0.9645941
7	0x3f818bd3	1.0120796
8	0x3f7e761c	0.9939897
9	0x3f7a2aed	0.9772175
10	0x3f81f490	1.015276
11	0x3f84100a	1.0317395
12	0x3f83eb01	1.0306093
13	0x3f81b666	1.0133789
14	0x3f7d8bb7	0.9904131
15	0x3f7ac96d	0.979636
16	0x3f7c19c3	0.9847681
17	0x3f802e4d	1.001413
18	0x3f7ec48d	0.9951866
19	0x3f7c264d	0.9849594
20	0x3f8a07fe	1.0783689
21	0x3f834954	1.0256753
22	0x3f764530	0.9619932
23	0x3f7f4b5a	0.9972435
24	0x3f7aa13e	0.97902286
25	0x3f7ef4fb	0.9959256
26	0x3f7cf90d	0.9881752
27	0x3f833d8d	1.0253159
28	0x3f75ec83	0.96064013
29	0x3f7893b0	0.97100353
30	0x3f8412af	1.0318202
31	0x3f82bcb2	1.0213835
32	0x3f7d8980	0.99037933
33	0x3f8737c4	1.0563893
34	0x3f81254c	1.0089507
35	0x3f791a61	0.97305876
36	0x3f754963	0.95815104
37	0x3f7f995b	0.99843377
38	0x3f80c607	1.0060433
39	0x3f8371b5	1.0269076
40	0x3f7e894e	0.9942826
41	0x3f821f22	1.0165751
42	0x3f82441b	1.0177034
43	0x3f7df570	0.9920263
44	0x3f7985f8	0.97470045
45	0x3f83164a	1.0241177
46	0x3f8305c0	1.023613
47	0x3f84db33	1.0379394
48	0x3f80ac99	1.0052673
49	0x3f8182d6	1.0118053
50	0x3f805d6b	1.0028509
51	0x3f7c6c92	0.98603165
52	0x3f81fad6	1.0154674
53	0x3f7b3f36	0.9814333
54	0x3f7cbb21	0.98723036
55	0x3f7c7099	0.9860931
56	0x3f7a5abc	0.977947
57	0x3f7fda8a	0.9994284
58	0x3f80b728	1.0055895
59	0x3f7d497e	0.98940265
60	0x3f7a682d	0.9781521
61	0x3f83b71d	1.0290257
62	0x3f84e3e9	1.0382053
63	0x3f816b29	1.0110828

phi.initial_conv_module.0._layers.5.bias f4 [64]
0	0xbbd4c370	-0.0064930245
1	0xbc3557ad	-0.011068267
2	0x3c7e6099	0.01552596
3	0x3c7a9bc1	0.015295924
4	0xbc5fdd13	-0.013663548
5	0xba358d79	-0.0006925683
6	0xbccfa540	-0.025347352
7	0xbbb43024	-0.005498903
8	0x3bbe6ca1	0.0058112894
9	0xbc2f1ac5	-0.010687535
10	0x3c0e90bc	0.0087015
11	0x3d1d84a0	0.03845656
12	0x3cc27d41	0.023741366
13	0xbc007fd2	-0.007842975
14	0xbc98fbf5	-0.01867483
15	0xbc03fcef	-0.00805591
16	0xbada1be6	-0.0016640394
17	0x3c62ef2a	0.0138509665
18	0xbc69430a	-0.014237175
19	0xbb848419	-0.0040440676
20	0xbc6011c4	-0.013676111
21	0x3cb3ef17	0.021964593
22	0xbc866b8a	-0.0164087
23	0x3b6c345a	0.0036041946
24	0xbd2ff1fa	-0.042955376
25	0x3bcc8414	0.006241331
26	0xbc0a17af	-0.008428498
27	0x3d1b6e23	0.03794683
28	0xbce9358a	-0.028467912
29	0xbd1d7c96	-0.038448893
30	0x3bbeab8a	0.005818789
31	0x3cfaed15	0.030630628
32	0x3b422b6f	0.002962794
33	0x3d912dc2	0.07088806
34	0xbb029e5b	-0.0019930813
35	0xbc7cfcf3	-0.015441167
36	0xbd144c94	-0.036205843
37	0xbbff609c	-0.007793499
38	0xba6bc3f3	-0.0008993737
39	0x3d53b92b	0.05169026
40	0xbcc0d2fe	-0.023538109
41	0x3b96f716	0.0046070917
42	0xbbde6005	-0.0067863488
43	0xbc6a6ab6	-0.014307668
44	0xbcec310e	-0.028831985
45	0x3d045238	0.032304972
46	0x3cf53919	0.029934453
47	0xbb42de84	-0.002973468
48	0x3d0739bf	0.033014055
49	0x3cd479a1	0.025936903
50	0xbc21769b	-0.009854938
51	0xbca5e6a1	-0.020251574
52	0x3d5d8c71	0.054089013
53	0x3bf7c259	0.00756101
54	0xbab18257	-0.0013542873
55	0x3b886c4b	0.0041633
56	0xbc4c91f3	-0.012485969
57	0xbca171e0	-0.01970762
58	0xbbd8d638	-0.0066173337
59	0x3b6d720a	0.0036231303
60	0xbcccead3	-0.025014317
61	0x3d09812e	0.03357046
62	0x3d550d4b	0.05201463
63	0x3c8c8fd2	0.017158423

phi.initial_conv_module.0._layers.5.running_mean f4 [64]
0	0x3ddee773	0.10883989
1	0xbdd2343c	-0.10263869
2	0xbce888e4	-0.028385587
3	0x3dc19df7	0.094539575
4	0x3dd44dc3	0.10366394
5	0x3d5c8f6e	0.053847723
6	0x3e333234	0.1749962
7	0xbe07c2ae	-0.13257858
8	0x3d8c37d2	0.068465844
9	0x3e01ad14	0.1266368
10	0xbe02f65a	-0.12789288
11	0xbe19988f	-0.14999603
12	0xbe179ecd	-0.14806671
13	0xbcb38cab	-0.021917662
14	0x3c9df7a2	0.01928312
15	0xbe22a77b	-0.15884201
16	0x3dc9dc0d	0.098564245
17	0x3d9be2e4	0.07611635
18	0x3bc2d90b	0.0059462837
19	0x3d9929e9	0.07478697
20	0x39df34fa	0.00042573345
21	0xbda7f459	-0.082009025
22	0xbc01338b	-0.007885824
23	0x3e06f2d9	0.13178577
24	0xbadd9999	-0.0016906738
25	0x3d7cd07c	0.061722264
26	0xbc93f0d3	-0.01805917
27	0xbe11811b	-0.14209406
28	0x3db2f37e	0.08737849
29	0xba9d95e2	-0.0012022818
30	0xbe7e4a56	-0.24833044
31	0xbd92e62a	-0.071728066
32	0xbd872f44	-0.06600812
33	0xbe0c290e	-0.13687536
34	0x3e38326b	0.17987983
35	0x3dab08e2	0.08351304
36	0x3cb560d4	0.022140898
37	0xbda6f5fb	-0.08152386
38	0xbdb760f0	-0.08954036
39	0xbe19e1af	-0.15027498
40	0x3c31757e	0.010831235
41	0xbddce27d	-0.10785387
42	0xbda1d390	-0.079016805
43	0xbd8d4bca	-0.06899221
44	0x3dde2ac5	0.108480014
45	0x3dce7149	0.10080201
46	0xbe4311e1	-0.19049789
47	0xbccc9aee	-0.02497622
48	0x3d90bba2	0.07067038
49	0x3d87de4c	0.06634197
50	0xbe30b821	-0.1725774
51	0x3ce71982	0.028210405
52	0x3dd9d44f	0.10636198
53	0xbdb1d017	-0.08682268
54	0x3d593ed1	0.053038422
55	0xbdbeec1e	-0.093223795
56	0x3d9992e3	0.074987195
57	0xbe02b001	-0.12762453
58	0x3d54e735	0.05197831
59	0xbda46759	-0.080275245
60	0xbe01356a	-0.12618032
61	0x3ddbeeb2	0.10738887
62	0xbd8abd70	-0.067744136
63	0xbe0619db	-0.130958

phi.initial_conv_module.0._layers.5.running_var f4 [64]
0	0x3e5d893f	0.21634386
1	0x3df578fa	0.11985965
2	0x3d4f4867	0.050606158
3	0x3e156dcb	0.14592664
4	0x3d71fc56	0.059078537
5	0x3d165d60	0.036710143
6	0x3ed93c6e	0.42428917
7	0x3e60725a	0.21918622
8	0x3d5a5d2b	0.05331151
9	0x3debe47a	0.11518188
10	0x3dfb5e13	0.122738026
11	0x3e3a5e03	0.18199925
12	0x3e2ee5a0	0.17079782
13	0x3d461826	0.048362873
14	0x3cf1cd15	0.029516736
15	0x3f05cd3f	0.52266306
16	0x3e25571c	0.16146511
17	0x3d6869a7	0.056741383
18	0x3bf6df16	0.007533918
19	0x3de18d69	0.110133
20	0x3cdbf2d1	0.026849182
21	0x3d4623f2	0.048374124
22	0x3c9eb7ed	0.019374812
23	0x3e23ed01	0.16008379
24	0x3c62afd2	0.013835864
25	0x3dc693cb	0.09696158
26	0x3bccaa96	0.0062459214
27	0x3e7a127d	0.24421115
28	0x3d26d3da	0.04072938
29	0x3d1b14de	0.037861697
30	0x3e73a654	0.23793918
31	0x3d551ae2	0.05202759
32	0x3d99e9bc	0.075152844
33	0x3dfe9b7b	0.12431999
34	0x3ee08213	0.4384924
35	0x3dab7a63	0.08372953
36	0x3cda7bdb	0.026670387
37	0x3d60da1f	0.054895516
38	0x3deacb29	0.11464531
39	0x3dbf59a5	0.0934327
40	0x3bdcdd2f	0.0067402343
41	0x3df7cf3a	0.12100072
42	0x3dab3973	0.08360567
43	0x3d995254	0.07486406
44	0x3d820751	0.06349052
45	0x3e44bbf3	0.19212322
46	0x3f49a070	0.78760433
47	0x3d8967f4	0.067092806
48	0x3d94f9e4	0.07274225
49	0x3d335647	0.043783452
50	0x3e84f579	0.2596853
51	0x3d00dcdd	0.03146063
52	0x3e0bf085	0.1366597
53	0x3e0c40ff	0.13696669
54	0x3cb0560c	0.021525405
55	0x3dc74b11	0.09731115
56	0x3d676e43	0.05650164
57	0x3dd9f8b8	0.106431425
58	0x3e01607b	0.1263446
59	0x3d6e6aa3	0.058207165
60	0x3e4369d4	0.19083339
61	0x3e057ed8	0.13036668
62	0x3d9eba57	0.07750385
63	0x3dff8f12	0.1247846

phi.initial_conv_module.0._layers.7.se_conv.conv.weight f4 [10, 64, 1]
0	0x3c1d91a8	0.009617247
1	0xbdc7201c	-0.09722921
2	0x3dce8596	0.10084073
3	0xbded6bc0	-0.11592817
4	0xbdd1310a	-0.102144316
5	0xbd6a72a9	-0.057238255
6	0xbd86bef3	-0.065793894
7	0x3e186e7c	0.14885896
8	0xbe089e65	-0.13341673
9	0x3daf3585	0.0855513
10	0xbc13b16a	-0.009014467
11	0xbd956ff6	-0.072967455
12	0xbd2a4774	-0.04157205
13	0xbd297fa0	-0.04138148
14	0xbd8e79fc	-0.069568604
15	0xbdbe0010	-0.09277356
16	0xbcb659a7	-0.022259546
17	0xbdadc6f4	-0.08485213
18	0x3b5c12a1	0.003358044
19	0x3d8aa6b5	0.06770078
20	0xbce4ca8b	-0.027928611
21	0xbdbda5bb	-0.09260126
22	0xbd9dca58	-0.0770461
23	0x3dbb5743	0.09147503
24	0x3b562f97	0.0032682174
25	0xbd593e42	-0.05303789
26	0x3c1d177f	0.009588121
27	0x3d843a19	0.06456394
28	0x3dc0067e	0.09376238
29	0x3d9242da	0.07141657
30	0xbd3862a0	-0.04501593
31	0xbdc68540	-0.09693384
32	0x3dc8612a	0.097841576
33	0xbdf2a63a	-0.118481115
34	0x3dd3d4ac	0.10343298
35	0x3dc954de	0.0983064
36	0xbd681d35	-0.05666848
37	0x3dfd3675	0.123639025
38	0xbd074110	-0.033021033
39	0x3c82a2b9	0.015946733
40	0xbe1bfb12	-0.15232494
41	0x3d3464a8	0.044041306
42	0xbd1a8354	-0.0377229
43	0x3dc1adbc	0.09456965
44	0xbb37c8f0	-0.0028043352
45	0x3d3f4e14	0.04670532
46	0xbd834bef	-0.064109676
47	0x3d80133d	0.062536694
48	0xbe09c9d3	-0.13455896
49	0x3d933457	0.071877174
50	0xbdf0fd0b	-0.11767014
51	0xbe29c751	-0.1657994
52	0xbd3aeec8	-0.045637876
53	0xbdbf7d07	-0.09350019
54	0xbd12bdda	-0.035825588
55	0xbde4ccb3	-0.11171856
56	0x3dd5053e	0.104013905
57	0xbd8a0c8c	-0.067406744
58	0x3c98f283	0.018670326
59	0xbd8bc397	-0.06824415
60	0x3d6e6d21	0.058209542
61	0xbcc99dd6	-0.024611395
62	0xbd23ffbb	-0.040038805
63	0xbd50cca2	-0.050976403
64	0x3dba1755	0.090864815
65	0x3cb01b67	0.021497441
66	0xbd0b88d4	-0.034066036
67	0x3d8f78de	0.070054755
68	0x3e1c3b2a	0.15256944
69	0xbd98d797	-0.074629955
70	0x3df8dbef	0.12151324
71	0x3dd32526	0.1030982
72	0x3d9f0287	0.07764154
73	0xbcebd7a8	-0.028789356
74	0xbdef908c	-0.11697492
75	0x3d2be280	0.041964054
76	0xbd566c09	-0.052349124
77	0x3d5a07ca	0.053230084
78	0x3d1d0d15	0.038342554
79	0xbccab308	-0.024743572
80	0xbcaebe0b	-0.021330854
81	0xbd7591b8	-0.05995342
82	0xbd9c9d77	-0.076472215
83	0x3cf34aaf	0.029698698
84	0xbce46673	-0.027880883
85	0xbdba9480	-0.091103554
86	0x3d42cbe1	0.047557715
87	0xbbfd4ba0	-0.0077299625
88	0xbd2bfa13	-0.041986536
89	0x3da27abc	0.07933566
90	0xbd4d73e5	-0.050159354
91	0x3dcb5ab4	0.099294096
92	0x3e0d4037	0.13794027
93	0x3c342f4c	0.010997605
94	0x3d2e1073	0.042496156
95	0xbd124e3f	-0.035719153
96	0xbc9be2ef	-0.019029109
97	0x3dac0d60	0.084009886
98	0x3d74f05a	0.05979953
99	0x3d83a528	0.064279854
100	0x3c530677	0.012879959
101	0xbdbb5189	-0.09146411
102	0x3df04eba	0.11733766
103	0xbdf4b2b5	-0.11948148
104	0x3d328d54	0.043591812
105	0xbca59fa9	-0.020217733
106	0x3d457eac	0.048216507
107	0x3dc381a8	0.09546214
108	0x3c838e7f	0.016059158
109	0x3c582482	0.013192298
110	0xbdaaac0c	-0.083335966
111	0xbdb8e2ee	-0.090276584
112	0x3e1cf06a	0.15326086
113	0x3dd0bd57	0.10192364
114	0xbd13c796	-0.03607901
115	0x3dbf0998	0.09328002
116	0xbd034228	-0.032045513
117	0x3d3c950a	0.046040572
118	0xbc6bc091	-0.014389173
119	0x3d632a3b	0.055460196
120	0xbd4cfe86	-0.05004742
121	0xbbc118fe	-0.005892872
122	0x3e182b5b	0.14860289
123	0x3d259f25	0.040434975
124	0x3d8b18e1	0.06791855
125	0xbd004cfc	-0.031323418
126	0xbdc52bcf	-0.096274965
127	0x3dda7f52	0.10668816
128	0xbcfcdfbd	-0.030868405
129	0xbdc3b0fb	-0.09555241
130	0x3df50264	0.119633466
131	0x3db0732e	0.08615719
132	0xbe0f0ce4	-0.13969761
133	0x3c4983df	0.012299507
134	0xbd1d277c	-0.038367733
135	0x3d2d2545	0.04227187
136	0x3d11af46	0.035567544
137	0x3dcfe8c3	0.10151818
138	0xbd53e22a	-0.05172936
139	0x3de7eccb	0.113244615
140	0xbe16072e	-0.14651176
141	0x3e10da53	0.14145784
142	0xbd6e223c	-0.058138117
143	0x3dfac0a4	0.122437745
144	0x3c38fa32	0.01129012
145	0x3d31d5e7	0.043416884
146	0xbcfa3c1c	-0.03054624
147	0xbd44b054	-0.048019722
148	0x3db84408	0.08997351
149	0x3d570b71	0.052501146
150	0x3e02b043	0.12762551
151	0xbd3d4322	-0.0462066
152	0xbd22778e	-0.039664797
153	0xbdf49beb	-0.119438015
154	0x3c2b1dd3	0.010444122
155	0xbc0dafd0	-0.008647874
156	0x38570c06	5.1271192e-05
157	0xbcdbfa45	-0.026852736
158	0x3d49c666	0.049261473
159	0x3dd94326	0.10608511
160	0x3dbd06a3	0.092297815
161	0xbc145c4c	-0.009055208
162	0xbda39489	-0.07987315
163	0x3bbc2ad5	0.0057424107
164	0x3b01b761	0.001979314
165	0x3d69eeb6	0.057112418
166	0xba157888	-0.00057018595
167	0xbd6fd989	-0.058557067
168	0x3dc1ed60	0.09469104
169	0xbdebb785	-0.11509613
170	0x3d07e1c6	0.0331743
171	0xbbb5dcc9	-0.0055500013
172	0xbdaa6be3	-0.08321359
173	0x3dde77cc	0.10862693
174	0x3d3d3916	0.04619702
175	0x3d125afd	0.035731304
176	0x3db9da87	0.09074884
177	0xbdb07636	-0.08616297
178	0x3d910424	0.07080868
179	0xbd6ab346	-0.057299875
180	0xbdfe2005	-0.12408451
181	0x3dd4cd57	0.10390728
182	0x3c85f8d4	0.016354002
183	0x3dd3f8f5	0.10350219
184	0x3db9c459	0.090706535
185	0xbd75062d	-0.059820343
186	0x3d57fc22	0.052730687
187	0x3b7334e8	0.0037110392
188	0xbdd3a87f	-0.103348725
189	0x3dfc4472	0.123177424
190	0x3da52f25	0.08065633
191	0x3c2c4c59	0.01051625
192	0x3dc083d3	0.094001435
193	0x3d9ee4a8	0.077584565
194	0x3c63f43e	0.013913212
195	0x3c191796	0.009344002
196	0x3df08a5f	0.11745142
197	0x3dc6c971	0.09706391
198	0x3d5a2bd3	0.05326445
199	0xbb51df41	-0.003202394
200	0xbde46edf	-0.111539595
201	0x3dba4dfb	0.09096905
202	0xbde0a60d	-0.10969172
203	0x3caacd61	0.020849885
204	0x3df0efee	0.11764513
205	0x3d3d79e7	0.046258833
206	0xbdcea80a	-0.10090645
207	0x3d95fd7b	0.07323738
208	0xbdb89f04	-0.09014705
209	0x3d58a771	0.05289406
210	0x3d8b9a00	0.068164825
211	0x3d2cd081	0.042191032
212	0x3a1491b0	0.0005667461
213	0xbcdc7286	-0.026910078
214	0xbe1547ab	-0.1457812
215	0xbcb2cfa7	-0.021827532
216	0xbc9a93af	-0.01886925
217	0xbdcd759e	-0.10032199
218	0x3db7a4db	0.089669906
219	0xbc019f43	-0.007911506
220	0xbdea1596	-0.114298984
221	0xbda22b45	-0.07918409
222	0xbdb25b89	-0.08708865
223	0x3c77803d	0.015106258
224	0x3cf375e6	0.029719304
225	0x3d179938	0.037011355
226	0xbc3a30d8	-0.011364184
227	0x3dd8c832	0.10585059
228	0x3d7068fa	0.058693863
229	0xbd9cd7ce	-0.07658349
230	0xbd5fdf5e	-0.05465638
231	0xbd7a375c	-0.06108795
232	0xbe19caf1	-0.15018822
233	0xbdbdd72a	-0.09269555
234	0x3d07449b	0.03302441
235	0x3dac7fbe	0.084228024
236	0xbdb48132	-0.088137046
237	0x3d111d10	0.035428107
238	0xbde7c1ab	-0.11316236
239	0x3b8af39b	0.004240466
240	0xbca386f1	-0.019961806
241	0xbd8a350e	-0.06748401
242	0x3e250ec9	0.16118921
243	0xbdba2e73	-0.09090891
244	0xbd4c56da	-0.049887516
245	0xbc41f2cd	-0.011837673
246	0x3d48ed2d	0.049054313
247	0xbd95ae55	-0.07308642
248	0x3e0e7503	0.13911824
249	0xbc8313b0	-0.016000599
250	0xbcd91544	-0.026499398
251	0x3c8a6e48	0.01689829
252	0x3dfa9ce1	0.122369535
253	0x3d0630f9	0.032761548
254	0xbd60c3fc	-0.054874405
255	0x3d2b8bb9	0.041881297

phi.initial_conv_module.0._layers.7.se_conv2.conv.weight f4 [64, 10, 1]
0	0x3e16148f	0.1465628
1	0xbc91e006	-0.017807018
2	0xbe265913	-0.16244917
3	0xbd8f5265	-0.069981374
4	0x3dbb1d5d	0.0913646
5	0x3e841460	0.25796795
6	0x3e21305a	0.15741101
7	0x3e8355fe	0.25651544
8	0x3e3b7fd7	0.18310486
9	0xbe973450	-0.295321
10	0xbdf75fff	-0.12078857
11	0xbe52c350	-0.20582318
12	0xbd7bf731	-0.061515037
13	0xbe73a546	-0.23793516
14	0x3dce928c	0.10086545
15	0x3e9cccae	0.30624908
16	0xbe9c6890	-0.30548525
17	0xbe4ef976	-0.2021235
18	0x3d18370d	0.037161876
19	0x3e2822d3	0.16419534
20	0xbe8058c8	-0.25067735
21	0x3eab0d9b	0.33408818
22	0xbdcb4297	-0.099248104
23	0xbe430d67	-0.19048081
24	0xbe413d43	-0.18871026
25	0xbdd6a380	-0.10480404
26	0x3e814eae	0.2525534
27	0xbc8aa233	-0.016923046
28	0x3d340eae	0.043959312
29	0xbe140bbb	-0.144576
30	0xbe636239	-0.22205438
31	0xbd98cec2	-0.07461311
32	0x3d794d85	0.060864944
33	0x3e30f885	0.17282303
34	0x3d1176bb	0.03551362
35	0xbeac8b28	-0.33699918
36	0x3ea0ebf5	0.3143002
37	0xbe93ffe6	-0.28906173
38	0x3d38c5b0	0.045110404
39	0x3d38518b	0.04499964
40	0xbe99a7cb	-0.30010828
41	0x3d75ed05	0.060040493
42	0x3de3565d	0.11100457
43	0xbea8c15d	-0.32960024
44	0x3dd1b8e8	0.10240346
45	0x3e0cbaa2	0.1374307
46	0x3ea7da03	0.32783517
47	0x3e320841	0.17385961
48	0xbe4c2f53	-0.19939928
49	0xbd08975b	-0.03334747
50	0x3e79bca4	0.24388367
51	0xbe40b45d	-0.18818803
52	0xbdf99579	-0.12186713
53	0xbea125e6	-0.31474227
54	0xbe5d3789	-0.21603216
55	0xbe8f8a47	-0.28035185
56	0x3d6841f4	0.056703523
57	0x3e9f059a	0.3105896
58	0x3e307858	0.17233407
59	0xbc2d68ba	-0.010584051
60	0x3d3d6d9a	0.046247102
61	0xbdf0fd52	-0.11767067
62	0x3e8932b1	0.26796487
63	0x3e26e958	0.16299951
64	0xbe944735	-0.28960577
65	0xbca0c1b1	-0.01962361
66	0x3d504c4c	0.050854012
67	0x3e9627d7	0.2932727
68	0xbe70ee36	-0.2352837
69	0xbde2767b	-0.110577546
70	0xbdc64bb1	-0.09682406
71	0x3e69504a	0.22784534
72	0xbe390fce	-0.18072435
73	0x3e2b031e	0.16700408
74	0xbe8f111c	-0.2794274
75	0x3dd2c470	0.10291374
76	0x3e5d9e78	0.21642482
77	0xbe7e22d0	-0.24817967
78	0x3e01549e	0.12629935
79	0x3ea53413	0.32266292
80	0x3d94672a	0.072462395
81	0xbba31f02	-0.0049780617
82	0xbe2dfc79	-0.16990842
83	0x3e6fa9c2	0.23404601
84	0xbdcf7a1b	-0.10130712
85	0x3dec5f0a	0.11541565
86	0x3d61d25c	0.055132255
87	0x3e5911cf	0.211982
88	0xbe8932c2	-0.26796538
89	0x3c63fc99	0.013915204
90	0xbe13c19b	-0.14429323
91	0x3e8f823b	0.28029045
92	0xbdd6ecb4	-0.10494366
93	0xbe21f225	-0.15815027
94	0xbc83b478	-0.016077265
95	0xbda83d25	-0.082147874
96	0x3dc89602	0.09794237
97	0x3e297cca	0.1655151
98	0xbde92679	-0.11384291
99	0xbd9857ed	-0.074386455
100	0x3dd2fe23	0.10302379
101	0x3e835ea1	0.25658134
102	0x3e997080	0.29968643
103	0xbdcd9418	-0.10038012
104	0x3e77d906	0.24203882
105	0xbe80beca	-0.2514556
106	0xbe0ef184	-0.13959318
107	0x3e65dd75	0.2244776
108	0xbe917ad7	-0.28414032
109	0x3df198fa	0.11796756
110	0xbdfb73f3	-0.12277975
111	0x3df465a5	0.1193345
112	0xbdcdd4c5	-0.10050348
113	0xbe232c43	-0.15934853
114	0xbcf4f3d3	-0.02990142
115	0x3e70d169	0.23517384
116	0x3d82fbd0	0.06395686
117	0x3ead5d07	0.33860037
118	0xbe8f4b7b	-0.27987275
119	0xbe2faae3	-0.17155032
120	0x3da420b8	0.08014053
121	0x3e06d4bd	0.1316709
122	0xbe8025a3	-0.25028715
123	0xbdbbbe1f	-0.09167122
124	0xbdbf2581	-0.09333325
125	0xbea39622	-0.3195048
126	0x3dbfed39	0.093714185
127	0xbe7c3cd1	-0.24632575
128	0x3d9c1f8d	0.07623205
129	0x3e5aea12	0.21378353
130	0x3e934807	0.2876589
131	0xbe81a437	-0.25320598
132	0x3e98a0ee	0.2981028
133	0xbea2b991	-0.317822
134	0x3e5885e0	0.2114482
135	0x3e669ace	0.22519991
136	0xbe48e194	-0.19617301
137	0xbe60d140	-0.21954823
138	0x3e73884b	0.2378246
139	0xbe5f668a	-0.2181646
140	0x3e1b3abb	0.15159123
141	0x3d7fa3b3	0.062411975
142	0x3dc3396c	0.09532437
143	0x3e05dac6	0.13071737
144	0x3d9486b8	0.07252258
145	0x3e951b00	0.29122162
146	0xbc60eb1f	-0.013727932
147	0xbe51324f	-0.20429347
148	0x3e629a27	0.22129117
149	0xbe9ec37d	-0.3100852
150	0x3e2e9438	0.17048728
151	0xbe0184ae	-0.1264827
152	0xbdc97054	-0.09835878
153	0x3c6398c5	0.013891404
154	0xbe83a1a7	-0.25709268
155	0x3dc42537	0.09577411
156	0x3e957914	0.29193938
157	0x3e7558ca	0.23959652
158	0xbe8cfc45	-0.27536216
159	0xbe8e4def	-0.27793834
160	0x3e1f9f54	0.15588123
161	0x3dc3ccba	0.09560533
162	0xbe00dbf7	-0.1258391
163	0x3e98af95	0.29821458
164	0x3e39c2aa	0.18140665
165	0xbd018d03	-0.03162862
166	0xbe5bb3d5	-0.21455319
167	0xbd537e4d	-0.05163412
168	0xbe53ace8	-0.20671427
169	0xbd84c740	-0.064833164
170	0x3d869048	0.06570488
171	0xbda276c6	-0.079328105
172	0x3d3c7621	0.046011094
173	0x3e0368f7	0.1283301
174	0x3e291a8e	0.16514036
175	0xbe41e399	-0.18934478
176	0x3e157c18	0.1459812
177	0xbe873409	-0.26406887
178	0xbe685cbf	-0.2269163
179	0x3dfb6a49	0.12276132
180	0x3e29c792	0.16580036
181	0xbe640d59	-0.22270717
182	0x3d300906	0.042977355
183	0xbe8be874	-0.27325785
184	0x3daa1ceb	0.08306297
185	0x3e5fd444	0.21858317
186	0x3e10988a	0.14120689
187	0x3e4fc6b8	0.20290649
188	0xbb4cbe70	-0.003124144
189	0x3def2630	0.116772056
190	0xbcedd986	-0.029034387
191	0x3e343133	0.17596893
192	0x3d4f0877	0.050545182
193	0x3aded163	0.0016999658
194	0xbe340548	-0.1758014
195	0xbd53cbb0	-0.051707923
196	0x3bc5d1d7	0.0060369777
197	0x3de37e9a	0.11108132
198	0xbd6828db	-0.056679588
199	0xbbfc5dbd	-0.007701604
200	0xbe5d983a	-0.21640101
201	0x3e8976c7	0.26848432
202	0x3e28437e	0.16431996
203	0xbe98efdb	-0.29870495
204	0x3e6f855f	0.23390721
205	0xbea3aafb	-0.31966385
206	0x3d8341db	0.06409045
207	0xbe8af581	-0.2714043
208	0x3e1ade5a	0.15123883
209	0x3dd1683c	0.10224959
210	0xbe54b325	-0.20771463
211	0xbe084507	-0.13307582
212	0x3eadfc90	0.33981752
213	0xbe6eea8f	-0.23331665
214	0x3e8093be	0.25112718
215	0xbdbcfe69	-0.092282124
216	0x3dab21ee	0.08356081
217	0xbe6b9a03	-0.2300797
218	0xbe85830c	-0.26076543
219	0xbceea328	-0.029130533
220	0xbe646060	-0.22302389
221	0xbe307f8d	-0.17236157
222	0xbe39a444	-0.18129069
223	0xbe8f8d19	-0.28037336
224	0xbd56eefd	-0.05247401
225	0x3e801a6e	0.25020164
226	0x3d9687cf	0.07350122
227	0x3c8e01ca	0.017334837
228	0x3e0e4dae	0.1389682
229	0x3e65a0d7	0.22424637
230	0xbc1c59d6	-0.009542903
231	0x3e8f491c	0.27985466
232	0x3cb58af5	0.022160986
233	0xbcc0bf35	-0.023528675
234	0xbe9f9d69	-0.31174782
235	0xbe2ff072	-0.17181566
236	0xbea51e44	-0.32249653
237	0xbd976da6	-0.07393961
238	0xbdc85210	-0.09781277
239	0x3e009d5f	0.12560032
240	0xbe8d48e6	-0.2759468
241	0xbe28fe31	-0.16503216
242	0xbd559c7c	-0.05215119
243	0xbd86130a	-0.065466
244	0xbd84e139	-0.0648827
245	0xbe8d1866	-0.27557677
246	0xbe1885ab	-0.1489474
247	0xbe60af88	-0.2194196
248	0xbe201138	-0.15631568
249	0xbe851d6e	-0.25999016
250	0x3e4496ac	0.19198102
251	0xbe735096	-0.2376121
252	0x3ea839d9	0.32856634
253	0x3d33ae6b	0.04386751
254	0xbe66e873	-0.2254961
255	0x3e869d61	0.26291946

phi.initial_conv_module.0._layers.8.conv.weight f4 [32, 64, 1]
0	0xbcb61b6f	-0.022229878
1	0xbdb649f9	-0.08900828
2	0xbdb84081	-0.08996678
3	0x3e033062	0.12811425
4	0x3d68c5cc	0.05682926
5	0xbd618d52	-0.055066414
6	0xbd88c026	-0.066772744
7	0x3d690081	0.056885246
8	0x3d887fc6	0.06664996
9	0x3e1767a3	0.14785628
10	0xbced2950	-0.028950363
11	0xbd9e12a7	-0.077184014
12	0x3d806a80	0.06270313
13	0x3d8452a0	0.06461072
14	0xbca81c53	-0.020521319
15	0xbd73e6d5	-0.05954631
16	0xbdfa53a8	-0.122229874
17	0xbdd8ea4f	-0.10591566
18	0xbda97804	-0.08274844
19	0xbdacd077	-0.08438199
20	0x3b2009e2	0.0024419953
21	0x3d36da8d	0.04464202
22	0x3d2018b5	0.039086062
23	0xbcaf8cd1	-0.021429451
24	0xbe1be603	-0.15224461
25	0x3d871f3f	0.065977566
26	0x3cbe7480	0.02324891
27	0xbd4880fb	-0.04895113
28	0xbd2b6b57	-0.041850414
29	0xbdbb0b0e	-0.09132968
30	0xbd9e598c	-0.077319235
31	0xbd3e5455	-0.046467144
32	0xbcfb9e4a	-0.030715127
33	0xbd3350bc	-0.043778166
34	0xbc4139af	-0.011793538
35	0x3dcacba9	0.09902126
36	0xbd9d06b9	-0.07667298
37	0xbdf2fc2a	-0.11864503
38	0xbdc6b5dc	-0.09702656
39	0xbb09052d	-0.0020907626
40	0x3d346a9b	0.04404698
41	0x3ca0e20e	0.019639041
42	0x3d98dffc	0.07464597
43	0xbcb56c77	-0.022146447
44	0x3d4259ab	0.047448795
45	0x3e1313ed	0.1436307
46	0x3e16dd6f	0.14732908
47	0xbd2db05a	-0.04240451
48	0xbb660dd6	-0.0035103462
49	0x3dd6f2d9	0.10495538
50	0xbdeca16c	-0.11554226
51	0x3df7286d	0.120682575
52	0xbaadb99e	-0.0013254171
53	0x3daa3b8b	0.08312138
54	0x3dac7166	0.084200665
55	0xbe069f78	-0.1314677
56	0x3d2c491d	0.042061914
57	0xbdb07396	-0.08615796
58	0xbdd9419c	-0.10608217
59	0xbbab6b6c	-0.0052313115
60	0xbdc63130	-0.096773505
61	0xbda5f69c	-0.08103678
62	0x3d9b84f4	0.07593718
63	0x3db22799	0.08698959
64	0x3d0387e0	0.032112002
65	0xbd56a38f	-0.052402075
66	0xbd35c1b3	-0.04437418
67	0xbdd2f460	-0.10300517
68	0x3d9154a7	0.07096224
69	0xbca73c84	-0.020414598
70	0x3dcb4fa2	0.09927298
71	0xbcdeb5ba	-0.027186263
72	0x3d7097c5	0.05873849
73	0x3d4feeff	0.050765034
74	0x3d1fb678	0.038992375
75	0xbd2f1aca	-0.042750157
76	0x3dec2d2a	0.11532052
77	0x3d3d162a	0.046163715
78	0xbd86ba87	-0.06578546
79	0x3d84a2d6	0.06476371
80	0xbdd73a0e	-0.1050912
81	0x3e00f53e	0.12593552
82	0x3c16e27d	0.009209272
83	0xbd5c94b0	-0.053852737
84	0xbddf31ea	-0.10898192
85	0xbdc0838c	-0.094000906
86	0xbc2ce382	-0.010552289
87	0xbda71f52	-0.08160271
88	0x3cb75d15	0.022383252
89	0x3dd2f350	0.103003144
90	0x3c892dd0	0.016745478
91	0xbd2b81a5	-0.041871686
92	0xbdba37b8	-0.09092659
93	0xbcddad39	-0.027060138
94	0x3e1599fe	0.14609525
95	0xbb4f3a03	-0.003162027
96	0xbd154888	-0.036446124
97	0x3deb7ff7	0.11499017
98	0x3ba354af	0.0049844603
99	0x3d4a100a	0.049331702
100	0x3d55cd85	0.05219795
101	0x3d89bddf	0.06725668
102	0xbddbc4a3	-0.10730865
103	0xbd109ad1	-0.035303894
104	0x3d3eb9f2	0.04656405
105	0x3d62f165	0.055405993
106	0xbdfc2a4b	-0.12312754
107	0xbd430dae	-0.047620468
108	0xbdf677e6	-0.120345876
109	0xbcf9dd5d	-0.030501062
110	0xbb9c0960	-0.00476186
111	0xbc91adca	-0.017783064
112	0x3dab5e38	0.0836758
113	0x3ce98db9	0.028509961
114	0x3db22a7d	0.0869951
115	0xbdeb049f	-0.11475491
116	0xbd7c47bf	-0.06159186
117	0x3d52eab2	0.051493354
118	0xbe058fe9	-0.13043179
119	0x3db0caad	0.08632407
120	0x3dcf73d7	0.101295166
121	0xbd0d8623	-0.03455175
122	0xbdbc3855	-0.09190432
123	0xbcf55144	-0.029945977
124	0xba95a183	-0.0011415932
125	0x3d1cdf00	0.038298607
126	0xbde04ff6	-0.10952751
127	0xbdaef037	-0.08541911
128	0xbdb10cfb	-0.08645054
129	0xbc90c770	-0.017673224
130	0xbda42609	-0.08015067
131	0x3df2124c	0.11819896
132	0xbd48ca9d	-0.049021352
133	0x3d56e6ae	0.052466087
134	0xbd39a8dd	-0.045327056
135	0x3dc0d85d	0.09416268
136	0xbba4757d	-0.0050188885
137	0x3e060c9f	0.13090752
138	0xbe02fca1	-0.12791683
139	0xbda4483e	-0.080215916
140	0xbcf5ee7e	-0.030020948
141	0xbd4e1970	-0.050317228
142	0xbc09af8e	-0.008403672
143	0xbd8e135c	-0.06937286
144	0xbdddaf04	-0.10824397
145	0xbd8e5289	-0.06949336
146	0xbdf78ab3	-0.12087002
147	0xbc601750	-0.013677433
148	0x3c90aebe	0.017661449
149	0xbdd69f10	-0.104795575
150	0xbdd45940	-0.103685856
151	0x3d4ff19c	0.050767526
152	0x3dc424ed	0.095773555
153	0x3e0ae6b3	0.13564567
154	0xba8fb22e	-0.0010963136
155	0x3cab7256	0.020928543
156	0xbd7ab30f	-0.06120592
157	0xbddd595d	-0.1080806
158	0x3b17eea1	0.0023183005
159	0xbcd83436	-0.026392084
160	0xbd63e3e1	-0.055637244
161	0x3dab77af	0.08372437
162	0x3cf8cac7	0.03037013
163	0xbc4d453f	-0.012528717
164	0xbdc87ca6	-0.097894
165	0xbc82f492	-0.01598576
166	0x3cff191d	0.031139905
167	0xbdaf91f5	-0.08572761
168	0xbc4b1096	-0.012394091
169	0x3c40b6a9	0.0117623
170	0x3d2465aa	0.040136017
171	0xbdad6520	-0.08466554
172	0x3db681d5	0.08911482
173	0xbc6a5dd9	-0.014304602
174	0x3d367d2e	0.044552974
175	0x3b2f21b4	0.002672297
176	0xbd88e28e	-0.06683837
177	0xbc056af8	-0.008143179
178	0xbcba3423	-0.022729939
179	0xbd98bf73	-0.07458391
180	0x3a345f4d	0.0006880656
181	0x3d5b5432	0.05354709
182	0x3d848497	0.06470602
183	0x3dd5dc9b	0.10442468
184	0x3da83448	0.08213097
185	0xbd59f3dc	-0.053211078
186	0x3c7ecb63	0.015551421
187	0x3d52380f	0.051322993
188	0xbd2c4eb3	-0.04206724
189	0xbd496d2a	-0.049176373
190	0xbcb814d4	-0.02247087
191	0xbd1639ca	-0.036676206
192	0xbdf5842e	-0.11988102
193	0x3cf0bf02	0.029387955
194	0xbddb9e3a	-0.10723539
195	0xbded9730	-0.11601102
196	0x3d142701	0.03617001
197	0x3de715b1	0.11283434
198	0x3ddf6856	0.109085724
199	0xbddcebd9	-0.10787172
200	0xbddd7f98	-0.10815352
201	0x3d920ade	0.07130979
202	0xbcf12689	-0.02943732
203	0x3d800257	0.06250446
204	0x3de41ab0	0.11137903
205	0x3c809ed5	0.015700737
206	0xbd9118a1	-0.07084776
207	0x3de7de2b	0.11321672
208	0x3dc96d24	0.0983527
209	0x3d935231	0.07193411
210	0xbd73fc85	-0.059566993
211	0x3dd02792	0.101637974
212	0x3d7b27c0	0.061317205
213	0xbd6bb383	-0.057544243
214	0x3d775a2b	0.060388725
215	0x3dc55f0c	0.096372694
216	0x3c7cc83a	0.015428597
217	0xbd0c1acd	-0.034205247
218	0xbd8d6b81	-0.0690527
219	0xbcd920a1	-0.026504816
220	0xbda09fc2	-0.078429714
221	0x3da5848c	0.08081922
222	0xbc8edf1d	-0.017440373
223	0xbce64791	-0.028110297
224	0xbca56a7d	-0.02019238
225	0xbbb071bb	-0.0053846515
226	0xbd6d2bc8	-0.05790308
227	0x3cd19574	0.02558396
228	0xbd378dd9	-0.04481301
229	0xbd579bbc	-0.052638754
230	0xbd6b24bf	-0.05740809
231	0x3d33f655	0.043936092
232	0xbd492b2c	-0.049113438
233	0xbc288e19	-0.010287785
234	0xba8259bf	-0.0009944959
235	0xbda5a120	-0.08087373
236	0x3d2033b4	0.039111808
237	0x3dc29172	0.09500398
238	0x3d2d03f6	0.042240106
239	0x3c8fc56e	0.017550196
240	0xbdb9fc58	-0.09081334
241	0xbcd3bc32	-0.025846574
242	0x3cce7c2c	0.025205694
243	0x3dc15a11	0.09441007
244	0x3db1c79c	0.086806506
245	0xbc9c8d76	-0.019110423
246	0xbd76be8f	-0.060240325
247	0x3dc11359	0.094275184
248	0xbdb83cd3	-0.08995976
249	0xbe0b749b	-0.136187
250	0xbd3888b8	-0.04505226
251	0xbddaa30f	-0.10675632
252	0x3d8d131c	0.068884104
253	0xbd6c6e00	-0.05772209
254	0xbd4e50ea	-0.050370134
255	0xbdcda8ee	-0.100419864

phi.initial_conv_module.0._layers.9.weight f4 [32]
0	0x3f7ce467	0.98786014
1	0x3f7cb6f2	0.9871665
2	0x3f805e83	1.0028843
3	0x3f80defe	1.0068052
4	0x3f83d352	1.0298865
5	0x3f81959a	1.012378
6	0x3f83620c	1.0264297
7	0x3f838330	1.027441
8	0x3f8108b9	1.0080787
9	0x3f81e856	1.0149028
10	0x3f8279cc	1.019342
11	0x3f7bc857	0.9835257
12	0x3f82a5fa	1.0206902
13	0x3f840d7e	1.0316617
14	0x3f8202da	1.015712
15	0x3f827176	1.0190876
16	0x3f7e0913	0.99232596
17	0x3f7f9ac2	0.99845517
18	0x3f812261	1.0088617
19	0x3f8299ab	1.0203146
20	0x3f816f88	1.0112162
21	0x3f8124be	1.0089338
22	0x3f837807	1.0271004
23	0x3f828649	1.019723
24	0x3f80cb2d	1.0062004
25	0x3f845654	1.0338845
26	0x3f85f091	1.046404
27	0x3f823ea3	1.0175365
28	0x3f7ea54c	0.99470973
29	0x3f7edf33	0.99559325
30	0x3f82b772	1.0212233
31	0x3f7d62d4	0.98978925

phi.initial_conv_module.0._layers.9.bias f4 [32]
0	0x38788649	5.925287e-05
1	0xb903643e	-0.00012530477
2	0x3911ac19	0.00013892389
3	0x3ac2ffbd	0.0014877241
4	0x39f86d34	0.0004738361
5	0x3a2f7bdc	0.00066941767
6	0x385e30c5	5.2974345e-05
7	0x3aa1e737	0.0012352233
8	0xba34cb88	-0.00068967836
9	0xb85fa5f4	-5.33219e-05
10	0xb8e81b51	-0.0001106771
11	0xb8012dca	-3.079864e-05
12	0xb90e57e1	-0.00013574913
13	0xbaa2af10	-0.0012411792
14	0xb86456ba	-5.4440206e-05
15	0xb9bef656	-0.0003642316
16	0xb931d51d	-0.00016959426
17	0xba620f5e	-0.0008623506
18	0xb9b49e29	-0.00034450114
19	0xba9bc152	-0.0011883175
20	0xba39b096	-0.00070835033
21	0xba68a299	-0.00088743266
22	0xb9c1909f	-0.0003691958
23	0xb9b4aacc	-0.0003445953
24	0xba128f36	-0.0005590798
25	0xb89ca8e7	-7.47012e-05
26	0xbb1adcfd	-0.0023630254
27	0x398865e2	0.0002601585
28	0xbaab0765	-0.0013048468
29	0x3a92d95f	0.0011203698
30	0x3a788cd9	0.0009481437
31	0xb902866d	-0.00012447844

phi.initial_conv_module.0._layers.9.running_mean f4 [32]
0	0xbd075f1f	-0.0330497
1	0xbc91ca84	-0.017796762
2	0xbd4666c2	-0.04843784
3	0xbcc1ff74	-0.02368138
4	0xbd78187a	-0.060570218
5	0x3d38698f	0.045022544
6	0x3b7cb2f5	0.0038558815
7	0xbcc113d0	-0.023569018
8	0x3c42130f	0.011845364
9	0xbcc1df8d	-0.023666168
10	0xbdfa68af	-0.12226998
11	0x3cdd3be8	0.027006105
12	0xbdb36e1e	-0.087612376
13	0x3c1994af	0.009373828
14	0x3dd80f33	0.10549774
15	0x3d2eb69c	0.04265462
16	0x3c9db2de	0.01925033
17	0xbb1a8404	-0.0023577223
18	0x3c1f5eb1	0.009727166
19	0xbd726355	-0.05917676
20	0xbc84a17b	-0.016190281
21	0xbd189794	-0.03725393
22	0xbc93322f	-0.017968265
23	0x3c4e3ec7	0.0125882095
24	0x3d26392e	0.040581875
25	0x3ddef67c	0.10886857
26	0x3cc21c22	0.023695055
27	0xbc22fb26	-0.009947574
28	0x3cd18723	0.025577134
29	0x3b97238d	0.0046123923
30	0x3d6eecc5	0.05833127
31	0x3c549aa6	0.012976324

phi.initial_conv_module.0._layers.9.running_var f4 [32]
0	0x3d12e2cf	0.035860833
1	0x3d52bbae	0.051448517
2	0x3cdce93a	0.02696668
3	0x3d0f3d3a	0.0349705
4	0x3d424d6f	0.047437128
5	0x3d36ef63	0.04466189
6	0x3cb76133	0.022385215
7	0x3d118d35	0.035535056
8	0x3cec8de5	0.028876254
9	0x3cc801e3	0.024414962
10	0x3d606501	0.054783825
11	0x3c8ec010	0.017425567
12	0x3d2b5cd1	0.041836563
13	0x3cfa083f	0.03052151
14	0x3cfd2fb3	0.030906534
15	0x3d39267d	0.04520272
16	0x3cb34eef	0.021888224
17	0x3cce04d6	0.02514879
18	0x3d137d46	0.036008142
19	0x3d183166	0.037156485
20	0x3d103d2e	0.035214595
21	0x3d25611b	0.04037581
22	0x3d2aa2a6	0.04165902
23	0x3cd4c89c	0.025974564
24	0x3d6ef363	0.05833758
25	0x3d4b7d66	0.049680136
26	0x3cfc3d99	0.03079109
27	0x3d735b36	0.059413157
28	0x3ccfcc4d	0.025365973
29	0x3d0b5962	0.03402079
30	0x3d02afba	0.031905867
31	0x3ca374e8	0.019953206
