logs/bird_classification_distillation_hyperparameters_tuning/2025-06-17_09-38-02/bird_classification_distillation_hyperparameters_tuning_best_model.pth (torch, 338154 bytes, 198 tensors)

phi.initial_conv_module.0._layers.0.conv.weight f4 [64, 64, 1]
-0.019192996 -0.07539465 -0.034658432 -0.06957786 -0.068487845 0.07585476 -0.01320401 -0.05284733
-0.055086352 -0.06368113 -0.009795356 -0.07202573 0.12797888 -0.05997124 -0.08372497 0.13849768
0.03760982 0.09047246 -0.16608502 0.037029803 0.12537697 -0.011929924 0.0814773 0.15021941
0.070664324 0.052045565 -0.029592156 -0.15641117 -0.10954787 0.003806379 -0.14102331 0.0747503
-0.038363498 -0.10545144 0.064641856 -0.014820463 -0.017546313 -0.06279351 0.07684866 0.058297455
0.029299442 -0.080225274 0.045200974 0.09756113 0.001012474 -0.06197857 0.00374388 0.03506495
0.100749746 -0.051668372 -0.09425431 0.01717829 -0.06368982 -0.029243996 0.08289335 -0.0763434
-0.11325101 0.020911984 0.033064447 -0.059374683 -0.08084396 -0.11243252 -0.10870417 0.02141837
0.109136574 -0.10421607 -0.09317371 0.05076019 0.044402093 0.124407776 -0.019388052 -0.067626454
0.0023769785 -0.048501622 0.017670099 -0.08170108 -0.030143278 -0.035720333 0.06598295 0.0016916909
0.03146385 -0.10868133 0.0662328 -0.13317195 0.012307587 0.08442861 0.06446882 -0.014322546
0.11230629 0.1424954 0.12111339 0.016973509 0.14134015 -0.06340101 0.106006235 -0.03384756
0.001082864 0.062031854 0.008774661 -0.12695469 -0.06458504 -0.07720722 -0.002649595 -0.05959806
0.030173417 -0.018885775 0.041359127 -0.1307775 0.03889712 -0.06646007 -0.099407814 -0.05818512
-0.057231814 0.08739381 -0.05552511 0.008411591 -0.010863744 0.00894641 0.04242072 -0.046246316
0.08979224 0.047543097 0.07532529 0.07516675 -0.072542995 0.048872814 -0.07881384 -0.13596928
-0.023162413 -0.078198135 -0.07605322 0.032644246 0.032716613 -0.022701958 0.08247654 -0.07359106
0.030192887 -0.084961325 0.066443 0.11146889 -0.009420658 0.020830514 0.065331705 0.006526751
0.05326952 0.00045799016 0.063021526 0.03948757 -0.08192035 -0.08183377 -0.087950304 -0.11867918
0.069106825 0.13747779 0.058479376 -0.03682591 0.13483256 -0.086390354 -0.04588578 0.070493996
-0.06695159 -0.03712251 -0.076400965 0.041702338 -0.06371126 -0.029200904 0.043581076 0.0038356003
-0.09247676 0.14719807 -0.087697476 -0.04425429 0.15780279 0.0882333 0.019933948 0.081150256
-0.038668036 -0.072576776 -0.05161434 0.12180991 -0.01400959 0.032429226 -0.07965954 -0.0834579
-0.029397452 0.05969421 0.11843706 0.04488995 0.084131844 0.010140605 -0.024603818 0.025856627
0.09798611 0.08407251 -0.006873624 0.06751641 0.07895697 -0.06623109 -0.10605551 -0.091396905
-0.0008662278 0.027363766 -0.042760283 -0.1065443 0.021413822 -0.08773258 0.055620417 -0.00090083666
-0.11097945 0.07212554 0.0062632477 -0.058392476 -0.07168697 -0.1080821 0.018893523 0.08228989
0.1133682 -0.07183851 -0.059087913 0.1594496 -0.018509347 0.0564739 0.16199836 0.045948368
-0.02627181 0.06931526 0.09238939 -0.0051234253 0.014811325 -0.015212252 -0.07389509 -0.09360654
0.06894416 0.040747803 -0.07304579 -0.0920499 0.003818233 0.022358472 0.019301265 0.06506164
0.06777946 -0.013692829 -0.080482855 -0.05692916 -0.019756274 -0.12497556 0.04985052 0.03754325
0.051645473 0.058981843 0.045273345 -0.023055293 0.11547243 0.111545905 0.04652827 -0.06019557
00000000: a13a 9dbc 8368 9abd 00f6 0dbd d67e 8ebd
00000010: 5b43 8cbd be59 9b3d a255 58bc 7176 58bd
00000020: 3aa2 61bd 416b 82bd b37c 20bc 3a82 93bd
00000030: e50c 033e 67a4 75bd ff77 abbd 56d2 0d3e
00000040: c10c 1a3d a049 b93d 3112 2abe 90ac 173d
00000050: d262 003e ba75 43bc 92dd a63d 1ed3 193e
00000060: 75b8 903d bb2d 553d 406b f2bc 402a 20be
00000070: a25a e0bd 7174 793b 6a68 10be af16 993d
00000080: 0b23 1dbd edf6 d7bd f362 843d 87d1 72bc
00000090: 49bd 8fbc e299 80bd d562 9d3d 50c9 6e3d
000000a0: 6205 f03c 264d a4bd a824 393d 21ce c73d
000000b0: fdb4 843a 3edd 7dbd e25b 753b 44a0 0f3d
000000c0: e255 ce3d 37a2 53bd 6708 c1bd 7cb9 8c3c
000000d0: cf6f 82bd 1b91 efbc fdc3 a93d ee59 9cbd
000000e0: 25f0 e7bd 9c4f ab3c 966e 073d de32 73bd
000000f0: 8591 a5bd 0543 e6bd 4ba0 debd 9475 af3c
00000100: ff82 df3d 3c6f d5bd dcd1 bebd ebe9 4f3d
00000110: f8de 353d 81c9 fe3d b1d3 9ebc bd7f 8abd
00000120: 15c7 1b3b a3a9 46bd e2c0 903c e552 a7bd
00000130: 09ef f6bc 7c4f 12bd 1222 873d babb dd3a
00000140: 3de0 003d 5194 debd 10a5 873d 3a5e 08be
00000150: c3a5 493c e8e8 ac3d 3b08 843d 1da9 6abc
00000160: d700 e63d 50ea 113e 4c0a f83d 070c 8b3c
00000170: 79bb 103e 64d8 81bd cc19 d93d bda3 0abd
00000180: e3ee 8d3a 1d15 7e3d 99c3 0f3c 6900 02be
00000190: 2945 84bd d21e 9ebd d4a4 2dbb 181d 74bd
000001a0: 3e2e f73c 57b6 9abc 3068 293d 89ea 05be
000001b0: 9652 1f3d 381c 88bd 5396 cbbd 8553 6ebd
000001c0: e86b 6abd 87fb b23d 4c6e 63bd c5d0 093c
000001d0: d8fd 31bc f793 123c 59c1 2d3d c76c 3dbd
000001e0: fee4 b73d 8dbc 423d 2544 9a3d 06f1 993d
000001f0: 6c91 94bd dc2e 483d 2769 a1bd 883b 0bbe
00000200: 1abf bdbc 5826 a0bd cac1 9bbd f9b5 053d
00000210: db01 063d 75f9 b9bc 76e9 a83d e9b6 96bd
00000220: 1357 f73c 3400 aebd 4513 883d cd49 e43d
00000230: 1b59 1abc c1a4 aa3c a1cc 853d 5bde d53b
00000240: 2431 5a3d 661e f039 6e11 813d b8bd 213d
00000250: dbc5 a7bd 7798 a7bd 4a1f b4bd 120e f3bd
00000260: e187 8d3d fac6 0c3e 1288 6f3d c4d6 16bd
00000270: 8c11 0a3e 6ded b0bd baf2 3bbd 285f 903d
00000280: ea1d 89bd c60d 18bd 1c78 9cbd 12d0 2a3d
00000290: 0d7b 82bd bc36 efbc 1282 323d b25e 7b3b
000002a0: 7564 bdbd 17bb 163e bc9a b3bd fd43 35bd
000002b0: 0e97 213e a9b3 b43d 854c a33c 1b32 a63d
000002c0: 6062 1ebd 22a3 94bd 8f69 53bd 7977 f93d
000002d0: 7b88 65bc 82d4 043d 8a24 a3bd faeb aabd
000002e0: edd2 f0bc ea81 743d 218f f23d 86de 373d
000002f0: 514d ac3d c824 263c f28d c9bc 47d1 d33c
00000300: f1ac c83d 352e ac3d 233c e1bb 0b46 8a3d
00000310: 31b4 a13d 2aa4 87bd a233 d9bd 4d2e bbbd
00000320: 9013 63ba fa29 e03c 6825 2fbd e633 dabd
00000330: 0a6c af3c 24ad b3bd 3cd2 633d 2026 6cba
00000340: 3249 e3bd 8eb6 933d ee3b cd3b f32c 6fbd
00000350: 9ed0 92bd 265a ddbd 97c6 9a3c 9a87 a83d
00000360: 962d e83d 1220 93bd 2b06 72bd c246 233e
00000370: eaa0 97bc 2d51 673d e6e2 253e 5b34 3c3d
00000380: fb37 d7bc 29f5 8d3d a636 bd3d 68e2 a7bb
00000390: 33ab 723c cf3c 79bc 4f56 97bd c9b4 bfbd
000003a0: 9932 8d3d 2be7 263d 0899 95bd a884 bcbd
000003b0: 523b 7a3b 1d29 b73c b01d 9e3c 0a3f 853d
000003c0: f5cf 8a3d e357 60bc 32d4 a4bd 8d2e 69bd
000003d0: e9d7 a1bc 30f3 ffbd 0f30 4c3d f3c6 193d
000003e0: 348a 533d f296 713d 8b70 393d 74de bcbc
000003f0: cf7c ec3d 2e72 e43d 6d94 3e3d a18f 76bd

phi.initial_conv_module.0._layers.1.weight f4 [64]
0.94999987 1.0328279 1.0015769 0.9697734 0.98619694 0.9848828 0.9796192 0.9692574
0.9630928 0.9956168 1.0237389 0.92273444 0.9734402 0.9483887 0.9955891 1.0022603
0.9489992 0.95495033 1.0190015 1.0343008 0.9887151 0.9603135 0.95189697 0.9983257
0.9928146 0.9709253 0.9858521 0.9656253 1.0310549 0.9976514 1.010836 0.98082006
0.99506867 0.9869319 0.974685 0.96901625 0.9934488 0.97479534 0.9985298 1.0092171
0.984379 1.0310272 0.9552779 0.96794283 0.9757472 0.9994302 0.975634 0.99070024
0.97389805 1.0238684 0.97988695 0.98932815 0.98158705 0.91114956 0.9553768 0.98600584
0.98563826 1.0046042 1.0107076 0.9602014 0.981846 1.0322754 0.9905782 0.9907993
00000000: 3133 733f b433 843f ac33 803f 1243 783f
00000010: 6777 7c3f 4721 7c3f 53c8 7a3f 4121 783f
00000020: 408d 763f bee0 7e3f e009 833f 5338 6c3f
00000030: 6033 793f 9ac9 723f edde 7e3f 114a 803f
00000040: 9df1 723f a077 743f a46e 823f f863 843f
00000050: 6f1c 7d3f 1bd7 753f 85af 733f 4692 7f3f
00000060: 1929 7e3f 8f8e 783f ce60 7c3f 3833 773f
00000070: 9bf9 833f 1566 7f3f 1363 813f 0617 7b3f
00000080: d2bc 7e3f 92a7 7c3f f584 793f 7311 783f
00000090: a952 7e3f 308c 793f a69f 7f3f 072e 813f
000000a0: 4300 7c3f b3f8 833f 188d 743f 1acb 773f
000000b0: 92ca 793f a8da 7f3f 26c3 793f 889e 7d3f
000000c0: 6251 793f 1f0e 833f dfd9 7a3f 9c44 7d3f
000000d0: 4a49 7b3f 1941 693f 9393 743f e16a 7c3f
000000e0: ca52 7c3f df96 803f de5e 813f c2cf 753f
000000f0: 425a 7b3f 9a21 843f 8896 7d3f 06a5 7d3f

phi.initial_conv_module.0._layers.1.bias f4 [64]
0.04338453 -0.017193303 -0.0032147472 0.034124367 -0.010294833 0.04173357 0.021346616 0.015679548
0.012806804 0.011022838 0.032932464 0.020322962 -0.003395297 0.03429931 0.0017866394 -0.011886323
0.04389028 0.014271874 -0.004727906 -0.019806428 -0.002011257 -0.0064388085 0.037654523 0.0018766002
-0.007909782 0.005098012 -0.019532504 0.014807665 0.00078521884 0.0022532898 -0.004491152 0.018926147
0.007283066 0.0064280974 -0.0067383978 0.02835278 0.01704057 -0.031973932 0.0553368 0.005429181
0.0044678627 -0.0059793554 0.027477968 -0.004825798 0.010870163 0.00036897944 0.009882569 0.0029490315
0.010486261 -0.02305899 0.009780857 0.014647052 0.01047879 0.053934194 0.03515263 0.021807142
0.0041094576 0.04705295 -0.00904165 0.030171942 0.036426138 -0.04393563 0.012419748 0.028910145
00000000: fab3 313d f8d8 8cbc 82ae 52bb fec5 0b3d
00000010: a9ab 28bc d2f0 2a3d 19df ae3c 6572 803c
00000020: a1d3 513c 2299 343c 31e4 063d 577c a63c
00000030: a283 5ebb 6f7d 0c3d ac2d ea3a dabe 42bc
00000040: 4bc6 333d 94d4 693c 8dec 9abb 1741 a2bc
00000050: 4bcf 03bb a4fc d2bb a13b 1a3d 41f8 f53a
00000060: 0898 01bc 390d a73b a102 a0bc d99b 723c
00000070: 25d7 4d3a eeab 133b 832a 93bb 020b 9b3c
00000080: c9a6 ee3b caa2 d23b c7cd dcbb 1744 e83c
00000090: aa98 8b3c 19f7 02bd d7a8 623d 45e7 b13b
000000a0: 2667 923b 78ee c3bb 7a19 e13c ba21 9ebb
000000b0: c518 323c 9573 c139 80ea 213c 8a44 413b
000000c0: 91ce 2b3c 35e6 bcbc e33f 203c 30fa 6f3c
000000d0: 3baf 2b3c 1aea 5c3d 34fc 0f3d e4a4 b23c
000000e0: a1a8 863b 98ba 403d 6e23 14bc 262b f73c
000000f0: 9333 153d d9f5 33bd 337c 4b3c f8d4 ec3c

phi.initial_conv_module.0._layers.1.running_mean f4 [64]
0.87639105 0.5123044 0.20662154 -0.3645506 0.51251245 0.14673938 0.33702156 0.36918148
0.72981954 0.075892165 0.62837166 0.6774783 -0.21532723 -0.1021944 0.03564642 0.2235834
-0.26601353 0.027029157 -0.0154083725 0.18459675 0.42738727 0.19968155 0.84944826 0.31342584
1.0484326 0.038966864 -0.2148882 -0.17423092 0.2272161 0.056785278 -0.65039474 -0.31625912
0.31892124 0.54638356 -0.42968553 -0.09368513 -0.88683414 0.16325638 -0.01749713 -0.07434338
-0.95377856 0.2688902 0.033935975 -0.21453477 -0.05732196 0.18624161 -0.38595784 -0.53794914
0.09506433 0.48994526 0.04700763 0.41207457 0.5960769 0.12207065 -0.33388072 0.6655238
-0.18596871 0.5700563 0.046105314 0.33098474 -0.9017779 0.043216683 -0.37582317 0.84840673
00000000: 2a5b 603f 6226 033f 9994 533e 60a6 babe
00000010: 0434 033f d942 163e 178e ac3e 5b05 bd3e
00000020: 74d5 3a3f 5a6d 9b3d f7dc 203f 386f 2d3f
00000030: be7e 5cbe 4c4b d1bd fb01 123d 0cf3 643e
00000040: ed32 88be 406c dd3c 6673 7cbc ee06 3d3e
00000050: 81d2 da3e 5279 4c3e 7175 593f 5a79 a03e
00000060: 0a33 863f b89b 1f3d a70b 5cbe 9769 32be
00000070: 56ab 683e ae97 683d 4580 26bf b7ec a1be
00000080: a549 a33e cbdf 0b3f beff dbbe fddd bfbd
00000090: 9007 63bf ae2c 273e 2456 8fbc 5841 98bd
000000a0: d52a 74bf faab 893e 7300 0b3d 01af 5bbe
000000b0: 6eca 6abd 1fb6 3e3e 449c c5be 09b7 09bf
000000c0: 16b1 c23d 1bda fa3e 138b 403d 70fb d23e
000000d0: 7f98 183f 2d00 fa3d 6af2 aabe c55f 2a3f
000000e0: 956e 3ebe 36ef 113f edd8 3c3d d576 a93e
000000f0: ebda 66bf fa03 313d e56b c0be 2f31 593f

phi.initial_conv_module.0._layers.1.running_var f4 [64]
0.11494024 0.19149719 0.08866078 0.1916616 0.06607035 0.0927559 0.105670705 0.16626945
0.28640503 0.17395827 0.122359864 0.1952404 0.63603324 0.106483325 0.10841821 0.13386945
0.2169935 0.11151748 0.08006466 0.1284534 0.12866724 0.12887084 0.12777285 0.2936598
0.61007106 0.20487124 0.08816794 0.13152458 0.05209777 0.14526224 0.22911647 0.1133018
0.13364914 0.13836625 0.1790481 0.085664146 0.15010677 0.0701881 0.16358301 0.07182794
0.22856054 0.14361891 0.064234436 0.38172966 0.09615425 0.13623771 0.16348507 0.33789393
0.08405718 0.14320956 0.2987078 0.12920398 0.057316456 0.06821035 0.11860193 0.12459157
0.10391111 0.21733373 0.11313996 0.18931435 0.3729905 0.0778599 0.10415895 0.20794253
00000000: ca65 eb3d d717 443e c893 b53d f042 443e
00000010: e44f 873d cef6 bd3d e269 d83d 8a42 2a3e
00000020: aea3 923e 1e22 323e cf97 fa3d 19ed 473e
00000030: 13d3 223f ee13 da3d 5e0a de3d 1315 093e
00000040: 8b33 5e3e 4763 e43d f1f8 a33d 4a89 033e
00000050: 58c1 033e b8f6 033e e3d6 023e 945a 963e
00000060: 9e2d 1c3f c4c9 513e 6591 b43d 61ae 063e
00000070: 7964 553d a0bf 143e 829d 6a3e c60a e83d
00000080: 52db 083e e2af 0d3e 6358 373e af70 af3d
00000090: 97b5 193e c7be 8f3d 4e82 273e 871a 933d
000000a0: c60b 6a3e d610 133e 588d 833d 1272 c33e
000000b0: 85ec c43d e681 0b3e a168 273e 6f00 ad3e
000000c0: 2c26 ac3d 87a5 123e 3bf0 983e 0c4e 043e
000000d0: a9c4 6a3d deb1 8b3d 92e5 f23d dd29 ff3d
000000e0: 59cf d43d bc8c 5e3e ecb5 e73d 9fdb 413e
000000f0: 9cf8 be3e 0375 9f3d 4a51 d53d e3ee 543e

phi.initial_conv_module.0._layers.4.conv.weight f4 [64, 1, 5]
-0.040057316 -0.22827622 -0.32266724 -0.28058672 0.39535233 -0.18902694 -0.043280784 0.13148443
-0.077414565 0.20381919 0.070996605 -0.25324714 0.06615266 0.079112366 0.20198986 0.39163232
0.18262462 0.022511892 0.13982378 -0.4159347 0.24170564 0.08944469 -0.0684406 0.0036868802
0.25398448 -0.47207212 0.061075512 0.3302635 -0.28570977 0.34864557 0.20251675 0.21739788
-0.0037660524 -0.10822706 0.17964776 0.3209086 -0.35911658 -0.21188428 0.011614146 -0.020980915
-0.15251575 -0.11555388 0.37565598 -0.46773595 -0.18636562 -0.24680474 0.19323243 -0.2189748
-0.34958154 0.45657882 -0.07411566 -0.031599686 0.028478438 -0.26035848 0.3312631 -0.09478314
0.255609 0.3846643 0.16367432 0.1205888 0.3946721 0.17167293 -0.28186482 0.27664775
0.38070866 -0.36803213 -0.330546 0.2002011 -0.0038754384 -0.3055235 -0.25996825 0.3831138
-0.012245564 -0.26099005 -0.33046553 -0.15844767 -0.048496474 0.4055299 0.24842522 0.09466937
0.19133644 0.3360735 0.35344353 -0.45508137 0.20638026 0.37574732 -0.2991517 -0.12092346
0.425569 0.30527204 0.0687517 0.39123553 -0.07217976 0.00419996 -0.037982855 -0.36479467
-0.38893762 0.29114982 0.08944338 0.040821176 0.27967304 -0.06989907 -0.10360138 -0.027371578
0.20263658 0.20503487 -0.005310432 0.32917395 0.02947023 0.20887 0.2030599 -0.43359712
0.18791388 -0.40223327 0.13366157 -0.2205407 -0.026966473 -0.2042371 0.3272605 -0.4158943
0.33994645 0.06528605 0.24736893 -0.35323894 0.040654242 0.24227296 0.16856529 0.2805741
-0.014638448 0.4282128 0.4155653 -0.0619017 0.030121295 0.0012610189 0.2904488 0.38753575
-0.4363848 -0.012053144 -0.36581582 0.13111237 0.2333225 0.3377705 -0.15636776 0.27451208
-0.15618536 0.22584283 0.1950254 -0.17887771 -0.23825386 -0.068931274 -0.32346773 -0.39207754
0.41037986 0.13784577 -0.41361275 0.233882 -0.18338875 -0.24400117 -0.35885492 0.033181246
-0.29735708 0.062826484 -0.12421795 -0.23986681 -0.24008313 -0.23440368 -0.21350753 0.3580809
0.09082641 -0.3387131 -0.065729566 -0.39737847 -0.20884567 -0.21859479 -0.2700569 0.36752805
-0.08672065 0.14559731 -0.13904433 -0.3588155 -0.40257815 0.38856724 0.08746222 -0.17696302
-0.12439479 0.13547686 0.30980656 0.40317848 -0.3118856 -0.07821435 -0.052632 -0.3199702
0.26506224 0.43209267 0.19875266 -0.030370532 -0.38589072 -0.43505713 0.37172565 -0.41277167
-0.20070249 0.03691708 0.057329565 -0.124290064 -0.08370361 0.15720235 0.24724282 -0.17482556
0.20160994 -0.44428164 -0.34724253 0.013054488 0.13263172 -0.30807924 -0.32241943 -0.09435542
0.29592678 -0.021897797 0.1294265 0.24384491 0.18327977 0.31352204 -0.15350264 -0.0427229
-0.38566685 -0.3066703 0.011762604 0.33358127 -0.4587749 -0.46683058 -0.043019623 -0.37071392
-0.18982959 -0.076108955 -0.18735972 0.20053063 -0.2283854 -0.069414124 -0.3359723 -0.21619084
0.12488354 0.083659954 -0.15788431 0.23250122 0.4139166 0.0072942195 -0.042923026 -0.42379767
0.08097696 -0.2915507 -0.3311322 -0.105652444 0.14816397 0.0021150564 -0.30651966 -0.28650886
00000000: 2413 24bd 3ec1 69be a434 a5be 10a9 8fbe
00000010: 9f6b ca3e 4790 41be 3147 31bd dba3 063e
00000020: 878b 9ebd fab5 503e ab66 913d 9ca9 81be
00000030: 0c7b 873d aa05 a23d 6ed6 4e3e 0884 c83e
00000040: f301 3b3e dc6a b83c f72d 0f3e 65f5 d4be
00000050: af81 773e c72e b73d 962a 8cbd 969f 713b
00000060: 410a 823e 70b3 f1be 512a 7a3d 4c18 a93e
00000070: 8d48 92be ac81 b23e 8d60 4f3e 8d9d 5e3e
00000080: e0cf 76bb 26a6 ddbd 95f5 373e 224e a43e
00000090: 21de b7be 31f8 58be 4249 3e3c 2be0 abbc
000000a0: 172d 1cbe 83a7 ecbd fb55 c03e 167b efbe
000000b0: a1d6 3ebe 62ba 7cbe b9de 453e ee3a 60be
000000c0: 5afc b2be b3c4 e93e f3c9 97bd ac6e 01bd
000000d0: 9d4b e93c b54d 85be 519b a93e aa1d c2bd
000000e0: 2fdf 823e b8f2 c43e 3e9a 273e 43f7 f63d
000000f0: 7612 ca3e 07cb 2f3e 9650 90be c6a4 8d3e
00000100: 3fec c23e b56e bcbe 533d a9be 8401 4d3e
00000110: 11fb 7dbb 946d 9cbe 8f1a 85be 7e27 c43e
00000120: 9ea1 48bc 7da0 85be c732 a9be 1b40 22be
00000130: 3da4 46bd 9da1 cf3e 2e63 7e3e 04e2 c13d
00000140: b3ed 433e d311 ac3e 8df6 b43e 6d00 e9be
00000150: 5955 533e f461 c03e 692a 99be b8a6 f7bd
00000160: 2ee4 d93e 9e4c 9c3e b1cd 8c3d 0650 c83e
00000170: fbd2 93bd d19f 893b e993 1bbd 5ec6 babe
00000180: d522 c7be 9711 953e 172e b73d 1b34 273d
00000190: 4e31 8f3e 3e27 8fbd f62c d4bd 5c3a e0bc
000001a0: f77f 4f3e a9f4 513e 2203 aebb 7d89 a83e
000001b0: 8d6b f13c 04e2 553e efee 4f3e 7100 debe
000001c0: 7f6c 403e 85f1 cdbe 94de 083e 6cd5 61be
000001d0: cbe8 dcbc 8823 51be b08e a73e 19f0 d4be
000001e0: 760d ae3e b1b4 853d 484e 7d3e bcdb b4be
000001f0: 1085 263d 6716 783e 619c 2c3e 69a7 8f3e
00000200: 1ad6 6fbc b53e db3e fac4 d43e a38c 7dbd
00000210: efc0 f63c c648 a53a b5b5 943e 166b c63e
00000220: d46d dfbe 8d7a 45bc 364c bbbe 5242 063e
00000230: 18ec 6e3e 41f0 ac3e df1e 20be d98c 8c3e
00000240: 0eef 1fbe 5843 673e bdb4 473e b82b 37be
00000250: d2f8 73be d72b 8dbd 909d a5be 63be c8be
00000260: 4f1d d23e 7127 0d3e 0dc5 d3be c37e 6f3e
00000270: 43ca 3bbe 71db 79be d5bb b7be 0fe9 073d
00000280: 303f 98be 2cab 803d fb65 febd a59f 75be
00000290: 5ad8 75be 8507 70be b8a1 5abe 6156 b73e
000002a0: 3203 ba3d ce6b adbe 399d 86bd 3175 cbbe
000002b0: a4db 55be 50d7 5fbe e644 8abe a32c bc3e
000002c0: 999a b1bd 7617 153e a361 0ebe aab6 b7be
000002d0: b91e cebe 49f2 c63e 641f b33d cb35 35be
000002e0: b2c2 febd 72ba 0a3e f79e 9e3e 696d ce3e
000002f0: 78af 9fbe d82e a0bd a794 57bd 22d3 a3be
00000300: 3db6 873e 403b dd3e d185 4b3e 9fcb f8bc
00000310: 7893 c5be cfbf debe d352 be3e cf56 d3be
00000320: f484 4dbe 5d36 173d 68d2 6a3d ca8b febd
00000330: cc6c abbd a7f9 203e 392d 7d3e 7905 33be
00000340: d672 4e3e e278 e3be c6c9 b1be 7ee2 553c
00000350: 9cd0 073e 90bc 9dbe 2914 a5be 6a3d c1bd
00000360: b783 973e 0263 b3bc 6188 043e 7bb2 793e
00000370: b1ad 3b3e f685 a03e cc2f 1dbe 35fe 2ebd
00000380: 2076 c5be e403 9dbe f0b7 403c 2acb aa3e
00000390: 8be4 eabe 6b04 efbe 5835 30bd 37ce bdbe
000003a0: b062 42be 03df 9bbd 3adb 3fbe e757 4d3e
000003b0: dddd 69be fe28 8ebd 9004 acbe 2261 5dbe
000003c0: f1c2 ff3d e955 ab3d 6dac 21be cd14 6e3e
000003d0: e0ec d33e 5904 ef3b 0ed0 2fbd 02fc d8be
000003e0: 40d7 a53d 2246 95be 298a a9be 4f60 d8bd
000003f0: 4cb8 173e c29c 0a3b 25f0 9cbe 4ab1 92be

phi.initial_conv_module.0._layers.5.weight f4 [64]
1.0269073 1.0345035 1.0024507 0.9462024 0.9748505 0.99831843 0.97295624 1.0052779
0.99412256 1.051636 0.9960079 0.93301547 0.9816116 1.0219986 0.9830635 1.003572
0.97017634 0.9502043 1.0532068 0.96883553 0.9902992 0.97990215 0.9896534 0.99720895
0.9816294 0.9677409 0.9828909 0.99627626 1.0240561 0.9647053 1.0064188 1.0177329
0.9909062 1.0191759 1.0241483 0.9699372 1.0338047 0.98273295 1.0051128 1.0058502
0.99792415 1.0473027 1.0590879 0.97622377 1.0043713 0.97864413 0.9919264 1.0270567
1.0050575 0.9723089 1.0151969 1.0305631 1.033819 1.0436713 0.96530026 1.0190275
0.96894896 1.0706584 0.9825468 1.0223455 1.006576 0.9950986 1.035811 0.973468
00000000: b371 833f 9c6a 843f 4e50 803f 523a 723f
00000010: cd8f 793f cc91 7f3f a913 793f f2ac 803f
00000020: d17e 7e3f 029c 863f 60fa 7e3f 1ada 6e3f
00000030: e64a 7b3f dad0 823f 0daa 7b3f 0c75 803f
00000040: 7a5d 783f 9740 733f 7bcf 863f 9b05 783f
00000050: 4084 7d3f deda 7a3f ed59 7d3f 1649 7f3f
00000060: 104c 7b3f debd 773f bd9e 7b3f f60b 7f3f
00000070: 4514 833f edf6 763f 55d2 803f 1245 823f
00000080: 07ac 7d3f 5b74 823f 4b17 833f ce4d 783f
00000090: b653 843f 6394 7b3f 89a7 803f b3bf 803f
000000a0: f577 7f3f 040e 863f 3190 873f cde9 793f
000000b0: 3d8f 803f 6c88 7a3f e3ee 7d3f 9876 833f
000000c0: b9a5 803f 3ce9 783f f9f1 813f 7ee9 833f
000000d0: 2e54 843f 0597 853f eb1d 773f 7e6f 823f
000000e0: 0a0d 783f 560b 893f 3088 7b3f 38dc 823f
000000f0: 7bd7 803f c8be 7e3f 7495 843f 3335 793f

phi.initial_conv_module.0._layers.5.bias f4 [64]
0.030370107 0.00075008965 0.020372529 -0.03728841 -0.01865104 0.021341465 -0.008378553 0.018080575
0.011914765 0.04879155 -0.0055604535 -0.0319524 -0.0031839244 0.054347675 0.021314975 0.0094590625
-0.004821595 -0.021580173 0.06073624 -0.012536257 0.006418346 -0.0053351857 -0.02377366 0.009195743
-0.007879126 -0.025926126 -0.0008208373 0.01701426 0.02997623 -0.019986551 0.0147533845 0.06557181
0.0017656338 0.011650036 0.034692515 -0.054039147 0.04029454 0.0007250484 0.04636953 0.044395063
-0.0047323294 0.052123357 0.054642923 -0.007341457 0.006042613 -0.008721476 -0.004670385 0.020096518
0.027262537 0.021077206 0.027490195 0.01758589 0.055605926 0.045244314 -0.04711803 0.03064918
-0.017778223 0.031664297 -0.06394047 0.033991873 0.006541448 -0.021655343 0.041058812 0.0065947683
00000000: bbca f83c aaa1 443a 4ae4 a63c bbbb 18bd
00000010: 11ca 98bc 4cd4 ae3c 3346 09bc b71d 943c
00000020: 2636 433c a6d9 473d 7734 b6bb 85e0 02bd
00000030: 63a9 50bb ab9b 5e3d be9c ae3c 2ffa 1a3c
00000040: 78fe 9dbb e7c8 b0bc 90c6 783d df64 4dbc
00000050: fd50 d23b c8d2 aebb fbc0 c2bc bea9 163c
00000060: 7317 01bc 0763 d4bc 752d 57ba 7d61 8b3c
00000070: b690 f53c d6ba a3bc 2eb8 713c 834a 863d
00000080: d76c e73a cbdf 3e3c bd19 0e3d 2758 5dbd
00000090: e30b 253d 2d11 3e3a faed 3d3d 99d7 353d
000000a0: a811 9bbb 4d7f 553d 42d1 5f3d 9b90 f0bb
000000b0: 1d01 c63b 86e4 0ebc 070a 99bb 74a1 a43c
000000c0: af55 df3c 1baa ac3c 1e33 e13c 4910 903c
000000d0: 0ac3 633d 1a52 393d d6fe 40bd fd13 fb3c
000000e0: a3a3 91bc 6cb2 013d 39f3 82bd 103b 0b3d
000000f0: a559 d63b 8c66 b1bc 492d 283d ed18 d83b

phi.initial_conv_module.0._layers.5.running_mean f4 [64]
-0.082052894 0.0029122096 0.028236203 0.057859015 0.084278636 -0.0026366673 0.045134384 -0.027880982
-0.09193738 -0.02535578 -0.0014587786 0.1322056 0.15264821 -0.13742432 -0.0830798 0.091487475
0.10363039 0.114179425 0.055127658 -0.053348158 0.047361802 0.118011 -0.05464264 -0.018357296
0.057785433 0.17965917 0.10150387 -0.05200565 0.09264476 -0.012044623 -0.09971329 -0.091828756
-0.14608333 -0.05793606 -0.1864236 -0.013700736 -0.040639363 0.04241641 0.07478146 -0.13819799
-0.039123263 -0.001676555 -0.10931928 0.08795603 -0.0065384023 -0.09085639 -0.14388527 -0.11047615
0.038308714 -0.114000745 -0.10155587 -0.047115695 -0.05885403 -0.05827016 -0.0034368883 -0.061448146
-0.02048685 -0.0274926 -0.0051317187 -0.06943982 -0.1569918 0.11997235 -0.13165234 0.1620703
00000000: 590b a8bd c5da 3e3b 9c4f e73c 93fd 6c3d
00000010: 479a ac3d f0cb 2cbb d5de 383d a866 e4bc
00000020: aa49 bcbd edb6 cfbc 7d34 bfba e860 073e
00000030: d04f 1c3e f6b8 0cbe be25 aabd c95d bb3d
00000040: 2b3c d43d e7d6 e93d 8acd 613d 9983 5abd
00000050: 73fe 413d c0af f13d f6d0 5fbd 0a62 96bc
00000060: 6bb0 6c3d 93f8 373e 43e1 cf3d e003 55bd
00000070: 89bc bd3d cf56 45bc 7b36 ccbd b710 bcbd
00000080: de96 15be 5d4e 6dbd d4e5 3ebe 0d79 60bc
00000090: 7675 26bd d4bc 2d3d 0627 993d c683 0dbe
000000a0: b73f 20bd dabf dbba c9e2 dfbd 4b22 b43d
000000b0: 1840 d6bb ea12 babd a956 13be 5241 e2bd
000000c0: 99e9 1c3d 3979 e9bd 86fc cfbd 63fc 40bd
000000d0: ec10 71bd b1ac 6ebd 6b3d 61bb 0db1 7bbd
000000e0: 0ad4 a7bc 2938 e1bc fa27 a8bb 7736 8ebd
000000f0: 75c2 20be 10b4 f53d dfcf 06be c2f5 253e

phi.initial_conv_module.0._layers.5.running_var f4 [64]
0.13593511 0.01467746 0.01866628 0.06605994 0.075202554 0.03635463 0.024869887 0.012867468
0.11021458 0.03952396 0.008826138 0.1257207 0.22079074 0.19039601 0.087511316 0.100024246
0.09120214 0.16389465 0.09250235 0.049574137 0.03557051 0.21634 0.037154254 0.04150391
0.061795365 0.55049497 0.13804138 0.03144847 0.07185927 0.016629804 0.11739381 0.097400926
0.16689107 0.06394163 0.23297247 0.038425032 0.02727925 0.117679775 0.093409196 0.3743576
0.045101434 0.031980034 0.13366467 0.06597994 0.025464516 0.16964443 0.16744576 0.16391627
0.06650251 0.15767235 0.16558452 0.040808678 0.19154888 0.0459674 0.025017226 0.06121393
0.02423758 0.09595814 0.008761388 0.11119885 0.24500267 0.18049657 0.14233735 0.34933624
00000000: 9332 0b3e bb79 703c 07ea 983c 6f4a 873d
00000010: cc03 9a3d 98e8 143d efbb cb3c 13d2 523c
00000020: 2fb8 e13d e0e3 213d 829b 103c edbc 003e
00000030: f816 623e 2cf7 423e 2239 b33d 83d9 cc3d
00000040: 30c8 ba3d 00d4 273e df71 bd3d 400e 4b3d
00000050: 62b2 113d 3c88 5d3e 0f2f 183d 0100 2a3d
00000060: 231d 7d3d 3ded 0c3f b85a 0d3e 1cd0 003d
00000070: f42a 933d 3a3b 883c 2a6c f03d 237a c73d
00000080: 7ee5 2a3e d4f3 823d 5690 6e3e 9163 1d3d
00000090: bc78 df3c 1802 f13d 524d bf3d cdab bf3e
000000a0: 48bc 383d 7ffd 023d 64df 083e 7e20 873d
000000b0: f69a d03c 45b7 2d3e e776 2b3e abd9 273e
000000c0: 7832 883d dc74 213e fd8e 293e 0027 273d
000000d0: 6425 443e 5048 3c3d edf0 cc3c 75bb 7a3d
000000e0: e48d c63c b485 c43d ed8b 0f3c 39bc e33d
000000f0: fbe1 7a3e 18d4 383e e2c0 113e 33dc b23e

phi.initial_conv_module.0._layers.7.se_conv.conv.weight f4 [10, 64, 1]
-0.04762032 -0.096574664 0.05339194 0.044290602 0.05757534 -0.045853905 -0.07769101 0.07397949
0.0581506 -0.10168379 -0.03719485 -0.15270187 0.055594914 -0.14372838 0.079500444 -0.018041817
0.029414399 -0.122823425 -0.09107053 -0.0065212683 0.08163761 0.038389996 -0.049146067 -0.09997306
0.061260063 0.09015128 -0.01650517 -0.08572277 -0.1688392 -0.06552652 -0.052545518 0.039219577
-0.06731395 -0.13191894 0.01484673 0.08329023 0.027735066 -0.00019178315 0.08689841 -0.14917591
0.0673064 -0.06671023 -0.05594154 -0.07932766 -0.16958916 -0.0009852911 0.113552324 -0.0024495546
0.07905014 0.0957916 -0.021112388 -0.033091653 -0.06717019 0.051187973 -0.027208678 0.08084591
-0.123450376 -0.10791626 -0.117055565 0.07886592 -0.08800728 0.11029751 0.10894642 0.08323108
0.10499785 0.048352644 -0.10939782 0.15346773 -0.0014934891 0.07983537 -0.034462713 -0.049649406
0.04129245 0.15492783 0.093171775 0.015230045 -0.043687515 0.05187517 0.049022615 -0.010912822
0.013947036 -0.12430992 0.016786056 -0.07283879 -0.08305315 -0.006265129 -0.017263591 -0.046641212
-0.09970082 0.058922354 -0.05205853 0.054506116 0.12125702 0.15129943 0.086803325 0.1456634
0.03968458 -0.03715209 -0.10244412 0.025157884 -0.03271289 -0.0056314007 -0.024866415 -0.043436486
0.12662174 0.07513 -0.033503536 0.002830334 -0.030369343 -0.052632317 -0.05472832 0.0032507116
0.0044326396 0.14728215 0.08990042 -0.009554339 0.0018288399 -0.058205593 -0.07985762 0.11828601
0.097779214 -0.04584782 0.034379415 0.108555965 0.06270279 0.04147091 -0.096409835 0.09188843
-0.16050248 -0.07770687 0.066558585 0.08529153 -0.089966565 0.010971469 -0.1308216 0.07801984
0.031959046 0.038087666 -0.11224588 0.010025187 -0.085976146 0.04381068 -0.046273507 -0.16340432
0.06156336 0.05198861 -0.13308424 -0.135218 -0.0652662 -0.066686824 -0.0390004 0.055604752
0.05826598 -0.10660352 -0.076330654 0.07927479 0.067761324 -0.06860119 0.0854479 0.032020617
0.0021367637 0.09224748 -0.011336685 0.101082996 -0.10207028 -0.04378482 0.0039242124 0.09015138
0.065155886 -0.074537 -0.13561119 -0.0054693324 -0.105154395 0.06714131 0.029437898 -0.12245124
-0.101753764 -0.07135882 -0.010176634 -0.024967235 0.06404781 -0.025701985 -0.14013807 -0.07671099
0.08941828 0.08451481 0.10354207 0.07486138 0.10941624 0.01839912 0.06452513 0.014802728
0.06755932 -0.06465244 0.12582679 -0.023384672 0.085901394 -0.019584918 -0.13487697 -0.03559462
-0.076206304 0.03916846 -0.09939201 -0.110446155 -0.031034943 -0.101312935 -0.07219759 0.12113842
0.06235429 0.0959333 0.0402618 0.008043159 -0.034949645 0.035090588 -0.020235166 0.05834347
-0.063796625 0.038947865 0.07277132 0.029555453 0.11229351 -0.06444661 0.08703077 -0.09117349
0.026944302 -0.09874551 -0.13529935 0.06247486 -0.05907145 0.09847497 0.041932244 0.019569544
-0.14334364 -0.12515248 0.022837473 -0.13604404 -0.14310473 -0.100276105 0.042095333 0.0061963904
-0.09933774 0.054951046 -0.047334675 -0.06300649 -0.010860365 0.09470548 0.052043285 0.074599266
0.005869339 -0.081476286 -0.09320624 0.052188445 0.008767703 0.10140651 0.013949703 0.0890349
00000000: 860d 43bd f0c8 c5bd 82b1 5a3d 106a 353d
00000010: 1fd4 6b3d 4ed1 3bbd 771c 9fbd 8f82 973d
00000020: 532f 6e3d 973f d0bd a159 18bd e15d 1cbe
00000030: 7eb7 633d 882d 13be 21d1 a23d 6fcc 93bc
00000040: 77f6 f03c d98a fbbd 3083 babd 5db0 d5bb
00000050: 9f31 a73d d43e 1d3d 634d 49bd adbe ccbd
00000060: d5eb 7a3d 3ca1 b83d da35 87bc 6b8f afbd
00000070: 2fe4 2cbe c532 86bd f839 57bd b5a4 203d
00000080: e5db 89bd c215 07be b33f 733c 1194 aa3d
00000090: a634 e33c 6619 49b9 cbf7 b13d 92c1 18be
000000a0: f0d7 893d 609f 88bd f522 65bd 8a76 a2bd
000000b0: c8a8 2dbe e224 81ba 1f8e e83d b588 20bb
000000c0: 0ae5 a13d 632e c43d e3f3 acbc 1d8b 07bd
000000d0: 8690 89bd 7baa 513d bce4 debc 8a92 a53d
000000e0: 8dd3 fcbd 3303 ddbd d4ba efbd 7584 a13d
000000f0: 293d b4bd a9e3 e13d 4d1f df3d 0e75 aa3d
00000100: 1d09 d73d 6c0d 463d f70b e0bd a526 1d3e
00000110: 2ec1 c3ba ba80 a33d c628 0dbd 2d5d 4bbd
00000120: 4622 293d 67a5 1e3e d8d0 be3d 7087 793c
00000130: aef1 32bd 0f7b 543d f0cb 483d b1cb 32bc
00000140: 1c82 643c 3396 febd e982 893c 812c 95bd
00000150: c517 aabd b64b cdbb 606c 8dbc db0a 3fbd
00000160: f22f ccbd 9158 713d 533b 55bd ce41 5f3d
00000170: 9a55 f83d 3dee 1a3e f1c5 b13d c928 153e
00000180: 4c8c 223d ca2c 18bd 39ce d1bd e817 ce3c
00000190: f4fd 05bd 9d87 b8bb a7b4 cbbc 75ea 31bd
000001a0: 21a9 013e c2dd 993d 013b 09bd 207d 393b
000001b0: 21c9 f8bc fc94 57bd ce2a 60bd e409 553b
000001c0: ad3f 913b 22d1 163e b61d b83d cd89 1cbc
000001d0: afb5 ef3a fd68 6ebd 648c a3bd f03f f23d
000001e0: 7840 c83d ecca 3bbd 6ed1 0c3d 9752 de3d
000001f0: 526a 803d 67dd 293d 8572 c5bd 0030 bc3d
00000200: c35a 24be c824 9fbd de4f 883d 53ad ae3d
00000210: 6440 b8bd adc1 333c 19f6 05be dec8 9f3d
00000220: 7de7 023d d001 1c3d 2be1 e5bd af40 243c
00000230: 4314 b0bd d472 333d 4a89 3dbd 7653 27be
00000240: dd29 7c3d 02f2 543d 3c47 08be 9676 0abe
00000250: 49aa 85bd 1a93 88bd e2be 1fbd cfc1 633d
00000260: 4fa8 6e3d f252 dabd 3f53 9cbd d25a a23d
00000270: 73c6 8a3d c87e 8cbd 4fff ae3d 0d28 033d
00000280: f208 0c3b 3fec bc3d 81bd 39bc 9a04 cf3d
00000290: 390a d1bd b657 33bd ae96 803b 49a1 b83d
000002a0: 7370 853d dba6 98bd a9dd 0abe 1638 b3bb
000002b0: 305b d7bd 6281 893d bf27 f13c b7c7 fabd
000002c0: 4764 d0bd 9324 92bd e6bb 26bc 1688 ccbc
000002d0: 802b 833d f88c d2bc 5b80 0fbe a71a 9dbd
000002e0: ee20 b73d 1a16 ad3d dd0d d43d ec50 993d
000002f0: 9f15 e03d c0b9 963c c025 843d 2487 723c
00000300: 8a5c 8a3d 8068 84bd bdd8 003e 3691 bfbc
00000310: 12ed af3d 8d70 a0bc 301d 0abe aacb 11bd
00000320: 0d12 9cbd 1b6f 203d 0a8e cbbd 9831 e2bd
00000330: fe3c febc 287d cfbd 54dc 93bd 6c17 f83d
00000340: 3667 7f3d ae78 c43d 8fe9 243d 74c7 033c
00000350: 5c27 0fbd 26bb 0f3d 38c4 a5bc 90f9 6e3d
00000360: cea7 82bd cc87 1f3d 2109 953d 471e f23c
00000370: 24fa e53d 96fc 83bd 303d b23d 2bb9 babd
00000380: 4cba dc3c 163b cabd ea8b 0abe a4e5 7f3d
00000390: e8f4 71bd 3fad c93d 25c1 2b3d 4f50 a03c
000003a0: adc8 12be f927 00be a715 bb3c 214f 0bbe
000003b0: 0c8a 12be 8f5d cdbd 286c 2c3d 170b cb3b
000003c0: 9671 cbbd 5914 613d 01e2 41bd 8c09 81bd
000003d0: acef 31bc f2f4 c13d 572b 553d 80c7 983d
000003e0: 9653 c03b 0add a6bd eae2 bebd 8dc3 553d
000003f0: 69a6 0f3c 37ae cf3d 4c8d 643c ee57 b63d

phi.initial_conv_module.0._layers.7.se_conv2.conv.weight f4 [64, 10, 1]
0.14220154 0.31661627 0.10815888 -0.080526605 0.08546614 -0.11826782 -0.11382697 -0.043651577
-0.06731809 0.16624653 -0.2947332 0.19126318 0.008320379 -0.014352459 0.10393813 0.0740057
-0.15965609 0.14079772 -0.0746104 0.24065764 -0.11441435 -0.24588948 0.04196142 -0.29363832
0.10605299 0.26110142 -0.123195514 -0.16932845 -0.27598983 -0.21333773 0.2476767 -0.23631254
0.2720092 -0.11188931 0.23350674 -0.06520694 -0.018057123 0.041551314 -0.11556248 0.29631233
-0.31334662 -0.08663952 0.19045994 0.2511831 0.07191403 -0.23025036 0.1431321 0.16367023
-0.16611463 -0.27992547 -0.19069146 -0.11983662 -0.32231852 -0.2153787 0.17752154 -0.14513798
-0.047029626 -0.066567525 -0.021019429 0.2760271 -0.27550054 -0.3150123 -0.15857758 0.10891203
-0.17067501 0.27048787 -0.024189306 0.22201756 0.22809277 0.103384554 -0.24341789 -0.27374098
-0.2229982 0.022844434 0.2110346 0.26159215 -0.15056148 0.11055024 0.22637491 -0.08331847
0.037077 -0.11874638 -0.025445137 0.3299006 0.21093318 0.14147572 0.18151088 0.3136975
-0.17232247 -0.123116456 0.07526738 0.09831916 0.17431398 -0.2879032 0.11970977 -0.25261346
-0.101610556 0.07208442 -0.062545024 -0.18706039 -0.20707172 0.28225744 0.28840303 -0.2939517
-0.1435842 0.011471981 0.17027663 -0.041709144 -0.18405084 0.08748857 0.35074803 -0.090984456
0.30275297 -0.027214237 -0.2922932 -0.34597668 0.4003134 -0.033774856 -0.3669626 0.04148368
0.15884382 -0.059964407 0.12895772 0.18605843 -0.02227896 -0.1539256 0.06913774 0.1293825
-0.033501986 -0.052093204 0.15662827 -0.196329 0.027943768 -0.12820269 0.17165692 0.09862791
0.25342116 0.1672222 -0.16919026 0.14837816 -0.15002626 0.21030016 0.13603665 -0.11060209
0.1474988 0.25096613 -0.16396768 0.24291803 -0.28699955 -0.10622568 -0.18596587 -0.2878914
0.01102123 -0.07515465 -0.11435854 -0.00066118524 0.22489642 0.27598497 0.33893555 0.22731979
-0.17139298 -0.15016729 0.2886725 -0.1662074 0.27050096 0.16064529 0.18482268 0.32008755
0.20795557 0.045021623 0.274933 0.20268412 0.22754811 0.15621248 -0.25594783 -0.124755226
0.31498358 -0.33255395 0.20889032 0.17072198 0.25057918 -0.2793658 0.21885705 -0.29807335
0.22616343 0.0060202577 -0.06760485 0.24280557 -0.09347323 -0.18082558 0.26272535 -0.31187946
0.0710438 -0.07558467 0.14657679 0.08634064 -0.18168019 0.026293445 -0.07934483 -0.009665336
-0.06874359 0.023438059 0.09266374 0.14718689 0.06397657 -0.15178995 -0.28226677 -0.29356337
-0.15357755 0.21920207 0.14832994 -0.3055914 0.1202143 -0.022816371 0.09161007 0.20020315
0.19676091 -0.1778688 -0.0708329 0.29252648 -0.24099231 -0.16489685 0.2569975 -0.13132937
0.18048823 0.09492572 -0.15122807 -0.16027121 -0.046330847 -0.24675398 0.16215974 -0.23818935
0.29272076 0.32204282 -0.25755808 0.27408904 0.26916975 -0.1995991 0.06662437 0.1633825
0.040210944 -0.12651087 0.29835913 0.14274187 -0.10682992 0.16079758 0.0065658977 0.0813792
0.30190796 0.11556505 -0.23627797 -0.075459376 -0.071272865 0.24432816 0.040531218 0.08439027
00000000: 489d 113e 871b a23e 6782 dd3d 22eb a4bd
00000010: df08 af3d 6636 f2bd 1d1e e9bd ffcb 32bd
00000020: 11de 89bd 883c 2a3e 45e7 96be 7fda 433e
00000030: 3352 083c 9426 6bbc 84dd d43d 4d90 973d
00000040: e37c 23be 472d 103e 56cd 98bd f56e 763e
00000050: 1252 eabd 74ca 7bbe bddf 2b3d c357 96be
00000060: 4f32 d93d 16af 853e ee4d fcbd 7064 2dbe
00000070: 8a4e 8dbe 3575 5abe f69e 7d3e eafb 71be
00000080: ca44 8b3e 3926 e5bd 641c 6f3e 378b 85bd
00000090: 88ec 93bc b631 2a3d 06ac ecbd 40b6 973e
000000a0: f86e a0be 1070 b1bd ee07 433e 129b 803e
000000b0: aa47 933d c0c6 6bbe 3991 123e 2b99 273e
000000c0: f419 2abe 6452 8fbe 9f44 43be e76c f5bd
000000d0: ef06 a5be 3c8c 5cbe 35c8 353e 0d9f 14be
000000e0: 23a2 40bd 8e54 88bd f030 acbc 6d53 8d3e
000000f0: 680e 8dbe 4b49 a1be 2962 22be 450d df3d
00000100: 6ec5 2ebe 637d 8a3e a728 c6bc 9258 633e
00000110: 2791 693e 48bb d33d 8a42 79be c727 8cbe
00000120: a459 64be 4024 bb3c 7419 583e 68ef 853e
00000130: ca2c 1abe 2a68 e23d d3ce 673e e0a2 aabd
00000140: 0dde 173d 4d31 f3bd 5272 d0bc bbe8 a83e
00000150: defe 573e 03df 103e fddd 393e f59c a03e
00000160: 4d75 30be 7b24 fcbd c925 9a3d 8e5b c93d
00000170: 5d7f 323e 0c68 93be 652a f53d 8d56 81be
00000180: 3219 d0bd ffa0 933d 9b17 80bd c28c 3fbe
00000190: 9c0a 54be 0c84 903e 90a9 933e d680 96be
000001a0: bd07 13be faf4 3b3c ff5c 2e3e 35d7 2abd
000001b0: d377 3cbe 352d b33d 3f95 b33e 0f56 babd
000001c0: 7002 9b3e 64f0 debc 74a7 95be db23 b1be
000001d0: e1f5 cc3e 8157 0abd 86e2 bbbe cbea 293d
000001e0: f4a7 223e 3d9d 75bd 7e0d 043e 1a86 3e3e
000001f0: 5e82 b6bc ac9e 1dbe 1698 8d3d d97c 043e
00000200: 6139 09bd af5f 55bd 2963 203e 780a 49be
00000210: 54ea e43c 9147 03be d5c6 2f3e 6efd c93d
00000220: 6bc0 813e 4c3c 2b3e 3640 2dbe 72f0 173e
00000230: 7ca0 19be ed58 573e 314d 0b3e 5983 e2bd
00000240: ed09 173e a27e 803e 25e7 27be 81bf 783e
00000250: 9bf1 92be d98c d9bd d66d 3ebe 8066 93be
00000260: 6492 343c aeea 99bd cf34 eabd 6453 2dba
00000270: 3f4b 663e e74d 8d3e f688 ad3e 85c6 683e
00000280: a481 2fbe 74c5 19be e2cc 933e 4632 2abe
00000290: 1a7f 8a3e 3380 243e 2842 3d3e 84e2 a33e
000002a0: 4ef2 543e 9868 383d 05c4 8c3e 6d8c 4f3e
000002b0: 5f02 693e 2af6 1f3e 980b 83be ab7f ffbd
000002c0: 8745 a13e 8344 aabe 58e7 553e bed1 2e3e
000002d0: ea4b 803e 0909 8fbe 101c 603e 129d 98be
000002e0: 6397 673e 9545 c53b 6974 8abd 06a2 783e
000002f0: e56e bfbd 572a 39be f083 863e aaae 9fbe
00000300: 697f 913d 23cc 9abd 3a18 163e 5dd3 b03d
00000310: 5f0a 3abe 5a65 d73c 8b7f a2bd 5c5b 1ebc
00000320: 70c9 8cbd 2c01 c03c 7dc6 bd3d 29b8 163e
00000330: 2606 833d d36e 1bbe 4585 90be f04d 96be
00000340: 6f43 1dbe 8276 603e cee3 173e 7a76 9cbe
00000350: ea32 f63d 66e9 babc 0f9e bb3d 0e02 4d3e
00000360: b17b 493e 3d23 36be d710 91bd 08c6 953e
00000370: b0c6 76be b8da 28be 2d95 833e 357b 06be
00000380: e8d1 383e 6a68 c23d 88db 1abe 231e 24be
00000390: 6ac5 3dbd 13ad 7cbe 340d 263e e9e7 73be
000003a0: 7fdf 953e cce2 a43e a7de 83be 6655 8c3e
000003b0: 9ed0 893e b563 4cbe 5c72 883d be4d 273e
000003c0: 3bb4 243d 118c 01be 87c2 983e ed2a 123e
000003d0: a5c9 dabd 1fa8 243e be26 d73b 23aa a63d
000003e0: ae93 9a3e 5ead ec3d daf2 71be 728a 9abd
000003f0: 82f7 91bd 2931 7a3e 1004 263d ced4 ac3d

phi.initial_conv_module.0._layers.8.conv.weight f4 [32, 64, 1]
0.0015584647 -0.013724788 -0.060756527 -0.05862932 -0.049477704 -0.02399903 -0.09615372 -0.10727423
-0.026211187 -0.044187423 -0.0047718054 0.07226043 0.067010246 -0.088911675 -0.021259263 0.017223384
0.025566073 -0.13223164 -0.15101378 -0.028553694 -0.06326679 -0.059371877 -0.056156345 0.04664874
0.13846572 0.080353506 -0.07380857 -0.09417274 -0.116554454 0.055095956 -0.034993786 -0.02697874
-0.0432336 0.06962525 0.013685235 0.030008478 0.05352025 -0.049175445 -0.03264394 0.0797181
-0.121521175 0.11015611 -0.023589637 -0.010292572 -0.092896104 0.013875272 -0.0011440521 -0.051544864
0.0591215 0.11951564 0.1021102 0.05749134 0.055197556 -0.07177175 -0.12559442 0.006628278
-0.079524234 0.016480587 -0.0068279454 -0.07251661 -0.09632522 -0.110676885 0.043823794 0.10791408
0.092440695 0.09813019 -0.022063084 -0.032261472 -0.027686523 -0.09829511 -0.04305383 0.062996395
-0.091889426 0.015379158 0.09330291 0.012740876 0.071196675 -0.03958177 0.081993215 0.09763646
-0.051389955 0.027095618 0.045598764 -0.004411606 0.0059765154 0.083001666 -0.082483865 -0.089632854
-0.05814227 0.019441579 -0.059002206 -0.011842701 -0.14599414 -0.058713604 -0.045492586 0.03734685
0.07167105 0.060298853 -0.04900165 0.034473184 -0.11605565 0.05879754 0.035558492 0.06924055
-0.067029394 -0.025492916 0.037358053 0.105246946 -0.05561949 -0.055781398 0.0635867 0.039565574
-0.018659988 -0.105470754 -0.07613832 -0.11947925 0.14766137 -0.073658995 -0.07780994 -0.13790317
0.010996291 0.033189613 -0.104078434 -0.041968867 -0.021303019 0.0011074279 -0.025207317 0.04804616
-0.08433188 -0.10472352 -0.0974526 -0.06573283 0.045739856 0.04615227 0.0960753 0.054394294
-0.048869945 -0.09054943 0.02768331 -0.06743448 0.03642407 -0.082065 -0.06358815 -0.058927804
-0.0022515303 0.016126225 0.1414391 -0.06202276 -0.048224743 0.09201681 -0.096859425 -0.072969936
0.10053773 0.044203542 0.013595209 0.016636379 -0.09183004 -0.010340855 0.0878327 -0.087050945
-0.072669476 -0.124272384 0.06925796 -0.04274815 0.08549025 -0.035142742 0.021827715 -0.013325327
-0.025297346 0.005070751 0.07821297 -0.03384254 -0.025446387 -0.08429559 0.054406807 0.009291679
0.07652624 -0.07147096 0.07220915 0.0041251257 0.009336857 -0.027682336 -0.028813321 0.15617229
0.007939382 0.04194154 0.06691865 -0.09680707 -0.071105026 0.043046746 -0.078094535 0.06331536
0.1469106 -0.09797843 0.022047311 0.09100366 0.025191125 -0.10860402 0.06342243 -0.023550116
0.09138235 -0.12068192 -0.064908095 -0.055499416 -0.031329244 0.017695962 -0.052487247 -0.027392557
0.039906517 0.032405615 0.03615406 -0.027650839 0.035754718 0.006178036 0.07738126 -0.102385364
0.021376042 -0.0060004694 0.04415883 -0.04750637 0.08333376 0.052934792 0.055620655 0.030678228
-0.019277418 0.09883391 -0.017724453 0.025643548 0.0048361546 0.09225487 -0.1110362 -0.007639513
-0.07062919 -0.123905405 0.122652896 -0.111635886 0.03801219 0.12395416 0.063360795 0.09189704
-0.104770534 -0.07622291 -0.08879545 0.06954672 -0.069705 -0.080675244 -0.001036927 -0.040780567
0.059721313 0.08665039 0.08887574 -0.0661676 0.08075759 0.061338667 -0.10097733 -0.064462066
00000000: 6645 cc3a efdd 60bc d6db 78bd 4c25 70bd
00000010: 22a9 4abd 9d99 c4bc 3eec c4bd 97b2 dbbd
00000020: d8b8 d6bc dffd 34bd ce5c 9cbb 47fd 933d
00000030: ab3c 893d 5317 b6bd e827 aebc 0e18 8d3c
00000040: f16f d13c bb67 07be 5ba3 1abe 70e9 e9bc
00000050: 0592 81bd ed2f 73bd 3204 66bd c012 3f3d
00000060: f5c9 0d3e 6190 a43d f328 97bd a3dd c0bd
00000070: 1ab4 eebd 4cac 613d a555 0fbd 8502 ddbc
00000080: b715 31bd af97 8e3d 0938 603c 57d4 f53c
00000090: 0d38 5b3d 316c 49bd a7b5 05bd 3e43 a33d
000000a0: 18e0 f8bd 8799 e13d 0e3f c1bc 2da2 28bc
000000b0: 5040 bebd 1c55 633c 05f4 95ba b520 53bd
000000c0: 6329 723d 9ec4 f43d 271f d13d 0a7c 6b3d
000000d0: d516 623d 11fd 92bd d39b 00be 0732 d93b
000000e0: 9add a2bd 4c02 873c f5bc dfbb 9783 94bd
000000f0: 2846 c5bd 90aa e2bd 9480 333d 0f02 dd3d
00000100: 8c51 bd3d 7bf8 c83d a4bd b4bc 9b24 04bd
00000110: d9ce e2bc f24e c9bd 3659 30bd 4104 813d
00000120: 8630 bcbd ddf8 7b3c 9915 bf3d 1bbf 503c
00000130: 90cf 913d 7e20 22bd 0fec a73d a0f5 c73d
00000140: 467e 52bd a1f7 dd3c c5c5 3a3d 3c8f 90bb
00000150: a5d6 c33b c7fc a93d 4ded a8bd 6e91 b7bd
00000160: 9726 6ebd f243 9f3c 4cac 71bd e307 42bc
00000170: 7d7f 15be ad7d 70bd 6f56 3abd 03f9 183d
00000180: 45c8 923d eefb 763d f4b5 48bd c133 0d3d
00000190: 96ae edbd b0d5 703d c8a5 113d fdcd 8d3d
000001a0: b546 89bd 85d6 d0bc c204 193d b68b d73d
000001b0: 43d1 63bd 097b 64bd be39 823d 830f 223d
000001c0: d5dc 98bc 0d01 d8bd 68ee 9bbd 89b1 f4bd
000001d0: 8b34 173e 87da 96bd d15a 9fbd 7d36 0dbe
000001e0: ca29 343c d5f1 073d 1327 d5bd 8ce7 2bbd
000001f0: ab83 aebc 1d27 913a 937f cebc 0dcc 443d
00000200: 31b6 acbd 4979 d6bd 3b95 c7bd ef9e 86bd
00000210: b759 3b3d 2a0a 3d3d 20c3 c43d 8dcc 5e3d
00000220: da2b 48bd fb71 b9bd 1cc8 e23c 171b 8abd
00000230: 6831 153d b211 a8bd 813a 82bd 485e 71bd
00000240: 698e 13bb 251b 843c 69d5 103e 940b 7ebd
00000250: 4f87 45bd 4f73 bc3d 3c5e c6bd 4371 95bd
00000260: bae6 cd3d c60e 353d 71be 5e3c 0449 883c
00000270: 6311 bcbd b16c 29bc a1e1 b33d c447 b2bd
00000280: bcd3 94bd 8582 febd 1ed7 8d3d af18 2fbd
00000290: 8315 af3d d6f1 0fbd 09d0 b23c 7952 5abc
000002a0: 613c cfbc 8b28 a63b 1f2e a03d 7a9e 0abd
000002b0: f174 d0bc 2ba3 acbd acd9 5e3d 203c 183c
000002c0: cab9 9c3d 5e5f 92bd 64e2 933d 102c 873b
000002d0: 9ef9 183c 11c6 e2bc ea09 ecbc a1eb 1f3e
000002e0: 2f14 023c e4ca 2b3d a50c 893d c942 c6bd
000002f0: 839f 91bd c951 303d 07f0 9fbd 7cab 813d
00000300: bb6f 163e eaa8 c8bd 909c b43c 2060 ba3d
00000310: 9e5d ce3c c96b debd 9ee3 813d 2cec c0bc
00000320: ab26 bb3d 1528 f7bd 89ee 84bd 5b53 63bd
00000330: 1853 00bd 1ff7 903c defc 56bd 5b66 e0bc
00000340: 0475 233d c0bb 043d 4816 143d 0384 e2bc
00000350: 8a73 123d 1f71 ca3b 117a 9e3d 6baf d1bd
00000360: cf1c af3c 969f c4bb e4df 343d 0a96 42bd
00000370: e4aa aa3d 27d2 583d 7cd2 633d e850 fb3c
00000380: adeb 9dbc 6f69 ca3d df32 91bc 6b12 d23c
00000390: 9b78 9e3b 1ff0 bc3d f266 e3bd e154 fabb
000003a0: 09a6 90bd 1ec2 fdbd 7131 fb3d 5ba1 e4bd
000003b0: acb2 1b3d aedb fd3d 4ec3 813d 8434 bc3d
000003c0: ef91 d6bd c21a 9cbd 64da b5bd 836e 8e3d
000003d0: 7fc1 8ebd 1039 a5bd 7fe9 87ba 8609 27bd
000003e0: 569e 743d c275 b13d 7c04 b63d e182 87bd
000003f0: 3c64 a53d 413e 7b3d 34cd cebd b004 84bd

phi.initial_conv_module.0._layers.9.weight f4 [32]
1.0108021 1.0144459 1.0109777 0.97794235 0.9984057 1.0185187 0.9875361 1.023808
0.99969935 1.0268253 0.981316 0.98675245 1.0424478 1.0312685 1.0209336 1.0291159
1.0043728 0.99513596 1.037039 0.9888937 0.9892147 1.001538 0.9924522 1.0458727
0.97165084 1.0002903 1.0030903 1.0008097 1.0450138 1.0104152 1.0194327 1.0157224
00000000: f761 813f 5dd9 813f b867 813f 6e5a 7a3f
00000010: 8497 7f3f d25e 823f 2acf 7c3f 240c 833f
00000020: 4cec 7f3f 036f 833f 8637 7b3f cf9b 7c3f
00000030: ee6e 853f 9b00 843f f4ad 823f 12ba 833f
00000040: 4a8f 803f 3bc1 7e3f b2bd 843f 2328 7d3f
00000050: 2d3d 7d3f 6632 803f 5911 7e3f 28df 853f
00000060: 1cbe 783f 8309 803f 4365 803f 881a 803f
00000070: 03c3 853f 4955 813f c57c 823f 3103 823f

phi.initial_conv_module.0._layers.9.bias f4 [32]
-0.00024043118 0.00027982774 -7.4907766e-05 2.675176e-07 0.0004698854 0.0008717337 -0.0007302314 0.00032891292
0.0006356346 0.00055818574 7.13423e-05 -0.0006601869 0.00016172076 0.0007425619 -0.00034533694 -0.0014446402
-4.5280725e-05 0.0004388568 0.00015711963 4.0128376e-05 -0.00023785817 -0.001239649 3.7709156e-05 -0.00018979848
4.1045958e-05 -3.2708853e-05 3.7912807e-05 -0.0007744982 0.0005188793 0.0009013219 0.0009313462 -0.0002861409
00000000: 411c 7cb9 d8b5 9239 cd17 9db8 579f 8f34
00000010: f35a f639 0f85 643a 006d 3fba f271 ac39
00000020: b7a0 263a 3653 123a 9b9d 9538 6510 2dba
00000030: 9693 2939 7ca8 423a 570e b5b9 155a bdba
00000040: cfeb 3db8 5d16 e639 7bc0 2439 844f 2838
00000050: 9169 79b9 b87b a2ba e629 1e38 a404 47b9
00000060: c328 2c38 dd30 09b8 9104 1f38 b207 4bba
00000070: 6605 083a b046 6c3a 9625 743a 2e05 96b9

phi.initial_conv_module.0._layers.9.running_mean f4 [32]
-0.07101613 -0.03497702 -0.027447522 0.009455775 0.067450054 -0.04047261 -0.0066037555 0.017072938
0.01662649 0.016100047 -0.029718915 0.03540184 -0.023407077 -0.027129184 -0.024097972 0.007212936
-0.057960372 0.028760236 -0.01341839 -0.014001173 -0.023109972 0.012912865 0.08945784 -0.03958659
0.008167172 -0.058676794 0.059154607 -0.0037535387 0.000962885 -0.0059875366 0.008633556 -0.050567105
00000000: e870 91bd 1044 0fbd a0d9 e0bc 65ec 1a3c
00000010: 4123 8a3d 9cc6 25bd 5164 d8bb 8cdc 8b3c
00000020: 4734 883c 3fe4 833c 1575 f3bc 8501 113d
00000030: 33c0 bfbc 063e debc 1c69 c5bc 7e5a ec3b
00000040: db67 6dbd 969a eb3c cfd8 5bbc 2d65 65bc
00000050: 2051 bdbc 7b90 533c ac35 b73d 8c25 22bd
00000060: 9acf 053c 1457 70bd 1a4c 723d eefd 75bb
00000070: 1e6a 7c3a 1933 c4bb c273 0d3c 741f 4fbd

phi.initial_conv_module.0._layers.9.running_var f4 [32]
0.030195028 0.02901069 0.045261573 0.02815564 0.035975557 0.030985937 0.03287816 0.038818683
0.045235284 0.042284854 0.060129125 0.02346262 0.034058016 0.026415939 0.025992407 0.03049724
0.022671867 0.031526964 0.048616353 0.034674246 0.025757257 0.023042277 0.04870975 0.027833337
0.022255052 0.03960602 0.023039106 0.02647461 0.02625121 0.04641373 0.022211863 0.041254338
00000000: 905b f73c d4a7 ed3c 3364 393d a8a6 e63c
00000010: 1b5b 133d 38d6 fd3c 40ab 063d 5700 1f3d
00000020: a248 393d e232 2d3d f549 763d ae34 c03c
00000030: 6b80 0b3d 3d66 d83c 07ee d43c 59d5 f93c
00000040: 5aba b93c 6b22 013d f121 473d 9506 0e3d
00000050: e200 d33c 28c3 bc3c e083 473d bd02 e43c
00000060: 3a50 b63c ec39 223d 82bc bc3c 48e1 d83c
00000070: c70c d73c 531c 3e3d a7f5 b53c 4ffa 283d

phi.initial_conv_module.1.weight f4 [32]
1.015266 1.0201653 1.0190189 0.9707396 0.9974808 1.0239245 0.98382586 1.0327615
1.0050151 1.0424973 0.9764466 0.98544854 1.0595543 1.0421726 1.0284189 1.0382261
1.0075662 0.9944354 1.0506258 0.9867978 0.98744935 1.0023707 0.99135756 1.0684274
0.9630582 1.0014194 1.0064219 1.0064102 1.0622196 1.0143276 1.0249019 1.0203911
00000000: 3cf4 813f c794 823f 366f 823f 6482 783f
00000010: e75a 7f3f f50f 833f 03dc 7b3f 8731 843f
00000020: 56a4 803f 8d70 853f 68f8 793f 5b46 7c3f
00000030: 7a9f 873f e965 853f 3ba3 833f 98e4 843f
00000040: eef7 803f 5293 7e3f e87a 863f c89e 7c3f
00000050: 7bc9 7c3f af4d 803f 9cc9 7d3f 3bc2 883f
00000060: fb8a 763f 832e 803f 6fd2 803f 0dd2 803f
00000070: d0f6 873f 7dd5 813f fc2f 833f 2d9c 823f

phi.initial_conv_module.1.bias f4 [32]
0.012845911 0.011380672 -0.0115102045 -0.02667324 -0.024924358 0.0002782911 -0.00015886374 0.0078077605
-0.018902386 0.044046648 -0.020657128 0.005763735 0.013646507 0.01572293 0.044836488 -0.024426924
-0.0025679823 0.0034785317 0.034751117 -0.00640022 -0.0020918788 -0.014151658 0.020365253 0.01307733
-0.03288385 0.0073284744 0.012344294 0.023808379 0.02200099 0.022682164 0.018613523 0.022281062
00000000: a877 523c 0076 3a3c 4c95 3cbc d781 dabc
00000010: 2b2e ccbc 99e7 9139 a994 26b9 3ed8 ff3b
00000020: 2dd9 9abc 426a 343d 2339 a9bc b7dd bc3b
00000030: 9995 5f3c 60cd 803c 77a6 373d f91a c8bc
00000040: 984b 28bb 14f8 633b 3057 0e3d f0b8 d1bb
00000050: e717 09bb 5bdc 67bc 08d5 a63c 4c42 563c
00000060: 37b1 06bd b323 f03b b93f 4a3c ca09 c33c
00000070: 6c3b b43c f2cf b93c 637b 983c c686 b63c

phi.initial_conv_module.1.running_mean f4 [32]
-0.0002714301 0.00031785615 -9.195623e-06 1.2724128e-05 0.00042765273 0.0008883212 -0.0007450745 0.0003171723
0.00059771514 0.00050985324 6.964698e-05 -0.00062912103 0.00016915804 0.0007532961 -0.00039817925 -0.0014012032
-2.0982658e-05 0.00043747193 0.00016077697 2.1416776e-05 -0.00024282814 -0.0012040443 8.779748e-05 -0.00020263094
-3.4586228e-05 -4.5491965e-05 5.589182e-06 -0.0007249067 0.00047829517 0.0008679239 0.0009313332 -0.00030328878
00000000: bb4e 8eb9 eea5 a639 e646 1ab7 b779 5537
00000010: 9436 e039 3ade 683a 1a51 43ba 254a a639
00000020: fcaf 1c3a aca7 053a 700f 9238 99eb 24ba
00000030: 0460 3139 d878 453a b7c2 d0b9 94a8 b7ba
00000040: ea03 b0b7 7d5c e539 3d96 2839 2da8 b337
00000050: af9f 7eb9 06d1 9dba ea1f b838 5479 54b9
00000060: ae10 11b8 a0ce 3eb8 b58a bb36 aa07 3eba
00000070: b1c3 fa39 6385 633a b724 743a bb02 9fb9

phi.initial_conv_module.1.running_var f4 [32]
0.9965357 0.99900424 0.9978551 0.928153 0.97000706 1.0052439 0.94305205 1.0232134
0.97609293 1.0246149 0.94807625 0.9398447 1.0529231 1.0326656 1.0146629 1.0307977
0.9778976 0.9596122 1.0520144 0.95061135 0.94868594 0.95962703 0.9696691 1.0613569
0.9082114 0.9795082 0.9662323 0.9742289 1.0519538 0.99475837 1.0046713 1.008309
00000000: f71c 7f3f bebe 7f3f 6f73 7f3f 6f9b 6d3f
00000010: 6252 783f d5ab 803f dc6b 713f a8f8 823f
00000020: 3ae1 793f 9526 833f 20b5 723f aa99 703f
00000030: 2fc6 863f 632e 843f 79e0 813f 2ef1 833f
00000040: 7f57 7a3f 25a9 753f 68a8 863f 445b 733f
00000050: 15dd 723f 1eaa 753f 3c3c 783f 8bda 873f
00000060: 8b80 683f 0dc1 7a3f 005b 773f 1167 793f
00000070: 6ca6 863f 7ca8 7e3f 1299 803f 4510 813f
