logs/4birds_CF_combined_log_linear_gru64_50epochs_try2/2025-05-27_07-51-58/4birds_CF_combined_log_linear_gru64_50epochs_try2_best_model.pth (torch, 334849 bytes, 198 tensors)

phi.initial_conv_module.0._layers.0.conv.weight f4 [64, 64, 1]
0	0xbbad4233	-0.0052874326
1	0x3c10edaa	0.008845726
2	0xbdea0798	-0.1142723
3	0x3c883d0d	0.016630674
4	0xbe04952a	-0.12947527
5	0xbcd3b745	-0.025844226
6	0xbce5dd1b	-0.028059533
7	0x3dd8938e	0.10575019
8	0x3e45ea94	0.19327766
9	0x3cda9ef3	0.026687121
10	0x3e6ce878	0.23135555
11	0x3e162818	0.14663732
12	0x3e568c6c	0.20952004
13	0x3d04cf42	0.03242422
14	0x3d80a5c0	0.06281614
15	0xbd53b336	-0.05168458
16	0x3d00c1fc	0.031434998
17	0xbd721c64	-0.059109107
18	0xbd8c8c79	-0.068627305
19	0x3c46309f	0.012096553
20	0xbdd1ab8e	-0.102377996
21	0xbd08fbbc	-0.033443198
22	0xbdb9e1ca	-0.09076269
23	0x3c4b9d1b	0.012427594
24	0xbe04dd27	-0.12974988
25	0xbcfb5831	-0.030681701
26	0x3cdeab70	0.027181357
27	0xbc8b2dee	-0.016989674
28	0x3cc4cb32	0.024022672
29	0xbe5f25ce	-0.21791765
30	0x3dbc89ed	0.09205995
31	0xbd659658	-0.056051582
32	0x3dd2b32d	0.10288081
33	0x3d9b46a5	0.07581834
34	0xbd3d8c23	-0.046276223
35	0xbca8a6f6	-0.020587426
36	0xbd93f2b1	-0.07224024
37	0x3dc1ecc0	0.094689846
38	0xbbcb5c37	-0.006206061
39	0xbc18c2ec	-0.009323817
40	0x3d22f86a	0.039787687
41	0xbd827b62	-0.0637119
42	0x3d73cc09	0.059520755
43	0x3e0037fb	0.12521355
44	0x3dcc811e	0.09985565
45	0xbd837c6d	-0.06420217
46	0x3d185df9	0.037198994
47	0xbd54c9e9	-0.05195037
48	0x3da3e607	0.080028586
49	0xbd5d8daa	-0.05409018
50	0xbe3f4b09	-0.18680967
51	0xbdb83af3	-0.08995619
52	0xbe66fb34	-0.22556764
53	0xbd247f00	-0.04016018
54	0xbe051bb1	-0.12998845
55	0xbe1f7054	-0.15570194
56	0xbd90bd53	-0.07067361
57	0xbdd9bc03	-0.106315635
58	0xbd1c6400	-0.038181305
59	0xbe69be04	-0.22826391
60	0xbdb55c58	-0.08855504
61	0xbe209287	-0.15680896
62	0xbd19f5d9	-0.037587974
63	0xbe15ec9c	-0.1464104
64	0x3cd31780	0.025768042
65	0xbd0f8d9e	-0.035047166
66	0x3d79828c	0.060915515
67	0xbd4cd267	-0.050005343
68	0xbcd80c23	-0.026372975
69	0xbd9a444e	-0.07532559
70	0x3d6f2715	0.05838688
71	0xbcf9d638	-0.030497655
72	0x3d0a6764	0.033790007
73	0xbda06a7e	-0.07832812
74	0xbd82c2b5	-0.06384794
75	0xbb8ead8f	-0.004354186
76	0x3e533baf	0.20628236
77	0x3ec18e56	0.37803906
78	0x3e5b552c	0.21419209
79	0x3cd33684	0.025782831
80	0xbe52f076	-0.20599541
81	0xbddd0abd	-0.10793064
82	0x3dfb6da0	0.12276769
83	0x3e017244	0.12641245
84	0x3e6fa202	0.23401645
85	0x3e21f8bd	0.15817542
86	0x3dc9deb8	0.09856933
87	0xbe0c4ccd	-0.13701172
88	0xbdbf08c8	-0.09327847
89	0xbd3e9446	-0.046528123
90	0xbd74e597	-0.059789266
91	0xbb161951	-0.0022903273
92	0x3d69f975	0.057122666
93	0xbab5f1a1	-0.0013881215
94	0xbdbb62f4	-0.09149733
95	0xbdaa030a	-0.08301361
96	0x3db5057f	0.08838939
97	0x3d470f0b	0.04859833
98	0x3c463e44	0.012099806
99	0xbd87ad63	-0.06624868
100	0xbd1451ab	-0.036210697
101	0x3c26f2fb	0.010189767
102	0x3c630195	0.013855358
103	0xbc9b710f	-0.018974809
104	0x3d269cf5	0.04067703
105	0xbd91ba32	-0.07115592
106	0xbd9eb6e3	-0.077497266
107	0xbd266491	-0.04062325
108	0xbdfcde9d	-0.123471476
109	0xbd94c288	-0.072636664
110	0x3db02227	0.08600264
111	0x3c04f2a9	0.008114495
112	0xbd9c274f	-0.07624685
113	0xbdb4323e	-0.087986454
114	0xbb3fad10	-0.002924744
115	0x3d11e143	0.035615217
116	0x3d79f2cb	0.06102256
117	0xbcefcdce	-0.02927294
118	0x3b7bfdb9	0.003845079
119	0xbd98ce7f	-0.07461261
120	0x3d7e7e30	0.06213206
121	0x3c47c065	0.0121918665
122	0x3d3c2460	0.045933127
123	0xbc0bf2d2	-0.00854178
124	0x3d1926ed	0.03739064
125	0xbbd1023f	-0.0063784416
126	0x3c76b625	0.015058075
127	0xbd5ea2cb	-0.05435447
128	0x3d76ba0f	0.060236033
129	0xbd936252	-0.071964875
130	0x3dbeeefd	0.09322927
131	0x3c692c7f	0.0142318
132	0xbe07ad94	-0.13249809
133	0x3d857162	0.06515767
134	0xbd9a9d19	-0.07549495
135	0xbd0283a9	-0.031863842
136	0xbc47b6e7	-0.012189603
137	0xbd03b7cb	-0.0321577
138	0x3dc8ed8f	0.09810936
139	0x3cddac84	0.0270598
140	0x3cb04365	0.021516511
141	0xbe68e22a	-0.22742525
142	0xbddb3431	-0.10703314
143	0xbe88943c	-0.26675594
144	0xbdb883d2	-0.09009518
145	0x3d4f7325	0.05064692
146	0x3de69d51	0.112604745
147	0x3e5e970b	0.21737306
148	0x3e294433	0.16529922
149	0xbe0375ad	-0.12837858
150	0xbc0ecdd3	-0.0087160645
151	0xbd8033cb	-0.06259879
152	0xbdb31b2e	-0.087454185
153	0xbe6358e4	-0.22201878
154	0x3d96c00e	0.0736085
155	0xbd727d56	-0.05920156
156	0x3de4f5b1	0.111796744
157	0x3e0c20e4	0.13684422
158	0x3d5b4920	0.053536534
159	0xbdbe571e	-0.0929396
160	0x3df54619	0.11976261
161	0xbb296f13	-0.002585356
162	0x3c77c6b4	0.015123058
163	0xbdc9d7ea	-0.098556355
164	0x3d502cf3	0.050824117
165	0xbcb0b51e	-0.021570738
166	0xbd82fb2a	-0.06395562
167	0x3debce32	0.11513938
168	0x3dbd0d4f	0.09231054
169	0xbcd79107	-0.026314272
170	0xbd4fce5c	-0.05073391
171	0xbd3a5f6c	-0.045501158
172	0xbb14b304	-0.002268971
173	0xbd4c84a1	-0.049931172
174	0xbd10ef73	-0.035384607
175	0x3bf83534	0.0075747017
176	0xbd880214	-0.06641021
177	0x3d909256	0.07059161
178	0x3e05847c	0.1303882
179	0xbdc87fce	-0.09790002
180	0xbb841d81	-0.0040318375
181	0x3d9156b0	0.070966125
182	0x3d1b47ed	0.03791039
183	0xbca1abb5	-0.019735197
184	0x3d3dd9de	0.046350352
185	0x3c4452a7	0.0119825965
186	0xbc04fa6a	-0.008116344
187	0xbd9ec0ea	-0.07751639
188	0xbda6aff0	-0.08139026
189	0xbcbb3b8f	-0.022855548
190	0xbd2fa7b2	-0.042884536
191	0x3bf65bf5	0.0075182864
192	0xbd45f796	-0.04833182
193	0xbcb7ba84	-0.022427805
194	0xbd3b82f0	-0.04577917
195	0xbde79f41	-0.11309672
196	0xbd3eb35f	-0.04655778
197	0xbd8b3e98	-0.06799048
198	0xbc9b3e32	-0.018950555
199	0xbc76304e	-0.015026165
200	0xbdfbcffb	-0.122955285
201	0xbd037ef8	-0.03210351
202	0x3df89a05	0.12138752
203	0x3d797ca2	0.060909875
204	0x3c0088ee	0.007845147
205	0xbdbc2021	-0.091858156
206	0xbd3f8e0e	-0.046766333
207	0xbc2b561b	-0.010457541
208	0x3de56050	0.11200011
209	0x3e4ca926	0.199864
210	0x3d98c497	0.074593715
211	0xbdb93d4f	-0.09044897
212	0xbe66c10a	-0.22534576
213	0xbde51baf	-0.11186921
214	0xbdd0f0de	-0.10202192
215	0x3d754342	0.059878595
216	0xbd551583	-0.05202247
217	0xbdde491e	-0.1085379
218	0xbd3e96af	-0.04653042
219	0xbe067a52	-0.13132599
220	0xbe4b4450	-0.19850278
221	0xbc74b20a	-0.014935026
222	0xbdf31965	-0.11870078
223	0xbd84d824	-0.06486538
224	0xbe11686a	-0.14199987
225	0x3d95f3f7	0.07321923
226	0x3dfe26c7	0.1240974
227	0x3dd4efb8	0.10397285
228	0xbd9465f9	-0.07246012
229	0xbe0b2f3d	-0.13592239
230	0xbe0afcba	-0.1357297
231	0x3de44f27	0.111479096
232	0x3dda894d	0.10670719
233	0x3dd6df30	0.104917884
234	0x3d906275	0.07050029
235	0x3d9fa7b2	0.07795657
236	0x3d49ef25	0.04930033
237	0xbe049984	-0.12949187
238	0xbe0f7540	-0.14009571
239	0xbe27842f	-0.16359018
240	0xbbd5b877	-0.006522234
241	0xbdbafbc6	-0.09130053
242	0xbd98e67e	-0.07465838
243	0xbdf57d17	-0.119867496
244	0xbd5c2f67	-0.053756144
245	0xbd871310	-0.06595433
246	0xbd09e91c	-0.033669576
247	0x3da5a674	0.08088389
248	0xbc8d9987	-0.017285122
249	0x3db25180	0.08706951
250	0xbceaebc9	-0.028676884
251	0xbd9311b4	-0.07181111
252	0xbd662d49	-0.05619553
253	0xbd9bca4a	-0.07606943
254	0xbd40c703	-0.047064792
255	0xbd933d73	-0.07189455

phi.initial_conv_module.0._layers.1.weight f4 [64]
0	0x3f73f34b	0.9529311
1	0x3f88bf2b	1.068334
2	0x3f4d855f	0.80281633
3	0x3f5c9603	0.861664
4	0x3f6f6ce7	0.93525547
5	0x3f93c0c6	1.1543205
6	0x3f672700	0.90293884
7	0x3f8afdac	1.0858665
8	0x3f9a6330	1.206152
9	0x3f96f383	1.1793064
10	0x3f8545d8	1.041194
11	0x3f688173	0.90822524
12	0x3f94c0b2	1.1621306
13	0x3f986cb6	1.1908176
14	0x3f96a7e9	1.1769992
15	0x3f80a418	1.0050077
16	0x3f78091a	0.9688889
17	0x3f74c290	0.9560938
18	0x3f880637	1.0626897
19	0x3f88b7bf	1.0681075
20	0x3f61699b	0.88051766
21	0x3f90e923	1.1321148
22	0x3f7dd08c	0.9914634
23	0x3f9e1526	1.2350204
24	0x3f8d0e36	1.1019962
25	0x3f789a3a	0.9711033
26	0x3f8ff4cb	1.124658
27	0x3fa01f86	1.250962
28	0x3f969f58	1.1767378
29	0x3f770ec0	0.9650688
30	0x3f916dc3	1.1361622
31	0x3f43b754	0.7645161
32	0x3f7ea126	0.99464643
33	0x3f897575	1.073897
34	0x3f876054	1.0576272
35	0x3f8e3310	1.1109333
36	0x3f8237ae	1.0173242
37	0x3f8d73e7	1.1050996
38	0x3f930c83	1.1488193
39	0x3f71ac8c	0.9440391
40	0x3f3c3d8f	0.7353143
41	0x3f7f0f4e	0.9963273
42	0x3f6b4f8f	0.9191827
43	0x3f4a5904	0.7904208
44	0x3f90e791	1.1320668
45	0x3f969a87	1.1765908
46	0x3f283b17	0.65715164
47	0x3f8c0095	1.0937678
48	0x3f6ee81c	0.9332292
49	0x3f74f480	0.9568558
50	0x3f922d39	1.1420051
51	0x3f952204	1.1651006
52	0x3f144b14	0.5792706
53	0x3f568dac	0.83809924
54	0x3f4ffa61	0.8124142
55	0x3f8776b0	1.0583096
56	0x3f955f16	1.1669643
57	0x3f82c17d	1.0215298
58	0x3f72dd2b	0.94868726
59	0x3f87e003	1.0615238
60	0x3f7f7b26	0.99797285
61	0x3f7b61a6	0.98195875
62	0x3f58b0ea	0.8464495
63	0x3f9afdec	1.2108741

phi.initial_conv_module.0._layers.1.bias f4 [64]
0	0xbddf2164	-0.10895041
1	0x3e41f4f0	0.18941092
2	0x3dbda667	0.09260254
3	0xbdb19c06	-0.08672337
4	0xbbb53b0b	-0.00553072
5	0xbe068ae0	-0.13138914
6	0x3e211094	0.1572898
7	0x3e4fe92f	0.20303796
8	0x3e83a290	0.25709963
9	0xbdbc1f6b	-0.0918568
10	0xbe54d653	-0.20784883
11	0x3dac0d47	0.0840097
12	0xbdf09a0c	-0.11748132
13	0xbecef4c0	-0.40421104
14	0x3e3b740e	0.1830599
15	0xbdeea58e	-0.11652671
16	0xbe3c4d3a	-0.18388835
17	0xbeda245c	-0.42605865
18	0x3d0024a3	0.03128494
19	0xbec24893	-0.37945995
20	0xbd44c723	-0.048041474
21	0x3d70ed48	0.05882004
22	0x3d579efe	0.05264186
23	0xbe93b8b8	-0.28851867
24	0xbdd1efa7	-0.10250788
25	0xbce8458a	-0.028353471
26	0xbd85808f	-0.06518661
27	0x3d09fede	0.033690326
28	0x3c85ebc6	0.016347777
29	0x3d04c652	0.032415695
30	0xbe82df79	-0.2556112
31	0x3eb56249	0.35426548
32	0xbe697dfb	-0.22801964
33	0x3e4e1c37	0.2012795
34	0xbd63f8bc	-0.055657133
35	0x3bfbb715	0.007681737
36	0xbe5dc841	-0.21658422
37	0x3d32393d	0.043511618
38	0xbe547ba1	-0.20750286
39	0x3aa6680d	0.0012695804
40	0x3e876243	0.26442155
41	0xbd833643	-0.06406834
42	0x3debb143	0.11508419
43	0x3dfa9786	0.12235932
44	0xbd835833	-0.06413307
45	0xbe95cc47	-0.29257414
46	0x3eb7887d	0.3584632
47	0xbd91bd51	-0.07116187
48	0xbda49288	-0.08035761
49	0xbe651e13	-0.22374754
50	0xbde8df2b	-0.11370691
51	0x3ea76c69	0.32699898
52	0x3ea625bd	0.32450667
53	0x3d98e9f5	0.07466499
54	0x3e3f3eef	0.18676351
55	0x3e0a64e7	0.13515054
56	0xbd943e3b	-0.07238432
57	0x3e6e957a	0.23299208
58	0x3cbe9b78	0.023267493
59	0xbd5cd9ee	-0.05391877
60	0xbd83ec30	-0.064415336
61	0xbde09c3c	-0.10967299
62	0xbdc22402	-0.09479524
63	0xbe205781	-0.1565838

phi.initial_conv_module.0._layers.1.running_mean f4 [64]
0	0x3fe8d53f	1.8190078
1	0x3f0b074a	0.54308
2	0xbdec7175	-0.11545078
3	0x3dae40ab	0.08508428
4	0x3e2fdc3b	0.17173855
5	0xbfe2df50	-1.77244
6	0xbf127b22	-0.57219136
7	0x3f097a45	0.53702193
8	0x3e483062	0.19549707
9	0x3ef098f1	0.46991685
10	0x3e48ef69	0.19622578
11	0xbf6f6262	-0.93509495
12	0x3eb7313a	0.35779744
13	0x3b610997	0.0034337991
14	0x3eb03a16	0.34419316
15	0x3f940d65	1.1566588
16	0xbd734b03	-0.05939771
17	0x3f276d89	0.6540151
18	0x3f86894e	1.0510652
19	0x3f5c8c20	0.86151314
20	0x3f11044a	0.5664717
21	0x3f1526b4	0.5826218
22	0xbe4fc31a	-0.20289269
23	0xbd381a06	-0.044946693
24	0x3f847c67	1.0350465
25	0x3e76a63c	0.24086851
26	0x3f49661b	0.78671426
27	0x3fbc140d	1.4693619
28	0x3e58a255	0.21155675
29	0x3e8f0337	0.2793214
30	0x3eb16272	0.3464542
31	0x3eadd71a	0.33953172
32	0x3de3f838	0.11131328
33	0x3fe9bac9	1.8260127
34	0x3e20bc25	0.15696771
35	0x3bd1105f	0.0063801254
36	0x3e1ba3a8	0.15199149
37	0xbe84bfaf	-0.25927493
38	0xbe16e736	-0.14736637
39	0x3e2af003	0.1669312
40	0xbea7ce95	-0.32774797
41	0x3e8f82af	0.2802939
42	0xbd914ee8	-0.07095128
43	0xbf629a29	-0.8851648
44	0x3eabda5a	0.33565027
45	0xbdf24dfa	-0.11831279
46	0xbf8e8bfa	-1.1136467
47	0x3f4cadad	0.7995251
48	0x3f5382bd	0.82621366
49	0xbe3bccd8	-0.1833986
50	0x3dc4e606	0.09614186
51	0x3f37b677	0.71762794
52	0xbef5f66b	-0.48039564
53	0x3e6c6187	0.23084079
54	0x3f8ea5be	1.114433
55	0xbf5bbd2a	-0.85835516
56	0xbf7bb111	-0.98317057
57	0x3c9ea4c3	0.019365674
58	0xbe876963	-0.2644759
59	0xbea2692e	-0.3172087
60	0x3d184abe	0.037180655
61	0x3f97098f	1.1799792
62	0x3c75f12d	0.015011114
63	0x3f8b67f7	1.0891103

phi.initial_conv_module.0._layers.1.running_var f4 [64]
0	0x3f03644a	0.51324904
1	0x3ebf0169	0.37305763
2	0x3e4c1823	0.19931082
3	0x3f1d7ec2	0.6152154
4	0x3e31d847	0.1736766
5	0x3f386808	0.7203374
6	0x3f254fa7	0.64574665
7	0x3f08b28f	0.5339746
8	0x3fae97dd	1.3640095
9	0x3e8a8f7c	0.27062595
10	0x3e4d4f6d	0.2004983
11	0x3eac3aae	0.3363852
12	0x3e8db40e	0.27676433
13	0x3ec19ab9	0.37813357
14	0x3f308ca7	0.6896462
15	0x3ec10c97	0.37704918
16	0x3e67ce9f	0.22637413
17	0x3fe259d2	1.7683661
18	0x3f20a862	0.6275693
19	0x3ec2985a	0.3800686
20	0x3f1c69aa	0.6109873
21	0x3f17eac4	0.593426
22	0x3ec4bfb3	0.38427505
23	0x3e99279e	0.29913038
24	0x3f59df75	0.85106593
25	0x3e94dcd2	0.29074723
26	0x3e64871c	0.22317165
27	0x3fce07af	1.6096095
28	0x3e83ed37	0.25766918
29	0x3f2427ed	0.6412342
30	0x3e9e69e5	0.30940166
31	0x3ea3b2b9	0.31972292
32	0x3ecd15a5	0.40055576
33	0x3fca3188	1.5796366
34	0x3ecb85a7	0.39750406
35	0x3f20ab12	0.6276103
36	0x3e751f42	0.23937705
37	0x3e9e8608	0.30961633
38	0x3e238751	0.15969588
39	0x3f2d9c5a	0.678167
40	0x3e704da8	0.23467124
41	0x3e584895	0.21121438
42	0x3f08fa00	0.5350647
43	0x3fe9caac	1.8264976
44	0x3f397e47	0.7245831
45	0x3ea40a20	0.32038975
46	0x3ffbe63c	1.9679637
47	0x3f155048	0.58325624
48	0x3ef7af93	0.4837614
49	0x3e93c283	0.28859338
50	0x3ea5ae70	0.32359648
51	0x3fc8f6f8	1.5700369
52	0x3ecc7ae4	0.39937508
53	0x3eea818d	0.45801964
54	0x3ee9010d	0.45508614
55	0x3f1ec4ce	0.6201905
56	0x3f88ac55	1.0677592
57	0x3e9c4c9b	0.30527195
58	0x3e970e1a	0.29502946
59	0x3eaff6d6	0.34368008
60	0x3e95d36c	0.29262865
61	0x3f24765d	0.6424311
62	0x3f408e6b	0.7521731
63	0x3f0840b7	0.53223747

phi.initial_conv_module.0._layers.4.conv.weight f4 [64, 1, 5]
0	0xbec0ad9a	-0.37632447
1	0x3ebfc5f7	0.37455723
2	0x3e7dd3ed	0.24787875
3	0x3e7170f5	0.23578246
4	0xbe93a280	-0.28834915
5	0x3ec44b2a	0.38338596
6	0xbe7d4b64	-0.2473579
7	0x3e8709c0	0.26374626
8	0xbd609d56	-0.054837547
9	0xbebac5fb	-0.36479172
10	0xbe4b351d	-0.1984448
11	0xbed28e66	-0.41124266
12	0xbdff9656	-0.12479846
13	0xbe939c99	-0.28830412
14	0xbe90e8cd	-0.28302613
15	0x3eaacd58	0.3335979
16	0xbd979320	-0.07401109
17	0x3e48c4b8	0.19606292
18	0x3d170e43	0.036878835
19	0x3ec7b391	0.39004186
20	0x3e5e58ff	0.21713637
21	0x3efe67cf	0.49688575
22	0x3e417cc0	0.18895245
23	0xbe7b009d	-0.24511953
24	0x3d8a4442	0.067513004
25	0xbe84855c	-0.25882995
26	0xbec6d7ae	-0.38836426
27	0x3dd419f4	0.10356513
28	0xbcbe377c	-0.023219816
29	0xbdfb3d92	-0.12267603
30	0x3e42f483	0.19038586
31	0x3d7fa197	0.062409963
32	0xbdba5a1c	-0.09099218
33	0xbe29abd0	-0.16569448
34	0xbe54f71b	-0.20797388
35	0xbe03fc13	-0.12889127
36	0x3e16059e	0.1465058
37	0x3ee080bd	0.4384822
38	0xbe84fedd	-0.25975695
39	0xbe7ca630	-0.2467277
40	0xbe3adca8	-0.18248236
41	0x3e1bc39e	0.15211341
42	0x3c64289b	0.013925697
43	0xbea6604f	-0.32495353
44	0x3e7a74a5	0.24458559
45	0xbeccd07c	-0.4000281
46	0x3ecfc966	0.40583342
47	0x3db6904b	0.089142404
48	0xbd7e9f12	-0.06216342
49	0xbe6336fc	-0.22188944
50	0x3d3cf5e3	0.046132933
51	0x3e98196e	0.297069
52	0xbdffcdc2	-0.12490417
53	0x3e3d907a	0.18512145
54	0x3f0381ec	0.5137012
55	0xbbc2ea7e	-0.005948364
56	0xbe84ecc3	-0.25961885
57	0xbe5ab470	-0.21357894
58	0xbe3449f4	-0.17606336
59	0xbda67113	-0.08127036
60	0xbe8d3adf	-0.27583978
61	0xbea3f864	-0.32025445
62	0x3de068ab	0.10957464
63	0x3edac809	0.4273074
64	0x3e95a9a1	0.2923098
65	0xbe2dcc5d	-0.1697249
66	0x3df75c0a	0.12078102
67	0xbe4c1d85	-0.19933136
68	0x3ee4da07	0.44697592
69	0x3ef2f54e	0.47452778
70	0x3e709460	0.234941
71	0xbdc2dedf	-0.095151655
72	0x3ec5d252	0.38637024
73	0xbee67c36	-0.4501664
74	0xbe19de5f	-0.15026234
75	0x3e6a197f	0.22861288
76	0xbeae58d7	-0.34052154
77	0xbecbf971	-0.39838746
78	0xbea52ab1	-0.32259133
79	0x3ddb7c56	0.107170746
80	0xbe1e05bf	-0.1543188
81	0x3e5fe136	0.21863255
82	0x3c8e76c5	0.017390618
83	0x3e9a7d94	0.30173934
84	0xbdc3b580	-0.09556103
85	0x3eee550a	0.46549255
86	0x3ef5c928	0.48005033
87	0xbe96ce97	-0.2945449
88	0xbe80e1cc	-0.2517227
89	0x3e747218	0.23871648
90	0x3ea2e7ef	0.31817576
91	0xbede30da	-0.43396646
92	0xbd92ceaf	-0.07168328
93	0xbe5bc565	-0.21462019
94	0x3eebf0f3	0.46082267
95	0x3e5c38f4	0.21506101
96	0x3f207265	0.6267455
97	0x3eb2e2f3	0.34938774
98	0xbe4c59f0	-0.19956183
99	0x3e34430f	0.17603706
100	0xbd9e4856	-0.07728641
101	0x3df1b8f2	0.11802854
102	0x3c1ca4de	0.009560792
103	0xbec7f655	-0.39055124
104	0xbea45421	-0.32095435
105	0x3e2d981a	0.16952553
106	0xba8a9aac	-0.001057466
107	0xbe91cdfc	-0.28477466
108	0xbd87680f	-0.066116445
109	0x3e0ec027	0.13940488
110	0xbd997ed2	-0.07494892
111	0x3ea3018f	0.31837127
112	0xbec23790	-0.37933016
113	0xbe38972d	-0.18026419
114	0xbf044362	-0.5166532
115	0xbed703ce	-0.4199509
116	0xbd9d2210	-0.076725125
117	0x3ec7e724	0.39043534
118	0x3eda4919	0.42633894
119	0x3e5d8244	0.21631724
120	0x3eabac62	0.33529955
121	0xbde7e063	-0.11322095
122	0x3e9b04a8	0.3027699
123	0x3e433799	0.19064178
124	0xbeffa01c	-0.4992684
125	0x3be72e37	0.00705507
126	0x3e6b4528	0.229756
127	0xbe00519f	-0.12531136
128	0xbf1e83cd	-0.6191986
129	0xbead02e7	-0.33791277
130	0x3ea9cc26	0.33163565
131	0x3ead9ebc	0.33910167
132	0x3e00999e	0.125586
133	0xbeed14f9	-0.46305063
134	0x3e868bad	0.2627844
135	0xbeb34a83	-0.35017785
136	0x3df75970	0.12077606
137	0xbd87ad7b	-0.06624886
138	0x3d26538d	0.040607024
139	0x3e7bdbbf	0.24595545
140	0xbdcfc23e	-0.10144471
141	0xbe01279a	-0.12612763
142	0x3eb07c52	0.3446985
143	0xbecaa959	-0.39582327
144	0x3e5d69d3	0.216224
145	0xbe2c3cf7	-0.16820131
146	0xbe810a48	-0.25203156
147	0x3e8622da	0.26198465
148	0xbc986bde	-0.018606123
149	0xbec930c0	-0.39295006
150	0x3efd0cfd	0.49423972
151	0xbe53c276	-0.2067965
152	0x3ec6b053	0.388064
153	0xbdabb288	-0.083836615
154	0x3ec042b6	0.37550896
155	0x3e12162b	0.14266269
156	0xbc0bd88f	-0.008535518
157	0x3e11224f	0.14173244
158	0xbd486860	-0.048927665
159	0xbe93ea02	-0.2888947
160	0x3dc13df8	0.09435648
161	0x3e09dbb6	0.1346272
162	0xbace70ed	-0.0015750207
163	0x3f1e28fd	0.61781293
164	0x3d4779d9	0.048700187
165	0xbea2ad5d	-0.3177289
166	0xbe653a11	-0.22385432
167	0x3ead816d	0.33887807
168	0xbe0128ad	-0.12613173
169	0x3e8d90ea	0.27649623
170	0xbee64073	-0.44971046
171	0xbbbe6b9e	-0.005811169
172	0xbe55671f	-0.20840119
173	0x3e82fe54	0.25584662
174	0x3ec6d42d	0.38833752
175	0x3e47791a	0.1947979
176	0xbe019310	-0.12653756
177	0xbeb9be59	-0.36278036
178	0xbebd30df	-0.36951348
179	0xbe903662	-0.2816649
180	0x3ec9ce45	0.39415184
181	0x3e396f7a	0.18108931
182	0x3ef67b97	0.48141167
183	0x3e990806	0.29888934
184	0x3c322d40	0.010875046
185	0xbedff475	-0.43741193
186	0xbdcb44f9	-0.09925265
187	0xbe717168	-0.23578417
188	0x3e2b0647	0.16701613
189	0xbe2e3b17	-0.17014728
190	0xbd8adbd4	-0.0678021
191	0x3eb33459	0.35000876
192	0x3e041e76	0.12902245
193	0x3dc54071	0.09631432
194	0xbe85f5ec	-0.26164186
195	0x3e8f5f12	0.2800222
196	0x3dd54670	0.104138255
197	0xbd365c24	-0.044521466
198	0x3d4b9983	0.049706947
199	0xbecd950f	-0.40152785
200	0xbae1ca59	-0.0017226442
201	0x3db599fa	0.08867259
202	0xbefe435d	-0.4966077
203	0xbe7cdeb8	-0.24694335
204	0x3e90d175	0.28284803
205	0x3d76391b	0.060113054
206	0xbc97598a	-0.018475313
207	0x3e1a856e	0.15089962
208	0x39ba6525	0.00035552043
209	0x3ec707ef	0.3887324
210	0x3cb75b97	0.02238254
211	0xbd1920a7	-0.037384655
212	0x3e650ff0	0.22369361
213	0xbeefae64	-0.46812737
214	0xbe6838c5	-0.22677906
215	0xbca0598b	-0.019573947
216	0xbe427119	-0.18988456
217	0x3e9415b3	0.28922805
218	0xbeb70f29	-0.35753754
219	0xbdd8ad01	-0.10579873
220	0xbd23c322	-0.039981015
221	0x3f0d0cb4	0.5509751
222	0x3ed4b17c	0.4154166
223	0xbe576727	-0.21035443
224	0x3dba01cb	0.09082373
225	0xbdfa8ac0	-0.12233496
226	0x3e9e5fcf	0.3093247
227	0x3ef61177	0.480602
228	0x3d9fa6ea	0.07795508
229	0x3ec90469	0.39261177
230	0xbe5e17bc	-0.21688741
231	0xbe4b5501	-0.19856645
232	0x3d32b728	0.043631703
233	0x3ec76235	0.38942114
234	0x3d2eadf1	0.042646352
235	0xbf1b94ab	-0.60773724
236	0xbe1e1efb	-0.15441506
237	0x3ec684c8	0.3877318
238	0xbe218bc4	-0.15775973
239	0xbdd08d63	-0.101832174
240	0xbee79c1d	-0.45236292
241	0xbe8effdb	-0.27929577
242	0xbe61bfe1	-0.22045852
243	0x3dcd497a	0.1002378
244	0x3e2db23e	0.16962525
245	0x3ed19bff	0.40939328
246	0x3f126ebd	0.57200223
247	0x3df0695e	0.11738847
248	0x3e2a439b	0.16627352
249	0xbb9c531c	-0.0047706496
250	0xbebcec31	-0.3689895
251	0x3d31b22a	0.0433828
252	0xbf1d2619	-0.6138626
253	0x3e2888e5	0.16458471
254	0xbe44dd05	-0.19224937
255	0x3e234e1c	0.15947765

phi.initial_conv_module.0._layers.5.weight f4 [64]
0	0x3f6759b8	0.90371275
1	0x3f7f901e	0.9982928
2	0x3f8d54e1	1.1041528
3	0x3f766e90	0.96262455
4	0x3f5f585e	0.8724421
5	0x3f88b633	1.0680603
6	0x3f8a3ead	1.0800377
7	0x3f9e1142	1.2349017
8	0x3f9bd383	1.2173923
9	0x3f596da5	0.8493293
10	0x3f7e016e	0.9922093
11	0x3f864682	1.0490267
12	0x3f8d648b	1.1046308
13	0x3f78780d	0.9705818
14	0x3f95bc14	1.1698022
15	0x3f919adb	1.1375383
16	0x3f7b063c	0.9805639
17	0x3f74fb0e	0.9569558
18	0x3f818586	1.0118873
19	0x3f74dd2d	0.9564999
20	0x3f8eae0d	1.1146866
21	0x3fa3cfc2	1.2797778
22	0x3f7d5237	0.98953575
23	0x3f88030b	1.0625929
24	0x3f7fa415	0.99859744
25	0x3f6ade6b	0.9174563
26	0x3f7c4412	0.9854137
27	0x3f89a9fe	1.0755002
28	0x3f96f1fc	1.1792598
29	0x3f725cf6	0.946731
30	0x3f7b727e	0.98221576
31	0x3f8f366a	1.1188481
32	0x3f6d9fbe	0.9282187
33	0x3f9790c0	1.1841049
34	0x3f89d309	1.0767528
35	0x3f877c61	1.0584832
36	0x3f82e792	1.022692
37	0x3f8abd4f	1.0839022
38	0x3f979769	1.1843082
39	0x3f9de23f	1.233467
40	0x3f838126	1.0273788
41	0x3f724551	0.9463702
42	0x3f8e32f6	1.1109302
43	0x3f98713d	1.1909558
44	0x3f8ad4da	1.0846207
45	0x3f8543df	1.0411338
46	0x3f983f76	1.1894367
47	0x3f826c23	1.0189251
48	0x3f83045e	1.0235708
49	0x3f7d9901	0.9906159
50	0x3f83e6c8	1.0304804
51	0x3fa77ffb	1.3085932
52	0x3f960f47	1.1723412
53	0x3f842180	1.0322723
54	0x3f8a76aa	1.0817463
55	0x3f801503	1.0006412
56	0x3f7e3b1d	0.9930895
57	0x3f998d9e	1.1996343
58	0x3f8ecb2a	1.1155751
59	0x3f8dbded	1.1073586
60	0x3f8ec8bc	1.1155009
61	0x3f929b2f	1.1453608
62	0x3f5b08ad	0.85560113
63	0x3f8767b0	1.0578518

phi.initial_conv_module.0._layers.5.bias f4 [64]
0	0x3d685607	0.056722667
1	0x3e55622d	0.20838232
2	0xbce9636b	-0.028489789
3	0x3d56d842	0.052452333
4	0xbd3bd257	-0.045854893
5	0xbc28beec	-0.010299426
6	0x3df37719	0.118879505
7	0x3ed66162	0.41871172
8	0xbe8d4a0b	-0.27595553
9	0xbd72c0d7	-0.059265938
10	0x3d8ce2a1	0.068791635
11	0x3c92c6e7	0.01791711
12	0x3e2f1de5	0.17101248
13	0xbddd9153	-0.10818734
14	0x3ee02d29	0.43784454
15	0x3e24a2f0	0.1607778
16	0xbd1b5298	-0.037920564
17	0xbd9fe74f	-0.078077905
18	0xbd485f1f	-0.04891884
19	0x3d6fdcd2	0.0585602
20	0xbd380f4a	-0.044936456
21	0x3befdf8a	0.007320349
22	0x3da860c9	0.08221585
23	0x3e833ee3	0.25633916
24	0x3e0538ab	0.13009898
25	0x3db2cd60	0.087305784
26	0xbce9c935	-0.028538326
27	0x3e757f2b	0.23974292
28	0xbde9edf9	-0.11422343
29	0xbd9d3377	-0.07675832
30	0xbc990014	-0.018676795
31	0x3d45c4c8	0.04828337
32	0xbda49a06	-0.0803719
33	0xbdc3def6	-0.09564011
34	0x3e18382d	0.1486518
35	0x3d3fdb72	0.04684014
36	0xbdc1d315	-0.09464089
37	0x3e0e0b11	0.13871409
38	0x3e8d3bdc	0.27584732
39	0x3d9d47af	0.07679688
40	0x3dc74ff5	0.097320475
41	0xbe074065	-0.13208158
42	0x3e7665ce	0.24062273
43	0xbe138c78	-0.14409053
44	0x3e91a8f9	0.28449228
45	0x3d52e0f0	0.05148405
46	0x3d99e272	0.07513894
47	0xbcf1499f	-0.02945405
48	0xbbe0faee	-0.0068658506
49	0xbd89b983	-0.06724837
50	0x3df8b103	0.12143137
51	0x3e8f2e4f	0.27965018
52	0x3e69daae	0.22837326
53	0xbe26cb05	-0.16288383
54	0x3e3acdfe	0.18242642
55	0x3df9ee54	0.122036606
56	0xbcc2640a	-0.023729343
57	0x3cd18fee	0.025581326
58	0x3da6429c	0.081181735
59	0x3e5d46dd	0.21609063
60	0x3e89b5e2	0.26896578
61	0xbb6860f4	-0.003545818
62	0xbe1b48f1	-0.15164544
63	0xbd6ae1d7	-0.057344284

phi.initial_conv_module.0._layers.5.running_mean f4 [64]
0	0x3c4da023	0.012550387
1	0xbbc4148a	-0.0059838938
2	0xbe404ffa	-0.18780509
3	0x3d89ca53	0.067280434
4	0x3da4e89c	0.08052179
5	0xbdacafe1	-0.08431984
6	0xbd2d20b4	-0.042267516
7	0xbc87b9b5	-0.016568044
8	0xbd0aebf7	-0.03391644
9	0xbcd63f02	-0.026153091
10	0x3d88a5f1	0.06672276
11	0xbdffe6e7	-0.12495213
12	0x3d028e47	0.031873967
13	0x3ce571ce	0.028008368
14	0xbcd17b9f	-0.025571642
15	0xbd9dd6f6	-0.07707016
16	0x3ca2fab6	0.019894939
17	0xbc2b0c3c	-0.010439929
18	0x3c2ebe80	0.010665536
19	0x3d1b5ec3	0.03793217
20	0xbd848fc3	-0.06472733
21	0xbc184bfe	-0.009295462
22	0xbe04bdc8	-0.12963021
23	0x3d30d5ea	0.043172754
24	0x3d09bb3b	0.033625823
25	0xbdfd5698	-0.12370032
26	0x3ddb2426	0.10700254
27	0xbb0ca2a6	-0.002145925
28	0xbc5b323f	-0.013378679
29	0xbdaa77df	-0.08323645
30	0x3d999470	0.07499015
31	0xbc9e9440	-0.0193578
32	0x3d53c987	0.051705863
33	0xbc7d9ca0	-0.015479237
34	0xbb14eeb5	-0.0022725288
35	0xbe20771c	-0.15670437
36	0x3d92fc3f	0.071770184
37	0xbe27e53b	-0.16396038
38	0x3ca4e227	0.02012737
39	0xbacc84fd	-0.0015603598
40	0xbdb41c5b	-0.08794471
41	0x3da5a6cf	0.08088457
42	0xbdca5e06	-0.09881215
43	0xbd8a17b6	-0.06742804
44	0x3e0104f3	0.12599544
45	0x3da04a24	0.07826641
46	0x3ca0de83	0.019637352
47	0xbdad6dba	-0.08468194
48	0xbd95bee6	-0.073118016
49	0x3d8c4a9d	0.06850169
50	0xbe166ecc	-0.14690703
51	0xbc988318	-0.018617198
52	0xbd5a5489	-0.053303275
53	0xbdc9ead2	-0.098592415
54	0xbcf888a6	-0.030338597
55	0xbe40baf6	-0.1882132
56	0xbdf3b1b7	-0.11899131
57	0xbc06319d	-0.00819054
58	0xbd427f7e	-0.047484867
59	0xbd8dfa91	-0.069325574
60	0x3d08e85b	0.033424716
61	0xbd9d94ed	-0.07694421
62	0x3d938bc3	0.07204392
63	0xbac8ba6d	-0.0015314348

phi.initial_conv_module.0._layers.5.running_var f4 [64]
0	0x3c85c954	0.016331352
1	0x3d13c121	0.036072854
2	0x3ea207b6	0.31646508
3	0x3de4cb7b	0.11171623
4	0x3dfdecf5	0.123987116
5	0x3e5b225b	0.21399824
6	0x3c74627b	0.014916058
7	0x3d1d78da	0.03844533
8	0x3c8d7de1	0.017271938
9	0x3cdf2ab0	0.027242035
10	0x3e267450	0.16255307
11	0x3e24dba3	0.1609941
12	0x3e4657bd	0.19369407
13	0x3e566176	0.20935616
14	0x3d177e39	0.03698561
15	0x3e819ed1	0.2531648
16	0x3d0a7586	0.033803485
17	0x3d613012	0.054977484
18	0x3cf5950a	0.029978294
19	0x3e9d8816	0.30767888
20	0x3e0f9c82	0.14024547
21	0x3beda61f	0.007252469
22	0x3e805be6	0.25070113
23	0x3e46818d	0.19385357
24	0x3d346e25	0.044050355
25	0x3e29bb5c	0.16575378
26	0x3e258f6e	0.16167995
27	0x3ccc083f	0.024906276
28	0x3c51b853	0.012800294
29	0x3da34afa	0.07973285
30	0x3e98cb6f	0.29842708
31	0x3c1e6216	0.00966694
32	0x3e8e1840	0.27752876
33	0x3d0a6098	0.033783525
34	0x3d3a2ba8	0.04545179
35	0x3eecf2ee	0.4627909
36	0x3f29e700	0.66368103
37	0x3e93c09b	0.28857884
38	0x3d59dedd	0.053191055
39	0x3c982c90	0.018575937
40	0x3d5c4fa0	0.053786874
41	0x3dae5e75	0.0851411
42	0x3deda404	0.11603549
43	0x3d115d54	0.035489395
44	0x3f01ff28	0.5077996
45	0x3f4a1386	0.7893604
46	0x3bd30aa3	0.006440477
47	0x3e0bed2c	0.13664693
48	0x3e10943e	0.1411905
49	0x3e5dc8cf	0.21658634
50	0x3e8fbafe	0.2807235
51	0x3d02555e	0.031819694
52	0x3cc22b03	0.02370215
53	0x3d93ca53	0.07216325
54	0x3c8f7192	0.01751021
55	0x3e8877ad	0.26653805
56	0x3ea93baf	0.33053347
57	0x3cc85705	0.024455557
58	0x3cf9d6b4	0.030497886
59	0x3dc7c567	0.097544484
60	0x3e5660cf	0.20935367
61	0x3dfbb400	0.12290192
62	0x3e0603be	0.13087365
63	0x3c6fd20e	0.014637483

phi.initial_conv_module.0._layers.7.se_conv.conv.weight f4 [10, 64, 1]
0	0x3e84061c	0.2578591
1	0xbd9a347d	-0.075295426
2	0x3d0a01e3	0.033693206
3	0x3c93b063	0.018028444
4	0xbded5d5e	-0.11590074
5	0xbd0f87ee	-0.035041742
6	0xbea32d5a	-0.31870538
7	0x3e1fee81	0.15618326
8	0x3d74588e	0.059654765
9	0xbd38643d	-0.04501747
10	0xbde9e4dd	-0.11420605
11	0xbd9d7121	-0.07687593
12	0xbe95a8ef	-0.2923045
13	0xbe2f44d8	-0.17116106
14	0xbdc7c1d7	-0.09753769
15	0x3e7d9a28	0.24765837
16	0xbe656f01	-0.22405626
17	0x3e8ed579	0.27897242
18	0xbea181e0	-0.315444
19	0xbee44b97	-0.4458892
20	0xbd9fc175	-0.07800571
21	0xbe988aa1	-0.29793265
22	0x3e385ecf	0.18004917
23	0xba66c105	-0.0008802566
24	0xbecd9dc6	-0.40159434
25	0xbd9fea25	-0.078083314
26	0xbdd533dc	-0.10410282
27	0xbbe5ba95	-0.0070107677
28	0x3d7336a0	0.059378266
29	0xbe1f73f0	-0.1557157
30	0xbe19ed5a	-0.15031949
31	0xbb96a986	-0.0045978455
32	0xbe6518d9	-0.2237276
33	0xbdcda56b	-0.100413166
34	0xbe36ff87	-0.17870913
35	0x3e590a82	0.21195415
36	0xbeb3e470	-0.3513522
37	0x3d2b53de	0.04182803
38	0xbe97cc09	-0.29647854
39	0xbee991da	-0.45619088
40	0xbc05b8df	-0.0081617525
41	0x3e77a450	0.24183774
42	0x3e4c5c5b	0.19957106
43	0x3e00f04d	0.12591667
44	0xbeaacd53	-0.33359775
45	0xbe3d4ae9	-0.18485607
46	0x3e5b3e93	0.21410589
47	0xbe37c615	-0.17946656
48	0x3e200605	0.15627296
49	0xbc303744	-0.010755364
50	0xbe3c9061	-0.18414451
51	0x3d366d43	0.044537794
52	0x3e71ae5e	0.23601672
53	0xbd58ed14	-0.05296047
54	0x3e75ef1a	0.24016991
55	0x393df21d	0.00018114639
56	0x3e157ed4	0.14599162
57	0xbdfec69b	-0.12440225
58	0x3ddf14be	0.10892628
59	0x3e4061b1	0.18787266
60	0xbeb58934	-0.3545624
61	0xbcbc1e64	-0.02296371
62	0x3dbe2291	0.09283937
63	0xbc5dae91	-0.013530389
64	0x3d98c831	0.074600585
65	0x3cfceefc	0.030875675
66	0x3e27f181	0.1640072
67	0x3eb5da5c	0.35518157
68	0xbd8e006f	-0.069336765
69	0x3e75d746	0.24007902
70	0x3d927f80	0.07153225
71	0xbcab7053	-0.020927584
72	0xbe259019	-0.1616825
73	0x3e53918c	0.2066099
74	0x3e3916be	0.18075082
75	0x3e8eeb4b	0.2791389
76	0xbe1006cc	-0.14065093
77	0xbe033c4e	-0.12815973
78	0x3e678b5f	0.2261176
79	0x3e3fbb0e	0.187237
80	0xbe454e5e	-0.19268176
81	0xbb966148	-0.0045892335
82	0x3d3ca2c3	0.04605366
83	0xbe74e6a3	-0.23916106
84	0xbe6f6bc4	-0.23380953
85	0x3da0b27a	0.07846542
86	0x3d91e2ee	0.071233615
87	0xbe7aa4b0	-0.24476886
88	0xbe3923a6	-0.18080005
89	0xbe124867	-0.14285432
90	0xbe74aafe	-0.23893353
91	0xbe084e97	-0.1331123
92	0x3e75ac51	0.23991515
93	0xbdc8618e	-0.09784232
94	0xbed2376a	-0.41057903
95	0xbda349d0	-0.07973063
96	0xbdff677e	-0.124709114
97	0xbdc532c8	-0.096288264
98	0x3e39cf7b	0.18145554
99	0x3dec3292	0.11533083
100	0xbef31692	-0.47478157
101	0x3d90d609	0.07072074
102	0xbec411cb	-0.38294825
103	0x3e0ff620	0.14058733
104	0x3d123b0c	0.035700843
105	0x3cacf0a8	0.021110848
106	0xbd468e24	-0.0484754
107	0xbd2db5b6	-0.04240962
108	0x3e0ca70b	0.13735597
109	0xbe7ea6a1	-0.24868251
110	0x3e9f1060	0.3106718
111	0xbd8ab3c9	-0.067725725
112	0x3db15f97	0.086608104
113	0xbd624f82	-0.055251606
114	0x3de8ec43	0.11373188
115	0x3d235dd4	0.039884403
116	0xbd948833	-0.072525404
117	0x3d6896ae	0.056784324
118	0x3e8ef11a	0.2791832
119	0x3e145b1e	0.14487883
120	0x3e5f7d4e	0.21825144
121	0x3d75e32e	0.06003111
122	0x3daa81a5	0.08325509
123	0x3e39a619	0.18129767
124	0xbe074548	-0.13210022
125	0x3e2e8e13	0.17046385
126	0x3dc0c26e	0.094120845
127	0xbdcb85e4	-0.09937647
128	0x3e810f8d	0.25207177
129	0x3e5a3e63	0.21312861
130	0x3e1b2f1a	0.15154687
131	0x3d8cc597	0.06873625
132	0xbd849035	-0.06472818
133	0x3debfbc1	0.115226276
134	0x3e09decc	0.13463897
135	0x3cd86409	0.026414888
136	0x3def7634	0.11692467
137	0x3e01af85	0.12664612
138	0xbe181d4d	-0.14854927
139	0xbd24ba79	-0.040216897
140	0xbe32d5f0	-0.17464423
141	0xbe6b8f4a	-0.23003879
142	0x3e1c63ea	0.15272489
143	0xbe24b3d5	-0.16084225
144	0x3dcbdc5d	0.0995414
145	0x3d5739d6	0.05254539
146	0xbd7bf28a	-0.0615106
147	0x3d12d472	0.035847135
148	0x3da63d96	0.08117215
149	0x3f0c770f	0.5486917
150	0x3d0ed2b3	0.034868907
151	0xbc34338a	-0.010998616
152	0x3e036350	0.12830853
153	0x3cfb91eb	0.030709228
154	0x3edede1b	0.43528828
155	0xbd0df685	-0.034658927
156	0x3db077d7	0.08616608
157	0x3d0358e3	0.03206719
158	0x3e59b78d	0.21261425
159	0x3ea960ce	0.3308167
160	0xbe350f38	-0.17681587
161	0x3d7e1363	0.062030207
162	0xbdd9ae7f	-0.106289856
163	0x3deacdcd	0.11465035
164	0x3e74379d	0.2384934
165	0xbcb639ab	-0.022244295
166	0x3e83cd58	0.25742602
167	0xbe562c9a	-0.20915452
168	0x3da51e2a	0.08062394
169	0x3e2af574	0.16695195
170	0x3d4d7603	0.050161373
171	0x3c42d746	0.0118921455
172	0xbe922663	-0.28544912
173	0xbeaa7659	-0.33293417
174	0x3de95168	0.1139248
175	0x3c3039d1	0.010755972
176	0xbdfb7779	-0.12278647
177	0xbe1cb8ef	-0.15304922
178	0x3e10fc2b	0.14158694
179	0xbddbe12a	-0.10736306
180	0x3e867d76	0.26267594
181	0x3e429181	0.19000818
182	0x3d987d37	0.07445758
183	0x3e19f678	0.15035427
184	0xbca436f0	-0.020045727
185	0xbce055f9	-0.027384745
186	0x3e371616	0.17879519
187	0x3e516939	0.20450296
188	0xbd902aaf	-0.07039391
189	0x3d2a39fd	0.04155921
190	0x3ddcd544	0.10782865
191	0x3e1668ea	0.14688459
192	0x3c44f687	0.012021667
193	0x3d072198	0.032991022
194	0xbcd94d4f	-0.026526121
195	0xbdccdaba	-0.10002656
196	0xbcbc8a6b	-0.023015222
197	0x3dc4ac58	0.096031845
198	0x3da3907c	0.079865426
199	0xbdc96f17	-0.09835642
200	0xbf09b8d3	-0.53797644
201	0xbce53a2b	-0.027981838
202	0x3e65a3db	0.22425787
203	0x3b8ee0f9	0.004360315
204	0x3defe569	0.117136784
205	0xbdca5008	-0.09878546
206	0x3dfb25c2	0.12263061
207	0x3e328054	0.17431766
208	0x3e3776cb	0.1791641
209	0x3e40ff65	0.18847425
210	0x3c54f462	0.0129977185
211	0xbe933875	-0.2875401
212	0xbe51b503	-0.20479207
213	0xbdb5ea78	-0.08882612
214	0x3d8f9cfa	0.07012363
215	0x3dba5c29	0.090996094
216	0xbe80d109	-0.2515948
217	0xbcc5f594	-0.024164952
218	0x3e49058e	0.19631025
219	0x3aecf40e	0.0018078105
220	0x3e7a37a7	0.24435292
221	0xbd876954	-0.066118866
222	0x3ce4ea81	0.027943851
223	0x3d9c41b3	0.07629719
224	0x3e89054c	0.26761854
225	0x3c869988	0.016430631
226	0x3e76fc4b	0.2411968
227	0xbd2dee01	-0.042463306
228	0x3e066666	0.13125
229	0x3e5b1eec	0.21398515
230	0x3bf80829	0.007569332
231	0x3f023533	0.50862426
232	0x3dc974b9	0.09836716
233	0x3dca77bc	0.09886119
234	0x3dd45312	0.10367407
235	0x3c6dccc8	0.014514156
236	0x3eaefdc7	0.34177992
237	0x3e9b3b85	0.30318847
238	0xbe612c1e	-0.21989486
239	0x3e63c25f	0.22242115
240	0x3e8582f4	0.26076472
241	0x3e6a11cd	0.22858353
242	0x3d4d767a	0.050161816
243	0x38f051c6	0.00011459323
244	0xbbf08e5c	-0.0073411893
245	0xbe76eeb8	-0.24114501
246	0x3b506240	0.0031796843
247	0xbd23f80b	-0.040031474
248	0x3c957dd8	0.018248484
249	0x3b912ba7	0.0044302526
250	0x3dac4633	0.08411827
251	0x3eaa57f9	0.33270243
252	0xbd54b6b8	-0.051932067
253	0x39197852	0.0001463604
254	0xbe0229d2	-0.12711266
255	0x3d4c8250	0.049928963

phi.initial_conv_module.0._layers.7.se_conv2.conv.weight f4 [64, 10, 1]
0	0xbe73b4e1	-0.23799469
1	0xbb8fb03b	-0.004385022
2	0xbea6dd7e	-0.3259086
3	0xbdff1fc3	-0.1245723
4	0xbe94abe1	-0.29037383
5	0x3c096e75	0.008388151
6	0xbef9ca87	-0.4878733
7	0x3ea18bc6	0.3155195
8	0xbe66e8fa	-0.22549811
9	0x3dd31dbc	0.10308406
10	0x3ddf86fd	0.10914419
11	0x3c34aa3f	0.011026918
12	0x3e2b436b	0.16724937
13	0x3e18b4f5	0.1491278
14	0x3e62885a	0.22122326
15	0xbf037473	-0.5134956
16	0x3d3830e5	0.044968504
17	0xbdccf14f	-0.100069635
18	0xbd0e754b	-0.034779828
19	0x3d5d4976	0.054025136
20	0x3e32502a	0.17413393
21	0x3e485168	0.19562304
22	0x3e0b12fa	0.13581458
23	0xbd9f7b31	-0.07787169
24	0x3de97a9b	0.11400338
25	0xbe9565b4	-0.29179156
26	0xbe91c055	-0.2846705
27	0xbd45347a	-0.04814575
28	0x3db3d470	0.087807536
29	0xbdfb232a	-0.122625664
30	0x3b9f7cf8	0.0048671924
31	0x3df1900e	0.117950544
32	0x3de4f38f	0.111792676
33	0xbe5efcf8	-0.21776187
34	0x3e4b180a	0.19833389
35	0xbdeab387	-0.114600234
36	0x3eb56275	0.3542668
37	0x3c93eef0	0.01805827
38	0xbdb62ba2	-0.08895041
39	0x3ed2cece	0.41173404
40	0xbd44bfae	-0.048034362
41	0x3d0b38a9	0.033989582
42	0x3e71d0b8	0.23614776
43	0xbe47df87	-0.19518863
44	0xbe997b5f	-0.29976937
45	0x3e166fc2	0.1469107
46	0xbe8c72ed	-0.2743143
47	0x3e5aae49	0.21355547
48	0x3e531ea3	0.20617156
49	0x3e5fd2d1	0.21857764
50	0x3e8a52ed	0.27016392
51	0x3dd44bb9	0.103660055
52	0xbda5e511	-0.081003316
53	0xbe82ea83	-0.25569543
54	0xbdce9987	-0.10087877
55	0x3d8be7bd	0.0683131
56	0x3ec55d64	0.38547814
57	0xbeb67b3c	-0.35640895
58	0x3a9fbcf3	0.0012187049
59	0x3d442bf6	0.047893487
60	0x3e48bad7	0.19602524
61	0x3ec99da4	0.39378083
62	0xbeba664b	-0.36406168
63	0x3e4d0e68	0.20025027
64	0x3e24fe56	0.16112646
65	0xbe9e17d3	-0.3087755
66	0xbe84ec45	-0.2596151
67	0xbb69ccd4	-0.0035675066
68	0x3eccad89	0.39976147
69	0xbd97205b	-0.07379218
70	0x3c6e936e	0.014561517
71	0xbcc7f5af	-0.024409143
72	0xbedcf3c9	-0.43154743
73	0x3e452f8b	0.19256417
74	0x3e93f85f	0.2890043
75	0xbf1ba84d	-0.6080368
76	0x3d6a0ed8	0.057143062
77	0xbf11e5ef	-0.56991476
78	0x3e9af29f	0.3026323
79	0x3eaf566e	0.34245628
80	0x3ed63e9f	0.4184465
81	0x3e2020de	0.15637538
82	0x3ecee43a	0.40408498
83	0x3e80d9cf	0.25166175
84	0x3d642d77	0.05570742
85	0xbe1c662f	-0.15273355
86	0x3f0984e5	0.53718406
87	0xbdbfbf8b	-0.09362706
88	0xbd9c65da	-0.07636614
89	0xbe164604	-0.14675146
90	0x3f21fb8f	0.6327447
91	0x3dc819d5	0.09770552
92	0x3db35b4a	0.087576464
93	0xbe520d50	-0.20512891
94	0x3e60174e	0.2188389
95	0xbe62e4fd	-0.22157665
96	0x3d857fd8	0.06518525
97	0xbdc8ea34	-0.09810296
98	0xbe64a70c	-0.22329348
99	0x3e9b8edc	0.3038243
100	0x3e78456c	0.24245232
101	0xbddbb698	-0.10728186
102	0x3effebe2	0.49984652
103	0xbeab8183	-0.33497247
104	0xbea90f35	-0.33019415
105	0xbeb852c6	-0.3600065
106	0x3e6ac7e2	0.22927812
107	0xbeb5ed71	-0.35532716
108	0xbcb49dba	-0.022047866
109	0xbc34fb74	-0.011046279
110	0xbd80acb3	-0.0628294
111	0xbe78f050	-0.24310422
112	0x3e939938	0.28827834
113	0xbe34e9b7	-0.1766728
114	0x3e942a61	0.28938583
115	0x3ec0ec39	0.37680224
116	0x3d896eb5	0.06710569
117	0xbecf620e	-0.40504497
118	0x3e9b1a91	0.30293706
119	0x3ee3c4a9	0.44485977
120	0x3f0002ae	0.5000409
121	0xbd2ebb53	-0.042659115
122	0x3e751ac1	0.23935987
123	0xbe3bf6ed	-0.18355913
124	0x3d812aa1	0.06306959
125	0x3dac151d	0.084024645
126	0x3e6652e5	0.22492559
127	0xbe9b5144	-0.30335438
128	0xbd89ce8e	-0.0672885
129	0xbcb70d6b	-0.022345265
130	0xbe3000f3	-0.17187862
131	0x3db4a08b	0.08819684
132	0x3e9048ea	0.2818063
133	0x3ceae9e5	0.028675983
134	0xbe0b0d3e	-0.1357927
135	0xbdf91b1e	-0.12163375
136	0xbd86a901	-0.06575204
137	0x3d196f2a	0.03745953
138	0xbe8b378d	-0.2719082
139	0x3e348b08	0.17631161
140	0x3f06e338	0.5269046
141	0x3e748798	0.2387985
142	0xbef1147b	-0.47085938
143	0x3ea5f0ad	0.32410184
144	0x3e844140	0.25831032
145	0xbe1874fd	-0.14888377
146	0x3f257434	0.64630437
147	0xbee4d272	-0.44691807
148	0x3d9b724a	0.07590158
149	0xbd88a501	-0.06672097
150	0xbe56f1cc	-0.20990676
151	0x3d38594d	0.04500704
152	0xbe8d32a5	-0.275777
153	0xbe09409c	-0.13403553
154	0x3e3a055d	0.18166108
155	0xbe1c5828	-0.15268004
156	0x3ef6463d	0.48100463
157	0xbe593168	-0.21210253
158	0x3d9fe817	0.078079395
159	0x3e672a72	0.22574785
160	0x3f106713	0.5640728
161	0xbbac27a4	-0.005253749
162	0xbe8dae3b	-0.2767199
163	0xbec85eed	-0.39134923
164	0x3e76cdbd	0.2410192
165	0x3d6f9848	0.058494836
166	0x3e9d7e59	0.30760458
167	0xbe5256fa	-0.20540991
168	0xbeba79f9	-0.36421183
169	0x3bc92563	0.00613849
170	0x3dd4fe6e	0.10400091
171	0xbebd6d7a	-0.36997586
172	0x3c934c36	0.017980676
173	0xbe132fca	-0.14373699
174	0xbec1eb0c	-0.3787464
175	0x3e381e49	0.17980303
176	0xbf006e98	-0.5016875
177	0xbd8ca680	-0.06867695
178	0xbf164bf4	-0.58709645
179	0xbe4ffe58	-0.20311868
180	0x3de44595	0.11146084
181	0x3e442fb0	0.19158816
182	0xbe3a44cf	-0.18190311
183	0xbe06c8b0	-0.13162494
184	0x3ea798e4	0.32733834
185	0xbebff88d	-0.37494317
186	0xbe01ba63	-0.12668757
187	0xbd6632a4	-0.05620064
188	0xbe95bd4d	-0.29245988
189	0xbe80e01c	-0.25170982
190	0x3eafa1be	0.34303087
191	0x3dc7db66	0.09758644
192	0x3c9af823	0.018917149
193	0x3e6b96ef	0.23006795
194	0x3dad3aaa	0.08458455
195	0x3f207b5f	0.6268825
196	0xbdd70d1f	-0.105005495
197	0x3f1c310a	0.6101233
198	0x3eed1ee7	0.4631264
199	0x3e84334c	0.25820386
200	0xbc9f8487	-0.019472374
201	0xbdf5b917	-0.11998194
202	0xbe46463e	-0.19362733
203	0xbde01d70	-0.10943115
204	0x3f081ad5	0.5316594
205	0xbeea7746	-0.45794123
206	0xbcdacabf	-0.026708005
207	0xbf1eaa59	-0.6197868
208	0xbd4eaf40	-0.0504601
209	0x3ed271c0	0.4110241
210	0x3e0bc87b	0.13650696
211	0xbec6556a	-0.3873704
212	0xbe160fba	-0.14654437
213	0xbd61586f	-0.055015977
214	0x3ecc8d24	0.39951432
215	0x3d0e3895	0.03472193
216	0xbd4d6765	-0.050147433
217	0xbea70d44	-0.32627308
218	0x3e8a6b63	0.27035055
219	0xbd71ee40	-0.059065104
220	0xbd5f2232	-0.05447597
221	0xbd9e70d2	-0.077363625
222	0x3db90d89	0.09035785
223	0x3e39b3d3	0.18135004
224	0xbdd98a37	-0.106220655
225	0x3ef1dbab	0.47237906
226	0x3e24d68a	0.16097465
227	0x3eb4e7c7	0.35333082
228	0xbec8083a	-0.39068776
229	0xbe54b0d5	-0.20770581
230	0x3edea9b2	0.43488842
231	0x3eea7bb9	0.45797518
232	0xbe3a6463	-0.18202357
233	0xbd9037df	-0.070419066
234	0xbec2fb96	-0.3808257
235	0x3df20ab8	0.11818451
236	0x3ea87dbe	0.32908434
237	0xbdf56084	-0.119812995
238	0xbe932b78	-0.28744102
239	0x3e4281de	0.18994853
240	0x3eda331c	0.42617118
241	0x3ec46199	0.3835571
242	0xbe8dd588	-0.27701974
243	0x3d96da17	0.07365816
244	0x3dee239e	0.11627887
245	0x3e887375	0.26650587
246	0xbe866523	-0.26249036
247	0x3ce7cfe6	0.028297376
248	0x3e62420d	0.22095509
249	0x3e2eeefe	0.17083356
250	0x3e6a3027	0.22869931
251	0x3f1aaace	0.6041688
252	0xbe5311cf	-0.20612262
253	0xbd93cffd	-0.07217405
254	0x3d20cb23	0.039256226
255	0xbd25f93d	-0.040520895

phi.initial_conv_module.0._layers.8.conv.weight f4 [32, 64, 1]
0	0xbe026801	-0.12734987
1	0xbd7acbc6	-0.06122949
2	0x3dd8c1b7	0.10583823
3	0xbd352814	-0.044227675
4	0xbd471b9f	-0.048610326
5	0x3d487a87	0.048944976
6	0x3d59571f	0.0530616
7	0x3e87a5fd	0.26493827
8	0xbe1b52b3	-0.15168266
9	0x3d05e20d	0.032686282
10	0xbd8b90d7	-0.068147354
11	0xbd82d2e6	-0.06387882
12	0xbe331bea	-0.17491117
13	0xbd6b9034	-0.05751057
14	0x3de543b2	0.111945525
15	0x3c1ef283	0.009701374
16	0xbc36c543	-0.011155429
17	0xbcc79092	-0.024360929
18	0x3dee6e76	0.116421625
19	0x3d0ff2bc	0.0351436
20	0xbe14310d	-0.14471836
21	0x3e93841c	0.2881173
22	0x3da62d9d	0.08114169
23	0x3d45118d	0.04811244
24	0xbbb25feb	-0.005443563
25	0x3e119fcf	0.14221118
26	0xbe1f0dc1	-0.1553259
27	0x3c6b7e2c	0.014373343
28	0xbd0f0d6f	-0.03492492
29	0x3db6d086	0.089264914
30	0x3d4a5b49	0.049403463
31	0xbdd4d262	-0.1039169
32	0x3d2df899	0.04247341
33	0xbdc30d0b	-0.09523972
34	0x3dfdcb02	0.12392236
35	0x3ba57c21	0.0050501977
36	0xbbc7621e	-0.0060846945
37	0x3dcdd1c2	0.10049774
38	0x3c6fcdb9	0.01463645
39	0x3e34bf49	0.17651094
40	0xbddef990	-0.10887444
41	0x3d22216a	0.039582647
42	0xbdc1362e	-0.09434162
43	0xbdd428b0	-0.10359323
44	0x3df850e2	0.12124802
45	0xbc8d40dd	-0.017242843
46	0xbd1f8846	-0.03894832
47	0x3cd4110c	0.025887035
48	0x3df8d8a4	0.12150696
49	0xb9864d55	-0.00025616089
50	0x3c56630d	0.013085139
51	0xbbcdc293	-0.0062792986
52	0x3e65746d	0.22407694
53	0x3cd13ba0	0.025541127
54	0x3d94d164	0.072665006
55	0x3e17e771	0.14834382
56	0x3d478f71	0.04872078
57	0x3db3df08	0.08782774
58	0xbd6e278d	-0.058143187
59	0xbdce566c	-0.100750774
60	0x3d8326c1	0.06403876
61	0xbd1f1b5d	-0.038844455
62	0xbcb69410	-0.022287399
63	0xbdfeff22	-0.124510065
64	0x3c9da6a2	0.019244496
65	0x3cec18d9	0.028820442
66	0x3d483b38	0.0488846
67	0xbd5eb965	-0.054376025
68	0xbdc1dfc3	-0.09466507
69	0xbd16dff9	-0.03683469
70	0x3cc8023c	0.024415128
71	0xbda52bae	-0.08064972
72	0x3d4dfc92	0.050289698
73	0x3ceb3704	0.028712757
74	0xbdc7274d	-0.09724293
75	0xbdc633d9	-0.09677858
76	0x3d00da99	0.03145847
77	0x3c74804b	0.014923166
78	0x3d2f2307	0.042758014
79	0xbe22cb63	-0.15897898
80	0x3d8a8b5b	0.06764861
81	0xbab35c5b	-0.001368414
82	0x3de721be	0.11285733
83	0xbd95a681	-0.07307149
84	0xbd325e18	-0.043546766
85	0xbe2ca1d2	-0.16858605
86	0x3c9f1024	0.019416876
87	0xbe015de5	-0.12633474
88	0xbd7f8c9b	-0.06238995
89	0xbd0b15f7	-0.033956494
90	0x3d8ec31d	0.06970809
91	0xbe25d2fa	-0.16193762
92	0x3e0007cc	0.12502974
93	0xbe290360	-0.16505194
94	0x3dc057df	0.0939176
95	0xbba1759f	-0.0049273516
96	0xbd7de087	-0.061981704
97	0xbdb5bf23	-0.08874347
98	0xbd2c7da2	-0.042112
99	0x3d20226e	0.039095335
100	0x3e3eb3ec	0.18623322
101	0x3c9a1d99	0.018812941
102	0x3e58337e	0.21113393
103	0xbdbfa50c	-0.09357652
104	0xbdc7b08b	-0.0975047
105	0x3b891a53	0.0041840463
106	0x3e4a32fb	0.1974601
107	0x3d1b50e2	0.037918933
108	0xbe8529ff	-0.26008603
109	0xbe2ed467	-0.17073213
110	0xbd32d83f	-0.04366326
111	0x3e14078f	0.14456008
112	0xbdbe5190	-0.092929006
113	0xbd192699	-0.037390325
114	0x3e09ed10	0.13469338
115	0x3d21e23e	0.039522402
116	0xbdee242b	-0.11627992
117	0x3ce60a11	0.028080972
118	0x3e74fd32	0.23924711
119	0xbe378b76	-0.17924294
120	0x3d988eb2	0.07449092
121	0x3d74e68b	0.059790175
122	0x3e7cc20a	0.24683395
123	0x3d88b83d	0.06675766
124	0x3e4cb0fe	0.19989392
125	0x3e07daae	0.13267013
126	0xbdf80691	-0.121106274
127	0x3c9f517b	0.019448033
128	0x3ddea121	0.10870577
129	0x3e5ffef1	0.21874596
130	0xbc95aa70	-0.018269747
131	0x3deab600	0.11460495
132	0x3c8fc7a3	0.017551249
133	0xbd17f652	-0.037100144
134	0xbd26436b	-0.04059164
135	0xbdb2d174	-0.08731356
136	0x3b4dad60	0.0031383857
137	0x3c426f45	0.011867349
138	0x3bddc79c	0.00676818
139	0xbdf88833	-0.12135353
140	0xbd83e6bd	-0.06440494
141	0xbcdd44ee	-0.027010407
142	0x3d81169e	0.06303142
143	0xbda77ee6	-0.08178501
144	0xbc93596d	-0.017986977
145	0x3c8c36d8	0.017115995
146	0x3e3924c0	0.18080425
147	0x3cd4f0a9	0.025993662
148	0xbc121594	-0.008916277
149	0xbdca844a	-0.098885134
150	0x3c97cee7	0.018531276
151	0xbe0aa963	-0.13541178
152	0x3d79f0ab	0.061020534
153	0xbe3afc90	-0.18260407
154	0x3d59233c	0.053012118
155	0x3df675ab	0.12034162
156	0x3e733c4b	0.23753469
157	0x3d2da03e	0.042389147
158	0xbdbda460	-0.09259868
159	0x3dad8e29	0.084743805
160	0xbe25c7f0	-0.16189551
161	0xbe5f3627	-0.21798001
162	0xbcecec55	-0.028921286
163	0x3e035ca3	0.12828307
164	0xbe2635af	-0.16231416
165	0xbd2da282	-0.042391308
166	0xbe4d747b	-0.20063965
167	0xbd82368c	-0.0635806
168	0xbd1a1f4b	-0.0376275
169	0x3d3ce679	0.046118233
170	0xbdf649bc	-0.120257825
171	0xbca5da40	-0.020245671
172	0x3cbeae02	0.023276333
173	0xbd2df048	-0.04246548
174	0x3e33d4b4	0.17561609
175	0x3e09ba4b	0.13449971
176	0x3e0701fe	0.13184354
177	0xbe00271e	-0.12514922
178	0xbdda3894	-0.10655323
179	0x3de24a0a	0.11049278
180	0xbdf314b0	-0.1186918
181	0x3d4e1177	0.050309625
182	0xbccb176a	-0.024791438
183	0xbc588dc0	-0.01321739
184	0xbc1cd4dd	-0.009572235
185	0x3e1c5e43	0.15270333
186	0x3e44b534	0.19209749
187	0x3e936b3f	0.2879276
188	0x3d9d9f55	0.07696406
189	0x3e20785a	0.1567091
190	0x3e47dca2	0.19517758
191	0xba981973	-0.0011604264
192	0xbdb6fbe4	-0.08934763
193	0x3d87eccc	0.06636962
194	0xbb1b50d4	-0.00236993
195	0x3d8895a8	0.0666917
196	0x3ca65c78	0.020307764
197	0x3d4ed47a	0.050495602
198	0xbd9df380	-0.077124596
199	0xbde235da	-0.110454276
200	0xbd84e16b	-0.064883076
201	0x3d8b2cb1	0.067956336
202	0x3cb405a8	0.021975353
203	0x3da764b1	0.08173502
204	0xbd698dc1	-0.057019953
205	0xbb8aef9c	-0.0042399894
206	0xbe0588e4	-0.13040501
207	0x3e015de8	0.12633479
208	0x3c49ecc4	0.012324516
209	0xbe1e4ef1	-0.15459801
210	0xbe0d742b	-0.13813846
211	0x3dd17f58	0.10229367
212	0x3d57f612	0.052724905
213	0xbe916101	-0.2839432
214	0x3dafc149	0.08581788
215	0x3db0e18d	0.086367704
216	0x3d9a1b89	0.07524783
217	0x3d5e02e2	0.054201968
218	0x3d08d425	0.03340544
219	0xbdeb31e6	-0.11484127
220	0x3b60b5bd	0.0034288012
221	0x3caadece	0.020858195
222	0xbce06335	-0.027391056
223	0xbddb8445	-0.10718588
224	0x3d87302f	0.06600987
225	0xbe934ea2	-0.2877093
226	0x3d0035fe	0.03130149
227	0x3df5c168	0.1199978
228	0x3da05f1a	0.07830639
229	0xbd4bc7fc	-0.049751267
230	0xbe18db7a	-0.14927474
231	0xbc93374b	-0.017970702
232	0xbc2efe6f	-0.010680779
233	0x3d6c446d	0.057682443
234	0x3de153f0	0.11002338
235	0x3e88c7ef	0.26715037
236	0xbe249bd8	-0.16075075
237	0x3d82530b	0.063634954
238	0x3d42e920	0.047585607
239	0xbe25e985	-0.16202362
240	0xbc094e89	-0.008380541
241	0xbb7f5628	-0.0038961265
242	0xbe1e83d5	-0.15479977
243	0x3e43d3db	0.19123785
244	0x3c89eedd	0.016837532
245	0x3d7542ae	0.059878044
246	0x3e12f2a7	0.14350377
247	0x3db21bc4	0.08696702
248	0x3db3f86e	0.087876186
249	0xbdcfd143	-0.101473354
250	0xbdbde199	-0.09271545
251	0xbe10d637	-0.14144216
252	0xbd06b0b8	-0.032883376
253	0xbe472a8b	-0.19449823
254	0xbd431b23	-0.0476333
255	0xbde2e43a	-0.11078687

phi.initial_conv_module.0._layers.9.weight f4 [32]
0	0x3f889b22	1.0672343
1	0x3f9a43ec	1.2051978
2	0x3f8f4184	1.1191869
3	0x3f89b0b4	1.075705
4	0x3f8a2def	1.0795268
5	0x3f97ee04	1.1869512
6	0x3f86eced	1.0541054
7	0x3f8b32e6	1.0874908
8	0x3f923fbb	1.1425699
9	0x3f990456	1.1954448
10	0x3f9896bd	1.1921002
11	0x3f853ad9	1.0408584
12	0x3f844de9	1.0336276
13	0x3f8645bd	1.0490032
14	0x3f8ed0bc	1.1157451
15	0x3f947eff	1.1601256
16	0x3f999b7f	1.2000579
17	0x3f9e18d0	1.2351322
18	0x3f8d8e95	1.1059138
19	0x3f92d1e6	1.1470306
20	0x3f8e2ebf	1.1108016
21	0x3f87177d	1.0554043
22	0x3f955498	1.1666441
23	0x3f98a0ac	1.1924033
24	0x3f92c1a1	1.1465341
25	0x3f85b7de	1.0446737
26	0x3f8ed824	1.1159711
27	0x3f9123f1	1.1339093
28	0x3f962201	1.1729127
29	0x3f8ffdfd	1.1249386
30	0x3f8a6232	1.0811217
31	0x3f96e1a6	1.1787612

phi.initial_conv_module.0._layers.9.bias f4 [32]
0	0x3be80f8a	0.0070819305
1	0xbbed9269	-0.0072501195
2	0xb794d959	-1.7744185e-05
3	0x3c21cece	0.009875966
4	0x3a41692c	0.00073780376
5	0xbce44c1e	-0.027868327
6	0x3c6d91c2	0.014500083
7	0x3b844e3f	0.004037648
8	0xba6c2f7c	-0.0009009761
9	0x3c860ca0	0.016363442
10	0xbbb4ce38	-0.0055177473
11	0xbbce238e	-0.0062908595
12	0xbc378fbb	-0.011203702
13	0x3b4b2d9c	0.0031002527
14	0xbbe29074	-0.006914193
15	0x3bf1557a	0.007364926
16	0xbb69dc6a	-0.0035684356
17	0x3b226615	0.0024780084
18	0xbcc53a2e	-0.024075594
19	0x39c1deed	0.0003697792
20	0xbc5accfe	-0.013354538
21	0x3ab4c705	0.0013792223
22	0x3c0d2c41	0.008616508
23	0xbbc12e17	-0.005895387
24	0xbb4a90cb	-0.0030909057
25	0x3bc772aa	0.006086667
26	0x3c203de8	0.009780385
27	0x3ce3615a	0.027756382
28	0xbb68dc90	-0.0035531856
29	0x3c9935ef	0.018702475
30	0xbc9721f2	-0.018448804
31	0x3cdbb6b4	0.026820518

phi.initial_conv_module.0._layers.9.running_mean f4 [32]
0	0x3e102980	0.14078331
1	0x3c98268b	0.018573066
2	0x3d9b610a	0.07586868
3	0xbcf58a6c	-0.029973231
4	0x3ccd15ca	0.025034804
5	0x3e04768c	0.12935847
6	0xbdb4e39d	-0.08832476
7	0x3dce3b6b	0.10069927
8	0xbe510357	-0.2041143
9	0xbd4e38cd	-0.05034714
10	0xbd83ee59	-0.064419456
11	0xbc007685	-0.007840757
12	0x3e056272	0.13025835
13	0xbda33eb8	-0.07970947
14	0xbd870005	-0.065918006
15	0x3e192c2c	0.14958256
16	0xbe31a73c	-0.17348951
17	0x3d037258	0.03209147
18	0xbd924631	-0.07142294
19	0x3d7df635	0.06200238
20	0xbe2eda46	-0.17075452
21	0xbe028529	-0.12746109
22	0x3b45e5b7	0.0030196735
23	0x3d44df15	0.04806431
24	0x3d4de38e	0.05026584
25	0x3d5ebbb1	0.054378215
26	0x3d244a96	0.040110193
27	0x3d2786b2	0.04089994
28	0x3c476a45	0.012171333
29	0xbe138698	-0.14406812
30	0xbd033f81	-0.032042984
31	0x3d99d7bd	0.07511852

phi.initial_conv_module.0._layers.9.running_var f4 [32]
0	0x3d49d9db	0.04928003
1	0x3dc21626	0.09476881
2	0x3d814a1c	0.06312963
3	0x3dbab28e	0.09116088
4	0x3dd90cf7	0.10598176
5	0x3d8cb325	0.068701066
6	0x3d8a04e5	0.06739215
7	0x3d9a59ea	0.07536681
8	0x3daa9e57	0.08330982
9	0x3d97760e	0.07395564
10	0x3db2d8fd	0.087327935
11	0x3d518933	0.051156234
12	0x3d94f839	0.07273907
13	0x3db33979	0.087511964
14	0x3d65faf5	0.056147534
15	0x3db55e9e	0.088559374
16	0x3dcd4422	0.10022761
17	0x3d85a9a5	0.06526498
18	0x3d8a20c0	0.06744528
19	0x3dac36dc	0.08408901
20	0x3da6aba4	0.081382066
21	0x3db2a723	0.08723285
22	0x3d8c6368	0.06854898
23	0x3d8845e7	0.06653958
24	0x3dac7bca	0.084220484
25	0x3dac0e63	0.084011815
26	0x3dbe0d7c	0.09279916
27	0x3d7637f7	0.060111966
28	0x3da6a75e	0.081373915
29	0x3dea83ea	0.11450942
30	0x3dc18037	0.09448283
31	0x3dadc881	0.08485509
