logs_backup/4birds_CF_combined_log_linear_gru64_50epochs_try2/2025-05-27_05-15-06/4birds_CF_combined_log_linear_gru64_50epochs_try2_best_model.pth (torch, 333825 bytes, 198 tensors)

phi.initial_conv_module.0._layers.0.conv.weight f4 [64, 64, 1]
0	0x3d9e111b	0.07718106
1	0x3db4d16c	0.088290066
2	0xbd175ef7	-0.0369558
3	0x3dd40c76	0.10353939
4	0xbd261d34	-0.040555194
5	0x3c57f906	0.01318193
6	0xbdb03b65	-0.086050786
7	0x3d6dfdb2	0.05810327
8	0x3dac2b12	0.084066525
9	0xbdf60167	-0.12011986
10	0x3da7949e	0.08182643
11	0xbbcb24ab	-0.0061994395
12	0x3d9123c7	0.07086902
13	0x3c9c0d0f	0.019049196
14	0x3d96f229	0.07370407
15	0xbc8c6de7	-0.01714225
16	0x3d92537e	0.07144831
17	0xbcbe05ca	-0.02319612
18	0xbdb04c37	-0.08608287
19	0x3ca7f807	0.02050401
20	0xbd486710	-0.048926413
21	0x3bdf0c55	0.00680689
22	0xbcdb04c2	-0.026735667
23	0x3dc15c13	0.0944139
24	0xbdea40b6	-0.11438124
25	0xbdbde53e	-0.0927224
26	0xbda7b5b0	-0.08188951
27	0xbe051be0	-0.12998915
28	0xbd14c745	-0.03632285
29	0xbe2b14f6	-0.16707215
30	0x3dad335b	0.08457061
31	0xbdfdd68b	-0.123944364
32	0x3dae83d9	0.08521242
33	0x3bc424fd	0.0059858547
34	0xbd5fc94d	-0.054635335
35	0x3d7d4f11	0.06184298
36	0x3c141597	0.009038351
37	0x3dc14404	0.09436801
38	0x3b453556	0.0030091605
39	0xbd4fa98f	-0.050698813
40	0x3d08523d	0.033281554
41	0xbd01e552	-0.031712838
42	0x3d66d6af	0.056357082
43	0x3dde35af	0.10850083
44	0x3d887f76	0.06664936
45	0xbd7e11d3	-0.062028717
46	0x3d8a5d2e	0.06756054
47	0x3c736066	0.014854526
48	0x3d566274	0.052339986
49	0xbda3be62	-0.07995297
50	0xbdfba7e7	-0.12287884
51	0xbd61c0ca	-0.0551155
52	0xbdd645f2	-0.1046256
53	0x3dcdbedb	0.100461684
54	0x3d061448	0.032734185
55	0x3d5bbec0	0.05364871
56	0x3d303fff	0.04302978
57	0x3a8f1833	0.0010917246
58	0x3dca2522	0.09870364
59	0xbdb54a94	-0.08852115
60	0x3c35e2fb	0.01110148
61	0xbd8f25fd	-0.069896676
62	0x3d6acc23	0.057323586
63	0xbd194204	-0.037416473
64	0xbbd0d572	-0.006373101
65	0xbd8f6d57	-0.07003277
66	0x3dc6a2d8	0.09699029
67	0xbddff6b8	-0.1093573
68	0xbdbd28bc	-0.09236285
69	0xbddc8ac8	-0.10768658
70	0x3d91a637	0.07111781
71	0x3c1d665f	0.009606927
72	0x3dc02db5	0.09383718
73	0xbe032488	-0.12806904
74	0xbe0fb155	-0.1403249
75	0xbdef0e3c	-0.11672637
76	0xbdd32151	-0.10309089
77	0x3d1f233c	0.03885196
78	0x3d3448a4	0.044014588
79	0x3dee56bc	0.11637637
80	0xbd1ded2f	-0.038556274
81	0xbd945a5e	-0.07243799
82	0x3d3df67a	0.046377636
83	0xbd98b8a8	-0.074570954
84	0x3d5d609b	0.05404721
85	0xbd3e34e3	-0.046437155
86	0x3d53f68b	0.051748794
87	0xbdfc4b09	-0.12318999
88	0xbdb1f6e1	-0.086896665
89	0x3d0e2a8e	0.034708552
90	0x3d472b98	0.04862556
91	0xbb314b1e	-0.002705283
92	0x3dc0b571	0.09409607
93	0x3dc618f3	0.096727274
94	0xbdc0e06a	-0.094178036
95	0xbd9162bb	-0.070989095
96	0x3ddc3fa9	0.1075433
97	0xbd5d0a71	-0.053965036
98	0xbd6ae47f	-0.057346817
99	0xbe0f465f	-0.13991688
100	0xbdbceef4	-0.09225264
101	0x3c43a5f6	0.011941424
102	0xbd0c7c1b	-0.034298044
103	0xbdde61cc	-0.10858497
104	0xbc02b62d	-0.007978004
105	0xbda7bf16	-0.081907436
106	0xbd8496de	-0.06474088
107	0xbcdfd692	-0.027323995
108	0xbd906637	-0.07050746
109	0xbd641f44	-0.05569388
110	0x3e0955b3	0.13411598
111	0x3d0e226b	0.034700792
112	0x3d469b9e	0.048488252
113	0xbdcd9836	-0.100387976
114	0xbd809c42	-0.06279804
115	0xbc9ba93e	-0.0190016
116	0x3d415112	0.047196455
117	0xbda66daf	-0.08126389
118	0xbca68e99	-0.020331668
119	0xbd193f63	-0.037413966
120	0x3cff1a89	0.031140583
121	0xbc5ef3bb	-0.013607915
122	0x3cc3322d	0.023827637
123	0xbd61452e	-0.054997616
124	0xbd75ae27	-0.059980538
125	0xbd612b74	-0.05497308
126	0xbcb32cdf	-0.021871982
127	0xbdb8d382	-0.09024717
128	0x3dcbb072	0.09945764
129	0xbd03474b	-0.032050412
130	0x3de13ec1	0.109982975
131	0x3cd9c862	0.026584808
132	0xbdcf0816	-0.10108964
133	0x3d9f1aed	0.077688076
134	0xbcdedcd8	-0.027204916
135	0xbd49aa64	-0.049234763
136	0xbdc97b1f	-0.098379366
137	0xbdf49285	-0.11942009
138	0x3d21988c	0.03945212
139	0xbca87bcb	-0.020566842
140	0x3d556762	0.052100547
141	0xbdd03a9f	-0.10167431
142	0x3d9c2880	0.07624912
143	0xbde2c15b	-0.11072036
144	0xbbcbe028	-0.00622179
145	0x3d773848	0.06035641
146	0x3db1c61a	0.08680363
147	0x3dd11e8f	0.10210907
148	0x3db6af71	0.089201815
149	0xbe052353	-0.13001756
150	0x3910b44e	0.00013800079
151	0xbdad56ce	-0.08463822
152	0xbd080e80	-0.033216953
153	0xbda4b35e	-0.08042024
154	0x3e1fc0c1	0.15600874
155	0xbd2b42b4	-0.04181166
156	0x3dc1238e	0.0943061
157	0x3d61b98d	0.055108596
158	0x3d433c7d	0.047665108
159	0xbd63be50	-0.055601418
160	0x3e005f6f	0.12536405
161	0x3d219e02	0.03945733
162	0x3d10a5a7	0.03531423
163	0xbdaf65dd	-0.08564351
164	0x3d92c1cb	0.07165869
165	0x3b42ae34	0.0029705884
166	0xbd05d28d	-0.0326715
167	0x3e015200	0.12628937
168	0x3d11c16e	0.03558486
169	0xbd9a3454	-0.07529512
170	0xbda505c4	-0.0805774
171	0xbcc9c6ae	-0.02463087
172	0x3d6989ee	0.057016306
173	0xbd0eba0c	-0.034845397
174	0xbd8d6954	-0.06904855
175	0xbd2cb2e3	-0.042162787
176	0xbdcf40ef	-0.10119807
177	0x3d096b7d	0.033549774
178	0x3da9ba7d	0.08287523
179	0xbe08bad8	-0.13352525
180	0x3c1d469f	0.009599357
181	0x3d212928	0.03934589
182	0xba755b23	-0.0009359589
183	0xbd8b3043	-0.067963146
184	0x3d250275	0.040285546
185	0x3d339bd5	0.043849785
186	0x3cdb1b77	0.026746495
187	0xbd2069a5	-0.03916325
188	0xbd34c7e3	-0.04413594
189	0x3b624593	0.0034526333
190	0xbcd99450	-0.026559979
191	0xbd1ba770	-0.038001478
192	0x3db7f97d	0.08983133
193	0x3decf208	0.11569601
194	0x3abb7ea3	0.0014304708
195	0xbcc5d49d	-0.024149233
196	0x3ccd969d	0.025096232
197	0xbbb7edf8	-0.005613085
198	0x3d6bbb4e	0.057551675
199	0x3d21d7c9	0.03951243
200	0xbdc5d17c	-0.096590966
201	0xbcf73112	-0.030174766
202	0x3dece3de	0.115669
203	0x3d7877d8	0.060661167
204	0x3aaf7304	0.0013385718
205	0xbd8bbe9c	-0.06823465
206	0xbd9315e3	-0.07181909
207	0xbded12e4	-0.11575869
208	0xbd63c682	-0.055609234
209	0x3cc2a759	0.023761438
210	0x3d8e7db3	0.06957569
211	0x3d3e10d2	0.04640276
212	0xbe03784b	-0.12838857
213	0xbdc9966d	-0.098431446
214	0xbd2bb183	-0.041917335
215	0x3dd2a2bc	0.10284945
216	0x3b839a66	0.0040162085
217	0xbd38ed9f	-0.045148488
218	0x3d0f2e11	0.03495604
219	0xbd8541d2	-0.06506695
220	0xbdc5a831	-0.096512206
221	0x3da1b4cb	0.07895812
222	0xbd7aceca	-0.061232366
223	0xbd09d95c	-0.033654556
224	0xbe0620f9	-0.13098516
225	0x3da3f46e	0.08005606
226	0x3dbab197	0.09115904
227	0x3d2c672f	0.04209059
228	0xbdb6de97	-0.089291744
229	0xbe00f7ef	-0.12594579
230	0xbddab55d	-0.106791236
231	0x3dafa1a9	0.08575756
232	0x3d35610c	0.044282004
233	0x3d9ff219	0.07809848
234	0x3c8b19ce	0.016980078
235	0xbc2c3ebb	-0.010513003
236	0xbd16cc11	-0.036815707
237	0xbdee1adb	-0.11626216
238	0xbde5d64d	-0.11222515
239	0xbdf017ca	-0.117232874
240	0x3d47291e	0.048623197
241	0xbd8562ec	-0.065130085
242	0xbcf59e88	-0.02998282
243	0xbdacce23	-0.08437755
244	0xbd341176	-0.043961965
245	0xbdec4534	-0.11536637
246	0xbdeb4a8d	-0.11488829
247	0x3bde7b7c	0.006789623
248	0xbd884d67	-0.06655388
249	0x3d576095	0.052582342
250	0xbd76946b	-0.060200136
251	0xbddec822	-0.10878016
252	0xbcc624cc	-0.024187468
253	0xbd585eb0	-0.052824676
254	0xbcfc5fee	-0.030807462
255	0xbdd95481	-0.10611821

phi.initial_conv_module.0._layers.1.weight f4 [64]
0	0x3f7c5187	0.985619
1	0x3f7c2c23	0.9850485
2	0x3f7330fa	0.9499661
3	0x3f7da179	0.9907451
4	0x3f82b363	1.0210994
5	0x3f7526f5	0.9576257
6	0x3f7c6eae	0.98606384
7	0x3f76b006	0.9636234
8	0x3f805f40	1.0029068
9	0x3f7f6d35	0.9977601
10	0x3f769609	0.96322685
11	0x3f7d6353	0.9897968
12	0x3f7b080a	0.9805914
13	0x3f7e0a7a	0.99234736
14	0x3f7dd401	0.9915162
15	0x3f81cd51	1.0140783
16	0x3f79a5bb	0.9751851
17	0x3f7ff016	0.9997572
18	0x3f7f5122	0.99733174
19	0x3f7b9ffb	0.98290986
20	0x3f735a76	0.9505991
21	0x3f858f15	1.043429
22	0x3f7d3763	0.9891264
23	0x3f779820	0.967165
24	0x3f7b197c	0.9808576
25	0x3f75eabc	0.960613
26	0x3f7f0ff4	0.9963372
27	0x3f789778	0.9710612
28	0x3f798b39	0.9747806
29	0x3f7ff2ef	0.9998006
30	0x3f7fd278	0.99930525
31	0x3f7e7d95	0.9941037
32	0x3f81d1ad	1.0142113
33	0x3f7eb701	0.9949799
34	0x3f829d5e	1.0204275
35	0x3f81e0b2	1.0146697
36	0x3f7bd83c	0.9837682
37	0x3f75fcde	0.9608897
38	0x3f838196	1.0273921
39	0x3f7c46a4	0.9854529
40	0x3f7acc8d	0.9796837
41	0x3f7b11b0	0.98073864
42	0x3f760d2a	0.96113837
43	0x3f7f9038	0.99829435
44	0x3f81f96b	1.0154241
45	0x3f80155d	1.000652
46	0x3f7be47f	0.9839553
47	0x3f79fd0c	0.97651744
48	0x3f7dcbf9	0.9913936
49	0x3f806801	1.003174
50	0x3f7cf1e2	0.98806584
51	0x3f7c7910	0.98622227
52	0x3f7ec684	0.9952166
53	0x3f7a8aa4	0.978678
54	0x3f804eb3	1.0024017
55	0x3f7e7513	0.9939739
56	0x3f82aada	1.020839
57	0x3f82f829	1.0231982
58	0x3f7b0480	0.9805374
59	0x3f7e2a98	0.9928374
60	0x3f832fa4	1.0248914
61	0x3f81bc07	1.0135506
62	0x3f7fa1ff	0.9985656
63	0x3f787dfe	0.9706725

phi.initial_conv_module.0._layers.1.bias f4 [64]
0	0x3b5a3223	0.0033294044
1	0xb98dd7a1	-0.00027054272
2	0x3d3b52a3	0.045733105
3	0xbc51ce5e	-0.012805549
4	0xbc978d9f	-0.018500147
5	0x3d5bdb94	0.053676203
6	0x3ce2d2a1	0.027688326
7	0xbc1d7349	-0.009610006
8	0x3b1c90f6	0.0023890114
9	0xbc26947d	-0.010167238
10	0x3c87c755	0.016574541
11	0x3ca7199d	0.020397956
12	0x3ce34b66	0.027745914
13	0x3c9acadc	0.018895559
14	0xbc5a713c	-0.013332661
15	0xbce2975e	-0.027660068
16	0x3cb05d95	0.021528998
17	0xbd1854a5	-0.0371901
18	0xbcf3eb83	-0.029775387
19	0x3b8c71ba	0.004286018
20	0x3c4e8324	0.012604509
21	0xbcce6d93	-0.025198733
22	0xba8848ec	-0.0010397709
23	0x3d3d3b86	0.046199344
24	0xba15db08	-0.0005716537
25	0x3cf3dfc6	0.02976979
26	0x3bdab95b	0.006674928
27	0x3c98fe5f	0.018675981
28	0xbb1772f1	-0.0023109282
29	0xbc2d0b07	-0.010561711
30	0xbcb6fc75	-0.022337178
31	0xbbe6e2a8	-0.0070460625
32	0x3cc10f9b	0.023567012
33	0x3cc8085b	0.024418047
34	0xbca913d8	-0.020639345
35	0xba939075	-0.0011258262
36	0xbc44c48c	-0.012009751
37	0x3d030201	0.031984333
38	0x3c90309a	0.0176013
39	0xbc67d0c2	-0.014148893
40	0x3c0c71ca	0.008572051
41	0xbba8eb01	-0.005154968
42	0x3cd85da1	0.026411833
43	0xbb3e7b91	-0.002906535
44	0x3cdee480	0.027208567
45	0x3d0dcd08	0.03461936
46	0x3cde4490	0.027132303
47	0x3bada297	0.0052989232
48	0x3cf3ea41	0.029774787
49	0x3c6fad32	0.014628695
50	0x3a0be669	0.0005336763
51	0x3c5e899b	0.013582612
52	0x3c7f3a83	0.015577915
53	0x3c7fde6d	0.015616995
54	0x3c36f902	0.0111677665
55	0x3c7134b6	0.01472204
56	0xbc95f995	-0.018307487
57	0x3a72da73	0.0009264119
58	0x3aa850f3	0.0012841508
59	0x3cb83ed3	0.022490894
60	0x3b483a2e	0.0030552256
61	0xbc2651cd	-0.010151339
62	0x3b293fd8	0.0025825407
63	0xbd104011	-0.03521735

phi.initial_conv_module.0._layers.1.running_mean f4 [64]
0	0xbe0f04f0	-0.13966727
1	0x3f1787d6	0.59191644
2	0x3e6be2a1	0.23035671
3	0xbe8b3a7d	-0.2719306
4	0xbde3dfd2	-0.11126675
5	0xbe55f263	-0.20893244
6	0xbe9ef69b	-0.3104752
7	0x3e06c557	0.13161217
8	0x3f0fece4	0.5622084
9	0x3f0d7cc4	0.552685
10	0x3e6d6801	0.23184206
11	0xbecdc6ad	-0.4019064
12	0x3b0022ce	0.0019551995
13	0x3e2c2031	0.16809155
14	0x3c6625b6	0.014047077
15	0x3f4de2f9	0.8042446
16	0x3e32dc2a	0.17466798
17	0x3f15da0a	0.58535826
18	0xbdac8546	-0.084238574
19	0x3e2acf15	0.16680558
20	0xbddd6e78	-0.10812086
21	0x3edabef7	0.4272382
22	0xbec5d89c	-0.38641822
23	0x3dc4659b	0.09589692
24	0x3e2a58d9	0.16635455
25	0xbd1fb32a	-0.038989224
26	0x3e505015	0.20343049
27	0x3f9c04d8	1.2188978
28	0xbd33707f	-0.043808457
29	0x3f7f8f4e	0.9982804
30	0xbefaccd8	-0.48984408
31	0xbeabe615	-0.33573976
32	0x3e922659	0.28544882
33	0xbd806194	-0.062686116
34	0xbf5146f8	-0.81748915
35	0xbe716f9b	-0.2357773
36	0xbe20c3c7	-0.15699683
37	0xbe2c210b	-0.1680948
38	0x3ca0a91a	0.019611884
39	0x3e2762f7	0.16346346
40	0xbe3f3948	-0.18674195
41	0x3bed994f	0.007250942
42	0xbe9b5b08	-0.3034289
43	0xbf9922b2	-1.1963713
44	0xbe671ee9	-0.22570385
45	0x3ed451e1	0.4146872
46	0xbed06c25	-0.40707508
47	0xbe948f1c	-0.29015434
48	0x3f291f7b	0.6606366
49	0x3ea63537	0.32462475
50	0x3f000577	0.5000834
51	0x3efc90b2	0.49329144
52	0xbe8fd0fe	-0.28089136
53	0xbeac22ad	-0.33620206
54	0x3ee83c28	0.45358396
55	0x3e88016a	0.2656358
56	0x3c47e87f	0.0122014275
57	0xbeb427da	-0.35186654
58	0xbdc83e95	-0.097775616
59	0xbed1cb25	-0.409753
60	0x3c8deaaa	0.01732381
61	0x3c014e54	0.00789221
62	0x3e5d80a2	0.21631101
63	0x3f35b164	0.709738

phi.initial_conv_module.0._layers.1.running_var f4 [64]
0	0x3eeb4b8f	0.45956084
1	0x3e7462de	0.2386584
2	0x3dcf5447	0.101234965
3	0x3ef8904f	0.485476
4	0x3e0902ba	0.13379946
5	0x3e8d55ae	0.2760443
6	0x3e34ae0e	0.17644522
7	0x3e50b7dd	0.20382638
8	0x3eb12ace	0.3460297
9	0x3e81b773	0.25335273
10	0x3dd8e345	0.10590223
11	0x3e804211	0.25050405
12	0x3df16b62	0.1178806
13	0x3f49a6f0	0.7877035
14	0x3e094edd	0.1340899
15	0x3e7ecf1f	0.24883698
16	0x3e313e6b	0.17308967
17	0x3ea30306	0.31838244
18	0x3e18904f	0.148988
19	0x3e037484	0.12837416
20	0x3e0586f4	0.13039762
21	0x3e3c4ca7	0.18388616
22	0x3df2f1ee	0.11862551
23	0x3ea092df	0.31362054
24	0x3e1ebce1	0.15501739
25	0x3da703f3	0.0815505
26	0x3e8e0dfb	0.2774504
27	0x3f048230	0.5176115
28	0x3ea6a078	0.32544303
29	0x3e82b8d6	0.25531644
30	0x3e11a81b	0.14224283
31	0x3e5b1ddb	0.21398108
32	0x3d9d9850	0.07695067
33	0x3e9df7a8	0.3085301
34	0x3eb25657	0.34831497
35	0x3e9b83c8	0.3037398
36	0x3e277599	0.16353454
37	0x3e3cf313	0.184521
38	0x3e4ffec5	0.2031203
39	0x3ebbb38b	0.36660418
40	0x3db3f337	0.08786624
41	0x3ec842c6	0.39113444
42	0x3e52239d	0.20521398
43	0x3e87b1de	0.2650289
44	0x3e16160c	0.14656848
45	0x3de7785e	0.11302255
46	0x3ee92175	0.45533338
47	0x3df2186d	0.11821065
48	0x3df920a4	0.12164429
49	0x3deae557	0.11469524
50	0x3e85f75d	0.26165286
51	0x3e2acc1a	0.16679421
52	0x3d824935	0.063616194
53	0x3e4a7aca	0.19773403
54	0x3dfb460c	0.1226922
55	0x3e15b414	0.14619476
56	0x3dc12725	0.09431294
57	0x3e145167	0.14484178
58	0x3e492cec	0.19646043
59	0x3e640870	0.22268844
60	0x3e1fbba7	0.15598927
61	0x3ea70b57	0.3262584
62	0x3e5bd347	0.21467315
63	0x3eb4f2be	0.35341448

phi.initial_conv_module.0._layers.4.conv.weight f4 [64, 1, 5]
0	0xbe985052	-0.2974878
1	0x3ec01f5d	0.37523928
2	0x3ecae289	0.39625958
3	0x3eba2eb1	0.36363748
4	0xbe0ca8a9	-0.13736214
5	0x3e93c040	0.28857613
6	0xbeba223b	-0.3635424
7	0x3e50be7d	0.20385166
8	0xbd79dace	-0.060999684
9	0xbebc1fcc	-0.3674301
10	0xbeafcbf1	-0.34335282
11	0xbebf1f09	-0.37328365
12	0x3dad3c79	0.084588
13	0xbe4e78dc	-0.20163292
14	0xbe789df0	-0.24278998
15	0x3ed92362	0.42409807
16	0xbde85961	-0.11345173
17	0x3e244465	0.16041715
18	0xbd6bd6cc	-0.057577893
19	0x3e90ab69	0.28255776
20	0x3dc16f17	0.09445017
21	0x3e7c6cf8	0.24650943
22	0x3e1cc081	0.1530781
23	0xbd603302	-0.054736145
24	0x3edd918c	0.43275106
25	0xbd5d52f0	-0.054034173
26	0xbe90aa7f	-0.28255078
27	0x3dec2830	0.11531103
28	0xbdbab62f	-0.0911678
29	0xbea7b673	-0.32756385
30	0x3d4f6d23	0.05064119
31	0xbdd64fbd	-0.104644276
32	0xbe24ff85	-0.16113098
33	0xbe51e7f9	-0.20498647
34	0xbe6065eb	-0.21913879
35	0xbe288faa	-0.16461053
36	0x3d8627c1	0.06550551
37	0x3ee4b2ad	0.4466757
38	0xbe7ba13f	-0.24573229
39	0xbe4b6d3a	-0.19865885
40	0xbeaaec27	-0.33383295
41	0xbd049a0e	-0.03237348
42	0x3d205775	0.039145906
43	0xbe9dfb44	-0.30855763
44	0x3e3fc69a	0.18728104
45	0xbedc319a	-0.43006593
46	0x3ec542c5	0.38527504
47	0x3d5fcf3e	0.054641
48	0xbd93164b	-0.071819864
49	0xbe3d8e0c	-0.18511218
50	0x3e6ba8b3	0.23013572
51	0x3eab0156	0.33399457
52	0xbe89cbb2	-0.2691322
53	0xbdc866a0	-0.09785199
54	0x3ea98718	0.3311088
55	0xbd871cea	-0.06597312
56	0xbead1761	-0.338069
57	0xbe17c63c	-0.14821714
58	0x3cb9e35b	0.02269142
59	0xbd92338d	-0.07138739
60	0xbe8a6107	-0.2702715
61	0xbe7afeac	-0.24511212
62	0x3e1c921a	0.15290108
63	0x3eaf4957	0.3423564
64	0x3ee26017	0.44213936
65	0xbc30e3cb	-0.010796498
66	0x3e571b6e	0.21006557
67	0xbea222e5	-0.31667247
68	0x3e84b81f	0.25921723
69	0x3eec4a63	0.46150503
70	0x3e786a85	0.24259384
71	0xbe2f8ffc	-0.1714477
72	0x3ebccd7e	0.36875528
73	0xbed4fc4f	-0.41598746
74	0xbd303328	-0.043017536
75	0xbdd3d471	-0.10343254
76	0xbee5e030	-0.44897604
77	0xbe681a92	-0.22666386
78	0xbe8f568d	-0.2799572
79	0x3e3bd7c0	0.18344021
80	0xbc9eb99c	-0.019375615
81	0x3e642862	0.2228103
82	0xbdc14c30	-0.0943836
83	0x3eb4e73d	0.3533267
84	0x3d79a17b	0.060945015
85	0x3ece141d	0.4024972
86	0x3ecaabd3	0.39584216
87	0xbeb1345d	-0.34610263
88	0xbe8a6b84	-0.27035153
89	0x3e979a81	0.29610065
90	0x3ee70a96	0.45125264
91	0xbeb7ff44	-0.3593694
92	0x3c4627dc	0.012094464
93	0xbe249dba	-0.16075793
94	0x3ed51bf8	0.416229
95	0x3eba5296	0.36391133
96	0x3e9d7eb2	0.30760723
97	0x3e8663e3	0.26248083
98	0xbd40aedd	-0.047041763
99	0x3ed777f6	0.4208371
100	0xbe580847	-0.21096908
101	0x3cc757df	0.024333892
102	0xbe0f3eee	-0.1398885
103	0xbea7ca45	-0.32771507
104	0xbe50d47f	-0.20393561
105	0x3e19efe4	0.15032917
106	0x397847e0	0.00023677899
107	0xbe843bb0	-0.25826788
108	0xbcc04177	-0.023468716
109	0x3de225be	0.11042355
110	0xbea6c99f	-0.325757
111	0x3e883951	0.2660623
112	0xbec88264	-0.3916198
113	0x3bc5e536	0.006039287
114	0xbeaff808	-0.3436892
115	0xbebf05e5	-0.37309185
116	0xbcc6367a	-0.024195898
117	0x3ee17c7d	0.4404029
118	0x3ee13531	0.43985894
119	0x3e3eb4d6	0.18623671
120	0x3ea97629	0.33097962
121	0xbe803609	-0.25041226
122	0x3e7c114a	0.2461597
123	0x3e885ed5	0.2663485
124	0xbee071e2	-0.43836886
125	0xbeb1cd12	-0.3472677
126	0x3e3c6cfe	0.18400952
127	0x3cd2dd45	0.025740275
128	0xbea65a35	-0.32490698
129	0xbeb4a18f	-0.3527951
130	0x3eaa3edc	0.33251083
131	0x3d5cc348	0.053897172
132	0x3bde95e3	0.0067927702
133	0xbedd8ab8	-0.43269897
134	0x3ec5ada1	0.3860903
135	0xbe9d0a87	-0.30672094
136	0x3e3ba382	0.18324092
137	0xbd7e228a	-0.062044658
138	0x3b8c6e47	0.004285607
139	0x3e5a7784	0.21334654
140	0xbdf7edb4	-0.12105885
141	0xbe046b6c	-0.12931603
142	0x3eb41654	0.35173285
143	0xbeb1bebd	-0.34715834
144	0x3e4839d4	0.1955331
145	0xbe080710	-0.13283944
146	0xbe2a52c9	-0.16633143
147	0x3e8fa350	0.28054285
148	0x3d4ac6ed	0.049506117
149	0xbedf0912	-0.43561608
150	0x3ed8268b	0.42216906
151	0xbe3efa64	-0.18650204
152	0x3ec7a380	0.38991928
153	0xbe06b3ff	-0.131546
154	0x3edc195c	0.42988098
155	0x3e132873	0.14370899
156	0xbc35bc4a	-0.011092255
157	0x3e38f8ce	0.18063661
158	0xbb63a4b8	-0.0034735631
159	0xbe581154	-0.2110036
160	0x3e85864d	0.26079026
161	0x3e9d36b6	0.30705804
162	0xbd42a9ad	-0.047525097
163	0x3ecf948c	0.4054302
164	0x3cd69ab7	0.02619682
165	0xbe85fb72	-0.261684
166	0xbe8703b7	-0.26370022
167	0x3e90bb3a	0.28267843
168	0xbe50269f	-0.20327233
169	0x3e8358ed	0.25653782
170	0xbee15455	-0.44009653
171	0x3bd36711	0.0064514955
172	0xbea2203e	-0.31665224
173	0x3e19af64	0.15008312
174	0x3eb70f1d	0.35753718
175	0x3e1413b5	0.14460643
176	0xbe422aa2	-0.18961576
177	0xbed5226b	-0.4162782
178	0xbe6a15e2	-0.2285991
179	0xbe8efcf6	-0.2792737
180	0x3eef75e9	0.46769646
181	0xbe500d66	-0.20317611
182	0x3e37971c	0.17928737
183	0x3ea743a9	0.32668808
184	0x3e0a5478	0.13508785
185	0xbed8c9e2	-0.42341524
186	0xbd9f0645	-0.07764868
187	0xbe2f9638	-0.17147148
188	0x3e80df19	0.2517021
189	0xbd9f6780	-0.07783413
190	0xbc847b0e	-0.016171958
191	0x3ed4631b	0.4148186
192	0x3ddbfea7	0.107419305
193	0x3e5fc8b8	0.21853912
194	0xbe00ce51	-0.12578703
195	0x3e92cb3e	0.28670686
196	0x3d6d0745	0.05786826
197	0xbdc0a129	-0.09405739
198	0x3d9f237d	0.07770441
199	0xbeb85b18	-0.36007
200	0x3c1a0d6f	0.009402617
201	0x3e4d8411	0.2006991
202	0xbed8aaba	-0.42317754
203	0xbe77648b	-0.24159448
204	0x3e8f4457	0.27981827
205	0xbc54a46c	-0.012978654
206	0xbd237c9d	-0.039913762
207	0x3c9c0cf2	0.019049142
208	0xbe669dd5	-0.22521146
209	0x3eb0f438	0.34561324
210	0xbd532ee5	-0.051558394
211	0xbe282c2a	-0.16423097
212	0x3e75ac03	0.23991399
213	0xbeb7f221	-0.35926917
214	0xbdb7b170	-0.089693904
215	0x3cf2aaa6	0.029622387
216	0xbe15e8d0	-0.14639592
217	0x3e6e57da	0.232757
218	0xbeca47d6	-0.3950793
219	0xbe0b0a2f	-0.13578103
220	0xbe23c415	-0.15992768
221	0x3ee166dc	0.44023788
222	0x3e4cbef8	0.19994724
223	0xbea1a7d7	-0.31573364
224	0x3e409ed4	0.18810588
225	0xba85b570	-0.0010201167
226	0x3ed143fb	0.40872177
227	0x3e83f41a	0.25772172
228	0xbe84e3e7	-0.25955126
229	0x3eca9d0e	0.39572948
230	0xbdd085a5	-0.10181741
231	0xbe050a52	-0.12992218
232	0x3ddcdc01	0.1078415
233	0x3ed699cc	0.41914213
234	0x3e033e62	0.12816766
235	0xbef2b059	-0.47400168
236	0xbe3d2015	-0.1846927
237	0x3ec1bb2d	0.37838116
238	0xbe43f640	-0.19136906
239	0xbe74aef8	-0.2389487
240	0xbebfe578	-0.37479758
241	0xbe8e5651	-0.2780023
242	0xbe86c0b6	-0.26318902
243	0x3d9dd2a4	0.07706192
244	0x3e1e5f92	0.15466145
245	0x3ed15544	0.40885365
246	0x3e986817	0.29766914
247	0x3c82a919	0.015949773
248	0x3e74073f	0.23830889
249	0x3e8af3df	0.27139184
250	0xbeceb322	-0.40371042
251	0x3e58e6d8	0.2118181
252	0xbea1bf66	-0.31591338
253	0x3eab069f	0.3340349
254	0xbe4e4ce4	-0.20146519
255	0x3d9be169	0.07611353

phi.initial_conv_module.0._layers.5.weight f4 [64]
0	0x3f7d5e17	0.98971695
1	0x3f782cc9	0.96943337
2	0x3f839444	1.0279622
3	0x3f7d0dd7	0.9884924
4	0x3f83bb51	1.029154
5	0x3f831d85	1.0243384
6	0x3f8329c3	1.024712
7	0x3f85827e	1.0430448
8	0x3f7f8213	0.9980785
9	0x3f7b18f4	0.9808495
10	0x3f7c990e	0.9867104
11	0x3f7c3c36	0.98529375
12	0x3f80cf75	1.0063311
13	0x3f7f1b7e	0.99651325
14	0x3f6f3026	0.93432844
15	0x3f7ebf47	0.99510616
16	0x3f7fa73e	0.99864566
17	0x3f7f4af5	0.9972375
18	0x3f7cea5f	0.9879512
19	0x3f7995f9	0.97494465
20	0x3f83ed54	1.0306802
21	0x3f7fea0e	0.99966514
22	0x3f81ec05	1.0150152
23	0x3f7e9317	0.9944319
24	0x3f74ccd5	0.9562505
25	0x3f80e0ee	1.0068643
26	0x3f7f2e57	0.99680084
27	0x3f79cbb3	0.97576445
28	0x3f772c68	0.96552134
29	0x3f7aeb2a	0.9801508
30	0x3f803604	1.0016484
31	0x3f7e32ca	0.9929625
32	0x3f83d0d7	1.0298108
33	0x3f75d7ce	0.96032417
34	0x3f7a686b	0.9781558
35	0x3f7939e8	0.9735398
36	0x3f7daa9a	0.9908844
37	0x3f81fd2b	1.0155386
38	0x3f83656e	1.0265329
39	0x3f7d7df6	0.99020326
40	0x3f8236e8	1.0173006
41	0x3f7b6802	0.9820558
42	0x3f81b668	1.0133791
43	0x3f800332	1.0000975
44	0x3f813b7e	1.009628
45	0x3f8157a1	1.0104867
46	0x3f7e824c	0.9941757
47	0x3f7f9a7d	0.99845105
48	0x3f82b53f	1.0211562
49	0x3f7fd083	0.9992754
50	0x3f83d1e4	1.0298429
51	0x3f7d81eb	0.99026364
52	0x3f823f4b	1.0175565
53	0x3f7fe09a	0.9995209
54	0x3f7bbf57	0.98338836
55	0x3f83e406	1.0303962
56	0x3f7b7a47	0.98233455
57	0x3f84d351	1.0376989
58	0x3f7e6688	0.993752
59	0x3f833c72	1.0252821
60	0x3f82691d	1.0188328
61	0x3f7def1c	0.99192977
62	0x3f7f9735	0.998401
63	0x3f7d13ef	0.9885854

phi.initial_conv_module.0._layers.5.bias f4 [64]
0	0x3b56d7b2	0.0032782373
1	0xbd099226	-0.033586644
2	0x3cc39760	0.023875892
3	0xbc7deac6	-0.015497869
4	0x3c9c5d56	0.019087475
5	0x3c3d66d9	0.011560165
6	0x3cfee7b6	0.031116348
7	0x3bba765e	0.00569038
8	0xbb66aaf1	-0.0035197104
9	0x3aa31f47	0.0012445234
10	0x3b110531	0.0022128338
11	0x3c1e874d	0.009675813
12	0x3cef9a7f	0.029248474
13	0x3c0a2fa5	0.008434211
14	0xbd0da53e	-0.034581415
15	0xbc77c4b5	-0.015122582
16	0x3c9b595a	0.018963505
17	0xbc0a85cf	-0.008454754
18	0xbcb5ba9c	-0.022183709
19	0x3b913ba7	0.00443216
20	0x3c8d08af	0.017216055
21	0xbb92eca4	-0.004483776
22	0x3d30d332	0.04317016
23	0x3cd942ea	0.026521165
24	0xbd08bd5e	-0.03338372
25	0x3cb7bd8f	0.022429256
26	0x389d2382	7.492957e-05
27	0xbbb595d2	-0.0055415416
28	0xbcbf0101	-0.023315908
29	0xbc4dac2f	-0.012553259
30	0x3b09807e	0.0020981128
31	0xbc384c95	-0.011248727
32	0x3d585944	0.052819505
33	0x3c08e4bf	0.008355319
34	0xbc5abe0d	-0.013350976
35	0xbc303caf	-0.010756656
36	0x3b2fabeb	0.0026805352
37	0x3c84db8a	0.016217966
38	0x3cf60d16	0.030035537
39	0xbccc895a	-0.024967838
40	0x3bb5946e	0.005541376
41	0xbcb12a3f	-0.02162659
42	0xbd694065	-0.056946177
43	0x3cdb4e18	0.026770636
44	0x3c94f2c4	0.018182166
45	0x3cb015ac	0.021494709
46	0x3b5e6abb	0.0033938128
47	0x3b3a2510	0.0028403439
48	0x3ba7521c	0.0051062237
49	0x3bce8dc8	0.0063035227
50	0x3c98329b	0.018578818
51	0xbd361993	-0.044457983
52	0x3cf68084	0.030090578
53	0xbc0d7c44	-0.008635584
54	0xbc3ae460	-0.011406988
55	0x3c8dc929	0.017307835
56	0xbc3e42dc	-0.01161262
57	0xbba0d72e	-0.004908464
58	0xba74f335	-0.0009344102
59	0x3c3b191c	0.011419561
60	0x3d0037a7	0.031303074
61	0xbc970c3b	-0.01843845
62	0x3b7d7df8	0.003867982
63	0xbcfcb1b1	-0.030846449

phi.initial_conv_module.0._layers.5.running_mean f4 [64]
0	0x3dbabee9	0.091184445
1	0xbd2014b4	-0.039082244
2	0xbe463f90	-0.19360185
3	0x3ddfe4f3	0.109323405
4	0x3de81e7e	0.11333941
5	0xbdcaba4c	-0.098988146
6	0xbdcfeb9f	-0.10152363
7	0xbc58846d	-0.0132151665
8	0xbda2af21	-0.079435594
9	0xbcc046af	-0.023471205
10	0x3db2fa27	0.08739119
11	0xbddc544f	-0.10758268
12	0x3d99c346	0.075079486
13	0x3de10ee8	0.10989171
14	0xbb6e7b36	-0.0036389357
15	0xbdfed86d	-0.12443624
16	0x3dc562d3	0.0963799
17	0x3d9fd2fa	0.078039125
18	0x3d6c6a4e	0.057718568
19	0x3e6256b9	0.22103395
20	0xbe0826a9	-0.13295998
21	0xbb5a22fb	-0.003328501
22	0xbe05cae3	-0.13065676
23	0x3df9e16b	0.12201198
24	0x3cd226dd	0.025653297
25	0xbdff30fb	-0.12460514
26	0x3d825048	0.06362969
27	0x3bb065bb	0.005383221
28	0xbc035cfd	-0.008017776
29	0xbd6c8b03	-0.05774976
30	0x3dd552e7	0.10416203
31	0x3c488a7a	0.012240047
32	0x3e33ccc6	0.17558584
33	0xbd03f483	-0.032215606
34	0xbd283b83	-0.04107238
35	0xbe0da0ee	-0.13830921
36	0x3e0a872a	0.13528123
37	0xbd4dd0c1	-0.05024791
38	0x3dd73017	0.10507219
39	0xbb9756aa	-0.0046184855
40	0xbce78b6c	-0.028264724
41	0x3c73e7e0	0.014886826
42	0xbd92654a	-0.071482256
43	0xbd8b9e6c	-0.06817326
44	0x3d861c70	0.06548393
45	0x3e1280a6	0.14306888
46	0x3db8f777	0.09031575
47	0xbdb4a625	-0.08820752
48	0xbde31a94	-0.11089054
49	0x3e61906c	0.22027749
50	0xbd6a1673	-0.057150315
51	0xbc1f9617	-0.009740374
52	0xbd5e778f	-0.05431324
53	0xbd8c875a	-0.06861754
54	0xbd943fb7	-0.07238715
55	0xbe082982	-0.13297084
56	0xbda71645	-0.081585445
57	0xbc5db705	-0.013532405
58	0xbc91be58	-0.017790958
59	0xbdb03367	-0.08603554
60	0x3da63415	0.081154026
61	0xbd82d11f	-0.06387543
62	0x3dc80344	0.09766248
63	0x3cc43f88	0.023956075

phi.initial_conv_module.0._layers.5.running_var f4 [64]
0	0x3e1058a5	0.14096315
1	0x3d0dc8db	0.03461538
2	0x3e94ba2c	0.29048288
3	0x3e1120ec	0.14172715
4	0x3e8de647	0.2771475
5	0x3dd800b4	0.10547009
6	0x3dc7ea3d	0.09761474
7	0x3c8182ae	0.015809383
8	0x3d90b9f1	0.070667155
9	0x3c7d18dc	0.0154478215
10	0x3dc1306d	0.094330646
11	0x3d9d1a51	0.07671035
12	0x3dced835	0.10099832
13	0x3dfc33af	0.12314545
14	0x3c2b86b5	0.010469128
15	0x3e9017b7	0.28143093
16	0x3da6f299	0.081517406
17	0x3da26db2	0.07931079
18	0x3d915fc1	0.07098342
19	0x3ef0e6f1	0.47051194
20	0x3e54d65e	0.207849
21	0x3b6677ea	0.003516669
22	0x3e44a4be	0.19203469
23	0x3e0e7f4f	0.13915752
24	0x3cc1df15	0.023665944
25	0x3e62327d	0.22089572
26	0x3d426505	0.04745962
27	0x3b951f04	0.0045508165
28	0x3b70bb78	0.0036732834
29	0x3d2b31fa	0.04179571
30	0x3e8ced75	0.27524915
31	0x3be5cd42	0.007012994
32	0x3e862531	0.2620025
33	0x3cc7732f	0.024346916
34	0x3d012abd	0.0315349
35	0x3ede7b15	0.4345328
36	0x3e85e0f4	0.26148188
37	0x3d7a8fd2	0.061172314
38	0x3e29c67c	0.16579622
39	0x3c568722	0.013093742
40	0x3ccbfb64	0.024900146
41	0x3b860213	0.0040896027
42	0x3d976fed	0.07394395
43	0x3d96bfb1	0.07360781
44	0x3da069bd	0.07832668
45	0x3e32f9c1	0.17478086
46	0x3d8049e2	0.06264092
47	0x3e1a7a06	0.15085611
48	0x3e174e35	0.14775927
49	0x3ebbabdc	0.36654556
50	0x3d11912d	0.03553884
51	0x3c3b57c3	0.011434498
52	0x3d9f488c	0.07777509
53	0x3d2837ef	0.041068967
54	0x3d9adff5	0.07562248
55	0x3e21daac	0.15806073
56	0x3dd95dc2	0.10613586
57	0x3c0e949d	0.008702424
58	0x3bc1ffa0	0.0059203655
59	0x3dbae2f9	0.09125323
60	0x3e626468	0.22108614
61	0x3cff7a21	0.031186165
62	0x3dd7744d	0.105202295
63	0x3c2dc24e	0.010605408

phi.initial_conv_module.0._layers.7.se_conv.conv.weight f4 [10, 64, 1]
0	0x3d947121	0.0724814
1	0xbdde88f6	-0.10865967
2	0xbda917cc	-0.08256492
3	0xbc54a774	-0.012979377
4	0xbe12e8c3	-0.14346604
5	0xbdf285ba	-0.118419126
6	0xbdc6fea2	-0.09716536
7	0x3d8e9c4e	0.069634065
8	0x3d0d93e6	0.034564875
9	0xbd1d67f1	-0.038429204
10	0x3c0e80dd	0.008697716
11	0xbdbc426d	-0.09192357
12	0xbdacfc65	-0.08446578
13	0xbdc95902	-0.0983143
14	0xbdd85d9d	-0.1056473
15	0x3d965df2	0.073421374
16	0xbd9d87da	-0.07691927
17	0xbd53a164	-0.051667586
18	0xbdf25497	-0.118325405
19	0x3bb60390	0.005554624
20	0xbd322ed2	-0.043501683
21	0xbdb3f3f6	-0.08786766
22	0x3da10fc0	0.07864332
23	0x3d9f2da9	0.07772381
24	0xbdbdb008	-0.09262091
25	0x3d972c9d	0.07381556
26	0xbd4998c1	-0.049217943
27	0xbca23302	-0.019799713
28	0x3d900655	0.07032458
29	0xbce13821	-0.027492585
30	0x3dde9f7e	0.108702645
31	0x3dab529f	0.08365368
32	0xbdd06ef7	-0.10177415
33	0xbd91d33b	-0.07120367
34	0xbdff3af8	-0.12462419
35	0x3ceb1db0	0.02870068
36	0xbd8eb497	-0.069680385
37	0xbdcc9ab3	-0.09990444
38	0xbdf3c427	-0.119026475
39	0xbe1cb2eb	-0.15302627
40	0xbddaa76c	-0.106764644
41	0x3df894ad	0.12137733
42	0x3da77c03	0.0817795
43	0x3de46d97	0.11153715
44	0xbdc1cbeb	-0.094627224
45	0xbd9f2a52	-0.07771744
46	0xbd35e8cd	-0.04441147
47	0xbb9aba04	-0.004721882
48	0xbdbf33bd	-0.0933604
49	0x3d05e27c	0.032686695
50	0xbdc0f73c	-0.09422156
51	0x3c02b2e1	0.007977218
52	0x3df0eb74	0.11763659
53	0x3d449195	0.0479904
54	0x3daf0a33	0.08546867
55	0xbdf3d581	-0.11905957
56	0xbca0088f	-0.019535331
57	0xbd6aa68c	-0.057287738
58	0xbcdae4b5	-0.026720384
59	0xbd93ccf7	-0.07216828
60	0xbd891fde	-0.06695531
61	0xbdd6e76c	-0.10493359
62	0xbd2f8e22	-0.042860158
63	0x3cac8762	0.02106065
64	0xbce14ef2	-0.027503464
65	0xbdc67b4d	-0.096914865
66	0x3de2ea8d	0.11079893
67	0x3d97610f	0.07391559
68	0xbdcd7ee2	-0.100339666
69	0x3d1315c2	0.03590942
70	0x3dc4554f	0.09586584
71	0xbe02a4ea	-0.12758222
72	0xbd8117d7	-0.06303375
73	0x3ddd2630	0.10798299
74	0x3d2febe8	0.042949587
75	0x3dc07c98	0.09398764
76	0x3aa49203	0.0012555722
77	0x3d3a9d49	0.045560155
78	0x3db94964	0.09047201
79	0xbcb9d436	-0.022684198
80	0xbd281454	-0.04103501
81	0xbe35fd7b	-0.17772476
82	0xbc4981d5	-0.012299021
83	0x3db94e0b	0.09048089
84	0xbdeb4496	-0.11487691
85	0x3cfde5e4	0.03099341
86	0x3d361f03	0.04446317
87	0xbd4794be	-0.048725836
88	0xbdb382e1	-0.087651975
89	0xbccee08b	-0.025253555
90	0xbd846257	-0.06464069
91	0xbd254e54	-0.040357903
92	0xbdb1a514	-0.08674064
93	0x3d5974f1	0.05309004
94	0xbbca0521	-0.006165162
95	0x3cd3743e	0.025812265
96	0xbcc4c8f5	-0.024021605
97	0x3da490eb	0.080354534
98	0xbd98c8ac	-0.0746015
99	0xbdf40f8c	-0.11917028
100	0xbd323d60	-0.043515563
101	0xbdea0fcb	-0.114287935
102	0xbd4adae0	-0.04952514
103	0x3d9a63e9	0.075385876
104	0xbd8d316c	-0.06894192
105	0xbd8386f9	-0.06422228
106	0xbd8dff2e	-0.06933437
107	0xbd36e8b5	-0.04465552
108	0x3c0c65e8	0.008569218
109	0xbdab50cd	-0.08365021
110	0xbc6afc2e	-0.014342351
111	0xba711784	-0.00091969245
112	0xbd315d49	-0.043301854
113	0x3da259a9	0.079272576
114	0x3d1cca90	0.038279116
115	0x3e14d43d	0.14534087
116	0x3b9450a4	0.0045262147
117	0x3e0a9a07	0.1353532
118	0x3dcd82d1	0.10034717
119	0x3c33ec62	0.010981651
120	0x3d4aa27e	0.04947137
121	0xbd0eb9ba	-0.03484509
122	0xbd72f78e	-0.059318118
123	0x3d22485d	0.039619792
124	0x3d8e91f5	0.06961433
125	0x3df5d7d1	0.12004054
126	0xbb8b1e81	-0.0042455797
127	0xbd902330	-0.070379615
128	0x3db794cc	0.089639276
129	0xbcb07179	-0.021538483
130	0x3e05762f	0.13033365
131	0xbd82a563	-0.06379201
132	0xbd008f92	-0.03138692
133	0x3c53808d	0.012909067
134	0x3d8f7274	0.07004252
135	0xbdbeb6bc	-0.093121976
136	0xbd2754db	-0.04085241
137	0x3d97cae9	0.07411749
138	0x3bc0aa71	0.005879693
139	0x3dbf6eec	0.093473285
140	0xbd625753	-0.05525906
141	0xbdb5fbd3	-0.08885922
142	0xbde0d1ca	-0.10977514
143	0xbd94fe43	-0.07275059
144	0xbda6b174	-0.08139315
145	0x3d95f712	0.073225155
146	0x3d8dfbff	0.0693283
147	0xbd919ef1	-0.07110394
148	0x3dd923c3	0.10602524
149	0x3cf2bbe8	0.029630616
150	0x3d2d129e	0.042254083
151	0xbd9864f3	-0.074411295
152	0x3dd18199	0.10229797
153	0xbdac6f87	-0.0841971
154	0x3dab51aa	0.083651856
155	0xbd16109e	-0.03663694
156	0x3cd2829c	0.025697045
157	0xbd6ad381	-0.057330612
158	0x3d906700	0.07050896
159	0xbddfc4d6	-0.10926215
160	0xbc922c33	-0.017843341
161	0xbd6e744d	-0.05821638
162	0xbd5de672	-0.054174848
163	0xbd6f8bba	-0.058482863
164	0xbd699c7a	-0.057033993
165	0x3cae136b	0.021249494
166	0x3dbf2319	0.09332866
167	0x3bedff5f	0.0072631086
168	0x3deb3b6a	0.11485942
169	0xbd2ac917	-0.04169568
170	0xbdb4a213	-0.08819976
171	0xbd0653dd	-0.032794822
172	0xbc6b5bb3	-0.0143651245
173	0x3cbc0498	0.02295141
174	0x3e0e4013	0.1389163
175	0x3d1e3359	0.038623188
176	0xbdbfdabe	-0.09367894
177	0xbd6d6618	-0.057958692
178	0xbceeaa13	-0.029133832
179	0xbdec2c5d	-0.11531899
180	0x3d3a3fc3	0.045470964
181	0x3dd85a4d	0.105640985
182	0x3d443800	0.04790497
183	0x3bfb7394	0.00767369
184	0x3b6f56fe	0.0036520357
185	0xbda2e201	-0.07953263
186	0xbd167ac9	-0.03673819
187	0x3dd48664	0.103771955
188	0xbd583a70	-0.052790105
189	0x3d3c7c14	0.046016768
190	0xbdb7c401	-0.08972932
191	0xbc2e0b52	-0.010622816
192	0x3b8deb25	0.00433101
193	0xbde47804	-0.11155704
194	0x3d1726fb	0.03690241
195	0xbdeeacc9	-0.1165405
196	0xbd902982	-0.07039167
197	0x3dc197c2	0.09452774
198	0x3dcf3e01	0.10119248
199	0xbc6a86f2	-0.0143144
200	0xbddf36d8	-0.108991325
201	0xbdea7be3	-0.11449411
202	0xbd0b573e	-0.034018748
203	0xbda0ccb8	-0.07851547
204	0x3dad310b	0.0845662
205	0xbdc02e44	-0.093838245
206	0x3d8c8b95	0.06862561
207	0x3c9dfd26	0.01928575
208	0xbd41c423	-0.04730619
209	0x3dbf3b8a	0.09337528
210	0x3d9518b4	0.07280102
211	0xbb6846d1	-0.00354426
212	0xbdaebbc6	-0.08531909
213	0xbd4c71d5	-0.049913246
214	0x3ca7b75f	0.02047318
215	0x3dd18d98	0.10232085
216	0xbccc5eac	-0.024947487
217	0xbd9d7601	-0.07688523
218	0xbe12c7fa	-0.14334098
219	0x3da6a6bb	0.0813727
220	0x3dcb9107	0.09939771
221	0x3da8d3bf	0.08243512
222	0xbd900c13	-0.07033553
223	0x3d7bbb4a	0.06145791
224	0xbcf8f2d0	-0.03038922
225	0x3d606d79	0.0547919
226	0x3d910569	0.0708111
227	0xbdf938c0	-0.12169027
228	0x3b5baa5b	0.0033518288
229	0x3d4fd446	0.05073955
230	0xbd91194a	-0.07084902
231	0x3dfa5b15	0.12224404
232	0x3dbfa96c	0.093584865
233	0x3dd76983	0.10518172
234	0xbcd9abce	-0.02657118
235	0xbdd7293e	-0.10505913
236	0xbd88f505	-0.06687359
237	0x3cce1dcb	0.02516069
238	0xbd25de02	-0.040494926
239	0x3dc54b58	0.09633511
240	0x3dd8689d	0.105668284
241	0xbaf09e6d	-0.0018357761
242	0xbdef89ea	-0.11696227
243	0x3d1f38bf	0.038872477
244	0x3db4353b	0.087992154
245	0xbd6edd33	-0.05831642
246	0xbdbcf10e	-0.09225665
247	0xbd102dfb	-0.0352001
248	0x3cac477c	0.02103018
249	0xbdc1f213	-0.0947
250	0x3d36211b	0.044465166
251	0x3d1dd2e3	0.038531195
252	0xbd8a7dee	-0.067623004
253	0xbd25f5b0	-0.04051751
254	0xbd6fed6a	-0.058576025
255	0x3dc82711	0.09773076

phi.initial_conv_module.0._layers.7.se_conv2.conv.weight f4 [64, 10, 1]
0	0xbe07462d	-0.13210364
1	0x3d3a1ad3	0.045435738
2	0xbd47a4e3	-0.048741233
3	0xbdd6f368	-0.10495645
4	0xbe252d8c	-0.16130656
5	0x3d748010	0.059692442
6	0xbe5c541c	-0.2151646
7	0x3e8f153e	0.27945894
8	0xbd46154d	-0.048360158
9	0x3d800eb3	0.06252804
10	0x3e1bc799	0.15212859
11	0xbe2486f5	-0.16067107
12	0x3e60d946	0.21957883
13	0xbc8f4b73	-0.017492032
14	0x3cc0a66e	0.02351686
15	0xbe89973c	-0.26873195
16	0x3c270eda	0.010196412
17	0x3dd6f321	0.10495592
18	0x3d4d4627	0.05011573
19	0xbcf58986	-0.029972803
20	0x3e5545db	0.20827429
21	0x3e9c7ded	0.30564824
22	0x3e42657e	0.18984029
23	0xbd918479	-0.07105345
24	0xbc6f0670	-0.014588937
25	0xbe842c79	-0.2581518
26	0xbe67db62	-0.22642282
27	0xbd992f7b	-0.07479759
28	0x3d90746d	0.070534565
29	0xbe1f8f33	-0.1558197
30	0xbe849754	-0.25896704
31	0x3e02b3d3	0.1276391
32	0x3e0a3cc8	0.13499749
33	0xbe426d06	-0.18986902
34	0x3e5d42ee	0.21607563
35	0xbe587ce4	-0.21141392
36	0x3e5a7290	0.21332765
37	0x3e358bcc	0.1772911
38	0xbdd7677b	-0.10517784
39	0x3e880114	0.26563323
40	0xbe58f692	-0.21187809
41	0xbe1116cd	-0.14168854
42	0x3e81672a	0.2527402
43	0xbdd0e04a	-0.1019903
44	0xbdf5cdc4	-0.12002137
45	0x3d8e5a43	0.0695081
46	0xbd2dff01	-0.04247952
47	0x3e3c699b	0.1839966
48	0x3e9be827	0.30450556
49	0x3e4184b4	0.18898278
50	0x3d8ea6b3	0.06965389
51	0x3d85b27f	0.06528186
52	0xbd0b2772	-0.033973165
53	0x3b52ce0f	0.0032166278
54	0xbd0b123e	-0.033952944
55	0x3e41161a	0.18856087
56	0x3e431ed5	0.1905473
57	0xbd3f65fd	-0.046728123
58	0x3e29ba76	0.16575035
59	0x3d7ef4da	0.062245227
60	0x3dcc03c8	0.09961659
61	0x3ea16501	0.31522372
62	0xbe4e5aec	-0.20151871
63	0x3d666162	0.056245215
64	0xbdd0b386	-0.101904914
65	0xbebb9b73	-0.36642036
66	0xbe983859	-0.2973049
67	0xbd26caa8	-0.04072061
68	0x3e85119d	0.2599
69	0xbe4ab612	-0.19796017
70	0x3d5cc7c6	0.053901456
71	0x3e25718b	0.16156594
72	0xbe773df7	-0.24144731
73	0x3dbd1c03	0.092338584
74	0x3d99adff	0.0750389
75	0xbe927d1d	-0.2861108
76	0x3d20ac01	0.039226536
77	0xbeb52d98	-0.35386348
78	0x3ea50183	0.32227716
79	0x3e40a67f	0.18813513
80	0x3e1c4727	0.15261517
81	0x3e747b0d	0.23875065
82	0x3e684c38	0.22685325
83	0x3eb4a563	0.3528243
84	0x3df08ed8	0.11745995
85	0xbe82a12c	-0.2551359
86	0x3e9c568e	0.30534786
87	0x3db06ae5	0.086141385
88	0xbe0a3cf3	-0.13499813
89	0xbde4f888	-0.11180216
90	0x3e8e1d01	0.27756503
91	0x3dc25d09	0.09490401
92	0x3e69be5e	0.22826526
93	0x3cafd490	0.021463662
94	0x3e9608b8	0.29303527
95	0xbe773b4f	-0.24143718
96	0x3dc7e6ce	0.097608194
97	0x3da3e40c	0.08002481
98	0xbc4b841d	-0.012421635
99	0x3e86364d	0.26213303
100	0x3d18567e	0.03719186
101	0x3c23b9ca	0.009993026
102	0x3e72e666	0.23720703
103	0xbb3ab9b4	-0.0028492035
104	0x3ce41861	0.027843656
105	0xbe7e3ac1	-0.248271
106	0x3d0d12a0	0.03444159
107	0xbe082d13	-0.13298444
108	0x3e31271a	0.17300072
109	0x3e7e8936	0.2485703
110	0xbea729f1	-0.32649186
111	0xbe310858	-0.17288339
112	0x3e97eb60	0.29671764
113	0xbe2413f2	-0.16023234
114	0x3e95dfc2	0.29272276
115	0x3ea34638	0.3188951
116	0xbd88223f	-0.06647157
117	0xbe7541ca	-0.23950878
118	0x3e35b0fc	0.17743295
119	0x3e2089b5	0.15677531
120	0x3e8ded6a	0.27720195
121	0x3d51ec2b	0.051250618
122	0x3e384ff0	0.17999244
123	0xbe74fa87	-0.23923694
124	0x3d5e8d4d	0.054333974
125	0x3d3f9fe8	0.046783358
126	0x3e4f7785	0.20260437
127	0xbe1cf202	-0.15326694
128	0xbd655987	-0.055993583
129	0xbe4106cd	-0.1885025
130	0xbe624c53	-0.22099428
131	0x3e04e05d	0.12976213
132	0x3d8338ac	0.06407294
133	0x3e1346e6	0.14382514
134	0x3c260e9d	0.01013532
135	0x3c249fe4	0.0100478865
136	0xbd0c3149	-0.03422669
137	0x3e42767c	0.1899051
138	0xbe73e7b7	-0.23818861
139	0x3d782244	0.060579553
140	0x3e631be1	0.22178604
141	0x3e5e2135	0.21692355
142	0xbe122340	-0.1427126
143	0x3e64c230	0.22339702
144	0xbe84da2a	-0.25947696
145	0x3e29e742	0.16592124
146	0x3e69cd35	0.22832187
147	0x3ca6e2cc	0.020371817
148	0x3db40151	0.087893136
149	0xbebc0055	-0.36719003
150	0xbde54ab9	-0.11195893
151	0xbe0b872a	-0.1362578
152	0xbe934a9e	-0.28767866
153	0xbd4d6746	-0.050147317
154	0x3e6509b0	0.22366977
155	0xbd5f263c	-0.054479823
156	0x3ea3bbe6	0.31979293
157	0xbe923051	-0.28552487
158	0x3de78bf2	0.11305989
159	0x3e8f1b9c	0.27950752
160	0x3ea75cb1	0.32687905
161	0xbe0db6a5	-0.13839205
162	0xbe9033a2	-0.28164393
163	0xbda1863b	-0.078869306
164	0x3e7a17dd	0.24423166
165	0x3d14e525	0.03635134
166	0x3e912d31	0.2835479
167	0xbe5d94ac	-0.21638745
168	0xbe6218ed	-0.22079821
169	0x3e18d47d	0.14924808
170	0x3de586bf	0.112073414
171	0xbe5b69b7	-0.21427046
172	0x3ea19c22	0.31564432
173	0xbdc444a1	-0.095834024
174	0xbe811732	-0.2521301
175	0x3dde750b	0.10862168
176	0xbe371ff8	-0.17883289
177	0xbe075819	-0.132172
178	0xbe4b50f4	-0.198551
179	0x3d3a6a4d	0.045511533
180	0x3e2e9e3e	0.17052552
181	0x3e2a40eb	0.16626327
182	0xbe563d2e	-0.20921776
183	0xbdb72b15	-0.08943764
184	0x3e909e07	0.28245565
185	0xbe35a9f1	-0.17740609
186	0xbdc6ed7d	-0.09713266
187	0xbdc639fe	-0.0967903
188	0xbe88e640	-0.26738167
189	0xbe6057d7	-0.21908508
190	0x3e8aa584	0.27079403
191	0x3db2bbe8	0.087272465
192	0x3d76580d	0.060142566
193	0x3e0ff7b5	0.14059336
194	0x3e322223	0.17395835
195	0x3e486473	0.19569568
196	0x3e43786b	0.19088905
197	0x3e24c499	0.16090621
198	0x3e788402	0.24269107
199	0x3e4e4d6e	0.20146725
200	0xbd9c9c56	-0.07647006
201	0x3ca7018b	0.020386478
202	0xbe284ee6	-0.16436347
203	0xbe8cddbe	-0.27512926
204	0x3ea237b2	0.31683117
205	0xbe659502	-0.22420123
206	0xbe2d5c54	-0.16929752
207	0xbeac414c	-0.33643568
208	0xbe6e9586	-0.23299226
209	0x3dad626a	0.084660366
210	0x3e135739	0.14388742
211	0xbe886a8b	-0.26643786
212	0x3cfe51e0	0.0310449
213	0xbe634926	-0.22195873
214	0x3d8a1d76	0.067439005
215	0x3e57651c	0.21034664
216	0xbe0565a9	-0.13027062
217	0xbdf7a829	-0.12092621
218	0x3e583004	0.21112067
219	0xbe4a2acf	-0.19742893
220	0xbdc7cafe	-0.097555146
221	0xbe6cd0f7	-0.23126589
222	0x3e753c05	0.23948677
223	0x3e033f91	0.12817217
224	0xbdcb3b0c	-0.09923372
225	0x3e70dcf6	0.2352179
226	0x3e9de8b6	0.30841607
227	0x3e254bf9	0.16142263
228	0xbe721c85	-0.23643692
229	0xbd6adeb4	-0.057341293
230	0x3e80a471	0.2512546
231	0x3e8e3597	0.2777526
232	0xbd942277	-0.07233136
233	0x3e7a76c7	0.24459372
234	0xbe59008c	-0.21191615
235	0x3d5d852d	0.054082084
236	0x3e894648	0.26811433
237	0x3d7699eb	0.06020538
238	0xbe8be3eb	-0.27322325
239	0x3dbc8e25	0.092067994
240	0x3e545762	0.20736459
241	0x3e5d3945	0.21603878
242	0xbe53fec3	-0.20702653
243	0xbd709801	-0.058738712
244	0xbd22a177	-0.039704766
245	0xbce67760	-0.028133094
246	0xbdc2ae2f	-0.09505879
247	0xbdfb1fe6	-0.122619435
248	0x3ddfa5e6	0.109203145
249	0x3df2ea34	0.11861077
250	0xbd0383ba	-0.032108046
251	0x3e6a5402	0.22883609
252	0xbd022ba1	-0.03177989
253	0x3da65b5e	0.08122896
254	0x3d806b94	0.06270519
255	0xbe137f84	-0.14404112

phi.initial_conv_module.0._layers.8.conv.weight f4 [32, 64, 1]
0	0xbbc83ac7	-0.0061105224
1	0x3d99a89a	0.07502861
2	0x3dada0dc	0.08477947
3	0xbc7c0674	-0.015382398
4	0xbdabe254	-0.08392778
5	0x3deaab9d	0.11458514
6	0xbc16f219	-0.009212994
7	0x3de82f68	0.11337167
8	0xbe055a26	-0.1302267
9	0xbc10245d	-0.008797732
10	0xbdb05996	-0.08610837
11	0xbcb2d8dd	-0.021831924
12	0xbe006202	-0.12537387
13	0xbe0906dc	-0.13381523
14	0x3b475704	0.0030416856
15	0x3de2ffe4	0.110839635
16	0x3bf57766	0.00749104
17	0x3c382ede	0.011241643
18	0x3dd1a29d	0.10236094
19	0x3d61af6f	0.055098947
20	0xbd997932	-0.07493819
21	0x3d809b68	0.062796414
22	0x3dee5d81	0.11638928
23	0x3dc40c1b	0.095726214
24	0x3dd7a38b	0.1052924
25	0x3e01c275	0.12671836
26	0xbd5ac916	-0.053414427
27	0x3d27db42	0.040980585
28	0xbd336674	-0.04379888
29	0xbd5b8174	-0.053590253
30	0x3d51a4ea	0.051182665
31	0xbdbb7987	-0.09154039
32	0x3dae2b5d	0.08504365
33	0xbd9c87b4	-0.07643071
34	0x3caae47d	0.020860905
35	0x3c371e59	0.011176669
36	0xbd9a3bfe	-0.07530974
37	0x3d27050c	0.040776297
38	0xbd901744	-0.070356876
39	0x3dee26c1	0.116284855
40	0xbd4980d9	-0.049195144
41	0x3dd50295	0.10400883
42	0xbd046112	-0.032319136
43	0xbdc899cf	-0.09794962
44	0x3d76237c	0.060092434
45	0xbd53e36f	-0.05173057
46	0xbd46991d	-0.048485864
47	0x3cdb5320	0.026773036
48	0xbb37b8ea	-0.0028033801
49	0x3d137a7f	0.036005493
50	0xbd8ae2a5	-0.0678151
51	0xbd0bd51d	-0.034138788
52	0x3dbe9205	0.09305195
53	0x3cef3e40	0.029204488
54	0x3d840a73	0.064473055
55	0x3c0a5a7d	0.008444426
56	0xbc40d377	-0.011769167
57	0xbd6d7be1	-0.05797947
58	0xbd5588e7	-0.052132513
59	0xbd304f3f	-0.043044325
60	0xbdabc10a	-0.08386429
61	0xbb4107a1	-0.002945401
62	0x3d40516c	0.04695265
63	0x3d99288d	0.074784376
64	0x3daecefb	0.08535572
65	0xbdd4a03d	-0.103821255
66	0x3df5a463	0.11994245
67	0xbd5f3795	-0.054496367
68	0xbdff1032	-0.12454261
69	0x3dedd846	0.116135165
70	0xbc5bb1d7	-0.0134091
71	0xbde62722	-0.11237933
72	0x3d4cba7e	0.04998254
73	0x3cc77b80	0.024350882
74	0x3da591a0	0.080844164
75	0xbd11ad48	-0.035565645
76	0x3da470fd	0.08029363
77	0x3da32e98	0.079678714
78	0x3d45de1e	0.04830753
79	0xbd2e8360	-0.042605758
80	0x3cd3c84f	0.02585235
81	0x3bd64ce1	0.0065399264
82	0x3de7d2b2	0.11319484
83	0xbd82a825	-0.06379727
84	0xbdec0345	-0.11524061
85	0xbdc32c51	-0.09529937
86	0xbb868ed1	-0.0041063805
87	0xbde0d744	-0.10978559
88	0xbd2dbdb7	-0.042417254
89	0xbd6d6f0e	-0.057967238
90	0x3cc81ff0	0.024429291
91	0xbdb1346c	-0.08652577
92	0x3d9fa620	0.07795358
93	0xbdd6e6c6	-0.10493235
94	0xbd854f8f	-0.06509315
95	0x3c3f693d	0.011682806
96	0xbdecc56d	-0.115610935
97	0x3d0074e1	0.031361464
98	0xbd68d2c7	-0.056841638
99	0xbdc0aa26	-0.09407453
100	0x3dc447b3	0.09583988
101	0xbcf7e676	-0.03026126
102	0x3d139203	0.03602792
103	0xbd7e68dd	-0.062111724
104	0x3d94d3a9	0.072669335
105	0x3dd1475f	0.10218691
106	0x3e184a77	0.14872156
107	0xbda36fce	-0.079803094
108	0xbdcba2cb	-0.0994316
109	0xbdb86aea	-0.09004767
110	0x3c86852d	0.016420925
111	0x3cc1beab	0.023650488
112	0x3d57bbce	0.05266934
113	0x3d90ae50	0.070644975
114	0x3e0d9899	0.13827743
115	0xbd9edb33	-0.07756653
116	0xbe00cf01	-0.12578966
117	0xbab8a434	-0.0014087022
118	0x3dffd151	0.12491096
119	0xbdf0a229	-0.117496796
120	0x3d87e97b	0.0663633
121	0x3d3ab384	0.045581356
122	0x3dcf0c58	0.10109776
123	0x3dba03c8	0.090827525
124	0x3e067fdc	0.13134712
125	0x3df37f03	0.1188946
126	0xbd3c119d	-0.045915235
127	0xbd6f8c70	-0.05848354
128	0x3d646bab	0.055766743
129	0x3d84f702	0.064924255
130	0x3cb83352	0.022485409
131	0xbb76a784	-0.0037636468
132	0xbd453eb4	-0.0481555
133	0xbd89b278	-0.06723493
134	0x3d98c1e2	0.07458855
135	0xbe0daee8	-0.13836253
136	0x3da15eef	0.07879435
137	0xbd65946a	-0.05604974
138	0xbdbce37f	-0.09223079
139	0xbd8e8ac3	-0.069600604
140	0xbda58e92	-0.08083834
141	0xbdeefc76	-0.11669247
142	0xbb6f4a4b	-0.0036512788
143	0xbcb437fd	-0.021999354
144	0xbd573c71	-0.052547876
145	0x3c21b780	0.00987041
146	0xbcc4bfbf	-0.024017213
147	0x3d1def7f	0.03855848
148	0xbdf49752	-0.119429246
149	0xbd44512a	-0.047928967
150	0x3c64601f	0.013938933
151	0xbdd485eb	-0.10377105
152	0x3db64871	0.08900536
153	0xbd71ac45	-0.05900218
154	0x3dfcf406	0.12351231
155	0x3dc8408c	0.09777936
156	0x3c3945d7	0.011308155
157	0x3db79d06	0.08965497
158	0xbdc1e3f1	-0.094673045
159	0x3ca168a7	0.019703222
160	0xbe12b57f	-0.14327048
161	0xbda872a4	-0.08224991
162	0x3c8b5cf6	0.0170121
163	0x3d872638	0.065990865
164	0xbdcd6258	-0.10028523
165	0xbc8845ec	-0.016634904
166	0xbdc03aad	-0.093861915
167	0xbd0c12a5	-0.03419747
168	0xbe1078de	-0.14108607
169	0xbde6d4e2	-0.11271073
170	0xbd0c42c7	-0.03424337
171	0x3dd40e03	0.10354235
172	0xbbc9a968	-0.006154228
173	0xbd7a3f68	-0.061095625
174	0x3dedff37	0.11620944
175	0x3e07240b	0.13197343
176	0x3dd4dd55	0.10393778
177	0xbaf9169a	-0.0019003928
178	0xbb21d2fb	-0.0024692405
179	0x3d4a91c6	0.049455427
180	0x3d24e6d3	0.040259194
181	0x3d867d40	0.06566858
182	0x3d9c942c	0.07645449
183	0xbca68981	-0.020329239
184	0x3dd95559	0.10611982
185	0xbcbff322	-0.023431364
186	0x3dd80bcb	0.10549124
187	0x3e03b78d	0.12862988
188	0x3d9c80c3	0.07641747
189	0x3d9f56e8	0.07780248
190	0x3dcc5df2	0.09978856
191	0xbcda7c1b	-0.026670506
192	0xbcd8e9ff	-0.026478766
193	0xbbb2a22e	-0.005451462
194	0xbdbf360d	-0.09336481
195	0x3dca2491	0.09870256
196	0x3d53ac3c	0.051677927
197	0xbd001a29	-0.03127495
198	0xbda47b6d	-0.08031354
199	0xbda0dd9e	-0.0785477
200	0x3c9c0c70	0.0190489
201	0x3df254e1	0.118325956
202	0x3d9fe5d4	0.07807508
203	0x3db01700	0.08598137
204	0x3cf5188b	0.02991893
205	0x3d4ff2b4	0.05076857
206	0xbcbae7e6	-0.022815656
207	0xbdcdacef	-0.1004275
208	0x3dbddd85	0.09270767
209	0xbd48ec3a	-0.04905341
210	0xbda87312	-0.08225073
211	0x3d99cd82	0.07509901
212	0x3dc136cb	0.09434279
213	0xbd5db803	-0.054130565
214	0x3dd9d3ab	0.106360756
215	0xbdafdbe4	-0.08586863
216	0x3d98023d	0.07422302
217	0x3d9541c3	0.07287934
218	0x3c2800b4	0.010254074
219	0xbd92f4d3	-0.07175603
220	0xbd8d2f48	-0.06893784
221	0x3d555e0b	0.05209164
222	0xbb0bd1e3	-0.002133482
223	0xbdc44260	-0.095829725
224	0x3e178f39	0.14800729
225	0xbd604894	-0.054756716
226	0x3bd7b137	0.006582405
227	0x3da3fe3d	0.080074765
228	0x3db19f63	0.08672979
229	0xbdbac9b8	-0.09120506
230	0xbbc0a348	-0.0058788396
231	0xbca9a84c	-0.020710133
232	0xbd25b357	-0.040454235
233	0xbc7643f9	-0.015030854
234	0x38d184b9	9.990618e-05
235	0x3dd579bf	0.10423612
236	0xbdcc1c4d	-0.099663354
237	0x3dbba5af	0.09162461
238	0x3db41040	0.08792162
239	0xbcda2709	-0.026629942
240	0xbc5d9059	-0.013523185
241	0x3c088412	0.008332269
242	0xbe0b84ae	-0.13624832
243	0x3da16525	0.0788062
244	0xbb9919bf	-0.0046722586
245	0xbb81631a	-0.0039485814
246	0x3d3ebd11	0.046567027
247	0x3d84c6b2	0.064832106
248	0xbd649476	-0.055805646
249	0xbda002ea	-0.07813056
250	0xbddc89e1	-0.10768486
251	0xbda1a49f	-0.07892727
252	0xbd2ca640	-0.042150736
253	0xbdd4392a	-0.10362466
254	0xbb55223d	-0.0032521628
255	0xbd43f6e1	-0.047842864

phi.initial_conv_module.0._layers.9.weight f4 [32]
0	0x3f80ed62	1.0072443
1	0x3f84d240	1.0376663
2	0x3f811b72	1.0086501
3	0x3f81ac16	1.0130641
4	0x3f7f182f	0.99646276
5	0x3f80f02a	1.0073292
6	0x3f820019	1.015628
7	0x3f83ba13	1.029116
8	0x3f825710	1.0182819
9	0x3f824077	1.0175923
10	0x3f812437	1.0089177
11	0x3f821160	1.0161552
12	0x3f791e24	0.97311616
13	0x3f810cc5	1.0082022
14	0x3f856cca	1.0423825
15	0x3f8293bb	1.0201334
16	0x3f860a78	1.0471945
17	0x3f827cb6	1.0194309
18	0x3f83c0cf	1.0293216
19	0x3f82fcb2	1.0233366
20	0x3f7feafe	0.99967945
21	0x3f81b745	1.0134054
22	0x3f7b2ae1	0.98112303
23	0x3f812e36	1.0092227
24	0x3f78fc47	0.97259945
25	0x3f80dc6b	1.0067266
26	0x3f803eb9	1.0019141
27	0x3f82e702	1.0226748
28	0x3f84440c	1.0333266
29	0x3f82809a	1.0195496
30	0x3f81f05d	1.0151478
31	0x3f81f14d	1.0151764

phi.initial_conv_module.0._layers.9.bias f4 [32]
0	0x3a43358c	0.0007446639
1	0xba86c84b	-0.0010283081
2	0x3a3bf6bd	0.0007170251
3	0xbaa2614f	-0.0012388619
4	0xbaa61999	-0.0012672424
5	0x3ae5c9b9	0.0017531432
6	0x3b08e188	0.002088638
7	0xb9259b06	-0.00015793377
8	0x3b148c4b	0.002266663
9	0xba28502c	-0.0006420638
10	0xba8d36bc	-0.0010773758
11	0x3a02f1f9	0.0004995163
12	0x39b0e02c	0.00033736357
13	0xbac15a79	-0.0014751694
14	0x3ab5518f	0.001383351
15	0xb8e9a108	-0.000111403
16	0xba69c0f5	-0.00089169975
17	0x3b89685b	0.0041933483
18	0x3b0d0484	0.0021517584
19	0x390e5693	0.00013574427
20	0x38a4d104	7.8590616e-05
21	0xb8f9d6a0	-0.00011913222
22	0xb92e904e	-0.00016647691
23	0x39bf28a1	0.0003646063
24	0xb9f3ee2a	-0.00046526018
25	0x3ab6616f	0.0013914536
26	0x3ad60272	0.0016327633
27	0xb7c405ad	-2.3367664e-05
28	0xb90e6ae6	-0.00013581998
29	0xba180b3d	-0.00058000145
30	0xbb016fa2	-0.0019750376
31	0x3a806b6a	0.0009797637

phi.initial_conv_module.0._layers.9.running_mean f4 [32]
0	0x3c7e517f	0.01552236
1	0x3bc0e587	0.005886737
2	0xba0facd4	-0.00054807705
3	0x3bc0fa4d	0.005889213
4	0xbd8c5471	-0.068520434
5	0xbd379f95	-0.044829924
6	0xbd9b7e64	-0.075924665
7	0xbd0576ae	-0.032583885
8	0xbdc849a5	-0.097796716
9	0x3ce7ad9a	0.028281022
10	0x3ca2eea3	0.019889181
11	0xbc7c94f9	-0.015416377
12	0x3d9d10e3	0.076692365
13	0x3ce0d0e3	0.027443355
14	0x3b717788	0.0036844928
15	0x3d671826	0.056419514
16	0x3c5a2eb5	0.0133168
17	0xbcd9fce5	-0.026609847
18	0xbc8a413c	-0.01687681
19	0x3d842426	0.06452207
20	0x3c320920	0.010866433
21	0xbc29e0ee	-0.010368569
22	0x3c8823dd	0.016618663
23	0xbde169c0	-0.11006498
24	0x3d5df55b	0.054189067
25	0xbcb45d56	-0.022017162
26	0x3ca1d184	0.019753225
27	0x3d074dc6	0.033033155
28	0x3d202e59	0.0391067
29	0xbdb2007c	-0.08691499
30	0xbd0b243b	-0.0339701
31	0xbc4fa2b1	-0.012673066

phi.initial_conv_module.0._layers.9.running_var f4 [32]
0	0x3d195934	0.037438586
1	0x3d214848	0.039375573
2	0x3da9b303	0.08286097
3	0x3d219284	0.03944637
4	0x3d326e8f	0.04356247
5	0x3d9a48db	0.07533427
6	0x3d126385	0.03573944
7	0x3d57bfc7	0.052673128
8	0x3d494274	0.04913564
9	0x3cf33d84	0.029692419
10	0x3d16194d	0.036645222
11	0x3d59d274	0.05317922
12	0x3cfc7740	0.030818582
13	0x3d12161d	0.03566562
14	0x3d6a5daa	0.05721823
15	0x3d3af01b	0.04563914
16	0x3da91d48	0.08257538
17	0x3d46537d	0.048419464
18	0x3d10b839	0.03533194
19	0x3cd9fc3e	0.026609536
20	0x3d394983	0.045236122
21	0x3cad85b5	0.02118192
22	0x3cf0764c	0.029353283
23	0x3ccd9b17	0.025098367
24	0x3d3bf631	0.045889083
25	0x3d538b81	0.051646713
26	0x3d4d77b1	0.050162975
27	0x3d2eeade	0.042704456
28	0x3d63af8c	0.055587336
29	0x3d3b54c8	0.04573515
30	0x3dbfb33b	0.093603574
31	0x3d0f8ab3	0.035044383
