logs/4birds_CF_combined_log_linear_gru64_30epochs/2025-05-20_10-11-53/4birds_CF_combined_log_linear_gru64_30epochs_best_model.pth (torch, 331994 bytes, 198 tensors)

phi.initial_conv_module.0._layers.0.conv.weight f4 [64, 64, 1]
0	0x3c86c9f9	0.01645373
1	0x3cd683a3	0.026185816
2	0xbccd3032	-0.025047395
3	0x3d5d80a5	0.054077763
4	0xbd6025cd	-0.05472355
5	0xbc9b7e13	-0.018981015
6	0xbdf1b096	-0.11801259
7	0x3d347a43	0.04406191
8	0x3d84c325	0.06482533
9	0xbe0c7575	-0.13716681
10	0x3d885829	0.0665744
11	0xbc39a9f8	-0.011332028
12	0x3d8bfdd1	0.06835521
13	0x3c21823f	0.009857713
14	0x3dd1cf43	0.1024461
15	0x3ca97871	0.020687314
16	0x3d5e81a7	0.054322865
17	0xbd6c1567	-0.0576376
18	0xbde9cd46	-0.11416106
19	0xbd072967	-0.03299847
20	0xbdb090d9	-0.086213775
21	0xbd23c39b	-0.039981466
22	0xbdb49775	-0.08817951
23	0x3d494900	0.049141884
24	0xbde670b7	-0.112519674
25	0xbd8c9ed1	-0.06866229
26	0xbdab599b	-0.083667
27	0xbe20714d	-0.15668221
28	0xbdc92cf1	-0.09823025
29	0xbe5f65f8	-0.21816242
30	0x3d3fe2bf	0.0468471
31	0xbde7f868	-0.113266766
32	0x3db7a884	0.08967689
33	0x3bd215ed	0.006411305
34	0xbd5f53f8	-0.05452344
35	0x3d9b5511	0.075845845
36	0x3cd0d5ae	0.025492515
37	0x3dc2c780	0.09510708
38	0x3be67c10	0.0070338324
39	0xbd50b68e	-0.050955348
40	0x3d816b4a	0.06319292
41	0x3d189036	0.037246905
42	0x3e137876	0.14401421
43	0x3e2a0e7e	0.16607091
44	0x3dd4e7ba	0.10395761
45	0xbd4001b3	-0.04687662
46	0x3d8be576	0.068308756
47	0x3cdf5a80	0.027264833
48	0x3d9d8519	0.07691402
49	0xbd3a24ae	-0.045445137
50	0xbdaed343	-0.08536389
51	0xbb96425e	-0.0045855483
52	0xbd5a00e0	-0.05322349
53	0x3e0ee673	0.13955097
54	0x3d99e14c	0.07513675
55	0x3dc131ea	0.094333485
56	0x3da4696f	0.08027922
57	0x3cd1514a	0.025551457
58	0x3df4445b	0.119271
59	0xbd879c19	-0.0662157
60	0x3b86ee12	0.0041177357
61	0xbdc6bdc3	-0.09704163
62	0x3d1ff464	0.03905143
63	0xbd59416a	-0.0530409
64	0x3c260a7b	0.010134335
65	0xbd6774de	-0.056507938
66	0x3d991167	0.07474022
67	0xbde6c917	-0.112688236
68	0xbdb7a63c	-0.089672536
69	0xbe0473f0	-0.12934852
70	0x3dbcb325	0.092138566
71	0x3ca94da9	0.020666914
72	0x3de19610	0.1101495
73	0xbde0923e	-0.109653935
74	0xbdfe7fb2	-0.124267
75	0xbdfa069c	-0.12208292
76	0xbdbfe497	-0.09369772
77	0x3d4f1018	0.050552458
78	0x3c6bbaa8	0.014387764
79	0x3dc1e9f8	0.09468454
80	0xbda41e49	-0.08013589
81	0xbdd26c7c	-0.10274598
82	0x3d2a59fc	0.041589722
83	0xbdde11f3	-0.10843267
84	0x3cda2d46	0.026632916
85	0xbd688d73	-0.05677552
86	0x3d6fa859	0.05851016
87	0xbe0322ae	-0.12806198
88	0xbdaa1cdf	-0.08306288
89	0x3d5791fb	0.052629452
90	0x3da29591	0.07938684
91	0x3cbe68ab	0.023243269
92	0x3e04a738	0.12954414
93	0x3da94167	0.08264428
94	0xbdf1a66d	-0.11799321
95	0xbdbf3048	-0.09335381
96	0x3d8bcfb3	0.06826725
97	0xbdd4868d	-0.10377226
98	0xbdcda9af	-0.1004213
99	0xbe27daa6	-0.16392002
100	0xbdf66cfc	-0.12032506
101	0xbcc08301	-0.023499968
102	0xbda68832	-0.08131446
103	0xbe18b5aa	-0.1491305
104	0xbd9fc57d	-0.0780134
105	0xbe139d23	-0.14415412
106	0xbdd8d582	-0.105875984
107	0xbd22c886	-0.039742015
108	0xbd68956e	-0.056783132
109	0xbd32c97b	-0.043649178
110	0x3e3eca6a	0.18631902
111	0x3da6a30c	0.081365675
112	0x3d7d1e6c	0.06179659
113	0xbe059e53	-0.13048677
114	0xbdb0539a	-0.08609696
115	0xbd4c61dc	-0.049898013
116	0x3cae9a7a	0.021313895
117	0xbd8ec9ab	-0.06972059
118	0x3b1392b0	0.0022517852
119	0xbd0b24f6	-0.033970796
120	0x3cf482ab	0.029847464
121	0xbad67f19	-0.0016364782
122	0x3d216591	0.039403502
123	0xbd0d09dc	-0.03443323
124	0xbc435dc9	-0.011924216
125	0xbce71b30	-0.028211206
126	0xbcd0839d	-0.025453383
127	0xbdcedc80	-0.10100651
128	0x3de3915b	0.11111709
129	0xbca6003d	-0.020263785
130	0x3da17ddc	0.07885334
131	0x3d24630e	0.04013353
132	0xbe07c5c8	-0.13259041
133	0x3db6ae72	0.089199916
134	0xbd0cc9ae	-0.034372024
135	0xbd08d0f0	-0.033402383
136	0xbdc365b9	-0.095408864
137	0xbdf16efa	-0.11788745
138	0x3d1c5525	0.038167138
139	0xbbb19a4d	-0.0054200054
140	0x3d8a9e62	0.067684904
141	0xbdbfd394	-0.09366527
142	0x3dd1b3f7	0.10239404
143	0xbe1fd9a4	-0.15610367
144	0x3bead278	0.007166203
145	0x3e175aa9	0.14780678
146	0x3d99ecd3	0.07515874
147	0x3dbd7366	0.09250526
148	0x3d1fc830	0.039009273
149	0xbe343044	-0.17596537
150	0xbd3eda1e	-0.04659473
151	0xbe0829f0	-0.13297248
152	0xbd86df45	-0.06585554
153	0xbda08168	-0.07837182
154	0x3e2457bf	0.16049097
155	0xbc32f59e	-0.0109228175
156	0x3df0f61f	0.11765694
157	0x3d9aa2d4	0.07550588
158	0x3dc7f404	0.09763339
159	0xbca7995b	-0.020458868
160	0x3e02f6db	0.1278948
161	0x3c664ab6	0.014055898
162	0x3d236540	0.03989148
163	0xbd3aff25	-0.04565348
164	0x3ddde6ba	0.10835023
165	0x3cf1fa80	0.029538393
166	0xbcfc47a7	-0.030795885
167	0x3dd4fd1a	0.10399838
168	0x3c04b1f6	0.00809907
169	0xbdd7b6f2	-0.10532941
170	0xbdc7134c	-0.097204775
171	0xbc7fcb86	-0.015612489
172	0x3d57e01f	0.052703973
173	0xbd0724d7	-0.032994118
174	0xbd69e134	-0.057099536
175	0xbd01c75b	-0.03168426
176	0xbdc7cb07	-0.09755521
177	0x3c93d1cd	0.018044377
178	0x3d80306c	0.06259236
179	0xbe10c266	-0.14136657
180	0x3c858161	0.016297044
181	0x3d3caba5	0.04606213
182	0x3c5787f7	0.013154975
183	0xbd4ec252	-0.050478287
184	0x3d1e3dfd	0.038633335
185	0x3d0caa15	0.03434189
186	0x3cb9a4e1	0.022661628
187	0xbd22f555	-0.039784748
188	0xbcac0469	-0.020998197
189	0x3d24722b	0.04014794
190	0xba8d502b	-0.0010781338
191	0xbce7e2d8	-0.02830641
192	0x3dad0935	0.08449022
193	0x3ddd541b	0.108070575
194	0xbc987a24	-0.018612929
195	0xbd250115	-0.040284235
196	0x3d6f53b1	0.058429424
197	0xbccd4b44	-0.025060304
198	0x3db35ecf	0.08758318
199	0x3c8dd8b8	0.017315254
200	0xbdd7303a	-0.10507245
201	0xbd103f4f	-0.035216626
202	0x3de2181c	0.11039755
203	0x3da88217	0.08227938
204	0x3c94eb4c	0.018178605
205	0xbd930dc2	-0.071803585
206	0xbd99b1dc	-0.07504627
207	0xbddf26ba	-0.108960584
208	0xbc768358	-0.015045963
209	0x3d846bd7	0.06465881
210	0x3e059619	0.13045539
211	0x3dcc7015	0.099823155
212	0xbdf6a0c0	-0.120423794
213	0xbdb6d94d	-0.089281656
214	0xbcd1631c	-0.025559954
215	0x3de61bf3	0.112358
216	0x3cc464df	0.02397388
217	0xbcc53dca	-0.024077315
218	0x3d63ae84	0.055586353
219	0xbd64d431	-0.055866424
220	0xbdbd171c	-0.092329234
221	0x3d9ceb32	0.076620474
222	0xbd73640d	-0.059421588
223	0xbc9097b6	-0.017650466
224	0xbdd97131	-0.10617293
225	0x3dbfe32c	0.093695015
226	0x3d9f9bc8	0.07793385
227	0x3d07ad06	0.033123992
228	0xbdb02720	-0.086012125
229	0xbde15113	-0.11001792
230	0xbdd87fc0	-0.105712414
231	0x3d9de8d3	0.07710423
232	0x3ca37f1c	0.019958071
233	0x3cb7e82f	0.022449581
234	0xbd827772	-0.06370439
235	0xbccb3554	-0.024805702
236	0xbcd49ea6	-0.025954556
237	0xbdf7d843	-0.121017955
238	0xbddaf710	-0.10691655
239	0xbe0b7264	-0.13617855
240	0x3cb91599	0.022593306
241	0xbdfeb862	-0.12437512
242	0xbde7f1cd	-0.11325417
243	0xbe3a84ae	-0.18214676
244	0xbe0711f1	-0.13190438
245	0xbe381dc4	-0.17980105
246	0xbe307043	-0.17230324
247	0xbd61a1d3	-0.05508597
248	0xbdccf6b8	-0.10007995
249	0x3d35eecb	0.044417184
250	0xbd416b3f	-0.04722142
251	0xbde8a96c	-0.1136044
252	0xbd42c43c	-0.047550425
253	0xbd8b17ef	-0.06791674
254	0xbd16f7c8	-0.036857396
255	0xbddf2c94	-0.108971745

phi.initial_conv_module.0._layers.1.weight f4 [64]
0	0x3f7fa528	0.99861383
1	0x3f89f1c3	1.0776905
2	0x3f6f59cb	0.9349639
3	0x3f760e6f	0.96115774
4	0x3f82e206	1.0225227
5	0x3f8716e0	1.0553856
6	0x3f81a6dc	1.0129046
7	0x3f84a0d7	1.0361584
8	0x3f82050a	1.0157788
9	0x3f87a044	1.0595784
10	0x3f6d5ada	0.92716753
11	0x3f814353	1.0098671
12	0x3f63d7a6	0.8900093
13	0x3f8732a8	1.0562334
14	0x3f80f943	1.0076069
15	0x3f82ca3d	1.0217968
16	0x3f80aa23	1.0051922
17	0x3f7bdeaf	0.98386663
18	0x3f8a13dc	1.0787311
19	0x3f81245a	1.0089219
20	0x3f623610	0.8836374
21	0x3f851b10	1.0398884
22	0x3f8be2e1	1.0928613
23	0x3f73b8ae	0.95203674
24	0x3f6f4e30	0.9347868
25	0x3f6e17f8	0.93005323
26	0x3f7099d8	0.93984747
27	0x3f87912b	1.0591177
28	0x3f807d94	1.0038323
29	0x3f897f6d	1.0742012
30	0x3f8d3655	1.1032206
31	0x3f7b713c	0.98219657
32	0x3f77f61b	0.968599
33	0x3f8b3017	1.0874051
34	0x3f81dc5c	1.0145373
35	0x3f836819	1.0266143
36	0x3f8618af	1.0476283
37	0x3f6df5bd	0.9295309
38	0x3f85a5c2	1.044121
39	0x3f98afb3	1.1928619
40	0x3f631576	0.8870462
41	0x3f810121	1.007847
42	0x3f88759d	1.0660893
43	0x3f8559bd	1.0418011
44	0x3f853c46	1.0409019
45	0x3f80a3ef	1.0050029
46	0x3f8a5793	1.0807976
47	0x3f84c7fe	1.0373533
48	0x3f87bd90	1.0604725
49	0x3f6ee7ac	0.93322253
50	0x3f76d1fc	0.9641416
51	0x3f82c1b9	1.021537
52	0x3f821310	1.0162067
53	0x3f8b64e9	1.089017
54	0x3f7e2ef4	0.99290395
55	0x3f7f0380	0.99614716
56	0x3f75d4b4	0.96027684
57	0x3f8b9da5	1.0907484
58	0x3f7524e7	0.95759434
59	0x3f7222e3	0.9458448
60	0x3f7f877b	0.998161
61	0x3f8459ff	1.0339965
62	0x3f843e00	1.0331421
63	0x3f82d7e6	1.0222137

phi.initial_conv_module.0._layers.1.bias f4 [64]
0	0xbd0ccd4d	-0.034375478
1	0xbdd00f60	-0.101591825
2	0x3d96c502	0.07361795
3	0xbd085548	-0.033284456
4	0xbc8578d9	-0.016292976
5	0xbd3fdd18	-0.04684171
6	0x3c5a73f2	0.013333308
7	0xbce6502f	-0.028114406
8	0xbd3822e9	-0.044955168
9	0xbdb6fbf6	-0.089347765
10	0x3c4bf20e	0.012447847
11	0x3d582c11	0.0527764
12	0xbd7d6f7e	-0.061873905
13	0xbdc29d6d	-0.09502683
14	0xbbfc4251	-0.007698335
15	0xbd511310	-0.05104357
16	0xbc8d1855	-0.017223516
17	0xbe814da4	-0.25254548
18	0xbddf3e5c	-0.10900566
19	0xbdf322a4	-0.118718415
20	0x3daa2984	0.083087
21	0x3d0368b2	0.032082267
22	0xbd2d2887	-0.042274978
23	0x3c828677	0.015933258
24	0x3c9f4530	0.01944217
25	0x3d8ebcc9	0.06969602
26	0xbd0a027a	-0.033693768
27	0x3e321b84	0.17393309
28	0xbe0478bb	-0.1293668
29	0xbd94725a	-0.07248373
30	0xbcd4d58e	-0.025980737
31	0xbddc367e	-0.10752581
32	0xbd77fda0	-0.06054461
33	0x3e34e8ba	0.17666903
34	0x3d9e327f	0.07724475
35	0xbd68ba2b	-0.05681817
36	0xbe0a3338	-0.13496101
37	0x3dfec324	0.12439564
38	0xbca4bd5c	-0.020109825
39	0x3e698630	0.22805095
40	0x3dcb8897	0.09938162
41	0xbd8a98b0	-0.06767404
42	0xbd04d25c	-0.032427177
43	0xbd9213f0	-0.07132709
44	0x3c211406	0.009831434
45	0xbde85937	-0.113451414
46	0xbd716b17	-0.05894002
47	0x3b1a9d34	0.0023592236
48	0xbc2533ad	-0.010083121
49	0x3d3503b7	0.044192996
50	0x3cc4469c	0.02395945
51	0xbd253191	-0.040330473
52	0x3d2725af	0.040807422
53	0xbd0eba7f	-0.034845825
54	0x3d62c590	0.05536419
55	0x3d514236	0.051088534
56	0xbc91438d	-0.017732406
57	0x3d1269c6	0.035745405
58	0x3cfeab94	0.031087674
59	0xbd500e23	-0.05079473
60	0xbd4b8ccc	-0.04969482
61	0xbd80dc0f	-0.06291973
62	0xbdcccaa9	-0.09999592
63	0xbdf178b6	-0.11790602

phi.initial_conv_module.0._layers.1.running_mean f4 [64]
0	0xbeb63ed0	-0.35594797
1	0x3e667c46	0.22508344
2	0x3e971007	0.29504415
3	0x3e5a67e5	0.21328695
4	0x3b52ed0b	0.0032184746
5	0xbdf65c0f	-0.120292775
6	0xbcb2a050	-0.021804959
7	0xbeaa3f7f	-0.3325157
8	0x3e060374	0.13087255
9	0x3ebba545	0.36649528
10	0x3f440b26	0.7657951
11	0xbf70ee4f	-0.9411363
12	0x3e98ebc7	0.29867384
13	0x3d361f2d	0.044463325
14	0x3f907972	1.1287062
15	0x3ee2ea6a	0.4431947
16	0x3eec0ece	0.46105045
17	0x3f211787	0.62926525
18	0xbe7d3cbc	-0.247302
19	0x3f9615d2	1.1725409
20	0xbdbe0d57	-0.09279888
21	0x3ddfcfd8	0.10928315
22	0xbe89b91a	-0.26899034
23	0x3e198f86	0.14996156
24	0xbcac7a6d	-0.02105447
25	0x3d69c635	0.05707379
26	0xbf1736f4	-0.59068227
27	0x3fac60f7	1.3467091
28	0x3f82b63a	1.0211861
29	0x3fc7515a	1.5571702
30	0xbeaf7c93	-0.3427473
31	0xbe01f94d	-0.12692757
32	0xbedf71fe	-0.43641657
33	0xbcdd6b10	-0.02702859
34	0xbf8806b1	-1.0627042
35	0xbdd315b8	-0.10306877
36	0x3dfd1528	0.12357551
37	0x3ebd97cb	0.3702987
38	0xbe81c891	-0.25348333
39	0x3e8fc79b	0.28081974
40	0xbe4f0156	-0.20215353
41	0x3e6fabac	0.23405331
42	0xbf324ff0	-0.69653225
43	0xbf90798b	-1.1287092
44	0xbe4db467	-0.2008835
45	0x3ec5018e	0.3847775
46	0xbf30c4b9	-0.69050175
47	0xbeec7615	-0.4618384
48	0x3f448690	0.76767826
49	0x3d3b0173	0.04565568
50	0x3f8f75a2	1.1207774
51	0x3f026b11	0.5094462
52	0x3c6c81dd	0.014435259
53	0xbea08959	-0.31354788
54	0x3f23692d	0.6383236
55	0xbd66b118	-0.056321234
56	0xbe639b98	-0.22227323
57	0xbee83f10	-0.45360613
58	0x3d0b4579	0.0340018
59	0xbe8c3ce9	-0.2739022
60	0xbe3abb1c	-0.18235439
61	0x3df7eeb1	0.12106074
62	0x3e712420	0.23548937
63	0x3f93fb70	1.1561108

phi.initial_conv_module.0._layers.1.running_var f4 [64]
0	0x3f26e931	0.6519957
1	0x3eaa44e8	0.33255696
2	0x3e1c0022	0.15234426
3	0x3f8ec28a	1.1153119
4	0x3e488838	0.19583213
5	0x3ea7b244	0.32753193
6	0x3e0f3d50	0.13988233
7	0x3e8d165a	0.27556115
8	0x3e842c2f	0.2581496
9	0x3e545eb0	0.20739245
10	0x3dc857e7	0.09782391
11	0x3e50f594	0.2040618
12	0x3e271570	0.16316772
13	0x3e9c804c	0.30566633
14	0x3ea06ea7	0.3133442
15	0x3e68e930	0.22745204
16	0x3eca6453	0.39529666
17	0x3f0a9b63	0.5414335
18	0x3e6ff79b	0.23434298
19	0x3e885a58	0.26631427
20	0x3dd2ddd1	0.10296214
21	0x3e2652ee	0.16242573
22	0x3e4dc705	0.20095451
23	0x3e69d287	0.22834216
24	0x3e435483	0.19075207
25	0x3dd2c157	0.10290783
26	0x3ec06c6f	0.37582728
27	0x3f232bbf	0.63738626
28	0x3eede79f	0.46465775
29	0x3f46da5e	0.7767695
30	0x3e6b2446	0.22963056
31	0x3ee41282	0.4454537
32	0x3e388bc6	0.1802207
33	0x3ed8131e	0.42202085
34	0x3edbb566	0.42911834
35	0x3e9fece1	0.31235412
36	0x3e2fb8be	0.17160317
37	0x3e29233b	0.16517346
38	0x3e311fa4	0.17297226
39	0x3f107f4f	0.5644426
40	0x3e42bda6	0.19017658
41	0x3e97c311	0.2964101
42	0x3e9cfa0d	0.30659524
43	0x3f0a1de8	0.53951883
44	0x3deed3fa	0.11661525
45	0x3df366b1	0.11884821
46	0x3f8e94e0	1.1139183
47	0x3e73190e	0.23740026
48	0x3e8ea03e	0.2785663
49	0x3e21cb9a	0.15800324
50	0x3ee7ba83	0.45259485
51	0x3ee4cb1a	0.44686204
52	0x3e8a7c1d	0.27047816
53	0x3e8dfcbe	0.2773189
54	0x3e2c21aa	0.16809717
55	0x3e81fbec	0.25387514
56	0x3e17a0a9	0.1480738
57	0x3df85641	0.121258266
58	0x3e2c8bdc	0.16850227
59	0x3ea52280	0.32252884
60	0x3e22fe98	0.15917432
61	0x3efb5b39	0.49093035
62	0x3ebb7dd7	0.36619446
63	0x3ed41fdd	0.4143056

phi.initial_conv_module.0._layers.4.conv.weight f4 [64, 1, 5]
0	0xbe648483	-0.22316174
1	0x3eee8caa	0.46591693
2	0x3ec2f6f9	0.3807905
3	0x3ebd4554	0.36966956
4	0xbdd3cc4c	-0.10341701
5	0x3e78d827	0.24301206
6	0xbeda5c12	-0.4264837
7	0x3e0bb0ce	0.13641664
8	0xbdde46d3	-0.108533524
9	0xbec46e92	-0.38365608
10	0xbe93a2a4	-0.28835022
11	0xbec8d0ed	-0.39221898
12	0x3ca490b2	0.020088527
13	0xbe712dec	-0.23552674
14	0xbe8ca1be	-0.2746715
15	0x3ecd5628	0.40104795
16	0xbd6dc085	-0.05804493
17	0x3e4e6368	0.20155108
18	0xbcff32fc	-0.031152241
19	0x3e940de6	0.28916854
20	0x3e05c031	0.13061596
21	0x3e8db193	0.2767454
22	0x3e3ecf72	0.18633822
23	0xbd3df6cd	-0.046377946
24	0x3eca699e	0.39533705
25	0xbd9eeb5b	-0.07759734
26	0xbea8584f	-0.32879874
27	0x3dc16e65	0.09444884
28	0xbdadf904	-0.084947616
29	0xbe8967e4	-0.26837075
30	0x3d809b1d	0.062795855
31	0xbd8dfcbc	-0.06932971
32	0xbe85b1ad	-0.26112118
33	0xbe607aff	-0.2192192
34	0xbe2f6173	-0.17127018
35	0xbe32ff5a	-0.17480221
36	0x3d9d420b	0.07678612
37	0x3eec0c8e	0.46103328
38	0xbe643573	-0.22286014
39	0xbe46d996	-0.1941894
40	0xbe86a4cc	-0.26297605
41	0xbd66404d	-0.056213666
42	0x3b67954e	0.0035336795
43	0xbea7ee92	-0.32799202
44	0x3e5e22a6	0.21692905
45	0xbee8fa82	-0.45503622
46	0x3ebe8c4c	0.37216413
47	0x3d2b458f	0.041814383
48	0xbd98d817	-0.07463091
49	0xbe399baa	-0.18125787
50	0x3e43634e	0.1908085
51	0x3e9da483	0.30789575
52	0xbe999284	-0.29994595
53	0xbdd7fa3c	-0.10545775
54	0x3eb0beba	0.34520513
55	0xbc76fcc9	-0.015074917
56	0xbe9d631f	-0.30739686
57	0xbe462adf	-0.19352292
58	0xbd2cd781	-0.042197708
59	0xbdbbbeb9	-0.09167237
60	0xbe9e441a	-0.30911332
61	0xbe8f195b	-0.27949032
62	0x3de66de4	0.11251429
63	0x3ea407d5	0.32037225
64	0x3ecd54e2	0.40103823
65	0xbd601361	-0.05470598
66	0x3e36b414	0.17842132
67	0xbeaeb528	-0.34122586
68	0x3e8097d1	0.25115827
69	0x3eed8b3f	0.463953
70	0x3e88b75f	0.267024
71	0xbe1e6b9b	-0.15470736
72	0x3eb95c5f	0.36203286
73	0xbeda7a15	-0.42671266
74	0xbd8bc31d	-0.06824324
75	0xbe0fef06	-0.14056024
76	0xbee104ea	-0.43949062
77	0xbe64b271	-0.22333695
78	0xbe650922	-0.22366765
79	0x3e6952ca	0.22785488
80	0x3c3741b3	0.0111850975
81	0x3e88275f	0.26592538
82	0xbd46514c	-0.048417374
83	0x3eacea1b	0.33772358
84	0x3c17f24d	0.009274078
85	0x3eccd8dd	0.40009204
86	0x3eb7f925	0.3593227
87	0xbec33d79	-0.38132837
88	0xbe9e977e	-0.30974954
89	0x3e7639f8	0.24045551
90	0x3ee76e35	0.4520127
91	0xbeb5c4b9	-0.3550165
92	0x3cbe3631	0.0232192
93	0xbe13548a	-0.14387718
94	0x3ee4e6fa	0.4470747
95	0x3e9cb2ec	0.30605257
96	0x3e9b8bc6	0.30380076
97	0x3e91c84d	0.2847313
98	0x3d0c335b	0.034228664
99	0x3ef18e37	0.47178814
100	0xbe3eed0f	-0.18645118
101	0xbbd660cc	-0.006542301
102	0xbe198de3	-0.14995532
103	0xbeb24fe3	-0.34826574
104	0xbe69add4	-0.22820216
105	0x3e1c3714	0.15255386
106	0xbc3640c7	-0.011123843
107	0xbe8cb78e	-0.2748379
108	0xbcc302d1	-0.023805054
109	0x3ddeccaf	0.10878884
110	0xbe71eba7	-0.2362505
111	0x3e880219	0.265641
112	0xbeebb181	-0.46033862
113	0xbd9c1012	-0.07620253
114	0xbec79968	-0.38984227
115	0xbef97c23	-0.4872752
116	0xbe0a0ab0	-0.1348064
117	0x3ead84ed	0.33890477
118	0x3eabf10c	0.33582342
119	0x3d2bbf3a	0.041930415
120	0x3ea939ce	0.33051914
121	0xbe82ab09	-0.25521114
122	0x3e70bdde	0.23509929
123	0x3e6ce64e	0.2313473
124	0xbeee3ce8	-0.46530843
125	0xbe79b03b	-0.24383633
126	0x3e3f15f4	0.18660718
127	0xbd2a457b	-0.041570168
128	0xbee654c3	-0.44986543
129	0xbed76992	-0.4207273
130	0x3eb18c7d	0.34677497
131	0x3d894f66	0.06704597
132	0x3cf7baa8	0.030240372
133	0xbeccdece	-0.40013736
134	0x3ed74373	0.42043647
135	0xbea6f5aa	-0.32609302
136	0x3e1bda3e	0.15219972
137	0xbd9fba15	-0.07799164
138	0x3c4b7b28	0.012419499
139	0x3e6baa61	0.23014213
140	0xbe159c99	-0.14610519
141	0xbe0fddae	-0.14049408
142	0x3eb23730	0.3480773
143	0xbead52f7	-0.3385236
144	0x3e518965	0.20462568
145	0xbe0a26f5	-0.13491423
146	0xbe29eeb2	-0.16594961
147	0x3e8ef458	0.27920794
148	0x3d36d594	0.044637278
149	0xbee99ce7	-0.4562752
150	0x3eb7009b	0.3574265
151	0xbe54ab2f	-0.20768426
152	0x3ed213dc	0.41030777
153	0xbdac493c	-0.08412406
154	0x3ef91938	0.48652053
155	0x3e21301d	0.1574101
156	0x3cb722df	0.022355495
157	0x3e74c4f7	0.23903261
158	0x3d8cee0a	0.0688134
159	0xbe1c1527	-0.15242444
160	0x3e825f53	0.25463352
161	0x3ea2c35f	0.3178968
162	0xbcf64871	-0.03006384
163	0x3ecad05d	0.39612094
164	0xbd395707	-0.04524901
165	0xbe8c05c2	-0.27348143
166	0xbe8959d0	-0.26826334
167	0x3e922117	0.2854087
168	0xbe401be2	-0.18760636
169	0x3e8b3e49	0.27195957
170	0xbee65a65	-0.4499084
171	0x3c9e80c3	0.019348508
172	0xbe988b8a	-0.2979396
173	0x3e286f00	0.16448593
174	0x3eba9179	0.36439112
175	0x3e2139d4	0.15744716
176	0xbe234991	-0.15946032
177	0xbeb75889	-0.35809734
178	0xbe6a97af	-0.22909425
179	0xbeb5bc1d	-0.35495082
180	0x3f1ffcb6	0.6249498
181	0xbe1e5513	-0.1546214
182	0x3d9c0659	0.07618398
183	0x3e029173	0.12750797
184	0xbd1e381e	-0.038627736
185	0xbececd0e	-0.4039082
186	0xbdf62c19	-0.1202013
187	0xbe446cc3	-0.19182114
188	0x3e8375a4	0.2567569
189	0xbd262403	-0.040561687
190	0xbcec20fa	-0.028824318
191	0x3ec495fc	0.3839568
192	0x3e01fbba	0.12693682
193	0x3e83b514	0.2572409
194	0xbdccb9d3	-0.09996381
195	0x3e8d92e9	0.27651146
196	0x3d2a56ec	0.0415868
197	0xbde11b48	-0.109915316
198	0x3d3eee9b	0.04661427
199	0xbec5418b	-0.38526568
200	0xbd8b47fa	-0.06800838
201	0x3e0ca8d8	0.13736284
202	0xbee7674c	-0.45195997
203	0xbe848e60	-0.25889874
204	0x3e8e6d5b	0.27817807
205	0xbd17b10c	-0.03703408
206	0xbd0de943	-0.034646284
207	0x3cfd736f	0.030938832
208	0xbe528438	-0.2055825
209	0x3ebba915	0.36652437
210	0x3c9cb3b0	0.01912865
211	0xbe00386b	-0.12521522
212	0x3e754a76	0.23954186
213	0xbec65882	-0.387394
214	0xbe4221d4	-0.18958217
215	0x3d64f55f	0.055898067
216	0xbdf5d891	-0.120041974
217	0x3e4b2c69	0.1984116
218	0xbeee01c9	-0.46485737
219	0xbe4374e7	-0.19087563
220	0xbe5d380b	-0.2160341
221	0x3ed73988	0.4203608
222	0x3e3ad70b	0.18246095
223	0xbea94d58	-0.3306682
224	0x3e1f433f	0.15552996
225	0xbcded5a9	-0.02720149
226	0x3edf0c19	0.43563917
227	0x3e8e7cb4	0.27829516
228	0xbe739e25	-0.23790796
229	0x3eca0c2c	0.3946241
230	0xbd062f70	-0.032760084
231	0xbdbf4cc3	-0.09340813
232	0x3dca815a	0.09887953
233	0x3ee989d3	0.45612964
234	0x3e5ab634	0.21358567
235	0xbf063cf6	-0.5243677
236	0xbe49366e	-0.1964967
237	0x3ed13a09	0.4086459
238	0xbe07e6ba	-0.13271609
239	0xbe1121b8	-0.14173019
240	0xbeaf00d4	-0.3418032
241	0xbe83267c	-0.256153
242	0xbe949ae4	-0.29024422
243	0x3de10c8c	0.10988721
244	0x3e2940d5	0.16528638
245	0x3efd7fe3	0.49511632
246	0x3eb5e4c0	0.35526085
247	0xbc8ba3bd	-0.01704585
248	0x3e3613b6	0.17780957
249	0x3e1f04d4	0.15529186
250	0xbec709d3	-0.38874683
251	0x3e659457	0.22419868
252	0xbe879ef0	-0.26488447
253	0x3ec11bfc	0.37716663
254	0xbe39a021	-0.1812749
255	0x3dbfdb72	0.09368028

phi.initial_conv_module.0._layers.5.weight f4 [64]
0	0x3f7530ad	0.957774
1	0x3f7cf82a	0.9881617
2	0x3f90070a	1.1252148
3	0x3f723703	0.9461519
4	0x3f74cd6a	0.95625937
5	0x3f832fb7	1.0248936
6	0x3f8d1d23	1.1024517
7	0x3f856074	1.042006
8	0x3f843f6b	1.0331854
9	0x3f7306ce	0.9493226
10	0x3f7a0ab2	0.9767257
11	0x3f7f1c4e	0.99652565
12	0x3f831f2b	1.0243887
13	0x3f7c642b	0.98590344
14	0x3f8e6b47	1.1126488
15	0x3f83358f	1.025072
16	0x3f7e1028	0.992434
17	0x3f7ea955	0.9947713
18	0x3f84c48e	1.0372484
19	0x3f7b375a	0.98131335
20	0x3f8b0253	1.0860084
21	0x3f8874b7	1.0660619
22	0x3f78c9cb	0.9718291
23	0x3f81ae25	1.013127
24	0x3f70c58d	0.9405144
25	0x3f86ed39	1.0541145
26	0x3f7a6fb9	0.97826725
27	0x3f909b62	1.1297419
28	0x3f70bed3	0.94041175
29	0x3f93e0bd	1.155296
30	0x3f8164d3	1.0108894
31	0x3f7fb6dd	0.998884
32	0x3f705bd5	0.93890125
33	0x3f904c99	1.1273376
34	0x3f7e74de	0.99397075
35	0x3f855044	1.041512
36	0x3f7bff65	0.98436576
37	0x3f7b70a5	0.98218757
38	0x3f81dda7	1.0145768
39	0x3f8a1164	1.0786557
40	0x3f8c1087	1.0942544
41	0x3f766e60	0.9626217
42	0x3f8adcab	1.0848593
43	0x3f79e1db	0.97610253
44	0x3f789783	0.9710619
45	0x3f7719ac	0.9652355
46	0x3f8118c8	1.0085688
47	0x3f79c15e	0.9756068
48	0x3f863521	1.0484964
49	0x3f7ab756	0.97936
50	0x3f80a840	1.0051346
51	0x3f7f2c9a	0.9967743
52	0x3f8ac602	1.0841677
53	0x3f83e8b0	1.0305386
54	0x3f839ba0	1.0281868
55	0x3f72a6d9	0.9478584
56	0x3f8bd724	1.0925031
57	0x3f9e138c	1.2349715
58	0x3f8b22fc	1.0870051
59	0x3f91ea6c	1.1399665
60	0x3f7edd26	0.99556196
61	0x3f72c454	0.9483082
62	0x3f82b14d	1.0210358
63	0x3f7cc895	0.98743564

phi.initial_conv_module.0._layers.5.bias f4 [64]
0	0xbcac851f	-0.02105957
1	0xbd9f3910	-0.07774556
2	0xbc3d1e45	-0.011542861
3	0xbd9ec3dc	-0.07752201
4	0xbd3cb4ed	-0.04607098
5	0xbcfbb753	-0.030727064
6	0x3b5c1a03	0.003358484
7	0x3da1cb84	0.07900146
8	0xbbc3b677	-0.0059726792
9	0xbca6a6a9	-0.020343142
10	0xbb888f6d	-0.0041674883
11	0x3d41122c	0.04713647
12	0x3d35c8c3	0.044380914
13	0xbd4577ef	-0.04821008
14	0x3c582c94	0.013194222
15	0x3c1477af	0.009061738
16	0x3c78b354	0.015179474
17	0xbdbeea15	-0.09321991
18	0x3c8b8ac2	0.017033938
19	0xbd2d2d12	-0.04227931
20	0xbcf87f47	-0.030334128
21	0xbd211637	-0.039327826
22	0x3dbc58b3	0.091966055
23	0x3ccb5135	0.024818996
24	0xbdce95a4	-0.100871354
25	0xbcc67cd9	-0.024229454
26	0xbc031e34	-0.008002806
27	0xbbf260dc	-0.0073968004
28	0xbd0f4752	-0.034980126
29	0xbd484800	-0.04889679
30	0x3b0aac3d	0.002115979
31	0x3c4bab68	0.012431003
32	0xbd864049	-0.0655523
33	0xbccbc6e7	-0.024875117
34	0xbbc407e6	-0.005982387
35	0x3c6711ca	0.014103362
36	0xbd35c821	-0.04438031
37	0xbcefb1d1	-0.029259594
38	0x3c84c9e0	0.016209543
39	0x3d76c09d	0.060242284
40	0x3d5bf7cd	0.053703118
41	0xbd97f358	-0.07419461
42	0x3d1807b3	0.037116718
43	0x3c8e2d09	0.017355459
44	0x3bac3426	0.00525524
45	0xbd2d1b8c	-0.0422626
46	0xbd558d40	-0.05213666
47	0xbd016ddb	-0.031598907
48	0xbd47ec40	-0.04880929
49	0x3d1b22f1	0.03787512
50	0xbd547f1b	-0.05187903
51	0x3d851d5c	0.064997405
52	0x3e899b67	0.26876375
53	0x3cc9f3a1	0.024652304
54	0xbd08bc33	-0.033382606
55	0xbce49f48	-0.027907982
56	0x3d42ddc2	0.047574766
57	0xbdec11a4	-0.11526802
58	0xbca51c23	-0.020155018
59	0x3d8c4bd8	0.068504035
60	0x3d584c6f	0.052807268
61	0x3c8930f1	0.01674697
62	0x3b4b4104	0.0031014094
63	0xbd8b2444	-0.067940265

phi.initial_conv_module.0._layers.5.running_mean f4 [64]
0	0x3e0f17f6	0.13973984
1	0xbd710576	-0.0588431
2	0xbe5dacc2	-0.21647933
3	0x3dddf9e4	0.108386785
4	0x3df30cea	0.118676975
5	0xbdc8f3e0	-0.098121405
6	0xbdcb8d03	-0.09939005
7	0xbc112b6c	-0.00886045
8	0xbd8dad39	-0.06917805
9	0xbd3ce73c	-0.04611896
10	0x3d86b35e	0.0657718
11	0xbde21c4f	-0.11040556
12	0x3ccbd658	0.02488248
13	0x3d3626c7	0.044470575
14	0xbb88efa2	-0.004178957
15	0xbded80ed	-0.11596856
16	0x3dc27db1	0.0949663
17	0x3cb4398b	0.022000095
18	0x3d568482	0.052372463
19	0x3df9f6c1	0.12205268
20	0xbe1afcde	-0.15135524
21	0xbbf9b87a	-0.0076208683
22	0xbe201dbe	-0.15636346
23	0x3c297ac3	0.01034421
24	0x3c33c71f	0.010972767
25	0xbe15d1bc	-0.14630789
26	0x3d6cc917	0.05780896
27	0xbac89b74	-0.0015305118
28	0xbbf51707	-0.0074795517
29	0xbd5cf920	-0.05394852
30	0x3e281baf	0.1641681
31	0x3ce79bc5	0.028272519
32	0x3e02df12	0.12780407
33	0xbd27312d	-0.040818382
34	0xbd2cea54	-0.04221566
35	0xbe0f7828	-0.1401068
36	0x3d884f05	0.06655697
37	0xbd9e0abb	-0.077168904
38	0x3d864248	0.06555611
39	0xbd34b032	-0.044113345
40	0xbd6e9f0d	-0.05825715
41	0x3c954de0	0.01822561
42	0xbd9e81e1	-0.07739616
43	0xbd93422b	-0.07190355
44	0x3cc76ef5	0.0243449
45	0x3dc12645	0.094311275
46	0x3de4377f	0.111433975
47	0xbdab8dcc	-0.08376655
48	0xbda58b2e	-0.08083187
49	0x3e45c509	0.19313444
50	0xbd1b8a10	-0.037973464
51	0xbb376f2b	-0.0027989845
52	0xbc4311b6	-0.011906078
53	0xbdaba465	-0.08380965
54	0xbbdc0a61	-0.0067151044
55	0xbe0cd622	-0.1375356
56	0xbd94692d	-0.07246623
57	0xbc6d949d	-0.014500764
58	0xbc2e2e9a	-0.010631228
59	0xbdaf3e92	-0.08556856
60	0x3d95e1fc	0.07318494
61	0xbd6c5b51	-0.057704274
62	0x3dc1f923	0.09471347
63	0x3d0cfce2	0.034420855

phi.initial_conv_module.0._layers.5.running_var f4 [64]
0	0x3e616bf1	0.22013833
1	0x3dbb6106	0.09149365
2	0x3eac4b7f	0.3365135
3	0x3e0d5e29	0.1380545
4	0x3e6e210e	0.23254797
5	0x3ddd673c	0.10810706
6	0x3e265dd9	0.16246738
7	0x3ca7d86d	0.020488942
8	0x3d84d27d	0.0648546
9	0x3cdb55bc	0.02677428
10	0x3d8b875e	0.068129286
11	0x3e18d3e6	0.14924583
12	0x3db1020c	0.086429685
13	0x3de5345d	0.11191628
14	0x3c436abe	0.011927305
15	0x3e5c76f6	0.21529755
16	0x3da897d3	0.08232083
17	0x3d050256	0.03247293
18	0x3d9f2690	0.07771027
19	0x3f0e8e0c	0.55685496
20	0x3e3efd2b	0.18651263
21	0x3bd1f47e	0.0064073196
22	0x3eb5b7dc	0.35491836
23	0x3d5daf38	0.05412218
24	0x3c908d1b	0.01764541
25	0x3e9def97	0.30846855
26	0x3d0c6ae6	0.034281634
27	0x3c824eb9	0.015906679
28	0x3bacd6ab	0.005274614
29	0x3d475b83	0.048671257
30	0x3ec4156f	0.38297603
31	0x3cac500e	0.021034267
32	0x3e84e0dd	0.25952807
33	0x3d4c6aa0	0.049906373
34	0x3cec992e	0.028881636
35	0x3ebaa9e7	0.3645775
36	0x3dae6d72	0.08516969
37	0x3d98ecc2	0.07467033
38	0x3e76ea25	0.24112757
39	0x3d55488d	0.052071143
40	0x3d17caf2	0.037058778
41	0x3be43c19	0.006965172
42	0x3dfbdb5c	0.12297699
43	0x3e00bc2c	0.12571782
44	0x3d1284ff	0.035771366
45	0x3e43bf25	0.19115885
46	0x3e1f8ea8	0.15581763
47	0x3e2ed926	0.17075023
48	0x3e156b4e	0.14591715
49	0x3e46a97b	0.19400589
50	0x3cc5426c	0.024079524
51	0x3c69338f	0.014233484
52	0x3d969cbd	0.07354114
53	0x3df8402b	0.12121614
54	0x3d00ee27	0.03147712
55	0x3e37bc77	0.17942987
56	0x3d696151	0.056977574
57	0x3c460aa7	0.012087501
58	0x3c1ab258	0.0094419345
59	0x3e207a25	0.15671594
60	0x3e3265af	0.17421602
61	0x3d99d570	0.07511413
62	0x3e47066e	0.19436046
63	0x3cd86ff0	0.026420563

phi.initial_conv_module.0._layers.7.se_conv.conv.weight f4 [10, 64, 1]
0	0x3e7d986f	0.2476518
1	0xbc5c296b	-0.013437609
2	0xbdb60fec	-0.088897556
3	0x3c8ffbf1	0.01757619
4	0xbda37ac0	-0.07982397
5	0xbdc3dfbf	-0.095641606
6	0x3c0bf61a	0.008542562
7	0x3e4e9ba0	0.20176554
8	0x3db3e1a7	0.08783274
9	0xbb1b9de3	-0.002374523
10	0x3d7d2632	0.061804004
11	0xbdc1b99a	-0.09459229
12	0xbe4da399	-0.20081939
13	0xbe406fb0	-0.18792605
14	0xbc238115	-0.009979506
15	0x3de9d74f	0.1141802
16	0xbd168aa6	-0.03675332
17	0x3d5ce5f7	0.05393025
18	0xbe7e7cf6	-0.24852356
19	0x3db89eea	0.090146855
20	0x3d1e9d61	0.038724307
21	0x3c10933f	0.008824169
22	0x3e6ef0aa	0.23333994
23	0x3dbc9ca2	0.09209563
24	0xbc1b87f0	-0.009492859
25	0x3e47ff11	0.19530894
26	0x3d33e0da	0.043915607
27	0x3e0a5aec	0.13511246
28	0x3e2689a4	0.16263443
29	0x3d0b605c	0.034027442
30	0xbd8596cc	-0.06522903
31	0x3e0fcc73	0.14042835
32	0xbd541d81	-0.05178595
33	0x3c43b76f	0.011945589
34	0x3cd4fab0	0.025998443
35	0x3e5ebe5b	0.21752302
36	0xbdc5e099	-0.09661979
37	0xbdc58973	-0.09645357
38	0xbe7f66b1	-0.24941517
39	0x3d8337fa	0.06407161
40	0x3d9a233f	0.07526254
41	0x3e1804b7	0.14845549
42	0x3de19e9c	0.110165805
43	0x3e791371	0.24323823
44	0xbe0d8b37	-0.13822637
45	0xbcf629a1	-0.030049147
46	0x3d7009bb	0.05860303
47	0x3d8732c7	0.06601482
48	0xbdd96d68	-0.10616571
49	0x3d61ed29	0.055157814
50	0xbdf2b31e	-0.1185057
51	0x3d90a132	0.070619956
52	0x3e862385	0.26198974
53	0x3df278b7	0.11839431
54	0x3de5f20f	0.1122781
55	0xbd753e62	-0.059873946
56	0x3daff162	0.08590962
57	0x3dbc45ab	0.091929756
58	0x3e074a6b	0.13211982
59	0x3c473504	0.012158636
60	0xbdeadbff	-0.11467742
61	0xbcea5008	-0.028602615
62	0x3d977619	0.07395572
63	0x3e376e54	0.1791318
64	0xbd3064df	-0.04306495
65	0xbd01271e	-0.031531446
66	0x3e42289e	0.18960807
67	0x3da3106c	0.079621166
68	0xbcb14e24	-0.021643706
69	0x3e00cd93	0.1257842
70	0x3e2c5e66	0.16832885
71	0xbd513cd6	-0.05108341
72	0xbae2b7ed	-0.0017297246
73	0x3e474b9a	0.19462433
74	0x3d43145e	0.047626846
75	0x3ddaed82	0.10689832
76	0x3c3b118d	0.011417759
77	0xbc3f700c	-0.011684429
78	0x3dc3f718	0.09568614
79	0x3a500aac	0.00079361605
80	0x3c7532a7	0.01496569
81	0xbe4d01c9	-0.20020212
82	0xbcdd0cc9	-0.026983636
83	0x3e382526	0.17982921
84	0xbd5901c3	-0.052980196
85	0x3dc77a39	0.09740109
86	0x3e0278c2	0.12741378
87	0xbe05c637	-0.13063894
88	0xbcf59a2c	-0.029980741
89	0x3ceca889	0.028888958
90	0xbd641f9e	-0.055694215
91	0xbe068e13	-0.13140135
92	0xbe10b6b0	-0.1413219
93	0x3d9541fe	0.07287978
94	0x3d8f3bda	0.06993838
95	0x3ddfcae8	0.10927373
96	0xbdc15ecc	-0.09441909
97	0x3c163061	0.009166808
98	0xbdd4cc4b	-0.10390528
99	0xbd8a4f9b	-0.06753465
100	0x3cf9433b	0.030427566
101	0xbdf0a977	-0.11751073
102	0xbdc1434e	-0.094366655
103	0xbd930e04	-0.07180408
104	0xbd60c6cd	-0.05487709
105	0xbb9fcbbe	-0.004876583
106	0x3d0c7ae2	0.034296878
107	0xbd42af1e	-0.047530286
108	0xbe0a16fe	-0.13485333
109	0xbe395661	-0.18099357
110	0x3c182bab	0.009287755
111	0x3a879f15	0.0010347093
112	0xbcd73069	-0.026268201
113	0x3dd5965d	0.1042907
114	0xbc8d343f	-0.017236827
115	0x3de047b0	0.10951173
116	0x3cdb8cbe	0.02680051
117	0x3ea1d9e1	0.3161154
118	0x3e207b02	0.15671924
119	0x3e008d17	0.12553822
120	0x3d1810a7	0.037125256
121	0x3c733638	0.01484447
122	0xbd69a8f1	-0.05704588
123	0xbc50ace2	-0.012736531
124	0x3d9d4ac1	0.07680274
125	0x3dbfa526	0.093576714
126	0xbca31d71	-0.0199115
127	0xbdc9c9ae	-0.098529205
128	0x3d8f84ad	0.07007728
129	0x3db88de5	0.09011439
130	0x3e07d036	0.1326302
131	0x3c9ac104	0.018890865
132	0xbdf73da1	-0.12072302
133	0x3ca767c5	0.020435223
134	0x3debb5d5	0.11509291
135	0xbe1117ad	-0.14169188
136	0x3d061141	0.0327313
137	0x3dc7bf05	0.09753231
138	0x3cdeca40	0.02719605
139	0x3dd4241a	0.10358448
140	0xbc6c3794	-0.014417548
141	0x3c2ddaa7	0.010611213
142	0xbe1b84ad	-0.1518733
143	0xbd245d35	-0.04012795
144	0xbd15b302	-0.03654767
145	0x3e085b29	0.13316025
146	0x3debecf6	0.11519806
147	0xbe439fa2	-0.19103864
148	0x3dbf2181	0.09332562
149	0xbc7f09d6	-0.01556631
150	0x3c817e7d	0.015807385
151	0xbdceec08	-0.10103613
152	0x3df08c2d	0.117454864
153	0xbd8acd62	-0.06777455
154	0x3d396ceb	0.045269888
155	0xbcfafdb3	-0.030638551
156	0x3c871a8c	0.01649215
157	0xbd12fddd	-0.035886634
158	0x3d977f1b	0.0739729
159	0xbdb57474	-0.08860102
160	0xbdae962f	-0.08524739
161	0xbd56034a	-0.05224923
162	0xbd83e22e	-0.06439625
163	0xbda25365	-0.079260625
164	0xbdbbf0d9	-0.091767974
165	0x3d20f945	0.039300222
166	0x3e3f1c94	0.18663245
167	0x3bb3fdf0	0.005492918
168	0x3db5d699	0.08878822
169	0x3c6b846f	0.014374836
170	0xbdba47f3	-0.090957545
171	0xbd4d1752	-0.050071068
172	0x3cb7a28c	0.022416376
173	0xbd925da0	-0.07146764
174	0x3e55deab	0.20885722
175	0x3a983ce2	0.0011614824
176	0xbd54e6db	-0.051977973
177	0xbdacd028	-0.0843814
178	0xbd15b55d	-0.036549915
179	0xbd6c7b9c	-0.05773507
180	0x3d224f9e	0.03962671
181	0x3da56e73	0.08077707
182	0x3d2bc167	0.04193249
183	0x3ca1b626	0.019740175
184	0x3d18f128	0.03733936
185	0xbe2c245d	-0.16810746
186	0xbd9ae5f8	-0.07563394
187	0x3d466a73	0.04844136
188	0xbd8b07b7	-0.06788581
189	0x3d3ed094	0.046585634
190	0xbdd8f77e	-0.105940804
191	0x3c8011f8	0.015633568
192	0x3d587fb7	0.052856173
193	0xbe46a86f	-0.1940019
194	0x3d7f5636	0.062338077
195	0xbe30345c	-0.17207474
196	0xbdad6fe4	-0.08468607
197	0x3cb22603	0.021746641
198	0x3dfb1387	0.12259584
199	0x3c141b78	0.009039752
200	0xbde393e7	-0.111121945
201	0xbe13c9a9	-0.14432396
202	0x3cf550fb	0.029945841
203	0xbcb6180f	-0.022228269
204	0x3df83fc5	0.12121538
205	0xbc7a3310	-0.015270963
206	0x3df81abd	0.12114475
207	0x3d8108ec	0.0630053
208	0xbd5262ac	-0.051363632
209	0x3d60ca4e	0.054880433
210	0x3e0c7b90	0.1371901
211	0xbc91d23d	-0.017800445
212	0xbdea37cd	-0.114364244
213	0xbab209d9	-0.0013583257
214	0xbcab57c1	-0.020915868
215	0x3e3e76fd	0.18600078
216	0xbd3f17d4	-0.046653584
217	0xbd8bc9ec	-0.06825623
218	0xbe276cc3	-0.16350083
219	0x3e78d980	0.2430172
220	0x3e36109f	0.17779778
221	0x3e2589cf	0.16165851
222	0xbdc67287	-0.09689813
223	0xbcbbe049	-0.022934096
224	0x3d973b99	0.07384414
225	0x3e6c3c6f	0.23069929
226	0x3e0af314	0.1356929
227	0xbe32693c	-0.17422956
228	0xbd30f0cd	-0.043198396
229	0x3db0fb8d	0.086417295
230	0x3bb2169c	0.005434824
231	0x3ea16ef2	0.31529957
232	0x3e26b0ec	0.16278428
233	0x3dea38ea	0.11436637
234	0xbcee8f6b	-0.029121121
235	0xbde21a35	-0.11040155
236	0x3da328c6	0.07966761
237	0x3e26f388	0.16303837
238	0xbd882c7e	-0.06649111
239	0x3df42e97	0.11922949
240	0x3e23b870	0.15988326
241	0xbd6bd0ff	-0.05757236
242	0xbd133b68	-0.035945326
243	0x3e1a0937	0.15042578
244	0x3e4230d5	0.1896394
245	0xbe3b164d	-0.18270226
246	0xbdae989e	-0.08525203
247	0xbe080592	-0.13283375
248	0x3db465e8	0.088084996
249	0xbce475ba	-0.027888168
250	0x3e188553	0.14894609
251	0x3dcd1274	0.10013285
252	0xbca5c65e	-0.02023619
253	0x3d71533b	0.058917265
254	0xbcbb9245	-0.022896895
255	0x3e12701e	0.14300582

phi.initial_conv_module.0._layers.7.se_conv2.conv.weight f4 [64, 10, 1]
0	0xbe8598ba	-0.26093084
1	0x3e00ab91	0.12565447
2	0xbdce4228	-0.10071212
3	0xbd3ee4e8	-0.04660502
4	0xbe84122b	-0.2579511
5	0x3d15bb09	0.036555324
6	0xbe4e5f14	-0.20153457
7	0x3e8fcab8	0.2808435
8	0xbde2c794	-0.11073223
9	0x3d9c3ecf	0.07629167
10	0x3e2efbea	0.17088285
11	0xbdb2d641	-0.08732272
12	0x3e9e85ea	0.30961543
13	0xbcebdcdb	-0.028791836
14	0x3d19e00c	0.037567183
15	0xbeb2f6ad	-0.34953824
16	0x3d055aba	0.032557227
17	0x3d6c18a9	0.057640705
18	0xbd1535eb	-0.036428373
19	0xbd3aa3a7	-0.045566227
20	0x3ea37f68	0.3193314
21	0x3e40dda2	0.18834546
22	0x3e4ee417	0.20204197
23	0xbe207482	-0.15669444
24	0x3e417050	0.188905
25	0xbe6419f9	-0.22275533
26	0xbe3418ff	-0.1758766
27	0xbde13806	-0.10997014
28	0x3daea1a7	0.085269265
29	0xbe27bfee	-0.16381809
30	0xbe8e834f	-0.27834556
31	0x3dd916a7	0.10600024
32	0x3df7537b	0.120764695
33	0xbe19dad4	-0.15024883
34	0x3e38a60d	0.18032093
35	0xbe56d463	-0.20979457
36	0x3e2c7dba	0.16844836
37	0x3e4c8968	0.19974291
38	0xbddfed2f	-0.10933911
39	0x3e6463ad	0.22303648
40	0xbe24d486	-0.16096696
41	0xbe8f8acc	-0.2803558
42	0x3e763090	0.24041963
43	0x3d91d8ce	0.0712143
44	0xbdb235c5	-0.08701662
45	0x3e0e9c5a	0.13926831
46	0xbdcf26ef	-0.10114848
47	0x3e908fc8	0.28234696
48	0x3e7e5779	0.24838056
49	0x3ea34f2c	0.3189634
50	0x3ddbff43	0.10742047
51	0xbde85449	-0.11344201
52	0xbd9edb10	-0.077566266
53	0xbd055a9f	-0.032557126
54	0xbbfc6a2d	-0.007703087
55	0x3e0c2167	0.13684617
56	0x3ea097a1	0.31365684
57	0xbda64036	-0.08117716
58	0x3e266843	0.1625071
59	0xbd88fb98	-0.06688613
60	0x3de26d27	0.110559754
61	0x3e642746	0.22280607
62	0xbe590a69	-0.21195377
63	0x3d64c9ba	0.055856444
64	0xbcce71b1	-0.025200697
65	0xbec1f672	-0.37883335
66	0xbe88b680	-0.26701736
67	0xbd8dbbb4	-0.06920567
68	0x3e673053	0.22577028
69	0xbe504e68	-0.2034241
70	0x3d95a7e2	0.07307412
71	0x3e7cb4dc	0.24678367
72	0xbe998c30	-0.29989767
73	0x3d10c968	0.035348326
74	0x3d3acd58	0.045605987
75	0xbeca1a80	-0.39473343
76	0x3e12d4fc	0.1433906
77	0xbeef1d15	-0.46701875
78	0x3e897e2a	0.26854068
79	0x3d90b2cf	0.07065355
80	0x3e267a18	0.16257513
81	0x3e1855f3	0.14876537
82	0x3ea2b04b	0.31775126
83	0x3ef48d8c	0.47764242
84	0x3e4566f5	0.19277556
85	0xbe30f559	-0.17281093
86	0x3eae1fa4	0.34008515
87	0x3e0c6a83	0.13712506
88	0xbdf0c7e9	-0.1175688
89	0xbcb767e8	-0.022388414
90	0x3e80618d	0.25074425
91	0xbd6c020d	-0.057619143
92	0x3e7fc618	0.2497791
93	0x3e14fd39	0.14549722
94	0x3ea2fc3a	0.3183306
95	0xbe0bf034	-0.13665849
96	0xbc9dc43c	-0.01925861
97	0x3e2bbdcf	0.16771625
98	0xbd9343ff	-0.071907036
99	0x3ec66cd5	0.38754907
100	0x3c0fdea6	0.008781111
101	0x3a9d7716	0.001201364
102	0x3e652fff	0.2238159
103	0xbcd6d5a2	-0.026224915
104	0xbc4aaedc	-0.012370791
105	0xbe89eae0	-0.26937008
106	0x3ca81217	0.020516438
107	0xbdda1bbf	-0.106498234
108	0x3e3d71b0	0.185004
109	0x3e93ad80	0.28843307
110	0xbe9da33b	-0.30788597
111	0xbe87f587	-0.2655451
112	0x3e88272b	0.26592383
113	0xbd3d9514	-0.04628475
114	0x3e9e6ac1	0.30940822
115	0x3ec9083a	0.3926409
116	0xbcca6c45	-0.02470983
117	0xbe08d016	-0.13360628
118	0x3e71dd2d	0.23619528
119	0x3e8f7335	0.28017583
120	0x3e86a6cc	0.2629913
121	0xbd96cd0b	-0.073633276
122	0x3e02cd25	0.12773569
123	0xbe766b37	-0.24064337
124	0x3dae6c2a	0.085167244
125	0x3d7c7283	0.061632644
126	0x3e84c83c	0.25934017
127	0xbe20786b	-0.15670936
128	0xbcd33d22	-0.025785986
129	0xbe43200b	-0.19055192
130	0xbe89a4f0	-0.2688365
131	0x3e267a37	0.16257559
132	0x3caa8245	0.02081407
133	0x3d7921f5	0.0608234
134	0xbdd99c18	-0.10625476
135	0xbc9c908d	-0.019111896
136	0xbd8f2b46	-0.06990676
137	0x3e660112	0.22461346
138	0xbe337beb	-0.1752774
139	0x3d05e6fb	0.032690983
140	0x3eb97caf	0.3622794
141	0x3e860558	0.26175952
142	0xbe084cac	-0.13310498
143	0x3ea150ae	0.31506866
144	0xbe50df9d	-0.20397802
145	0xbc63d2e3	-0.01390526
146	0x3ea5b843	0.32367143
147	0xbd27df27	-0.0409843
148	0x3e693056	0.22772345
149	0xbed1e7e6	-0.40997237
150	0x3c4faa1a	0.012674833
151	0x3cbe0fd8	0.023200914
152	0xbeab1025	-0.33410755
153	0xbe0e731f	-0.13911103
154	0x3e954960	0.29157543
155	0xbd97765e	-0.073956236
156	0x3ed177c0	0.40911674
157	0xbecde681	-0.40214923
158	0x3dcf6580	0.101267815
159	0x3e6075e8	0.21919978
160	0x3e97e42d	0.29666272
161	0xbe398c49	-0.18119921
162	0xbe8be316	-0.2732169
163	0x3d27ecc0	0.040997267
164	0x3e84ad41	0.25913432
165	0x3d9f200c	0.07769784
166	0x3e477dcb	0.1948158
167	0xbe398c05	-0.1811982
168	0xbe3bc932	-0.18338469
169	0x3eb0fb8f	0.34566924
170	0x3dd8fcd6	0.105951
171	0xbe91041e	-0.28323454
172	0x3e78b92d	0.24289389
173	0xbd1570a9	-0.036484394
174	0xbe860764	-0.26177514
175	0x3df5b9cd	0.11998329
176	0xbe721951	-0.2364247
177	0xbe487691	-0.1957648
178	0xbe7e2157	-0.24817406
179	0x3d79bd72	0.060971685
180	0x3e80fc21	0.2519236
181	0x3e10d63b	0.14144222
182	0xbea4921d	-0.32142726
183	0xbdd4a955	-0.1038386
184	0x3eb594e6	0.35465163
185	0xbe86c20c	-0.2631992
186	0x3d618d6e	0.05506652
187	0xbe5f6f1f	-0.21819733
188	0xbe8fac9c	-0.28061378
189	0xbea4d2aa	-0.32191974
190	0x3ed4f528	0.4159329
191	0xbd59602d	-0.053070236
192	0x3dca25ea	0.09870513
193	0x3e22de5a	0.15905133
194	0x3e8f64ce	0.28006595
195	0x3e8d8611	0.27641347
196	0x3e5a96f9	0.21346654
197	0x3e286504	0.16444784
198	0x3e549366	0.20759353
199	0x3e8b2a31	0.27180627
200	0x3d307357	0.043078747
201	0x3d7d9d15	0.061917383
202	0xbe068eac	-0.13140363
203	0xbe8115c1	-0.2521191
204	0x3ec01c5b	0.37521634
205	0xbe4d9227	-0.20075284
206	0xbe028a89	-0.1274816
207	0xbeaf7273	-0.34267005
208	0xbe3e69c3	-0.18595032
209	0x3e0f7b08	0.14011776
210	0x3de0eb4d	0.1098238
211	0xbe897070	-0.26843596
212	0x3df7287b	0.12068268
213	0xbe8f8780	-0.28033066
214	0x3d8ff0c2	0.07028343
215	0x3e169314	0.14704543
216	0xbe068d42	-0.13139823
217	0xbe14918d	-0.14508648
218	0x3e348fd1	0.17632987
219	0xbe85bccf	-0.26120612
220	0xbdc91155	-0.09817759
221	0xbea2f12c	-0.31824625
222	0x3e556a54	0.20841342
223	0x3e9a4912	0.30133873
224	0xbd0c0967	-0.034188654
225	0x3e9ca9aa	0.30598193
226	0x3e85bfb3	0.26122817
227	0x3e87dbbd	0.26534835
228	0xbe7edc57	-0.2488874
229	0x3d0a81dd	0.033815254
230	0x3ec3e4f7	0.38260624
231	0x3eb12f85	0.34606567
232	0xbd5eb09e	-0.054367654
233	0x3e8d2b5c	0.27572143
234	0xbe55e9ae	-0.20889923
235	0xbc9e5cba	-0.019331325
236	0x3eb8399c	0.35981452
237	0xbb7e5bc9	-0.0038812032
238	0xbe7cefe2	-0.24700883
239	0x3cd7abf3	0.026327109
240	0x3defbb9c	0.117057055
241	0x3e4dd29a	0.2009987
242	0xbe467993	-0.19382314
243	0xbd48a25b	-0.04898296
244	0xbdc30788	-0.09522921
245	0x3d33d2a4	0.043902054
246	0xbe228d49	-0.15874209
247	0xbda3e23a	-0.08002134
248	0x3cf6b724	0.030116625
249	0x3e351285	0.17682846
250	0xbe06275f	-0.13100956
251	0x3e11960a	0.14217392
252	0xbe382c96	-0.17985758
253	0x3d3d882a	0.046272434
254	0xbc720491	-0.0147715965
255	0xbe678398	-0.22608793

phi.initial_conv_module.0._layers.8.conv.weight f4 [32, 64, 1]
0	0xbb845252	-0.0040381337
1	0x3dbc9e5b	0.092098914
2	0x3cd27df1	0.02569482
3	0xbd03cae1	-0.032175902
4	0xbe300e6f	-0.17193006
5	0x3da21590	0.07914269
6	0x3d289390	0.04115635
7	0x3daacc6f	0.08339774
8	0xbdf699c6	-0.12041049
9	0xbcfae174	-0.030625083
10	0xbd706473	-0.058689546
11	0xbbb30aa5	-0.0054639154
12	0xbd9c739f	-0.076392405
13	0xbe15dd3e	-0.14635178
14	0xbda10457	-0.07862156
15	0x3dfb0793	0.12257304
16	0xbcfe1484	-0.031015642
17	0xbce08830	-0.02740869
18	0x3e02b2b3	0.12763481
19	0x3c5f849e	0.013642458
20	0xbdbafad6	-0.091298744
21	0x3d82fc8e	0.06395827
22	0x3d559a10	0.05214888
23	0x3e28a435	0.1646889
24	0x3d5cf17e	0.053941242
25	0x3e13a68f	0.14419006
26	0xbda84eb8	-0.082181394
27	0x3dad8dda	0.08474322
28	0xbda98863	-0.08277967
29	0xbd4e3dc4	-0.050351873
30	0x3cd86b98	0.026418492
31	0xbe14262d	-0.14467688
32	0x3c60cc3f	0.013720571
33	0xbcc233dd	-0.023706371
34	0x3d2257a4	0.039634362
35	0xbdc2b2b0	-0.09506738
36	0xbdc4e7a2	-0.09614493
37	0xbd3485e1	-0.04407299
38	0xbdaefe36	-0.08544581
39	0x3e2dcba6	0.16972217
40	0xbd8c8389	-0.06861026
41	0x3d42d7bb	0.047569018
42	0xbd8b8b29	-0.06813652
43	0xbd15eb2e	-0.036601238
44	0x3de0dc23	0.10979488
45	0xbd8274f6	-0.06369965
46	0xbd422e95	-0.047407705
47	0x3b70d72e	0.003674935
48	0xbc45e919	-0.012079501
49	0x3d1a3f6c	0.03765814
50	0xbd90192c	-0.07036051
51	0xbc0aeed8	-0.008479796
52	0x3e0f217d	0.13977619
53	0x3c1b1f59	0.009467923
54	0x3e2effb0	0.17089725
55	0x3d13645c	0.035984382
56	0x3d0b29ae	0.033975296
57	0xbd801530	-0.06254041
58	0xbce78926	-0.02826364
59	0xbdd160b0	-0.1022352
60	0xba13d8f7	-0.0005639935
61	0x3c39f93e	0.011350928
62	0x3c8d352a	0.017237265
63	0x3cda8f6e	0.02667972
64	0x3d7a566f	0.061117586
65	0xbda4955e	-0.08036302
66	0x3dc816c3	0.097699665
67	0xbb8870da	-0.0041638436
68	0xbddc1dd7	-0.10747879
69	0x3db5f4c0	0.08884573
70	0x3c03b907	0.008039719
71	0xbd1901d9	-0.037355278
72	0x3dda2b93	0.106528424
73	0x3ce7f9fe	0.028317448
74	0x3d8e2667	0.069409184
75	0xbd2165e2	-0.039403804
76	0x3e0bccc8	0.13652337
77	0x3db5f2f5	0.08884231
78	0x3d5a80ce	0.053345494
79	0xbdb8a8f5	-0.09016601
80	0x3d8ac943	0.06776669
81	0x3d8a5276	0.067540094
82	0x3dc42f27	0.09579306
83	0xbd4e228f	-0.050325926
84	0xbe049d2c	-0.12950581
85	0xbd768bd8	-0.06019196
86	0x3d34da61	0.044153575
87	0xbdfa27f1	-0.122146495
88	0xbd352ef2	-0.044234224
89	0xbd0a60c6	-0.033783697
90	0x3b10c475	0.0022089754
91	0xbe3b8a3f	-0.18314455
92	0x3d97dd12	0.07415213
93	0xbe132015	-0.14367707
94	0xbda3c637	-0.07996791
95	0x3caf81f9	0.02142428
96	0xbdc26e78	-0.094937265
97	0xbcdf65f6	-0.027270298
98	0xbcfba942	-0.030720357
99	0xbdd4e225	-0.10394696
100	0x3e0801e2	0.13281968
101	0xbc6ed7aa	-0.0145777855
102	0x3d07dabb	0.033167582
103	0xbdef07a3	-0.116713785
104	0x3c57e07a	0.013176078
105	0x3d2abe0c	0.04168515
106	0x3e2fc5ec	0.17165345
107	0xbd80386f	-0.06260764
108	0xbd872fb8	-0.066008985
109	0xbe213e37	-0.1574639
110	0x3c784fb1	0.015155719
111	0x3d051644	0.032491937
112	0x3da8cc85	0.08242134
113	0x3d9fef3a	0.07809301
114	0x3df2adc8	0.118495524
115	0xbdc93c1b	-0.09825917
116	0xbe80aaac	-0.25130212
117	0x3ce92659	0.028460668
118	0x3e243315	0.16035111
119	0xbe0d2407	-0.13783275
120	0x3cc7ba35	0.024380783
121	0x3e21a258	0.15784585
122	0x3e1f2526	0.15541515
123	0x3d55e33b	0.052218657
124	0x3ddc9faf	0.10772645
125	0x3de1c860	0.110245466
126	0xbce6208d	-0.028091693
127	0xbd729734	-0.05922623
128	0x3d218568	0.039433867
129	0x3d359a34	0.044336513
130	0x3d87ec2e	0.066368446
131	0x3ad12b88	0.0015958408
132	0xbd5865b1	-0.052831355
133	0xbda113b0	-0.07865083
134	0x3e14be30	0.14525676
135	0xbdde1c41	-0.10845233
136	0x3d75bf16	0.059996687
137	0xbdb8cbb5	-0.09023229
138	0xbd1781a0	-0.036988854
139	0xbdbd9912	-0.092577115
140	0xbe01a07b	-0.12658875
141	0xbde7e3cc	-0.11322746
142	0xbd03923d	-0.032121886
143	0xbd86a350	-0.06574118
144	0xbd0a3135	-0.033738334
145	0x3c6e3826	0.014539754
146	0xbb9625ed	-0.004582158
147	0xbc2465e9	-0.010034063
148	0xbe16c9f0	-0.1472547
149	0xbdbd1cb2	-0.09233989
150	0x3d67c380	0.056582928
151	0xbdf2fcf3	-0.118646525
152	0x3de0d913	0.109789036
153	0xbd204e56	-0.039137207
154	0x3df18687	0.11793237
155	0x3dcf514a	0.101229265
156	0xbd8d9d0e	-0.069147214
157	0x3db4fad1	0.08836902
158	0xbd815a20	-0.06316018
159	0x3ce8db09	0.028424757
160	0xbe17b098	-0.14813459
161	0xbda6be5c	-0.08141777
162	0x3d3459a8	0.044030815
163	0x3e1a52ff	0.15070723
164	0xbd7e4125	-0.062073845
165	0xbd69c28e	-0.057070307
166	0xbd78f166	-0.06077709
167	0xbd7a7f54	-0.061156586
168	0xbdb2fbb7	-0.08739417
169	0xbd990cae	-0.074731216
170	0x3cba77b5	0.022762159
171	0x3e0ff9b6	0.14060101
172	0xbcaea238	-0.021317586
173	0x3caa0d87	0.020758403
174	0x3dd5ab87	0.10433107
175	0x3e203473	0.15645008
176	0x3d6e92a6	0.058245324
177	0xbd4056d7	-0.046957817
178	0xbd5e1726	-0.054221295
179	0x3c11a522	0.008889468
180	0x3be7e65e	0.0070770225
181	0x3d31a407	0.04336932
182	0x3b50f451	0.0031883905
183	0xbd3c7350	-0.046008408
184	0x3de6e42d	0.1127399
185	0x3def1186	0.11673264
186	0x3dd50eb5	0.10403196
187	0x3e2cf6bd	0.16890998
188	0x3d18c8f1	0.037301008
189	0x3d849969	0.06474573
190	0x3e32d513	0.17464094
191	0xbd80409d	-0.06262324
192	0x3d843639	0.06455655
193	0x3d2a9382	0.04164458
194	0xbe11785b	-0.14206068
195	0x3e047dcc	0.12938613
196	0x3b1c978c	0.002389404
197	0xbb832dda	-0.0040032687
198	0xbdf62cca	-0.120202616
199	0xbddcecbc	-0.10787341
200	0x3d8370aa	0.06417973
201	0x3d98f77a	0.074690774
202	0x3d5c796b	0.05382673
203	0x3ddadf83	0.10687163
204	0xbd64254c	-0.05569963
205	0x3daeea5c	0.08540794
206	0xbe083c74	-0.13304311
207	0xbdcda804	-0.10041812
208	0x3d8a91e6	0.06766109
209	0xbd93b0fc	-0.072114915
210	0xbd3aa687	-0.04556897
211	0x3d640ce2	0.05567635
212	0x3e115a8b	0.14194696
213	0xbcf93a18	-0.03042321
214	0x3dea088c	0.114274114
215	0xbd422dc4	-0.047406927
216	0x3d39acb7	0.04533073
217	0x3d1c4c31	0.0381586
218	0x3cf715cf	0.030161766
219	0xbe0febcb	-0.14054792
220	0xbd8632e5	-0.06552676
221	0xbd65ccfb	-0.056103688
222	0xbb0e95c3	-0.0021756745
223	0xbda21cb6	-0.079156324
224	0x3e0763ca	0.1322166
225	0xbe00db7f	-0.12583731
226	0x3b28e2b3	0.002576989
227	0x3d85d735	0.06535188
228	0x3d93a804	0.07209781
229	0xbdef3658	-0.11680287
230	0x3bef80b4	0.007309044
231	0x3d59fc37	0.053219046
232	0x3b62a77f	0.0034584699
233	0xbc4b09d6	-0.012392482
234	0x3d4d234b	0.050082486
235	0x3e23b4b5	0.15986903
236	0xbd89946e	-0.06717764
237	0x3d9f3f29	0.07775719
238	0x3e13193c	0.14365095
239	0xbdb95a57	-0.09050434
240	0xbd9358d4	-0.07194677
241	0x3cf2ea4d	0.029652739
242	0xbe09bc3d	-0.13450713
243	0x3e11e819	0.14248694
244	0x3da418aa	0.08012517
245	0x3d414ef0	0.04719442
246	0x3da6efa1	0.08151174
247	0x3d5852dd	0.0528134
248	0xbde973c9	-0.113990374
249	0xbcacf70e	-0.021113899
250	0xbe1f2885	-0.155428
251	0xbde01cb3	-0.10942974
252	0xbdb1feaf	-0.08691155
253	0xbdbe5003	-0.09292605
254	0x3d2d5f3a	0.042327143
255	0xbd416aa8	-0.047220856

phi.initial_conv_module.0._layers.9.weight f4 [32]
0	0x3f84bd57	1.0370282
1	0x3f89ead8	1.0774794
2	0x3f866fd9	1.0502883
3	0x3f81dccf	1.014551
4	0x3f8580ae	1.0429895
5	0x3f842a25	1.0325361
6	0x3f843220	1.0327797
7	0x3f882ef8	1.0639334
8	0x3f86c7a5	1.0529677
9	0x3f8675e9	1.0504733
10	0x3f83118e	1.0239732
11	0x3f82e73c	1.0226817
12	0x3f869686	1.0514686
13	0x3f839c12	1.0282004
14	0x3f8a98c5	1.0827872
15	0x3f7d2838	0.98889494
16	0x3f89a310	1.0752888
17	0x3f83c81f	1.0295447
18	0x3f8e9251	1.1138402
19	0x3f827f3c	1.0195079
20	0x3f7cf762	0.98814976
21	0x3f8840e3	1.0644802
22	0x3f8e40df	1.1113547
23	0x3f917f0f	1.13669
24	0x3f87479c	1.0568728
25	0x3f84d20f	1.0376605
26	0x3f81ddca	1.014581
27	0x3f836922	1.0266459
28	0x3f8f8e26	1.1215255
29	0x3f884011	1.0644552
30	0x3f81e0a3	1.0146679
31	0x3f804c8b	1.0023359

phi.initial_conv_module.0._layers.9.bias f4 [32]
0	0xbbdaeffd	-0.006681441
1	0xbb9701c3	-0.0046083643
2	0x3b1bc306	0.0023767366
3	0x3c15c66d	0.009141547
4	0x3b061a78	0.0020462554
5	0x3ba7e9ba	0.005124298
6	0x3c0beb54	0.008539993
7	0xbc67cda0	-0.014148146
8	0x3c5eeb19	0.013605856
9	0x3af2a952	0.0018513596
10	0x3c0123ef	0.007882102
11	0xbb176ca3	-0.0023105524
12	0x3ba553f8	0.0050454102
13	0xbbfa1f75	-0.0076331445
14	0x3b0ade8a	0.0021189773
15	0x3b1bd1f7	0.0023776272
16	0xbc43a352	-0.011940794
17	0xbbbf3265	-0.005834865
18	0xbb99cc6a	-0.0046935575
19	0xba78f140	-0.0009496398
20	0x3aad8364	0.001323801
21	0xbc83fcfa	-0.01611184
22	0x3c2624d2	0.010140615
23	0x3c0fc5ab	0.008775155
24	0x3ba33365	0.004980492
25	0xbb312189	-0.0027028045
26	0x3ba84d0e	0.0051361388
27	0xbab273c7	-0.0013614827
28	0xbc159c08	-0.009131439
29	0x3c0d9e3f	0.008643686
30	0xb961d7ac	-0.00021538016
31	0xb7818415	-1.5439504e-05

phi.initial_conv_module.0._layers.9.running_mean f4 [32]
0	0xbad86604	-0.0016509895
1	0xbb50569d	-0.0031789907
2	0x3d1198ef	0.03554624
3	0xbc1582fd	-0.009125468
4	0xbde99732	-0.11405791
5	0xbdab8fe2	-0.08377053
6	0xbd8fc036	-0.07019083
7	0x3d3352f1	0.04378027
8	0xbdf8eded	-0.12154756
9	0xbae78f61	-0.0017666632
10	0xbc225c25	-0.009909664
11	0x3d914e68	0.07095033
12	0x3d8126ad	0.06306205
13	0xbbf93dfb	-0.0076062656
14	0x3c44ff7e	0.012023805
15	0x3da86054	0.08221498
16	0xbd08f3a0	-0.033435464
17	0xbc6d9b85	-0.014502411
18	0xbd1763a2	-0.03696025
19	0x3da2fdc9	0.07958562
20	0x3c48532b	0.01222686
21	0x3c2b696d	0.010462147
22	0x3d100fa2	0.03517116
23	0xbd106190	-0.035249293
24	0x3df567a8	0.119826615
25	0xbd2dbc76	-0.04241606
26	0xbb6f4d97	-0.0036514753
27	0x3b241a83	0.0025040216
28	0x3d8a8e6b	0.06765445
29	0xbd881599	-0.066447444
30	0xbd279341	-0.040911917
31	0x3b6c85e1	0.003609054

phi.initial_conv_module.0._layers.9.running_var f4 [32]
0	0x3d19b610	0.037527144
1	0x3d8a1e34	0.06744042
2	0x3d8e7151	0.06955207
3	0x3d515d0e	0.051114134
4	0x3d93746a	0.071999386
5	0x3da305ac	0.07960066
6	0x3d63088e	0.05542808
7	0x3d452235	0.048128325
8	0x3d1cc6c6	0.038275503
9	0x3d41235b	0.04715286
10	0x3d31c341	0.0433991
11	0x3d3223cf	0.04349118
12	0x3d6086b8	0.054815978
13	0x3d0b8527	0.03406253
14	0x3d6afbce	0.057369046
15	0x3d6a4b13	0.057200503
16	0x3d911241	0.0708356
17	0x3d46b84d	0.048515607
18	0x3d65049c	0.0559126
19	0x3d60ff4b	0.054930966
20	0x3d21bf0f	0.03948885
21	0x3d058f48	0.032607347
22	0x3d5a7477	0.053333726
23	0x3d10761c	0.035268888
24	0x3cf4f552	0.029902134
25	0x3d713224	0.05888571
26	0x3d87fad8	0.066396415
27	0x3d3c8516	0.04602536
28	0x3d38683f	0.04502129
29	0x3d682041	0.056671385
30	0x3d88a89a	0.06672783
31	0x3d4c5835	0.04988881
