logs/bird_classification_test_Certhia/2025-05-11_22-10-46/best_bird_classification_test_Certhia.pth (torch, 314134 bytes, 200 tensors)

mel_spec.spectrogram.window f4 [400]
000000 00 00 00 00 00 60 81 38 00 5c 81 39 00 82 11 3a
       0.0 6.169081e-05 0.00024673343 0.00055506825
000010 00 52 81 3a 00 07 ca 3a 00 6d 11 3b 00 e3 45 3b
       0.0009866357 0.0015413463 0.0022190213 0.0030195117
000020 40 31 81 3b c0 73 a3 3b c0 b6 c9 3b 00 f8 f3 3b
       0.0039426386 0.0049881637 0.0061558187 0.0074453354
000030 60 1a 11 3c e0 34 2a 3c 40 4a 45 3c 80 58 62 3c
       0.008856386 0.010388583 0.012041628 0.013815045
000040 f0 ae 80 3c 40 2c 91 3c 10 a3 a2 3c 60 12 b5 3c
       0.015708417 0.017721295 0.019853145 0.022103488
000050 f0 78 c8 3c a0 d5 dc 3c 00 27 f2 3c e8 35 04 3d
       0.02447173 0.026957333 0.029559612 0.03227797
000060 58 d1 0f 3d 10 e5 1b 3d 40 70 28 3d 30 72 35 3d
       0.035111755 0.038060248 0.041122675 0.04429835
000070 08 ea 42 3d f0 d6 50 3d f8 37 5f 3d 48 0c 6e 3d
       0.04758647 0.05098623 0.054496735 0.05811718
000080 f0 52 7d 3d 78 85 86 3d a4 99 8e 3d 80 e5 96 3d
       0.061846673 0.06568426 0.069628984 0.073679924
000090 80 68 9f 3d 20 22 a8 3d cc 11 b1 3d f8 36 ba 3d
       0.07783604 0.08209634 0.086459726 0.09092516
0000a0 0c 91 c3 3d 78 1f cd 3d 9c e1 d6 3d dc d6 e0 3d
       0.0954915 0.10015768 0.1049225 0.10978481
0000b0 94 fe ea 3d 24 58 f5 3d e4 e2 ff 3d 14 4f 05 3e
       0.11474338 0.11979702 0.12494448 0.13018447
0000c0 a2 c4 0a 3e c0 51 10 3e 1a f6 15 3e 52 b1 1b 3e
       0.13551572 0.14093685 0.14644662 0.15204361
0000d0 0c 83 21 3e e8 6a 27 3e 8a 68 2d 3e 8c 7b 33 3e
       0.15772647 0.16349375 0.1693441 0.17527598
0000e0 92 a3 39 3e 34 e0 3f 3e 0e 31 46 3e b8 95 4c 3e
       0.18128803 0.1873787 0.1935465 0.19978988
0000f0 d0 0d 53 3e ea 98 59 3e 9c 36 60 3e 7c e6 66 3e
       0.20610738 0.21249738 0.21895832 0.2254886
000100 1e a8 6d 3e 14 7b 74 3e ee 5e 7b 3e a0 29 81 3e
       0.23208663 0.23875076 0.24547932 0.2522707
000110 cc ab 84 3e c2 35 88 3e 48 c7 8b 3e 27 60 8f 3e
       0.2591232 0.26603514 0.27300477 0.28003046
000120 22 00 93 3e 00 a7 96 3e 86 54 9a 3e 76 08 9e 3e
       0.2871104 0.29424286 0.3014261 0.3086583
000130 97 c2 a1 3e ac 82 a5 3e 79 48 a9 3e c0 13 ad 3e
       0.31593773 0.32326257 0.33063105 0.3380413
000140 44 e4 b0 3e c6 b9 b4 3e 0a 94 b8 3e d2 72 bc 3e
       0.34549153 0.35297984 0.36050445 0.3680635
000150 dd 55 c0 3e ee 3c c4 3e c5 27 c8 3e 23 16 cc 3e
       0.37565508 0.38327736 0.39092842 0.3986064
000160 c8 07 d0 3e 76 fc d3 3e eb f3 d7 3e e7 ed db 3e
       0.40630937 0.4140355 0.42178282 0.42954943
000170 2b ea df 3e 76 e8 e3 3e 87 e8 e7 3e 1d ea eb 3e
       0.43733343 0.4451329 0.45294592 0.46077052
000180 f8 ec ef 3e d5 f0 f3 3e 77 f5 f7 3e 9c fa fb 3e
       0.4686048 0.47644678 0.48429462 0.49214637
000190 00 00 00 3f b3 02 02 3f 45 05 04 3f 96 07 06 3f
       0.5 0.5078537 0.5157054 0.52355325
0001a0 86 09 08 3f f3 0a 0a 3f be 0b 0c 3f c7 0b 0e 3f
       0.5313953 0.5392296 0.5470542 0.5548672
0001b0 ec 0a 10 3f 0e 09 12 3f 0c 06 14 3f c7 01 16 3f
       0.56266665 0.57045066 0.57821727 0.5859646
0001c0 1d fc 17 3f f0 f4 19 3f 1f ec 1b 3f 8b e1 1d 3f
       0.5936907 0.6013937 0.6090717 0.61672276
0001d0 13 d5 1f 3f 99 c6 21 3f fb b5 23 3f 1e a3 25 3f
       0.624345 0.6319366 0.63949555 0.6470202
0001e0 df 8d 27 3f 21 76 29 3f c4 5b 2b 3f aa 3e 2d 3f
       0.65450853 0.66195875 0.669369 0.6767374
0001f0 b5 1e 2f 3f c6 fb 30 3f bf d5 32 3f 82 ac 34 3f
       0.6840623 0.69134176 0.698574 0.70575726
000200 f0 7f 36 3f ee 4f 38 3f 5d 1c 3a 3f 21 e5 3b 3f
       0.7128897 0.71996963 0.7269953 0.733965
000210 1c aa 3d 3f 32 6b 3f 3f 46 28 41 3f 3c e1 42 3f
       0.7408769 0.7477294 0.7545208 0.7612493
000220 fa 95 44 3f 62 46 46 3f 5a f2 47 3f c7 99 49 3f
       0.76791346 0.77451146 0.78104174 0.7875027
000230 8e 3c 4b 3f 93 da 4c 3f be 73 4e 3f f5 07 50 3f
       0.79389274 0.8002102 0.8064536 0.8126214
000240 1e 97 51 3f 1e 21 53 3f e0 a5 54 3f 48 25 56 3f
       0.8187121 0.8247241 0.83065605 0.83650637
000250 3e 9f 57 3f ad 13 59 3f 7a 82 5a 3f 90 eb 5b 3f
       0.8422736 0.8479565 0.8535534 0.85906315
000260 d8 4e 5d 3f 3c ac 5e 3f a4 03 60 3f fc 54 61 3f
       0.8644843 0.8698156 0.87505555 0.880203
000270 2e a0 62 3f 25 e5 63 3f cd 23 65 3f 12 5c 66 3f
       0.88525665 0.8902152 0.8950775 0.8998424
000280 df 8d 67 3f 22 b9 68 3f c7 dd 69 3f bc fb 6a 3f
       0.90450853 0.9090749 0.9135403 0.91790366
000290 f0 12 6c 3f 50 23 6d 3f cc 2c 6e 3f 52 2f 6f 3f
       0.92216396 0.9263201 0.93037105 0.9343158
0002a0 d2 2a 70 3f 3c 1f 71 3f 81 0c 72 3f 92 f2 72 3f
       0.9381534 0.94188285 0.9455033 0.9490138
0002b0 60 d1 73 3f de a8 74 3f fc 78 75 3f b0 41 76 3f
       0.95241356 0.9557017 0.9588773 0.9619398
0002c0 eb 02 77 3f a2 bc 77 3f c8 6e 78 3f 54 19 79 3f
       0.9648883 0.96772206 0.9704404 0.9730427
0002d0 39 bc 79 3f 6e 57 7a 3f e8 ea 7a 3f 9e 76 7b 3f
       0.9755283 0.9778966 0.9801469 0.9822787
0002e0 89 fa 7b 3f 9e 76 7c 3f d8 ea 7c 3f 2c 57 7d 3f
       0.9842916 0.98618495 0.98795843 0.9896114
0002f0 97 bb 7d 3f 10 18 7e 3f 92 6c 7e 3f 18 b9 7e 3f
       0.99114364 0.99255466 0.99384415 0.9950118
000300 9e fd 7e 3f 1d 3a 7f 3f 93 6e 7f 3f fc 9a 7f 3f
       0.9960574 0.9969805 0.997781 0.9984586
000310 57 bf 7f 3f a0 db 7f 3f d4 ef 7f 3f f5 fb 7f 3f
       0.99901336 0.99944496 0.99975324 0.9999383
000320 00 00 80 3f f5 fb 7f 3f d4 ef 7f 3f a0 db 7f 3f
       1.0 0.9999383 0.99975324 0.99944496
000330 57 bf 7f 3f fc 9a 7f 3f 93 6e 7f 3f 1c 3a 7f 3f
       0.99901336 0.9984586 0.997781 0.9969804
000340 9d fd 7e 3f 18 b9 7e 3f 92 6c 7e 3f 10 18 7e 3f
       0.99605733 0.9950118 0.99384415 0.99255466
000350 96 bb 7d 3f 2c 57 7d 3f d7 ea 7c 3f 9e 76 7c 3f
       0.9911436 0.9896114 0.9879584 0.98618495
000360 88 fa 7b 3f 9e 76 7b 3f e7 ea 7a 3f 6c 57 7a 3f
       0.98429155 0.9822787 0.9801468 0.97789645
000370 38 bc 79 3f 52 19 79 3f c8 6e 78 3f a0 bc 77 3f
       0.97552824 0.9730426 0.9704404 0.96772194
000380 ea 02 77 3f ae 41 76 3f fb 78 75 3f dc a8 74 3f
       0.9648882 0.9619397 0.95887727 0.9557016
000390 5e d1 73 3f 90 f2 72 3f 80 0c 72 3f 3a 1f 71 3f
       0.95241344 0.9490137 0.94550323 0.9418827
0003a0 d0 2a 70 3f 50 2f 6f 3f ca 2c 6e 3f 50 23 6d 3f
       0.93815327 0.9343157 0.9303709 0.9263201
0003b0 f0 12 6c 3f bc fb 6a 3f c6 dd 69 3f 21 b9 68 3f
       0.92216396 0.91790366 0.91354024 0.90907484
0003c0 de 8d 67 3f 10 5c 66 3f cc 23 65 3f 24 e5 63 3f
       0.9045085 0.89984226 0.89507747 0.89021516
0003d0 2d a0 62 3f fb 54 61 3f a3 03 60 3f 3a ac 5e 3f
       0.8852566 0.88020295 0.8750555 0.86981547
0003e0 d7 4e 5d 3f 8f eb 5b 3f 78 82 5a 3f aa 13 59 3f
       0.86448425 0.8590631 0.8535533 0.8479563
0003f0 3c 9f 57 3f 45 25 56 3f dd a5 54 3f 1c 21 53 3f
       0.8422735 0.8365062 0.8306559 0.82472396

mel_spec.mel_scale.fb f4 [201, 64]
000000 00 00 00 00 00 00 00 00 00 00 00 00 00 00 00 00
       0.0 0.0 0.0 0.0
000010 00 00 00 00 00 00 00 00 00 00 00 00 00 00 00 00
       0.0 0.0 0.0 0.0
000020 00 00 00 00 00 00 00 00 00 00 00 00 00 00 00 00
       0.0 0.0 0.0 0.0
000030 00 00 00 00 00 00 00 00 00 00 00 00 00 00 00 00
       0.0 0.0 0.0 0.0
000040 00 00 00 00 00 00 00 00 00 00 00 00 00 00 00 00
       0.0 0.0 0.0 0.0
000050 00 00 00 00 00 00 00 00 00 00 00 00 00 00 00 00
       0.0 0.0 0.0 0.0
000060 00 00 00 00 00 00 00 00 00 00 00 00 00 00 00 00
       0.0 0.0 0.0 0.0
000070 00 00 00 00 00 00 00 00 00 00 00 00 00 00 00 00
       0.0 0.0 0.0 0.0
000080 00 00 00 00 00 00 00 00 00 00 00 00 00 00 00 00
       0.0 0.0 0.0 0.0
000090 00 00 00 00 00 00 00 00 00 00 00 00 00 00 00 00
       0.0 0.0 0.0 0.0
0000a0 00 00 00 00 00 00 00 00 00 00 00 00 00 00 00 00
       0.0 0.0 0.0 0.0
0000b0 00 00 00 00 00 00 00 00 00 00 00 00 00 00 00 00
       0.0 0.0 0.0 0.0
0000c0 00 00 00 00 00 00 00 00 00 00 00 00 00 00 00 00
       0.0 0.0 0.0 0.0
0000d0 00 00 00 00 00 00 00 00 00 00 00 00 00 00 00 00
       0.0 0.0 0.0 0.0
0000e0 00 00 00 00 00 00 00 00 00 00 00 00 00 00 00 00
       0.0 0.0 0.0 0.0
0000f0 00 00 00 00 00 00 00 00 00 00 00 00 00 00 00 00
       0.0 0.0 0.0 0.0
000100 00 00 00 00 00 00 00 00 00 00 00 00 00 00 00 00
       0.0 0.0 0.0 0.0
000110 00 00 00 00 00 00 00 00 00 00 00 00 00 00 00 00
       0.0 0.0 0.0 0.0
000120 00 00 00 00 00 00 00 00 00 00 00 00 00 00 00 00
       0.0 0.0 0.0 0.0
000130 00 00 00 00 00 00 00 00 00 00 00 00 00 00 00 00
       0.0 0.0 0.0 0.0
000140 00 00 00 00 00 00 00 00 00 00 00 00 00 00 00 00
       0.0 0.0 0.0 0.0
000150 00 00 00 00 00 00 00 00 00 00 00 00 00 00 00 00
       0.0 0.0 0.0 0.0
000160 00 00 00 00 00 00 00 00 00 00 00 00 00 00 00 00
       0.0 0.0 0.0 0.0
000170 00 00 00 00 00 00 00 00 00 00 00 00 00 00 00 00
       0.0 0.0 0.0 0.0
000180 00 00 00 00 00 00 00 00 00 00 00 00 00 00 00 00
       0.0 0.0 0.0 0.0
000190 00 00 00 00 00 00 00 00 00 00 00 00 00 00 00 00
       0.0 0.0 0.0 0.0
0001a0 00 00 00 00 00 00 00 00 00 00 00 00 00 00 00 00
       0.0 0.0 0.0 0.0
0001b0 00 00 00 00 00 00 00 00 00 00 00 00 00 00 00 00
       0.0 0.0 0.0 0.0
0001c0 00 00 00 00 00 00 00 00 00 00 00 00 00 00 00 00
       0.0 0.0 0.0 0.0
0001d0 00 00 00 00 00 00 00 00 00 00 00 00 00 00 00 00
       0.0 0.0 0.0 0.0
0001e0 00 00 00 00 00 00 00 00 00 00 00 00 00 00 00 00
       0.0 0.0 0.0 0.0
0001f0 00 00 00 00 00 00 00 00 00 00 00 00 00 00 00 00
       0.0 0.0 0.0 0.0
000200 00 00 00 00 00 00 00 00 00 00 00 00 00 00 00 00
       0.0 0.0 0.0 0.0
000210 00 00 00 00 00 00 00 00 00 00 00 00 00 00 00 00
       0.0 0.0 0.0 0.0
000220 00 00 00 00 00 00 00 00 00 00 00 00 00 00 00 00
       0.0 0.0 0.0 0.0
000230 00 00 00 00 00 00 00 00 00 00 00 00 00 00 00 00
       0.0 0.0 0.0 0.0
000240 00 00 00 00 00 00 00 00 00 00 00 00 00 00 00 00
       0.0 0.0 0.0 0.0
000250 00 00 00 00 00 00 00 00 00 00 00 00 00 00 00 00
       0.0 0.0 0.0 0.0
000260 00 00 00 00 00 00 00 00 00 00 00 00 00 00 00 00
       0.0 0.0 0.0 0.0
000270 00 00 00 00 00 00 00 00 00 00 00 00 00 00 00 00
       0.0 0.0 0.0 0.0
000280 00 00 00 00 00 00 00 00 00 00 00 00 00 00 00 00
       0.0 0.0 0.0 0.0
000290 00 00 00 00 00 00 00 00 00 00 00 00 00 00 00 00
       0.0 0.0 0.0 0.0
0002a0 00 00 00 00 00 00 00 00 00 00 00 00 00 00 00 00
       0.0 0.0 0.0 0.0
0002b0 00 00 00 00 00 00 00 00 00 00 00 00 00 00 00 00
       0.0 0.0 0.0 0.0
0002c0 00 00 00 00 00 00 00 00 00 00 00 00 00 00 00 00
       0.0 0.0 0.0 0.0
0002d0 00 00 00 00 00 00 00 00 00 00 00 00 00 00 00 00
       0.0 0.0 0.0 0.0
0002e0 00 00 00 00 00 00 00 00 00 00 00 00 00 00 00 00
       0.0 0.0 0.0 0.0
0002f0 00 00 00 00 00 00 00 00 00 00 00 00 00 00 00 00
       0.0 0.0 0.0 0.0
000300 00 00 00 00 00 00 00 00 00 00 00 00 00 00 00 00
       0.0 0.0 0.0 0.0
000310 00 00 00 00 00 00 00 00 00 00 00 00 00 00 00 00
       0.0 0.0 0.0 0.0
000320 00 00 00 00 00 00 00 00 00 00 00 00 00 00 00 00
       0.0 0.0 0.0 0.0
000330 00 00 00 00 00 00 00 00 00 00 00 00 00 00 00 00
       0.0 0.0 0.0 0.0
000340 00 00 00 00 00 00 00 00 00 00 00 00 00 00 00 00
       0.0 0.0 0.0 0.0
000350 00 00 00 00 00 00 00 00 00 00 00 00 00 00 00 00
       0.0 0.0 0.0 0.0
000360 00 00 00 00 00 00 00 00 00 00 00 00 00 00 00 00
       0.0 0.0 0.0 0.0
000370 00 00 00 00 00 00 00 00 00 00 00 00 00 00 00 00
       0.0 0.0 0.0 0.0
000380 00 00 00 00 00 00 00 00 00 00 00 00 00 00 00 00
       0.0 0.0 0.0 0.0
000390 00 00 00 00 00 00 00 00 00 00 00 00 00 00 00 00
       0.0 0.0 0.0 0.0
0003a0 00 00 00 00 00 00 00 00 00 00 00 00 00 00 00 00
       0.0 0.0 0.0 0.0
0003b0 00 00 00 00 00 00 00 00 00 00 00 00 00 00 00 00
       0.0 0.0 0.0 0.0
0003c0 00 00 00 00 00 00 00 00 00 00 00 00 00 00 00 00
       0.0 0.0 0.0 0.0
0003d0 00 00 00 00 00 00 00 00 00 00 00 00 00 00 00 00
       0.0 0.0 0.0 0.0
0003e0 00 00 00 00 00 00 00 00 00 00 00 00 00 00 00 00
       0.0 0.0 0.0 0.0
0003f0 00 00 00 00 00 00 00 00 00 00 00 00 00 00 00 00
       0.0 0.0 0.0 0.0

phi.initial_conv_module.0._layers.0.conv.weight f4 [64, 64, 1]
000000 9b 1c 07 3e 51 f4 1d 3e b9 00 45 3d a3 65 37 3e
       0.13194506 0.1542523 0.048096392 0.17909865
000010 b2 c3 b8 3c 50 66 9f 3d 22 45 ea b9 32 53 06 3e
       0.022554252 0.077831864 -0.00044683466 0.13117674
000020 c7 b1 20 3e 7a 02 03 bd 19 2f 0a 3e 81 8e ad 3c
       0.15692817 -0.031984784 0.13494529 0.021186115
000030 7e 33 c3 3d 62 a3 01 3d 97 98 bf 3d 16 0e c0 3a
       0.09531306 0.031649955 0.09355276 0.0014652635
000040 66 91 b0 3d cd 4f 00 bb 52 41 b5 bd 3f 0c 8a 3c
       0.086214826 -0.0019578815 -0.088503495 0.016851543
000050 1f 04 97 bd 39 46 c7 bc d1 ec 86 bd cf 86 8c 3d
       -0.07373833 -0.024325477 -0.06588138 0.0686165
000060 17 86 03 be 1e e4 a9 bd 4f 2e 64 bd 02 ad 95 bd
       -0.1284412 -0.08295463 -0.055708226 -0.07308389
000070 1a 1a ca 3c e4 3b b2 bd 8c d1 1d 3e 35 d7 ca bd
       0.02467065 -0.087028295 0.15411967 -0.09904329
000080 67 c3 de 3d 23 47 57 3d 1f 78 ef bc 5f 7f b9 3d
       0.10877114 0.052558076 -0.029232083 0.09057497
000090 85 25 17 3d 00 69 e3 3d 4c 76 a9 3b 54 06 4a bd
       0.036901016 0.111040115 0.005171573 -0.04932244
0000a0 ca 4b 43 3d fd 91 43 bc 79 ed 8e 3d 77 fd c1 3d
       0.0476797 -0.011936662 0.06978888 0.09472173
0000b0 70 83 6d 3d 18 39 b2 bd 6b 61 87 3c be ef 14 bd
       0.057986677 -0.08702296 0.016525945 -0.03636145
0000c0 39 8c 8e 3c 58 f9 e1 bd 30 71 17 be 55 4b 7e bd
       0.017400848 -0.11033887 -0.14789271 -0.06208356
0000d0 b0 5a da bd 06 7b b7 3d 85 05 bf 3c 8d b4 fe 3c
       -0.106618285 0.08959012 0.023318062 0.031091953
0000e0 64 95 9a 3c 1d f6 cb bc 01 8d d4 3d 1b c1 5a bd
       0.018870063 -0.02489763 0.10378457 -0.053406816
0000f0 b3 c2 33 3d c0 84 2f bd a4 6b a8 3d e2 25 6b bc
       0.04388685 -0.04285121 0.08223656 -0.014352294
000100 35 b3 b6 3c 42 0a 5c bd 0f e5 7b 3d 16 b0 b9 bd
       0.02230225 -0.05372072 0.061497744 -0.09066789
000110 87 c2 97 bd 2a 50 b6 bd a5 e3 bd 3d c8 ec 69 3c
       -0.0741015 -0.08902009 0.092719354 0.014277644
000120 a7 82 dd 3d 1e 7c 13 be c9 38 10 be d7 56 9d bd
       0.108159356 -0.14402816 -0.14084162 -0.07682579
000130 81 e5 80 bd 79 33 92 3d 29 27 a2 3d 66 d4 11 3e
       -0.062937744 0.07138724 0.079176255 0.1424118
000140 df 4e 8b bc de fb 51 bd 84 0b ea 3d 9e e5 a5 bb
       -0.017005382 -0.05126559 0.11427978 -0.005062773
000150 f6 4d 04 3e 8f 36 eb 3c 51 e1 04 3e cb f6 88 bd
       0.12920365 0.028712539 0.12976576 -0.06687697
000160 cd 50 e9 bc a7 96 8a 3d ea 3a fc 3c c6 24 4b bb
       -0.028480912 0.06767016 0.030789811 -0.003099726
000170 d2 f4 ed 3d 52 a5 01 3e 6f 2f f4 bc 3f 20 08 bc
       0.116189614 0.12660721 -0.029807774 -0.008308469
000180 8c 70 19 3e 81 9b d0 3c 56 b4 14 3d c4 ff 18 bd
       0.1498434 0.025464775 0.036304794 -0.037353292
000190 62 49 37 bc d2 4c aa 3d 62 bb 2c 3d a0 f3 07 bd
       -0.011186929 0.083154336 0.04217089 -0.033191323
0001a0 3f 88 9c 3d 16 4f 10 bc b5 1b fc bc 16 33 30 bc
       0.076431744 -0.008807918 -0.03077493 -0.010754367
0001b0 c3 9c b7 bd 18 cc 04 be 8a 1a 3d 3d ba b9 88 bd
       -0.08965447 -0.1296848 0.046167888 -0.066760495
0001c0 b1 1b 36 bd 0d 35 57 be a0 15 4d be 13 b1 13 be
       -0.044460002 -0.21016331 -0.2002778 -0.14423017
0001d0 33 ef 61 bd 92 c1 15 be 5c b3 a9 bd 4a 0d bd bd
       -0.05515976 -0.14624622 -0.08286163 -0.0923105
0001e0 cc 00 a0 bc a1 78 16 bd 56 0a fc bb 90 ae 96 bd
       -0.01953163 -0.036736134 -0.007691662 -0.07357514
0001f0 ae 76 8e bd 9b 6a f0 bc 80 8d bf 3b 7b 1c 61 bd
       -0.0695623 -0.029347708 0.0058457255 -0.0549588
000200 3e c3 b1 3d 9d 70 39 bd 7f 50 b1 3d 54 45 f3 3c
       0.086798176 -0.045273412 0.086579315 0.029696144
000210 24 7c ef bd f3 4f 70 3d e6 57 81 bd 77 4c 8a bd
       -0.116936 0.058669996 -0.063155934 -0.06752866
000220 7b d6 db bd 91 f2 10 be 7a f0 2e bb e0 fe 55 bd
       -0.10734268 -0.14155032 -0.0026693628 -0.05224502
000230 6a 27 08 3d 7c e1 fc bd dc 5b 99 3d 21 6d e2 bd
       0.033240713 -0.12347695 0.07488224 -0.11055971
000240 96 12 2d bd 73 86 12 bd 1e c0 6a 3b d7 71 43 3d
       -0.042254053 -0.035772752 0.0035820077 0.047715988
000250 9d 63 7b 3d bc 9e 16 be 6e a6 c3 bc 18 0a b5 bd
       0.061374296 -0.1470899 -0.02388307 -0.08839816
000260 ce d4 6c bd ba ed 02 be 1f 9e 82 3d 23 9a 0e be
       -0.057820134 -0.12785998 0.063778155 -0.13925986
000270 ee e9 4f 3c 60 9e 06 bc 32 b3 ea 39 c3 bd cd bd
       0.0126900505 -0.0082164705 0.0004476547 -0.1004596
000280 b7 48 d4 3d cc 31 01 3d 5a d9 22 3d 7b ce 9b bd
       0.10365432 0.03154163 0.039758064 -0.076077424
000290 79 0e c0 3d a9 e0 0a 3d 86 f7 77 bc 5d 90 10 3e
       0.093777604 0.03390566 -0.015134698 0.1411757
0002a0 c9 ff 83 3d 49 7a e5 bc 61 ad e6 bc 60 73 16 3c
       0.064452715 -0.028012412 -0.028158845 0.009182781
0002b0 8c 7d 7e 3d ec 24 a6 bd 40 c7 07 be d3 ee cb bd
       0.06213145 -0.08112511 -0.13259602 -0.099576615
0002c0 81 94 23 be 4d 7e 10 bd 24 80 dd 3c 95 77 24 be
       -0.15974618 -0.0352767 0.027038641 -0.16061242
0002d0 9b 70 70 3c 88 d8 98 3d a5 9b 1e 3d 72 29 91 bc
       0.014675285 0.07463175 0.038722653 -0.017719958
0002e0 cc b5 b0 3d db bb 82 3d 96 1c 2f 3d 55 8d 20 bc
       0.08628425 0.06383487 0.04275187 -0.009799321
0002f0 50 fc 8c 3c b7 33 83 3d 3c 5a 1a 3d 99 bb e2 3c
       0.017210156 0.06406348 0.03768371 0.027677344
000300 4e 3f ef 3d 33 64 1c 3e f6 21 b6 3c ae 07 35 3c
       0.11681996 0.15272598 0.02223299 0.011049194
000310 17 cd 59 3d d0 04 ea 3c e6 07 a0 3d f9 7a a9 3d
       0.053174105 0.028566748 0.078140065 0.08275408
000320 1f d5 6a bd 5f c3 9c 3c 5d 6c 2b 3e c0 6b e1 3d
       -0.057332154 0.019136129 0.16740556 0.1100688
000330 63 bc a6 3c 9b 41 ab bd 02 a5 bd bd 6c db cf bd
       0.020353502 -0.083621226 -0.09259988 -0.10149273
000340 94 6f 25 bd 1e 64 7c 3c 5d 0b ba 3c 65 82 d3 3c
       -0.040389612 0.015404729 0.022710497 0.025819013
000350 e9 da ed bd 42 7c b4 bd 4a f9 84 bd c5 61 93 3d
       -0.116140194 -0.08812763 -0.064928606 0.071963824
000360 46 bb 95 bc fe db 90 bd c8 17 ed 3c ff f9 b0 bd
       -0.018277775 -0.0707321 0.028942004 -0.08641433
000370 1e 7d f8 bd 4d 15 89 3d 3f 16 98 bd a6 84 4b bd
       -0.12133239 0.06693516 -0.07426118 -0.04968705
000380 73 a6 18 be ae ca 89 3d e9 81 b5 3d eb 08 85 3d
       -0.14907245 0.06728111 0.08862669 0.064958416
000390 b8 c6 51 bd 46 bc bd bd ad bc 8b bd 78 0f f5 3d
       -0.051214904 -0.09264426 -0.068230964 0.11965841
0003a0 5b 67 c1 3d f6 96 19 3e 4a 2b ee 3d c4 25 81 3d
       0.094435416 0.14998993 0.116293505 0.06306031
0003b0 81 de 39 3d cd 31 43 bd 46 de b3 bd af 03 ff bd
       0.045378212 -0.047654916 -0.0878263 -0.124518745
0003c0 bf f5 ef 3c 1c e0 cf bd 13 a1 3d bd 3d cf 9f bd
       0.029291986 -0.10150167 -0.04629619 -0.078031994
0003d0 a7 91 a6 bc 4c 2c 5d bd 10 75 d5 bc 18 7d d3 3d
       -0.020333124 -0.053997323 -0.026056796 0.10326594
0003e0 54 5c c0 3c 99 fc 23 3e b2 6f 45 3d a3 58 72 bc
       0.023481525 0.16014327 0.048202224 -0.01479164
0003f0 ef 9a 45 3d ba ae 3f 3c f2 49 8f 3c 80 b2 90 bd
       0.04824346 0.011699373 0.017491315 -0.07065296

phi.initial_conv_module.0._layers.1.weight f4 [64]
000000 05 fb 80 3f 04 55 84 3f f6 e3 77 3f 6f f7 79 3f
       1.0076605 1.0338445 0.96832216 0.9764318
000010 fd 8c 80 3f 61 65 6f 3f 9a ce 76 3f 99 0c 79 3f
       1.0043026 0.93514067 0.96409 0.9728485
000020 60 94 88 3f af 70 82 3f d0 33 80 3f 2c e1 81 3f
       1.067028 1.0190638 1.0015812 1.0146842
000030 d6 07 70 3f 4e a3 84 3f 19 0e 6b 3f f0 0a 72 3f
       0.93761957 1.0362337 0.91818386 0.9454794
000040 5a 6d 6d 3f a3 ae 7b 3f 14 f5 7e 3f e7 1c 6e 3f
       0.9274498 0.9831335 0.9959271 0.9301285
000050 88 84 7e 3f 5f 32 83 3f 46 71 75 3f 39 bf 6f 3f
       0.99420977 1.0249747 0.95875967 0.9365116
000060 2e 04 83 3f 85 ab 80 3f a8 f1 78 3f 3c 0c 78 3f
       1.023565 1.0052344 0.9724374 0.9689367
000070 24 f6 7e 3f da f2 88 3f 57 bb 82 3f 5a 9d 84 3f
       0.9959433 1.0699112 1.0213422 1.036052
000080 eb 5e 77 3f d3 f5 80 3f e7 0b 84 3f 28 c4 80 3f
       0.9662921 1.007502 1.0316132 1.0059862
000090 58 c0 85 3f 7d c3 7b 3f 54 c5 81 3f 05 24 77 3f
       1.0449324 0.98345166 1.0138345 0.96539336
0000a0 51 67 88 3f 81 4d 81 3f 27 ca 7d 3f df 7d 74 3f
       1.065653 1.0101777 0.99136585 0.95504564
0000b0 16 4f 83 3f 88 85 7b 3f 2e 4f 74 3f 54 f2 84 3f
       1.025851 0.9825063 0.9543332 1.0386453
0000c0 08 95 7b 3f 08 23 7b 3f 58 ad 86 3f 7b 0d 8a 3f
       0.9827428 0.9810033 1.052165 1.0785364
0000d0 c3 74 8a 3f da 98 75 3f 07 4f 88 3f ae ec 7c 3f
       1.0816883 0.9593636 1.0649117 0.98798645
0000e0 d9 9e 86 3f 82 c9 86 3f 65 44 81 3f fc c7 87 3f
       1.0517226 1.0530245 1.0098997 1.0607905
0000f0 ac 84 7e 3f d2 32 86 3f 37 b5 78 3f e4 2b 84 3f
       0.9942119 1.0484259 0.9715151 1.0325894

phi.initial_conv_module.0._layers.1.bias f4 [64]
000000 45 19 4c bd 6f f5 80 bc e9 23 ae 3d b8 db d5 3c
       -0.049828786 -0.015742032 0.08502943 0.026105747
000010 cc 8d b3 bb f6 cd be 3c 34 e2 90 3d 45 a3 78 3c
       -0.00547955 0.02329157 0.07074395 0.015175645
000020 aa 57 bd bc 36 0d 8b 3d 62 c5 b6 bc 0a 4b 20 bd
       -0.02311309 0.06789629 -0.022310916 -0.039134063
000030 2c c2 a5 3c ec 07 0f 3d 8b e3 84 3d 0f a7 2e 3d
       0.02023419 0.034919664 0.06488713 0.04263979
000040 44 37 69 bd b7 4f 06 3c 6f 4e 04 3b 79 59 e2 3c
       -0.05693747 0.008197716 0.0020188352 0.027630555
000050 eb f6 00 3d 72 b3 2e bc ad 1d 84 3d 14 4c 29 bd
       0.03148548 -0.0106629 0.06450973 -0.04133232
000060 c1 af 10 3d b5 6c 0f 3c 15 bd 9c bb b0 90 82 bd
       0.035323862 0.008753945 -0.0047832825 -0.06375253
000070 a2 6a 03 3d c7 42 09 bc 19 fc fc 3c d7 a4 2b bd
       0.032084115 -0.008377737 0.030881928 -0.04190525
000080 20 5f 3a bd f5 7e 8d 3c 7a 97 3b bd 06 7b 42 3b
       -0.045500875 0.017272452 -0.045798756 0.0029675378
000090 13 1d 67 bd 96 6a 2b 3c 82 bf 7f bc a4 09 06 3d
       -0.05642421 0.010462424 -0.015609624 0.032724038
0000a0 e4 bf 78 bb dc 53 a8 3a f1 14 e0 3d 63 99 77 3d
       -0.0037956173 0.0012842375 0.10941494 0.060449015
0000b0 20 2d 08 bd 50 07 0e bd 19 86 0e 3d 40 c7 9e bd
       -0.03324616 -0.034674942 0.034795854 -0.07752848
0000c0 dd f8 0a 3c 3d 24 1d bd 54 c2 1a 3c 68 c5 12 bc
       0.008482185 -0.038364638 0.0094457455 -0.008958198
0000d0 cc 01 5a bd f5 4e 03 3d 35 f1 50 3c c7 52 05 3b
       -0.05322437 0.03205772 0.012752821 0.0020343529
0000e0 cc 58 a9 bd e4 43 ba bd 4b 31 e3 3c cb 9e 12 bd
       -0.0826889 -0.0909498 0.027733466 -0.035795968
0000f0 0e b9 13 bd 7c da 77 bd c5 71 34 3d 2c b9 3d 3d
       -0.036065154 -0.060511097 0.04405381 0.04631917

phi.initial_conv_module.0._layers.1.running_mean f4 [64]
000000 b4 ab 76 3d 8c e3 d9 3e 9c 8f ca be 31 84 d6 bd
       0.060222343 0.42556417 -0.3956269 -0.10474432
000010 d6 46 05 bf 22 33 3f be 52 8f d7 bd eb 99 89 bd
       -0.5206121 -0.1867185 -0.10525383 -0.06718811
000020 7c 98 05 3e c7 95 48 bd 71 62 9a 3d 64 7e 66 3e
       0.1304645 -0.048970964 0.075383075 0.22509152
000030 a4 53 dd bd 6c 1e 6f 3e 63 a3 3c be 08 dc 3c be
       -0.10806969 0.23351449 -0.18421702 -0.1844331
000040 9f 8d 7d bc ad 0b e6 3d c4 6d 4f be 2d 4e 91 3e
       -0.01547566 0.11232696 -0.20256716 0.28379956
000050 69 33 e1 be cc 3c 81 3e 1c bd 6d be 71 08 dd bd
       -0.43984535 0.25241697 -0.23216671 -0.10792626
000060 1b c2 e6 bd 61 73 83 bd 60 51 06 bd e5 11 7b 3e
       -0.112674914 -0.06418491 -0.03279245 0.24518545
000070 37 bf 9c be 68 6d f2 3d 8d 4b 08 be e9 69 87 bd
       -0.30614635 0.11837274 -0.1331007 -0.06611998
000080 64 43 60 3e 79 37 96 3e ca 67 90 be 5f b9 6d 3c
       0.21900707 0.29339197 -0.28204185 0.014509528
000090 6e cb 9c be 61 83 0f be 2e d4 d1 3d 07 41 26 be
       -0.30623955 -0.14014961 0.10245548 -0.16235743
0000a0 b8 b5 81 3e d2 98 94 bc b7 f4 aa bc fd d2 4a 3e
       0.25333953 -0.018139277 -0.020868642 0.19807048
0000b0 d9 98 25 3d a4 a6 2a 3e 01 3e 35 be 30 72 c7 36
       0.04042897 0.16665131 -0.17699434 5.9439553e-06
0000c0 d9 7f 44 3e 6e 9b d3 be 75 d2 8d 3e 83 48 cd 3e
       0.19189395 -0.4132952 0.27699628 0.40094385
0000d0 1b 78 56 bd bd 0d 6c be 70 52 92 3e ac ff 81 bd
       -0.052360635 -0.23052116 0.2857852 -0.06347594
0000e0 56 5b 50 bc e4 d3 77 be 54 ae 26 3e a2 bd cd bd
       -0.012717089 -0.24201924 0.16277438 -0.10045935
0000f0 6e 46 e2 3e ab 69 66 3d 4d 84 e6 3d c1 88 e6 3d
       0.4419436 0.056253117 0.11255703 0.112565525

phi.initial_conv_module.0._layers.1.running_var f4 [64]
000000 c2 41 6e 3f 98 c8 a0 3f be a6 1e 3f 40 94 ae 3e
       0.9306909 1.2561216 0.6197318 0.3409748
000010 9e 52 3e 3f 11 1a d9 3f 6a 13 9d 3e b9 a9 ee 3f
       0.74344814 1.696108 0.30678874 1.8645545
000020 72 5d 0a 3f 66 56 89 3e 33 22 e2 3f 20 7d d0 3e
       0.54048836 0.2682373 1.7666687 0.40720463
000030 a5 c8 a5 3f 9a d0 3e 3f 08 da 3a 3f 57 85 be 3f
       1.2951857 0.7453705 0.7298894 1.4884442
000040 4b 5c 09 3f da 07 34 3f 9f 35 f3 3e 12 a1 aa 3e
       0.5365645 0.7032448 0.47501847 0.33326012
000050 6e d7 b7 3e 79 0f 5b 3e b6 7c 80 3e 56 02 17 40
       0.35906547 0.21392621 0.25095147 2.3595176
000060 38 c5 86 3f d2 2f 64 3e 1d 83 0c 3f 6e 76 ea 3f
       1.0528936 0.22283867 0.54887563 1.8317392
000070 fc 96 28 3f 6b ea b0 3e 40 04 00 40 57 ac f7 3f
       0.65855384 0.34553847 2.0002594 1.9349469
000080 f1 07 6b 3f fe a1 79 40 88 19 57 3f a6 43 68 3f
       0.9180899 3.9005122 0.8402333 0.90728223
000090 aa 95 d8 3f 91 ba 9b 3f 18 18 82 3f 21 88 6e 3f
       1.6920674 1.216631 1.0163603 0.93176466
0000a0 4d 64 6a 3e 9c da cc 3e 78 5b ad 3f e4 bd 9f 3f
       0.22889824 0.40010536 1.3543539 1.2479825
0000b0 fd d8 cc 3f 20 d5 5e 3f 7b 17 20 3f 11 41 4c 3f
       1.600372 0.8704395 0.6253583 0.79786783
0000c0 94 eb 67 3f 3e 0e 88 3e c4 54 63 3f 79 dc 9e 3f
       0.9059384 0.26573366 0.8880122 1.2411033
0000d0 b5 3a 86 3f d2 cc 27 3f 07 e2 95 3f 99 60 06 40
       1.0486666 0.65546906 1.1709603 2.0996459
0000e0 a2 9b 17 3e 1c 7e 97 3f ff 2c a4 3e d8 a9 fb 3d
       0.14805463 1.183536 0.3206558 0.122882545
0000f0 39 bd 02 3f ff 49 90 3e 54 da 47 3e f6 d4 66 3e
       0.5106998 0.28181455 0.1951688 0.22542176

phi.initial_conv_module.0._layers.4.conv.weight f4 [64, 1, 5]
000000 08 88 99 be b5 4f c1 3e 29 72 ac 3e 75 a4 be 3e
       -0.29986596 0.37756124 0.33680847 0.37234846
000010 de b5 32 be 84 73 71 3e 6c 19 da be d9 af 2c 3e
       -0.1745219 0.23579222 -0.4259752 0.16863956
000020 a9 d4 c3 bd d0 6b c7 be 5d f7 ad be 14 8a cb be
       -0.09562046 -0.38949442 -0.33977786 -0.39753783
000030 d5 58 79 3d 25 6d 5c be b0 20 78 be ea c9 d5 3e
       0.060875732 -0.2152601 -0.2423122 0.4175561
000040 f3 60 2e be 6a a7 c6 3d de 3f fc bd a5 af 8d 3e
       -0.1702917 0.096999004 -0.12316869 0.2767307
000050 45 88 16 3e d5 6d a1 3e 9a 12 0a 3e 31 dc 9a bd
       0.1470042 0.31529108 0.13483658 -0.075615294
000060 6a a4 b9 3e 29 07 3c bd f6 21 a7 be 17 a5 25 3e
       0.3625825 -0.045905266 -0.32643098 0.16176258
000070 79 bb 10 bd 45 53 83 be 09 bd 1d 3d f9 32 1d be
       -0.035335038 -0.25649467 0.038510356 -0.15351476
000080 0e 90 51 be 04 56 2b be 51 20 48 be 1a 7e 71 be
       -0.20465109 -0.16732031 -0.19543578 -0.2358326
000090 a6 0d 21 bd a2 e9 c0 3e b4 79 a5 be 7f 95 73 be
       -0.039319657 0.37678248 -0.32319415 -0.23787497
0000a0 73 62 84 be e4 be 81 3d 7b 0e 92 3d 8b cb 85 be
       -0.2585636 0.063352376 0.07131668 -0.26131853
0000b0 22 59 85 3e bb 7e c1 be 85 eb e2 3e 15 0c df 3d
       0.26044565 -0.37792 0.44320312 0.10890976
0000c0 30 a3 af bc 61 5b 04 be da ec 56 3e a2 27 da 3e
       -0.021440119 -0.12925483 0.20988789 0.42608362
0000d0 b3 97 47 be 50 e8 0b bd 3b 6d bb 3e 44 67 98 bd
       -0.19491462 -0.034157097 0.36606774 -0.07441571
0000e0 a3 e1 a4 be 5b f5 04 be 23 10 16 bc 69 85 0a be
       -0.32203397 -0.1298422 -0.009159121 -0.13527454
0000f0 f2 af 4b be 6a e6 33 be fc 01 55 3e bd 87 d7 3e
       -0.19891337 -0.17568365 0.20801538 0.42095748
000100 ec 6a f3 3e 45 ab fb bc b1 52 58 3e f5 17 a9 be
       0.47542512 -0.030721316 0.21125294 -0.3302609
000110 e7 85 75 3e dd 74 ea 3e cc bf 88 3e a8 c4 13 be
       0.23976861 0.45792285 0.2670883 -0.14430487
000120 67 fe c8 3e 88 04 cd be a1 27 b2 bc 62 b9 07 be
       0.39256594 -0.4004252 -0.021747412 -0.13254312
000130 e3 84 ee be bf b9 74 be 73 a3 a0 be 55 7c 00 3e
       -0.4658576 -0.23898982 -0.31374702 0.12547429
000140 68 fb 3e bd 14 1d 30 3e 77 60 c2 bd 65 b9 c7 3e
       -0.04662648 0.17198592 -0.094910555 0.39008632
000150 12 44 7e 3d 27 ca 9b 3e 73 e7 a9 3e 66 7a e0 be
       0.062076636 0.30427667 0.33184394 -0.43843383
000160 ef 5e bb be 39 0a 4a 3e 6e 20 e8 3e 2f b1 bb be
       -0.36595866 0.19730462 0.45337242 -0.36658618
000170 04 a0 44 bb e7 b8 38 be e4 fc d3 3e 7f 45 d5 3e
       -0.0030002603 -0.18039285 0.41403878 0.41654584
000180 34 9b a4 3e e0 e5 75 3e 82 d2 db 3c 7e 38 c6 3e
       0.3214966 0.24013472 0.026833776 0.38714975
000190 66 e3 79 be a9 57 b5 3b 58 cb 06 be a8 3f 90 be
       -0.24403152 0.0055341315 -0.13163507 -0.28173566
0001a0 70 a9 5d be eb ba d6 3d a3 aa 11 bd a8 86 a0 be
       -0.21646667 0.104848705 -0.035563122 -0.31352735
0001b0 e1 38 75 bd 36 08 9e 3d 62 7a c7 be 77 53 85 3e
       -0.059868697 0.0771641 -0.38960558 0.2604024
0001c0 f5 dc bf be 21 c9 cd 3c c3 d5 9b be 87 89 b7 be
       -0.37473264 0.02512032 -0.30436525 -0.35847113
0001d0 fc 2f 45 bd 9e 80 de 3e f4 4a f9 3e e9 0a 1d 3e
       -0.048141465 0.43457502 0.48689997 0.15336193
0001e0 0e 43 a4 3e d1 3f 8a be a5 36 76 3e 74 11 8a 3e
       0.3208241 -0.27001813 0.24044283 0.2696644
0001f0 21 f1 e0 be 61 dd b1 be 45 c6 19 3e ce b8 a0 3b
       -0.43933967 -0.3473921 0.1501704 0.004904843
000200 e1 34 bd be 73 9f c3 be 6e 1a 9e 3e 73 4e c5 3d
       -0.36954406 -0.38207588 0.3087954 0.096341036
000210 7a 8c 04 3d 58 fd bf be 64 b7 f0 3e b9 1b 8f be
       0.03236053 -0.37497973 0.47014916 -0.27950838
000220 38 a4 72 3e 7f 56 2f bd a8 a9 e0 3c 19 ce 50 3e
       0.23695457 -0.0428071 0.027424648 0.2039112
000230 c6 f8 cf bd e1 3f e4 bd ba 46 bd 3e 5d d4 a8 be
       -0.10154872 -0.111449964 0.36968023 -0.3297452
000240 ce 02 62 3e fd 73 95 bd b6 e7 d8 bd 5b 72 af 3e
       0.22071382 -0.07297514 -0.1059107 0.34266934
000250 8b 6a 03 3e de 0c bf be fd 14 c6 3e e0 f3 47 be
       0.12833612 -0.37314504 0.38687888 -0.19526625
000260 71 a6 c2 3e f3 2f 0f be 03 6d f0 3e 40 37 02 3e
       0.3801761 -0.13983135 0.4695817 0.12716389
000270 98 7c 0a bd 68 e1 1b 3e 34 a9 28 bd b4 d0 7b be
       -0.033810228 0.15222704 -0.04117699 -0.24591333
000280 5a c7 6d 3e 5d a5 a6 3e 5e ad 38 bc 80 0f d4 3e
       0.23220578 0.32548037 -0.011271803 0.41418076
000290 73 be e7 b9 27 3e 6f be f7 3c 7d be fe 10 9a 3e
       -0.0004420165 -0.23363553 -0.24730287 0.3009109
0002a0 6d 3f 32 be 84 5e 96 3e a4 b1 d2 be 0f ba e5 3c
       -0.17407008 0.29368985 -0.41151154 0.028042821
0002b0 7e 57 8f be 40 60 35 3e 3c 2d ca 3e 43 96 32 3e
       -0.2799644 0.17712498 0.39487636 0.17440133
0002c0 01 98 32 be 17 a8 cd be 83 df 58 be 1c c6 90 be
       -0.17440797 -0.40167305 -0.21179013 -0.28276145
0002d0 e4 38 e2 3e a4 f7 64 be 70 83 1a 3e cc 44 b2 3e
       0.4418403 -0.22360092 0.15089202 0.34818113
0002e0 81 58 5f 3e 5f 8a d2 be c1 2b 31 bd 2d 3b f8 bd
       0.21811105 -0.41121194 -0.043254618 -0.12120662
0002f0 35 26 91 3e 8a 50 6b bd f4 f9 d6 3c f7 c3 d8 3e
       0.28349462 -0.057449855 0.026242234 0.4233701
000300 3f 50 16 3e d8 b9 54 3e 6f 7f e1 bd 43 fd 86 3e
       0.14679049 0.20774019 -0.11010634 0.26365098
000310 27 90 08 3d 70 b2 06 be 30 4b 56 3d 9a d9 c1 be
       0.0333406 -0.13154006 0.0523178 -0.3786133
000320 c0 5f 2f 3c 5f 24 59 3e 28 e0 d9 be 59 8c 6c be
       0.010703981 0.2120528 -0.4255383 -0.23100413
000330 65 40 8f 3e a6 ba 12 3d 3e 69 ba 3c 72 cd 83 3d
       0.27978817 0.035822533 0.022755262 0.0643567
000340 0a 09 4a be 3e 87 be 3e 51 b7 47 bd fc bb f3 bd
       -0.1973001 0.37212557 -0.04875881 -0.119010895
000350 40 60 82 3e cb d1 c7 be 66 67 8a bd 3c 3d ef 3b
       0.25464058 -0.39027247 -0.06758003 0.007301001
000360 0e 7d 24 be d3 50 64 3e c9 0c c8 be ff a6 2c be
       -0.1606333 0.22296457 -0.39072254 -0.16860579
000370 64 33 bb bd 86 7d ed 3e 0f 8d 80 3e f3 b4 95 be
       -0.09140661 0.4638483 0.2510762 -0.29239616
000380 24 74 59 3e f8 12 83 3c c1 78 cb 3e 2c e8 97 3e
       0.2123571 0.016000256 0.39740565 0.2966932
000390 69 e9 54 be 4a f9 d5 3e e6 93 61 bd b8 10 bc bd
       -0.20792164 0.41791755 -0.055072688 -0.09182876
0003a0 f6 c8 3f 3e cb f5 dc 3e 1a a7 19 3e de 86 ce be
       0.18729004 0.43156275 0.1500515 -0.4033727
0003b0 8d fa 05 be 84 f3 d8 3e 4d 18 37 be 6c 45 6a be
       -0.13083859 0.42373288 -0.17880364 -0.22878045
0003c0 6d ab b9 be f1 cc 83 be 03 99 74 be 06 c8 01 3e
       -0.362636 -0.25742295 -0.23886494 0.12673959
0003d0 70 43 31 3e 6c df d4 3e ba b4 96 3e 6a 4f 8d 3b
       0.17310882 0.41576707 0.29434758 0.0043124454
0003e0 17 9d 81 3e 64 30 89 3e 4b fa a6 be 78 4c 89 3e
       0.25315163 0.26794732 -0.32612833 0.26816154
0003f0 52 b1 8e be 8c a4 c1 3e 59 db 3e be 55 85 03 3e
       -0.2786966 0.37820852 -0.18638362 0.12843831

phi.initial_conv_module.0._layers.5.weight f4 [64]
000000 25 a2 79 3f 24 40 84 3f d3 72 84 3f 4c 6c 80 3f
       0.9751304 1.0332074 1.0347542 1.003305
000010 05 0d 7d 3f fb 8e 84 3f f7 5f 83 3f 66 3f 7d 3f
       0.9884799 1.0356134 1.0263661 0.98924863
000020 a5 8a 83 3f 56 5c 85 3f da 60 7b 3f cc bc 83 3f
       1.0276686 1.0418804 0.9819466 1.0291991
000030 f7 ac 7f 3f e0 6f 83 3f 7f 6f 82 3f b4 e7 86 3f
       0.998733 1.0268517 1.0190276 1.053946
000040 80 2a 73 3f 40 b4 82 3f c0 c3 85 3f c1 63 7a 3f
       0.94986725 1.0211258 1.0450363 0.9780846
000050 da 87 77 3f fa c1 77 3f 58 2d 80 3f 59 bd 77 3f
       0.9669167 0.9678036 1.0013838 0.96773297
000060 87 c4 77 3f 04 a3 87 3f 96 9b 6a 3f 64 70 80 3f
       0.9678425 1.0596623 0.91643655 1.0034299
000070 59 0d 80 3f b5 63 81 3f e8 01 7f 3f 7e fb 82 3f
       1.0004073 1.0108553 0.99612284 1.0232999
000080 67 93 7a 3f 3b 8b 79 3f d8 4b 80 3f b3 54 80 3f
       0.9788117 0.97478074 1.0023146 1.0025848
000090 cb 2c 88 3f 5a 03 7d 3f a8 6d 86 3f 83 f3 81 3f
       1.063867 0.9883324 1.0502214 1.0152439
0000a0 13 49 7e 3f 31 c2 7e 3f f9 fe 87 3f c7 9f 82 3f
       0.9933025 0.9951506 1.0624686 1.020501
0000b0 7f cd 7d 3f 22 00 76 3f 77 a3 86 3f 27 1b 83 3f
       0.9914169 0.9609395 1.0518636 1.0242661
0000c0 9e e4 86 3f 2a 81 78 3f a4 bb 76 3f 3f 2c 88 3f
       1.0538518 0.9707209 0.96380067 1.0638503
0000d0 bb 58 6c 3f b1 33 7b 3f 2e c2 75 3f 75 45 83 3f
       0.9232289 0.9812575 0.9599942 1.0255572
0000e0 99 26 83 3f 4a 90 78 3f 21 59 7f 3f 84 f3 7d 3f
       1.0246154 0.9709517 0.99745375 0.991997
0000f0 ba a2 73 3f 03 10 83 3f 0c d6 83 3f ac e8 7f 3f
       0.95170176 1.0239261 1.0299697 0.99964404

phi.initial_conv_module.0._layers.5.bias f4 [64]
000000 48 dd d7 bc 6f e5 dd bc b2 5d fa 3b be 2f 6a 3c
       -0.026350632 -0.027086942 0.007640564 0.014293609
000010 72 58 b4 bb 8d ea 5a bb 68 c7 28 bd 17 ff c8 bc
       -0.0055037076 -0.0033403963 -0.041205794 -0.024535699
000020 ab b9 82 3d b4 e4 0b 3d d9 ca 99 bc ad cf 14 bc
       0.063830696 0.034153655 -0.018773483 -0.009082717
000030 f2 48 b0 3d d7 9f e0 3c 43 81 fa bc 60 d4 20 3d
       0.08607663 0.027419968 -0.030579215 0.039265037
000040 bd 34 9e bd 5b 74 e7 bc aa 08 3f 3d 3a 91 70 3b
       -0.07724903 -0.028253725 0.046639122 0.0036707656
000050 26 cb 16 bd be 80 23 bc ea 26 b3 3b a3 a9 45 bd
       -0.03681483 -0.009979425 0.0054672854 -0.04825748
000060 a5 c5 56 bd af 7c a8 3b 33 0d f0 bc 6c e3 35 3c
       -0.052434582 0.0051418166 -0.029303169 0.011101585
000070 8a 92 a7 3c 38 1c 5d bc 2e 6d d1 bc a1 8c b1 3c
       0.020455617 -0.013495497 -0.025564756 0.021673502
000080 f5 66 da bc 47 07 9c b9 cb d3 80 bd 56 d1 b4 3d
       -0.026660422 -0.0002976006 -0.06290396 0.0882899
000090 1f 10 72 3c d7 9f 13 3c b6 00 1c 3d 06 cb 29 bc
       0.014774351 0.009010277 0.038086616 -0.010363346
0000a0 af 61 23 bd 50 b7 b1 bc 89 c8 a3 3d 35 91 d7 3c
       -0.03988808 -0.021693856 0.079972334 0.026314357
0000b0 d1 24 cb 3b bc 68 f9 bc 9b d7 f1 3d 48 42 48 bb
       0.006199457 -0.030445449 0.118087016 -0.0030557085
0000c0 99 6d 17 3d a4 36 6e bd f2 23 ab bc cc bc 94 3d
       0.036969755 -0.058157578 -0.020891163 0.07262573
0000d0 82 59 53 bd ff 4d 5b bd 7d dc 2f 3c 85 cb 50 3d
       -0.051599033 -0.05354118 0.010733721 0.05097534
0000e0 f9 5b d7 3c a0 1f fe bc 55 88 fc bc f0 70 c4 bc
       0.026288973 -0.03102094 -0.030826727 -0.023979634
0000f0 d7 4b 27 bd 94 3b 00 3c 70 22 f8 3c 60 02 56 bd
       -0.04084381 0.0078267045 0.030289859 -0.05224836

phi.initial_conv_module.0._layers.5.running_mean f4 [64]
000000 48 63 a3 3d bf 7f d3 3c 1d 92 4b be ee b1 b7 3d
       0.07977921 0.02581775 -0.19879957 0.08969484
000010 46 83 1d 3e 66 cb 8a bd 4c db 03 be 37 94 96 bd
       0.15382108 -0.067770764 -0.12876624 -0.073524885
000020 4e c5 c0 bc db 25 94 3b 2f 4a d0 3d a5 bc d9 bd
       -0.023531582 0.0045211143 0.101703994 -0.10631684
000030 02 dc e7 3d 82 4b e7 3d 27 76 12 3c 35 2a 0c be
       0.1132126 0.11293699 0.0089393025 -0.13687976
000040 18 25 aa 3b e9 84 7a 3b 2b 1b 62 3d 59 91 69 3e
       0.00519241 0.0038226193 0.05520169 0.22809352
000050 0e 86 28 be 3f e1 21 bd 63 ff 19 be b2 de a2 3d
       -0.16457388 -0.039521452 -0.15038829 0.07952632
000060 bd 25 37 3c 0d be 28 be 10 2a a7 3d 6f 73 ac ba
       0.011178431 -0.16478749 0.0816232 -0.001315696
000070 05 eb 1f 3c 52 0b 7b bc 1a 62 0f 3e ff df 1f bc
       0.009760623 -0.015322523 0.14002267 -0.009757995
000080 54 a6 db 38 89 e4 11 bc 13 89 64 bc 08 5b b4 bd
       0.00010473715 -0.008904585 -0.013948697 -0.08806425
000090 6e 13 df 3d 03 c4 5c bd cd 9a da 3d 08 b2 d2 ba
       0.10892378 -0.05389787 0.10674057 -0.0016074786
0000a0 c4 f6 f5 bc d3 bd 58 3d f7 78 9a bd c4 63 b2 bd
       -0.030024894 0.052915405 -0.075426035 -0.08710435
0000b0 30 3d 9b 3d 98 2d da 3d cf 12 e2 3d dd f9 92 bd
       0.0758003 0.106532276 0.11038744 -0.07176564
0000c0 71 72 0c bc 68 a5 3b 3e 29 65 ea bc 37 ad 6f 3d
       -0.008572207 0.18324816 -0.02861269 0.0585148
0000d0 11 59 6f bd f8 a0 74 bd 98 82 a5 bd 4b 74 bd bd
       -0.05843455 -0.059723824 -0.080815494 -0.09250697
0000e0 e7 64 f3 bc 0d 70 d9 bb 9c 33 64 bc 56 1e c3 bc
       -0.0297112 -0.006635672 -0.01392832 -0.023818176
0000f0 d5 ef a5 3d 8f f9 7c bc 58 f0 81 3d 86 1c 2d 3b
       0.08102385 -0.015440359 0.0634467 0.0026414706

phi.initial_conv_module.0._layers.5.running_var f4 [64]
000000 17 9d 28 3d 25 20 14 3d 97 8e 4b 3f 84 66 32 3d
       0.041165438 0.036163468 0.7951445 0.043554798
000010 e4 f5 ec 3d 21 7d 28 3e db a6 70 3e bf db 19 3d
       0.115703374 0.16453983 0.2350115 0.03756308
000020 39 58 d3 3c ab bb 4b 3d 8f e0 4b 3d 49 17 4a 3e
       0.025798904 0.04973952 0.049774703 0.19735445
000030 22 cc b3 3e 0c bf 48 3e a7 dd 50 3c c2 36 40 3f
       0.35116678 0.19604129 0.012748159 0.75083554
000040 86 2e e3 3b 32 c2 d3 3c b1 d4 e9 3c 07 ac e0 3e
       0.0069330363 0.025849435 0.028543802 0.43881246
000050 85 54 ec 3d af 9c 2c 3d 87 96 6d 3e 2c eb 3a 3c
       0.11539558 0.042141613 0.23201953 0.011408608
000060 cf d5 bf 3c e0 18 0e 3e b1 2f 1a 3e a5 44 cf 39
       0.023417382 0.13876677 0.15057255 0.0003953326
000070 2f ca 2d 3c 74 6f 4d 3d 88 90 1d 3f 37 74 db 3b
       0.010607286 0.050155118 0.6154866 0.0066972035
000080 21 bf 78 38 f6 58 8c 3b fd 9c d3 3c 1c d8 a7 3d
       5.930581e-05 0.004283066 0.025831694 0.081955165
000090 7e 5a 2d 3f f3 a1 87 3c 14 df 8d 3e 81 ba 9f 3b
       0.67716205 0.016556716 0.27709258 0.004874528
0000a0 18 53 44 3d 27 af a4 3c 5a f5 80 3c 0e d2 19 3e
       0.047930807 0.02010305 0.015741993 0.15021536
0000b0 03 77 46 3d 75 43 1a 3f c0 f3 7c 3d 8a 65 09 3e
       0.048453342 0.6025918 0.061755896 0.1341764
0000c0 74 b8 f8 3d 73 15 91 3e be b8 9a 3c 03 35 93 3d
       0.12144557 0.28336677 0.01888692 0.071878456
0000d0 18 f6 6c 3e 5e d9 ee 3d b0 4b 0d 3d 79 bd db 3c
       0.23140752 0.11662553 0.03449601 0.026823746
0000e0 87 27 c1 3d be b8 09 3c d5 47 54 3c e9 76 63 3d
       0.09431367 0.008405862 0.012956579 0.055533323
0000f0 8e 78 7e 3e 4f f0 70 3c 5d a1 92 3d e3 b1 e1 3c
       0.24850675 0.0147057315 0.07159684 0.027550643

phi.initial_conv_module.0._layers.7.se_conv.conv.weight f4 [10, 64, 1]
000000 77 73 c7 3d fc 41 0c be 40 8c cd bd 85 0e 2b bb
       0.0973882 -0.13697046 -0.10036516 -0.0026101184
000010 1c ed ff bd 96 42 bb bd 7f 0c fc bd 92 94 60 3d
       -0.12496397 -0.0914356 -0.12307071 0.054829188
000020 c7 bf 67 3c 6e 3c 1e bd 4d 4a 3c 3b d0 35 27 be
       0.014144844 -0.03863185 0.002873081 -0.16329122
000030 91 f2 3b be 10 23 d6 bd f6 3e d5 bd 65 a4 8d 3d
       -0.1835425 -0.104559064 -0.104123995 0.069161214
000040 39 93 f0 bd 01 27 5b bc f0 db 9e bd d7 78 bf 3c
       -0.117468305 -0.0133759985 -0.077567935 0.02337305
000050 03 77 3c bc 3c db a4 bd 04 ad 68 3d 3d da e7 3c
       -0.011502984 -0.08049628 0.056805626 0.028302306
000060 1d 22 b8 bd 3f 69 b5 3c b4 b1 68 bd 0c 32 6d 3d
       -0.089908816 0.022144912 -0.056810096 0.057909057
000070 5d c4 9f 3c 0b 41 08 bd ff 54 c5 3d 64 ad c7 3d
       0.019502813 -0.033265155 0.09635352 0.097498685
000080 23 3f c6 bc de 41 3d bd fb bd 04 be ec 77 ca 3c
       -0.024200028 -0.046205394 -0.12963097 0.024715386
000090 35 cb e2 bd cc 07 b7 bd 8b 23 fe bc e6 1f 0c be
       -0.11073915 -0.08937034 -0.031022808 -0.13684043
0000a0 6e 37 d4 bd c9 58 1a 3e ab de 1e 3d 0c 11 2e 3e
       -0.10362135 0.15072931 0.03878657 0.1699869
0000b0 7c 22 4c bd f6 ee df bd ab 77 10 bc da a6 1f 3c
       -0.049837574 -0.1093425 -0.008817594 0.00974437
0000c0 84 f8 01 be 30 57 f8 bc ed 38 d5 bd 6a 34 c2 3d
       -0.12692457 -0.030315012 -0.10411248 0.094826534
0000d0 82 6c 1c 3e d1 cc f0 3c ef 29 7f 3d 56 ae f3 bd
       0.15275767 0.02939454 0.06229585 -0.11898486
0000e0 d0 11 d7 bc 62 b0 7b bd 37 f3 c5 3c c3 fd f4 bc
       -0.02625361 -0.06144751 0.024163825 -0.02990616
0000f0 e5 64 d4 bd 0e f1 cb bd 78 15 a9 3a 3d 8c 2e 3d
       -0.103708066 -0.09958087 0.0012900075 0.04261421
000100 88 9b 43 bd a6 0a e4 bd 26 91 bd 3d 4f 53 c0 3d
       -0.047755748 -0.111348435 0.092562005 0.0939089
000110 8d e4 7c bd 2f b8 ea 3c 4c e2 ab 3d 3d 0f e7 bd
       -0.0617414 0.028652279 0.08392772 -0.11282203
000120 51 ed 9e bd 26 31 0d 3d a6 9d 31 3b 3c 5f 8a 3d
       -0.07760108 0.0344707 0.0027102022 0.06756446
000130 d2 3d 85 bd f1 be 8c 3c 37 7c cf 3d 2b c6 85 bc
       -0.06505932 0.017180892 0.10131114 -0.016329845
000140 78 d9 6c bd 4c cd e3 bd 7a 09 8c bc 74 73 38 3d
       -0.05782458 -0.11123142 -0.017094363 0.04503198
000150 f3 af d6 bd 7a 37 44 bc c7 ae e1 3d bf 49 e1 bc
       -0.104827784 -0.011976117 0.11019664 -0.027500985
000160 67 cd cc bc 2b 45 80 bd 1d 65 53 bd 1b ca 13 3d
       -0.025000287 -0.06263193 -0.0516101 0.036081415
000170 44 70 12 be 28 e0 8f 3d 96 65 d7 ba 23 88 be bb
       -0.14300638 0.07025176 -0.0016433473 -0.0058145686
000180 49 97 51 bb 67 c6 71 3d 1d ee 52 bd 0c 1d b7 bd
       -0.0031981042 0.0590271 -0.051496614 -0.08941087
000190 4c 62 b3 bd b0 ef bc bd e9 d6 97 bc 36 42 c1 3d
       -0.08758983 -0.09225404 -0.018535094 0.09436457
0001a0 c9 15 cc bd da 21 a2 bd 69 e9 e2 bd 11 bc 68 bd
       -0.09965093 -0.07916613 -0.11079676 -0.05681998
0001b0 dd f9 0c bd 9e 8d 50 bd c7 8a 6e 3c f2 32 37 3d
       -0.034417976 -0.050916307 0.014559454 0.04472632
0001c0 32 c6 b4 bc 7a cd ed 3a a1 97 aa 3c 30 02 02 3e
       -0.022067163 0.0018142902 0.020824255 0.12696147
0001d0 25 37 cb 3b fb 6f 1a 3e 39 f7 cd 3d ed 38 5a 3d
       0.006201642 0.1508178 0.100569196 0.053276945
0001e0 e0 15 f1 3d e6 fe d3 bd fc a3 97 bd 00 16 5f 3d
       0.117717505 -0.103513524 -0.074043244 0.05446434
0001f0 ab 79 1e 3d c0 4d 06 3e b4 fb b3 bc 85 ca 3d bc
       0.03869025 0.13115597 -0.021970607 -0.011583929
000200 b7 48 26 3e b1 40 24 3c 36 31 0d 3e ca a0 98 bd
       0.16238676 0.010025189 0.13788304 -0.07452543
000210 35 4a cd bd ce 11 a4 3c d0 dd 04 3d 9c 08 1c be
       -0.100239195 0.020028021 0.0324381 -0.15237659
000220 db 10 c3 bc a4 75 0a 3e 34 79 76 bd 95 86 29 bb
       -0.023811748 0.13521439 -0.060174182 -0.002586757
000230 14 41 26 bc ed ca 36 be b3 42 05 be be 87 09 bd
       -0.010147352 -0.17850848 -0.13013725 -0.03357672
000240 d8 f7 96 bd ed 9b a8 3d e2 c0 d2 3c e8 58 98 bd
       -0.07371491 0.082328655 0.02572674 -0.074388325
000250 84 f5 23 3e d4 7b d0 3c be b0 8e 3d de 61 a2 bc
       0.16011626 0.02544967 0.06967305 -0.019822057
000260 9d d4 a2 3d 97 ac b2 bd db 1a c4 3d 22 b0 ad bd
       0.07950709 -0.08724325 0.09575435 -0.0848086
000270 87 12 c0 3c 41 67 e6 bc 17 9e 36 3d 91 2b c5 bd
       0.023446335 -0.028125407 0.04458436 -0.0962745
000280 b5 37 d9 bd 78 b6 38 bd 85 a8 c3 bd 1a c6 33 bc
       -0.106063284 -0.04509589 -0.09553627 -0.010972524
000290 67 12 54 bd 40 c8 bd bb 7b fd 3b 3d ad fa 55 bd
       -0.051775362 -0.005791694 0.045896035 -0.052241016
0002a0 0b 84 d0 3d b7 21 8b bd 16 06 a3 bd cf 00 41 bd
       0.10181435 -0.0679354 -0.07960145 -0.04711991
0002b0 a4 f6 8e bc 9a 11 d9 3d 79 d9 da 3d a2 4a 98 3d
       -0.017451592 0.1059906 0.10686011 0.0743611
0002c0 6e aa 43 bd 0b 4d 10 be b9 27 3a bd 2e be f3 bd
       -0.047769956 -0.1409189 -0.04544804 -0.11901508
0002d0 62 56 3f 3c c9 56 a7 3d 74 f2 44 3d 31 29 61 3c
       0.01167831 0.0817085 0.048082784 0.013742731
0002e0 94 cc fe bb 8a 19 83 bd 1a 4b a0 bd b4 b4 dc 3d
       -0.0077758525 -0.064013556 -0.078268245 0.10776654
0002f0 d4 87 81 bd 85 91 a3 bc 0d 7e 86 bd a7 3a 83 bd
       -0.06324735 -0.01996685 -0.06567011 -0.064076714
000300 e4 e4 94 3d ae 35 67 bd 28 97 23 3d f8 98 a1 bd
       0.0727022 -0.056447677 0.039939076 -0.078905046
000310 2a 59 18 bd 47 14 a9 3d 7c aa f7 3d 84 70 f0 3d
       -0.03719441 0.08255821 0.12093064 0.11740211
000320 bf 75 8d bd 6e fd fd 3a e8 3d 26 bd 98 e9 0d bd
       -0.06907224 0.0019377896 -0.040586382 -0.0346466
000330 ff 29 0f 3e 9a 50 07 be 46 3f e0 3d 44 6c b6 3d
       0.13980864 -0.13214341 0.109495685 0.08907369
000340 04 18 f9 ba a3 45 36 3e da 86 e6 3d 61 78 bb 3d
       -0.001900435 0.17800002 0.1125619 0.0915382
000350 10 a8 7a bd bf f0 13 bc 04 d5 08 3e 8c 15 bf 3d
       -0.061195433 -0.009029566 0.13362509 0.093302816
000360 4f f3 f3 3a 5b d5 5c 3d 8c 73 3e bd cb 6e 9a 3d
       0.001861194 0.05391441 -0.046496913 0.07540663
000370 89 1a 3c 3e 04 35 18 3e 88 67 08 be b5 95 0e 3e
       0.18369497 0.14863974 -0.13320744 0.13924296
000380 77 a3 e2 bc 4a bf 18 3e cf bf 15 3e 7a be cf bd
       -0.027665837 0.14916721 0.1462395 -0.101437524
000390 f1 63 7c bc e2 11 9f 3d 38 14 03 be e7 b3 40 3e
       -0.015404687 0.07767083 -0.12800682 0.18818627
0003a0 f0 e7 3b 3e ed e3 2f 3e 3d f4 8a 3d 29 f0 bf bd
       0.18350196 0.1717679 0.06784866 -0.09371979
0003b0 ba e7 85 bd 34 de 31 3d 36 3b 5e 3d 37 2a 0f 3e
       -0.06538339 0.0434248 0.054255687 0.13980947
0003c0 83 5e 24 3e c1 32 a3 bc b3 80 eb bc 68 b8 21 3d
       0.16051678 -0.019921662 -0.028747892 0.039482504
0003d0 07 62 02 3e fb 97 1b 3c 16 29 99 bc 54 68 e7 3c
       0.12732707 0.009496684 -0.01869635 0.02824799
0003e0 3e f6 95 3d e0 7b 9f 3b 7c ca 13 3e 3e 29 03 3e
       0.073223576 0.004867062 0.1443271 0.12808701
0003f0 0e b2 b5 bb d9 d7 ae 3c ac dd 16 3c 22 e9 3e 3e
       -0.0055449074 0.021343159 0.009208124 0.1864362
