logs/4birds_CF_combined_log_linear_gru64_30epochs/2025-05-20_09-42-27/4birds_CF_combined_log_linear_gru64_30epochs_best_model.pth (torch, 331994 bytes, 198 tensors)

phi.initial_conv_module.0._layers.0.conv.weight f4 [64, 64, 1]
000000 89 b8 ae 3d d0 35 bb 3d 9d 66 9d bd 04 75 c5 3d
       0.08531291 0.09141123 -0.076855876 0.096414596
000010 f5 65 26 bd 0c be 6c 3c cd 91 9c bd 5c 21 8c 3d
       -0.040624578 0.014449608 -0.07644997 0.068423
000020 ad 9c cc 3d 77 c4 d2 bd c8 b6 d0 3d d0 56 93 39
       0.09990821 -0.10291379 0.10191113 0.00028102705
000030 b4 53 70 3d b9 8e 95 bc 58 d8 f4 3c d0 ed 12 bd
       0.058673576 -0.018256532 0.029888317 -0.035871327
000040 94 a7 ad 3d e5 75 6f 3c 6c 49 69 bd b1 20 f5 3c
       0.084792286 0.014615511 -0.056954786 0.029922815
000050 1b 13 6c bd b5 eb 7a bc 54 57 32 bd f9 32 b2 3d
       -0.057635408 -0.015314986 -0.043540314 0.087011285
000060 49 61 c7 bd 0d 74 9c bd f5 81 81 bd 53 4b d2 bd
       -0.097353525 -0.076393224 -0.063236155 -0.10268273
000070 73 7c b6 bb 59 3e 1c be ac d3 bf 3d c8 f1 de bd
       -0.0055690347 -0.15258159 0.09366545 -0.1088596
000080 fa 16 d5 3d 93 58 30 3d 5f 35 39 bc 63 de e3 3d
       0.10404773 0.04305322 -0.011304229 0.11126401
000090 df 32 6a 3d 8f 05 17 3e 4c 9d 55 3d 71 2b 9b bc
       0.05717742 0.14748214 0.052151963 -0.018941613
0000a0 8c e3 2d 3d 13 e6 0e bd 67 b1 58 3d da 36 eb 3d
       0.042453334 -0.034887385 0.05290356 0.114850715
0000b0 43 d4 95 3d 7e fd 57 bd d3 d9 9b 3d 1d b3 88 3c
       0.07315876 -0.052731983 0.07609906 0.01668697
0000c0 ce 27 88 3d b6 8e 82 bd bb 1c d7 bd 09 1a d3 bc
       0.06648217 -0.06374876 -0.10503527 -0.02576925
0000d0 30 80 99 bd f9 8d eb 3d 25 fc 2f 3d 81 b7 6f 3d
       -0.07495153 0.115016885 0.042965073 0.058524612
0000e0 65 8d 6e 3d 76 ac b9 3c 50 81 00 3e ab cb 67 bd
       0.058240313 0.022665244 0.12549329 -0.056590717
0000f0 9e 69 1b 3d 6a 99 5d bd 50 2f 70 3d ea ab 2c bd
       0.03794252 -0.054101385 0.05863887 -0.042156138
000100 6e 89 09 3d 48 9e 1e bd c0 52 22 3e 74 dc ca bd
       0.03357833 -0.038725168 0.15851879 -0.09905329
000110 09 42 b2 bd 6a b6 c1 bd 4a 0a 9e 3d fc 44 e9 3c
       -0.087040015 -0.09458621 0.07716806 0.028475277
000120 51 cb c5 3d 15 f5 f8 bd ae 52 0f be 66 9f f1 bd
       0.0965792 -0.12156121 -0.13996384 -0.11797981
000130 5e 9d f8 bd 74 1b 20 3c 1c 40 95 3b 18 72 8b 3d
       -0.121393904 0.00977217 0.0045547616 0.06808871
000140 85 ef 92 bd 64 2c c6 bd e4 f5 57 3d 6a e5 60 bd
       -0.07174591 -0.096764356 0.052724734 -0.054906286
000150 9a 8a 9a 3d fa b9 80 bc 15 6c 89 3d 03 f6 f0 bd
       0.075459674 -0.01571368 0.06710068 -0.11765673
000160 aa 76 b3 bd 20 b9 0f 3d 82 87 fd 3c 2c c9 dc bc
       -0.08762868 0.03508866 0.030948404 -0.026951395
000170 e0 20 9f 3d 6d c8 b3 3d 82 62 a2 bd 0d cf 79 bd
       0.07769942 0.087784626 -0.07928945 -0.060988475
000180 c7 80 ed 3d 2f ff 49 bd 3b 11 41 bd ea f7 e6 bd
       0.11596828 -0.049315628 -0.047135573 -0.112777546
000190 21 26 31 bd c0 61 90 3d a1 f9 ae 3c 85 aa 2d bd
       -0.043249253 0.07049894 0.021359267 -0.04239895
0001a0 8b 1d 70 3d ef 4c 0c bd ec 5f b4 bd 44 12 8f bd
       0.058621924 -0.034253057 -0.08807358 -0.06985906
0001b0 16 3b cb bd 3d 82 56 bd 90 13 21 3e ef 83 3b 3d
       -0.09923379 -0.0523703 0.15730119 0.04578012
0001c0 13 e1 68 3d 86 14 e6 bd 4f 06 a1 bd b8 21 12 bd
       0.056855273 -0.11234383 -0.078625314 -0.035676688
0001d0 a4 b9 97 3c 0a de dc bd 59 59 37 bd e4 23 98 bd
       0.018521138 -0.10784538 -0.044762943 -0.074287206
0001e0 1b 24 02 bc 0c 12 27 bd 08 70 4f 39 ff 99 94 bd
       -0.0079431785 -0.040788695 0.00019782793 -0.07255935
0001f0 bd 95 94 bd 03 ce 80 bd 49 38 03 bd 23 c4 27 bd
       -0.07255123 -0.062892936 -0.0320361 -0.040958535
000200 c2 d4 e6 3d 30 a5 34 bc f7 66 b2 3d db f0 54 3d
       0.11271049 -0.011025712 0.08711045 0.05198751
000210 e7 51 c8 bd 59 21 af 3d 7c 9d dc bc 45 b2 63 bd
       -0.09781247 0.085512824 -0.026930563 -0.055589933
000220 c4 c0 c6 bd 7e 77 fb bd 94 38 d5 3c 0a 36 ce bc
       -0.09704736 -0.12278651 0.026027955 -0.025172252
000230 ae b1 45 3d d8 55 d3 bd 6d 46 b6 3d 1e 4e bf bd
       0.04826515 -0.10319108 0.089001514 -0.093410715
000240 8b 71 92 bc a8 7d fc 3c dd 92 91 3d 8e 82 de 3d
       -0.017876407 0.030821636 0.0710809 0.10864745
000250 dc ad 07 3e 38 88 8b bd 34 0c 40 3d 03 e0 9a bd
       0.13249916 -0.06813091 0.046886638 -0.07562258
000260 58 7c 83 bd d0 ea ea bd ee 07 17 3e 97 34 70 bd
       -0.06420201 -0.11470568 0.14749119 -0.058643904
000270 f6 ac a6 3d 91 43 31 3d da 39 22 3d c9 f8 92 bd
       0.081384584 0.043277327 0.039605953 -0.07176358
000280 df 4e b8 3d c3 03 29 bc d5 15 d3 bc 42 6e 0c be
       0.089994185 -0.010315838 -0.025767246 -0.13713935
000290 69 2f f9 3c 05 78 39 bd e8 62 99 bd 27 a3 e1 3d
       0.030418115 -0.045280475 -0.07489568 0.11017447
0002a0 0a b0 57 3d 7a 8b 0f bd 98 df 16 bd 23 df 4e bc
       0.05265812 -0.035045125 -0.03683433 -0.012626442
0002b0 d6 ba 0d 3d 4b 0f 92 bd 31 96 bf bd ae 9b 2c bd
       0.03460201 -0.07131823 -0.093548186 -0.042140655
0002c0 88 a6 a7 bd ac 9c 80 3d 7d f6 e2 3d 78 ed d2 bd
       -0.0818606 0.06279883 0.1108217 -0.102992
0002d0 80 e2 14 3d 7d 46 99 3d ec 7a 06 3d 0a 06 1c bd
       0.03634882 0.07484148 0.03283207 -0.038091697
0002e0 36 6d 90 3d e7 ab 85 3d e0 e2 10 3d 33 a1 2c bd
       0.0705208 0.065269284 0.035372615 -0.04214592
0002f0 c8 fd 5a bd f3 9f 55 bc 10 f4 2f bd a6 09 47 bd
       -0.05346468 -0.013038623 -0.042957366 -0.048593186
000300 7a 25 c4 3d 70 d1 f3 3d d7 84 d6 bc 7f 9b 96 bc
       0.095774606 0.119051814 -0.02618639 -0.018384693
000310 fe ba 94 3c ee b6 92 39 c9 12 0c 3d 10 b4 1f 3d
       0.018155571 0.00027983583 0.034197602 0.03899008
000320 86 e4 f2 bd fe 7b 4f bd a9 f6 db 3d dc 4a 16 3d
       -0.11859994 -0.050655358 0.10740406 0.036692485
000330 7d 2a 32 bc a7 47 ac bd c9 b0 ae bd ac 64 fa bd
       -0.010874388 -0.08412104 -0.08529813 -0.12226233
000340 39 30 44 bd 35 14 04 3d 80 39 81 3d 78 23 32 3d
       -0.04789755 0.032245833 0.063097954 0.043490857
000350 af 63 f1 bd c4 48 b5 bd e6 5d fd bc 26 26 fe 3d
       -0.11786591 -0.088517696 -0.030928563 0.1240962
000360 a9 a4 34 3d 07 dc a5 bc f6 53 fa 3c d5 31 6d bd
       0.044102345 -0.020246519 0.030557614 -0.05790885
000370 c5 c0 a3 bd be ec 9e 3d 56 11 91 bd bb a2 0b bd
       -0.07995752 0.07759999 -0.07083385 -0.03409074
000380 18 e9 11 be e5 4d 6a 3d 70 ca 83 3d e1 04 13 3c
       -0.14249074 0.057203192 0.06435096 0.008973331
000390 8e 4c e9 bd a1 3f 1d be fa 40 04 be 11 74 79 3d
       -0.11391555 -0.15356304 -0.12915412 0.060901705
0003a0 91 79 cb 3c 1a 39 3e 3d 50 3c 2d bb 25 69 09 bd
       0.02483824 0.046441175 -0.0026433654 -0.03354754
0003b0 96 19 24 bd 36 39 c8 bd bc 80 a7 bd 91 b8 c1 bd
       -0.040063463 -0.09776537 -0.08178851 -0.094590314
0003c0 10 71 97 3d 89 0b 29 bd 84 38 a9 bb 47 b2 81 bd
       0.07394612 -0.041270766 -0.005164208 -0.06332832
0003d0 cc e5 8e bc b1 83 b0 bd a3 67 a4 bd aa 71 34 3d
       -0.01744356 -0.08618868 -0.0802758 0.04405371
0003e0 48 c2 46 bd 2e a7 66 3d dd 0e 8d bd dd c8 fa bd
       -0.048525125 0.05631178 -0.068876006 -0.12245343
0003f0 e0 bd 8d bd 32 d8 f5 bd 32 81 d6 bd c2 39 26 be
       -0.069209814 -0.120041266 -0.10473861 -0.1623297

phi.initial_conv_module.0._layers.1.weight f4 [64]
000000 b7 fc 67 3f 32 6d 80 3f 6f c8 80 3f bb 2d 82 3f
       0.9061999 1.0033324 1.0061167 1.0170206
000010 fc 80 79 3f e0 a8 83 3f ce 79 6f 3f 28 2e 81 3f
       0.9746244 1.0285912 0.93545234 1.0092211
000020 17 87 82 3f 50 f7 6d 3f 7a d0 79 3f a6 16 70 3f
       1.0197476 0.92955494 0.97583735 0.9378456
000030 80 8a 82 3f e3 fb 7a 3f c6 ab 76 3f 7e 15 80 3f
       1.0198517 0.980406 0.96355855 1.0006559
000040 06 63 8a 3f 86 29 80 3f 47 87 7c 3f 28 70 82 3f
       1.081147 1.0012672 0.98643917 1.0190477
000050 81 d4 77 3f ae a8 77 3f 08 8f 7a 3f c4 04 7b 3f
       0.9680863 0.9674176 0.978745 0.98054147
000060 af 24 84 3f 0a 4b 7f 3f 79 34 72 3f 57 44 87 3f
       1.0323695 0.99723876 0.94611317 1.0567731
000070 7e a3 83 3f 9a 7b 83 3f 11 ee 80 3f 0d 10 77 3f
       1.0284269 1.0272095 1.0072652 0.96508867
000080 e3 de 85 3f 3d 23 86 3f cf df 80 3f ea c2 86 3f
       1.0458645 1.0479504 1.0068301 1.0528233
000090 58 a9 7b 3f 9d 2f 7f 3f 11 0e 7a 3f a0 a5 80 3f
       0.98305273 0.9968203 0.97677714 1.0050545
0000a0 23 77 86 3f 35 20 82 3f 5f 05 86 3f d4 c0 84 3f
       1.0505108 1.0166079 1.0470389 1.0371346
0000b0 b8 3e 77 3f c0 ea 7d 3f 14 cf 7b 3f 19 9e 85 3f
       0.96580076 0.99186325 0.9836285 1.0438873
0000c0 91 49 82 3f 75 12 7e 3f bb 4c 7d 3f b0 59 7d 3f
       1.0178701 0.99246913 0.98945206 0.9896498
0000d0 e7 78 70 3f cc fb 7d 3f 24 1d 82 3f a7 fc 7a 3f
       0.9393448 0.99212337 1.0165143 0.98041767
0000e0 f3 ad 83 3f 33 fd 7a 3f ce 31 78 3f 32 9e 7c 3f
       1.028746 0.980426 0.96950996 0.98678887
0000f0 22 08 89 3f 06 41 79 3f 9a 78 85 3f 09 26 80 3f
       1.0705607 0.9736484 1.042743 1.0011607

phi.initial_conv_module.0._layers.1.bias f4 [64]
000000 0d a0 cf 3c ed 63 ec bb a1 1b 74 3c b4 43 13 bd
       0.025344873 -0.0072140605 0.014899165 -0.03595324
000010 30 21 b8 bc a6 03 10 bd 13 44 5f 3d ac 62 bb 39
       -0.022476763 -0.03515973 0.05450828 0.00035740936
000020 3a 68 eb bc 23 ff 19 3d 0f a9 da bc 39 0e 3c 3c
       -0.028736223 0.037596833 -0.026691942 0.011478
000030 b0 53 ee bc c1 a4 fb 3b 9f 57 a5 3d 31 83 0c 3c
       -0.02909264 0.0076795523 0.08073353 0.0085762
000040 e7 24 01 3d fa 21 92 3b d8 76 91 bc af e9 ef bc
       0.031529333 0.0044596167 -0.017756864 -0.029286234
000050 62 3a 45 3d b2 6d 5c 3c 0f 8c 4c 3b 6e e1 19 bd
       0.04815138 0.013453888 0.003121141 -0.037568502
000060 ca 73 93 bc cc c3 6c 3c cf dd 53 3c 71 d2 6a bc
       -0.017999548 0.0144509785 0.012931301 -0.0143324
000070 a0 dd c6 bc b0 fc ac bb 0d 30 35 bd 8d 2b 09 bd
       -0.0242756 -0.005279146 -0.044235278 -0.0334888
000080 15 47 42 bd 41 70 80 bd a6 b4 12 3d e2 d9 4b bd
       -0.04743107 -0.06271411 0.03581681 -0.049768336
000090 ec 4b c2 bc 3f 7c a0 3c 38 b6 cd bc b8 b7 eb 3c
       -0.023717843 0.019590495 -0.025111303 0.028774127
0000a0 8a 88 8d bc da b6 07 3c 0c 78 12 bd 27 b6 0f bd
       -0.017277021 0.008283341 -0.035759017 -0.035085823
0000b0 51 35 2c bd fb 97 22 3b 57 57 8b bc b0 19 06 bd
       -0.042043034 0.0024809826 -0.01700942 -0.03273934
0000c0 f3 19 8f bc 82 a0 2e bd c4 bc 3e bd cf fb ad 3c
       -0.017468428 -0.04263354 -0.04656674 0.021238236
0000d0 15 f9 9c 3c d3 cc 40 3c b0 7e 0b 3c ec b4 78 3b
       0.01916174 0.011767584 0.008514091 0.0037949635
0000e0 09 cb 2f 3c 19 85 4e 3c df 02 33 3d ab 22 a6 ba
       0.01072956 0.012604975 0.04370391 -0.0012675127
0000f0 97 5f 03 bd bc 50 1d 3c 1d a3 9b 3d 09 0e 8b bb
       -0.032073583 0.009601768 0.07599471 -0.0042436165

phi.initial_conv_module.0._layers.1.running_mean f4 [64]
000000 1d d2 c2 be 48 bd b3 bc 6f 61 c1 be fd bc 88 3e
       -0.3805093 -0.021940842 -0.37769648 0.26706687
000010 6b 51 8b bf cb 19 d4 be ae 24 89 be 30 71 db 3d
       -1.0884222 -0.41425928 -0.26785797 0.10714948
000020 40 f0 51 3e de 73 5d 3d 2b 66 f0 3e 90 04 10 bf
       0.20501804 0.054065578 0.46952948 -0.5625696
000030 69 8c db bd e1 b1 83 3f 5d 94 59 bf 91 b6 3e 3e
       -0.107201405 1.0288659 -0.8499201 0.18624331
000040 dd 2a d4 bd 3b 1d f9 3e 71 30 f5 bd 97 ba 49 be
       -0.10359738 0.48655114 -0.1197213 -0.19700085
000050 bb db 07 3e 98 aa 2a 3f 69 4a 00 3e 09 25 b4 3e
       0.13267414 0.66666555 0.12528385 0.35184506
000060 7a 09 9c 3e e1 6e d5 3e 01 2f 45 3d ce c7 89 3f
       0.3047598 0.41686156 0.04814053 1.07641
000070 2e f1 4a 3c e8 45 a1 be 2d 00 12 be ba 9e ee bd
       0.012386603 -0.31498647 -0.1425788 -0.116513684
000080 59 d8 9a 3e c5 87 f0 be 2b 8e 1b 3f f0 6c 41 bd
       0.30243185 -0.46978584 0.60763806 -0.04722303
000090 ee f6 b2 be a9 43 ef be d4 fa fe 3e a1 ee fa 3e
       -0.34954017 -0.46731308 0.49800742 0.49010184
0000a0 c4 fc 2f be 41 c2 ce be 42 b6 8b be 1a 93 a5 be
       -0.17186266 -0.4038258 -0.2728749 -0.32338792
0000b0 23 ad 63 3f e6 16 6e 3e ec 56 d8 be c2 42 04 be
       0.8893606 0.23250923 -0.42253816 -0.12916091
0000c0 af e0 33 3e dc 51 9c 3d d8 0b 19 bf e7 63 24 3f
       0.17566179 0.07632801 -0.597837 0.6421494
0000d0 7a 95 a0 3e 72 e6 81 bd da ea c4 3d 4d 08 bf bd
       0.31364042 -0.06342782 0.09615107 -0.09327755
0000e0 60 ba 34 bd 06 5e 77 3c 50 83 f9 be 09 bb cc 3d
       -0.044123054 0.0150981005 -0.48732996 0.099966116
0000f0 b5 8f be 3e 13 b9 cb bd a2 28 3a be 40 fe 1c be
       0.37219015 -0.099474095 -0.18179563 -0.15331364

phi.initial_conv_module.0._layers.1.running_var f4 [64]
000000 a7 36 81 3e ac fb 8a 3e cb 45 9a 3d d0 fe 2a 3f
       0.2523701 0.27145135 0.07532843 0.66795063
000010 ef 41 46 3e c0 92 75 3e 27 2a e9 3d 59 a3 5a 3e
       0.19361089 0.23981762 0.11384993 0.21351375
000020 64 11 6f 3e 16 f5 93 3e 23 28 4f 3e 33 ff 3d 3e
       0.23346478 0.28897923 0.20230155 0.18554382
000030 6c 13 21 3e 83 f8 75 3f d4 05 d0 3e 40 36 65 3e
       0.15730065 0.96082324 0.40629447 0.22383976
000040 f4 ce 4d 3e ff 88 64 3e 9f aa e5 3e e8 da ef 3d
       0.20098478 0.22317885 0.44856736 0.11711675
000050 09 ce 3e 3e 3b d3 9b 3e 59 da 12 3e 70 ee 68 3f
       0.18633284 0.30434594 0.14341106 0.90988827
000060 19 15 1e 3f 72 42 e5 3d c6 40 07 3e 5b dd e4 3e
       0.6175094 0.11194314 0.13208303 0.4470013
000070 c6 aa 8b 3d e1 62 05 3e 31 3f 20 3e ed f3 c1 3e
       0.06819682 0.13026 0.15649106 0.37881413
000080 ea 38 bd 3d 41 e0 0d 3e b7 91 29 3e 76 f8 b2 3e
       0.09239371 0.13855077 0.16559492 0.34955186
000090 86 5b 55 3e 2c a1 bc 3e 61 26 e3 3e 17 5d 53 3f
       0.20835695 0.36841714 0.44365218 0.8256392
0000a0 29 51 d4 3e fe b7 7c 3f 07 70 88 3e 05 b0 bc 3e
       0.4146817 0.9871825 0.2664797 0.36853042
0000b0 37 fe 56 3e 72 8a 31 3e b7 7e 65 3e 40 66 c2 3e
       0.20995413 0.17337969 0.22411619 0.37968636
0000c0 78 27 de 3d 8c 90 0f 3e a2 ba 47 3e e0 f6 8c 3e
       0.10847372 0.14019984 0.19504789 0.275321
0000d0 71 83 1a 3e ac 68 ba 3e 0d 03 58 3e 9c 68 ab 3e
       0.15089203 0.36407983 0.21094914 0.33478248
0000e0 ba 08 2c 3e 37 68 83 3e 4c b9 e5 3e 3e 85 0a 3e
       0.16800204 0.25665447 0.44867933 0.1352739
0000f0 b9 dc 39 3e fe e2 d6 3e f2 b2 e5 3d 48 9b 24 3e
       0.18150605 0.41970056 0.11215772 0.1607486

phi.initial_conv_module.0._layers.4.conv.weight f4 [64, 1, 5]
000000 cc e7 8f be e3 14 d8 3e cc 2e b5 3e cb b0 8c 3e
       -0.28106534 0.42203435 0.35387266 0.27478632
000010 82 87 65 be 6d b6 8b 3e e9 b0 c0 be f0 30 57 3e
       -0.22414973 0.27287617 -0.37634972 0.21014762
000020 e6 1d 55 bd ec a8 be be 3c 91 b0 be 04 95 bf be
       -0.052030466 -0.37238252 -0.34485805 -0.37418377
000030 05 ae 91 3d e0 ee 47 be 2d af 7d be ae df d8 3e
       0.0711327 -0.19524717 -0.24773856 0.42358154
000040 d6 7c e9 bd 17 36 0f 3e 07 4e 39 bd 95 f3 95 3e
       -0.11400764 0.13985477 -0.04524043 0.292874
000050 5b b2 05 3e 4b 40 9a 3e c7 36 08 3e 94 f4 ab bd
       0.13056318 0.30127177 0.13302146 -0.08396259
000060 21 00 c7 3e af 6b fa bc c1 19 51 be 54 a9 25 3e
       0.38867286 -0.030568926 -0.2041998 0.16177875
000070 e7 32 5e bd ec 45 bf be 73 0b c3 3d a9 7c d0 bd
       -0.054247763 -0.37358034 0.09523668 -0.10180027
000080 9d dd 2a be e3 ad 52 be 60 14 3f be c2 e7 26 be
       -0.16686101 -0.20574145 -0.18660116 -0.16299346
000090 07 e8 9c 3d 22 d8 e6 3e a8 3e 76 be 5e ad 45 be
       0.07661443 0.4508677 -0.24047339 -0.19304416
0000a0 64 c5 86 be 27 df 93 bc 2b d5 8e 3c 14 8d 93 be
       -0.26322472 -0.018050743 0.01743563 -0.28818572
0000b0 f3 4f 72 3e 14 c5 f2 be a3 87 aa 3e 1a f2 bb 3a
       0.2366331 -0.47415984 0.33306608 0.001433912
0000c0 ab b0 f0 bd 96 d9 72 be 94 95 18 3e ec f4 9a 3e
       -0.11752447 -0.23715815 0.1490081 0.30264986
0000d0 92 69 95 be 8b be c7 bd 87 20 c7 3e 9a 80 b2 bd
       -0.29182106 -0.0975314 0.38892004 -0.08715935
0000e0 55 de b7 be c9 42 18 be e1 8f 85 3c 87 c3 51 bd
       -0.35911813 -0.14869227 0.016303958 -0.05121186
0000f0 f6 43 9e be 78 6f 8e be 68 48 09 3e de b3 9f 3e
       -0.30911225 -0.2781942 0.13406527 0.31191915
000100 03 49 cb 3e 78 05 91 bc 29 f7 4f 3e 92 35 9d be
       0.3970414 -0.017702803 0.20309128 -0.30704933
000110 8a 5d 86 3e cd a9 f2 3e c8 01 78 3e a2 90 32 be
       0.2624324 0.47395173 0.2421943 -0.17437986
000120 3d 9c b6 3e 54 86 db be 00 03 53 bd 48 db fc bd
       0.35666075 -0.42875922 -0.051516533 -0.12346512
000130 9f d4 e6 be 73 8b 5a be 8b e7 90 be 51 2e 32 3e
       -0.45084092 -0.21342258 -0.28301653 0.17400481
000140 1b 36 18 3c 11 4e 80 3e 31 05 58 bd 5e 97 b0 3e
       0.0092902435 0.2505956 -0.052739326 0.34490484
000150 89 46 97 3d c7 c2 c7 3e 70 ea c0 3e 6c 63 be be
       0.073865004 0.3901579 0.37678862 -0.37185228
000160 c4 f9 99 be ac 53 7b 3e d0 b1 d7 3e a9 87 c3 be
       -0.3007337 0.24543637 0.42127848 -0.38189438
000170 27 2e 1e 38 07 b4 2e be 23 32 d8 3e 6d 76 b0 3e
       3.771312e-05 -0.17060862 0.4222575 0.34465352
000180 2f 33 bc 3e 7d 04 80 3e f1 e2 01 bd e3 e2 cf 3e
       0.367578 0.25003424 -0.03171057 0.40602788
000190 5c d0 5b be 0b dd 3b 3d 1c fd bc bd e7 86 c2 be
       -0.21466202 0.0458651 -0.09227964 -0.37993547
0001a0 ee 9c 0a be 32 d4 b7 3d a8 ca 7c bd 8e c1 a2 be
       -0.13536426 0.0897602 -0.061716706 -0.31788296
0001b0 5a 96 99 bd 2c 21 81 3d 04 28 a6 be cf b7 72 3e
       -0.074993804 0.06305155 -0.32452404 0.2370293
0001c0 fb 1a df be 16 7f d9 bc 9d 12 b8 be 53 d7 f1 be
       -0.43575272 -0.026549857 -0.359517 -0.47234592
0001d0 a9 2f 04 be 1b 6c a7 3e 00 9f b7 3e 8e 89 e2 3d
       -0.12908806 0.32699665 0.35863495 0.11061393
0001e0 98 b4 b0 3e cd 3c 72 be 1c 4f 86 3e 41 c4 90 3e
       0.34512782 -0.23656006 0.2623223 0.2827473
0001f0 73 78 d9 be 03 e5 b1 be 40 9f 1f 3e 6e c6 e9 bc
       -0.42474708 -0.34745035 0.15588093 -0.028537001
000200 92 48 b3 be 5c ae c1 be 53 22 d2 3e c4 fa f3 3d
       -0.35016304 -0.37828338 0.41041812 0.11913064
000210 5c 0b 9d 3d 92 8b b3 be 8f 5e e4 3e 45 72 7d be
       0.07668182 -0.3506742 0.44603392 -0.24750622
000220 d3 f7 7b 3e 8e 8c 7f 3b 35 aa 7f 3d 3e 24 87 3e
       0.24606256 0.003899369 0.06241818 0.26394838
000230 18 5a e8 bd 94 a8 f8 bd 8a 02 b5 3e f2 9b b3 be
       -0.11345309 -0.12141529 0.353535 -0.35079914
000240 31 92 50 3e 08 cd 86 bd bf a2 c0 bd 63 4c b2 3e
       0.20368268 -0.06582075 -0.09406041 0.34823903
000250 5f bc 03 3e 11 bd bd be d7 59 cf 3e 1c 6c 52 be
       0.12864827 -0.3705831 0.4049823 -0.20549053
000260 a1 68 d0 3e 8f 7f 0e be e5 29 d9 3e 48 27 26 3e
       0.40704826 -0.13915847 0.42414775 0.16225922
000270 75 91 98 3a ad fa 3a 3e 23 39 d5 ba 07 8b 4e be
       0.0011640029 0.18259688 -0.0016267638 -0.20170222
000280 25 05 59 3e 6a 77 6f 3e 49 32 d7 bc 1f 05 f7 3e
       0.21193369 0.23385397 -0.026269095 0.48246095
000290 99 0e 46 3d 46 80 4e be 44 1e 49 be 03 c3 b0 3e
       0.048353765 -0.2016612 -0.19640452 0.34523782
0002a0 51 be 08 be b8 bf a5 3e f1 56 da be 08 2d d0 3c
       -0.1335385 0.32372832 -0.42644456 0.025412098
0002b0 56 0f 96 be 70 94 33 3e c1 aa bf 3e 22 e4 25 3e
       -0.29308575 0.17537093 0.37434962 0.16200307
0002c0 b3 13 36 be de 96 e8 be 3c 29 73 be 9f 4d 51 be
       -0.17780952 -0.45427603 -0.23746198 -0.20439766
0002d0 be 1b ec 3e f7 54 2f be 31 31 87 3e d4 42 b7 3e
       0.46114916 -0.17122255 0.26404718 0.35793173
0002e0 7a 1d a5 3d 06 8a d6 be e4 a5 ec bd f9 6c 2a be
       0.08062263 -0.4190218 -0.115550786 -0.16643132
0002f0 1b f8 81 3e 2c 76 95 bd cb 4c ef ba cc 92 c6 3e
       0.25384602 -0.0729793 -0.0018257139 0.38783872
000300 1b f0 c7 3d 3e 7d 60 3e 17 39 0b be be fe 92 3e
       0.09762593 0.21922776 -0.13595997 0.28709978
000310 4a 8d 69 3d 80 db be bd 6f e8 8c 3d c6 ea b7 be
       0.05701951 -0.0931921 0.06880271 -0.35921305
000320 67 59 70 3d 07 92 68 3e 46 f2 c6 be e8 7f 51 be
       0.05867901 0.22711955 -0.38856715 -0.20458949
000330 44 fb a4 3e 3b 43 ec bc 49 46 5f bd 5b 32 83 3c
       0.3222295 -0.028840652 -0.05451039 0.016015222
000340 d8 35 63 be 7e 9b b6 3e 57 96 93 bd 30 5e 2f be
       -0.22188509 0.35665506 -0.072064094 -0.17125773
000350 af 41 4b 3e b0 28 cb be ce f0 15 be 48 65 30 3d
       0.19849275 -0.3967948 -0.14642641 0.04306534
000360 19 c7 16 be 93 8e 61 3e 4d 6b d4 be 45 74 15 be
       -0.14724387 0.22027044 -0.41488114 -0.14595135
000370 80 77 2d be 41 4f e2 3e 6c c8 47 3e 72 e2 9c be
       -0.16940117 0.4420109 0.19510049 -0.30641514
000380 7c ad 45 3e a0 e4 90 bc 0e c0 da 3e 16 59 8f 3e
       0.1930446 -0.017687142 0.4272465 0.27997655
000390 fc 56 5e be db 8b cf 3e 94 28 fd bd 29 5f 13 be
       -0.2171287 0.4053639 -0.12361255 -0.1439177
0003a0 aa b5 96 3d 75 d4 c4 3e 4e 9a 22 3e 38 85 f2 be
       0.073588684 0.38443342 0.15879175 -0.47367263
0003b0 99 3a 5c be 95 b0 bc 3e bf f3 48 be b9 2f 7a be
       -0.21506728 0.3685347 -0.19624232 -0.24432267
0003c0 23 4d b0 be 93 14 55 be a9 f2 74 be e2 27 09 3e
       -0.3443385 -0.2080863 -0.23920693 0.1339412
0003d0 d6 4e 48 3e e3 d0 c4 3e be 07 a2 3e 17 95 6c 3c
       0.19561324 0.38440618 0.31646532 0.014439843
0003e0 6a a3 7a 3e f6 fe 90 3e 0f 8e dc be 13 5e 43 3e
       0.244764 0.2831952 -0.43077132 0.19078855
0003f0 d0 55 a8 be 7e a4 9e 3e de a6 6a be 5c a1 c4 3d
       -0.3287797 0.30984873 -0.22915217 0.09601089

phi.initial_conv_module.0._layers.5.weight f4 [64]
000000 85 64 76 3f 33 fc 75 3f 98 21 81 3f e0 b9 7c 3f
       0.9624713 0.9608795 1.0088377 0.9872112
000010 08 43 7a 3f 3c fe 7f 3f 79 b7 83 3f 4e 95 86 3f
       0.9775853 0.99997306 1.0290366 1.0514314
000020 5a a7 82 3f 87 cf 84 3f da 6c 77 3f 05 ce 83 3f
       1.0207322 1.0375832 0.9665047 1.0297247
000030 ba ea 7e 3f 02 bd 75 3f 36 25 7e 3f 93 1f 80 3f
       0.99576914 0.9599153 0.9927553 1.0009636
000040 df 0d 85 3f 64 62 78 3f 85 85 73 3f a9 d1 7c 3f
       1.0394858 0.9702513 0.9512561 0.98757416
000050 0b b1 7a 3f e5 23 80 3f 89 c8 82 3f 25 10 7a 3f
       0.97926396 1.0010954 1.0217448 0.97680885
000060 68 0b 82 3f e7 10 83 3f 5d f7 84 3f 84 24 81 3f
       1.0159731 1.0239533 1.0387989 1.0089269
000070 4a e6 84 3f a8 5a 7d 3f 6e ac 85 3f 59 d0 7f 3f
       1.0382779 0.98966455 1.0443246 0.9992729
000080 f9 af 81 3f 06 30 88 3f a4 e9 79 3f 6a 11 73 3f
       1.0131828 1.0639656 0.9762213 0.94948447
000090 1a f5 7c 3f 33 b5 86 3f af 29 71 3f 3e ed 8a 3f
       0.98811495 1.0524048 0.9420423 1.085365
0000a0 4d 28 87 3f 52 a0 83 3f a0 24 7e 3f 88 d3 7b 3f
       1.0559174 1.0283301 0.99274635 0.98369646
0000b0 01 87 77 3f 84 db 85 3f ee b6 81 3f 48 70 86 3f
       0.96690375 1.0457616 1.0133951 1.0503016
0000c0 88 d4 7a 3f 79 9e 7e 3f c8 3e 81 3f 85 f5 7c 3f
       0.97980547 0.9946056 1.0097284 0.98812133
0000d0 16 cf 80 3f 10 2e 78 3f 63 32 7f 3f 47 14 81 3f
       1.0063198 0.96945286 0.9968626 1.0084313
0000e0 de 96 82 3f 88 11 85 3f 81 a6 81 3f 82 19 80 3f
       1.0202291 1.0395975 1.0128938 1.0007784
0000f0 7a 56 83 3f e5 07 84 3f b7 51 7b 3f 48 65 7b 3f
       1.0260766 1.0314909 0.9817156 0.9820142

phi.initial_conv_module.0._layers.5.bias f4 [64]
000000 93 1a 49 3c 56 b2 99 bc 1f 96 e9 3c 7c 42 74 bc
       0.012274402 -0.018761795 0.028513966 -0.014908429
000010 1a 30 8f bc fe 3b a2 3b a9 fd c7 3c 45 f5 33 3d
       -0.017478991 0.0049509993 0.024412947 0.04393508
000020 8f 85 d3 3b bc 2a 3a 3d b7 b8 a9 bc f4 ca f1 bc
       0.0064551304 0.04545091 -0.020717962 -0.02951572
000030 02 c8 00 bd 13 0a fd bc a8 3a 08 bd ac 9c 25 bc
       -0.031440742 -0.030888593 -0.033259064 -0.010108154
000040 01 8f 54 3d 59 91 08 bd 8d 71 1e bd 7e c6 24 bc
       0.05189419 -0.03334174 -0.03868251 -0.01005709
000050 9a 7a 3f ba 6e d5 bc 3c 9f 66 1e bc 60 51 ff 3a
       -0.0007304341 0.02305099 -0.009668021 0.0019479208
000060 b4 ef 23 bc cd c6 cc 3b 2e a8 68 3d 66 59 74 bc
       -0.01000588 0.006249285 0.056801014 -0.014913892
000070 09 2f a7 bd 74 7f 84 bd 67 38 88 3d d2 d2 a2 3c
       -0.08163268 -0.06469622 0.06651383 0.019875918
000080 2b fb cf 3b 62 73 63 bc 4c 43 1b bd a8 91 10 bd
       0.00634708 -0.01388249 -0.037905976 -0.03529516
000090 80 42 79 3b 9e b4 76 bc 2e cf 73 bd b2 98 c2 bb
       0.0038034022 -0.015057711 -0.059523754 -0.005938613
0000a0 67 c8 40 bb 58 ba 91 3c 57 2a 8f 3d c5 9f 8d bc
       -0.0029416324 0.017789051 0.069904976 -0.017288098
0000b0 d6 6d 29 bd 74 9d 6b 3d f6 6c e6 3b 3d 1b 4a 3d
       -0.041364513 0.057523206 0.007032032 0.049342383
0000c0 2c 15 e2 bb f7 c7 73 ba 0c 9f 46 3c 14 61 5b bc
       -0.0068994965 -0.00092995114 0.012122881 -0.013389844
0000d0 37 ff 94 3c 02 15 16 3c d7 c4 9b 3c 08 56 b5 3b
       0.018188102 0.009160282 0.019014759 0.0055339374
0000e0 5c 8a 07 3d 9c a4 07 3d b2 3d 5e 3d 24 01 d8 3c
       0.033090934 0.033115968 0.054258056 0.026367731
0000f0 81 c1 7d 3c 92 21 70 bd fc 2a fd ba 7e 77 32 bd
       0.015488029 -0.058625765 -0.0019315179 -0.043570988

phi.initial_conv_module.0._layers.5.running_mean f4 [64]
000000 8a 3a 8c 3d 14 fb 5e bd 51 46 32 be 14 cf df 3d
       0.06847103 -0.054438666 -0.17409636 0.10928169
000010 27 db c8 3d dc 71 b4 bd 4f 33 d9 bd 2c 76 48 bc
       0.09807425 -0.088107795 -0.106054895 -0.012235206
000020 db 0a 56 bd 11 0a a2 bd 76 03 7e 3d 05 8e c7 bd
       -0.052256446 -0.07912076 0.06201502 -0.09743885
000030 59 f3 30 3d 3f 7a c3 3d bb 21 46 bc bb b2 ee bd
       0.043200824 0.09544801 -0.012093003 -0.11655184
000040 2b 38 02 3e 9b d8 77 3d 44 ae 40 3d c5 ec 11 3e
       0.12716739 0.060509305 0.047041193 0.14250477
000050 2e 05 1c be f2 b1 38 bd 9a 4f 1b be bf 8b f8 3c
       -0.15236351 -0.045091577 -0.15167084 0.030340074
000060 06 11 01 3d 45 47 2c be 7a 9b ce 3d fb 99 5e 3d
       0.031510375 -0.16824062 0.100882486 0.054346066
000070 0d 95 6f bb 25 3c fb bb 26 7c 0a 3e 4c a5 7b 3c
       -0.0036557347 -0.007667082 0.13523921 0.015359234
000080 89 fc 0a 3e f3 03 b9 3c 68 cf b0 bc 14 43 0c be
       0.13572897 0.022584891 -0.021583274 -0.13697463
000090 46 79 21 3e 48 b3 b3 bd 2c 03 be 3d 76 c8 af bb
       0.15768918 -0.087744296 0.09277949 -0.005364473
0000a0 43 f6 1c 3b fa 84 60 3c 8d 80 c7 bd b6 bd 8c bd
       0.0023950494 0.013703579 -0.09741316 -0.06872122
0000b0 c9 70 47 3d 7f 9c 09 3e 9b cc 67 3d 0b f3 09 be
       0.048691545 0.13438605 0.05659161 -0.1347162
0000c0 d3 36 9d bd 64 c4 3a 3e 50 0e 89 bd a4 d7 73 3c
       -0.076764725 0.1823898 -0.06692183 0.014882956
0000d0 a4 7a 9d bd 04 a8 8e bd b5 4a a9 bd a0 46 03 be
       -0.076894075 -0.0696564 -0.08266202 -0.1281991
0000e0 f4 fc 8c bd 6c c9 65 bc cf d1 67 bd b1 44 eb bd
       -0.068841845 -0.0140250735 -0.056596573 -0.11487711
0000f0 d6 0b c7 3d 5e 2c ad bc 60 91 84 3d f4 cc 38 3c
       0.097190544 -0.02113932 0.064730406 0.011279333

phi.initial_conv_module.0._layers.5.running_var f4 [64]
000000 92 f6 e9 3d bd 69 1d 3d 30 0c 74 3e 59 3d d4 3d
       0.11423983 0.038430918 0.23832774 0.10363264
000010 88 5b 35 3e 94 e5 a2 3d b2 1a 8b 3d 0f 15 c3 3c
       0.17710698 0.07953945 0.06792201 0.023813752
000020 c3 6f 23 3d 3a 90 83 3d ae 3e 2f 3d f4 c1 ec 3d
       0.039901506 0.064239934 0.042784385 0.11560431
000030 4a f3 33 3d 58 74 c0 3d 03 15 3b 3c 35 d9 47 3e
       0.04393319 0.09397191 0.011418584 0.19516452
000040 3e 5e 30 3e 4c 43 a1 3d c6 91 14 3d 4a 79 d7 3e
       0.1722345 0.07874164 0.036271833 0.42084724
000050 1f 28 26 3e 6b 73 e1 3c b0 dc 5e 3e ff 0b 21 3d
       0.16226242 0.027520856 0.21763873 0.03931808
000060 19 97 2a 3d b0 3a 42 3e 22 55 08 3e 88 32 23 3d
       0.041648004 0.189677 0.13313726 0.039843112
000070 49 26 a5 3c 78 9e 1c 3d 1f da 18 3e 8e 41 ef 3b
       0.020159857 0.038237065 0.14926957 0.007301516
000080 3b 33 d5 3e dd ba d8 3c bd 92 31 3d 12 5a 47 3e
       0.41640648 0.02645629 0.04335283 0.19467953
000090 11 ea 94 3e 2f 78 bf 3d e5 cc cf 3d 70 6b 86 3c
       0.29084828 0.09349095 0.101465024 0.016408652
0000a0 b6 e3 0a 3c c6 46 5b 3b 22 a3 23 3e 2f 78 75 3d
       0.008477142 0.0033458932 0.15980199 0.05992907
0000b0 3f 62 2c 3d d3 e5 52 3e 7f 4d 6f 3d 16 5a 20 3e
       0.042085882 0.20595483 0.058423515 0.15659365
0000c0 7e 05 8e 3d e5 91 f9 3e e9 1f a5 3d 6c 32 28 3c
       0.06934641 0.4874412 0.08062727 0.010265928
0000d0 d3 f8 a5 3d df bf 36 3d 5f a2 88 3d 20 72 e1 3d
       0.081041 0.044616576 0.06671595 0.11008096
0000e0 f1 a1 52 3d 97 db 4e 3c f3 81 d6 3c 63 17 1b 3e
       0.05142397 0.0126255965 0.026185011 0.1514564
0000f0 c6 94 3a 3e 73 7c 12 3c 29 1a a0 3d ad 3a 91 3c
       0.18220815 0.008940804 0.0781749 0.017728174

phi.initial_conv_module.0._layers.7.se_conv.conv.weight f4 [10, 64, 1]
000000 92 5c de 3d 36 7f c1 bd 40 b4 6b bd bd 36 9f 3c
       0.108575 -0.09448092 -0.057544947 0.019435281
000010 9e 13 1d be f2 43 0b be 90 4f 9c bd d1 74 08 3e
       -0.15339515 -0.13600138 -0.07632363 0.13325812
000020 b1 c5 1e 3d 70 b9 8c bd b7 2e 5b 3d eb cf 75 bd
       0.038762752 -0.06871307 0.053511348 -0.06001274
000030 f1 37 24 be f2 36 9d bd be b6 cd bd ec c3 78 3d
       -0.16036965 -0.076764956 -0.10044621 0.06073372
000040 1b 13 9f bd b4 cd e6 bb 8a 57 c8 bd d0 28 24 bd
       -0.07767316 -0.0070435647 -0.09782322 -0.040077984
000050 38 fd 8c bd 84 bf 1a be 33 42 01 3e 0f 71 ba 3d
       -0.06884235 -0.1511212 0.12622909 0.091035955
000060 41 84 df bd 4c 00 61 3d 35 93 43 bd 91 78 a9 bc
       -0.10913897 0.054931924 -0.04774781 -0.020687373
000070 9b 9e 9e 3d 80 20 4e bc 3c 22 aa 3d 6a bc 8a 3d
       0.07745095 -0.012580991 0.08307311 0.067742184
000080 41 56 28 bd 18 a5 25 bd fb 42 f4 bd 15 75 ae 3d
       -0.041097883 -0.04044065 -0.11926838 0.085184254
000090 d8 0e 0b bd 3a f8 ba bd 7d 65 3a bd 42 dd 02 be
       -0.033949703 -0.09129377 -0.045506943 -0.12779716
0000a0 bb 16 cd bd b0 1d f2 3d f1 58 92 3d 43 34 3a 3e
       -0.10014101 0.11822069 0.071458705 0.18183999
0000b0 dd bf 12 bd 90 23 7b bd 65 dc 79 3c 3c 25 59 3d
       -0.035827506 -0.061313212 0.0152503 0.053014025
0000c0 4d e2 80 bd b6 2a 1c 3d 0a 08 aa bd 53 32 ac bc
       -0.062931634 0.03812667 -0.083023146 -0.02102009
0000d0 ca 0c d4 3d ed 6d a1 bc 9c 2d 9d 3d 98 ed 89 bb
       0.10354002 -0.019705737 0.07674715 -0.0042092316
0000e0 51 97 43 bc 52 85 b5 bd 5f b5 72 3c 9c 84 6f bd
       -0.011937932 -0.088633195 0.01481375 -0.058476076
0000f0 f2 cd 73 bd ed c0 00 be 9a 1f b8 bd 1b d3 0b 3d
       -0.059522577 -0.12573595 -0.089904025 0.034136873
000100 b0 e7 ba bd ca fa 0d be 30 45 bb 3d 15 ff 13 3d
       -0.09126222 -0.138652 0.09144056 0.036131937
000110 69 b6 a6 bd ed 52 2a bc 61 6f ca 3d dd c9 06 be
       -0.08140261 -0.010395748 0.09884525 -0.13162942
000120 36 7f e4 bd e6 48 6e 3d 3c c7 52 3d 46 95 9f 3d
       -0.11157076 0.05817499 0.051459536 0.077921435
000130 5f 37 42 bd 44 48 8e 3d 7c f8 44 3d e6 79 96 bc
       -0.047416087 0.06947377 0.048088536 -0.018368673
000140 2a ed ea bc 9d 1e 08 be b5 63 28 bd 17 ee b6 3d
       -0.028677542 -0.13292928 -0.041110713 0.08932131
000150 c3 d3 cd bd b1 3c 91 bb 49 f9 7f 3d e0 23 1d bd
       -0.10050156 -0.004432284 0.062493596 -0.03836429
000160 9a 69 d2 bd f7 c0 28 bd 57 f9 b9 bd 56 a4 55 bd
       -0.10274048 -0.04119965 -0.09080761 -0.052158676
000170 ad 8e 00 be 04 ac 2a 3d 46 cd 22 bc 53 00 cc bd
       -0.12554426 0.041667953 -0.009936636 -0.09960999
000180 8f 18 82 bc c0 1c 5b 3d c9 5e 07 be 49 ff 14 be
       -0.015880851 0.053494215 -0.13219751 -0.14550509
000190 40 a6 9d bd dd a7 0b be e2 e7 01 be 9f b4 c4 3c
       -0.07697725 -0.13638254 -0.12686113 0.024011908
0001a0 5d ba c8 bd 90 5a 0c be 7e e2 01 be a0 0d 79 bd
       -0.09801171 -0.13706422 -0.12684056 -0.06080401
0001b0 67 d1 d1 bb 4f e8 90 bd 55 bf 29 bd ac 2e 38 3d
       -0.0064031365 -0.07075559 -0.041442234 0.044966385
0001c0 b1 b2 54 bd 48 c2 9d 3d b0 2a 55 3d f6 62 f7 3d
       -0.051928226 0.07703072 0.052042663 0.12079422
0001d0 42 98 92 bd 6f c2 80 3d 7b 74 ce 3d 82 5b 94 3d
       -0.07157947 0.06287085 0.10080811 0.07244016
0001e0 5a 09 27 3d d4 8e 94 bd bb 04 89 bd 28 cc 04 bc
       0.040780403 -0.07253805 -0.066903554 -0.008105315
0001f0 fc 0b f1 3c ad db 85 3d 1f bc 6b bd 3d 14 8a bd
       0.02942466 0.065360405 -0.057552453 -0.067421414
000200 12 6e 99 3c 7d 23 51 bc e6 10 1d 3e f3 13 ee bd
       0.018729243 -0.012764809 0.15338477 -0.11624899
000210 25 20 80 bd a9 bc f9 3c 4c d7 33 3d 3b 90 2f be
       -0.06256131 0.030485468 0.043906495 -0.17144863
000220 97 c3 26 bd af bd be 3d e5 8b 81 3c 93 c4 dc 3d
       -0.040713873 0.09313523 0.015813777 0.10779681
000230 51 c3 26 bc 64 59 a1 bd 25 d0 06 be 83 99 f3 bc
       -0.010178403 -0.07878378 -0.13165338 -0.029736286
000240 36 f7 a4 bd ab 12 2b 3c 8d d0 4d 3c 52 29 11 bd
       -0.08054964 0.0104414625 0.012561929 -0.035439797
000250 2a 96 14 3e f0 f2 eb 3c 37 6c db bc 8c 5b 53 bd
       0.14510408 0.028802365 -0.026785 -0.051600978
000260 0b 53 b6 3c 11 9d d9 bd 44 a9 f2 3d c2 f0 bd bd
       0.022256395 -0.10625661 0.11848691 -0.092744365
000270 5c e2 26 3d 3d 66 9b bd 8e 5b d6 3d 20 20 2a be
       0.040743217 -0.0758786 0.104666814 -0.16613817
000280 11 e7 99 bd 12 c0 e1 bd cc 0d 02 be 85 9a dc bd
       -0.075147755 -0.11022963 -0.12700576 -0.1077166
000290 0a 24 ab bd 9d 8c 2b 3b 3c 0c 3a 3d 43 43 99 bd
       -0.08356483 0.0026176341 0.045421824 -0.07483532
0002a0 06 9e be 3d 67 0e ba bd 37 c9 a1 bd 47 10 02 bd
       0.09307484 -0.09084778 -0.07899707 -0.031753805
0002b0 8c 42 0a bd b9 52 56 3d a6 05 26 3d e2 cb 23 bd
       -0.03375487 0.052324984 0.04053273 -0.03998936
0002c0 6e 96 1d be ab 6d d5 bc 5e 34 bc 3c 81 fd a0 bd
       -0.15389416 -0.02605327 0.02297419 -0.07860852
0002d0 fe 4d 29 3c 6f 30 f6 3d 8a bd 76 3d b1 42 bf bd
       0.010333536 0.12020957 0.060239352 -0.09338892
0002e0 5e d0 8c bd 43 a6 78 bd 6e 4c a2 bc ec 55 b3 3d
       -0.068756804 -0.060705435 -0.019811835 0.08756623
0002f0 6f 55 e5 bd b9 5c 2d bc db 01 ba bd 11 ce 96 bd
       -0.11197936 -0.010581189 -0.09082385 -0.07363523
000300 72 9e d3 3d 17 11 c6 bd fd 2f 6d 3d 9d f8 d7 bd
       0.103329554 -0.096712284 0.057907093 -0.10545466
000310 09 32 73 bd 2b 23 9d 3d e1 78 18 3e e6 86 1d bd
       -0.05937389 0.076727234 0.14889862 -0.038458727
000320 91 75 02 be 4b dc 0b be ab 80 ec bd e6 3a 13 be
       -0.1274016 -0.13658254 -0.11547979 -0.14377937
000330 bc 96 e2 3d f1 aa fb bd 24 a4 83 3d 80 83 f5 3c
       0.110639066 -0.12288464 0.06427792 0.02996993
000340 64 87 e2 bc 25 8a 07 3e 65 7a 6a 3d 08 cb 4d 3b
       -0.02765245 0.13236292 0.05724563 0.0031401534
000350 0a 40 a4 bd 28 82 8b bd bb 83 e9 3d c5 c8 0f 3e
       -0.08020027 -0.06811935 0.11402079 0.14041431
000360 87 8b 05 3d a2 b5 bc 3a 06 19 a1 bd e4 7e cd 3d
       0.032603767 0.0014397393 -0.07866101 0.10033968
000370 a0 dd a9 3d 91 58 5e 3d 1e f5 b8 bd 47 bb 31 3e
       0.08294225 0.054283682 -0.090311274 0.17356597
000380 18 cc 8b bd 45 e0 48 3d 3c c0 9c 3d 66 fc 58 bd
       -0.06826037 0.049042005 0.07653853 -0.05297508
000390 c8 2e d9 3d 0b 97 58 3d 0d 51 ad bd d3 ab 21 3e
       0.10604626 0.05287842 -0.08462725 0.15788202
0003a0 fd 46 86 3d 59 d2 d3 3d 70 ee 3f 3d 01 76 1c bd
       0.06556509 0.10342855 0.04685825 -0.038198475
0003b0 9c 4a c2 bd dc 47 e0 3d 5c 23 25 3d 0e c9 05 3e
       -0.09486887 0.10951206 0.040316924 0.13064978
0003c0 fc 92 32 3e 5d d9 cd 3c 3f b8 1e be 3e d8 8b bb
       0.17438883 0.025128061 -0.15499972 -0.0042677214
0003d0 2f 15 c1 3d 06 f1 38 bd 09 31 2e bd 3b ee eb bb
       0.094278686 -0.045151733 -0.042527232 -0.00720003
0003e0 5c ce 6e 3d 90 02 1a be a8 5a 9d 3d 49 2b 83 3d
       0.05830227 -0.1504004 0.07683307 0.0640474
0003f0 7f 92 2c 3d 6e db 9a bd 6e 7b 90 bd 06 55 be 3d
       0.042131897 -0.07561384 -0.07054792 0.09293561

phi.initial_conv_module.0._layers.7.se_conv2.conv.weight f4 [64, 10, 1]
000000 5c 62 20 be bb f5 b2 3d bb 92 8b bc 1b 18 36 be
       -0.15662521 0.087382756 -0.01703774 -0.17782633
000010 5a c0 34 be 69 de 8f 3d 71 f7 83 be 5e 8e 8d 3e
       -0.17651501 0.07024843 -0.2577472 0.2764768
000020 6c 15 6b bd b9 b3 9d 3d 76 17 cf 3d 64 2a 9d bd
       -0.057393476 0.07700295 0.10111897 -0.07674101
000030 06 e2 a9 3e 2b f4 a9 bd 16 18 94 bc e1 f9 a5 be
       0.33180255 -0.082985245 -0.018077891 -0.32417205
000040 e3 a0 55 bc d9 c6 cb 3d 84 2e 93 3d 3b b4 ad bc
       -0.013038847 0.099500366 0.071866065 -0.021204105
000050 a8 db 6f 3e e9 c0 75 3e b8 9a 33 3e 34 0a b0 bd
       0.23423636 0.2399937 0.1753949 -0.08595696
000060 df 4e 0a 3d 5e bc 74 be 19 3b 64 be 81 57 d2 bd
       0.033766624 -0.23899981 -0.22288169 -0.10270596
000070 bd a9 9e 3d 8e 91 20 be ed 29 7e be 57 17 2b 3e
       0.07747219 -0.15680525 -0.24820681 0.16708122
000080 a6 56 f6 3d 44 31 38 be 6d f4 4a 3e 18 7a 64 be
       0.12028246 -0.17987543 0.19819804 -0.223122
000090 b4 92 54 3e 24 84 2b 3e a6 97 af bd 72 14 87 3e
       0.20759088 0.16749626 -0.085738465 0.26382786
0000a0 b9 69 12 be 07 3a f9 bd aa 04 80 3e d4 eb c8 bd
       -0.14298142 -0.12169271 0.25003558 -0.09810606
0000b0 48 e2 22 be e6 f1 4f 3d 41 fa 4c bd 94 2c 3b 3e
       -0.15906632 0.0507678 -0.05004335 0.18278724
0000c0 00 e4 9c 3e 6c 5a 41 3e 35 2c 66 3d 12 a3 fa 3d
       0.306427 0.1888215 0.056194503 0.122381344
0000d0 b8 45 09 bd bb 5c 10 3d f5 9d 02 bd a4 47 3d 3e
       -0.033513755 0.035244685 -0.03188892 0.1848436
0000e0 50 03 28 3e 19 19 78 bd 8a 01 2b 3e 86 4a fe bc
       0.16407514 -0.06057081 0.16699806 -0.031041395
0000f0 4b e6 9b 3d 50 19 7e 3e 4a ed 64 be ea cc 64 ba
       0.07612284 0.24814343 -0.22356144 -0.00087280443
000100 34 c3 33 bd 89 4f b7 be 81 03 8e be 76 90 23 3c
       -0.043887332 -0.35802868 -0.27737048 0.009983173
000110 a4 d7 90 3e 61 f4 f1 bd c7 8f 85 3d 34 69 11 3e
       0.2828952 -0.1181419 0.06521564 0.14200288
000120 d7 39 9f be d3 46 d7 3d da 9d c2 3d fb 15 bb be
       -0.31098816 0.105115555 0.09502764 -0.36540207
000130 5b 46 dd 3c 1c f1 b6 be 25 0b a4 3e c3 06 42 3e
       0.027011087 -0.35730827 0.32039753 0.18947892
000140 3d 40 15 3e 7a c7 8c 3e 55 c1 6e 3e 49 f1 8e 3e
       0.14575286 0.2749594 0.23315938 0.2791846
000150 fa bf 7c 3d 1d b8 9a be 4e 51 a9 3e 20 f5 b1 3d
       0.06170652 -0.30218592 0.33069843 0.08689332
000160 68 41 bc bd 71 06 b9 bd a6 5e 60 3e 3e 94 9f 3c
       -0.09192163 -0.09034432 0.21911106 0.019479867
000170 2d dd 2c 3e f8 0b b4 3b 10 91 a4 3e ac f3 88 be
       0.16881247 0.005494591 0.32141924 -0.26748407
000180 8f 78 e3 3d b3 79 50 3d 93 fe 4a 3d ab fa b6 3e
       0.11106979 0.05089731 0.049559187 0.3573812
000190 b1 3d 79 3d b2 fc a3 3d ee 28 92 3e dc 46 14 bd
       0.06084985 0.08007182 0.28546852 -0.03620039
0001a0 ea 35 30 bd 83 b1 53 be d3 58 32 bd 7c e3 00 be
       -0.043020166 -0.20673184 -0.04354174 -0.12586778
0001b0 09 41 38 3e 9b 84 8e 3e b9 95 b4 be 4b 5b ec bd
       0.17993559 0.27835545 -0.3527048 -0.1154085
0001c0 22 19 9a 3e cc 65 7a be 5e 58 8d 3e c0 1c 98 3e
       0.300973 -0.24452895 0.2760648 0.29709435
0001d0 bb 81 89 bd 6a 18 9c be 27 03 4a 3e b6 aa 3f 3e
       -0.06714197 -0.30487376 0.19727765 0.18717465
0001e0 90 c2 96 3e 9f 32 73 3d 63 f4 4c 3e 9a 0a 8d be
       0.29445314 0.059374448 0.20015101 -0.2754715
0001f0 7c ed 3c 3d 87 ed cf 3d 4b 53 35 3e 81 09 22 be
       0.04612492 0.101527266 0.17707555 -0.15823938
000200 cd 58 c6 bd 5e 5c 3d be b3 bf 22 be 73 06 50 3e
       -0.09684906 -0.18492267 -0.1589344 0.2031496
000210 b0 80 a2 3d 05 ab 27 3e 18 be 77 bd a7 0b 01 bd
       0.079347014 0.16373833 -0.060484022 -0.031505253
000220 31 55 6d bd a4 87 4b 3e 63 95 48 be 2c 6e 52 3b
       -0.057942573 0.19875962 -0.19588237 0.0032109125
000230 75 d7 5e 3e b2 fe 51 3e 2e 1d 20 be fa 4a 86 3e
       0.21761878 0.20507315 -0.15636131 0.26229078
000240 5c 2d 83 be bb ae 19 3e 1d dd 7d 3e 33 86 56 bd
       -0.25620544 0.1500806 0.2479138 -0.052374076
000250 9d db 03 3e 19 1e b3 be 4b 3d 14 be cb 03 06 be
       0.12876745 -0.349839 -0.14476506 -0.13087384
000260 49 ad 97 be 14 b5 f5 bd 1b 18 7c 3e 38 be 28 bd
       -0.29624394 -0.119974285 0.2461857 -0.04119703
000270 3b f6 aa 3e a4 3a 84 be 98 d6 50 3d 3f 0e 8d 3e
       0.33390984 -0.2582599 0.050985903 0.2754993
000280 99 80 91 3e 72 53 24 be a5 90 9a be 70 d9 e7 bd
       0.28418425 -0.16047457 -0.3018848 -0.1132077
000290 25 16 8b 3e 04 b0 92 3c ac 86 ad 3e aa 52 47 be
       0.27165332 0.017906196 0.3389181 -0.19465128
0002a0 b4 57 69 be e5 03 3c 3e 17 17 e9 3d a8 4a 33 be
       -0.22787362 0.1836086 0.11381357 -0.17508948
0002b0 a2 5d 9b 3e 2c a0 2e be 22 76 86 be dc 7d ad 3d
       0.30344874 -0.17053288 -0.26262003 0.084712714
0002c0 9e b1 5e be 91 a1 30 be 4f d2 2d be 8f db e5 3d
       -0.21747443 -0.17249133 -0.16974758 0.11223518
0002d0 98 cb 26 3e ab 4b 94 3e 67 fe 2d be 1b 17 5c bd
       0.16288602 0.2896398 -0.16991578 -0.053732973
0002e0 8c 10 71 3e 41 d9 27 be 4e 0e 16 be 4e a8 bb bd
       0.23541468 -0.1639147 -0.14653894 -0.09162961
0002f0 7e eb 7b be a0 ad 95 be a1 35 9d 3e 6e bc a9 3d
       -0.24601552 -0.29234028 0.30704978 0.08287893
000300 25 6c 91 3d 43 2a f5 3d 43 59 2c 3e 6d 4c 39 3e
       0.07100705 0.119709514 0.16830926 0.1809556
000310 ce 7d 5d 3e 3e fa 17 3e d9 41 5b 3e 95 dd 6b 3e
       0.21630022 0.14841554 0.21411838 0.23033746
000320 76 7b 8f bd 7f 45 d9 3d 4e 28 0b be 1e ed a5 be
       -0.0700597 0.106089585 -0.13589594 -0.3240747
000330 90 a4 85 3e 3b bd 86 be 54 72 57 be 1a 0a 92 be
       0.26102114 -0.26316246 -0.21039706 -0.28523332
000340 d7 88 89 be db b1 a4 3d 84 0e 30 3e 5a 91 8f be
       -0.26862213 0.08041736 0.17193037 -0.28040582
000350 14 8a 3c bc 07 47 32 be cc a5 48 3d 57 bd 11 3e
       -0.01150753 -0.17409907 0.04898624 0.14232384
000360 1c 33 b5 bd fb 82 eb bd 7b 32 5d 3e 2d 38 5e be
       -0.08847639 -0.11499592 0.21601288 -0.21701117
000370 12 48 00 be 2a 40 6d be 92 69 57 3e b8 d1 45 3d
       -0.12527493 -0.23169008 0.21036366 0.048295707
000380 90 cb 07 be 53 cf 4f 3e 8e 7b a0 3e 3a dd 0d 3e
       -0.13261247 0.20293932 0.31344265 0.13853922
000390 94 27 34 be ad ed e8 bb 4a 8c 75 3e 9a dc 9a 3e
       -0.17593223 -0.0071084113 0.23979297 0.3024643
0003a0 a3 65 a7 bd 3e ad 13 3e 58 05 7e be 68 2e 8d 3d
       -0.081736825 0.14421555 -0.24806726 0.06893617
0003b0 e0 07 8b 3e 09 8c 55 3d a9 fc 84 be 97 98 d8 3d
       0.27154446 0.0521355 -0.25974014 0.10575979
0003c0 68 ac 30 3e df d1 6d 3e 77 6b 7e be 70 a7 8e bd
       0.17253268 0.2322459 -0.24845682 -0.0696553
0003d0 70 42 f0 bb e8 ea 75 bd 04 55 96 bd 47 82 25 be
       -0.0073321387 -0.060038477 -0.07340434 -0.16162978
0003e0 6e b3 3b 3e d1 5c 4c 3e 8a 92 e3 bd 24 1f 83 3e
       0.18330166 0.19957282 -0.111119345 0.25609696
0003f0 dc a8 44 bd e7 95 a5 39 ca de a9 3d e9 49 b6 bd
       -0.0480126 0.00031582938 0.08294447 -0.08900816

phi.initial_conv_module.0._layers.8.conv.weight f4 [32, 64, 1]
000000 e9 27 e6 bc e2 ef 06 3e 39 d2 1b 3e b8 a2 0c bd
       -0.028095203 0.13177446 0.15216912 -0.03433487
000010 9a ca 99 bd c2 49 09 3e fc b9 ba 3c 6d 4e 1d 3e
       -0.07509346 0.13407043 0.022793762 0.15361948
000020 89 bd b0 bd be f8 b0 bc ce 78 8a bd 7d 84 e8 3c
       -0.08629901 -0.021602985 -0.06761323 0.028383488
000030 b0 1a b0 bd 8b 42 82 bd 7d 45 10 3c ea 15 03 3e
       -0.0859884 -0.06360348 0.00880563 0.12801328
000040 6a 97 91 bc 52 f5 db 3c ac cf bb 3d 6b 81 80 3c
       -0.017772395 0.026850376 0.0917047 0.015686711
000050 3a 14 ba bd d3 99 48 3d 44 9d 02 3d 87 8a e4 3d
       -0.09085889 0.048974823 0.03188826 0.111592345
000060 fc 21 a2 3d fe 07 ad 3d b3 5d 9f bd f3 c0 64 3d
       0.07916638 0.0844879 -0.077815436 0.055848073
000070 01 88 58 3c 34 a6 27 3c d9 7d c3 3d e3 c8 6a bd
       0.01321602 0.010232497 0.09545488 -0.057320487
000080 b8 c4 88 3d 8e 3e b4 bd 63 d8 22 3c 2c 60 7d bb
       0.06678146 -0.08800994 0.009939286 -0.003866206
000090 37 b7 d1 bd c8 52 2f 3c 9e 03 24 bd d3 a4 06 3e
       -0.102400236 0.010700889 -0.040042512 0.13148813
0000a0 a3 82 71 bd a0 b8 ee 3d dd 11 f3 bc 19 94 c2 bd
       -0.058962476 0.11656308 -0.029671604 -0.09500904
0000b0 4e 5e 01 3e 3d 4d 32 bd d5 27 ad bd da fe 24 bc
       0.1263363 -0.04353069 -0.08454863 -0.010070527
0000c0 2e ea 1b bc 49 51 2a 3d e3 44 0f bd 86 b9 c4 3c
       -0.009516282 0.041581426 -0.034977805 0.024014246
0000d0 0d e7 92 3d 42 7c 51 3d 0a fa bc 3d e1 6c 4c 3b
       0.07172976 0.051143892 0.09227379 0.0031192827
0000e0 09 cb f8 bc fa 3a e3 3b d4 3b bc bc 52 b6 5c bd
       -0.030370252 0.006934521 -0.022977747 -0.05388481
0000f0 b3 2c 12 3c b2 87 a8 bc 91 6b f4 3d 50 3d 77 3d
       0.00892179 -0.020572517 0.11934579 0.060361207
000100 d3 c4 89 3d 58 66 84 bd ac 67 02 3e 39 11 81 bc
       0.06726994 -0.06464833 0.1273486 -0.015755283
000110 ed 94 e1 bd 6b d7 b4 3d 60 cf ae bc 0e 86 a4 bd
       -0.110147335 0.0883015 -0.021339118 -0.080333814
000120 aa da 59 3d e4 7c a1 bc a7 6b b2 3d d2 a7 cc bd
       0.05318705 -0.019712873 0.08711939 -0.09992947
000130 11 f2 10 3d 4e 33 b0 3d 44 dc 75 3d fb 4a 44 bd
       0.035387103 0.086035356 0.060024515 -0.04792307
000140 67 8f 2c bc fb 20 e9 3c d9 ab 01 3e 79 9f 80 bd
       -0.010532237 0.02845811 0.12663211 -0.06280417
000150 e1 22 b4 bd 9e 37 0f be c5 89 22 3c f9 6d fe bd
       -0.08795715 -0.1398606 0.009920542 -0.12423319
000160 99 6d d7 bc 1d 1b a9 bd ab 5a ad bc 69 cc b8 bd
       -0.026297377 -0.082571246 -0.021161398 -0.09023363
000170 40 88 ed 3d 55 dc 8f bd b6 f8 b1 bc 70 61 5d 3d
       0.11598253 -0.07024447 -0.02172504 0.054048
000180 c6 66 08 be 6c 08 66 3d 4d 85 86 bc af e5 8a bd
       -0.13320455 0.056160375 -0.016420985 -0.0678209
000190 db bb 60 3d 8e ec 95 bd 23 21 47 bc f5 64 8d bd
       0.054866653 -0.0732051 -0.0121538965 -0.06904022
0001a0 a0 17 9b 3c 1e 44 db 3d 01 7f e6 3d 73 77 74 bd
       0.018932164 0.10706352 0.11254693 -0.05968423
0001b0 81 7c 59 bd cb a0 22 bd c9 d8 6b 3d e7 84 b6 3d
       -0.05309725 -0.039704125 0.05757979 0.08912068
0001c0 67 f5 b8 3d 47 38 89 3d d9 6d 19 3e 49 f8 a7 bd
       0.09031182 0.06700187 0.1498331 -0.082016535
0001d0 8b 58 12 be 0f 38 0e bd 12 70 e8 3d 9b ae 87 bd
       -0.14291589 -0.03472143 0.11349501 -0.066251
0001e0 c0 9d 0b 3e 4e 58 9b 3d 60 4d 9b 3d a8 fe 69 3d
       0.13634396 0.07585202 0.075831175 0.057127625
0001f0 61 5f 6e 3e ad 80 e7 3d 26 44 39 bd 1d 61 84 bd
       0.23278572 0.1130384 -0.045231007 -0.064638354
000200 6b 3e b4 3c 91 92 e8 3d 55 dc 9a 3d 7d dc 33 bc
       0.02200242 0.1135608 0.07561556 -0.0109778615
000210 0d 9e 46 bd f1 e8 4b bb ff 65 1f 3c f2 07 57 be
       -0.048490573 -0.0031114186 0.009728908 -0.20999125
000220 f7 05 9e 3d 06 68 52 bd 53 e0 a3 bd 1e 8a 5e bc
       0.077159815 -0.051368736 -0.08001771 -0.013582734
000230 72 ec ea bd 9f 76 a8 bd e0 ef ba 3c 77 f6 ea bc
       -0.114708796 -0.0822575 0.02281946 -0.028681977
000240 ec 9b bd bd 58 6e 2e bd 44 3d 0c 3b 41 a1 80 3c
       -0.09258255 -0.0425857 0.0021398822 0.015701892
000250 f7 fa c2 bd 43 c5 af bc d2 0c 27 bc 8b 75 8e bd
       -0.09520524 -0.021456366 -0.010195928 -0.06956013
000260 1f 34 3b 3e db 15 60 bd 30 fe ff 3d ac 43 01 3e
       0.18281601 -0.054708343 0.12499654 0.12623471
000270 f3 ad 85 bc 45 c7 c8 3c 49 83 06 be aa 4d 0b 3c
       -0.016318297 0.024509082 -0.13136019 0.008502403
000280 1b 61 ea bd cf 8a 03 be 14 20 6a 3c f2 8b a1 3d
       -0.11444303 -0.1284592 0.014289875 0.078880206
000290 77 36 a4 bd 5d 28 9d bc e7 15 a3 bc a0 49 47 3d
       -0.08018201 -0.019184286 -0.019907905 0.0486542
0002a0 e0 a2 9d bd 81 54 b0 bd 85 d5 53 3c 9b ff f7 3d
       -0.076970816 -0.08609868 0.012929325 0.121093
0002b0 82 83 a1 3d 92 df 3a bd 65 93 1a 3d 37 95 29 3d
       0.07886411 -0.04562337 0.037738223 0.041402068
0002c0 62 ca 87 3d ab 98 6b 3b 67 5d 89 bc b8 37 51 3d
       0.06630398 0.0035949151 -0.01676817 0.05107853
0002d0 5c 5f 95 3d 01 3e ac 3d 8b 89 99 3d 42 60 07 bd
       0.07293579 0.08410264 0.07496937 -0.033050783
0002e0 31 41 b4 3d 76 2d b1 3c a1 f7 34 3e 7c f1 1f 3e
       0.08801497 0.021628123 0.17672588 0.15619463
0002f0 f5 84 87 3d 22 9a a5 3d a5 0b bc 3d da fa ec bc
       0.066171564 0.08086039 0.091819085 -0.02892821
000300 23 26 2c bd 1c 38 0c bd 59 43 66 bd e5 aa 99 3d
       -0.042028558 -0.034233198 -0.05621657 0.07503299
000310 57 77 ae bc 8f 60 23 bd 08 07 8e 3c e0 ec fe bd
       -0.02129714 -0.039887007 0.017337337 -0.12447524
000320 f3 3b 0c bd 39 02 17 3e b5 06 a0 3d 44 4f a0 3d
       -0.03423686 0.14746942 0.07813779 0.07827619
000330 eb a0 eb 3d 6a 7c 66 3d c6 c5 86 3c 75 93 88 bd
       0.11505302 0.056270994 0.016451728 -0.0666875
000340 1d c1 29 3e 12 99 89 bd 53 e2 51 bd 8c f6 d1 3d
       0.16577573 -0.06718649 -0.05124123 0.10252103
000350 e2 83 38 3d 8a c7 93 bd 86 52 9f 3d 35 de e3 bd
       0.04504765 -0.072157934 0.07779412 -0.11126367
000360 71 bd 2e 3d f8 8e 6a 3d 71 c8 86 3d ba ab 98 bd
       0.042661134 0.057265252 0.065812 -0.07454629
000370 47 3a 2a bd a0 c0 dc 3d 66 88 18 3d 6d c8 ba bd
       -0.041559484 0.10778928 0.037239455 -0.091202594
000380 0d 85 0a 3e bd e2 56 bb 15 09 dd bc 82 8e 37 3d
       0.13527317 -0.0032788955 -0.02698187 0.04481364
000390 1a 24 4d 3d fc 06 57 3c 1e 17 80 bc 98 a8 91 bd
       0.050083257 0.013124224 -0.015636023 -0.07112235
0003a0 54 bd a5 bc 73 74 2d bd b5 11 74 bd bf d8 e9 3c
       -0.02023188 -0.042347383 -0.0595872 0.028545735
0003b0 7a 8d c2 bd 76 34 93 3d e9 04 96 3d ad b0 2a bd
       -0.09499641 0.071877405 0.07325155 -0.041672397
0003c0 c6 25 40 3c b7 e6 01 3d 0f 96 bf bd 84 b1 b4 3d
       0.011727756 0.031714167 -0.09354793 0.08822921
0003d0 54 fd ad bc a4 1b f5 3c 39 d1 d9 3d 2b 5b 88 3d
       -0.02123896 0.029920407 0.10635609 0.06658014
0003e0 d4 cf 90 3c 72 ba 88 bd 06 3e dd bd 95 ff 81 bd
       0.017677225 -0.066761866 -0.10802846 -0.063475765
0003f0 4a f2 86 bc 32 ef d2 bd f2 01 42 3d 2e d1 8e bd
       -0.016472954 -0.10299529 0.047365136 -0.069734916

phi.initial_conv_module.0._layers.9.weight f4 [32]
000000 f0 36 82 3f 8a 29 82 3f 5c c3 81 3f 38 7a 79 3f
       1.0173016 1.0168927 1.0137744 0.97452116
000010 ac 32 8a 3f 28 1d 80 3f 91 e9 79 3f 32 ff 88 3f
       1.0796714 1.0008898 0.9762202 1.070288
000020 3a 4d 85 3f d4 a3 80 3f e2 29 84 3f b1 93 80 3f
       1.0414193 1.0049996 1.0325282 1.0045072
000030 c2 c2 81 3f 3d 57 83 3f e4 33 82 3f 3d 1a 7c 3f
       1.013756 1.0260998 1.0172086 0.98477536
000040 bb 0f 81 3f d3 7d 88 3f 02 b1 85 3f b4 37 87 3f
       1.0082926 1.0663399 1.0444643 1.0563874
000050 df 60 79 3f 22 8b 87 3f 33 ed 82 3f 3d 8e 87 3f
       0.9741344 1.0589335 1.0228637 1.0590283
000060 e5 7d 75 3f 3a 3a 80 3f f7 3d 89 3f b6 2c 77 3f
       0.95895225 1.0017769 1.0722035 0.965526
000070 6c eb 82 3f f4 19 83 3f 60 86 7d 3f d8 ea 85 3f
       1.0228095 1.0242295 0.99033165 1.0462294
