logs_backup/4birds_CF_combined_log_linear_gru64_50epochs_try2/2025-05-27_07-39-47/4birds_CF_combined_log_linear_gru64_50epochs_try2_best_model.pth (torch, 334849 bytes, 198 tensors)

phi.initial_conv_module.0._layers.0.conv.weight f4 [64, 64, 1]
0.083999954 0.09248216 -0.038180135 0.1013524 -0.03658022 0.0068784277 -0.07049858 0.06017285
0.10675935 -0.09022699 0.11653822 0.06599825 0.1400355 0.07083174 0.12918037 0.034553576
0.069175154 -0.03429927 -0.07643139 0.037925612 -0.048016336 -0.01369224 -0.059514403 0.0653227
-0.111867376 -0.04495568 -0.0049270596 -0.04296716 0.03242772 -0.12861587 0.11701818 -0.08842428
0.11566565 0.039808474 -0.030111382 0.07785917 0.026846372 0.11285504 0.027771562 -0.017266817
0.039770994 -0.04818365 0.023413636 0.076279126 0.044413026 -0.07149334 0.06395672 0.018627392
0.06403918 -0.08013791 -0.13648933 -0.07168102 -0.12935565 0.061204772 -0.0123866955 0.0026873662
-0.0059148287 -0.037700076 0.070055336 -0.12693776 -0.012666831 -0.084019706 0.041028555 -0.04462455
0.03217712 -0.0335746 0.10494889 -0.07923162 -0.065357074 -0.08875999 0.12204307 0.034761842
0.114826776 -0.11137724 -0.13140626 -0.10235232 -0.08415533 0.04363931 0.04324789 0.11651793
-0.040436838 -0.061378974 0.0728217 -0.04407101 0.08216364 -0.025432117 0.06128569 -0.12496515
-0.097221404 0.009294678 0.007522217 -0.03698506 0.07829257 0.09006234 -0.09201757 -0.07276897
0.1127063 -0.031843826 -0.028589558 -0.09467041 -0.047081336 0.06322795 0.013011363 -0.055613615
0.03116917 -0.07434703 -0.1122822 -0.098557346 -0.12688126 -0.06899657 0.14345624 0.045021232
0.05650751 -0.10359278 -0.08048313 -0.04247684 -0.0075678327 -0.13963321 -0.08720359 -0.114506274
-0.025909364 -0.053279687 -0.011764874 -0.088660866 -0.056740455 -0.04113829 -0.014552322 -0.078720346
0.10592114 -0.024195306 0.09215503 0.042133763 -0.11649137 0.09607834 -0.021485114 -0.031719245
-0.08548629 -0.10974213 0.053850908 -0.006674231 0.07238734 -0.08098303 0.09010797 -0.12135018
-0.020526255 0.061326593 0.09382823 0.1144366 0.10256935 -0.13472855 -0.0006976077 -0.07843311
-0.038345713 -0.11474394 0.11374199 -0.07018544 0.09282706 0.06728351 0.050851986 -0.05897569
0.114413224 0.026885811 0.036961824 -0.087433934 0.068139926 -0.010179567 -0.047108542 0.11762461
0.043009866 -0.05837628 -0.05187697 0.007365179 0.08158931 -0.012404723 -0.05947328 -0.031497236
-0.08623465 0.048408456 0.09355639 -0.11829019 0.029261418 0.06487083 0.027576292 -0.04117993
0.061244696 0.0615551 0.053062424 -0.00749767 -0.02219591 0.008447542 -0.031469204 -0.04938161
0.026975676 0.054613765 -0.028637458 -0.073158 -0.017065458 -0.037331417 -0.00038742894 0.0076213973
-0.13794309 -0.0730094 0.073993735 0.022230363 -0.018206375 -0.07187522 -0.06918178 -0.1230452
-0.038138613 0.07318024 0.10349068 0.05838268 -0.12507364 -0.098692775 -0.047495715 0.10929609
0.0093829855 -0.05922875 0.0104120625 -0.08333911 -0.10708301 0.07163126 -0.07015963 -0.026930759
-0.11555822 0.09702996 0.10918698 0.057546437 -0.07758964 -0.11445298 -0.094686545 0.098173924
0.065281145 0.1087479 0.0874954 0.06724307 0.029248174 -0.08558326 -0.11294425 -0.12334787
0.06957664 -0.041824393 -0.0096534435 -0.05118708 -0.002575643 -0.064074345 -0.05467673 0.067491226
-0.015996367 0.09669155 -0.024398837 -0.07524405 -0.016761815 -0.06848731 -0.05079241 -0.13143256
00000000: 2b08 ac3d 4967 bd3d c662 1cbd d991 cf3d
00000010: 24d5 15bd 6f64 e13b 8f61 90bd ce77 763d
00000020: a5a4 da3d eec8 b8bd 97ab ee3d 172a 873d
00000030: 7765 0f3e 3b10 913d dc47 043e 0d88 0d3d
00000040: b4ab 8d3d 647d 0cbd 1088 9cbd e357 1b3d
00000050: c7ac 44bd 6b55 60bc 60c5 73bd e8c7 853d
00000060: b91a e5bd 7223 38bd 2c73 a1bb 55fe 2fbd
00000070: eed2 043d e1b3 03be 3aa7 ef3d ca17 b5bd
00000080: 1de2 ec3d 360e 233d 25ac f6bc a174 9f3d
00000090: ecec db3c 8b20 e73d 3081 e33c 2473 8dbc
000000a0: e9e6 223d 385c 45bd f4cd bf3c 3b38 9c3d
000000b0: 6fea 353d 1a6b 92bd befb 823d 7998 983c
000000c0: f926 833d 581f a4bd dcc3 0bbe 80cd 92bd
000000d0: cf75 04be dbb1 7a3d 91f1 4abc 861e 303b
000000e0: 2ed1 c1bb 656b 1abd 2c79 8f3d f9fb 01be
000000f0: 8a88 4fbc 8612 acbd 8f0d 283d 3bc8 36bd
00000100: 28cc 033d 8585 09bd 72ef d63d 3044 a2bd
00000110: eed9 85bd ccc7 b5bd b8f1 f93d 6f62 0e3d
00000120: 4d2a eb3d c019 e4bd 5d8f 06be 189e d1bd
00000130: a159 acbd 22bf 323d b324 313d f4a0 ee3d
00000140: 19a1 25bd 8568 7bbd 8b23 953d ce83 34bd
00000150: 6945 a83d 0457 d0bc b406 7b3d bbed ffbd
00000160: 041c c7bd b548 183c ee7c f63b a57d 17bd
00000170: db57 a03d 9b72 b83d b573 bcbd e607 95bd
00000180: 90d2 e63d ac6e 02bd a634 eabc 8fe2 c1bd
00000190: 5cd8 40bd a87d 813d 9d2d 553c 1acb 63bd
000001a0: 7d56 ff3c 4143 98bd 36f4 e5bd 6fd8 c9bd
000001b0: 29ed 01be 134e 8dbd 31e6 123e 2f68 383d
000001c0: 6b74 673d 7428 d4bd 57d4 a4bd 32fc 2dbd
000001d0: 95fb f7bb 02fc 0ebe cc97 b2bd 4482 eabd
000001e0: e03f d4bc cd3b 5abd 75c1 40bc d493 b5bd
000001f0: ae68 68bd a080 28bd dd6c 6ebc 2238 a1bd
00000200: 2fed d83d 3c35 c6bc c7bb bc3d 7494 2c3d
00000210: 0793 eebd b9c4 c43d 8d01 b0bc 0aec 01bd
00000220: 7013 afbd 7bc0 e0bd c592 5c3d 82b3 dabb
00000230: d03f 943d 6eda a5bd 878a b83d 7186 f8bd
00000240: ad26 a8bc 9831 7b3d 0429 c03d bc5d ea3d
00000250: e10f d23d 48f6 09be a9df 36ba 8aa1 a0bd
00000260: 6510 1dbd dffe eabd 8ff1 e83d 62bd 8fbd
00000270: 1d1c be3d f0cb 893d 2c4a 503d 7e90 71bd
00000280: 7b51 ea3d a23f dc3c 4865 173d 9010 b3bd
00000290: f28c 8b3d 33c8 26bc e3f4 40bd 2ce5 f03d
000002a0: 1d2b 303d f71b 6fbd f27c 54bd 9957 f13b
000002b0: 4c18 a73d 2e3d 4bbc 419a 73bd 3f03 01bd
000002c0: cb9b b0bd f247 463d 7e9a bf3d 2142 f2bd
000002d0: a4b5 ef3c ffda 843d ade7 e13c 49ac 28bd
000002e0: b8db 7a3d 3321 7c3d fc57 593d 04af f5bb
000002f0: 32d4 b5bc 8f67 0a3c dae5 00bd 5f44 4abd
00000300: 18fc dc3c afb2 5f3d 1a99 eabc ddd3 95bd
00000310: dccc 8bbc d4e8 18bd d51f cbb9 eabc f93b
00000320: f440 0dbe f485 95bd 078a 973d 731c b63c
00000330: 8925 95bc 5133 93bd 2daf 8dbd 1fff fbbd
00000340: 3c37 1cbd 86df 953d ecf2 d33d ad22 6f3d
00000350: 4e13 00be 701f cabd de8a 42bd a1d6 df3d
00000360: 18bb 193c d999 72bd 5b97 2a3c b2ad aabd
00000370: 564e dbbd 69b3 923d daaf 8fbd e59d dcbc
00000380: caa9 ecbd a5b7 c63d 6c9d df3d d0b5 6b3d
00000390: 51e7 9ebd 5366 eabd 05eb c1bd 690f c93d
000003a0: 1fb2 853d 38b7 de3d ca30 b33d bcb6 893d
000003b0: de99 ef3c 4746 afbd 514f e7bd cf9d fcbd
000003c0: 337e 8e3d 0e50 2bbd 7a29 1ebc 8ba9 51bd
000003d0: 1ecc 28bb 6939 83bd b5f4 5fbd d738 8a3d
000003e0: d00a 83bc 3806 c63d 12e0 c7bc 8d19 9abd
000003f0: 1350 89bc 1343 8cbd b40b 50bd 4296 06be

phi.initial_conv_module.0._layers.1.weight f4 [64]
0.9595213 1.040251 0.9743816 0.9900842 0.9760088 1.0114222 0.972424 0.9910131
1.0400276 0.9932094 0.9698293 0.91468334 1.028686 0.9766031 1.0044714 1.0135037
0.9568737 0.96763724 0.9908601 1.0279865 0.9309346 1.0457395 1.0071326 1.001447
1.0170254 0.98911 0.9936456 1.001226 1.0168852 0.99488646 1.0124475 0.98640347
1.0134889 0.9578693 0.97948986 1.0028712 1.005805 0.97051835 1.0011917 1.0283623
0.9465836 1.0053 0.9983165 0.96555567 1.0278386 1.0507553 0.9785435 0.9492941
0.9647402 0.9851845 0.9874787 0.9983077 0.93517965 1.0290816 0.9725255 1.0113727
1.0201898 1.014677 0.99426645 0.9872012 1.0651346 1.0361148 0.9546447 0.9466453
00000000: 30a3 753f f226 853f 1371 793f 2876 7d3f
00000010: b6db 793f 4876 813f c7f0 783f 09b3 7d3f
00000020: a01f 853f f942 7e3f bc46 783f b028 6a3f
00000030: fcab 833f a902 7a3f 8592 803f 7dba 813f
00000040: adf5 743f 13b7 773f 02a9 7d3f 1095 833f
00000050: bb51 6e3f cbda 853f b9e9 803f 6a2f 803f
00000060: e32d 823f 5036 7d3f 8f5f 7e3f 2c28 803f
00000070: 4b29 823f e1b0 7e3f e197 813f f084 7c3f
00000080: 01ba 813f ec36 753f d9bf 7a3f 155e 803f
00000090: 38be 803f e473 783f 0d27 803f 60a1 833f
000000a0: 4e53 723f acad 803f ac91 7f3f a82e 773f
000000b0: 3790 833f 267f 863f d481 7a3f f004 733f
000000c0: 37f9 763f 0d35 7c3f 67cb 7c3f 1891 7f3f
000000d0: ef67 6f3f f2b8 833f 6ef7 783f a974 813f
000000e0: 9495 823f f0e0 813f 3f88 7e3f 38b9 7c3f
000000f0: 5556 883f 699f 843f 9863 743f 5957 723f

phi.initial_conv_module.0._layers.1.bias f4 [64]
0.0011712139 -0.022027144 0.016800897 -0.00076263 0.028474526 -0.03608178 -0.008133357 0.009789567
-0.01845529 -0.0009205083 0.013030895 0.014366762 -0.01579349 -0.040127054 0.018292533 -0.013288454
0.012396215 -0.032795448 -0.0042985207 -0.0124170445 0.057988994 -0.037995603 0.034738887 0.005720155
-0.0017387322 0.009453663 0.024202209 -0.0020521623 0.017050954 0.008400048 -0.015681624 0.04703952
0.01399124 0.044324495 -0.006286823 0.009553668 -0.021362277 0.032585293 0.056418862 0.055571448
0.025862804 0.017083446 -0.03441888 0.006143261 0.02725536 0.023269508 0.0012109933 0.049773067
0.008161663 -0.008064142 0.022910522 0.0134643745 0.025522504 -0.0063364794 0.011657102 0.0005695044
-0.020355243 0.0022159931 -0.010698626 -0.009300204 -0.017777735 -0.007219509 -0.0022603397 0.033011094
00000000: 6b83 993a 4572 b4bc 09a2 893c 3ceb 47ba
00000010: 6943 e93c 7dca 13bd c641 05bc 6c64 203c
00000020: 8c2f 97bc 444e 71ba 897f 553c 9162 6b3c
00000030: 5961 81bc 445c 24bd 39da 953c d1b7 59bc
00000040: 7f19 4b3c 8554 06bd 9bda 8cbb dc70 4bbc
00000050: de85 6d3d 47a1 1bbd 5d4a 0e3d 2370 bb3b
00000060: 2ce6 e3ba 89e3 1a3c b643 c63c 927d 06bb
00000070: 71ae 8b3c 5ba0 093c c076 80bc 83ac 403d
00000080: 843b 653c 9a8d 353d b201 cebb fd86 1c3c
00000090: f1ff aebc 2878 053d 7717 673d e39e 633d
000000a0: 3bde d33c 95f2 8b3c d0fa 0cbd 694d c93b
000000b0: a246 df3c b29f be3c 31ba 9e3a d8de 4b3d
000000c0: 7fb8 053c 771f 04bc d9ae bb3c ae99 5c3c
000000d0: 9214 d13c 3ea2 cfbb 6efd 3e3c cb4a 153a
000000e0: 0ac0 a6bc 323a 113b 4a49 2fbc e25f 18bc
000000f0: 9da2 91bc a291 ecbb 3522 14bb a436 073d

phi.initial_conv_module.0._layers.1.running_mean f4 [64]
0.66054225 0.41240606 0.07566887 -0.018835308 -0.05264417 -0.6444825 -0.56079865 0.30753902
0.69082975 -0.07511003 0.32146084 -0.1694934 0.091862544 -0.012284109 0.09465247 1.1542068
-0.08731998 0.31932655 0.2130073 0.7242969 0.021051066 0.1418617 0.17616907 -0.1904023
0.56443834 0.47058097 0.3215557 1.1814723 -0.5274633 0.59251136 -0.015750995 0.3132799
0.20467257 0.41341656 -0.6841265 0.045660045 -0.0071686115 0.007279981 0.05896785 -0.0051464667
-0.22057687 0.20702924 -0.89857787 -1.3926882 -0.13700382 0.18900076 -0.87432283 0.338835
0.6654793 0.18178682 0.4445603 0.42799965 -0.45876893 0.08632281 0.6472695 0.19226451
-0.15035957 -0.028714653 0.123157576 -0.45965093 0.2394801 0.6632651 0.11725559 0.9770136
00000000: 4c19 293f e326 d33e 48f8 9a3d 814c 9abc
00000010: 6aa1 57bd cefc 24bf 8090 0fbf c175 9d3e
00000020: 38da 303f 4ad3 99bd 8496 a43e ae8f 2dbe
00000030: 6e22 bc3d 4a43 49bc 27d9 c13d 0cbd 933f
00000040: d1d4 b2bd c57e a33e 961e 5a3e 866b 393f
00000050: 4973 ac3c 3244 113e aa65 343e d2f8 42be
00000060: 087f 103f fdef f03e f3a2 a43e 7c3a 973f
00000070: d607 07bf d3ae 173f 3b08 81bc 3966 a03e
00000080: b095 513e 56ab d33e ea22 2fbf 0706 3b3d
00000090: ace6 eabb e88c ee3b 4688 713d b1a3 a8bb
000000a0: e7de 61be 79ff 533e 3309 66bf 9b43 b2bf
000000b0: bb4a 0cbe 6a89 413e 9fd3 5fbf c87b ad3e
000000c0: da5c 2a3f 5326 3a3e 689d e33e c522 db3e
000000d0: c3e3 eabe 03ca b03d 74b3 253f fde0 443e
000000e0: dcf7 19be fe3a ebbc 0a3a fc3d 5e57 ebbe
000000f0: 453a 753e becb 293f b323 f03d 901d 7a3f

phi.initial_conv_module.0._layers.1.running_var f4 [64]
0.32118 0.24094951 0.10584186 0.12388304 0.24237962 0.22409096 0.34772518 0.21117866
0.41926286 0.28537413 0.09360736 0.34472507 0.13600934 0.2738263 0.10793192 0.32726502
0.084523566 0.3218938 0.29988682 0.14787926 0.19626173 0.13478579 0.2312704 0.24699976
0.11674385 0.13569131 0.17383268 0.4636239 0.17271745 0.13314584 0.12307403 0.23360652
0.10028427 0.31216314 0.16955075 0.22056817 0.13920867 0.13895813 0.11014257 0.15401575
0.13008201 0.13608572 0.19472316 0.31532943 0.21937525 0.15719117 0.6499994 0.1300558
0.18587425 0.21732028 0.19510709 0.4413706 0.19022988 0.24762994 0.1382918 0.28766307
0.0955305 0.21367513 0.14638048 0.16678262 0.2009871 0.3941897 0.13910463 0.18107581
00000000: b471 a43e 78bb 763e 9ec3 d83d 64b6 fd3d
00000010: 5d32 783e 1a78 653e 0909 b23e 383f 583e
00000020: 9fa9 d63e 8f1c 923e 37b5 bf3d ce7f b03e
00000030: 0846 0b3e f632 8c3e 690b dd3d 488f a73e
00000040: b11a ad3d 44cf a43e c48a 993e a96d 173e
00000050: d6f8 483e 4905 0a3e 26d2 6c3e 81ed 7c3e
00000060: 6617 ef3d aaf2 0a3e 3201 323e 1d60 ed3e
00000070: d8dc 303e 6257 083e 3d0e fc3d 8c36 6f3e
00000080: d761 cd3d d9d3 9f3e b69e 2d3e 9fdc 613e
00000090: b88c 0e3e 0a4b 0e3e 6e92 e13d 4eb6 1d3e
000000a0: 3834 053e 0e5a 0b3e 8265 473e dc72 a13e
000000b0: e8a3 603e b9f6 203e 5c66 263f 592d 053e
000000c0: d255 3e3e 3589 5e3e 27ca 473e 54fb e13e
000000d0: 9fcb 423e b492 7d3e 5e9c 0d3e 9348 933e
000000e0: 7fa5 c33d a7cd 5a3e c4e4 153e 10c9 2a3e
000000f0: 90cf 4d3e 3bd3 c93e 7271 0e3e f06b 393e

phi.initial_conv_module.0._layers.4.conv.weight f4 [64, 1, 5]
-0.31132033 0.3783738 0.34824592 0.35353082 -0.16931051 0.2664092 -0.3833214 0.19455245
-0.060316075 -0.3844312 -0.30551496 -0.39900565 0.08290746 -0.19722664 -0.2559294 0.4348089
-0.11475601 0.15882146 -0.04479131 0.27336597 0.16346052 0.30716935 0.13075924 -0.08359722
0.36589324 -0.055778522 -0.26661605 0.16415904 -0.028115315 -0.30676728 0.10390216 -0.033496168
-0.14253162 -0.21884243 -0.21066597 -0.17026335 0.0582871 0.4424566 -0.24781214 -0.21329077
-0.2642046 -0.007468 0.021268489 -0.30528682 0.22050925 -0.43974164 0.3665921 0.037352752
-0.09396527 -0.20867918 0.15953474 0.30289134 -0.28859147 -0.08626786 0.37802848 -0.08595466
-0.276305 -0.130777 -0.020688027 -0.15123083 -0.26527634 -0.24314368 0.14999296 0.34447417
0.4503029 -0.022542842 0.18896472 -0.32396898 0.26061612 0.46891055 0.22215658 -0.18741047
0.34755877 -0.43855697 -0.082826674 -0.053890944 -0.44471717 -0.30139986 -0.33434826 0.118903555
-0.043948382 0.19717722 -0.078445934 0.383503 0.05977563 0.39063394 0.37595332 -0.3654485
-0.2914395 0.2681551 0.3986911 -0.40001982 -0.009264731 -0.17084308 0.42515963 0.34077382
0.31037062 0.20092727 -0.035061058 0.45601377 -0.17649713 0.055076465 -0.08229398 -0.3598282
-0.24217686 0.15196352 -0.0035830538 -0.25822836 -0.025121648 0.11204307 -0.28020895 0.26706797
-0.406315 -0.042229883 -0.3788679 -0.34395924 -0.0056682727 0.43826467 0.48763862 0.21616474
0.37331945 -0.23095228 0.26997402 0.29175016 -0.40162852 -0.34997997 0.17966272 0.019291757
-0.30026764 -0.3694032 0.36551836 0.11767964 0.06291184 -0.3665242 0.44155556 -0.32215053
0.16988122 -0.082150586 -0.012596948 0.19903816 -0.13975692 -0.137162 0.3375071 -0.35903817
0.18969573 -0.10615095 -0.13951367 0.31081244 0.07410528 -0.40773576 0.4134856 -0.2230627
0.35098594 -0.13415289 0.44743204 0.14249872 -0.012185434 0.17401047 -0.011302617 -0.21990056
0.2288494 0.23788781 -0.08452929 0.4516159 0.06324335 -0.27828345 -0.26846576 0.27250898
-0.21269907 0.24551156 -0.45921668 -0.0051155435 -0.32427 0.13923025 0.34338474 0.16007785
-0.19301315 -0.42981803 -0.166873 -0.26986107 0.4293611 -0.21202837 0.20849505 0.36107212
0.15514347 -0.43518823 -0.07984455 -0.16684255 0.24362049 -0.09011334 -0.0033971947 0.39508057
0.09887871 0.17002334 -0.18096502 0.29376018 0.06922885 -0.08537872 0.0873232 -0.3532415
0.019074293 0.21019708 -0.42194933 -0.24715413 0.27032173 0.015822375 -0.006805871 0.063680276
-0.16473694 0.40465343 -0.022119023 -0.12868288 0.25426242 -0.37788624 -0.092196375 0.0029767347
-0.17269766 0.2302488 -0.37254703 -0.16109042 -0.15726261 0.44534418 0.21921396 -0.31712422
0.16450664 -0.012124566 0.35263288 0.27474567 -0.21174194 0.44907522 -0.0863541 -0.10333262
0.12087346 0.450628 0.13520743 -0.46655864 -0.1738752 0.38139114 -0.190605 -0.23896495
-0.4067296 -0.29382306 -0.28765947 0.062885 0.11747984 0.44171396 0.2922757 -0.008143209
0.23127776 0.23788051 -0.4031735 0.21153916 -0.3224651 0.3298817 -0.20601778 0.084852755
00000000: 6165 9fbe 36ba c13e 4a4d b23e fe01 b53e
00000010: bc5f 2dbe c966 883e b442 c4be c238 473e
00000020: fd0d 77bd 2bd4 c4be 756c 9cbe 784a ccbe
00000030: 63cb a93d c8f5 49be 2e09 83be 469f de3e
00000040: 3305 ebbd 18a2 223e 1877 37bd a0f6 8b3e
00000050: 3262 273e 4d45 9d3e c0e5 053e 0535 abbd
00000060: 5c56 bb3e 0578 64bd e681 88be 4f19 283e
00000070: 1752 e6bc 9a10 9dbe a8ca d43d 4733 09bd
00000080: cff3 11be 3b18 60be d2b8 57be 8459 2ebe
00000090: 74be 6e3d ac89 e23e 77c2 7dbe e568 5abe
000000a0: d345 87be 20b6 f4bb 413b ae3c 8e4e 9cbe
000000b0: 2dcd 613e d125 e1be f6b1 bb3e 33ff 183d
000000c0: dd70 c0bd ffaf 55be 135d 233e 9314 9b3e
000000d0: 43c2 93be 34ad b0bd f38c c13e ff08 b0bd
000000e0: d977 8dbe 68ea 05be f079 a9bc 41dc 1abe
000000f0: 4dd2 87be a8fa 78be c197 193e eb5e b03e
00000100: 1a8e e63e c4ab b8bc f87f 413e 43df a5be
00000110: 7a6f 853e 0b15 f03e 047d 633e 88e8 3fbe
00000120: 39f3 b13e 8a8a e0be 08a1 a9bd c0bc 5cbd
00000130: f8b1 e3be 1551 9abe b22f abbe b583 f33d
00000140: 3803 34bd d3e8 493e 43a8 a0bd 815a c43e
00000150: 4ad7 743d 2c01 c83e f47c c03e 111c bbbe
00000160: 8f37 95be a04b 893e 3d21 cc3e 66cf ccbe
00000170: 19cb 17bc 7df1 2ebe 86ae d93e e879 ae3e
00000180: e6e8 9e3e e1bf 4d3e 2f9c 0fbd a37a e93e
00000190: aabb 34be dc97 613d bf89 a8bd 673b b8be
000001a0: 36fd 77be 539c 1b3e abd1 6abb 8236 84be
000001b0: eacb cdbc d676 e53d 8c77 8fbe 22bd 883e
000001c0: 8508 d0be 3ef9 2cbd f9fa c1be 6d1b b0be
000001d0: ebbc b9bb 3a64 e03e c5ab f93e 4a5a 5d3e
000001e0: ba23 bf3e c17e 6cbe 093a 8a3e 4760 953e
000001f0: 41a2 cdbe 9330 b3be 81f9 373e bf09 9e3c
00000200: aebc 99be 6b22 bdbe 3925 bb3e 0602 f13d
00000210: ecd7 803d 0fa9 bbbe 9213 e23e eaf0 a4be
00000220: 58f5 2d3e 913e a8bd 6e63 4ebc a9d0 4b3e
00000230: 701c 0fbe 3274 0cbe bbcd ac3e dad3 b7be
00000240: 993f 423e ab65 d9bd acdc 0ebe cf22 9f3e
00000250: 82c4 973d bec2 d0be 62b4 d33e 8c6a 64be
00000260: 6eb4 b33e 605f 09be d015 e53e 2feb 113e
00000270: 6aa5 47bc cd2f 323e 9d2e 39bc 9d2d 61be
00000280: 7f57 6a3e dd98 733e b11d adbd 333a e73e
00000290: bb85 813d 2b7b 8ebe 5874 89be 4c86 8b3e
000002a0: c9cd 59be 6267 7b3e 731e ebbe 4aa0 a7bb
000002b0: b806 a6be 6092 0e3e 20d0 af3e 73eb 233e
000002c0: 3da5 45be 1c11 dcbe c1e0 2abe 3b2b 8abe
000002d0: 38d5 db3e f71d 59be ba7f 553e 72de b83e
000002e0: eedd 1e3e fed0 debe 8a85 a3bd c6d8 2abe
000002f0: a677 793e 588d b8bd 78a3 5ebb 0048 ca3e
00000300: ec80 ca3d 991a 2e3e e54e 39be bc67 963e
00000310: dbc7 8d3d 0adb aebd 82d6 b23d 12dc b4be
00000320: b141 9c3c e73d 573e be09 d8be f915 7dbe
00000330: 9c67 8a3e ed9d 813c c903 dfbb ce6a 823d
00000340: cdb0 28be bc2e cf3e f432 b5bc 72c5 03be
00000350: af2e 823e 4e7a c1be 74d1 bcbd 5215 433b
00000360: a8d7 30be 57c6 6b3e 7cbe bebe e3f4 24be
00000370: 7309 21be 2704 e43e a079 603e 1b5e a2be
00000380: 6e74 283e 1ea6 46bc 4c8c b43e 77ab 8c3e
00000390: e1d2 58be 30ed e53e 6bda b0bd 0da0 d3bd
000003a0: 818c f73d b7b8 e63e d173 0a3e c6e0 eebe
000003b0: 570c 32be b345 c33e f52d 43be 3ab3 74be
000003c0: dd3e d0be fa6f 96be 1a48 93be dac9 803d
000003d0: 4599 f03d 5528 e23e 29a5 953e 186b 05bc
000003e0: 14d4 6c3e f396 733e c26c cebe b99d 583e
000003f0: 251a a5be 41e6 a83e 53f6 52be 48c7 ad3d

phi.initial_conv_module.0._layers.5.weight f4 [64]
0.9532381 0.9674225 1.0276767 0.99716014 0.98260295 0.9863819 1.0119529 1.090287
0.98520243 0.969145 0.98114705 1.0235074 1.016281 0.97320443 1.0181156 1.022642
0.96524763 0.9565688 0.98753947 1.0376999 1.0126162 1.0278815 0.9984857 1.0072726
1.0540332 0.98338985 1.0423712 0.9859929 0.9669247 0.98887753 0.98377013 1.0258714
1.0061746 1.0151671 1.0255637 1.000122 0.97059953 1.0074651 1.0006361 1.041587
1.0112058 1.008167 0.9915733 1.02796 1.025743 1.0355467 0.9945755 1.027888
1.0209743 0.9811918 1.0018226 1.0147563 1.0250516 0.9940371 0.99955726 1.0147005
0.9833498 1.0499252 1.0042399 1.0106479 1.0327852 0.96059835 0.96724504 0.9326909
00000000: 6a07 743f 00a9 773f e98a 833f e345 7f3f
00000010: de8b 7b3f 8683 7c3f ac87 813f 868e 8b3f
00000020: 3a36 7c3f e319 783f 742c 7b3f 4a02 833f
00000030: 7f15 823f ed23 793f 9d51 823f efe5 823f
00000040: 781a 773f b1e1 743f 63cf 7c3f 5ad3 843f
00000050: 689d 813f 9f91 833f c29c 7f3f 4fee 803f
00000060: 8fea 863f 70bf 7b3f 6b6c 853f 086a 7c3f
00000070: 6188 773f 1427 7d3f 5cd8 7b3f c14f 833f
00000080: 54ca 803f fff0 813f ac45 833f ff03 803f
00000090: 3679 783f 9ef4 803f d814 803f b952 853f
000000a0: 316f 813f 9e0b 813f bfd7 7d3f 3194 833f
000000b0: 8c4b 833f cb8c 843f 809c 7e3f d591 833f
000000c0: 49af 823f 632f 7b3f b93b 803f 89e3 813f
000000d0: e434 833f 3779 7e3f fce2 7f3f b5e1 813f
000000e0: d0bc 7b3f f363 863f ef8a 803f e95c 813f
000000f0: 4e32 843f c6e9 753f 5f9d 773f d5c4 6e3f

phi.initial_conv_module.0._layers.5.bias f4 [64]
-0.031980243 0.016623132 0.060889225 0.0022450294 0.00079567754 -0.017860802 -0.0019971018 0.09374443
-0.049746532 0.011057716 -0.002380255 0.014302256 0.02046247 -0.014803336 0.03563251 0.029054975
-0.008027486 -0.030940762 -0.0038436728 0.03512621 -0.011021531 -0.023613116 0.038055975 0.027250241
0.03995683 -0.024319211 0.046981715 0.009737966 -0.018475331 -0.016164644 -0.0024170163 -0.05176823
0.021323085 -0.0011522877 0.019044204 0.016951784 -0.02477617 0.011212743 0.017735533 0.007813712
0.0106623005 0.015330452 0.022288913 -0.0049354807 0.03130566 0.0281385 0.0059627565 0.030814342
0.047655854 -0.020537695 0.049470644 -0.01363853 0.0069466666 -0.05719129 0.025353173 0.005194518
-0.036341432 0.013771402 -0.0004455419 0.038006186 0.0361875 -0.00035518655 -0.035447642 -0.009545393
00000000: b7fd 02bd 3c2d 883c fb66 793d 5821 133b
00000010: 0495 503a d150 92bc cfe1 02bb 14fd bf3d
00000020: 05c3 4bbd 6c2b 353c 0dfe 1bbb 0254 6a3c
00000030: e9a0 a73c b189 72bc 65f3 113d b304 ee3c
00000040: b785 03bc 7b77 fdbc 21e6 7bbb 80e0 0f3d
00000050: a793 34bc 4b70 c1bc 95e0 1b3d e63b df3c
00000060: c6a9 233d 1539 c7bc e66f 403d fd8b 1f3c
00000070: 9459 97bc b76b 84bc ce66 1ebb ec0a 54bd
00000080: c0ad ae3c 5c08 97ba 9702 9c3c 78de 8a3c
00000090: 65f7 cabc a7b5 373c 1c4a 913c 1505 003c
000000a0: eeb0 2e3c 932c 7b3c 3d97 b63c d0b9 a1bb
000000b0: 5d3a 003d b682 e63c 3a63 c33b 5c6e fc3c
000000c0: c932 433d ab3e a8bc bba1 4a3d 2474 5fbc
000000d0: dda0 e33b 6a41 6abd 75b1 cf3c c636 aa3b
000000e0: c1da 14bd 72a1 613c 9f97 e9b9 60ac 1b3d
000000f0: 5839 143d 5538 bab9 8c31 11bd 4864 1cbc

phi.initial_conv_module.0._layers.5.running_mean f4 [64]
0.08174319 -0.056857407 -0.18726905 0.08825149 0.12652265 -0.06148381 -0.07923144 -0.020522397
-0.060065106 -0.050509043 0.07330721 -0.09853063 0.07297975 0.08642784 -0.02707126 -0.1703885
0.083108105 0.054278225 0.04048422 0.20525016 -0.1298981 -0.0035514268 -0.14205214 0.124553286
0.05076185 -0.14331482 0.1119746 -0.008030373 -0.018497208 -0.045833427 0.13541295 0.010939578
0.14281395 -0.043483272 -0.045773555 -0.12863098 0.13934752 -0.08833086 0.08833427 0.001489872
-0.028609788 0.05694812 -0.054962706 -0.04811362 0.06424933 0.16506363 0.06813228 -0.12248113
-0.11932145 0.20400755 -0.06978018 -0.005688459 -0.07358049 -0.05776014 -0.112376496 -0.11006084
-0.05219481 -0.018828897 -0.01578093 -0.059709784 0.12338949 -0.062421326 0.061155323 -0.034864843
00000000: f968 a73d 50e3 68bd 75c3 3fbe 32bd b43d
00000010: 278f 013e 73d6 7bbd 1844 a2bd 961e a8bc
00000020: d406 76bd 92e2 4ebd 1722 963d 6dca c9bd
00000030: 6876 953d 1401 b13d 8cc4 ddbc 537a 2ebe
00000040: 9534 aa3d d852 5e3d c8d2 253d 192d 523e
00000050: 0204 05be 0ebf 68bb 1e76 11be cb15 ff3d
00000060: a8eb 4f3d 1fc1 12be f052 e53d d391 03bc
00000070: 7587 97bc d5bb 3bbd b1a9 0a3e ea3b 333c
00000080: d23d 123e 841b 32bd 0d7d 3bbd d7b7 03be
00000090: 1eb1 0e3e cfe6 b4bd 99e8 b43d cf47 c33a
000000a0: 135f eabc 6f42 693d 9320 61bd ca12 45bd
000000b0: 2795 833d 7106 293e f088 8b3d 63d7 fabd
000000c0: ce5e f4bd 5be7 503e e9e8 8ebd 4166 babb
000000d0: 5eb1 96bd e695 6cbd a625 e6bd 9467 e1bd
000000e0: 3aca 55bd 0f3f 9abc 0247 81bc 3f92 74bd
000000f0: a1b3 fc3d 81ad 7fbd 017e 7a3d 70ce 0ebd

phi.initial_conv_module.0._layers.5.running_var f4 [64]
0.106903695 0.042291675 0.3667761 0.09323751 0.22774708 0.061138857 0.040137377 0.024612406
0.056464948 0.022637844 0.0654617 0.057600934 0.20018573 0.12741406 0.03047927 0.44864872
0.08603868 0.040010653 0.036077246 0.77843595 0.18832642 0.006245811 0.22923447 0.23352864
0.07106479 0.17540687 0.11034981 0.011831588 0.0087196985 0.024491917 0.314393 0.004573685
0.22722887 0.03951537 0.04401365 0.2156798 0.3607558 0.09008201 0.12866747 0.040894136
0.018154169 0.03682153 0.074080504 0.041572638 0.08833113 0.2718208 0.054836083 0.14343227
0.18823807 0.44655386 0.054846473 0.012478586 0.0565623 0.036095496 0.12937427 0.09744539
0.06595877 0.0111392625 0.006475246 0.07019176 0.3217108 0.059276566 0.062201094 0.018545287
00000000: 53f0 da3d 093a 2d3d 14ca bb3e 4ff3 be3d
00000010: 8836 693e bd6c 7a3d 1767 243d f59f c93c
00000020: ca47 673d 0073 b93c c910 863d f5ee 6b3d
00000030: 7dfd 4c3e d578 023e a9af f93c 49b5 e53e
00000040: 0c35 b03d 36e2 233d bcc5 133d 9447 473f
00000050: a4d8 403e a9a9 cc3b 71bc 6a3e 2222 6f3e
00000060: 6b8a 913d dc9d 333e 15ff e13d 47d9 413c
00000070: 11dd 0e3c 46a3 c83c 1ff8 a03e dade 953b
00000080: afae 683e deda 213d a847 343d 2adb 5c3e
00000090: fcb4 b83e eb7c b83d 68c1 033e 9c80 273d
000000a0: 0db8 943c 2cd2 163d 85b7 973d 1248 2a3d
000000b0: f4e6 b43d 192c 8b3e cd9b 603d e9df 123e
000000c0: 7bc1 403e b5a2 e43e b2a6 603d fc72 4c3c
000000d0: dfad 673d dfd8 133d b07a 043e 7391 c73d
000000e0: 6415 873d 7481 363c 4d2e d43b b3c0 8f3d
000000f0: 47b7 a43e fccb 723d 93c6 7e3d 49ec 973c

phi.initial_conv_module.0._layers.7.se_conv.conv.weight f4 [10, 64, 1]
0.10125994 -0.13147004 -0.061675552 -0.024790427 -0.1264808 -0.10191152 -0.12652448 0.116722755
0.052523144 -0.046172343 -0.008592259 -0.13621184 -0.17198893 -0.12789968 -0.1369733 0.10113546
-0.080002755 -0.019855248 -0.11371755 0.022163372 -0.017399535 -0.07749985 0.108540855 0.13791801
-0.063355714 0.054628804 -0.018197356 -0.02373345 0.081790134 -0.05306141 0.07428869 0.10809574
-0.07530772 -0.086277485 -0.11874253 0.054917715 -0.097641475 -0.11008076 -0.118764415 -0.16260459
-0.10722846 0.112683095 0.078894526 0.10030731 -0.09098943 -0.025939062 -0.016105497 -0.007967389
-0.0906731 0.008259192 -0.15268278 0.026738929 0.14404057 0.0048587727 0.09179312 -0.09285485
0.018001344 -0.074216075 -0.036562514 -0.057972938 -0.1394432 -0.09184931 -0.04812392 0.015260751
0.012824712 -0.07681507 0.11656514 0.07601484 -0.07334062 0.02357334 0.08129419 -0.13369054
-0.07386484 0.08466538 0.02334885 0.057896975 -0.043452498 0.04083395 0.097974 0.019360539
-0.030946208 -0.1395497 -0.010032517 0.13123141 -0.13163902 0.017096648 0.05014982 -0.0016535642
-0.034610227 -0.031052338 -0.04034611 -0.059521865 -0.123954356 0.06168865 -0.028671468 0.0026489526
-0.027982952 0.036372665 -0.03826505 -0.06941424 -0.1329934 -0.08785541 -0.12690492 0.041010763
-0.093992345 -0.05266824 -0.10052305 -0.07375537 0.024949996 -0.08134028 0.018783689 0.017426971
-0.008077756 0.047146965 0.027703809 0.074405745 0.008020785 0.12140905 0.12509158 0.021976192
0.0646912 -0.052146655 -0.074792705 0.025906207 0.05401379 0.14600445 0.03496028 -0.023241702
0.07764114 0.014266017 0.1347277 -0.060763676 -0.057447452 -0.0073159947 0.047341205 -0.12652516
-0.028004067 0.059172563 0.04115672 0.11413295 -0.03820615 -0.036036666 -0.108626805 -0.037659843
-0.079431556 0.022866525 0.040636633 -0.058814097 0.11415526 0.04104828 1.7554286e-05 -0.038993984
0.07273775 -0.07824158 0.078625605 -0.05632518 0.031818926 -0.03752314 0.08682907 -0.11161361
-0.027447999 -0.041339874 -0.05691576 -0.07230242 -0.07051447 -0.0027438737 0.09431324 -0.029025907
0.12562053 -0.081032015 -0.11779106 -0.043745454 0.018590117 0.037111938 0.108550884 0.027774263
-0.10051956 -0.0674275 0.006019758 -0.1351913 0.006356165 0.08294964 0.06299345 -0.02413895
-0.032620553 -0.07508955 -0.008878201 0.08013263 -0.045071777 0.022291226 -0.079578914 -0.04981935
-0.007350593 -0.07840289 0.044267576 -0.102686696 -0.023222394 0.07071721 0.15935135 0.031006124
-0.100292295 -0.0776304 0.020903215 -0.02564343 0.13459423 -0.07393415 0.07472515 0.020518526
0.009128629 0.12334073 0.072420925 0.017946582 -0.07406545 0.008377831 0.036695253 0.105379544
0.018716667 -0.034905683 -0.098008305 0.12981117 0.12509716 0.082833126 -0.05749655 0.12595022
0.008982105 0.12770076 0.087474555 -0.13577928 0.04842244 0.055166762 -0.055862457 0.20447126
0.12845193 0.11175186 0.0027065503 -0.08053187 -0.005321244 0.068722345 -0.06367582 0.13663688
0.10602022 0.0162369 -0.08481228 0.07152648 0.12589444 -0.049296644 -0.06498354 0.005844404
0.010885976 -0.07071155 0.06689394 0.07164649 -0.03928245 -0.03256531 -0.05841504 0.09682969
00000000: 5f61 cf3d 15a0 06be 819f 7cbd 4b15 cbbc
00000010: 2f84 01be fdb6 d0bd a28f 01be 570c ef3d
00000020: 8222 573d 361f 3dbd 8cc6 0cbc 1e7b 0bbe
00000030: de1d 30be 22f8 02be bb42 0cbe 1c20 cf3d
00000040: 7cd8 a3bd 79a7 a2bc bfe4 e8bd f68f b53c
00000050: 7889 8ebc 3eb8 9ebd ab4a de3d 613a 0d3e
00000060: a4c0 81bd 74c2 5f3d 9f12 95bc a76c c2bc
00000070: 9681 a73d ec56 59bd ab24 983d 4d61 dd3d
00000080: ef3a 9abd 40b2 b0bd 492f f3bd 66f1 603d
00000090: 41f8 c7bd 0672 e1bd c23a f3bd d181 26be
000000a0: 989a dbbd 65c6 e63d 7493 a13d eb6d cd3d
000000b0: ab58 babd 287e d4bc adef 83bc a789 02bc
000000c0: d1b2 b9bd 9051 073c e058 1cbe 990b db3c
000000d0: 5f7f 133e 5736 9f3b 08fe bb3d af2a bebd
000000e0: 8e77 933c 99fe 97bd 93c2 15bd 0875 6dbd
000000f0: 33ca 0ebe 7e1b bcbd 961d 45bd 3b08 7a3c
00000100: be1e 523c 3851 9dbd b4b9 ee3d abad 9b3d
00000110: 9b33 96bd e11c c13c 917d a63d 2ce6 08be
00000120: 7346 97bd 0b65 ad3d 1646 bf3c 6125 6d3d
00000130: 3ffb 31bd 8041 273d 98a6 c83d fe99 9e3c
00000140: e782 fdbc 1ee6 0ebe 6d5f 24bc 8761 063e
00000150: 61cc 06be 450e 8c3c e669 4d3d 68bc d8ba
00000160: 74c3 0dbd 7961 febc f641 25bd 33cd 73bd
00000170: c8db fdbd 3dad 7c3d 6de0 eabc 0d9a 2d3b
00000180: 813c e5bc 81fb 143d d0bb 1cbd 0e29 8ebd
00000190: 6c2f 08be 8aed b3bd 5df3 01be e7fa 273d
000001a0: 0f7f c0bd a7ba 57bd 07df cdbd 0e0d 97bd
000001b0: ef63 cc3c bc95 a6bd 40e0 993c 02c3 8e3c
000001c0: 9058 04bc 2d1d 413d 19f3 e23c 0a62 983d
000001d0: 9c69 033c 4fa5 f83d 0218 003e 6a07 b43c
000001e0: d27c 843d bb97 55bd eb2c 99bd 4139 d43c
000001f0: 903d 5d3d 3182 153e 8332 0f3d 6265 bebc
00000200: 5102 9f3d 03bc 693c 0ff6 093e 55e3 78bd
00000210: 054e 6bbd 03bb efbb dae8 413d d08f 01be
00000220: c968 e5bc ee5e 723d f393 283d 89be e93d
00000230: 0d7e 1cbd 2f9b 13bd bb77 debd 3541 1abd
00000240: 03ad a2bd 9452 bb3c 9972 263d 0de7 70bd
00000250: 3cca e93d 3e22 283d 8b41 9337 28b8 1fbd
00000260: 88f7 943d 1f3d a0bd 7606 a13d 3bb5 66bd
00000270: 9054 023d ddb1 19bd 70d3 b13d ad95 e4bd
00000280: a0da e0bc 0054 29bd 8020 69bd 4b13 94bd
00000290: e469 90bd 90d2 33bb 4d27 c13d bdc7 edbc
000002a0: aba2 003e 1df4 a5bd 703c f1bd 6f2e 33bd
000002b0: 4d4a 983c b002 183d ed4f de3d da86 e33c
000002c0: 33dd cdbd 6e17 8abd 6441 c53b 976f 0abe
000002d0: 6047 d03b 80e1 a93d b602 813d 0cbf c5bc
000002e0: 219d 05bd 8dc8 99bd e075 11bc 941c a43d
000002f0: 2f9d 38bd 179c b63c 45fa a2bd 600f 4cbd
00000300: 3edd f0bb b291 a0bd eb51 353d 674d d2bd
00000310: e43c bebc 2fd4 903d 002d 233e 8e00 fe3c
00000320: 0c66 cdbd b0fc 9ebd 383d ab3c 2c12 d2bc
00000330: 12d3 093e ca6a 97bd 8009 993d 7816 a83c
00000340: 3f90 153c 119a fc3d 6c51 943d b604 933c
00000350: a0af 97bd 2c43 093c c34d 163d 3bd1 d73d
00000360: b253 993c 43f9 0ebd 94b8 c8bd 38ed 043e
00000370: 7819 003e 6aa4 a93d 8181 6bbd 18f9 003e
00000380: ae29 133c fdc3 023e dc25 b33d b909 0bbe
00000390: 9c56 463d 8bf6 613d 08d0 64bd ea60 513e
000003a0: e788 033e 29de e43d 6160 313b e5ed a4bd
000003b0: d45d aebb 4dbe 8c3d 7868 82bd 8aea 0b3e
000003c0: 2121 d93d 3f03 853c 10b2 adbd 7a7c 923d
000003d0: 79ea 003e 47eb 49bd 1716 85bd 6a82 bf3b
000003e0: 185b 323c 38d1 90bd b1ff 883d 65bb 923d
000003f0: a2e6 20bd 3463 05bd 9c44 6fbd a54e c63d

phi.initial_conv_module.0._layers.7.se_conv2.conv.weight f4 [64, 10, 1]
-0.12931557 0.088139266 -0.038988315 -0.106511235 -0.2042333 0.06729289 -0.2875471 0.31364733
-0.08301014 0.031610698 0.111573175 -0.12884827 0.3170675 0.047938664 0.04587732 -0.28311735
0.009894966 0.120143145 0.020687416 -0.06512098 0.16670094 0.2694624 0.19001226 -0.08140749
0.066581674 -0.25645 -0.19926713 -0.080278754 0.07341523 -0.13314177 -0.20518228 0.12460534
0.07285307 -0.21487519 0.20734139 -0.24063796 0.252768 0.12892532 -0.08848179 0.32065234
-0.14260918 -0.10285005 0.24271956 -0.11456625 -0.1348334 0.034545444 -0.05421003 0.19533992
0.27218786 0.19201876 0.08054334 0.032030996 -0.052212045 0.013752678 -0.0016834531 0.21760093
0.20870236 -0.026486589 0.1851816 0.08904513 0.09781348 0.2546816 -0.2419344 8.2874794e-05
-0.13531867 -0.36285648 -0.2950894 -0.057989918 0.2500609 -0.21485218 -0.011488311 0.119672075
-0.2701406 0.14032196 0.16532588 -0.2928303 0.06150488 -0.28601268 0.3359301 0.2228228
0.13337143 0.2508264 0.21302783 0.29938078 0.06457499 -0.22053674 0.2873026 0.07372006
-0.12799577 -0.13297044 0.32354033 0.10922463 0.21252453 -0.03124055 0.24630198 -0.2240951
0.0746258 0.07697516 0.0034643502 0.32416356 0.070929974 -0.022861522 0.27605355 0.01536954
0.011357866 -0.21762346 -0.013822093 -0.11995976 0.16275887 0.2272413 -0.35369846 -0.1510127
0.29321915 -0.16489662 0.2692188 0.31426153 -0.08528146 -0.2153872 0.20608386 0.19858365
0.2967542 0.046087373 0.2329546 -0.22399263 0.011886617 0.10817103 0.17348589 -0.1255206
-0.060127135 -0.21130577 -0.22950052 0.145468 0.08471713 0.14105701 -0.025863852 0.036637317
-0.039480448 0.19528356 -0.23906785 0.038573045 0.20296748 0.13870539 -0.16734381 0.20490177
-0.21658672 0.11295194 0.31079993 -0.028953047 0.10310702 -0.30646905 -0.13262562 -0.14139909
-0.29155058 -0.076709725 0.28907403 -0.03424015 0.3170921 -0.28703856 0.119668104 0.28521422
0.36470482 -0.15042247 -0.25610694 -0.13443457 0.24269123 0.0726518 0.288147 -0.2726865
-0.22220123 0.15418157 0.14206727 -0.19097018 0.29224896 -0.15047012 -0.27863485 0.07452605
-0.17677437 -0.18591607 -0.21460931 0.03197739 0.18408585 0.13715371 -0.16931894 -0.06619297
0.3459391 -0.15345661 -0.10541058 -0.07914077 -0.34227788 -0.2684666 0.2927923 0.043631352
0.021549031 0.16708615 0.20502853 0.1726132 0.25256765 0.119663924 0.25536364 0.26909202
-0.010540719 0.004896192 -0.21407087 -0.27606434 0.31118387 -0.24141793 -0.16840786 -0.342618
-0.24876875 0.10840694 0.16100335 -0.31383595 0.019484608 -0.22611861 0.09272176 0.202219
-0.091222785 -0.16163167 0.21345247 -0.18683137 -0.04103773 -0.2720335 0.22602807 0.12755795
-0.09451776 0.2525604 0.3165332 0.13307214 -0.2648014 -0.11045781 0.2321668 0.1586198
-0.08744643 0.18414903 -0.15090348 0.11559686 0.2637982 0.031433184 -0.27051973 0.08450617
0.18374562 0.22527416 -0.20813543 -0.01048107 -0.0057440517 -0.03995494 -0.054023802 -0.09353565
0.14500235 0.17384356 -0.0031928464 0.24832468 0.004181195 0.044302553 0.05623276 -0.12981522
00000000: 4d6b 04be 5c82 b43d 36b2 1fbd 9022 dabd
00000010: 8922 51be dbd0 893d 6039 93be 6296 a03e
00000020: 3801 aabd 387a 013d 7a80 e43d cdf0 03be
00000030: ac56 a23e 555b 443d dbe9 3b3d c2f4 90be
00000040: 7f1e 223c 9c0d f63d a878 a93c 265e 85bd
00000050: a7b3 2a3e faf6 893e 9392 423e f8b8 a6bd
00000060: f95b 883d 6a4d 83be af0c 4cbe 3069 a4bd
00000070: b95a 963d 5156 08be 4e1b 52be 1631 ff3d
00000080: fe33 953d 3e08 5cbe 4d51 543e cc69 76be
00000090: cf6a 813e 0005 043e f135 b5bd 8b2c a43e
000000a0: 2408 12be 0ca3 d2bd 7a8b 783e b6a1 eabd
000000b0: c411 0abe 867f 0d3d 560b 5ebd 3007 483e
000000c0: 355c 8b3e 91a0 443e e8f3 a43d ef32 033d
000000d0: 4cdc 55bd ea52 613c 50a7 dcba c7d2 5e3e
000000e0: 12b6 553e 67fa d8bc 3fa0 3d3e 4b5d b63d
000000f0: 6f52 c83d a065 823e a7bd 77be 11cd ad38
00000100: fa90 0abe 53c8 b9be f515 97be d686 6dbd
00000110: fb07 803e 3602 5cbe 7839 3cbc a216 f53d
00000120: de4f 8abe 8fb0 0f3e 304b 293e daed 95be
00000130: 8bec 7b3d 4170 92be 08ff ab3e a92b 643e
00000140: 8592 083e 516c 803e f823 5a3e 7048 993e
00000150: e43f 843d 62d4 61be 5419 933e 8bfa 963d
00000160: 5311 03be 6729 08be 14a7 a53e 2ab1 df3d
00000170: 08a0 593e 2fec ffbc 9636 7c3e 3079 65be
00000180: 69d5 983d 27a5 9d3d 270a 633b c4f8 a53e
00000190: bc43 913d 1648 bbbc e456 8d3e 86d0 7b3c
000001a0: 5816 3a3c afd8 5ebe 0f76 62bc 76ad f5bd
000001b0: 43aa 263e f1b1 683e f717 b5be 13a3 1abe
000001c0: d220 963e a9da 28be 0cd7 893e e3e6 a03e
000001d0: 0ca8 aebd 768e 5cbe a607 533e 8359 4b3e
000001e0: 2bf0 973e 1dc6 3c3d a78b 6e3e 535e 65be
000001f0: 16c0 423c c688 dd3d 49a6 313e 7988 00be
00000200: df47 76bd 8a60 58be 2f02 6bbe 90f5 143e
00000210: 2d80 ad3d 4071 103e 6ee0 d3bc 0311 163d
00000220: 40b6 21bd 6af8 473e 34ce 74be c5fe 1d3d
00000230: b5d6 4f3e c908 0e3e 2d5c 2bbe c5d1 513e
00000240: e9c8 5dbe 5953 e73d 2b21 9f3e f12e edbc
00000250: c629 d33d 83e9 9cbe 03cf 07be ecca 10be
00000260: 1e46 95be fd19 9dbd 8301 943e 663f 0cbd
00000270: e559 a23e b8f6 92be 8d14 f53d 9907 923e
00000280: 97ba ba3e 5908 1abe 7320 83be 37a9 09be
00000290: 0d84 783e 78ca 943d 0188 933e 919d 8bbe
000002a0: b888 63be c6e1 1d3e 157a 113e b08d 43be
000002b0: a8a1 953e d714 1abe 3aa9 8ebe 1da1 983d
000002c0: 5704 35be c860 3ebe 8bc2 5bbe b9fa 023d
000002d0: 0081 3c3e 0672 0c3e f261 2dbe 2e90 87bd
000002e0: ee1e b13e bb23 1dbe 81e1 d7bd 8e14 a2bd
000002f0: 0c3f afbe 7474 89be dfe8 953e cab6 323d
00000300: 9887 b03c a218 2b3e 00f3 513e 84c1 303e
00000310: 8c50 813e 5c12 f53d 06bf 823e 6ec6 893e
00000320: fbb2 2cbc 3c70 a03b 6535 5bbe 4e58 8dbe
00000330: 7e53 9f3e 4336 77be 1c73 2cbe a06b afbe
00000340: 3cbd 7ebe 7504 de3d 10de 243e 1baf a0be
00000350: 2f9e 9f3c a38b 67be e8e4 bd3d 7f12 4f3e
00000360: 03d3 babd c682 25be 4993 5a3e b950 3fbe
00000370: 2e17 28bd fa47 8bbe e773 673e 8d9e 023e
00000380: 8792 c1bd 994f 813e a410 a23e 1044 083e
00000390: 0d94 87be b437 e2bd 22bd 6d3e 3b6d 223e
000003a0: 1d17 b3bd 9091 3c3e 7186 1abe 0cbe ec3d
000003b0: 8f10 873e 15c0 003d 9081 8abe 9211 ad3d
000003c0: d027 3c3e 45ae 663e 7421 55be cbb8 2bbc
000003d0: 9938 bcbb cba7 23bd 1048 5dbd 9e8f bfbd
000003e0: 7f7b 143e 0c04 323e 133f 51bb d348 7e3e
000003f0: 6802 893b 9876 353d 5354 663d 48ee 04be

phi.initial_conv_module.0._layers.8.conv.weight f4 [32, 64, 1]
-0.05088455 0.07877428 0.06668771 -0.025269093 -0.11598062 0.084530324 -0.04057018 0.13703589
-0.06747932 0.049569782 -0.081112415 0.010293296 -0.09910165 -0.09986401 0.02167916 0.13534218
-0.04370864 -0.05871564 0.12748797 -0.061133604 -0.10970753 0.13852361 0.057244588 0.13407533
0.069885775 0.11916331 -0.06224311 -0.003556972 -0.052144576 -0.011629494 0.05635898 -0.10439925
0.0545703 -0.07179783 -0.02684447 -0.041596092 -0.09199521 0.007576086 -0.07286976 0.116453744
-0.0693234 0.057531014 -0.097206645 -0.07836509 0.113512196 -0.02753648 -0.04082729 0.06712628
0.04949977 0.020318585 0.0036624551 -0.058619663 0.045333292 0.021011014 0.10076998 0.045296557
-0.008819327 -0.022756977 -0.0020766752 -0.05233937 -0.037977673 -0.023220975 0.014044482 0.050515078
0.044231605 -0.12793675 0.092845276 -0.06146761 -0.12555072 0.046271693 -0.005106816 -0.11610035
0.021968883 0.063112035 0.03847158 -0.036244567 0.077070214 0.054787505 0.08749492 -0.0694848
0.022180332 -0.022808908 0.10490592 -0.05820526 -0.083493 -0.11212025 -0.004368788 -0.14666827
-0.0945036 -0.021922225 0.039399307 -0.07950977 0.10506638 -0.10878033 -0.0119472975 0.021230087
-0.101211645 0.04046215 -0.038379993 -0.042484708 0.12576564 -0.0644755 0.044774264 -0.051239952
0.055214092 0.08584225 0.1455766 -0.05580941 -0.14647324 -0.102958284 0.01152925 0.08376038
0.012472619 0.09413159 0.13790756 -0.08702927 -0.05465986 0.023780769 0.14085262 -0.11849714
0.08590869 0.036943607 0.13556132 0.08174851 0.16920668 0.099290535 -0.07535963 -0.021121465
0.0869979 0.10973484 -0.012469048 -0.028342389 -0.018225247 -0.044120245 0.023907227 -0.17299642
0.08367735 -0.048870336 -0.03468993 -0.13991573 -0.072427385 -0.11576192 0.020523896 -0.0088995965
-0.03936504 0.01854321 0.0024169956 0.060174845 -0.112305745 -0.03376516 0.035892278 -0.09028503
0.10354929 -0.07086833 0.07687816 0.090174966 0.02251717 0.089702666 -0.12807791 -0.009433855
-0.1226977 -0.09435439 0.03822947 0.09296311 -0.0733369 -0.029790718 -0.09031711 -0.03898501
-0.13856332 -0.08470569 0.007951297 0.09836507 0.040335637 -0.036119133 0.10328438 0.05518266
0.09680283 -0.017826444 -0.058077343 0.031781428 0.050395757 0.028502138 0.06400322 -0.049380116
0.11013332 0.014510664 0.09959036 0.13877787 0.059800383 0.112539895 0.16017689 -0.06659175
-0.031676915 0.0014555767 -0.041284684 0.07991874 0.0508047 0.008861847 -0.039433785 -0.0562812
-0.009646904 0.10603961 0.029600436 0.06575418 0.01058565 0.041889586 -0.030196773 -0.0952948
0.0563904 -0.07588524 -0.11795917 0.10655405 0.123120464 -0.068851046 0.07953913 -0.10220369
0.070215195 0.020437934 -0.008354516 -0.028922953 -0.06322348 0.052883033 0.020592114 -0.04194683
0.14888524 -0.070347644 0.023953518 0.06833161 0.055577733 -0.08585427 -0.028006574 -0.044172224
-0.033147167 -0.0070643774 0.058842376 0.14667132 -0.13241884 0.11173814 0.076827236 -0.0884571
-0.028247539 0.006064418 -0.16953526 0.13449843 0.005715611 0.041709512 0.064359136 0.06059012
-0.034104064 -0.08040298 -0.10882629 -0.094624706 -0.05974539 -0.11587722 -0.014348843 -0.05717143
00000000: 516c 50bd 6954 a13d 9193 883d 2101 cfbc
00000010: 3f87 edbd 3c1e ad3d eb2c 26bd 2353 0c3e
00000020: 9932 8abd af09 4b3d 441e a6bd 36a5 283c
00000030: cef5 cabd 8185 ccbd 7e98 b13c 2497 0a3e
00000040: d507 33bd d07f 70bd 358c 023e 3b67 7abd
00000050: 57ae e0bd 22d9 0d3e 4d79 6a3d 0b4b 093e
00000060: 4620 8f3d e50b f43d a2f2 7ebd 161c 69bb
00000070: 8d95 55bd a289 3ebc acd8 663d 46cf d5bd
00000080: 1b85 5f3d be0a 93bd efe8 dbbc aa60 2abd
00000090: fc67 bcbd d140 f83b be3c 95bd 4d7f ee3d
000000a0: 6df9 8dbd a4a5 6b3d 4714 c7bd e07d a0bd
000000b0: 1579 e83d 2f94 e1bc 843a 27bd 8179 893d
000000c0: 45c0 4a3d 2973 a63c cd05 703b 2c1b 70bd
000000d0: 67af 393d 4a1f ac3c 7e60 ce3d e288 393d
000000e0: f07e 10bc d76c babc d418 08bb cf61 56bd
000000f0: 7a8e 1bbd ea39 bebc d41a 663c e6e8 4e3d
00000100: 332c 353d da01 03be aa25 be3d 76c5 7bbd
00000110: 5e90 00be 6387 3d3d 1457 a7bb 05c6 edbd
00000120: 16f8 b33c e240 813d 6094 1d3d 2f75 14bd
00000130: fdd6 9d3d dd68 603d 8930 b33d 0c4e 8ebd
00000140: 87b3 b53c bfd9 babc ead8 d63d a468 6ebd
00000150: 61fe aabd 4d9f e5bd 0d28 8fbb 3530 16be
00000160: 1a8b c1bd 3d96 b3bc 2b61 213d 05d6 a2bd
00000170: 0b2d d73d 39c8 debd 99be 43bc b8ea ad3c
00000180: 0d48 cfbd a4bb 253d 5734 1dbd 7204 2ebd
00000190: b5c8 003e bb0b 84bd 3865 373d fce0 51bd
000001a0: 2c28 623d 10ce af3d 0812 153e 6898 64bd
000001b0: 15fd 15be cbdb d2bd 2ee5 3c3c 908a ab3d
000001c0: f559 4c3c 10c8 c03d a437 0d3e 673c b2bd
000001d0: 04e3 5fbd e3cf c23c ab3b 103e a1ae f2bd
000001e0: e5f0 af3d 2e52 173d 96d0 0a3e c36b a73d
000001f0: 8444 2d3e d658 cb3d 2656 9abd ec06 adbc
00000200: f42b b23d a9bc e03d fa4a 4cbc 4c2e e8bc
00000210: 1d4d 95bc 6eb7 34bd 17d9 c33c f925 31be
00000220: 085f ab3d 432c 48bd 0717 0ebd 1246 0fbe
00000230: cf54 94bd 9614 edbd bb21 a83c 9dcf 11bc
00000240: 3c3d 21bd eee7 973c 7566 1e3b e679 763d
00000250: 8e00 e6bd 564d 0abd c803 133d 5ce7 b8bd
00000260: a611 d43d 6a23 91bd 4c72 9d3d a7ad b83d
00000270: ee75 b83c 08b6 b73d db26 03be 7590 1abc
00000280: ef48 fbbd e03c c1bd 8196 1c3d 7163 be3d
00000290: a831 96bd aa0b f4bc 2df8 b8bd bfae 1fbd
000002a0: 8be3 0dbe 2d7a adbd 2846 023c a073 c93d
000002b0: fb36 253d a8f1 13bd c386 d33d 3707 623d
000002c0: 9040 c63d c308 92bc 82e2 6dbd 3e2d 023d
000002d0: c86b 4e3d 517d e93c 1f14 833d ce42 4abd
000002e0: 948d e13d 23be 6d3c 08f6 cb3d c91b 0e3e
000002f0: 3ff1 743d 517b e63d 6905 243e 4161 88bd
00000300: a7bf 01bd 0dc9 be3a 211a 29bd 70ac a33d
00000310: 9718 503d 4831 113c 5285 21bd 1e87 66bd
00000320: 0c0e 1ebc 4c2b d93d 9d7c f23c 21aa 863d
00000330: 6f6f 2d3c 6a94 2b3d 395f f7bc ec29 c3bd
00000340: 9ff9 663d b969 9bbd 9494 f1bd 0339 da3d
00000350: 9526 fc3d c701 8dbd 69e5 a23d 2b50 d1bd
00000360: fccc 8f3d 746d a73c 61e1 08bc d4ef ecbc
00000370: 507b 81bd e19b 583d cbb0 a83c 70d0 2bbd
00000380: 5f75 183e 6d12 90bd 2b3a c43c 71f1 8b3d
00000390: 7aa5 633d 5dd4 afbd 0b6e e5bc efed 34bd
000003a0: 53c5 07bd 4b7c e7bb b404 713d 0231 163e
000003b0: ce98 07be f7d6 e43d 9957 9d3d ff28 b5bd
000003c0: 6267 e7bc 06b8 c63b a79a 2dbe f5b9 093e
000003d0: 054a bb3b 98d7 2a3d b9ce 833d 582d 783d
000003e0: b4b0 0bbd 51aa a4bd 51e0 debd 99ca c1bd
000003f0: 95b7 74bd 0951 edbd 6917 6bbc 972c 6abd

phi.initial_conv_module.0._layers.9.weight f4 [32]
0.9990851 1.0343363 1.0227624 1.006611 0.9810242 1.0235807 1.0569596 0.9983466
1.0179648 1.0092106 1.0139176 1.0201715 1.0246338 1.0410247 1.0473357 1.0286822
1.0617331 1.0313298 1.0304822 1.0296191 1.0098859 1.0079417 1.0235392 1.0231365
0.98385245 0.9935414 0.98016745 1.0542192 1.0484412 0.9977984 1.0238422 1.0366848
00000000: 0bc4 7f3f 2265 843f e1e9 823f a1d8 803f
00000010: 6724 7b3f b104 833f 744a 873f a593 7f3f
00000020: ac4c 823f d02d 813f 0dc8 813f fb94 823f
00000030: 3327 833f 4c40 853f 190f 863f dcab 833f
00000040: dfe6 873f 9d02 843f d7e6 833f 8fca 833f
00000050: f143 813f 3c04 813f 5503 833f 23f6 823f
00000060: c1dd 7b3f bb58 7e3f 41ec 7a3f a8f0 863f
00000070: 5233 863f b76f 7f3f 430d 833f 16b2 843f

phi.initial_conv_module.0._layers.9.bias f4 [32]
0.0020011538 -0.0020168063 0.0017036039 -0.004608237 -0.00013265846 -0.0018433029 0.0057039144 -0.00655605
0.0016540216 -0.0040679635 -0.00047425294 0.00073615846 -0.0026044701 0.003047165 0.0018108957 -0.0014190923
0.0009389995 -0.004857349 0.002051785 0.0036162003 0.001974399 0.0011773204 0.00012811729 -0.0007023288
0.00082115544 -0.0012685361 0.0016278552 -0.0011317972 0.0037045833 -0.0027274094 0.00013069405 0.00062378845
00000000: ca25 033b 652c 04bb 764b df3a b200 97bb
00000010: 3c1a 0bb9 fb9a f1ba e7e7 ba3b 22d4 d6bb
00000020: c1cb d83a 8d4c 85bb 27a5 f8b9 c2fa 403a
00000030: c2af 2abb f2b2 473b 945b ed3a d600 baba
00000040: 3127 763a 662a 9fbb 3d77 063b c6fd 6c3b
00000050: eb64 013b 5150 9a3a 3957 0639 7d1c 38ba
00000060: cf42 573a 0245 a6ba c25d d53a d058 94ba
00000070: 98c8 723b 56be 32bb eb0a 0939 bc85 233a

phi.initial_conv_module.0._layers.9.running_mean f4 [32]
0.02444028 0.0045274077 0.009852161 -0.0029893445 -0.039823685 0.04037682 -0.08230144 0.004741652
-0.11025091 0.01258385 -0.035999328 0.002675307 0.09993684 0.040217105 -0.03706635 0.048312888
0.02036118 -0.026226392 -0.057238493 0.050544806 -0.030093353 -0.023601443 -0.004606908 -0.06318249
0.0819294 -0.007900676 0.038613338 0.049825802 0.03218252 -0.11643527 0.003392026 0.056329995
00000000: fb36 c83c a65a 943b f56a 213c e1e8 43bb
00000010: 291e 23bd 2a62 253d a88d a8bd dc5f 9b3b
00000020: 3bcb e1bd 7e2c 4e3c 0874 13bd 3454 2f3b
00000030: b0ab cc3d b1ba 243d e3d2 17bd bce3 453d
00000040: 7dcc a63c bbd8 d6bc e972 6abd 1208 4f3d
00000050: 5686 f6bc d057 c1bc 8cf5 96bb d265 81bd
00000060: 9aca a73d d671 01bc 0529 1e3d 2416 4c3d
00000070: d1d1 033d 9d75 eebd c14c 5e3b 48ba 663d

phi.initial_conv_module.0._layers.9.running_var f4 [32]
0.029393328 0.060348753 0.05495111 0.0342105 0.04083179 0.0474651 0.048475474 0.053443335
0.04872384 0.041320972 0.031610113 0.05024525 0.039160714 0.07382132 0.032643527 0.051558815
0.06671536 0.056761354 0.054209117 0.037515 0.04664814 0.03580801 0.03552514 0.024672018
0.047315165 0.03177068 0.07175866 0.042719357 0.042507183 0.08167504 0.04018889 0.052665286
00000000: 47ca f03c 4130 773d 6a14 613d 4f20 0c3d
00000010: 3c3f 273d c46a 423d 388e 463d 66e7 5a3d
00000020: a692 473d 2e40 293d 9b79 013d f7cd 4d3d
00000030: fc66 203d a22f 973d 38b5 053d 562f 533d
00000040: 10a2 883d 987e 683d 610a 5e3d 54a9 193d
00000050: 1f12 3f3d 6bab 123d cf82 113d f91c ca3c
00000060: 8ccd 413d f921 023d 34f6 923d 7efa 2e3d
00000070: 031c 2e3d 3e45 a73d 1b9d 243d 8eb7 573d

phi.initial_conv_module.1.weight f4 [32]
0.9914083 1.0437729 1.0277303 1.0080936 0.973793 1.0272559 1.0687363 1.0017313
1.0256577 1.0114764 1.0125194 1.0228014 1.0263833 1.0498605 1.0596892 1.0411562
1.0776889 1.0430888 1.04106 1.0360835 1.0109614 1.0107464 1.0323784 1.0279541
0.98235124 0.99623126 0.9779533 1.0681995 1.059175 0.99662054 1.0288951 1.0463115
00000000: efcc 7d3f 5a9a 853f ab8c 833f 3609 813f
00000010: 804a 793f 1f7d 833f 5acc 883f bb38 803f
00000020: c048 833f 0f78 813f 3c9a 813f 28eb 823f
00000030: 8760 833f d461 863f e5a3 873f 9b44 853f
00000040: b6f1 893f ef83 853f 7441 853f 629e 843f
00000050: 2f67 813f 2360 813f fa24 843f 0094 833f
00000060: 5f7b 7b3f 0309 7f3f 265b 7a3f c3ba 883f
00000070: 0c93 873f 8622 7f3f d6b2 833f 89ed 853f

phi.initial_conv_module.1.bias f4 [32]
-0.021123672 0.043341983 0.008804722 -0.032112174 -0.031949695 0.016139226 0.023559196 0.021767845
0.021393476 -0.0049491767 0.010424788 0.04985583 -0.020512525 0.0010821281 0.028690126 0.037604675
0.058810472 0.06548167 0.01587802 0.011535058 0.008305345 0.0114121875 0.0242557 0.025170382
-0.011977937 0.00043056236 -0.0018910656 0.010153609 0.020768074 -0.00024413718 0.047890957 -0.011884111
00000000: 8d0b adbc 5d87 313d ae41 103c 0e88 03bd
00000010: afdd 02bd 6936 843c 37ff c03c 7b52 b23c
00000020: 5f41 af3c b42c a2bb bbcc 2a3c a035 4c3d
00000030: e209 a8bc 32d6 8d3a 8e07 eb3c 5c07 1a3d
00000040: 40e3 703d 411b 863d 9f12 823c 8afd 3c3c
00000050: 2413 083c 2ffa 3a3c e4b3 c63c 1e32 ce3c
00000060: 1c3f 44bc 1abd e139 a2dd f7ba 535b 263c
00000070: cf21 aa3c 13ff 7fb9 4f29 443d 93b5 42bc

phi.initial_conv_module.1.running_mean f4 [32]
0.002208185 -0.0016594814 0.0013194086 -0.0040159095 -0.0002999931 -0.0017199009 0.005613137 -0.0066489805
0.0013504991 -0.0038342467 -0.00041538972 -6.400906e-05 -0.002509247 0.003053233 0.002124632 -0.001385981
0.0007566181 -0.004454284 0.0013452194 0.003177544 0.0018694041 0.0009310147 7.965237e-05 -0.0005141387
0.00068376603 -0.0013152377 0.0017594064 -0.0018020886 0.0029575771 -0.0023440411 0.00044089358 0.000475333
00000000: 32b7 103b f582 d9ba 02f0 ac3a e497 83bb
00000010: 6448 9db9 4c6e e1ba 68ee b73b b1df d9bb
00000020: 3b03 b13a fc47 7bbb aac8 d9b9 9a3c 86b8
00000030: 2e72 24bb c018 483b 693d 0b3b cea9 b5ba
00000040: c857 463a 3ef5 91bb 1352 b03a 583e 503b
00000050: cb06 f53a 570f 743a 0a0b a738 44c7 06ba
00000060: c33e 333a 0e64 acba e29b e63a 0f34 ecba
00000070: e9d3 413b 7c9e 19bb bc27 e739 1e36 f939

phi.initial_conv_module.1.running_var f4 [32]
0.9647869 1.0538574 1.0299455 0.99685293 0.9389471 1.0218031 1.0852845 0.9785146
1.0183879 0.9937472 0.9999621 1.0172907 1.0186573 1.0706005 1.0685489 1.0320803
1.1037222 1.0416135 1.0439414 1.0301086 1.0000359 0.9834417 1.0140043 1.0035473
0.9493409 0.9539651 0.9517008 1.0782517 1.0639708 0.98633665 1.0293322 1.0532626
00000000: 46fc 763f cde4 863f 41d5 833f c131 7f3f
00000010: d65e 703f 72ca 823f 9aea 8a3f ef7f 7a3f
00000020: 895a 823f 3766 7e3f 84fd 7f3f 9536 823f
00000030: 5d63 823f 7009 893f 36c6 883f 351b 843f
00000040: c546 8d3f 9753 853f df9f 853f 99da 833f
00000050: 2d01 803f d6c2 7b3f e5ca 813f 3d74 803f
00000060: 0108 733f 0f37 743f aaa2 733f 2704 8a3f
00000070: 3230 883f 8f80 7c3f 28c1 833f 4fd1 863f
