logs/4birds_CF_linear_triangular_30epochs/2025-05-13_22-45-46/best_4birds_CF_linear_triangular_30epochs.pth (torch, 265850 bytes, 199 tensors)

stft_transform.window f4 [1024]
0.0 9.417534e-06 3.7640333e-05 8.46982e-05 0.00015059114 0.00023528934 0.0003387928 0.00046113133
0.00060227513 0.0007622242 0.0009409487 0.0011384785 0.0013547838 0.0015898645 0.0018436909 0.0021162927
0.0024076402 0.0027177036 0.0030465126 0.0033940375 0.0037602484 0.0041451156 0.0045486987 0.004970908
0.005411744 0.0058712065 0.0063492954 0.006845951 0.0073611736 0.007894963 0.00844726 0.009018064
0.009607345 0.010215104 0.01084131 0.011485934 0.0121489465 0.012830317 0.013530016 0.014248043
0.014984369 0.015738934 0.016511768 0.017302781 0.018111974 0.018939286 0.019784749 0.02064827
0.021529824 0.022429407 0.02334699 0.024282485 0.025235921 0.026207209 0.027196348 0.028203279
0.029227972 0.030270398 0.031330496 0.032408237 0.033503592 0.03461653 0.03574696 0.036894888
0.038060248 0.039242983 0.040443063 0.041660458 0.04289514 0.044146985 0.045415998 0.046702147
0.048005342 0.049325585 0.050662756 0.052016884 0.05338785 0.054775625 0.05618018 0.057601452
0.059039384 0.060493886 0.06196496 0.06345251 0.064956516 0.06647688 0.06801358 0.06956655
0.0711357 0.072721004 0.0743224 0.075939834 0.07757321 0.0792225 0.080887645 0.082568586
0.0842652 0.085977495 0.087705374 0.08944875 0.09120759 0.092981845 0.094771415 0.096576214
0.09839624 0.10023138 0.10208154 0.103946716 0.105826795 0.10772169 0.10963139 0.111555785
0.11349478 0.115448326 0.11741638 0.11939883 0.12139559 0.12340662 0.1254318 0.12747112
0.12952444 0.13159174 0.13367286 0.13576782 0.13787645 0.13999876 0.1421346 0.14428389
0.14644662 0.14862263 0.15081188 0.15301427 0.15522975 0.15745819 0.1596995 0.16195366
0.16422054 0.16650003 0.16879213 0.17109665 0.1734136 0.1757428 0.17808422 0.1804378
0.18280336 0.1851809 0.18757027 0.18997142 0.19238421 0.1948086 0.1972445 0.19969177
0.20215034 0.20462015 0.20710108 0.20959303 0.21209592 0.21460965 0.21713409 0.21966922
0.2222149 0.22477102 0.22733751 0.22991425 0.23250118 0.23509818 0.23770517 0.24032202
0.24294865 0.24558496 0.24823079 0.25088614 0.2535509 0.25622493 0.25890815 0.2616004
0.26430166 0.26701176 0.26973063 0.2724582 0.27519435 0.27793896 0.28069192 0.2834531
0.28622246 0.28899986 0.29178524 0.29457843 0.29737937 0.30018795 0.30300403 0.30582747
0.3086583 0.31149632 0.31434143 0.3171935 0.3200525 0.3229183 0.32579064 0.32866964
0.33155507 0.33444685 0.33734488 0.340249 0.34315917 0.34607518 0.34899703 0.35192457
0.35485768 0.35779625 0.36074018 0.36368936 0.3666436 0.36960295 0.37256718 0.3755362
0.37850994 0.38148823 0.38447094 0.38745803 0.3904494 0.39344487 0.39644432 0.3994477
0.40245488 0.40546566 0.40848005 0.4114979 0.41451907 0.41754347 0.42057097 0.42360145
0.42663476 0.42967087 0.43270966 0.43575096 0.43879467 0.4418407 0.44488895 0.4479392
0.45099142 0.45404553 0.45710137 0.46015882 0.46321777 0.46627808 0.46933964 0.4724024
0.47546616 0.47853088 0.4815964 0.48466262 0.48772943 0.49079663 0.49386424 0.49693206
00000000: 0000 0000 0000 1e37 00e0 1d38 00a0 b138
00000010: 00e8 1d39 00b8 7639 00a0 b139 00c4 f139
00000020: 00e2 1d3a 00d0 473a 00aa 763a 0039 953a
00000030: 0093 b13a 0063 d03a 00a8 f13a 80b1 0a3b
00000040: 80c9 1d3b 801b 323b 00a8 473b 806e 5e3b
00000050: 806e 763b c0d3 873b 400d 953b 00e3 a23b
00000060: 0055 b13b 4063 c03b c00d d03b 0054 e03b
00000070: 0036 f13b e059 013c 6066 0a3c 80c0 133c
00000080: 2068 1d3c 405d 273c c09f 313c 802f 3c3c
00000090: 600c 473c 4036 523c 00ad 5d3c a070 693c
000000a0: 0081 753c f0ee 803c b043 873c 90be 8d3c
000000b0: 905f 943c 9026 9b3c a013 a23c 9026 a93c
000000c0: 505f b03c e0bd b73c 3042 bf3c 10ec c63c
000000d0: 90bb ce3c 80b0 d63c e0ca de3c 900a e73c
000000e0: 806f ef3c a0f9 f73c 6854 003d 80be 043d
000000f0: 103b 093d 10ca 0d3d 686b 123d 181f 173d
00000100: 10e5 1b3d 40bd 203d a0a7 253d 28a4 2a3d
00000110: d0b2 2f3d 78d3 343d 2006 3a3d c04a 3f3d
00000120: 40a1 443d a009 4a3d c083 4f3d a80f 553d
00000130: 38ad 5a3d 685c 603d 301d 663d 80ef 6b3d
00000140: 48d3 713d 70c8 773d f8ce 7d3d 64f3 813d
00000150: ec07 853d 0825 883d b44a 8b3d e878 8e3d
00000160: 98af 913d c0ee 943d 5836 983d 5886 9b3d
00000170: b4de 9e3d 683f a23d 6ca8 a53d b819 a93d
00000180: 3c93 ac3d f814 b03d e09e b33d e830 b73d
00000190: 0ccb ba3d 446d be3d 8417 c23d c0c9 c53d
000001a0: f883 c93d 1c46 cd3d 2010 d13d 04e2 d43d
000001b0: b8bb d83d 309d dc3d 6c86 e03d 5c77 e43d
000001c0: f46f e83d 2c70 ec3d 0078 f03d 6087 f43d
000001d0: 409e f83d 9cbc fc3d 3271 003e ca87 023e
000001e0: 0ea2 043e fcbf 063e 8ae1 083e b806 0b3e
000001f0: 7c2f 0d3e d65b 0f3e bc8b 113e 28bf 133e
00000200: 1af6 153e 8830 183e 6e6e 1a3e c6af 1c3e
00000210: 8cf4 1e3e b83c 213e 4488 233e 2ed7 253e
00000220: 6e29 283e fc7e 2a3e d8d7 2c3e f633 2f3e
00000230: 5693 313e ecf5 333e b65b 363e b0c4 383e
00000240: ce30 3b3e 10a0 3d3e 6c12 403e de87 423e
00000250: 5e00 453e e87b 473e 76fa 493e 007c 4c3e
00000260: 8000 4f3e f287 513e 4e12 543e 8e9f 563e
00000270: ac2f 593e a2c2 5b3e 6658 5e3e f8f0 603e
00000280: 4e8c 633e 602a 663e 2acb 683e a46e 6b3e
00000290: ca14 6e3e 94bd 703e fc68 733e fa16 763e
000002a0: 88c7 783e a07a 7b3e 3630 7e3e 2674 803e
000002b0: 6cd1 813e ea2f 833e 9c8f 843e 7df0 853e
000002c0: 8c52 873e c4b5 883e 221a 8a3e a47f 8b3e
000002d0: 46e6 8c3e 044e 8e3e dab6 8f3e c420 913e
000002e0: c08b 923e caf7 933e e064 953e fcd2 963e
000002f0: 1c42 983e 3cb2 993e 5823 9b3e 6b95 9c3e
00000300: 7608 9e3e 727c 9f3e 5cf1 a03e 3067 a23e
00000310: ecdd a33e 8c55 a53e 08ce a63e 6347 a83e
00000320: 96c1 a93e 9e3c ab3e 78b8 ac3e 1e35 ae3e
00000330: 8fb2 af3e c430 b13e bdaf b23e 752f b43e
00000340: e8af b53e 1231 b73e f0b2 b83e 7e35 ba3e
00000350: b6b8 bb3e 993c bd3e 20c1 be3e 4846 c03e
00000360: 0ecc c13e 6d52 c33e 60d9 c43e e660 c63e
00000370: fce8 c73e 9b71 c93e c0fa ca3e 6984 cc3e
00000380: 910e ce3e 3299 cf3e 4c24 d13e daaf d23e
00000390: d83b d43e 42c8 d53e 1455 d73e 4ae2 d83e
000003a0: df6f da3e d2fd db3e 1f8c dd3e c01a df3e
000003b0: b2a9 e03e f238 e23e 7cc8 e33e 4958 e53e
000003c0: 59e8 e63e a878 e83e 3109 ea3e f099 eb3e
000003d0: e12a ed3e 00bc ee3e 494d f03e bade f13e
000003e0: 4d70 f33e 0002 f53e ce93 f63e b325 f83e
000003f0: acb7 f93e b249 fb3e c6db fc3e e16d fe3e

phi.initial_conv_module.0._layers.0.conv.weight f4 [64, 64, 1]
0.033065155 0.18497717 -0.10582198 -0.051028565 -0.10659842 -0.019356815 -0.09662335 0.15978532
0.16989227 -0.076350205 0.06585781 0.021663506 0.1595106 0.01557406 0.07346865 -0.04744155
0.0838108 0.02512025 -0.008650314 -0.012574551 -0.09198706 -0.030196842 -0.13734639 -0.011984413
-0.17781976 -0.11105184 -0.10969465 -0.17664967 -0.12147743 -0.22219922 0.051132556 -0.096040666
0.10375706 -0.07949055 -0.19407694 -0.064103 -0.11148226 0.036075637 -0.010038153 -0.006257674
0.09327337 0.10762617 0.318657 0.2860901 0.09542902 -0.12882487 -0.047388896 -0.13314067
-0.059374638 -0.23196249 -0.21308258 -0.027335338 -0.047195606 0.18889455 0.09411997 0.0922423
0.09141188 -0.041215178 0.014920864 -0.11387008 -0.07370334 -0.2640841 -0.09987263 -0.046959154
-0.03356331 -0.09343814 -0.016473569 -0.22159638 -0.20182706 -0.1876819 0.027830008 -0.073834814
0.05945658 -0.11808447 -0.14200531 -0.112932764 -0.06619036 0.079879895 -0.00634722 0.0712617
-0.13106972 -0.16402096 0.025239162 -0.07794255 -0.015828773 -0.12649675 -0.024858668 -0.14363633
-0.13018277 -0.023024611 0.053659994 0.0960335 0.1761726 0.1424757 -0.1461042 -0.13897629
-0.045386553 -0.13797222 -0.09145139 -0.16275536 -0.11242028 -0.006034858 -0.09860127 -0.1797356
-0.06042268 -0.10187395 -0.18879315 -0.19930612 -0.21464191 -0.1899055 0.121665165 0.07791182
0.059316657 -0.0525124 -0.020022882 -0.03557481 0.02323141 -0.13184242 -0.060200237 -0.14733505
-0.06712244 0.022789195 0.04661074 -0.0032005494 0.035952937 0.083821304 0.074321836 -0.10498035
0.10428144 0.03834873 0.08985062 -0.018256122 -0.123463556 0.005250598 -0.058029033 -0.0004366987
0.0013714107 0.01865435 0.12463745 -0.0011533805 0.049382333 -0.15591337 -0.030573307 -0.17836218
-0.12321641 0.0032141344 0.012405439 0.04716429 0.123949796 -0.08980731 -0.062431272 -0.20895334
-0.20103659 -0.23008429 0.10302594 -0.016799256 0.23350982 0.2288786 0.20285112 0.007998608
0.12596123 0.053969756 0.020475483 -0.1748465 -0.013574594 -0.03943765 -0.07141061 0.106097646
0.03419875 -0.107735544 -0.05224011 0.09747728 0.20110404 -0.00031761092 -0.15386453 -0.16498917
-0.2230003 -0.09997926 -0.024624344 -0.18065378 0.038292836 0.086414635 0.062972404 0.06287864
0.189964 0.14894941 0.099643044 0.014980111 0.030062784 0.09846188 0.0290249 -0.09167028
0.06098943 0.27597755 0.021875996 -0.047116924 0.06829715 -0.0960973 -0.047836423 0.061180025
0.160404 0.30977547 0.2735211 0.06727255 0.038116638 0.016635021 -0.03108981 -0.12665594
-0.13640942 -0.08100752 -0.052569915 -0.037216328 -0.11754674 -0.038235184 -0.04471886 0.18316263
0.124861605 0.12608103 0.14888692 -0.046352625 -0.116992615 -0.0021892309 -0.044875033 -0.003895339
-0.083388336 0.12141284 0.22260332 0.17713086 -0.017913228 -0.09302716 -0.08012666 0.107552245
0.053608354 0.15043254 0.10571222 0.034725904 -0.039446007 -0.03732621 -0.019950824 -0.069388196
0.063034184 -0.053667314 0.039335445 -0.025973782 0.029649477 -0.043294944 -0.10681828 -0.0010197498
-0.055771075 0.09209434 -0.04266935 -0.09383716 -0.031520903 -0.123200275 -0.05375075 -0.16649254
00000000: 546f 073d a86a 3d3e 32b9 d8bd 5403 51bd
00000010: 4650 dabd 2f92 9ebc 77e2 c5bd c39e 233e
00000020: 3df8 2d3e 7f5d 9cbd 76e0 863d aa77 b13c
00000030: bf56 233e 582a 7f3c bb76 963d 1252 42bd
00000040: ffa4 ab3d fcc8 cd3c 0cba 0dbc 7d05 4ebc
00000050: b663 bcbd 5e5f f7bc 88a4 0cbe 455a 44bc
00000060: 6216 36be 266f e3bd 97a7 e0bd a7e3 34be
00000070: 29c9 f8bd 3188 63be 5f70 513d f8b0 c4bd
00000080: 957e d43d f1cb a2bd 1bbc 46be 6f48 83bd
00000090: d050 e4bd 0cc4 133d 1177 24bc 2d0d cdbb
000000a0: 1c06 bf3d 1c6b dc3d 0327 a33e 677a 923e
000000b0: 4a70 c33d abea 03be dc1a 42bd 0756 08be
000000c0: d232 73bd 9387 6dbe 5232 5abe 5cee dfbc
000000d0: 2e50 41bd 936d 413e f9c1 c03d 88e9 bc3d
000000e0: 2736 bb3d 3fd1 28bd a476 743c b734 e9bd
000000f0: c7f1 96bd 0836 87be 058a ccbd 3e58 40bd
00000100: ae79 09bd 7f5c bfbd 94f3 86bc 29ea 62be
00000110: c1ab 4ebe af2f 40be c2fb e33c b536 97bd
00000120: be88 733d 45d6 f1bd d769 11be 4b49 e7bd
00000130: d08e 87bd 1298 a33d 57fc cfbb a7f1 913d
00000140: 2437 06be 1cf5 27be 5cc2 ce3c 58a0 9fbd
00000150: 58ab 81bc 5d88 01be 68a4 cbbc 6715 13be
00000160: a24e 05be 1c9e bcbc 95ca 5b3d 36ad c43d
00000170: 9766 343e 26e5 113e 579c 15be cd4f 0ebe
00000180: 40e7 39bd 9748 0dbe de4a bbbd 57a9 26be
00000190: 9b3c e6bd 0fc0 c5bb 76ef c9bd 9c0c 38be
000001a0: c67d 77bd 4aa3 d0bd fe52 41be e716 4cbe
000001b0: 17cb 5bbe 9676 42be 962b f93d 3b90 9f3d
000001c0: 06f6 723d 3e17 57bd 0707 a4bc e4b6 11bd
000001d0: cc4f be3c b301 07be 8694 76bd 00df 16be
000001e0: 7d77 89bd 68b0 ba3c e7ea 3e3d 4fc0 51bb
000001f0: 6343 133d 81aa ab3d 0c36 983d f0ff d6bd
00000200: 8291 d53d 8f13 1d3d 9a03 b83d dd8d 95bc
00000210: 76da fcbd 350d ac3b daaf 6dbd b5f4 e4b9
00000220: e8c0 b33a 02d1 983c eb41 ff3d 072d 97ba
00000230: 2145 4a3d c1a7 1fbe df74 fabc 93a4 36be
00000240: e358 fcbd 3aa4 523b 2f40 4b3c 582f 413d
00000250: 64d9 fd3d e5ec b7bd efb7 7fbd ddf7 55be
00000260: 89dc 4dbe 379b 6bbe 44ff d23d 989e 89bc
00000270: 331d 6f3e 275f 6a3e 34b8 4f3e 980c 033c
00000280: fbfb 003e 640f 5d3d 33bc a73c f60a 33be
00000290: f967 5ebc 6089 21bd ba3f 92bd b949 d93d
000002a0: fd13 0c3d 74a4 dcbd baf9 55bd 2ba2 c73d
000002b0: 38ee 4d3e 0485 a6b9 aa8e 1dbe ecf2 28be
000002c0: 315a 64be edc1 ccbd feb8 c9bc 4efd 38be
000002d0: f3d8 1c3d 28fa b03d adf7 803d 84c6 803d
000002e0: ec85 423e 3286 183e a711 cc3d 246f 753c
000002f0: 3a46 f63c 62a6 c93d a1c5 ed3c a1bd bbbd
00000300: 0dd0 793d ee4c 8d3e 4a35 b33c adfd 40bd
00000310: 60df 8b3d a9ce c4bd 20f0 43bd e897 7a3d
00000320: f240 243e e49a 9e3e f50a 8c3e 31c6 893d
00000330: 3120 1c3d 2b46 883c 0fb0 febc 18b2 01be
00000340: e9ae 0bbe 45e7 a5bd 8d53 57bd 2670 18bd
00000350: 58bc f0bd 7f9c 1cbd 202b 37bd fc8e 3b3e
00000360: 71b7 ff3d 631b 013e d075 183e 40dc 3dbd
00000370: d399 efbd 3379 0fbb e2ce 37bd f248 7fbb
00000380: 81c7 aabd 4ca7 f83d 20f2 633e cb61 353e
00000390: c3be 92bc 0685 bebd 7219 a4bd 5a44 dc3d
000003a0: 6f94 5b3d fd0a 1a3e a67f d83d c03c 0e3d
000003b0: 2392 21bd 5ee3 18bd e96f a3bc 661b 8ebd
000003c0: 1118 813d 42d2 5bbd 341e 213d f8c6 d4bc
000003d0: 76e3 f23c 0a56 31bd 8bc3 dabd 20a9 85ba
000003e0: 3670 64bd f59b bc3d 0ec6 2ebd b22d c0bd
000003f0: 101c 01bd 6d50 fcbd bf29 5cbd 057d 2abe

phi.initial_conv_module.0._layers.1.weight f4 [64]
0.9151634 1.1458328 0.990386 1.0767846 1.1521053 1.1118193 0.8910295 0.8419918
0.97457874 1.1323742 0.85154384 1.0689431 0.9486944 0.91729116 1.042316 0.9681511
0.98384553 1.041742 1.1652536 1.0953184 0.8669156 0.8948963 1.1381936 1.0222803
0.9314755 0.7886067 0.92260957 0.9672695 0.87863755 1.0162634 1.071052 0.81760335
1.0447668 0.76267016 0.92114073 0.8862952 1.0002507 0.79559547 1.0795707 1.0139475
1.1770989 1.112003 0.94405365 0.9723808 1.0423129 0.7890785 1.0392079 1.0517715
0.8500714 0.9507533 0.98898023 0.8399646 0.87751365 0.9380291 0.9839951 1.0346961
1.0284665 1.0217423 1.0335759 0.92556244 0.9999657 1.0164124 1.0285243 1.0057703
00000000: 2648 6a3f a6aa 923f f089 7d3f 14d4 893f
00000010: 3078 933f 1850 8e3f 821a 643f c68c 573f
00000020: fe7d 793f a3f1 903f c7fe 593f 21d3 883f
00000030: a3dd 723f 98d3 6a3f 9c6a 853f c0d8 773f
00000040: 4ddd 7b3f cd57 853f 0827 953f 6533 8c3f
00000050: 2eee 5d3f ed17 653f 54b0 913f 15da 823f
00000060: 2e75 6e3f 21e2 493f 2430 6c3f f99e 773f
00000070: 64ee 603f eb14 823f 3b18 893f 744e 513f
00000080: ebba 853f 5a3e 433f e1cf 6b3f 3ee4 623f
00000090: 3708 803f 25ac 4b3f 5f2f 8a3f 08c9 813f
000000a0: 2dab 963f 1d56 8e3f 80ad 713f f3ed 783f
000000b0: 826a 853f 0c01 4a3f c404 853f 73a0 863f
000000c0: 479e 593f 9164 733f cf2d 7d3f ec07 573f
000000d0: bca4 603f ad22 703f 1ae7 7b3f ec70 843f
000000e0: caa4 833f 74c8 823f 374c 843f a9f1 6c3f
000000f0: c1fd 7f3f cd19 823f afa6 833f 15bd 803f

phi.initial_conv_module.0._layers.1.bias f4 [64]
-0.3436036 0.035452772 0.10363457 0.013021642 -0.06745556 -0.022542967 0.07243793 0.063649595
0.004349125 0.0448275 -0.030115906 0.057688154 0.020747703 0.0357918 0.008197439 -0.017747441
-0.08674154 -0.123217836 -0.15678371 0.0072387652 -0.025368877 -0.009666719 -0.01866681 -0.086882666
0.13034935 -0.0041658217 0.27314997 0.033957686 0.27759278 -9.318422e-05 0.041832257 -0.042278882
-0.0015255928 0.14761426 -0.09066397 0.17929761 -0.032162238 0.18867873 0.02399004 -0.088007785
0.2754337 -0.1698677 0.04727658 0.07960133 -0.10994829 -0.071924105 0.05708946 0.05787112
0.1420518 -0.09217901 -0.07861725 -0.21786761 -0.06626989 -0.0895659 0.07019029 -0.0073512006
0.09823077 0.25875294 0.09249889 0.14265797 -0.04242304 -0.0025400857 -0.11521364 -0.07043899
00000000: d0ec afbe ed36 113d 5d3e d43d ba58 553c
00000010: 2426 8abd 07ac b8bc 565a 943d b85a 823d
00000020: 1b83 8e3b 0a9d 373d a2b5 f6bc 6a4a 6c3d
00000030: 16f7 a93c 6c9a 123d 8d4e 063c 1563 91bc
00000040: 8ca5 b1bd a259 fcbd e98b 20be 2a33 ed3b
00000050: 64d2 cfbc 2861 1ebc 23eb 98bc 8aef b1bd
00000060: 4d7a 053e 7281 88bb 50da 8b3e 3717 0b3d
00000070: a420 8e3e e66b c3b8 4d58 2b3d 9f2c 2dbd
00000080: 66f6 c7ba 3128 173e 08ae b9bd cb99 373e
00000090: 8dbc 03bd ff34 413e c386 c43c 6d3d b4bd
000000a0: a505 8d3e ccf1 2dbe 16a5 413d 0606 a33d
000000b0: 922c e1bd f24c 93bd a3d6 693d 440a 6d3d
000000c0: 0776 113e 59c8 bcbd 1502 a1bd b018 5fbe
000000d0: 82b8 87bd 546e b7bd edbf 8f3d 57e2 f0bb
000000e0: 372d c93d 447b 843e 0f70 bd3d ee14 123e
000000f0: c8c3 2dbd 9177 26bb 21f5 ebbd 5142 90bd

phi.initial_conv_module.0._layers.1.running_mean f4 [64]
0.57015383 -0.23136772 -0.22781657 1.0125923 0.6504652 -0.5462896 -0.67601085 -0.6176693
-0.22222936 0.9406457 0.19323015 -1.0475914 -2.03033 -0.77028257 0.2588626 1.8662708
-0.8012243 -0.2040604 -0.32616818 2.0395198 -0.409379 -0.017862504 0.4605542 0.2386521
0.8153002 0.86029005 -1.4052492 0.5989363 -0.74278396 0.7141174 -0.648497 -0.8469399
0.13505341 0.31276253 0.6462866 -0.8991933 -0.52044344 -0.3109842 -0.44402462 -0.511428
0.5064386 2.3966126 -0.17302528 0.74257696 0.07750637 0.56943905 -0.026595442 -0.27151728
-0.19470164 -0.84345424 0.4903764 -0.36171892 0.7441403 -0.018196778 0.5598332 1.1552399
-0.526232 0.9819885 0.40661368 -0.48244116 -0.2150154 -1.4838402 -0.38324982 -0.105635986
00000000: 9af5 113f a9eb 6cbe bf48 69be a09c 813f
00000010: e384 263f a3d9 0bbf 0c0f 2dbf 931f 1ebf
00000020: 1890 63be 28ce 703f 20de 453e 7a17 86bf
00000030: edf0 01c0 3d31 45bf a489 843e f6e1 ee3f
00000040: 091d 4dbf 36f5 50be 84ff a6be 7e87 0240
00000050: 209a d1be 6354 92bc c3cd eb3e 3761 743e
00000060: 84b7 503f f83b 5c3f 35df b3bf e453 193f
00000070: 1727 3ebf 66d0 363f e603 26bf 0ed1 58bf
00000080: 714b 0a3e 6922 a03e 0a73 253f 8831 66bf
00000090: c83b 05bf 5239 9fbe 3257 e3be f2ec 02bf
000000a0: f6a5 013f 1a62 1940 8a2d 31be 8619 3e3f
000000b0: a9bb 9e3d c2c6 113f afde d9bc 5004 8bbe
000000c0: de5f 47be 9eec 57bf 9e12 fb3e 3933 b9be
000000d0: fb7f 3e3f 6911 95bc 3b51 0f3f e7de 933f
000000e0: 24b7 06bf 9963 7b3f ab2f d03e 8702 f7be
000000f0: ff2c 5cbe 7aee bdbf 5239 c4be ae57 d8bd

phi.initial_conv_module.0._layers.1.running_var f4 [64]
0.7711644 1.6568965 0.5849234 0.8084789 0.50678647 1.6359382 0.39382175 0.9703041
0.90447456 0.7101195 1.1197054 0.8914476 1.6532305 0.915702 1.1253297 1.173495
1.1158603 0.4769687 0.56527257 1.2055485 0.57123256 1.1280818 0.7221828 0.59267753
1.1196704 1.3510019 0.79877365 0.75503176 0.52988553 0.43498647 1.0871785 2.8117921
0.45156527 0.5819192 0.96313643 1.4033556 0.8152444 0.5642796 0.24752441 0.45360866
2.1235561 1.32222 0.52600825 0.76629174 0.5457505 0.650707 0.771963 0.61136574
0.53821 0.5624812 0.7612659 0.8900637 1.2831923 0.8536888 0.6962116 1.1120828
0.99169666 0.38228366 0.5543477 0.5250145 0.43371302 0.748576 0.54230446 0.5622591
00000000: 086b 453f 2f15 d43f 8abd 153f 79f8 4e3f
00000010: c2bc 013f 6c66 d13f 01a3 c93e d965 783f
00000020: a58b 673f 64ca 353f 8252 8f3f e935 643f
00000030: 0f9d d33f 726b 6a3f ce0a 903f 1635 963f
00000040: 83d4 8e3f 3e35 f43e b4b5 103f 6a4f 9a3f
00000050: 4c3c 123f fc64 903f f9e0 383f b7b9 173f
00000060: 5c51 8f3f a1ed ac3f 6e7c 4c3f c349 413f
00000070: 94a6 073f 8cb6 de3e aa28 8b3f 67f4 3340
00000080: 9033 e73e a8f8 143f 1c90 763f 28a1 b33f
00000090: dbb3 503f a174 103f 0a77 7d3e 653f e83e
000000a0: 58e8 0740 813e a93f 7aa8 063f b22b 443f
000000b0: 4eb6 0b3f bc94 263f 5e9f 453f 7782 1c3f
000000c0: 21c8 093f c5fe 0f3f 52e2 423f 37db 633f
000000d0: a53f a43f 598b 5a3f ec3a 323f bb58 8e3f
000000e0: d5df 7d3f afba c33e bbe9 0d3f 5a67 063f
000000f0: a20f de3e ada2 3f3f 77d4 0a3f 36f0 0f3f

phi.initial_conv_module.0._layers.4.conv.weight f4 [64, 1, 5]
-0.19576873 0.4037619 0.5097994 0.45543742 0.01898202 -0.1451814 -0.6293789 0.10320934
-0.019579738 -0.2813482 -0.1361723 -0.32328862 -0.033431046 -0.39822495 -0.32831907 0.5657869
0.051116455 0.116857946 -0.2332599 0.0670249 0.107289694 0.28992304 0.14411011 -0.10597893
0.42899778 -0.20808382 -0.37022927 0.08856956 -0.031602092 -0.19405779 0.042946506 -0.110585034
-0.22787398 -0.26187062 -0.23854254 -0.20131898 -0.06529287 0.2165038 -0.40942 -0.5286724
-0.23154567 -0.041906852 -0.026218712 -0.45470524 0.14612152 -0.3745183 0.43856108 0.10575881
-0.10406385 -0.24671945 0.21890587 0.36844346 -0.2374093 -0.06366257 0.39877382 -0.15802552
-0.365301 -0.1413362 0.0035244932 -0.09188095 -0.37757146 -0.33370373 0.06762962 0.2459772
0.39135695 0.1926986 0.42508268 -0.15292133 0.2317774 0.29360345 0.44761688 -0.010724179
0.36522073 -0.36496598 -0.050189048 -0.015510279 -0.46624342 -0.17577302 -0.14670512 0.3118809
-0.1511098 0.11120245 -0.11656465 0.41569102 0.13813503 0.41123623 0.438443 -0.33257994
-0.37284708 0.07249945 0.51317614 -0.26370943 0.19204788 -0.026271157 0.4538327 0.28377944
0.43277675 0.31810525 -0.058345955 0.4315729 -0.22959138 0.031256117 -0.3529727 -0.2953118
-0.041524738 0.057660043 -0.07219026 -0.45458665 -0.15296221 -0.066112034 -0.166444 0.3990825
-0.32988775 0.023154104 -0.40896285 -0.3976176 0.0019508016 0.49765506 0.39989498 0.05108007
0.35215676 -0.21282855 0.22965577 0.16080087 -0.5276754 -0.12473049 0.20678985 -0.039240025
-0.51464844 -0.5024795 0.27016997 -0.041530754 -0.11968692 -0.5642928 0.26362845 -0.212422
0.3212742 0.14355098 0.18092984 0.12734012 -0.19805658 -0.16707508 0.3412756 -0.32289302
0.25270188 -0.13105941 -0.15985832 0.28464228 0.04353285 -0.47906837 0.1225666 -0.21789843
0.49215543 -0.03901927 0.66621953 0.18208344 0.021367704 0.18896192 -0.013319211 -0.25107405
0.40564927 0.45351 -0.02818928 0.20074418 -0.14330667 -0.28174126 -0.28424793 0.26724255
-0.14405422 0.32667476 -0.4011101 -0.027937496 -0.31878263 0.17159119 0.41244102 0.21571168
-0.21301085 -0.39575312 -0.24869362 -0.23768361 0.6414233 -0.06332886 0.14161511 0.16763388
-0.04094411 -0.4146875 -0.15177348 -0.331032 0.08317049 -0.16666847 0.019160865 0.25876522
0.099764004 0.130334 -0.31373203 0.36651802 0.14138226 -0.07439234 0.083032176 -0.3254478
0.0014534213 0.08076926 -0.47618076 -0.19366412 0.3444852 -0.10229569 -0.049597647 0.056120355
-0.15426955 0.43721884 -0.029465972 -0.33790755 -0.09104793 -0.44550937 0.0013387334 0.1299033
-0.08708657 0.28149393 -0.3990259 -0.11111172 -0.23170231 0.4926693 0.2885134 -0.2793933
0.09452008 -0.033281557 0.53916293 0.3969722 -0.16338982 0.29984233 -0.1750107 -0.1288812
0.096708216 0.41678438 0.21475562 -0.51384073 -0.5512282 0.14169104 -0.25549418 -0.16974269
-0.43762913 -0.23953544 -0.2983875 0.073779054 0.16472107 0.54193527 0.46618795 -0.035705414
0.08684799 0.07120231 -0.34701806 0.22562303 -0.35375482 0.3239886 -0.26777333 0.13294867
00000000: 9977 48be e1b9 ce3e 3782 023f 182f e93e
00000010: 2e80 9b3c 6faa 14be fa1e 21bf 6b5f d33d
00000020: b065 a0bc df0c 90be c070 0bbe 1686 a5be
00000030: feee 08bd 24e4 cbbe 7019 a8be 69d7 103f
00000040: 7d5f 513d 3853 ef3d afdb 6ebe 5a44 893d
00000050: b3ba db3d cb70 943e 9a91 133e 7b0b d9bd
00000060: 99a5 db3e ed13 55be b18e bdbe f563 b53d
00000070: 3271 01bd 16b7 46be ade8 2f3d 687a e2bd
00000080: cc57 69be e813 86be 7f44 74be 9026 4ebe
00000090: 45b8 85bd 2cb3 5d3e 809f d1be 1357 07bf
000000a0: 4f1a 6dbe 85a6 2bbd a0c8 d6bc 20cf e8be
000000b0: e1a0 153e ddc0 bfbe 148b e03e 1398 d83d
000000c0: 6e1f d5bd 06a4 7cbe dc28 603e 9fa4 bc3e
000000d0: 6c1b 73be 8661 82bd 152c cc3e 71d1 21be
000000e0: bc08 bbbe 70ba 10be 2ffb 663b 142c bcbd
000000f0: 0c51 c1be 37db aabe 6681 8a3d 72e1 7b3e
00000100: f05f c83e c852 453e 70a4 d93e 6997 1cbe
00000110: 0e57 6d3e 3153 963e 0a2e e53e 78b4 2fbc
00000120: 36fe ba3e d2dc babe 0893 4dbd d31e 7ebc
00000130: 75b7 eebe d8fd 33be de39 16be daae 9f3e
00000140: 87bc 1abe 1cbe e33d 72b9 eebd 74d5 d43e
00000150: 4573 0d3e 8e8d d23e 9a7b e03e eb47 aabe
00000160: d0e5 bebe 977a 943d 835f 033f ec04 87be
00000170: 33a8 443e 9c36 d7bc c25c e83e 8a4b 913e
00000180: ea94 dd3e b1de a23e 2bfc 6ebd 20f7 dc3e
00000190: 011a 6bbe 6a06 003d d6b8 b4be 1c33 97be
000001a0: d815 2abd f02c 6c3d 7dd8 93bd 95bf e8be
000001b0: 20a2 1cbe bf65 87bd 4c70 2abe 8b54 cc3e
000001c0: 0ce7 a8be adad bd3c 9463 d1be 8994 cbbe
000001d0: 0ab2 ff3a a5cc fe3e 09bf cc3e 5639 513d
000001e0: e44d b43e baef 59be e22a 6b3e fca8 243e
000001f0: bc15 07bf b372 ffbd b8c0 533e 26ba 20bd
00000200: 00c0 03bf 7fa2 00bf b853 8a3e 271c 2abd
00000210: 6a1e f5bd 7e75 10bf 4ffa 863e 2785 59be
00000220: 0d7e a43e 07ff 123e ac45 393e 7365 023e
00000230: 58cf 4abe bb15 2bbe adbb ae3e 3c52 a5be
00000240: 2462 813e 7034 06be e6b1 23be a2bc 913e
00000250: 804f 323d 7348 f5be 3304 fb3d c420 5fbe
00000260: ccfb fb3e acd2 1fbd 5d8d 2a3f 1574 3a3e
00000270: 530b af3c 3c7f 413e d238 5abc c78c 80be
00000280: 43b1 cf3e 7632 e83e 34ed e6bc e28f 4d3e
00000290: fcbe 12be 6440 90be f288 91be 04d4 883e
000002a0: f382 13be ea41 a73e 4e5e cdbe 2ddd e4bc
000002b0: 7a37 a3be 9ab5 2f3e 782b d33e 86e3 5c3e
000002c0: 841f 5abe 27a0 cabe 8aa9 7ebe 5563 73be
000002d0: 5134 243f 90b2 81bd 8d03 113e 37a8 2b3e
000002e0: 03b5 27bd ec51 d4be 826a 1bbe 077d a9be
000002f0: 4a55 aa3d 24ab 2abe 3ff7 9c3c e07c 843e
00000300: 1251 cc3d 4776 053e 7ca1 a0be 40a8 bb3e
00000310: 83c6 103e 035b 98bd c60c aa3d 18a1 a6be
00000320: ba80 be3a 5b6a a53d f7cd f3be e34f 46be
00000330: 5d60 b03e 6780 d1bd e726 4bbd 75de 653d
00000340: d6f8 1dbe 26db df3e 9f62 f1bc 3802 adbe
00000350: 5677 babd ce19 e4be 7078 af3a 5f05 053e
00000360: 725a b2bd f91f 903e 1f4d ccbe 8b8e e3bd
00000370: 5f43 6dbe 273f fc3e 07b8 933e a30c 8fbe
00000380: be93 c13d 3e52 08bd 9506 0a3f f13f cb3e
00000390: a94f 27be ef84 993e 0136 33be 6ff9 03be
000003a0: f50e c63d c364 d53e e6e8 5b3e 118b 03bf
000003b0: 4b1d 0dbf 7517 113e 22d0 82be 07d1 2dbe
000003c0: ed10 e0be c748 75be 3fc6 98be 7919 973d
000003d0: a4ac 283e 45bc 0a3f 30b0 ee3e d73f 12bd
000003e0: 5cdd b13d 84d2 913d 5aac b1be b909 673e
000003f0: 5a1f b5be d5e1 a53e 9619 89be b223 083e

phi.initial_conv_module.0._layers.5.weight f4 [64]
0.99386454 0.95631737 1.0219191 0.96292984 1.0667894 1.041861 1.2708693 1.0512213
0.97476846 1.3080627 0.88907796 1.0614518 1.1108006 0.8779392 0.9305714 1.0297774
0.9947622 0.9540411 1.037367 0.9180533 1.1269263 1.2191255 1.1822289 1.0465165
1.0167869 1.1407739 1.0769122 0.9298554 0.96759415 0.9154475 1.1410084 1.0601597
1.0313095 0.9825354 1.1278505 1.1109817 1.0045245 1.0452143 0.95687854 0.92394084
1.2434233 1.0344354 1.1115996 0.8804084 1.1248332 0.87157893 0.9617436 1.1222477
1.068138 0.9706106 0.9524091 1.0725963 1.2210317 0.99624497 1.1887848 1.1038151
1.0769752 1.3660556 0.9651201 1.1963958 1.0126106 0.94032544 1.1321305 1.0138563
00000000: e86d 7e3f 37d1 743f 3fce 823f 9282 763f
00000010: 8e8c 883f b45b 853f d8ab a23f 6b8e 863f
00000020: 6d8a 793f 996e a73f 9d9a 633f a7dd 873f
00000030: b72e 8e3f a0c0 603f ed39 6e3f bfcf 833f
00000040: bca8 7e3f 0a3c 743f 71c8 843f 8b05 6b3f
00000050: 1f3f 903f 4e0c 9c3f 4753 973f 41f4 853f
00000060: 1326 823f e104 923f 42d8 893f 010b 6e3f
00000070: 40b4 773f c45a 6a3f 900c 923f 50b3 873f
00000080: f301 843f 7187 7b3f 685d 903f a634 8e3f
00000090: 4294 803f 95c9 853f fef5 743f 6387 6c3f
000000a0: 7f28 9f3f 6168 843f e548 8e3f 7262 613f
000000b0: 89fa 8f3f cc1f 5f3f d434 763f d0a5 8f3f
000000c0: bfb8 883f f079 783f 15d1 733f d64a 893f
000000d0: c44a 9c3f e909 7f3f 1a2a 983f d049 8d3f
000000e0: 53da 893f e9da ae3f 1c12 773f 7f23 993f
000000f0: 399d 813f 2bb9 703f a7e9 903f 0bc6 813f

phi.initial_conv_module.0._layers.5.bias f4 [64]
0.02493986 -0.12050809 0.0039005561 -0.08359551 -0.0046645124 0.0039652796 0.104600556 0.269221
-0.009670864 -0.05838283 -0.19186118 0.13194264 -0.047426943 -0.12436668 -0.020451833 -0.10775006
-0.016759561 -0.14335553 0.16312101 0.00028886122 -0.083563395 -0.004530799 0.06355375 0.17195638
0.14244178 0.015209754 -0.36267596 -0.010459611 0.09740222 0.00029959402 0.04585837 -0.034376614
-0.003409782 0.14989135 0.109142944 0.14217044 0.038298942 0.0027027552 0.044195324 0.13439588
0.005972239 0.15824543 0.059603643 -0.039020527 0.14109458 -0.118068784 0.05011195 0.074287415
0.07059635 0.15414317 0.057025116 0.33242586 0.21440409 -0.13995993 0.27469555 0.09407304
0.011105143 0.15531012 -0.025521312 -0.10583715 0.027533855 -0.03271784 0.11535208 0.21413493
00000000: ad4e cc3c f2cc f6bd 79a0 7f3b 1f34 abbd
00000010: c4d8 98bb 2def 813b d138 d63d 56d7 893e
00000020: 8b72 1ebc d622 6fbd 4277 44be f91b 073e
00000030: c142 42bd f5b3 febd 9a8a a7bc 10ac dcbd
00000040: 594b 89bc cbcb 12be 3209 273e 4c72 9739
00000050: 4923 abbd 1977 94bb 7828 823d 5515 303e
00000060: 42dc 113e 5532 793c aab0 b9be ca5e 2bbc
00000070: d17a c73d d412 9d39 fcd5 3b3d 7ece 0cbd
00000080: a676 5fbb 1e7d 193e 5686 df3d 2195 113e
00000090: 5adf 1c3d b520 313b 2806 353d 139f 093e
000000a0: c6b2 c33b 170b 223e f322 743d fdd3 1fbd
000000b0: 197b 103e 0cce f1bd 3042 4d3d 0024 983d
000000c0: d294 903d b5d7 1d3e 2b93 693d b933 aa3e
000000d0: bf8c 5b3e a851 0fbe e5a4 8c3e 5ea9 c03d
000000e0: 59f2 353c 9e09 1f3e 1212 d1bc 26c1 d8bd
000000f0: ae8e e13c 2403 06bd b63d ec3d 3046 5b3e

phi.initial_conv_module.0._layers.5.running_mean f4 [64]
-0.025655998 -0.16744772 -0.26832214 0.12983516 0.15990393 -0.09856924 -0.13400887 -0.1516167
-0.097617775 -0.044057988 0.06662536 -0.17244658 0.0060326885 0.15837575 0.07132956 -0.07470265
0.04687933 0.03293399 0.1088981 0.2886893 -0.10084185 -0.09169384 -0.10191374 0.08342623
0.0001626868 -0.10381383 -0.034019697 0.100865506 -0.023111993 -0.077027746 0.18508899 0.006863589
0.14392708 -0.014934613 -0.016351784 -0.20140731 0.13813548 -0.1646717 0.0400716 0.021538869
-0.07673257 0.02365347 -0.15564552 -0.037866306 0.03148191 0.06521078 0.0918094 -0.2877029
-0.14444512 0.12049394 -0.049385414 0.004059634 -0.012099174 -0.05983896 -0.05210045 -0.118184656
-0.19976027 -0.05530859 -0.09813238 -0.29344139 0.015088683 -0.08042734 0.041402325 0.039182562
00000000: 872c d2bc 6a77 2bbe 8561 89be 82f3 043e
00000010: dbbd 233e abde c9bd 9f39 09be 6941 1bbe
00000020: d4eb c7bd 2676 34bd e072 883d d695 30be
00000030: dcad c53b 412d 223e 3b15 923d b4fd 98bd
00000040: 8a04 403d cbe5 063d f805 df3d 15cf 933e
00000050: 2c86 cebd fbc9 bbbd 27b8 d0bd 5fdb aa3d
00000060: e896 2a39 589c d4bd 3d58 0bbd 9392 ce3d
00000070: 5d55 bdbc b9c0 9dbd f887 3d3e f5e7 e03b
00000080: 9f61 133e 4fb0 74bc 2df4 85bc b83d 4ebe
00000090: 6373 0d3e b39f 28be 1e22 243d 4872 b03c
000000a0: f725 9dbd ecc4 c13c 8a61 1fbe b319 1bbd
000000b0: 2df3 003d 3b8d 853d 9106 bc3d cb4d 93be
000000c0: 6ce9 13be 87c5 f63d 5c48 4abd ae06 853b
000000d0: 9d3b 46bc b319 75bd 4867 55bd cc0a f2bd
000000e0: f58d 4cbe 438b 62bd a1f9 c8bd f33d 96be
000000f0: 8636 773c 17b7 a4bd 7c95 293d e57d 203d

phi.initial_conv_module.0._layers.5.running_var f4 [64]
0.18246777 0.5839039 0.39104503 0.0881155 0.16871999 0.2637987 0.14438218 0.20955512
0.14305983 0.035631206 0.10322914 0.16444041 0.058760196 0.27060243 0.09974523 0.094318055
0.05486164 0.07791124 0.24852325 0.5310186 0.14385685 0.14112955 0.13368382 0.20374998
0.027201273 0.14702846 0.056180738 0.110121116 0.02617202 0.08089515 0.5657228 0.010605289
0.4140735 0.019004984 0.06514298 0.12620981 0.16083677 0.14648624 0.06925518 0.07235557
0.06327336 0.01747315 0.2435459 0.0203746 0.033036053 0.19179232 0.076685295 0.3809742
0.1890647 0.24281219 0.059097987 0.018841641 0.032487772 0.085032135 0.07608017 0.18876863
0.51868594 0.019161552 0.088551246 0.30254605 0.11688186 0.05957244 0.17687467 0.061989162
00000000: d5d8 3a3e ba7a 153f 0e37 c83e e675 b43d
00000010: efc4 2c3e a010 873e ecd8 133e 9e95 563e
00000020: 477e 123e 07f2 113d cd69 d33d 1163 283e
00000030: 88ae 703d 678c 8a3e 3a47 cc3d d329 c13d
00000040: 99b6 603d ee8f 9f3d e17c 7e3e d6f0 073f
00000050: 364f 133e 4484 103e 69e4 083e d6a3 503e
00000060: 34d5 de3c a18e 163e c61d 663d 2e87 e13d
00000070: b466 d63c 5bac a53d 36d3 103f cec1 2d3c
00000080: 7101 d43e 57b0 9b3c af69 853d 253d 013e
00000090: 65b2 243e 7d00 163e a9d5 8d3d 282f 943d
000000a0: 7795 813d da23 8f3c 1964 793e a2e8 a63c
000000b0: d050 073d 3565 443e 2e0d 9d3d 0d0f c33e
000000c0: 2d9a 413e c2a3 783e bb10 723d c959 9a3c
000000d0: e611 053d 5425 ae3d eccf 9b3d 904c 413e
000000e0: 9ac8 043f b0f8 9c3c 5b5a b53d 51e7 9a3e
000000f0: c25f ef3d 3b02 743d a21e 353e 59e8 7d3d

phi.initial_conv_module.0._layers.7.se_conv.conv.weight f4 [10, 64, 1]
0.232745 -0.011462403 0.028997948 0.14847597 -0.017343558 0.056242462 0.069282085 0.3638493
-0.072228424 -0.13990107 0.24736238 0.06640741 -0.4019597 -0.10585397 0.15561064 -0.14245681
-0.08922517 -0.04877325 -0.15755261 0.3302741 0.22733092 -0.0026935425 0.055049244 0.19421883
-0.109505214 0.26821437 0.070962526 0.28175086 0.23112336 -0.0009726315 -0.07851394 -0.03580967
0.015656754 0.008303793 -0.17778346 0.40312758 -0.42325592 0.02724846 -0.080346785 -0.093160026
-0.04100426 0.39521405 0.3802292 0.1867178 -0.16991545 0.042487234 -0.10211516 -0.022838306
-0.16998495 -0.05240003 0.035576362 0.040343802 0.1391202 0.050003517 0.0284018 -0.29336908
0.08379971 0.07009659 -0.024380418 0.16906784 -0.072179034 0.19069412 -0.019092062 0.011937248
0.18326855 0.20791124 0.28535888 0.34692183 0.16055802 0.39370856 0.32372916 0.06037641
-0.11226332 0.059786998 0.38745075 0.25639907 -0.09576904 -0.068625644 0.09491114 -0.1224771
0.18963711 -0.23028214 -0.10725211 0.35089132 0.16133535 0.1577057 0.3098133 -0.18048589
-0.07050337 0.15463434 -0.12050458 0.11119349 -0.035719816 -0.031339176 0.21119718 0.22447586
-0.17927033 0.15259708 0.02026873 0.13226452 -0.0616279 -0.11195609 -0.22479476 -0.18111423
-0.42593047 0.3109621 -0.029679822 -0.20695011 -0.16963758 -0.107545845 0.30658808 -0.15654193
0.22839145 -0.17293295 -0.124545515 -0.112288356 0.051340513 0.15515529 0.0895447 -0.07872892
0.20881712 -0.059705753 -0.15865129 0.17773142 0.06762646 0.3701831 -0.12113723 -0.23906282
0.08288702 -0.18312767 0.13466015 -0.04038715 -0.27133235 0.010179611 0.27669778 -0.08139056
0.1558773 0.1630683 -0.086142585 0.3773148 -0.501573 -0.3075523 -0.009620492 -0.38259178
-0.2683453 -0.08634839 0.21089795 0.22705033 0.17142089 0.10103817 -0.16167483 0.06790189
0.14314796 -0.12986712 -0.12489234 0.040649004 0.068689056 -0.0023288964 -0.120188616 -0.38137296
0.1289838 -0.08353757 -0.35498604 0.078734174 -0.38487044 0.22255225 0.07452918 0.022481276
0.13780934 0.17781797 0.18051456 -0.05657492 0.13412958 0.08159872 -0.2447527 0.16523616
-0.29583025 -0.20056428 0.22889194 -0.10305029 -0.16630228 0.1253358 -0.08485141 -0.068413034
0.2533098 0.09718833 0.056272916 0.33952376 -0.051989928 0.19810206 0.12499029 0.073712096
-0.18977186 -0.26133576 0.04109284 -0.12244495 -0.14304073 -0.011036754 0.1895127 -0.12815548
-0.191446 0.02169862 -0.27917585 -0.056153502 0.25325614 -0.11526805 0.04342714 0.036799036
-0.08008453 0.20117572 0.30418417 -0.13775866 -0.0025260905 -0.04463572 0.081723526 0.0068915915
0.008642544 -0.10429983 0.03554973 0.08790104 0.35777122 0.21322584 -0.061163913 0.075817235
-0.046937123 0.24411376 0.20528096 -0.10274877 0.26204407 0.08291495 0.0089165205 0.27038947
0.34519088 -0.044107415 0.14354488 -0.06180005 -0.012093354 -0.13569875 -0.22192107 0.07311572
-0.06311356 0.4058907 0.0804715 0.18405217 0.23943177 0.102690905 0.20911191 -0.07570598
-0.027571218 -0.050641723 0.08827776 0.05978735 0.10156552 -0.15260997 -0.0064177285 0.09598424
00000000: b554 6e3e cecc 3bbc 1b8d ed3c 160a 183e
00000010: 1414 8ebc 7f5e 663d c4e3 8d3d 754a ba3e
00000020: 7fec 93bd 3a42 0fbe 904c 7d3e 9c00 883d
00000030: a9cd cdbe f7c9 d8bd 6558 1f3e 33e0 11be
00000040: b0bb b6bd 76c6 47bd 7955 21be b019 a93e
00000050: 70c9 683e 2586 30bb 517b 613d 4de1 463e
00000060: 4544 e0bd 6553 893e cd54 913d a641 903e
00000070: 9aab 6c3e 32f8 7eba ebcb a0bd 29ad 12bd
00000080: 9842 803c a20c 083c de0c 36be bd66 ce3e
00000090: 00b5 d8be 2a38 df3c db8c a4bd afca bebd
000000a0: 15f4 27bd 7f59 ca3e 67ad c23e f332 3f3e
000000b0: 51fe 2dbe 1807 2e3d c121 d1bd 6617 bbbc
000000c0: 8910 2ebe 6aa1 56bd 85b8 113d 8b3f 253d
000000d0: 8775 0e3e 7dd0 4c3d e4aa e83c 7934 96be
000000e0: 2f9f ab3d cd8e 8f3d 71b9 c7bc 1f20 2d3e
000000f0: 9ad2 93bd 5245 433e f566 9cbc 7294 433c
00000100: c0aa 3b3e afe6 543e 8f1a 923e bd9f b13e
00000110: 5269 243e 2b94 c93e d4bf a53e 414d 773d
00000120: 50ea e5bd 36e3 743d f25f c63e bd46 833e
00000130: 8f22 c4bd 9a8b 8cbd c660 c23d 46d5 fabd
00000140: 3b30 423e 15cf 6bbe ffa6 dbbd 07a8 b33e
00000150: 1835 253e 9a7d 213e d99f 9e3e 4bd1 38be
00000160: 1264 90bd 7758 1e3e 1bcb f6bd 6ab9 e33d
00000170: f14e 12bd 825d 00bd 1344 583e 00dd 653e
00000180: a492 37be 6942 1c3e 9c0a a63c 5a70 073e
00000190: 896d 7cbd 3c49 e5bd 9930 66be 0276 39be
000001a0: 8f13 dabe 6d36 9f3e 1923 f3bc bbea 53be
000001b0: 79b5 2dbe ff40 dcbd 1df9 9c3e 874c 20be
000001c0: 73df 693e 5615 31be b811 ffbd 70f7 e5bd
000001d0: 6e4a 523d 07e1 1e3e 3663 b73d a13c a1bd
000001e0: 28d4 553e 058e 74bd 7c75 22be 3aff 353e
000001f0: be7f 8a3d a488 bd3e cc16 f8bd e2cc 74be
00000200: acc0 a93d d285 3bbe 5ae4 093e ff6c 25bd
00000210: 13ec 8abe 62c8 263c 55ab 8d3e 18b0 a6bd
00000220: 4d9e 1f3e 60fb 263e 866b b0bd 682f c13e
00000230: 1767 00bf 7f77 9dbe 459f 1dbc 12e3 c3be
00000240: 8e64 89be 6dd7 b0bd a2f5 573e e27f 683e
00000250: f588 2f3e 1aed ce3d 168e 25be 2510 8b3d
00000260: 6195 123e e3fb 04be 8ec7 ffbd 927f 263d
00000270: d9ac 8c3d 66a0 18bb 7325 f6bd 5143 c3be
00000280: 5414 043e bf15 abbd bbc0 b5be 623f a13d
00000290: bd0d c5be bde4 633e c1a2 983d a72a b83c
000002a0: e41d 0d3e ea15 363e cfd8 383e 1abb 67bd
000002b0: 4459 093e 3b1d a73d 74a0 7abe ab33 293e
000002c0: 1077 97be b960 4dbe a662 6a3e 080c d3bd
000002d0: 254b 2abe 0758 003e 93c6 adbd 221c 8cbd
000002e0: d2b1 813e ad0a c73d 6e7e 663d 0fd6 ad3e
000002f0: 64f3 54bd 44db 4a3e e9fa ff3d 5ef6 963d
00000300: 8e53 42be cdcd 85be f750 283d 6bc4 fabd
00000310: 4579 12be 80d3 34bc 9e0f 423e 313b 03be
00000320: 6c0a 44be 4ec1 b13c 23f0 8ebe 3701 66bd
00000330: caaa 813e a811 ecbd a8e0 313d 96ba 163d
00000340: 5c03 a4bd 0201 4e3e 07be 9b3e 9b10 0dbe
00000350: c48c 25bb f2d3 36bd aa5e a73d dcd2 e13b
00000360: 7599 0d3c 269b d5bd 989c 113d 7605 b43d
00000370: ca2d b73e e057 5a3e 0387 7abd 1146 9b3d
00000380: 2441 40bd f5f8 793e 2c35 523e f26d d2bd
00000390: a42a 863e 50cf a93d 9916 123c 7d70 8a3e
000003a0: dcbc b03e faa9 34bd 6efd 123e 0d22 7dbd
000003b0: 3423 46bc 9df4 0abe 473f 63be b2bd 953d
000003c0: af41 81bd e8d0 cf3e 3ece a43d 2c78 3c3e
000003d0: 9a2d 753e 9c4f d23d 6f21 563e bd0b 9bbd
000003e0: 09dd e1bc b26d 4fbd f8ca b43d 95e3 743d
000003f0: 9501 d03d ca45 1cbe cf4b d2bb 6393 c43d

phi.initial_conv_module.0._layers.7.se_conv2.conv.weight f4 [64, 10, 1]
-0.3084515 0.083864935 -0.0020536606 -0.05746912 -0.19449003 0.13816233 -0.20211159 0.40285808
0.055842765 0.20371406 -0.059473593 -0.15774965 0.15139055 -0.1052475 0.113966145 -0.11473782
0.22474402 0.23944941 0.030771064 -0.040861156 0.3586554 0.17383246 0.25418293 -0.008222157
0.01911026 -0.09979859 -0.22508526 0.06790527 0.122653954 -0.20252556 -0.20723 0.122773424
0.19622198 -0.24875544 0.13683282 -0.2507328 0.1854304 0.26254326 -0.24762386 0.3100955
-0.011432012 -0.15311077 0.2573153 -0.054754175 -0.27557874 -0.05654742 -0.13149421 0.23576444
0.09425063 0.24102318 -0.11703829 0.08076623 -0.04435011 0.08007389 0.08741526 0.108619034
0.19815037 -0.214822 0.10912399 -0.10812687 -0.14433375 0.285577 -0.5593951 -0.10382951
0.12896422 -0.26163644 0.049554907 -0.08664773 0.45469242 -0.4600525 -0.18016998 0.27571833
-0.5350644 0.19128297 0.19181664 -0.3455863 0.018700242 -0.6105911 0.31924435 0.21330257
0.22282419 0.3817651 0.1333267 0.19448076 0.15449153 -0.38808867 0.117135994 -0.06937669
-0.10488466 -0.0029246977 0.26060367 0.36936158 0.18829498 -0.0737991 0.57953787 -0.5144194
0.032542963 0.16657238 -0.026687702 0.39795047 0.011032721 -0.046647143 0.39472377 -0.0072255903
-0.07422836 -0.27784047 -0.19034627 -0.07442742 0.101249754 0.32200456 -0.6647146 -0.41686568
0.23606096 -0.022002734 0.25731757 0.6684936 0.024736578 -0.10267854 0.43035096 0.07468483
0.44736686 -0.09994659 0.33706236 -0.3649356 -0.00014079307 0.3127674 0.17370547 0.030618098
-0.058148842 -0.21323332 -0.112522915 0.029763816 0.34413734 0.20636618 -0.32097837 -0.047785506
-0.25252005 0.22983357 -0.43026716 0.16894697 0.21348464 0.35534135 -0.057743426 -0.050945573
-0.11840291 0.116764985 0.30049103 -0.03399107 -0.030662043 -0.42328358 -0.29117003 -0.3377115
-0.33086926 0.03252845 0.09817312 0.06821998 0.12701222 -0.22960219 0.30123645 0.30364257
0.38757104 -0.13523236 -0.23643072 0.010560345 0.25325087 0.16128036 0.20608005 -0.22674295
-0.09086291 0.27924174 0.2463114 -0.022593051 0.4466137 -0.2829361 -0.16311833 0.08376183
-0.1973674 -0.0020681722 -0.22916566 0.063914396 0.27691832 0.27794355 -0.46521884 -0.2566792
0.3802019 -0.38980287 0.002456744 -0.3739858 -0.39094213 -0.37949222 0.028828708 -0.31878126
0.041454196 0.23365277 -0.009364174 0.567999 0.10878446 0.43959418 0.51974636 0.15760125
-0.3746556 0.110884026 -0.24502972 -0.3758404 0.44534433 -0.156811 -0.03747263 -0.3818094
-0.11409951 -0.11573609 -0.24713199 -0.21342929 -0.28821927 -0.1072305 0.2786091 0.0844242
-0.1567348 -0.3174711 0.56855434 -0.043224037 -0.07784841 -0.3503416 0.27018577 0.387119
-0.2386954 0.44813073 0.26871538 0.260302 -0.0744071 0.36719766 0.34192708 0.4159158
0.1392952 0.25739375 -0.3093825 -0.0019428506 -0.06657509 -0.036208846 -0.3254998 0.2590989
0.31239584 0.18818504 -0.21798612 -0.052880768 -0.011961904 -0.08338702 -0.034867864 -0.07040681
0.008618932 0.09718385 -0.4834704 0.02790174 -0.22989598 0.16813752 0.2308221 -0.086782835
00000000: 5bed 9dbe 61c1 ab3d b596 06bb bd64 6bbd
00000010: 6528 47be 6d7a 0d3e 57f6 4ebe 6a43 ce3e
00000020: 62bb 643d 6b9a 503e 959a 73bd 2089 21be
00000030: 2006 1b3e 008c d7bd 1567 e93d aafb eabd
00000040: 4c23 663e 3a32 753e 9913 fc3c 075e 27bd
00000050: aea1 b73e 2301 323e 4424 823e 3ab6 06bc
00000060: 1f8d 9c3c 3463 ccbd c07c 66be eb11 8b3d
00000070: ff31 fb3d dc62 4fbe 1a34 54be a270 fb3d
00000080: 6aee 483e bfb9 7ebe e71d 0c3e 0d60 80be
00000090: 77e1 3d3e 126c 863e 1c91 7dbe d6c4 9e3e
000000a0: 554d 3bbc 12c9 1cbe d5be 833e ea45 60bd
000000b0: a818 8dbe 449e 67bd 6ba6 06be 3c6c 713e
000000c0: 7906 c13d c8ce 763e c5b1 efbd c468 a53d
000000d0: 76a8 35bd c8fd a33d c606 b33d a873 de3d
000000e0: eee7 4a3e 4cfa 5bbe 667c df3d 9f71 ddbd
000000f0: 3acc 13be 2637 923e 8434 0fbf 91a4 d4bd
00000100: 320f 043e 36f5 85be 16fa 4a3d 5d74 b1bd
00000110: 72cd e83e 008c ebbe 7b7e 38be f42a 8d3e
00000120: fbf9 08bf afdf 433e 956b 443e b0f0 b0be
00000130: 4031 993c b34f 1cbf ff73 a33e fd6b 5a3e
00000140: 062c 643e b776 c33e cb86 083e f725 473e
00000150: 0733 1e3e 8fb3 c6be ffe4 ef3d 5e15 8ebd
00000160: c5cd d6bd 49ac 3fbb d86d 853e f61c bd3e
00000170: 66d0 403e fc23 97bd 985c 143f fdb0 03bf
00000180: c54b 053d f391 2a3e 2ba0 dabc 2ac0 cb3e
00000190: 96c2 343c 1311 3fbd 3c19 ca3e a5c4 ecbb
000001a0: 0a05 98bd 1b41 8ebe 22ea 42be 676d 98bd
000001b0: 085c cf3d c8dd a43e bc2a 2abf 6b6f d5be
000001c0: f7b9 713e 143f b4bc 21bf 833e 6622 2b3f
000001d0: 5da4 ca3c 2049 d2bd f656 dc3e 5cf4 983d
000001e0: 450d e53e ccb0 ccbd 7093 ac3e d7d8 babe
000001f0: daa1 13b9 0c23 a03e d9df 313e ced2 fa3c
00000200: 7b2d 6ebd d659 5abe 6a72 e6bd 3fd3 f33c
00000210: c532 b03e a851 533e 4757 a4be bcba 43bd
00000220: 4f4a 81be 7e59 6b3e fa4b dcbe 6f00 2d3e
00000230: b89b 5a3e 4def b53e 5f84 6cbd 4eac 50bd
00000240: 3a7d f2bd 7b22 ef3d f6d9 993e 383a 0bbd
00000250: f72e fbbc a0b8 d8be 3d14 95be 86e8 acbe
00000260: b267 a9be 8d3c 053d fd0e c93d ebb6 8b3d
00000270: 7e0f 023e d61c 6bbe aa3b 9a3e 0a77 9b3e
00000280: b66f c63e 5a7a 0abe e51a 72be 4c05 2d3c
00000290: 19aa 813e ae26 253e a606 533e 4e2f 68be
000002a0: 5516 babd c6f8 8e3e 0e39 7c3e 1015 b9bc
000002b0: 8daa e43e 00dd 90be 7e08 27be 538b ab3d
000002c0: ae1a 4abe 2c8a 07bb 67aa 6abe 8de5 823d
000002d0: 3dc8 8d3e 9e4e 8e3e 2a31 eebe 756b 83be
000002e0: d3a9 c23e 3e94 c7be 5301 213b 117b bfbe
000002f0: 9129 c8be ce4c c2be 2f2a ec3c 4c37 a3be
00000300: e0cb 293d ac42 6f3e 316c 19bc 6268 113f
00000310: 63ca de3d 7d12 e13e 190e 053f 3962 213e
00000320: dcd2 bfbe 2a17 e33d 12e9 7abe 276e c0be
00000330: 2c04 e43e 1093 20be e77c 19bd 867c c3be
00000340: 01ad e9bd 0b07 edbd 2b10 7dbe 358d 5abe
00000350: 7a91 93be aa9b dbbd daa5 8e3e 98e6 ac3d
00000360: 167f 20be 928b a2be c78c 113f b00b 31bd
00000370: fd6e 9fbd f95f b3be ca55 8a3e 7634 c63e
00000380: 916c 74be 6471 e53e 1095 893e 4e46 853e
00000390: c062 98bd 5501 bc3e 1111 af3e eaf2 d43e
000003a0: 67a3 0e3e 1dc9 833e 6267 9ebe 40a7 feba
000003b0: 8558 88bd ba4f 14bd e9a7 a6be 9ca8 843e
000003c0: 59f2 9f3e 94b3 403e c137 5fbe 8199 58bd
000003d0: ddfb 43bc d0c6 aabd 9bd1 0ebd 7231 90bd
000003e0: 6c36 0d3c 5408 c73d 6f89 f7be 3192 e43c
000003f0: da69 6bbe 3e2c 2c3e a15c 6c3e 33bb b1bd

phi.initial_conv_module.0._layers.8.conv.weight f4 [32, 64, 1]
-0.025557188 0.05846274 0.14506717 -0.034122456 -0.28933838 0.16802041 0.1853083 0.030354386
-0.039582174 -0.03787197 0.024386432 0.03928271 -0.18324353 -0.15294915 0.16056362 0.11404106
-0.0007994748 0.01591918 0.17487401 -0.071641624 -0.03414169 0.07468162 -0.03946393 0.15660925
0.022672005 0.13029608 -0.07666385 0.004109751 -0.053242385 -0.05170282 0.03880538 -0.13649516
0.17880775 -0.015567387 -0.022232618 0.06504362 -0.27422592 0.08988794 -0.06686531 0.18415478
-0.17165333 0.036226638 0.026456708 0.011192278 0.13892712 -0.034622055 -0.29076457 0.05201766
-0.12980266 -0.012768447 0.026180279 0.025092544 -0.05905886 0.089004956 0.06148313 0.14085427
0.0108730085 -0.034348216 0.011822686 0.030284321 0.18635969 0.050389525 0.13206175 0.085253224
0.11101444 -0.09146703 0.15324639 -0.057669256 -0.188837 0.10561859 0.059151437 -0.22790526
-0.0103974575 -0.075954616 -0.039325684 -0.14362209 0.1474618 0.043418825 0.056071993 0.04542029
0.059350554 0.052787494 0.034057766 -0.060392845 -0.018268723 -0.045253363 -0.16248544 -0.40465644
-0.009468859 -0.08266651 0.10155562 0.0139154615 0.11613802 -0.23705347 -0.082116276 0.054076564
-0.28416175 0.11992866 -0.14696993 -0.18902588 0.08201821 -0.018418752 0.0019248334 -0.075700186
-0.093450114 0.047430474 0.1647052 -0.031595163 -0.24629675 -0.0896634 -0.02138703 -0.0060651833
0.08837826 0.055189498 0.13254218 -0.28315833 -0.28084522 0.13055618 0.20001541 -0.16960669
0.035199746 0.016984226 0.17118317 0.0014989717 0.18147735 -0.06650032 -0.2581304 -0.084342666
-0.07580296 -0.030775836 0.02667124 -0.070363924 -0.081598215 -0.03395343 0.038215917 -0.1323176
0.15874822 -0.06617742 -0.0822945 -0.019170756 -0.102977514 -0.1444978 0.048362307 0.12258059
-0.0630689 -0.06449211 0.10538871 0.066272505 -0.23376092 -0.050057173 -0.13459405 -0.09889587
0.20656718 -0.120687045 0.11775136 0.031167615 -0.059169225 -0.013150194 -0.17812783 0.08066753
0.08088145 0.029186277 0.27373862 0.1805305 -0.19190124 0.015772887 -0.12256868 -0.10945572
-0.07165882 -0.10266131 -0.064749815 0.023119649 0.13962525 -0.035797387 0.046690267 0.15119739
0.17793359 -0.04397664 -0.04297749 0.18467705 0.022163922 0.014255518 -0.1363298 0.00073015905
0.17366587 -0.12938987 0.061084136 0.18134035 -0.08055725 0.15096821 0.13486318 0.028499639
0.013498797 -0.16367693 -0.2023808 0.032614008 0.013709189 -0.058106773 -0.037035834 -0.17272155
0.010608238 0.106491685 0.12799722 0.11454798 0.20963416 0.028968299 -0.08808725 -0.026008073
0.19683993 -0.0063983887 0.08025768 -0.0022799668 -0.011519373 -0.17358983 0.035757773 -0.17997283
0.11214971 0.039277624 0.052215204 -0.17598061 -0.069350235 0.11028595 0.17855792 0.044566322
0.09868112 -0.06828957 0.09739171 -0.05395147 -0.032990523 -0.22257037 -0.020022867 0.03973358
-0.14555939 -0.057309497 -0.15971638 0.028538808 -0.083292626 -0.066009216 0.08530673 0.0056722434
-0.0065831346 -0.051441174 -0.3116416 0.11338625 0.1488639 -0.03501557 0.22942537 -0.029213544
-0.10901624 -0.3280713 -0.12617302 -0.08043532 0.19284768 -0.039088804 0.14609931 -0.07577207
00000000: 4f5d d1bc a076 6f3d 7d8c 143e fdc3 0bbd
00000010: 2924 94be 8b0d 2c3e 76c1 3d3e c3a9 f83c
00000020: eb20 22bd a41f 1bbd 0ec6 c73c e8e6 203d
00000030: 31a4 3bbe b49e 1cbe ca6a 243e 5c8e e93d
00000040: d893 51ba f168 823c 2c12 333e d8b8 92bd
00000050: 28d8 0bbd adf2 983d eea4 21bd 2d5e 203e
00000060: a4ba b93c 566c 053e f001 9dbd 17ab 863b
00000070: b014 5abd 56c6 53bd 64f2 1e3d 63c5 0bbe
00000080: 6119 373e 5b0e 7fbc 2e21 b6bc 9735 853d
00000090: 5767 8cbe 2b17 b83d aef0 88bd 1293 3c3e
000000a0: e4c5 2fbe 6262 143d bdbb d83c d15f 373c
000000b0: e942 0e3e dbcf 0dbd 18df 94be 7810 553d
000000c0: fdea 04be c032 51bc 0678 d63c e18e cd3c
000000d0: b4e7 71bd 3b48 b63d bcd5 7b3d 1a3c 103e
000000e0: b424 323c b7b0 0cbd f0b3 413c d316 f83c
000000f0: 13d5 3e3e 3f65 4e3d 323b 073e 3e99 ae3d
00000100: 8a5b e33d 1153 bbbd 9fec 1c3e 9936 6cbd
00000110: 7d5e 41be 8f4e d83d c748 723d ff5f 69be
00000120: 195a 2abc 188e 9bbd f813 21bd ab11 13be
00000130: 3a00 173e f0d7 313d bfab 653d a00a 3a3d
00000140: 9119 733d b337 583d 2880 0b3d 7d5e 77bd
00000150: 4aa8 95bc 975b 39bd 9562 26be 212f cfbe
00000160: 4623 1bbc 0f4d a9bd 65fc cf3d adfd 633c
00000170: c5d9 ed3d 25be 72be 942c a8bd 637f 5d3d
00000180: a67d 91be 289d f53d 497f 16be 0090 41be
00000190: 2af9 a73d ece2 96bc b14a fc3a b308 9bbd
000001a0: c662 bfbd 7546 423d 7ba8 283e ee69 01bd
000001b0: 3735 7cbe 72a1 b7bd da33 afbc 72be c6bb
000001c0: a9ff b43d 620e 623d 23b9 073e 21fa 90be
000001d0: f2ca 8fbe 85b0 053e d7d0 4c3e 60ad 2dbe
000001e0: 9c2d 103d 8122 8b3c a44a 2f3e 2579 c43a
000001f0: 33d5 393e 5231 88bd ab29 84be d9bb acbd
00000200: 953e 9bbd 9b1d fcbc a57d da3c f61a 90bd
00000210: f71c a7bd c012 0bbd 4b88 1c3d 447e 07be
00000220: e58e 223e 0788 87bd 058a a8bd fd0b 9dbc
00000230: e0e5 d2bd 3bf7 13be 8e17 463d 880b fb3d
00000240: 442a 81bd 7014 84bd 09d6 d73d e1b9 873d
00000250: 065f 6fbe c008 4dbd 06d3 09be eb89 cabd
00000260: 5986 533e c52a f7bd a027 f13d 3a53 ff3c
00000270: 6e5b 72bd e973 57bc 2467 36be 0535 a53d
00000280: 2ca5 a53d 0f18 ef3c 7827 8c3e fddc 383e
00000290: c281 44be 2436 813c 4a05 fbbd 522a e0bd
000002a0: dcc1 92bd 1840 d2bd 8d9b 84bd 6b65 bd3c
000002b0: ecf9 0e3e 48a0 12bd 4b3e 3f3d 7dd3 1a3e
000002c0: 3934 363e d920 34bd 2a09 30bd fb1b 3d3e
000002d0: 1d91 b53c fa8f 693c 0a9a 0bbe 2568 3f3a
000002e0: 77d5 313e c77e 04be 5c33 7a3d 49b1 393e
000002f0: 33fb a4bd 6997 1a3e 9319 0a3e 1378 e93c
00000300: 0f2a 5d3c ed9a 27be ea3c 4fbe 4496 053d
00000310: 829c 603c 5e01 6ebd e3b2 17bd ebdd 30be
00000320: 2dce 2d3c 5018 da3d b411 033e 2298 ea3d
00000330: 56aa 563e ed4e ed3c 1767 b4bd e20e d5bc
00000340: 6890 493e 93a9 d1bb 235e a43d 7f6b 15bb
00000350: c1bb 3cbc 88c1 31be be76 123d cc4a 38be
00000360: bfae e53d 93e1 203d 9cdf 553d 4334 34be
00000370: 7f07 8ebd 9add e13d e3d7 363e 2d8b 363d
00000380: 5419 ca3d 67db 8bbd 4e75 c73d 37fc 5cbd
00000390: 1221 07bd 7de9 63be ff06 a4bc aebf 223d
000003a0: 850d 15be 5dbd 6abd b18c 23be 38ca e93c
000003b0: 5395 aabd d72f 87bd 4bb5 ae3d 3ade b93b
000003c0: 56b7 d7bb fbb3 52bd 7d8f 9fbe 0d37 e83d
000003d0: c76f 183e 7d6c 0fbd 7cee 6a3e 3e51 efbc
000003e0: e843 dfbd f6f8 a7be 8033 01be 46bb a4bd
000003f0: dd79 453e 951b 20bd 0f9b 153e 632e 9bbd

phi.initial_conv_module.0._layers.9.weight f4 [32]
1.1185626 1.0088482 1.1002852 1.2984824 1.1804861 1.0745099 1.1373898 1.0646254
1.1642427 1.206723 1.1216897 1.1606339 1.089192 1.1876391 1.1047723 1.0522048
1.061835 1.2172264 1.0970742 1.2780781 1.2730346 1.1283202 1.1722538 1.138376
1.3133088 1.0265379 0.98404866 1.0634695 1.2243907 1.0604184 1.1647154 1.2071841
00000000: 0f2d 8f3f f021 813f 25d6 8c3f ac34 a63f
00000010: 2b1a 973f 8a89 893f fd95 913f a545 883f
00000020: e805 953f e675 9a3f 8793 8f3f a78f 943f
00000030: a56a 8b3f 8f04 983f 2e69 8d3f a6ae 863f
00000040: 36ea 873f 13ce 9b3f ed6c 8c3f 1098 a33f
00000050: ccf2 a23f cc6c 903f 6a0c 963f 4eb6 913f
00000060: 811a a83f 9865 833f 9dea 7b3f c51f 883f
00000070: d6b8 9c3f cabb 873f 6515 953f 0285 9a3f
