logs/4birds_CF_linear_triangular_10epochs/2025-05-13_21-08-37/best_4birds_CF_linear_triangular_10epochs.pth (torch, 265850 bytes, 199 tensors)

stft_transform.window f4 [1024]
0	0x00000000	0.0
1	0x371e0000	9.417534e-06
2	0x381de000	3.7640333e-05
3	0x38b1a000	8.46982e-05
4	0x391de800	0.00015059114
5	0x3976b800	0.00023528934
6	0x39b1a000	0.0003387928
7	0x39f1c400	0.00046113133
8	0x3a1de200	0.00060227513
9	0x3a47d000	0.0007622242
10	0x3a76aa00	0.0009409487
11	0x3a953900	0.0011384785
12	0x3ab19300	0.0013547838
13	0x3ad06300	0.0015898645
14	0x3af1a800	0.0018436909
15	0x3b0ab180	0.0021162927
16	0x3b1dc980	0.0024076402
17	0x3b321b80	0.0027177036
18	0x3b47a800	0.0030465126
19	0x3b5e6e80	0.0033940375
20	0x3b766e80	0.0037602484
21	0x3b87d3c0	0.0041451156
22	0x3b950d40	0.0045486987
23	0x3ba2e300	0.004970908
24	0x3bb15500	0.005411744
25	0x3bc06340	0.0058712065
26	0x3bd00dc0	0.0063492954
27	0x3be05400	0.006845951
28	0x3bf13600	0.0073611736
29	0x3c0159e0	0.007894963
30	0x3c0a6660	0.00844726
31	0x3c13c080	0.009018064
32	0x3c1d6820	0.009607345
33	0x3c275d40	0.010215104
34	0x3c319fc0	0.01084131
35	0x3c3c2f80	0.011485934
36	0x3c470c60	0.0121489465
37	0x3c523640	0.012830317
38	0x3c5dad00	0.013530016
39	0x3c6970a0	0.014248043
40	0x3c758100	0.014984369
41	0x3c80eef0	0.015738934
42	0x3c8743b0	0.016511768
43	0x3c8dbe90	0.017302781
44	0x3c945f90	0.018111974
45	0x3c9b2690	0.018939286
46	0x3ca213a0	0.019784749
47	0x3ca92690	0.02064827
48	0x3cb05f50	0.021529824
49	0x3cb7bde0	0.022429407
50	0x3cbf4230	0.02334699
51	0x3cc6ec10	0.024282485
52	0x3ccebb90	0.025235921
53	0x3cd6b080	0.026207209
54	0x3cdecae0	0.027196348
55	0x3ce70a90	0.028203279
56	0x3cef6f80	0.029227972
57	0x3cf7f9a0	0.030270398
58	0x3d005468	0.031330496
59	0x3d04be80	0.032408237
60	0x3d093b10	0.033503592
61	0x3d0dca10	0.03461653
62	0x3d126b68	0.03574696
63	0x3d171f18	0.036894888
64	0x3d1be510	0.038060248
65	0x3d20bd40	0.039242983
66	0x3d25a7a0	0.040443063
67	0x3d2aa428	0.041660458
68	0x3d2fb2d0	0.04289514
69	0x3d34d378	0.044146985
70	0x3d3a0620	0.045415998
71	0x3d3f4ac0	0.046702147
72	0x3d44a140	0.048005342
73	0x3d4a09a0	0.049325585
74	0x3d4f83c0	0.050662756
75	0x3d550fa8	0.052016884
76	0x3d5aad38	0.05338785
77	0x3d605c68	0.054775625
78	0x3d661d30	0.05618018
79	0x3d6bef80	0.057601452
80	0x3d71d348	0.059039384
81	0x3d77c870	0.060493886
82	0x3d7dcef8	0.06196496
83	0x3d81f364	0.06345251
84	0x3d8507ec	0.064956516
85	0x3d882508	0.06647688
86	0x3d8b4ab4	0.06801358
87	0x3d8e78e8	0.06956655
88	0x3d91af98	0.0711357
89	0x3d94eec0	0.072721004
90	0x3d983658	0.0743224
91	0x3d9b8658	0.075939834
92	0x3d9edeb4	0.07757321
93	0x3da23f68	0.0792225
94	0x3da5a86c	0.080887645
95	0x3da919b8	0.082568586
96	0x3dac933c	0.0842652
97	0x3db014f8	0.085977495
98	0x3db39ee0	0.087705374
99	0x3db730e8	0.08944875
100	0x3dbacb0c	0.09120759
101	0x3dbe6d44	0.092981845
102	0x3dc21784	0.094771415
103	0x3dc5c9c0	0.096576214
104	0x3dc983f8	0.09839624
105	0x3dcd461c	0.10023138
106	0x3dd11020	0.10208154
107	0x3dd4e204	0.103946716
108	0x3dd8bbb8	0.105826795
109	0x3ddc9d30	0.10772169
110	0x3de0866c	0.10963139
111	0x3de4775c	0.111555785
112	0x3de86ff4	0.11349478
113	0x3dec702c	0.115448326
114	0x3df07800	0.11741638
115	0x3df48760	0.11939883
116	0x3df89e40	0.12139559
117	0x3dfcbc9c	0.12340662
118	0x3e007132	0.1254318
119	0x3e0287ca	0.12747112
120	0x3e04a20e	0.12952444
121	0x3e06bffc	0.13159174
122	0x3e08e18a	0.13367286
123	0x3e0b06b8	0.13576782
124	0x3e0d2f7c	0.13787645
125	0x3e0f5bd6	0.13999876
126	0x3e118bbc	0.1421346
127	0x3e13bf28	0.14428389
128	0x3e15f61a	0.14644662
129	0x3e183088	0.14862263
130	0x3e1a6e6e	0.15081188
131	0x3e1cafc6	0.15301427
132	0x3e1ef48c	0.15522975
133	0x3e213cb8	0.15745819
134	0x3e238844	0.1596995
135	0x3e25d72e	0.16195366
136	0x3e28296e	0.16422054
137	0x3e2a7efc	0.16650003
138	0x3e2cd7d8	0.16879213
139	0x3e2f33f6	0.17109665
140	0x3e319356	0.1734136
141	0x3e33f5ec	0.1757428
142	0x3e365bb6	0.17808422
143	0x3e38c4b0	0.1804378
144	0x3e3b30ce	0.18280336
145	0x3e3da010	0.1851809
146	0x3e40126c	0.18757027
147	0x3e4287de	0.18997142
148	0x3e45005e	0.19238421
149	0x3e477be8	0.1948086
150	0x3e49fa76	0.1972445
151	0x3e4c7c00	0.19969177
152	0x3e4f0080	0.20215034
153	0x3e5187f2	0.20462015
154	0x3e54124e	0.20710108
155	0x3e569f8e	0.20959303
156	0x3e592fac	0.21209592
157	0x3e5bc2a2	0.21460965
158	0x3e5e5866	0.21713409
159	0x3e60f0f8	0.21966922
160	0x3e638c4e	0.2222149
161	0x3e662a60	0.22477102
162	0x3e68cb2a	0.22733751
163	0x3e6b6ea4	0.22991425
164	0x3e6e14ca	0.23250118
165	0x3e70bd94	0.23509818
166	0x3e7368fc	0.23770517
167	0x3e7616fa	0.24032202
168	0x3e78c788	0.24294865
169	0x3e7b7aa0	0.24558496
170	0x3e7e3036	0.24823079
171	0x3e807426	0.25088614
172	0x3e81d16c	0.2535509
173	0x3e832fea	0.25622493
174	0x3e848f9c	0.25890815
175	0x3e85f07d	0.2616004
176	0x3e87528c	0.26430166
177	0x3e88b5c4	0.26701176
178	0x3e8a1a22	0.26973063
179	0x3e8b7fa4	0.2724582
180	0x3e8ce646	0.27519435
181	0x3e8e4e04	0.27793896
182	0x3e8fb6da	0.28069192
183	0x3e9120c4	0.2834531
184	0x3e928bc0	0.28622246
185	0x3e93f7ca	0.28899986
186	0x3e9564e0	0.29178524
187	0x3e96d2fc	0.29457843
188	0x3e98421c	0.29737937
189	0x3e99b23c	0.30018795
190	0x3e9b2358	0.30300403
191	0x3e9c956b	0.30582747
192	0x3e9e0876	0.3086583
193	0x3e9f7c72	0.31149632
194	0x3ea0f15c	0.31434143
195	0x3ea26730	0.3171935
196	0x3ea3ddec	0.3200525
197	0x3ea5558c	0.3229183
198	0x3ea6ce08	0.32579064
199	0x3ea84763	0.32866964
200	0x3ea9c196	0.33155507
201	0x3eab3c9e	0.33444685
202	0x3eacb878	0.33734488
203	0x3eae351e	0.340249
204	0x3eafb28f	0.34315917
205	0x3eb130c4	0.34607518
206	0x3eb2afbd	0.34899703
207	0x3eb42f75	0.35192457
208	0x3eb5afe8	0.35485768
209	0x3eb73112	0.35779625
210	0x3eb8b2f0	0.36074018
211	0x3eba357e	0.36368936
212	0x3ebbb8b6	0.3666436
213	0x3ebd3c99	0.36960295
214	0x3ebec120	0.37256718
215	0x3ec04648	0.3755362
216	0x3ec1cc0e	0.37850994
217	0x3ec3526d	0.38148823
218	0x3ec4d960	0.38447094
219	0x3ec660e6	0.38745803
220	0x3ec7e8fc	0.3904494
221	0x3ec9719b	0.39344487
222	0x3ecafac0	0.39644432
223	0x3ecc8469	0.3994477
224	0x3ece0e91	0.40245488
225	0x3ecf9932	0.40546566
226	0x3ed1244c	0.40848005
227	0x3ed2afda	0.4114979
228	0x3ed43bd8	0.41451907
229	0x3ed5c842	0.41754347
230	0x3ed75514	0.42057097
231	0x3ed8e24a	0.42360145
232	0x3eda6fdf	0.42663476
233	0x3edbfdd2	0.42967087
234	0x3edd8c1f	0.43270966
235	0x3edf1ac0	0.43575096
236	0x3ee0a9b2	0.43879467
237	0x3ee238f2	0.4418407
238	0x3ee3c87c	0.44488895
239	0x3ee55849	0.4479392
240	0x3ee6e859	0.45099142
241	0x3ee878a8	0.45404553
242	0x3eea0931	0.45710137
243	0x3eeb99f0	0.46015882
244	0x3eed2ae1	0.46321777
245	0x3eeebc00	0.46627808
246	0x3ef04d49	0.46933964
247	0x3ef1deba	0.4724024
248	0x3ef3704d	0.47546616
249	0x3ef50200	0.47853088
250	0x3ef693ce	0.4815964
251	0x3ef825b3	0.48466262
252	0x3ef9b7ac	0.48772943
253	0x3efb49b2	0.49079663
254	0x3efcdbc6	0.49386424
255	0x3efe6de1	0.49693206

phi.initial_conv_module.0._layers.0.conv.weight f4 [64, 64, 1]
0	0x3d9284a3	0.07154205
1	0x3dfb959d	0.12284396
2	0xbdd943dc	-0.10608646
3	0x3c4016eb	0.011724214
4	0xbda26356	-0.07929103
5	0xbc4d1133	-0.012516308
6	0xbd9f6f93	-0.07784953
7	0x3e06bc82	0.13157848
8	0x3e15cd0f	0.14629005
9	0xbd9b5624	-0.075847894
10	0x3dd323d2	0.103095666
11	0x3d3c6352	0.045993157
12	0x3e223930	0.15842128
13	0x3ca57e7c	0.020201914
14	0x3d0685c6	0.03284242
15	0xbda80807	-0.08204656
16	0x3d67ed10	0.056622565
17	0x3c8dbc19	0.017301606
18	0xbd0f3c34	-0.034969524
19	0x3c380467	0.011231518
20	0xbd80939c	-0.06278154
21	0xbcef1942	-0.029186849
22	0xbde342dd	-0.110967375
23	0x3cf2bfd6	0.02963249
24	0xbe02fd8e	-0.12792036
25	0xbe0465a1	-0.12929393
26	0xbdd20300	-0.102544785
27	0xbdfc52ea	-0.12320502
28	0xbd68b680	-0.05681467
29	0xbe37f3ed	-0.17964144
30	0x3de78d3c	0.11306235
31	0xbd5ecf71	-0.05439705
32	0x3dfe1950	0.12407172
33	0xbd4a6f1c	-0.04942237
34	0xbe1f9206	-0.15583047
35	0xbd52d9ae	-0.051477127
36	0xbdf67043	-0.12033131
37	0x3ba2b26a	0.0049651163
38	0xbd2704e0	-0.040776134
39	0xbd60163f	-0.054708716
40	0x3d38b943	0.045098554
41	0x3d8c7554	0.06858316
42	0x3e6392c4	0.22223955
43	0x3e63d4a2	0.22249082
44	0x3dc5ce8c	0.09658536
45	0xbdeff5a8	-0.11716777
46	0xbd48dfbe	-0.049041502
47	0xbdbd129a	-0.092320636
48	0xbd3127eb	-0.04325096
49	0xbe4242a9	-0.18970741
50	0xbe3c6372	-0.1839731
51	0xbd43e06b	-0.047821444
52	0xbdc6b81c	-0.09703085
53	0x3e26c204	0.16284949
54	0x3dbbbac0	0.09166479
55	0x3db05e33	0.08611717
56	0x3d802feb	0.062591396
57	0xbd42245b	-0.047397953
58	0x3d25c48e	0.040470652
59	0xbdf0e03a	-0.11761518
60	0xbd8b1b27	-0.06792288
61	0xbe662624	-0.22475487
62	0xbd203eec	-0.039122507
63	0xbcf797c4	-0.030223735
64	0xbcc4af06	-0.024009239
65	0xbdc2d033	-0.09512367
66	0x3d2be5f3	0.041967344
67	0xbe14e353	-0.14539842
68	0xbe2d0f64	-0.16900402
69	0xbe333fc9	-0.17504801
70	0x3c94b579	0.01815294
71	0xbd66cecd	-0.056349564
72	0x3d616b4f	0.055033978
73	0xbdf7f73e	-0.121077046
74	0xbe02e15b	-0.12781279
75	0xbdd83acf	-0.10558092
76	0xbdba5eaa	-0.09100087
77	0x3cc56ded	0.024100268
78	0xbd6cd5d3	-0.057821106
79	0x3cb7d26a	0.0224392
80	0xbe08dfa1	-0.13366558
81	0xbe1a06d3	-0.15041666
82	0x3d0e9e09	0.034818683
83	0xbd5f7a11	-0.05455977
84	0x3d7f981f	0.062400933
85	0xbd2b9cc6	-0.041897558
86	0x3d2279fb	0.03966711
87	0xbdd4b059	-0.10385198
88	0xbda2d8bd	-0.07951496
89	0x3cfff4d6	0.031244677
90	0x3da0f188	0.078585684
91	0x3d8d8f6f	0.069121234
92	0x3e0a4dbf	0.1350622
93	0x3df0d124	0.117586404
94	0xbdf94d70	-0.12172973
95	0xbdffb408	-0.1248551
96	0xbcbe4998	-0.023228452
97	0xbe146143	-0.14490227
98	0xbdd1a3e8	-0.10236341
99	0xbe35b4f1	-0.17744805
100	0xbde420cd	-0.11139069
101	0x3be70190	0.007049747
102	0xbd9108a3	-0.070817254
103	0xbe285926	-0.16440257
104	0xbd4651be	-0.0484178
105	0xbe10efa1	-0.14153911
106	0xbe404e08	-0.18779767
107	0xbe2ed815	-0.17074616
108	0xbe47c8e1	-0.19510223
109	0xbe2debdb	-0.16984503
110	0x3ddd8d9e	0.10818027
111	0x3d74570c	0.059653327
112	0x3d7a4a6b	0.061106127
113	0xbd89da26	-0.06731062
114	0xbcdc9edb	-0.026931217
115	0xbcdadd93	-0.026716983
116	0x3cf93fcd	0.03042593
117	0xbe035821	-0.12826587
118	0xbda52c20	-0.08065057
119	0xbe0097b7	-0.12557875
120	0xbd3b3797	-0.04570731
121	0xbc33ecee	-0.010981781
122	0x3c90ad3e	0.017660733
123	0xbcee1fb9	-0.02906786
124	0x3cc9dd65	0.024641702
125	0x3d97f027	0.07418852
126	0x3da45c4a	0.08025415
127	0xbd562fac	-0.052291557
128	0x3e0b43d2	0.1360009
129	0x3d23b861	0.03997076
130	0x3e06d484	0.13167006
131	0x3cffbde6	0.03121848
132	0xbdee15cb	-0.116252504
133	0x3c504641	0.012712062
134	0xbd8ed374	-0.06973925
135	0xbc8eb1e7	-0.017418815
136	0xbc8fc6b7	-0.01755081
137	0x3cbeb0d1	0.023277672
138	0x3e05ec67	0.13078462
139	0xbc941eff	-0.018081186
140	0x3d0d2889	0.034462485
141	0xbe065763	-0.13119273
142	0x3a587fda	0.00082587975
143	0xbe21318b	-0.15741555
144	0xbdb4e426	-0.08832578
145	0xbb7c7a48	-0.0038525034
146	0x3d821944	0.06352475
147	0x3dc3ed3d	0.09566734
148	0x3dfc241d	0.123115756
149	0xbdc76d13	-0.09737601
150	0xbd3c273b	-0.04593585
151	0xbe1f621c	-0.1556477
152	0xbddd8d0b	-0.108179174
153	0xbe34c929	-0.17654862
154	0x3de6a220	0.11261392
155	0xbca78392	-0.02044848
156	0x3e3447fc	0.17605585
157	0x3e24aaa2	0.16080716
158	0x3e0de605	0.13857277
159	0xbca84b03	-0.02054358
160	0x3dd5c57a	0.10438056
161	0x3cdf6c01	0.02727318
162	0x3c25a49d	0.010110048
163	0xbe28b48e	-0.16475126
164	0x3c041e43	0.008063856
165	0xbcb863eb	-0.022508582
166	0xbd8420a9	-0.06451542
167	0x3dea730e	0.11447726
168	0x3d0e9b8c	0.03481631
169	0xbd68d5da	-0.05684457
170	0xbd1e613b	-0.038666945
171	0x3c8f430e	0.017488029
172	0x3dc390ca	0.09549101
173	0xbd8a0dfc	-0.067409486
174	0xbdeaf229	-0.1147197
175	0xbdf55be4	-0.11980417
176	0xbe400734	-0.18752748
177	0xbd52b23b	-0.051439505
178	0x3b862d58	0.004094761
179	0xbe15849d	-0.14601369
180	0x3d4d4a5c	0.050119743
181	0x3dbf38ac	0.09336981
182	0x3d8cde5e	0.06878351
183	0x3cca675c	0.024707489
184	0x3e0ce643	0.13759713
185	0x3e098b94	0.13432151
186	0x3de02c07	0.109458975
187	0x3bd04939	0.006356385
188	0xba7c1636	-0.0009616347
189	0x3d5a7f89	0.053344283
190	0xbc8afebd	-0.016967172
191	0xbdbd5197	-0.09244078
192	0x3d5ac5a4	0.05341114
193	0x3e2180a2	0.15771726
194	0x3c8e1ab9	0.017346727
195	0xbc89a889	-0.016803997
196	0x3d9b6e9f	0.07589459
197	0xbce3a8bd	-0.027790422
198	0x3c3160ad	0.010826272
199	0x3d720216	0.05908402
200	0x3dc503a3	0.09619834
201	0x3e85490b	0.2603229
202	0x3e894172	0.26807743
203	0x3ddbdcfe	0.1073551
204	0x3d0fb91f	0.035088655
205	0xbd0a2c39	-0.03373358
206	0xbd6d4cef	-0.057934698
207	0xbdc82673	-0.097729586
208	0xbdb0f496	-0.08640401
209	0xbd1e9664	-0.038717642
210	0x3c2247a2	0.009904774
211	0x3b120862	0.0022282829
212	0xbdfe1647	-0.12406593
213	0xbd825ce0	-0.06365371
214	0xbcf89d72	-0.030348513
215	0x3e12f61c	0.14351696
216	0x3dac1225	0.08401898
217	0x3d83b979	0.064318605
218	0x3dc3fcbb	0.09569689
219	0xbc9e32cd	-0.019311333
220	0xbdad8728	-0.08473045
221	0x3ce76106	0.028244507
222	0xbd58ee44	-0.052961603
223	0x3b00a643	0.001963035
224	0xbda3e649	-0.08002908
225	0x3e2d6ab7	0.1693524
226	0x3e624c5e	0.22099444
227	0x3e0a17fb	0.1348571
228	0xbd3f7a91	-0.046747748
229	0xbdbc101a	-0.09182759
230	0xbd88b194	-0.06674495
231	0x3dd8572a	0.105635
232	0x3d6dc3db	0.05804811
233	0x3e195d23	0.14976935
234	0x3dcc6ba4	0.09981468
235	0x3d2a85c4	0.041631475
236	0xbb75e890	-0.0037522651
237	0xbd81a187	-0.06329637
238	0xbd59e07b	-0.053192597
239	0xbd9666a0	-0.07343793
240	0x3d7b56a3	0.06136192
241	0xbd5ef40e	-0.054431967
242	0x3cdaac14	0.026693381
243	0xbcc64d71	-0.024206849
244	0x3d54195f	0.05178201
245	0x3c6774d5	0.014126976
246	0x3a866065	0.0010252116
247	0x3dbb5556	0.09147136
248	0xbc39dc21	-0.011343987
249	0x3df81072	0.12112512
250	0xbc1e71ed	-0.009670717
251	0xbd704f56	-0.05866941
252	0x3bbf58c5	0.0058394396
253	0xbdc42a4b	-0.09578379
254	0xbd6f5d86	-0.0584388
255	0xbe252638	-0.1612786

phi.initial_conv_module.0._layers.1.weight f4 [64]
0	0x3f8230d3	1.017115
1	0x3f8861f8	1.0654898
2	0x3f78ce93	0.9719021
3	0x3f867968	1.05058
4	0x3f85c0c9	1.0449458
5	0x3f7a8100	0.9785309
6	0x3f5b59f7	0.8568415
7	0x3f66c454	0.9014332
8	0x3f804597	1.0021237
9	0x3f8fc063	1.1230587
10	0x3f5cf0c9	0.8630491
11	0x3f8a4a92	1.0804007
12	0x3f756d9a	0.95870364
13	0x3f7293f6	0.9475702
14	0x3f81d156	1.0142009
15	0x3f7e92bb	0.9944264
16	0x3f80c1d4	1.0059152
17	0x3f868105	1.0508124
18	0x3f85dd4f	1.0458163
19	0x3f857a1c	1.042789
20	0x3f73deee	0.9526204
21	0x3f6397f7	0.88903755
22	0x3f854b51	1.041361
23	0x3f84d601	1.0377809
24	0x3f7c0c1e	0.9845599
25	0x3f683575	0.9070657
26	0x3f6b75d3	0.9197666
27	0x3f747dd2	0.95504487
28	0x3f6c7586	0.92366827
29	0x3f7813fa	0.9690548
30	0x3f82b5f7	1.0211781
31	0x3f6277ee	0.8846425
32	0x3f733c3a	0.95013773
33	0x3f56f841	0.83972555
34	0x3f6de57f	0.9292831
35	0x3f4ecac3	0.8077814
36	0x3f82ad1e	1.0209081
37	0x3f61b78a	0.88170683
38	0x3f8ae6d7	1.0851697
39	0x3f753b29	0.95793396
40	0x3f86a2fd	1.051849
41	0x3f886dd3	1.0658516
42	0x3f7c6841	0.9859658
43	0x3f7b0bd1	0.98064905
44	0x3f84493e	1.0334852
45	0x3f4f4cde	0.80976665
46	0x3f88500b	1.0649427
47	0x3f82c4d9	1.0216323
48	0x3f66d847	0.90173763
49	0x3f7ea111	0.9946452
50	0x3f71d825	0.94470435
51	0x3f64ea1a	0.8941971
52	0x3f755ebd	0.95847684
53	0x3f69de88	0.9135518
54	0x3f7b3c4c	0.9813888
55	0x3f844dea	1.0336277
56	0x3f722e9b	0.94602364
57	0x3f889f4d	1.0673615
58	0x3f8091b8	1.004447
59	0x3f646a43	0.8922464
60	0x3f733eb3	0.95017546
61	0x3f775c9a	0.96625674
62	0x3f8362ec	1.0264564
63	0x3f8b2977	1.0872029

phi.initial_conv_module.0._layers.1.bias f4 [64]
0	0xbe5b3deb	-0.21410339
1	0x3d40b3b2	0.04704637
2	0x3d92a4d9	0.071603484
3	0x3ce361ad	0.027756536
4	0xbd053a10	-0.032526076
5	0xbd1cfb20	-0.03832543
6	0x3dd00fa7	0.101592354
7	0x3c1151c7	0.008869595
8	0x3bbc0788	0.0057382025
9	0x3c112f66	0.008861398
10	0xbbaff792	-0.005370089
11	0x3ce15090	0.027504236
12	0x3d006052	0.03134186
13	0x3d21a743	0.039466154
14	0x3d36d2d4	0.044634655
15	0xbd9b5223	-0.07584026
16	0xbbc0b385	-0.0058807754
17	0xbddad74f	-0.10685598
18	0xbd386f77	-0.045028176
19	0x3d1ceb33	0.03831024
20	0xbd80301e	-0.062591776
21	0xbc14eaa1	-0.009089143
22	0x3cafb7b9	0.02144991
23	0xbd9fecc1	-0.07808829
24	0x3dc20574	0.09473696
25	0x3cabf65c	0.020991497
26	0x3dfdeee5	0.12399081
27	0xbce5b910	-0.028042346
28	0x3e279167	0.1636406
29	0x3c8607d7	0.01636116
30	0x3d1a922e	0.037737064
31	0x3cc8e53f	0.024523376
32	0x3d4f4e26	0.050611638
33	0x3d98d579	0.07462592
34	0xbda190a6	-0.078889176
35	0x3e357d3a	0.17723551
36	0xbd892a20	-0.06697488
37	0x3e2d0ed1	0.16900183
38	0xbc28d036	-0.010303548
39	0xbd713264	-0.058885947
40	0x3e3e1f71	0.18566681
41	0xbd204464	-0.039127722
42	0xbaf7fea5	-0.0018920494
43	0x3d798f54	0.060927704
44	0xbd0c01d1	-0.03418142
45	0xbaeecb2c	-0.0018218509
46	0xbc66ecdb	-0.014094557
47	0x3b6ffd45	0.0036619466
48	0x3dc85dbb	0.09783503
49	0xbc6d962c	-0.014501136
50	0xbc4cbf32	-0.012496756
51	0xbdf29cab	-0.11846288
52	0xbc5d5ed3	-0.013511377
53	0xbdb04c09	-0.086082526
54	0x3de8fd2e	0.11376415
55	0xbc6023d3	-0.013680416
56	0x3d814132	0.06311263
57	0x3ddea4be	0.10871266
58	0x3cd35e90	0.025801927
59	0x3dc8624f	0.09784376
60	0x3a953673	0.0011384025
61	0x3bfd48e6	0.0077296374
62	0xbdd97ff9	-0.10620112
63	0x3d28b473	0.041187715

phi.initial_conv_module.0._layers.1.running_mean f4 [64]
0	0x3d2515c9	0.04030398
1	0x3e85db63	0.2614394
2	0xbe014e26	-0.12627468
3	0x3e8df93e	0.2772922
4	0xbd8a99b5	-0.067675985
5	0xbe841ce2	-0.25803286
6	0xbf269b6f	-0.6508092
7	0x3e440623	0.19142966
8	0x3dcd0179	0.100100465
9	0x3dd2278a	0.10261448
10	0x3ea9dc41	0.33175853
11	0xbedc74d5	-0.43057886
12	0xbfad24d5	-1.3526865
13	0xbf6c9a34	-0.92422795
14	0xbda0f226	-0.07858686
15	0x3fadabf3	1.35681
16	0xbf47efe5	-0.78100425
17	0x3e87e471	0.26541474
18	0x3ee75cda	0.45188028
19	0x3f402f4f	0.7507219
20	0xbf145ca8	-0.5795388
21	0x3e87e4c5	0.26541725
22	0x3e95730d	0.2918934
23	0xbeb97f69	-0.3623002
24	0x3f0f4585	0.55965453
25	0x3e453727	0.1925932
26	0xbf54999b	-0.83046883
27	0x3f4b13e0	0.793272
28	0xbe3c8630	-0.18410563
29	0x3d63d7cc	0.05562572
30	0xbf0f497b	-0.559715
31	0xbebdbe79	-0.37059382
32	0x3e0e1e4c	0.13878745
33	0x3cf1f692	0.02953652
34	0x3f361eaf	0.7114057
35	0xbea51d37	-0.32248852
36	0xbeadd2ba	-0.33949834
37	0xbeebdd64	-0.46067345
38	0xbc9310b0	-0.017952293
39	0x3e8b3dd5	0.27195612
40	0x3de88c5b	0.11354896
41	0x3f79b943	0.9754831
42	0xbf0987f2	-0.5372306
43	0x3f28149e	0.6565646
44	0x3d47803e	0.048706286
45	0xbdf6602d	-0.12030063
46	0xbf405175	-0.75124294
47	0x3f126263	0.57181376
48	0x3d93b1c7	0.07211643
49	0xbe309580	-0.1724453
50	0x3e0c2eaf	0.13689683
51	0x3ec84606	0.39115924
52	0x3f88d54d	1.0690094
53	0x3b1ab448	0.002360599
54	0x3f31734f	0.6931657
55	0x3edca0ee	0.4309153
56	0xbe72c5e4	-0.23708302
57	0x3e279dbe	0.16368768
58	0x3d104deb	0.03523056
59	0xbf0ed4f7	-0.5579371
60	0x3f0e871f	0.5567493
61	0xbeea49ff	-0.4575958
62	0x3e21897c	0.15775102
63	0xbe4e6193	-0.20154409

phi.initial_conv_module.0._layers.1.running_var f4 [64]
0	0x3f92af92	1.145983
1	0x402da0a6	2.7129302
2	0x3f0cd5de	0.55013835
3	0x3f5b7899	0.8573089
4	0x3ecc985d	0.39959994
5	0x40604b18	3.5045834
6	0x3f2613b2	0.648738
7	0x3f3d88e6	0.74037015
8	0x3f0b55d1	0.5442782
9	0x3e212792	0.15737751
10	0x3f8f99ad	1.1218773
11	0x3f459e2b	0.7719447
12	0x3f7bbed1	0.9833804
13	0x3f164f36	0.58714616
14	0x3e9f7335	0.31142583
15	0x3f8a50a1	1.0805856
16	0x402214b9	2.5325148
17	0x3eccf38a	0.40029556
18	0x3f8b63ce	1.0889833
19	0x3f2ea14e	0.6821488
20	0x3f848c0d	1.035524
21	0x3ea5dac7	0.32393476
22	0x3f73eb04	0.9528048
23	0x3f37f42e	0.71856964
24	0x3fdb7d3c	1.7147593
25	0x3f66782c	0.9002712
26	0x3fa5e627	1.2960862
27	0x3f57d5d9	0.8431068
28	0x3f62d854	0.8861134
29	0x3f6ca4f1	0.9243918
30	0x3fd51968	1.6648378
31	0x40670702	3.6098027
32	0x3f04f6ea	0.5193926
33	0x3ee70447	0.4512045
34	0x3fbfa21e	1.4971349
35	0x3f1402fc	0.57817054
36	0x3f38ae12	0.7214061
37	0x3f073ab0	0.52823925
38	0x3ee01ec9	0.43773487
39	0x3f5782f7	0.8418421
40	0x4089c6a9	4.3055005
41	0x3f8dadaf	1.1068629
42	0x3fa96e72	1.323683
43	0x3f22594a	0.63417494
44	0x3f070a6b	0.5275027
45	0x3f57663d	0.8414038
46	0x3f6228ee	0.88343704
47	0x3f3d6d71	0.7399512
48	0x3eaa505f	0.33264443
49	0x3f34e546	0.70662344
50	0x3f785dba	0.97018015
51	0x3fc65449	1.5494472
52	0x3fee920a	1.8638318
53	0x3f6f8d1b	0.93574685
54	0x3f7d2bef	0.9889516
55	0x3f5dc7bb	0.8663289
56	0x3f8ef47e	1.1168363
57	0x3e9dc2a7	0.3081257
58	0x3f4c69a8	0.7984872
59	0x3f3b3cda	0.7313973
60	0x3f3f70bc	0.74781394
61	0x3ea5156d	0.3224291
62	0x3f269724	0.6507437
63	0x3f277492	0.6541225

phi.initial_conv_module.0._layers.4.conv.weight f4 [64, 1, 5]
0	0xbe61522f	-0.22004007
1	0x3ecdef92	0.4022184
2	0x3f01d5dd	0.50716954
3	0x3ed7ec52	0.42172486
4	0xbd76905f	-0.060196277
5	0x3d99ebf2	0.07515706
6	0xbf02d12f	-0.5110044
7	0x3e205b79	0.15659894
8	0xbdc63b20	-0.09679246
9	0xbed50923	-0.41608533
10	0xbe75c041	-0.2399912
11	0xbeda774e	-0.42669147
12	0xbd7b8c26	-0.061412953
13	0xbe94128f	-0.2892041
14	0xbe64689e	-0.22305533
15	0x3f0a3301	0.53984076
16	0x3b89b9a4	0.0042030383
17	0x3e366736	0.1781281
18	0xbde848e8	-0.11342031
19	0x3e2dcf64	0.16973644
20	0x3cb6ad70	0.022299498
21	0x3e589277	0.21149622
22	0x3dd8fa34	0.105945975
23	0xbe563bbc	-0.20921224
24	0x3eeacd24	0.45859635
25	0xbd7c296e	-0.061562948
26	0xbe9db3e8	-0.3080132
27	0x3d9f3ebe	0.07775639
28	0xbe07700d	-0.13226338
29	0xbea90bf1	-0.33016923
30	0x3d7324fb	0.05936144
31	0xbdaeeb8e	-0.08541022
32	0xbe295a31	-0.16538312
33	0xbe9811ef	-0.29701182
34	0xbe7278ca	-0.2367889
35	0xbe97173b	-0.2950991
36	0xbdd8b5a6	-0.10581522
37	0x3e88c351	0.26711515
38	0xbec1f5ef	-0.37882945
39	0xbeb80504	-0.35941327
40	0xbe95230e	-0.29128307
41	0xb7d19866	-2.4985708e-05
42	0x3d2103dd	0.039310325
43	0xbed36a92	-0.41292244
44	0x3df5bf63	0.11999395
45	0xbed40f6e	-0.41418022
46	0x3ed4dd34	0.41575015
47	0x3da5b798	0.08091658
48	0xbda2cdbe	-0.079493985
49	0xbe4a87fe	-0.1977844
50	0x3e046bda	0.12931767
51	0x3eab726d	0.33485737
52	0xbe91f9aa	-0.2851079
53	0xbdf097eb	-0.11747726
54	0x3ec85326	0.39125937
55	0xbdae72cf	-0.08517992
56	0xbeb6d3d3	-0.35708484
57	0xbe1f5c2f	-0.15562509
58	0xbcf35ad2	-0.029706392
59	0xbdccaf4b	-0.09994372
60	0xbebe4692	-0.37163216
61	0xbeaa8362	-0.33303362
62	0x3d8cd7ab	0.06877073
63	0x3e74a2df	0.23890255
64	0x3ec28853	0.37994632
65	0x3dd61d33	0.10454788
66	0x3e9678c7	0.2938902
67	0xbe88966a	-0.26677257
68	0x3e7b6c6c	0.24553078
69	0x3ecdd1f2	0.40199238
70	0x3eb2da8b	0.3493236
71	0xbd9e18c1	-0.07719565
72	0x3ece0915	0.40241304
73	0xbebc6a34	-0.36799777
74	0xbd2bdf74	-0.04196115
75	0xbcda235a	-0.026628185
76	0xbee6b88e	-0.4506268
77	0xbe8d62f1	-0.2761455
78	0xbe6ec7ce	-0.23318407
79	0x3e66ddf0	0.225456
80	0xbca7df5f	-0.020492254
81	0x3e53a8d2	0.20669869
82	0xbdbe50dd	-0.09292767
83	0x3eb53cb0	0.35397863
84	0x3e13627c	0.14393038
85	0x3ed8d6cb	0.42351374
86	0x3edb2aeb	0.4280618
87	0xbea67471	-0.32510713
88	0xbea57519	-0.323159
89	0x3e36f70a	0.17867675
90	0x3f12b157	0.5730185
91	0xbe32cb40	-0.17460346
92	0x3e48d006	0.19610605
93	0xbd70c7eb	-0.058784407
94	0x3ecf54b1	0.40494302
95	0x3e9163a6	0.28396338
96	0x3ec9fc9b	0.39450535
97	0x3ea32606	0.31864947
98	0x3d2aa533	0.041661453
99	0x3ed40629	0.4141095
100	0xbe863a35	-0.26216283
101	0xbd54db0e	-0.05196672
102	0xbe4675e7	-0.19380914
103	0xbe9be088	-0.3044474
104	0xbe069e0c	-0.13146228
105	0x3d30941d	0.04311
106	0xbd956b90	-0.072959065
107	0xbed8c1e5	-0.4233543
108	0xbdf0c4e8	-0.11756307
109	0xbd40e094	-0.047089174
110	0xbe2066f5	-0.15664275
111	0x3ed17396	0.40908498
112	0xbe9cad13	-0.30600795
113	0x3d280fbe	0.041030638
114	0xbec68f95	-0.3878142
115	0xbec23137	-0.37928173
116	0xbbfc1777	-0.007693227
117	0x3ee6cef4	0.45079768
118	0x3ee13dde	0.43992513
119	0x3e2d56a3	0.1692758
120	0x3eb16a81	0.3465157
121	0xbe65ea3a	-0.22452632
122	0x3e679600	0.22615814
123	0x3e404d05	0.1877938
124	0xbf00216d	-0.50051004
125	0xbe28b70c	-0.16476077
126	0x3e77e405	0.24208076
127	0x3c681e68	0.014167406
128	0xbed49e7f	-0.41527173
129	0xbef9af46	-0.48766536
130	0x3e95236b	0.29128584
131	0xbc5804ee	-0.013184769
132	0xbda87e6a	-0.082272366
133	0xbf088e10	-0.5334177
134	0x3e8a462b	0.2700666
135	0xbe5b7d41	-0.214345
136	0x3e9e96ad	0.30974331
137	0x3d9a9bee	0.075492725
138	0x3ddc54fd	0.10758398
139	0x3e4c9928	0.199803
140	0xbe277902	-0.16354755
141	0xbe0c97f1	-0.13729836
142	0x3eb62801	0.35577396
143	0xbea95841	-0.33075145
144	0x3e5b2b30	0.21403193
145	0xbe357080	-0.17718697
146	0xbe730004	-0.23730475
147	0x3e803830	0.25042868
148	0x3d5ba0a2	0.05361999
149	0xbed505dd	-0.41606036
150	0x3dbf7783	0.09348967
151	0xbead53a1	-0.33852866
152	0x3ed26bd1	0.41097882
153	0xbd97a959	-0.074053474
154	0x3f1eee5e	0.6208247
155	0x3e2c90ba	0.16852084
156	0x3c75661f	0.014977961
157	0x3e39956d	0.18123408
158	0xbc4291a2	-0.011875542
159	0xbe73ae4e	-0.2379696
160	0x3eb0e985	0.3455316
161	0x3eb72326	0.35769004
162	0xbbd818af	-0.0065947394
163	0x3ea657c4	0.32488835
164	0xbd21537e	-0.039386265
165	0xbe889055	-0.26672617
166	0xbe94ac88	-0.2903788
167	0x3e826dff	0.25474545
168	0xbe2e2f04	-0.17010123
169	0x3e9c9b9a	0.30587465
170	0xbec0b741	-0.37639812
171	0x3cff105b	0.031135729
172	0xbe8fe96d	-0.28107777
173	0x3e451284	0.19245344
174	0x3edaaa3c	0.42708004
175	0x3e7c91a9	0.2466494
176	0xbe1d6291	-0.15369631
177	0xbedf9d57	-0.43674728
178	0xbe214486	-0.15748796
179	0xbe3acefa	-0.18243018
180	0x3f27fa14	0.65615964
181	0xbd565f2b	-0.052336853
182	0x3df5bde1	0.11999107
183	0x3e1cab67	0.1529976
184	0x3cb831da	0.022484709
185	0xbed5c76c	-0.4175371
186	0xbe00d9c9	-0.12583078
187	0xbe718b88	-0.23588383
188	0x3e548fdd	0.20758004
189	0xbdc50526	-0.096201226
190	0x3d1e6a4d	0.038675595
191	0x3e8af74c	0.27141798
192	0x3de9b7d1	0.11412013
193	0x3e21f62b	0.15816562
194	0xbe89feaa	-0.26952106
195	0x3ec2a535	0.38016668
196	0x3e054e87	0.13018237
197	0xbd6550b6	-0.055985175
198	0x3de8fa9e	0.113759264
199	0xbe943c1d	-0.28952113
200	0xbc77d61b	-0.01512673
201	0x3dec001e	0.1152346
202	0xbeedf5db	-0.46476635
203	0xbe57f90f	-0.21091102
204	0x3ea3e758	0.3201244
205	0xbd45dfb3	-0.04830904
206	0xbc925ce0	-0.017866552
207	0x3d5d7c9a	0.054073907
208	0xbe31d685	-0.17366989
209	0x3edc5dbe	0.4304027
210	0xbdbdf114	-0.09274498
211	0xbe8ea821	-0.27862647
212	0x3dd15f07	0.10223203
213	0xbedbd267	-0.42933962
214	0xbddc65b3	-0.10761585
215	0x3dc181d5	0.094485916
216	0xbdc504e3	-0.09620073
217	0x3e83ab0e	0.25716442
218	0xbecbc50b	-0.3979877
219	0xbe0d26b6	-0.13784298
220	0xbe78b969	-0.24289478
221	0x3ee1c56b	0.4409593
222	0x3e8e0326	0.27736777
223	0xbe799a86	-0.24375352
224	0x3e491856	0.1963819
225	0x3b51fdd3	0.003204216
226	0x3ee10f10	0.43956804
227	0x3e925b50	0.2858529
228	0xbe60c098	-0.21948469
229	0x3ec723ff	0.3889465
230	0xbdf239fb	-0.11827465
231	0xbdb7accc	-0.08968505
232	0x3dd3a6b2	0.10334529
233	0x3ee6141c	0.44937217
234	0x3e58028c	0.21094722
235	0xbf14ce5d	-0.58127385
236	0xbeb67ae4	-0.35640633
237	0x3e594ef4	0.21221524
238	0xbe70432d	-0.23463126
239	0xbe75bf59	-0.23998775
240	0xbec3d306	-0.38246936
241	0xbe83113f	-0.25599095
242	0xbe95c65b	-0.29252896
243	0x3d61b1e3	0.055101287
244	0x3e2fbe9e	0.17162558
245	0x3f06b6ff	0.5262298
246	0x3ec9e8bb	0.39435372
247	0xbd56bb5c	-0.052424774
248	0x3e10e7c9	0.14150919
249	0x3df4ecc1	0.1195922
250	0xbece7e55	-0.4033076
251	0x3e6a9b48	0.22910798
252	0xbea6db09	-0.32588986
253	0x3ea18438	0.31546187
254	0xbe6e4d54	-0.23271686
255	0x3e0297c9	0.12753214

phi.initial_conv_module.0._layers.5.weight f4 [64]
0	0x3f84db37	1.0379399
1	0x3f8367da	1.0266068
2	0x3f7f5b67	0.99748844
3	0x3f7e8ded	0.9943531
4	0x3f83d19b	1.0298342
5	0x3f8ac1f8	1.0840445
6	0x3f98c82e	1.193609
7	0x3f84a3f2	1.0362532
8	0x3f76e817	0.9644789
9	0x3f9f7403	1.2457279
10	0x3f6ad22c	0.91726947
11	0x3f77e493	0.9683315
12	0x3f87f4f1	1.0621625
13	0x3f6a156d	0.91438943
14	0x3f6f8cb9	0.935741
15	0x3f7513c4	0.95733285
16	0x3f800d8d	1.0004135
17	0x3f7a4103	0.9775545
18	0x3f833ca7	1.0252885
19	0x3f6c4758	0.9229636
20	0x3f879602	1.0592654
21	0x3f96d42c	1.17835
22	0x3f8b066d	1.0861336
23	0x3f7f4811	0.9971934
24	0x3f7d994b	0.9906203
25	0x3f8e37dd	1.1110798
26	0x3f69e0aa	0.91358435
27	0x3f6f00f1	0.9336081
28	0x3f7968e5	0.9742568
29	0x3f6aa424	0.9165671
30	0x3f8980fb	1.0742487
31	0x3f8766f7	1.0578297
32	0x3f81227f	1.0088652
33	0x3f7e3d9c	0.9931276
34	0x3f8be9b5	1.0930697
35	0x3f87472e	1.0568597
36	0x3f8124bd	1.0089337
37	0x3f80647f	1.0030669
38	0x3f7dee9f	0.9919223
39	0x3f79bf74	0.9755776
40	0x3f987ea7	1.1913651
41	0x3f7eb92d	0.99501306
42	0x3f8c6af4	1.097014
43	0x3f6a99fb	0.91641206
44	0x3f8dace4	1.1068387
45	0x3f5f784e	0.87292945
46	0x3f7e8835	0.99426585
47	0x3f84fd6a	1.0389836
48	0x3f871ec4	1.0556264
49	0x3f780686	0.96884954
50	0x3f75326f	0.9578008
51	0x3f83b38a	1.0289166
52	0x3f8f7020	1.1206093
53	0x3f81d4d2	1.0143073
54	0x3f8e9ac4	1.1140981
55	0x3f82b539	1.0211555
56	0x3f85fcfb	1.0467829
57	0x3fa19300	1.2622986
58	0x3f752299	0.95755917
59	0x3f9550c0	1.1665268
60	0x3f81f44f	1.0152682
61	0x3f736595	0.95076877
62	0x3f86d837	1.0534734
63	0x3f7ea13a	0.9946476

phi.initial_conv_module.0._layers.5.bias f4 [64]
0	0x3c01fdde	0.007934062
1	0xbc53687b	-0.012903328
2	0xbd5fc6d0	-0.05463296
3	0xbc583f7a	-0.013198728
4	0x3ca4bbed	0.020109141
5	0x3d58d422	0.05293668
6	0x3db2c05f	0.08728098
7	0x3e58a76d	0.21157618
8	0x3c8edece	0.017440226
9	0xbcf334b1	-0.029688211
10	0xbe139290	-0.14411378
11	0x3cd449de	0.025914129
12	0xbd334b6f	-0.04377311
13	0xbd5dfef3	-0.054198217
14	0xbc7feb01	-0.015619994
15	0xbd92b3b8	-0.07163185
16	0xbd026892	-0.031838007
17	0xbdbad445	-0.091225185
18	0x3db9f2c1	0.09079505
19	0xbd172ef5	-0.036910016
20	0xbd23e964	-0.0400175
21	0xbca0f5c7	-0.019648446
22	0x3c346f49	0.011012861
23	0x3d9893ba	0.074500516
24	0x3d1758ea	0.03695003
25	0x3c182f5b	0.009288634
26	0xbe709dde	-0.23497722
27	0xbd09c503	-0.03363515
28	0x3ccfc16f	0.025360791
29	0xbb6425a8	-0.0034812484
30	0x3d4754ec	0.048664972
31	0xbc9dc17f	-0.019257305
32	0x3ce7fbf2	0.02831838
33	0x3dd53880	0.10411167
34	0x3dc4710f	0.09591877
35	0x3cdfa790	0.02730158
36	0xbcd17f15	-0.025573293
37	0x3c9a4049	0.018829482
38	0xbb8b7ae7	-0.0042565945
39	0x3d9dfe9a	0.07714577
40	0x3c774ad7	0.015093527
41	0x3d056c20	0.03257382
42	0x3d5d7347	0.054065015
43	0xbc2ad3f2	-0.010426508
44	0x3ded67d4	0.11592069
45	0xbd0fd74f	-0.035117444
46	0xbcde7ef9	-0.027160155
47	0x3ca32a18	0.019917533
48	0x3d619248	0.055071145
49	0x3d3fa86d	0.046791483
50	0x3d40d9f1	0.047082845
51	0x3e0554c0	0.13020611
52	0x3dcacb2b	0.099020325
53	0xbe0f62a4	-0.14002472
54	0x3e1d28ad	0.15347548
55	0x3ccc1259	0.024911093
56	0xbb3f1e1c	-0.0029162234
57	0x3db68f5a	0.08914061
58	0xbd0a713e	-0.033799402
59	0xbd43b5c9	-0.047780786
60	0x3bc027d9	0.005864125
61	0xbcf131f7	-0.02944277
62	0x3d405bb4	0.046962455
63	0x3de6f236	0.11276667

phi.initial_conv_module.0._layers.5.running_mean f4 [64]
0	0x3cd867fc	0.026416771
1	0xbdc65a9d	-0.09685252
2	0xbe780d24	-0.24223763
3	0x3d522eeb	0.051314276
4	0x3dc96a78	0.098347604
5	0xbd888fab	-0.066680275
6	0xbe07d74c	-0.13265723
7	0xbdf541cd	-0.11975441
8	0xbd57cfdb	-0.05268846
9	0xbd216466	-0.039402388
10	0x3cc3d8d7	0.023907108
11	0xbdf1e74d	-0.11811695
12	0xba552d1d	-0.00081320276
13	0x3e0e4ad8	0.13895738
14	0x3d5510db	0.052018028
15	0xbdc6bd5d	-0.09704087
16	0x3d7da22d	0.06192224
17	0x3d44788a	0.047966518
18	0x3e08d539	0.13362588
19	0x3ea5446a	0.32278758
20	0xbdfbf592	-0.12302698
21	0xbd9d6931	-0.07686079
22	0xbd9b3d38	-0.07580036
23	0x3dc8973f	0.09794473
24	0x3bf655d0	0.007517554
25	0xbde1720d	-0.110080816
26	0xbc2cc7a4	-0.010545645
27	0x3d8e3d09	0.06945235
28	0xbc3ba6a9	-0.011453309
29	0xbd4767c2	-0.048682936
30	0x3e06ad0a	0.13151947
31	0x3c51659a	0.012780571
32	0x3e35d1ce	0.17755815
33	0xbcda261f	-0.026629506
34	0xbb030385	-0.0019991111
35	0xbde0965d	-0.109661795
36	0x3dddfda7	0.10839396
37	0xbe182c46	-0.14860639
38	0x3d7c799a	0.061639406
39	0x3d1590ba	0.036514975
40	0xbd715087	-0.058914687
41	0x3d202fc1	0.03910804
42	0xbe0a332e	-0.13496086
43	0xbd22dc44	-0.039760843
44	0x3da2b5e9	0.07944853
45	0x3db9384d	0.09043942
46	0x3d222e73	0.03959508
47	0xbe61bd4b	-0.22044866
48	0xbdfac9ed	-0.122455455
49	0x3e3b023a	0.18262568
50	0xbd7e4dd0	-0.062085927
51	0x3c318005	0.010833745
52	0xbcf76e1a	-0.030203868
53	0xbd707604	-0.0587063
54	0xbd885587	-0.06656938
55	0xbdf2f87e	-0.118638024
56	0xbddcda37	-0.10783809
57	0xbc78f588	-0.015195258
58	0xbd74ddac	-0.059781715
59	0xbe08ee96	-0.13372263
60	0x3d624e78	0.055250615
61	0xbd2c3637	-0.04204389
62	0x3d97172c	0.073774666
63	0x3d95583a	0.072922185

phi.initial_conv_module.0._layers.5.running_var f4 [64]
0	0x3df15170	0.11783111
1	0x3d8b34db	0.06797191
2	0x3ec637c8	0.38714433
3	0x3e7e89ce	0.24857256
4	0x3e0479e4	0.12937123
5	0x3d958c18	0.073021114
6	0x3dd52cd4	0.10408941
7	0x3e1dfa17	0.15427433
8	0x3d6b93bd	0.05751394
9	0x3d9068ae	0.07051216
10	0x3cb08dfc	0.021552078
11	0x3e518aa7	0.20463048
12	0x3c908d18	0.017645404
13	0x3e22abb9	0.1588582
14	0x3d895bf4	0.06706992
15	0x3e497e02	0.19676974
16	0x3d36fa1d	0.04467212
17	0x3ddc46bf	0.10755681
18	0x3e9b0964	0.30280602
19	0x3f5714e8	0.84016275
20	0x3e0b5610	0.13607049
21	0x3e0c251b	0.1368603
22	0x3db373aa	0.087622955
23	0x3e176150	0.14783216
24	0x3d66df49	0.056365285
25	0x3e916774	0.2839924
26	0x3d302f7f	0.043014046
27	0x3da680ce	0.08130036
28	0x3b6dec94	0.0036304342
29	0x3cb9c521	0.022677006
30	0x3e06b226	0.13153896
31	0x3b9ed2b4	0.004846895
32	0x3e8035d8	0.2504108
33	0x3cc37788	0.023860708
34	0x3d0f927c	0.035051808
35	0x3d716de1	0.05894268
36	0x3eb31c9c	0.34982765
37	0x3dd6fb0b	0.104971014
38	0x3da332fb	0.07968708
39	0x3d8e41bd	0.06946132
40	0x3dbd5de5	0.092464246
41	0x3d258d21	0.040417794
42	0x3e019cf4	0.12657529
43	0x3d1f16d0	0.038840115
44	0x3dd040bb	0.10168596
45	0x3de58213	0.1120645
46	0x3e225fbf	0.15856837
47	0x3f07119e	0.52761257
48	0x3e040e91	0.12896182
49	0x3efef2bd	0.4979457
50	0x3d431ebd	0.047636736
51	0x3c594078	0.013259999
52	0x3db6d794	0.08927837
53	0x3d8cb1d0	0.068698525
54	0x3d956150	0.072939515
55	0x3e2f21ba	0.1710271
56	0x3dfb1646	0.12260108
57	0x3cd77157	0.026299162
58	0x3ce68eb9	0.028144227
59	0x3e20b111	0.15692545
60	0x3dec22f5	0.11530105
61	0x3cef793d	0.029232616
62	0x3e5ffee0	0.21874571
63	0x3d8dda84	0.06926444

phi.initial_conv_module.0._layers.7.se_conv.conv.weight f4 [10, 64, 1]
0	0x3e0a41a4	0.13501602
1	0xbd533d43	-0.051572096
2	0xbcc88a0f	-0.024479894
3	0x3cfcf936	0.030880552
4	0xbd3e84f2	-0.046513505
5	0x3d3dab5a	0.04630599
6	0x3d3d69c2	0.046243437
7	0x3e7f5982	0.24936488
8	0xbdb4efb2	-0.08834781
9	0xbe015dd4	-0.12633449
10	0x3df86c91	0.121300824
11	0xbda8e928	-0.08247596
12	0xbe527927	-0.20554028
13	0xbdcc9c0b	-0.099907
14	0x3b821e58	0.0039709024
15	0xbbeb359b	-0.007178021
16	0xbe18961a	-0.14901009
17	0xbd861513	-0.06546988
18	0xbddaf983	-0.10692122
19	0x3de02e00	0.10946274
20	0x3dea2f58	0.11434811
21	0xbd034fa4	-0.032058373
22	0x3ce9c9cb	0.028538605
23	0x3dbca8a8	0.09211856
24	0xbdafc095	-0.08581654
25	0x3e4a3d72	0.19750002
26	0xbcfe7be7	-0.03106494
27	0x3e1b5943	0.1517077
28	0x3deb598f	0.11491691
29	0xbda723de	-0.08161138
30	0xbd80bca3	-0.062859796
31	0x3d18e184	0.037324443
32	0xbd37ee0c	-0.044904754
33	0xbd9cf17c	-0.07663247
34	0xbe17a5be	-0.1480932
35	0x3e893643	0.2679921
36	0xbe4deb92	-0.20109394
37	0xbd828316	-0.06372659
38	0xbda38188	-0.079836905
39	0xbdd8224c	-0.105534166
40	0xbe29dfbf	-0.16589259
41	0x3e9b0b21	0.30281928
42	0x3e6c171d	0.23055692
43	0x3e13739c	0.1439957
44	0xbdfd95fa	-0.123821214
45	0xbdce5a48	-0.100758135
46	0xbd2e5f86	-0.042571567
47	0xbda14dcb	-0.07876166
48	0xbdc76f3f	-0.097380154
49	0x3da5426b	0.08069309
50	0xbdda5608	-0.106609404
51	0x3c944007	0.018096937
52	0x3d0d2f80	0.034469128
53	0x3da1efbc	0.07907054
54	0x3c15741e	0.009121923
55	0xbe5c93a6	-0.21540698
56	0xbc78426f	-0.015152558
57	0xbd3c3404	-0.045948043
58	0xbc72f1c5	-0.01482815
59	0x3e02526b	0.12726752
60	0xbd2b0b39	-0.04175875
61	0x3b029fe4	0.0019931728
62	0xbd7b8681	-0.06140757
63	0xbc437f02	-0.0119321365
64	0x3e1024a4	0.14076477
65	0x3de62d5b	0.112391196
66	0x3e5917e7	0.21200524
67	0x3e8089bd	0.25105086
68	0x3e092573	0.13393192
69	0x3e95d422	0.29263407
70	0x3e8a7e53	0.27049503
71	0x3d42a010	0.04751593
72	0xbdfa0f9a	-0.12210007
73	0x3dd4cd02	0.10390665
74	0x3e9b0895	0.30279985
75	0x3e36bb00	0.17844772
76	0xbd5e6cac	-0.054302856
77	0xbc443f65	-0.011978005
78	0x3e034be6	0.12821922
79	0xbc00c69b	-0.007859851
80	0x3dec5a0a	0.11540611
81	0xbe4afb41	-0.19822408
82	0xbdff4c75	-0.12465755
83	0x3e88b623	0.2670146
84	0x3d445767	0.047934916
85	0x3e046904	0.12930685
86	0x3e77809d	0.24170156
87	0xbe664fa3	-0.22491316
88	0x3b9bebd2	0.0047583366
89	0x3e301eb1	0.17199208
90	0xbdb08436	-0.08618967
91	0x3d8292cd	0.06375656
92	0xbd3f84d2	-0.046757527
93	0xb9c64c6a	-0.00037822436
94	0x3dad32ac	0.084569305
95	0x3e64eb00	0.2235527
96	0xbdc7511b	-0.097322665
97	0x3e2320b8	0.1593045
98	0x3dbbeb47	0.09175735
99	0x3dc86a88	0.09785944
100	0xbd9b024a	-0.07568796
101	0xbdc0454e	-0.09388219
102	0xbd48cf76	-0.049025975
103	0xbd259d3d	-0.040433157
104	0xbea537c7	-0.32269117
105	0x3e35d5cf	0.17757343
106	0xbca450b1	-0.020058008
107	0xbdc2ba4e	-0.09508191
108	0xbdd33cb6	-0.10314314
109	0xbe1b3497	-0.1515678
110	0x3e78884c	0.24270743
111	0xbd16f935	-0.036858756
112	0x3e43eb37	0.19132696
113	0xbdbbe7b0	-0.0917505
114	0xbdd389d2	-0.103290215
115	0xbc71795b	-0.014738406
116	0x3d193ec2	0.037413366
117	0x3e315572	0.17317751
118	0x3de4ee8b	0.11178311
119	0x3cb6a7d3	0.022296822
120	0x3e5e8196	0.2172912
121	0xbce3daf1	-0.02781436
122	0xbe1d949f	-0.15388726
123	0x3e2b8337	0.16749273
124	0x3d8ad289	0.06778438
125	0x3e91cada	0.28475076
126	0xbd9b31b9	-0.07577843
127	0xbe14a37f	-0.14515494
128	0x3d2bbb5a	0.04192672
129	0xbe194a14	-0.14969665
130	0x3e3cb2c2	0.18427566
131	0xbd014518	-0.031560034
132	0xbe831841	-0.25604442
133	0xbc2177d2	-0.009855228
134	0x3e88892d	0.26667157
135	0xbe3c986f	-0.18417524
136	0x3d7ee179	0.062226746
137	0x3e03ada0	0.12859201
138	0xbe032432	-0.12806776
139	0x3e90d1e4	0.28285134
140	0xbe9f78f1	-0.31146958
141	0xbe736398	-0.23768461
142	0xbdf6eca3	-0.120568536
143	0xbe99c303	-0.30031595
144	0xbe63737f	-0.22212027
145	0xbd39f4da	-0.045399524
146	0x3e2e56cf	0.17025302
147	0x3de4c882	0.11171056
148	0x3e1adf34	0.15124208
149	0x3d1cd8c5	0.038292665
150	0xbdb04698	-0.08607215
151	0x3c102f26	0.008800304
152	0x3e11e40c	0.14247149
153	0xbe0418d8	-0.12900102
154	0xbc85c3b7	-0.016328676
155	0xbd67f424	-0.056629315
156	0x3d42eb51	0.047587696
157	0xbc9b56c1	-0.018962266
158	0xbd5f674b	-0.054541867
159	0xbe8c6f43	-0.27428636
160	0x3d7ab606	0.061208747
161	0xbdd74ede	-0.105130896
162	0xbe90cdf2	-0.28282124
163	0x3d5888c9	0.052864823
164	0xbe4065ad	-0.18788786
165	0x3e037174	0.12836248
166	0xba3ce8f0	-0.0007206341
167	0x3c41673e	0.0118044
168	0x3df97d26	0.12182073
169	0x3e111802	0.14169315
170	0x3e02a6d4	0.12758952
171	0xbd49aed4	-0.049238995
172	0x3d6a53fd	0.057209004
173	0x3b62092f	0.0034490337
174	0xbe1b70ff	-0.15179823
175	0x3ce05c25	0.027387688
176	0xbe69a6ec	-0.22817582
177	0xbdc53746	-0.09629683
178	0x3e175a0e	0.14780447
179	0xbe0fdb0e	-0.14048406
180	0xbdc9a27d	-0.09845445
181	0x3e062310	0.13099313
182	0x3b89998e	0.0041992133
183	0xbd6a6889	-0.0572286
184	0x3df6d514	0.1205236
185	0xbcfbb4ed	-0.03072592
186	0x3b990277	0.0046694833
187	0x3e8a923f	0.27064702
188	0xbd9b2b7c	-0.07576653
189	0x3dfa20e1	0.122133024
190	0x3d304b8a	0.04304079
191	0xbda0f03c	-0.07858321
192	0xbe17d32e	-0.14826652
193	0xbe85c25c	-0.26124847
194	0xbc61c170	-0.013779029
195	0xbdf12dce	-0.11776315
196	0xbe258999	-0.1616577
197	0x3c2809fe	0.010256289
198	0x3e1bfce8	0.15233195
199	0xbe1152b0	-0.14191699
200	0xbddabb24	-0.106802255
201	0xbdbe7afe	-0.09300803
202	0xbe4b5cb5	-0.19859584
203	0xbcf04e61	-0.029334249
204	0x3e378720	0.1792264
205	0xbe01a1b4	-0.12659341
206	0x3c954db0	0.01822552
207	0x3c24f07d	0.0100671025
208	0xbd60d612	-0.054891653
209	0x3e04526c	0.12922066
210	0x3e83eaae	0.25764984
211	0xbdaa12ad	-0.083043434
212	0xbcb3e40b	-0.021959325
213	0xbdcb3b61	-0.09923435
214	0x3ce350b0	0.027748436
215	0x3d8805b9	0.066417165
216	0xbd1e79c6	-0.03869035
217	0xbe47b606	-0.1950303
218	0xbd2e1a38	-0.042505473
219	0x3d49bebb	0.04925416
220	0x3e834bc0	0.2564373
221	0x3e0c83ef	0.13722204
222	0xbdb205cb	-0.08692511
223	0x3c98ffd0	0.018676668
224	0xbd57cd92	-0.05268628
225	0x3dde0a43	0.10841801
226	0x3db79e9a	0.08965798
227	0xbe0df90e	-0.13864538
228	0x3e33c3c4	0.17555147
229	0x3dac0fd9	0.0840146
230	0xbde0712c	-0.10959086
231	0x3e49b662	0.1969848
232	0x3e8b8f97	0.27257988
233	0x3cfe9de1	0.031081142
234	0x3dbcaf44	0.09213117
235	0xbe012d93	-0.12615041
236	0x3c8e8662	0.017398063
237	0xbca5be0a	-0.02023222
238	0xbe7085a1	-0.23488475
239	0x3de1bb96	0.11022107
240	0x3d47e70d	0.04880433
241	0x3e4aa434	0.19789201
242	0x3d805424	0.062660486
243	0x3df58361	0.11987949
244	0x3dfd5164	0.1236904
245	0x3d02f2f2	0.031969972
246	0x3dc0a601	0.09406663
247	0xbe000355	-0.12501271
248	0xbc8d4f4c	-0.017249726
249	0xbdf2dc49	-0.11858422
250	0x3d9c7035	0.07638589
251	0x3da5c5d5	0.08094374
252	0x3d6e12ba	0.058123328
253	0xbdddb886	-0.10826211
254	0xbd2f318a	-0.042771854
255	0x3dca6def	0.098842494

phi.initial_conv_module.0._layers.7.se_conv2.conv.weight f4 [64, 10, 1]
0	0xbe71fe0a	-0.23632064
1	0x3e11bdc7	0.1423255
2	0xbd60d75a	-0.054892875
3	0xbdd4c77d	-0.10389612
4	0xbded471d	-0.115858294
5	0x3d4df682	0.050283916
6	0xbe7f4ead	-0.24932356
7	0x3e984514	0.29740202
8	0x3d110b9b	0.03541146
9	0x3df330e2	0.11874558
10	0x3cf4283d	0.029804343
11	0xbddf94c2	-0.10917045
12	0x3e5981e3	0.21240954
13	0xbd60107d	-0.054703224
14	0x3de184cc	0.11011657
15	0xbe421660	-0.18953848
16	0x3e405fca	0.1878654
17	0x3e34e008	0.17663586
18	0x3dafade8	0.08578092
19	0x3d02d65b	0.031942707
20	0x3ea06759	0.31328848
21	0x3dc37a5a	0.09544821
22	0x3e2f612d	0.17126913
23	0xbcd642c1	-0.026154878
24	0xbcae7e55	-0.021300474
25	0xbe2a51dc	-0.1663279
26	0xbe880ec0	-0.26573753
27	0xbcec7a49	-0.028866904
28	0x3cdda794	0.027057447
29	0xbe7029c4	-0.23453432
30	0xbe40e853	-0.18838625
31	0x3e42ab9d	0.19010778
32	0x3e721a2f	0.23642801
33	0xbe7fa634	-0.24965745
34	0x3e3f26b2	0.18667105
35	0xbea378b9	-0.31928042
36	0x3e020255	0.12696202
37	0x3e076c0f	0.13224815
38	0xbe874a63	-0.2642394
39	0x3ea93395	0.33047166
40	0xbdc31f4b	-0.09527453
41	0xbe576a5d	-0.21036668
42	0x3e923c90	0.2856183
43	0xbd161e2f	-0.03664988
44	0xbe8a0d58	-0.26963305
45	0x3cfe920d	0.031075502
46	0xbe301c76	-0.17198357
47	0x3e6327da	0.22183171
48	0x3e5277f8	0.20553577
49	0x3e3373d7	0.17524658
50	0xbd5198fd	-0.05117129
51	0x3e1886f2	0.14895228
52	0xbdb2fd21	-0.08739687
53	0x3d4aaf1b	0.0494834
54	0x3e4525e8	0.19252741
55	0x3e144687	0.14480029
56	0x3e8b58a7	0.27216074
57	0xbdc7d390	-0.09757149
58	0x3e0d85ce	0.13820574
59	0xbdc8e244	-0.09808782
60	0xbe0473ee	-0.12934849
61	0x3e8c477c	0.27398288
62	0xbeff55fa	-0.49870282
63	0xbe05c668	-0.13063967
64	0x3e0cb9a2	0.13742688
65	0xbeab81ea	-0.33497554
66	0xbcd47b2d	-0.025937641
67	0xbe024cad	-0.12724562
68	0x3ebf4b07	0.3736193
69	0xbecc9247	-0.3995535
70	0xbdcb9045	-0.099396266
71	0x3e915b80	0.2839012
72	0xbefdcad0	-0.49568796
73	0x3dde754a	0.10862215
74	0x3e5f04b1	0.21779133
75	0xbeae5d9b	-0.3405579
76	0x3dabdcea	0.083917454
77	0xbef4b917	-0.47797462
78	0x3e976bab	0.29574332
79	0x3e272089	0.16321005
80	0x3e0fb36f	0.14033292
81	0x3ed7b115	0.4212729
82	0x3e1e3fc2	0.15454009
83	0x3e1dc470	0.15406966
84	0x3e2cbcb6	0.16868863
85	0xbeaa5b2e	-0.3327269
86	0x3e72e710	0.23720956
87	0x3c0f3b72	0.0087422
88	0xbe142525	-0.14467295
89	0xbde7b795	-0.11314312
90	0x3e7ba635	0.24575122
91	0x3eaebb82	0.34127432
92	0x3e107638	0.14107597
93	0xbd21a9aa	-0.039468445
94	0x3f09fed9	0.5390449
95	0xbee23e63	-0.44188222
96	0x3d3d5921	0.046227578
97	0x3e146434	0.1449135
98	0xbcce3225	-0.025170395
99	0x3eb02144	0.3440038
100	0xbb59dc57	-0.0033242905
101	0xbdbc0320	-0.091802835
102	0x3eae714f	0.34070823
103	0x3dfb1054	0.12258974
104	0xbd9c3e89	-0.07629115
105	0xbe31c8f5	-0.17361815
106	0xbe1752cc	-0.14777678
107	0x3d17da44	0.03707339
108	0x3e5c1e20	0.21495867
109	0x3ec34220	0.38136387
110	0xbef6f9da	-0.48237497
111	0xbea806b1	-0.32817605
112	0x3eb8b5b5	0.3607613
113	0xbe151c33	-0.14561538
114	0x3e93e1a2	0.28883082
115	0x3f0032a0	0.5007725
116	0xbd6c97cf	-0.057761963
117	0xbe1aca68	-0.15116274
118	0x3e9bb746	0.30413264
119	0x3d81f385	0.06345276
120	0x3e892936	0.26789254
121	0xbd8943bb	-0.06702372
122	0x3dfa1537	0.12211078
123	0xbe9e2d87	-0.3089411
124	0x3c9120b2	0.017715786
125	0x3ea3e848	0.32013154
126	0x3e696967	0.22794114
127	0xbcea776a	-0.028621394
128	0x3d613ad2	0.054987736
129	0xbe78695f	-0.24258946
130	0xbd7daa4b	-0.061929982
131	0x3d730645	0.05933215
132	0x3e9705b9	0.29496554
133	0x3e2740df	0.1633334
134	0xbe66969b	-0.22518389
135	0xbc9f388c	-0.019436143
136	0xbe486e7b	-0.19573395
137	0x3e90f44a	0.28311378
138	0xbece2df2	-0.40269428
139	0x3dd5ce2e	0.10439716
140	0x3e0da262	0.13831475
141	0x3e718739	0.2358674
142	0xbe250f76	-0.16119179
143	0x3e331325	0.17487772
144	0xbe223fc5	-0.15844639
145	0x3e4e0fee	0.20123264
146	0x3e925500	0.28580475
147	0x380eae36	3.4017685e-05
148	0x3da64790	0.08119118
149	0xbea87330	-0.3290038
150	0xbe715028	-0.23565733
151	0xbe8ea3af	-0.27859256
152	0xbe45f589	-0.19331945
153	0xbd059281	-0.03261042
154	0x3dfb0bb9	0.12258095
155	0x3d63e4c8	0.055638105
156	0x3e4915ff	0.19637297
157	0xbe518f00	-0.20464706
158	0x3e7c33f0	0.24629188
159	0x3eaee6b3	0.34160385
160	0x3e9a905d	0.30188265
161	0xbe01186b	-0.12606971
162	0xbe962493	-0.2932478
163	0xbdf348e0	-0.11879134
164	0x3e567c56	0.20945868
165	0x3b716440	0.0036833435
166	0x3e6ca70b	0.23110597
167	0xbec3d131	-0.38245538
168	0xbe22e5d7	-0.1590799
169	0x3e4e3709	0.20138182
170	0x3e81d06a	0.2535432
171	0xbd4ca4f8	-0.049962014
172	0x3ec8164e	0.39079517
173	0xbe708e0e	-0.2349169
174	0xbe65bbff	-0.22434996
175	0x3da33162	0.079684034
176	0xbe4f3ee3	-0.20238833
177	0xbd8c235b	-0.06842681
178	0xbe960422	-0.29300028
179	0x3d9912a5	0.07474259
180	0x3e588568	0.2114464
181	0x3e855bf6	0.26046723
182	0xbed1adc2	-0.4095288
183	0xbe5d413e	-0.21606919
184	0x3ed58a30	0.4170699
185	0xbeafb430	-0.3431716
186	0xbc7a77a1	-0.015287311
187	0xbe9fafd7	-0.31188843
188	0xbec22b19	-0.37923506
189	0xbea7d736	-0.3278138
190	0x3e1f42c0	0.15552807
191	0xbe1ea86f	-0.1549394
192	0x3de6a4ac	0.112618774
193	0x3e5cb2ae	0.21552536
194	0x3dc6d408	0.097084105
195	0x3ee29382	0.44253165
196	0x3df324b0	0.11872232
197	0x3ebb7c6a	0.36618358
198	0x3eebdcf4	0.4606701
199	0x3e904c53	0.2818323
200	0xbe805c42	-0.25070387
201	0x3dfa45d9	0.12220354
202	0xbe3114e8	-0.17293131
203	0xbec8a68a	-0.3918956
204	0x3ec02683	0.37529382
205	0xbe722b6b	-0.23649375
206	0xbdeb05e8	-0.11475736
207	0xbebd3b90	-0.36959505
208	0xbe7e60fd	-0.24841686
209	0x3c770607	0.015077121
210	0xbe024ffa	-0.12725821
211	0xbe7f6a64	-0.24942929
212	0xbe569b3c	-0.20957655
213	0xbe3040a1	-0.17212154
214	0x3e5a4903	0.21316914
215	0x3e4a509a	0.1975731
216	0xbe00e9d5	-0.125892
217	0xbe246077	-0.16052423
218	0x3ef013c5	0.46890083
219	0xbdf8f0ad	-0.1215528
220	0xbc8f51d2	-0.01749507
221	0xbe99e07c	-0.3005408
222	0x3e80f79c	0.2518891
223	0x3e840f4a	0.25792915
224	0xbe800f1d	-0.2501153
225	0x3eb550fb	0.35413346
226	0x3e7b65b1	0.24550511
227	0x3e1b8e18	0.15190923
228	0xbdfdf5b1	-0.124003775
229	0x3e8e1bf6	0.27755708
230	0x3e8ff3b7	0.28115627
231	0x3eb413ee	0.35171455
232	0xbb9414b3	-0.004519069
233	0x3e633a38	0.22190177
234	0xbe6f8d06	-0.2339364
235	0x3d884fe0	0.0665586
236	0x3d91c429	0.07117493
237	0x3cd5fc6a	0.026121337
238	0xbe8f7183	-0.2801629
239	0x3da03010	0.07821667
240	0x3e583bb8	0.21116531
241	0x3e1c8aaf	0.15287279
242	0xbe74c1c1	-0.23902036
243	0xbcfc8e4a	-0.030829567
244	0xbc8d8ea0	-0.017279923
245	0xbdeae0f4	-0.11468688
246	0xbdb425b9	-0.087962575
247	0xbe1191c1	-0.14215757
248	0x3d801cf2	0.06255521
249	0x3e083c98	0.13304365
250	0xbeaab195	-0.3333861
251	0x3daa52db	0.08316585
252	0xbe32fc39	-0.17479028
253	0x3e0078c4	0.12546068
254	0x3e347ec0	0.17626476
255	0xbd3fbbdf	-0.046810027
