logs/4birds_CF_combined_log_linear_gru64_50epochs_try2/2025-05-27_14-43-26/4birds_CF_combined_log_linear_gru64_50epochs_try2_best_model.pth (torch, 334849 bytes, 198 tensors)

phi.initial_conv_module.0._layers.0.conv.weight f4 [64, 64, 1]
0.10432742 0.13741508 -0.094253264 0.10077032 -0.105439596 0.03825978 0.014537591 0.22755489
0.26927352 0.08323508 0.38871628 0.19089584 0.09186104 -0.09513628 -0.085726105 -0.11023344
0.031212417 -0.044438984 -0.109817356 -0.042427607 -0.06827048 -0.061878953 -0.14035477 0.009124657
-0.042931464 0.10021944 0.10224156 0.067512274 0.07481855 -0.11765458 0.09937601 -0.12041512
0.023782376 -0.04349465 -0.11263512 -0.01735451 -0.07515394 0.030602222 -0.066993855 -0.08111589
0.0025338214 -0.04856894 0.004697847 0.12521286 0.027305955 -0.058343653 0.0055968324 -0.098180085
0.033060864 -0.01671531 -0.08492812 -0.09852049 -0.22806525 -0.05972087 -0.119968034 -0.11128485
-0.04373836 -0.021844327 0.06494808 -0.11850306 -0.026112115 -0.02859399 0.009656801 -0.10828525
0.062005997 -0.012400029 0.17759602 -0.0651134 0.04640247 -0.12068721 0.120899 -0.084702164
0.047411043 -0.053752553 -0.01196461 0.08203786 0.08550455 0.076834776 0.030892154 0.084848695
-0.122074336 -0.08837002 0.06817016 -0.026345452 0.019745963 -0.034891736 0.08299536 -0.119195946
-0.14858651 0.0076992344 0.040790457 0.05834403 0.07207161 0.0021713586 -0.16783272 -0.05231412
0.13751917 0.06936608 0.005801508 -0.04822094 0.0063328655 0.14301983 0.0044120634 -0.12427107
-0.19572061 -0.34656432 -0.29125306 -0.10639224 0.20403275 0.306976 0.39993736 0.24370472
0.1108685 -0.1783794 -0.10614059 -0.010979571 -0.02510125 -0.18504667 -0.21805972 -0.35022515
-0.0051843 -0.062824704 0.02916122 -0.11243618 -0.01811271 0.07500838 0.06504044 0.17951065
0.045257475 -0.09634038 0.10535492 0.022811264 -0.118546546 0.04483379 -0.110481866 -0.012424409
0.04058445 -0.04225463 0.08368151 0.053674463 -0.0028944584 -0.12880988 0.07144381 -0.13789052
-0.07565125 0.020042928 0.099394515 0.22897771 0.21219224 -0.13107857 -0.08150448 -0.17219813
-0.17496175 -0.29404178 0.09686478 0.09131263 0.28098592 0.19080518 0.09588806 0.014184553
0.16481955 -0.044529967 -0.043596998 -0.14789663 -0.0067977975 -0.04989818 -0.033012263 0.15501748
0.06348526 0.02307645 0.014163215 0.038855854 0.036506645 -0.07927757 -0.07938975 0.016240705
-0.028632967 0.069876455 0.13124223 -0.1067464 0.013688715 0.071540125 0.02599057 -0.061973613
0.038511276 -0.020042975 -0.004109876 -0.04844172 -0.020181902 0.048334435 0.02072072 0.019454215
-0.12499477 -0.106165625 -0.09874688 -0.20871122 -0.06427995 -0.14781684 -0.09239041 -0.06435327
-0.15222567 -0.11685746 -0.0030186835 -0.05633454 -0.09625389 -0.13317025 -0.071836896 -0.048060995
-0.02774571 0.009128457 -0.02213848 -0.010158437 -0.12385461 -0.18071938 -0.14465299 0.07170673
-0.036462475 -0.08545826 0.0040312083 -0.11478338 -0.13557917 -0.02217699 -0.093491666 -0.0119529
-0.06317227 0.13365582 0.082067475 -0.01060695 -0.16991879 -0.18408576 -0.2075644 -0.022095125
-0.063245535 -0.04720988 -0.019539967 0.06900239 0.07284762 -0.14284825 -0.21617873 -0.14042483
-0.014239033 -0.14383584 -0.13780393 -0.16485587 -0.13138191 -0.15827443 -0.12632212 0.009551665
-0.089487985 -0.013702578 -0.10564919 -0.124075726 -0.041705117 -0.08570617 -0.0791757 -0.104756944
00000000: 9da9 d53d 8ab6 0c3e db07 c1bd ab60 ce3d
00000010: b7f0 d7bd 49b6 1c3d 132f 6e3c 2604 693e
00000020: 38de 893e 2777 aa3d d205 c73e 337a 433e
00000030: a421 bc3d cfd6 c2bd 2b91 afbd 12c2 e1bd
00000040: 2fb1 ff3c a705 36bd ece7 e0bd 92c8 2dbd
00000050: 65d1 8bbd c974 7dbd 29b9 0fbe 967f 153c
00000060: e7d8 2fbd da3f cd3d 0664 d13d e043 8a3d
00000070: 783a 993d e2f4 f0bd a685 cb3d 349c f6bd
00000080: 42d3 c23c 7227 32bd 3ead e6bd 0c2b 8ebc
00000090: 4fea 99bd 83b1 fa3c 1334 89bd 1620 a6bd
000000a0: 780e 263b 3af0 46bd 66f0 993b cd37 003e
000000b0: bdb0 df3c c1f9 6ebd a265 b73b a412 c9bd
000000c0: d46a 073d 8cee 88bc cbee adbd 1cc5 c9bd
000000d0: f089 69be df9d 74bd cdb1 f5bd 50e9 e3bd
000000e0: ff26 33bd e0f2 b2bc 8003 853d bbb1 f2bd
000000f0: 13e9 d5bc f13d eabc 8f37 1e3c a8c4 ddbd
00000100: 00fa 7d3d 7e29 4bbc bbdb 353e 2d5a 85bd
00000110: 8410 3e3d db2a f7bd e599 f73d 5478 adbd
00000120: 1532 423d a32b 5cbd 3607 44bc 7703 a83d
00000130: 021d af3d 8d5b 9d3d 8b11 fd3c 27c5 ad3d
00000140: 1c02 fabd 57fb b4bd cc9c 8b3d 6bd2 d7bc
00000150: 49c2 a13c a3ea 0ebd 79f9 a93d 011d f4bd
00000160: 1027 18be dc49 fc3b e513 273d 26fa 6e3d
00000170: 489a 933d 5a4d 0e3b 57dc 2bbe 5547 56bd
00000180: d3d1 0c3e ce0f 8e3d 941a be3b 5283 45bd
00000190: ed83 cf3b ca73 123e 1293 903b d581 febd
000001a0: fc6a 48be e170 b1be 1f1f 95be 2de4 d9bd
000001b0: f6ed 503e f52b 9d3e 97c4 cc3e bb8d 793e
000001c0: 060f e33d 17a9 36be 3d60 d9bd a9e3 33bc
000001d0: 23a1 cdbc e07c 3dbe 0c4b 5fbe b650 b3be
000001e0: 0fe1 a9bb 3daa 80bd 83e3 ee3c f144 e6bd
000001f0: 1b61 94bc fe9d 993d ec33 853d a4d1 373e
00000200: e75f 393d 1b4e c5bd 52c4 d73d b0de ba3c
00000210: 88c8 f2bd a3a3 373d 5144 e2bd c08f 4bbc
00000220: e13b 263d 3113 2dbd 3661 ab3d c1d9 5b3d
00000230: f4b0 3dbb bde6 03be 2251 923d 2c33 0dbe
00000240: 0bef 9abd 1131 a43c 5a8f cb3d 2279 6a3e
00000250: ec48 593e 7639 06be d2eb a6bd b554 30be
00000260: 2c29 33be a58c 96be 0b61 c63d 1e02 bb3d
00000270: 63dd 8f3e 6f62 433e f660 c43d 5466 683c
00000280: 75c6 283e 0e65 36bd c492 32bd 3772 17be
00000290: 0fc0 debb 0962 4cbd de37 07bd e7bc 1e3e
000002a0: 8f04 823d d30a bd3c d40c 683c 5127 1f3d
000002b0: fe87 153d 475c a2bd 1897 a2bd 3a0b 853c
000002c0: af8f eabc 631b 8f3d 5d64 063e db9d dabd
000002d0: a246 603c a183 923d 2dea d43c 0bd8 7dbd
000002e0: 00be 1d3d 2a31 a4bc 24ac 86bb d36a 46bd
000002f0: 8454 a5bc 54fa 453d 80be a93c 725e 9f3c
00000300: 42fd ffbd 5d6d d9bd ce3b cabd 65b8 55be
00000310: 35a5 83bd 4c5d 17be 2f37 bdbd a6cb 83bd
00000320: 0ce1 1bbe f752 efbd 1bd5 45bb 0cbf 66bd
00000330: c220 c5bd c85d 08be 391f 93bd 9bdb 44bd
00000340: f94a e3bc 868f 153c c25b b5bc 936f 26bc
00000350: 7ca7 fdbd 800e 39be ea1f 14be fada 923d
00000360: ad59 15bd bd04 afbd 3a18 843b 8c13 ebbd
00000370: 44d5 0abe 85ac b5bc 8f78 bfbd 19d6 43bc
00000380: 7760 81bd 12dd 083e fe12 a83d c6c8 2dbc
00000390: 31ff 2dbe fa80 3cbe c38b 54be d600 b5bc
000003a0: e086 81bd 265f 41bd 4812 a0bc 2051 8d3d
000003b0: 2231 953d d046 12be f55d 5dbe 87cb 0fbe
000003c0: d54a 69bc b449 13be 791c 0dbe facf 28be
000003d0: fb88 06be b112 22be 965a 01be 967e 1c3c
000003e0: 7a45 b7bd c780 60bc 9a5e d8bd 6a1b febd
000003f0: fcd2 2abd b786 afbd df26 a2bd cf8a d6bd

phi.initial_conv_module.0._layers.1.weight f4 [64]
1.1603432 1.1842612 0.89022106 0.978312 0.9346141 1.2985324 0.7222936 0.9845512
1.1803944 1.1232405 0.9154539 0.9566423 0.96047175 1.24435 1.369363 1.0614084
0.87975925 0.9219112 0.9108648 1.1232933 0.784985 0.974144 1.1507677 1.2567084
1.4186354 0.9797678 1.2704872 0.97145796 0.95463943 0.9685029 0.97732866 0.6538006
0.9349128 1.1577326 1.0874305 1.0513039 1.0682373 1.2378398 1.290688 0.9842202
0.7751616 0.807629 0.92600137 1.1012685 0.8584469 1.1003959 1.1674235 0.89052904
0.9087508 0.8796843 1.1928642 0.944651 0.545154 1.2519668 0.7246607 1.0598902
0.9764807 0.88608897 0.95129895 1.1627465 0.79473627 1.2484049 0.9818154 1.329539
00000000: 2086 943f df95 973f 87e5 633f a872 7a3f
00000010: df42 6f3f 4f36 a63f 3ce8 383f 8c0b 7c3f
00000020: 2a17 973f 58c6 8f3f 305b 6a3f 83e6 743f
00000030: 7ae1 753f dc46 9f3f 4947 af3f 3bdc 873f
00000040: e737 613f 5f02 6c3f 6f2e 693f 13c8 8f3f
00000050: c7f4 483f 8061 793f 5b4c 933f d2db a03f
00000060: d895 b53f 10d2 7a3f 539f a23f 78b1 783f
00000070: 4063 743f ceef 773f 3632 7a3f 7a5f 273f
00000080: 7256 6f3f 9530 943f ec30 8b3f 2091 863f
00000090: 00bc 883f 8971 9e3f 4435 a53f dbf5 7b3f
000000a0: fe70 463f c6c0 4e3f 6d0e 6d3f 5ef6 8c3f
000000b0: 2dc3 5b3f c6d9 8c3f 226e 953f b6f9 633f
000000c0: e4a3 683f fe32 613f c6af 983f a6d4 713f
000000d0: 368f 0b3f 7340 a03f 5d83 393f 7baa 873f
000000e0: a4fa 793f bad6 623f 5488 733f e1d4 943f
000000f0: d673 4b3f bbcb 9f3f 4158 7b3f 552e aa3f

phi.initial_conv_module.0._layers.1.bias f4 [64]
0.006133342 0.119068556 -0.08075839 -0.076147184 -0.12795243 -0.20615704 0.14432727 0.2089289
0.34895372 -0.16399945 -0.15584533 0.148832 -0.1454432 -0.46087718 0.14909777 -0.15961915
-0.11662327 -0.39754662 -0.41460082 -0.53693223 0.045479883 0.122797206 -0.0031524694 -0.27395108
0.07332207 -0.063787386 -0.13384545 -0.020680526 0.004151563 0.01703238 -0.31334186 0.4740666
-0.3900393 0.4241019 0.1598515 0.005321244 -0.25597706 -0.13906257 -0.18149786 -0.15256287
0.04987081 0.08833537 0.10875077 0.10134967 -0.2742808 -0.4526701 0.046047304 0.02785039
0.04295898 -0.1715019 -0.107090265 0.4230335 0.43401235 -0.12415929 0.16399148 0.07552537
0.04941744 0.27584824 0.15603796 -0.10118337 -0.199178 -0.21002571 -0.17996354 -0.0042543397
00000000: 34fa c83b 37da f33d a864 a5bd 0ef3 9bbd
00000010: f605 03be d51a 53be 87ca 133e 75f1 553e
00000020: 10aa b23e 79ef 27be eb95 1fbe 6a67 183e
00000030: 10ef 14be 18f8 ebbe 16ad 183e 3473 23be
00000040: 2ed8 eebd 3b8b cbbe 8f46 d4be 6474 09bf
00000050: 1d49 3a3d 1a7d fb3d a999 4ebb 5143 8cbe
00000060: e229 963d f6a2 82bd c80e 09be 356a a9bc
00000070: d609 883b 7d87 8b3c 586e a0be dbb8 f23e
00000080: 3bb3 c7be e223 d93e 1db0 233e d45d ae3b
00000090: 6d0f 83be 6b66 0ebe 93da 39be 7139 1cbe
000000a0: 5645 4c3d 2de9 b43d b9b8 de3d 6a90 cf3d
000000b0: 886e 8cbe 60c4 e7be 199c 3c3d 8026 e43c
000000c0: c1f5 2f3d 329e 2fbe 2452 dbbd d997 d83e
000000d0: de36 de3e 3a47 febd 62ed 273e 0cad 9a3d
000000e0: f169 4a3d fb3b 8d3e 6ac8 1f3e 3a39 cfbd
000000f0: 51f5 4bbe fb10 57be 5d48 38be fd67 8bbb

phi.initial_conv_module.0._layers.1.running_mean f4 [64]
1.9077984 0.13635105 -0.30582982 -0.0040062275 -0.034907263 -0.87438184 -1.3425827 0.36247265
0.45075268 -0.4047108 -0.058716778 -0.72717816 -0.2696538 0.09365697 0.3181932 1.2890532
0.14864513 1.3272836 0.7992674 0.68887466 0.23139387 -0.33233768 0.42380518 -0.33863446
0.2285515 0.4568963 0.369925 2.116558 -0.13782991 1.1941854 0.39554176 -0.17911232
-0.20769908 0.92309475 -0.30219796 -0.6956791 0.47726592 -0.37455374 -0.22704074 -0.4806157
0.5120882 -0.08780529 -0.32097974 -1.6349554 -0.2507514 0.016773304 -0.7733163 1.0033826
0.20200834 -0.44570437 0.14323446 -0.27961215 0.30184627 0.16950442 0.7136407 -0.9005289
0.7199123 0.035299435 0.024827924 -0.5400886 0.16947046 -0.0791436 0.87256044 1.1130469
00000000: bd32 f43f 9c9f 0b3e ba95 9cbe ac46 83bb
00000010: ebfa 0ebd 7dd7 5fbf c0d9 abbf 0496 b93e
00000020: 0ec9 e63e 4136 cfbe 0181 70bd 5928 3abf
00000030: 1010 8abe 3acf bf3d 38ea a23e b2ff a43f
00000040: 6e36 183e 6ee4 a93f ca9c 4c3f 175a 303f
00000050: 84f2 6c3e 2a28 aabe fefc d83e 7f61 adbe
00000060: 6809 6a3e 50ee e93e cf66 bd3e b075 0740
00000070: 4923 0dbe 11db 983f 7384 ca3e 3869 37be
00000080: 11af 54be f04f 6c3f b1b9 9abe 0718 32bf
00000090: 335c f43e 82c5 bfbe 5e7d 68be 4313 f6be
000000a0: 3618 033f 43d3 b3bd 7557 a4be 3846 d1bf
000000b0: 7d62 80be 2b68 893c 0ff8 45bf d76e 803f
000000c0: 46db 4e3e 5d33 e4be 0eac 123e 5329 8fbe
000000d0: 988b 9a3e 9192 2d3e 28b1 363f 1089 66bf
000000e0: 2c4c 383f 2496 103d ee63 cb3c 3f43 0abf
000000f0: aa89 2d3e 0a16 a2bd 1f60 5f3f 5278 8e3f

phi.initial_conv_module.0._layers.1.running_var f4 [64]
1.2316886 0.37370008 0.5780574 1.5377753 0.25309682 0.35886157 1.163909 0.7478383
1.6636631 0.6814154 0.43332815 0.631695 0.41473714 0.60679144 0.9385173 0.47144264
0.3258047 1.5555588 0.7492982 0.45353124 0.43935522 0.42024958 0.4596284 0.546048
0.45594338 0.467737 0.28021237 2.577918 0.57050234 0.85128313 0.39142498 0.4361091
0.34892362 1.15858 0.35469744 0.6647216 1.0557573 0.30517724 0.36660457 0.84025407
0.29086268 0.26717454 0.79361784 1.150885 0.9718005 0.40386227 1.7256187 0.79452807
0.3869269 0.39837623 0.6389131 1.2400925 0.8394841 0.6497263 0.48656386 0.5978375
1.0274152 0.3978072 0.88745826 0.4615839 0.4384622 1.245806 0.65973794 1.1288186
00000000: f9a7 9d3f 9e55 bf3e 92fb 133f d2d5 c43f
00000010: e895 813e b4bc b73e f8fa 943f 5572 3f3f
00000020: eaf2 d43f 3d71 2e3f 30dd dd3e c3b6 213f
00000030: 6d58 d43e af56 1b3f ab42 703f ee60 f13e
00000040: e0cf a63e 8d1c c73f 02d2 3f3f 3f35 e83e
00000050: 2bf3 e03e f42a d73e 6a54 eb3e cdc9 0b3f
00000060: 6971 e93e 397b ef3e ff77 8f3e 9cfc 2440
00000070: 710c 123f b1ed 593f db68 c83e b149 df3e
00000080: 1ea6 b23e 594c 943f e79a b53e 322b 2a3f
00000090: 0e23 873f 3140 9c3e 98b3 bb3e e41a 573f
000000a0: f4eb 943e 1acb 883e 8a2a 4b3f 3350 933f
000000b0: ebc7 783f 09c7 ce3e 13e1 dc3f 3166 4b3f
000000c0: 481b c63e f8f7 cb3e cf8f 233f 5abb 9e3f
000000d0: 6ee8 563f 7654 263f e61e f93e e10b 193f
000000e0: 5782 833f 63ad cb3e 7730 633f ba54 ec3e
000000f0: 1e7e e03e 9276 9f3f 96e4 283f 217d 903f

phi.initial_conv_module.0._layers.4.conv.weight f4 [64, 1, 5]
-0.36757848 0.3394437 0.4472922 0.2990771 -0.1925412 0.36453325 -0.33897564 0.24897926
-0.011146847 -0.3370582 0.06649487 -0.27124816 -0.17403704 -0.56449854 -0.17655073 0.29470456
-0.2665686 0.06067683 -0.017487807 0.42014197 -0.34121352 0.03325397 0.18120998 0.07510254
0.25384766 0.026118347 -0.14867337 0.026232077 -0.21865627 -0.4655831 0.19413897 0.0387037
-0.12621725 -0.18097258 -0.23652117 -0.16778684 0.12464812 0.4622535 -0.2429255 -0.22243044
-0.17224106 0.1535174 0.03832836 -0.3539053 0.23902741 -0.4717902 0.2749359 -0.097431466
-0.17372467 -0.34993234 0.16422522 0.4544393 0.039278395 0.12675741 0.37128338 0.006543891
-0.32077 -0.13333939 -0.101704784 -0.16117658 -0.29170662 -0.31832516 0.15513192 0.44884023
0.2322028 -0.12621504 0.11679346 -0.26418447 0.3903855 0.555785 0.30256256 -0.07705539
0.33277947 -0.47091055 -0.1398173 0.08674101 -0.48331484 -0.3315985 -0.23219721 0.21563907
-0.20697819 0.07881465 0.0115690045 0.43700835 -0.09562858 0.4712519 0.51422334 -0.29086718
-0.297741 0.19750206 0.38370916 -0.41628936 -0.052702937 -0.17813376 0.45239764 0.19678351
0.33899438 0.4823578 0.033859648 0.41033444 -0.057888143 0.06368069 -0.19587494 -0.34521464
-0.3443782 0.24315652 0.06864487 -0.2443124 -0.09051101 0.035559405 -0.14061384 0.13470654
-0.67328453 -0.2400933 -0.28512034 -0.25830886 0.17126638 0.575517 0.25018534 0.2827437
0.37692106 0.008889753 0.47991347 0.3566847 -0.29399714 -0.23579176 0.023190213 -0.351915
-0.5177058 -0.27646324 0.27789065 0.5554213 0.34147885 -0.346286 0.22744472 -0.37536174
0.031020166 -0.07646913 0.093338646 0.25774655 -0.18449658 -0.19531083 0.26538566 -0.37510645
0.24318047 -0.12605128 -0.20352043 0.23326589 0.043441217 -0.49441883 0.15768135 -0.22361782
0.7107259 0.26835766 0.3351165 0.1277962 0.016033126 0.16215576 -0.050690334 -0.30295014
0.06285616 0.21614942 0.23778802 0.4201592 -0.21081012 -0.3335539 -0.22738568 0.32028374
-0.15992495 0.2749437 -0.4625646 -0.11017782 -0.28901872 0.18812892 0.36528298 0.11440879
-0.21193491 -0.3016996 -0.41942152 -0.32655233 0.37291682 -0.035837132 0.32640257 0.45376688
0.22158094 -0.33683756 0.0051932903 -0.19833545 0.015483385 -0.3288715 -0.088308856 0.46394178
0.15448551 0.16325922 -0.16897717 0.27642205 0.12631854 -0.05523542 0.01215881 -0.417303
9.030836e-05 0.085121475 -0.5326705 -0.31712127 0.21613315 -0.0974081 -0.059445143 0.011142354
-0.10090591 0.45541817 0.052743006 -0.18541935 0.050809056 -0.56025726 -0.07954566 0.073961616
-0.18294252 0.08155795 -0.52564985 -0.1784009 0.00010929745 0.44245386 0.2842417 -0.3754366
-0.053266846 -0.23017941 0.30852917 0.6498795 0.14115873 0.19849047 0.038161367 0.013730873
0.2336092 0.49027753 0.12917243 -0.4106672 0.0057418966 0.51523376 -0.030186929 -0.18183441
-0.20058505 -0.32312256 -0.50959903 -0.045962542 0.07190591 0.37381756 0.5252218 0.297424
0.18991622 -0.037697352 -0.25680202 0.09659706 -0.5793388 0.07761681 -0.33911723 0.1450902
00000000: 3f33 bcbe 91cb ad3e 7c03 e53e a220 993e
00000010: 8529 45be 1aa4 ba3e 378e adbe 6bf4 7e3e
00000020: 44a1 36bc e492 acbe 762e 883d 0ae1 8abe
00000030: c436 32be fa82 10bf b7c9 34be 84e3 963e
00000040: ae7b 88be 4588 783d 9742 8fbc d91c d73e
00000050: 8ab3 aebe 5135 083d 1c8f 393e 5ccf 993d
00000060: 52f8 813e 25f6 d53c d53d 18be a7e4 d63c
00000070: 6ee7 5fbe e860 eebe 5ecc 463e c587 1e3d
00000080: 183f 01be e050 39be 9b32 72be 50d0 2bbe
00000090: 8347 ff3d 7eac ec3e 76c1 78be cec4 63be
000000a0: f65f 30be aa33 1d3e 33fe 1c3d 1333 b5be
000000b0: 9ac3 743e 7c8e f1be 66c4 8c3e 268a c7bd
000000c0: e1e4 31be 552a b3be a82a 283e 45ac e83e
000000d0: 62e2 203d b2cc 013e db18 be3e 236e d63b
000000e0: f73b a4be 1f8a 08be 994a d0bd 790b 25be
000000f0: 925a 95be 84fb a2be e7da 1e3e 63ce e53e
00000100: 92c6 6d3e 843e 01be 6931 ef3d 3043 87be
00000110: 9ce0 c73e ed47 0e3f 7be9 9a3e 37cf 9dbd
00000120: 1262 aa3e 301b f1be 442c 0fbe 45a5 b13d
00000130: 0b75 f7be 47c7 a9be 1bc5 6dbe 7dd0 5c3e
00000140: 17f2 53be 9369 a13d ec8b 3d3c 8fbf df3e
00000150: ebd8 c3bd ee47 f13e 24a4 033f 8bec 94be
00000160: 8271 98be fb3d 4a3e 8775 c43e e123 d5be
00000170: 09df 57bd b268 36be aaa0 e73e 9e81 493e
00000180: ac90 ad3e 9af7 f63e 6ab0 0a3d 5b17 d23e
00000190: 1e1c 6dbd 066b 823d 7193 48be f9bf b0be
000001a0: 5752 b0be 06fe 783e ae95 8c3d 082d 7abe
000001b0: d65d b9bd bda6 113d 13fd 0fbe 83f0 093e
000001c0: 605c 2cbf 05db 75be 4bfb 91be 0f41 84be
000001d0: 7460 2f3e 1555 133f 4b18 803e c8c3 903e
000001e0: ccfb c03e 54a6 113c 38b7 f53e 619f b63e
000001f0: cb86 96be 6573 71be 67f9 bd3c 342e b4be
00000200: 5e88 04bf 978c 8dbe af47 8e3e 1730 0e3f
00000210: 51d6 ae3e 664c b1be 45e7 683e 6a2f c0be
00000220: 011e fe3c d99b 9cbd 5528 bf3d 5bf7 833e
00000230: acec 3cbe 90ff 47be a1e0 873e f40d c0be
00000240: 4d04 793e 9613 01be a967 50be 41dd 6e3e
00000250: 6bef 313d 7724 fdbe 3877 213e 12fc 64be
00000260: 22f2 353f 2d66 893e 6494 ab3e 02dd 023e
00000270: e757 833c 290c 263e aba0 4fbd 481c 9bbe
00000280: bbba 803d 4656 5d3e b47e 733e 1b1f d73e
00000290: 9cde 57be 94c7 aabe cbd7 68be 3bfc a33e
000002a0: 5ec3 23be 6cc5 8c3e 44d5 ecbe e9a4 e1bd
000002b0: 43fa 93be dea4 403e 5f06 bb3e 284f ea3d
000002c0: 7705 59be 5f78 9abe 6bbe d6be de31 a7be
000002d0: f4ee be3e f5c9 12bd 3d1e a73e 2254 e83e
000002e0: 1de6 623e f975 acbe 7a2c aa3b 7318 4bbe
000002f0: 06ae 7d3c d861 a8be 46db b4bd c789 ed3e
00000300: 7331 1e3e 6d2d 273e 5a08 2dbe 3187 8d3e
00000310: a659 013e 893e 62bd bf35 473c bda8 d5be
00000320: ee63 bd38 2b54 ae3d 185d 08bf b85d a2be
00000330: 0252 5d3e e67d c7bd c07c 73bd 6c8e 363c
00000340: c2a7 cebd 922c e93e 0d09 583d 92de 3dbe
00000350: 281d 503d 056d 0fbf d6e8 a2bd 3079 973d
00000360: 4955 3bbe db07 a73d fd90 06bf baae 36be
00000370: 9f36 e538 5089 e23e 2188 913e 3a39 c0be
00000380: 562e 5abd 27b4 6bbe 89f7 9d3e 815e 263f
00000390: ea8b 103e 1641 4b3e 184f 1c3d 75f7 603c
000003a0: 4037 6f3e a805 fb3e c745 043e f942 d2be
000003b0: 8526 bc3b 5ce6 033f 944a f7bc cd32 3abe
000003c0: 2b66 4dbe 5270 a5be 1575 02bf 3843 3cbd
000003d0: 6843 933d 0465 bf3e f074 063f f547 983e
000003e0: 6679 423e 8a68 1abd 8e7b 83be aed4 c53d
000003f0: 8c4f 14bf 90f5 9e3d c6a0 adbe 8692 143e

phi.initial_conv_module.0._layers.5.weight f4 [64]
0.9687983 1.2848485 1.0903335 1.0311953 0.95585966 1.0518504 1.1596665 1.207892
1.1933105 0.83114094 0.904022 1.0764201 1.1338758 0.9137406 1.2414266 1.1539505
0.9747163 0.95266986 0.8973535 0.94706714 1.0595043 1.1856916 1.0522823 1.0189946
1.0735699 1.1410911 1.0844564 1.1735575 0.88989085 0.9360442 1.0134099 1.1549721
0.9321888 1.1819558 1.0942714 1.1090999 0.9672656 0.98897165 1.162494 1.1527482
0.97623295 1.1280631 1.083343 1.1369827 0.9259988 1.0225558 0.99214655 1.0412321
1.0798249 0.95850414 1.0824244 1.2468535 1.1900153 0.99262136 1.2098008 1.014988
1.3288622 1.1896483 1.1528293 1.1800238 1.0924928 1.029312 0.9634637 1.2193962
00000000: 2a03 783f ea75 a43f 0c90 8b3f 35fe 833f
00000010: 38b3 743f 09a3 863f f46f 943f 349c 9a3f
00000020: 66be 983f a7c5 543f fc6d 673f 22c8 893f
00000030: d822 913f e7ea 693f 11e7 9e3f a6b4 933f
00000040: 0287 793f 2ce2 733f f5b8 653f fe72 723f
00000050: d69d 873f bec4 973f 30b1 863f 6a6e 823f
00000060: bd6a 893f 460f 923f 78cf 8a3f 2237 963f
00000070: e3cf 633f 98a0 6f3f 6ab7 813f 20d6 933f
00000080: eda3 6e3f 544a 973f 1611 8c3f fcf6 8d3f
00000090: b89e 773f 3f2d 7d3f 9acc 943f 418d 933f
000000a0: 67ea 793f 5f64 903f fcaa 8a3f a688 913f
000000b0: 420e 6d3f 1ce3 823f 51fd 7d3f 1847 853f
000000c0: b437 8a3f 8760 753f e28c 8a3f e598 9f3f
000000d0: 6c52 983f 6f1c 7e3f c1da 9a3f 20eb 813f
000000e0: 2818 aa3f 6546 983f e98f 933f 050b 973f
000000f0: ced6 8b3f 7fc0 833f 8fa5 763f 2d15 9c3f

phi.initial_conv_module.0._layers.5.bias f4 [64]
-0.05173864 -0.14444336 0.15052177 0.03615796 -0.059489153 -0.05062093 0.2473935 0.4024178
-0.33774126 0.1286712 0.050037853 0.012800064 0.079140626 -0.12813534 0.4165836 0.09357179
0.05107218 -0.047316093 -0.122034505 0.013109003 -0.038927242 0.029885467 -0.042238414 0.27413753
0.25662038 0.048183646 0.06267474 0.11958829 0.18836476 -0.054667022 0.0020364153 0.029681088
-0.13700187 -0.2651333 0.26987317 0.102590255 -0.09422905 0.20733325 0.25062266 0.17587034
0.14537375 0.15799372 0.2547944 0.2511881 0.11871586 0.13473417 -0.023466732 0.13542528
0.18095346 -0.016396921 0.23558417 0.1862382 0.289473 0.006145501 0.16948913 0.11607809
0.2845 0.037394427 0.12728563 0.4246068 0.26967523 0.20585695 -0.11218171 -0.18562746
00000000: e5eb 53bd f6e8 13be 6122 1a3e 5e1a 143d
00000010: e6aa 73bd e457 4fbd b954 7d3e b509 ce3e
00000020: 6cec acbe 62c2 033e 7ef4 4c3d 5cb7 513c
00000030: 7b14 a23d e935 03be 724a d53e 91a2 bf3d
00000040: 1031 513d 85ce 41bd 3aed f9bd 25c7 563c
00000050: 2c72 1fbd 5ed2 f43c 3002 2dbd c15b 8c3e
00000060: bf63 833e 375c 453d 9d5b 803d b5ea f43d
00000070: b1e2 403e 87ea 5fbd 6175 053b c125 f33c
00000080: 384a 0cbe 8dbf 87be d12c 8a3e d71a d23d
00000090: 29fb c0bd 2b4f 543e 9d51 803e 5b17 343e
000000a0: dbdc 143e 1bc9 213e 6974 823e ba9b 803e
000000b0: 4d21 f33d c1f7 093e 4e3d c0bc edac 0a3e
000000c0: dd4b 393e d652 86bc fa3c 713e 3ab5 3e3e
000000d0: ce35 943e 3360 c93b 8f8e 2d3e 5aba ed3d
000000e0: fca9 913e e62a 193d 2a57 023e 1066 d93e
000000f0: df12 8a3e 2acc 523e 86bf e5bd 2015 3ebe

phi.initial_conv_module.0._layers.5.running_mean f4 [64]
0.12353333 -0.023264017 -0.052303955 0.05205549 0.012631807 -0.11248668 -0.053500213 -0.012356129
-0.036697138 -0.10375354 0.07678812 -0.14643781 0.017138628 -0.003706313 -0.02151797 -0.08168898
0.019307965 -0.04538158 -0.008250201 -0.018287232 -0.11548197 0.002313446 -0.26789024 0.1103856
0.32279962 -0.18107583 0.18477519 -0.009615066 -0.037930034 -0.08731897 0.012177519 -0.016903419
-0.020193094 -0.052420937 -0.07808547 -0.16024014 0.1158594 -0.15330462 0.05167852 0.00081256084
-0.07111088 0.029103033 -0.14265706 -0.17836069 -0.0070461393 -0.042770214 0.1755035 -0.013429693
-0.16016465 0.07089035 -0.16324332 -0.01537191 -0.03660759 -0.09427665 -0.05582082 -0.20130529
-0.008830075 -0.01379525 -0.020960268 -0.06901573 0.0018499953 -0.022714553 0.069806114 -0.033010926
00000000: 0bff fc3d 2e94 bebc ac3c 56bd 2338 553d
00000010: a3f5 4e3c 6b5f e6bd 0a23 5bbd 5c71 4abc
00000020: bd4f 16bd bc7c d4bd 1743 9d3d cbf3 15be
00000030: 4f66 8c3c 9de5 72bb 7446 b0bc 8d4c a7bd
00000040: bd2b 9e3c 09e2 39bd da2b 07bc 1bcf 95bc
00000050: d081 ecbd 2f9d 173b e928 89be d811 e23d
00000060: fe45 a53e f16b 39be b535 3d3e 8388 1dbc
00000070: 865c 1bbd 4ad4 b2bd 3784 473c 0a79 8abc
00000080: fd6b a5bc 56b7 56bd 46eb 9fbd fe15 24be
00000090: b147 ed3d e3fb 1cbe dbac 533d 0902 553a
000000a0: 95a2 91bd 7c69 ee3c b114 12be 2fa4 36be
000000b0: 4de3 e6bb d22f 2fbd 31b7 333e 3708 5cbc
000000c0: 3402 24be f62e 913d 4229 27be 77da 7bbc
000000d0: d7f1 15bd 1e14 c1bd 5fa4 64bd f922 4ebe
000000e0: 05ac 10bc 7905 62bc deb4 abbc 1e58 8dbd
000000f0: 8b7b f23a df13 babc 82f6 8e3d 7736 07bd

phi.initial_conv_module.0._layers.5.running_var f4 [64]
0.08972173 0.015100805 0.27617908 0.05816766 0.017812075 0.3169911 0.014497602 0.052955918
0.018883446 0.124142066 0.26049575 0.12545592 0.13297154 0.24876182 0.08618977 0.213678
0.03375747 0.036112327 0.022348607 0.5929449 0.17648993 0.009470924 0.6086367 0.5457182
0.8502007 0.45409647 0.7358539 0.017423337 0.030613208 0.08516966 0.63098055 0.008875051
0.1553063 0.055409204 0.091017716 0.21296996 0.7443832 0.4590766 0.29108447 0.037501995
0.081280865 0.030452289 0.25529462 0.25334156 0.035214815 0.27670982 0.24563283 0.018130975
0.2721526 0.29090098 0.24297872 0.031849764 0.016349962 0.10290374 0.036312703 0.29676232
0.023893464 0.017233826 0.014102832 0.16064219 0.0653809 0.022521602 0.23614517 0.034939256
00000000: 07c0 b73d 5e69 773c 5867 8d3e 3641 6e3d
00000010: a1ea 913c a84c a23e 5a87 6d3c 4ee8 583d
00000020: 75b1 9a3c 323e fe3d b35f 853e 8477 003e
00000030: b129 083e 6bbb 7e3e 4384 b03d 68ce 5a3e
00000040: 4645 0a3d 85ea 133d 6d14 b73c 3dcb 173f
00000050: c7b9 343e ef2b 1b3c 9dcf 1b3f 30b4 0b3f
00000060: c1a6 593f 557f e83e ec60 3c3f 63bb 8e3c
00000070: 8dc8 fa3c 6e6d ae3d f187 213f a968 113c
00000080: 9d08 1f3e c3f4 623d 7f67 ba3d cc14 5a3e
00000090: e68f 3e3f 170c eb3e 0609 953e b19b 193d
000000a0: 9576 a63d 1477 f93c fab5 823e fcb5 813e
000000b0: 693d 103d e9ac 8d3e 2c87 7b3e 6987 943c
000000c0: 9657 8b3e f9f0 943e 6acf 783e e674 023d
000000d0: 5bf0 853c 32bf d23d a1bc 143d 3bf1 973e
000000e0: 3abc c33c f42d 8d3c 910f 673c 637f 243e
000000f0: 6ce6 853d 397f b83c 0ad0 713e 771c 0f3d

phi.initial_conv_module.0._layers.7.se_conv.conv.weight f4 [10, 64, 1]
0.06834593 -0.17978397 0.014920884 0.005516413 -0.24668449 -0.18647963 -0.23850697 0.12588736
0.4728325 -0.20624228 -0.3012647 -0.19676194 -0.40873963 -0.30836055 -0.069861956 0.19393225
-0.027863154 0.011419509 -0.24249488 -0.0812047 0.09250471 -0.2993044 0.25296065 -0.024321947
-0.08462697 0.08001362 -0.1650718 0.12636481 0.28881946 0.014380485 -0.27000892 0.0475947
-0.43679944 0.39498347 -0.15723561 0.1818695 -0.34383112 0.035553306 -0.46014285 -0.4577491
-0.08228422 -0.04471901 0.18363467 0.04222182 -0.2751054 -0.19229865 0.01868364 0.06594712
0.09783268 0.058793373 -0.29240495 -0.088189855 0.30043468 0.11793485 0.18953332 -0.15223418
0.28544435 -0.16041142 0.016680602 0.0034349922 -0.38624895 -0.05827781 0.0503297 0.25398144
0.15577082 0.29990932 0.1424519 0.38831022 0.024150249 0.16830486 0.18904223 0.0076196054
0.06844838 0.2828387 -0.20697688 0.23842625 -0.06852212 -0.023229942 0.27257204 0.07118124
-0.0116146635 -0.27314866 0.13793606 -0.15903498 -0.17449781 0.3912235 -0.10181619 -0.21335092
0.05993051 -0.10658799 -0.30591723 -0.021045586 -0.19359393 0.1339114 -0.19538656 0.3076757
-0.41189876 0.17527993 0.17203479 -0.002740272 -0.21088342 -0.10593867 -0.38760975 0.0025891261
0.019438034 -0.3026494 -0.25782174 0.055252876 0.06179452 -0.5768147 0.07616396 -0.063189015
0.2522628 -0.08845257 0.09228116 0.0955744 0.18490168 0.13173579 0.17072672 0.23485625
0.24460304 0.1780296 0.047315564 0.0017607718 -0.008419659 0.10742178 0.09555788 0.021308845
0.22915879 -0.092527136 0.115634754 0.0500263 0.047399104 0.13372906 0.29350448 -0.0077710007
-0.15072331 0.23817644 -0.3371766 0.14362825 -0.3589388 -0.18448047 -0.012436199 -0.29708105
0.11041513 0.09845337 -0.2870809 0.19112436 0.25491545 -0.07993573 0.3029277 0.030379662
0.30784613 -0.059733864 0.37840235 -0.24444193 0.10329971 0.08084355 0.28457296 0.063359216
0.029936485 -0.1553441 0.036015574 0.30658364 0.092525 0.01748405 0.1454007 -0.21694154
0.09360839 0.25511637 0.17843631 0.3213467 -0.27023944 -0.034425292 0.1739305 -0.11669314
-0.3580117 -0.35341692 0.21871912 -0.36052456 0.32741043 0.3530696 0.04144591 0.15869252
0.20335872 -0.055999655 0.12531534 0.2972109 -0.12321988 0.01594565 0.05488259 -0.329961
0.0042614345 0.13040464 0.07255023 -0.34735936 -0.09428241 0.090252995 0.022463175 -0.029459147
-0.4346093 -0.067669526 0.33137053 -0.044957984 0.15145238 -0.14618076 0.24031863 0.25068027
0.051875893 0.14810012 0.059541177 -0.35422117 -0.3271821 0.38115385 0.047543433 0.2082083
-0.45532858 0.022101516 0.19804686 0.17424005 0.24682392 0.2297005 -0.15774193 0.24846613
0.23369657 0.056643836 0.14726815 -0.24167037 -0.07904428 0.25616753 0.033419732 0.57027096
0.0100316815 0.4473458 0.058707085 -0.094973676 0.38788185 0.21342315 -0.14310265 0.3677019
0.3109025 0.20145743 0.085979216 0.12683125 -0.00920913 -0.15063395 -0.13325846 -0.13398516
0.1147045 0.18199918 0.10360828 0.30819747 -0.00915218 0.040837396 -0.05525251 0.18103673
00000000: f3f8 8b3d 4a19 38be b976 743c 07c3 b43b
00000010: dc9a 7cbe 84f4 3ebe 2c3b 74be 9ee8 003e
00000020: 1a17 f23e 2d31 53be 5e3f 9abe f67b 49be
00000030: 5246 d1be 6fe1 9dbe c913 8fbd 2d96 463e
00000040: 4541 e4bc e418 3b3c 9450 78be a64e a6bd
00000050: 1c73 bd3d 6d3e 99be 0f84 813e d23e c7bc
00000060: e850 adbd 2ede a33d 9508 29be c765 013e
00000070: 25e0 933e 209c 6b3c 9c3e 8abe a9f2 423d
00000080: 2da4 dfbe 463b ca3e 5f02 21be 003c 3a3e
00000090: a20a b0be 58a0 113d d897 ebbe 175e eabe
000000a0: a184 a8bd 482b 37bd ba0a 3c3e caf0 2c3d
000000b0: 9dda 8cbe f0e9 44be 6f0e 993c 490f 873d
000000c0: 805c c83d 52d1 703d 1ab6 95be e29c b4bd
000000d0: 93d2 993e d487 f13d 0615 423e 47e3 1bbe
000000e0: c325 923e e442 24be c2a5 883c 9b1d 613b
000000f0: 6cc2 c5be b7b4 6ebd 8426 4e3d db09 823e
00000100: 6382 1f3e b78d 993e e9de 113e 99d0 c63e
00000110: bed6 c53c 1c58 2c3e 4994 413e e2ad f93b
00000120: aa2e 8c3d 3cd0 903e bff1 53be 0326 743e
00000130: 5355 8cbd b84c bebc 908e 8b3e 78c7 913d
00000140: 6e4b 3ebc 24da 8bbe 1c3f 0d3e 11da 22be
00000150: 8eaf 32be 724e c83e 0285 d0bd aa78 5abe
00000160: b279 753d ce4a dabd 2fa1 9cbe cb67 acbc
00000170: 7d3d 46be 1220 093e 6a13 48be ab87 9d3e
00000180: 65e4 d2be 957c 333e e329 303e 2396 33bb
00000190: d3f1 57be 60f6 d8bd c974 c6be 54ae 293b
000001a0: 833c 9f3c ddf4 9abe 3601 84be d750 623d
000001b0: 401c 7d3d 21aa 13bf dafb 9b3d 3e69 81bd
000001c0: 9728 813e 9f26 b5bd e8fd bc3d 83bc c33d
000001d0: de56 3d3e bfe5 063e fcd2 2e3e 287e 703e
000001e0: 3879 7a3e 644d 363e f7cd 413d b3c9 e63a
000001f0: 9cf2 09bc f3ff db3d dab3 c33d e38f ae3c
00000200: 9aa8 6a3e de7e bdbd ead1 ec3d 61e8 4c3d
00000210: 9025 423d 45f0 083e 3846 963e e1a3 febb
00000220: 3657 1abe 86e4 733e 69a2 acbe 4913 133e
00000230: d4c6 b7be 73e8 3cbe 33c1 4bbc 021b 98be
00000240: 5421 e23d eca1 c93d 45fc 92be 1bb6 433e
00000250: 4784 823e 58b5 a3bd 5719 9b3e c5de f83c
00000260: 029e 9d3e 7fab 74bd f4bd c13e fc4e 7abe
00000270: cc8e d33d 4e91 a53d 8cb3 913e 7ac2 813d
00000280: 5c3d f53c 8612 1fbe 1185 133d 88f8 9c3e
00000290: bf7d bd3d b63a 8f3c ece3 143e ec25 5ebe
000002a0: c1b5 bf3d 9d9e 823e 02b8 363e 8e87 a43e
000002b0: d35c 8abe 8901 0dbd d61a 323e d0fc eebd
000002c0: 4f4d b7be 10f3 b4be e8f7 5f3e ad96 b8be
000002d0: 57a2 a73e 8ac5 b43e 30c3 293d 4b80 223e
000002e0: 453d 503e e55f 65bd aa52 003e 072c 983e
000002f0: b45a fcbd 74a0 823c 91cc 603d a6f0 a8be
00000300: 81a3 8b3b cb88 053e 3795 943d 16d9 b1be
00000310: 2317 c1bd 90d6 b83d b104 b83c 4f54 f1bc
00000320: 1c85 debe 5296 8abd 66a9 a93e dd25 38bd
00000330: 5516 1b3e 69b0 15be 1616 763e 2a59 803e
00000340: d17b 543d 8fa7 173e 73e1 733d 7a5c b5be
00000350: 6a84 a7be 9926 c33e e7bc 423d 8e34 553e
00000360: d420 e9be 3d0e b53c cccc 4a3e fc6b 323e
00000370: 69bf 7c3e 9c36 6b3e 1a87 21be e86d 7e3e
00000380: 274e 6f3e 5e03 683d 76cd 163e 7078 77be
00000390: f8e1 a1bd 6428 833e 21e3 083d 47fd 113f
000003a0: ec5b 243c 820a e53e d776 703d 8f81 c2bd
000003b0: 7398 c63e 998b 5a3e 8089 12be 6c43 bc3e
000003c0: 9d2e 9f3e db4a 4e3e df15 b03d 0de0 013e
000003d0: e4e1 16bc c93f 1abe e874 08be 6833 09be
000003e0: 31ea ea3d fe5d 3a3e 9430 d43d 0fcc 9d3e
000003f0: 06f3 15bc 1d45 273d 7550 62bd b161 393e

phi.initial_conv_module.0._layers.7.se_conv2.conv.weight f4 [64, 10, 1]
0.15386137 -0.09214311 -0.28261757 -0.11541216 -0.31066358 -0.15061131 -0.45238474 0.1548023
-0.41000035 0.15162928 0.47404513 -0.10941778 0.39336243 -0.23158963 -0.065435104 -0.2280737
0.21737404 -0.14824522 0.2593711 -0.23858847 0.17322089 0.19787592 0.2975363 -0.09241331
0.068028346 -0.11506172 -0.058830813 -0.2725231 -0.0025758483 0.24685648 -0.20108359 0.15878096
0.13083462 -0.21646605 0.21302934 -0.19485404 0.3107926 0.16019344 -0.050241478 0.40693122
0.019609554 -0.041901354 0.224085 -0.31247625 -0.16659386 -0.00785699 -0.20205887 -0.0054415413
0.4431264 0.2290252 0.1340333 -0.1895162 -0.13770156 0.027546175 0.01854989 0.40284595
0.24020484 -0.3035253 0.14900824 0.10215903 0.18021254 0.14590475 -0.76606315 0.31633443
0.16850297 -0.3844828 -0.3961401 -0.05860126 0.43219915 0.21698624 -0.009181923 -0.06245447
-0.2453256 -0.06121038 0.16101958 -0.4401842 0.10282666 -0.5380956 0.29534256 0.24108201
0.3829823 0.078632645 0.08486989 0.2424948 0.11774852 -0.16854328 0.3500251 -0.05378148
0.13442333 -0.18751901 0.7226422 0.09404571 -0.16467887 -0.29286778 0.28919464 -0.014474129
0.12150043 -0.32161984 0.06658624 0.619882 0.26835293 0.23807101 0.70509833 -0.36576942
-0.4229896 -0.13149491 -0.06041061 -0.112327896 -0.035550345 -0.188771 -0.25237563 -0.55369127
0.18844631 -0.051221147 0.34902224 0.5373451 -0.18253015 -0.31846204 0.29055813 0.4792417
0.3841232 0.064157136 0.2591823 -0.38213062 0.062422317 0.064704485 0.19803953 -0.33382565
-0.19006279 -0.08231897 -0.06168746 0.16135041 0.29359287 -0.17483623 -0.22672312 0.14097388
0.14783776 0.053328756 -0.14506108 0.1717708 -0.02735187 -0.12406015 -0.16725466 0.15498492
0.12489049 -0.3663782 0.62243706 -0.3958833 0.042046167 -0.19570214 -0.43375036 -0.06583452
-0.2409827 -0.060895376 0.3782486 -0.24933937 0.46698758 -0.3063525 -0.026530514 0.268989
0.58646446 -0.06802118 -0.27173984 -0.28762394 0.2838434 -0.11339661 0.33520377 -0.2683447
-0.012764146 0.25653443 0.48497915 -0.34794137 0.18187532 -0.04404196 -0.29560545 0.12970366
-0.40389678 -0.14649414 -0.49528065 -0.07676559 0.111289084 0.31305897 -0.12351043 -0.18543585
0.26372054 -0.3648392 -0.17024459 -0.034524024 -0.394158 -0.28383473 0.46041366 0.11043161
-0.21652895 0.2922286 0.06692197 0.50792634 -0.09537658 0.5027107 0.53684604 0.41391703
-0.04922706 0.0952143 -0.31919137 -0.21994711 0.5195171 -0.3260707 -0.11589607 -0.39107284
0.17122173 0.4105725 0.32851776 -0.45110664 0.13728037 -0.46248856 -0.10729396 0.29331207
0.11737405 -0.32051477 0.31397453 -0.22672474 0.18021367 -0.4315541 0.20599078 0.17870125
-0.17265475 0.24116327 0.30995995 0.008657667 -0.35098407 -0.023559036 0.3263036 0.5652533
-0.091735154 -0.1227062 -0.4140128 0.19588892 0.45838237 0.12993264 -0.036303595 0.087328814
0.37598318 0.5091731 -0.5598133 0.0077370554 -0.24643387 0.2587355 -0.2987044 0.11052093
0.3859838 0.2618491 0.08354209 0.4608725 -0.24557866 0.047495272 0.09608024 -0.20733395
00000000: d68d 1d3e 87b5 bcbd 40b3 90be 365d ecbd
00000010: 4c0f 9fbe da39 1abe f99e e7be 7e84 1e3e
00000020: 91eb d1be b544 1b3e 0bb6 f23e 6e16 e0bd
00000030: cd66 c93e d525 6dbe d702 86bd 278c 69be
00000040: 4d97 5e3e 98cd 17be 4acc 843e 8950 74be
00000050: d160 313e fc9f 4a3e ae56 983e 3143 bdbd
00000060: 7252 8b3d 7ba5 ebbd 94f8 70bd 2688 8bbe
00000070: 90cf 28bb f2c7 7c3e dbe8 4dbe 7a97 223e
00000080: 83f9 053e 47a9 5dbe 5d24 5a3e d187 47be
00000090: 3520 9f3e c009 243e 02ca 4dbd 4a59 d03e
000000a0: 37a4 a03c c1a0 2bbd 8a76 653e e3fc 9fbe
000000b0: 9597 2abe 9bba 00bc 85e8 4ebe f54e b2bb
000000c0: 77e1 e23e 9585 6a3e 0740 093e 8910 42be
000000d0: a301 0dbe 84a8 e13c f0f5 973c d341 ce3e
000000e0: 42f8 753e ab67 9bbe 9e95 183e c138 d13d
000000f0: a389 383e 0e68 153e b71c 44bf 96f6 a13e
00000100: 0b8c 2c3e eeda c4be e0d2 cabe e007 70bd
00000110: 3549 dd3e a431 5e3e c76f 16bc 42d0 7fbd
00000120: a236 7bbe bcb7 7abd 51e2 243e d35f e1be
00000130: c996 d23d a2c0 09bf 2437 973e 34de 763e
00000140: 4216 c43e 270a a13d 44d0 ad3d 8f50 783e
00000150: 2326 f13d 9c96 2cbe 7d36 b33e f849 5cbd
00000160: 45a6 093e fc04 40be 14ff 383f 0a9b c03d
00000170: 94a1 28be c4f2 95be 5211 943e e624 6dbc
00000180: 38d5 f83d 5bab a4be 5e5e 883d 96b0 1e3f
00000190: 8e65 893e e3c8 733e 5381 343f 2146 bbbe
000001a0: 1892 d8be 9aa6 06be 1e71 77bd 2b0c e6bd
000001b0: 3d9d 11bd 2f4d 41be 6137 81be b6be 0dbf
000001c0: 12f8 403e 44cd 51bd 0bb3 b23e 738f 093f
000001d0: 2fe9 3abe 750d a3be 09c4 943e 2b5f f53e
000001e0: ccab c43e d164 833d 8bb3 843e a0a6 c3be
000001f0: 8bae 7f3d c983 843d e0ca 4a3e 32eb aabe
00000200: d29f 42be d996 a8bd fdab 7cbd 0b39 253e
00000210: ce51 963e 4508 33be 1b2a 68be 755b 103e
00000220: c862 173e 416f 5a3d e48a 14be afe4 2f3e
00000230: 0711 e0bc 3f13 febd ce44 2bbe 5eb4 1e3e
00000240: 96c6 ff3d ec95 bbbe 0958 1f3f 37b1 cabe
00000250: 9a38 2c3d 2466 48be 8714 debe 40d4 86bd
00000260: 2bc4 76be 6e6d 79bd cda9 c13e d252 7fbe
00000270: ff18 ef3e 3cda 9cbe 8556 d9bc edb8 893e
00000280: 8922 163f b04e 8bbd 7c21 8bbe 7243 93be
00000290: ec53 913e 7b3c e8bd d49f ab3e 7a64 89be
000002a0: b520 51bc 7b58 833e 304f f83e 5f25 b2be
000002b0: 863d 3a3e 5865 34bd 9959 97be 09d1 043e
000002c0: 8fcb cebe 8f02 16be 6d95 fdbe 4737 9dbd
000002d0: 88eb e33d 4449 a03e 09f3 fcbd e5e2 3dbe
000002e0: 6106 873e 34cc babe 9954 2ebe 1069 0dbd
000002f0: 14cf c9be c952 91be 57bb eb3e f829 e23d
00000300: c4b9 5dbe fd9e 953e 630e 893d 7607 023f
00000310: cc54 c3bd a6b1 003f be6e 093f efec d33e
00000320: 50a2 49bd b7ff c23d 0d6d a3be d139 61be
00000330: 13ff 043f bdf2 a6be eb5a edbd b33a c8be
00000340: c054 2f3e 8f36 d23e 7b33 a83e 73f7 e6be
00000350: 3a93 0c3e 4dcb ecbe f0bc dbbd 002d 963e
00000360: ce61 f03d 831a a4be 45c1 a03e 882a 68be
00000370: ef89 383e a9f4 dcbe 3fef 523e 76fd 363e
00000380: 68cc 30be 81f3 763e 12b3 9e3e e3d8 0d3c
00000390: 2fb4 b3be e1fe c0bc 4411 a73e 71b4 103f
000003a0: a4df bbbd 634d fbbd 7cf9 d3be 1b97 483e
000003b0: 18b1 ea3e 100d 053e 14b3 14bd 73d9 b23d
000003c0: de80 c03e 2b59 023f ed4f 0fbf 2087 fd3b
000003d0: 2959 7cbe fb78 843e c8ef 98be cc58 e23d
000003e0: ab9f c53e 1611 863e 1e18 ab3d 7bf7 eb3e
000003f0: f978 7bbe 678a 423d b8c5 c43d 5a4f 54be

phi.initial_conv_module.0._layers.8.conv.weight f4 [32, 64, 1]
-0.06612904 0.034290638 0.02824573 0.095790595 -0.14337449 0.0773483 -0.032805543 0.29366827
-0.12527876 0.123617694 0.03400682 0.0072164657 -0.18344899 -0.0962319 0.14769337 0.032552503
-0.06388587 -0.014005279 -0.04486021 -0.19551568 -0.07818443 0.20972948 0.059651446 0.026744686
-0.006550335 -0.032121226 -0.18262671 0.051317688 -0.15662299 0.037703957 0.059581917 -0.21179837
-0.046319924 -0.111159034 -0.03396731 0.07835874 0.061395485 -0.045474842 -0.073263876 0.21206929
-0.21563694 0.12343361 -0.11956272 -0.13535385 0.10864681 -0.027308442 0.02077608 0.10946711
0.13658684 -0.023053037 0.14507489 0.0396245 0.19949594 -0.050169196 0.16356309 0.09111094
0.028123844 -0.06346405 -0.09476289 -0.13250408 -0.044701114 -0.098440476 -0.05493655 0.035578355
-0.024016654 -0.042558324 0.06256952 -0.05404542 -0.13016835 0.11621069 -0.019718733 0.08864594
-0.05886349 0.08420991 -0.07454025 -0.13719973 -0.057498578 0.04978874 0.034577843 -0.11372415
-0.046298813 -0.0039756424 0.16222054 -0.08595557 -0.060305778 0.020431409 -0.0024996626 -0.18388493
-0.35457635 0.07162837 0.047888767 -0.22162598 -0.0320432 -0.18027216 0.027523786 0.030292373
-0.027179247 -0.11730826 -0.05563415 -0.0034452528 0.19084735 -0.030408416 0.10484503 0.034605224
-0.17007872 0.123635314 0.15898764 -0.08419131 -0.09634936 -0.105823286 0.05544323 -0.058211405
-0.03196212 -0.053001836 0.15621531 0.03742095 -0.16014874 0.168168 0.32766375 -0.23442322
-0.034039542 -0.016939329 0.13939656 0.010741264 0.28503415 0.058944874 -0.08413404 0.011815927
0.19800891 0.0064436044 -0.054118518 0.008224812 -0.080619514 -0.17391285 -0.07292528 -0.09055401
0.027517809 0.039310098 -0.18074784 -0.04675254 -0.0738848 -0.025219154 0.041200597 -0.1816788
-0.044613827 0.065065674 0.08122086 0.060173266 -0.07590619 -0.18331409 0.012750457 -0.12201386
0.050409913 -0.12869099 0.057512157 0.117981724 0.23784918 0.03632424 -0.026246047 0.14164226
-0.2068404 -0.028403485 -0.050387707 0.094745114 -0.17893219 0.12148928 -0.07030422 -0.09296535
-0.17449094 -0.13122655 0.0045518954 0.10463343 -0.08676684 0.011752182 0.05660988 -0.014018636
0.084944665 -0.15829869 -0.1278805 0.14339222 -0.27353567 0.07434802 -0.10610565 0.033540152
0.1950568 0.09040901 0.22252727 0.2945214 0.14391191 0.07667599 0.20308171 0.045305353
-0.08227104 0.0356441 0.21029425 0.053933647 0.03317465 0.09710893 -0.121899046 -0.10151513
-0.042824313 -0.0026560507 0.0833652 0.09920084 -0.03869956 0.005870883 -0.1952988 0.019765122
-0.034781918 -0.043990914 -0.0837023 0.082879625 0.10458446 -0.15528004 0.080601744 0.07594974
0.08522093 -0.07077438 -0.0019590475 -0.09768816 -0.044434834 0.037078965 0.028865915 -0.09951398
0.05333876 -0.0261312 0.067518644 0.04346869 0.09938326 -0.07034051 -0.09794908 0.01375463
0.062141493 -0.03670565 0.1762493 0.3095685 -0.19264415 0.1260098 0.08166654 -0.15130106
-0.12786062 -0.096476994 -0.17043011 0.13456666 0.050317522 -0.10113118 0.1307847 -0.049674142
-0.43363473 0.028938591 -0.039145943 -0.30912262 0.072358735 -0.17929794 -0.09195146 -0.16841234
00000000: aa6e 87bd 5774 0c3d 9763 e73c dc2d c43d
00000010: c3d0 12be c968 9e3d 1b5f 06bd b05b 963e
00000020: 1349 00be 462b fd3d bc4a 0b3d 1a78 ec3b
00000030: 0dda 3bbe 3b15 c5bd ee3c 173e c655 053d
00000040: 98d6 82bd 6676 65bc 57bf 37bd 4335 48be
00000050: 291f a0bd 53c3 563e 1355 743d ac17 db3c
00000060: 31a4 d6bb 8c91 03bd 7f02 3bbe 7f32 523d
00000070: c761 20be 776f 1a3d 2b0c 743d ace1 58be
00000080: f6b9 3dbd 59a7 e3bd 4e21 0bbd 8c7a a03d
00000090: d579 7b3d d443 3abd 5f0b 96bd b128 593e
000000a0: eecf 5cbe c3ca fc3d 4ddd f4bd 339a 0abe
000000b0: 3882 de3d f4b5 dfbc 9932 aa3c 4b30 e03d
000000c0: 6cdd 0b3e b9d9 bcbc 838e 143e 4d4d 223d
000000d0: aa48 4c3e 377e 4dbd 157d 273e 5f98 ba3d
000000e0: fa63 e63c 71f9 81bd 0c13 c2bd 26af 07be
000000f0: 8418 37bd 299b c9bd 2605 61bd 9cba 113d
00000100: 93be c4bc a351 2ebd 7324 803d bb5e 5dbd
00000110: da4a 05be dfff ed3d 2e89 a1bc 018c b53d
00000120: d81a 71bd 3f76 ac3d 8fa8 98bd 167e 0cbe
00000130: a183 6bbd 47ef 4b3d 7fa1 0d3d 35e8 e8bd
00000140: d3a3 3dbd 1b46 82bb 241d 263e 7909 b0bd
00000150: 3103 77bd c55f a73c 61d1 23bb 554c 3cbe
00000160: 088b b5be e5b1 923d 0327 443d ecf1 62be
00000170: bb3f 03bd 4499 38be 9079 e13c b627 f83c
00000180: 03a7 debc 503f f0bd a2e0 63bd c0c9 61bb
00000190: 7d6d 433e 121b f9bc feb8 d63d 35be 0d3d
000001a0: 1e29 2ebe 8334 fd3d a8cd 223e 7e6c acbd
000001b0: d052 c5bd e1b9 d8bd 7118 633d 156f 6ebd
000001c0: b6ea 02bd 7418 59bd e8f6 1f3e b646 193d
000001d0: 08fe 23be 3b34 2c3e 8bc3 a73e a40c 70be
000001e0: 0c6d 0bbd 59c4 8abc f9bd 0e3e 20fc 2f3c
000001f0: ffef 913e 2e70 713d 784e acbd 9797 413c
00000200: d9c2 4a3e df24 d33b 61ab 5dbd 5dc1 063c
00000210: d81b a5bd 3616 32be d959 95bd 6174 b9bd
00000220: 076d e13c a003 213d f615 39be 977f 3fbd
00000230: ea50 97bd 6698 cebc f5c1 283d 020a 3abe
00000240: fdbc 36bd 2741 853d 1f57 a63d 3e78 763d
00000250: b474 9bbd b0b6 3bbe 4be7 503c 67e2 f9bd
00000260: a07a 4e3d 92c7 03be de91 6b3d 67a0 f13d
00000270: bc8e 733e bac8 143d f301 d7bc ab0a 113e
00000280: f8cd 53be 6dae e8bc 5763 4ebd ba09 c23d
00000290: 003a 37be 5fcf f83d a9fb 8fbd 9e64 bebd
000002a0: c1ad 32be 4160 06be 1128 953b 0d4a d63d
000002b0: d0b2 b1bd 398c 403c c3df 673d 6cae 65bc
000002c0: 78f7 ad3d 0d19 22be 1bf3 02be 69d5 123e
000002d0: de0c 8cbe c643 983d eb4d d9bd 6661 093d
000002e0: f8bc 473e 5c28 b93d 30de 633e 82cb 963e
000002f0: a55d 133e 4d08 9d3d a7f4 4f3e 1b92 393d
00000300: b87d a8bd 8cff 113d 6057 573e 87e9 5c3d
00000310: 24e2 073d 0ce1 c63d 35a6 f9bd 2ae7 cfbd
00000320: 8c68 2fbd 2311 2ebb 60bb aa3d cf29 cb3d
00000330: 6e83 1ebd 8960 c03b 69fc 47be 77ea a13c
00000340: 7c77 0ebd d12f 34bd 1d6c abbd cbbc a93d
00000350: 6130 d63d bb01 1fbe 8712 a53d 8a8b 9b3d
00000360: 5088 ae3d 28f2 90bd 5d63 00bb bb10 c8bd
00000370: 4d01 36bd 1de0 173d 3678 ec3c fccd cbbd
00000380: be79 5a3d 1911 d6bc 3747 8a3d 3a0c 323d
00000390: 7389 cb3d af0e 90bd 8799 c8bd 1a5b 613c
000003a0: 1488 7e3d aa58 16bd b27a 343e c37f 9e3e
000003b0: 8244 45be b708 013e c940 a73d aaee 1abe
000003c0: e5ed 02be bb95 c5bd 3b85 2ebe d8cb 093e
000003d0: bf19 4e3d dd1d cfbd 6dec 053e 1d77 4bbd
000003e0: 5f05 debe a010 ed3c 7f57 20bd 5245 9ebe
000003f0: d130 943d e199 37be 0c51 bcbd 4974 2cbe

phi.initial_conv_module.0._layers.9.weight f4 [32]
1.0764332 1.2148838 1.0811608 1.046707 1.1166226 1.1617304 1.1279784 1.1265682
1.2337756 1.2804302 1.2589726 0.9890372 0.9790568 1.1563767 1.1535376 1.0749203
1.2346642 1.2445251 1.0681083 1.2045372 1.1227549 1.1705749 1.18426 1.3331492
1.1938028 1.2356266 1.1771804 1.1655638 1.1668304 1.1519635 1.1671805 1.2628151
00000000: 90c8 893f 5081 9b3f 7a63 8a3f 7ffa 853f
00000010: 7ded 8e3f 95b3 943f 9961 903f 6333 903f
00000020: 5cec 9d3f 23e5 a33f 0426 a13f 8b31 7d3f
00000030: 77a3 7a3f 2704 943f 1fa7 933f fd96 893f
00000040: 7a09 9e3f 994c 9f3f c6b7 883f 462e 9a3f
00000050: 6fb6 8f3f 66d5 953f d595 973f a2a4 aa3f
00000060: 88ce 983f 0329 9e3f d9ad 963f 3231 953f
00000070: b35a 953f 8a73 933f 2c66 953f eda3 a13f

phi.initial_conv_module.0._layers.9.bias f4 [32]
-0.0060071745 -0.008670184 -0.018090308 0.02342139 0.0025969672 -0.011595088 -0.04012687 -0.004722472
0.019471528 -0.015820457 0.0057224077 -0.0032538632 0.015252963 -0.008734336 -0.008149226 0.018660996
-0.03503109 -0.019976128 -0.021734903 0.011196113 -0.033383243 -0.029439243 -0.0059798365 -0.010053063
-0.02928925 -0.034761723 0.00017660458 0.024805728 -0.010738488 -0.008729353 -0.013422135 -0.024389971
00000000: d5d7 c4bb 630d 0ebc 2032 94bc 37de bf3c
00000010: e131 2a3b 53f9 3dbc 135c 24bd f7be 9abb
00000020: c182 9f3c e799 81bc 0983 bb3b c43e 55bb
00000030: 90e7 793c 761a 0fbc 5584 05bc f2de 983c
00000040: c37c 0fbd faa4 a3bc 650d b2bc e76f 373c
00000050: debc 08bd 912a f1bc 81f2 c3bb 9ab5 24bc
00000060: 02f0 efbc 4f62 0ebd ee2e 3939 6235 cb3c
00000070: 7cf0 2fbc 8f05 0fbc 84e8 5bbc 7acd c7bc

phi.initial_conv_module.0._layers.9.running_mean f4 [32]
0.08874782 -0.018143201 0.04167894 -0.10115149 -0.041170202 0.10072092 -0.10978849 0.054005254
-0.11159886 -0.09011639 -0.009064948 -0.06592403 0.16715904 0.059520673 -0.074634306 0.20279974
-0.14875333 0.037616972 -0.12556015 0.014533817 -0.29832995 -0.10758309 0.08190482 0.10921984
0.19201079 0.03724382 0.08998683 0.064444795 -0.105881624 -0.22818248 -0.028825693 0.0016223451
00000000: 6bc1 b53d 0da1 94bc 89b7 2a3d 8328 cfbd
00000010: 16a2 28bd c546 ce3d cad8 e0bd 9d34 5d3d
00000020: f18d e4bd f18e b8bd 2685 14bc 2e03 87bd
00000030: bd2b 2b3e f3cb 733d dfd9 98bd bcaa 4f3e
00000040: cb52 18be 4114 1a3d d792 00be 3f1f 6e3c
00000050: b4be 98be 8654 dcbd b7bd a73d a7ae df3d
00000060: 7a9e 443e fa8c 183d 044b b83d a2fb 833d
00000070: 77d8 d8bd aba8 69be dc23 ecbc dea4 d43a

phi.initial_conv_module.0._layers.9.running_var f4 [32]
0.114692055 0.12147225 0.09677611 0.08287821 0.10344637 0.09424652 0.09362123 0.0711722
0.10193011 0.11538318 0.13121346 0.09818851 0.09115585 0.09497076 0.100376114 0.12050004
0.12073771 0.15641253 0.106878445 0.12179541 0.09762866 0.081985205 0.089629725 0.0838604
0.088292584 0.119899064 0.10578346 0.10923298 0.1090981 0.1348174 0.12675826 0.1202724
00000000: abe3 ea3d 71c6 f83d 8e32 c63d 0dbc a93d
00000010: b1db d33d 5204 c13d 7dbc bf3d bbc2 913d
00000020: bcc0 d03d 044e ec3d d25c 063e 0f17 c93d
00000030: ebaf ba3d 0880 c23d fe91 cd3d bac8 f63d
00000040: 5545 f73d 9b2a 203e 16e3 da3d df6f f93d
00000050: 89f1 c73d dce7 a73d ca8f b73d 00bf ab3d
00000060: bed2 b43d a48d f53d 00a5 d83d 8ab5 df3d
00000070: d36e df3d 930d 0a3e ebcc 013e 6051 f63d

phi.initial_conv_module.1.weight f4 [32]
1.0758802 1.2520307 1.0932425 1.0489962 1.1303121 1.1741809 1.1445366 1.1299087
1.2793384 1.3204753 1.3120381 0.98176277 0.9663971 1.166752 1.1758814 1.0816642
1.2732426 1.292256 1.0786293 1.2325501 1.1294847 1.1872647 1.2089729 1.3825421
1.2176931 1.2732356 1.1976432 1.188408 1.1903797 1.1639116 1.191685 1.3035505
00000000: 71b6 893f 8b42 a03f 5fef 8b3f 8245 863f
00000010: 11ae 903f 8f4b 963f 2d80 923f d9a0 903f
00000020: 5cc1 a33f 5605 a93f ddf0 a73f ce54 7b3f
00000030: cd65 773f 2158 953f 4883 963f f973 8a3f
00000040: 9df9 a23f a568 a53f 8610 8a3f 34c4 9d3f
00000050: f492 903f 4af8 973f a0bf 9a3f 24f7 b03f
00000060: 5edd 9b3f 62f9 a23f 5f4c 993f c11d 983f
00000070: 5d5e 983f 0efb 943f 2289 983f beda a63f

phi.initial_conv_module.1.bias f4 [32]
-0.19459862 -0.007791143 -0.07231732 -0.1441761 -0.16002558 -0.06870729 -0.13794442 -0.22828479
0.21396616 -0.04737145 0.32990468 -0.08637616 -0.113931604 -0.12927522 0.13734682 0.08944617
-0.012621433 0.3262471 -0.25947502 0.114623785 -0.04507084 -0.15462177 0.018136846 0.11139747
-0.052337207 -0.054568287 0.03612375 -0.09364919 -0.07436412 -0.08226455 0.07425386 -0.075794116
00000000: dc44 47be d84c ffbb 1a1b 94bd e6a2 13be
00000010: bfdd 23be 68b6 8cbd 4d41 0dbe 7dc3 69be
00000020: f219 5b3e 9108 42bd 44e9 a83e fce5 b0bd
00000030: f954 e9bd b960 04be a5a4 0c3e 8e2f b73d
00000040: 20ca 4ebc dc09 a73e e9d9 84be e0bf ea3d
00000050: 339c 38bd 2b55 1ebe b993 943c 5b24 e43d
00000060: 8a5f 56bd ff82 5fbd 7ff6 133d 26cb bfbd
00000070: 374c 98bd 517a a8bd 6812 983d f239 9bbd

phi.initial_conv_module.1.running_mean f4 [32]
-0.005965376 -0.008543443 -0.01783522 0.0234791 0.002666538 -0.01152797 -0.04013401 -0.0047671627
0.019572224 -0.015689429 0.0055806725 -0.0030100367 0.015148019 -0.008595723 -0.008177216 0.018627234
-0.03531358 -0.019723702 -0.02186452 0.011216489 -0.03348415 -0.029427024 -0.005829259 -0.010037959
-0.0294218 -0.034839712 0.000109466266 0.024918716 -0.010715097 -0.008638984 -0.013383168 -0.024371536
00000000: 3379 c3bb ccf9 0bbc 2b1b 92bc 3e57 c03c
00000010: 16c1 2e3b d0df 3cbc 8f63 24bd dc35 9cbb
00000020: ee55 a03c 1e87 80bc 13de b63b 0944 45bb
00000030: 662f 783c 13d5 0cbc bbf9 05bc 2498 983c
00000040: f9a4 10bd 9a93 a1bc 391d b3bc 5dc5 373c
00000050: ad26 09bd f110 f1bc 5e03 bfbb 4076 24bc
00000060: fd05 f1bc 16b4 0ebd 4191 e538 5622 cc3c
00000070: 608e 2fbc 868a 0dbc 1345 5bbc d1a6 c7bc

phi.initial_conv_module.1.running_var f4 [32]
1.1475594 1.4626571 1.1585902 1.0838591 1.2338479 1.333694 1.2566773 1.2532305
1.5068452 1.6274399 1.572113 0.966742 0.9469277 1.3228232 1.3168894 1.145802
1.5095686 1.5366544 1.1302465 1.4388412 1.2483754 1.3525012 1.3858371 1.7537948
1.4092082 1.5136025 1.3727583 1.3456256 1.3467842 1.3172102 1.3526208 1.5825969
00000000: 3ae3 923f 5938 bb3f af4c 943f e5bb 8a3f
00000010: baee 9d3f 7cb6 aa3f cdda a03f db69 a03f
00000020: 4ee0 c03f f34f d03f 003b c93f 677c 773f
00000030: db69 723f 4552 a93f d58f a83f a4a9 923f
00000040: 8b39 c13f 17b1 c43f ebab 903f f32b b83f
00000050: c4ca 9f3f c21e ad3f 1c63 b13f 597c e03f
00000060: ef60 b43f babd c13f 8bb6 af3f 763d ac3f
00000070: 6d63 ac3f 589a a83f ae22 ad3f 8992 ca3f
