logs/4birds_CF_combined_log_linear_gru64_50epochs_try2/2025-05-27_14-43-26/4birds_CF_combined_log_linear_gru64_50epochs_try2_best_model_acc.pth (torch, 338121 bytes, 198 tensors)

phi.initial_conv_module.0._layers.0.conv.weight f4 [64, 64, 1]
00000000: 0204 d03d 26f5 093e d1fa bebd 2da6 cc3d
00000010: ff6a debd 0216 153d 3486 673c 6e71 683e
00000020: 01ad 893e 0606 a93d 0857 c63e 0133 3d3e
00000030: 362b af3d 0033 ccbd a352 b4bd 5413 e0bd
00000040: 9b86 063d bb23 2fbd b408 e3bd f6ff 28bd
00000050: db57 89bd 3157 80bd 3c85 0ebe f1ed 2d3c
00000060: f8f0 2cbd d401 cb3d 5b3b d03d 45de 843d
00000070: 8d96 8f3d 4973 fdbd 137d bc3d 7bde 01be
00000080: 1534 813c cb16 55bd a079 f2bd 168f b9bc
00000090: 04c5 a6bd 7613 dc3c 8606 90bd c79f afbd
000000a0: a908 4bbb 6dc0 62bd 9862 6dba a65d fa3d
000000b0: 048d d03c cc52 83bd 81b0 2a3a f9e8 d3bd
000000c0: 3683 d13c 6e87 bbbc 419c b9bd 2b2a cfbd
000000d0: c084 6ebe a75e 82bd 9254 fcbd b641 ecbd
000000e0: 7ba2 4bbd d132 edbc e641 7b3d 7874 f8bd
000000f0: 0b68 e7bc 60c7 07bd f0f2 dc3b 0e91 debd
00000100: 2b77 8a3d 50ab debb 0b4d 363e 894f 76bd
00000110: 4322 653d c202 ecbd 6ce1 fe3d 3ccf a1bd
00000120: 9fa4 5d3d 5a85 57bd e20f 50bc 014e a33d
00000130: f5e1 a63d 4b6b 9a3d e3a3 f13c 6456 ab3d
00000140: 8751 f7bd 06b0 b9bd fc77 823d ec18 00bd
00000150: 0dba 4b3c baaa 25bd 94d1 a03d 410a f3bd
00000160: c00d 18be 493b 063c 9ce8 243d 97a4 673d
00000170: f9f9 823d c61a d3bb 8072 30be 30d7 4dbd
00000180: ea56 0e3e 4c55 8f3d 4e1f 883b d686 3fbd
00000190: aa8e ec3b 5417 113e a215 913b 14a2 00be
000001a0: c59c 48be 11d9 afbe 9ac3 96be fedd e1bd
000001b0: 7971 4f3e 770a 9c3e 0af4 cd3e 0fca 793e
000001c0: dd59 e53d d83a 37be 2af9 d7bd 6cd5 4fbc
000001d0: c4b4 cebc fbae 3cbe e1e2 5dbe a1ef b4be
000001e0: e01c d7bb 9a3b 88bd 4643 bb3c 07be f8bd
000001f0: 5be9 b0bc e9b0 983d 6c05 853d 807f 373e
00000200: 1b11 363d 564d c7bd 1550 d63d e99a ae3c
00000210: 8436 f3bd f6b6 353d 7c13 e0bd 2eb6 18bc
00000220: a3f3 383d 6c4b 1bbd ec62 b53d f5bb 5d3d
00000230: 76c8 cdbb 8751 04be 02aa 903d eaa9 0ebe
00000240: feab a0bd 47b4 813c 5c29 c43d 39a3 683e
00000250: 4824 573e bfed 07be 6367 aabd 62fe 30be
00000260: 3328 34be ea83 98be c043 bc3d 2d22 b03d
00000270: 215e 8e3e 871b 453e 4292 d03d d93b 973c
00000280: ef25 2c3e 1ccf 3cbd 6a5e 3abd 9394 17be
00000290: b33d 82bb 26d5 4cbd e311 08bd 45ef 1b3e
000002a0: 0019 7c3d 91e7 ca3c 5a59 7f3c 7c25 253d
000002b0: 53c5 173d dadc a1bd 5c87 a1bd 27c0 963c
000002c0: d115 d5bc 1ebb 913d f6cd 053e 8c92 dbbd
000002d0: bee6 803c 596c 9b3d 7b84 ef3c d7f8 6dbd
000002e0: 5611 303d 705f 96bc c268 17bb 44a5 3dbd
000002f0: af53 a5bc 74be 323d 25b0 8c3c ea45 9d3c
00000300: 5a4f 02be 8725 debd 3195 cbbd b97b 56be
00000310: d0c7 8abd fa70 1bbe 2d9a c0bd 4252 86bd
00000320: 3f03 19be 8f5c e2bd 4ec8 af3b 8940 4bbd
00000330: 0481 bbbd 008d 03be e080 89bd ea9b 32bd
00000340: 028d c2bc 1540 5a3c d70e b6bc 2e66 4bbc
00000350: 8450 00be f174 3bbe b5ee 14be 7475 8f3d
00000360: f8f2 1dbd 7aba b1bd aee9 0d3b c968 f0bd
00000370: e4c8 10be d8d1 d3bc 4934 bebd e35e 28bc
00000380: 90bf 7dbd ad76 083e df41 a83d 1cda 34bc
00000390: 6793 2cbe a867 3abe cad4 52be 5e85 98bc
000003a0: 31e4 75bd f8a4 34bd c084 88bc c518 943d
000003b0: 0365 9d3d c4a2 0ebe 3374 5bbe fdf7 0bbe
000003c0: a537 4cbc 7487 12be e92f 0cbe 0c07 29be
000003d0: 000b 06be 9e15 20be b970 00be 21ab 0a3c
000003e0: 0537 b8bd 7bab 79bc 9117 dcbd cb88 00be
000003f0: ff3e 34bd f537 b5bd e56b a6bd 11c3 dfbd
0.101570144 0.13472423 -0.09325183 0.09992633 -0.10860252 0.03639794 0.014131118 0.2269952
0.26889804 0.08253102 0.38738275 0.18476488 0.08553164 -0.09970665 -0.08804824 -0.109411865
0.032843214 -0.042758685 -0.11085644 -0.04125973 -0.0670621 -0.062666304 -0.13918012 0.010615812
-0.042221993 0.09912458 0.10167571 0.06487707 0.07011137 -0.123755045 0.092035435 -0.12682526
0.015771905 -0.05202369 -0.118396044 -0.022651237 -0.081430465 0.026864748 -0.07032494 -0.08575397
-0.0030980504 -0.055359293 -0.0009055524 0.12224893 0.025457866 -0.064122766 0.00065112865 -0.103471704
0.025575262 -0.022891726 -0.09063006 -0.10115465 -0.23292828 -0.0636571 -0.12320818 -0.11535971
-0.0497155 -0.028954895 0.061342143 -0.1213159 -0.028247854 -0.033149123 0.0067428276 -0.10867511
0.06761011 -0.0067953244 0.17802827 -0.060134444 0.055940878 -0.115239635 0.124453396 -0.07900855
0.054112073 -0.05261741 -0.012699099 0.079738624 0.08148567 0.07539996 0.029497093 0.08366087
-0.12076097 -0.09066777 0.063705415 -0.031273767 0.012434495 -0.04044602 0.07852474 -0.1186719
-0.14848995 0.008192846 0.040260896 0.05655345 0.06395335 -0.0064424006 -0.17231178 -0.050254047
0.13900343 0.06998691 0.0041541224 -0.04675945 0.0072191553 0.14169055 0.0044276277 -0.12561828
-0.19591053 -0.34345296 -0.29446107 -0.1102867 0.2025813 0.30476734 0.4022525 0.24393485
0.11198781 -0.17893541 -0.10545571 -0.012685161 -0.02523268 -0.18426125 -0.21668579 -0.35339072
-0.0065647215 -0.06651993 0.022859227 -0.1214562 -0.021595648 0.07455618 0.06495175 0.17919731
0.044449907 -0.097315475 0.10464493 0.021314101 -0.118756324 0.04436394 -0.10941216 -0.009320779
0.045154225 -0.037913725 0.088567585 0.054134328 -0.0062800003 -0.12921725 0.070636764 -0.13932005
-0.07845305 0.015833033 0.09578201 0.22718515 0.21009934 -0.13274287 -0.08320501 -0.1728454
-0.1759346 -0.29788142 0.0919261 0.086002685 0.2780619 0.19248782 0.101841465 0.018461155
0.16811346 -0.046095952 -0.045500197 -0.1480277 -0.0039746403 -0.05000796 -0.033220183 0.15227993
0.06154728 0.024768623 0.015585268 0.04031895 0.037053417 -0.07903452 -0.07887146 0.018402172
-0.02601138 0.07115768 0.13066849 -0.10721311 0.015735026 0.07589025 0.029237976 -0.05809864
0.042985283 -0.018356055 -0.0023103212 -0.046300188 -0.020181505 0.04363866 0.017173836 0.019198377
-0.12725583 -0.108470015 -0.099405654 -0.20945634 -0.067763925 -0.15179816 -0.09404407 -0.06558658
-0.14942645 -0.110528104 0.0053644544 -0.049622092 -0.09155467 -0.12846756 -0.06714034 -0.043605722
-0.023748878 0.013320942 -0.022223873 -0.012414498 -0.12530714 -0.18306328 -0.14544185 0.07004824
-0.03856179 -0.08678146 0.0021654177 -0.11738736 -0.14139134 -0.025856897 -0.09287316 -0.010276529
-0.061950266 0.13326521 0.08215689 -0.011038329 -0.16853105 -0.18203604 -0.20588985 -0.018618282
-0.060032073 -0.04410264 -0.016664863 0.07231287 0.07685282 -0.13929278 -0.21431045 -0.13668819
-0.012464439 -0.14309484 -0.13690151 -0.16506594 -0.13090134 -0.15633246 -0.12543 0.008463652
-0.08994869 -0.015238638 -0.107466824 -0.12552182 -0.04400539 -0.088485636 -0.08126048 -0.10925878

phi.initial_conv_module.0._layers.1.weight f4 [64]
00000000: 9103 953f 53d9 973f 3f49 633f 68a1 783f
00000010: 0293 703f 33dd a53f c593 373f 0dec 7c3f
00000020: dbbc 963f 6b8a 8f3f f232 6c3f ff61 743f
00000030: ad88 753f ba0a 9f3f e5a0 af3f 0171 873f
00000040: d02e 613f 56d5 6b3f e1d4 673f 4799 8f3f
00000050: e0d3 483f 58fd 793f 5c6f 943f cefe a03f
00000060: 7371 b53f 44f6 7a3f 6687 a23f 3152 773f
00000070: f020 753f 974b 783f 0cc6 793f c26b 263f
00000080: 760d 6f3f 86d8 953f af9a 8b3f c5be 863f
00000090: 7717 893f 8914 9f3f 7dc3 a53f 845a 7c3f
000000a0: 1f88 453f f21e 4f3f 7247 6c3f 72f2 8c3f
000000b0: 4bbb 5a3f 0d9e 8b3f e5eb 953f 9de2 623f
000000c0: 59e2 673f 6831 603f 0633 993f 5640 713f
000000d0: d063 0a3f 04b3 a03f fe65 373f 5b4a 873f
000000e0: 4ead 783f 22a5 613f c810 723f ae24 953f
000000f0: 45d5 4b3f a868 9f3f 4f2a 7b3f ebe8 aa3f
1.1641713 1.1863197 0.8878364 0.97121286 0.93974316 1.295813 0.71709853 0.98797685
1.1776384 1.1214117 0.92265236 0.9546203 0.95911676 1.2425148 1.3720976 1.0581361
0.87962055 0.921224 0.905592 1.1218652 0.78448296 0.97652197 1.1596484 1.257776
1.4175247 0.9803202 1.269757 0.9660979 0.95753384 0.9699034 0.9756782 0.65008175
0.93379915 1.1706703 1.0906581 1.0526968 1.0710286 1.2428142 1.2950283 0.98575616
0.7716083 0.80906594 0.92296517 1.1011488 0.85442036 1.0907608 1.1712614 0.88627034
0.90579754 0.8757539 1.1968696 0.94238794 0.5405855 1.2554631 0.7164 1.0569566
0.9713944 0.881426 0.94556856 1.1651819 0.796223 1.2453814 0.9811143 1.3352331

phi.initial_conv_module.0._layers.1.bias f4 [64]
00000000: fcbc 973b 990c ea3d 8bdc aebd 657b 97bd
00000010: 32cc 03be f180 4cbe ce5b 133e 2d76 543e
00000020: e5ec b03e 1871 26be d637 23be 6780 1a3e
00000030: bc4d 1dbe 6c5a eebe e9bc 1d3e 47b6 25be
00000040: 5c3e f2bd 0ec3 cabe 44be d5be ead1 09bf
00000050: 838f 2e3d d164 f23d 8ad2 31bc 7ba5 8abe
00000060: 25d8 953d dc11 86bd 124d 0dbe 1b4c 9cbc
00000070: 6210 393b 2edb 6e3c 85ac a0be 160f f53e
00000080: 0f39 c7be 96e0 d63e c920 243e 1c59 f13a
00000090: 7198 83be 9ed7 13be 665a 3abe 7f47 1bbe
000000a0: e2eb 4f3d e31f a93d f437 e73d 9e9a d73d
000000b0: c941 8fbe b0be ecbe 1006 343d d40d 043d
000000c0: 9bfd 3e3d 931d 34be b57a e5bd 9bee da3e
000000d0: 77aa de3e cf96 f9bd 9c2b 2e3e 77db 963d
000000e0: 2514 4a3d 674b 8c3e 7498 193e 10fe dfbd
000000f0: 3cc0 55be 7892 50be 356e 40be 3ffb 883a
0.004630683 0.11428184 -0.08538159 -0.073965825 -0.12870863 -0.19971062 0.1439049 0.20748205
0.34555736 -0.1625408 -0.15939268 0.15088044 -0.15361685 -0.4655336 0.15404095 -0.16182815
-0.118283 -0.3960194 -0.41746724 -0.5383593 0.042617332 0.118356355 -0.010853419 -0.27079377
0.07316617 -0.06546375 -0.13798931 -0.019079259 0.0028238525 0.014578624 -0.31381622 0.47863072
-0.3891072 0.4196822 0.16028132 0.0018413397 -0.2570224 -0.1443772 -0.18198547 -0.15163992
0.050762065 0.08258035 0.11289969 0.10527538 -0.27979878 -0.46239233 0.043951094 0.03223975
0.046628576 -0.17589407 -0.11205045 0.42760167 0.4348943 -0.121869676 0.17008823 0.07366078
0.049335618 0.27401277 0.14999563 -0.109371305 -0.20874113 -0.20368373 -0.1879204 0.0010450854

phi.initial_conv_module.0._layers.1.running_mean f4 [64]
00000000: b6a5 b23f 37ec 0cbe 6705 16be 4114 cb3e
00000010: e62b 62bd 1221 52bf 28f8 a1bf 9218 193e
00000020: 0d42 a73e 2cef a8be 51ac a3bd 461e 18bf
00000030: b1ce c0be fab5 73bd a85c 4a3f 192a a73f
00000040: e5c0 ad3e 7606 543f e374 6a3f a95f 6f3f
00000050: 5834 b63d 5866 b7be 45db b23e 2f77 89be
00000060: 3b58 223f 9c06 073f 74f5 943e e1eb 1f40
00000070: 4a1c 4c3e e9c1 8b3f f639 e03e fd83 cf3c
00000080: 3e5c ff3d ee5b 723f 5b4f e5be 23e1 48bf
00000090: d906 3f3f 1c11 39be a389 83be c4d1 4ebe
000000a0: 39b0 fe3e 4661 95bd e248 a4be 94d8 ddbf
000000b0: 3d0f 803e 1edc 213e 0260 43bf f2ea 9c3f
000000c0: 4c67 993e 8db5 b7be ec6b 953e 24a7 18be
000000d0: 971f a73e 9604 ac3d 5960 3d3f c033 81bf
000000e0: d749 883f d1b0 a63c 86e1 553e b07c 17bf
000000f0: 5305 1fbd 4606 a23e 7948 443f 11b5 af3f
1.3956821 -0.13761984 -0.14650498 0.3966389 -0.055217646 -0.8208171 -1.2653856 0.14950779
0.3266758 -0.32994974 -0.07991851 -0.59421194 -0.37657693 -0.05949972 0.7904763 1.3059722
0.3393623 0.8282236 0.91584605 0.9350534 0.088967025 -0.3582027 0.34932914 -0.26848742
0.6341588 0.5274446 0.29093516 2.498772 0.19932666 1.0918552 0.4379422 0.025331492
0.12468766 0.94671524 -0.44787106 -0.7846853 0.74619824 -0.18072933 -0.25690946 -0.20197207
0.49743822 -0.07293944 -0.32086855 -1.7331719 0.25011626 0.15806624 -0.7631837 1.22592
0.29961622 -0.358807 0.291839 -0.14907509 0.3264129 0.08399312 0.7397514 -1.0093918
1.0647534 0.020347985 0.20886812 -0.59174633 -0.038823437 0.3164541 0.76673084 1.3727132

phi.initial_conv_module.0._layers.1.running_var f4 [64]
00000000: 618a 9a3f 42a1 be3e f053 083f 4473 fb3f
00000010: 35aa ca3e d7cd bc3e f1ad c63f f744 803f
00000020: 9786 1b40 57f7 4a3f 5068 143f e562 823f
00000030: f97a f73e b769 023f 8f75 9b3f 3b89 083f
00000040: d768 033f b313 e23f 29fd 653f e1ed f63e
00000050: 9bb1 313f 8d61 033f e665 cd3e 1ffc 1f3f
00000060: 6508 e33e 06ec c93e ab53 b93e 6369 3d40
00000070: 95e1 013f 698e a83f 4c70 f53e e75e 2b3f
00000080: 852c c03e c930 e53f 0125 de3e b6a8 393f
00000090: 341f 783f 8bdc ad3e cd1b ba3e 1796 4b3f
000000a0: aa8a be3e 8d38 cc3e 0ef1 8a3f 23ee dc3f
000000b0: 8fca 653f fae0 f13e 9e17 0e40 25dd 883f
000000c0: 449a 0f3f 75d0 0d3f a736 403f db6b b23f
000000d0: 0aaf 7b3f cb68 2d3f a2fc 253f 7e46 343f
000000e0: f71e da3f 4048 d63e 9f94 8b3f b3e7 493f
000000f0: fd9e c53e fe15 983f 6258 543f 8546 c73f
1.207348 0.37232405 0.5325308 1.9644551 0.39582983 0.36875793 1.5521833 1.0021046
2.4300897 0.7928366 0.5797167 1.018643 0.48336008 0.5094256 1.2145251 0.533344
0.5133185 1.7662262 0.89839417 0.48228362 0.6941163 0.51320726 0.40116805 0.6249408
0.44342342 0.39437884 0.36196646 2.9595573 0.50734836 1.316846 0.47937238 0.66941684
0.37533966 1.7905513 0.43387607 0.7252306 0.9692261 0.33957323 0.36349335 0.79525894
0.37215167 0.39886895 1.0854814 1.7260174 0.89762205 0.47241956 2.2201915 1.0692488
0.56094766 0.55396205 0.7508339 1.3939165 0.98313963 0.67738026 0.6483861 0.7042006
1.70407 0.41851997 1.090473 0.7886917 0.3859786 1.1881711 0.8294736 1.5568396

phi.initial_conv_module.0._layers.4.conv.weight f4 [64, 1, 5]
00000000: ee28 b9be 8f5e b03e 93aa e63e 8050 9c3e
00000010: 2eeb 3dbe 7ae2 ba3e 830a adbe 8399 7e3e
00000020: 5123 42bc 2d0d adbe 3e5e 943d 7e07 8abe
00000030: 2f54 34be a5b3 0fbf 5389 36be 685b 993e
00000040: 2218 86be 8ce7 813d f430 6fbc 5e33 d63e
00000050: 10f3 abbe 29cc 1f3d fa05 403e 2dbf a63d
00000060: b3c7 833e e52e dc3c 8636 19be 541e c43c
00000070: 77e6 68be 3eb4 eabe 017e 463e 2c58 163d
00000080: 3f2a 06be eac3 3abe ed05 6ebe 5bdb 2ebe
00000090: 6a28 fb3d 52f4 eb3e 8554 79be d030 65be
000000a0: 1363 34be b3df 193e 3623 083d f948 b7be
000000b0: 3973 703e 58d5 f3be 2196 8b3e 394f cdbd
000000c0: 3de0 2dbe b010 b1be bfb2 1f3e 6b0b e63e
000000d0: 250c 4a3d c052 0c3e 2a41 c03e eb0b 783b
000000e0: ac9b a2be acbd 00be 8075 d0bd df93 2cbe
000000f0: 8c95 91be 76a6 9fbe d8e5 253e 958e e93e
00000100: d100 723e fccd 01be df57 ef3d f837 87be
00000110: 547e c73e 2980 0e3f 4753 9a3e 5a2c a0bd
00000120: c02b aa3e ba68 f1be f7b6 10be 1592 b93d
00000130: 7ad3 f5be 16d1 a9be d166 72be b938 5b3e
00000140: f3c4 55be c281 9e3d a31e 463c 31ee de3e
00000150: d946 c7bd 4007 f43e 62af 033f a4bf 93be
00000160: 5bd4 97be 245e 4a3e 8f06 c23e 94c1 d6be
00000170: cc03 61bd f09f 35be 9031 e83e 508a 4a3e
00000180: 6f7a ae3e 221c f63e 7e9c 023d 83e9 d13e
00000190: 090b 73bd 249c 7e3d 886c 48be 00ee b1be
000001a0: d09f afbe efaf 773e 4575 873d e6a0 7bbe
000001b0: 05aa b8bd dd45 1f3d 8690 0ebe d37d 143e
000001c0: 9ade 2abf 9576 77be 6e8b 92be 5ed2 85be
000001d0: 4fe3 2b3e 26c2 123f 9591 7f3e 3dba 913e
000001e0: cb02 c13e d843 523c 7a7f f73e fadc b63e
000001f0: 3f11 95be c350 6ebe ecc5 ca3c a7c4 b7be
00000200: 1563 04bf a363 8cbe 05f8 8a3e 1897 0e3f
00000210: e8d2 b03e 042e afbe cd0d 6e3e 7f6f c0be
00000220: c4d3 f83c c79c 9cbd fdb0 bf3d b9bd 833e
00000230: d193 3cbe c021 46be ad78 893e fd39 bfbe
00000240: 3b88 793e d038 febd c2ff 4ebe 6986 6e3e
00000250: 5462 2a3d a581 febe 8d78 233e aa66 64be
00000260: 3685 363f 3191 893e c496 a93e e9b1 fe3d
00000270: 3b84 4a3c 902a 223e f443 5ebd 892a 9dbe
00000280: f721 793d a3fb 573e 1306 6c3e 7866 d93e
00000290: e188 57be b1ac adbe ed08 6fbe 79a2 a03e
000002a0: d5dc 29be ba1e 8a3e 8c43 ecbe 6f71 e3bd
000002b0: 9abf 93be 5af4 403e 7a69 bb3e ead2 e73d
000002c0: de67 52be fefe 93be aab0 d8be 0de2 adbe
000002d0: ee2f bd3e 7077 13bd e0e7 a93e c757 e83e
000002e0: 931d 653e 8d37 acbe ff6b f33b 4bbc 51be
000002f0: e1fc 4d3c 75f2 a6be 7283 aebd 430a f03e
00000300: 5c35 1e3e 02b9 2a3e bb72 27be 8247 8d3e
00000310: 0f50 023e d09a 5fbd 05df 443c 81c8 d5be
00000320: bae6 c5bb 78d9 a93d 8dff 08bf e438 a3be
00000330: c445 5b3e 08ce bfbd ad9c 62bd 1041 763c
00000340: 7041 c5bd 5f07 eb3e 23a5 593d ffb2 3ebe
00000350: ec35 533d a5a3 0fbf a446 9bbd bbfe a73d
00000360: 6aff 32be 14b3 aa3d a334 07bf eec7 39be
00000370: a7cf 03bb 12e6 e13e 9fe9 903e 75d7 c0be
00000380: 9f35 5abd 5bef 69be a50e 9f3e 58aa 263f
00000390: ba4f 0f3e b004 4a3e 1dd3 3d3d 4836 9f3c
000003a0: 49fe 723e b37f f73e b746 033e 3791 d2be
000003b0: ab52 a33b 4ba6 033f 5c1d 05bd 08c2 3bbe
000003c0: 1982 51be 2153 a6be aa9c 01bf 0389 2fbd
000003d0: 86f5 943d 67d5 bc3e e8a4 063f 80c9 993e
000003e0: 4442 453e 4560 11bd 064a 83be 51c5 c73d
000003f0: abab 15bf 6dfb a13d d80f abbe 75a0 133e
-0.3616404 0.34447142 0.45052013 0.30530167 -0.18546745 0.36500913 -0.33797082 0.24863248
-0.01184924 -0.33799115 0.07244538 -0.2695884 -0.17610238 -0.5613349 -0.17825823 0.2995255
-0.26190287 0.06342992 -0.014599074 0.41836065 -0.3358388 0.03901306 0.1875228 0.08141933
0.25738296 0.02687783 -0.14962205 0.023940243 -0.22744165 -0.4584064 0.19384004 0.03670518
-0.13102053 -0.18238798 -0.23244448 -0.17075865 0.12263568 0.4608484 -0.24348648 -0.22381902
-0.17615919 0.1502674 0.033236705 -0.3579786 0.23481454 -0.47623706 0.27262977 -0.10024876
-0.16980071 -0.34583044 0.1559553 0.44930586 0.04932799 0.13703442 0.37549716 0.00378489
-0.31759393 -0.12572354 -0.10178661 -0.16853283 -0.28434408 -0.31181687 0.1620096 0.45616594
0.23633124 -0.12676233 0.11686682 -0.26409888 0.38963568 0.55664307 0.3014166 -0.078209594
0.33236504 -0.47150213 -0.14132296 0.09061066 -0.48012906 -0.33167332 -0.23672034 0.21408357
-0.20875911 0.07739593 0.012092265 0.435411 -0.0973031 0.4766178 0.5143949 -0.28857148
-0.29654202 0.19762474 0.3789563 -0.41944563 -0.05493526 -0.17736793 0.45350313 0.19779325
0.34077784 0.4806834 0.031887524 0.40998468 -0.059336696 0.062160626 -0.19572651 -0.34751892
-0.34301615 0.24188207 0.06614164 -0.24573097 -0.09016804 0.038884986 -0.13922319 0.14501123
-0.66745913 -0.24166329 -0.28622 -0.2613706 0.1678593 0.57327497 0.24957879 0.284624
0.37697443 0.012833558 0.48339444 0.35715467 -0.2911472 -0.23272996 0.02475258 -0.3589222
-0.5171369 -0.27419767 0.2714235 0.556993 0.3453591 -0.34214795 0.23247452 -0.37585065
0.030374415 -0.076470904 0.0935993 0.25730684 -0.18415762 -0.19348812 0.2684988 -0.3734893
0.24368374 -0.1241318 -0.20214751 0.23293461 0.04159768 -0.49708286 0.15963955 -0.22304788
0.71297014 0.26868585 0.33122838 0.124362774 0.012360628 0.15836549 -0.054264024 -0.30696514
0.060823407 0.21092086 0.23049192 0.4246099 -0.21048309 -0.33920816 -0.23343249 0.31373957
-0.16588147 0.26976568 -0.46145284 -0.1110562 -0.28857118 0.18843213 0.3660391 0.113195255
-0.20547435 -0.2890548 -0.42322284 -0.33961526 0.3695063 -0.036002576 0.3318472 0.4537947
0.22374563 -0.33636132 0.0074286456 -0.20481984 0.012572498 -0.32606855 -0.08521165 0.4688283
0.15450042 0.16672137 -0.1635236 0.2759362 0.12725852 -0.054591 0.012016063 -0.41754535
-0.0060394676 0.08293432 -0.5351494 -0.31879342 0.21413332 -0.09365469 -0.0553252 0.015030161
-0.09631622 0.4590406 0.053136002 -0.18622969 0.051565096 -0.56109077 -0.07581833 0.08202883
-0.17480245 0.08334938 -0.5281469 -0.18142673 -0.0020112784 0.44120842 0.2830324 -0.3766438
-0.053273793 -0.22845213 0.3106586 0.65103674 0.13995257 0.1972835 0.04634391 0.019435063
0.23729815 0.48339614 0.12819944 -0.41126415 0.00498422 0.5142562 -0.032498702 -0.18335736
-0.20459785 -0.32485297 -0.50629675 -0.042855274 0.072733924 0.36881563 0.52595377 0.30036545
0.1926356 -0.0354922 -0.25642413 0.09754432 -0.5846507 0.07909284 -0.33410525 0.14416678

phi.initial_conv_module.0._layers.5.weight f4 [64]
00000000: dfc7 783f f792 a43f 2bf8 8a3f 67da 833f
00000010: b0e0 753f 1115 873f 267d 943f d6f4 993f
00000020: acdc 973f a392 543f 8e72 683f d28d 8a3f
00000030: 2128 913f 3afd 683f 0d11 9f3f bb2d 943f
00000040: bc39 7a3f 8bc2 733f 39e9 653f 2bc9 713f
00000050: 4f3a 873f b092 973f dc1d 863f 6e43 833f
00000060: d98e 893f 5a54 923f 2f4e 8a3f 9460 963f
00000070: 3b28 643f 19e8 6e3f dcf3 813f fff2 933f
00000080: 1626 6f3f 39aa 963f dd1e 8c3f bc57 8e3f
00000090: 38fe 773f 9bde 7d3f 1c15 953f 58dc 933f
000000a0: 7979 7a3f 9827 903f cb66 8b3f 8697 913f
000000b0: 66e7 6a3f 75a7 823f 6c78 7e3f 9131 853f
000000c0: 5eb1 8a3f 0d95 733f a3a5 8a3f 54b4 9f3f
000000d0: b3dd 973f d4d9 7e3f 716f 9a3f dc49 823f
000000e0: 0dbd a93f c2b9 973f 959e 933f 016b 963f
000000f0: cff6 8b3f 3dbf 843f b966 773f 5931 9c3f
0.9717998 1.285735 1.0856985 1.0301026 0.9604597 1.0553304 1.1600692 1.2027843
1.1864219 0.8303625 0.90799797 1.082453 1.1340371 0.91011393 1.2427078 1.1576456
0.97744346 0.95218724 0.89808995 0.9444758 1.0564669 1.184164 1.0477862 1.0254953
1.0746719 1.1431992 1.080511 1.1748223 0.89123887 0.933229 1.0152545 1.1558532
0.9341749 1.1770698 1.0946919 1.1120524 0.9687228 0.99167794 1.1647067 1.1551619
0.978416 1.1262083 1.0890745 1.1374366 0.91759336 1.0207354 0.994025 1.0405751
1.0835378 0.9514931 1.0831798 1.2476907 1.1864532 0.9955113 1.2065259 1.017879
1.3260819 1.1853564 1.153277 1.1751405 1.0934695 1.0370861 0.9664112 1.220256

phi.initial_conv_module.0._layers.5.bias f4 [64]
00000000: c3c7 52bd 6904 1bbe e876 163e ce75 153d
00000010: 03d9 66bd 3b6f 4dbd 38aa 7a3e 004a ce3e
00000020: 2b70 abbe 288f 033e bb3e 4b3d 170e 753c
00000030: e435 9c3d 3b14 06be bde9 d43e 2f57 b43d
00000040: 01d0 5e3d bc5b 36bd 58ae f6bd 85f1 6c3c
00000050: 7e41 11bd 6c9a d33c 4f8b 33bd 970c 903e
00000060: e2ff 853e 3941 373d 57c7 6e3d 0475 fb3d
00000070: 35a9 413e fb2b 66bd c51b 6c3b 4462 d93c
00000080: d113 0abe bff3 88be e8da 873e 716b d13d
00000090: 7c11 bcbd 6596 563e 6fb7 813e 0aed 333e
000000a0: 018c 163e 173c 1f3e ed48 853e 9993 803e
000000b0: 711a df3d 79fb 0b3e 2bf7 c9bc f45c 083e
000000c0: d528 363e 4923 c2bc 6d10 703e 5655 413e
000000d0: 74e5 933e 4fd9 fa3b c489 263e 82a7 f23d
000000e0: 5097 913e a038 0b3d 955d fb3d 3c9a d73e
000000f0: 4172 893e f11a 593e dd44 e5bd 8dc0 3cbe
-0.05146004 -0.15138401 0.14693797 0.0364893 -0.056359302 -0.050154906 0.24478996 0.40290833
-0.33484015 0.12847579 0.04962037 0.014956973 0.07627466 -0.13093655 0.41584578 0.088056915
0.054397587 -0.04452108 -0.12044972 0.01446188 -0.03546285 0.02583047 -0.043834027 0.28134605
0.26171786 0.044739936 0.058295574 0.12278178 0.18912204 -0.056194287 0.0036027294 0.026536115
-0.13484122 -0.26748464 0.265342 0.10225571 -0.091830224 0.20955808 0.2533526 0.17570892
0.14701845 0.15550266 0.260322 0.25112608 0.10893715 0.13670148 -0.024653992 0.13316709
0.17789014 -0.023698466 0.23443766 0.1888021 0.28885996 0.0076552997 0.16263491 0.11848356
0.28435755 0.03398955 0.12273709 0.4210986 0.2684498 0.21201684 -0.11194775 -0.18432827

phi.initial_conv_module.0._layers.5.running_mean f4 [64]
00000000: f824 e53d 6f30 cfbc 8883 cdbd 4b7e 4b3d
00000010: 9532 983c 0b5d 05be fa76 5dbd 0118 82bc
00000020: a36c 3ebd 91ef cebd 763f 9d3d 24d8 22be
00000030: cd12 963c 87f2 a13c d3d8 a6bc c5f7 a7bd
00000040: c784 333c 7425 79bc 452c 09bc edac debc
00000050: 63d9 dabd 6ff0 e93a 8b94 80be d44f fa3d
00000060: 1c4f a73e 8d8e 1bbe 5dfb 1d3e e25a 2cbc
00000070: 0108 0bbd 69c9 c1bd 3889 823b 4e2f b8bc
00000080: 4bbd b2bc 0f7a 97bd c8f1 96bd 29f8 3ebe
00000090: df7b cb3d 7b7f 01be 6229 b33d f04d c0bb
000000a0: f78c 90bd 5808 0d3d 4ab9 0abe 45f3 2dbe
000000b0: c17d c63a a568 99bc 8f42 373e a369 84bc
000000c0: ebed 28be f8cb 943d a71e 1abe 7f7d 7bbc
000000d0: 01b6 14bd 6257 5fbd 0e5b 5abd 953e 52be
000000e0: e013 2dbc 808e 82bc 7cfb f6bc 8b70 96bd
000000f0: 0980 a43a f5f2 abbc c828 893d 50ec 18bd
0.11188692 -0.02529165 -0.10034853 0.04968099 0.018578807 -0.13023774 -0.054068543 -0.015880587
-0.046490323 -0.101042874 0.0767812 -0.15902764 0.018319512 0.019768966 -0.020367062 -0.08201555
0.01095695 -0.015206683 -0.008372371 -0.027182067 -0.106859945 0.0017848144 -0.2511333 0.12222257
0.32677543 -0.15191098 0.15427919 -0.010519715 -0.03394318 -0.09462244 0.003983643 -0.022483494
-0.021818778 -0.07396328 -0.07370335 -0.18649353 0.09935736 -0.12646286 0.087481275 -0.005868666
-0.07058137 0.034431785 -0.13547245 -0.16987331 0.0015143679 -0.018726656 0.17896484 -0.016163653
-0.16497009 0.072654665 -0.15050755 -0.015349745 -0.036306385 -0.054526694 -0.053309493 -0.20531686
-0.010563821 -0.01593709 -0.030149214 -0.073456846 0.0012550364 -0.020989874 0.066972315 -0.03733474

phi.initial_conv_module.0._layers.5.running_var f4 [64]
00000000: ccbb f83d 15a4 083d 4794 c53e fa3b 913d
00000010: ebf5 bd3c 412c d83e b495 983c 0482 f13c
00000020: d06b 963c 8669 043e 000d a53e 0e99 1a3e
00000030: 63d4 123e 3690 743e d408 943d 10dd 393e
00000040: 45b3 c33c 382a 7b3d 10c0 863c b091 103f
00000050: fd9b 393e 7c51 003c aaa1 3f3f a7ea 0a3f
00000060: 7edf 5c3f c47a be3e d512 193f 7858 b63c
00000070: bf3a ec3c 9621 d13d b7f1 da3e e78d f73b
00000080: 3703 093e 2b07 443d e8ec be3d 5e2e a23e
00000090: 547b 4c3f 18a3 a63e 886c 8a3e fcbf 153d
000000a0: d181 d33d 8057 c83c 3d4c 6a3e 3edc 913e
000000b0: 5dab 323d 9898 e53e 11c8 9a3e 0b4b 9f3c
000000c0: be1c 7a3e 2c48 b53e d752 a53e c471 213d
000000d0: 9a4d 713c 0b98 6d3d 87d5 213d 1d12 b23e
000000e0: e463 a43c f7f4 ac3c 3cb6 a23c b59d e93d
000000f0: bce5 b33d fca0 be3c 7507 703e a035 053d
0.121451944 0.033359606 0.3858969 0.07091518 0.023188552 0.42221263 0.018626072 0.029480942
0.018361956 0.12930879 0.3223648 0.15097448 0.14338832 0.23883137 0.07228246 0.18150735
0.023889193 0.06131956 0.016449004 0.564723 0.18125911 0.007831927 0.74856055 0.542643
0.8627852 0.37203038 0.5979436 0.022258982 0.028836606 0.10211484 0.4276254 0.007554758
0.13380133 0.0478584 0.0932253 0.31676 0.79875684 0.32546306 0.27035928 0.036560044
0.10327495 0.024455786 0.22880645 0.28488344 0.043620456 0.44842982 0.30230764 0.019444963
0.24425027 0.35406625 0.32289764 0.039415136 0.014727974 0.058006328 0.039510276 0.34779444
0.020067163 0.021112902 0.019862287 0.11407033 0.08784053 0.023270123 0.23440345 0.032521844

phi.initial_conv_module.0._layers.7.se_conv.conv.weight f4 [10, 64, 1]
00000000: 7838 913d 5054 3abe dec0 8a3c bb32 653b
00000010: cfe8 7ebe 7ead 3ebe 2372 72be 676b 033e
00000020: e738 f53e ae4b 52be 3e48 9abe 09c7 49be
00000030: d71c d0be bbbf a0be a6b3 89bd 3c55 483e
00000040: 9199 efbc 344b 333c ca01 73be 7fdb adbd
00000050: 8da7 bd3d 827b 97be 5c55 823e 4fac d0bc
00000060: cb0f adbd 66de a73d 7b5f 30be ea81 043e
00000070: e11e 943e e2c9 903c 0768 8cbe fd16 4e3d
00000080: 0823 e3be e577 cb3e b9fc 1ebe bc42 3a3e
00000090: 998f b0be c899 163d 3c60 ebbe 687f eabe
000000a0: 0551 a9bd 31c0 40bd eff9 3a3e 5af0 313d
000000b0: 29d5 8bbe 7e4f 48be 93e5 a93c d562 8d3d
000000c0: f7d2 d33d 2f87 753d 0711 95be 50ad b0bd
000000d0: b062 9a3e 17b9 ed3d ffc3 453e f9e2 1bbe
000000e0: a83a 943e 50ab 23be e2ec 8f3c 54ea ce3b
000000f0: 8d77 c4be 725d 6abd 3b80 453d 93b4 833e
00000100: c587 1f3e 340f 9b3e e077 0c3e 49bf c53e
00000110: f415 7d3c 1bfd 263e b628 3d3e 2cd0 a73b
00000120: 0b85 923d 7904 8e3e 1e0c 54be 39e7 703e
00000130: 0746 84bd 7883 b1bc f340 8a3e e8bb 8d3d
00000140: 3876 f2bb 86c0 8dbe f81e 0b3e 9726 28be
00000150: e16f 36be 4fbb ca3e 8431 cabd a031 63be
00000160: 0481 643d c56b d9bd ee1a 9bbe 8b48 cabc
00000170: a77d 4abe 3d55 0b3e df84 41be 91cf 9d3e
00000180: 8d60 d1be cc0f 333e 8401 2e3e e261 50bb
00000190: 3fdd 55be d611 ddbd 20c8 c5be 4a2a 07bb
000001a0: ce3d 883c c9c1 9cbe dbd7 85be a829 533d
000001b0: 3dab 853d 1561 14bf 4587 903d 95eb 84bd
000001c0: 30d0 803e 0ebd aabd 2d99 b33d 4a48 b93d
000001d0: 9038 3a3e 3428 043e ce5e 2f3e 03f2 6c3e
000001e0: fd76 773e 7e62 363e 87f1 3a3d 1f54 363b
000001f0: c93d 89bb 6903 cf3d 4d0c c73d 63c9 a03c
00000200: 2878 6b3e 2292 b0bd a879 eb3d 6893 553d
00000210: 6d42 3f3d c1b1 0b3e 1311 953e 9812 b4bb
00000220: 37da 1cbe aa76 723e 801a abbe 07b8 173e
00000230: 5859 b7be 77c7 41be 9606 43bc ea23 99be
00000240: 248b d33d 3077 c43d 2832 91be 014d 483e
00000250: af6d 833e c81a a8bd 3ace 9a3e 3c22 143d
00000260: f1c3 9f3e afeb 7cbd dd9a be3e a510 78be
00000270: c2be d03d 54b3 a23d fada 913e 18c1 853d
00000280: 2340 e33c 28a4 21be 2286 1f3d b6a5 9d3e
00000290: af58 b93d 4ceb 8c3c 0886 153e a9e9 5abe
000002a0: 4172 b53d b825 7f3e b921 393e 0f72 a73e
000002b0: 0b10 89be 99a7 eebc 9a36 2f3e df26 eebd
000002c0: a83d b8be 06e5 b6be 7882 5c3e c01a b7be
000002d0: f4f2 a83e 9c1b b73e 92a5 373d b68b 223e
000002e0: d26a 4f3e 2cc3 53bd 140f 033e 1aa2 983e
000002f0: 5ca9 f9bd 24a4 8d3c eb6c 723d 3b2b aabe
00000300: 5f1a a93b 3273 043e 6c56 9b3d 511d b3be
00000310: 32c1 c1bd 3405 b93d e5e3 cb3c 8f68 fabc
00000320: 608d e1be ff1f 82bd 2359 a63e bd4e 4bbd
00000330: 8212 183e 34e8 11be fca3 743e 502f 803e
00000340: 0f9e 573d acd6 1c3e f1a6 7c3d 939a b6be
00000350: 443d a6be 47b9 c13e ca0d 2d3d afb9 533e
00000360: 069d e9be cc94 a93c 4a12 513e a677 333e
00000370: f62d 7f3e b438 673e 2065 22be 1088 7d3e
00000380: bd42 6c3e 4ed4 623d 03b8 123e 7611 7abe
00000390: c83f 9bbd b59c 833e 31cf 103d 4cd5 113f
000003a0: 9feb 473c 7577 e63e e552 693d 9fc8 c5bd
000003b0: 49a6 c23e acf2 543e 68f3 0fbe 0834 bc3e
000003c0: 75cb 9d3e 52a7 483e 8f03 b53d 163b 033e
000003d0: 67cf 15bc 21df 1abe a198 0abe eb05 10be
000003e0: 5102 e83d ef49 393e d84e d63d 3c6e 9c3e
000003f0: 9bb3 14bc 1303 2e3d 736c 5ebd 6d76 383e
0.07090849 -0.18196225 0.01693767 0.0034972865 -0.24893497 -0.1862087 -0.23676352 0.1283394
0.47894976 -0.20536682 -0.3013324 -0.19704832 -0.40647003 -0.3139628 -0.06723718 0.19563764
-0.02924803 0.010943223 -0.23731151 -0.08489131 0.092604734 -0.29586416 0.2545575 -0.025472788
-0.08450278 0.08196716 -0.17223923 0.12940183 0.2892981 0.01767439 -0.27423117 0.050314892
-0.44362664 0.3973991 -0.15526094 0.1818952 -0.34484556 0.03676775 -0.45971859 -0.45800328
-0.082674064 -0.047058288 0.18259405 0.043442108 -0.27311066 -0.19561574 0.020739352 0.06903616
0.10342973 0.059943374 -0.29114553 -0.08626807 0.30153418 0.11607569 0.19313048 -0.15223302
0.28951 -0.1598332 0.01756901 0.006314555 -0.3837246 -0.057218023 0.048217993 0.25723705
0.15579136 0.30285037 0.13717604 0.38622501 0.015447129 0.1630749 0.18472561 0.0051212516
0.07154282 0.27737787 -0.20707747 0.23525704 -0.06458669 -0.021669134 0.27002677 0.06920606
-0.0073993467 -0.27685946 0.13586032 -0.16420971 -0.17816116 0.3959603 -0.098727256 -0.22186899
0.0557871 -0.106162585 -0.30293983 -0.024692794 -0.19774495 0.13606735 -0.18898343 0.30822423
-0.40893975 0.17486495 0.16992766 -0.0031796624 -0.2088518 -0.107944176 -0.38629246 -0.0020624571
0.016631033 -0.30616596 -0.26141247 0.0515534 0.06526802 -0.57960635 0.070570506 -0.06490246
0.25158834 -0.083368406 0.0876945 0.09046991 0.1818564 0.12905961 0.17126009 0.23139195
0.24166484 0.1781101 0.045640495 0.0027821136 -0.0041882736 0.10108072 0.09719143 0.019627279
0.22995055 -0.086216226 0.114978135 0.05214253 0.046694208 0.13642026 0.2911459 -0.0054953806
-0.15317617 0.23678079 -0.33418655 0.14816295 -0.3581035 -0.18923746 -0.011903426 -0.29910213
0.10329273 0.09593046 -0.2835858 0.19560625 0.2566962 -0.08208233 0.30235463 0.03616546
0.3120418 -0.061748203 0.37227526 -0.242251 0.10192634 0.079443604 0.28487378 0.0653097
0.027740544 -0.15785277 0.03894628 0.3079049 0.09050118 0.017202042 0.1460191 -0.21378197
0.08859683 0.24916732 0.1807927 0.32704207 -0.26770052 -0.029132651 0.17110673 -0.11628508
-0.3598454 -0.35721606 0.21534145 -0.35762596 0.3299786 0.35763252 0.044835635 0.15873608
0.20255592 -0.051699802 0.1279872 0.29811174 -0.12190506 0.017290182 0.059185904 -0.33236107
0.0051606144 0.12934569 0.07584843 -0.34983304 -0.09460677 0.090341955 0.024888942 -0.030567436
-0.44053173 -0.06353759 0.3248988 -0.049635638 0.1485081 -0.14248735 0.2389068 0.25036097
0.05264097 0.15316266 0.061682645 -0.35664806 -0.32468617 0.37836668 0.04224948 0.20676301
-0.45627612 0.020700835 0.20417133 0.17526111 0.24919876 0.22580224 -0.15858889 0.24758935
0.23072334 0.05537825 0.14328007 -0.24420723 -0.07580525 0.25705495 0.035353843 0.5696609
0.012202173 0.45013013 0.05696382 -0.09657406 0.3801749 0.20795697 -0.14057696 0.36758447
0.30819288 0.19595078 0.088385694 0.12815508 -0.009143687 -0.1512418 -0.13534786 -0.14064758
0.11328567 0.1809461 0.10464257 0.30552852 -0.009076024 0.0424834 -0.054302644 0.18013926

phi.initial_conv_module.0._layers.7.se_conv2.conv.weight f4 [64, 10, 1]
00000000: c822 1f3e 34a6 bfbd 6844 91be 90ad e7bd
00000010: 8c4d 9fbe c94a 1abe 8353 e8be cf89 213e
00000020: 82cd d1be b1a4 193e a8cd f53e 0238 e8bd
00000030: 0a4a c73e 1be0 6abe fc0a 79bd cd0c 69be
00000040: eabd 5c3e ce8d 19be 8efc 843e 6e02 77be
00000050: f5de 313e ed2b 463e f8fe 953e 05de b8bd
00000060: dbc6 833d 1e93 e7bd f96d 85bd 65c8 8abe
00000070: 7d67 1cbc f0a6 803e 1007 51be aa03 203e
00000080: 83dd 043e 7281 5fbe ea07 563e a10c 4cbe
00000090: ab85 9d3e c9ac 233e 6e8d 65bd 06f4 cd3e
000000a0: 851a aa3c 0bbd 1ebd fe5f 693e 94ec 9fbe
000000b0: 487f 26be a7e4 debb 114a 4abe b14a edbb
000000c0: dd33 e33e de4b 653e 1132 083e 6e87 40be
000000d0: 6185 0abe f244 f33c 2177 923c 37e6 cf3e
000000e0: bf51 753e bfc7 9abe fe24 173e 06fb d83d
000000f0: a5a7 393e 419d 163e b17a 44bf fbbe a13e
00000100: 4208 253e 6c7b c2be 4c4c ccbe ab5f 64bd
00000110: 6286 dd3e 44fb 5c3e 393d 3ebc df28 86bd
00000120: 0114 7fbe f7fe 82bd 5fed 213e 0a36 e3be
00000130: 4ef9 cb3d 4181 0abf 4949 953e 81ce 743e
00000140: d7ad c13e 37cd 913d 2d6e ac3d 49f9 743e
00000150: 7ac1 e83d d37e 32be 9e66 b03e 038a 75bd
00000160: d80e 023e 8598 3ebe 3e6e 393f cc3e ca3d
00000170: 5f80 28be aa09 95be bbbb 943e d863 58bc
00000180: a706 fb3d 0529 a3be 59ca 863d 6e4a 1f3f
00000190: f46a 873e aedc 773e 4597 353f e0fe b9be
000001a0: a578 d7be c76b 04be dbe0 6abd 7de5 dfbd
000001b0: 526f 13bd f1c3 3cbe 1215 83be 942e 0ebf
000001c0: 61fb 443e 211c 3fbd f1bd b43e dc7e 0a3f
000001d0: 4bba 39be 7bb2 a1be aac2 943e 77ae f63e
000001e0: b5cf c63e ee34 8a3d c4cc 833e f8c5 c1be
000001f0: f58f 7a3d 3723 8f3d 1823 493e a021 a9be
00000200: 9b08 42be dc07 a3bd b841 70bd f0a1 263e
00000210: c435 933e 43eb 34be b1af 67be daba 0f3e
00000220: ed7a 133e bccc 513d 256c 1abe 9d04 343e
00000230: 580a e0bc de2b f5bd 64ce 26be 357d 203e
00000240: 43ed fc3d faf5 b8be 4d23 203f 07ca c6be
00000250: 97ce 463d d5ec 49be e5dd debe 4220 7cbd
00000260: c242 77be bd6b 7fbd a39d c03e fed4 7cbe
00000270: 3758 ef3e b28e 9cbe f4f4 d2bc 6217 893e
00000280: aca0 163f 3697 84bd aa11 89be ec1f 93be
00000290: 6bde 953e c98c e1bd 0992 ae3e 32f2 89be
000002a0: f4a2 11bc a99c 843e 7aa5 fb3e afa5 b0be
000002b0: 4d14 3b3e db62 4ebd fa4a 9bbe d6cd 043e
000002c0: 7396 cfbe 8c35 18be 4eaa ffbe df36 a9bd
000002d0: 29c1 da3d 87a6 a03e d216 f7bd e709 3abe
000002e0: 6335 863e c6ef b8be 3f3a 2fbe f171 e9bc
000002f0: 5364 cbbe 19dc 90be 2e8c eb3e e4ff e23d
00000300: 4e57 61be 9930 933e ce39 7c3d 80ec 013f
00000310: 6e8b c9bd 32d4 ff3e 45d0 0a3f 09f8 d13e
00000320: 0646 50bd 334e c43d 080a a3be 8e3f 60be
00000330: 479d 043f e56d a5be fe75 f0bd 9b26 c8be
00000340: a92e 323e de77 d23e 22db a83e ecd3 e3be
00000350: a3f1 063e 6051 ecbe c76c dcbd 1239 953e
00000360: c2b1 f33d dcd6 a2be fb9d a23e 98be 5fbe
00000370: fe17 373e 24f9 dabe cb0c 503e aceb 303e
00000380: 7128 39be f8d1 743e 191d 9d3e 464b 273c
00000390: 93bd b6be 1d17 eabc 2062 a53e fa63 133f
000003a0: 4ea4 bdbd 9296 fabd 3c2e d2be 2402 4c3e
000003b0: e595 ec3e e9af 093e 18a7 fabc a53f b83d
000003c0: b73c c13e e405 033f bbdd 10bf fd4c 133c
000003d0: b7b8 7fbe b40a 873e b58f 9abe d95d ea3d
000003e0: 9deb c83e a4b3 873e cde6 b43d 9e2e eb3e
000003f0: ddc1 7abe 0c88 413d 7584 c23d e714 52be
0.15540612 -0.093578726 -0.28372502 -0.11312401 -0.3111385 -0.15067591 -0.45376214 0.15775226
-0.40977103 0.15004231 0.48008466 -0.11338808 0.38923675 -0.22937052 -0.06080149 -0.2275879
0.21556821 -0.149955 0.25973934 -0.2412202 0.17370208 0.19352694 0.29296088 -0.09026722
0.06434413 -0.11307357 -0.06515116 -0.27106014 -0.009546158 0.25127363 -0.2041285 0.15626398
0.12975125 -0.21826723 0.20901456 -0.19926693 0.30766043 0.15983881 -0.05604308 0.40225238
0.020764599 -0.038754504 0.22790524 -0.31235182 -0.16259491 -0.00680216 -0.19754817 -0.00724157
0.44375506 0.22392222 0.13300349 -0.18801662 -0.13527443 0.029695962 0.01787907 0.40605327
0.23956965 -0.3023052 0.14760205 0.10594754 0.18130358 0.14708425 -0.7674971 0.3159102
0.16116431 -0.37984788 -0.3990196 -0.0557553 0.43266588 0.21580225 -0.011611276 -0.06550764
-0.24909975 -0.06396287 0.15813206 -0.44377166 0.099596605 -0.54103476 0.29157475 0.239069
0.37827942 0.0711922 0.08419452 0.2392322 0.11365028 -0.17431192 0.3445329 -0.05994607
0.12700975 -0.18612869 0.7243384 0.09875259 -0.1645522 -0.29108936 0.29049477 -0.013207398
0.12257128 -0.31867233 0.065815635 0.62222946 0.26448786 0.24205276 0.70933944 -0.36327267
-0.42084232 -0.12931739 -0.057343345 -0.10932443 -0.035994835 -0.1843412 -0.25602013 -0.5553982
0.19236518 -0.046657685 0.35301164 0.5409982 -0.18137471 -0.31581482 0.29054767 0.4817998
0.38830343 0.06748377 0.2574216 -0.3784635 0.061172444 0.069891386 0.19642293 -0.33033466
-0.18948595 -0.079604834 -0.058656424 0.16272712 0.28751957 -0.1766787 -0.22625615 0.14036122
0.14402361 0.05122064 -0.15080316 0.17579885 -0.027348682 -0.119712576 -0.1628967 0.15672763
0.123499416 -0.36125165 0.62553865 -0.3882601 0.048536863 -0.1971925 -0.43528667 -0.0615542
-0.2414656 -0.062358607 0.37620267 -0.24690625 0.4674699 -0.30577618 -0.025751568 0.26775652
0.58838916 -0.06474154 -0.2677129 -0.28735292 0.29271254 -0.11013181 0.3409579 -0.26942593
-0.008888949 0.25900772 0.49149686 -0.34501407 0.18269463 -0.050387245 -0.3033064 0.12969145
-0.4054447 -0.14864177 -0.4993462 -0.08262419 0.106813736 0.3137705 -0.120648995 -0.1816784
0.26212606 -0.36120433 -0.17112063 -0.028496714 -0.3972498 -0.2829292 0.46005386 0.110839635
-0.2200596 0.28748015 0.061578564 0.50751495 -0.09841047 0.4996658 0.54224044 0.41009548
-0.05084803 0.09585228 -0.3184359 -0.21899244 0.51802486 -0.32310405 -0.11741255 -0.39091954
0.17400612 0.41107076 0.32979685 -0.4449762 0.13178115 -0.46155834 -0.10762935 0.29145104
0.11899139 -0.3180455 0.31761155 -0.2185005 0.17880246 -0.42768204 0.2031738 0.17277402
-0.18081833 0.23908222 0.30686262 0.010210818 -0.3569151 -0.028575474 0.32301426 0.5757443
-0.09259854 -0.1223575 -0.410509 0.19922692 0.4620811 0.1344601 -0.030597255 0.08996514
0.37741634 0.51180863 -0.56588334 0.008990523 -0.24972807 0.26375353 -0.30187765 0.11443681
0.3924226 0.26504242 0.08833084 0.45934004 -0.24488015 0.047248885 0.094979204 -0.20515786

phi.initial_conv_module.0._layers.8.conv.weight f4 [32, 64, 1]
00000000: 01e9 77bd 02b7 163d 06c4 ec3c 652e c93d
00000010: 06e3 0fbe 7f5d aa3d bda8 f8bc b9cf 963e
00000020: 11e8 03be 8947 013e 12f0 083d 6b5d 783c
00000030: 05a3 38be bd2f bebd 2823 1b3e c07c 063d
00000040: 8b4e 86bd dec6 31bc 42e5 2cbd 9bbe 49be
00000050: c93f a4bd 3c0d 593e 4cb3 6b3d 006d f43c
00000060: 2147 d1bb 5e7d 10bd cd68 3fbe 7567 513d
00000070: 4d04 1ebe 75e8 0a3d f4d7 7c3d 4d88 55be
00000080: d586 46bd 9baf e2bd 6a62 f1bc b757 993d
00000090: 5e0b 7e3d e82a 39bd a2a6 9bbd 8ec7 5c3e
000000a0: a765 62be d315 f63d eb39 f8bd 5474 05be
000000b0: 4ecb d73d f67f cdbc 3ae2 b73c b5a7 eb3d
000000c0: ef41 103e 20ca b6bc da0d 183e af87 1b3d
000000d0: 1bbc 433e b90a 54bd 8b07 263e c9aa c23d
000000e0: 93c3 f93c dc08 84bd 807f bfbd bf22 04be
000000f0: 4bca 45bd 0386 cfbd 4ddb 69bd ac44 113d
00000100: ae1b c5bc 8cfb 25bd ddef 6e3d 1dc8 5bbd
00000110: b3be 06be 2591 e03d a773 c5bc 0f7d b83d
00000120: a126 71bd 9075 a43d b7f7 a0bd 569a 0ebe
00000130: 94d7 81bd 95c2 493d d6d9 1e3d 3721 e3bd
00000140: b6a5 45bd e810 5fbb 7d4b 243e 6fe4 a6bd
00000150: 655d 62bd af75 913c 6347 153b ce4f 39be
00000160: b70a b4be 397f 933d 23bb 463d e1a1 63be
00000170: db43 13bd c89b 36be cb23 ec3c 25ee f73c
00000180: 6058 eabc 1e67 f6bd 49af 6dbd 159e 9cbb
00000190: bec4 423e 399e e4bc a459 d43d 5864 143d
000001a0: bca4 2ebe 811d 003e 6919 233e b3d4 aebd
000001b0: 2209 bebd 518d debd e67b 793d 3dd8 7ebd
000001c0: 35d6 f6bc 5807 58bd 80f4 1b3e f53a 1d3d
000001d0: 61ad 24be 12c3 2e3e fac2 a73e d5f4 73be
000001e0: 3e76 13bd 5740 a2bc d4b2 0e3e 18ad 523c
000001f0: 3514 933e 5814 5d3d b9cb a8bd ce11 473c
00000200: 814d 513e c080 473b ef1b 3fbd f414 fb3b
00000210: b29e a0bd 0b22 33be 5770 9bbd 1860 b9bd
00000220: 470c 013d a430 1e3d a2c3 3cbe 2fc7 48bd
00000230: eb9d 9abd 069e acbc 7351 2c3d f36f 39be
00000240: 94be 3ebd 5cd1 883d d32e 993d 1c98 663d
00000250: 5ef6 90bd 1b1b 3fbe 9826 513c 1127 fdbd
00000260: a548 3e3d fbd1 01be 17fa 7b3d b5c4 ee3d
00000270: 5fb8 703e a3b4 163d 5f19 dcbc acc7 093e
00000280: cc84 5abe 2826 04bd 8e52 4ebd 513c c23d
00000290: fefe 3abe fcbe 043e f90f 8ebd dd24 bebd
000002a0: e7ca 32be 60dc 01be 1f5d ac3b 413c d13d
000002b0: 29e3 b0bd 8c21 353c 5e11 813d 63cc 3abc
000002c0: ccbd b23d e8d4 22be 9c2e ffbd d8fd 103e
000002d0: 6de7 88be 9883 993d 3827 d1bd 11bf e83c
000002e0: 27c4 493e 610d a73d c41b 673e 1b91 953e
000002f0: 6d96 143e df49 a93d 9892 543e 9501 463d
00000300: 344b a8bd b6b9 0c3d 64d5 553e c1d7 633d
00000310: 9af5 063d 4d3d c13d 8315 f2bd 48b2 c6bd
00000320: fe74 28bd 41b9 ad3b 4a7a ab3d b275 d13d
00000330: 0ed2 15bd 578d 473c 8162 4abe 7b94 ac3c
00000340: 7d5c 00bd c177 23bd 41a9 a2bd 6ad2 a13d
00000350: d261 cf3d 4244 1bbe d0c5 9b3d 6677 a93d
00000360: 064f b63d 1bc6 96bd dbfe 24bb 52eb c7bd
00000370: f23d 1abd d867 173d 95f9 f33c da1b cbbd
00000380: 381d 663d 3d63 c4bc 2b07 8d3d 99b0 2f3d
00000390: faec d73d 22d9 87bd 650f c5bd 2bff ca3b
000003a0: 8fe8 883d f2e4 21bd 3f46 303e ed73 9f3e
000003b0: a0b8 4abe 7719 fb3d 9302 aa3d 5021 1dbe
000003c0: 3b5e 03be ee19 c1bd 6b70 2cbe 8a33 0f3e
000003d0: 61db 4d3d bd29 d0bd c821 023e b5c2 49bd
000003e0: a6e9 debe ee4f 183d dad4 24bd a6fd 9dbe
000003f0: 7a05 933d 4542 3bbe 741a babd 97c8 2abe
-0.060524944 0.036795624 0.028902065 0.09823302 -0.14051446 0.08318614 -0.030353898 0.29455355
-0.12881495 0.12624945 0.033432074 0.015158991 -0.18030937 -0.09286449 0.1515013 0.032833815
-0.0655795 -0.010850636 -0.042210825 -0.19701616 -0.080199786 0.21196455 0.057544038 0.029837132
-0.006386653 -0.03527581 -0.18692322 0.051124055 -0.15431328 0.033913095 0.061729386 -0.20852776
-0.04846843 -0.1106865 -0.029465873 0.074874334 0.06202256 -0.045206934 -0.07600142 0.21560499
-0.2210909 0.120158814 -0.12120422 -0.13032657 0.10536824 -0.02508543 0.02244674 0.11506597
0.14087652 -0.022313178 0.14849034 0.037971195 0.19114725 -0.05176804 0.16213815 0.09505231
0.030488765 -0.06447002 -0.093504906 -0.1290388 -0.048288625 -0.101329826 -0.057093907 0.03546588
-0.02406105 -0.040523097 0.05833422 -0.05365764 -0.13158683 0.10965184 -0.024102999 0.09008228
-0.05887473 0.08030236 -0.07859748 -0.13926062 -0.063399464 0.049257834 0.038781963 -0.110903196
-0.048253737 -0.0034037177 0.16044421 -0.08149039 -0.05526485 0.017756311 0.0022778146 -0.1809685
-0.35164425 0.07202 0.04851831 -0.2222972 -0.035953384 -0.17832863 0.028825661 0.030264923
-0.028606594 -0.12031387 -0.058028493 -0.004779587 0.19020364 -0.027907478 0.1036866 0.036228508
-0.17055029 0.12511255 0.15927662 -0.08536663 -0.09279086 -0.10866798 0.060909174 -0.06221794
-0.030131439 -0.05274138 0.15229988 0.038386304 -0.16081764 0.17066601 0.32765943 -0.23823865
-0.036001436 -0.01980607 0.13935405 0.012858652 0.28726354 0.05397448 -0.08241982 0.012150241
0.20439722 0.0030441731 -0.0466575 0.00766241 -0.07842769 -0.17493455 -0.075897865 -0.090515316
0.03150585 0.038620606 -0.18434003 -0.04901808 -0.07549652 -0.021071445 0.042069864 -0.18109111
-0.04656847 0.06680557 0.07479634 0.056297407 -0.07078241 -0.18662684 0.012765549 -0.12360967
0.046455998 -0.12677757 0.0615178 0.11658613 0.23507832 0.036793362 -0.026867567 0.13455075
-0.2133972 -0.03226295 -0.0503717 0.09484161 -0.18261334 0.1296348 -0.0693664 -0.09284375
-0.17460214 -0.12681723 0.0052601243 0.10216571 -0.08637077 0.0110553615 0.06302141 -0.011401269
0.08727607 -0.1590153 -0.12460062 0.14159334 -0.26739064 0.07495803 -0.102125585 0.02841142
0.19703732 0.08156849 0.22569185 0.2921227 0.14510508 0.08266043 0.20759046 0.048341352
-0.08217469 0.034356795 0.20882183 0.05562568 0.032949068 0.0943552 -0.11820509 -0.09701973
-0.041127197 0.005301625 0.08372934 0.10227527 -0.036577277 0.012179694 -0.19764139 0.021066895
-0.031338204 -0.039909128 -0.07942439 0.079014614 0.101260796 -0.15162757 0.07606089 0.082747266
0.08901791 -0.07362004 -0.002517632 -0.09761681 -0.037656732 0.036964267 0.029782096 -0.09917422
0.05618021 -0.023973102 0.06886133 0.042893026 0.105432466 -0.06633212 -0.09622077 0.006194969
0.06684982 -0.03952498 0.17214297 0.31143132 -0.19796991 0.122607164 0.08301272 -0.15344739
-0.12828915 -0.09428774 -0.16839759 0.13984504 0.050258044 -0.10164211 0.12708199 -0.049257953
-0.43537635 0.037185602 -0.040242054 -0.3085758 0.07178779 -0.18286999 -0.09087077 -0.16678081

phi.initial_conv_module.0._layers.9.weight f4 [32]
00000000: eb6c 893f 02d3 9b3f 34f1 893f 63cb 853f
00000010: bfd1 8e3f 3e4d 943f ba62 903f ba17 903f
00000020: 7575 9e3f 7c05 a43f e5e1 a13f 4814 7d3f
00000030: ef8b 793f 6954 943f ae96 933f 50ed 893f
00000040: 76d1 9d3f 03cd 9f3f baed 883f 5757 9a3f
00000050: 61ef 8f3f 00c0 953f dc92 973f b622 ab3f
00000060: da25 993f 8053 9e3f b3c3 963f fd6b 953f
00000070: 0201 953f 357a 933f 566a 953f 27de a13f
1.0736364 1.217377 1.0776734 1.0452694 1.115776 1.1586072 1.1280129 1.1257241
1.2379595 1.2814174 1.2647063 0.9885907 0.97479147 1.158826 1.1530359 1.0775547
1.2329547 1.248444 1.0697548 1.2057904 1.1244928 1.1699219 1.1841693 1.3369968
1.1964676 1.2369232 1.1778473 1.167358 1.1640933 1.152167 1.1673076 1.264592

phi.initial_conv_module.0._layers.9.bias f4 [32]
00000000: 9b92 c9bb 6c78 0ebc b3d5 8fbc 9f05 c13c
00000010: d5d9 3e3b 7085 33bc 2bfe 20bd 3425 71bb
00000020: b4af 913c d560 8abc 7105 de3b 93a4 f9ba
00000030: df4f 733c d1bf 10bc 0ff8 f6bb 536f a03c
00000040: 1943 12bd 0504 aabc 6b62 b1bc bc2b 563c
00000050: 7480 03bd e05f e5bc 0b01 93bb 53cd 27bc
00000060: 3074 f1bc 443b 0ebd f653 d9b9 3962 c43c
00000070: 0f99 50bc f4fa 1bbc 4df4 5fbc d7e3 cfbc
-0.00615151 -0.008695703 -0.017557954 0.02356225 0.0029121537 -0.010957107 -0.039304893 -0.0036795856
0.017783977 -0.016891876 0.006775551 -0.0019046239 0.014850586 -0.008834795 -0.007536895 0.019584334
-0.03570852 -0.02075387 -0.021653375 0.0130719505 -0.032104924 -0.027999818 -0.0044862083 -0.010241824
-0.029474348 -0.03472449 -0.0004145202 0.023972617 -0.0127318045 -0.009520281 -0.013669086 -0.025377197

phi.initial_conv_module.0._layers.9.running_mean f4 [32]
00000000: bc33 a73d fea7 edbc 5ef9 943d 4469 f7bd
00000010: 0d51 04bd 67b7 c93d 4f25 edbd 39c7 923d
00000020: 2fc7 a8bd 4cfe b6bd d951 21bb 1497 f4bc
00000030: 0031 1a3e 2f0b 1f3d 5e41 58bd 7755 523e
00000040: 8c09 24be 6e1f 0e3d 8948 03be bcc1 70bb
00000050: bbbf 98be e4c3 13be 15c4 a43d 0324 ce3d
00000060: 6273 323e da12 8f3c 9c55 853d 56e6 5a3d
00000070: 515a febd c095 6abe cc9f 8ebc be33 b639
0.081641644 -0.029010769 0.072741255 -0.12080625 -0.03230386 0.09849434 -0.11579382 0.07166905
-0.08241116 -0.08935222 -0.0024615435 -0.029857196 0.15057755 0.038829025 -0.052796714 0.20540415
-0.16019267 0.034697942 -0.12820639 -0.0036736568 -0.2983378 -0.14430195 0.08045212 0.100654624
0.17426828 0.017465044 0.06510469 0.05344232 -0.1241957 -0.22908688 -0.017410181 0.00034752296

phi.initial_conv_module.0._layers.9.running_var f4 [32]
00000000: 6aa7 d73d 402b f73d 6566 ce3d da8c a93d
00000010: c967 9e3d e088 ae3d b0b8 8d3d 9ef6 a63d
00000020: d6c2 d83d ffb8 f93d cce5 003e f1c4 aa3d
00000030: 94b1 ba3d f192 ce3d 9a6c c33d 8240 e53d
00000040: 0f1f f93d 7381 1f3e 34c1 c23d d247 013e
00000050: abbc cb3d da7e a33d 6614 b83d 3423 973d
00000060: 4977 ab3d 9e68 ef3d af23 dd3d 48c1 d53d
00000070: dd68 bb3d 1b28 f83d 847b ff3d 6444 f93d
0.105299786 0.12068796 0.10078124 0.082788184 0.07734639 0.085222006 0.06919992 0.08152507
0.10584037 0.12193488 0.1258766 0.08338345 0.091159016 0.100866206 0.095421985 0.111939445
0.12164127 0.15576725 0.09509507 0.12625054 0.09948095 0.079831794 0.08988266 0.07379761
0.08372361 0.11689876 0.10797822 0.10437256 0.091508605 0.121170245 0.124747306 0.121712476

phi.initial_conv_module.1.weight f4 [32]
00000000: 2854 893f 3f9f a03f 9274 8b3f 2f13 863f
00000010: 1890 903f 3fdb 953f fe7d 923f 5c84 903f
00000020: da62 a43f 4828 a93f 51cf a83f d540 7b3f
00000030: 5839 763f 0eaf 953f d06e 963f b4cc 8a3f
00000040: 0fb9 a23f 3108 a63f 334e 8a3f 85eb 9d3f
00000050: c9cd 903f 13e1 973f 42c5 9a3f 2388 b13f
00000060: e739 9c3f 8e24 a33f bb5b 993f bf5b 983f
00000070: 48f8 973f d001 953f 368b 983f 781f a73f
1.0728807 1.2548598 1.089495 1.0474604 1.1293974 1.1707534 1.14447 1.1290393
1.2842667 1.3215418 1.3188268 0.981458 0.9618125 1.1694047 1.1752567 1.084372
1.2712725 1.297125 1.0805115 1.23375 1.1312801 1.1865562 1.2091448 1.3869671
1.220517 1.2745531 1.1981119 1.1902999 1.1872644 1.1641178 1.1917484 1.3056479

phi.initial_conv_module.1.bias f4 [32]
00000000: 25cc 49be b4c8 cdbb c98f 9ebd 89ac 12be
00000010: 79b5 28be 8c1a 8fbd 5561 0ebe ce20 6cbe
00000020: ec1a 5c3e bc94 49bd b853 a93e 7971 babd
00000030: bb12 f3bd f9c7 01be 81e2 0e3e eaa4 ba3d
00000040: 3c68 67bc 9510 a83e 2870 85be dfb2 e83d
00000050: 88dc 2ebd 0392 1ebe 246c 9a3c c941 e73d
00000060: 01a4 5cbd 9961 65bd 87fc 1e3d 7235 bebd
00000070: 0a0e 9fbd 44cf a3bd 5868 993d 4d45 9bbd
-0.19706781 -0.006280029 -0.077422686 -0.1432363 -0.16475476 -0.06987485 -0.13904317 -0.23059389
0.21494645 -0.04921411 0.33071685 -0.091036744 -0.11868807 -0.1267394 0.13953592 0.09113486
-0.0141239725 0.3282515 -0.2606213 0.11362242 -0.042690784 -0.15485387 0.018850394 0.112918444
-0.053867344 -0.05600128 0.038815048 -0.09287538 -0.077663496 -0.07998517 0.07490605 -0.075815775

phi.initial_conv_module.1.running_mean f4 [32]
00000000: 04eb c5bb 0f37 11bc f37a 8fbc eb2f c03c
00000010: 2cce 413b f0b9 34bc def3 20bd 8cf9 63bb
00000020: dd5b 913c 0618 8bbc 9357 dc3b fe57 07bb
00000030: f42d 743c 334f 10bc a587 f7bb 3e29 a13c
00000040: 01e7 11bd b8ad a8bc da54 b1bc 9d8b 553c
00000050: 094b 03bd f0e8 e5bc 5304 94bb f396 2bbc
00000060: c2cb f0bc c4d7 0dbd e6cb d9b9 29b8 c43c
00000070: 1dfd 4dbc e013 1dbc da89 61bc 7e92 cebc
-0.006039979 -0.008863225 -0.017514681 0.023460349 0.002957235 -0.011030659 -0.03929507 -0.0034786193
0.017744 -0.016979229 0.006724307 -0.0020651813 0.014903534 -0.008807945 -0.007554012 0.019672986
-0.035620693 -0.020590648 -0.021646906 0.013033775 -0.03205398 -0.028065175 -0.004517117 -0.010473001
-0.029394034 -0.0346296 -0.00041541382 0.024013596 -0.012572554 -0.009587258 -0.0137657765 -0.025216337

phi.initial_conv_module.1.running_var f4 [32]
00000000: e620 923f ce47 bc3f 7e5d 933f a740 8a3f
00000010: 9f6c 9d3f 92f2 a93f b4d0 a03f 0935 a03f
00000020: 6482 c23f ed70 d03f 7c38 cb3f 9388 773f
00000030: b7c1 703f d4ec a93f d67b a83f bd7d 933f
00000040: 0b12 c13f 3b4a c63f c62a 913f a3aa b83f
00000050: e044 a03f 6d0b ad3f aa6c b13f 42e9 e13f
00000060: 4812 b53f 080d c23f f9cd af3f 98b3 ac3f
00000070: 879c ab3f b68b a83f fe06 ad3f 43e3 ca3f
1.141629 1.4709413 1.1512907 1.080098 1.2298774 1.3277152 1.2563691 1.2516185
1.5196042 1.6284462 1.5876613 0.9669277 0.94045585 1.3275399 1.3162792 1.1522747
1.5083631 1.5491403 1.1341178 1.4427074 1.2521019 1.3519112 1.3861287 1.764931
1.4146204 1.5160227 1.3734733 1.3492308 1.3407143 1.3167636 1.3517759 1.5850605
