logs/4birds_CF_combined_log_linear_gru64_30epochs/2025-05-19_22-24-48/best_4birds_CF_combined_log_linear_gru64_30epochs.pth (torch, 398354 bytes, 199 tensors)

combined_log_linear_spec.filter_bank f4 [64, 513]
0	0x00000000	0.0
1	0x00000000	0.0
2	0x00000000	0.0
3	0x00000000	0.0
4	0x00000000	0.0
5	0x00000000	0.0
6	0x00000000	0.0
7	0x00000000	0.0
8	0x00000000	0.0
9	0x00000000	0.0
10	0x00000000	0.0
11	0x00000000	0.0
12	0x00000000	0.0
13	0x00000000	0.0
14	0x00000000	0.0
15	0x00000000	0.0
16	0x00000000	0.0
17	0x00000000	0.0
18	0x00000000	0.0
19	0x00000000	0.0
20	0x00000000	0.0
21	0x00000000	0.0
22	0x00000000	0.0
23	0x00000000	0.0
24	0x00000000	0.0
25	0x00000000	0.0
26	0x00000000	0.0
27	0x00000000	0.0
28	0x00000000	0.0
29	0x00000000	0.0
30	0x00000000	0.0
31	0x00000000	0.0
32	0x00000000	0.0
33	0x00000000	0.0
34	0x00000000	0.0
35	0x00000000	0.0
36	0x00000000	0.0
37	0x00000000	0.0
38	0x00000000	0.0
39	0x00000000	0.0
40	0x00000000	0.0
41	0x00000000	0.0
42	0x00000000	0.0
43	0x00000000	0.0
44	0x00000000	0.0
45	0x00000000	0.0
46	0x00000000	0.0
47	0x00000000	0.0
48	0x00000000	0.0
49	0x00000000	0.0
50	0x00000000	0.0
51	0x00000000	0.0
52	0x00000000	0.0
53	0x00000000	0.0
54	0x00000000	0.0
55	0x00000000	0.0
56	0x00000000	0.0
57	0x00000000	0.0
58	0x00000000	0.0
59	0x00000000	0.0
60	0x00000000	0.0
61	0x00000000	0.0
62	0x00000000	0.0
63	0x00000000	0.0
64	0x00000000	0.0
65	0x00000000	0.0
66	0x00000000	0.0
67	0x00000000	0.0
68	0x00000000	0.0
69	0x00000000	0.0
70	0x00000000	0.0
71	0x00000000	0.0
72	0x00000000	0.0
73	0x00000000	0.0
74	0x00000000	0.0
75	0x00000000	0.0
76	0x00000000	0.0
77	0x00000000	0.0
78	0x00000000	0.0
79	0x00000000	0.0
80	0x00000000	0.0
81	0x00000000	0.0
82	0x00000000	0.0
83	0x00000000	0.0
84	0x00000000	0.0
85	0x00000000	0.0
86	0x00000000	0.0
87	0x00000000	0.0
88	0x00000000	0.0
89	0x00000000	0.0
90	0x00000000	0.0
91	0x00000000	0.0
92	0x00000000	0.0
93	0x00000000	0.0
94	0x00000000	0.0
95	0x00000000	0.0
96	0x00000000	0.0
97	0x00000000	0.0
98	0x00000000	0.0
99	0x00000000	0.0
100	0x00000000	0.0
101	0x00000000	0.0
102	0x00000000	0.0
103	0x00000000	0.0
104	0x00000000	0.0
105	0x00000000	0.0
106	0x00000000	0.0
107	0x00000000	0.0
108	0x00000000	0.0
109	0x00000000	0.0
110	0x00000000	0.0
111	0x00000000	0.0
112	0x00000000	0.0
113	0x00000000	0.0
114	0x00000000	0.0
115	0x00000000	0.0
116	0x00000000	0.0
117	0x00000000	0.0
118	0x00000000	0.0
119	0x00000000	0.0
120	0x00000000	0.0
121	0x00000000	0.0
122	0x00000000	0.0
123	0x00000000	0.0
124	0x00000000	0.0
125	0x00000000	0.0
126	0x00000000	0.0
127	0x00000000	0.0
128	0x00000000	0.0
129	0x00000000	0.0
130	0x00000000	0.0
131	0x00000000	0.0
132	0x00000000	0.0
133	0x00000000	0.0
134	0x00000000	0.0
135	0x00000000	0.0
136	0x00000000	0.0
137	0x00000000	0.0
138	0x00000000	0.0
139	0x00000000	0.0
140	0x00000000	0.0
141	0x00000000	0.0
142	0x00000000	0.0
143	0x00000000	0.0
144	0x00000000	0.0
145	0x00000000	0.0
146	0x00000000	0.0
147	0x00000000	0.0
148	0x00000000	0.0
149	0x00000000	0.0
150	0x00000000	0.0
151	0x00000000	0.0
152	0x00000000	0.0
153	0x00000000	0.0
154	0x00000000	0.0
155	0x00000000	0.0
156	0x00000000	0.0
157	0x00000000	0.0
158	0x00000000	0.0
159	0x00000000	0.0
160	0x00000000	0.0
161	0x00000000	0.0
162	0x00000000	0.0
163	0x00000000	0.0
164	0x00000000	0.0
165	0x00000000	0.0
166	0x00000000	0.0
167	0x00000000	0.0
168	0x00000000	0.0
169	0x00000000	0.0
170	0x00000000	0.0
171	0x00000000	0.0
172	0x00000000	0.0
173	0x00000000	0.0
174	0x00000000	0.0
175	0x00000000	0.0
176	0x00000000	0.0
177	0x00000000	0.0
178	0x00000000	0.0
179	0x00000000	0.0
180	0x00000000	0.0
181	0x00000000	0.0
182	0x00000000	0.0
183	0x00000000	0.0
184	0x00000000	0.0
185	0x00000000	0.0
186	0x00000000	0.0
187	0x00000000	0.0
188	0x00000000	0.0
189	0x00000000	0.0
190	0x00000000	0.0
191	0x00000000	0.0
192	0x00000000	0.0
193	0x00000000	0.0
194	0x00000000	0.0
195	0x00000000	0.0
196	0x00000000	0.0
197	0x00000000	0.0
198	0x00000000	0.0
199	0x00000000	0.0
200	0x00000000	0.0
201	0x00000000	0.0
202	0x00000000	0.0
203	0x00000000	0.0
204	0x00000000	0.0
205	0x00000000	0.0
206	0x00000000	0.0
207	0x00000000	0.0
208	0x00000000	0.0
209	0x00000000	0.0
210	0x00000000	0.0
211	0x00000000	0.0
212	0x00000000	0.0
213	0x00000000	0.0
214	0x00000000	0.0
215	0x00000000	0.0
216	0x00000000	0.0
217	0x00000000	0.0
218	0x00000000	0.0
219	0x00000000	0.0
220	0x00000000	0.0
221	0x00000000	0.0
222	0x00000000	0.0
223	0x00000000	0.0
224	0x00000000	0.0
225	0x00000000	0.0
226	0x00000000	0.0
227	0x00000000	0.0
228	0x00000000	0.0
229	0x00000000	0.0
230	0x00000000	0.0
231	0x00000000	0.0
232	0x00000000	0.0
233	0x00000000	0.0
234	0x00000000	0.0
235	0x00000000	0.0
236	0x00000000	0.0
237	0x00000000	0.0
238	0x00000000	0.0
239	0x00000000	0.0
240	0x00000000	0.0
241	0x00000000	0.0
242	0x00000000	0.0
243	0x00000000	0.0
244	0x00000000	0.0
245	0x00000000	0.0
246	0x00000000	0.0
247	0x00000000	0.0
248	0x00000000	0.0
249	0x00000000	0.0
250	0x00000000	0.0
251	0x00000000	0.0
252	0x00000000	0.0
253	0x00000000	0.0
254	0x00000000	0.0
255	0x00000000	0.0

phi.initial_conv_module.0._layers.0.conv.weight f4 [64, 64, 1]
0	0x3de06e13	0.10958495
1	0x3df13083	0.11776831
2	0xbc7a13a1	-0.015263469
3	0x3e03ef98	0.12884367
4	0xbc5b02d0	-0.01336737
5	0x3d20bd9c	0.039243326
6	0xbd3fd68f	-0.04683548
7	0x3db30dff	0.08742904
8	0x3dfe61ea	0.124210194
9	0xbd9f179e	-0.077681765
10	0x3dfb38c1	0.12266684
11	0x3d193fe2	0.03741444
12	0x3dd9d7f6	0.106368944
13	0x3cfd8780	0.0309484
14	0x3d98268a	0.07429226
15	0xbb6dcd18	-0.0036285575
16	0x3de20df5	0.11037818
17	0x3d051a2d	0.032495666
18	0xbd359740	-0.044333696
19	0x3d3bee67	0.045881655
20	0xbd32774f	-0.043570813
21	0xba27764b	-0.00063881715
22	0xbd1685d2	-0.036748715
23	0x3dc68848	0.09693962
24	0xbdad5c92	-0.08464922
25	0xbd329b2f	-0.043605026
26	0xbcae4b4f	-0.021276144
27	0xbd7a6b63	-0.06113757
28	0x3cd37f6e	0.0258176
29	0xbde0207a	-0.109436944
30	0x3e01f3a0	0.12690592
31	0xbdbcbee4	-0.09216097
32	0x3de258c1	0.11052085
33	0x3d0ea170	0.034821928
34	0xbcd9a396	-0.026567262
35	0x3dbae7cf	0.09126245
36	0x3d09383b	0.03350089
37	0x3deb8bcd	0.11501274
38	0x3ce2cade	0.027684625
39	0xbcd01576	-0.025400858
40	0x3d42fd3d	0.047604788
41	0xbca2d492	-0.019876752
42	0x3d88732e	0.06662594
43	0x3e00a28d	0.12562008
44	0x3db0b18d	0.08627615
45	0xbd2666ca	-0.04062537
46	0x3db07d75	0.08617679
47	0x3d1508c2	0.036385305
48	0x3d9eb757	0.07749813
49	0xbd7ea273	-0.062166642
50	0xbde0b292	-0.109715596
51	0xbd0c62e7	-0.034274008
52	0xbda7a40b	-0.081855856
53	0x3deec3f3	0.11658468
54	0x3d4ce507	0.050023105
55	0x3d86bfc1	0.06579543
56	0x3d5b5916	0.053551756
57	0x3c4213c5	0.011845534
58	0x3de50e21	0.111843355
59	0xbd992ced	-0.07479272
60	0x3cb35345	0.021890292
61	0xbd9203a9	-0.07129604
62	0x3d574c70	0.05256313
63	0xbd109ed9	-0.03530774
64	0x3cb4a383	0.022050625
65	0xbd2d3b37	-0.0422928
66	0x3db309a5	0.08742074
67	0xbdb902a2	-0.09033705
68	0xbdb9f4dc	-0.09079906
69	0xbdb9f738	-0.09080356
70	0x3dc4f862	0.09617688
71	0x3cd01e14	0.025404967
72	0x3dd50c90	0.10402787
73	0xbdf48be6	-0.11940746
74	0xbe0f991c	-0.1402325
75	0xbde98fa9	-0.11404354
76	0xbdcd7c8a	-0.100335196
77	0x3d0cd010	0.03437811
78	0x3ce9894e	0.028507855
79	0x3db36e13	0.08761229
80	0xbda57bc8	-0.0808025
81	0xbdcfcbce	-0.101462945
82	0x3d4d1667	0.050070193
83	0xbd88c154	-0.066774994
84	0x3d742d2c	0.05961339
85	0xbd3c0edb	-0.045912605
86	0x3d6251ae	0.055253677
87	0xbde82e1b	-0.11336919
88	0xbda2780e	-0.07933055
89	0x3cb30fdd	0.02185815
90	0x3c26b38e	0.010174645
91	0xbd451952	-0.04811985
92	0x3d6e9e7a	0.058256604
93	0x3d8cbf34	0.068724066
94	0xbddaec10	-0.106895566
95	0xbda9f2e8	-0.08298284
96	0x3dc91f52	0.09820427
97	0xbd6f5323	-0.058428895
98	0xbd781258	-0.06056437
99	0xbe0c7d73	-0.1371973
100	0xbdb3e1d6	-0.08783309
101	0x3c755613	0.014974135
102	0xbd062443	-0.032749426
103	0xbddb1ac4	-0.106984645
104	0xbc5a367b	-0.013318653
105	0xbdd02591	-0.10163415
106	0xbdfa771e	-0.12229751
107	0xbdae3f8c	-0.08508214
108	0xbe00aa40	-0.12564945
109	0xbdc4488e	-0.09584151
110	0x3dde9cde	0.10869764
111	0x3bf11c2c	0.0073580947
112	0x3cb66c8a	0.022268552
113	0xbe080581	-0.1328335
114	0xbdc96997	-0.09834593
115	0xbd6cfb44	-0.057856813
116	0x3b57f671	0.0032953287
117	0xbe014490	-0.12623811
118	0xbd8f950b	-0.070108496
119	0xbdba89aa	-0.091082886
120	0xbc8249b2	-0.015904281
121	0xbd8089bb	-0.0627627
122	0xbccc153b	-0.024912467
123	0xbdcec04f	-0.10095274
124	0xbdd0febb	-0.10204836
125	0xbdb6a124	-0.08917454
126	0xbd71d0ca	-0.059037007
127	0xbda9e77b	-0.082961045
128	0x3dda900f	0.10672008
129	0xbcbb8ae0	-0.02289337
130	0x3de02d0f	0.10946094
131	0x3d275dd3	0.040860962
132	0xbdd4daaf	-0.10393273
133	0x3db513b3	0.08841648
134	0xbd0507e9	-0.032478247
135	0xbd3c6b3a	-0.046000697
136	0xbdd09293	-0.10184207
137	0xbdfa944c	-0.12235317
138	0x3d1a5382	0.037677296
139	0xbcd00068	-0.025390819
140	0x3d4f2b2b	0.050578278
141	0xbdce2a32	-0.10066642
142	0x3dc1fa21	0.094715364
143	0xbdb7fe93	-0.08984103
144	0xbca12228	-0.019669607
145	0x3ce58ee4	0.028022237
146	0x3d8813e8	0.06644422
147	0x3dd295fd	0.10282514
148	0x3ded1ebc	0.11578128
149	0xbdc7105c	-0.09719917
150	0x3d08b0fa	0.033371903
151	0xbd546136	-0.05185052
152	0xbc411085	-0.011783724
153	0xbdbbb09a	-0.091645434
154	0x3ded1824	0.1157687
155	0xbdb7f7cf	-0.089828126
156	0x3d8cbc9f	0.06871914
157	0x3d3bc5dc	0.04584299
158	0x3d2e36b0	0.042532623
159	0xbd867b81	-0.06566525
160	0x3dec9b27	0.115530305
161	0x3cf0b326	0.0293823
162	0x3c93677e	0.017993685
163	0xbdddace9	-0.108239956
164	0x3d5ec438	0.054386348
165	0xbc89f019	-0.01683812
166	0xbd62b6b3	-0.055350017
167	0x3ddfce05	0.10927967
168	0x3cf3f993	0.029782092
169	0xbd89b73f	-0.067244045
170	0xbd7b4c0b	-0.061351817
171	0xbb84e1f7	-0.0040552574
172	0x3d92db97	0.0717079
173	0xbcf5fb1f	-0.03002697
174	0xbd8e24e9	-0.06940634
175	0xbd277cc4	-0.04089047
176	0xbdbb53da	-0.09146853
177	0x3d3e6e7d	0.04649209
178	0x3dca11aa	0.098666504
179	0xbded153b	-0.11576315
180	0x3cfd8005	0.030944834
181	0x3d882a30	0.066486716
182	0x3cc95b78	0.024579749
183	0xbd2e7dff	-0.042600628
184	0x3d8988d4	0.06715551
185	0x3d8a72dc	0.06760189
186	0x3d474946	0.048653863
187	0xbca44129	-0.020050602
188	0xbcff786f	-0.031185357
189	0x3c7a7400	0.015286446
190	0xbca535a6	-0.020167183
191	0xbd36803c	-0.044555888
192	0x3d871c7c	0.0659723
193	0x3dbf7aac	0.0934957
194	0xbcd775ef	-0.026301352
195	0xbd2bad8a	-0.041913547
196	0xbc464b82	-0.012102963
197	0xbcaf3ad5	-0.021390358
198	0x3c8415fc	0.016123764
199	0x3cacdd10	0.021101505
200	0xbe0283f6	-0.12745652
201	0xbd75fced	-0.060055662
202	0x3dbb0ee8	0.091337025
203	0x3d0e6718	0.034766287
204	0xbca50521	-0.020144047
205	0xbdb6dd10	-0.08928883
206	0xbdb92438	-0.09040111
207	0xbe00eab0	-0.12589526
208	0xbd5fef17	-0.054671373
209	0x3ce7b64d	0.02828517
210	0x3d86b498	0.06577414
211	0x3d3356d2	0.04378397
212	0xbdfece91	-0.12441743
213	0xbdb677ed	-0.08909593
214	0xbd09d879	-0.03365371
215	0x3ddb1cec	0.10698876
216	0x3b882551	0.004154839
217	0xbd3da282	-0.046297558
218	0x3d1ac5c6	0.037786268
219	0xbd7c0d39	-0.061536048
220	0xbdc2374b	-0.094832025
221	0x3d9e5352	0.07730736
222	0xbd90ec73	-0.07076349
223	0xbd1fae92	-0.038984843
224	0xbe0d97f8	-0.13827503
225	0x3d8ecebf	0.069730274
226	0x3da56d9c	0.08077547
227	0x3d018c82	0.03162814
228	0xbdcf0539	-0.10108418
229	0xbe0c9641	-0.13729192
230	0xbdec6f5a	-0.11544676
231	0x3da25f90	0.07928383
232	0x3d3cc39a	0.046084978
233	0x3dbae5f2	0.0912589
234	0x3d532b91	0.05155522
235	0x3c911231	0.01770887
236	0xbc783c1d	-0.015151051
237	0xbddf34ec	-0.10898766
238	0xbdf7d9ce	-0.1210209
239	0xbe05fbb5	-0.130843
240	0x3d188b2e	0.037242107
241	0xbd9a3530	-0.07529676
242	0xbd201591	-0.039083067
243	0xbdafd969	-0.085863896
244	0xbd16577b	-0.03670452
245	0xbdd0b32e	-0.10190426
246	0xbdc3cafb	-0.095602
247	0x3ce1933c	0.027536027
248	0xbd5134b3	-0.05107565
249	0x3d81839f	0.06323933
250	0xbd5d4b98	-0.05402717
251	0xbdd84fb2	-0.10562076
252	0xbd13614e	-0.03598147
253	0xbd989d86	-0.0745192
254	0xbd55aeee	-0.05216878
255	0xbdd9ea6c	-0.106404155

phi.initial_conv_module.0._layers.1.weight f4 [64]
0	0x3f8022f0	1.0010662
1	0x3f802bbb	1.0013345
2	0x3f80c472	1.005995
3	0x3f7d06e6	0.9883865
4	0x3f7b94a7	0.982737
5	0x3f82bf4b	1.0214628
6	0x3f83b291	1.0288869
7	0x3f810dc1	1.0082322
8	0x3f805bde	1.0028036
9	0x3f7e93a5	0.9944404
10	0x3f7e2788	0.9927907
11	0x3f7f6b59	0.99773175
12	0x3f7f3fc8	0.997067
13	0x3f828fb0	1.02001
14	0x3f8dbc2e	1.1073053
15	0x3f789bf8	0.9711299
16	0x3f83cd1d	1.0296971
17	0x3f8419a1	1.0320321
18	0x3f80db77	1.0066975
19	0x3f7a8a7c	0.9786756
20	0x3f83c153	1.0293373
21	0x3f788585	0.97078735
22	0x3f821e69	1.016553
23	0x3f81f0ce	1.0151613
24	0x3f85b722	1.0446513
25	0x3f84af53	1.0366005
26	0x3f7f7453	0.9978687
27	0x3f766e30	0.9626188
28	0x3f81ca50	1.0139866
29	0x3f781d03	0.9691927
30	0x3f800cd5	1.0003916
31	0x3f8c3226	1.0952804
32	0x3f80894e	1.0041902
33	0x3f775e7a	0.96628535
34	0x3f79151e	0.9729785
35	0x3f787891	0.9705897
36	0x3f808f47	1.0043725
37	0x3f7e302d	0.9929226
38	0x3f7b649f	0.9820041
39	0x3f85e842	1.0461504
40	0x3f7f5bd7	0.9974951
41	0x3f782b5b	0.96941155
42	0x3f8473c8	1.0347834
43	0x3f787982	0.97060406
44	0x3f7a4de8	0.97775126
45	0x3f8051b0	1.0024929
46	0x3f81b4da	1.0133317
47	0x3f82c822	1.0217326
48	0x3f80a7f6	1.0051258
49	0x3f796afc	0.9742887
50	0x3f833d47	1.0253075
51	0x3f80f4a5	1.007466
52	0x3f86af72	1.0522292
53	0x3f817b1e	1.0115697
54	0x3f83d3e0	1.0299034
55	0x3f814527	1.0099229
56	0x3f821183	1.0161594
57	0x3f80ff43	1.00779
58	0x3f811e69	1.0087405
59	0x3f7a588a	0.9779135
60	0x3f83d249	1.0298549
61	0x3f8266b6	1.0187595
62	0x3f7d1be8	0.98870707
63	0x3f80a03e	1.0048902

phi.initial_conv_module.0._layers.1.bias f4 [64]
0	0xbc2834f8	-0.010266535
1	0x3d332e96	0.0437456
2	0x3c81421b	0.015778592
3	0xbc200628	-0.009767093
4	0xbbc05c67	-0.00587039
5	0xbcc4b1db	-0.02401059
6	0xbc6f97af	-0.0146235665
7	0xbca0352e	-0.019556608
8	0xbb2c6196	-0.0026303283
9	0xbcdb7bfe	-0.026792523
10	0x3c2ba9d2	0.0104775
11	0x3c5fb0dc	0.013653006
12	0xbca386d3	-0.01996175
13	0x3b6e3257	0.0036345923
14	0x3c4f3b50	0.012648419
15	0xbbed301f	-0.0072384025
16	0xbcb7387c	-0.022365801
17	0x3c158308	0.009125479
18	0x3c1a72b8	0.009426765
19	0xbc36dea0	-0.011161476
20	0xbc821866	-0.015880775
21	0xbb81135a	-0.0039390745
22	0xbcb8f550	-0.022577912
23	0x3b502388	0.003175946
24	0x3ce6c5d8	0.028170511
25	0xbcbc77de	-0.023006376
26	0x3c5a0c70	0.013308629
27	0x3d1d4465	0.038395304
28	0x3c8320e8	0.016006902
29	0x3a0e5d2c	0.0005430754
30	0xbd0a2f5a	-0.033736564
31	0x3d56367a	0.052298047
32	0x3c5847a3	0.013200673
33	0x3b334dcc	0.0027359603
34	0xbbd11d88	-0.006381694
35	0x3b4c12fa	0.003113924
36	0xbc4b51e8	-0.012409665
37	0x3cd49c7e	0.025953528
38	0xbc8290d4	-0.0159382
39	0x3d1f33ac	0.038867638
40	0x3bb51d5b	0.005527181
41	0xbca65e33	-0.02030859
42	0xbc87636e	-0.016526904
43	0x3c1a7c4d	0.00942905
44	0x3b391faf	0.0028247645
45	0xbc4106a3	-0.0117813675
46	0xbc83f479	-0.016107785
47	0xbc9d2a03	-0.019185072
48	0xbbc92c83	-0.0061393394
49	0x3b68abdf	0.0035502834
50	0x3cbaa171	0.02278206
51	0x3c088cd2	0.008334355
52	0x3cdc638b	0.026902935
53	0xbc14b7a7	-0.009076989
54	0x3bf2e783	0.0074128523
55	0xbcd5c6c7	-0.026095761
56	0xbd1c25ab	-0.03812186
57	0xbc95fc60	-0.018308818
58	0xbb2d3a92	-0.0026432616
59	0xbc2b303d	-0.010448513
60	0xbba71ad0	-0.005099632
61	0xbcded21d	-0.0271998
62	0x3aecaf3c	0.0018057595
63	0xbbd9f245	-0.006651195

phi.initial_conv_module.0._layers.1.running_mean f4 [64]
0	0xbeeb92de	-0.46010488
1	0xbeaa6ec3	-0.3328763
2	0xbeb94bf1	-0.3619075
3	0xbf1c0064	-0.60938096
4	0x3c85db74	0.016339995
5	0x3f7e0344	0.9922373
6	0x3f7a15d5	0.97689563
7	0xbf50b46e	-0.81525314
8	0xbead36ac	-0.33830774
9	0xbe7df84f	-0.24801753
10	0xbf561f55	-0.8364156
11	0xbf8a56fa	-1.0807793
12	0xbe6eddb7	-0.23326765
13	0x3edef663	0.43547353
14	0x3e67f44d	0.22651787
15	0xbf355523	-0.70833033
16	0x3f4f4afa	0.8097378
17	0x3f5bed30	0.85908794
18	0x3f81f33d	1.0152355
19	0x3e9dd5a8	0.3082707
20	0x3ef3cd60	0.47617626
21	0xbbfd9fe0	-0.007740006
22	0x3e8c8a60	0.27449322
23	0xbf344d9d	-0.7043093
24	0x3f8ed6aa	1.115926
25	0x3ed5e8b6	0.41779107
26	0xbf360da5	-0.7111457
27	0xbf5b29ce	-0.85610664
28	0x3f6c1624	0.92221284
29	0xbf04aaaa	-0.5182291
30	0x3ea268d0	0.3172059
31	0x3f83cbd8	1.0296583
32	0xbe12c07a	-0.14331236
33	0xbef3dca5	-0.47629276
34	0xbf47bee4	-0.7802565
35	0xbf13d18e	-0.5774163
36	0x3f4e4ed0	0.8058901
37	0xbee5a9d2	-0.44856125
38	0xbe820e41	-0.254015
39	0x3d7e3cc0	0.062069654
40	0x3e46799e	0.19382331
41	0x3d50f14c	0.05101137
42	0x3eca4f12	0.3951345
43	0xbec03960	-0.37543774
44	0x3d8e1198	0.069369495
45	0x3f80614f	1.0029696
46	0x3f5ad780	0.85485077
47	0x3ee865a0	0.45390034
48	0xbf1c763d	-0.6111792
49	0x3dbb0727	0.091322236
50	0xbf882cf7	-1.0638722
51	0xbf64b87a	-0.8934399
52	0xbeb69476	-0.35660142
53	0x3eb60ea0	0.35558033
54	0xbe1b7fb0	-0.15185428
55	0x3f8163e3	1.0108608
56	0x3ecc0f6f	0.39855525
57	0x3f472ede	0.7780589
58	0x3f20d101	0.62818915
59	0xbe01a4a7	-0.12660466
60	0xbf84ad5c	-1.0365405
61	0x3f025bb2	0.50921166
62	0x3d0a79dd	0.033807624
63	0xbe7dc4f9	-0.2478217

phi.initial_conv_module.0._layers.1.running_var f4 [64]
0	0x3c18853e	0.009309111
1	0x3c1433fb	0.009045596
2	0x3bd72c06	0.0065665273
3	0x3cb73a5e	0.022366699
4	0x3994742b	0.00028315312
5	0x3d3fd26e	0.04683154
6	0x3d3fa685	0.046789665
7	0x3d05a7a4	0.032630578
8	0x3bc6c26e	0.0060656583
9	0x3b600a05	0.003418566
10	0x3d00b8bb	0.031426173
11	0x3d71b124	0.059006825
12	0x3b10b1e8	0.0022078697
13	0x3c23fe71	0.010009394
14	0x3b882e24	0.004155891
15	0x3cca73e0	0.024713457
16	0x3d09f63c	0.033682093
17	0x3d0fe7f4	0.035133317
18	0x3d495366	0.0491518
19	0x3ba625f9	0.0050704447
20	0x3c2ad03a	0.010425622
21	0x3905595e	0.0001271716
22	0x3b8fed09	0.0043922705
23	0x3cbe1fc0	0.023208499
24	0x3d805f1a	0.06268139
25	0x3c212e68	0.009837724
26	0x3cc1df28	0.02366598
27	0x3d22ce6d	0.039747644
28	0x3d2fb6ca	0.04289893
29	0x3c66b39a	0.014080906
30	0x3bc25a09	0.005931143
31	0x3d6bae71	0.057539407
32	0x3a5bc062	0.0008382854
33	0x3c1aa633	0.009439039
34	0x3d0a2000	0.033721924
35	0x3ca2c183	0.019867664
36	0x3ce9de4e	0.028548386
37	0x3c6c1a6a	0.0144105945
38	0x3b2bcc9c	0.0026214486
39	0x39e7599b	0.00044126515
40	0x3b0363a7	0.002004841
41	0x38db9e47	0.00010472215
42	0x3c0e6b71	0.008692608
43	0x3c0e1bf1	0.008673654
44	0x3988abee	0.0002606804
45	0x3d57b2de	0.052660815
46	0x3d0cab65	0.034343142
47	0x3c441af7	0.01196932
48	0x3c90f76e	0.017696109
49	0x39b0894a	0.00033671624
50	0x3d6ca2e1	0.05777252
51	0x3d25ddc0	0.04049468
52	0x3bbe2f6a	0.005803992
53	0x3ba9b592	0.0051791156
54	0x3ad8643f	0.0016509368
55	0x3d5b1187	0.053483512
56	0x3c18410d	0.009292853
57	0x3cf2b038	0.029625043
58	0x3cb363eb	0.02189823
59	0x3a29cea7	0.0006477632
60	0x3d52c6aa	0.051458992
61	0x3c607958	0.013700806
62	0x3944d6cc	0.00018772035
63	0x3b2cad83	0.0026348538

phi.initial_conv_module.0._layers.4.conv.weight f4 [64, 1, 5]
0	0xbea673d8	-0.32510257
1	0x3eaaa0fc	0.33325946
2	0x3ec62e3c	0.3870715
3	0x3ebe2310	0.37136126
4	0xbe0de88f	-0.13858245
5	0x3e9e4f6a	0.30919963
6	0xbeafad90	-0.34312105
7	0x3e7050d4	0.23468333
8	0xbd017265	-0.031603236
9	0xbeaee25e	-0.3415708
10	0xbec1fa3f	-0.37886235
11	0xbee0e00e	-0.4392094
12	0x3dac1622	0.08402659
13	0xbe1034d1	-0.14082648
14	0xbe3b65a6	-0.18300495
15	0x3edfe642	0.4373036
16	0xbde177cd	-0.11009178
17	0x3e217fe9	0.1577145
18	0xbd9a465d	-0.07532952
19	0x3e88eb17	0.2674186
20	0x3dfc8654	0.123303086
21	0x3e8407a0	0.25787067
22	0x3df15eec	0.11785683
23	0xbdb6c43b	-0.08924147
24	0x3ecc9e29	0.39964417
25	0xbcdc57c5	-0.02689732
26	0xbe90b0d0	-0.28259897
27	0x3dc30f65	0.09524421
28	0xbdc3da3b	-0.095631085
29	0xbeb708f4	-0.35749018
30	0x3d03fd8a	0.032224216
31	0xbdfaeced	-0.12252221
32	0xbe32a885	-0.17447098
33	0xbe41f775	-0.18942054
34	0xbe32c3d5	-0.17457516
35	0xbe35d0cf	-0.17755435
36	0x3d62e3a1	0.055392865
37	0x3ee1dd83	0.44114313
38	0xbe81776a	-0.25286418
39	0xbe4d1cf2	-0.20030573
40	0xbe9e154d	-0.30875626
41	0xbd3d1393	-0.046161246
42	0x3c2f4fc0	0.010700166
43	0xbea5e2d0	-0.32399607
44	0x3e4116f0	0.18856406
45	0xbed200a6	-0.4101612
46	0x3ecff0e8	0.40613484
47	0x3da32721	0.079664476
48	0xbd4e06c2	-0.050299414
49	0xbe26e991	-0.16300036
50	0x3e4d5c39	0.20054711
51	0x3eac7edf	0.33690545
52	0xbe9141ad	-0.2837042
53	0xbdd3b0b3	-0.10336437
54	0x3ea65b9e	0.32491773
55	0xbd701ea6	-0.05862298
56	0xbe9164d0	-0.28397226
57	0xbe36e68d	-0.17861386
58	0xbca1c6dd	-0.019748146
59	0xbddd978c	-0.10819921
60	0xbe99c492	-0.30032784
61	0xbe8bc3bf	-0.2729778
62	0x3e02cf12	0.12774304
63	0x3e9ff765	0.31243435
64	0x3ed5f71e	0.41790098
65	0xbd4af9c4	-0.0495546
66	0x3e2c3474	0.16816884
67	0xbeb8d0f1	-0.3609691
68	0x3e70c3bf	0.23512171
69	0x3ee4ba00	0.44673157
70	0x3e86d352	0.263331
71	0xbe1b1ca9	-0.15147652
72	0x3ebe9a6a	0.37227184
73	0xbedcea9b	-0.4314774
74	0xbd95ada0	-0.07308507
75	0xbdb117f1	-0.086471446
76	0xbecfe3ce	-0.4060349
77	0xbe8d8d0a	-0.27646667
78	0xbeb3d3df	-0.35122582
79	0x3de93a38	0.113880575
80	0xbd496c29	-0.049175415
81	0x3e4e7ad7	0.20164047
82	0xbdae4c39	-0.08510632
83	0x3eca1e2a	0.39476138
84	0x3d9417a6	0.07231073
85	0x3ec63a07	0.38716146
86	0x3ebbba74	0.3666569
87	0xbec90415	-0.39260927
88	0xbea8a17d	-0.32935706
89	0x3e616a72	0.22013262
90	0x3edde0fc	0.43335712
91	0xbec24e9b	-0.37950596
92	0xbb8e5a92	-0.004344293
93	0xbe3c7962	-0.18405679
94	0x3ed20769	0.41021279
95	0x3ebb749e	0.3661241
96	0x3eb0e3af	0.3454871
97	0x3e7f16c4	0.24911028
98	0xbcd5bfd7	-0.026092453
99	0x3ece9d58	0.4035442
100	0xbe554b37	-0.20829473
101	0xbbea593c	-0.007151751
102	0xbe22c882	-0.158968
103	0xbeabb965	-0.33539882
104	0xbe693f2f	-0.22778009
105	0x3de93a58	0.11388081
106	0xbd1c845c	-0.038212165
107	0xbe9ca66b	-0.30595717
108	0xbd98156b	-0.0742596
109	0x3d7563d5	0.05990966
110	0xbe81d5ec	-0.25358522
111	0x3e9891e6	0.29798812
112	0xbec2df22	-0.38060862
113	0xbd0d71b0	-0.03453225
114	0xbed1e5fb	-0.40995774
115	0xbecc9bfe	-0.39962763
116	0xbd5f2d09	-0.05448631
117	0x3ecf1304	0.40444195
118	0x3edb9a8a	0.4289134
119	0x3e2eef89	0.17083563
120	0x3eb26378	0.34841514
121	0xbe68c947	-0.22733031
122	0x3e7e7ae8	0.24851573
123	0x3e6e442f	0.23268197
124	0xbef79d02	-0.48361975
125	0xbeae7d66	-0.34080046
126	0x3e38b6cb	0.1803848
127	0x3c999ca3	0.018751448
128	0xbea73747	-0.3265936
129	0xbebf8d03	-0.3741227
130	0x3e9edc81	0.31027606
131	0x3ce7874b	0.028262755
132	0xbcbdb92a	-0.023159582
133	0xbee81059	-0.45324972
134	0x3ebdb024	0.37048447
135	0xbe98a7b7	-0.29815456
136	0x3e499bc3	0.19688325
137	0xbd672ac0	-0.056437254
138	0x3c55a8c5	0.013040726
139	0x3e605986	0.2190915
140	0xbe1d171a	-0.15340844
141	0xbe1c1c61	-0.152452
142	0x3ea915c9	0.33024433
143	0xbebb9883	-0.36639795
144	0x3e3af1e9	0.18256344
145	0xbe02df1b	-0.1278042
146	0xbe2eaedf	-0.17058896
147	0x3e8c164a	0.27360755
148	0x3d801118	0.062532604
149	0xbede0fd7	-0.4337146
150	0x3edcf21f	0.43153474
151	0xbe4a87db	-0.19778387
152	0x3ebb9737	0.36638805
153	0xbe3cbb77	-0.18430887
154	0x3ed51064	0.41614068
155	0x3e03f71a	0.1288723
156	0xbcdce65c	-0.026965313
157	0x3e1e9954	0.15488178
158	0xbd3c3395	-0.04594763
159	0xbe8461ab	-0.25855765
160	0x3e7953fd	0.24348445
161	0x3e902c43	0.2815877
162	0xbd9fcfca	-0.078033045
163	0x3eda0e56	0.42589062
164	0x3d0503e2	0.032474406
165	0xbe83e667	-0.2576172
166	0xbe89079b	-0.26763615
167	0x3e8f7f37	0.28026745
168	0xbe51112f	-0.20416711
169	0x3e8411ae	0.2579474
170	0xbedd431d	-0.43215266
171	0x3ca79fea	0.020461995
172	0xbe996934	-0.29963076
173	0x3e2ab3e2	0.16670182
174	0x3ebcb019	0.36853102
175	0x3e855c87	0.26047155
176	0xbd8b4e8a	-0.068020895
177	0xbeaedead	-0.34154263
178	0xbe3e5a10	-0.18589044
179	0xbe8a74ca	-0.27042228
180	0x3ed09489	0.40738323
181	0xbe8b633b	-0.27224144
182	0x3e393856	0.18087897
183	0x3ec0e50d	0.37674752
184	0x3e2d0ee9	0.16900219
185	0xbec6877f	-0.3877525
186	0xbd3e842a	-0.04651276
187	0xbe1798b4	-0.14804345
188	0x3e925365	0.2857925
189	0xbd326f19	-0.043562982
190	0xbd09f994	-0.033685282
191	0x3ebd96d9	0.3702915
192	0x3e07928c	0.13239497
193	0x3e80018b	0.25001177
194	0xbdcf25bc	-0.10114619
195	0x3e96555c	0.29362
196	0x3d84f30a	0.064916685
197	0xbdbdc018	-0.092651546
198	0x3da29a84	0.07939628
199	0xbeb877b0	-0.36028814
200	0xbadce396	-0.0016852494
201	0x3e444b12	0.19169262
202	0xbed312f7	-0.41225407
203	0xbe57f394	-0.21089011
204	0x3e9ff77a	0.31243497
205	0xbc074385	-0.008255844
206	0xbd0aad39	-0.033856604
207	0x3ce61e64	0.028090663
208	0xbe5e532b	-0.21711414
209	0x3eb01f01	0.34398654
210	0xbada2ce1	-0.0016645455
211	0xbe191ea1	-0.1495309
212	0x3e602974	0.21890813
213	0xbec871d8	-0.39149356
214	0xbdbe592f	-0.09294354
215	0x3e01a717	0.12661396
216	0xbd8e0182	-0.06933881
217	0x3e8c32ec	0.273826
218	0xbebb957f	-0.36637494
219	0xbdb903f2	-0.09033956
220	0xbe4b6533	-0.19862823
221	0x3ecdf5e7	0.4022667
222	0x3e23e7f3	0.1600645
223	0xbeb30efc	-0.3497237
224	0x3e262c8c	0.16227931
225	0xbd246412	-0.040134497
226	0x3ec25286	0.37953585
227	0x3e869364	0.26284325
228	0xbe6e82d4	-0.23292094
229	0x3ed63cb4	0.41843188
230	0xbdd49d68	-0.10381585
231	0xbdd29591	-0.10282434
232	0x3e0d08ac	0.1377284
233	0x3ede587f	0.43426892
234	0x3e0c7ab9	0.1371869
235	0xbeccebd3	-0.4002367
236	0xbdfb82a8	-0.1228078
237	0x3eca8f23	0.3956233
238	0xbe4d2773	-0.2003458
239	0xbe859512	-0.26090294
240	0xbeb2df97	-0.3493621
241	0xbe7c81bf	-0.24658869
242	0xbe740929	-0.2383162
243	0x3dd39744	0.10331586
244	0x3e40fbfc	0.18846124
245	0x3edcf393	0.43154582
246	0x3e8c43ea	0.27395564
247	0xbcab617e	-0.020920511
248	0x3e6446fb	0.22292702
249	0x3e80235b	0.25026974
250	0xbec331eb	-0.38124022
251	0x3e64daf5	0.2234915
252	0xbea0f69a	-0.31438142
253	0x3eac8d90	0.33701754
254	0xbe50a16b	-0.20374076
255	0x3ddce4ac	0.10785803

phi.initial_conv_module.0._layers.5.weight f4 [64]
0	0x3f804113	1.0019859
1	0x3f7e1eec	0.99265933
2	0x3f8271f7	1.0191029
3	0x3f7ae434	0.9800446
4	0x3f7f41e8	0.9970994
5	0x3f83b846	1.0290611
6	0x3f7c0f5b	0.9846093
7	0x3f815063	1.0102657
8	0x3f8224d1	1.0167485
9	0x3f74bf80	0.95604706
10	0x3f80d702	1.0065615
11	0x3f7bed93	0.98409384
12	0x3f815e0a	1.0106823
13	0x3f82500f	1.0180682
14	0x3f8b5eb8	1.0888281
15	0x3f7de47b	0.9917676
16	0x3f80c62d	1.0060478
17	0x3f83e8df	1.0305442
18	0x3f7d69a6	0.9898933
19	0x3f7d57ac	0.989619
20	0x3f822df3	1.0170273
21	0x3f823c58	1.0174665
22	0x3f7d0b7b	0.9884564
23	0x3f82e907	1.0227364
24	0x3f8503f0	1.0391827
25	0x3f7eb7b8	0.9949908
26	0x3f801837	1.000739
27	0x3f7cc173	0.9873268
28	0x3f8267f5	1.0187975
29	0x3f856198	1.0420408
30	0x3f7ba442	0.9829751
31	0x3f87dc17	1.0614041
32	0x3f7edd69	0.99556595
33	0x3f7fef15	0.99974185
34	0x3f8065a5	1.003102
35	0x3f81a7df	1.0129355
36	0x3f816bfa	1.0111077
37	0x3f80b14a	1.0054104
38	0x3f7fea9f	0.9996738
39	0x3f8bda5f	1.0926017
40	0x3f7d33a3	0.98906916
41	0x3f784cc6	0.96992147
42	0x3f7e7884	0.9940264
43	0x3f870462	1.0548213
44	0x3f7b60b3	0.98194426
45	0x3f7a92c7	0.97880214
46	0x3f8169e0	1.0110435
47	0x3f79102b	0.97290295
48	0x3f821977	1.0164021
49	0x3f7abda7	0.97945637
50	0x3f8269ca	1.0188534
51	0x3f80cc1a	1.0062287
52	0x3f77e9ff	0.96841425
53	0x3f82c39b	1.0215944
54	0x3f7e53cf	0.9934663
55	0x3f7a1b75	0.97698146
56	0x3f7ef84f	0.9959764
57	0x3f7da3e1	0.99078184
58	0x3f810279	1.007888
59	0x3f7d3189	0.9890371
60	0x3f81369d	1.0094792
61	0x3f80f110	1.0073566
62	0x3f7cf33a	0.98808634
63	0x3f7e836a	0.9941927

phi.initial_conv_module.0._layers.5.bias f4 [64]
0	0x3bbd48f4	0.005776519
1	0xbc34675b	-0.01101097
2	0xbcfe644b	-0.031053683
3	0xbca0cb9a	-0.019628335
4	0xbcd7e0a7	-0.02635224
5	0x3c17b6f1	0.009259925
6	0x3bd81d11	0.006595262
7	0xbc5c4078	-0.013443105
8	0xbb2c4d45	-0.0026291173
9	0x3c77bf6e	0.015121324
10	0x3c0b3b5e	0.008498041
11	0xbcb8fb69	-0.02258082
12	0x3c84fffa	0.01623534
13	0x3cf8c88b	0.030369064
14	0x3dcb09ef	0.09914004
15	0xbc0cf9c8	-0.008604474
16	0x3aeaf128	0.0017924653
17	0x3d968802	0.0735016
18	0x3c8a5a61	0.0168888
19	0xbd068cc6	-0.032849096
20	0x3caadca5	0.020857165
21	0x3c0e671c	0.008691575
22	0xbc94ac5d	-0.018148595
23	0x3c702154	0.014656384
24	0x3d759f0b	0.05996613
25	0xbbe2a76e	-0.006916932
26	0xbbd5b054	-0.006521264
27	0x3cb12013	0.02162174
28	0x3c6672ef	0.014065488
29	0xbc2a9da9	-0.010413566
30	0xbcc5989e	-0.024120625
31	0x3db66a2c	0.089069694
32	0xbbd0e4f1	-0.006374948
33	0xbca5b9c1	-0.020230176
34	0x3cbdf6eb	0.023189029
35	0xbc2ed043	-0.010669771
36	0x3bf76e0a	0.0075509595
37	0xbc109857	-0.008825383
38	0xbbcdb621	-0.006277815
39	0x3de8f4ad	0.11374793
40	0xbc8b4b94	-0.017003812
41	0xbc81bef3	-0.015838122
42	0xbb12cf1f	-0.0022401286
43	0xbc7cd103	-0.015430692
44	0xbc9a6775	-0.01884816
45	0xbce84007	-0.028350843
46	0xbb8a9c19	-0.004230034
47	0xbce9ac68	-0.028524593
48	0xbba19ddb	-0.004932148
49	0x3bd07eb0	0.0063627586
50	0xbc85b3c1	-0.016321065
51	0x3c8c0485	0.017091999
52	0xbd0f17c4	-0.034934774
53	0x3c9f625c	0.019456081
54	0x3bcb3a95	0.006202052
55	0xbb02f802	-0.001998425
56	0x3b6d4e1a	0.0036209882
57	0xbd352458	-0.044224113
58	0x3bef1d9f	0.0072972323
59	0x3b704aeb	0.0036665748
60	0x3ba7cb07	0.0051206383
61	0xbbe1e8fb	-0.0068942285
62	0xbbd6ae26	-0.006551522
63	0x3b91c064	0.0044479836

phi.initial_conv_module.0._layers.5.running_mean f4 [64]
0	0x3d915fa8	0.07098323
1	0xbce25d4c	-0.027632378
2	0xbe029ee1	-0.1275592
3	0x3d976a83	0.073933624
4	0x3c9afd70	0.018919677
5	0xbd95fb13	-0.07323279
6	0xbd9624e1	-0.07331253
7	0xbc7dc296	-0.015488287
8	0xbd4e994d	-0.050439168
9	0xbc53d492	-0.012929099
10	0x3d6cf20a	0.057848014
11	0xbda51a6a	-0.08061679
12	0x3cc86331	0.02446136
13	0x3d5418ca	0.051781453
14	0xbb243825	-0.0025057879
15	0xbde127ff	-0.10993957
16	0x3d64fd7d	0.055905808
17	0x3cde6d48	0.027151719
18	0x3d0e89e7	0.034799483
19	0x3deeef1f	0.116667025
20	0xbdc32eea	-0.095304325
21	0xbb494ee5	-0.003071719
22	0xbd9aa9e1	-0.07551933
23	0x3d8fbc8a	0.07018383
24	0x3c8c4e16	0.017127078
25	0xbdb627b5	-0.08894292
26	0x3cdd1341	0.02698672
27	0x3c4d2a89	0.012522348
28	0xbc985b9d	-0.018598372
29	0xbd35d344	-0.04439093
30	0x3d926eaf	0.071500175
31	0xbbee1768	-0.007265974
32	0x3d957493	0.072976254
33	0xbc94a573	-0.018145299
34	0xbc63dd1d	-0.013907698
35	0xbd9be519	-0.07612056
36	0x3db99c2f	0.09062993
37	0xbd1b98b1	-0.037987415
38	0x3d586d9a	0.0528389
39	0xbb9b3271	-0.0047362377
40	0xbc48c6aa	-0.012254396
41	0x39fee063	0.00048613836
42	0xbd279a5e	-0.0409187
43	0xbc8bf4c3	-0.017084485
44	0x3bd3bf3a	0.006462005
45	0x3dbaaed1	0.09115375
46	0x3d5eeb75	0.054423768
47	0xbd656529	-0.056004677
48	0xbd64e164	-0.05587901
49	0x3d36e6e6	0.044653796
50	0xbd31f72b	-0.04344861
51	0x3c155158	0.009113632
52	0xbd96fa1f	-0.073719256
53	0xbd255dc0	-0.04037261
54	0xbcd35918	-0.02579932
55	0xbd8c3518	-0.06846064
56	0xbd3e9ac9	-0.046534333
57	0xbbbe6775	-0.005810673
58	0xbcb61bda	-0.022230078
59	0xbcd8c686	-0.02646185
60	0x3d3e129e	0.046404473
61	0xbce85078	-0.028358683
62	0x3c3d8bc7	0.01156897
63	0x3c54bb9a	0.012984181

phi.initial_conv_module.0._layers.5.running_var f4 [64]
0	0x3eb968e8	0.3621285
1	0x3d1dbab2	0.038508125
2	0x3f77aa07	0.96743816
3	0x3ecd9576	0.40153092
4	0x3be92742	0.0071152756
5	0x3b4e6ade	0.0031496803
6	0x3b67c404	0.0035364637
7	0x3ca8e63e	0.0206176
8	0x3e44b7f2	0.19210795
9	0x3c7e1816	0.015508672
10	0x3e5ef66c	0.2177369
11	0x3ed0d633	0.4078842
12	0x3d79fc93	0.06103189
13	0x3b247b7d	0.0025098019
14	0x3a53d655	0.0008080949
15	0x3f68cd22	0.9093801
16	0x3b58f76f	0.0033106466
17	0x3a7eed7e	0.000972472
18	0x3a285007	0.00064206164
19	0x3c936f8f	0.017997531
20	0x3bae5675	0.005320365
21	0x3bbf6cb2	0.005841815
22	0x3bfb4a9e	0.007668807
23	0x3ea3d5c9	0.31999043
24	0x3a30a8dc	0.0006739029
25	0x3c1cc210	0.0095677525
26	0x3d599223	0.053117882
27	0x3c166541	0.009179414
28	0x39bf0b23	0.00036438656
29	0x3e0d2436	0.13783345
30	0x3c14bd5c	0.00907835
31	0x39aaefd6	0.00032603618
32	0x3ec99694	0.39372694
33	0x3d050f02	0.032485016
34	0x3d1b0218	0.037843794
35	0x3ea51087	0.32239172
36	0x3b5c82dd	0.0033647337
37	0x3dba0259	0.09082479
38	0x3e8de330	0.27712393
39	0x3bc41aff	0.0059846635
40	0x398ffdb9	0.00027464124
41	0x38b7d2cf	8.765386e-05
42	0x3af5ed15	0.0018762673
43	0x3ca040af	0.019562094
44	0x39acb0cd	0.00032938123
45	0x3bdf701d	0.006818785
46	0x3b062a26	0.00204719
47	0x3b941129	0.004518647
48	0x3e899105	0.26868454
49	0x3bb2636b	0.0054439805
50	0x3deef29b	0.11667367
51	0x3c40377b	0.011731978
52	0x3ea1fa7a	0.3163641
53	0x3a11e064	0.0005564748
54	0x3d308205	0.043092746
55	0x3b997a9c	0.0046838056
56	0x3b7b4354	0.0038339691
57	0x391ade8d	0.00014769491
58	0x3a15628a	0.00056985824
59	0x3d74382d	0.059623886
60	0x3e31323e	0.17304322
61	0x3a8d2ac8	0.0010770196
62	0x3b11cb4f	0.0022246426
63	0x3c6fc9dc	0.014635529

phi.initial_conv_module.0._layers.7.se_conv.conv.weight f4 [10, 64, 1]
0	0x3dba7304	0.09103969
1	0xbdfb260d	-0.12263117
2	0xbd9a3a94	-0.07530704
3	0x3bd28bfc	0.006425379
4	0xbe1095c8	-0.14119637
5	0xbdbaf556	-0.09128825
6	0xbd9e7a40	-0.07738161
7	0x3dd50ec3	0.10403206
8	0x3c80e748	0.015735283
9	0xbd2c32ac	-0.042040512
10	0x3c3144c2	0.010819616
11	0xbdd9d4fb	-0.10636326
12	0xbdcb9b56	-0.09941737
13	0xbdc6bd80	-0.09704113
14	0xbdf4d597	-0.119548015
15	0x3daf0885	0.08546547
16	0xbd6c8770	-0.05774635
17	0xbd451b63	-0.04812182
18	0xbdfe0b5a	-0.12404509
19	0xbc0dc03e	-0.008651791
20	0x3c294c6a	0.01033316
21	0xbd815249	-0.06314523
22	0x3dd33dcc	0.10314521
23	0x3dee9152	0.116488114
24	0xbdc805f4	-0.097667605
25	0x3dc37087	0.09542947
26	0xba873dee	-0.0010318139
27	0x3c64446c	0.013932329
28	0x3d8f60fc	0.0700092
29	0xbd1a523c	-0.03767608
30	0x3db49c69	0.08818895
31	0x3d503f3e	0.050841562
32	0xbd839d02	-0.06426431
33	0xbd94b654	-0.07261339
34	0xbe0fff82	-0.14062312
35	0x3ce2b015	0.027671853
36	0xbdedf6dd	-0.11619351
37	0xbdeb481f	-0.114883654
38	0xbd6bd39c	-0.057574853
39	0xbdc7ffe1	-0.09765602
40	0xbdb014dd	-0.08597729
41	0x3dbbd109	0.0917073
42	0x3dbd3eb2	0.09240474
43	0x3dd5e6e1	0.10444427
44	0xbdcff8c5	-0.10154871
45	0xbd615d5c	-0.055020675
46	0xbd55dedc	-0.05221449
47	0x3cbd2d97	0.023093028
48	0xbdb823e8	-0.089912236
49	0xbc59612e	-0.013267798
50	0xbda1c91f	-0.07899689
51	0x3d099c5d	0.033596385
52	0x3ddcbdb8	0.107783735
53	0x3d4c1eec	0.049834177
54	0x3d8e1e2f	0.06939351
55	0xbd879b58	-0.06621426
56	0x3ba6f59d	0.0050951974
57	0xbd828197	-0.063723736
58	0xba174761	-0.0005770829
59	0xbd418bc1	-0.04725242
60	0xbd4fc1dc	-0.050721988
61	0xbdc947df	-0.098281614
62	0xbd564856	-0.05231508
63	0x3d130544	0.035893694
64	0xbcb87367	-0.022515966
65	0xbddbacc2	-0.1072631
66	0x3ddc9314	0.107702404
67	0x3db4e526	0.08832769
68	0xbe170d8e	-0.14751264
69	0x3cfadd41	0.03062308
70	0x3dd76c65	0.105187215
71	0xbdddc102	-0.10827829
72	0xbde96732	-0.11396636
73	0x3d946195	0.07245175
74	0xbba8f650	-0.005156316
75	0x3d4656fb	0.048422795
76	0xbd6fbb25	-0.058528084
77	0xbd5a2d25	-0.05326571
78	0x3da22517	0.079172306
79	0xbcb9be1d	-0.02267366
80	0xbdd39c2a	-0.1033252
81	0xbe3843df	-0.17994641
82	0xbda8c996	-0.082415745
83	0x3c33019c	0.010925677
84	0xbdd266e6	-0.102735326
85	0xbc2f736c	-0.010708671
86	0x3dde3964	0.1085079
87	0xbd1f7933	-0.038933944
88	0xbdd2f8bc	-0.103013486
89	0xbca2cfd3	-0.019874489
90	0xbd4f00c1	-0.05053783
91	0x3c2a6215	0.010399361
92	0xbddf180d	-0.10893259
93	0x3d4459f9	0.047937367
94	0xbdc18368	-0.09448892
95	0xbd82b746	-0.06382613
96	0xbc5c15a1	-0.013432891
97	0x3d9c6017	0.07635515
98	0xbdb433be	-0.087989315
99	0xbddf64cc	-0.10907897
100	0xbe208a5f	-0.15677784
101	0xbdb79e2b	-0.08965715
102	0xbd7eeafe	-0.062235825
103	0x3dcbd467	0.09952622
104	0xbdada15e	-0.08478044
105	0xbd9c1524	-0.0762122
106	0xbdb36e1f	-0.08761238
107	0xbd6831fc	-0.056688294
108	0xbd8d6299	-0.06903572
109	0xbe09f3cc	-0.13471907
110	0xbd7c8029	-0.06164566
111	0x3d65520e	0.055986457
112	0xbc8fc0d4	-0.017548002
113	0x3d2adfaa	0.04171721
114	0x3d064658	0.03278193
115	0x3dee5cfe	0.116388306
116	0x3a70afc2	0.00091814634
117	0x3e0585c6	0.13039312
118	0x3dbe7bdb	0.09300967
119	0x3da920fe	0.08258246
120	0x3da1ee1b	0.07906743
121	0xbdaffc47	-0.0859304
122	0xbd9dd9f3	-0.07707586
123	0x3d64c9ee	0.055856638
124	0x3d35b716	0.044364057
125	0x3e029eb1	0.12755848
126	0xbd91b183	-0.07113936
127	0xbc8ee412	-0.017442737
128	0x3db30644	0.087414294
129	0x3c019205	0.007908349
130	0x3ddfc3af	0.109259956
131	0xbd79db3e	-0.0610001
132	0xbd2fbfd1	-0.04290754
133	0xbc814c49	-0.015783446
134	0x3d3dc43f	0.046329733
135	0xbdef21ce	-0.116763696
136	0xbd2a442e	-0.041568927
137	0x3dad4ab9	0.08461518
138	0x3ceb8d0d	0.028753782
139	0x3da9e65b	0.0829589
140	0xbd285cb8	-0.04110405
141	0xbdad23af	-0.08454072
142	0xbdd1dc98	-0.10247153
143	0xbda42a16	-0.0801584
144	0xbdc7362e	-0.09727131
145	0x3d83dff0	0.06439197
146	0x3d208db9	0.039197657
147	0xbdb3c072	-0.087769404
148	0x3dcf2b16	0.1011564
149	0xba0c90d5	-0.0005362158
150	0x3cc46010	0.023971587
151	0xbd6d2b71	-0.057902757
152	0x3dbf9c85	0.093560256
153	0xbdd6d6dc	-0.104902
154	0x3db704df	0.08936476
155	0xbd92b390	-0.07163155
156	0x3d39cd6e	0.04536193
157	0xbd4e70da	-0.050400592
158	0x3da25e71	0.079281695
159	0xbdc5f00f	-0.09664928
160	0xbce7a431	-0.028276535
161	0xbd2120f9	-0.039338086
162	0xbdb04dd8	-0.086085975
163	0xbd95bb10	-0.0731107
164	0xbd25a86b	-0.04044382
165	0x3c2caeb8	0.010539703
166	0x3dae84ac	0.08521399
167	0xbd45c7bc	-0.048286185
168	0x3dda20dc	0.10650799
169	0xbd450a11	-0.048105303
170	0xbda67fdf	-0.08129858
171	0xbc7eb0db	-0.015545095
172	0xbce13cec	-0.02749487
173	0x3d28d6ba	0.041220404
174	0x3de2c534	0.1107277
175	0x3cb373cb	0.0219058
176	0xbde31f87	-0.11089998
177	0xbd2ecafb	-0.042674046
178	0xbd02b1fa	-0.031908013
179	0xbdf03614	-0.117290646
180	0x3ceeb8f2	0.029140923
181	0x3dabba61	0.08385158
182	0x3d8426fb	0.064527474
183	0xbc8483e0	-0.016176164
184	0xbd04eaf9	-0.03245065
185	0xbda37552	-0.079813614
186	0xbd09d8f4	-0.03365417
187	0x3df35c80	0.11882877
188	0xbd9181e7	-0.07104855
189	0x3a5bae63	0.00083801727
190	0xbdc8eb4b	-0.098105036
191	0xbd174244	-0.03692843
192	0x3c7073a6	0.01467601
193	0xbd18f27a	-0.03734062
194	0x3dccbca4	0.09996918
195	0xbdd0b1b5	-0.10190145
196	0xbcd41c61	-0.025892438
197	0x3d8c4106	0.0684834
198	0x3dd4497b	0.10365578
199	0x3d4e70ff	0.05040073
200	0xbcd0cbad	-0.025487745
201	0xbd6982b9	-0.057009432
202	0xbcc757e6	-0.024333905
203	0xbb62e5a8	-0.003462175
204	0x3dce492b	0.100725494
205	0xbd895439	-0.06705517
206	0x3dc5374b	0.09629687
207	0x3db82d30	0.08992994
208	0xbc80b7f1	-0.01571271
209	0x3e02f4e9	0.12788738
210	0x3dccaf11	0.09994329
211	0x3c8b34ed	0.01699301
212	0xbdc1920e	-0.09451686
213	0xbcd1a3da	-0.025590826
214	0x3cd1ff67	0.02563448
215	0x3df09740	0.11747599
216	0xbc6e1033	-0.014530229
217	0xbd75aeac	-0.059981033
218	0xbdf7ab83	-0.1209326
219	0x3da60058	0.08105534
220	0x3deae5b5	0.114695944
221	0x3e175548	0.14778626
222	0xbd331541	-0.04372144
223	0x3e164ced	0.14677782
224	0xbd2a060e	-0.04150968
225	0x3e0566e9	0.13027538
226	0x3e0904ce	0.13380739
227	0xbd39c902	-0.04535771
228	0x3d766969	0.06015912
229	0x3dd124fd	0.10212133
230	0xbd9b7b05	-0.075918235
231	0x3e0a4bee	0.13505527
232	0x3daf5e06	0.085628554
233	0x3dfec33b	0.12439581
234	0xbce2e270	-0.027695864
235	0xbb8c39a8	-0.004279334
236	0xbcc79db3	-0.024367189
237	0x3d99508a	0.07486065
238	0xbc01101c	-0.007877376
239	0x3db33705	0.087507285
240	0x3e2ddf18	0.16979635
241	0x3d69fb2a	0.057124294
242	0xbd211524	-0.039326802
243	0x3d69f445	0.05711772
244	0x3e2b703a	0.1674203
245	0xbd335ff8	-0.043792695
246	0xbcb4516d	-0.022011483
247	0xbd40ba77	-0.047052827
248	0x3bd6dd36	0.006557132
249	0xbdd3b008	-0.1033631
250	0x3d765b61	0.06014574
251	0x3ddef5f7	0.10886758
252	0xbd3ba5ff	-0.045812603
253	0xbd6ef3b0	-0.058337867
254	0xbd16ce1d	-0.03681766
255	0x3dc27714	0.094953686

phi.initial_conv_module.0._layers.7.se_conv2.conv.weight f4 [64, 10, 1]
0	0xbdeda50c	-0.11603746
1	0x3dba62d0	0.09100878
2	0xbc833732	-0.01601753
3	0xbdad56ca	-0.08463819
4	0xbe2aba16	-0.16672549
5	0x3d7bec37	0.06150457
6	0xbe8fc1a8	-0.28077435
7	0x3e9770f7	0.29578373
8	0xbca02a8f	-0.019551544
9	0x3d8cd504	0.06876567
10	0x3ddfa9b7	0.109210424
11	0xbe0aca60	-0.13553762
12	0x3e6c3761	0.23068
13	0x3ab7dce3	0.0014027621
14	0x3c156a26	0.009119546
15	0xbe932afd	-0.28743735
16	0x3d4abab2	0.049494453
17	0x3dfc0576	0.12305729
18	0x3db2cdb9	0.08730645
19	0xbccbc931	-0.024876209
20	0x3e7f47e6	0.24929771
21	0x3e8bc81d	0.27301112
22	0x3e6a5420	0.22883654
23	0xbd763a64	-0.06011428
24	0x3d8bd25f	0.068272345
25	0xbe6e6300	-0.23279953
26	0xbe728a32	-0.2368553
27	0xbd9f62a2	-0.077824846
28	0x3cd968c2	0.02653921
29	0xbe4aa806	-0.19790658
30	0xbe827ae0	-0.2548437
31	0x3dfc1646	0.12308936
32	0x3de74579	0.11292548
33	0xbe563152	-0.20917252
34	0x3e571d70	0.21007323
35	0xbe4f8588	-0.20265782
36	0x3e74cd41	0.23906423
37	0x3e28533e	0.16438004
38	0xbe0e7477	-0.13911615
39	0x3e909dc5	0.2824537
40	0xbe44b2b9	-0.19208802
41	0xbe316c7c	-0.1732654
42	0x3e704f68	0.23467791
43	0xbde4ede3	-0.11178186
44	0xbe05bf69	-0.13061298
45	0x3d7e58e9	0.06209651
46	0xbd52bccc	-0.051449582
47	0x3e4cc5a9	0.19997276
48	0x3e7eea33	0.24894027
49	0x3e0cf9a6	0.13767108
50	0x3d6dc4ca	0.058049
51	0x3d772025	0.06033339
52	0x3c61833f	0.013764202
53	0x3d8ab2bf	0.06772374
54	0x3d0d7a55	0.034540493
55	0x3e6e7365	0.23286207
56	0x3e47300f	0.19451927
57	0xbca55b43	-0.020185119
58	0x3d9b7b77	0.075919084
59	0xbcc8afb3	-0.024497842
60	0x3de02582	0.10944654
61	0x3e6d1f58	0.23156488
62	0xbe629dc0	-0.2213049
63	0x3d8afe1c	0.06786749
64	0xbd1de6dd	-0.038550247
65	0xbe8b0c3e	-0.27157778
66	0xbe9d4e95	-0.30724016
67	0xbc1cdda9	-0.009574332
68	0x3e355bc6	0.1771079
69	0xbe6f1312	-0.23347118
70	0x3dba8594	0.09107509
71	0x3e38513f	0.17999743
72	0xbe6f3fb5	-0.23364146
73	0x3e1591d7	0.14606415
74	0x3d3ffc2f	0.04687136
75	0xbe8b754b	-0.27237925
76	0xba772c1b	-0.00094288745
77	0xbe921b20	-0.2853632
78	0x3e901ec7	0.2814848
79	0x3e12b528	0.14326918
80	0x3e1ae4cd	0.15126343
81	0x3e87e160	0.26539135
82	0x3e815926	0.25263327
83	0x3ea60416	0.32424992
84	0x3e1f976e	0.1558511
85	0xbe6d3d52	-0.23167923
86	0x3e85260e	0.26005596
87	0x3d71fb78	0.05907771
88	0xbe31a244	-0.17347056
89	0xbe053794	-0.13009483
90	0x3e9901f1	0.29884294
91	0x3db424d5	0.08796088
92	0x3e755a19	0.23960151
93	0x3cef36b2	0.029200885
94	0x3e955030	0.2916274
95	0xbe697cee	-0.22801563
96	0x3d99788f	0.07493698
97	0x3d89feb2	0.067380324
98	0xba298f41	-0.0006468185
99	0x3e8fc8e5	0.28082958
100	0x3dd3f185	0.103488006
101	0x3d94c771	0.07264603
102	0x3e8164d7	0.25272247
103	0xbd1c96aa	-0.038229622
104	0xbc9dfcf6	-0.01928566
105	0xbe93bf33	-0.2885681
106	0xbd24e363	-0.040255915
107	0xbe24c723	-0.1609159
108	0x3e3ea3e2	0.18617204
109	0x3e9184ec	0.28421724
110	0xbe9db5cb	-0.3080276
111	0xbe64ef19	-0.22356834
112	0x3e845957	0.2584941
113	0xbe21fe89	-0.15819754
114	0x3e83f411	0.25772145
115	0x3eab69fa	0.3347929
116	0xbd7a5587	-0.06111672
117	0xbe58b60d	-0.21163197
118	0x3e44895e	0.19193026
119	0x3e0d1b93	0.1378005
120	0x3e907747	0.28216
121	0x3d8563dd	0.06513188
122	0x3e428b0a	0.18998352
123	0xbe95149b	-0.29117283
124	0x3d59e292	0.05319459
125	0x3d7a69b6	0.06113597
126	0x3e440759	0.19143428
127	0xbe2d0b62	-0.16898873
128	0xbd1f625f	-0.038912173
129	0xbe3fdff1	-0.1873777
130	0xbe625d2a	-0.22105852
131	0x3df2bba7	0.11852198
132	0x3d3fee64	0.046858206
133	0x3e12e879	0.14346494
134	0x3b3583c1	0.002769694
135	0x3ca73855	0.020412603
136	0xb9399d28	-0.0001770152
137	0x3e53d85c	0.20688003
138	0xbe682798	-0.22671354
139	0x3d7887e0	0.060676455
140	0x3e262e27	0.16228543
141	0x3e3f3fc2	0.18676665
142	0xbe032c8e	-0.12809965
143	0x3e8bc194	0.27296126
144	0xbe29390b	-0.16525666
145	0x3e341bc1	0.17588712
146	0x3e852e56	0.26011914
147	0x3b6ef704	0.003646315
148	0x3da102d3	0.07861867
149	0xbe9af2b4	-0.30263293
150	0xbe045872	-0.12924364
151	0xbe18c9d8	-0.14920747
152	0xbea55766	-0.32293242
153	0xbdb3077b	-0.08741661
154	0x3e43ca6b	0.19120185
155	0xbc508024	-0.012725864
156	0x3ea60b50	0.32430506
157	0xbe857ada	-0.2607029
158	0x3e0e1f2c	0.13879079
159	0x3e842c1b	0.258149
160	0x3e9dc575	0.3081471
161	0xbdf83a0b	-0.12120446
162	0xbe8dc84a	-0.2769187
163	0xbdd41ee0	-0.103574514
164	0x3e896e4a	0.26841956
165	0x3ce0fa7c	0.02746319
166	0x3ea37087	0.3192179
167	0xbe667113	-0.22504072
168	0xbe5d802c	-0.21630925
169	0x3e11f53d	0.14253707
170	0x3e0d952c	0.13826436
171	0xbe2d9a97	-0.16953503
172	0x3e9f12c7	0.31069013
173	0xbd8bd457	-0.0682761
174	0xbe829212	-0.25502068
175	0x3d8dfd37	0.069330625
176	0xbe4feb64	-0.20304638
177	0xbe1d2ae6	-0.15348396
178	0xbe336626	-0.17519435
179	0x3db730a6	0.08944826
180	0x3e4615c3	0.19344239
181	0x3e84d8a2	0.25946528
182	0xbe0edacd	-0.13950653
183	0xbd002dbb	-0.031293612
184	0x3e91908c	0.28430593
185	0xbe4a1e38	-0.1973809
186	0xbe1f8296	-0.15577158
187	0xbd9e363f	-0.0772519
188	0xbe8fe21c	-0.28102195
189	0xbe785345	-0.24250515
190	0x3e95e473	0.29275855
191	0x3d8ac77d	0.067763306
192	0x3d8896f0	0.06669414
193	0x3e071d2c	0.13194722
194	0x3e3c217f	0.18372153
195	0x3e4b7496	0.19868693
196	0x3e500d55	0.20317586
197	0x3df81d35	0.12114946
198	0x3e6e064b	0.23244588
199	0x3e4a5d23	0.19762091
200	0xbdaadbf6	-0.083427355
201	0x3be95058	0.0071201734
202	0xbe2ec3c2	-0.17066863
203	0xbe496906	-0.1966897
204	0x3ea64e9d	0.32481852
205	0xbe590f48	-0.21197236
206	0xbe1adaaf	-0.15122484
207	0xbe928747	-0.28618833
208	0xbe8a5077	-0.27014515
209	0x3d4773c8	0.048694402
210	0x3e183364	0.14863354
211	0xbe82c568	-0.25541234
212	0x3d1815f9	0.03713033
213	0xbe862cb9	-0.26205996
214	0x3cf27913	0.029598748
215	0x3e2c0440	0.16798496
216	0xbe19086e	-0.14944622
217	0xbe135eba	-0.14391604
218	0x3e6d4d0c	0.23173922
219	0xbe31dff7	-0.17370592
220	0xbd82fe41	-0.06396151
221	0xbe8fc0c6	-0.28076762
222	0x3e633457	0.22187935
223	0x3dc3aa72	0.09553994
224	0xbdfd512d	-0.12368999
225	0x3e850357	0.2597911
226	0x3e8b41c1	0.27198604
227	0x3e12dbcb	0.14341657
228	0xbe7d844c	-0.24757499
229	0xbdc0c00c	-0.0941163
230	0x3e8939d3	0.2680193
231	0x3e80f2a1	0.2518511
232	0xbdbefb58	-0.09325284
233	0x3e5a3763	0.21310191
234	0xbe613896	-0.21994242
235	0x3d6273a8	0.05528608
236	0x3e7c6b6c	0.24650353
237	0x3d697d28	0.057004124
238	0xbe64f4c8	-0.22359002
239	0x3deda724	0.11604145
240	0x3e4967e8	0.19668543
241	0x3e755b45	0.23960598
242	0xbe33671e	-0.17519805
243	0x3b46bce5	0.0030324992
244	0x3cdc9b90	0.026929647
245	0xbd48dfea	-0.049041666
246	0xbd787a79	-0.060663674
247	0xbe0b827c	-0.13623995
248	0x3d83895e	0.06422685
249	0x3dcf2fa4	0.101165086
250	0xbd89ca9e	-0.06728099
251	0x3e6cb56f	0.23116086
252	0x3afd08f8	0.0019305041
253	0x3dc32ace	0.09529649
254	0x3dc745be	0.09730099
255	0xbd98f2b0	-0.07468164
