logs/bird_classification_test_Certhia/2025-05-11_21-51-47/best_bird_classification_test_Certhia.pth (torch, 314262 bytes, 200 tensors)

mel_spec.spectrogram.window f4 [400]
0.0 6.169081e-05 0.00024673343 0.00055506825 0.0009866357 0.0015413463 0.0022190213 0.0030195117
0.0039426386 0.0049881637 0.0061558187 0.0074453354 0.008856386 0.010388583 0.012041628 0.013815045
0.015708417 0.017721295 0.019853145 0.022103488 0.02447173 0.026957333 0.029559612 0.03227797
0.035111755 0.038060248 0.041122675 0.04429835 0.04758647 0.05098623 0.054496735 0.05811718
0.061846673 0.06568426 0.069628984 0.073679924 0.07783604 0.08209634 0.086459726 0.09092516
0.0954915 0.10015768 0.1049225 0.10978481 0.11474338 0.11979702 0.12494448 0.13018447
0.13551572 0.14093685 0.14644662 0.15204361 0.15772647 0.16349375 0.1693441 0.17527598
0.18128803 0.1873787 0.1935465 0.19978988 0.20610738 0.21249738 0.21895832 0.2254886
0.23208663 0.23875076 0.24547932 0.2522707 0.2591232 0.26603514 0.27300477 0.28003046
0.2871104 0.29424286 0.3014261 0.3086583 0.31593773 0.32326257 0.33063105 0.3380413
0.34549153 0.35297984 0.36050445 0.3680635 0.37565508 0.38327736 0.39092842 0.3986064
0.40630937 0.4140355 0.42178282 0.42954943 0.43733343 0.4451329 0.45294592 0.46077052
0.4686048 0.47644678 0.48429462 0.49214637 0.5 0.5078537 0.5157054 0.52355325
0.5313953 0.5392296 0.5470542 0.5548672 0.56266665 0.57045066 0.57821727 0.5859646
0.5936907 0.6013937 0.6090717 0.61672276 0.624345 0.6319366 0.63949555 0.6470202
0.65450853 0.66195875 0.669369 0.6767374 0.6840623 0.69134176 0.698574 0.70575726
0.7128897 0.71996963 0.7269953 0.733965 0.7408769 0.7477294 0.7545208 0.7612493
0.76791346 0.77451146 0.78104174 0.7875027 0.79389274 0.8002102 0.8064536 0.8126214
0.8187121 0.8247241 0.83065605 0.83650637 0.8422736 0.8479565 0.8535534 0.85906315
0.8644843 0.8698156 0.87505555 0.880203 0.88525665 0.8902152 0.8950775 0.8998424
0.90450853 0.9090749 0.9135403 0.91790366 0.92216396 0.9263201 0.93037105 0.9343158
0.9381534 0.94188285 0.9455033 0.9490138 0.95241356 0.9557017 0.9588773 0.9619398
0.9648883 0.96772206 0.9704404 0.9730427 0.9755283 0.9778966 0.9801469 0.9822787
0.9842916 0.98618495 0.98795843 0.9896114 0.99114364 0.99255466 0.99384415 0.9950118
0.9960574 0.9969805 0.997781 0.9984586 0.99901336 0.99944496 0.99975324 0.9999383
1.0 0.9999383 0.99975324 0.99944496 0.99901336 0.9984586 0.997781 0.9969804
0.99605733 0.9950118 0.99384415 0.99255466 0.9911436 0.9896114 0.9879584 0.98618495
0.98429155 0.9822787 0.9801468 0.97789645 0.97552824 0.9730426 0.9704404 0.96772194
0.9648882 0.9619397 0.95887727 0.9557016 0.95241344 0.9490137 0.94550323 0.9418827
0.93815327 0.9343157 0.9303709 0.9263201 0.92216396 0.91790366 0.91354024 0.90907484
0.9045085 0.89984226 0.89507747 0.89021516 0.8852566 0.88020295 0.8750555 0.86981547
0.86448425 0.8590631 0.8535533 0.8479563 0.8422735 0.8365062 0.8306559 0.82472396
00000000: 0000 0000 0060 8138 005c 8139 0082 113a
00000010: 0052 813a 0007 ca3a 006d 113b 00e3 453b
00000020: 4031 813b c073 a33b c0b6 c93b 00f8 f33b
00000030: 601a 113c e034 2a3c 404a 453c 8058 623c
00000040: f0ae 803c 402c 913c 10a3 a23c 6012 b53c
00000050: f078 c83c a0d5 dc3c 0027 f23c e835 043d
00000060: 58d1 0f3d 10e5 1b3d 4070 283d 3072 353d
00000070: 08ea 423d f0d6 503d f837 5f3d 480c 6e3d
00000080: f052 7d3d 7885 863d a499 8e3d 80e5 963d
00000090: 8068 9f3d 2022 a83d cc11 b13d f836 ba3d
000000a0: 0c91 c33d 781f cd3d 9ce1 d63d dcd6 e03d
000000b0: 94fe ea3d 2458 f53d e4e2 ff3d 144f 053e
000000c0: a2c4 0a3e c051 103e 1af6 153e 52b1 1b3e
000000d0: 0c83 213e e86a 273e 8a68 2d3e 8c7b 333e
000000e0: 92a3 393e 34e0 3f3e 0e31 463e b895 4c3e
000000f0: d00d 533e ea98 593e 9c36 603e 7ce6 663e
00000100: 1ea8 6d3e 147b 743e ee5e 7b3e a029 813e
00000110: ccab 843e c235 883e 48c7 8b3e 2760 8f3e
00000120: 2200 933e 00a7 963e 8654 9a3e 7608 9e3e
00000130: 97c2 a13e ac82 a53e 7948 a93e c013 ad3e
00000140: 44e4 b03e c6b9 b43e 0a94 b83e d272 bc3e
00000150: dd55 c03e ee3c c43e c527 c83e 2316 cc3e
00000160: c807 d03e 76fc d33e ebf3 d73e e7ed db3e
00000170: 2bea df3e 76e8 e33e 87e8 e73e 1dea eb3e
00000180: f8ec ef3e d5f0 f33e 77f5 f73e 9cfa fb3e
00000190: 0000 003f b302 023f 4505 043f 9607 063f
000001a0: 8609 083f f30a 0a3f be0b 0c3f c70b 0e3f
000001b0: ec0a 103f 0e09 123f 0c06 143f c701 163f
000001c0: 1dfc 173f f0f4 193f 1fec 1b3f 8be1 1d3f
000001d0: 13d5 1f3f 99c6 213f fbb5 233f 1ea3 253f
000001e0: df8d 273f 2176 293f c45b 2b3f aa3e 2d3f
000001f0: b51e 2f3f c6fb 303f bfd5 323f 82ac 343f
00000200: f07f 363f ee4f 383f 5d1c 3a3f 21e5 3b3f
00000210: 1caa 3d3f 326b 3f3f 4628 413f 3ce1 423f
00000220: fa95 443f 6246 463f 5af2 473f c799 493f
00000230: 8e3c 4b3f 93da 4c3f be73 4e3f f507 503f
00000240: 1e97 513f 1e21 533f e0a5 543f 4825 563f
00000250: 3e9f 573f ad13 593f 7a82 5a3f 90eb 5b3f
00000260: d84e 5d3f 3cac 5e3f a403 603f fc54 613f
00000270: 2ea0 623f 25e5 633f cd23 653f 125c 663f
00000280: df8d 673f 22b9 683f c7dd 693f bcfb 6a3f
00000290: f012 6c3f 5023 6d3f cc2c 6e3f 522f 6f3f
000002a0: d22a 703f 3c1f 713f 810c 723f 92f2 723f
000002b0: 60d1 733f dea8 743f fc78 753f b041 763f
000002c0: eb02 773f a2bc 773f c86e 783f 5419 793f
000002d0: 39bc 793f 6e57 7a3f e8ea 7a3f 9e76 7b3f
000002e0: 89fa 7b3f 9e76 7c3f d8ea 7c3f 2c57 7d3f
000002f0: 97bb 7d3f 1018 7e3f 926c 7e3f 18b9 7e3f
00000300: 9efd 7e3f 1d3a 7f3f 936e 7f3f fc9a 7f3f
00000310: 57bf 7f3f a0db 7f3f d4ef 7f3f f5fb 7f3f
00000320: 0000 803f f5fb 7f3f d4ef 7f3f a0db 7f3f
00000330: 57bf 7f3f fc9a 7f3f 936e 7f3f 1c3a 7f3f
00000340: 9dfd 7e3f 18b9 7e3f 926c 7e3f 1018 7e3f
00000350: 96bb 7d3f 2c57 7d3f d7ea 7c3f 9e76 7c3f
00000360: 88fa 7b3f 9e76 7b3f e7ea 7a3f 6c57 7a3f
00000370: 38bc 793f 5219 793f c86e 783f a0bc 773f
00000380: ea02 773f ae41 763f fb78 753f dca8 743f
00000390: 5ed1 733f 90f2 723f 800c 723f 3a1f 713f
000003a0: d02a 703f 502f 6f3f ca2c 6e3f 5023 6d3f
000003b0: f012 6c3f bcfb 6a3f c6dd 693f 21b9 683f
000003c0: de8d 673f 105c 663f cc23 653f 24e5 633f
000003d0: 2da0 623f fb54 613f a303 603f 3aac 5e3f
000003e0: d74e 5d3f 8feb 5b3f 7882 5a3f aa13 593f
000003f0: 3c9f 573f 4525 563f dda5 543f 1c21 533f

mel_spec.mel_scale.fb f4 [201, 64]
0.0 0.0 0.0 0.0 0.0 0.0 0.0 0.0
0.0 0.0 0.0 0.0 0.0 0.0 0.0 0.0
0.0 0.0 0.0 0.0 0.0 0.0 0.0 0.0
0.0 0.0 0.0 0.0 0.0 0.0 0.0 0.0
0.0 0.0 0.0 0.0 0.0 0.0 0.0 0.0
0.0 0.0 0.0 0.0 0.0 0.0 0.0 0.0
0.0 0.0 0.0 0.0 0.0 0.0 0.0 0.0
0.0 0.0 0.0 0.0 0.0 0.0 0.0 0.0
0.0 0.0 0.0 0.0 0.0 0.0 0.0 0.0
0.0 0.0 0.0 0.0 0.0 0.0 0.0 0.0
0.0 0.0 0.0 0.0 0.0 0.0 0.0 0.0
0.0 0.0 0.0 0.0 0.0 0.0 0.0 0.0
0.0 0.0 0.0 0.0 0.0 0.0 0.0 0.0
0.0 0.0 0.0 0.0 0.0 0.0 0.0 0.0
0.0 0.0 0.0 0.0 0.0 0.0 0.0 0.0
0.0 0.0 0.0 0.0 0.0 0.0 0.0 0.0
0.0 0.0 0.0 0.0 0.0 0.0 0.0 0.0
0.0 0.0 0.0 0.0 0.0 0.0 0.0 0.0
0.0 0.0 0.0 0.0 0.0 0.0 0.0 0.0
0.0 0.0 0.0 0.0 0.0 0.0 0.0 0.0
0.0 0.0 0.0 0.0 0.0 0.0 0.0 0.0
0.0 0.0 0.0 0.0 0.0 0.0 0.0 0.0
0.0 0.0 0.0 0.0 0.0 0.0 0.0 0.0
0.0 0.0 0.0 0.0 0.0 0.0 0.0 0.0
0.0 0.0 0.0 0.0 0.0 0.0 0.0 0.0
0.0 0.0 0.0 0.0 0.0 0.0 0.0 0.0
0.0 0.0 0.0 0.0 0.0 0.0 0.0 0.0
0.0 0.0 0.0 0.0 0.0 0.0 0.0 0.0
0.0 0.0 0.0 0.0 0.0 0.0 0.0 0.0
0.0 0.0 0.0 0.0 0.0 0.0 0.0 0.0
0.0 0.0 0.0 0.0 0.0 0.0 0.0 0.0
0.0 0.0 0.0 0.0 0.0 0.0 0.0 0.0
00000000: 0000 0000 0000 0000 0000 0000 0000 0000
00000010: 0000 0000 0000 0000 0000 0000 0000 0000
00000020: 0000 0000 0000 0000 0000 0000 0000 0000
00000030: 0000 0000 0000 0000 0000 0000 0000 0000
00000040: 0000 0000 0000 0000 0000 0000 0000 0000
00000050: 0000 0000 0000 0000 0000 0000 0000 0000
00000060: 0000 0000 0000 0000 0000 0000 0000 0000
00000070: 0000 0000 0000 0000 0000 0000 0000 0000
00000080: 0000 0000 0000 0000 0000 0000 0000 0000
00000090: 0000 0000 0000 0000 0000 0000 0000 0000
000000a0: 0000 0000 0000 0000 0000 0000 0000 0000
000000b0: 0000 0000 0000 0000 0000 0000 0000 0000
000000c0: 0000 0000 0000 0000 0000 0000 0000 0000
000000d0: 0000 0000 0000 0000 0000 0000 0000 0000
000000e0: 0000 0000 0000 0000 0000 0000 0000 0000
000000f0: 0000 0000 0000 0000 0000 0000 0000 0000
00000100: 0000 0000 0000 0000 0000 0000 0000 0000
00000110: 0000 0000 0000 0000 0000 0000 0000 0000
00000120: 0000 0000 0000 0000 0000 0000 0000 0000
00000130: 0000 0000 0000 0000 0000 0000 0000 0000
00000140: 0000 0000 0000 0000 0000 0000 0000 0000
00000150: 0000 0000 0000 0000 0000 0000 0000 0000
00000160: 0000 0000 0000 0000 0000 0000 0000 0000
00000170: 0000 0000 0000 0000 0000 0000 0000 0000
00000180: 0000 0000 0000 0000 0000 0000 0000 0000
00000190: 0000 0000 0000 0000 0000 0000 0000 0000
000001a0: 0000 0000 0000 0000 0000 0000 0000 0000
000001b0: 0000 0000 0000 0000 0000 0000 0000 0000
000001c0: 0000 0000 0000 0000 0000 0000 0000 0000
000001d0: 0000 0000 0000 0000 0000 0000 0000 0000
000001e0: 0000 0000 0000 0000 0000 0000 0000 0000
000001f0: 0000 0000 0000 0000 0000 0000 0000 0000
00000200: 0000 0000 0000 0000 0000 0000 0000 0000
00000210: 0000 0000 0000 0000 0000 0000 0000 0000
00000220: 0000 0000 0000 0000 0000 0000 0000 0000
00000230: 0000 0000 0000 0000 0000 0000 0000 0000
00000240: 0000 0000 0000 0000 0000 0000 0000 0000
00000250: 0000 0000 0000 0000 0000 0000 0000 0000
00000260: 0000 0000 0000 0000 0000 0000 0000 0000
00000270: 0000 0000 0000 0000 0000 0000 0000 0000
00000280: 0000 0000 0000 0000 0000 0000 0000 0000
00000290: 0000 0000 0000 0000 0000 0000 0000 0000
000002a0: 0000 0000 0000 0000 0000 0000 0000 0000
000002b0: 0000 0000 0000 0000 0000 0000 0000 0000
000002c0: 0000 0000 0000 0000 0000 0000 0000 0000
000002d0: 0000 0000 0000 0000 0000 0000 0000 0000
000002e0: 0000 0000 0000 0000 0000 0000 0000 0000
000002f0: 0000 0000 0000 0000 0000 0000 0000 0000
00000300: 0000 0000 0000 0000 0000 0000 0000 0000
00000310: 0000 0000 0000 0000 0000 0000 0000 0000
00000320: 0000 0000 0000 0000 0000 0000 0000 0000
00000330: 0000 0000 0000 0000 0000 0000 0000 0000
00000340: 0000 0000 0000 0000 0000 0000 0000 0000
00000350: 0000 0000 0000 0000 0000 0000 0000 0000
00000360: 0000 0000 0000 0000 0000 0000 0000 0000
00000370: 0000 0000 0000 0000 0000 0000 0000 0000
00000380: 0000 0000 0000 0000 0000 0000 0000 0000
00000390: 0000 0000 0000 0000 0000 0000 0000 0000
000003a0: 0000 0000 0000 0000 0000 0000 0000 0000
000003b0: 0000 0000 0000 0000 0000 0000 0000 0000
000003c0: 0000 0000 0000 0000 0000 0000 0000 0000
000003d0: 0000 0000 0000 0000 0000 0000 0000 0000
000003e0: 0000 0000 0000 0000 0000 0000 0000 0000
000003f0: 0000 0000 0000 0000 0000 0000 0000 0000

phi.initial_conv_module.0._layers.0.conv.weight f4 [64, 64, 1]
0.0846488 0.110895716 -0.017384103 0.120460905 -0.01394191 0.038573746 -0.029303633 0.115706645
0.13857822 -0.03932939 0.13685362 0.07482877 0.15992776 0.069262706 0.10395157 0.009929447
0.12502368 0.046005454 -0.056454916 0.014251808 -0.065894805 -0.015579743 -0.0531231 0.09043609
-0.0929948 -0.04925232 -0.036794797 -0.08392843 -0.0021152054 -0.13970168 0.071217775 -0.13925593
0.06951147 -0.0317321 -0.07330899 0.08405445 0.017976142 0.09079565 0.011747335 -0.052982487
0.015111827 -0.060963526 0.009403776 0.10123512 0.06373996 -0.11279886 -0.012051084 -0.077252515
-0.038683973 -0.14691977 -0.18011115 -0.09281145 -0.14584137 0.03740285 -0.02922222 -0.005339929
0.011560163 -0.022056961 0.10012697 -0.09507133 -0.0018795014 -0.10116113 0.016876258 -0.07287197
0.03617711 -0.040527023 0.05752649 -0.11247779 -0.12095914 -0.14827456 0.011950987 -0.049816318
0.043277815 -0.15497823 -0.17439261 -0.1135621 -0.122429356 0.012736639 0.015932841 0.07130261
-0.08252098 -0.084279105 0.038023315 -0.053771336 0.086961634 -0.01558981 0.09818454 -0.05123769
-0.019701313 0.10626466 0.07415436 0.009777649 0.117638946 0.1559718 -0.008690068 -0.034619465
0.1552424 0.027658205 0.04938955 -0.0265326 0.013357808 0.086501196 0.06065571 -0.054671668
0.055384364 -0.061831318 -0.08577372 -0.056648795 -0.100030705 -0.093860105 0.09374924 -0.023899993
-0.054392524 -0.22672565 -0.1661788 -0.11790347 -0.028422436 -0.12397116 -0.052672215 -0.051422656
0.036546174 -0.008869517 0.0296092 -0.015824877 0.009578074 0.026115261 0.014441354 -0.02494821
0.104258314 -0.019237088 0.12245265 0.056355942 -0.09675948 0.08267439 -0.048416436 -0.05957225
-0.11369495 -0.12300903 0.049160827 -0.027153652 0.041810688 -0.09815007 0.08789411 -0.09930564
-0.028821502 0.02176013 0.02990537 0.06636341 0.08703707 -0.11221243 0.024085505 -0.07062134
-0.037936583 -0.12446058 0.08502224 -0.11851301 0.02875058 0.005064602 -0.0013187389 -0.09803948
0.09315965 0.011686608 0.010955455 -0.09680674 0.08118399 0.016337411 -0.047338773 0.10430572
0.02624326 -0.050016824 -0.032346006 0.009910626 0.083853796 -0.030453736 -0.09787803 -0.092350334
-0.15627864 -0.019279059 0.043127667 -0.13131166 0.061050072 0.14015535 0.08816946 0.022089574
0.117834434 0.12117579 0.08860481 0.029426701 0.035345737 0.07990441 0.040068734 0.027966458
0.07163643 0.08862657 -0.07518013 -0.13643603 -0.097633496 -0.084854476 -0.028306605 -0.02819602
-0.18774694 -0.07301473 0.13834526 0.04940196 -0.024747651 -0.08955457 -0.11274946 -0.15420912
-0.042895027 0.010799912 0.02477915 0.027444307 -0.13950634 -0.09790937 -0.049977604 0.07796543
0.0029329967 -0.041945625 0.051474158 -0.048437342 -0.12242527 0.07050799 -0.038678527 -0.020900914
-0.10519454 0.11576903 0.10224713 0.0521901 -0.058053944 -0.081993096 -0.06567531 0.12926528
0.07899712 0.10683255 0.06599411 0.040949095 0.011721006 -0.101996295 -0.13043651 -0.13495897
-0.01016265 -0.10379828 -0.028965225 -0.067318454 -0.015156156 -0.07128582 -0.046125576 0.101927914
0.026515858 0.12668762 -0.015158517 -0.053739466 0.06305789 0.008807467 0.036965262 -0.051536422
00000000: 5a5c ad3d 4b1d e33d 1b69 8ebc 35b4 f63d
00000010: 9c6c 64bc 81ff 1d3d 2c0e f0bc 9bf7 ec3d
00000020: 73e7 0d3e db17 21bd 5b23 0c3e d33f 993d
00000030: 1ac4 233e 9bd9 8d3d 90e4 d43d 1faf 223c
00000040: 3506 003e 3770 3c3d 453d 67bd 6a80 693c
00000050: dbf3 86bd 2e42 7fbc 9c97 59bd 8f36 b93d
00000060: 0f74 bebd cdbc 49bd 24b6 16bd abe2 abbd
00000070: 429f 0abb f50d 0fbe a0da 913d 1b99 0ebe
00000080: 085c 8e3d 85f9 01bd 0623 96bd bd24 ac3d
00000090: b442 933c 12f3 b93d e577 403c 2a04 59bd
000000a0: 9997 773c e4b4 79bd 4c12 1a3c 5c54 cf3d
000000b0: 198a 823d 1703 e7bd e971 45bc 9136 9ebd
000000c0: 1673 1ebd 2372 16be 0f6f 38be ee13 bebd
000000d0: 7157 15be bb33 193d 7063 efbc 92fa aebb
000000e0: d766 3d3c cdb0 b4bc 5e0f cd3d c2b4 c2bd
000000f0: 9a59 f6ba 912d cfbd 1440 8a3c e63d 95bd
00000100: 732e 143d aaff 25bd e6a0 6b3d c15a e6bd
00000110: 6db9 f7bd 49d5 17be 13ce 433c 320c 4cbd
00000120: 1444 313d 9db2 1ebe fa93 32be 3f93 e8bd
00000130: 3ebc fabd 56ad 503c 9785 823c 1a07 923d
00000140: c200 a9bd 869a acbd 56be 1b3d 553f 5cbd
00000150: f118 b23d 676c 7fbc fa14 c93d 9dde 51bd
00000160: a664 a1bc 49a1 d93d 3ede 973d 6f32 203c
00000170: b0ec f03d 12b7 1f3e c960 0ebc 24cd 0dbd
00000180: ddf7 1e3e 7693 e23c b24c 4a3d e55a d9bc
00000190: b5da 5a3c 8a27 b13d 1f72 783d 66ef 5fbd
000001a0: b7da 623d d642 7dbd 22aa afbd 9108 68bd
000001b0: e6dc ccbd ba39 c0bd 9aff bf3d ebc9 c3bc
000001c0: b2ca 5ebd c52a 68be c62a 2abe 6077 f1bd
000001d0: 2bd6 e8bc 97e4 fdbd d2be 57bd 90a0 52bd
000001e0: 71b1 153d 7351 11bc fe8e f23c 2ca3 81bc
000001f0: 5bed 1c3c acef d53c 6e9b 6c3c 3060 ccbc
00000200: 6285 d53d 1997 9dbc 74c8 fa3d 7dd5 663d
00000210: d629 c6bd 3151 a93d 5050 46bd 0802 74bd
00000220: e6d8 e8bd 29ec fbbd dd5c 493d 5671 debc
00000230: af41 2b3d e702 c9bd d401 b43d c160 cbbd
00000240: 121b ecbc 4d42 b23c 1bfc f43c 8ae9 873d
00000250: 7e40 b23d a1cf e5bd f74e c53c eca1 90bd
00000260: 6463 1bbd 30e5 febd 2420 ae3d f3b6 f2bd
00000270: 5686 eb3c f6f4 a53b 89d9 acba ecc8 c8bd
00000280: 7dca be3d 3079 3f3c 827e 333c 9d42 c6bd
00000290: cb43 a63d 09d6 853c 4de6 41bd 3d9e d53d
000002a0: 1bfc d63c 71de 4cbd 3f7d 04bd 2e60 223c
000002b0: 8abb ab3d 1d7a f9bc 4774 c8bd 2c22 bdbd
000002c0: 8207 20be 1eef 9dbc a3a6 303d 9076 06be
000002d0: a40f 7a3d e284 0f3e 3192 b43d 32f5 b43c
000002e0: 2e53 f13d 032b f83d 7076 b53d 4410 f13c
000002f0: b1c6 103d eca4 a33d 1d1f 243d ea19 e53c
00000300: 1fb6 923d d981 b53d 0af8 99bd e3b5 0bbe
00000310: 12f4 c7bd 2fc8 adbd 41e3 e7bc 57fb e6bc
00000320: bc40 40be bf88 95bd 61aa 0d3e b659 4a3d
00000330: 96bb cabc 6368 b7bd 30e9 e6bd ffe8 1dbe
00000340: b2b2 2fbd 1df2 303c a5fd ca3c e2d2 e03c
00000350: c0da 0ebe b584 c8bd 51b5 4cbd 57ac 9f3d
00000360: 8537 403b 2dcf 2bbd 91d6 523d 3c66 46bd
00000370: 1aba fabd 7e66 903d 606d 1ebd 6538 abbc
00000380: 3c70 d7bd 5018 ed3d f166 d13d 49c5 553d
00000390: f9c9 6dbd ffeb a7bd c780 86bd 1e5e 043e
000003a0: 3ec9 a13d 06cb da3d ec27 873d 3dba 273d
000003b0: 7609 403c 6fe3 d0bd 2691 05be af32 0abe
000003c0: 3e81 26bc 3194 d4bd 7b48 edbc 42de 89bd
000003d0: 8751 78bc 4dfe 91bd 2cee 3cbd 95bf d03d
000003e0: c937 d93c 66ba 013e 6e5b 78bc ea1d 5cbd
000003f0: 7f24 813d 324d 103c e368 173d db17 53bd

phi.initial_conv_module.0._layers.1.weight f4 [64]
1.027303 0.90613747 1.0071392 1.0670841 0.9744913 0.89472824 0.92775446 0.9768195
1.0240296 1.0833366 1.0705506 1.0310297 0.96651864 0.9442634 0.9060804 0.9869245
0.8967609 0.98306227 0.95043874 0.96099794 1.0770129 1.0198336 0.98449445 0.94315076
0.99570185 0.96879435 0.955158 1.0300838 1.0335816 1.0606248 1.0011156 0.9783238
0.9137335 0.99545777 1.0531938 0.9426786 1.0097156 1.0344844 0.9604988 0.9571822
0.9960402 1.0007874 0.9703796 0.94681233 0.99826795 0.9144035 1.0243794 1.0383972
0.9830609 0.96769077 1.0107831 0.9564143 0.9748139 0.97943985 1.0928888 1.0261865
0.96619123 1.045611 0.97338516 1.012046 0.9682498 0.97076935 1.0535146 1.0561303
00000000: aa7e 833f a0f8 673f f0e9 803f 3696 883f
00000010: 4378 793f e90c 653f 5181 6d3f d810 7a3f
00000020: 6713 833f c6aa 8a3f cd07 893f c8f8 833f
00000030: c46d 773f 3fbb 713f e3f4 673f 16a7 7c3f
00000040: 1f92 653f f8a9 7b3f f44f 733f f603 763f
00000050: 8fdb 893f e889 823f d407 7c3f 5472 713f
00000060: 51e6 7e3f e802 783f 3c85 743f c9d9 833f
00000070: 674c 843f 8ec2 873f 8e24 803f 6e73 7a3f
00000080: 70ea 693f 52d6 7e3f 0ecf 863f 6253 713f
00000090: 5c3e 813f fc69 843f 40e3 753f e509 753f
000000a0: 7efc 7e3f cd19 803f cc6a 783f 4b62 723f
000000b0: 7d8e 7f3f 5916 6a3f dd1e 833f 33ea 843f
000000c0: e1a9 7b3f 95ba 773f 5761 813f 91d7 743f
000000d0: 678d 793f 92bc 7a3f c8e3 8b3f 145a 833f
000000e0: 4f58 773f 95d6 853f c52f 793f b98a 813f
000000f0: 38df 773f 5784 783f 91d9 863f 472f 873f

phi.initial_conv_module.0._layers.1.bias f4 [64]
0.01826063 0.022800194 -0.02476134 0.053270668 0.0059687546 0.06580151 0.10522217 0.073176675
-0.051562317 0.020907806 -0.0386809 -0.0011857084 -0.028801773 -0.08436996 0.0907928 0.02098833
0.047897864 0.009113862 0.014068215 0.05996629 -0.0048676506 -0.003441209 0.0286562 -0.010231337
0.0076541826 0.032425903 -0.014577425 -0.05164935 -0.007972323 0.017217714 -0.027220111 0.027593467
0.016244963 0.05830898 -0.0012406347 -0.02078 -0.039026204 -0.015063666 0.039843753 0.03791371
0.012779889 -0.063395455 0.047533303 0.03515449 0.015131266 -0.05361994 0.046211716 0.004166421
-0.033779368 -0.0012898579 0.038333204 0.054504123 0.013723221 0.0015778748 -0.051622197 -0.023728535
-0.016564785 -0.026574751 0.034355823 0.043105703 0.10761878 0.027177652 -0.036791187 0.054316793
00000000: 5197 953c 79c7 ba3c 4bd8 cabc 5832 5a3d
00000010: 8b95 c33b f1c2 863d b97e d73d a7dd 953d
00000020: 0233 53bd d946 ab3c dd6f 1ebd c669 9bba
00000030: b2f1 ebbc 28ca acbd 93f1 b93d b8ef ab3c
00000040: 8d30 443d 4f52 153c 5f7e 663c 369f 753d
00000050: d080 9fbb e885 61bb 68c0 ea3c 56a1 27bc
00000060: f0cf fa3b 06d1 043d 27d6 6ebc 458e 53bd
00000070: 599e 02bc 2a0c 8d3c b6fc debc b20b e23c
00000080: 2814 853c 66d5 6e3d cb9c a2ba d23a aabc
00000090: f1d9 1fbd 98cd 76bc 3433 233d 684b 1b3d
000000a0: bd62 513c 7ad5 81bd 48b2 423d 28fe 0f3d
000000b0: 21e9 773c 95a0 5bbd 7f48 3d3d 7986 883b
000000c0: 3c5c 0abd 7310 a9ba 4703 1d3d b73f 5f3d
000000d0: 5cd7 603c b1d0 ce3a cc71 53bd 5862 c2bc
000000e0: dfb2 87bc 4bb3 d9bc b1b8 0c3d 9b8f 303d
000000f0: 3c67 dc3d aba3 de3c 5bb2 16bd 497b 5e3d

phi.initial_conv_module.0._layers.1.running_mean f4 [64]
0.22152027 0.25771272 -0.31342527 -0.05828132 -0.45169178 -0.14348102 -0.14743994 -0.14308813
0.55336225 0.40049785 0.22607476 0.30672526 -0.10698212 -0.13810477 0.11763828 0.23321746
-0.0337964 -0.0075436244 -0.28429508 -0.14589834 -0.21345897 0.532086 -0.09386272 -0.31611073
0.14715211 -0.18372431 -0.14167069 0.67894846 -0.1769899 0.46175864 -0.39580202 -0.21854399
-0.10916079 0.006887716 0.15642406 0.20175293 0.4160439 -0.2994067 0.28775635 0.04126899
0.3252828 -0.2265525 -0.38769323 0.08094389 -0.20921436 -0.20498982 -0.2070113 0.014942536
0.09592066 -0.4110935 0.40217417 0.40183187 -0.32631302 0.17284161 -0.16635133 0.017276196
-0.2588539 0.07715508 -0.1621299 0.13826723 0.2782451 0.59273314 -0.27057102 0.4118257
00000000: 36d6 623e ecf2 833e 4779 a0be 65b8 6ebd
00000010: 2544 e7be b0ec 12be 7ffa 16be b285 12be
00000020: 26a9 0d3f 0e0e cd3e 2480 673e 180b 9d3e
00000030: 7119 dbbd 566b 0dbe 57ec f03d 8fd0 6e3e
00000040: 186e 0abd 8230 f7bb 208f 91be 6066 15be
00000050: fd94 5abe ca36 083f 193b c0bd 44d9 a1be
00000060: 0baf 163e 3a22 3cbe 1f12 11be 91cf 2d3f
00000070: d73c 35be a16b ec3e 90a6 cabe ffc9 5fbe
00000080: b18f dfbd 59b2 e13b a12d 203e 5298 4e3e
00000090: b503 d53e d64b 99be cd54 933e ac09 293d
000000a0: 788b a63e 61fd 67be ba7f c6be e9c5 a53d
000000b0: 4a3c 56be dae8 51be c5fa 53be 8ad1 743c
000000c0: 0d72 c43d d97a d2be c6e9 cd3e e8bc cd3e
000000d0: 8012 a7be 64fd 303e 0158 2abe cf86 8d3c
000000e0: 8088 84be 7c03 9e3d 6105 26be ed95 0d3e
000000f0: 2476 8e3e 5cbd 173f 4988 8abe d1da d23e

phi.initial_conv_module.0._layers.1.running_var f4 [64]
0.7897102 1.0741812 0.13964579 0.8747229 0.29279086 0.3132406 0.37374055 0.8281512
0.22406729 0.8051854 1.18927 0.8966633 2.9421175 1.4690512 1.0961316 0.39875147
1.1845734 0.44190556 0.8212536 0.5687866 1.6015785 0.96958464 0.33884925 2.4478858
0.5044235 0.66386485 0.876086 0.22287835 1.1859914 0.630232 0.79234564 2.0838802
0.4151515 1.4720496 0.7016399 3.1329088 0.49658945 0.8060689 0.3459347 0.45846665
1.0891387 2.44227 2.3014705 0.8830564 1.387514 2.1027713 0.7452573 0.5837795
1.1154228 0.90354097 0.37963793 0.52278376 0.20156577 0.33632222 0.49388218 0.6137042
0.3257212 0.50409657 1.4620054 1.3252683 1.0209419 0.43073675 0.47273338 1.0022919
00000000: 732a 4a3f c57e 893f 4eff 0e3e d7ed 5f3f
00000010: afe8 953e 1261 a03e ec5a bf3e b801 543f
00000020: e571 653e a120 4e3f 003a 983f ba8b 653f
00000030: a74b 3c40 df09 bc3f 0a4e 8c3f 2729 cc3e
00000040: 1aa0 973f 7241 e23e ad3d 523f 009c 113f
00000050: 8600 cd3f b336 783f a67d ad3e 29aa 1c40
00000060: e621 013f 0cf3 293f 2c47 603f 393a 643e
00000070: 91ce 973f e256 213f 2ad7 4a3f 4b5e 0540
00000080: bd8e d43e 1f6c bc3f ac9e 333f 9481 4840
00000090: f940 fe3e 885a 4e3f 5a1e b13e 24bc ea3e
000000a0: e668 8b3f 274e 1c40 4b4b 1340 fc0f 623f
000000b0: 0f9a b13f ce93 0640 2fc9 3e3f 9372 153f
000000c0: 2dc6 8e3f 764e 673f e75f c23e 28d5 053f
000000d0: 4267 4e3e 6d32 ac3e 20de fc3e b81b 1d3f
000000e0: eec4 a63e 790c 013f fe22 bb3f 64a2 a93f
000000f0: 39ae 823f 8789 dc3e 1c0a f23e 1a4b 803f

phi.initial_conv_module.0._layers.4.conv.weight f4 [64, 1, 5]
-0.34515062 0.36363512 0.34510434 0.32829744 -0.15570728 0.23767817 -0.43237755 0.19065607
-0.066739306 -0.36755988 -0.39767447 -0.34285155 0.051848486 -0.24512056 -0.20557682 0.4500923
-0.19257101 0.119042814 -0.0951483 0.22954102 0.11094589 0.28415382 0.053867113 -0.13714467
0.406063 -0.028947385 -0.24124408 0.16807173 -0.04835775 -0.34802055 -0.0113033075 -0.15934163
-0.20096172 -0.17765774 -0.2123238 -0.2101608 0.005032844 0.40149364 -0.28522044 -0.25439474
-0.32029557 -0.03435039 0.0066918097 -0.30916125 0.20959486 -0.38694707 0.43711406 0.10276906
-0.023533393 -0.13492797 0.21597277 0.40164563 -0.2700793 -0.10243972 0.27788684 -0.08683781
-0.27893186 -0.19234106 0.024287483 -0.10195621 -0.26642075 -0.25625402 0.157198 0.34991804
0.42258477 -0.05557442 0.176007 -0.31122386 0.24301279 0.513606 0.27798316 -0.1423801
0.39672434 -0.39018738 -0.02676762 -0.17150408 -0.46672392 -0.17889105 -0.31989533 0.12270751
-0.028135644 0.23658834 -0.041363887 0.35032427 0.06413832 0.30936956 0.32726163 -0.4297434
-0.36623192 0.21326846 0.4605248 -0.38779572 0.0247431 -0.18386286 0.3624171 0.38334098
0.32034323 0.25547698 -0.06274376 0.39480567 -0.18108974 0.06491768 -0.101495676 -0.34430093
-0.21151736 0.056580808 -0.078240275 -0.33721167 -0.044118635 0.07813918 -0.27166823 0.31621656
-0.32961953 0.048162233 -0.3681255 -0.43241477 -0.10834233 0.38605824 0.37225118 0.15666026
0.3655193 -0.2518907 0.2679464 0.3092397 -0.3871574 -0.37831149 0.15062836 -0.030783506
-0.31900612 -0.38194364 0.39589813 0.15252897 0.06493126 -0.38066328 0.38952225 -0.21133584
0.33013275 -0.002910085 0.04012304 0.21841772 -0.106414825 -0.11637197 0.37663856 -0.333306
0.20652664 -0.10974843 -0.124594405 0.32164606 0.10505281 -0.39160085 0.4338496 -0.26588982
0.3565981 -0.17757832 0.37130597 0.1059358 -0.036501177 0.1480475 -0.06243812 -0.2632011
0.24455008 0.31991827 -0.1510569 0.37798333 -0.0448368 -0.24496451 -0.25883996 0.2665006
-0.1910544 0.2932284 -0.42445046 0.0220622 -0.34060732 0.16499078 0.35394353 0.11290816
-0.22260384 -0.4596814 -0.19279847 -0.2803636 0.3926673 -0.21686557 0.20070957 0.41065112
0.18730552 -0.33193976 -0.012209322 -0.070960246 0.35504884 0.026886342 0.039999224 0.44153067
0.065020695 0.16627216 -0.17368942 0.2265252 -0.00089717587 -0.13772649 0.060567886 -0.4185366
0.026904065 0.21188913 -0.4248844 -0.23896885 0.26875165 -0.03434758 -0.07919339 0.01000447
-0.23352522 0.34039748 -0.06747126 -0.18205139 0.25671983 -0.34133887 -0.020849545 -0.014534523
-0.17899473 0.18212451 -0.44990256 -0.15595463 -0.10472557 0.48810157 0.19970894 -0.3011347
0.19048086 -0.025062794 0.45364076 0.2724885 -0.29087478 0.3280161 -0.09777103 -0.115533985
0.10274251 0.49875805 0.09695998 -0.37402302 -0.08425892 0.47271746 -0.1357575 -0.15896028
-0.33983317 -0.23171079 -0.19896345 0.14290115 0.20724949 0.46291357 0.29074806 -0.015120607
0.22595277 0.22878057 -0.38469493 0.25542834 -0.28073138 0.35344946 -0.18030003 0.055430897
00000000: 95b7 b0be 622e ba3e 84b1 b03e 9a16 a83e
00000010: bb71 1fbe e861 733e 9760 ddbe 583b 433e
00000020: 9eae 88bd cf30 bcbe fd9b cbbe 3d8a afbe
00000030: 145f 543d e200 7bbe bb82 52be 7f72 e63e
00000040: 5631 45be b8cc f33d 1ddd c2bd cd0c 6b3e
00000050: 9937 e33d 9c7c 913e c3a3 5c3d a76f 0cbe
00000060: 7de7 cf3e 1123 edbc b008 77be ff1a 2c3e
00000070: c712 46bd c02f b2be 8231 39bc 742a 23be
00000080: e9c8 4dbe e9eb 35be 696b 59be 6534 57be
00000090: 8eea a43b 9390 cd3e 6a08 92be 0740 82be
000000a0: c8fd a3be ffb2 0cbd f846 db3b 624a 9ebe
000000b0: 09a0 563e ed1d c6be 6acd df3e 9678 d23d
000000c0: 1ac9 c0bc 8f2a 0abe f727 5d3e 7fa4 cd3e
000000d0: d647 8abe eacb d1bd 2f47 8e3e 06d8 b1bd
000000e0: 28d0 8ebe 0ef5 44be 8bf6 c63c 6bce d0bd
000000f0: 4d68 88be ba33 83be 83f8 203e 7528 b33e
00000100: 085d d83e 01a2 63bd 2e3b 343e bc58 9fbe
00000110: 58d8 783e af7b 033f cf53 8e3e 17cc 11be
00000120: 741f cb3e a4c6 c7be c547 dbbc c49e 2fbe
00000130: 70f6 eebe 372f 37be 52c9 a3be 134e fb3d
00000140: b97c e6bc 3744 723e 2e6d 29bd b45d b33e
00000150: f45a 833d b065 9e3e d68e a73e 5407 dcbe
00000160: c082 bbbe 0c63 5a3e e8c9 eb3e 298d c6be
00000170: 0bb2 ca3c 8c46 3cbe bc8e b93e 4545 c43e
00000180: 0704 a43e e1cd 823e cd7f 80bd f823 ca3e
00000190: 976f 39be 90f3 843d f7dc cfbd 3648 b0be
000001a0: 0298 58be 47c1 673d 703c a0bd 02a7 acbe
000001b0: beb5 34bd 6f07 a03d 1918 8bbe 23e7 a13e
000001c0: e4c3 a8be c345 453d f27a bcbe 7865 ddbe
000001d0: 95e2 ddbd 6da9 c53e b597 be3e 8c6b 203e
000001e0: 5825 bb3e d1f7 80be 4530 893e aa54 9e3e
000001f0: 7f39 c6be 0bb2 c1be 523e 1a3e b12d fcbc
00000200: c554 a3be 1e8e c3be 29b3 ca3e 8e30 1c3e
00000210: aefa 843d 4ce6 c2be 766f c73e 6c68 58be
00000220: 2907 a93e 20b7 3ebb 0f58 243d e5a8 5f3e
00000230: 04f0 d9bd 6d54 eebd c5d6 c03e 16a7 aabe
00000240: b87b 533e c9c3 e0bd 5a2b ffbd cbae a43e
00000250: ed25 d73d e87f c8be 8921 de3e b622 88be
00000260: 0794 b63e 17d7 35be d11b be3e def4 d83d
00000270: 4282 15bd c499 173e 1dbf 7fbd 4bc2 86be
00000280: 566b 7a3e 54cc a33e a9ae 1abe 0887 c13e
00000290: cba6 37bd fad7 7abe ac86 84be c472 883e
000002a0: c4a3 43be 0822 963e 9251 d9be c9bb b43c
000002b0: 1564 aebe 58f3 283e 1638 b53e 653c e73d
000002c0: 43f2 63be 5c5b ebbe f66c 45be d18b 8fbe
000002d0: b00b c93e 0212 5ebe cf86 4d3e dd40 d23e
000002e0: 05cd 3f3e 02f4 a9be 9c09 48bc 9b53 91bd
000002f0: f6c8 b53e bf40 dc3c 3ad6 233d 4f10 e23e
00000300: 9229 853d 4043 2a3e a4db 31be 39f6 673e
00000310: 7430 6bba 2c08 0dbe 0816 783d 6e4a d6be
00000320: ea65 dc3c 77f9 583e 738a d9be 40b4 74be
00000330: d199 893e 0cb0 0cbd 2530 a2bd cae9 233c
00000340: 3c21 6fbe 9448 ae3e 5f2e 8abd ae6b 3abe
00000350: c870 833e f8c3 aebe aacc aabc 3522 6ebc
00000360: 654a 37be d97e 3a3e a159 e6be 92b2 1fbe
00000370: 5c7a d6bd 73e8 f93e 8080 4c3e 542e 9abe
00000380: 6a0d 433e 7d50 cdbc 9a43 e83e 9d83 8b3e
00000390: 8aed 94be baf1 a73e 2e3c c8bd 159d ecbd
000003a0: aa6a d23d 375d ff3e f492 c63d f27f bfbe
000003b0: f18f acbd 0608 f23e 0404 0bbe 7cc6 22be
000003c0: 9dfe adbe 9845 6dbe 13bd 4bbe ae54 123e
000003d0: 3639 543e 0203 ed3e eedc 943e 6cbc 77bc
000003e0: 2a60 673e 7445 6a3e bcf6 c4be 81c7 823e
000003f0: 06bc 8fbe 54f7 b43e 92a0 38be 820b 633d

phi.initial_conv_module.0._layers.5.weight f4 [64]
0.998618 1.0457214 0.9600344 1.0206805 0.958758 1.0533693 1.1015973 1.0180882
1.0633771 1.0746094 0.929561 0.9926129 0.9976362 0.94368196 1.0229622 1.103914
0.9784607 0.97458386 0.99913245 0.979831 0.96495885 0.9585155 0.9827139 0.9589376
1.0144093 1.0513806 0.9748477 1.0101364 1.0292957 1.045785 0.9348026 1.0490537
0.9749084 0.9953659 1.0163172 1.0412742 0.954392 1.0843979 1.0089502 1.0352966
0.9245101 0.97095686 1.0527169 1.0190519 0.99301505 0.9792311 1.050104 1.0547848
1.0398787 0.91983384 1.0015526 1.0217117 1.009559 1.028297 0.95448387 1.0350497
1.0380799 1.0285432 1.0766671 1.0728958 0.9583952 0.9553181 1.0106783 0.97258323
00000000: 6ea5 7f3f 33da 853f d0c4 753f a9a5 823f
00000010: 2a71 753f ced4 863f 2401 8d3f b750 823f
00000020: be1c 883f cd8c 893f b6f7 6d3f e11b 7e3f
00000030: 1665 7f3f 2495 713f 6df0 823f 0e4d 8d3f
00000040: 677c 7a3f 547e 793f 25c7 7f3f 34d6 7a3f
00000050: 8b07 773f 4661 753f 2393 7b3f ef7c 753f
00000060: 2ad8 813f a493 863f 9e8f 793f 264c 813f
00000070: f6bf 833f 48dc 853f 394f 6f3f 6447 863f
00000080: 9993 793f 4dd0 7e3f af16 823f 7948 853f
00000090: 0953 743f 8dcd 8a3f 4825 813f 9984 843f
000000a0: b2ac 6c3f a190 783f 6dbf 863f 4b70 823f
000000b0: 3c36 7e3f e4ae 7a3f cf69 863f 3003 873f
000000c0: bf1a 853f 3b7a 6b3f e032 803f 73c7 823f
000000d0: 3b39 813f 3c9f 833f 0e59 743f 827c 843f
000000e0: cddf 843f 4ea7 833f 3ad0 893f a654 893f
000000f0: 6359 753f ba8f 743f e85d 813f 37fb 783f

phi.initial_conv_module.0._layers.5.bias f4 [64]
-0.010241502 -0.017157435 0.008599072 0.02166217 -0.06758544 -0.0048544644 0.033845894 -0.008677701
0.052960265 -0.01750535 -0.058391277 -0.0009708067 0.016597984 -0.041354552 -0.0045149894 0.050000694
-0.031533007 -0.050544668 0.04218454 0.011379729 0.01437626 -0.03540608 -0.05373807 -0.032069087
0.011267078 -0.01480324 0.021443833 0.02779037 0.024568137 -0.00865531 -0.047081955 0.03518767
0.011748832 0.054999974 0.054710325 0.089392506 -0.07940158 0.102762766 0.052194636 0.060576648
-0.05575919 -0.02723059 0.06534635 0.0800908 0.03856955 -0.021730136 0.08146581 0.03429624
0.013839246 -0.06414777 0.034391902 0.037073355 -0.011175047 5.2116324e-05 -0.0912025 0.013136421
0.038745515 -0.07548738 -0.014269925 0.055745624 -0.0035842655 -0.06842007 0.0026504016 -0.027422778
00000000: f9cb 27bc c08d 8cbc 1fe3 0c3c dd74 b13c
00000010: 3c6a 8abd 3312 9fbb fea1 0a3d ea2c 0ebc
00000020: ddec 583d 6167 8fbc b12b 6fbd bc7d 7eba
00000030: 7ff8 873c 6463 29bd 7af2 93bb 87cd 4c3d
00000040: c128 01bd ed07 4fbd b2c9 2c3d 0b72 3a3c
00000050: 688a 6b3c f705 11bd 731c 5cbd e05a 03bd
00000060: 8d99 383c 4a89 72bc faaa af3c a1a8 e33c
00000070: 1e43 c93c 00cf 0dbc 02d9 40bd f220 103d
00000080: 2c7e 403c a747 613d ef17 603d 6b13 b73d
00000090: 4c9d a2bd 4975 d23d 0bca 553d 381f 783d
000000a0: c063 64bd b012 dfbc 4fd4 853d a506 a43d
000000b0: 1bfb 1d3d 6603 b2bc 8cd7 a63d 377a 0c3d
000000c0: 01be 623c e85f 83bd 86de 0c3d 3bda 173d
000000d0: 8b17 37bc 7a97 5a38 60c8 babd 253a 573c
000000e0: 9eb3 1e3d 2199 9abd 67cc 69bc 8655 643d
000000f0: ffe5 6abb d21f 8cbd 5cb2 2d3b bca5 e0bc

phi.initial_conv_module.0._layers.5.running_mean f4 [64]
0.10079797 -0.06467592 -0.18090345 0.08891876 0.11809866 -0.08095637 -0.15649308 -0.02122561
-0.0602581 -0.00023074026 0.082860395 -0.102601215 0.052525014 0.06301394 0.016173486 0.023201067
0.0901526 0.0030624818 0.040458154 0.23367795 -0.11629644 -0.04460763 -0.09883317 0.04786727
0.04364503 -0.1666131 0.08164478 0.049463704 0.005762821 -0.040476575 0.08672911 -0.01960221
0.08550259 -0.023568664 -0.043603938 -0.1107683 0.18750155 -0.0046254243 0.09634455 -0.04734366
-0.023196276 0.003360576 -0.03589119 -0.10052935 0.02143447 0.07205817 0.09033173 -0.051742587
-0.038701776 0.13440616 -0.045083392 -0.02285991 -0.096187554 -0.05419147 -0.02937366 -0.013991661
0.04143254 -0.0067135044 -0.0032209028 -0.026000395 0.12131782 -0.09451716 0.08908755 0.034596127
00000000: 2b6f ce3d cf74 84bd c13e 39be 0a1b b63d
00000010: b6dd f13d 74cc a5bd b93f 20be 55e1 adbc
00000020: 33d1 76bd def2 71b9 b6b2 a93d 9620 d2bd
00000030: 7824 573d 740d 813d 427e 843c 2a10 be3c
00000040: eda1 b83d ebb3 483b 73b7 253d 4649 6f3e
00000050: d42c eebd 7eb6 36bd 0c69 cabd 7810 443d
00000060: 22c5 323d a09c 2abe 6135 a73d 749a 4a3d
00000070: 0cd6 bc3b c4ca 25bd 089f b13d d094 a0bc
00000080: fb1b af3d 1213 c1bc 0b9a 32bd 7eda e2bd
00000090: 6800 403e df90 97bb 4b50 c53d 6deb 41bd
000000a0: 1e06 bebc 1c3d 5c3b a402 13bd 55e2 cdbd
000000b0: 5797 af3c 3c93 933d d8ff b83d 09f0 53bd
000000c0: c185 1ebd c5a1 093e 5da9 38bd b544 bbbc
000000d0: fbfd c4bd e0f7 5dbd 08a1 f0bc 483d 65bc
000000e0: 2bb5 293d f5fc dbbb c815 53bb c8fe d4bc
000000f0: 7a75 f83d 3692 c1bd 8973 b63d abb4 0d3d

phi.initial_conv_module.0._layers.5.running_var f4 [64]
0.19003074 0.07691979 0.3482838 0.16816239 0.17166543 0.10949058 0.25044575 0.0033930372
0.089765586 0.03083844 0.076111294 0.06673274 0.15874496 0.09836917 0.016095845 0.05188275
0.08354148 0.042565443 0.032291133 0.45929992 0.42125574 0.060181763 0.17648572 0.12742363
0.062246874 0.3134088 0.13878655 0.029637968 0.007857534 0.030429065 0.29732257 0.013948123
0.016602512 0.037616044 0.09646825 0.6551238 0.10600066 0.08508799 0.059659436 0.05992746
0.022822656 0.0049562394 0.030575678 0.17714275 0.06506581 0.117231146 0.086634986 0.058012445
0.106280535 0.8705986 0.023503114 0.014200611 0.28825256 0.022084244 0.05045706 0.02460842
0.00966604 0.01842213 0.011627009 0.024082245 0.16475411 0.050883252 0.18156865 0.020536669
00000000: 6b97 423e 1f88 9d3d 4152 b23e c332 2c3e
00000010: 10c9 2f3e 993c e03d 6d3a 803e b85d 5e3b
00000020: 05d7 b73d e5a0 fc3c 3de0 9b3d 2dab 883d
00000030: 0a8e 223e c775 c93d 6fdb 833c 0283 543d
00000040: cc17 ab3d 1a59 2e3d b543 043d 5c29 eb3e
00000050: d5ae d73e 2781 763d acb8 343e 577b 023e
00000060: 94f6 7e3d 1e77 a03e 101e 0e3e 53cb f23c
00000070: e3bc 003c 6046 f93c aa3a 983e ab86 643c
00000080: fe01 883c 4813 1a3d 2591 c53d 31b6 273f
00000090: e016 d93d 9d42 ae3d 745d 743d 7f76 753d
000000a0: 94f6 ba3c f367 a23b d879 fa3c e964 353e
000000b0: 3941 853d e216 f03d af6d b13d 759e 6d3d
000000c0: 9ca9 d93d 8ddf 5e3f 9a89 c03c aea9 683c
000000d0: d795 933e 04ea b43c 10ac 4e3d 9997 c93c
000000e0: 4f5e 1e3c 02ea 963c 367f 3e3c 2148 c53c
000000f0: 4db5 283e f56a 503d 22ed 393e 843c a83c

phi.initial_conv_module.0._layers.7.se_conv.conv.weight f4 [10, 64, 1]
0.08224711 -0.10820983 -0.114120856 -0.0020353037 -0.11223137 -0.13228133 -0.13751723 0.042956844
-0.00711505 -0.09485921 -0.0021264225 -0.10834295 -0.11330007 -0.11107249 -0.1558137 0.115508735
-0.046630707 -0.039498456 -0.0751849 0.024007427 -0.034603104 -0.10357455 0.07037925 0.1165096
-0.11317535 0.057358466 -0.01275795 -0.0072742854 0.009373458 -0.052418564 0.09853134 0.027497618
-0.033686005 -0.11032483 -0.15557718 -0.0052696317 -0.119631395 -0.15067399 -0.12916373 -0.15380737
-0.15405017 0.14174654 0.00090009975 0.053678695 -0.044281527 -0.027459731 -0.04494404 -0.022570943
-0.089599915 -0.0201871 -0.110142685 0.0028964474 0.062228434 0.015225252 0.038718075 -0.11362031
-0.059480008 -0.15442154 -0.07031604 -0.08822637 -0.05766463 -0.13676782 -0.041498177 0.036947384
-0.07077488 -0.08930502 0.07142193 0.083722115 -0.04707929 -0.0050956896 0.09937976 -0.15558131
-0.07377067 0.009637795 0.01402391 0.09843244 -0.025125593 0.027707784 0.050962746 -0.026232725
-0.010391256 -0.15917306 -0.006044759 0.07740152 -0.15360722 0.0189447 0.08353406 -0.0301859
-0.08740945 -0.06056678 -0.034216337 0.011846847 -0.13914533 0.07383816 0.02561129 -0.04279899
0.017637827 0.06890504 -0.09441549 -0.101654835 -0.036981907 -0.0925513 -0.062948726 0.07777514
-0.10513342 -0.06980023 -0.09578119 -0.028334266 0.041869022 -0.07125597 -0.016142478 0.039150886
-0.057256706 0.073703304 0.06870409 0.10247276 -0.03757942 0.12784028 0.083357856 0.05539726
0.018953243 -0.11283445 -0.065524824 0.026186304 0.011748242 0.16516018 -0.05958725 -0.02719763
0.07212534 -0.010734204 0.105507486 -0.15530235 -0.089482374 -0.015256795 0.017017642 -0.15648773
-0.11514916 0.06998378 -0.044955667 0.032517232 -0.09204248 -0.11228195 -0.12680139 -0.100993544
-0.087058 0.0157304 -0.045458056 -0.07478407 0.07620339 0.0075627295 -0.020714387 -0.07194201
0.03635577 -0.11691971 0.12114171 -0.13928318 -0.0060537336 -0.093445264 0.0112824 -0.16229707
-0.087434605 -0.07994373 -0.11948504 -0.10313855 -0.08526003 -0.057818953 0.032632045 -0.0771802
0.08230685 -0.10862569 -0.1215984 -0.09144916 -0.10399253 0.014921388 0.0479826 -0.02942811
-0.15230694 -0.0763199 -0.048215695 -0.19659361 -0.016236808 0.09043163 0.015932972 -0.06213544
-0.04321692 -0.0879815 -0.057209536 0.09241383 -0.10519706 -0.022470064 -0.10978602 -0.09485709
0.027351981 -0.03232508 0.0009655284 -0.06320049 0.023608325 0.12687908 0.15694006 0.11326542
0.0049741436 0.05063365 -0.04026818 0.034238867 0.17074072 -0.056437638 0.19357844 0.07629491
-0.008199615 0.21560809 0.15205622 0.04963138 -0.0362449 0.050099004 0.0686371 0.11619031
0.054611504 -0.011982653 -0.05956135 0.13629177 0.28119186 0.1772804 -0.026856357 0.19620015
0.041983884 0.20033866 0.18119048 -0.045929722 0.055897225 0.15458433 -0.07032064 0.22433096
0.24482214 0.10759466 0.08022562 -0.019480329 -0.06858463 0.07718184 0.035711173 0.21418966
0.15598987 0.023828689 0.03516824 0.16404468 0.16790538 0.028071042 0.06174452 0.049463682
0.06841548 0.059450246 0.15718573 0.23251356 0.05925634 0.025743322 0.014239637 0.20481074
00000000: 2c71 a83d 1e9d ddbd 32b8 e9bd bb62 05bb
00000010: 8fd9 e5bd c274 07be 51d1 0cbe 84f3 2f3d
00000020: 5e25 e9bb 8c45 c2bd 735b 0bbb e9e2 ddbd
00000030: de09 e8bd f979 e3bd a08d 1fbe d88f ec3d
00000040: d7ff 3ebd 22c9 21bd 8afa 99bd 39ab c43c
00000050: fcbb 0dbd e51e d4bd ff22 903d 969c ee3d
00000060: 7ac8 e7bd b6f0 6a3d b906 51bc 215d eebb
00000070: 2293 193c d9b4 56bd cdca c93d af42 e13c
00000080: 56fa 09bd fcf1 e1bd a04f 1fbe e0ac acbb
00000090: 4e01 f5bd 484a 1abe 7f43 04be ae7f 1dbe
000000a0: 54bf 1dbe 0126 113e acf4 6b3a 31de 5b3d
000000b0: 8c60 35bd 3bf3 e0bc 3e17 38bd b3e6 b8bc
000000c0: 2980 b7bd 6b5f a5bc 7d92 e1bd 53d2 3d3b
000000d0: 3ee3 7e3d 5673 793c d896 1e3d c4b1 e8bd
000000e0: 4fa1 73bd ae20 1ebe db01 90bd 07b0 b4bd
000000f0: bf31 6cbd dd0c 0cbe fef9 29bd 2456 173d
00000100: 6cf2 90bd 8de5 b6bd a945 923d 8076 ab3d
00000110: 37d6 40bd bef9 a6bb 9e87 cb3d b550 1fbe
00000120: 1415 97bd d8e7 1d3c 8bc4 653c f296 c93d
00000130: 30d4 cdbc 6ffb e23c 50be 503d 03e6 d6bc
00000140: 1640 2abc 43fe 22be 1d13 c6bb b084 9e3d
00000150: 364b 1dbe ea31 9b3c e813 ab3d 6c48 f7bc
00000160: ba03 b3bd df14 78bd 6e26 0cbd 4719 423c
00000170: 1d7c 0ebe 7638 973d c5ce d13c fe4d 2fbd
00000180: 347d 903c 161e 8d3d e95c c1bd 6930 d0bd
00000190: 577a 17bd 898b bdbd 43eb 80bd 9348 9f3d
000001a0: 3150 d7bd 6cf3 8ebd ee28 c4bd 431d e8bc
000001b0: da7e 2b3d a6ee 91bd 3b3d 84bc ae5c 203d
000001c0: 0286 6abd c2f1 963d bbb4 8c3d 3ddd d13d
000001d0: e1ec 19bd 90e8 023e 86b7 aa3d 3de8 623d
000001e0: d543 9b3c c015 e7bd e131 86bd a984 d63c
000001f0: b37b 403c c01f 293e c311 74bd 90cd debc
00000200: 73b6 933d 84de 2fbc 4f14 d83d 9407 1fbe
00000210: 8942 b7bd a3f7 79bc 9568 8b3c 523e 20be
00000220: 53d3 ebbd a853 8f3d 6f23 38bd ca30 053d
00000230: c580 bcbd 14f4 e5bd 39d8 01be b4d5 cebd
00000240: 774b b2bd 0add 803c 3a32 3abd 6428 99bd
00000250: 8610 9c3d c6d0 f73b 38b1 a9bc 5556 93bd
00000260: cae9 143d 9a73 efbd 2519 f83d 40a0 0ebe
00000270: 665e c6bb 3b60 bfbd d1d9 383c 3431 26be
00000280: ea10 b3bd 8ab9 a3bd 93b4 f4bd 4e3a d3bd
00000290: d09c aebd 91d3 6cbd 2ea9 053d a710 9ebd
000002a0: 7e90 a83d 2577 debd 9508 f9bd b249 bbbd
000002b0: 09fa d4bd d678 743c 6789 443d 3813 f1bc
000002c0: 5af6 1bbe 9c4d 9cbd d27d 45bd d64f 49be
000002d0: 0e03 85bc 3834 b93d dd85 823c bb81 7ebd
000002e0: 3a04 31bd a52f b4bd 8c54 6abd 7643 bd3d
000002f0: 8e71 d7bd 2413 b8bc 7ed7 e0bd 6f44 c2bd
00000300: 4311 e03c 4e67 04bd 841b 7d3a 426f 81bd
00000310: 3f66 c13c 97ec 013e e5b4 203e b3f7 e73d
00000320: 24fe a23b 3b65 4f3d 3ff0 24bd 0e3e 0c3d
00000330: a8d6 2e3e 272b 67bd 6d39 463e 8140 9c3d
00000340: ae57 06bc 5ec8 5c3e a0b4 1b3e 464a 4b3d
00000350: 8875 14bd 9d34 4d3d 9c91 8c3d 2ff5 ed3d
00000360: 50b0 5f3d e452 44bc 9af6 73bd 1290 0b3e
00000370: 61f8 8f3e fe88 353e dd01 dcbc b1e8 483e
00000380: 4bf7 2b3d 9425 4d3e ff89 393e ce20 3cbd
00000390: 7df4 643d 5b4b 1e3e 4504 90bd 04b7 653e
000003a0: a8b2 7a3e 975a dc3d 544d a43d 3695 9fbc
000003b0: 1976 8cbd 8311 9e3d e145 123d 8954 5b3e
000003c0: cfbb 1f3e 6234 c33c 930c 103d 54fb 273e
000003d0: 63ef 2b3e 3ef5 e53c d2e7 7c3d 6e9a 4a3d
000003e0: 6a1d 8c3d 1a82 733d 4cf5 203e 0918 6e3e
000003f0: c7b6 723d a9e3 d23c 5e4d 693c e8b9 513e

phi.initial_conv_module.0._layers.7.se_conv2.conv.weight f4 [64, 10, 1]
-0.09913024 0.023393607 -0.071135044 -0.07798914 -0.12030696 0.08731499 -0.25680092 0.33486503
-0.13079986 0.023171388 0.08798497 -0.17084754 0.26048702 0.015555448 0.021009149 -0.30492282
0.02813199 0.16403379 0.057482295 -0.03236021 0.23299165 0.23210345 0.24806675 -0.090003684
0.02422423 -0.20869559 -0.25110322 -0.06605605 0.03159994 -0.16717435 -0.30576268 0.07706213
0.082483694 -0.17603078 0.23323154 -0.27114746 0.2627315 0.1746165 -0.09709097 0.29424387
-0.14921544 -0.13925782 0.288892 -0.11811661 -0.15493457 0.08552853 -0.07768727 0.22537287
0.22754659 0.11868807 0.07968094 0.09648127 -0.04464506 0.09024601 0.036046527 0.19627567
0.22083117 -0.011849353 0.09850894 0.038184594 0.037240103 0.22046933 -0.31162745 0.092338145
0.015396067 -0.3735803 -0.2356769 -0.05191295 0.22638361 -0.15773147 0.09160325 0.09693509
-0.271352 0.15961346 0.10735325 -0.3170324 -0.01706322 -0.28928354 0.26639047 0.16486023
0.046050712 0.16334361 0.23165895 0.37533563 0.21140336 -0.28796342 0.39478546 0.099428006
-0.12964892 -0.055008113 0.2094232 0.0095905075 0.106346644 0.080546536 0.3540761 -0.3163876
0.08844548 0.05237064 -0.012121679 0.32681653 0.18867762 0.11852103 0.3039668 -0.17546076
-0.12783337 -0.14313518 -0.14036782 -0.15859692 0.13269576 0.17287463 -0.26818815 -0.17654277
0.33297125 -0.15200126 0.2743805 0.2964752 -0.10312064 -0.22410391 0.14850898 0.12957494
0.26285452 -0.000218014 0.16135707 -0.30521908 0.022465017 0.08085036 0.18914859 -0.19362636
-0.06341688 -0.16868469 -0.1505361 0.18315127 0.103975035 0.05238251 -0.04275216 0.029999247
-0.045754474 0.15432844 -0.25536865 0.004764404 0.1615616 0.12715235 -0.1528376 0.25259137
-0.19925734 0.1565623 0.23515038 0.06428871 0.10315953 -0.27650544 -0.19070359 -0.23637562
-0.30019528 -0.006109134 0.29445472 -0.11755697 0.32948855 -0.24078257 0.1292871 0.32106632
0.33441126 -0.15774713 -0.25304908 -0.14613274 0.26922002 0.03267637 0.22717766 -0.23317988
-0.2232058 0.13083306 0.102251776 -0.16915002 0.31256008 -0.15651895 -0.31113932 0.124691874
-0.17294057 -0.15512453 -0.19891386 0.06906932 0.15161438 0.1613966 -0.17999084 -0.07619345
0.29634145 -0.16525051 -0.11556588 -0.077258006 -0.26683587 -0.20471235 0.2691072 0.04220362
0.090352006 0.11026298 0.17372939 0.20933789 0.2408995 0.06598501 0.26991978 0.23771961
-0.017544717 0.096049346 -0.14477271 -0.2052319 0.3213451 -0.21693458 -0.1823861 -0.2605291
-0.2759644 0.04525265 0.1648075 -0.2186311 0.04511032 -0.27021754 0.022312064 0.22774448
-0.11581735 -0.1647063 0.25466296 -0.18554854 -0.025487145 -0.24078326 0.2506783 0.076196514
-0.14766416 0.28504837 0.24461421 0.13406904 -0.24764647 -0.10283228 0.2602119 0.21841602
-0.11630057 0.1866318 -0.20395598 0.11360688 0.27871862 0.023274621 -0.24127908 0.0803612
0.15069167 0.17577425 -0.22304428 -0.053158946 -0.018325875 -0.07181068 -0.085707545 -0.09079934
0.12928227 0.178288 -0.09162297 0.14791825 -0.005549302 0.06345999 0.11735198 -0.13669959
00000000: cc04 cbbd f3a3 bf3c 40af 91bd c5b8 9fbd
00000010: 7f63 f6bd 34d2 b23d 697b 83be 6e73 ab3e
00000020: 66f0 05be ecd1 bd3c 7731 b43d a8f2 2ebe
00000030: 8e5e 853e 47dc 7e3c 611b ac3c d81e 9cbe
00000040: 0f75 e63c 79f8 273e 8e72 6b3d 248c 04bd
00000050: 5d95 6e3e 87ac 6d3e 3605 7e3e da53 b8bd
00000060: e471 c63c 4cb4 55be 9a90 80be 6548 87bd
00000070: f06e 013d c12f 2bbe ed8c 9cbe c0d2 9d3d
00000080: 36ed a83d 6a41 34be 40d4 6e3e d7d3 8abe
00000090: be84 863e abce 323e a1d7 c6bd 22a7 963e
000000a0: efcb 18be 9a99 0ebe a7e9 933e 1fe7 f1bd
000000b0: 2ba7 1ebe 9529 af3d 811a 9fbd 25c8 663e
000000c0: f901 693e bb12 f33d c32f a33d f997 c53d
000000d0: bddd 36bd e6d2 b83d 86a5 133d 7dfc 483e
000000e0: 9121 623e ca23 42bc 0ebf c93d 7367 1c3d
000000f0: 1489 183d b6c2 613e a28d 9fbe c81b bd3d
00000100: c93f 7c3c eb45 bfbe 4955 71be aca2 54bd
00000110: 1bd1 673e 5c84 21be 7c9a bb3d e885 c63d
00000120: a6ee 8abe b671 233e 05dc db3d 1252 a2be
00000130: 2ac8 8bbc f91c 94be 5564 883e 1fd1 283e
00000140: ac9f 3c3d 8c43 273e 0138 6d3e fe2b c03e
00000150: 1f7a 583e f16f 93be 5221 ca3e e9a0 cb3d
00000160: b0c2 04be 3050 61bd 0973 563e 8121 1d3c
00000170: 45cc d93d 95f5 a43d 7649 b53e 8efd a1be
00000180: e722 b53d 9982 563d 029a 46bc 7f54 a73e
00000190: b534 413e 27bb f23d 89a1 9b3e fcab 33be
000001a0: c0e6 02be 0792 12be 95bc 0fbe 3b67 22be
000001b0: 66e1 073e 0c06 313e f54f 89be a1c7 34be
000001c0: 357b aa3e 38a6 1bbe 9a7b 8c3e 99cb 973e
000001d0: ea30 d3bd 7f7b 65be bd12 183e 4baf 043e
000001e0: de94 863e b09a 64b9 ca3a 253e ad45 9cbe
000001f0: 8e08 b83c e094 a53d 2bb0 413e fd45 46be
00000200: b6e0 81bd aebb 2cbe 2326 1abe 028c 3b3e
00000210: ddf0 d43d 0b8f 563d e41c 2fbd fbc0 f53c
00000220: 0b69 3bbd 4608 1e3e aebf 82be b81e 9c3b
00000230: 6770 253e 3a34 023e 7681 1cbe a853 813e
00000240: 1e0a 4cbe de51 203e 43cb 703e cda9 833d
00000250: 4e45 d33d 1f92 8dbe cd47 43be 730c 72be
00000260: 32b3 99be 212f c8bb c5c2 963e b5c1 f0bd
00000270: b9b2 a83e b58f 76be d663 043e ce62 a43e
00000280: f437 ab3e 7788 21be a68f 81be d2a3 15be
00000290: 35d7 893e a8d7 053d 43a1 683e b5c6 6ebe
000002a0: 1090 64be 1af9 053e 6169 d13d aa35 2dbe
000002b0: e007 a03e 8146 20be a74d 9fbe 745e ff3d
000002c0: 5517 31be f7d8 1ebe 13b0 4bbe 3774 8d3d
000002d0: cd40 1b3e 2645 253e 854f 38be 500b 9cbd
000002e0: 11ba 973e 6e37 29be cead ecbd 7239 9ebd
000002f0: b69e 88be 1da0 51be 6bc8 893e b4dd 2c3d
00000300: 790a b93d 8fd1 e13d 1ee6 313e ac5c 563e
00000310: 5cae 763e 2623 873d ed32 8a3e c56c 733e
00000320: f0b9 8fbc 85b5 c43d 4c3f 14be 5028 52be
00000330: 5887 a43e 1924 5ebe 6cc3 3abe 1264 85be
00000340: 354b 8dbe d85a 393d 4cc3 283e d5e0 5fbe
00000350: 99c5 383d f459 8abe cac7 b63c d935 693e
00000360: a631 edbd c5a8 28be 2f63 823e 7000 3ebe
00000370: 6bca d0bc e38f 76be e858 803e eb0c 9c3d
00000380: 4635 17be dcf1 913e 267c 7a3e 6549 093e
00000390: 0997 7dbe bb99 d2bd 7f3a 853e 73a8 5f3e
000003a0: fe2e eebd 681c 3f3e d6d9 50be b9aa e83d
000003b0: 35b4 8e3e 6baa be3c dd11 77be 6a94 a43d
000003c0: eb4e 1a3e 2afe 333e b865 64be 32bd 59bd
000003d0: 2520 96bc 7a11 93bd 7087 afbd 01f5 b9bd
000003e0: 9262 043e 2191 363e d3a4 bbbd e277 173e
000003f0: ebd6 b5bb 50f7 813d 3c56 f03d fafa 0bbe
