logs/4birds_CF_combined_log_linear_gru64_50epochs_try2/2025-05-27_13-35-41/4birds_CF_combined_log_linear_gru64_50epochs_try2_best_model.pth (torch, 334849 bytes, 198 tensors)

phi.initial_conv_module.0._layers.0.conv.weight f4 [64, 64, 1]
0	0x3dca89ce	0.098895654
1	0x3ddc2121	0.10748506
2	0xbcd17a38	-0.025570974
3	0x3d9eaa8b	0.07747372
4	0xbcaad33d	-0.02085268
5	0xbca3efc9	-0.0200118
6	0xbd90b28c	-0.07065305
7	0x3d1a3930	0.037652194
8	0x3dca0aaf	0.09865319
9	0xbdca803e	-0.098877415
10	0x3e08f325	0.13374002
11	0x3dbf2852	0.09333862
12	0x3e389f76	0.1802958
13	0x3db33cda	0.08751841
14	0x3e1b68cd	0.15176697
15	0x3c548b3c	0.012972649
16	0x3d14685e	0.036232345
17	0xbca9f53c	-0.02074682
18	0xbd651c03	-0.055934917
19	0x3d1f078a	0.03882555
20	0xbd310293	-0.043215346
21	0xbb6b2db4	-0.0035885395
22	0xbd9493d5	-0.07254759
23	0x3d3ededc	0.046599254
24	0xbdeb6844	-0.114944965
25	0xbd0bb2ae	-0.03410595
26	0x3bf673bd	0.0075211213
27	0xbca5c62e	-0.020236101
28	0x3d79952b	0.060933273
29	0xbdf4f76e	-0.11961256
30	0x3de23e15	0.110469975
31	0xbde21a4e	-0.110401735
32	0x3d8c2440	0.06842852
33	0xba6319c0	-0.00086632
34	0xbd28b2c6	-0.041186117
35	0x3db592b4	0.08865872
36	0x3d165ba2	0.03670848
37	0x3e02a3fc	0.12757868
38	0x3d21c8c0	0.03949809
39	0x3b07cf4b	0.0020722921
40	0x3d800464	0.062508374
41	0xbc9d7108	-0.019218937
42	0x3d490e96	0.049086176
43	0x3db5c954	0.08876291
44	0x3d808559	0.06275434
45	0xbd42b244	-0.04753329
46	0x3db0ba81	0.08629323
47	0x3d117580	0.035512447
48	0x3daa4e4e	0.08315717
49	0xbd54b150	-0.05192691
50	0xbdcc4712	-0.09974493
51	0xbd5983ff	-0.053104397
52	0xbe04b193	-0.12958364
53	0x3d605c2e	0.05477541
54	0xbca22041	-0.01979077
55	0xbb94f57d	-0.004545866
56	0xbc1fb75c	-0.009748306
57	0xbd19cb77	-0.037547555
58	0x3d92da3c	0.07170531
59	0xbdfe57c4	-0.12419084
60	0xbbca366e	-0.0061710393
61	0xbd9b5260	-0.07584071
62	0x3d54e39e	0.051974885
63	0xbcec077c	-0.028812163
64	0x3d721034	0.059097484
65	0xbbcc80a0	-0.006240919
66	0x3dea88df	0.11451887
67	0xbd8e4e95	-0.06948582
68	0xbd2be014	-0.041961744
69	0xbdaf2bc1	-0.08553267
70	0x3e1437d2	0.14474419
71	0x3d069217	0.032854166
72	0x3e0197ab	0.12655513
73	0xbdcd9d44	-0.10039762
74	0xbe051b67	-0.12998734
75	0xbdf6b84a	-0.12046869
76	0xbdcc8f7f	-0.09988307
77	0x3d1b7118	0.03794965
78	0x3d137874	0.036003545
79	0x3de882f6	0.11353104
80	0xbd103edf	-0.03521621
81	0xbd376b67	-0.04478016
82	0x3dbb5328	0.0914672
83	0xbd23fbf9	-0.04003522
84	0x3dd9819a	0.10620423
85	0x3c20a1f4	0.009804238
86	0x3da96bcd	0.082725145
87	0xbe014886	-0.12625322
88	0xbdd2f6ed	-0.103010036
89	0x3c7d8395	0.015473266
90	0x3cea27e0	0.028583467
91	0xba3b638f	-0.0007148319
92	0x3dce19b5	0.10063497
93	0x3db7fc16	0.089836285
94	0xbdc1a81d	-0.09455893
95	0xbd7ae4b8	-0.06125328
96	0x3df0b459	0.117531486
97	0xbd0739b0	-0.033014
98	0xbcb23516	-0.021753829
99	0xbdb9cdd0	-0.09072459
100	0xbd3b8a19	-0.045785997
101	0x3d91f5d9	0.0712697
102	0x3c9bfa85	0.019040355
103	0xbd4623a1	-0.048373822
104	0x3cbddbe5	0.023176143
105	0xbdc59ebf	-0.09649419
106	0xbe07b1db	-0.1325144
107	0xbdd4291e	-0.10359405
108	0xbe02cecc	-0.12774199
109	0xbdb3f221	-0.08786417
110	0x3dffc261	0.12488247
111	0x3cf87f7a	0.030334223
112	0x3d616855	0.05503114
113	0xbde97ec1	-0.114011295
114	0xbdb5e1ae	-0.088809356
115	0xbd2c0f85	-0.042006988
116	0xbc436686	-0.011926299
117	0xbe1a298a	-0.15054908
118	0xbdaccfb1	-0.084380515
119	0xbdeeb41b	-0.11655446
120	0xbc90137a	-0.017587412
121	0xbd28c631	-0.041204635
122	0xba1fa4f1	-0.0006089947
123	0xbd84e117	-0.06488245
124	0xbd2150a5	-0.03938355
125	0xbd4a45d7	-0.04938301
126	0xbcc969c4	-0.024586566
127	0xbd9dc7d7	-0.07704132
128	0x3da38f91	0.079863675
129	0xbd4f9731	-0.050681297
130	0x3da1c6a8	0.07899219
131	0x3c9fd6d5	0.01951162
132	0xbe0189c8	-0.12650216
133	0x3da30dd3	0.07961621
134	0xbd1fd12c	-0.03901784
135	0xbd3c434e	-0.045962624
136	0xbdd1bd6e	-0.10241209
137	0xbdfba2de	-0.12286924
138	0x3d1236b1	0.03569669
139	0xbcc11324	-0.023568697
140	0x3d4f27a7	0.050574925
141	0xbdaf96de	-0.085736975
142	0x3d962977	0.073321275
143	0xbe150b43	-0.14555077
144	0xbc856b1f	-0.01628643
145	0x3daa8258	0.08325642
146	0x3dc11357	0.09427517
147	0x3df13612	0.11777891
148	0x3dd79b70	0.10527694
149	0xbe0c6abe	-0.13712594
150	0xba0afd89	-0.0005302062
151	0xbda08ead	-0.07839713
152	0xbd57edce	-0.052717023
153	0xbe019e2b	-0.12657993
154	0x3df60b97	0.12013929
155	0xbd5b8f6b	-0.05360357
156	0x3de52d4c	0.1119028
157	0x3d835676	0.064129755
158	0x3d1bee11	0.038068835
159	0xbd8d3a18	-0.06895846
160	0x3df59f02	0.11993219
161	0x3cd2d4ad	0.025736177
162	0x3ceff8e2	0.029293481
163	0xbdc1fad1	-0.094716676
164	0x3d6dcd1d	0.05805694
165	0xbcee6b7e	-0.02910399
166	0xbd8a68de	-0.06758283
167	0x3dce7971	0.10081757
168	0x3c8e0958	0.01733844
169	0xbdac7041	-0.08419848
170	0xbdaa6ece	-0.083219156
171	0xbcaad4e6	-0.020853471
172	0x3d5992e2	0.053118594
173	0xbd0aa0e9	-0.033844862
174	0xbd8626cf	-0.06550371
175	0xbd099430	-0.03358859
176	0xbdb5c011	-0.088745244
177	0x3d23c79d	0.039985288
178	0x3da360d1	0.07977451
179	0xbe0aaa3f	-0.13541506
180	0x3c020706	0.007936245
181	0x3d35b886	0.04436543
182	0x3c257cc2	0.010100545
183	0xbd7785bf	-0.060430285
184	0x3d28149e	0.041035287
185	0x3d2a5250	0.041582406
186	0x3d148d71	0.0362677
187	0xbcbf27d5	-0.023334423
188	0xbd1d8e3c	-0.038465723
189	0xbb828f51	-0.00398437
190	0xbd212731	-0.039344016
191	0xbd7026f3	-0.058630895
192	0x3d027d4d	0.031857777
193	0x3d6fffa9	0.058593426
194	0xbd0d3c6c	-0.03448145
195	0xbd8a1b21	-0.06743456
196	0xbc737381	-0.014859081
197	0xbd050fa2	-0.03248561
198	0x3c483842	0.012220444
199	0x3c5157a4	0.012777243
200	0xbe082b33	-0.13297729
201	0xbd8df9f0	-0.069324374
202	0x3da41ecf	0.08013689
203	0x3cb9d887	0.022686256
204	0xbcb12244	-0.021622784
205	0xbd878818	-0.06617755
206	0xbd81288f	-0.06306564
207	0xbdf91bbd	-0.12163494
208	0xbc8d68c3	-0.017261868
209	0x3d8ec92d	0.06971965
210	0x3db01ff4	0.085998446
211	0x3d289f13	0.04116733
212	0xbe00aae4	-0.1256519
213	0xbddc1897	-0.10746878
214	0xbd7f07f3	-0.06226344
215	0x3dcbdec9	0.09954602
216	0xbb294a0d	-0.0025831491
217	0xbd999dc1	-0.07500792
218	0xbba2b7ad	-0.0049657435
219	0xbddcd9fd	-0.107837655
220	0xbe09000b	-0.13378923
221	0x3d22b9c1	0.03972793
222	0xbdcca7c7	-0.099929385
223	0xbd6b48df	-0.057442542
224	0xbe069238	-0.13141716
225	0x3dc75a24	0.0973399
226	0x3dd31658	0.10306996
227	0x3cf9e6e5	0.030505607
228	0xbde6d059	-0.11270208
229	0xbe1291cd	-0.14313431
230	0xbe020a1d	-0.1269917
231	0x3d7e39ce	0.062066846
232	0x3cdcd9ff	0.026959417
233	0x3d919225	0.07107953
234	0x3d543ab3	0.051813792
235	0x3d2535c5	0.04033448
236	0x3c226323	0.009911331
237	0xbdea8d61	-0.11452747
238	0xbe1c5d93	-0.1527007
239	0xbe14eb76	-0.14542946
240	0x3d2ba9b3	0.041909885
241	0xbd7333a3	-0.059375416
242	0xbcf652e7	-0.030068828
243	0xbd8d8a15	-0.06911103
244	0xbcc67daf	-0.024229852
245	0xbd93c316	-0.07214944
246	0xbd7661cd	-0.060151864
247	0x3d7945c0	0.060857534
248	0xbcdabdc2	-0.026701812
249	0x3db83384	0.08994201
250	0xbcf2ae60	-0.029624164
251	0xbd983f86	-0.07433991
252	0xbc50218d	-0.012703312
253	0xbd653d7e	-0.055966847
254	0xbd120ebd	-0.035658587
255	0xbdf4117a	-0.11917396

phi.initial_conv_module.0._layers.1.weight f4 [64]
0	0x3f71d7bb	0.94469804
1	0x3f854348	1.0411158
2	0x3f7f0f5a	0.996328
3	0x3f744f5d	0.954336
4	0x3f8001f1	1.0000592
5	0x3f83c7e0	1.0295372
6	0x3f7e8535	0.9942201
7	0x3f7f75cc	0.9978912
8	0x3f87670f	1.0578326
9	0x3f815d35	1.010657
10	0x3f70eb79	0.941093
11	0x3f76ba25	0.96377784
12	0x3f88079d	1.0627323
13	0x3f812689	1.0089885
14	0x3f7c2f32	0.98509514
15	0x3f8114e0	1.0084496
16	0x3f804837	1.0022038
17	0x3f70c327	0.9404778
18	0x3f72bf02	0.94822705
19	0x3f81d827	1.014409
20	0x3f5c9348	0.86162233
21	0x3f8c0ae2	1.0940821
22	0x3f811b94	1.0086541
23	0x3f8706a6	1.0548904
24	0x3f807762	1.0036433
25	0x3f7ad168	0.9797578
26	0x3f856e2e	1.0424249
27	0x3f823a15	1.0173975
28	0x3f7d7238	0.9900241
29	0x3f7abc6d	0.97943765
30	0x3f80fb02	1.0076602
31	0x3f6f22fb	0.9341275
32	0x3f7fc77b	0.9991376
33	0x3f76db72	0.96428597
34	0x3f781a1e	0.9691485
35	0x3f7dc203	0.99124163
36	0x3f7e9756	0.9944967
37	0x3f8385a3	1.0275158
38	0x3f888bf0	1.0667706
39	0x3f82577c	1.0182948
40	0x3f705d08	0.93891954
41	0x3f82fcf5	1.0233446
42	0x3f7cfd3e	0.98823917
43	0x3f7aef94	0.9802182
44	0x3f7e1cd9	0.9926277
45	0x3f84fe0c	1.0390029
46	0x3f813412	1.0094016
47	0x3f76f54b	0.9646804
48	0x3f727336	0.9470705
49	0x3f7a44f1	0.97761446
50	0x3f79747e	0.9744338
51	0x3f87c7b7	1.0607823
52	0x3f672c22	0.90301716
53	0x3f80c391	1.0059682
54	0x3f791079	0.9729076
55	0x3f81694c	1.0110259
56	0x3f81b355	1.0132853
57	0x3f83b515	1.0289637
58	0x3f7eeb41	0.9957772
59	0x3f81d9ff	1.0144652
60	0x3f83c6aa	1.0295002
61	0x3f836795	1.0265986
62	0x3f7162b8	0.9429126
63	0x3f6ee3b7	0.93316215

phi.initial_conv_module.0._layers.1.bias f4 [64]
0	0x3c2820a9	0.010261693
1	0xbbeba09a	-0.007190776
2	0x3bf86c8b	0.0075812987
3	0xbba6a902	-0.0050860653
4	0x3c84bc31	0.016203018
5	0xbd0bbf82	-0.034118183
6	0xbb01425b	-0.0019723389
7	0x3c611f98	0.013740443
8	0xbc3b376b	-0.011426787
9	0xbc7bbc76	-0.015364757
10	0x39eb0ecc	0.00044833717
11	0xbc006802	-0.007837297
12	0xbbd8a787	-0.0066117677
13	0xbd6bfc52	-0.05761368
14	0x3db25e84	0.08709434
15	0xbc685606	-0.014180666
16	0xbd01f1ef	-0.031724866
17	0xbd5e23e7	-0.054233458
18	0x3bd774e3	0.0065752133
19	0xbd784c68	-0.06061974
20	0x3dbda966	0.09260826
21	0xbd00ddd3	-0.031461548
22	0x3c87f836	0.016597848
23	0x3c2da1d4	0.010597665
24	0xbae41875	-0.0017402308
25	0x3c3c0ed2	0.011478143
26	0x3c4e7d77	0.012603155
27	0x3cfd493a	0.030918706
28	0x3c926442	0.017870072
29	0x3c34eaf0	0.011042342
30	0xbc789dfd	-0.015174386
31	0x3ddf2f3f	0.10897683
32	0xbb529b2c	-0.0032135947
33	0x3daa0c49	0.083031245
34	0xbcf3b40c	-0.029748939
35	0x3cfbf4b2	0.030756328
36	0xbd4053ee	-0.04695504
37	0x3cb4a2b8	0.022050247
38	0x3c6ee330	0.014580533
39	0x3caab0b8	0.02083622
40	0x3d00fd85	0.031491775
41	0x3c7fe311	0.015618102
42	0x38139dbd	3.5194436e-05
43	0x3ca98be7	0.020696593
44	0x3cecbe46	0.028899323
45	0x3a91bd89	0.0011119108
46	0xbc5792f7	-0.013157598
47	0x3d62d7a2	0.055381425
48	0x3c16c0f7	0.00920128
49	0xbb85efc8	-0.004087422
50	0x3c606cbf	0.013697802
51	0x3d831e18	0.06402224
52	0x3d58ff8b	0.05297808
53	0x3bc7bc4b	0.0060954443
54	0x3c8d2862	0.01723117
55	0xb98fa985	-0.00027401387
56	0x3cb94137	0.022614105
57	0x3c91bad3	0.01778928
58	0x3b959c55	0.0045657554
59	0xbd27d84d	-0.040977765
60	0xbd9dd81b	-0.077072345
61	0x3a47d4cd	0.00076229573
62	0xbc562fcd	-0.01307292
63	0x3d4b7b89	0.04967836

phi.initial_conv_module.0._layers.1.running_mean f4 [64]
0	0x3eb0e8d4	0.34552634
1	0x3efbbe88	0.491688
2	0x3e8043a4	0.25051606
3	0xbe4c23d0	-0.19935536
4	0xbec3d44b	-0.38247904
5	0x3e933944	0.28754628
6	0xbe734342	-0.23756126
7	0x3eacacd9	0.33725622
8	0x3f0d7674	0.5525887
9	0x3e431dff	0.19054411
10	0x3e8b8696	0.27251118
11	0xbef49d98	-0.47776484
12	0xbb8da925	-0.004323142
13	0x3d061282	0.032732494
14	0xbe723418	-0.23652685
15	0x3f710252	0.94144166
16	0xbdb84daf	-0.08999192
17	0x3dc538ed	0.09629998
18	0xbb9c2618	-0.0047652833
19	0x3f3d6a50	0.73990345
20	0x3c90921f	0.017647801
21	0x3d8aa123	0.06769016
22	0x3e869851	0.26288083
23	0xbdf692a2	-0.12039687
24	0x3edc4909	0.4302447
25	0xbd487a64	-0.048944846
26	0x3e471dad	0.19444914
27	0x3fa1d84f	1.2644137
28	0x3bdfe42e	0.006832621
29	0x3f50e935	0.81605846
30	0x3dd08445	0.101814784
31	0x3ee0633f	0.4382572
32	0x3dc1c27b	0.09460922
33	0xbdfbc653	-0.12293687
34	0xbf281a5a	-0.6566521
35	0xbd942167	-0.072329335
36	0xbe7078df	-0.23483609
37	0xbde5b418	-0.11215991
38	0x3dfd9d66	0.12383537
39	0xbd0d5595	-0.034505446
40	0xbd8d8a78	-0.069111764
41	0x3d894e12	0.06704344
42	0xbf32de55	-0.698705
43	0xbf9ad4e3	-1.2096218
44	0xbd78286a	-0.060585417
45	0xbd770804	-0.06031038
46	0xbf7a842c	-0.9785793
47	0x3eabd368	0.33559728
48	0x3efd0ea3	0.4942523
49	0xbdcb1e73	-0.09917917
50	0x3e8e0256	0.27736157
51	0x3e94c8d3	0.29059467
52	0xbbf709c0	-0.007539004
53	0x3dbf19fa	0.093311265
54	0x3ea74038	0.32666183
55	0x3e0ef851	0.13961913
56	0x3eb36fc2	0.35046202
57	0xbeb7aa4f	-0.35872123
58	0xbe10e454	-0.141496
59	0xbef6b4d7	-0.48184845
60	0x3e6ba700	0.23012924
61	0x3e53b5f0	0.20674872
62	0x3e865ef9	0.26244333
63	0x3f6ea728	0.9322381

phi.initial_conv_module.0._layers.1.running_var f4 [64]
0	0x3f16927e	0.5881728
1	0x3e9ef84b	0.31048808
2	0x3dffb80f	0.12486278
3	0x3e9c2e13	0.30503902
4	0x3e46381c	0.19357342
5	0x3e5ef6d7	0.2177385
6	0x3efb744c	0.49112165
7	0x3ea44e8a	0.3209117
8	0x3eb15fb8	0.3464334
9	0x3ec59b64	0.38595116
10	0x3e45d4ab	0.19319408
11	0x3eb218ed	0.34784642
12	0x3e0fa862	0.14029077
13	0x3eaf3538	0.3422029
14	0x3e13d758	0.14437616
15	0x3e963f54	0.2934519
16	0x3ddc4568	0.10755426
17	0x3ef200ed	0.4726633
18	0x3ec4e50e	0.38456005
19	0x3e25979f	0.1617112
20	0x3e0901a5	0.13379534
21	0x3deb731a	0.11496563
22	0x3e9b5662	0.30339342
23	0x3e41e745	0.18935879
24	0x3e3676e2	0.17818788
25	0x3dee4ea0	0.1163609
26	0x3dd31b6d	0.103079654
27	0x3f8067d7	1.003169
28	0x3e145d49	0.1448871
29	0x3e7603ac	0.24024838
30	0x3dffed3a	0.12496419
31	0x3e5d07e3	0.2158504
32	0x3deef4b3	0.116677664
33	0x3ed3b16d	0.41346303
34	0x3e316625	0.17324121
35	0x3e81b5dc	0.2533406
36	0x3e351c02	0.17686465
37	0x3e88ffe4	0.2675773
38	0x3df8186c	0.12114033
39	0x3e8c27c1	0.2737408
40	0x3dfa7508	0.12229353
41	0x3dcbb024	0.099457055
42	0x3e846615	0.25859132
43	0x3ee56657	0.44804642
44	0x3e5e5229	0.21711029
45	0x3e82df9c	0.25561225
46	0x3f65a7f4	0.897094
47	0x3e2f7df6	0.17137894
48	0x3e600ce9	0.21879925
49	0x3e5386aa	0.20656839
50	0x3e7e9c5b	0.24864332
51	0x3eb81dfe	0.35960382
52	0x3e0cd159	0.13751735
53	0x3ebc61a4	0.36793244
54	0x3e4ec4e1	0.20192291
55	0x3ec85428	0.39126706
56	0x3e930890	0.2871747
57	0x3e505fba	0.20349017
58	0x3e269bcd	0.16270371
59	0x3e4b6407	0.19862376
60	0x3e8a1e3c	0.26976192
61	0x3ee954a0	0.45572376
62	0x3e99f32a	0.30068332
63	0x3e95c1c2	0.29249388

phi.initial_conv_module.0._layers.4.conv.weight f4 [64, 1, 5]
0	0xbe905025	-0.28186145
1	0x3ecb8dfa	0.39756757
2	0x3ec468f6	0.3836133
3	0x3eb567fe	0.35430902
4	0xbe2a6148	-0.16638672
5	0x3e84a999	0.25910643
6	0xbecabbe7	-0.39596483
7	0x3e4432c0	0.19159985
8	0xbd7e631c	-0.062106237
9	0xbec33078	-0.38122916
10	0xbeb30641	-0.3496571
11	0xbec26a43	-0.37971696
12	0x3d837075	0.06417934
13	0xbe5d18f9	-0.21591558
14	0xbe659b2a	-0.22422472
15	0x3ec49a33	0.38398895
16	0xbe0b946a	-0.13630834
17	0x3e2d706f	0.16937421
18	0xbd55868c	-0.052130267
19	0x3e9e68ce	0.30939335
20	0x3dd75c88	0.10515696
21	0x3e80e8ae	0.2517752
22	0x3e034a6c	0.12821358
23	0xbd47716e	-0.04869216
24	0x3edd3772	0.43206364
25	0xbd9a24bf	-0.0752654
26	0xbe86c770	-0.26324034
27	0x3e1d5e79	0.1536807
28	0xbd2ceca4	-0.042217866
29	0xbe9f90b9	-0.31165102
30	0x3dfe2f6f	0.12411391
31	0xbd36116a	-0.0444502
32	0xbe29d300	-0.16584396
33	0xbe1b193b	-0.15146343
34	0xbe45fcfc	-0.19334787
35	0xbe12510c	-0.1428873
36	0x3db06245	0.086124934
37	0x3ee3f5a8	0.44523358
38	0xbe81c0ff	-0.25342557
39	0xbe5aadc1	-0.21355344
40	0xbe85bed4	-0.26122153
41	0x3d00c917	0.031441774
42	0x3d92d3fc	0.07169339
43	0xbe8cc44f	-0.27493522
44	0x3e78a594	0.24281913
45	0xbeeb3fa8	-0.45947003
46	0x3eb1520f	0.34632918
47	0x3c4d45ff	0.012528895
48	0xbde9d7a3	-0.114180826
49	0xbe64a1bf	-0.22327326
50	0x3e26f6a8	0.1630503
51	0x3e9e89b3	0.3096443
52	0xbe8f1248	-0.27943635
53	0xbdae65e2	-0.08515526
54	0x3ec2a832	0.38018948
55	0xbd9815e8	-0.07426053
56	0xbe889449	-0.26675633
57	0xbe142675	-0.14467795
58	0xbcdb7b7f	-0.026792286
59	0xbe1b26f0	-0.15151572
60	0xbe6f899c	-0.23392338
61	0xbe5fe072	-0.21862963
62	0x3e390586	0.18068513
63	0x3ebf8a6c	0.37410295
64	0x3ef0bee3	0.47020635
65	0xbd316a92	-0.043314524
66	0x3e3b0e24	0.18267113
67	0xbea7c4d3	-0.32767352
68	0x3e8b6bfe	0.2723083
69	0x3eec551c	0.46158683
70	0x3e8103be	0.25198168
71	0xbe29e985	-0.16592987
72	0x3eb2d96c	0.34931505
73	0xbedd6676	-0.43242234
74	0xbd96e0b6	-0.07367079
75	0xbc34e98d	-0.011042011
76	0xbed05995	-0.40693346
77	0xbeb90aac	-0.36140954
78	0xbea74e47	-0.32676908
79	0x3e0a817d	0.13525958
80	0xbd5b6fab	-0.05357329
81	0x3e54e72a	0.20791307
82	0xbd16bb63	-0.0367998
83	0x3eca00d0	0.39453745
84	0x3cd9d85c	0.026592426
85	0x3ec71b57	0.38888046
86	0x3ebe3f95	0.37157884
87	0xbebcac3c	-0.36850154
88	0xbe9176ae	-0.28410858
89	0x3e8f33ff	0.27969357
90	0x3ecd2ead	0.40074673
91	0xbed0161d	-0.4064187
92	0xbc85fb67	-0.01635523
93	0xbe3b82a9	-0.18311562
94	0x3ed0b4f9	0.4076307
95	0x3ea2303e	0.3167743
96	0x3e9c5a28	0.30537534
97	0x3e89317c	0.26795566
98	0xbce2068d	-0.027591014
99	0x3ee74cfb	0.4517592
100	0xbe25da93	-0.1619666
101	0x3cb1b2a2	0.021691624
102	0xbdfbdfcb	-0.122985445
103	0xbeaae6e4	-0.3337928
104	0xbe8db091	-0.27673772
105	0x3e1bd1af	0.15216707
106	0xbc17425f	-0.009232133
107	0xbe884198	-0.26612544
108	0xbce92ebc	-0.028464667
109	0x3ddf7d5d	0.10912583
110	0xbe94fd1e	-0.29099363
111	0x3e78237d	0.24232288
112	0xbee2f266	-0.4432556
113	0xbd34175f	-0.0439676
114	0xbebb2dca	-0.36558372
115	0xbe921ed9	-0.2853916
116	0x3d7cd0d6	0.0617226
117	0x3eff5ebd	0.49876967
118	0x3efbdf4a	0.49193794
119	0x3e75fde2	0.2402263
120	0x3ebea0d2	0.3723207
121	0xbe54fd7f	-0.20799826
122	0x3e85a3f4	0.2610165
123	0x3e865c5f	0.2624235
124	0xbedcbf0e	-0.43114513
125	0xbea24ba4	-0.31698334
126	0x3e452432	0.19252089
127	0x3c8f4038	0.017486677
128	0xbeadd1e6	-0.33949202
129	0xbec1b638	-0.37834334
130	0x3eccd101	0.40003207
131	0x3e135b5e	0.14390323
132	0x3d94075a	0.07227965
133	0xbeba0e27	-0.36338922
134	0x3ed6feac	0.41991174
135	0xbea14454	-0.31497443
136	0x3e2cbf0e	0.16869757
137	0xbd9a6694	-0.075390965
138	0x3abbec62	0.0014337415
139	0x3e63dd71	0.22252442
140	0xbe1da33d	-0.15394302
141	0xbe1e64e1	-0.1546817
142	0x3ea5fbe8	0.32418752
143	0xbebe4a4a	-0.37166053
144	0x3e32b4a2	0.17451718
145	0xbdfd413a	-0.123659566
146	0xbe1a3c34	-0.15062028
147	0x3ea0b5b0	0.31388617
148	0x3db4166b	0.087933384
149	0xbec71ac3	-0.38887605
150	0x3eda3801	0.42620853
151	0xbe4d5a94	-0.20054084
152	0x3ec21052	0.37903076
153	0xbdcc6790	-0.099806905
154	0x3eddd21f	0.43324372
155	0x3e0d45fe	0.13796231
156	0xbca8f7b0	-0.02062592
157	0x3e315ba5	0.17320116
158	0xbc6be2ae	-0.014397306
159	0xbe67599a	-0.22592774
160	0x3e2b06f6	0.16701874
161	0x3e73490b	0.23758332
162	0xbd32951a	-0.043599226
163	0x3f006753	0.5015766
164	0x3d066471	0.032810632
165	0xbe8919c9	-0.26777485
166	0xbe7fa22b	-0.24964206
167	0x3e92a967	0.2864487
168	0xbe517b5e	-0.20457217
169	0x3e860b64	0.26180565
170	0xbef0b968	-0.47016454
171	0xbcfd90f7	-0.030952914
172	0xbead22c4	-0.33815587
173	0x3e001800	0.12509155
174	0x3eaae7e4	0.33380044
175	0x3e1a7d8f	0.1508696
176	0xbe5c385c	-0.21505874
177	0xbecc6f67	-0.39928743
178	0xbe1a873b	-0.15090649
179	0xbe99922d	-0.29994336
180	0x3ecbad5e	0.39780706
181	0xbe8a4c7b	-0.27011475
182	0x3e25f3d2	0.16206291
183	0x3ebb9585	0.36637512
184	0x3e4a6f65	0.19769056
185	0xbed47de1	-0.41502288
186	0xbdedc55f	-0.11609911
187	0xbe404634	-0.1877678
188	0x3e6a4470	0.2287767
189	0xbddab5e3	-0.106792234
190	0xbc8c21c5	-0.017105946
191	0x3ed0bec6	0.4077055
192	0x3de4e7e3	0.111770414
193	0x3e4dca83	0.20096783
194	0xbe1c7625	-0.15279444
195	0x3e96a1eb	0.2942041
196	0x3d906951	0.070513375
197	0xbdafc6ad	-0.08582816
198	0x3da59e6e	0.08086859
199	0xbeb844f7	-0.35990116
200	0x3cb41637	0.02198325
201	0x3e53375c	0.20626587
202	0xbedaed5b	-0.42759213
203	0xbe7d761a	-0.24752083
204	0x3e88f00d	0.26745644
205	0xbd122ffb	-0.03569029
206	0xbd5efd6d	-0.054440904
207	0x3c8d29fb	0.017231932
208	0xbe591596	-0.2119964
209	0x3eb90e3e	0.36143678
210	0x3af881e1	0.0018959605
211	0xbe0e3d18	-0.13890493
212	0x3e6c544e	0.23079035
213	0xbed973d1	-0.42471173
214	0xbd945dbe	-0.072444424
215	0xbc83134f	-0.016000418
216	0xbe34e409	-0.17665114
217	0x3e641c79	0.22276486
218	0xbebbcea4	-0.36681092
219	0xbe212711	-0.15737559
220	0xbe107a34	-0.14109117
221	0x3eee746a	0.46573192
222	0x3e5f6de6	0.21819267
223	0xbea8b6a0	-0.32951832
224	0x3dfee0e5	0.12445239
225	0xbd11a903	-0.035561573
226	0x3eab6302	0.33473974
227	0x3ea3eeb2	0.32018048
228	0xbe41cc37	-0.18925558
229	0x3ee8e19b	0.45484623
230	0xbda798a8	-0.08183414
231	0xbddb23c3	-0.107001804
232	0x3e1143db	0.14186041
233	0x3eecb95e	0.46235174
234	0x3dc12e62	0.09432675
235	0xbeea147d	-0.45718756
236	0xbe23e5c3	-0.16005616
237	0x3eca5e04	0.39524853
238	0xbe3e5103	-0.18585591
239	0xbe6d16ae	-0.23153183
240	0xbed4a98d	-0.41535607
241	0xbe6e0def	-0.23247503
242	0xbe7f2a27	-0.24918424
243	0x3db4c8aa	0.08827336
244	0x3e26098f	0.16214584
245	0x3edd7131	0.4325042
246	0x3ea8ca6d	0.3296694
247	0x3c89d38a	0.016824502
248	0x3e8668d8	0.26251864
249	0x3e4bfe6a	0.1992127
250	0xbed8a63e	-0.42314333
251	0x3e3c0232	0.18360212
252	0xbea800e0	-0.32813168
253	0x3eb0b8c2	0.3451596
254	0xbe30d12b	-0.17267291
255	0x3dc1c695	0.09461705

phi.initial_conv_module.0._layers.5.weight f4 [64]
0	0x3f6acad9	0.9171577
1	0x3f7de497	0.99176925
2	0x3f7e5c0e	0.99359214
3	0x3f7c82f1	0.986373
4	0x3f7c213a	0.984882
5	0x3f7f424d	0.9971054
6	0x3f81e596	1.0148189
7	0x3f8fdb5b	1.1238817
8	0x3f7f2aa1	0.9967442
9	0x3f77cfdd	0.9680155
10	0x3f75479b	0.95812386
11	0x3f80cda6	1.0062759
12	0x3f873b32	1.056494
13	0x3f7b14bf	0.9807853
14	0x3f88b312	1.0679648
15	0x3f86a30a	1.0518506
16	0x3f74f19c	0.95681167
17	0x3f718552	0.94344056
18	0x3f7319ab	0.9496104
19	0x3f81d776	1.0143878
20	0x3f88a9c7	1.0676812
21	0x3f88ecba	1.0697243
22	0x3f7e49c1	0.9933129
23	0x3f7cc488	0.9873738
24	0x3f83dd26	1.0301864
25	0x3f75a2e9	0.95951706
26	0x3f853f28	1.0409899
27	0x3f83d1ab	1.029836
28	0x3f73df07	0.9526219
29	0x3f805f25	1.0029036
30	0x3f7db139	0.99098545
31	0x3f831c6a	1.0243046
32	0x3f7d70ff	0.99000543
33	0x3f879ed9	1.0595351
34	0x3f888d41	1.0668107
35	0x3f81ab96	1.0130489
36	0x3f786856	0.97034204
37	0x3f822158	1.0166426
38	0x3f83591a	1.0261567
39	0x3f89b412	1.0758078
40	0x3f826baa	1.0189106
41	0x3f7e260c	0.99276805
42	0x3f800d22	1.0004008
43	0x3f81c3ac	1.0137839
44	0x3f807013	1.0034202
45	0x3f80faaf	1.0076503
46	0x3f7e0366	0.99223936
47	0x3f8085aa	1.0040791
48	0x3f803803	1.0017093
49	0x3f7742c7	0.9658627
50	0x3f83bd4c	1.0292144
51	0x3f92b76e	1.1462228
52	0x3f8382fa	1.0274346
53	0x3f81d808	1.0144053
54	0x3f7f4293	0.9971096
55	0x3f815abd	1.0105816
56	0x3f869766	1.0514953
57	0x3f89b707	1.075898
58	0x3f865119	1.0493499
59	0x3f868500	1.0509338
60	0x3f816ff0	1.0112286
61	0x3f728de9	0.9474779
62	0x3f7665c8	0.96249056
63	0x3f7308db	0.9493539

phi.initial_conv_module.0._layers.5.bias f4 [64]
0	0xbd548eaf	-0.051893886
1	0x3cc4a3fc	0.024003975
2	0x3d9dff02	0.077146545
3	0xbc05393c	-0.0081313215
4	0x3c180ead	0.009280843
5	0xbd1d148c	-0.038349673
6	0xbbea0338	-0.007141497
7	0x3e0b15de	0.1358256
8	0xbd50a0fc	-0.050934777
9	0x3cc732e8	0.024316266
10	0xbc9480c6	-0.01812781
11	0x3c8762dd	0.016526634
12	0x3d7242ce	0.05914574
13	0xbc9961c0	-0.018723369
14	0x3da7e6cd	0.08198319
15	0x3cb3c849	0.02194609
16	0xbd03257b	-0.032018166
17	0xbd23c894	-0.039986208
18	0xbbdcf05a	-0.0067425193
19	0xbbd2983b	-0.0064268387
20	0x3c2695e4	0.010167573
21	0x3c404ec1	0.011737526
22	0x3cb973f1	0.022638293
23	0x3ce4af1d	0.027915532
24	0x3c72ee71	0.014827357
25	0xbcf96f05	-0.030448446
26	0x3d28de86	0.04122784
27	0x3cf33e9c	0.02969294
28	0x3a1f90eb	0.0006086963
29	0xbc8baa1f	-0.017048893
30	0x3c1e0c06	0.009646421
31	0xbd2f5fb5	-0.042815883
32	0x3c59a8d4	0.013284881
33	0xbcf11571	-0.02942917
34	0x3d4f8a3a	0.050668932
35	0x3c26a0cc	0.010170173
36	0xbc9edbf5	-0.019391993
37	0x3cce3523	0.025171822
38	0x3c983bc4	0.018583186
39	0x3c2e9d7c	0.010657664
40	0x3c1fd47e	0.009755252
41	0xbcd2cec2	-0.025733355
42	0x3caea460	0.021318614
43	0x3d235225	0.03987326
44	0x3cd28aef	0.025701014
45	0x3c87c7c8	0.016574755
46	0x3b1aebf4	0.0023639174
47	0x3cb3e38e	0.021959092
48	0x3cea936f	0.028634755
49	0xbcbcefbf	-0.023063539
50	0x3d844c13	0.064598225
51	0xbc59736f	-0.01327215
52	0x3ce05ed3	0.027388966
53	0xbd1d7e25	-0.03845038
54	0x3d14ce88	0.036329776
55	0x3cf99252	0.030465279
56	0xbc881b1d	-0.016614491
57	0x3c5f6602	0.01363516
58	0xbcf56930	-0.029957384
59	0x3d9bccd9	0.07607431
60	0x3be6423f	0.00702694
61	0xbd18db89	-0.03731874
62	0xbd1eb7d6	-0.03874954
63	0x3a1d8dd8	0.0006010211

phi.initial_conv_module.0._layers.5.running_mean f4 [64]
0	0x3de0151c	0.10941526
1	0xbd8cfa47	-0.06883674
2	0xbe599ac7	-0.21250449
3	0x3dce49ad	0.10072646
4	0x3e20db80	0.15708733
5	0xbdb2ddb9	-0.087336965
6	0xbd9c3b88	-0.07628542
7	0xbc538c9e	-0.012911944
8	0xbd0b3996	-0.033990465
9	0xbd918337	-0.07105105
10	0x3d95ddb6	0.07317679
11	0xbdcbe2ff	-0.099554054
12	0x3dd05c47	0.101738505
13	0x3d9af5aa	0.07566388
14	0xbc755788	-0.014974482
15	0xbe150dd2	-0.14556053
16	0x3d972c78	0.073815286
17	0x3cc53cc2	0.024076823
18	0x3d065522	0.032796033
19	0x3e4238d4	0.1896699
20	0xbe15251b	-0.14564936
21	0xbc0575d3	-0.008145767
22	0xbe0e25c0	-0.13881588
23	0x3e395e1c	0.18102306
24	0x3d3e7420	0.046497464
25	0xbe1b620a	-0.15174118
26	0x3e026411	0.12733485
27	0x3a1670d0	0.0005738856
28	0xbcc6bfb0	-0.024261326
29	0xbd3977e1	-0.04528034
30	0x3e158840	0.14602757
31	0x3c271f08	0.0102002695
32	0x3e1c7626	0.15279445
33	0xbd00618d	-0.03134303
34	0xbcedf35b	-0.029046705
35	0xbe19a22e	-0.15003273
36	0x3db6bed6	0.08923118
37	0xbdd697fe	-0.10478209
38	0x3de0d300	0.10977745
39	0xba29c650	-0.0006476389
40	0xbcedeeef	-0.029044596
41	0x3c48b6dc	0.012250628
42	0xbd848f1b	-0.06472608
43	0xbdb1fd27	-0.08690863
44	0x3d6b5ce2	0.057461627
45	0x3e043a8d	0.1291296
46	0x3d98dc25	0.07463864
47	0xbdf1c1de	-0.11804555
48	0xbdc3fd78	-0.0956983
49	0x3e4f09af	0.20218538
50	0xbd8609d1	-0.06544841
51	0xbbe14b81	-0.006875456
52	0xbd4bdd8d	-0.049771834
53	0xbd4b86a4	-0.04968895
54	0xbdd18747	-0.1023088
55	0xbe00a6b8	-0.12563598
56	0xbc44d3d7	-0.012013397
57	0xbcd1e0a3	-0.02561981
58	0xbc3d3047	-0.011547155
59	0xbda0d2ff	-0.07852744
60	0x3da268d8	0.079301536
61	0xbd7e13d6	-0.062030636
62	0x3d39e988	0.04538873
63	0xbd2784a6	-0.040897988

phi.initial_conv_module.0._layers.5.running_var f4 [64]
0	0x3e521c1b	0.20518534
1	0x3d2d739f	0.042346593
2	0x3e7b88dd	0.24563928
3	0x3db2781b	0.087143146
4	0x3e3b7664	0.18306881
5	0x3dede461	0.116158254
6	0x3d0545bb	0.032537203
7	0x3ca67052	0.02031723
8	0x3cf26e01	0.02959347
9	0x3d882ede	0.06649564
10	0x3d8edb72	0.069754496
11	0x3d7ed28b	0.06221251
12	0x3ea505c6	0.32230967
13	0x3e301282	0.1719456
14	0x3c827ed5	0.015929619
15	0x3e927ce7	0.28610918
16	0x3de19a9e	0.11015819
17	0x3d34e789	0.04416612
18	0x3ca90ecf	0.020636944
19	0x3ef50181	0.4785271
20	0x3e85da4c	0.2614311
21	0x3c4c330b	0.0124633415
22	0x3ea4ae5a	0.3216427
23	0x3eae3e0a	0.34031707
24	0x3d330a75	0.043711144
25	0x3e5b0beb	0.21391265
26	0x3e23a704	0.1598168
27	0x3c07f61b	0.008298422
28	0x3c797aa8	0.015226997
29	0x3cd1fbac	0.025632702
30	0x3ec3a8cd	0.38214722
31	0x3b7103f1	0.003677603
32	0x3e3498d2	0.17636421
33	0x3d522442	0.05130411
34	0x3d56b193	0.05241544
35	0x3e725712	0.23666027
36	0x3e4cf768	0.20016253
37	0x3dd1a051	0.10235656
38	0x3e271a52	0.16318634
39	0x3cbaf034	0.022819616
40	0x3ce7913d	0.028267497
41	0x3c24cfc4	0.010059301
42	0x3dc27a62	0.09495999
43	0x3da4e586	0.080515906
44	0x3d954abb	0.07289644
45	0x3df89380	0.121375084
46	0x3d87c435	0.066292204
47	0x3e2aa868	0.16665804
48	0x3d93affd	0.072113015
49	0x3eb5a53f	0.35477635
50	0x3d822c1a	0.06356068
51	0x3c4c952f	0.01248674
52	0x3d5cf2c9	0.053942475
53	0x3d110fe0	0.03541553
54	0x3df4e952	0.11958565
55	0x3e1bdc13	0.1522067
56	0x3cb83587	0.022486461
57	0x3c8861aa	0.016648132
58	0x3bee236f	0.0072674076
59	0x3db71d6b	0.08941158
60	0x3e926e12	0.28599602
61	0x3d241c10	0.040065825
62	0x3da9a4b7	0.0828337
63	0x3cabf91b	0.020992806

phi.initial_conv_module.0._layers.7.se_conv.conv.weight f4 [10, 64, 1]
0	0x3dc2ccef	0.09511744
1	0xbddb87cd	-0.10719261
2	0xbd8e7fe7	-0.06957989
3	0xbd147ae2	-0.036250003
4	0xbe1d2271	-0.1534517
5	0xbdf937d0	-0.121688485
6	0xbe1d93ec	-0.15388459
7	0x3da25eab	0.07928213
8	0x3d35ddef	0.044401105
9	0xbdb2f9ba	-0.08739038
10	0x3bcb9dca	0.0062138783
11	0xbe194a94	-0.14969856
12	0xbe4026d8	-0.18764818
13	0xbe09694d	-0.13419075
14	0xbe1e6240	-0.15467167
15	0x3dc76803	0.097366355
16	0xbd888b6b	-0.06667217
17	0xbbf81d6b	-0.0075718663
18	0xbe14a464	-0.14515835
19	0xbc085373	-0.008320677
20	0xbca90407	-0.020631803
21	0xbdf9cc70	-0.121971965
22	0x3db2d599	0.08732147
23	0x3e0c467d	0.13698764
24	0xbdea2c86	-0.114342734
25	0x3da66229	0.08124191
26	0x3beb6ec3	0.0071848347
27	0xbd159ddd	-0.036527503
28	0x3da0b695	0.07847325
29	0xbd521457	-0.05128893
30	0x3cfd9f0f	0.030959634
31	0x3d99e9cb	0.075152956
32	0xbda4d15f	-0.08047747
33	0xbd81116d	-0.06302152
34	0xbe18965d	-0.14901109
35	0x3d62fb47	0.055415418
36	0xbe22dbee	-0.15904209
37	0xbde76673	-0.112988375
38	0xbe0ff8dc	-0.14059776
39	0xbe5e5943	-0.21713738
40	0xbe0a93bd	-0.1353292
41	0x3dceae3d	0.10091827
42	0x3da5bccf	0.08092653
43	0x3dbbbc7a	0.091668084
44	0xbdaff50a	-0.08591659
45	0xbb394f75	-0.002827612
46	0xbd21c6e1	-0.039496306
47	0x398379d2	0.0002507703
48	0xbdae1d19	-0.08501644
49	0x3d273132	0.0408184
50	0xbe1c60d0	-0.15271306
51	0xbd98193a	-0.074266866
52	0x3e0521f8	0.1300124
53	0xbc00875c	-0.007844772
54	0x3d94bf60	0.072630644
55	0xbde3f6ee	-0.111310825
56	0x3b3ddcbe	0.0028970684
57	0xbd7218a1	-0.05910552
58	0xbd884273	-0.06653299
59	0xbd4649ae	-0.04841011
60	0xbe1d74c1	-0.1537657
61	0xbda90aea	-0.08254035
62	0xbd03a4ea	-0.032139696
63	0x3d10f795	0.035392363
64	0x3c30bb0a	0.010786781
65	0xbdb619a1	-0.08891607
66	0x3de72ba3	0.1128762
67	0x3dbdc0c2	0.09265281
68	0xbda76846	-0.081741855
69	0x3cac29b6	0.021015983
70	0x3d8ea2f1	0.06964672
71	0xbe1a3910	-0.1506083
72	0xbdb67ae5	-0.08910159
73	0x3d816908	0.06318861
74	0xbc30bab6	-0.010786703
75	0x3d6d98b0	0.058006942
76	0xbd6ff212	-0.058580466
77	0x3d20603c	0.039154276
78	0x3d7165c8	0.058934957
79	0xbccb53fc	-0.02482032
80	0xbcf4f3c1	-0.029901387
81	0xbe1e1106	-0.15436181
82	0xbd45c30d	-0.048281718
83	0x3da86855	0.08223025
84	0xbe09a7e1	-0.13442947
85	0xbcd02848	-0.025409833
86	0x3d40b8dd	0.0470513
87	0xbc82afc0	-0.015952945
88	0xbd9f7d31	-0.0778755
89	0xbd298e78	-0.041395634
90	0xbd5e2cbb	-0.054241877
91	0xbdba6b4d	-0.09102497
92	0xbe28decc	-0.1649124
93	0x3d88c62d	0.06678424
94	0xbd58a358	-0.05289015
95	0xbccee66f	-0.025256364
96	0xbd14b2c6	-0.036303304
97	0x3c3e44aa	0.0116130505
98	0xbda0a436	-0.07843821
99	0xbddb6793	-0.107131146
100	0xbdc05bda	-0.09392519
101	0xbdc1bed7	-0.09460228
102	0xbe039c22	-0.12852529
103	0xbd816675	-0.0631837
104	0xbdcb31ed	-0.09921632
105	0xbd2445e3	-0.04010571
106	0xbe20683d	-0.15664764
107	0xbdb0e780	-0.08637905
108	0xbcbb986f	-0.022899834
109	0xbde65b84	-0.11247924
110	0x3cae0ca5	0.021246264
111	0x3c81bc3d	0.01583683
112	0xbba1d4f4	-0.004938716
113	0x3cb0ae4c	0.021567486
114	0x3cbd8d84	0.023138769
115	0xbd1e2e25	-0.038618226
116	0xbc9ffba8	-0.019529179
117	0x3dd193d4	0.10233274
118	0x3dc4d88e	0.09611617
119	0x3b8cdf39	0.004299071
120	0x3d41e926	0.04734149
121	0xbda641ad	-0.081179954
122	0xbdb49aaa	-0.08818562
123	0x3afa2b34	0.0019086362
124	0x3cb27802	0.02178574
125	0x3e0293de	0.1275172
126	0x3c1bc8bd	0.009508309
127	0xbd2ac33c	-0.041690096
128	0x3da4bf9b	0.08044358
129	0x3c3e93e4	0.01163194
130	0x3e282d59	0.16423549
131	0xbd6cdfc3	-0.057830583
132	0xbc4c72a1	-0.012478502
133	0x3c13b702	0.0090158
134	0x3dba8cc1	0.09108878
135	0xbdc45cc1	-0.09588004
136	0x3c659ab5	0.014013936
137	0x3da4c3d4	0.08045164
138	0xbbb54017	-0.0055313217
139	0x3da99db8	0.082820356
140	0xbc8d055a	-0.017214466
141	0xbc9af923	-0.018917626
142	0xbde47c51	-0.11156524
143	0xbd4b0199	-0.04956207
144	0xbd7950c9	-0.06086806
145	0x3cb1a3d6	0.021684568
146	0x3d2bcae2	0.04194153
147	0xbd76b70c	-0.06023316
148	0x3e167eba	0.1469678
149	0x3dc490b8	0.095979154
150	0x3c8333e1	0.016015949
151	0xbd544e4e	-0.05183249
152	0x3dbfcacf	0.093648545
153	0xbdac7368	-0.084204495
154	0x3db14695	0.086560406
155	0xbc6b17a8	-0.014348902
156	0x3c96d88a	0.0184138
157	0xbd065537	-0.03279611
158	0x3de15d1f	0.110040896
159	0xbd58f0d5	-0.05296405
160	0xbcff60b0	-0.031174034
161	0xbc56b5c4	-0.01310486
162	0xbd5de3c4	-0.054172292
163	0xbd8b46a7	-0.06800585
164	0xbb453adf	-0.0030094904
165	0x3ca5ba26	0.020230364
166	0x3ddc04a1	0.107430704
167	0xbd19e0f9	-0.037568066
168	0x3de0d64c	0.10978374
169	0xbcaf1c01	-0.021375658
170	0xbe12d3e3	-0.14338641
171	0xbd91b40f	-0.071144216
172	0xbc9abf38	-0.018890008
173	0xbcba90c6	-0.022774111
174	0x3e0c46c4	0.1369887
175	0x3cfe78b3	0.031063413
176	0xbdd5130f	-0.10404026
177	0xbd758566	-0.05994167
178	0x3d0d5256	0.03450235
179	0xbe0476bf	-0.12935923
180	0x3be9fce2	0.0071407417
181	0x3df7ac64	0.12093428
182	0x3dd1b0ea	0.10238822
183	0xbd354ce4	-0.04426278
184	0xbc6b8d73	-0.014376986
185	0xbd9334c7	-0.07187801
186	0x3b95197a	0.004550156
187	0x3d3c44e5	0.04596414
188	0xbd5e4576	-0.05426546
189	0x3d333da9	0.043759976
190	0xbdb989d1	-0.090594895
191	0xbd848928	-0.06471473
192	0xbc8a1864	-0.016857333
193	0xbd8b73bb	-0.06809183
194	0xb91798a5	-0.00014457347
195	0xbdd837a4	-0.105574876
196	0xbc51b1ea	-0.012798766
197	0x3d40538d	0.04695468
198	0x3e3b778f	0.18307327
199	0xbc0c4314	-0.008560915
200	0xbe00928b	-0.12555902
201	0xbd7ec466	-0.06219902
202	0x3cf43b68	0.029813483
203	0xbd192495	-0.037388403
204	0x3e20e957	0.15714012
205	0xbd9629f8	-0.07332224
206	0x3de41860	0.11137462
207	0x3d128d29	0.035779152
208	0x3d532d0b	0.05155663
209	0x3dfc6937	0.12324756
210	0x3dbebc1c	0.09313223
211	0xbc2d0fb1	-0.010562823
212	0xbdc17581	-0.0944624
213	0x3d3208d2	0.043465443
214	0x3c7aad27	0.015300072
215	0x3db668bb	0.089066945
216	0xbc986f17	-0.01860766
217	0xbce15092	-0.02750424
218	0xbdb9bbe3	-0.0906904
219	0x3e06a102	0.13147357
220	0x3df8aff5	0.12142936
221	0x3dd99c29	0.10625488
222	0xbd371ac1	-0.04470325
223	0x3e16eb57	0.14738213
224	0x3afa3f31	0.0019092319
225	0x3e331ea7	0.17492162
226	0x3d9e54e9	0.07731039
227	0xbe1c9d11	-0.15294291
228	0x3d0146a5	0.031561513
229	0x3d6325b5	0.055455882
230	0xbd77e884	-0.06052448
231	0x3e92a06c	0.28638017
232	0x3de4d320	0.111730814
233	0x3df0dbf9	0.117607065
234	0xbc40dddd	-0.011771646
235	0xbdbb6639	-0.09150357
236	0x3d778888	0.06043294
237	0x3dd4a18a	0.10382374
238	0xbdb78854	-0.089615494
239	0x3e23674c	0.15957373
240	0x3e00b042	0.12567237
241	0x3d1030d7	0.035202827
242	0xbd39b3f8	-0.045337647
243	0x3db883c2	0.09009506
244	0x3dff45b1	0.124644645
245	0xbd421d78	-0.047391385
246	0xbd83a116	-0.06427209
247	0x3cc66245	0.02421678
248	0x3bfb938b	0.0076775006
249	0xbdaea554	-0.085276276
250	0x3da6cdc4	0.081447154
251	0x3dc675bf	0.09690427
252	0xbc326af8	-0.010889761
253	0xbd3f5543	-0.04671217
254	0xbd821bd3	-0.06352963
255	0x3dd3dd58	0.10344952

phi.initial_conv_module.0._layers.7.se_conv2.conv.weight f4 [64, 10, 1]
0	0xbd866a0e	-0.06563197
1	0x3e2be1eb	0.167854
2	0xbd95f79e	-0.0732262
3	0xbda59058	-0.08084172
4	0xbe82143f	-0.25406072
5	0x3d0703f7	0.032962766
6	0xbe9c00a3	-0.30469236
7	0x3e9c17ef	0.3048701
8	0xbe3a0c88	-0.18168843
9	0xbd296526	-0.04135623
10	0x3d8b7a9b	0.068104945
11	0xbde40810	-0.1113435
12	0x3eaa3dd4	0.33250296
13	0x3d555612	0.052084036
14	0x3d1f40d3	0.03888018
15	0xbe9e7410	-0.30947924
16	0x3c476aac	0.012171429
17	0x3df03123	0.11728122
18	0x3d08a85c	0.033363685
19	0xbd42bd17	-0.04754361
20	0x3e35a507	0.17738734
21	0x3e79cfde	0.24395701
22	0x3e532660	0.20620108
23	0xbd60f0f6	-0.0549173
24	0x3d34a994	0.044107035
25	0xbe709a81	-0.23496439
26	0xbe5e2bbb	-0.2169637
27	0xbda7c095	-0.08191029
28	0x3d2eb88c	0.042656466
29	0xbe1b9a5f	-0.15195607
30	0xbe58f8ef	-0.2118871
31	0x3e0dedde	0.1386027
32	0x3dc36c2a	0.09542115
33	0xbe620119	-0.22070731
34	0x3e40d888	0.188326
35	0xbe611ce0	-0.21983671
36	0x3e645211	0.22296931
37	0x3e120de1	0.14263107
38	0xbd8e3686	-0.06943993
39	0x3e9b9ba6	0.30392188
40	0xbe14b424	-0.14521843
41	0xbe0ffc01	-0.14060976
42	0x3e75bc4f	0.23997615
43	0xbd9b3413	-0.07578292
44	0xbe04b1f9	-0.12958516
45	0x3aa142fd	0.0012303289
46	0xbda5a3db	-0.080878936
47	0x3e360485	0.17775162
48	0x3ea9fcaa	0.3320058
49	0x3e7bc8e0	0.24588346
50	0x3dceced2	0.100980416
51	0xbbfecd34	-0.007775927
52	0xbdded74a	-0.10880907
53	0xbc6df9f5	-0.014524926
54	0x3cb21995	0.021740714
55	0x3e42ca4f	0.19022487
56	0x3e5ad324	0.21369606
57	0xbd7c8faf	-0.061660465
58	0x3e589cb1	0.21153523
59	0x3dbc3120	0.09189057
60	0x3e07f496	0.13276896
61	0x3e90aa8a	0.2825511
62	0xbe78d3b0	-0.24299502
63	0xbd41db00	-0.047327995
64	0xbe10ed88	-0.14153111
65	0xbec92d34	-0.392923
66	0xbe9e34e8	-0.3089974
67	0xbd92edf8	-0.07174295
68	0x3e8575fe	0.26066583
69	0xbe3ddf48	-0.18542206
70	0x3c4c21ca	0.012459228
71	0x3df50661	0.11964107
72	0xbe90edb4	-0.28306353
73	0x3e14ef8c	0.14544505
74	0x3e44633e	0.19178483
75	0xbe8bbce0	-0.27292538
76	0x3dedf91a	0.11619778
77	0xbea6c395	-0.32571092
78	0x3ed17639	0.4091051
79	0x3e8ba59f	0.27274796
80	0x3e133fbb	0.1437978
81	0x3e69f800	0.2284851
82	0x3e49e873	0.19717579
83	0x3e99c3e4	0.30032265
84	0x3d7f5497	0.06233653
85	0xbe58b9cb	-0.21164624
86	0x3e9e4b8a	0.30917007
87	0x3d6185e0	0.055059314
88	0xbe1ec1d8	-0.15503633
89	0xbe208ea1	-0.15679409
90	0x3ebc57cd	0.36785737
91	0x3dbf9db3	0.093562506
92	0x3e239da5	0.15978105
93	0xbdaca4d5	-0.08429877
94	0x3e98bef1	0.29833177
95	0xbe7dbea0	-0.24779749
96	0x3db46a81	0.088093765
97	0x3c94f56f	0.018183438
98	0x3d0460b2	0.03231878
99	0x3eb92da6	0.3616764
100	0x3dcfb51b	0.10141965
101	0x3cd7d47d	0.02634644
102	0x3e8d63db	0.27615246
103	0xbc4dac90	-0.012553349
104	0x3b236496	0.002493178
105	0xbe443e8f	-0.19164489
106	0xbc57f3bc	-0.013180669
107	0xbdd56787	-0.10420137
108	0x3e222e9f	0.15838097
109	0x3e4e548d	0.20149441
110	0xbeaa8adb	-0.33309063
111	0xbe5ae674	-0.21376973
112	0x3e806fba	0.2508524
113	0xbe30f698	-0.17281568
114	0x3e8d18d6	0.2755801
115	0x3e948c6f	0.29013392
116	0xbd9761a7	-0.073916726
117	0xbe6e2f41	-0.23260213
118	0x3e5288d0	0.20560002
119	0x3e6269fc	0.22110742
120	0x3e999a4f	0.3000054
121	0x3c0141c7	0.007889218
122	0x3e69dfbc	0.22839254
123	0xbe88a6dd	-0.26689807
124	0x3d9b7670	0.075909495
125	0x3dda17c7	0.106490664
126	0x3e72f7f1	0.23727395
127	0xbe3f699d	-0.18692632
128	0xbd59ad44	-0.053143755
129	0xbe2319c3	-0.15927796
130	0xbe78c4d2	-0.24293831
131	0x3e2e807f	0.17041205
132	0x3d926798	0.07148665
133	0x3d822dac	0.063563675
134	0xbd6ca40d	-0.05777364
135	0x3c79b96f	0.015241965
136	0xbda9390e	-0.082628354
137	0x3e81a3a8	0.25320172
138	0xbe67bb8b	-0.22630136
139	0x3d6b50f4	0.05745025
140	0x3e3920ce	0.1807892
141	0x3da74b50	0.081686616
142	0xbe3e91e9	-0.18610348
143	0x3e64f66f	0.22359632
144	0xbdf2f684	-0.118634254
145	0x3e044401	0.12916566
146	0x3ecb2321	0.3967524
147	0xbdfe0e9c	-0.1240513
148	0x3e167c92	0.14695957
149	0xbe6c1532	-0.2305496
150	0xbe2c76f3	-0.1684225
151	0xbdf44979	-0.11928076
152	0xbe87033c	-0.26369655
153	0xbdb03d4a	-0.0860544
154	0x3e91e4ee	0.28494972
155	0xbd8eff4c	-0.06982288
156	0x3eb3a517	0.3508689
157	0xbe89e541	-0.2693272
158	0x3e0bebd3	0.13664179
159	0x3e99332e	0.2992186
160	0x3ec2e52c	0.3806547
161	0xbe07c67e	-0.13259313
162	0xbe783e41	-0.24242498
163	0xbe023ae8	-0.12717783
164	0x3e60b81a	0.21945229
165	0x3d0d8e4b	0.03455953
166	0x3e78c980	0.24295616
167	0xbe818594	-0.25297225
168	0xbe478839	-0.19485559
169	0x3e23a2a3	0.1598001
170	0x3e1dceea	0.15410963
171	0xbe0770c3	-0.13226609
172	0x3ea6cbeb	0.32577452
173	0xbe25dc6d	-0.16197367
174	0xbe992702	-0.29912573
175	0x3da408d8	0.08009499
176	0xbe4f70e4	-0.20257908
177	0xbe1bba0e	-0.15207693
178	0xbe84ec77	-0.25961658
179	0xbc96300b	-0.018333456
180	0x3e51d343	0.20490746
181	0x3e08a706	0.13344964
182	0xbe3c8f53	-0.18414049
183	0xbdd6e5f6	-0.1049308
184	0x3ea82048	0.3283713
185	0xbe4602aa	-0.19336954
186	0xbde65d7f	-0.11248302
187	0xbe1b2886	-0.15152177
188	0xbeca8806	-0.39556903
189	0xbe9bd76e	-0.30437797
190	0x3ea4bd54	0.32175696
191	0x3db861f5	0.09003059
192	0xbb6adf82	-0.0035838787
193	0x3e26c2c6	0.16285238
194	0x3e45d42e	0.19319221
195	0x3e49d450	0.19709897
196	0x3e299a15	0.16562684
197	0x3e2afbe1	0.16697647
198	0x3e9f1858	0.3107326
199	0x3e97221a	0.29518205
200	0xbcb74beb	-0.022375068
201	0xbbe4061a	-0.006958735
202	0xbe7003b2	-0.2343891
203	0xbe788516	-0.24269518
204	0x3eb43615	0.3519751
205	0xbe7bb5e6	-0.24581107
206	0xbe0f23e5	-0.13978536
207	0xbeb87853	-0.360293
208	0xbe1bd729	-0.15218796
209	0x3e1603a9	0.14649834
210	0x3e2e5243	0.17023568
211	0xbec3fac4	-0.38277256
212	0xbd48a78a	-0.048987903
213	0xbe6c71a0	-0.2309022
214	0x3dfc1952	0.12309517
215	0x3e4ddb41	0.2010317
216	0xbc25e6be	-0.010125814
217	0xbe53161c	-0.20613903
218	0x3e800d6c	0.2501024
219	0xbe19b13c	-0.15009016
220	0xbc721535	-0.014775564
221	0xbe9fc434	-0.3120438
222	0x3e7cbb73	0.24680881
223	0x3e082f78	0.13299358
224	0xbd97c775	-0.0741109
225	0x3e87e9bb	0.2654551
226	0x3ea5aec4	0.32359898
227	0x3dd45d25	0.103693284
228	0xbe90fd19	-0.28318098
229	0xbe0528c2	-0.13003829
230	0x3e738a7f	0.23783301
231	0x3e4c6c32	0.19963148
232	0xbdb3d02a	-0.087799385
233	0x3dc4f196	0.09616391
234	0xbe4af981	-0.1982174
235	0x3ceb87ee	0.02875134
236	0x3e9416a1	0.28923514
237	0x3ca85f8c	0.020553373
238	0xbe946df3	-0.28990135
239	0x3d864a96	0.06557195
240	0x3e73dc7b	0.23814575
241	0x3e653144	0.22382075
242	0xbe7166ef	-0.23574422
243	0xbd849e60	-0.0647552
244	0xbc19f834	-0.009397555
245	0xbd59974f	-0.053122815
246	0xbd80e05e	-0.06292795
247	0xbe367841	-0.1781931
248	0x3db46ba9	0.08809597
249	0x3e19d6ea	0.1502339
250	0xbafe0131	-0.0019379017
251	0x3e96152d	0.2931303
252	0x3c5e9f82	0.013587834
253	0x3d44657a	0.047948338
254	0x3d13fea2	0.03613151
255	0xbdf2b968	-0.1185177

phi.initial_conv_module.0._layers.8.conv.weight f4 [32, 64, 1]
0	0xbd10fc06	-0.0353966
1	0x3dbcd496	0.09220235
2	0x3d970834	0.073746115
3	0xbb047d7a	-0.0020216391
4	0xbdab4390	-0.08362496
5	0x3d932779	0.07185263
6	0xbd2ab7ac	-0.04167907
7	0x3e13a889	0.1441976
8	0xbd1ef806	-0.038810752
9	0x3dab895c	0.083758086
10	0xbdc67bb8	-0.09691566
11	0xbcc91134	-0.024544336
12	0xbddeec1d	-0.10884879
13	0xbe07b4ca	-0.1325256
14	0x3d6e590c	0.05819039
15	0x3e004c4a	0.12529102
16	0xbd38ae74	-0.045088246
17	0xbd8e7035	-0.069549955
18	0x3d9b1c63	0.07573774
19	0xbd0a6b88	-0.033793956
20	0xbe03480e	-0.12820455
21	0x3df1b51e	0.118021235
22	0x3daac159	0.083376594
23	0x3de1b350	0.11020529
24	0x3da5146e	0.08060537
25	0x3ddc8f49	0.10769517
26	0xbdaa7981	-0.08323956
27	0xbca89cc7	-0.02058257
28	0xbdaf0e40	-0.0854764
29	0x3c0d5679	0.008626574
30	0x3d94c782	0.072646156
31	0xbe19f35e	-0.15034243
32	0x3cb437a1	0.021999182
33	0xbdee8661	-0.116467245
34	0xbc8f16c5	-0.017466912
35	0x3bd41884	0.006472649
36	0xbd61cad1	-0.05512506
37	0x3c9e0b96	0.019292634
38	0xbd9bfab0	-0.07616174
39	0x3e13b553	0.14424638
40	0xbda485d1	-0.08033336
41	0x3d984967	0.074358754
42	0xbdf271d1	-0.11838115
43	0xbdd659c0	-0.10466337
44	0x3dae74f0	0.08518398
45	0xbd94b281	-0.072606094
46	0xbca9529b	-0.020669272
47	0x3d9a3465	0.07529525
48	0x3d7a9772	0.061179586
49	0xbbebb634	-0.007193351
50	0x3cc4f88d	0.0240443
51	0x3d0267b5	0.031837184
52	0x3da5a27a	0.080876306
53	0x3cfc0005	0.030761728
54	0x3e1dcb01	0.15409471
55	0x3d61e15d	0.055146564
56	0xbcc6c2f6	-0.024262886
57	0xbd27b740	-0.040946245
58	0xbbe36a2a	-0.006940146
59	0xbdc5dbee	-0.09661089
60	0xbcb7e558	-0.022448227
61	0xbc68618b	-0.014183412
62	0x3d0e8c23	0.034801614
63	0x3d09ebea	0.03367225
64	0x3d401b03	0.04690076
65	0xbdf2bbae	-0.11852203
66	0x3d8d1c67	0.06890183
67	0xbd8ea265	-0.06964568
68	0xbdd7725f	-0.105198614
69	0x3d734270	0.05938953
70	0xbb944851	-0.0045252223
71	0xbd661ee0	-0.05618179
72	0xbcaf403f	-0.02139294
73	0x3cf75cc2	0.030195598
74	0x3d005a14	0.031335905
75	0xbd4fe8e5	-0.050759215
76	0x3d4d2c25	0.050090928
77	0x3d8b1ef7	0.067930155
78	0x3d87c1d3	0.06628766
79	0xbddaf405	-0.10691074
80	0x3c89e386	0.016832124
81	0xbcf03d33	-0.029326057
82	0x3e07f5fa	0.13277426
83	0xbd83d5b7	-0.06437247
84	0xbdcc0f8d	-0.099639036
85	0xbddb0783	-0.10694792
86	0x3cae5f0a	0.021285553
87	0xbe11cf5c	-0.14239258
88	0xbdb5fe0a	-0.08886345
89	0xbcab32f8	-0.020898327
90	0x3d5a19c1	0.053247217
91	0xbdc5e177	-0.09662145
92	0x3db3913b	0.08767935
93	0xbdd389f0	-0.10329044
94	0x3ca6a1e9	0.020340877
95	0xbc1f7487	-0.009732372
96	0xbd6ce056	-0.05783113
97	0xbca92c54	-0.02065102
98	0xbcd407b8	-0.025882587
99	0xbd10cc41	-0.03535104
100	0x3e3791c5	0.179267
101	0xbd8ee16e	-0.06976591
102	0x3d87981c	0.066208094
103	0xbb6b3bfc	-0.0035893908
104	0x3d23661c	0.0398923
105	0x3de12807	0.10993963
106	0x3e3e623c	0.18592161
107	0xbd2c2b75	-0.04203363
108	0xbe0db8f8	-0.13840091
109	0xbdd4d1ef	-0.10391604
110	0xbc04fab8	-0.008116417
111	0x3dd21370	0.10257614
112	0x3c090553	0.008363086
113	0x3de803b3	0.113288306
114	0x3e0dbf5e	0.13842532
115	0xbd6fdcd1	-0.058560196
116	0xbd5fa396	-0.054599367
117	0x3d1a161d	0.037618745
118	0x3e2e0759	0.1699499
119	0xbde54785	-0.11195282
120	0x3d800c88	0.0625239
121	0x3cd4c962	0.025974933
122	0x3dcc3b0c	0.099722
123	0x3d926c2e	0.0714954
124	0x3e19b255	0.15009435
125	0x3dde534e	0.10855733
126	0xbd94d76b	-0.0726765
127	0xbd102ebd	-0.035200823
128	0x3dba0584	0.09083083
129	0x3d90373f	0.07041787
130	0xbbb8a481	-0.005634845
131	0xbbc397c5	-0.00596902
132	0xbd79a98a	-0.0609527
133	0xbd878891	-0.06617845
134	0x3d1ae496	0.037815653
135	0xbe5887ab	-0.21145503
136	0x3cef8090	0.029236108
137	0xbdd05f04	-0.10174373
138	0xbd382cee	-0.044964723
139	0xbde48a0e	-0.11159144
140	0xbdb1926c	-0.08670506
141	0xbdc1b585	-0.0945845
142	0x3c3161f2	0.010826575
143	0xbc4646cb	-0.012101839
144	0xbce18b93	-0.027532374
145	0x3ca171fa	0.019707669
146	0x3d036d5c	0.032086715
147	0x3d7814a8	0.060566574
148	0xbe18c006	-0.14917001
149	0xbd358800	-0.044319153
150	0x3c1b0dc9	0.009463736
151	0xbdb6d834	-0.08927956
152	0x3d9efa2b	0.077625595
153	0xbd1323c1	-0.03592277
154	0x3db951e8	0.090488255
155	0x3da1624b	0.07880076
156	0x3d941a97	0.07231634
157	0x3d764f83	0.060134422
158	0xbdd8598d	-0.105639555
159	0xbb4119a9	-0.0029464758
160	0xbe06abdf	-0.13151501
161	0xbde91102	-0.11380197
162	0x3d2927ba	0.04129765
163	0x3d8e1dee	0.069393024
164	0xbdf8a837	-0.121414594
165	0xbaa9b810	-0.0012948532
166	0xbda1d132	-0.07901229
167	0xbca2020f	-0.019776372
168	0xbe1e0722	-0.15432408
169	0xbd83dc84	-0.064385444
170	0x3d0ce517	0.034398165
171	0x3dd6ffbf	0.104979984
172	0x3d0592aa	0.032610573
173	0xbc5036d5	-0.0127083855
174	0x3db53e48	0.0884977
175	0x3daf2211	0.085514195
176	0x3d847d22	0.0646918
177	0xbc8a5aed	-0.01688906
178	0xbd8c531e	-0.06851791
179	0x3d151c55	0.036403973
180	0x3be5fda2	0.007018761
181	0x3cd16586	0.025561105
182	0x3ca5d8c7	0.020244969
183	0xbdb1fa5e	-0.08690332
184	0x3e024198	0.12720335
185	0x3d433502	0.047657974
186	0x3dd9685b	0.10615607
187	0x3e643a0f	0.22287773
188	0x3da2a0a1	0.07940794
189	0x3df6df74	0.12054339
190	0x3e22037c	0.15821642
191	0xbd04d4b5	-0.032429416
192	0xbc802576	-0.015642863
193	0x3bc28482	0.0059362063
194	0xbb43ed69	-0.0029896146
195	0x3d5fde1e	0.054655187
196	0x3b0cfa4b	0.002151149
197	0x3d28a894	0.041176394
198	0xbd045f9e	-0.03231775
199	0xbdbb3a76	-0.0914201
200	0xbbaa7bd9	-0.005202752
201	0x3dd749bf	0.10512113
202	0x3d3bcdb4	0.04585047
203	0x3dce3434	0.10068551
204	0xbc5de228	-0.013542689
205	0x3c99e114	0.018784083
206	0xbd75e7a1	-0.06003535
207	0xbd70dda6	-0.05880513
208	0x3d41c37d	0.047305573
209	0xbd6ae86c	-0.05735056
210	0xbde9d446	-0.11417441
211	0x3dee1369	0.11624796
212	0x3e2f02a5	0.17090853
213	0xbd306aed	-0.043070722
214	0x3d805277	0.06265729
215	0xbdcd384f	-0.10020506
216	0x3dabdd4f	0.08391821
217	0x3d06e2b5	0.03293105
218	0xbc917e9c	-0.017760567
219	0xbd583054	-0.052780464
220	0xbdd95960	-0.1061275
221	0x3c88e174	0.016709067
222	0x3d72b90b	0.059258502
223	0xbd1d503c	-0.038406596
224	0x3e0b4f84	0.13604552
225	0xbd8efefb	-0.069822274
226	0x3d2b29a4	0.04178776
227	0x3dd17050	0.102265
228	0x3cf39f9f	0.0297392
229	0xbdae74cf	-0.08518373
230	0xbd4a4373	-0.04938073
231	0xbd0291a7	-0.031877186
232	0xba308c34	-0.0006734759
233	0xbcbb57ed	-0.022869075
234	0x3dbf515b	0.09341689
235	0x3e2e975e	0.1704993
236	0xbddac613	-0.10682311
237	0x3df18198	0.11792296
238	0x3da6cda4	0.081446916
239	0xbd7c857e	-0.061650746
240	0xbd759292	-0.059954233
241	0xbcacd7eb	-0.021099051
242	0xbe3d9037	-0.18512045
243	0x3e124469	0.14283909
244	0x3c3f5414	0.011677761
245	0x3cb0d2ae	0.021584835
246	0x3df27c61	0.1184013
247	0x3d626e42	0.05528093
248	0xbd9a83bb	-0.07544657
249	0xbd81a743	-0.06330731
250	0xbdac4aec	-0.08412728
251	0xbe05e42f	-0.13075326
252	0xbce81614	-0.02833084
253	0xbdbf2767	-0.09333687
254	0xbc1d76c0	-0.009610832
255	0xbdab504b	-0.08364924

phi.initial_conv_module.0._layers.9.weight f4 [32]
0	0x3f7eb471	0.9949408
1	0x3f89a643	1.0753864
2	0x3f82971e	1.0202367
3	0x3f7fda5a	0.99942553
4	0x3f82595b	1.0183519
5	0x3f85ea6f	1.0462168
6	0x3f86fc37	1.054572
7	0x3f834a85	1.0257117
8	0x3f84375e	1.0329397
9	0x3f82dbbc	1.0223308
10	0x3f845a85	1.0340124
11	0x3f79e8dc	0.9762094
12	0x3f829b2e	1.0203607
13	0x3f884de4	1.064877
14	0x3f870b2a	1.0550282
15	0x3f86e3db	1.0538286
16	0x3f899990	1.0749989
17	0x3f87071d	1.0549046
18	0x3f871951	1.0554601
19	0x3f84a976	1.0364215
20	0x3f8416ff	1.0319518
21	0x3f8182b7	1.0118016
22	0x3f86c399	1.0528442
23	0x3f853320	1.0406227
24	0x3f82844b	1.0196623
25	0x3f82a1dd	1.0205647
26	0x3f7e2afa	0.9928433
27	0x3f84ddb5	1.038016
28	0x3f863f8b	1.0488142
29	0x3f814950	1.0100498
30	0x3f835fe5	1.026364
31	0x3f861d19	1.047763

phi.initial_conv_module.0._layers.9.bias f4 [32]
0	0xb9f47134	-0.0004662365
1	0xbb8a74e7	-0.0042253616
2	0xb9d8cd67	-0.00041351767
3	0xba7ae957	-0.00095715135
4	0xbae1421e	-0.0017185842
5	0xbbbdf211	-0.005796679
6	0xbb20a21f	-0.0024510694
7	0x3ba818d1	0.0051299115
8	0xba6c26b7	-0.00090084545
9	0x39bd1031	0.00036060953
10	0x399e6e06	0.00030218082
11	0xbbb53bc5	-0.0055308067
12	0x3ad755a2	0.0016428719
13	0xbbe8dd00	-0.0071064234
14	0x3b3083e7	0.0026934089
15	0x3a35599b	0.00069179543
16	0xba3b4db4	-0.00071450626
17	0x3b1a7493	0.0023568019
18	0x3abcc592	0.0014402142
19	0xbb352e97	-0.0027646178
20	0xbb3e5707	-0.0029043572
21	0x3a607f7e	0.00085639197
22	0x3a59cd62	0.00083084975
23	0x3c08bc5d	0.008345691
24	0xbc059809	-0.008153924
25	0x3bac4839	0.005257633
26	0x3afa618a	0.0019102555
27	0x3b08fad6	0.0020901463
28	0xba678926	-0.00088323874
29	0xbb095e92	-0.002096091
30	0x3a29d8b4	0.00064791297
31	0xbb9e5392	-0.0048317397

phi.initial_conv_module.0._layers.9.running_mean f4 [32]
0	0x3cf0df01	0.029403212
1	0x3b902b90	0.0043997243
2	0xbb7c0c1b	-0.0038459364
3	0x3c017826	0.007902181
4	0xbd058a8a	-0.032602824
5	0x3d7881a4	0.06067051
6	0xbdc73757	-0.09727352
7	0x3cd72da9	0.02626689
8	0xbde04021	-0.109497316
9	0x3c16eb44	0.009211365
10	0xbd02607d	-0.0318303
11	0x3cb227fa	0.021747578
12	0x3dc62a49	0.09676034
13	0x3c8e122f	0.017342655
14	0xbd303c57	-0.043026295
15	0x3dbb3103	0.091402076
16	0xbd4d3705	-0.0501013
17	0xbc892059	-0.016739057
18	0xbd6e74f4	-0.058217004
19	0x3d5d6aac	0.05405681
20	0xbd69a633	-0.057043266
21	0xbcc5a8fe	-0.024128433
22	0x3c72b776	0.014814248
23	0xbd923c2a	-0.07140382
24	0x3d928888	0.071549475
25	0xbc87684f	-0.01652923
26	0x3d14975d	0.036277164
27	0x3d6c8abc	0.057749495
28	0x3cd8f199	0.02648239
29	0xbe0e4a24	-0.1389547
30	0x3c441eb9	0.0119702155
31	0x3d511fe5	0.051055808

phi.initial_conv_module.0._layers.9.running_var f4 [32]
0	0x3d07f1fc	0.03318976
1	0x3d835333	0.06412353
2	0x3d675b0f	0.056483325
3	0x3d0c7507	0.034291293
4	0x3d14548e	0.03621345
5	0x3d6f4e67	0.05842438
6	0x3d432110	0.047638953
7	0x3d11eac8	0.035624295
8	0x3d6be06c	0.057587072
9	0x3d18d3f2	0.0373115
10	0x3d54588f	0.05184227
11	0x3d28a3f4	0.041171983
12	0x3d24ee16	0.04026612
13	0x3d9c5506	0.076334044
14	0x3d6395af	0.05556267
15	0x3d322a0f	0.04349714
16	0x3d66f270	0.05638355
17	0x3d6b159a	0.057393648
18	0x3d7e8b49	0.06214455
19	0x3d292282	0.041292675
20	0x3d4fcb88	0.050731212
21	0x3d32453e	0.043523066
22	0x3d13f425	0.036121506
23	0x3cf6bc05	0.030118952
24	0x3d61bc4c	0.055111215
25	0x3d420058	0.04736361
26	0x3d5fe95a	0.0546659
27	0x3d3297c3	0.043601763
28	0x3d1cc08f	0.038269576
29	0x3d800b0e	0.062521085
30	0x3d89664f	0.06708967
31	0x3d46d6a9	0.04854456
