logs/4birds_CF_linear_triangular_run1/2025-05-13_20-43-40/best_4birds_CF_linear_triangular_run1.pth (torch, 264890 bytes, 199 tensors)

stft_transform.window f4 [1024]
00000000: 0000 0000 0000 1e37 00e0 1d38 00a0 b138
00000010: 00e8 1d39 00b8 7639 00a0 b139 00c4 f139
00000020: 00e2 1d3a 00d0 473a 00aa 763a 0039 953a
00000030: 0093 b13a 0063 d03a 00a8 f13a 80b1 0a3b
00000040: 80c9 1d3b 801b 323b 00a8 473b 806e 5e3b
00000050: 806e 763b c0d3 873b 400d 953b 00e3 a23b
00000060: 0055 b13b 4063 c03b c00d d03b 0054 e03b
00000070: 0036 f13b e059 013c 6066 0a3c 80c0 133c
00000080: 2068 1d3c 405d 273c c09f 313c 802f 3c3c
00000090: 600c 473c 4036 523c 00ad 5d3c a070 693c
000000a0: 0081 753c f0ee 803c b043 873c 90be 8d3c
000000b0: 905f 943c 9026 9b3c a013 a23c 9026 a93c
000000c0: 505f b03c e0bd b73c 3042 bf3c 10ec c63c
000000d0: 90bb ce3c 80b0 d63c e0ca de3c 900a e73c
000000e0: 806f ef3c a0f9 f73c 6854 003d 80be 043d
000000f0: 103b 093d 10ca 0d3d 686b 123d 181f 173d
00000100: 10e5 1b3d 40bd 203d a0a7 253d 28a4 2a3d
00000110: d0b2 2f3d 78d3 343d 2006 3a3d c04a 3f3d
00000120: 40a1 443d a009 4a3d c083 4f3d a80f 553d
00000130: 38ad 5a3d 685c 603d 301d 663d 80ef 6b3d
00000140: 48d3 713d 70c8 773d f8ce 7d3d 64f3 813d
00000150: ec07 853d 0825 883d b44a 8b3d e878 8e3d
00000160: 98af 913d c0ee 943d 5836 983d 5886 9b3d
00000170: b4de 9e3d 683f a23d 6ca8 a53d b819 a93d
00000180: 3c93 ac3d f814 b03d e09e b33d e830 b73d
00000190: 0ccb ba3d 446d be3d 8417 c23d c0c9 c53d
000001a0: f883 c93d 1c46 cd3d 2010 d13d 04e2 d43d
000001b0: b8bb d83d 309d dc3d 6c86 e03d 5c77 e43d
000001c0: f46f e83d 2c70 ec3d 0078 f03d 6087 f43d
000001d0: 409e f83d 9cbc fc3d 3271 003e ca87 023e
000001e0: 0ea2 043e fcbf 063e 8ae1 083e b806 0b3e
000001f0: 7c2f 0d3e d65b 0f3e bc8b 113e 28bf 133e
00000200: 1af6 153e 8830 183e 6e6e 1a3e c6af 1c3e
00000210: 8cf4 1e3e b83c 213e 4488 233e 2ed7 253e
00000220: 6e29 283e fc7e 2a3e d8d7 2c3e f633 2f3e
00000230: 5693 313e ecf5 333e b65b 363e b0c4 383e
00000240: ce30 3b3e 10a0 3d3e 6c12 403e de87 423e
00000250: 5e00 453e e87b 473e 76fa 493e 007c 4c3e
00000260: 8000 4f3e f287 513e 4e12 543e 8e9f 563e
00000270: ac2f 593e a2c2 5b3e 6658 5e3e f8f0 603e
00000280: 4e8c 633e 602a 663e 2acb 683e a46e 6b3e
00000290: ca14 6e3e 94bd 703e fc68 733e fa16 763e
000002a0: 88c7 783e a07a 7b3e 3630 7e3e 2674 803e
000002b0: 6cd1 813e ea2f 833e 9c8f 843e 7df0 853e
000002c0: 8c52 873e c4b5 883e 221a 8a3e a47f 8b3e
000002d0: 46e6 8c3e 044e 8e3e dab6 8f3e c420 913e
000002e0: c08b 923e caf7 933e e064 953e fcd2 963e
000002f0: 1c42 983e 3cb2 993e 5823 9b3e 6b95 9c3e
00000300: 7608 9e3e 727c 9f3e 5cf1 a03e 3067 a23e
00000310: ecdd a33e 8c55 a53e 08ce a63e 6347 a83e
00000320: 96c1 a93e 9e3c ab3e 78b8 ac3e 1e35 ae3e
00000330: 8fb2 af3e c430 b13e bdaf b23e 752f b43e
00000340: e8af b53e 1231 b73e f0b2 b83e 7e35 ba3e
00000350: b6b8 bb3e 993c bd3e 20c1 be3e 4846 c03e
00000360: 0ecc c13e 6d52 c33e 60d9 c43e e660 c63e
00000370: fce8 c73e 9b71 c93e c0fa ca3e 6984 cc3e
00000380: 910e ce3e 3299 cf3e 4c24 d13e daaf d23e
00000390: d83b d43e 42c8 d53e 1455 d73e 4ae2 d83e
000003a0: df6f da3e d2fd db3e 1f8c dd3e c01a df3e
000003b0: b2a9 e03e f238 e23e 7cc8 e33e 4958 e53e
000003c0: 59e8 e63e a878 e83e 3109 ea3e f099 eb3e
000003d0: e12a ed3e 00bc ee3e 494d f03e bade f13e
000003e0: 4d70 f33e 0002 f53e ce93 f63e b325 f83e
000003f0: acb7 f93e b249 fb3e c6db fc3e e16d fe3e
0.0 9.417534e-06 3.7640333e-05 8.46982e-05 0.00015059114 0.00023528934 0.0003387928 0.00046113133
0.00060227513 0.0007622242 0.0009409487 0.0011384785 0.0013547838 0.0015898645 0.0018436909 0.0021162927
0.0024076402 0.0027177036 0.0030465126 0.0033940375 0.0037602484 0.0041451156 0.0045486987 0.004970908
0.005411744 0.0058712065 0.0063492954 0.006845951 0.0073611736 0.007894963 0.00844726 0.009018064
0.009607345 0.010215104 0.01084131 0.011485934 0.0121489465 0.012830317 0.013530016 0.014248043
0.014984369 0.015738934 0.016511768 0.017302781 0.018111974 0.018939286 0.019784749 0.02064827
0.021529824 0.022429407 0.02334699 0.024282485 0.025235921 0.026207209 0.027196348 0.028203279
0.029227972 0.030270398 0.031330496 0.032408237 0.033503592 0.03461653 0.03574696 0.036894888
0.038060248 0.039242983 0.040443063 0.041660458 0.04289514 0.044146985 0.045415998 0.046702147
0.048005342 0.049325585 0.050662756 0.052016884 0.05338785 0.054775625 0.05618018 0.057601452
0.059039384 0.060493886 0.06196496 0.06345251 0.064956516 0.06647688 0.06801358 0.06956655
0.0711357 0.072721004 0.0743224 0.075939834 0.07757321 0.0792225 0.080887645 0.082568586
0.0842652 0.085977495 0.087705374 0.08944875 0.09120759 0.092981845 0.094771415 0.096576214
0.09839624 0.10023138 0.10208154 0.103946716 0.105826795 0.10772169 0.10963139 0.111555785
0.11349478 0.115448326 0.11741638 0.11939883 0.12139559 0.12340662 0.1254318 0.12747112
0.12952444 0.13159174 0.13367286 0.13576782 0.13787645 0.13999876 0.1421346 0.14428389
0.14644662 0.14862263 0.15081188 0.15301427 0.15522975 0.15745819 0.1596995 0.16195366
0.16422054 0.16650003 0.16879213 0.17109665 0.1734136 0.1757428 0.17808422 0.1804378
0.18280336 0.1851809 0.18757027 0.18997142 0.19238421 0.1948086 0.1972445 0.19969177
0.20215034 0.20462015 0.20710108 0.20959303 0.21209592 0.21460965 0.21713409 0.21966922
0.2222149 0.22477102 0.22733751 0.22991425 0.23250118 0.23509818 0.23770517 0.24032202
0.24294865 0.24558496 0.24823079 0.25088614 0.2535509 0.25622493 0.25890815 0.2616004
0.26430166 0.26701176 0.26973063 0.2724582 0.27519435 0.27793896 0.28069192 0.2834531
0.28622246 0.28899986 0.29178524 0.29457843 0.29737937 0.30018795 0.30300403 0.30582747
0.3086583 0.31149632 0.31434143 0.3171935 0.3200525 0.3229183 0.32579064 0.32866964
0.33155507 0.33444685 0.33734488 0.340249 0.34315917 0.34607518 0.34899703 0.35192457
0.35485768 0.35779625 0.36074018 0.36368936 0.3666436 0.36960295 0.37256718 0.3755362
0.37850994 0.38148823 0.38447094 0.38745803 0.3904494 0.39344487 0.39644432 0.3994477
0.40245488 0.40546566 0.40848005 0.4114979 0.41451907 0.41754347 0.42057097 0.42360145
0.42663476 0.42967087 0.43270966 0.43575096 0.43879467 0.4418407 0.44488895 0.4479392
0.45099142 0.45404553 0.45710137 0.46015882 0.46321777 0.46627808 0.46933964 0.4724024
0.47546616 0.47853088 0.4815964 0.48466262 0.48772943 0.49079663 0.49386424 0.49693206

phi.initial_conv_module.0._layers.0.conv.weight f4 [64, 64, 1]
00000000: 23c5 d93d 4924 023e 7d7b 92bc 1e48 eb3d
00000010: 9539 08bd 1936 053c 7ae2 a7bd 452c 323d
00000020: 629f 803d c85a 04be 6287 9b3d f78e 2cbc
00000030: 777d 8a3d 1677 cebb c6d4 063d 15cc 1bbd
00000040: c1e6 b13d 5eaf b43c 48e0 78bd d212 d73a
00000050: 4b25 c3bd 4471 65bd 029f bfbd ead0 583d
00000060: 46da f7bd 8e1d ebbd 68fa a9bd a744 d9bd
00000070: 7c32 9dbc 6b8f 0ebe a71b da3d 87c1 e5bd
00000080: b2f2 8e3d 76d7 b4bc ed99 c2bd fc2e f13b
00000090: 5f32 fdbc d16b 793d 13f5 ccbc fd73 88bd
000000a0: e4a7 9b3c 0ea1 f6bc 4f17 963d 2404 163e
000000b0: 9d12 c83d 50e1 2cbd 9b1a 8b3d 7fa3 803c
000000c0: c72b 8d3d ed28 a0bd be27 f0bd 7a4d 2cbd
000000d0: 70bd aebd 3930 f23d cb9e 503d 00fb 673d
000000e0: 7dd3 263d 66e7 e0bb 82d7 ae3d c2b7 c6bd
000000f0: 5ee3 93bc 8ace 03be b091 5abc 7070 acbd
00000100: 49a6 9f3c ed5a 63bd ea3f 903d b054 c9bd
00000110: ae94 c9bd 8ebb c7bd 6537 b23d a4b9 643c
00000120: 1e3f c33d 6960 ebbd 07e0 05be 5b5a e2bd
00000130: 8f25 aebd 8688 403d eb0b 413c d7e5 943d
00000140: 3b61 cdbd c800 f3bd ef43 4e3d c65c f8bc
00000150: 8a42 e23d 2c5d 5d3c e0ff e13d 4847 82bd
00000160: 24e4 81bd d9ad 143c 075f 99bb 98b7 debc
00000170: be0a b03d 7232 d23d 181e ccbd 2990 b4bd
00000180: 0d7c 953d 0b0a 98bd 8d62 78bd 576b 0bbe
00000190: 722b a7bd f356 ff3c f26a afbc e9df c7bd
000001a0: ac08 853b 5bb7 bebd e4ce f2bd 11cf c1bd
000001b0: c124 fdbd c5bb e7bd 292c d63d 5ca5 ba3c
000001c0: 6b7e ba3c 5cba 19be cd1b debd edf5 b2bd
000001d0: 33a6 86bc 5a92 1dbe a49a bbbd 31c7 eabd
000001e0: 1d04 3bbd 724d 99bd 963d d4bc 5e14 9abd
000001f0: 528d 88bd 774a c0bc 197f 203d ce16 eebc
00000200: d024 e13d f662 2cbc 9f22 033e c17f 6f3d
00000210: 433a a5bd 6a73 e03d b0ad 1cbc cc27 ccbb
00000220: d182 65bd f1fb 8fbd a5d2 9f3d bb2e cbbc
00000230: 5d17 9d3b b279 2abe 4684 ff3c 3aaf 14be
00000240: 403c 80bd 82e5 d3bb ee4b 853d 5df4 ea3d
00000250: b911 033e 4405 a8bd eaa6 dc3c cc9a a9bd
00000260: 9213 57bd 5626 f4bd 45bd d93d 8bf9 b7bd
00000270: 6260 a73d 1a44 863d 6ea0 973d 9958 2ebd
00000280: dfbd f23d 35b2 143d d45a 8e3c 1d0a fabd
00000290: 4f8b 303d f7fc 1cbc d056 17bd 17f8 f83d
000002a0: d5ba 343d e29c 51bd 18ec 7abd 1034 77bc
000002b0: f922 8b3d a481 42bd e57c a5bd 9a19 47bd
000002c0: cab5 afbd 967f 233d c170 c03d 9a9c e2bd
000002d0: c934 133d 91f2 833d c7d8 0e3d 1807 acbc
000002e0: 501b b53d 4285 a33d b1da 493d fea7 05bc
000002f0: 54d9 72bc 0fdf f43c a3e3 3abc f6b4 2abd
00000300: ea48 cd3d a4ba da3d 0cd8 8cbb 3136 1ebc
00000310: 7d9b 4a3d 3766 4c3d ee8f db3d a682 f93d
00000320: 7250 1cbc a7eb 8c3d b60c 443e cd8a cd3d
00000330: cf7e bf3c 2203 4abd 61b3 42bd a156 babd
00000340: 08ea 42bd 8e0a dd3c c318 983d 9dd4 863d
00000350: dacf afbd 04aa 41bd 1aea 403b 61b4 113e
00000360: 5378 353d c0f6 143a 360e be3d 5e2d 8cbc
00000370: fb28 b7bd b366 6e3d 3a06 8abd 33dd 95bc
00000380: 57e8 dfbd 4726 ee3d 5729 0c3e 7d29 973d
00000390: 91e4 7dbd dfcf dabd 0c98 92bd e211 e23d
000003a0: 28d9 a43d dc7a fa3d 2feb a23d da28 2e3d
000003b0: b4cd 683c 4664 b7bd 5a0d bbbd 8d91 debd
000003c0: 64a1 363d 8bfb 90bd c426 e0bc aab2 79bd
000003d0: 7892 9739 de18 6cbd a9bb 71bd 19cd 393d
000003e0: 53ae 25bd e4b0 a43d 9ca0 efbc 8d9f a5bd
000003f0: 374e 81bc 352c 72bd 5e79 c1bc b83a ccbd
0.10633304 0.12709154 -0.01788115 0.11488365 -0.03325804 0.008130574 -0.08197494 0.04349925
0.062804 -0.12925255 0.075941816 -0.010532132 0.06762212 -0.0063008172 0.03291776 -0.038036425
0.08686591 0.022056278 -0.060760766 0.0016408807 -0.095285974 -0.05601622 -0.093565 0.05293361
-0.12102179 -0.114802465 -0.08299714 -0.106087975 -0.019189112 -0.13921897 0.106498055 -0.11218553
0.06979884 -0.022075396 -0.09502015 0.0073603373 -0.030907808 0.060893837 -0.025019204 -0.06662748
0.019000955 -0.030106094 0.073286645 0.14650017 0.09769175 -0.042207062 0.06792184 0.015702961
0.068931155 -0.07820306 -0.1172633 -0.042066075 -0.08532226 0.11825604 0.050932687 0.056635857
0.040729035 -0.0068635223 0.085371986 -0.09703018 -0.018052753 -0.12871757 -0.013340399 -0.08419883
0.01948847 -0.055506635 0.07043441 -0.09830606 -0.098428115 -0.0975257 0.08701972 0.013960276
0.09533523 -0.11492998 -0.13073741 -0.1105239 -0.085032575 0.0470052 0.011782627 0.07270401
-0.10028311 -0.118653834 0.050357755 -0.030317675 0.110478476 0.013510983 0.110351324 -0.06361252
-0.063423425 0.009074652 -0.0046805176 -0.027187154 0.08595799 0.10263528 -0.099666774 -0.08816559
0.072990514 -0.074237905 -0.06064086 -0.13615166 -0.081625834 0.03116939 -0.0214133 -0.09759504
0.0040598717 -0.09312316 -0.118558675 -0.09463323 -0.12360526 -0.11315111 0.10457642 0.022783928
0.022765359 -0.15012497 -0.10845146 -0.08738313 -0.016436672 -0.1538786 -0.09160355 -0.11463774
-0.04565822 -0.07485475 -0.025908273 -0.07523416 -0.0666758 -0.023473008 0.03918371 -0.029063608
0.109933496 -0.010521641 0.12806176 0.058471445 -0.08067753 0.109595135 -0.009562895 -0.00623033
-0.05603296 -0.07030476 0.07803849 -0.024802556 0.004794045 -0.16647986 0.031191003 -0.14519969
-0.06261492 -0.0064665684 0.06508623 0.1147239 0.1279973 -0.08204129 0.02693506 -0.08281478
-0.052508898 -0.119213745 0.106318034 -0.089831434 0.081726804 0.06555958 0.074036464 -0.042564962
0.11852621 0.036302764 0.017377295 -0.1220896 0.043101605 -0.009581796 -0.036948025 0.121566944
0.04412349 -0.051175006 -0.061260313 -0.015088096 0.0679378 -0.047486916 -0.08080462 -0.0486084
-0.085795954 0.039916597 0.09396506 -0.11065026 0.03593901 0.0644275 0.034874704 -0.020999476
0.088431 0.07984401 0.049280826 -0.008157728 -0.014822323 0.029891519 -0.011406812 -0.041676484
0.10023673 0.1068013 -0.0042982157 -0.009656475 0.04946469 0.049902167 0.10720812 0.12183122
-0.009540664 0.068808846 0.19145474 0.1003624 0.023375897 -0.049319394 -0.04753435 -0.090985544
-0.04758647 0.026982572 0.07426598 0.065835215 -0.085845664 -0.04728128 0.002943641 0.14228965
0.044304203 0.00056825206 0.09280054 -0.017111477 -0.08943363 0.05820341 -0.06739469 -0.018293953
-0.10932987 0.116283946 0.13687645 0.0738096 -0.061985556 -0.106841795 -0.07157907 0.11038567
0.08049232 0.12230465 0.07955014 0.042519428 0.0142092 -0.089546725 -0.09133406 -0.10867605
0.044587508 -0.07079228 -0.027362235 -0.060961403 0.00028910092 -0.057640903 -0.059016857 0.045361612
-0.04044945 0.08041552 -0.02925139 -0.080870725 -0.015784366 -0.05912419 -0.023617443 -0.09972137

phi.initial_conv_module.0._layers.1.weight f4 [64]
00000000: d595 7e3f 0767 813f ce5d 803f f556 853f
00000010: 2622 7f3f ca8c 6c3f c814 6f3f 68cb 793f
00000020: e966 7b3f 9a75 813f 39f0 7d3f f6c2 833f
00000030: f6ed 7c3f 2e0e 803f 9150 7d3f b974 7e3f
00000040: a132 7c3f 2ec7 7c3f a533 7e3f 3984 843f
00000050: ec62 793f e601 703f 5e81 813f 21fa 793f
00000060: ac29 743f a18f 6d3f b03f 693f e6bd 823f
00000070: f93b 7b3f 7427 7f3f f509 7d3f abe8 773f
00000080: 4fc5 7f3f fa43 703f 963f 713f 9840 773f
00000090: ba78 7e3f 445b 763f 649b 813f 7fa0 7e3f
000000a0: 24eb 813f 9a7d 7c3f 3a01 793f 91a9 803f
000000b0: d2d2 7c3f cf04 6f3f 975c 7b3f 1ab3 7a3f
000000c0: 5d85 813f 5c1f 733f f703 733f e1dd 7f3f
000000d0: b3b7 7e3f fdaa 6e3f e4e4 723f cdb9 7a3f
000000e0: ba2a 823f 26f5 813f f663 843f 5b00 713f
000000f0: ddd2 783f fb6c 803f 4086 883f 53be 823f
0.99447376 1.0109566 1.0028627 1.0417162 0.9966148 0.9240233 0.93391085 0.97576
0.98203903 1.0114014 0.99194676 1.0293872 0.988006 1.0004327 0.9895106 0.99396855
0.98514754 0.98741424 0.99297553 1.0352851 0.9741657 0.93752897 1.0117605 0.9764729
0.95376086 0.92797285 0.91112804 1.0214202 0.98138386 0.99669576 0.9884332 0.968394
0.99910444 0.93853724 0.9423765 0.9658294 0.99402964 0.9623301 1.0125546 0.9946365
1.0149884 0.9862915 0.97267497 1.0051748 0.98759186 0.9336671 0.98188156 0.9792954
1.0118824 0.94969726 0.94927925 0.99947935 0.9949905 0.9322966 0.9488051 0.9793976
1.0169289 1.0152938 1.0343006 0.9414117 0.9719675 1.0033258 1.066597 1.0214332

phi.initial_conv_module.0._layers.1.bias f4 [64]
00000000: d3ea cabb c935 113d ac3e 793c d2ab efbc
00000010: 2c0d 92bc 17eb ef3c 53fb e93c 493c db3b
00000020: dffd d0bc 7587 f13c 13e8 27bc 39df a5ba
00000030: 941f 4a3c c211 f33b 8060 143d d155 dfbb
00000040: 2b42 813c 5fb7 0bbd 80e4 62bc 688e 1ebc
00000050: 4d3d 1bbc 80f2 e63b a53c d73c 87fd b4bc
00000060: 1cee 763d 158d 053c 1048 1dbd cf88 833c
00000070: 36df 503d 4cef 36bc a50e a93c 9029 dc3b
00000080: ad26 373d de8c 2a3d f696 a3bc fc66 e43c
00000090: c826 1b3c 4c03 e23c 2ce7 89bc 9ae5 e43c
000000a0: 54ce 6638 0900 38bb 5b7e 65bc 8a37 8a3c
000000b0: 7cd6 c03b e3bc 9a3c 963d 0fbc adeb 873c
000000c0: c0c6 8ebc f51d 9bbc 2409 023d ceeb babc
000000d0: 67b2 2fbc 467c 77ba 4376 2e3d b4ec 063d
000000e0: 0344 b03b a04c b4bb 2006 65bd 4762 8f3b
000000f0: 30b6 b03c 443a 70ba 22f1 7bbc 539e 093c
-0.006192544 0.035451684 0.015212696 -0.029256735 -0.017828546 0.029286904 0.028562224 0.006690536
-0.02551168 0.029483536 -0.010248202 -0.0012655027 0.01233663 0.0074178884 0.036224842 -0.00681565
0.015778622 -0.034110423 -0.013848424 -0.009677507 -0.009475064 0.007047951 0.026274035 -0.022093548
0.060285673 0.008151312 -0.038398802 0.016056446 0.05099412 -0.011165451 0.020636866 0.006718822
0.04471462 0.041638248 -0.019969445 0.027881138 0.009469695 0.027589463 -0.016833864 0.027941514
5.502843e-05 -0.0028076193 -0.014007176 0.016872186 0.0058849435 0.018888896 -0.008742711 0.016591871
-0.017428756 -0.018935183 0.031747 -0.022817519 -0.010723687 -0.00094408204 0.042593252 0.03294058
0.0053792014 -0.0055022985 -0.055914044 0.0043757292 0.021571249 -0.00091639557 -0.015377315 0.008399564

phi.initial_conv_module.0._layers.1.running_mean f4 [64]
00000000: 623c f8bd 80c6 e93e 0f95 41be b13b f93e
00000010: 4d85 edbe be3d febe f414 86bc d5df 62bc
00000020: 6e7c ff3c e922 b73e 45cb d9bc 3f57 4b3e
00000030: be02 3cbe 93a8 05bf 4472 edbc 5fc6 bc3e
00000040: 1d1c 4bbf b2d9 4e3e 1271 77bc 3b8a 733e
00000050: d59d 473a 5cbd 173e 9fe8 9b3e c08e aabd
00000060: 6f94 223f 82cf 973d 9e3f 973d 6259 923e
00000070: eccf 95be ea2d 673e 387f ccbe 0c6f e2be
00000080: f880 05be 63d4 dd3e 5f36 9b3e 0d0f 63be
00000090: f488 7cbe b1e8 e6be 9566 adbc 0216 26be
000000a0: cb95 533e 681d 283f 8184 06bf bf7f 0d3f
000000b0: 403f 0a3e a76b 6bbe 79ff a0be 08f1 c5bd
000000c0: 94a8 e63d 5a89 84bd eb2a 753e bb97 183e
000000d0: 89b0 1b3f 8aff cb3e 3e61 d23e ba5a 4d3e
000000e0: 686e 933d 025c a23e 41ae 77bc 43d6 e5be
000000f0: 38e1 f83c d30d 02bc b6df babd e357 c03e
-0.12120892 0.45659256 -0.18904518 0.48678353 -0.46390763 -0.4965648 -0.016367413 -0.013847311
0.031187262 0.35768822 -0.026586184 0.198575 -0.18360421 -0.5221035 -0.02898515 0.36870095
-0.7933977 0.20200232 -0.015102642 0.237832 0.00076147664 0.14818329 0.30450913 -0.08328009
0.6350774 0.07412626 0.07385181 0.2858382 -0.29260194 0.22576109 -0.3994081 -0.44225347
-0.13037479 0.433261 0.3031492 -0.2217371 -0.24661618 -0.45099404 -0.021167079 -0.16219333
0.2066261 0.6566987 -0.52545935 0.5527305 0.1350069 -0.22990285 -0.3144491 -0.09665114
0.112626225 -0.0647151 0.23942153 0.1490163 0.60816246 0.39843398 0.41089815 0.2005414
0.07198793 0.3171082 -0.015117229 -0.4489003 0.03038083 -0.007937866 -0.09124701 0.37567052

phi.initial_conv_module.0._layers.1.running_var f4 [64]
00000000: c81a af3e fc76 0e3f c88d 6c3e d65e d53e
00000010: 498a f53e 8947 943f 2c59 8b3e 02e1 113e
00000020: 6501 6f3e 3a1d 2b3e 9a59 803e a9be b23e
00000030: d0ea a53e 2718 963f 8aff 453e e888 513f
00000040: bec8 8d3e 6290 e03d 72ea 4e3e 1f3a ce3e
00000050: 8350 4d3e de13 5e3f e4d0 9f3e e0f0 ed3e
00000060: 1b2e a83e b3b7 083e 510e 7c3e eaa3 113f
00000070: 8ccb ee3d 3d7e c53e 4379 ac3e 0239 1c3f
00000080: 7dda 443e 5843 fa3e 9ea0 b83e 6ab5 073f
00000090: e670 293e c68d 4e3f 7623 793e a91c e83d
000000a0: df36 163f f60d 723f c066 023f 9770 2f3f
000000b0: ba59 2f3e 00b5 fa3e 9685 873e 97f1 983e
000000c0: 0852 1c3e d913 023e b7a4 8f3e 8abe 953e
000000d0: f841 063f 8766 853e b42b 2d3e 4a21 173f
000000e0: 44c4 153e 7149 6c3e c29e 103f 10ed f53e
000000f0: 0103 763e ebb7 1c3e ebe2 603e 197e fc3d
0.3420012 0.55650306 0.2310096 0.41673917 0.47957066 1.1584331 0.2721647 0.1424599
0.23340376 0.16710368 0.2506836 0.34911087 0.3240571 1.1726121 0.19335762 0.8184953
0.27692217 0.10965039 0.20206621 0.40278718 0.20050244 0.86749065 0.31214058 0.46472836
0.32847676 0.13351326 0.24614836 0.5689074 0.11659917 0.38572875 0.33686265 0.61024487
0.19223972 0.48879504 0.3606004 0.5301119 0.16546974 0.8068508 0.24329934 0.113335915
0.58677477 0.9455255 0.50938034 0.68531173 0.17124072 0.48966217 0.26469105 0.29871818
0.15265667 0.12702884 0.28055355 0.29246932 0.5244441 0.26054785 0.16911203 0.5903517
0.1462565 0.2307489 0.56492245 0.48032427 0.24024583 0.15304534 0.21961562 0.12328739

phi.initial_conv_module.0._layers.4.conv.weight f4 [64, 1, 5]
00000000: 029c 97be 082b b93e 336b cd3e 0d4a c43e
00000010: 9277 0cbe 238b 813e d9e3 d0be c96d 2e3e
00000020: 3498 a0bd a581 c7be ed4a acbe 344f edbe
00000030: 7dbc 533d bbad 26be e9f7 46be df7a e33e
00000040: b2e7 b0bd b9e2 293e 33c8 a9bd 8280 883e
00000050: 27e0 ad3d 18f8 8d3e 63bf d03d 23cc d6bd
00000060: cf66 d83e d68b 9abd 8301 96be b2ee c93d
00000070: aa05 c4bd 7a85 a3be 7d5b 893a bea6 13be
00000080: e8e5 4abe 3cae 57be bd80 4fbe 23dd 73be
00000090: a3da 9fbc a496 c03e e9d2 a0be bc1b 82be
000000a0: ff61 acbe 69ab 4fbd 7793 1d3b eb4a b4be
000000b0: b9bf 173e 672d cdbe 17b6 d43e 0384 aa3d
000000c0: 64fc 53bd f4b2 29be a94a 3b3e 9f4a a93e
000000d0: 9e9f 9abe 0008 eebd 9f00 a73e 95dd b3bd
000000e0: b3f8 a7be 5ee8 05be 05a4 5cba 9fbb d6bd
000000f0: b1e1 94be 17a8 83be ab7d 0a3e f787 a53e
00000100: c75b db3e 341a 70bc dc94 553e 9f0b a5be
00000110: b41b 813e cf89 e93e bb2f 7c3e 46e6 26be
00000120: 845e b93e e286 d9be fc83 4ebd 8cf2 f9bd
00000130: e74b e1be 37df 81be 7f8f 98be 1e44 1f3e
00000140: fae8 143d 0027 613e 0260 b9bd 0ab4 ae3e
00000150: 0a38 ab3d c00f b83e ef35 b43e 3ce0 c9be
00000160: cc29 a3be 5c1a 7c3e 46c9 013f c1a5 9ebe
00000170: ab09 6a3d 2d5a 04be a6c8 d93e 407a a33e
00000180: f3c6 9b3e 35e5 733e eaf2 9fbc 2a03 ec3e
00000190: 0083 42be 7dc4 253d c7d7 ffbd c62b b4be
000001a0: e19b 4cbe b0e2 c13d 2405 43bd 62fa a7be
000001b0: 00ef b0bd e313 913d 6d2a 99be 5a59 a43e
000001c0: 4b9d aebe a4b4 2a3d b834 b3be 5ac7 bfbe
000001d0: ab48 5ebc 7504 d63e b4df e53e 2c33 5e3e
000001e0: d4c3 c23e 858b 5bbe fc1d 823e 0d17 883e
000001f0: 2ad1 d9be f35e bdbe 771b 0c3e 89e2 d1bc
00000200: 07fc b5be 8544 b2be f74d 953e a888 903c
00000210: 9925 2bbd 29ae f3be b3a2 b23e 73d3 87be
00000220: e356 603e fd4e bebc 7650 7c3d e7f0 863e
00000230: 45b9 09be d12e 0bbe 5de3 b43e 3785 aebe
00000240: 1990 493e 3e9f 93bd 9fa6 09be e2fa a63e
00000250: 70eb b63d 1614 cdbe 2f57 ba3e 9d1e 61be
00000260: 25ed ce3e 366c f3bd 4355 f33e 5c8e 0c3e
00000270: 584a c7bb caa4 2e3e 8376 22bc c0e1 65be
00000280: 47a0 953e 0d28 ae3e 639f bebd e8c9 b63e
00000290: d2b6 033d 927c 58be 79a0 69be a4ba a43e
000002a0: b0ca 1bbe b503 9f3e fd59 e1be 527d 79bc
000002b0: a15b aebe 90b2 0d3e 227d b13e 706e 2e3e
000002c0: d8ce 42be d27e d7be 660d 4ebe 2069 7cbe
000002d0: 8bc3 f63e 604b 3dbe 5d40 2f3e 1256 a43e
000002e0: 2e09 1f3e 1daa d2be 6a6d b8bd 9028 22be
000002f0: 6984 843e 0519 7ebd a34f 203c 43c5 b33e
00000300: b749 143e 0ef5 873e 9d27 e6bd 9087 a63e
00000310: 6514 b33d d6ef 86bd cc35 eb3d 2ab6 a4be
00000320: c694 2a3c 88d6 493e 7e6d d4be 2179 62be
00000330: a1f9 9b3e d2a8 113d 6cf5 a838 a07a 743d
00000340: 5d86 59be f632 b73e 334b 39bd c7e6 26be
00000350: a315 503e f14e d3be 23d5 18be bb62 873d
00000360: bade 10be ae9c 6f3e 114d c2be d044 1abe
00000370: 331b 2ebe 90c6 e13e e34c 5c3e ab8f 9abe
00000380: 7c95 453e e852 893b 7328 d13e 8bca 813e
00000390: 0bc1 8bbe aaef c63e a130 95bd f8f8 b5bd
000003a0: 82f8 df3d d2f3 e63e 4073 313e bd3f 01bf
000003b0: 9f86 5fbe 423e b53e 5f4f 43be b18a 77be
000003c0: 82df b4be 438d 7dbe b285 89be 25f0 c13d
000003d0: 7375 343e c159 d33e b03e 8d3e b326 ddbc
000003e0: 07ad 8d3e bea3 833e e1b7 d0be 0de1 543e
000003f0: 0acb acbe a488 a03e f761 65be 6a32 fc3d
-0.29611212 0.36165643 0.4012085 0.38337746 -0.13717487 0.25301465 -0.40798834 0.17034067
-0.078415304 -0.38966098 -0.33650914 -0.4634949 0.05169343 -0.1627721 -0.19430508 0.4442968
-0.086379424 0.16590394 -0.08290138 0.26660544 0.08490019 0.27728343 0.10192754 -0.10488155
0.42265937 -0.07546203 -0.29298028 0.09859981 -0.09571393 -0.31937772 0.0010479536 -0.14419076
-0.19814265 -0.21062559 -0.20263954 -0.23814826 -0.019513434 0.3761493 -0.31410912 -0.25411785
-0.33668515 -0.05070058 0.0024044195 -0.35213408 0.1481923 -0.40073702 0.41545174 0.083259605
-0.05175437 -0.16572171 0.182902 0.33064744 -0.30199903 -0.1162262 0.3261766 -0.08782498
-0.3280693 -0.13076922 -0.0008416775 -0.10485005 -0.2907844 -0.2571418 0.13524501 0.32330295
0.42843458 -0.014654685 0.20857567 -0.3223543 0.25216448 0.45612952 0.24627583 -0.1629878
0.36204922 -0.4248572 -0.05041884 -0.12204465 -0.4400322 -0.25365612 -0.2979698 0.15553328
0.036354996 0.21987534 -0.09051515 0.34121734 0.08360298 0.35949516 0.35197398 -0.3942889
-0.31867826 0.2461943 0.50697744 -0.30985835 0.057138126 -0.12925024 0.42535895 0.31929207
0.30425224 0.23817904 -0.01952501 0.46096164 -0.18995285 0.04047059 -0.12492328 -0.35189646
-0.19981338 0.09467065 -0.047612324 -0.32808214 -0.08639336 0.07083871 -0.2991518 0.3209942
-0.3410438 0.04167618 -0.3500116 -0.3745678 -0.01356713 0.41800275 0.44897234 0.21699208
0.3804003 -0.21439941 0.254135 0.26580086 -0.42542392 -0.36986503 0.13682352 -0.025620716
-0.35543844 -0.348179 0.29161045 0.017643288 -0.041783903 -0.4759381 0.34889755 -0.2652851
0.21908145 -0.023231024 0.06160017 0.2635567 -0.13449581 -0.13592078 0.35329714 -0.3408601
0.19683875 -0.072081074 -0.13442467 0.32613283 0.08931625 -0.40054387 0.3639464 -0.21984334
0.40415302 -0.11885874 0.47525987 0.13726181 -0.0060818605 0.1705505 -0.009915951 -0.22449398
0.29223844 0.3401493 -0.09307744 0.35700917 0.032156773 -0.2114127 -0.22815122 0.32173645
-0.15214038 0.31057516 -0.44013968 -0.015227633 -0.34054282 0.13837647 0.3466578 0.17034316
-0.19024217 -0.42088944 -0.20122299 -0.24649477 0.48196062 -0.18485785 0.17114396 0.32096916
0.15530846 -0.4114541 -0.09005244 -0.15835786 0.2588227 -0.06203558 0.009784612 0.35111436
0.14481245 0.2655415 -0.112380244 0.325253 0.08744124 -0.06588714 0.1148487 -0.3217023
0.010411447 0.19710743 -0.41489786 -0.2211652 0.3046389 0.03556139 8.056578e-05 0.059687257
-0.21242662 0.35781068 -0.04523773 -0.16298972 0.20320754 -0.41271165 -0.14925055 0.06610628
-0.14147463 0.23399612 -0.37949422 -0.15065312 -0.17002563 0.44096804 0.21513705 -0.30187735
0.19295305 0.0041907914 0.40851173 0.2534984 -0.27295718 0.38854724 -0.07284666 -0.08885378
0.10936071 0.45107895 0.1732912 -0.5048788 -0.21828698 0.3539906 -0.19073246 -0.24174
-0.35326773 -0.24760918 -0.26859814 0.09469632 0.17622928 0.41279414 0.2758689 -0.026995992
0.27671072 0.25710863 -0.40765288 0.20788975 -0.33748657 0.3135425 -0.22400652 0.12314303

phi.initial_conv_module.0._layers.5.weight f4 [64]
00000000: ce09 7e3f 9051 823f e6d6 7e3f 46a9 843f
00000010: 8a08 7a3f d292 853f e93c 893f c0ef 833f
00000020: 19f9 813f 1e9b 833f 5026 793f 00f7 743f
00000030: df4e 7a3f f7c6 7a3f c3c4 703f 7fc2 753f
00000040: d3c2 733f 7758 6f3f 984e 823f 25e0 7c3f
00000050: 446e 7f3f 7c1f 893f 892c 773f 918f 7c3f
00000060: 94b5 813f c35b 893f 121e 6c3f 8ac8 853f
00000070: ac93 793f 913b 773f 576f 803f c15a 813f
00000080: ba84 853f 192d 803f 6c55 883f a0d5 833f
00000090: bc23 813f 5203 793f 7756 813f 2f57 753f
000000a0: 7a99 813f 1272 7e3f 0e28 843f 2451 7a3f
000000b0: a91f 833f 6159 7c3f 621b 7b3f 4d90 823f
000000c0: 4777 823f 2cc1 7a3f 2023 873f 49a4 7b3f
000000d0: b7e5 793f 2fb7 803f d7b3 833f 1698 813f
000000e0: 4ea6 823f 716d 823f 4427 6f3f fefe 893f
000000f0: 8029 793f 3b5e 7d3f 4778 883f 6925 813f
0.9923371 1.0181141 0.9954666 1.0364158 0.9766928 1.0435431 1.0721713 1.0307541
1.0154144 1.0281713 0.97324085 0.9568939 0.977766 0.97959846 0.94050235 0.959999
0.95219153 0.9349436 1.0180235 0.9877952 0.99777627 1.0712733 0.9655233 0.98656565
1.0133538 1.0731128 0.92233384 1.0451825 0.97490954 0.96575266 1.0033978 1.0105821
1.043113 1.0013763 1.0651069 1.0299568 1.008903 0.9727069 1.0104512 0.95836157
1.0124962 0.9939281 1.0324724 0.9778006 1.0244037 0.9857388 0.9808866 1.0200287
1.019265 0.97951007 1.0557594 0.98297554 0.9761614 1.0055903 1.0289258 1.0124538
1.0207002 1.0189649 0.9341929 1.0780942 0.9732895 0.9897191 1.0661706 1.0089542

phi.initial_conv_module.0._layers.5.bias f4 [64]
00000000: d73c 54bb 9ae2 a53c 9a5b bdbc a27f 8e3c
00000010: 761e b8bc 7268 703c 97f4 443d bfe5 c43d
00000020: 13b7 1a3c 28c7 63bc 0d2a 6dbc 11c5 d4bc
00000030: a45f 583c f859 a4bc a781 10bd faf1 6c3b
00000040: 4add 1bbd f7f9 61bd 0855 893c 93f3 6fbc
00000050: 46da 9f3c 81e9 903c f5c0 12b9 3d29 3d3c
00000060: 0fdd 243d 7f8b 4e3d 621c a3bd 44b6 643d
00000070: 7a07 b7bb 92eb 0dbd 6bfb 21bb 0cd0 febb
00000080: d30d 613d 371a a43c d16c 0f3d 61f2 abbb
00000090: 2fca 553c 2be8 00bc 64e2 fbbb e675 78bc
000000a0: 3783 a2bd 8fe1 083c 215e 7f3d f22b 97bc
000000b0: 4d18 523d eb5d 903c 3a43 d1bc 0b2a 79bb
000000c0: 1dfd 453d d638 233a 216d 893d 1d9a dabc
000000d0: 6166 c3bc e610 5cbd f272 e83b ff23 76bc
000000e0: 7702 973c 140b 943c d033 09bc 10e5 143d
000000f0: 121e 0dbd f11d a63c b56d 4a3d f614 143d
-0.0032384896 0.020249654 -0.023114968 0.017394844 -0.022475462 0.014673339 0.04808482 0.09614133
0.009443062 -0.013902463 -0.014475358 -0.025972875 0.013206396 -0.020062432 -0.035279896 0.0036154971
-0.038052835 -0.055170026 0.016764179 -0.014645475 0.01951326 0.017689468 -0.00013995527 0.0115454765
0.04024988 0.050426003 -0.07964398 0.055837885 -0.005585608 -0.034648485 -0.0024716507 -0.007776266
0.054944824 0.020032031 0.035015885 -0.0052473997 0.013048693 -0.007867853 -0.0076869 -0.015164828
-0.079351835 0.008354559 0.062345628 -0.018453572 0.051292706 0.017622909 -0.025544751 -0.0038019444
0.04833709 0.0006226426 0.06710268 -0.026684815 -0.023852529 -0.053727053 0.0070937807 -0.015023231
0.018433793 0.018071689 -0.0083741695 0.036351264 -0.034452505 0.020277949 0.04942103 0.036152802

phi.initial_conv_module.0._layers.5.running_mean f4 [64]
00000000: 0bb4 f63d bcb7 b2bd 347c 4cbe 69e8 1c3e
00000010: 3398 293e d369 e6bd ce1d ffbd 4edf d6bc
00000020: 72d3 b9bd 76d4 bbbc 7930 8e3d 584e c5bd
00000030: 095a 743d 4342 d43d f3b2 03bc 8a07 27be
00000040: b3cb d43d e714 163d e831 b13d dd15 6d3e
00000050: 0733 d7bd 4729 3dbd 40f4 84bd 6cb4 f53d
00000060: 541e 413d 99ad 15be 9707 8a3c e530 5b3d
00000070: 432d 41bc 78d7 1ebd f79f 253e 18ea 223c
00000080: 58b6 3a3e 1696 ed3b 8000 35bd 6960 20be
00000090: 2c17 093e 9479 a3bd 8961 af3d fa60 9e3c
000000a0: 36b3 a6bc 2bdf 263d b296 bcbd aef8 45bd
000000b0: d89b 743c 56b5 013e 8b11 843d b1a3 0fbe
000000c0: 4837 ccbd 71b6 1b3e 539e 9dbd 3684 cc3c
000000d0: c54c 98bd ac68 94bd f51f 69bd 29bc 0abe
000000e0: 901f 08be 77cd eebc 8819 e6bc 2983 16be
000000f0: 2889 2e3d bbe5 50bd 3e99 093e 8191 603d
0.12046059 -0.08726451 -0.19969255 0.15323032 0.16561966 -0.11250653 -0.12456857 -0.026229527
-0.09073533 -0.022928458 0.06942839 -0.096340835 0.059656177 0.10364201 -0.00803827 -0.1631147
0.10390415 0.036641028 0.08652097 0.23152871 -0.105077796 -0.046181943 -0.064918995 0.11997303
0.047148064 -0.14617004 0.016849322 0.053513426 -0.011790576 -0.038779706 0.16174303 0.009943508
0.18233621 0.0072505577 -0.04418993 -0.15661778 0.13387746 -0.079821736 0.08563525 0.019333351
-0.020349126 0.040740173 -0.0920843 -0.048332863 0.014929734 0.1266683 0.064486586 -0.14027287
-0.099714816 0.15206315 -0.076962136 0.024965387 -0.074365176 -0.07246527 -0.056915242 -0.1354834
-0.1329329 -0.029150708 -0.028088346 -0.14698471 0.04261127 -0.051000338 0.13437364 0.054826263

phi.initial_conv_module.0._layers.5.running_var f4 [64]
00000000: 173b 503e c6aa 563d c282 b03e 573a 5a3e
00000010: 7d57 183e d9bf 023e 218e 4d3e c81e 263d
00000020: 033f ec3d 3749 013c b328 b83d 629a 163e
00000030: 9418 db3c 8490 1e3e 0e9f 1f3c 903c 5c3e
00000040: 41f5 c03d 6670 263d b01a c93d 0359 533f
00000050: f1b6 353e aa24 f73c d4c1 7a3d 5ad5 673e
00000060: 60e9 bb3c 34e7 9a3e db79 0c3c def1 193d
00000070: 37a4 c93b a11d 6f3c 84f0 5a3e 663c 333b
00000080: e4c4 893e 052d 003c 9c42 d63c f7ac 133e
00000090: 1cd1 8b3e 8290 533d 2f08 243e 3a0b 313d
000000a0: 56db 273c d441 5c3c 3399 773d eece df3c
000000b0: dc22 223d 1e34 333e 094f f83d 53db 333e
000000c0: eebe 433e 690e 1c3f 83a6 2a3d 758e bd3c
000000d0: e929 a13d 054a 2f3d a62e 2e3d bf07 293e
000000e0: 59dc 5d3e 36fc 503c 8e12 e53b ffa4 a93d
000000f0: 2ca8 153d f575 a83c ea23 783e e216 2a3d
0.20335041 0.052408956 0.3447476 0.21311317 0.14877124 0.12768497 0.20073749 0.0405567
0.11535456 0.007890991 0.08992138 0.1470733 0.026745118 0.15484816 0.009742511 0.21507478
0.094217785 0.040634535 0.09819543 0.82557696 0.17745568 0.03016885 0.061220005 0.22639981
0.02293843 0.3025452 0.0085739745 0.03758418 0.006153609 0.014594466 0.21380812 0.0027349233
0.26908028 0.0078232335 0.026154809 0.1442145 0.27307975 0.051651485 0.16018747 0.043223597
0.010245165 0.013443429 0.060448837 0.027320351 0.039584026 0.1750035 0.1212445 0.17564134
0.19115803 0.6095949 0.041662704 0.023139218 0.07869322 0.0427952 0.042524956 0.16506861
0.21666087 0.012755444 0.0069907373 0.08283424 0.036537334 0.020564059 0.2423245 0.04152573

phi.initial_conv_module.0._layers.7.se_conv.conv.weight f4 [10, 64, 1]
00000000: 2813 803d 1332 f4bd 55ec c1bd df0b 0abc
00000010: 7be6 f2bd 0c47 a8bd 96a9 e5bd 96e3 113e
00000020: 6625 c13c f629 83bd a6e3 2d3d 08d4 1abe
00000030: 6a87 0cbe 62e3 a7bd 1a4a d8bd 47aa af3d
00000040: 614f a8bd 16a7 1ebc a46b d2bd 53a0 8cbc
00000050: 592a 6cbd 68cb a2bd 6d9b c03d 1f64 df3d
00000060: 4400 b3bd 46fc b53d 73e1 5dbc e5bf 793d
00000070: 6bdd 4b3d 8561 82bd 0232 3c3d e716 3c3d
00000080: 43f3 8ebd 332c bcbd db5e fbbd 483d 813d
00000090: 9d1e dabd 82cc 8abd 66d5 1abd d110 c0bd
000000a0: c046 f9bd 1a64 0f3e 4dd4 ce3d 7196 0c3e
000000b0: 144a 77bd efbc 9bbd a47e 64bd 2b94 f93b
000000c0: 7e68 c5bd c3b7 983d 9a1c a5bd 17f0 963d
000000d0: 1906 e43d 19d6 543c 02bf 373d 256d 9cbd
000000e0: aa27 93bc dca9 97bd 345d 2cbc e818 07bc
000000f0: fca2 92bd 96f2 fabd 75c7 3ebd ee25 523d
00000100: c282 153d 2234 b6bd 0be5 133e ac9f 443e
00000110: b018 28bc 4785 013e 7af3 1c3e caca a4bd
00000120: 4490 9cbd 3797 933d 2418 853d da3d 803d
00000130: 240d 9cbd 623c e43c d757 ba3d fcdc 74bb
00000140: 9d3d 41bb af5d d2bd 50a3 16ba a6d0 ac3d
00000150: 4d64 d9bd 18a2 283c c9c0 063e 8b2f 87bd
00000160: 23b0 063d 1edc 363b 1912 09bd e3bc 863d
00000170: b2a5 06be fb34 503d a942 c1bb 6ab8 023d
00000180: 4921 eabc 555e a53d c467 8bbc 1c91 84bd
00000190: 2276 97bd 4e0d 5dbd b22a 14bd 1328 b33d
000001a0: f200 dbbd e747 06bd 4213 84bd a4db 9ebd
000001b0: bb5f 803c e48c bebd 67e8 2a3d 2da3 4d3d
000001c0: 2b12 2e3d a9d6 063d b148 c43c c8ba 003e
000001d0: b1c8 ac3c 7934 043e 716b cf3d ab9c 013e
000001e0: 1054 133e 6788 9bbd 01fe e5bd 67a4 973d
000001f0: 4c80 823d ed8f 393e 89a6 4f3d 8219 bbbc
00000200: 4186 5c3d cc10 a4bd cf4b b53d 2a5d 89bd
00000210: 9b9b d0bd 5159 24bd 3890 363d 7a59 54be
00000220: 3198 0abd 9bb6 343d b599 bcbd 7e74 bd3d
00000230: e07d b8bd e5a6 d0bd 4903 35be e63f d4bd
00000240: 82a8 d4bd af4e 6c3c 7b75 753d 1154 09be
00000250: fbea c43d e253 02bd 832e e5bc c12f 01bd
00000260: 6751 653d 922e 21be 592d 013d 5335 2cbe
00000270: a1fc bebc 92ed 48bc 3440 813d a295 07be
00000280: 2ca5 e5bc 0ff7 e2bd f470 2dbe 0066 e8bd
00000290: d670 c8bd 8b62 41bb 5cf0 533d 0248 2dbd
000002a0: dbc4 2e3d 84bf b4bd eea1 acbd 459d 3abd
000002b0: 73de 07bc f874 243d 0064 813d 0620 053d
000002c0: dcb8 0fbe 79ab b1bd b49a 373c ebcb 10be
000002d0: 8dec ccbc 6630 823d 96b6 683d 4995 7bbc
000002e0: 9583 7ebc 3eba 02be 5e3a 55bd 6a75 bb3d
000002f0: e36f 13be 84e1 70bc 99be c2bd 422c 9bbd
00000300: 26f5 acbc 7b51 efbd d1f7 5a3c 5f92 04be
00000310: 1ce1 4bbd 424b ba3d 61f0 003e 8fa9 23bd
00000320: 416e cebd 7d6d f5bd b9f1 b4bd dbc9 f1bc
00000330: c561 fc3d 3373 bebd d496 5c3d 5373 043d
00000340: 5421 12bd 7011 b73d 67ac e03d a31c 57bd
00000350: 132c 83bc 000b 4dbd 5898 d13c c329 9d3d
00000360: 0905 a1bd 9acc d8bd e7f4 2fbe 76bb 893d
00000370: 5de2 da3d b52c f23d 8b1b 3ebd 844e 8d3d
00000380: 1fe4 11bd 7081 e03c 5b51 4d3d fe2c edbd
00000390: 7bc9 4d3d 895d 083d ce8d d9bd d056 093e
000003a0: db6a ba3d f2d1 a43d 2277 213c 4af0 b0bd
000003b0: 2a75 87bd db4a d13c f80a afbd 7b26 e63d
000003c0: 10a4 d23d 2c0a 8b3d 2408 82bd 3e5e 8c3d
000003d0: 51c8 ce3d 8656 abbb 07e0 9ebc 04cd 8cbd
000003e0: 528f 8cbb 5ea4 12be 7620 703d e5d4 4a3d
000003f0: 82aa 233b 54a1 41bd b810 c5bd 7865 a23d
0.06253654 -0.119236134 -0.09468905 -0.008425682 -0.11860367 -0.08216676 -0.112139866 0.14246973
0.023577403 -0.06404488 0.04245343 -0.15119946 -0.13723531 -0.08197667 -0.10561009 0.085774
-0.08218265 -0.009683391 -0.10274437 -0.017166292 -0.057657573 -0.07948953 0.09404645 0.109077685
-0.08740285 0.08886008 -0.013542521 0.06097402 0.049771708 -0.063662566 0.04594613 0.04592028
-0.06979992 -0.09188118 -0.122739516 0.063105166 -0.1065037 -0.06777288 -0.03780117 -0.093782075
-0.121716976 0.1400303 0.10099087 0.13729264 -0.06037338 -0.076043956 -0.055784836 0.00761654
-0.09639071 0.07456925 -0.08062096 0.07370012 0.111339755 0.012990498 0.044859894 -0.07638005
-0.01796325 -0.07405445 -0.010520268 -0.008245684 -0.07159993 -0.12253301 -0.046576936 0.051305704
0.036501653 -0.08896662 0.14442842 0.19201535 -0.010259792 0.12648498 0.15327254 -0.080464914
-0.07644704 0.07206576 0.06498745 0.06261797 -0.07619694 0.027860824 0.09098785 -0.0037363162
-0.0029486187 -0.10271775 -0.00057463814 0.08438234 -0.10614834 0.010292552 0.13159479 -0.06600865
0.03288282 0.0027902196 -0.033464525 0.06578996 -0.13149145 0.050831776 -0.005897839 0.031914152
-0.028580325 0.08074633 -0.017017253 -0.0647299 -0.07395579 -0.053967766 -0.03617353 0.08747878
-0.1069354 -0.032783415 -0.06448986 -0.07756737 0.015670648 -0.093042165 0.041725542 0.050204445
0.042497795 0.03291956 0.023960443 0.12571251 0.02109179 0.12910642 0.10127915 0.1265742
0.14387536 -0.07594376 -0.11230088 0.07404404 0.06372127 0.1812131 0.05069593 -0.022839312
0.053838972 -0.08011016 0.0885235 -0.06707223 -0.101859294 -0.04012424 0.04457113 -0.20737258
-0.033836547 0.04411946 -0.09209005 0.09250735 -0.09008384 -0.101880826 -0.17677034 -0.1036375
-0.10383703 0.0144230565 0.05992649 -0.13410975 0.096151315 -0.031818278 -0.02797628 -0.031539682
0.055985834 -0.15740421 0.031537388 -0.16817217 -0.023313822 -0.012263672 0.06311074 -0.13240674
-0.028032862 -0.11082279 -0.1693762 -0.1134758 -0.09787147 -0.00295082 0.051742896 -0.042305
0.042668205 -0.08825591 -0.08429323 -0.04556014 -0.008292782 0.040150613 0.063179016 0.032501243
-0.14035362 -0.08675284 0.011206318 -0.14140289 -0.02501514 0.063568875 0.056814753 -0.015355417
-0.015534301 -0.12766358 -0.052057616 0.09153254 -0.1439815 -0.014702205 -0.0950901 -0.07576801
-0.02111299 -0.11685463 0.013364748 -0.12946461 -0.049775228 0.090963855 0.12591697 -0.039956626
-0.10079623 -0.11983774 -0.088351674 -0.029515198 0.123233356 -0.09299316 0.05385478 0.032336544
-0.035676315 0.08938873 0.10970383 -0.052517544 -0.016012227 -0.05005932 0.025585338 0.07673981
-0.078622885 -0.105859 -0.17183267 0.067252085 0.106877066 0.118249334 -0.046412986 0.06899741
-0.035617944 0.02740547 0.050126415 -0.11580847 0.050240975 0.033292327 -0.1062275 0.13412023
0.09102412 0.080478564 0.009855064 -0.086395815 -0.06614144 0.02554839 -0.08547014 0.11237808
0.10285199 0.067890495 -0.06349209 0.06853913 0.10096801 -0.0052288203 -0.019393934 -0.06875041
-0.004289546 -0.14320514 0.058624707 0.04951944 0.0024973457 -0.047272995 -0.096223295 0.0792951

phi.initial_conv_module.0._layers.7.se_conv2.conv.weight f4 [64, 10, 1]
00000000: 340c 1abe 7d12 c13d 7b63 85bd c028 97bd
00000010: e2a2 0abe 2560 833d f00b 81be 26e1 953e
00000020: b437 26bd 1ccc b13d c232 8d3d 94e6 02be
00000030: 6008 483e 888e 1abc 390f 8a3d 2226 abbe
00000040: 164f 933d 520e a53d 443c b13d 05b2 ef39
00000050: 6d3e 823e 45d8 533e 09be 543e 2ed1 41bd
00000060: 8f51 4d3d 92ab 70be a216 8ebe 2733 6fbd
00000070: 6d5a cc3c e7c1 6bbe 2cce 9dbe 67f0 263e
00000080: f7f9 143e 15c2 76be a00a 6e3e 07e0 81be
00000090: 7cf2 743e 2422 353e d694 30be c6bf 843e
000000a0: 1f8e 25be f062 0bbe 016f 873e f47d 02be
000000b0: 9a0e 2ebe c7f8 0b3d e192 b6bd 56e0 3e3e
000000c0: c5aa 6b3e 76c4 f13d 2785 713b a181 033e
000000d0: bd37 90bd 5533 cf3c ebdd fd3d b139 0f3e
000000e0: 59d1 543e 9eea 8abd 7396 d33d 37f5 cb3c
000000f0: a0fb 263c 5e19 993e 015c 97be c265 d4bc
00000100: 2be9 1f3d 12d8 cabe e4dd 47be d0d5 e1bd
00000110: 1729 4c3e a8d9 67be ba55 0a3d 57c2 4e3e
00000120: 5b59 98be e908 173e 869c 1f3e c0dc b0be
00000130: 205a 3f3d 0024 a3be e42e 873e b4dc 493e
00000140: f529 3f3d 2858 a93e 006e 7f3e f867 833e
00000150: 3eba 243e 8c22 84be b580 913e 8206 ff3d
00000160: 6d4a 01be 733e 96bd 3385 8b3e 9158 113e
00000170: 5e98 603e df73 a3bc 5678 b53e 4803 a4be
00000180: 8199 5a3d c97e 823d d483 96bd ce0b 8b3e
00000190: fd29 4c3d ee56 d33b 3694 683e 1c19 ac3c
000001a0: dc1b 18bb bf59 84be af49 78bc d934 b2bd
000001b0: ab7d 333e 6805 913e 0fb7 7fbe f2d9 8cbe
000001c0: 1c5e b73e 51aa 37be 6664 6d3e 492c c53e
000001d0: 4820 bdbd 6460 97be e7d9 213e ab40 9f3d
000001e0: 6abf a13e cbcb 2c3c fe33 353e 2c06 9dbe
000001f0: a815 323d f7ea 083e 63a4 243e f779 14be
00000200: c530 2abd 2df4 6dbe da8f 38be e605 223e
00000210: 00bb 0e3e eb24 923d bf98 8dbd 29ee ef3b
00000220: 895e 8dbd 98c4 733e b4cf 94be 8684 303d
00000230: a187 543e 5a29 233e fd97 e3bd 4de1 743e
00000240: 07f5 85be be84 683e 89a8 573e 9eaf 233d
00000250: fb7b 943d 20cf 8fbe afe2 cdbd df7c 53be
00000260: bcc4 96be 406b 83bd 6e53 2a3e 00c5 ed3c
00000270: 322e a13e c139 a1be 7b39 2d3e e855 953e
00000280: a382 b33e 5eff 3ebe 9185 8abe a5e6 05be
00000290: f1a2 433e a308 c43d 3353 8c3e 742d 68be
000002a0: b1ff 3bbe 5109 2f3e 8728 1b3e 41f7 32be
000002b0: d89c b13e 4be6 56be c456 a3be e590 f33d
000002c0: b1a2 62be b5a0 16be cc88 5ebe ef66 833d
000002d0: fed2 dd3d f461 713e e023 58be 9f85 f0bd
000002e0: ec7c af3e af11 60be 094f 9cbd 20d8 93bd
000002f0: be32 9cbe b35f 63be 5ae6 743e 922f b43c
00000300: 41cd 893d 1879 093e b958 373e b2b1 893e
00000310: 093c 4e3e 1296 1d3e 8a76 7d3e 83ac 833e
00000320: 0e99 e3bd eb11 303d cfe8 39be 5f70 8ebe
00000330: 9b55 9e3e 60a2 83be 68bc 2fbe a101 b1be
00000340: 358b 83be 59a5 b13d cce8 a33d da8e 8bbe
00000350: 7ee9 79bd 2686 55be d005 0b3e e38d 133e
00000360: 1f09 99bd 07a0 18be 97dd 6c3e a72b 08be
00000370: 0d69 5cbd 0438 9cbe f854 7b3e 4e91 943d
00000380: 03b9 41be e77b 973e ba92 9e3e 9df9 f03d
00000390: d895 46be 66c2 85bc b13a 843e 474e 7a3e
000003a0: 6ff2 a4bd 7d5c 2d3e 1e69 5bbe f443 af3d
000003b0: 1781 743e baad 8c3d a55c 84be d69e b33d
000003c0: d63b 223e 4ed6 613e 2aa6 6fbe 1619 23bd
000003d0: 914b ba3c 67eb acbd 784a 40bd 5c29 f4bd
000003e0: bf82 a43d 629c 3b3e ed5c f4bd d750 563e
000003f0: 913c a3bd 9895 ed3d 1ba5 243e 08f7 27be
-0.15043718 0.094273545 -0.06513115 -0.07380819 -0.13538697 0.064148225 -0.2520442 0.29273337
-0.040580466 0.08681509 0.06894447 -0.12783271 0.19534445 -0.009433396 0.06741185 -0.3342753
0.07192819 0.08059372 0.08654073 0.00045718267 0.25438252 0.20687969 0.20775618 -0.04731863
0.05012661 -0.23502949 -0.27751642 -0.058398392 0.024945462 -0.23023187 -0.3082136 0.16302644
0.14548479 -0.24097474 0.2324624 -0.25366232 0.23920625 0.17688805 -0.17244276 0.25927562
-0.16167496 -0.1361196 0.26451877 -0.1274336 -0.16997758 0.0341728 -0.08914734 0.18640265
0.23014362 0.1180505 0.0036853047 0.12842418 -0.07041881 0.025293032 0.12395843 0.13986851
0.20782985 -0.06783031 0.1033143 0.024897201 0.010191828 0.29902166 -0.2956238 -0.025927428
0.039040726 -0.39617974 -0.19518238 -0.110271096 0.1993755 -0.22641623 0.03377316 0.20191322
-0.29755673 0.14749493 0.15587053 -0.3454342 0.04671681 -0.31863403 0.26402962 0.19713098
0.046670873 0.3307507 0.24944305 0.2566526 0.16086671 -0.25807607 0.28418508 0.12452413
-0.12626047 -0.0733613 0.2725006 0.14193942 0.21933123 -0.019952713 0.35443372 -0.32033753
0.05336905 0.063718386 -0.07349363 0.27157444 0.04984473 0.006449572 0.22712788 0.021008067
-0.0023209965 -0.2584972 -0.015154286 -0.08701486 0.17528407 0.28324437 -0.24972175 -0.2751003
0.35813987 -0.17936064 0.2318283 0.3851035 -0.09234673 -0.29565728 0.1580578 0.07776006
0.3159135 0.010546635 0.17695615 -0.3066877 0.043477684 0.13370882 0.16078334 -0.14499651
-0.041550416 -0.23237677 -0.18023625 0.15822563 0.13938522 0.07135948 -0.069139 0.007322092
-0.06902797 0.23805463 -0.29064715 0.043095134 0.20754863 0.15933743 -0.11112974 0.2391407
-0.26163504 0.22706887 0.21060385 0.039962403 0.0725021 -0.2808771 -0.10053002 -0.20653103
-0.2944697 -0.06416941 0.16633388 0.029024601 0.31480557 -0.31489375 0.16916458 0.29167104
0.35060605 -0.18652102 -0.27055028 -0.13076265 0.19105126 0.0957196 0.27407226 -0.22673589
-0.18359257 0.17093398 0.15152179 -0.17477132 0.34689975 -0.20986287 -0.31902134 0.11892871
-0.22132374 -0.14709742 -0.21731871 0.064161174 0.10831259 0.23572522 -0.21107435 -0.11744236
0.34274995 -0.21881746 -0.07632262 -0.07218957 -0.30507463 -0.22204475 0.23915997 0.02199534
0.06728602 0.134251 0.17904939 0.26893383 0.20140089 0.15389279 0.2475225 0.25717553
-0.11113177 0.042985838 -0.18155216 -0.27820107 0.30924687 -0.2570982 -0.17161715 -0.34571555
-0.25692144 0.08674116 0.08003387 -0.27257425 -0.06101369 -0.20851955 0.13576436 0.14409594
-0.07472443 -0.14904796 0.23131405 -0.13297902 -0.05381112 -0.30511487 0.24544132 0.07254277
-0.18918233 0.29586717 0.30971318 0.1176636 -0.19393098 -0.016328048 0.25826028 0.24443923
-0.08054053 0.16929813 -0.21426818 0.08557883 0.23877369 0.06869073 -0.25851932 0.0877053
0.15843138 0.22054407 -0.2340323 -0.039818846 0.022741111 -0.08443337 -0.04694602 -0.11921951
0.0803275 0.18321374 -0.11931787 0.20929275 -0.079705365 0.11600798 0.16078608 -0.16402829

phi.initial_conv_module.0._layers.8.conv.weight f4 [32, 64, 1]
00000000: e9cb 28bc 28a6 003e 3e7e 9d3d fb7f f6bc
00000010: ccc6 b8bd 3f93 193e 22e3 413d 410c fd3d
00000020: 84a7 9abd d016 dc3c d637 2bbd f139 e13b
00000030: cbc5 e1bd 16d8 eebd 4642 983c 0501 043e
00000040: 6448 143c 6caa 8f3c a72c fd3d 6ed9 1a3c
00000050: ef31 b6bd 2e96 053e cdb4 643d 7912 cb3d
00000060: fd3b a33d a977 0e3e 50a4 62bd 7800 a83d
00000070: 29ae 0cbd 7e50 83bb 065f 043d c340 d5bd
00000080: 7e84 0f3e b724 84bd 0e64 683c 5f83 113d
00000090: 0808 8fbd c7bf 923b 4fd1 bc3b b5d4 043e
000000a0: ddcd 2bbd b39f 9b3d 05ba 00bd ed7b 8cbd
000000b0: e146 f93d 7416 2cbd 3e14 c0bd 7993 b93c
000000c0: 75cb a1bc 90b1 b43c eeb8 7fbc 1134 e4bc
000000d0: 7eeb 913d d0f1 9e3d 3e31 b13d bf84 d43c
000000e0: b282 8f3b 044e 633b 5b83 7dbc 41fa dcbc
000000f0: 6e6d 403c ed21 293c 06f6 da3d be7a 723d
00000100: 2e4b bd3c 9f69 c3bd b3db ea3d 4acd 573c
00000110: 5390 0abe 358c fc3d 1bbe c43c bf08 d9bd
00000120: 766a 0abb c4b7 f7bc 2f53 ac3d ef61 cbbd
00000130: 30c7 473d 7d02 6d3d ac0a 623d 4c59 34bd
00000140: 7971 e13c b4bf 973c 0c7a fe3d 9776 68bd
00000150: 0734 c8bd 4b01 d7bd 8528 843c 4416 19be
00000160: 27af 1bbd 2cf3 9fbd 425d 223d 433f 74bd
00000170: 2391 1e3d 0340 15be 566d f6bc c1e7 743c
00000180: 428e 46be b890 0a3c 6d55 e6bd 1ed3 4cbd
00000190: 547d 0b3e 09ea c0bc ac0a 383c c821 09bd
000001a0: 2ef3 e93c 4906 b13d b349 1d3e fd7e 6dbd
000001b0: a7d1 c6bd ab59 ddbd 1e46 003d 68fa 9bbc
000001c0: 3011 903d b39a 493d 413b 0e3e 6c4d b2bd
000001d0: 78e1 04be 7c14 3d3c 9712 2f3e dab4 0dbe
000001e0: d960 443d 3595 a03b 9af6 763d 856b e53d
000001f0: 4ec6 113e f965 d73d a7fd 1ebd a629 f3bd
00000200: cb2a f13b 59be 913d 43a1 843c 4ec6 40bd
00000210: 242e 35bd 6844 14bd 3cec 793c fec7 35bd
00000220: 1ec7 b93d b5a9 2dbc ada9 8fbd a0ee 1dbd
00000230: 21f0 abbd ae45 d3bd 99a6 fb3c 6422 35bc
00000240: 7940 b6bd b5b4 95bc b4cf 313c 7f30 3a3d
00000250: d7b2 19be 6816 0ebd 9117 f0bc 284f 8cbd
00000260: ce30 2d3e eeca 96bd bd8f af3d 41de 533d
00000270: befa 33bd 986e 2d3d 548a f9bd b7c8 99bc
00000280: 8550 81bd 15c3 01be 12eb e03d 0513 d23d
00000290: 89b3 08be 1ac0 5fbc 6e88 a8bd 41fc cc3b
000002a0: 04fb a1bd 4a55 03be c67a 78bd 13df 043e
000002b0: 9ba0 2f3d 7aeb 72bd 2da6 8a3d 6a6b c63d
000002c0: 8da6 c93d 5ec8 05bd ba0e 15bd abcb 5e3d
000002d0: 59eb 5f3d c1a8 153d 71ef c13c f669 1abc
000002e0: 3065 123e 7e31 383b 44f0 a93d 9ce8 2a3e
000002f0: ba58 9a3d 1eb2 b83d a542 1b3e 934e 89bc
00000300: cc95 adbc 2c71 7dbd edb4 8cbd e729 943d
00000310: 6634 bc3c 6874 76bd 47a9 bfbd 2c99 c2bd
00000320: 6b4f ac3a bd65 f93d 0d31 0d3d 5346 893d
00000330: b777 0b3e 6030 9e3c 7fcf d639 0628 81bd
00000340: 01bc b93d 669f a9bc a7ba 76bd 8852 c23c
00000350: 3ab6 8a3d d687 e8bd 0e40 603d 346c 18be
00000360: bd67 463d 5047 563c e237 0c3d 2d5d 9fbd
00000370: cfe5 cabd 306e ac3d dc1a dc3d 1bb1 20bc
00000380: 28a5 af3d 7c82 66bd 5842 313c 6d1b bb3c
00000390: 0250 e43d 1db2 babd b4dd d5bc 9246 29bd
000003a0: 3cea 8cbd 5226 27bd 3994 ee3a fb59 873d
000003b0: 5fe6 b3bd f6d5 fd3d da7f d23d 7b4e b03c
000003c0: 353e b33c 9fda 243d 2a42 16be 4a8c ad3d
000003d0: d180 80bc 8267 22bd 3383 4b3d b934 803d
000003e0: 2b63 96bd c9df 0dbe c5cc 0bbe 5585 dcbd
000003f0: 137c 773c 8d77 bfbd c3b3 5f3c 80ce b2bd
-0.010302522 0.12563384 0.076900944 -0.030090323 -0.090222925 0.14997576 0.04733575 0.12355853
-0.07551482 0.026866347 -0.041801296 0.006873362 -0.11024054 -0.11662309 0.01858629 0.12891014
0.009050462 0.017537318 0.123620324 0.009451253 -0.08896243 0.1304557 0.055836488 0.09915633
0.07970426 0.13912834 -0.05533248 0.082032144 -0.03434578 -0.004007398 0.032317184 -0.10412743
0.14015386 -0.06452315 0.014184011 0.035525676 -0.06983954 0.004478428 0.005762256 0.12971766
-0.041944373 0.075988196 -0.031427402 -0.068595745 0.12171722 -0.0420136 -0.09378861 0.022653328
-0.019750336 0.022057325 -0.0156080555 -0.027856858 0.07124995 0.07760966 0.0865197 0.025942205
0.004379594 0.0034683952 -0.015473212 -0.0269748 0.01174484 0.01032303 0.106914565 0.059199087
0.023107138 -0.0954163 0.114676856 0.013171503 -0.13531618 0.1233143 0.02401643 -0.10597371
-0.0021120585 -0.030238993 0.084143035 -0.09930789 0.048773944 0.0578637 0.05518596 -0.044030473
0.027519928 0.018524028 0.12425622 -0.05675372 -0.097755484 -0.104982935 0.016132602 -0.149499
-0.038008835 -0.07810053 0.03963972 -0.059630644 0.038712632 -0.145752 -0.030081432 0.014947833
-0.19390205 0.008457355 -0.112467624 -0.050006025 0.13622028 -0.023549097 0.011233013 -0.033479482
0.02855834 0.08643777 0.15360145 -0.057982434 -0.09707957 -0.108081184 0.03131687 -0.019040301
0.07034528 0.0492198 0.13889791 -0.08706173 -0.12976635 0.011540528 0.17096935 -0.1383852
0.047943924 0.0049005994 0.06029377 0.11202148 0.14235803 0.105174966 -0.03881612 -0.11873178
0.0073598376 0.07116384 0.016190177 -0.047064118 -0.044233456 -0.03619805 0.015254077 -0.04438018
0.09071182 -0.010599543 -0.07014785 -0.03855765 -0.0839541 -0.10316025 0.030719088 -0.011055563
-0.08899016 -0.018274644 0.010852743 0.045456406 -0.15009628 -0.034689337 -0.029308112 -0.06851035
0.16913149 -0.073629245 0.08572338 0.05172563 -0.0439403 0.0423418 -0.12184587 -0.018772466
-0.06314186 -0.12672074 0.10982336 0.10257534 -0.13349737 -0.01365664 -0.08229147 0.006255657
-0.079092056 -0.12825504 -0.06066396 0.12975721 0.042877775 -0.0593066 0.06769977 0.09688456
0.0984622 -0.03266179 -0.036390997 0.05439345 0.054667804 0.03653789 0.023673745 -0.009424677
0.14296412 0.0028105672 0.0829778 0.16690296 0.075364545 0.09018348 0.15162142 -0.0167611
-0.021189593 -0.061875507 -0.06870446 0.07234555 0.022974204 -0.060169607 -0.09358459 -0.095018715
0.0013146227 0.12177608 0.034470607 0.067028664 0.13619886 0.019310176 0.00040971857 -0.06306462
0.09069062 -0.02070589 -0.0602366 0.023720995 0.06773038 -0.11354034 0.054748587 -0.14885026
0.048438776 0.013078526 0.03423298 -0.07781444 -0.09907114 0.08419454 0.107473105 -0.00980785
0.08576423 -0.056276783 0.01081904 0.022840226 0.11148073 -0.09116004 -0.026106693 -0.041327067
-0.06880614 -0.04080803 0.0018202133 0.06608959 -0.08784174 0.123943254 0.10278292 0.021521797
0.021880249 0.040247556 -0.14673677 0.08474024 -0.015686424 -0.039649494 0.04968567 0.06260056
-0.073431335 -0.13854899 -0.13652332 -0.107676186 0.015105265 -0.093489744 0.013653698 -0.08730793
